model/AutoY/IAAcheckpoint2.pt (torch, 34275 bytes, 51 tensors)

conv1.0.weight f4 [12, 15, 2]
0	0x3df96bd6	0.12178771
1	0xbe085e62	-0.13317254
2	0x3d77a77b	0.060462456
3	0x3d4e8d9c	0.050428018
4	0xbc9528e7	-0.01820798
5	0xbe447307	-0.19184504
6	0xbdbba558	-0.09162396
7	0x3e1a279c	0.15054172
8	0x3d7d6dee	0.061872415
9	0x3e2d25f4	0.16909009
10	0x3db85bb9	0.0900187
11	0x3e204ffd	0.15655513
12	0xbe233766	-0.15939102
13	0x3ca29db5	0.019850591
14	0x3d9ea02b	0.07745393
15	0xbd94a32a	-0.072576836
16	0x3d81848a	0.06324108
17	0x3e0f5faf	0.14001344
18	0xbe0f2297	-0.13978039
19	0x3dcbb131	0.09945906
20	0xbd55f8e6	-0.05223932
21	0x3c9a5e1c	0.018843703
22	0x3df08e59	0.11745901
23	0xbd603472	-0.054737516
24	0x3d45a575	0.048253495
25	0x3cf3704c	0.029716633
26	0xbe35ad4e	-0.17741892
27	0xbdd8f011	-0.10592664
28	0xbdc1015a	-0.09424086
29	0xbdd88926	-0.10573034
30	0xbe230b77	-0.15922342
31	0x3e01e667	0.12685548
32	0x3de8892a	0.11354287
33	0xbdaf8000	-0.08569336
34	0xbd3a98c8	-0.04555586
35	0xbe27c07e	-0.16382024
36	0xbd349e44	-0.044096246
37	0xbdc33636	-0.09531824
38	0xbd9ca986	-0.076495215
39	0x3d2b71ad	0.041856457
40	0x3d150bb3	0.03638811
41	0xbe063401	-0.13105775
42	0x3e3313da	0.17488042
43	0xbd60abf5	-0.05485149
44	0xbe01aac9	-0.12662806
45	0xbe157a82	-0.14597514
46	0xbe38b059	-0.18036021
47	0x3d9b2da0	0.07577062
48	0x3d77b86b	0.06047861
49	0x3e32c8f7	0.17459475
50	0x3cde4208	0.027131096
51	0xb86bde6c	-5.6235513e-05
52	0xbd525d4b	-0.051358502
53	0x3e71737b	0.23579209
54	0x3e2354a8	0.15950263
55	0x3e2f49b0	0.17117953
56	0x3e42115e	0.18951938
57	0x3dd2449b	0.10266992
58	0x3dbffbb1	0.09374178
59	0xbe28a8a3	-0.1647058
60	0x3d46c367	0.048526194
61	0xbc27cf8f	-0.010242357
62	0xbdf5edd0	-0.1200825
63	0xbdaeaee2	-0.0852945
64	0xbe2f4e9e	-0.17119834
65	0x3dabccb1	0.08388651
66	0x3dd70d16	0.10500543
67	0xba466ade	-0.0007569025
68	0xbdd2731a	-0.1027586
69	0xbdf760f6	-0.12079041
70	0x3d81f40a	0.06345375
71	0xbcd3ea72	-0.025868628
72	0x3c73e497	0.014886043
73	0x3d7d0a3e	0.061777346
74	0x3e177452	0.14790466
75	0x3db04f09	0.08608825
76	0xbde10a9c	-0.10988352
77	0x3db7999c	0.089648455
78	0xbcbe6218	-0.023240134
79	0xbdffa967	-0.12483483
80	0x3ddb97f8	0.10722345
81	0xbb127bc3	-0.00223516
82	0xbd9ff703	-0.078107856
83	0x3b987d28	0.0046535917
84	0x3e05f8ad	0.13083144
85	0xbe110657	-0.14162575
86	0xbda2d83a	-0.07951398
87	0x3d92cb6a	0.071677044
88	0xbd9d121b	-0.07669469
89	0xbe36e256	-0.17859778
90	0xbdbe1bc6	-0.09282641
91	0x3e248c51	0.16069151
92	0x3e035b1e	0.12827727
93	0x3dcd6955	0.10029856
94	0x3d3538ed	0.04424374
95	0x3d1e2e5a	0.038618423
96	0xbdd48292	-0.10376467
97	0x3d30889c	0.04309903
98	0xbda2168f	-0.07914459
99	0xbe0c7b63	-0.13718943
100	0xbd933314	-0.07187477
101	0xbe0baba7	-0.13639699
102	0xbd98fd52	-0.07470192
103	0xbd96f2c6	-0.07370524
104	0xbd148d1e	-0.036267392
105	0x3d8fae7c	0.07015702
106	0x3d423783	0.04741622
107	0x3c2cbbda	0.010542834
108	0xbe6dbec9	-0.2321731
109	0xbd205806	-0.039146446
110	0xbdf00266	-0.117192075
111	0xbdd12604	-0.10212329
112	0xbe28dbde	-0.16490123
113	0x3dea5d1d	0.11443541
114	0xbe27c799	-0.16384734
115	0x3c893c0b	0.016752264
116	0x3cf20f5f	0.029548345
117	0xbe0d9bc0	-0.13828945
118	0xbe31364f	-0.17305873
119	0xbe3793f0	-0.17927527
120	0x3d794058	0.06085238
121	0xbc9a40c2	-0.018829707
122	0xbe060bc6	-0.13090429
123	0xbe0ec8d3	-0.13943796
124	0x3e110e92	0.14165714
125	0x3d8e00d4	0.06933752
126	0x3d3e78f7	0.04650208
127	0xbd467395	-0.04845007
128	0xbdac7639	-0.08420987
129	0xbd52fc17	-0.051509943
130	0xbe003760	-0.12521124
131	0x3e1ee0b1	0.155154
132	0x3e27c763	0.16384654
133	0xbc73ac7f	-0.014872669
134	0x3de7d5ee	0.11320101
135	0x3d75bd9b	0.059995275
136	0xbd7d26c4	-0.061804548
137	0x3de9da66	0.11418609
138	0x3defc31a	0.117071345
139	0x3dda220a	0.10651024
140	0x3e1e724f	0.15473293
141	0x3cc995a5	0.024607489
142	0xbd8e81fc	-0.06958386
143	0xbdb58dbf	-0.088649265
144	0x3c9ab68d	0.018885875
145	0x3daf0be1	0.085471876
146	0xbdc6a966	-0.09700279
147	0xbdd67490	-0.10471451
148	0x3cdc96eb	0.026927432
149	0xbe3ce4f6	-0.18446717
150	0xbe1d52e1	-0.15363647
151	0x3d3e32db	0.04643522
152	0x3e1839cb	0.14865796
153	0xbdf5b424	-0.1199725
154	0x3d2f1c85	0.042751808
155	0x3e0ba43e	0.13636872
156	0x3ccc509e	0.024940785
157	0x3e16a809	0.14712538
158	0xbd433492	-0.047657557
159	0x3bcfac76	0.0063376976
160	0x3c3d3b64	0.011549804
161	0x3d0adf85	0.03390457
162	0x3e263025	0.16229303
163	0x3d2b19f2	0.04177279
164	0x3d8a4a84	0.06752494
165	0x3df204b8	0.11817306
166	0xbe019e71	-0.12658097
167	0xbde02474	-0.10944453
168	0x3e1db6e7	0.15401803
169	0x3dc4a884	0.09602454
170	0xbe11ee84	-0.14251143
171	0xbe18f539	-0.14937295
172	0xbdc4b09b	-0.09603997
173	0x3c7d67ec	0.015466671
174	0xbdcf167b	-0.1011171
175	0xbdfa9eba	-0.12237306
176	0x3c04892c	0.008089345
177	0x3d5b2417	0.053501215
178	0x3dc3bc96	0.09557454
179	0xbcac28d4	-0.021015562
180	0xbe20f221	-0.15717365
181	0x3d4bb42c	0.049732372
182	0x3d8df160	0.06930804
183	0xbda636b0	-0.081158996
184	0x3ddb1898	0.1069805
185	0x3e59b5fd	0.2126083
186	0xbe128f09	-0.14312376
187	0x3d528172	0.05139298
188	0xbcca9e34	-0.02473364
189	0xbe0022a1	-0.1251321
190	0x3d49c132	0.04925651
191	0xbdbd0ee1	-0.092313536
192	0x3c9e43a7	0.019319369
193	0xbe16b482	-0.14717296
194	0xbd641960	-0.055688262
195	0x3da00ea0	0.078152895
196	0xbd4609f8	-0.04834935
197	0x3dd64d60	0.10463977
198	0x3d279165	0.040910143
199	0xbe17e737	-0.14834295
200	0xbd867444	-0.06565145
201	0xbdb38ccc	-0.08767089
202	0xbdab163c	-0.0835385
203	0xbe2fcd94	-0.17168266
204	0x3e4ee4ac	0.20204419
205	0x3c2f8c3e	0.010714589
206	0x3e0129fe	0.12613675
207	0xbe514104	-0.20434958
208	0x3d8a0524	0.06739262
209	0xbe1bee0c	-0.15227526
210	0xbd31b497	-0.043385115
211	0x3e116b02	0.14200976
212	0xbdf9867c	-0.12183854
213	0x3d735f16	0.059416853
214	0xbdfbf3bb	-0.12302347
215	0x3d80eb41	0.06294871
216	0x3cec2bdb	0.028829506
217	0xba28ca68	-0.0006438852
218	0xbe0c2a04	-0.13687903
219	0xbd8b8bc1	-0.06813765
220	0xbda42c47	-0.08016258
221	0x3d6f45ff	0.058416363
222	0x3d6a77e2	0.057243235
223	0xbc8d9edd	-0.017287666
224	0x3dcabb58	0.09899014
225	0xbd40d671	-0.047079507
226	0x3cb59c05	0.022169122
227	0xbe142760	-0.14468145
228	0xbbae8b48	-0.005326662
229	0x3d76996d	0.060204912
230	0xbe0a0b50	-0.13480878
231	0x3df7bd40	0.120966434
232	0xbd0e23da	-0.03470216
233	0xbe570a08	-0.2099992
234	0xbce576dc	-0.028010778
235	0xbdd21045	-0.102570094
236	0xbe0eb3d0	-0.1393578
237	0xbde7ac92	-0.11312212
238	0x3de3e71d	0.11128066
239	0xbd84dfcc	-0.06487998
240	0xbd99c92f	-0.07509076
241	0x3d7caedc	0.061690196
242	0xbd18555b	-0.037190776
243	0x3bf73257	0.007543843
244	0x3e39b242	0.18134406
245	0x3cae6004	0.021286018
246	0xbd9b915e	-0.07596086
247	0x3deae891	0.1147014
248	0x3b3ee09a	0.0029125572
249	0xbc895ea5	-0.016768763
250	0x3dbae849	0.09126336
251	0xbc77517b	-0.01509511
252	0xbdd8843a	-0.10572095
253	0x3d546fd6	0.051864468
254	0xbd8330d4	-0.064057976
255	0xbe1c0693	-0.15236883

conv1.0.bias f4 [12]
0	0x3d85e208	0.06537253
1	0x3de2c0f8	0.11071962
2	0xbdde6af3	-0.10860243
3	0xbbdffe7a	-0.006835756
4	0xbdd070c6	-0.1017776
5	0xbdc6ce80	-0.097073555
6	0x3de90c4a	0.11379297
7	0x3df99572	0.121867076
8	0xbc8bb0f7	-0.017052157
9	0xbc1959da	-0.009359801
10	0xbacb4d05	-0.0015510625
11	0x3de64d7d	0.112452485

conv1.1.weight f4 [12]
0	0x3f7e44a8	0.9932351
1	0x3f7c1d1c	0.9848192
2	0x3f800cd0	1.000391
3	0x3f7ec567	0.9951996
4	0x3f7e273c	0.99278617
5	0x3f814529	1.0099231
6	0x3f82950b	1.0201734
7	0x3f85a20e	1.044008
8	0x3f81f813	1.0153831
9	0x3f6dacfa	0.92842066
10	0x3f75d449	0.96027046
11	0x3f7ea8f9	0.9947658

conv1.1.bias f4 [12]
0	0x3d84bb15	0.064809956
1	0x3d77fd63	0.060544383
2	0xbc9610eb	-0.018318614
3	0xbd7ac6d4	-0.061224774
4	0x3c29542b	0.010335009
5	0x3cc10e18	0.02356629
6	0x3c7bad9a	0.015361214
7	0x3da4a880	0.08039951
8	0x3d541140	0.051774263
9	0xbd7b6956	-0.061379753
10	0xbc73b590	-0.014874831
11	0x39a78ad4	0.00031956157

conv1.1.running_mean f4 [12]
0	0xbe00d166	-0.12579879
1	0x3d11bc43	0.03557993
2	0xbe044404	-0.12916571
3	0x3f3ad2dd	0.72978
4	0xbe23c0d7	-0.15991531
5	0xbeb61f24	-0.35570633
6	0x3f115d75	0.5678323
7	0xbc0b135d	-0.008488503
8	0xbe53585f	-0.2063918
9	0x3f3fb0fc	0.7487943
10	0xbe2c96bc	-0.16854376
11	0xbe041883	-0.12899975

conv1.1.running_var f4 [12]
0	0x40862f07	4.1932406
1	0x40b718a6	5.721759
2	0x404c672e	3.1937976
3	0x40ebae4a	7.3650255
4	0x408e941f	4.455581
5	0x40a1132c	5.0335903
6	0x40b38a4a	5.610631
7	0x40794520	3.894844
8	0x407066a6	3.7562652
9	0x40d4c070	6.648491
10	0x411bd402	9.73926
11	0x4077544f	3.8645208

conv1.3.weight f4 [12, 12, 2]
0	0xbe5a5ea4	-0.21325165
1	0xbe0aad37	-0.13542639
2	0xbe3bcb57	-0.18339287
3	0x3e29737f	0.16547965
4	0xbc54a173	-0.012977946
5	0xbe2734bf	-0.16328715
6	0xbd75493a	-0.059884287
7	0x3da269ee	0.07930361
8	0x3df44d10	0.11928761
9	0x3d67d396	0.05659827
10	0xbd814e32	-0.06313743
11	0x3e3b6900	0.18301773
12	0x3e191762	0.14950326
13	0xbd88236b	-0.066473804
14	0xbe3fa88d	-0.18716641
15	0x3d1c6da7	0.03819051
16	0xbd42198c	-0.047387645
17	0x3e32dc6b	0.17466895
18	0xbc94b44f	-0.018152384
19	0x3c0ed464	0.00871763
20	0xbd5834a6	-0.052784584
21	0x3d54688b	0.051857512
22	0xbd5f3ca9	-0.05450121
23	0xbdbdc4c0	-0.09266043
24	0xbdad4218	-0.08459872
25	0xbe2a44d7	-0.16627823
26	0xbdf056b6	-0.11735289
27	0x3c58e1a5	0.013237392
28	0xbdc43c0a	-0.09581764
29	0x3d73f4bc	0.05955957
30	0x3db8c343	0.09021618
31	0xbd07c010	-0.03314215
32	0xbe210b00	-0.15726852
33	0xbe4ac1ac	-0.19800442
34	0x3dbdfb4b	0.09276446
35	0xbe0dd503	-0.13850789
36	0xbe2e2bab	-0.17008846
37	0x3e48570e	0.19564459
38	0xbd502452	-0.050815888
39	0xbdedbf7d	-0.11608789
40	0xbe206558	-0.1566366
41	0x3e5839c6	0.21115789
42	0x3c93e55b	0.018053701
43	0x3d3ebd18	0.046567053
44	0x3cab5348	0.020913735
45	0x3def1a55	0.11674944
46	0xbd80d756	-0.06291072
47	0xbe3d0053	-0.18457155
48	0xbd2e991c	-0.042626485
49	0x3bb76d40	0.0055977404
50	0xbc2ee6bc	-0.010675129
51	0x3e44e3a2	0.1922746
52	0x3b58647f	0.0033018885
53	0xbd279e08	-0.040922195
54	0xbda9e95f	-0.08296465
55	0x3e619626	0.22029933
56	0x3e0165bf	0.1263647
57	0xbdb15a6c	-0.08659825
58	0x3e55c867	0.20877229
59	0xbcd8cac1	-0.026463868
60	0x3d65dc68	0.0561184
61	0x3debecce	0.11519776
62	0xbc526a7b	-0.01284277
63	0xbda8144f	-0.082069986
64	0xbd882188	-0.066470206
65	0x3dd01c7e	0.101616845
66	0x3d695681	0.056967262
67	0xbd34b460	-0.04411733
68	0x3dbe4ce4	0.092920095
69	0xbe2238e4	-0.15842015
70	0xbe3dc35c	-0.18531555
71	0xbdf33c83	-0.11876776
72	0xbe1a99d2	-0.1509774
73	0xbe3f5a07	-0.18686686
74	0x3e523cc3	0.20530991
75	0xbe630029	-0.2216803
76	0xbe1e5c84	-0.1546498
77	0x3d939349	0.07205827
78	0xbe2f3dbe	-0.17113397
79	0xbc4ce4bd	-0.012505707
80	0x3d6a9d50	0.05727893
81	0x3e2f0b3c	0.1709413
82	0xbde3280f	-0.11091625
83	0x3df84cf5	0.121240534
84	0x3d872bd7	0.06600159
85	0x3d51006e	0.0510258
86	0xbda9e41b	-0.08295461
87	0x3e3f82d8	0.18702257
88	0x3e4c0d89	0.19927038
89	0xbe009812	-0.1255801
90	0x3da37d97	0.07982939
91	0xbd7d7201	-0.0618763
92	0x3e0f3547	0.13985167
93	0x3e1dabe7	0.15397607
94	0xbe1a0a8b	-0.15043084
95	0x3e458a4e	0.1929104
96	0x3d7a30ea	0.061081804
97	0xbe0300f7	-0.12793337
98	0xbd23419f	-0.039857503
99	0xbdf42070	-0.119202495
100	0xbe3d0f3a	-0.1846284
101	0x3e6de51c	0.2323193
102	0x3e4bdbb6	0.19908032
103	0xbd9f6827	-0.07783537
104	0x3df42028	0.11920196
105	0x3c4bf5d7	0.0124487495
106	0x3e088ee3	0.13335757
107	0xbe0573ff	-0.1303253
108	0x3dd77cb8	0.10521835
109	0x3b72e917	0.0037065202
110	0x3dee578f	0.11637794
111	0x3d9aecec	0.075647205
112	0xbdef9568	-0.11698419
113	0x3d116472	0.035496183
114	0x3e39a0da	0.18127766
115	0x3df090b6	0.117463514
116	0xbe3e1953	-0.18564348
117	0xbe07ebef	-0.13273595
118	0x3ddc3beb	0.10753616
119	0xbd9dfe95	-0.07714573
120	0xbd90f8a9	-0.07078678
121	0xbdf37547	-0.11887603
122	0x3e194d98	0.14971006
123	0xbe1b8b7a	-0.15189925
124	0x3e297b60	0.1655097
125	0x3df69123	0.120394014
126	0x3d7e2bac	0.062053367
127	0x3d8db066	0.06918411
128	0xbd293a86	-0.041315578
129	0x3df5d6eb	0.12003883
130	0x3d9e02a9	0.07715351
131	0x3d82a144	0.06378415
132	0x3d4d3c8f	0.05010658
133	0xbe08878a	-0.13332954
134	0x3dbabb3a	0.09117742
135	0xbe6be899	-0.23037948
136	0x3cd2889e	0.02569991
137	0xbb3a1488	-0.0028393585
138	0x3e278fa8	0.16363394
139	0xbe39775d	-0.1811194
140	0xbb33a635	-0.00274123
141	0xbe282310	-0.16419625
142	0x3e29a4e5	0.16566809
143	0xbe36bf56	-0.17846426
144	0x3d7e3cc3	0.062069666
145	0x3e0e36c3	0.13888077
146	0xbe29a49a	-0.16566697
147	0x3d1e63f1	0.03866953
148	0x3dd94b21	0.10610033
149	0xbe0934b0	-0.13399005
150	0xbe6be197	-0.23035274
151	0xbe41649b	-0.18886034
152	0xbdbb5664	-0.09147337
153	0xbe07e9d3	-0.1327279
154	0xbdd2c60d	-0.102916814
155	0xbd9d3475	-0.07676021
156	0x3db53858	0.08848637
157	0xbe077efe	-0.13232037
158	0x3e2ef4f8	0.17085636
159	0xbdbc69fc	-0.091999024
160	0x3db277bc	0.08714244
161	0xbdaefaaf	-0.08543908
162	0x3da687b6	0.081313536
163	0x3dc1a890	0.09455979
164	0x3e0b51b8	0.13605392
165	0xbd90ff01	-0.07079888
166	0xbddccb37	-0.10780948
167	0x3d9ed77f	0.07755946
168	0xbe263f41	-0.16235067
169	0x3dc3bab7	0.095570974
170	0xbdc94423	-0.09827449
171	0x3d93ede3	0.07223108
172	0x3d3ea9f9	0.046548817
173	0xbd0e9596	-0.034810625
174	0x3d997e6f	0.074948184
175	0xbd6eaab5	-0.058268268
176	0x3e3895c3	0.1802588
177	0xbd9f1f14	-0.077695996
178	0x3e004b92	0.12528828
179	0x3e515111	0.2044108
180	0xbdac9b39	-0.08428044
181	0xbe337686	-0.17525682
182	0xbe1208c1	-0.14261152
183	0x3ce03e5c	0.027373485
184	0xbd84062c	-0.0644649
185	0x3e05c3ba	0.13062945
186	0xbdf95921	-0.12175203
187	0xbc6d3bc6	-0.014479583
188	0xbe055aba	-0.1302289
189	0x3e4a905f	0.19781636
190	0xbe18ae68	-0.1491028
191	0xbc0a1007	-0.008426673
192	0x3d83b025	0.06430081
193	0x3e17a108	0.14807522
194	0xbe82224f	-0.254168
195	0xbdd8c736	-0.105848715
196	0x3b821fb6	0.0039710654
197	0xbdd15ce9	-0.10222799
198	0x3e085ee4	0.13317448
199	0xbd55187b	-0.0520253
200	0x3e29b077	0.16571222
201	0x3cc14a05	0.023594866
202	0xbe6166ab	-0.22011821
203	0x3e0a52d4	0.13508159
204	0x3c76dd59	0.015067422
205	0xbe2e457a	-0.1701869
206	0xbd9e8a81	-0.07741261
207	0x3c864bfe	0.016393658
208	0xbd9d89c4	-0.07692292
209	0xbe0b5c30	-0.13609385
210	0x3e07204c	0.13195914
211	0x3e03d363	0.12873606
212	0x3cb600b2	0.022217128
213	0x3d8c4d68	0.068507016
214	0xbe327f70	-0.17431426
215	0x3e407252	0.1879361
216	0xbdcc0cc1	-0.0996337
217	0xbcd86587	-0.0264156
218	0x3e315f01	0.17321397
219	0xbe399223	-0.18122153
220	0x3d508a5d	0.050913204
221	0x3d9fcbc2	0.078025356
222	0x3e632f9c	0.2218613
223	0xbd51c796	-0.05121573
224	0x3e4356c8	0.19076073
225	0xbbaf70d4	-0.0053540263
226	0x3e3de737	0.18545233
227	0xbd29bdec	-0.04144089
228	0xbe238c11	-0.159714
229	0xbe3f14a5	-0.18660219
230	0xbe251ca6	-0.1612421
231	0x3dd58ad6	0.104268715
232	0xbd930ef2	-0.07180585
233	0x3dcf2e69	0.10116274
234	0xbe454ce8	-0.19267619
235	0xbe075e16	-0.13219485
236	0xbca4f689	-0.020137088
237	0xbdda6b9d	-0.10665057
238	0xbdc669b4	-0.0968813
239	0xbd1e6bd5	-0.038677055
240	0x3daa9cba	0.083306745
241	0xbe609476	-0.21931633
242	0xbdd2f6c2	-0.103009716
243	0xbdc0c990	-0.09413445
244	0x3d866bf8	0.06563562
245	0x3df84b64	0.121237546
246	0x3e361a29	0.17783417
247	0xbcd6b3dd	-0.026208812
248	0x3d81bacf	0.06334459
249	0xbe0cb3de	-0.13740489
250	0x3e2baa5b	0.16764204
251	0xbd903890	-0.070420384
252	0x3da17ad4	0.07884756
253	0xbe38979e	-0.18026587
254	0xbe02ac71	-0.12761094
255	0xbde59e51	-0.11211837

conv1.3.bias f4 [12]
0	0x3e412f9e	0.18865821
1	0x3d97aa65	0.07405547
2	0x3e108062	0.14111474
3	0x3e0d882a	0.13821474
4	0x3e0ad3ab	0.13557307
5	0x3e02f329	0.1278807
6	0x3e054368	0.13013995
7	0xbdab5d25	-0.08367375
8	0x3e1a89a4	0.15091568
9	0xbdeb8296	-0.11499517
10	0xbe07ac7f	-0.13249396
11	0x3da1771c	0.078840464

conv1.4.weight f4 [12]
0	0x3f812092	1.0088065
1	0x3f8037d8	1.0017042
2	0x3f82142d	1.0162407
3	0x3f8116d4	1.0085092
4	0x3f7f4cf6	0.9972681
5	0x3f80d0d5	1.006373
6	0x3f8102ec	1.0079017
7	0x3f81604d	1.0107514
8	0x3f8007e7	1.0002412
9	0x3f830f83	1.0239109
10	0x3f81d759	1.0143844
11	0x3f804fc9	1.0024348

conv1.4.bias f4 [12]
0	0x3ada519f	0.0016656405
1	0x3b25fef2	0.0025328961
2	0x3b1f1f85	0.0024280262
3	0x3b4ea6fc	0.0031532636
4	0xbb8bb1a2	-0.004263119
5	0xbb9f4ced	-0.004861465
6	0xbb8d676d	-0.004315308
7	0xbb819e26	-0.0039556203
8	0xbb956016	-0.0045585735
9	0xbb828d96	-0.0039841635
10	0x3b3f185e	0.002915881
11	0x3826083f	3.9585164e-05

conv1.4.running_mean f4 [12]
0	0x3d7c21a6	0.061555527
1	0xbe7cd6d4	-0.24691325
2	0x3e6ac447	0.22926436
3	0x3e48d367	0.19611894
4	0x3e8274e8	0.25479817
5	0x3e038e2d	0.12847205
6	0xbd303844	-0.04302241
7	0xbe1957a5	-0.1497484
8	0x3dba2c8d	0.09090529
9	0xbe896ce6	-0.26840895
10	0xbe24d403	-0.16096501
11	0xbe91fec9	-0.28514698

conv1.4.running_var f4 [12]
0	0x3e1b6879	0.15176572
1	0x3e102f23	0.14080481
2	0x3e0b2e2d	0.13591833
3	0x3e330ba8	0.17484915
4	0x3de46ac4	0.111531764
5	0x3e41d10d	0.18927403
6	0x3e049277	0.12946497
7	0x3da37457	0.079811744
8	0x3e224d4d	0.158498
9	0x3e1294bc	0.1431455
10	0x3d8c566f	0.068524234
11	0x3e590b73	0.21195774

conv2.0.weight f4 [12, 15, 3]
0	0x3de68b63	0.11257055
1	0xb7b4b20a	-2.1540578e-05
2	0xbca10e29	-0.019660072
3	0x3c7bbf76	0.015365472
4	0x3dafa750	0.08576834
5	0xbda219f1	-0.07915104
6	0xbdd4bcf3	-0.10387602
7	0xbda931ba	-0.08261438
8	0xbdbebbcb	-0.093131624
9	0xbe2c396f	-0.16818784
10	0x3da17c99	0.07885093
11	0xbe071bde	-0.13194224
12	0x3d1c421f	0.038148995
13	0x3dfab80f	0.12242138
14	0x3d0bc299	0.03412113
15	0xbbceba6a	-0.0063088434
16	0x3d8d8ab3	0.069112204
17	0x3d867cef	0.06566798
18	0x3dc39f07	0.095518164
19	0xbd704ca3	-0.058666836
20	0xbddda32a	-0.10822137
21	0x3c3f9391	0.011692897
22	0xbd8ad669	-0.06779177
23	0x3e18e80b	0.14932267
24	0xbe1db641	-0.15401556
25	0x3d7b9764	0.061423674
26	0x3d2d5dfd	0.042325962
27	0xbe263460	-0.16230917
28	0x3c9af5b0	0.018915981
29	0x3dab063c	0.083507985
30	0x3d84c4b2	0.06482829
31	0x3bda89a8	0.006669242
32	0x3e29e916	0.16592821
33	0xbd60492d	-0.054757286
34	0xbd7ffb4e	-0.062495522
35	0xbd0b3445	-0.033985395
36	0x3d8a6259	0.067570396
37	0xbcb6b850	-0.022304684
38	0xbe18a5c2	-0.14906982
39	0x3e03f0d1	0.12884833
40	0x3dc29aee	0.09502207
41	0x3c12da79	0.008963221
42	0xbd63e978	-0.055642575
43	0x3dee0aad	0.1162313
44	0x3a117ab0	0.0005549593
45	0xbd83eb6e	-0.06441389
46	0xbdb67751	-0.089094765
47	0x3d3567ca	0.044288434
48	0x3da397a6	0.07987909
49	0x3e5577cb	0.20846479
50	0x3cea0dae	0.028570976
51	0xbc8269d6	-0.015919607
52	0xbd52568d	-0.051352073
53	0x3def2283	0.116765045
54	0x3e09ad5c	0.13445038
55	0xbde6ee78	-0.11275953
56	0xbd8f29c6	-0.069903895
57	0x3cfb036a	0.030641276
58	0xbcb698e7	-0.022289706
59	0x3d27c40f	0.04095846
60	0xbcdaedd5	-0.026724735
61	0xbaac91a8	-0.0013165968
62	0xbdd90929	-0.1059745
63	0x3dd2b330	0.102880836
64	0x3d949ec0	0.07256842
65	0xbd8b6bb4	-0.06807652
66	0xbd334f3c	-0.043776736
67	0x3da39b8a	0.07988651
68	0x3ce1c1cb	0.027558228
69	0x3c606c7f	0.0136977425
70	0x3d9cc749	0.07655198
71	0xbdaa4800	-0.08314514
72	0x3d953b45	0.072866954
73	0x3dd72608	0.10505301
74	0xbcf667d7	-0.030078812
75	0x3e12a3b0	0.14320254
76	0x3ccf4af9	0.025304304
77	0xbe2e6d96	-0.17033991
78	0x3d0de960	0.034646392
79	0x3d900cdc	0.07033703
80	0x3dc33573	0.09531679
81	0x3cd1a5e0	0.02559179
82	0xbe15e6f4	-0.14638883
83	0x3a800fa8	0.0009770291
84	0xbe105535	-0.14095004
85	0x3e0831eb	0.13300292
86	0xbca9d028	-0.02072914
87	0xbd2419c9	-0.040063653
88	0x3e2fc3d2	0.17164543
89	0xbe0adc05	-0.13560493
90	0x3e25419d	0.1613831
91	0x3d5e780e	0.05431371
92	0xbcfd919e	-0.030953225
93	0x3cf80ea0	0.030280411
94	0x3d810cfa	0.06301303
95	0x3de2415a	0.11047621
96	0xbdcfa227	-0.1013835
97	0x3c2e36ff	0.010633229
98	0xbdacba92	-0.08434023
99	0x3da11838	0.078659475
100	0x3d952c66	0.07283859
101	0x3dfda0f9	0.12384219
102	0x3d8c693e	0.06856011
103	0xbd39eacb	-0.04538993
104	0x3d248c51	0.04017288
105	0x3d65652c	0.05600469
106	0xbcf727be	-0.030170318
107	0x3ce9b3a8	0.02852805
108	0x3d668e46	0.056288026
109	0xbd911dcc	-0.070857614
110	0xbe09cf59	-0.13458003
111	0x3dec5cce	0.115411386
112	0x3b9b5d3d	0.0047413395
113	0xbe1d4c04	-0.15361029
114	0x3e31e87a	0.17373839
115	0x3e23890f	0.15970252
116	0xbd5dede0	-0.054181933
117	0xbc28069e	-0.010255484
118	0xbb0e5e04	-0.0021723518
119	0xbcab7c16	-0.020933192
120	0x3dcba2f6	0.09943192
121	0x3d04f596	0.03246077
122	0xbd9f079e	-0.07765125
123	0xbe2037c3	-0.15646271
124	0x3e2bf8f7	0.16794191
125	0xbc6fd2de	-0.014637677
126	0x3df866d3	0.12128987
127	0xbdfb93b3	-0.12284031
128	0x3dbda2d6	0.09259574
129	0x3bd264e4	0.0064207185
130	0xbcf0d819	-0.029399918
131	0x3de236c5	0.11045603
132	0x3d241790	0.040061533
133	0xbd691b75	-0.05691095
134	0x3d1e3a5e	0.038629882
135	0xbe1222a8	-0.14271033
136	0x3d780335	0.060549933
137	0xbdda0306	-0.10645108
138	0xbd2fee07	-0.04295161
139	0x3c69ff1c	0.014282014
140	0x3b2aa0fb	0.0026035893
141	0x3d89ed0c	0.06734666
142	0xbd2f1a0a	-0.042749442
143	0x3dac4902	0.08412363
144	0x3db60922	0.08888461
145	0xbd8e6627	-0.06953078
146	0x3a733d65	0.0009278863
147	0x3cf22d51	0.029562624
148	0x3dc6c311	0.09705175
149	0xbdd70c0d	-0.105003454
150	0xbdc43e2e	-0.09582172
151	0x3de9dd99	0.114192195
152	0xbd8e1991	-0.0693847
153	0xbd13a6ad	-0.036047626
154	0xbb9f85d9	-0.004868251
155	0xbe497111	-0.19672038
156	0xbe13f279	-0.14447965
157	0x3cbc80a8	0.023010567
158	0xbcef78ec	-0.029232465
159	0x3d6a58e4	0.05721368
160	0x3dcb122b	0.09915575
161	0x3e3ce904	0.18448263
162	0xbd8ce8d3	-0.06880345
163	0x3e19b7fb	0.15011589
164	0xbde00b71	-0.10939682
165	0xbd9db669	-0.077008076
166	0xbe4a77ac	-0.19772214
167	0xbd752220	-0.059846997
168	0xbdc93b44	-0.09825757
169	0x3d1036d2	0.03520853
170	0x3d2df532	0.042470165
171	0xbd923665	-0.07139281
172	0x3d6676c5	0.05626561
173	0xbd6f4d27	-0.058423188
174	0x3d8886df	0.066663496
175	0xbe63441c	-0.2219395
176	0x3dae3f81	0.08508206
177	0x3bdc4c9e	0.0067230007
178	0xbb8b11a7	-0.0042440477
179	0x3dc1a480	0.09455204
180	0x3d066fe4	0.03282155
181	0xbce5732a	-0.028009016
182	0xbd9ff0d3	-0.078096054
183	0x3c65f5ba	0.014035637
184	0xbd1db702	-0.038504608
185	0x3caf3e16	0.02139191
186	0xbe139637	-0.14412771
187	0xbdedc54f	-0.11609899
188	0xbdbc6410	-0.09198773
189	0xbdde1653	-0.10844102
190	0xbddd0f0e	-0.10793887
191	0xbd912a04	-0.07088092
192	0xbc9979ee	-0.018734898
193	0xbcd778f9	-0.026302801
194	0xbcbfbf3c	-0.023406617
195	0xbe0b15b1	-0.13582493
196	0xbdd8c41f	-0.10584282
197	0xbdde4aa3	-0.108540796
198	0xbe1c2105	-0.15246971
199	0x3d4e0a38	0.050302714
200	0x3d20e9a6	0.039285325
201	0x3dc1c9cf	0.0946232
202	0x3ccd2dd3	0.025046265
203	0x3e022d81	0.12712671
204	0x3dd1299e	0.10213016
205	0x3daebf8a	0.08532627
206	0xbc2882c0	-0.0102850795
207	0x3ccdc73b	0.025119415
208	0x3e2ccbdf	0.16874646
209	0x3d215ef8	0.03939721
210	0xbd6fc757	-0.058539715
211	0x3e03fef0	0.1289022
212	0x3d209a64	0.03920974
213	0xbd78881e	-0.060676686
214	0x3dc78def	0.097438686
215	0x3db2b7cc	0.08726463
216	0xbe1fcfe6	-0.1560665
217	0x3e0bbb73	0.13645725
218	0x3d4c8198	0.049928278
219	0x3dd7c74b	0.10536059
220	0x3ca30d84	0.019903906
221	0xbd84c6e4	-0.06483248
222	0xbdaacec9	-0.083402224
223	0xbd410580	-0.047124386
224	0xbd53ad07	-0.051678684
225	0xbda73557	-0.08164471
226	0xbcb1b0e0	-0.021690786
227	0xbdd3ea84	-0.10347465
228	0xbd819959	-0.06328077
229	0xbd09fb86	-0.033687137
230	0x3dabf659	0.083965965
231	0xba58cd9f	-0.0008270386
232	0x3db31d2f	0.08745801
233	0x3deab298	0.11459845
234	0xbd7e510a	-0.062089004
235	0xbd46692d	-0.048440147
236	0xbc03be50	-0.0080409795
237	0xbe2a7aae	-0.16648361
238	0xbcc26860	-0.02373141
239	0x3d37db67	0.044886973
240	0x3c7060f5	0.014671554
241	0x3cf932b1	0.03041968
242	0x3ce27da6	0.027647804
243	0x3d906544	0.07050565
244	0x3e000670	0.12502456
245	0xbd4e88fb	-0.050423604
246	0x3cc5607c	0.024093859
247	0x3caa27a3	0.020770853
248	0x3e441079	0.19146909
249	0xbd8779df	-0.06615042
250	0xbbe01065	-0.006837892
251	0x3e38b7e2	0.18038896
252	0xbc36c8c6	-0.011156267
253	0x3dec7305	0.11545376
254	0xbd746a2f	-0.059671577
255	0xbe34cc86	-0.17656144

conv2.0.bias f4 [12]
0	0x3dd53e34	0.10412255
1	0x3dc0d05b	0.09414741
2	0xbd3539c4	-0.044244543
3	0xbc05941b	-0.008152987
4	0x3d82d6f0	0.06388652
5	0x3de7f5da	0.11326189
6	0x3d730b90	0.0593372
7	0xbe0b5f19	-0.13610496
8	0x3dfdd600	0.12394333
9	0xbdd00785	-0.10157684
10	0x3d9deeb5	0.077115454
11	0xbbec4b48	-0.0072111227

conv2.1.weight f4 [12]
0	0x3f7e430f	0.99321073
1	0x3f80cd4b	1.006265
2	0x3f85ac62	1.0443232
3	0x3f7d8546	0.99031484
4	0x3f7d6a1a	0.98990023
5	0x3f7bb51f	0.98323244
6	0x3f84352f	1.032873
7	0x3f80537d	1.0025479
8	0x3f7e9884	0.9945147
9	0x3f7c6b5f	0.98601335
10	0x3f7f241c	0.99664474
11	0x3f805f3a	1.0029061

conv2.1.bias f4 [12]
0	0xbcb847ef	-0.022495238
1	0x3b3b8ea9	0.0028618968
2	0x3d521207	0.051286723
3	0xbca8bc2b	-0.020597538
4	0x39bdffd5	0.000362395
5	0xbb458095	-0.0030136455
6	0x3cd619df	0.026135383
7	0xbd7563c2	-0.05990959
8	0x3c1e674d	0.0096681835
9	0xbce920fc	-0.028458111
10	0x3d415566	0.047200583
11	0x3c99f2e7	0.018792583

conv2.1.running_mean f4 [12]
0	0xbec0c137	-0.3764741
1	0x3ef5b48d	0.47989312
2	0x3f28f3c3	0.6599695
3	0xbe5a54a2	-0.21321347
4	0xbe8f1d58	-0.27952075
5	0xbe827477	-0.2547948
6	0xbe863939	-0.26215532
7	0xbf38e160	-0.72218895
8	0x3e73cebb	0.2380933
9	0x3d81a951	0.06331123
10	0xbed48777	-0.415096
11	0x3e97c427	0.2964184

conv2.1.running_var f4 [12]
0	0x40a6c6a1	5.2117467
1	0x40bcf50a	5.904912
2	0x40cbbc94	6.36677
3	0x40a6e13b	5.214994
4	0x40de6570	6.9498825
5	0x4084cc44	4.149935
6	0x40bb5f60	5.8553925
7	0x40c8b2c8	6.271824
8	0x40c0fb0e	6.0306463
9	0x40b0b2bf	5.5218196
10	0x40ef8d67	7.486011
11	0x409efe6f	4.968559

conv2.3.weight f4 [12, 12, 3]
0	0x3d74cec6	0.059767507
1	0xbd8041b8	-0.06262535
2	0xbd5f0326	-0.054446362
3	0x3dcf1423	0.10111263
4	0x3e1967e3	0.14981036
5	0x3ded5ee3	0.11590364
6	0xbdf25223	-0.118320726
7	0x3d4fcd4a	0.05073289
8	0xbe147153	-0.14496355
9	0x3e01bd72	0.12669924
10	0xbd610169	-0.054932985
11	0xbdad6b31	-0.08467711
12	0xbe40b1cd	-0.18817826
13	0x3dae22a2	0.085026994
14	0x3bc4fef4	0.006011838
15	0xbd10a79c	-0.035316095
16	0x3dc2a0dc	0.09503338
17	0x3d052503	0.032506
18	0xbe260553	-0.16212969
19	0xbcf32b41	-0.029683711
20	0xbd3e5c3f	-0.04647469
21	0x3c7ec27a	0.0155492965
22	0x3e2b0a8e	0.16703245
23	0x3c1912ef	0.009342893
24	0x3d51f7ba	0.05126164
25	0x3d196bac	0.0374562
26	0xbd185aad	-0.03719585
27	0xbd112182	-0.035432346
28	0xbd5b72a8	-0.05357614
29	0x3dc78fef	0.0974425
30	0x3c398109	0.011322268
31	0xbd54d167	-0.051957514
32	0xbbfef2a6	-0.007780391
33	0xbd852da2	-0.065028444
34	0x3d3ec745	0.046576757
35	0xbdb009ef	-0.08595645
36	0x3e198be1	0.14994766
37	0x3bdc46c9	0.0067223054
38	0x3dbb5a7f	0.0914812
39	0xbe1ba06f	-0.1519792
40	0x3d89e7f3	0.06733694
41	0xbdc0526b	-0.0939072
42	0xbd90e9e6	-0.070758626
43	0x3db9f167	0.09079247
44	0x3dda9e6b	0.10674747
45	0xbd8f02bf	-0.06982946
46	0x3de10fdf	0.10989355
47	0x3d975480	0.07389164
48	0xbd5ec143	-0.054383527
49	0x3d33e6ca	0.04392127
50	0x3e116be8	0.14201319
51	0x3e118eba	0.14214602
52	0x3d912f91	0.07089151
53	0xbdca6ab5	-0.09883634
54	0x3da02304	0.07819179
55	0xbe27f527	-0.16402112
56	0xbc9c5f4f	-0.019088415
57	0x3d261b0b	0.040553134
58	0x3d514d5a	0.05109916
59	0x3d3d6e2d	0.04624765
60	0xbd9de71f	-0.077100985
61	0xbbc266e9	-0.005932678
62	0xbdb72dda	-0.08944292
63	0x3cfce81d	0.030872399
64	0x3e3457f0	0.1761167
65	0xbdf7ddd3	-0.121028565
66	0xbe0eedc7	-0.13957892
67	0x3e07fa23	0.13279013
68	0xbe07764e	-0.13228723
69	0xbe051e77	-0.12999903
70	0x3d6c939a	0.05775795
71	0x3dfb3473	0.12265863
72	0xbe187ee9	-0.14892162
73	0xbd94b71b	-0.07261487
74	0xbde8519e	-0.11343692
75	0x3da963dd	0.082710005
76	0xbdc8c205	-0.09802631
77	0x3dff7ec1	0.12475348
78	0xbe369bc2	-0.17832854
79	0x3e0ae220	0.13562822
80	0xbdc79fb3	-0.09747257
81	0xbcc74c27	-0.024328304
82	0x3d847e95	0.06469456
83	0xbd3c38aa	-0.045952477
84	0x3d8b0067	0.06787186
85	0xbd7e2e2f	-0.062055763
86	0x3ddf3243	0.108982585
87	0xbd3c9e50	-0.046049416
88	0xbc560940	-0.013063729
89	0x3dcfc61b	0.101452075
90	0x3d830a9b	0.06398507
91	0xbe0fd501	-0.14046098
92	0xbcb39851	-0.021923216
93	0xbc7d4d87	-0.0154603785
94	0x3dc77005	0.09738163
95	0x3c6d0f9e	0.014469055
96	0xbdbc21bb	-0.09186121
97	0x3dfe2af7	0.12410539
98	0xbdb28fd7	-0.087188415
99	0x3de3fff3	0.11132803
100	0x3d2043c7	0.039127138
101	0x3db8ea9b	0.090291224
102	0xbd805cf3	-0.06267729
103	0xbdc097da	-0.094039634
104	0xbe3db929	-0.18527664
105	0x3d597c9d	0.053097356
106	0xbd107db3	-0.035276126
107	0x3d519223	0.051164757
108	0x3e0a91c4	0.13532168
109	0xbd6077f5	-0.0548019
110	0x3e243bf5	0.16038497
111	0xbd068584	-0.032842174
112	0x3d74cb70	0.059764326
113	0xbd676753	-0.056495022
114	0x3ded9072	0.115998164
115	0x3b25acfe	0.0025280113
116	0xbe411f79	-0.18859662
117	0x3d3d9b74	0.04629083
118	0xbe3b2bab	-0.18278377
119	0x3d977c6b	0.07396778
120	0xbe32331f	-0.17402314
121	0xbc07dddb	-0.008292641
122	0xbddd1db9	-0.10796685
123	0xbd326feb	-0.043563765
124	0xbd76bd94	-0.06023939
125	0x3d478ae2	0.048716433
126	0xbd81e53d	-0.06342552
127	0xbdeea5ca	-0.116527155
128	0xbe0cf835	-0.13766558
129	0xbd90d377	-0.07071584
130	0x3d6a5e51	0.057218853
131	0xbd92b8e8	-0.07164174
132	0x3de17199	0.11007995
133	0x3df86361	0.1212833
134	0xbd41a7b2	-0.047279067
135	0x3dd95136	0.10611193
136	0xbe4d4a30	-0.20047832
137	0xbd31be64	-0.04339446
138	0x3dcc854f	0.09986364
139	0xbe25e991	-0.1620238
140	0xbe138937	-0.14407812
141	0x3de151a6	0.11001901
142	0xbe186b21	-0.14884616
143	0x3d244ab3	0.0401103
144	0xbdecd239	-0.11563534
145	0xbdba012c	-0.09082255
146	0xbd4a4177	-0.04937884
147	0xbe0f2013	-0.13977079
148	0x3e1b9e3b	0.15197079
149	0x3cc82e83	0.024436241
150	0xbc7773de	-0.0151033085
151	0xbdb4dce7	-0.08831196
152	0xbdde5308	-0.10855681
153	0x3d44aea0	0.048018098
154	0xbe1d77dc	-0.15377754
155	0x3e1d7dac	0.15379971
156	0xbdb8a19c	-0.090151995
157	0x3e0cb565	0.13741072
158	0xbdbc13ff	-0.091835015
159	0x3c8829e7	0.016621543
160	0x3ddd6982	0.1081114
161	0xbbd31cf1	-0.006442659
162	0xbd94f593	-0.07273402
163	0xbe2379bd	-0.15964408
164	0x3e0e3fb7	0.13891493
165	0xbe1df90d	-0.15427037
166	0x3ccab56a	0.024744708
167	0xbd48074b	-0.04883508
168	0x3da1654f	0.07880651
169	0xbd08e985	-0.033425827
170	0x3e55ba7c	0.2087192
171	0xbe4fed01	-0.20305254
172	0xbdd19c40	-0.102348804
173	0x3e1c985e	0.15292498
174	0xbd94b184	-0.07260421
175	0xbd3c5ddd	-0.045987953
176	0x3e0acddc	0.13555092
177	0xbc9ee395	-0.019395629
178	0xbcec9c0f	-0.028883008
179	0x3dd75c1b	0.105156146
180	0x3dfeded7	0.12444847
181	0xbd8f898f	-0.07008659
182	0xbdd7bfd3	-0.105346344
183	0x3de52f1c	0.11190626
184	0x3dd8ed35	0.10592119
185	0xbd97dfd1	-0.074157365
186	0x3dd034a4	0.101662904
187	0x3dba1e6d	0.090878345
188	0xbde354d0	-0.11100161
189	0x3e166baf	0.14689516
190	0x3e15196f	0.14560483
191	0x3c0b928a	0.008518824
192	0xbe192d6d	-0.14958735
193	0xbde7bd14	-0.11315361
194	0xbc7ec557	-0.015549979
195	0xbc86c49c	-0.016451173
196	0x3d85fb31	0.065420516
197	0xbd805d86	-0.06267838
198	0xbd5d0bae	-0.053966217
199	0xbd8141da	-0.06311388
200	0xbe5807c6	-0.21096715
201	0x3d93e4fb	0.07221409
202	0xbd586219	-0.05282793
203	0x3e020809	0.12698378
204	0x3cc3e8d1	0.023914726
205	0x3d64f546	0.055897973
206	0xbdcdaa77	-0.10042279
207	0xbdb587df	-0.08863806
208	0xbcd9670f	-0.0265384
209	0x3d2973f3	0.041370343
210	0xbc0be356	-0.008538088
211	0x3dc03019	0.09384174
212	0xbcc8f62c	-0.024531446
213	0xbe2d1069	-0.16900791
214	0xbd3250ea	-0.043534197
215	0x3df6b38a	0.12045963
216	0x3d8bd5fc	0.06827924
217	0x3d611fd8	0.05496201
218	0x3e273d6c	0.16332024
219	0xbe001d42	-0.12511161
220	0xbcbeed63	-0.023306554
221	0xbe1e258b	-0.15444009
222	0xbca49071	-0.020088406
223	0xbe0ef4e3	-0.13960604
224	0x3c9e3ece	0.019317057
225	0x3e08c100	0.13354874
226	0x3da7ed59	0.08199567
227	0xbc8d9ffb	-0.017288199
228	0x3d8cfbb2	0.068839446
229	0xbd42a80f	-0.047523554
230	0xbcbe0ed9	-0.02320044
231	0xbe397472	-0.18110827
232	0x3d481988	0.048852473
233	0xbe1fe7b5	-0.15615733
234	0xbc730aaf	-0.01483409
235	0xbd94bf48	-0.072630465
236	0x3d910ebf	0.07082891
237	0x3df75d0e	0.12078296
238	0x3e2291ad	0.15875883
239	0x3d8d5934	0.0690178
240	0xbd6179cc	-0.055047795
241	0x3e31cf88	0.17364323
242	0x3c089335	0.008335878
243	0xbdf5b9e7	-0.11998349
244	0xbe127105	-0.14300926
245	0xbdbff8b8	-0.09373611
246	0x3cb9e5ba	0.02269255
247	0xbc201cee	-0.009772522
248	0xbda45362	-0.080237165
249	0xbde318ba	-0.110887006
250	0x3b7b37b8	0.0038332772
251	0x3dfd1a53	0.123585366
252	0x3e17dd6c	0.1483056
253	0x3c13c720	0.009019643
254	0x3dac41ef	0.08411013
255	0x3cdda92b	0.027058205

conv2.3.bias f4 [12]
0	0xbe29950f	-0.16560768
1	0xbdb19677	-0.08671277
2	0xbda8b172	-0.0823697
3	0xbdc19f98	-0.09454268
4	0x3c004303	0.007828477
5	0xbe13c935	-0.14432223
6	0xbde5220d	-0.11188135
7	0xbe157a68	-0.14597476
8	0x3e22db7d	0.1590404
9	0x3d536196	0.051606737
10	0x3b6e4509	0.0036357066
11	0xbdd493a7	-0.10379725

conv2.4.weight f4 [12]
0	0x3f8429ff	1.0325316
1	0x3f8236a2	1.0172923
2	0x3f815944	1.0105367
3	0x3f80bc6a	1.00575
4	0x3f811de6	1.0087249
5	0x3f8281fc	1.0195918
6	0x3f833ac7	1.0252312
7	0x3f82a839	1.0207587
8	0x3f80bcb3	1.0057586
9	0x3f84fcdc	1.0389667
10	0x3f82e1bd	1.022514
11	0x3f8477a1	1.0349008

conv2.4.bias f4 [12]
0	0x3b49c2eb	0.0030786346
1	0x3b40a3de	0.0029394547
2	0xbb84069d	-0.0040291087
3	0x3b35d09a	0.0027742744
4	0xbbbe7702	-0.0058125267
5	0x3b4bbfce	0.0031089666
6	0x3b52b392	0.003215049
7	0x3b01ac74	0.0019786628
8	0xbb91d1e7	-0.004450071
9	0x3b49f539	0.003081633
10	0xbb7f4f96	-0.003895735
11	0x3b4ed07d	0.0031557374

conv2.4.running_mean f4 [12]
0	0xbe6c2418	-0.23060644
1	0x3d07c6ab	0.03314845
2	0xbe5c3dd7	-0.21507965
3	0xbed16e7f	-0.40904614
4	0xbe3b09ad	-0.1826541
5	0xbe5b7975	-0.21433051
6	0xbe626101	-0.22107317
7	0x3b11b0c1	0.0022230598
8	0x3e5cc459	0.21559276
9	0xbe35b53c	-0.17744917
10	0x3d6ac74a	0.057318963
11	0xbdb8847d	-0.09009645

conv2.4.running_var f4 [12]
0	0x3d42a3df	0.04751956
1	0x3dfb61d8	0.122745216
2	0x3d923ba5	0.071402825
3	0x3e24fac8	0.1611129
4	0x3e120307	0.14258967
5	0x3d709636	0.058737002
6	0x3de20625	0.11036328
7	0x3dfd7d6f	0.1237744
8	0x3df0d86a	0.11760028
9	0x3db5cc2a	0.08876832
10	0x3dc21691	0.094769605
11	0x3d93dfed	0.07220445

conv3.0.weight f4 [12, 15, 4]
0	0x3aba6606	0.0014221079
1	0xbd69098b	-0.056893867
2	0x3da2b395	0.07944409
3	0xbccf4813	-0.025302922
4	0x3dd3899f	0.103289835
5	0xbca8978a	-0.020580072
6	0x3cba062a	0.022708017
7	0x3da5a9d1	0.080890305
8	0xbd79b549	-0.060963903
9	0x3d5c54a1	0.053791646
10	0xbced9925	-0.029003689
11	0x3d8d0907	0.068864875
12	0x3c818a91	0.015813144
13	0xbd4d9039	-0.05018637
14	0xbd89aa40	-0.06721926
15	0x3d10a05a	0.035309173
16	0x3d957569	0.07297785
17	0xbde1f56a	-0.11033137
18	0x3da487d0	0.08033717
19	0x3dafb30d	0.08579073
20	0x3dfe6c79	0.12423033
21	0xbd61870f	-0.055060443
22	0x3d9c92b0	0.07645166
23	0x3d00e952	0.03147251
24	0x3b9a60dc	0.0047112536
25	0x3d9b7746	0.07591109
26	0xbcef1467	-0.029184533
27	0xbd0be169	-0.034150515
28	0x3cddb4fd	0.027063841
29	0xbde82c82	-0.11336614
30	0x3ca5eecc	0.020255469
31	0xbcdb6c55	-0.026785055
32	0x3c721f78	0.014778011
33	0xbda100f0	-0.07861507
34	0xbd29daff	-0.041468617
35	0xbd2089dc	-0.039193973
36	0x3d4a5735	0.049399573
37	0xbe001f35	-0.12511905
38	0x3d9a5c9a	0.075371936
39	0xbdb38c89	-0.08767039
40	0x3e1d9280	0.15387917
41	0x3d7f0e40	0.06226945
42	0x3c51dacb	0.012808512
43	0x3cf2438e	0.029573228
44	0x3e01489e	0.12625358
45	0xbe120860	-0.14261007
46	0xbd224f25	-0.03962626
47	0xbd561c44	-0.05227305
48	0x3d842764	0.06452826
49	0x3db0b22b	0.08627733
50	0xbc9c1dc3	-0.01905716
51	0xbd9b705b	-0.075897895
52	0xbcef60fd	-0.029221052
53	0x3e065192	0.13117054
54	0x3d2d81cb	0.04236011
55	0x3d36ec54	0.044658974
56	0xbcc8036a	-0.02441569
57	0xbd10b4b3	-0.03532858
58	0xbe0b6daf	-0.1361606
59	0xbe2f7524	-0.1713453
60	0xbd86b277	-0.06577008
61	0xbd8d75ca	-0.06907232
62	0xbc8bb1a5	-0.017052481
63	0x3d38a7d3	0.045081925
64	0x3debd605	0.1151543
65	0xbcfb9eed	-0.03071543
66	0xbc4a2747	-0.012338466
67	0x3bacc7e6	0.005272853
68	0xbda7b8a5	-0.08189515
69	0x3d1f2daa	0.038861908
70	0x3c5ee62e	0.013604684
71	0xbd6e167d	-0.058126915
72	0x3d0ffb9c	0.035152063
73	0x3d81d74e	0.06339894
74	0x3bf817e1	0.007571206
75	0xbe27cc10	-0.16386437
76	0x3e1fde6d	0.15612192
77	0xbccbc998	-0.0248764
78	0x3e345e3b	0.17614071
79	0x3a3f7a02	0.00073042524
80	0x3dfa6b02	0.12227441
81	0x3d8b99b3	0.06816425
82	0xbd679456	-0.05653795
83	0x3e27bb1a	0.16379967
84	0xbc4a8158	-0.0123599395
85	0x3ba65e88	0.005077187
86	0xbe090c44	-0.13383585
87	0xbda0c9d0	-0.07850993
88	0xbcd2619b	-0.025681308
89	0x3da58d55	0.080835976
90	0xbd4a3f2d	-0.049376655
91	0x3ce3b2a5	0.027795145
92	0xbda2c3bc	-0.079474896
93	0x3d5ea4cc	0.05435638
94	0x3e0aa0f3	0.1353796
95	0xbc93465e	-0.01797789
96	0x3df8bc10	0.12145245
97	0xbd3b40e4	-0.04571618
98	0x3dbd1c66	0.09233932
99	0xbcf83d57	-0.030302687
100	0x39ab8df2	0.0003272142
101	0xbd809014	-0.06277481
102	0x3e2cddde	0.1688151
103	0x3c5b5973	0.013388026
104	0x3cbc4904	0.022984035
105	0x3da9fabe	0.082997784
106	0x3d78d111	0.060746256
107	0xbd93c41d	-0.0721514
108	0xbcbc80cd	-0.023010636
109	0xbd8a9d46	-0.06768279
110	0xbdeb77c9	-0.114974566
111	0xbda2b595	-0.0794479
112	0x3e2f36ce	0.1711075
113	0xbdc20109	-0.09472854
114	0xbd065475	-0.03279539
115	0x3d8af935	0.06785814
116	0x3c4c1494	0.012456078
117	0x3d1ba28e	0.03799682
118	0xbd9fcb4b	-0.07802447
119	0x3bcf0cef	0.0063186805
120	0x3d383280	0.044970036
121	0xbcb8b373	-0.022546506
122	0x3d677fa2	0.056518205
123	0x3dc9006d	0.09814534
124	0x3d3b54cc	0.045735165
125	0x3dfdf14b	0.123995386
126	0xbdab14d3	-0.08353581
127	0x3db73b8f	0.08946907
128	0x3d12bace	0.035822682
129	0xbdb8b975	-0.09019748
130	0xbd859db3	-0.06524219
131	0x3d906c22	0.07051875
132	0x3de599a0	0.11210942
133	0x3dea3490	0.11435807
134	0x3dc33ae5	0.095327176
135	0xbd6580ec	-0.056031153
136	0xbcc2db03	-0.023786074
137	0xbd3a5272	-0.045488782
138	0x3d3eed09	0.046612773
139	0x3e0507d4	0.12991267
140	0x3df31e13	0.118709706
141	0x3da92d3f	0.08260583
142	0xbcf3eae8	-0.029775098
143	0x3d4f62f0	0.050631464
144	0x3d6ba6bc	0.057532057
145	0xbd92eeb0	-0.07174432
146	0x3e2cdc8c	0.16881007
147	0xbdbb8026	-0.09155302
148	0x3d8415bd	0.06449459
149	0x3ce384dd	0.027773315
150	0xbca92c70	-0.020651072
151	0xbd751c22	-0.059841283
152	0x3d725fd0	0.059173405
153	0x3dc11118	0.094270885
154	0xbd9dbbe1	-0.07701851
155	0xbdeebfa8	-0.11657649
156	0xbdbe3a41	-0.09288455
157	0x3e39e750	0.18154645
158	0xbda91f1a	-0.08257885
159	0x3c85998a	0.016308565
160	0x3d691faf	0.05691498
161	0x3c25cac3	0.010119143
162	0xbdf6b320	-0.12045884
163	0x3dca8813	0.09889235
164	0xbcd0e131	-0.025498005
165	0xbe0832af	-0.13300584
166	0xbd37f7fd	-0.044914234
167	0xbca574af	-0.02019724
168	0x3d9a5a59	0.07536764
169	0x3e18a462	0.14906457
170	0xbb55bbdd	-0.0032613196
171	0xbb32fac6	-0.0027310117
172	0x3d310620	0.043218732
173	0x3e1f9845	0.1558543
174	0x3c76b2e0	0.015057296
175	0x3d5e1d78	0.054227322
176	0x3a9fc408	0.0012189159
177	0x3d71d15c	0.05903755
178	0xbde6cf75	-0.11270038
179	0x3bf26f50	0.0073985234
180	0xbc8327a0	-0.016010106
181	0xbcac6ae7	-0.021047069
182	0xbc443c0f	-0.01197721
183	0xbc8edcd5	-0.017439285
184	0x3d8308a9	0.06398136
185	0x3da7affb	0.081878625
186	0x3dae92ec	0.08524117
187	0xbdd6a91f	-0.10481476
188	0x3b60856a	0.0034259208
189	0xbd6b1c1c	-0.057399854
190	0x3daaad3b	0.08333822
191	0x3dc62ba8	0.096762955
192	0xbd658ca1	-0.056042317
193	0xbbf8d912	-0.007594236
194	0xbd9d483e	-0.07679795
195	0xbcdd57bc	-0.027019374
196	0xbdb32140	-0.08746576
197	0x3d4ac7db	0.049507003
198	0x3d93e098	0.07220572
199	0x3d0be213	0.034151148
200	0xbdb4fd82	-0.08837415
201	0xbd33b5df	-0.043874618
202	0x3de0fc5a	0.10985632
203	0x3d3ee37d	0.04660367
204	0xbc78ca42	-0.015184941
205	0xbcff4bc6	-0.031164061
206	0x3d9d5089	0.076813765
207	0x3c021389	0.007939228
208	0xbddfc785	-0.10926727
209	0x3d63cc19	0.055614565
210	0xbde18802	-0.110122696
211	0xbd02d81f	-0.03194439
212	0x3b2d234d	0.0026418746
213	0x3dc4f547	0.096170954
214	0xbcd358ec	-0.025799237
215	0xbd8b5728	-0.06803733
216	0x3d33612a	0.043793835
217	0x3decf9e3	0.115710996
218	0xbd578b4c	-0.05262308
219	0x3e17d096	0.14825663
220	0x3dbc7ff5	0.09204093
221	0xbe0b38c7	-0.13595878
222	0x3d4b5f9a	0.04965172
223	0x3d739c01	0.05947495
224	0xbe200bff	-0.15629576
225	0x3e405da8	0.18785727
226	0xbd9b48f0	-0.07582271
227	0x3d980e89	0.07424647
228	0x3c8a916b	0.016915044
229	0xbc020eec	-0.007938128
230	0xbc0c4a2e	-0.008562608
231	0xbb2b1453	-0.0026104643
232	0x3d225346	0.039630197
233	0xbd27893c	-0.04090236
234	0x3dc34d55	0.09536234
235	0x3d9e9d87	0.0774489
236	0xbd7b2908	-0.061318427
237	0x3d898436	0.0671467
238	0xbe58bf3d	-0.21166702
239	0xbcda8a61	-0.026677312
240	0x3dd9419f	0.10608219
241	0x3d84f42c	0.064918846
242	0xbc8b4b6c	-0.017003737
243	0xbdbab36b	-0.091162525
244	0x3da9e0cf	0.08294832
245	0x3dfa1c45	0.12212423
246	0x3d934440	0.07190752
247	0xbd5de735	-0.054175574
248	0x3d97a4e3	0.074044965
249	0x3d98a7b8	0.07453865
250	0xbdae83b4	-0.08521214
251	0x3db049c5	0.086078204
252	0xbdb76e36	-0.08956568
253	0x3d4c6d2e	0.04990881
254	0xbccbb001	-0.024864199
255	0xbd36e2f0	-0.04465002

conv3.0.bias f4 [12]
0	0x3bdbd265	0.0067084306
1	0x3dde25ce	0.108470544
2	0x3dc7a720	0.097486734
3	0xbd575a31	-0.052576248
4	0xbd610800	-0.05493927
5	0xbd945a63	-0.072438024
6	0x3db0a658	0.086254776
7	0x3df9a9f9	0.12190623
8	0x3de02b19	0.1094572
9	0xbd8566fc	-0.06513783
10	0x3cd881a1	0.026429
11	0x3ce91261	0.028451147

conv3.1.weight f4 [12]
0	0x3f7d2629	0.9888635
1	0x3f85d640	1.0456009
2	0x3f720e4e	0.9455308
3	0x3f78e729	0.9722772
4	0x3f7a8c7b	0.97870606
5	0x3f7bd957	0.9837851
6	0x3f7fb6e4	0.99888444
7	0x3f85cb2c	1.0452628
8	0x3f8533e4	1.0406461
9	0x3f86f6df	1.0544089
10	0x3f8146bb	1.009971
11	0x3f71f067	0.9450745

conv3.1.bias f4 [12]
0	0xbc28c3bc	-0.010300573
1	0x3d388fd9	0.04505906
2	0xbd952dcf	-0.07284128
3	0xbd0223fa	-0.03177259
4	0x3bcbf4d0	0.0062242523
5	0xbd35bb0b	-0.04436783
6	0xbd4f57e0	-0.050620914
7	0x3d3a3bd9	0.04546723
8	0xbcf9d3bc	-0.03049647
9	0xbb88e230	-0.0041773543
10	0xbd4533aa	-0.048144974
11	0x3be9a987	0.007130805

conv3.1.running_mean f4 [12]
0	0x3eb14275	0.34621015
1	0xbeb3f5a7	-0.35148355
2	0x3f0ddeef	0.55418295
3	0xbe2f14da	-0.17097798
4	0x3f19e107	0.6010899
5	0x3f1b6bdf	0.60711473
6	0x3f2b953d	0.67024595
7	0x3e92a12d	0.28638592
8	0x3ea70ee7	0.32628557
9	0x3f261c09	0.6488653
10	0xbeff51b5	-0.49867025
11	0x3ceb6baf	0.028737871

conv3.1.running_var f4 [12]
0	0x408f00fd	4.4688706
1	0x40df8ab9	6.985684
2	0x40e019b8	7.0031395
3	0x4087d2f8	4.244503
4	0x40f400f0	7.6251144
5	0x40af6dfb	5.4821754
6	0x40e5d0e7	7.181751
7	0x40a07189	5.0138593
8	0x410a85ed	8.657697
9	0x40a79e1e	5.2380514
10	0x405d2f22	3.4560018
11	0x40d01fd1	6.503884

conv3.3.weight f4 [12, 12, 4]
0	0x3d520d1e	0.05128204
1	0xbd80d64e	-0.062908754
2	0xbddc56a3	-0.10758712
3	0xbe39c273	-0.18140583
4	0x3cc8f84f	0.024532465
5	0x3dc6993f	0.09697198
6	0xbe3a8c00	-0.18217468
7	0x3e054edf	0.13018368
8	0xbd61f423	-0.055164468
9	0xbd84fcb1	-0.064935096
10	0x3dec2416	0.1153032
11	0xbe196be2	-0.1498256
12	0x3ccfb020	0.025352538
13	0xbd6c2d35	-0.0576603
14	0x3dc6bd78	0.09704107
15	0x3dfd29c9	0.123614855
16	0xbdc2069f	-0.09473919
17	0x3dd1b4b8	0.102395475
18	0xbdc58154	-0.09643808
19	0x3dc51af4	0.096242815
20	0xbc9573ee	-0.018243756
21	0xbcae9749	-0.021312373
22	0x3def8f1c	0.11697218
23	0x3e13dcd3	0.14439707
24	0xbd85b4a9	-0.06528599
25	0xbcab6b55	-0.020925203
26	0x3db708ad	0.08937202
27	0x3d4d6bb4	0.05015154
28	0x3dc22942	0.094805256
29	0xbd0dabd2	-0.03458769
30	0x3db4a273	0.08820047
31	0x3d9e4d21	0.07729555
32	0xbd9c928c	-0.07645139
33	0x3e0e136f	0.13874601
34	0xbde31c53	-0.11089387
35	0x3ddd29b9	0.107989736
36	0xbde3339e	-0.110938296
37	0xbe025a2b	-0.12729709
38	0xbdf0cc43	-0.1175771
39	0xbd0faab5	-0.03507491
40	0x3d43ccea	0.047802843
41	0x3cc85c9d	0.024458224
42	0xbdbc8c5a	-0.092064574
43	0xbd9f32ff	-0.077733986
44	0x3d848a0e	0.06471644
45	0x3c1ab07b	0.00944149
46	0x3cec8077	0.02886985
47	0x3c7ba586	0.015359288
48	0xbc453781	-0.012037159
49	0xbd0e4739	-0.034735892
50	0xbdb5d4e0	-0.08878493
51	0xbda0101c	-0.078155726
52	0xbdf803ed	-0.12110124
53	0x3d2b4d41	0.041821722
54	0xbe349087	-0.17633258
55	0xbce6e1a9	-0.028183775
56	0xbdb17b34	-0.08666077
57	0x3de2f3b4	0.11081639
58	0x3df4bb89	0.11949832
59	0x3d91cf70	0.07119644
60	0x3d99d794	0.075118214
61	0xbd0e3a43	-0.03472353
62	0x3e11a372	0.14222506
63	0x3dd2b436	0.10288279
64	0xbd6f0ce3	-0.0583619
65	0x3d046b9c	0.032329187
66	0xbd72ce74	-0.05927892
67	0xbd352071	-0.04422039
68	0x3d7e870b	0.062140506
69	0xbc3fde39	-0.011710697
70	0xbd6b29ed	-0.05741303
71	0xbdeadaaf	-0.11467492
72	0xbdcd7a46	-0.100330874
73	0xbdf06e85	-0.1173983
74	0xbcd69dba	-0.026198257
75	0x3dc7ed57	0.09762066
76	0xbc1c13ef	-0.009526237
77	0xbdca739a	-0.098853305
78	0x3d36b088	0.044601947
79	0x3bba718f	0.005689807
80	0x3dd00794	0.101576954
81	0x3da7df52	0.08196892
82	0xbdcce72f	-0.10005032
83	0x3d8f1f81	0.06988431
84	0xbdfcaeda	-0.12338038
85	0x3d9dd68c	0.07706937
86	0xbdacb951	-0.08433784
87	0x3c7b8a0f	0.01535274
88	0x3c47e909	0.012201556
89	0x3dee25f6	0.11628334
90	0xbd458f49	-0.04823235
91	0x3dd92549	0.10602815
92	0xbde19be5	-0.11016063
93	0xbd0426f5	-0.032263715
94	0xbd1cda9c	-0.03829442
95	0x3e0399ad	0.12851591
96	0x3d3b4dfd	0.045728672
97	0x3da7d327	0.08194571
98	0x3d855141	0.065096386
99	0x3d3da373	0.046298455
100	0x3e20a30b	0.15687196
101	0xbdd985a8	-0.10621196
102	0x3db11a39	0.0864758
103	0x3dc28065	0.094971456
104	0xbc93320a	-0.017968196
105	0x3d1587fd	0.03650664
106	0xbda30e20	-0.079616785
107	0xbbc601be	-0.006042688
108	0xbd9343dc	-0.071906775
109	0x3d484c34	0.048900798
110	0xbe04ac09	-0.12956251
111	0x3e0e0a83	0.13871197
112	0x3b9eaff9	0.004842755
113	0x3d265eec	0.04061787
114	0xbd9a9cf0	-0.07549465
115	0x3e0b9b76	0.13633522
116	0x3e13c025	0.14428766
117	0xbc6e0b5c	-0.0145290755
118	0x3c85ead0	0.016347319
119	0xbdacedcc	-0.08443794
120	0xbd847a44	-0.06468633
121	0xbd4fe818	-0.05075845
122	0xbe09c6d0	-0.13454747
123	0xbd8ad6b4	-0.067792326
124	0xbddbcabb	-0.10732027
125	0x3de8dcca	0.11370237
126	0x3c0a043c	0.008423861
127	0x3e18c997	0.1492065
128	0x3d815146	0.0631433
129	0xbe01eff8	-0.12689197
130	0x3d590a56	0.052988373
131	0xbe0013d9	-0.12507571
132	0xbdec1071	-0.115265734
133	0x3ddbad44	0.10726407
134	0xbdc7076e	-0.09718214
135	0x3e08db4a	0.13364902
136	0xbdb7d89f	-0.08976864
137	0x3cd160fb	0.02555894
138	0xbc9c89c8	-0.019108668
139	0x3ab72968	0.0013974132
140	0xbd11e662	-0.0356201
141	0x3d5a1a34	0.053247645
142	0xbd77868a	-0.06043104
143	0x3d99fae7	0.07518559
144	0xbbfd2816	-0.007725726
145	0x3d98387c	0.074326485
146	0x3dc6e491	0.09711564
147	0x3db48af1	0.088155635
148	0xbaf73ee6	-0.001886335
149	0xbce34dee	-0.02774712
150	0x3e1b90e8	0.15191996
151	0xbdec7cd1	-0.11547244
152	0xbdc7bcbb	-0.09752794
153	0xbdb53a2e	-0.088489875
154	0x3de96f96	0.113982365
155	0xbd8b73c9	-0.06809194
156	0x3ceca79e	0.02888852
157	0x3d6f99bf	0.058496233
158	0xbdea179d	-0.11430285
159	0xbd7ee972	-0.06223435
160	0x3d9edd05	0.07757
161	0xbd13b7fb	-0.03606413
162	0x3e05b932	0.13058928
163	0xbe2ed989	-0.1707517
164	0x3bf3af97	0.0074367034
165	0x3d5f3690	0.054495394
166	0x3d98f5a3	0.074687265
167	0x3bd1063a	0.006378916
168	0x3de04361	0.109503515
169	0xbde13723	-0.109968446
170	0xbe1ac232	-0.15113142
171	0x3d5d970c	0.054099128
172	0x3c482fa2	0.012218388
173	0x3d4aacdc	0.049481258
174	0xbd78d7b8	-0.0607526
175	0x3d7985fe	0.0609188
176	0xbda3947e	-0.07987307
177	0x3cfaabc6	0.030599486
178	0xbd87d788	-0.06632906
179	0xbb48e916	-0.0030656508
180	0x3e430772	0.19045809
181	0x3da69fb2	0.08135928
182	0xbd276ca0	-0.040875077
183	0x3e03328a	0.12812248
184	0xbd9efea6	-0.07763414
185	0xbd041a5d	-0.032251704
186	0x3d5e48c6	0.05426862
187	0xbd17c482	-0.03705264
188	0xbe056ed0	-0.13030553
189	0x3cf27ae4	0.029599614
190	0xbdb7ba90	-0.08971131
191	0x3d040bd7	0.032237854
192	0x394ef710	0.00019737729
193	0xbcaf0569	-0.021364884
194	0xbdd463a7	-0.1037057
195	0x3db89bcc	0.09014091
196	0x3cda7571	0.026667329
197	0xba3cecbc	-0.0007206907
198	0xba9b1c3a	-0.0011833974
199	0x3e200fa4	0.15630966
200	0x3d4b1bf7	0.049587216
201	0x3d7970dc	0.060898647
202	0xbda3f183	-0.08005049
203	0x3db17ec9	0.086667605
204	0x3ddef94b	0.108873926
205	0xbd8a5b78	-0.067557275
206	0x3e10e7fa	0.14150992
207	0x3ba1b95e	0.0049354276
208	0xbe06a2f0	-0.13148093
209	0x3d5a0757	0.053229656
210	0x3d268fb3	0.040664386
211	0xbd0ff1fa	-0.035142876
212	0x3da9aece	0.082852945
213	0xbcd53ea8	-0.026030853
214	0x3cd830f5	0.026390532
215	0x3babdc6c	0.005244782
216	0x3d4b70c5	0.049668092
217	0xbde1ecca	-0.11031492
218	0xbe0a1db5	-0.13487895
219	0xbdd1460a	-0.10218437
220	0xba3c2cc7	-0.0007178303
221	0x3e0a1544	0.13484675
222	0x3e0eeecb	0.1395828
223	0xbe060e41	-0.13091375
224	0xbd45d0d6	-0.048294865
225	0xbba786bd	-0.0051124976
226	0xbe307972	-0.17233828
227	0x3d1674f7	0.03673264
228	0x3da5e173	0.08099642
229	0xbbd3870e	-0.0064553088
230	0xbd9612f6	-0.07327835
231	0x3df38396	0.118903324
232	0x3e007e09	0.12548079
233	0x3df319f1	0.11870182
234	0x3da79cd7	0.08184212
235	0x3de9abdd	0.114097334
236	0x3d477219	0.048692796
237	0xbdc8e672	-0.09809579
238	0x3d714bf1	0.058910314
239	0x3d1a5253	0.037676167
240	0x3e0a500e	0.13507101
241	0xbb5c2904	-0.0033593783
242	0xbdfa2eb4	-0.12215939
243	0xbbdb01f5	-0.006683583
244	0xbe22e802	-0.15908816
245	0x3dd97e5c	0.10619804
246	0xbd34f263	-0.04417647
247	0x3e162650	0.14663053
248	0xbd947709	-0.07249267
249	0xbd68f992	-0.056878634
250	0x3c7ab6c9	0.015302368
251	0x3d12921c	0.035783872
252	0xbc9f6d55	-0.019461313
253	0xbc56eb5a	-0.013117636
254	0x3dce0368	0.100592434
255	0xbd00f44e	-0.031482987

conv3.3.bias f4 [12]
0	0xbda73fe7	-0.08166485
1	0x3dbadc42	0.09124042
2	0x3dc02a49	0.09383065
3	0xbe0c60a3	-0.13708739
4	0xbdf262dc	-0.11835262
5	0x3dbfc0fd	0.093629815
6	0xbdd2c238	-0.102909505
7	0xbd81c692	-0.063367024
8	0xbdeac772	-0.114638224
9	0x3c7a89db	0.015291656
10	0x3d14632e	0.036227398
11	0xbb8ed340	-0.004358679

conv3.4.weight f4 [12]
0	0x3f858e3f	1.0434035
1	0x3f831e7f	1.0243682
2	0x3f866286	1.0498817
3	0x3f8572c6	1.0425651
4	0x3f84e9fa	1.0383904
5	0x3f8575e2	1.04266
6	0x3f84d52d	1.0377556
7	0x3f8493c6	1.0357597
8	0x3f81f0e1	1.0151635
9	0x3f82d89d	1.0222355
10	0x3f855c74	1.041884
11	0x3f80ecb9	1.0072242

conv3.4.bias f4 [12]
0	0x3b181b21	0.002320953
1	0x3b0df389	0.002166005
2	0xbb8443c2	-0.0040363977
3	0xbbcd0b8b	-0.0062574795
4	0xbb8349cd	-0.0040066005
5	0xbb82ae8d	-0.003988093
6	0xbb814a98	-0.00394566
7	0xbb911a7c	-0.004428206
8	0xbb9c0324	-0.0047611166
9	0x3b3c33f9	0.0028717502
10	0x3b5753c6	0.003285633
11	0xbc07139c	-0.008244421

conv3.4.running_mean f4 [12]
0	0xbdca3d9a	-0.09875031
1	0xbca9f4d1	-0.02074662
2	0x3e24070c	0.16018313
3	0xbd8b5baf	-0.06804597
4	0x3dfc2c83	0.123131774
5	0x3e32221d	0.17395826
6	0xbd88a2cf	-0.06671678
7	0x3c1031ca	0.008800933
8	0xbe09a662	-0.13442376
9	0x3cae80fc	0.021301739
10	0x3dc4eaec	0.0961512
11	0xbb788913	-0.00379235

conv3.4.running_var f4 [12]
0	0x3dd61dce	0.104549035
1	0x3dec89d7	0.11549728
2	0x3d82060f	0.06348812
3	0x3db2ffac	0.08740172
4	0x3da9f3d7	0.08298462
5	0x3d24408c	0.04010062
6	0x3d6de618	0.058080763
7	0x3da7b96d	0.08189664
8	0x3dd97ce6	0.106195256
9	0x3de80125	0.11328343
10	0x3d7b2f84	0.06132461
11	0x3df1c250	0.1180464
