model/AutoY/IAAcheckpoint0.pt (torch, 34275 bytes, 51 tensors)

conv1.0.weight f4 [12, 15, 2]
00000000: 6b06 8f3d 684e edbc 331f 10bd 50ca 813c
00000010: 7b02 7c3d b4d0 e53d 055c 323d aab6 1cbd
00000020: 1878 d5bd 6b5d 2c3d 2a4d a3bd 8f83 2e3e
00000030: 3d14 7cbd fcd4 20be 2b38 32be 0688 c7bd
00000040: cb32 a63d bcf5 803d c5b8 dd3d 09cc 863d
00000050: 753b fa3d 0eee 273d 4b0f 45bd aebe 08be
00000060: 8212 61be 8ad6 8f3a 0125 903d 1559 8cbd
00000070: a07a 753c 3ac2 2c3c 3771 543e 650c a33d
00000080: 28dd 83bc 050b 6a3d 1591 053d f4b5 833b
00000090: 6b94 373e 0136 49bd 604e edbd 8ade 073e
000000a0: 4d7f 013d f704 cf3d bb2f c5bd 20a4 81bd
000000b0: 2f3c 1e3d 0730 1a3b 80d4 9dbd 03b6 dcbd
000000c0: 5b78 47be e0a8 d43d 713f 03be a5d2 e73d
000000d0: 7892 e23c 9ae6 d7bc 4f5c 0f3d fc33 023e
000000e0: ba54 fe3d 202e 013e 2a7e ad3d f6d0 85bd
000000f0: 1e2f c6bd 5b1d 3cbd 9693 d53c 598e 0b3e
00000100: 97fe b33c 14ce 9abd 4fea e6bd 168c 41bc
00000110: 46ec fabb 8715 5d3d 4ea2 54bc 16f0 11be
00000120: f7db e53d 938b 4abe e77c e13c 3b16 003e
00000130: 64d3 ecbd a82e a8bd accc a1bd c76e cd3d
00000140: d445 0fbe 4703 0c3e fedc 373d 1b9a 35be
00000150: 9129 9ebd 5b16 1fbe 49d1 e93d a8d2 dbbc
00000160: e5d6 98bc 0ade a2bb 18e8 3fbe ce49 0e3d
00000170: 9541 883c eef0 703d 9125 a93d 74b3 2bbe
00000180: 1603 91bc 5183 833d 577c 86bd ae47 31bd
00000190: 4d0f 6abd 5f06 02be 3135 163e cdfe 213d
000001a0: 25e7 f8bb 0db5 f0bd 3987 a43d 96e2 d7bd
000001b0: 27e0 11be 0163 af3c b747 fc3d 2b8c 1c3e
000001c0: 4e10 1fbe 0d8c 09bd 51ae 7b3d 1ae4 233d
000001d0: 0049 66be 6ae7 813d 0bdc 0dbe 9fea e3bb
000001e0: ace1 ffbd 0862 b83d ad98 aabc 4275 0ebd
000001f0: 4e7c ca3d eb54 b5bd a0d5 b4bd f9cc 25be
00000200: a896 993d faa0 ebbd 7091 c33d cd11 15be
00000210: ccbd 33bd e62c 153d 6482 403d 86ca 5fbd
00000220: fdad 113c 23dc 263c 961c 0f3e 4dac 1abd
00000230: c723 54be 4037 4c3e 5e5f f8bd e84d 59bd
00000240: 8d96 023d 13ea a33c efc6 14be a5f8 82bc
00000250: e083 fabb b752 843d c91b f4bd 0294 a43d
00000260: ad98 b03d b187 1dbe 2061 77bc 6a01 3c3c
00000270: 8bf1 53be e8ed 7fbc 7c2e cebb 933c f23d
00000280: 3c6c e73d 676e a23d c06d 153e 3c94 063e
00000290: badc 343e 9714 d2bc b40c 1dbe c407 e8bd
000002a0: 47c4 aa3d 912c 883d 52cb 393e 70da 4c3d
000002b0: 431a 23be 153b 993d 97d9 093e a3fa 1c3e
000002c0: eb8b 163e 28d7 9d3d 7719 533d 3955 6e3d
000002d0: 0fd7 083e 2ceb 873d d251 0e3d d420 bcbd
000002e0: 9e60 1ebe cd58 00be 945b 0e3e fc57 b33c
000002f0: a891 dcbd 3764 a63a 82f4 d8bc 1c68 eb3d
00000300: 6973 5cbe ce92 66bd 2dd2 323d c4b6 073e
00000310: 14da 00be 6105 56be b21c b83d c522 4c3e
00000320: ad4f 223d a8a3 343e 0585 3ebd 5166 3cbc
00000330: 6315 58bc 9aca 62be 8d76 373e fc88 5abd
00000340: e915 be3d 4e28 6abe dc3b d33d 7dcf adbd
00000350: 2f84 e53d 1e1e 0a3e c08f fbbd 4b47 86bc
00000360: d4ae a33d 37b1 a9bd fe2e 40be e457 babd
00000370: 2903 973d e73a 9b3d 247d 74bd d77f dd3d
00000380: 1732 dfbd 3db2 ee3d 49d6 a93c e9e3 273e
00000390: 9e02 433d 9d50 15be f5dd 5fbd d3dc e63d
000003a0: cf1d 7ebd e905 c53c 3aea 16be f139 65bd
000003b0: 4bc0 1bbe eec2 a73d dfa1 9b3d 50fc 9ebd
000003c0: 5652 253d 7cb1 013e a9cc a1bd 0e24 94bd
000003d0: 28c6 aa3d 5723 833d 9ef7 22be 65a4 22bd
000003e0: 3939 353e 97dd 15be c330 4bbd 1a04 e83b
000003f0: d5bf 3fbe 38b1 3a3e 4d69 aeba 481b b8bd
0.06983646 -0.028968051 -0.035186004 0.01584354 0.061525803 0.112214476 0.043544788 -0.03826014
-0.10423297 0.042081278 -0.07973702 0.17042373 -0.06154274 -0.15706247 -0.17404239 -0.09742741
0.08115157 0.0629687 0.108262576 0.06581885 0.12218372 0.04099851 -0.048110288 -0.13353989
-0.21979716 0.0010973972 0.07038308 -0.068529285 0.014982849 0.010544354 0.20746313 0.079613484
-0.016096666 0.057139415 0.032609064 0.0040194932 0.1792771 -0.049123768 -0.115872145 0.13268486
0.031615544 0.10108369 -0.096282445 -0.063301325 0.038631614 0.0023527162 -0.07706547 -0.107769035
-0.19479506 0.10383773 -0.1281717 0.11319474 0.027657732 -0.026355077 0.03500014 0.12715143
0.12418504 0.12615252 0.084713295 -0.06533997 -0.09676956 -0.045926433 0.026071351 0.1362852
0.021971984 -0.075588375 -0.112751596 -0.011813184 -0.0076575605 0.05397561 -0.01297815 -0.14251742
0.112235956 -0.19779806 0.027525378 0.1250848 -0.11563757 -0.08212024 -0.07900366 0.10030895
-0.13991481 0.13673125 0.04488849 -0.17734568 -0.07722772 -0.15535872 0.11416871 -0.026833847
-0.018657157 -0.004970317 -0.1874088 0.034738354 0.016632834 0.05882352 0.08259118 -0.16767675
-0.017701667 0.06421531 -0.06566685 -0.04328125 -0.0571435 -0.12697743 0.14668728 0.039549638
-0.007595914 -0.11753283 0.08033604 -0.10541265 -0.14245664 0.021409513 0.12318366 0.15287845
-0.15533563 -0.03358083 0.061445538 0.040012456 -0.22488785 0.06342967 -0.13853471 -0.0069554592
-0.12494215 0.09003073 -0.020824755 -0.034779795 0.098869905 -0.088540874 -0.08829808 -0.16191472
0.074994385 -0.11505313 0.095492244 -0.14557572 -0.043882176 0.03641977 0.04699935 -0.0546365
0.00889158 0.010184321 0.13975748 -0.037761975 -0.20716773 0.19942951 -0.12127565 -0.053052813
0.031881858 0.020009076 -0.14529012 -0.015987704 -0.0076451153 0.06461089 -0.11919362 0.08036043
0.086228706 -0.15383793 -0.01509884 0.0114749465 -0.2069761 -0.015620686 -0.0062921625 0.1182796
0.11299941 0.07931214 0.14592648 0.13142484 0.17662326 -0.025644584 -0.15336877 -0.11329606
0.08338218 0.06649125 0.18143967 0.050013006 -0.15927987 0.07481972 0.1346191 0.15329985
0.14701812 0.077070534 0.051537957 0.058186743 0.13363288 0.06636652 0.034746 -0.09185949
-0.15466544 -0.12533875 0.13902122 0.02189254 -0.10769969 0.0012694661 -0.026483778 0.11494467
-0.215284 -0.056292348 0.04365747 0.13253313 -0.1258319 -0.2090049 0.08989848 0.19935139
0.039626766 0.17640555 -0.046513576 -0.0114990035 -0.013188693 -0.22147599 0.17916317 -0.053353295
0.09281523 -0.22866938 0.10314152 -0.08486841 0.11206853 0.13488051 -0.122832775 -0.016391417
0.0799233 -0.08285754 -0.18767926 -0.09098795 0.073736496 0.07579594 -0.059689656 0.10815399
-0.10898226 0.1165509 0.020732062 0.16395535 0.047609918 -0.14581533 -0.054655034 0.112725876
-0.062040146 0.02405067 -0.14737788 -0.05596346 -0.15210073 0.08191477 0.07599234 -0.077629685
0.040361725 0.12665361 -0.07900364 -0.072334394 0.083385766 0.06403225 -0.15914771 -0.03970756
0.1769761 -0.14635311 -0.04960705 0.007080567 -0.18725522 0.18231666 -0.0013306529 -0.089895785

conv1.0.bias f4 [12]
00000000: 66c8 de3d ee2d ccbd 8963 d23d 45ba 05be
00000010: daba b63d 73ca 01be ddc4 6e3d dc2c 8cbd
00000020: b95e 2fbe 8cfc 6d3c 0c89 0b3e eb4e 09be
0.10878067 -0.09969698 0.10272891 -0.13059337 0.08922358 -0.12674884 0.058293212 -0.06844494
-0.17125978 0.014525544 0.13626498 -0.13409011

conv1.1.weight f4 [12]
00000000: 730e 843f 5b24 713f 6d32 863f b262 783f
00000010: 6b8d 873f 8e07 793f b4e4 833f 275f 703f
00000020: 7f71 773f c10c 7f3f 8246 833f 8e52 843f
1.031691 0.941961 1.0484139 0.970256 1.0590032 0.9727715 1.030417 0.9389519
0.96657556 0.99628836 1.0255892 1.0337694

conv1.1.bias f4 [12]
00000000: 63d5 d3bc 18ab 4cbd dd0b 4c3d c962 88bd
00000010: 1231 8bbc 0ba7 21bd 6293 0cbd fe7d 6fbd
00000020: 4b77 cab8 efc0 c93b 0040 a8bc ad0a 26bd
-0.025858587 -0.049967855 0.049816 -0.06659467 -0.016991172 -0.039465945 -0.034320243 -0.058469765
-9.654331e-05 0.0061570327 -0.02053833 -0.040537525

conv1.1.running_mean f4 [12]
00000000: 762e ae3d 0ff2 e03e bbec 99be f733 20be
00000010: 94ee edbc c26d fbbe 5964 90be 92e5 903e
00000020: 3716 15be 0452 e63d dba8 debe 60e4 cdbe
0.085049555 0.43934676 -0.30063424 -0.15644823 -0.029044427 -0.49107176 -0.2820156 0.28300148
-0.14559256 0.11246112 -0.43488201 -0.402133

conv1.1.running_var f4 [12]
00000000: c64a 2240 3bbe 0141 801c 8640 4c92 da40
00000010: e9d4 4f40 f1c6 a440 1aa4 d240 4f11 bc40
00000020: d63e bf40 4863 eb3f 5434 c540 cc8f 7740
2.5358138 8.108943 4.190979 6.8303585 3.24737 5.149285 6.582532 5.877113
5.9764204 1.8389673 6.1626377 3.8681517

conv1.3.weight f4 [12, 12, 2]
00000000: 178e af3d 4b9f 35be 7b4f f3bd 53fd 2bbe
00000010: 8cbc 2cbe 2517 90bb 0ffa 353e 7c9d e6bc
00000020: 9e35 06bd 8e71 0e3e c70b 60bd 1831 20bc
00000030: b574 46bd a510 3cbd eb0a 013e 9862 02bd
00000040: 0d42 a83d 254e 16be 5427 c03d 9537 1cbe
00000050: 3224 283e 40fb 583e 88e0 ffbd 2f8d babd
00000060: 8fa1 0dbd c91d 3f3d cdea 003e 5a08 adbd
00000070: 0537 b83d 8493 14be 8cf6 b5bc 2c63 a93d
00000080: 20f6 623e 7392 573e 0805 6d3d 1df2 0d3e
00000090: 46ea 3bbe 02f5 8bbd f289 8d3d f607 b2bd
000000a0: 81b1 17be 1043 5d3d fe1c a6bd 2e93 633d
000000b0: 046b 0b3d 405c 96bc c129 bf3c d11e b03b
000000c0: 0658 1c3d f984 aabd 3ce6 ac3d e60e f6bc
000000d0: 2b4b be3c 3575 323e 2f36 f1bd 5dce 37be
000000e0: 99cd cebd f37f 20be 6257 e6bc 3882 0ebe
000000f0: aa9a c8bd 9315 01be 9e4d cf3c 6354 a53d
00000100: d7c1 90bd 7aa1 c03d 027c 00bd 3d6a 34be
00000110: 9cab 08bd 326c 6c3e fa17 0a3e 850c f43d
00000120: d8bb cbbd 275c 813c 066a 863c 5559 92bc
00000130: 6b29 2a3e 51ad 0dbe c323 083e 1ab9 c2bd
00000140: 8860 d13b 5d0c 063e 4f2a febc 4c8f 77bc
00000150: 30dd 4d3d e524 21be 5d8f cd3d 5047 0b3e
00000160: 94fe 27bd 5c9a 8c3c 482d 04be e136 503e
00000170: 7c43 11bd 335a 803d 65b3 53be dd3f 343d
00000180: e6dd 71bc a643 3ebd 001f 1f3e 1011 2bbe
00000190: 2b1e 37be 5aa5 3cbd 5298 56be ddcf d93d
000001a0: 84ce 453e 846c dcbd 3f91 c2bd ef10 da3d
000001b0: ad39 a53c 742c 803d 104d 2bbe b705 0abe
000001c0: 8b84 6dbd a584 853d a335 173e b5b7 533d
000001d0: 5aa7 4c3e c1a3 fbbb df89 543d a4bd 673e
000001e0: 7c2d 39be 164c 303e 760c a2bd 388e b0bd
000001f0: 8f76 da3d 6875 57be 16c9 e3bd 9f13 163c
00000200: de42 3dbe db0a a63d d6a4 0a3e b194 b2bd
00000210: 90c3 e1bb 88d6 0ebe 56ea 7bbd 53ec 873d
00000220: 29db 913d 3fbb 39be 3211 4bbd d2a7 2ebd
00000230: bd35 7abe 998d 973d 1106 bcbd 9b13 193e
00000240: 0aea 193e 33a4 26ba 080f 7cbd cbab 093e
00000250: 967d 213e 1054 27be 33d3 91bd 5df2 763d
00000260: 0d32 9a3d 4315 2e3c 0c51 babc 5746 4c3d
00000270: f8b7 efbd af4a 86bd b19a 89bd 4e8a 37bd
00000280: 4b46 a0bd 7b94 253e 5c7e 1f3e cef4 06bd
00000290: 83b7 f9bd 347b 10be ab37 2ebe 0534 283e
000002a0: 1386 2b3e bf3c 3a3e 0e18 42be b25b 8fbd
000002b0: 1074 583e 43b5 c6bd 5d23 89bc 2638 18be
000002c0: edf6 a7bd 062e 903d dda2 c23b 1a22 f23d
000002d0: 6641 debd c3c5 ce3d 6631 253e 170e ce3c
000002e0: ea10 923c 79bf cebd ee57 ba3d a5e3 adbc
000002f0: d342 2fbd bc56 3a3d 43a7 b9bd de76 413d
00000300: 2e37 513e a6f3 1bbd d480 133d 54e5 b0bd
00000310: 6122 39be a21a f5bd 0984 0f3e 2cc7 f23d
00000320: ad71 903b d5a9 533e c7e0 2fbc d55c f43d
00000330: e9c8 05be 383b c1bd 9d99 10be 6a9d 323e
00000340: cacd 20bd 660d 073c b347 e7bd ccf8 da3d
00000350: 7af0 abbd aa05 22be d70a 0fbd ae9f c5bd
00000360: d07a 94bd 85de d03d 967b 1d3e 4578 15bc
00000370: 325e 2d3e 9897 27be f890 18be 0ea5 eabc
00000380: 9da9 b23d 44b5 3cbd db03 39be 0b43 ba3d
00000390: f1f4 193e 6300 a2bd 4216 073e 742f 7bbd
000003a0: eb5f 12be e52d 3a3e a1da 1d3b afe7 e3bd
000003b0: c0cb 4cbe 3274 623e 6c01 c23c 538f c73d
000003c0: c66e 1dbe 922e d8b8 c15f 04be d22d 243d
000003d0: 683a c9bd d687 af3c 0e94 01be 8400 de3c
000003e0: f08a 35be ee95 55be f5a3 673e 6047 0b3e
000003f0: b089 08bd 6c42 09be d46f 0f3e 1646 a5bd
0.08572023 -0.17736547 -0.11880394 -0.16795854 -0.168688 -0.0043972903 0.17771171 -0.028151266
-0.032765977 0.13910505 -0.05469873 -0.00977733 -0.048451144 -0.04591431 0.12601821 -0.031832308
0.08215723 -0.14678247 0.09382501 -0.15255578 0.16420057 0.21189594 -0.12493998 -0.0910896
-0.034577902 0.046659265 0.1258957 -0.084488586 0.08994869 -0.14509398 -0.02221229 0.08270869
0.22164202 0.2105196 0.057866126 0.1386189 -0.18351087 -0.06833841 0.069110766 -0.08692925
-0.14813806 0.054019034 -0.081109986 0.055560283 0.034037605 -0.018354535 0.02333534 0.0053747674
0.038169883 -0.08326144 0.08442351 -0.030036401 0.023229202 0.17427523 -0.11777913 -0.17949815
-0.100978084 -0.15673809 -0.02811784 -0.13916862 -0.09795125 -0.12605886 0.025305565 0.08072736
-0.07068222 0.09405799 -0.031368263 -0.17618652 -0.033366784 0.23088148 0.13485709 0.119164504
-0.09947938 0.015791012 0.016407978 -0.017864862 0.16617362 -0.13835646 0.13294892 -0.095079616
0.0063896812 0.13090654 -0.031026034 -0.015109848 0.05025977 -0.1573673 0.1003711 0.13601422
-0.04101427 0.017163448 -0.12907898 0.20333435 -0.03546475 0.06267204 -0.20673902 0.044006217
-0.014762377 -0.046451233 0.1553917 -0.16705728 -0.17882602 -0.04605613 -0.20956543 0.1063535
0.1931706 -0.10762885 -0.0950036 0.10647761 0.020169104 0.06258479 -0.16728616 -0.13478743
-0.05798773 0.065194406 0.14766555 0.05168887 0.19985715 -0.007679433 0.051889297 0.22630936
-0.18083757 0.17216524 -0.07912533 -0.08620876 0.106671445 -0.2104088 -0.111223385 0.0091599515
-0.18482539 0.08107539 0.13539442 -0.08719767 -0.006889768 -0.13949025 -0.061502777 0.06636872
0.071218796 -0.18137835 -0.049576946 -0.042640515 -0.24434562 0.074000545 -0.091808446 0.14948885
0.15030685 -0.0006356865 -0.061537772 0.1344444 0.15770563 -0.16340661 -0.07120361 0.06028973
0.07529078 0.010625186 -0.022743724 0.04987177 -0.11705011 -0.065572135 -0.06718958 -0.044809632
-0.07825907 0.16169922 0.15575546 -0.032948308 -0.12193205 -0.14109498 -0.17013423 0.16426094
0.16750364 0.18187235 -0.18954489 -0.06999911 0.21138024 -0.09702542 -0.016740495 -0.14865169
-0.08201394 0.07040028 0.005939825 0.118229106 -0.108523175 0.10096314 0.16132125 0.025153203
0.01783033 -0.10095114 0.090988025 -0.021226713 -0.042788338 0.045492873 -0.09065106 0.0472325
0.20431206 -0.038074158 0.036011532 -0.08637491 -0.18079521 -0.119679704 0.14015211 0.11854395
0.0044080825 0.20670255 -0.010734743 0.11931769 -0.13064922 -0.09435123 -0.14121099 0.17442861
-0.039258756 0.0082429405 -0.112929724 0.106919855 -0.08395477 -0.15822473 -0.034922447 -0.09649597
-0.07249987 0.10198692 0.15379176 -0.009122913 0.16930464 -0.16366422 -0.14899051 -0.028643157
0.087237574 -0.046071306 -0.18067877 0.09094819 0.15034844 -0.0791023 0.13192084 -0.06132455
-0.14294402 0.1818157 0.0024086612 -0.111281745 -0.199996 0.22114637 0.023682319 0.09744134
-0.15374288 -0.00010308357 -0.12927152 0.04008276 -0.09825593 0.021427076 -0.12654135 0.027099855
-0.17728782 -0.20857975 0.22621138 0.13601446 -0.033334434 -0.13404244 0.14007503 -0.080700085

conv1.3.bias f4 [12]
00000000: 4316 1a3d 3b3e 443e 6ef3 b1bd f932 f33d
00000010: ee68 263e 973d e53d aa65 d5bd 149c 3bbe
00000020: f73f 593d 11ca dd3d e92e 4b3e 2e68 a1bd
0.037618887 0.19164364 -0.08689009 0.11874957 0.16250965 0.11193388 -0.104197815 -0.18321258
0.053039517 0.10829557 0.19842114 -0.07881199

conv1.4.weight f4 [12]
00000000: 1c2c 7d3f 288b 853f 11be 813f d528 813f
00000010: f0e2 843f 6bb4 7c3f 78f9 863f 854f 893f
00000020: ec79 833f 6c3b 803f 4484 803f 7066 873f
0.9889543 1.0433092 1.0136129 1.0090586 1.0381756 0.98712796 1.0544882 1.0727392
1.0271583 1.0018134 1.0040364 1.0578136

conv1.4.bias f4 [12]
00000000: 28b3 dfbc be57 e73c de2c ecbc d75b e4bc
00000010: 55b1 ef3c b7a7 ddbc 15dd f73c fc43 f63c
00000020: 2b5f 903b 0cd7 e1bc 87ad e2bc 9401 f53c
-0.027307108 0.02824008 -0.028829988 -0.027875824 0.029259363 -0.027057512 0.030256787 0.030061714
0.004405876 -0.027568363 -0.027670635 0.02990798

conv1.4.running_mean f4 [12]
00000000: 46eb 93bd 3c01 983e 524b 38be 4f0e 223e
00000010: 76ba 4f3e c95a 4dbe 4454 07be d2b0 afbd
00000020: 85ac 88bd 5a98 2e3e 150e 8e3d c7ac 6cbe
-0.07222609 0.29688442 -0.17997482 0.15825771 0.20285973 -0.20054163 -0.13215739 -0.08578648
-0.066735305 0.17050305 0.0693628 -0.23112784

conv1.4.running_var f4 [12]
00000000: 123b de3d 5073 d83d 5b3d c23d 7a9c 3b3d
00000010: c550 933d 9901 083e 8cd9 8d3d cd35 2b3d
00000020: 6117 d53d 0203 173e 8796 d43d 1d06 bd3d
0.108511105 0.10568869 0.09484359 0.045803525 0.0719314 0.1328186 0.069262594 0.041799355
0.1040485 0.14747241 0.10380273 0.09229682

conv2.0.weight f4 [12, 15, 3]
00000000: 65dd 93bd c5df c0bd 1ff5 a23d 396b c5bd
00000010: dc5b 973d e0f2 2f3b 4aa4 a1bd a816 cd3c
00000020: 0e0d fabd 109f b0bd 2c5e d23d 4756 ba3d
00000030: 281b f93c fe13 b53d 3dea 12bd 4cce 963d
00000040: fa4e d0bc 4c50 8fbc 14cf e93b 182e f4bd
00000050: 8e1b c3bd 4eea 773c cf97 353b 7aad 2ebe
00000060: 65b9 233e 0252 c0bd 0cb9 e1bc b909 d8bd
00000070: 26a4 b9bd 6b07 923c 4c4d b5bd 4e1f 003e
00000080: aa25 a4bd e396 acbd e9c9 0bbe 14e9 b3bd
00000090: eb48 0abe 084e f73d 7dcb a3bd 3554 a8bd
000000a0: 3268 fd3d 0349 27bc 1fa5 8e3d bdde 9abd
000000b0: ceab a7bd 1091 27bd d639 d6bd fd93 debd
000000c0: 6163 23bd 89dc a83d 3c5a 1f3d efe8 debd
000000d0: ab39 9c3d d48e 4dbd 3e60 313e 9068 eabd
000000e0: a52c 05be d5df a0bc dbef 00be 6c1c 343e
000000f0: 142b 183d a728 9abd 0f24 a2bd 6d03 bebb
00000100: bbb5 47be 1680 48be c38a 76bd 2e56 583c
00000110: a69d 6dbd ca63 383e 50ba 11be 69a5 0c3e
00000120: 0be5 36bc 1e63 80bd 84dc 003c 5d25 3c3d
00000130: 20ed ab3d 3cad bb3d 65ff 1dbd c6ae bcbc
00000140: 51dd 67bd b92a a63d db31 a73d 2bc4 46bd
00000150: 829d ab3a 25da b03d d9c3 2a3d cd0b 403e
00000160: 83bc 4f3d b524 88bc b800 f4bd f917 0cbd
00000170: f949 033e dbc4 4bbd 9ad9 a6bd f2da fc3d
00000180: 8f0f bbbc c127 32be 0490 743c 3d44 05bd
00000190: 26b2 87bc 6c77 2c3e f7a7 a9bd 6564 963d
000001a0: 00e6 b6bb 9e09 99bd 80f3 11be a3f3 e4bd
000001b0: 6767 3ebe 7d19 843b 44bc ccbd 6330 4f3c
000001c0: b31a e2bc 474a 783d 24a7 67bd c2ea 033e
000001d0: a196 d43d 117c 18be d353 62be 9ce1 a8bd
000001e0: d8a9 4c3d 4534 0fbe 7d86 3d3d 754d 0f3d
000001f0: d037 17bc a3e1 91bd c29b ecbd eb60 0f3e
00000200: 2db4 bd3c d7a5 a9b9 e790 f03d 8241 4abd
00000210: f9e7 ec3d e279 773c ec0b 3fbd eba0 d4bd
00000220: b381 e33d e547 c8bb 6ae8 683d 50b1 c8bd
00000230: a305 d83d 3304 a9bc 9a68 d53d 9444 6d3d
00000240: 4d10 c2bb 791a 47bd 63bc 793d 979c 013e
00000250: eef2 9fbc 588c 5d3d 4406 4cbd 7dc4 72bd
00000260: 754d 2a3e 41bd 353e bbf6 9dbd 7df7 3e3d
00000270: e45f 54bd 4df3 cd3b c82e 00bc eea9 12bd
00000280: 5094 a1bd 8ce4 2cbd 7037 aa3d f675 9a3a
00000290: 9984 3e3d 8a7f 943b d6d8 ef3d b51e babd
000002a0: c6da d33d fffd 003d c75e 08be 5fce 44bd
000002b0: af3f 34bd 00e1 c9bd 620a 22be 2d65 efbd
000002c0: 87d7 3d3d b381 213e 5b67 f53a bd87 2b3e
000002d0: a8d2 d03c 3155 ad3d 7c6f dcbd 42f0 4e3c
000002e0: ce99 63bd 090c 1abe db16 d5bc c90c 893b
000002f0: 051f f23d 7ff5 49bd 6565 073d 5c4a 14bc
00000300: 8262 e0bd 9b23 cb3d 427f 97bd 4c04 bc3d
00000310: 8734 093c 5beb e83d cc03 d4bc d38c 893d
00000320: 9f05 d43d 934b 533c cbf3 1bbe f049 39be
00000330: 3274 b7bd 5337 0abe 7d07 5cbe 5472 01bd
00000340: b018 e23d 80cd cabc 94ba 353e 3502 e53d
00000350: 971a 503c 3801 c8bc 64ee 843b b41a bb3c
00000360: 8c8f d23c 9d60 f4bd e70b c13c 4a4d a83d
00000370: 7b46 6cbd 3afb 4abe 4b4e 02be d4f2 1fbe
00000380: f092 973d c403 c1bb a828 8dbd cb7c c63d
00000390: 8208 c4bd c5a4 f23d 4e8d 67bd b970 72bd
000003a0: 2c76 a2bd 9d12 8fbd 6a4f 043e db9f bc3d
000003b0: 4eb2 2fbd cf82 e93c 5eb3 993d 6fd0 8e3d
000003c0: 4256 d1bb 377c abbc 1834 0fbe 3073 1bbe
000003d0: 29bc 83bc 5ea7 c63d 6c0c 91bd da87 cfbc
000003e0: 74b1 87bc bb2a ebbd adc1 193d 6b5a 433e
000003f0: 73d3 32be b142 073e e98d bbba 591a 51bd
-0.07219962 -0.09417681 0.079569094 -0.09639592 0.07390568 0.0026847646 -0.07892664 0.025035217
-0.12209521 -0.08624089 0.10271868 0.09098487 0.030408457 0.08841704 -0.03586792 0.07363567
-0.025428284 -0.017494343 0.0071352813 -0.11922854 -0.0952674 0.015131546 0.0027708893 -0.17058364
0.15988691 -0.09390642 -0.027554058 -0.105487294 -0.09064512 0.017825803 -0.08852634 0.12511942
-0.08014996 -0.08427217 -0.13651241 -0.087846905 -0.13504378 0.1207543 -0.07997797 -0.08219186
0.12373389 -0.010210278 0.06965088 -0.07562015 -0.08187066 -0.040909827 -0.1046025 -0.1086807
-0.039889697 0.08245189 0.038904414 -0.10884272 0.07628187 -0.05018504 0.1732187 -0.11445725
-0.13005312 -0.019637981 -0.12591498 0.17588967 0.037150458 -0.07527285 -0.07917034 -0.005798748
-0.19502918 -0.19580111 -0.060190927 0.013204141 -0.058011673 0.18006817 -0.14231229 0.13734974
-0.011163007 -0.06268905 0.007865075 0.04593407 0.083948374 0.09163901 -0.03857364 -0.023032557
-0.05660755 0.081136174 0.08163806 -0.048526924 0.0013093206 0.08635358 0.04169068 0.18754502
0.05071689 -0.016619066 -0.119141996 -0.03420255 0.12821187 -0.049748283 -0.08146973 0.12346448
-0.022834567 -0.17397977 0.014926914 -0.03253578 -0.01656444 0.16842431 -0.0828399 0.073433675
-0.0055816174 -0.074725375 -0.14253044 -0.111792825 -0.18594132 0.0040313588 -0.09996846 0.012645814
-0.027600622 0.06061771 -0.056555882 0.12882522 0.10380293 -0.14891078 -0.22102289 -0.082461566
0.049966663 -0.13984783 0.046270836 0.03498598 -0.009229615 -0.07123115 -0.11553146 0.14001815
0.023157204 -0.00032357752 0.11746388 -0.04937888 0.11567683 0.015104743 -0.04664223 -0.10382255
0.111087225 -0.006112086 0.056862272 -0.09799445 0.1054795 -0.020631885 0.10420342 0.05792673
-0.0059223534 -0.04860923 0.060970675 0.1265739 -0.019525018 0.05408892 -0.049810663 -0.059269417
0.1663111 0.17747976 -0.07713076 0.046622742 -0.05184926 0.006285107 -0.0078236535 -0.03580659
-0.078896165 -0.042210147 0.08311355 0.0011784423 0.046513174 0.0045318054 0.1171128 -0.09087888
0.10344462 0.03149223 -0.13317405 -0.048048373 -0.044006046 -0.098573685 -0.15824273 -0.116892196
0.04634812 0.15772133 0.0018722819 0.16750999 0.025491074 0.084635146 -0.107634515 0.012630524
-0.0555666 -0.15043654 -0.026011875 0.0041824323 0.11822323 -0.04930639 0.03305568 -0.009050932
-0.10956289 0.099189006 -0.073973194 0.09180507 0.00837434 0.113730155 -0.025880717 0.06716313
0.10352635 0.012896436 -0.15229718 -0.18094611 -0.08957709 -0.13497667 -0.21487232 -0.031603172
0.11039865 -0.024756193 0.17746955 0.111820616 0.012701652 -0.024414644 0.0040567387 0.022839881
0.025703214 -0.1193249 0.023565246 0.08217867 -0.057684403 -0.19822398 -0.12725179 -0.15619975
0.07401073 -0.0058903415 -0.0689252 0.09691771 -0.09571935 0.118478335 -0.056531243 -0.059189532
-0.07932696 -0.06985972 0.12920919 0.092101775 -0.042894654 0.028504757 0.07504915 0.06973349
-0.0063884566 -0.020933254 -0.13984716 -0.1518066 -0.016080933 0.096998915 -0.070824474 -0.025333334
-0.016564108 -0.114827596 0.03753822 0.1907746 -0.17463474 0.13209035 -0.001430926 -0.051050518

conv2.0.bias f4 [12]
00000000: 4a04 c8bd 89a2 09be 4a2c 7cbd b248 f6bd
00000010: 3ef7 a1bc 34f0 c7bd 0b19 0abe d027 b3bd
00000020: 0ccb 053d c297 dabd 1879 c4bd 68ba e23c
-0.09766443 -0.13440908 -0.061565675 -0.12025584 -0.019771215 -0.09762612 -0.13486116 -0.08747828
0.032664344 -0.10673477 -0.09593409 0.027676776

conv2.1.weight f4 [12]
00000000: 6339 813f 939b 813f 5d18 7e3f e326 7d3f
00000010: dd41 773f 81af 853f 5ccc 833f d3f1 793f
00000020: ea86 7e3f 1839 843f 2039 7a3f 3402 803f
1.0095638 1.0125602 0.99255925 0.9888746 0.96584874 1.0444185 1.029674 0.9763462
0.9942461 1.0329924 0.97743416 1.0000672

conv2.1.bias f4 [12]
00000000: 3a5e 24bd 3239 723c ce60 abbc 2333 4f3d
00000010: 8b7c 08bd caa8 0fbc abe6 25bd 9c12 b23c
00000020: 63c4 a33c db6f 1b3d 1184 1b3d 8b0b a7bd
-0.040128924 0.014784144 -0.020920184 0.050585877 -0.0333219 -0.00876827 -0.040503185 0.02173739
0.019991105 0.03794847 0.037967745 -0.081564985

conv2.1.running_mean f4 [12]
00000000: 7f99 0bbf 7515 6ebe f8b7 953d 33c4 72be
00000010: 4c7c 0ebf e8e1 1dbe 1a7a e4be c6fe dfbe
00000020: 6a29 5c3e 4586 d13d c3d9 25bf ecd5 18bf
-0.5453109 -0.23250373 0.0731048 -0.23707657 -0.5565841 -0.15418208 -0.44624406 -0.43749064
0.21500173 0.10230688 -0.64785403 -0.5970142

conv2.1.running_var f4 [12]
00000000: 3ff1 9740 3b4c de40 f891 d840 c426 a840
00000010: 8410 d740 3d6c 6040 1924 8e40 cd58 b540
00000020: ae9b 9540 4921 9c40 24c3 9940 8a58 8440
4.748199 6.9468055 6.7678185 5.254732 6.720766 3.5066063 4.4419065 5.66709
4.675254 4.879063 4.805071 4.135808

conv2.3.weight f4 [12, 12, 3]
00000000: be2b 02bd b38f b2bc 0b7d fabc af00 253c
00000010: 39d6 aebd 477e 4a3b b1b2 b5bc 798a f33d
00000020: 21ef 6ebd cce1 173e 9b42 07bd 706c 493d
00000030: 657e 5bbe d832 1abe 2e2d 683d 6f23 1f3e
00000040: 40c2 cdbd b833 7dbc 3543 253e aebf 11be
00000050: 8411 043e e6f9 74bd 012c 443d e4d0 b5bc
00000060: 91f3 ac3c 32f9 2d3e 2482 18be 283a 8b3a
00000070: 4cda f23c 51cf 9c3c bbdd 40bd 9369 eebd
00000080: cab0 6b3d a5d5 323e 5fa1 c63d 6357 efbd
00000090: 435c 313e fe62 e3bd 95d3 d23d b3be 9f3d
000000a0: 24d5 1fbd 1326 96bc 0c4c 1d3e d30b cbbd
000000b0: 1df7 db3c 9865 93bd 10b4 31bd 790b ce3d
000000c0: cc4e c8bd 703c 16be 68b0 0e3e 6de2 82bd
000000d0: d43b 0ebd 0d2d 333c 6dce 90bd e9c2 083d
000000e0: c713 083e bd79 033e fbd6 f33c cecd 193e
000000f0: bd9b da3c 336a 2c3d c8fa 16bc ca9e 98bd
00000100: 9c56 2c3c 4c96 e33c 1153 eabd 9c98 933d
00000110: 118a 263e 277a 87bd 0dce 443d 80b6 d7bd
00000120: f1d9 bdbd 54b2 303e 7f73 01be ba3e a1bd
00000130: df74 563d 605d 2bbc a004 f13c 6ec5 bf3d
00000140: 8d81 353e e5d1 09be 4790 85bd dfea 473e
00000150: 3d35 04be 7a6e b5bd 0a71 263e cc68 bb3d
00000160: 9b56 2dbc b51c ab3d b7cf 353d 0c4f ef3d
00000170: b02f 493d 5bb8 c9bc 361e 0d3e 2812 c43d
00000180: 3ff5 ebbd 8aed 1cbc 2d84 15be 6a0d d23c
00000190: f952 45bd a6e3 05bc 95f3 3ebe 51e5 c03d
000001a0: 7fe3 f1bc d957 65bc 7bad cd3c 4bce 1fbd
000001b0: a86a 403e db2c ac3d eebc 2abc fcfb dd3d
000001c0: cf09 1cbe 9742 9d3d 57ac 95bd b3a5 0bbe
000001d0: 1bec 44be 13fa 1b3e fd7d 163e b6d7 13bd
000001e0: a4a7 073e ee46 f63d e191 5cbe 8d0e c2bd
000001f0: 0cf3 533e 9bc9 083e d859 49bd 151b a4bd
00000200: 7fe3 c6bd 696b ecbd c64e ebbd 5f95 823d
00000210: f908 a1bc 74c3 113e 98f5 063e 762d 84bc
00000220: 2927 3a3d 780f d23c 8f3d e13d ca54 c03a
00000230: dfb4 dbb9 b961 853d ca93 6d3d ff25 61bc
00000240: 35f1 1f3e 6bde 68bc 69ea 95bd 5f9b 0bbd
00000250: 2e3b 21bd 2864 84bc f7b4 abbd b6de 08bd
00000260: 6d10 7fbd a8a8 0c3e 1eaa 8d3d ad55 5f3d
00000270: 6b47 923d c848 71bd 2fa6 823d 9189 953d
00000280: 7f1f b3bd fc66 d9bd b991 f93c 4277 8bbd
00000290: 3c4b 2b3e bdf6 0bbd 74d6 d9bd 2ae2 b13d
000002a0: 14d1 a8bd 5329 53bc d201 fe3c e461 953d
000002b0: 49e7 223d 32a5 0bbe 932e 463d 239d 373e
000002c0: a6a7 f23d 12a7 943d c501 473d a33b 3f3e
000002d0: 14c0 e1bd a76c 213e 4006 d1bd 72c8 0b3d
000002e0: beff 683c e771 7dbd e5ea cc3d ef92 83bd
000002f0: 41a3 93bd 6582 ab3d 9f13 2f3e ae64 b7bd
00000300: d1c3 543c bd91 4a3c 372a c7bd 5b82 343d
00000310: 9d00 103e ccfb 81bd 2b53 313e 8401 abbd
00000320: c552 963d b69b 2fbd 697e e3bd fba2 bb3d
00000330: 4cb3 f83d 25fe 86bd cd4d 023e a975 07be
00000340: 29f9 86bd 3b53 c23c a99a f43d b9b4 ac3d
00000350: 0e12 c0bd 580c 48be 3f56 29bd ea7c 83bd
00000360: 601c b3bc 2d03 13be bdf4 fbbd d297 3d3e
00000370: 8695 a1bd afea a53d 9bb2 61bd bf18 4c3d
00000380: 6b8d 76bc a266 133c 02e2 a6bd ce76 adbd
00000390: eed0 ad3d 5327 153d 148a c73d 0784 b8bc
000003a0: 3ebf 46be a0df 663d 3e15 11be fe7a 1dbd
000003b0: 47ce d8bb d048 13be cd08 8abc 91d3 bfbd
000003c0: 736b fc3d c0b3 bbbd 0378 f53d 4f73 8f3d
000003d0: c092 9f3b 1a0c 89bd 2236 ae3d 4c2d be3c
000003e0: 3173 033d df6c ff3d e19d 73bb fa76 24be
000003f0: 50a1 f2bd 1c85 473e d543 febc b67e 61bd
-0.031779997 -0.021797037 -0.030577203 0.010070964 -0.085369535 0.003089802 -0.022179933 0.11891646
-0.05833352 0.14832228 -0.033022504 0.04917568 -0.21434934 -0.15058458 0.05668371 0.1554086
-0.10046816 -0.015454225 0.16138919 -0.14233276 0.12897307 -0.059808634 0.047893528 -0.022194333
0.021112235 0.16989592 -0.14893395 0.001062219 0.029645108 0.019141825 -0.04708646 -0.116412304
0.057541646 0.17464311 0.09698748 -0.116865896 0.17320351 -0.11102866 0.10294262 0.07800045
-0.039021626 -0.018328702 0.15361041 -0.09914365 0.026851231 -0.07197112 -0.04338461 0.10060782
-0.09780654 -0.14671493 0.13934481 -0.063908435 -0.034725025 0.010936034 -0.070706226 0.033389006
0.13288794 0.12839408 0.029765597 0.15019915 0.02668559 0.042093467 -0.009215064 -0.074521616
0.010518696 0.027781628 -0.11441625 0.07206842 0.16263606 -0.066150956 0.048048068 -0.10532856
-0.09270085 0.17255527 -0.12641715 -0.07873292 0.05235755 -0.010459274 0.02942115 0.093638286
0.17725201 -0.13458975 -0.06521659 0.1952319 -0.12910934 -0.08858962 0.16254058 0.09150848
-0.01057973 0.08355085 0.044387545 0.11684999 0.049117744 -0.02462404 0.13781056 0.095737755
-0.11521386 -0.009578118 -0.14601202 0.025641162 -0.048174832 -0.008171951 -0.18647607 0.09418739
-0.029527424 -0.013997995 0.025107136 -0.039015096 0.18790686 0.08406993 -0.010421021 0.10839078
-0.15238117 0.07678717 -0.07308262 -0.13637428 -0.19230692 0.15232114 0.14696498 -0.03609439
0.13247544 0.120252475 -0.21540023 -0.094754316 0.20698184 0.13358156 -0.049157947 -0.08012978
-0.0971136 -0.11543924 -0.11489634 0.063761465 -0.019657599 0.14234716 0.13179624 -0.016134959
0.045447502 0.025642142 0.109980695 0.0014673707 -0.00041905695 0.0651278 0.05800227 -0.013741969
0.15619357 -0.014213185 -0.07320101 -0.03408372 -0.03936308 -0.01616104 -0.08384126 -0.03341552
-0.062271524 0.13736212 0.06917213 0.054525066 0.07142528 -0.0589073 0.06379353 0.07301629
-0.08746242 -0.10615346 0.030464994 -0.06809856 0.16727918 -0.034170855 -0.10636607 0.086857155
-0.082430035 -0.01288827 0.031006727 0.07294062 0.039771352 -0.13637236 0.04838426 0.17931037
0.11848383 0.07258429 0.048585672 0.18675093 -0.11022964 0.15764104 -0.1020627 0.034126706
0.01422113 -0.061876204 0.1000574 -0.0642451 -0.072088726 0.0837448 0.17097329 -0.0895475
0.012986139 0.012363848 -0.09724849 0.04406963 0.14062734 -0.063468546 0.17316882 -0.083498985
0.07340006 -0.042873107 -0.11108095 0.091619454 0.12143573 -0.06591443 0.12724991 -0.13228478
-0.06590492 0.023721328 0.119435616 0.084329076 -0.09378444 -0.19535959 -0.041342016 -0.0642031
-0.021864116 -0.1435668 -0.123025395 0.18514946 -0.078898475 0.08101403 -0.055101972 0.049828287
-0.015048365 0.008996638 -0.08148576 -0.08469926 0.08487116 0.036414456 0.09743133 -0.022523893
-0.1940889 0.05636561 -0.1416826 -0.038447373 -0.006616387 -0.14383245 -0.0168499 -0.09366525
0.12325182 -0.09165144 0.11985781 0.07004415 0.004869789 -0.06691761 0.08506419 0.023214959
0.032092277 0.124719374 -0.003717296 -0.16061011 -0.11847174 0.19484371 -0.031038204 -0.05505248

conv2.3.bias f4 [12]
00000000: 129f 09be 1107 09be 5e29 143e 92f7 bd3d
00000010: f4e0 28bd 487f d93d 7a76 f4bd c0bf 163e
00000020: b9a9 313d 72fd abbd 3e2e 12be ec65 6e3d
-0.13439587 -0.13381602 0.14468905 0.09275736 -0.041230157 0.1061998 -0.1193666 0.14721584
0.04337475 -0.0839795 -0.14275452 0.05820267

conv2.4.weight f4 [12]
00000000: dbfa 803f 5627 873f 4b42 853f 460a 873f
00000010: 00d5 823f 615e 893f 0531 843f 6c14 873f
00000020: 72c4 8a3f f3fa 833f 9e14 833f 71ef 803f
1.0076555 1.0558879 1.0410856 1.055001 1.0221252 1.0731927 1.032746 1.0553107
1.08412 1.0310959 1.0240667 1.0073072

conv2.4.bias f4 [12]
00000000: ba4f e6bc f9b9 e73c 2ed1 fb3c 3450 e83c
00000010: adca e7bc d2e8 f03c 3607 e8bc 0648 f6bc
00000020: 28f2 f23c 8ef1 e6bc 93be edbc 402f e3bc
-0.028114188 0.02828692 0.030739393 0.028358556 -0.028294886 0.029407892 -0.028323751 -0.03006364
0.029656485 -0.028191354 -0.029021537 -0.027732491

conv2.4.running_mean f4 [12]
00000000: 4ea5 d9bd 561a fc3c 72c1 553e d18b 923e
00000010: bb4d 573e d02d 003e e5f5 71be d217 873e
00000020: 9d48 cd3d 272f 31be 47c7 8f3d 514d 8b3c
-0.106272325 0.030774277 0.20874575 0.28622296 0.21025746 0.12517476 -0.23628958 0.2638536
0.100236155 -0.17303143 0.07020431 0.01700464

conv2.4.running_var f4 [12]
00000000: 4c6f e43d c413 7d3d 2239 033e 49be de3d
00000010: 3bd3 b43d 6362 bf3d 5506 703d c20b 533d
00000020: 4f05 553d ae03 313d be83 723d 8399 063e
0.11154041 0.061786428 0.12814763 0.10876138 0.088293515 0.09344938 0.05859979 0.051524885
0.052007016 0.0432164 0.05920767 0.13144498

conv3.0.weight f4 [12, 15, 4]
00000000: 1104 66bc 5b0b f7bc 8f99 f7bd d722 173d
00000010: b48d 743d 99e7 40bd 7dfe b2bd 6d37 c83d
00000020: ae3b c63c 0cde 8fbc d270 943d e2c5 ccbd
00000030: 9042 ccbd 9f11 df3d 4861 c7bd a199 733d
00000040: 5e3d 453d 8ea4 c7bc 0566 d4bd 7b90 133d
00000050: e59b fc3d a87f 163b 7e70 263e 07ac f83b
00000060: e5c2 13bd a53a 543d 716e 6cbd da47 c5bd
00000070: 0388 68bd 3587 953d d9bc 39bc ea7a 6bbd
00000080: c273 743d f21d fbbd 6a4d abbd c156 9b3c
00000090: 33c0 e7bd 021b 28bb ad56 303e dd6c 2c3d
000000a0: 082b 02be 1ea9 4bbc e3d0 8dbc f35d d2bd
000000b0: 7140 47bd 561a e73c a49d d03d 62e1 b9bd
000000c0: e17b 043e c5dc bc3d 505e f63d fd5f bbbd
000000d0: 8e88 f6bd 52a7 c13d 3a70 413e 1045 d93d
000000e0: f7b3 843d 9d06 d3bd e332 61bd 17b6 413d
000000f0: 0f4c 553d 59f1 57bc 3268 bd3d bb1e aabd
00000100: 7d2f b7b9 479e a83d 19c8 4f3d 8f34 34bd
00000110: 3328 693d af91 eebc 7fbb ad3d 2896 1d3c
00000120: a574 a43d 8092 d43d a348 ecbd 0ca2 db3d
00000130: 7eea 83bb e3da 20bd 8eb3 1bbd f1d9 bebd
00000140: e762 6f3b 3768 a3bd faf5 053e 7b07 c53d
00000150: b923 af3d f288 a0bd bfa4 d9bc cd5b d83c
00000160: 43a0 84bc 0cba dfbc 110c ea3d 8126 9b3d
00000170: 89a8 d33c 2f5e ea3d 9ee1 d63c 3a9a a03c
00000180: a563 81bc 23dd b9bd 4b8a 4d3e 57c6 d83c
00000190: 6a35 51bd a5cb 1b3e 93b8 5abd 892b 84bd
000001a0: be9f 17bd 9dff f4bc 1b29 16be 0650 27bd
000001b0: 036b dd3d 84b9 693c 43f9 ca3a 7f26 54bd
000001c0: dbca a2bd f16a 0ebd eca6 a33d 76d8 da3d
000001d0: 4c37 95bd 4083 b23d e501 403d f97a 023c
000001e0: c13f edbd 980f bdbd a016 863d d062 b03d
000001f0: 625a acbd cd68 143c b893 8dbd f752 633d
00000200: 7fc1 b33d f6c9 b73c 59ca 273d 2997 823d
00000210: 32fb 593d e948 0e3d 5d73 f23d 3fa4 b4bb
00000220: 5045 ec3d 33f7 3f3d 3453 96bd 5c47 84bc
00000230: d0f8 dfbd 3755 ed3c 3ede 1ebe 3f29 f43d
00000240: eacb 8bbd d5bb a9bd 6aa0 aa3d a546 ef3d
00000250: 2ed4 42bd 1373 0d3d 4d20 a3bc 709e e0bd
00000260: 82d9 973b 6d0e 90bd 99d0 91bd 2a48 efbb
00000270: b8c1 f43d f934 b0bd 1d92 7ebd 1b46 61bc
00000280: d628 fa3d 705c af3d 0bdf c9bd a900 a03d
00000290: 30ec 143d 093c 0abe 07f6 173e ffb9 51bd
000002a0: 40d0 d83d 9ec1 12be 0d5c e1bd 0410 963d
000002b0: 9861 cf3d 13f9 f23d 77d7 75bd 8ef4 44be
000002c0: b4cf cebd b677 f8bd d663 a3bd 466a 6dbd
000002d0: 484b bebd 3bb6 053e 4c72 dfbd 242d 46bd
000002e0: 4eb3 b23d 23bc a2bd 3bdc b93d 1ef2 663d
000002f0: 22c3 943c 93e2 113d c373 183d 8ec0 c03d
00000300: c1ce 4d3d 85df 923d 8c0d 9b3d 2363 003e
00000310: 3e98 75bc c640 263d da2c 323d ad33 d6bb
00000320: 4498 92bd 009c 7abd fc44 593c c2a4 fa3c
00000330: 7b3a 7e3d 0815 843d 1511 90bd a4ae 2a3e
00000340: fa5f 22bd 7fd0 cb3d ea0f 83bc 3e14 bf3d
00000350: 1f38 b2bd 604b 75bd 3e30 6dbd 61db 3dbc
00000360: 98ba c13d 6539 bbbd d6bf 2fbd af09 f0bc
00000370: 5348 683e aee2 de3c c789 eebd c204 f03c
00000380: bc76 553d dc40 1abe d2e7 03bc 130f 3a3d
00000390: 62e8 0dbd 7de9 a73d 3cde 42bc 19e1 c83b
000003a0: 5efd 7a3d 82ea 04be 889f 383d bed1 e7bb
000003b0: 2ec6 373c 1691 69be 0520 0c3d 4652 473d
000003c0: 72b4 973d 3954 9bbd f75d 7ebd 863b b3bd
000003d0: f3e5 e83d bb6a 223d 92c4 1bbd f868 70bd
000003e0: b015 103d 6e0f 123d 4966 13be 9c6d a8bc
000003f0: 3e49 05bd 3920 32bd 1758 9a3d c550 46bd
-0.014039055 -0.030156782 -0.12089836 0.03689846 0.05970545 -0.04709587 -0.08739946 0.09776197
0.02419838 -0.017561935 0.07248081 -0.09998681 -0.09973633 0.10892033 -0.09735352 0.059472684
0.048154227 -0.024370458 -0.10371021 0.03602646 0.12334422 0.0022964273 0.1625385 0.0075888666
-0.036074538 0.05181374 -0.057722513 -0.09632845 -0.056770336 0.07301179 -0.011336529 -0.057490267
0.059680708 -0.12261571 -0.08364375 0.018962266 -0.11315956 -0.0025650864 0.17220564 0.042096008
-0.12711728 -0.012430457 -0.017311519 -0.10271826 -0.04864544 0.0282108 0.101863176 -0.090761915
0.12937881 0.09221796 0.120297074 -0.09149168 -0.120377645 0.09455742 0.18890467 0.10608876
0.06479638 -0.10303996 -0.05498017 0.047292795 0.05207449 -0.0131801 0.09248389 -0.083066426
-0.00034939862 0.08233314 0.050727937 -0.043995436 0.056923103 -0.029122202 0.08483028 0.00961832
0.08030061 0.10379505 -0.11537292 0.10724267 -0.0040257564 -0.039271247 -0.038013034 -0.09318913
0.0036527456 -0.07978862 0.13082114 0.096205674 0.085517354 -0.0783862 -0.026567815 0.026410962
-0.0161897 -0.027310394 0.11428083 0.075757034 0.0258372 0.11443745 0.02623063 0.019604791
-0.015794585 -0.090753816 0.20072286 0.026461763 -0.05107633 0.15214403 -0.05339868 -0.06453616
-0.037017576 -0.029907042 -0.14664118 -0.0408478 0.108114265 0.014265422 0.0015485663 -0.051794525
-0.07948848 -0.034769956 0.07990822 0.10685818 -0.07285938 0.0871644 0.046876807 0.007963889
-0.11584426 -0.0923149 0.06547284 0.08612597 -0.08415677 0.00905819 -0.06912941 0.055499043
0.08777141 0.02243517 0.04096446 0.06376488 0.053218074 0.0347375 0.1183841 -0.0055127437
0.11536658 0.046866607 -0.073400885 -0.016147308 -0.10936129 0.028971298 -0.15514466 0.119219296
-0.06826003 -0.08287779 0.08331378 0.11683396 -0.04756563 0.03453357 -0.019912863 -0.109677196
0.0046340832 -0.070340015 -0.07119865 -0.007302304 0.119510114 -0.08603854 -0.062151063 -0.013749625
0.1221482 0.08562553 -0.09856995 0.07812626 0.03635806 -0.13499464 0.14839946 -0.05120277
0.105865955 -0.14331672 -0.110038854 0.073272735 0.101260364 0.118639134 -0.060019936 -0.19233915
-0.1009821 -0.12132208 -0.079780266 -0.05796268 -0.092917025 0.13057797 -0.10910472 -0.048382893
0.08725606 -0.079460405 0.09075209 0.056383245 0.018159453 0.03561647 0.037219774 0.09411727
0.050246004 0.07171539 0.07570943 0.12537818 -0.014989911 0.040589117 0.043499805 -0.006536922
-0.071579486 -0.06118393 0.013261076 0.03059614 0.06206749 0.06449324 -0.07034508 0.16668183
-0.03964231 0.09951877 -0.0159988 0.09330033 -0.087021105 -0.059886336 -0.057907335 -0.011587949
0.09459418 -0.091418065 -0.04290756 -0.029301492 0.2268384 0.027207699 -0.11647373 0.029299144
0.052115187 -0.15063804 -0.008050876 0.045424532 -0.034645446 0.08198831 -0.011893805 0.0061303494
0.061276786 -0.12980083 0.045074016 -0.0070745638 0.011216683 -0.22809252 0.034210224 0.048662446
0.07407464 -0.075844236 -0.06210133 -0.087515876 0.11371984 0.039652567 -0.03802926 -0.058693856
0.035176933 0.035659246 -0.14394487 -0.020560078 -0.032540552 -0.04348776 0.07536333 -0.04841687

conv3.0.bias f4 [12]
00000000: b995 d83c 8d94 a1bd e440 913c fa70 84bd
00000010: d5bb 8bbd 722f 683d ffda 023e e98c 52bd
00000020: 348d 88bd d136 12bd 97d7 7d3d a705 983d
0.02643858 -0.07889662 0.017731138 -0.06466861 -0.068229355 0.056685872 0.12778853 -0.051403914
-0.06667557 -0.03569681 0.06197318 0.07422953

conv3.1.weight f4 [12]
00000000: 2976 7e3f 936a 823f 65a1 793f 2b65 783f
00000010: fb6d 823f 4dc9 813f 6b33 823f 2c8e 7e3f
00000020: 75b5 853f 53a4 813f c089 7e3f 24dd 703f
0.9939905 1.0188774 0.97511894 0.9702937 1.0189813 1.0139557 1.0171942 0.9943569
1.0446001 1.0128273 0.9942894 0.94087434

conv3.1.bias f4 [12]
00000000: a01d 38bd 750d 26bd e48b f9bd 6367 9bbd
00000010: 3d94 65bd 53f9 99bc 44f6 2abd e89a c4bd
00000020: 79c9 dc3c 3fd0 793c d893 4c3d e360 48bd
-0.044950128 -0.040540177 -0.12184885 -0.07588079 -0.056049574 -0.018795645 -0.041738763 -0.095998585
0.026951538 0.015247404 0.049945682 -0.048920523

conv3.1.running_mean f4 [12]
00000000: 929e 99be f2e5 b63e 3af9 5b3c 1626 2b3e
00000010: 9c40 35be 78aa 103f 40d2 073f c69a 513e
00000020: 722c 5abf 7b40 2abf a48d 91be 1d07 17be
-0.30003792 0.3572231 0.013426119 0.16713747 -0.17700428 0.56510115 0.5305519 0.20469198
-0.8522407 -0.6650464 -0.28428376 -0.14748807

conv3.1.running_var f4 [12]
00000000: 17ac b240 a075 9140 1144 0541 8b94 c540
00000010: 4dca ab40 4f0c a840 23a0 ee40 1958 9740
00000020: 558f be40 ec77 a040 fffa f440 e27f 9840
5.583507 4.5456085 8.329118 6.1743827 5.368445 5.2515025 7.457048 4.729504
5.9549966 5.014639 7.655639 4.7656107

conv3.3.weight f4 [12, 12, 4]
00000000: 0135 a7bd 64e7 f3bd c40c 873c c4b9 633d
00000010: 889e 93bd 3c3c 883c 2230 e43d 39ee 9cbc
00000020: 30b3 21be fc2e a9bc fffa c43c d835 c13c
00000030: b9ea 903d e1c6 ab3c 93c1 f3bc acb7 803d
00000040: 8899 b8bc b4f1 f3bd d688 db3d 9256 a23d
00000050: 354c 9aba b0aa 813c 55a8 fb3d 7deb abbd
00000060: e3fb a23d 5765 28bd a074 a8bc 32b2 bebd
00000070: 0a36 94bd cc4c 03be 8a9d 3dbd 5bab 663b
00000080: 3272 cd3d bad7 8cbd 6e61 8dbd 9a64 0fbc
00000090: 59fc 213e c05e c1bd c8f0 343c 177f f23d
000000a0: 6dda 293d 5c8a 36bc 699f 47bd 16f6 8e3d
000000b0: 8937 363c f417 1e3b 5aa8 fc3d ae49 a23d
000000c0: e4ec 21bb dd41 c4bc 368b 093e 5a1e cd3d
000000d0: 2fb9 27bd 7876 483d 8b82 823d 6e8f abbc
000000e0: a502 cf3d e12a 8c3d de41 e93d 4f2b c53c
000000f0: 695d be3d 926b 82bc c972 44bd a36a dcbb
00000100: 3bc8 de39 ec42 06be b555 103e c1d7 93bd
00000110: dcbb a6bd e76d 6bbd 7d46 30bd cb2d b539
00000120: 11cf 643c e698 cdbc c122 80bd 84e6 97bd
00000130: c77d 053e fab7 db3b ff21 1d3b 7367 b0bd
00000140: ea9c f03d 6b4a 00bd 423b a3bb eab1 d0bd
00000150: 92e2 373e 5a5e 98bd f441 8938 1983 62bd
00000160: 435f 1ebc 79df c63d 8bdf cabd ca74 cc3c
00000170: f593 243d 27ba 803d 4841 603d 3e52 d83b
00000180: 9765 6a3c 1e9c e5bc 30f0 05be 18ff 033b
00000190: 8dcd f03d a6cb 05be 3f39 073d adfe 0abd
000001a0: e93c b6bd 973f a3bd e874 b53d aafe 813d
000001b0: 7391 d53d cc46 64bd caf6 dbbd 0ce2 a83c
000001c0: 4fe8 83bd 50d9 af3d 0823 2b3e caef eb3d
000001d0: f075 0cbd eea1 adbd 7c2f 42bd bab2 453e
000001e0: 3445 5dbd fbb4 183d 90e9 d93c 1b4a 65bc
000001f0: 3c35 1c3d dc65 95bd b119 b3bd c847 0e3e
00000200: 0ff0 9a3d 922e 93bd 6992 d63d fbd5 993d
00000210: 1305 ec3d 9cba 82bb 8ba3 ecbd 6884 50be
00000220: 4172 c537 b3a2 53bb 826d f3bd eb3b 923d
00000230: e202 033e 995d 60bd 9d05 0f3d 03f8 8d3c
00000240: d46c bebd feba 93bd 750b 8fba a208 2a3d
00000250: 7c7f 79bd 821f 1a3d 4799 853d d77c 943c
00000260: e790 aa3d a0de abbd 813a ed3d cc4f b83d
00000270: c724 3e3d e5ee b2bd c2c7 07be 958c 4cbd
00000280: 0ddc 5a3c b59a 9c3d 5524 843d cfb6 9c3c
00000290: 4f79 e13d 86d6 95bd ab5d f93c e3ea 70bd
000002a0: 755b bb3d c6d0 c0bd a847 88bc 299c 5fbc
000002b0: f92e 1dbc 49d6 2c3b 5dc0 4fbe 2227 963d
000002c0: 9dca ba3d 040c 5abd 5ea8 babd 121c 14be
000002d0: 68a4 21bd 1b89 ea3c 8134 453e c21e b1bd
000002e0: 28ad aabd 73a0 b43d e4f7 8b3d a577 b9bd
000002f0: dae5 29bd 2ba8 8dbd 296d 1cbd 8f68 ef3d
00000300: 985e c83d f9b5 c83d 621f 43bd 80fe aabd
00000310: 0fb4 30bd 117c da3d 475d f4bd 88dc b23d
00000320: 992a 483d 0b14 74bb 4105 5ebd 879b db3c
00000330: dd07 60bd 2756 b63d e224 b8bd 4c02 423e
00000340: 4e82 9c3d aec7 943d b2d6 5f3d eef7 ca3d
00000350: 869a fdbd bb24 25bd a695 e2bd 8231 c73c
00000360: 8a52 85bd fe60 19be 8048 e6bd 203f 343d
00000370: 9d61 0e3e 3dd6 7dbc 02e8 1cbd aa98 9f3d
00000380: 77f7 76be f1a9 853d e904 263d ab7c 76bc
00000390: bac9 983d bb5d cb3d de32 02be 8f8b dabd
000003a0: 4d2e 4bbc 1c69 a8bd decc 26bd c8e2 103e
000003b0: 9d69 893d 790e d43c e7cf 143d 75f3 8fbd
000003c0: 4176 833d 31fd b9bd 45e5 ffbd 77b7 b73d
000003d0: 3d06 f2bc 8a7b 1c3c a635 22bc a616 f03c
000003e0: d701 083d 8514 f8bc 7d58 afbd 38b3 4dbc
000003f0: 1e12 bc3d 8013 21bc a035 15be 6c31 c5bc
-0.081644066 -0.11909369 0.01648558 0.05559708 -0.07207972 0.016630284 0.11141993 -0.019156562
-0.15791011 -0.020652287 0.024045466 0.023585245 0.0707602 0.020968856 -0.02975539 0.06285033
-0.022534147 -0.119113356 0.10719459 0.07926668 -0.0011771979 0.01582846 0.12287966 -0.08394525
0.079582 -0.04111227 -0.020563424 -0.09311332 -0.0723687 -0.12822264 -0.04629282 0.003519735
0.10031547 -0.06877084 -0.06903349 -0.008752013 0.15818919 -0.094419 0.011043735 0.11840647
0.041468073 -0.011141386 -0.04873601 0.06980531 0.011121639 0.0024123164 0.12336798 0.079242095
-0.0024707848 -0.023957187 0.13432011 0.10015555 -0.04094809 0.048941106 0.06372555 -0.020942416
0.10107926 0.06844116 0.11389516 0.024068503 0.0929516 -0.015920434 -0.04796103 -0.0067265793
0.00042492323 -0.13111466 0.14095195 -0.07218886 -0.081413 -0.057477858 -0.043035973 0.0003455713
0.013965384 -0.025097322 -0.06256629 -0.07417014 0.13036261 0.0067052813 0.0023976562 -0.086134814
0.11748679 -0.03132097 -0.0049814293 -0.101901844 0.17957523 -0.07439871 6.544954e-05 -0.055300806
-0.009666267 0.09710593 -0.09905919 0.024958033 0.040180165 0.06285506 0.054749757 0.006601601
0.0143064475 -0.028028544 -0.13079906 0.0020141061 0.11757956 -0.13065967 0.03301358 -0.033934284
-0.088983364 -0.07971113 0.08860189 0.063474014 0.10428133 -0.05573158 -0.10740431 0.0206156
-0.06440794 0.08586371 0.16712582 0.115203455 -0.03429216 -0.08478151 -0.047408566 0.1930646
-0.054021075 0.03728197 0.02660063 -0.013994719 0.038136706 -0.07294819 -0.087451346 0.1389457
0.07565319 -0.07186617 0.10477144 0.07511517 0.11524405 -0.0039895307 -0.11554631 -0.20363009
2.3537434e-05 -0.0032293021 -0.11886121 0.07140335 0.12794068 -0.05477676 0.034917463 0.017330175
-0.09298101 -0.072134 -0.0010913449 0.04151214 -0.060912594 0.037627704 0.06523376 0.018125935
0.08328419 -0.08392072 0.11583424 0.08999595 0.046421792 -0.08736972 -0.13259795 -0.049938757
0.013358128 0.076466955 0.06452242 0.019130139 0.11009466 -0.07316308 0.030440172 -0.058817755
0.091483034 -0.094148204 -0.01663573 -0.013648071 -0.009593719 0.002637284 -0.20288225 0.07331683
0.09120677 -0.053234115 -0.09114145 -0.14463833 -0.03946343 0.02862983 0.1925831 -0.08648445
-0.08333808 0.08819666 0.06834391 -0.090560235 -0.04147897 -0.06916841 -0.03819004 0.11689865
0.09783667 0.098003335 -0.04763735 -0.08349323 -0.043140467 0.10668195 -0.11931854 0.08733469
0.04886875 -0.0037243392 -0.05420423 0.02680756 -0.054695 0.08903151 -0.0899141 0.18946189
0.07642041 0.072646484 0.05464811 0.0991057 -0.12382989 -0.040318232 -0.110636994 0.0243156
-0.06509884 -0.14978406 -0.11244297 0.044005513 0.13904424 -0.015492973 -0.038307197 0.0779279
-0.24117838 0.065265544 0.040532026 -0.015044372 0.07460351 0.09929987 -0.12714717 -0.1067115
-0.012401176 -0.08223173 -0.04072272 0.1414901 0.06709597 0.025885807 0.036331084 -0.070288576
0.064190395 -0.090814956 -0.124949016 0.0897054 -0.02954399 0.009550938 -0.009900486 0.029307675
0.03320488 -0.030283222 -0.085618 -0.012554936 0.09183143 -0.009831309 -0.14571238 -0.024071418

conv3.3.bias f4 [12]
00000000: 353a c8bd b85e e9bd a2d7 27bd a801 9abd
00000010: 3afd b53c 1dcb 233c 26c4 08bd 9d3e edbd
00000020: c225 433c 2dad 503d a66b 0ebd a986 0c3e
-0.09776727 -0.11395019 -0.040977128 -0.07519847 0.022215474 0.009997156 -0.033390187 -0.11584208
0.011910858 0.050946403 -0.03477063 0.13723244

conv3.4.weight f4 [12]
00000000: 80fe 883f 017a 8a3f dc21 873f 5f57 853f
00000010: a787 8a3f 73a1 833f 046f 853f eac9 8e3f
00000020: eee6 853f a6ab 813f d2e0 8a3f 38d2 863f
1.0702667 1.0818483 1.0557208 1.0417289 1.0822648 1.0283645 1.0424504 1.1155369
1.0461099 1.0130508 1.084986 1.0532904

conv3.4.bias f4 [12]
00000000: 67ec fd3c 8f0f 053d a9b8 e63c a46f e9bc
00000010: 60e2 e83c 762d eabc dd5f e9bc 8416 ef3c
00000020: 9c37 ecbc b99a 65bb 5315 f53c b701 09bd
0.030996514 0.03248554 0.028164225 -0.028495617 0.028428257 -0.02858613 -0.028488094 0.029185541
-0.02883511 -0.003503485 0.029917395 -0.0334489

conv3.4.running_mean f4 [12]
00000000: 09d5 adbd c6ed c03c 78ed 313b 5d78 25be
00000010: 9d3e 49bb 8618 03bc b6f5 d33d 2240 7ebe
00000020: 666a 803c 7210 3f3e b786 59bd 141e 853c
-0.08487899 0.02355088 0.00271496 -0.16159196 -0.0030707486 -0.008001452 0.103496 -0.24829152
0.015675735 0.18658617 -0.05310699 0.016249694

conv3.4.running_var f4 [12]
00000000: f764 5e3d 4af4 a63d 4dab b43d 3627 773d
00000010: aed1 a43d 8647 103e a6ab 8f3d 17f1 323d
00000020: 12ff 883d ef11 1a3e 15e7 a33d e028 913d
0.054295506 0.08152063 0.088217355 0.06034013 0.08047806 0.14089784 0.07015161 0.043686952
0.06689276 0.15045904 0.0800306 0.070878744
