model/AutoY/IAAcheckpoint3.pt (torch, 34275 bytes, 51 tensors)

conv1.0.weight f4 [12, 15, 2]
0	0x3d5dfef8	0.054198235
1	0x3d40e3f7	0.047092404
2	0x3b9d24b4	0.004795635
3	0x3cfb36cd	0.03066578
4	0xbdada1ea	-0.08478148
5	0x3d7f645a	0.062351562
6	0x3844ef7f	4.695309e-05
7	0xbcf4601f	-0.02983099
8	0x3de34cac	0.110986084
9	0xbdf8c70d	-0.12147341
10	0x3d9b10ba	0.0757155
11	0x3d46b129	0.048508797
12	0xbc0af12d	-0.008480352
13	0x3db2aade	0.087239966
14	0x3d86d516	0.06583612
15	0xbddff839	-0.109360166
16	0xbe389366	-0.18024978
17	0x3b5b4b96	0.00334618
18	0xbe55d5f1	-0.20882393
19	0xbe0d1458	-0.13777292
20	0xbcb11ac5	-0.02161921
21	0x3e5e4323	0.21705298
22	0x3d12b090	0.035812914
23	0x3ddaa23b	0.10675474
24	0xbc885dec	-0.016646348
25	0x3e1a37fe	0.15060422
26	0x3e0732d3	0.13202982
27	0x3d31ecc2	0.04343868
28	0x3e1733a9	0.147658
29	0xbd927537	-0.07151263
30	0x3ddf14ec	0.108926624
31	0x3d020dc8	0.031751424
32	0x3d26f242	0.04075838
33	0xbe0dbd05	-0.13841636
34	0x3deb4782	0.114882484
35	0x3c8d242b	0.01722916
36	0x3d3dbb42	0.04632116
37	0xbd98d8c9	-0.074632235
38	0x3e0d47a4	0.1379686
39	0x3e028d69	0.12749256
40	0x3e10512f	0.14093469
41	0xbdea7988	-0.114489615
42	0xbcba0d65	-0.022711465
43	0x3da884ad	0.08228431
44	0x3e42998e	0.19003889
45	0x3e344b9e	0.1760697
46	0xbdbd054b	-0.09229525
47	0xbd5c2013	-0.053741526
48	0x3e385f94	0.1800521
49	0xbe30f015	-0.17279084
50	0x3df4f54f	0.119608514
51	0xbc12d917	-0.008962891
52	0x3ca11994	0.019665517
53	0x3e4b4f2e	0.19854423
54	0xbcc7cf6b	-0.024390897
55	0xbea9de27	-0.331773
56	0xbe046911	-0.12930705
57	0xbb6cdfe2	-0.0036144187
58	0xbd8d651e	-0.06904052
59	0xbe27cbd0	-0.16386342
60	0x3dca8ff8	0.09890741
61	0x3e19830e	0.149914
62	0x3c502e9a	0.012706423
63	0x3d827457	0.06369846
64	0xbcd6747a	-0.026178587
65	0x3e312a11	0.17301203
66	0x3d538167	0.05163708
67	0x3e53412c	0.2063033
68	0xbdbe13ce	-0.09281121
69	0x3d8e5c6d	0.069512226
70	0xbe0801c7	-0.13281928
71	0x3e023fb3	0.12719612
72	0x3dbdbe9f	0.09264874
73	0x3b0d4b62	0.0021559824
74	0xbe113a33	-0.14182357
75	0x3d74a052	0.059723206
76	0x3e04a1ed	0.12952395
77	0xbdab5ec8	-0.083676875
78	0x3e149999	0.14511718
79	0x3e80e06f	0.2517123
80	0xbca880b8	-0.02056919
81	0x3e7f07c5	0.24905308
82	0x3d1ed37b	0.038775902
83	0x3d8e4288	0.069462836
84	0x3de6a0ec	0.11261162
85	0xbe0da37c	-0.13831896
86	0xbe5accb7	-0.21367155
87	0x3c4c3b90	0.012465373
88	0x3dbc4ad1	0.091939576
89	0xbdd95a65	-0.106129445
90	0x3e0b9f58	0.13635004
91	0xbd864a8c	-0.065571874
92	0xbe055489	-0.13020529
93	0x3dd461ef	0.10370242
94	0x3d42317c	0.047410473
95	0xbdd7c677	-0.10535901
96	0xbdf72c76	-0.12069027
97	0xba939518	-0.0011259643
98	0xbe7477a3	-0.23873763
99	0xbe04c621	-0.12966205
100	0xbe004401	-0.12525941
101	0x3dd92c43	0.106041454
102	0x3cd84046	0.026397835
103	0xbd1e9a34	-0.03872128
104	0xbe264825	-0.16238458
105	0xbe55ae1f	-0.20867203
106	0x3d8af248	0.06784493
107	0xbde036fc	-0.109479874
108	0xbe31687f	-0.17325018
109	0x3e28412d	0.16431113
110	0x3dd438a9	0.103623696
111	0x3c24df2b	0.010062973
112	0x3d3af562	0.04564417
113	0x3dc629d2	0.09675945
114	0xbe2cfe75	-0.16893943
115	0xbe112ff3	-0.14178447
116	0x3d37bca9	0.044857655
117	0xbe1d6a92	-0.15372685
118	0x3c65700d	0.014003766
119	0xbd05545e	-0.032551162
120	0xbdaf1fac	-0.08550963
121	0x3d9c8c92	0.07643999
122	0x3e2b532a	0.16730943
123	0x3d852b70	0.06502426
124	0xbdbebfbc	-0.09313914
125	0x3dc703eb	0.09717544
126	0xbdf92a75	-0.12166301
127	0x3e0669d4	0.13126308
128	0xbdf67a69	-0.12035067
129	0xbda17dc2	-0.078853145
130	0x3e19d3a5	0.15022142
131	0xbdcb8cad	-0.09938941
132	0xbdca677e	-0.09883021
133	0x3e14690b	0.14493196
134	0xbd25e31d	-0.040499795
135	0x3e079464	0.132402
136	0x3e48d8f0	0.19614005
137	0x3dc51ca6	0.09624605
138	0x3e65c2a8	0.22437537
139	0x3e3bf255	0.18354161
140	0xbe0cfdce	-0.13768694
141	0xbdcaf5d2	-0.09910168
142	0xbd266f10	-0.04063326
143	0xbe219e48	-0.15783036
144	0x3d857beb	0.06517776
145	0x3d685f27	0.05673137
146	0x3e57931f	0.21052216
147	0xbc1a32d7	-0.009411535
148	0xbd1d75a9	-0.038442288
149	0x3ba8a8ad	0.005147061
150	0x3e34e1d2	0.17664269
151	0xbd9f2703	-0.07771113
152	0xbe38587b	-0.18002503
153	0x3dbda05d	0.092591025
154	0x3c6bea7c	0.014399167
155	0x3d856207	0.06512838
156	0x3e2278e5	0.1586643
157	0x3e41692f	0.1888778
158	0x3de56197	0.112002544
159	0xbcbdd012	-0.023170505
160	0x3dc874fa	0.097879365
161	0x3d382f34	0.04496689
162	0xbc2f129d	-0.01068559
163	0xbd59df1c	-0.05319129
164	0x3e37146e	0.17878887
165	0x3e425221	0.18976642
166	0xbe226677	-0.158594
167	0xbc00c053	-0.007858354
168	0xbe183cab	-0.14866893
169	0xbdf51790	-0.11967385
170	0x3cfb2401	0.030656816
171	0x3d3f39d6	0.046686016
172	0xbe0e858f	-0.13918136
173	0x3e5a4e04	0.21318823
174	0xbd79ba85	-0.060968895
175	0x3d905895	0.07048146
176	0xbd503909	-0.050835643
177	0x3dcf33c3	0.10117295
178	0x3df1662f	0.11787068
179	0x3e00a569	0.12563099
180	0x3d5837f6	0.052787744
181	0xbd70d706	-0.058798812
182	0xbd9d60cf	-0.076844804
183	0x3dbcea39	0.09224362
184	0x3d4a9bf0	0.04946512
185	0xbb0e4fcb	-0.002171504
186	0xbe102611	-0.14077021
187	0xbda4eefd	-0.08053396
188	0x3db1867d	0.0866823
189	0xbd776121	-0.060395364
190	0xbe25fc2e	-0.1620948
191	0x3b954269	0.004555036
192	0xbdaa4f03	-0.083158515
193	0x3e3edce6	0.18638954
194	0x3d5a428d	0.053286124
195	0xbe103ef8	-0.1408652
196	0x3dd6d28c	0.104893774
197	0xbd8301bc	-0.06396815
198	0xbdfa72fe	-0.12228964
199	0xbdbffa4a	-0.09373911
200	0x3e604643	0.21901803
201	0x3dbaaf2b	0.09115442
202	0xbdea05d8	-0.11426896
203	0xbe5ae6ed	-0.21377154
204	0x3e208ccd	0.15678711
205	0xbd518c1d	-0.051159013
206	0x3e8c5cac	0.27414453
207	0x3e361f27	0.17785321
208	0xbe2a0612	-0.16603878
209	0x3db9568a	0.09049709
210	0xbdae09b4	-0.084979445
211	0x3ad64520	0.0016347505
212	0x3e09cce0	0.1345706
213	0xbde3b1bb	-0.11117884
214	0x3d6f2728	0.05838695
215	0xbe3767d3	-0.179107
216	0x3d7436a9	0.05962244
217	0x3d7dea0f	0.061990794
218	0x3e510258	0.2041105
219	0xbe19bad4	-0.15012676
220	0xbb9545c9	-0.004555438
221	0x3dc64a15	0.09682099
222	0x3dedbb66	0.11608009
223	0x3e3770c1	0.17914106
224	0x3dbe8f2e	0.09304653
225	0xbe2746ce	-0.16335604
226	0xbe03fb20	-0.12888765
227	0x3d3f0313	0.04663379
228	0x3e0751df	0.13214825
229	0x3cbfe074	0.023422457
230	0x3d2aa74c	0.041663453
231	0xbc8a7e39	-0.01690589
232	0xbe265682	-0.16243938
233	0xbc27ee1c	-0.010249641
234	0x3c8488de	0.016178545
235	0xbca577eb	-0.020198783
236	0xbe1ba1e3	-0.15198474
237	0xbd2f0a59	-0.042734478
238	0xbd1158eb	-0.03548519
239	0xbdf96461	-0.12177349
240	0x3e5bc7a5	0.21462877
241	0xbc325f30	-0.010886952
242	0xbcd3ce4d	-0.025855208
243	0x3df0ccb8	0.11757797
244	0x3bb96591	0.0056578596
245	0xbd9491c2	-0.072543636
246	0x3e3228b1	0.17398335
247	0xbe064f68	-0.13116229
248	0xbd7dd93f	-0.06197476
249	0xbd2b9902	-0.041893966
250	0xbc536d8f	-0.012904539
251	0x3e0c4f1a	0.1370205
252	0x3d8e2509	0.06940658
253	0x3e10e95a	0.14151517
254	0xbdc6b7b2	-0.09703006
255	0x3e5437f7	0.20724474

conv1.0.bias f4 [12]
0	0xbe15773f	-0.1459627
1	0xbd551916	-0.052025877
2	0xbe359a83	-0.17734723
3	0x3d1c7f78	0.0382075
4	0x3db475b3	0.08811512
5	0x3c028c98	0.0079680905
6	0x3d4a47a4	0.049384728
7	0x3dac8369	0.08423502
8	0xbd73c725	-0.05951609
9	0xbd3bc668	-0.04584351
10	0xbbb1cdab	-0.005426129
11	0x3e0eeab6	0.13956723

conv1.1.weight f4 [12]
0	0x3f8720b2	1.0556853
1	0x3f808d34	1.0043092
2	0x3f7f6f59	0.9977928
3	0x3f7aa7a8	0.97912073
4	0x3f7bc29c	0.98343825
5	0x3f802894	1.0012383
6	0x3f8989d4	1.0745187
7	0x3f7d07a8	0.9883981
8	0x3f71d40a	0.9446417
9	0x3f82418f	1.0176257
10	0x3f7e4fe2	0.9934064
11	0x3f7f5faa	0.99755347

conv1.1.bias f4 [12]
0	0xbca9065e	-0.020632919
1	0xbc84fe74	-0.016234614
2	0xbd418f6a	-0.04725591
3	0xbcb99326	-0.022653174
4	0x3cf64ce1	0.030065956
5	0x3b8a08ec	0.0042124894
6	0xbddd9710	-0.108198285
7	0xbda23462	-0.079201475
8	0x3bf32e3f	0.0074212844
9	0xbda193d0	-0.07889521
10	0xbadbd17e	-0.0016770808
11	0x3c333154	0.010937054

conv1.1.running_mean f4 [12]
0	0x3e5e95e1	0.21736862
1	0x3c7e3aa7	0.0155169135
2	0x3edfe47b	0.43729004
3	0xbe87b3e1	-0.26504424
4	0x3f018975	0.5060037
5	0x3e3f5c16	0.18687472
6	0x3d32c328	0.043643147
7	0xbe530ff0	-0.20611548
8	0x3e4ecf70	0.20196319
9	0x3e739f13	0.23791151
10	0x3dfdda77	0.123951845
11	0xbd5d5b7a	-0.054042317

conv1.1.running_var f4 [12]
0	0x400d710c	2.2100248
1	0x4068e717	3.6391046
2	0x40d5f08d	6.685614
3	0x410775b6	8.466238
4	0x40de06bb	6.9383216
5	0x40ddf62a	6.9362993
6	0x4067a339	3.6193373
7	0x4085e6dc	4.184431
8	0x40ebae16	7.3650007
9	0x40dc25ad	6.879599
10	0x40c97360	6.295334
11	0x40849e65	4.1443353

conv1.3.weight f4 [12, 12, 2]
0	0x3d8278e4	0.06370714
1	0xbd652cdf	-0.055950996
2	0xbd9661ca	-0.073428705
3	0xbbf83cad	-0.0075755925
4	0x3db1b0b4	0.086762816
5	0xbe4d75bf	-0.20064448
6	0x3cc30d8f	0.023810176
7	0xbdf0aae0	-0.11751342
8	0xbc65bf3c	-0.014022645
9	0x3e188680	0.14895058
10	0xbd4e8314	-0.050417975
11	0x3c8c19d3	0.017102158
12	0xbe19fb6b	-0.15037315
13	0xbdf6e0bf	-0.12054586
14	0x3df8d833	0.12150612
15	0xbd67d4bd	-0.056599367
16	0x3e1f031f	0.15528534
17	0x3de8d66e	0.11369024
18	0xbe2f02a6	-0.17090854
19	0x3e2dd0d8	0.16974199
20	0xbd5d130d	-0.053973246
21	0x3d08b72b	0.033377808
22	0x3c6f98a9	0.014623799
23	0x3da76b0d	0.08174715
24	0xbdcb4f4b	-0.09927233
25	0x3e666b9f	0.22501992
26	0xbe14aa6e	-0.14518139
27	0xbd4da6fe	-0.050208084
28	0x3e1a3bc4	0.15061861
29	0xbcba4980	-0.022740126
30	0xbc56bc69	-0.013106444
31	0x3c55ca91	0.013048784
32	0x3daed9fa	0.085376695
33	0xbcb56fd4	-0.02214805
34	0x3e3b7a4b	0.1830837
35	0xbe15a50c	-0.14613742
36	0x3d3b761a	0.045766927
37	0x3b6c5285	0.0036059928
38	0x3e5ebd3a	0.21751872
39	0xbddf05b3	-0.10889759
40	0xbda95e8d	-0.08269987
41	0x3e0d0242	0.13770393
42	0xbdea6494	-0.11444965
43	0xbd8940d9	-0.06701822
44	0xbbeacf86	-0.007165852
45	0xbdd650ac	-0.10464606
46	0x3db0e466	0.086373135
47	0x3d351e86	0.044218563
48	0xbe3b2b46	-0.18278226
49	0xbe00e0a9	-0.12585701
50	0xbdf1671c	-0.11787245
51	0xbcc68a53	-0.02423588
52	0xbe1905d2	-0.14943627
53	0xbd387257	-0.045030918
54	0x3c9544e6	0.01822133
55	0x3e1287c8	0.14309609
56	0x3d7e0c06	0.062023185
57	0xbd0e97e8	-0.034812838
58	0x3e694f94	0.22784263
59	0x3dfb3cd8	0.122674644
60	0xbd40007b	-0.04687546
61	0x3dc3004e	0.095215425
62	0x3d7560e1	0.059906844
63	0xbe1d66aa	-0.15371194
64	0xbdc7db67	-0.097586446
65	0x3d5ed1cf	0.054399308
66	0xbd4aad18	-0.04948148
67	0x3d01cd7f	0.031690117
68	0xbd2d2769	-0.042273913
69	0x3e4f40ad	0.20239516
70	0x3dbd334e	0.09238301
71	0xbe0bb313	-0.1364253
72	0x3e24e928	0.16104567
73	0x3d48d806	0.04903414
74	0x3e158fd8	0.14605653
75	0x3e00acd0	0.12565923
76	0x3e2aa248	0.16663468
77	0xbde27e75	-0.11059276
78	0xbd85a75b	-0.06526061
79	0xbba81526	-0.005129474
80	0x3e2a8895	0.16653664
81	0x3de84f96	0.11343305
82	0x3e0597b6	0.13046154
83	0xbe036e1e	-0.12834975
84	0xbe6819b4	-0.22666055
85	0x3dd5fbd0	0.1044842
86	0xbd9a6414	-0.0753862
87	0xbdcc76b3	-0.099835776
88	0xbe1d6a42	-0.15372565
89	0x3de5ecc5	0.11226801
90	0xbaa9a58f	-0.0012943017
91	0x3e1ed087	0.15509234
92	0xbe247de9	-0.16063656
93	0x3e2ecd77	0.17070566
94	0xbd8a7d65	-0.06762198
95	0x3d3f877b	0.046760064
96	0x3e2981cb	0.16553418
97	0xbd38fb0a	-0.045161285
98	0x3e6a6c93	0.2289298
99	0x3e2b90a0	0.16754389
100	0x3db41968	0.08793908
101	0x3dae3329	0.08505852
102	0xbe2358f3	-0.159519
103	0xbdfebbb2	-0.12438144
104	0xbe351d51	-0.17686965
105	0x3df0c6ad	0.117566444
106	0xbe140993	-0.14456777
107	0xbd414a25	-0.04718985
108	0x3e45e603	0.19326024
109	0x3d13f442	0.036121614
110	0xbe1852b6	-0.14875302
111	0xbe094e4f	-0.13408779
112	0xbe08f136	-0.13373265
113	0xbc425740	-0.011861622
114	0xbc34472f	-0.0110033
115	0xbc028535	-0.007966329
116	0x3def70a1	0.11691404
117	0x3d47be1e	0.048765294
118	0x3cab1f35	0.020888904
119	0xbe4a609d	-0.19763418
120	0x3d6d9f47	0.058013227
121	0x3d580733	0.05274124
122	0xbdd9aadd	-0.10628293
123	0x3de9c6d7	0.11414879
124	0x3c005007	0.00783158
125	0xbc813193	-0.01577071
126	0xbe06c1ea	-0.1315991
127	0x3e55957f	0.2085781
128	0x3e0030f0	0.12518668
129	0x3e5ad654	0.21370822
130	0x3d225901	0.039635662
131	0xbd508865	-0.050911326
132	0x3e5f7ecc	0.21825713
133	0x3de0cf03	0.10976984
134	0x3d9dc33d	0.07703254
135	0x3e65c139	0.2243699
136	0x3e08e9f4	0.13370496
137	0xbd391288	-0.04518369
138	0xbd8ade7e	-0.06780718
139	0x3d223390	0.039599955
140	0xbe810613	-0.25199947
141	0x3dde23a0	0.10846639
142	0x3e182257	0.1485685
143	0xbdbffae3	-0.09374025
144	0xbc7fdac5	-0.015616124
145	0x3e17f077	0.14837824
146	0x3db6c163	0.08923604
147	0xbe2d61bd	-0.16931815
148	0x3dd45717	0.103681736
149	0x3de69038	0.11257976
150	0x3dca473f	0.0987687
151	0x3e2b3f4a	0.16723362
152	0xbdfeed87	-0.124476485
153	0x3dea183c	0.114304036
154	0x3dfa35e9	0.12217314
155	0xbe0980f3	-0.13428096
156	0x3d2d5af5	0.04232307
157	0xbdb46f59	-0.088103004
158	0x3d601bdf	0.05471408
159	0x3e0d1da1	0.13780834
160	0xbe6fcd69	-0.23418202
161	0xbd067a01	-0.032831196
162	0xbe3bb14e	-0.18329355
163	0x3e2ee614	0.17079955
164	0xbd5801c6	-0.052736066
165	0xbe007474	-0.12544423
166	0xbc67df8d	-0.01415242
167	0x3d71a464	0.058994666
168	0x3e27ee53	0.16399507
169	0xbd384358	-0.0449861
170	0x3c8a89ba	0.016911376
171	0xbe16e975	-0.14737494
172	0x3c70683c	0.014673289
173	0xbd57d051	-0.0526889
174	0xbdeab887	-0.11460977
175	0xbcf28a10	-0.029606849
176	0x3ca60f4f	0.020270972
177	0x3e09c2c6	0.13453206
178	0xbe4d6e97	-0.20061718
179	0x3e1f5939	0.1556138
180	0xbdc8ebfb	-0.09810635
181	0x3c7c55dc	0.01540133
182	0xbe225fbe	-0.15856835
183	0x3e2ec408	0.17066967
184	0x3e4f8ba3	0.20268111
185	0x3dea47f2	0.11439504
186	0x3db5bf3d	0.088743664
187	0xbd392a4e	-0.04520636
188	0xbda8c486	-0.08240609
189	0xbe1b7cf9	-0.15184392
190	0x3be8f765	0.00710957
191	0x3e07bda9	0.13255943
192	0x3d67e2ac	0.056612656
193	0xbe50423a	-0.20337763
194	0xbb067a3e	-0.002051964
195	0xbd955880	-0.07292271
196	0xbd811fce	-0.063048944
197	0xbe26a1b9	-0.1627263
198	0x3e22f997	0.15915523
199	0x3d8b5c2a	0.06804688
200	0x3dd4a029	0.103821106
201	0x3d1626ba	0.036658026
202	0xbcc31cc7	-0.023817433
203	0x3cbfbce3	0.023405498
204	0x3ddee35d	0.1088321
205	0x3e8464d8	0.25858188
206	0x3e09fae1	0.13474609
207	0x3deabfc3	0.11462357
208	0x3e0a763a	0.13521662
209	0x3b9ec040	0.0048446953
210	0xbe18fbd7	-0.1493982
211	0x3dbe2268	0.09283906
212	0xbe0de6d5	-0.13857587
213	0x3d3110c3	0.043228876
214	0x3e46bbd6	0.19407591
215	0x3de67632	0.11253013
216	0xbc902a7c	-0.017598383
217	0x3d5dacdb	0.054119926
218	0x3e4f4f78	0.20245159
219	0xbddbac31	-0.10726202
220	0x3c7d8430	0.0154734105
221	0xbe408a40	-0.18802738
222	0xbde899ea	-0.11357482
223	0xbe1c2629	-0.15248932
224	0x3e720e11	0.23638178
225	0xbccc0c4c	-0.024908207
226	0x3e729e9b	0.23693316
227	0xbd6435ce	-0.055715375
228	0x3e53d276	0.20685753
229	0xbe46667d	-0.19375034
230	0xbd63604a	-0.05551175
231	0x3e4fe204	0.20301062
232	0x3e138c15	0.14408906
233	0xbe12f925	-0.14352854
234	0xbdc359b2	-0.095385924
235	0xbdf88080	-0.121338844
236	0xbd968209	-0.07349021
237	0xbd517754	-0.05113919
238	0xbdac1f4a	-0.084044054
239	0x3e46fec1	0.19433118
240	0xbe0a10de	-0.13482997
241	0xbdc29805	-0.09501652
242	0x3d60a384	0.05484344
243	0xbe2c8f90	-0.1685164
244	0x3cfe7cc0	0.031065345
245	0x3dde1b8f	0.108451
246	0xbd55fe3d	-0.052244414
247	0x3e214f0e	0.15752813
248	0xbdeced9d	-0.11568759
249	0xbdd22145	-0.10260252
250	0x3c80d684	0.015727289
251	0x3dc0c7a7	0.09413081
252	0x3b8c0de3	0.0042741164
253	0x3e1a9e19	0.15099372
254	0x3db8b24a	0.09018381
255	0x3d093045	0.0334933

conv1.3.bias f4 [12]
0	0x3d952be5	0.07283763
1	0xbc52c1bf	-0.0128635755
2	0x3e2b90fc	0.16754526
3	0x3d65021f	0.055910226
4	0x3e422a42	0.18961433
5	0x3e34c46d	0.17653055
6	0xbe0e651e	-0.1390576
7	0x3df4c99b	0.11952516
8	0xbe1c7be6	-0.15281639
9	0xbd86f329	-0.06589348
10	0x3dbd34cb	0.09238585
11	0x3e082634	0.13295823

conv1.4.weight f4 [12]
0	0x3f86cf16	1.0531948
1	0x3f8550ee	1.0415323
2	0x3f837ed1	1.0273076
3	0x3f82a518	1.0206633
4	0x3f84eded	1.0385109
5	0x3f810cec	1.0082068
6	0x3f82721a	1.0191071
7	0x3f840611	1.0314351
8	0x3f8170c9	1.0112544
9	0x3f849b29	1.0359851
10	0x3f813382	1.0093844
11	0x3f81b140	1.0132217

conv1.4.bias f4 [12]
0	0x3c03d7ea	0.008047083
1	0x3c016357	0.00789722
2	0xbc13465a	-0.008988941
3	0x3bdee875	0.0068026134
4	0x3c04e7be	0.008111892
5	0xbc29aecb	-0.010356615
6	0x3bf0d80e	0.0073499745
7	0xbc1355ed	-0.008992654
8	0xbc178b38	-0.009249501
9	0x3c016a8b	0.007898937
10	0xbc0fddc5	-0.008780901
11	0xbc0ffebf	-0.008788764

conv1.4.running_mean f4 [12]
0	0x3d811351	0.063025124
1	0x3d74480e	0.05963903
2	0x3e088327	0.1333128
3	0x3e88d77c	0.26726902
4	0x3e3aebae	0.18253967
5	0x3f03e711	0.51524454
6	0xbda64d61	-0.081202276
7	0x3e2bb0e6	0.167667
8	0x3dc7a577	0.09748357
9	0xbd4029fb	-0.046915036
10	0x3debcee8	0.115140736
11	0x3e8317ff	0.25604245

conv1.4.running_var f4 [12]
0	0x3d066145	0.032807607
1	0x3d6169b5	0.05503245
2	0x3d8b700a	0.06808479
3	0x3e26d1f9	0.16291036
4	0x3d9b5336	0.075842306
5	0x3e427ba7	0.18992482
6	0x3db1f959	0.086901374
7	0x3d8162e0	0.06317687
8	0x3e0b2780	0.13589287
9	0x3dfa0000	0.12207031
10	0x3d94cf73	0.0726613
11	0x3e154df2	0.14580515

conv2.0.weight f4 [12, 15, 3]
0	0xbe00150b	-0.12508027
1	0xbe07394a	-0.13205448
2	0x3e0e10f8	0.1387366
3	0xbd864005	-0.065551795
4	0xbca3bebf	-0.019988416
5	0xbc93591c	-0.017986827
6	0x3d55a618	0.052160352
7	0x3e0f9c1e	0.14024398
8	0xbe084cd7	-0.13310562
9	0x3d57047e	0.05249452
10	0xbd9d4f5f	-0.076811545
11	0x3cab2ce0	0.020895422
12	0x3d859783	0.06523039
13	0xbdf128c0	-0.117753506
14	0x3e13b2b4	0.14423639
15	0x3d73231b	0.05935965
16	0x3bda0b88	0.0066542067
17	0xbdc11e86	-0.0942965
18	0x3ded82de	0.115972266
19	0x3d0538e4	0.03252496
20	0xbd948aa5	-0.07253007
21	0xbe386a54	-0.18009311
22	0xbe131cb6	-0.14366421
23	0xbc2288df	-0.009920328
24	0x3e0c6ec6	0.13714132
25	0xbe268fde	-0.16265818
26	0xbdeb78b4	-0.11497632
27	0x3e0523a2	0.13001874
28	0xbc96346d	-0.018335545
29	0xbe487cef	-0.19578908
30	0xbc5d91c0	-0.013523519
31	0x3dc14098	0.094361484
32	0xbd58d56a	-0.052937903
33	0xbd44373f	-0.04790425
34	0xbd58f87c	-0.05297135
35	0xbe0deafc	-0.1385917
36	0x3cfc4e32	0.030799005
37	0xbccdb261	-0.025109472
38	0xbb9b948d	-0.0047479332
39	0x3e12cb96	0.14335474
40	0x3d5dc17b	0.054139595
41	0xbdadc142	-0.084841266
42	0xbd992f51	-0.07479728
43	0x3d8708fb	0.0659351
44	0x3d52d801	0.05147553
45	0x3d55b72f	0.05217665
46	0xbd2af188	-0.04173425
47	0x3d388b6c	0.045054838
48	0x3ad0a776	0.0015919048
49	0xbdbfb881	-0.09361363
50	0xbe098f55	-0.13433583
51	0x3d345cb7	0.044033732
52	0x3d8d17ca	0.06889303
53	0x3d29ed2d	0.041485954
54	0x3d4197fa	0.047264077
55	0xbda51095	-0.080598034
56	0xbde60e62	-0.11233212
57	0xbc9c8477	-0.019106133
58	0xbe0d9806	-0.13827524
59	0xbd53f912	-0.051751204
60	0xbd7e37f7	-0.06206509
61	0xbc897184	-0.016777761
62	0xbcb02b0b	-0.0215049
63	0xbddf8deb	-0.109157406
64	0x3dabb278	0.083836496
65	0x3c2026d1	0.00977488
66	0x3e0cb3c7	0.13740455
67	0xbd668a2c	-0.056284115
68	0x3e189498	0.14900434
69	0x3e04b2d7	0.12958847
70	0xbdd7518d	-0.105136015
71	0x3e3b2dff	0.18279265
72	0xbd39b09f	-0.045334455
73	0xba69d2a0	-0.000891963
74	0xbdf0cfd0	-0.11758387
75	0x3d3c36f3	0.04595084
76	0xbe330888	-0.17483723
77	0xbc8440db	-0.016144207
78	0xbd238c40	-0.039928675
79	0xbdace76c	-0.08442578
80	0x3b62f04f	0.0034628098
81	0xbdb11d91	-0.086482175
82	0x3d31ba77	0.043390717
83	0xbbbaa8e4	-0.005696403
84	0xbe107d61	-0.14110328
85	0x3da9ff58	0.08300656
86	0xbd9f6643	-0.07783177
87	0xbdeb1db1	-0.114802726
88	0x3a6fb1e9	0.0009143637
89	0x3dd53583	0.10410597
90	0xbd6e2abb	-0.05814622
91	0xbc850e97	-0.016242309
92	0xbd004eaf	-0.03132504
93	0xbd8d0ea0	-0.06887555
94	0x3cfb33a8	0.03066428
95	0x3dd5d586	0.10441117
96	0xbd89be0d	-0.067257024
97	0x3d2a1c7d	0.041531075
98	0xbaf3cf90	-0.0018601287
99	0x3d6ebeb0	0.058287323
100	0x3d16960e	0.036764197
101	0x3d1743d4	0.03692992
102	0x3ccd515d	0.025063211
103	0x3d97635c	0.07391998
104	0x3c37a1b8	0.01120799
105	0x3d27a962	0.04093302
106	0x3e038352	0.12843063
107	0x3d88165d	0.066448905
108	0x3db31c91	0.08745683
109	0xbdde14d5	-0.10843817
110	0xbded3850	-0.115830064
111	0xbe1a6701	-0.15078355
112	0xbd4d9aea	-0.050196566
113	0xbd06e362	-0.032931693
114	0xbdef3b6b	-0.11681255
115	0xbd0cd231	-0.03438014
116	0xbe0a85a6	-0.13527545
117	0x3cb8f3b7	0.02257715
118	0xbc2bff88	-0.010497935
119	0x3d59ef2f	0.05320662
120	0x3d5bc9f0	0.05365938
121	0x3e50476b	0.20339744
122	0x3e3ac3a3	0.18238692
123	0x3e1cad17	0.15300404
124	0x3dfb3843	0.122665904
125	0x3d8b50d9	0.0680253
126	0xbd96d19e	-0.073642
127	0x3e2eac91	0.17058016
128	0xbd15550b	-0.036458056
129	0x3d9699ff	0.07353591
130	0x3e359c06	0.177353
131	0xbe137c3f	-0.14402865
132	0x3d8b1800	0.06791687
133	0xbdec8dac	-0.11550459
134	0x3cc29b34	0.023755647
135	0xbdfa8d9e	-0.122340426
136	0xbd19974e	-0.03749781
137	0xbcf52283	-0.029923683
138	0xbdc5ddbe	-0.096614346
139	0x3df2cb06	0.1185513
140	0x3d446958	0.047952026
141	0x3cefbbc8	0.029264346
142	0x3d50e7ee	0.051002435
143	0x3d484fda	0.048904277
144	0x3c18fd78	0.009337775
145	0x3caf2ec1	0.021384599
146	0xbd84d193	-0.064852856
147	0xbd82336b	-0.063574634
148	0xbd71966b	-0.05898134
149	0x3cb2cefd	0.021827215
150	0x3de339a6	0.1109498
151	0xbdb872bc	-0.09006259
152	0x3d6a8228	0.057253033
153	0x3d1ad2ef	0.03779882
154	0xbd2a82f8	-0.041628808
155	0x3da52f51	0.080656655
156	0xbde0d202	-0.10977556
157	0x3ddfb5fc	0.10923383
158	0xbdb8fad8	-0.0903222
159	0xbcd65f2f	-0.026168434
160	0xbd81f48d	-0.063454725
161	0x3d60754f	0.054799374
162	0xbdb3063c	-0.087414235
163	0xbcbdaf3f	-0.023154853
164	0xbdb74c0f	-0.08950054
165	0xbda76925	-0.081743516
166	0xbc2cf809	-0.010557183
167	0x3dce9443	0.100868724
168	0x3c86a9e0	0.016438425
169	0xbd8b506c	-0.06802449
170	0x3e54e725	0.207913
171	0xbe2fcdb6	-0.17168316
172	0x3e51732e	0.20454094
173	0xbe047e61	-0.12938835
174	0x3e126b59	0.14298762
175	0xbd23657a	-0.039891697
176	0x3dd59750	0.10429251
177	0x3aeeff24	0.0018233997
178	0x3e043f03	0.12914662
179	0xbe014379	-0.12623395
180	0xbd4c9657	-0.049948063
181	0xbc948ab4	-0.018132545
182	0xbd600894	-0.05469568
183	0xbd8b18d5	-0.06791846
184	0x3ddcd700	0.107831955
185	0xbd2b0e59	-0.04176173
186	0xbd051fda	-0.03250108
187	0xbd950f68	-0.07278329
188	0xbabd5977	-0.0014446218
189	0x3e21512c	0.15753621
190	0xbdcf601b	-0.101257525
191	0x3e04d33f	0.12971209
192	0xbb2e9e50	-0.0026644655
193	0xbdd8772d	-0.10569606
194	0xbe04fab1	-0.12986256
195	0x3c102e0a	0.008800039
196	0x3c71efda	0.014766658
197	0xbda3bfc2	-0.07995559
198	0xbd2fbb4b	-0.042903226
199	0xbe35aab0	-0.17740893
200	0xbc161d6e	-0.00916229
201	0x3d11767a	0.03551338
202	0x3ca730b6	0.02040897
203	0x3bf4de9f	0.0074728276
204	0x3e049b46	0.12949857
205	0xbd32aa04	-0.04361917
206	0xbe749155	-0.23883565
207	0x3d283835	0.04106923
208	0xbe2bf7b9	-0.16793717
209	0x3d0346f2	0.03205008
210	0x3dc7722e	0.09738575
211	0xbdcb49d6	-0.099261925
212	0x3deec79e	0.11659168
213	0x3b3dc975	0.002895919
214	0x3d6bb61c	0.05754672
215	0x3d7f0cd3	0.06226809
216	0xbd01b023	-0.031662118
217	0xbd479565	-0.048726458
218	0x3d24c5a7	0.04022756
219	0x3d480c96	0.048840128
220	0x3ddfc8fb	0.10927006
221	0xbd346dce	-0.04405003
222	0x3d3ada23	0.045618188
223	0x3c885104	0.016640194
224	0x3d54b1c7	0.051927354
225	0x3dfe84c5	0.124276675
226	0x3db84193	0.08996882
227	0xbbc0a801	-0.0058794026
228	0xbc5ed84b	-0.013601373
229	0xbc486a95	-0.012232442
230	0x3d86d328	0.065832436
231	0xbd982f6a	-0.074309185
232	0x3d776b57	0.0604051
233	0xbd3f363a	-0.046682574
234	0x3d916bea	0.07100661
235	0x3c3aae3b	0.011394079
236	0xbd38fa78	-0.04516074
237	0x3df4ccab	0.119531
238	0x3e022721	0.12710239
239	0x3e181010	0.14849877
240	0xbd478184	-0.0487075
241	0xbc9f0c4d	-0.019415045
242	0xbd0531e7	-0.032518294
243	0xbda35022	-0.079742685
244	0xbd99d552	-0.07511391
245	0x3dd2d546	0.10294585
246	0xbde70d21	-0.11281801
247	0xbca40c8c	-0.020025514
248	0x3e816c5e	0.2527799
249	0x3dddd19c	0.108309954
250	0x3e18ed49	0.14934267
251	0xbcf010a8	-0.029304817
252	0x3e02ce98	0.12774122
253	0x3befd6aa	0.007319291
254	0xbd2bbcf3	-0.041928243
255	0x3e1dd39c	0.15412754

conv2.0.bias f4 [12]
0	0x3d87ff2c	0.06640467
1	0x3cff0d6c	0.03113433
2	0xbc21bfa1	-0.009872348
3	0x3de92e4b	0.11385783
4	0xbe0fecf0	-0.14055228
5	0xbdde26ff	-0.10847282
6	0xbd998220	-0.074955225
7	0xbdfbc1c1	-0.12292815
8	0x3da98215	0.08276764
9	0xbd70ace4	-0.05875863
10	0xbe0d5833	-0.13803177
11	0x3d106006	0.035247825

conv2.1.weight f4 [12]
0	0x3f71d6f0	0.94468594
1	0x3f854d7e	1.0414274
2	0x3f8141ce	1.0098207
3	0x3f84b0c8	1.0366449
4	0x3f7ca02d	0.9868191
5	0x3f73790e	0.9510659
6	0x3f76dd7f	0.96431726
7	0x3f8644de	1.0489767
8	0x3f7e4efe	0.9933928
9	0x3f7a16d8	0.97691107
10	0x3f774e6b	0.9660403
11	0x3f82385f	1.0173453

conv2.1.bias f4 [12]
0	0x3de6de44	0.112728626
1	0xbd2fa147	-0.042878415
2	0x3d9f8bf8	0.07790369
3	0x3c9ba007	0.018997205
4	0xbc5b1b9b	-0.013373281
5	0xbd724a75	-0.05915304
6	0xbdf3e371	-0.119086154
7	0x3caf03ca	0.021364111
8	0xbcf0ac28	-0.029378965
9	0xbd3cf7a4	-0.046134606
10	0xbd6cbd2c	-0.057797596
11	0x3c3bda4e	0.011465622

conv2.1.running_mean f4 [12]
0	0xbe719625	-0.23592432
1	0x3e4e84e7	0.20167886
2	0xbe33d85c	-0.17563003
3	0x3cd3f837	0.025875194
4	0xbe1c3b58	-0.15257013
5	0x3d9c949a	0.07645531
6	0xbe4588e0	-0.19290495
7	0xbe256213	-0.16150694
8	0xbddd85d8	-0.10816544
9	0x3e4a8ec9	0.1978103
10	0xbd2198fc	-0.039452538
11	0xbe3d6c92	-0.18498448

conv2.1.running_var f4 [12]
0	0x410685a4	8.407627
1	0x403f0c82	2.9851384
2	0x402ba045	2.681657
3	0x4094837c	4.6410503
4	0x40836ebf	4.107269
5	0x409ea716	4.957896
6	0x4103155c	8.192715
7	0x408535ec	4.1628323
8	0x40982f2f	4.7557597
9	0x40ec04bc	7.375578
10	0x4033c7aa	2.8090615
11	0x40d3e115	6.621226

conv2.3.weight f4 [12, 12, 3]
0	0x3dd38b86	0.10329346
1	0x3d6dd4ac	0.058064148
2	0x3d9d1f18	0.07671946
3	0xbdfb48e9	-0.12269766
4	0xbe040f0f	-0.1289637
5	0xbdb186b8	-0.08668274
6	0xbe247502	-0.1606026
7	0x3d3862e5	0.04501619
8	0x3c305fd3	0.010765034
9	0xbd6cdd39	-0.057828162
10	0x3e400b29	0.18754257
11	0x3e00475d	0.12527223
12	0xbc23573f	-0.009969532
13	0x3e281d2f	0.16417383
14	0xbda16550	-0.07880652
15	0x3c245b3c	0.010031518
16	0x3d863578	0.06553167
17	0xbcdd0d37	-0.02698384
18	0x3b7825ed	0.0037864402
19	0x3d0897c9	0.03334788
20	0x3ddf2836	0.108963415
21	0xbe2d647a	-0.1693286
22	0x3d9690db	0.07351848
23	0xbd9a2c93	-0.07528033
24	0xbe06190a	-0.13095489
25	0x3c8cce96	0.017188352
26	0xbdb70f32	-0.08938445
27	0xbe14a715	-0.14516862
28	0x3e534a90	0.20633912
29	0x3c89719a	0.016777802
30	0x3e029744	0.12753016
31	0x3d44fdfc	0.04809378
32	0xbccb718e	-0.02483442
33	0xbd34de14	-0.044157103
34	0x3ddc12b4	0.10745755
35	0xbe010d72	-0.12602785
36	0x3dee3d8f	0.11632835
37	0x3d0ca5fe	0.03433799
38	0x3da7cc3c	0.081932515
39	0x3c4bb32a	0.012432853
40	0x3d996dc1	0.07491637
41	0x3de35d20	0.111017466
42	0xbce65e5f	-0.028121172
43	0x3e0311e0	0.12799788
44	0xbda979c2	-0.082751766
45	0x3c2ae5a8	0.010430731
46	0x3c6dc1ee	0.0145115685
47	0x3d79430a	0.06085495
48	0x3d84a5a7	0.06476908
49	0xbd5a1c36	-0.05324956
50	0x3d8a0595	0.06739346
51	0xbe146f0f	-0.1449549
52	0x3d40a60e	0.047033362
53	0x3d0f6b9b	0.03501473
54	0x3baedeb9	0.005336609
55	0xbdaadc75	-0.0834283
56	0xbcf4c4ca	-0.029878993
57	0x3e4fa935	0.20279391
58	0xbd93f74f	-0.07224905
59	0xbde92236	-0.11383478
60	0x3df8bf4e	0.121458635
61	0x3dbb4c47	0.09145408
62	0x3dcfc9a2	0.1014588
63	0x3ddc19b8	0.10747093
64	0xbd52a13f	-0.051423308
65	0xbd6f2ab0	-0.05839032
66	0xbda3a148	-0.07989746
67	0xbe6c083a	-0.23050013
68	0x3b2d1f21	0.002641626
69	0xbdb7e035	-0.08978311
70	0xbd267ac9	-0.04064444
71	0xbd86a550	-0.065744996
72	0x3decc0e4	0.115602285
73	0x3ddf4560	0.10901904
74	0xbe32ede9	-0.17473568
75	0xbdb603c5	-0.08887438
76	0x3e1b7fdd	0.15185495
77	0x3d910f75	0.07083026
78	0xbd474184	-0.048646465
79	0x3e1ad887	0.15121661
80	0xbdcfa2c3	-0.10138466
81	0x3dc57f57	0.09643429
82	0xbe1a05f9	-0.15041341
83	0x3d8a9ac9	0.06767804
84	0xbcf8a0f0	-0.030350178
85	0xbc3bcc4f	-0.011462285
86	0xbb379208	-0.0028010625
87	0x3db210ce	0.086946115
88	0x3e106ee5	0.14104803
89	0xbe811869	-0.25213936
90	0xbb911497	-0.0044275033
91	0x3ce39384	0.027780302
92	0xbdda3499	-0.106545635
93	0x3e4413b7	0.19148146
94	0x3e153fb9	0.1457509
95	0x3c022c9c	0.007945206
96	0xbe2da403	-0.16957097
97	0xbd46e03c	-0.04855369
98	0x3daa8b7a	0.08327384
99	0xbda2e7d4	-0.07954374
100	0x3cbf7144	0.023369439
101	0xbc5cb17c	-0.01347005
102	0x3d451c86	0.048122905
103	0x3e0e7010	0.13909936
104	0xbce03883	-0.027370697
105	0x3c38b206	0.011272913
106	0xbdfb8008	-0.122802794
107	0xbccf1875	-0.025280217
108	0x3d9f866e	0.07789312
109	0x3daf89bf	0.08571195
110	0xbe1158f1	-0.14194085
111	0x3cbf8227	0.023377491
112	0xbe00f0eb	-0.12591903
113	0x3d7c4b7d	0.06159543
114	0xbd38656e	-0.045018606
115	0x3e35c568	0.17751086
116	0xbdcb990b	-0.099413
117	0xbdf767ce	-0.12080346
118	0xbc8f3164	-0.017479606
119	0x3e0af3f1	0.13569619
120	0xbcd082d4	-0.025453009
121	0x3a68729d	0.00088671764
122	0x3e11417f	0.14185141
123	0xbdba15cf	-0.09086191
124	0xbbf15509	-0.0073648733
125	0xbcaeaf95	-0.021323958
126	0x3d997541	0.074930675
127	0x3d49268d	0.04910903
128	0xbe01d536	-0.1267899
129	0xbdb3e794	-0.087844044
130	0x3dd212dd	0.10257504
131	0x3e30a514	0.17250472
132	0xbd0325fd	-0.03201865
133	0xbde6deaa	-0.112729385
134	0xbd3ffcb2	-0.04687185
135	0x3beda834	0.0072527174
136	0x3e469f06	0.193966
137	0xbde6a532	-0.11261977
138	0x3deff742	0.117170826
139	0x3d9eb699	0.077496715
140	0xbdef6fc0	-0.116912365
141	0x3d7dcb6a	0.06196157
142	0xbdbd5e0c	-0.09246454
143	0x3d89f8fe	0.067369446
144	0x3dfd8807	0.12379461
145	0x3d8f3bae	0.06993805
146	0xbe21c95a	-0.15799466
147	0xbe333536	-0.17500767
148	0xbb04a507	-0.0020239966
149	0x3d91ecd7	0.07125252
150	0x3d930870	0.07179344
151	0x3ddcb51b	0.107767306
152	0xbd89c4b8	-0.06726974
153	0xbe352dd0	-0.17693257
154	0xbe1914e9	-0.14949383
155	0x3e1bb2b4	0.15204889
156	0xbdadadb8	-0.084804
157	0xbda2c54d	-0.079477884
158	0xbe0b750d	-0.1361887
159	0xbc40c7e1	-0.011766405
160	0xbd0013a8	-0.031268746
161	0x3d0fa5cc	0.035070226
162	0xbde9869a	-0.11402626
163	0x3e13da7f	0.14438818
164	0x3c56eada	0.013117516
165	0xbd385e72	-0.045011945
166	0xbdaa0508	-0.08301741
167	0x3e18787c	0.14889711
168	0x3d409e09	0.047025714
169	0x3e0b1c18	0.13584936
170	0xbcd702b7	-0.026246412
171	0x3decfcce	0.11571656
172	0xbd9eb389	-0.07749087
173	0x3d91fb57	0.071280174
174	0xba9b8b0c	-0.0011867001
175	0x3d80f52b	0.06296762
176	0x3e174aea	0.14774671
177	0x3de7e5a4	0.11323097
178	0x3c999e88	0.018752351
179	0x3cfe720e	0.031060245
180	0x3d619a65	0.055078883
181	0xbdafa652	-0.08576645
182	0x3dbfa753	0.093580864
183	0xbcb426d3	-0.02199117
184	0x3d48f8d0	0.04906541
185	0x3dcc6915	0.0998098
186	0xbdeafd88	-0.114741385
187	0xbd912d3f	-0.07088708
188	0x3c8520c5	0.016250977
189	0x3d919d33	0.071100615
190	0xbe036bfa	-0.12834159
191	0x3d67debd	0.056608904
192	0x3ca22333	0.019792175
193	0x3dbff53c	0.093729466
194	0x3e0f9b3e	0.14024064
195	0x3b4680d7	0.0030289197
196	0xbd646aa6	-0.05576577
197	0x3d28e651	0.04123527
198	0x3e1f4894	0.1555503
199	0x3dedb202	0.11606218
200	0xbd86ae24	-0.065761834
201	0xbe0f57f2	-0.13998392
202	0xbdcc8db8	-0.09987968
203	0x3dcbc832	0.099502936
204	0xbd97e233	-0.07416191
205	0xbda6cbe3	-0.08144357
206	0x3df84559	0.12122602
207	0xbb24728b	-0.0025092687
208	0x3df81300	0.12112999
209	0xbe06654a	-0.13124576
210	0xbe2cece6	-0.16887245
211	0xbd90bfd6	-0.0706784
212	0xbe45d2ba	-0.19318667
213	0xbdbb6e5d	-0.091519095
214	0x3e1c0666	0.15236816
215	0xbdf6f25f	-0.12057947
216	0x3d9d70c5	0.07687525
217	0x3d820715	0.06349007
218	0xbe507a71	-0.20359208
219	0xbd043aaa	-0.03228251
220	0xbd8d4c18	-0.06899279
221	0x3e2e4478	0.17018306
222	0xbdca99ae	-0.09892593
223	0x3d63c58c	0.055608317
224	0xbdbfa8ca	-0.09358366
225	0x3ccaa48b	0.024736663
226	0x3e5d5912	0.21616009
227	0x3e1ede8b	0.15514581
228	0x3e477434	0.19477922
229	0xbcb228ec	-0.021748029
230	0xbdc45436	-0.095863745
231	0x3e489f27	0.19591962
232	0xbc9c7ea5	-0.019103358
233	0x3dafdf6f	0.085875385
234	0xbe13757d	-0.14400287
235	0x3ca521e3	0.02015776
236	0xbc88711f	-0.016655503
237	0xbc3b605e	-0.01143655
238	0xbdc424b2	-0.095773116
239	0xbdc75622	-0.097332254
240	0xbdc986c5	-0.098401584
241	0xbdc0dc73	-0.09417047
242	0x3e18ca4e	0.14920923
243	0xbd2e68fb	-0.042580586
244	0x3dded154	0.1087977
245	0x3cabee71	0.020987721
246	0xbe551be6	-0.20811424
247	0xbcf1b891	-0.029506953
248	0xbc021253	-0.007938939
249	0xbe0b304d	-0.13592644
250	0xbdb647ac	-0.08900389
251	0xbc9b855e	-0.018984493
252	0x3cfecb12	0.03110269
253	0xbdc60287	-0.09668451
254	0xbddc3337	-0.10751956
255	0xbdfd0afc	-0.12355611

conv2.3.bias f4 [12]
0	0x3d2c0731	0.041999046
1	0xbd56270b	-0.052283328
2	0x3deffb90	0.117179036
3	0x3de032e1	0.109472044
4	0xbdbafdb9	-0.09130425
5	0x3d710aca	0.05884818
6	0xbd8016b9	-0.06254334
7	0x3dfe4a81	0.12416554
8	0x3daa5dd8	0.083186805
9	0xbbaec951	-0.0053340574
10	0x3d3b8b2d	0.045787025
11	0xbd0c2a3e	-0.034219973

conv2.4.weight f4 [12]
0	0x3f876947	1.0579003
1	0x3f863e90	1.0487843
2	0x3f825812	1.0183127
3	0x3f868264	1.0508542
4	0x3f8c6509	1.0968333
5	0x3f840f9f	1.0317267
6	0x3f888184	1.0664525
7	0x3f89122c	1.0708671
8	0x3f848bf9	1.0355216
9	0x3f88f0a6	1.069844
10	0x3f895070	1.0727673
11	0x3f8930ee	1.0718057

conv2.4.bias f4 [12]
0	0x3c047669	0.008084872
1	0x3c04cd24	0.00810555
2	0xbc13885d	-0.0090046795
3	0xbc2651f0	-0.010151371
4	0xbc188cc1	-0.009310902
5	0xbc136e28	-0.008998431
6	0x3bec05a9	0.007202823
7	0x3c0556fb	0.008138414
8	0xbc14baa2	-0.0090777
9	0x3c0282f8	0.007965796
10	0x3c0759c2	0.008261146
11	0x3c06b178	0.008221023

conv2.4.running_mean f4 [12]
0	0x3d261a0f	0.040552195
1	0x3d991dd5	0.07476393
2	0x3e5d4fc3	0.21612458
3	0x3e2eca17	0.17069279
4	0xbcd08d38	-0.025457963
5	0xbc94ffe1	-0.018188419
6	0xbe02dd44	-0.12779719
7	0x3d6fe747	0.058570173
8	0x3dd96fbe	0.10617016
9	0xbc35295b	-0.011057223
10	0x3dc90c90	0.09816849
11	0x3b9d264f	0.0047958265

conv2.4.running_var f4 [12]
0	0x3d71980a	0.058982886
1	0x3d88c1ce	0.0667759
2	0x3d9cc294	0.076543
3	0x3d8a73f4	0.067603976
4	0x3d4964d3	0.04916842
5	0x3de38d0c	0.11110887
6	0x3dbf63a2	0.09345175
7	0x3da02824	0.07820156
8	0x3da7fbf4	0.08202353
9	0x3d5bc2e4	0.05365266
10	0x3d290598	0.0412651
11	0x3d54265f	0.051794406

conv3.0.weight f4 [12, 15, 4]
0	0xbdaec14c	-0.08532962
1	0xbd834e88	-0.06411463
2	0xbd875ff1	-0.06610096
3	0xbdc6a0d3	-0.096986435
4	0x3c9003c0	0.017579913
5	0xbcb3fe6b	-0.021971902
6	0xbd46dfd2	-0.048553295
7	0xbd19d14e	-0.037553124
8	0xbcc0cc90	-0.023535043
9	0xbbba8864	-0.0056925286
10	0x3d86fb33	0.06590881
11	0xbcd5d294	-0.026101388
12	0x3d4537cb	0.04814891
13	0xbdf59dae	-0.11992966
14	0xbd3020c6	-0.043000005
15	0xbc82825a	-0.015931297
16	0x3dc8a6c4	0.09797433
17	0xbd68f4eb	-0.056874197
18	0x3da1977b	0.07890221
19	0xbda534e4	-0.08066729
20	0xbcc23348	-0.023706093
21	0xbd314dee	-0.04328721
22	0x3d8f0cf3	0.06984892
23	0xbe380728	-0.1797148
24	0x3d72130b	0.059100192
25	0x3d343126	0.043992184
26	0xbd48a4bd	-0.04898523
27	0xbc933746	-0.017970692
28	0xbe17d88f	-0.14828704
29	0xbb86097b	-0.0040904856
30	0x3c6120d2	0.013740735
31	0xbe1b5c6b	-0.15171973
32	0xbe0011ad	-0.12506743
33	0x3dea6cc0	0.11446524
34	0xbc9dc8ca	-0.019260783
35	0x3901d658	0.00012382248
36	0x3d2af48e	0.04173713
37	0x3e1f6da9	0.15569176
38	0x386595f8	5.4737524e-05
39	0xbda7cdfe	-0.08193587
40	0x3d8c06ef	0.0683726
41	0xbc19de73	-0.009391415
42	0x3d1d0388	0.038333446
43	0xbe10a841	-0.14126684
44	0x3d54d8f2	0.051964708
45	0x3da4fc5a	0.08055945
46	0x3db9797b	0.09056374
47	0xbd77dc73	-0.06051297
48	0x3c736f69	0.014858105
49	0xbc86e7eb	-0.016468009
50	0x3de21e21	0.11040903
51	0xbd36489e	-0.044502847
52	0x3d02a65d	0.031896938
53	0x3d905079	0.07046599
54	0x3d7c4234	0.061586574
55	0xbe0a00dc	-0.1347689
56	0x3dc4f519	0.09617061
57	0x3d558c91	0.052136008
58	0x3e195279	0.14972867
59	0xbe3a3bd2	-0.18186882
60	0x3c270eb5	0.0101963775
61	0xbd361d1a	-0.044461347
62	0xbd4a4e09	-0.049390826
63	0x3cfe52ba	0.031045306
64	0xbd724a2d	-0.05915277
65	0xbdbb13fc	-0.09134671
66	0x3c6e5ba8	0.01454822
67	0x3dab1388	0.08353335
68	0xbd83ffff	-0.06445312
69	0xbd9a1ede	-0.07525419
70	0xbc9ba225	-0.018998215
71	0xbde6a159	-0.112612434
72	0x3d012f91	0.031539503
73	0xbd800524	-0.062509805
74	0x3daac8f6	0.083391115
75	0xbd850454	-0.06494966
76	0x3d005a88	0.031336337
77	0xbe2501c6	-0.16113958
78	0xbd1b2c8c	-0.03788428
79	0xbc687332	-0.014187621
80	0x3e31bd7d	0.1735744
81	0x3de43f8c	0.11144933
82	0xbd3b0b41	-0.04566503
83	0xbcf2d6a4	-0.029643364
84	0x3ca9a6af	0.020709364
85	0x3dd50dfa	0.104030564
86	0x3d421a8f	0.04738861
87	0xbdc7427f	-0.0972948
88	0xbe011fa0	-0.1260972
89	0xbc7ba509	-0.015359172
90	0xbc4001af	-0.011719151
91	0x3dda2b95	0.10652844
92	0xbe263dbd	-0.16234489
93	0xbc8ad8cb	-0.016949078
94	0x3ca212d4	0.019784369
95	0xbd81c562	-0.06336476
96	0xbe112dd2	-0.14177635
97	0xbd538126	-0.051636837
98	0xbd9ed3fd	-0.07755277
99	0xbd80963b	-0.06278654
100	0x3d395e4e	0.04525595
101	0x3da19ebc	0.07891604
102	0xbd859b10	-0.065237164
103	0x3e37c65b	0.1794676
104	0x3d6cd8fa	0.057824112
105	0x3e46799d	0.1938233
106	0x3dfe027f	0.1240282
107	0x3da9882a	0.08277924
108	0xbcea060b	-0.028567335
109	0xbe26d2dc	-0.16291374
110	0xbe09d2b6	-0.13459286
111	0x3ce426c2	0.027850512
112	0x3d81dc45	0.06340841
113	0x3d54763c	0.05187057
114	0xbc593c1f	-0.013258963
115	0x3e00b468	0.1256882
116	0x3cb6aee1	0.022300186
117	0xbcd7c324	-0.026338167
118	0xbd7a0cdb	-0.061047416
119	0x3dc79802	0.0974579
120	0xbd2b99d9	-0.041894767
121	0xbdb3d63f	-0.087810986
122	0x3c7de42c	0.015496295
123	0x3d060429	0.03271881
124	0x3cdb5b6c	0.026776992
125	0xbe237201	-0.15961458
126	0x3dba7def	0.09106051
127	0xbd82932f	-0.06375729
128	0xbdafc7e1	-0.08583046
129	0xbe1ffc3c	-0.15623564
130	0xbdf167e1	-0.117873915
131	0x3dc38024	0.09545925
132	0x3c1d0c32	0.009585427
133	0xbdce457c	-0.10071847
134	0x3da5caba	0.08095308
135	0x3d1721c7	0.036897447
136	0x3dea9ec9	0.11456067
137	0x3d6b90d0	0.05751115
138	0x3dbf8b21	0.093527086
139	0xbdf3be64	-0.119015485
140	0x3b7864f9	0.0037901981
141	0x3d80ba38	0.062855184
142	0x3def52f5	0.11685745
143	0xbd41bf3f	-0.047301527
144	0xbc5c74e2	-0.013455601
145	0xbd750349	-0.059817586
146	0x3daee4e1	0.08539749
147	0xbd809d2e	-0.0627998
148	0x3cb2872f	0.021792976
149	0xbc9a1ac6	-0.018811595
150	0xbdcf304a	-0.10116632
151	0x3b6de96c	0.003630246
152	0x3dbe0b7e	0.09279536
153	0xbe256a4a	-0.16153827
154	0x3d6b2d9f	0.057416555
155	0x3e1e6428	0.15467894
156	0x3bd3ef2c	0.0064677205
157	0x3d41ce16	0.04731568
158	0x3d2e9b8f	0.04262882
159	0xbe54e6cb	-0.20791166
160	0xbd812612	-0.063060895
161	0xbdd07a0e	-0.1017953
162	0xbb1ac2a5	-0.0023614552
163	0xbdeb3ede	-0.114866
164	0xbcebba33	-0.02877531
165	0xbd4f0eb5	-0.050551135
166	0x3d0dc906	0.03461554
167	0x3c93d236	0.018044572
168	0x3c868d7d	0.016424889
169	0x3d044635	0.032293517
170	0x3c102e58	0.008800112
171	0xbd05cb28	-0.032664448
172	0xbcf87e73	-0.030333733
173	0x3d8d316f	0.06894194
174	0xba4058fd	-0.0007337479
175	0xbd8f1be6	-0.06987743
176	0x3de2260a	0.110424116
177	0x3c6a976f	0.014318331
178	0xbdab49d9	-0.08363695
179	0x3ce87627	0.028376652
180	0xbd1a0519	-0.037602518
181	0x3d8bbde0	0.06823325
182	0xbdb07a2a	-0.08617051
183	0xbd0d0ca9	-0.0344359
184	0xbc57c0b7	-0.013168505
185	0x3dc68e91	0.09695161
186	0xbdefaa8e	-0.117024526
187	0xbcbc87cc	-0.023013972
188	0x3c2fe360	0.010735363
189	0xbdc5d501	-0.09659768
190	0xbddaa3bc	-0.10675761
191	0xbde3ea60	-0.11128688
192	0xbd5f81ff	-0.054567333
193	0xbc46cb6c	-0.0121334605
194	0x3d9dfb98	0.07714003
195	0xbe0292a1	-0.12751247
196	0xbb9be244	-0.0047571976
197	0xbcee6311	-0.029099973
198	0x3d74e6f0	0.05979055
199	0x3d8e8c25	0.06960324
200	0x39559c0e	0.00020371398
201	0x3e0b500a	0.13604751
202	0x3db4a1a1	0.08819891
203	0x3d4f9f57	0.050689068
204	0x3e03cb54	0.12870532
205	0x3b9d6a23	0.0048039122
206	0x3da5cac1	0.08095313
207	0x3d8afaf9	0.067861505
208	0x3db5e963	0.088824056
209	0x3cb8c96b	0.022556981
210	0x3d26f308	0.040759116
211	0x3d2b12b3	0.04176588
212	0xbdfe84e5	-0.12427691
213	0x3d9ef7b4	0.07762089
214	0x3d6c74fd	0.057728756
215	0xbc636034	-0.013877917
216	0x3d430296	0.047609888
217	0xbe23fb3a	-0.16013804
218	0x3c667746	0.014066523
219	0xbde2c439	-0.11072583
220	0xbd47c470	-0.04877132
221	0xbb46a55e	-0.003031097
222	0xbdc50d25	-0.09621648
223	0xbd80b0f9	-0.06283755
224	0x3ce13743	0.027492171
225	0xbd06f193	-0.032945227
226	0x3d994b5d	0.074850775
227	0x3dc07e52	0.09399094
228	0xbe5820b3	-0.21106224
229	0xbe07be64	-0.13256222
230	0x3c324bdc	0.010882344
231	0x3d969ff4	0.073547274
232	0x3d45168b	0.0481172
233	0x3d900704	0.07032588
234	0x3d02f3e5	0.031970877
235	0xbda83c5a	-0.08214636
236	0x3d16c386	0.03680756
237	0xbc246c28	-0.010035552
238	0xbd34c02d	-0.044128586
239	0xbdab73ca	-0.083716944
240	0x3c8cce6c	0.017188273
241	0x3d9cc84f	0.07655393
242	0xbd37a9d3	-0.04483969
243	0x3db2cccb	0.087304674
244	0xbd638097	-0.055542555
245	0x3e026116	0.12732348
246	0xbda1e8e6	-0.0790575
247	0xbc2d74f1	-0.010586963
248	0xbddc21d1	-0.107486375
249	0xbe153c58	-0.145738
250	0x3dd6578d	0.10465918
251	0xbcd9294f	-0.026508955
252	0x3e01e930	0.1268661
253	0xbd11f507	-0.035634067
254	0xbdc03d83	-0.093867324
255	0x3d2255bf	0.039632555

conv3.0.bias f4 [12]
0	0xbd70c4b6	-0.05878135
1	0x3dec841c	0.11548635
2	0x3d0e7a0c	0.03478436
3	0x3d216939	0.03940699
4	0xbbb78917	-0.005601059
5	0x3d2779c3	0.040887605
6	0xbd92d26d	-0.07169042
7	0x3cc4fa07	0.024045004
8	0x3c3974f9	0.011319392
9	0x3d590fa4	0.05299343
10	0xba3ef553	-0.0007284481
11	0xbdd9ba48	-0.106312335

conv3.1.weight f4 [12]
0	0x3f84f200	1.0386353
1	0x3f77ea93	0.96842307
2	0x3f7a5ae0	0.97794914
3	0x3f854ea0	1.041462
4	0x3f7f8949	0.99818856
5	0x3f717fe1	0.9433575
6	0x3f78ce3d	0.97189695
7	0x3f854923	1.0412945
8	0x3f6bdd45	0.92134506
9	0x3f804b9b	1.0023073
10	0x3f8868b7	1.0656956
11	0x3f829d76	1.0204303

conv3.1.bias f4 [12]
0	0x3c5e5ff3	0.013572681
1	0xbd5e5be1	-0.05428684
2	0xbcaabf28	-0.020843104
3	0xbc743f8e	-0.014907731
4	0xb7c02351	-2.2904629e-05
5	0xbdf0aa7c	-0.11751267
6	0x3d023c78	0.03179595
7	0xbc409e0b	-0.01175643
8	0xbe019271	-0.12653519
9	0xbc9f6287	-0.019456161
10	0xbc93ccaa	-0.018041927
11	0xbd57aaae	-0.052653007

conv3.1.running_mean f4 [12]
0	0xbf119b3e	-0.56877506
1	0xbe8cf454	-0.27530158
2	0xbf37ce99	-0.7179962
3	0xbf3ff45d	-0.74982244
4	0xbe1b4e46	-0.15166578
5	0xbcbcc7da	-0.023044515
6	0xbf398e2b	-0.72482556
7	0xbf49c1db	-0.78811425
8	0x3ec29c57	0.38009903
9	0x3f34233e	0.70366275
10	0xbef3090c	-0.4746784
11	0xbf04b125	-0.518328

conv3.1.running_var f4 [12]
0	0x40b310cd	5.595801
1	0x40aa0510	5.313118
2	0x40e14561	7.039719
3	0x40c34922	6.1026773
4	0x40b80f26	5.751849
5	0x4099274f	4.7860484
6	0x4083b47a	4.115781
7	0x40d7626f	6.730766
8	0x40885f65	4.261645
9	0x40cce836	6.403346
10	0x40f66b17	7.7005725
11	0x40b46b9f	5.6381373

conv3.3.weight f4 [12, 12, 4]
0	0x3b8ff59f	0.004393294
1	0xbdfe43e5	-0.124152936
2	0xbc88cfa9	-0.016700583
3	0x3da4b9f1	0.08043278
4	0x3ca26a3e	0.01982605
5	0xbc135a79	-0.008993738
6	0x3dff250b	0.12458237
7	0x3cb285d0	0.021792322
8	0xbdc171c3	-0.094455265
9	0xbe1473b9	-0.1449727
10	0xbdc14b70	-0.09438217
11	0x3c86ca1a	0.016453791
12	0xbdc2a1f0	-0.095035434
13	0x3e2d4377	0.16920267
14	0x3d98f21f	0.07468056
15	0x3d2e6e04	0.042585388
16	0x3dc3aedf	0.095548384
17	0x3e34fd1e	0.17674682
18	0x3d48596d	0.048913408
19	0xbd8bf246	-0.06833319
20	0x3bb9b4ed	0.00566732
21	0xbccf257d	-0.02528643
22	0xbd96080d	-0.07325754
23	0xbddd1c31	-0.10796393
24	0xbd491c01	-0.049098972
25	0xbcb3dabb	-0.021954885
26	0x3ceea2ff	0.029130457
27	0xbd92bc31	-0.07164801
28	0x3d764148	0.06012085
29	0xbd88299d	-0.06648562
30	0x3c40215e	0.011726705
31	0xbd536054	-0.051605538
32	0xbceb7915	-0.02874426
33	0xbdd16747	-0.10224777
34	0x3d6ec5de	0.05829417
35	0xbd4cd74d	-0.050010014
36	0xbdd20353	-0.1025454
37	0xbc84e4b4	-0.016222335
38	0x3e1c4a6d	0.15262766
39	0xbc2fa28f	-0.010719909
40	0xbd5c19bb	-0.053735476
41	0x3e1297a3	0.14315657
42	0xbcfb4b46	-0.030675542
43	0x3c1d4b57	0.009600482
44	0x3dfe1ebe	0.12408207
45	0xbe007370	-0.12544036
46	0xbd63e901	-0.05564213
47	0xbde05556	-0.109537765
48	0x3dd57695	0.10423008
49	0x3d001a06	0.031274818
50	0xbca5999b	-0.020214846
51	0xbd463427	-0.04838958
52	0x3d22a1c9	0.03970507
53	0xbca25e95	-0.01982049
54	0xbca4e706	-0.020129692
55	0x3d823712	0.0635816
56	0x3daab290	0.08334839
57	0x3d1c9764	0.038230315
58	0xbdbea567	-0.09308892
59	0xbd69b464	-0.0570568
60	0xbd57ac82	-0.05265475
61	0xbcc83f82	-0.024444345
62	0xbdec5aef	-0.11540782
63	0xbd5be5a1	-0.053685788
64	0xbc8e10d7	-0.017342014
65	0xbdd2ce43	-0.102932476
66	0xbd9e67b7	-0.07734626
67	0x3e5e5fcf	0.21716236
68	0x3d0dde17	0.03463563
69	0x3d96f68e	0.07371245
70	0xbc8eb81c	-0.017421775
71	0x3d6703f6	0.05640026
72	0xbd0ec144	-0.03485228
73	0xbe014a74	-0.12626058
74	0xbcd94034	-0.026519872
75	0xbdf8f83f	-0.12156724
76	0x3e338aea	0.1753346
77	0xbd4bd1bb	-0.04976056
78	0xbc872096	-0.01649503
79	0x3bc8899e	0.006119921
80	0x3c96b375	0.018396119
81	0xbdccdc1b	-0.10002919
82	0x3d52bb1a	0.051447965
83	0xbe0dd481	-0.13850595
84	0xbd27c156	-0.040955864
85	0x3cfba98a	0.030720491
86	0x3de7e2b1	0.11322535
87	0x3d372ab7	0.04471847
88	0xbd926cfc	-0.07149693
89	0xbc69794d	-0.014250112
90	0xbcd0da6d	-0.025494779
91	0x3cea778c	0.028621458
92	0x3dd8bcb9	0.10582871
93	0x3b773f24	0.0037726844
94	0x3e22c725	0.1589628
95	0xbe04812b	-0.12939899
96	0xbe1b6144	-0.15173823
97	0xbd8f07fe	-0.06983946
98	0x3dcd2c08	0.10018164
99	0xbe5412ee	-0.20710346
100	0x3d8649b9	0.0655703
101	0x3d9065ec	0.0705069
102	0x3dee4e98	0.11636084
103	0x3cd2690a	0.025684852
104	0xbcc33443	-0.023828631
105	0x3cb157f5	0.021648386
106	0xbdced51c	-0.10099241
107	0xbdac2da0	-0.0840714
108	0xbd8026ef	-0.06257426
109	0xbc43a6b5	-0.0119416015
110	0x3d2a3077	0.041550126
111	0x3d0d85ed	0.03455155
112	0x3cd8853e	0.026430722
113	0x3d647aec	0.05578129
114	0xbe004717	-0.12527119
115	0xbd810351	-0.06299461
116	0x3c82910c	0.015938304
117	0x3def1606	0.116741225
118	0x3d3c788b	0.046013396
119	0xbcdf1f3c	-0.027236573
120	0xbe0ad0e1	-0.13556243
121	0x3ce7624a	0.02824511
122	0xbb85d263	-0.004083918
123	0x3b799a5f	0.0038086397
124	0x3e055df4	0.13024122
125	0xbd3a090e	-0.04541879
126	0xbe205031	-0.1565559
127	0xbdcaeb04	-0.09908107
128	0x3e219420	0.15779161
129	0x3d8ff45e	0.07029031
130	0x3e01d941	0.12680532
131	0xbd60becb	-0.054869454
132	0xbdc90df7	-0.09817117
133	0x3d4260f0	0.047455728
134	0xbe1c2730	-0.15249324
135	0xbda894e3	-0.08231523
136	0xbdd2a564	-0.10285452
137	0xbd6e0325	-0.058108468
138	0x3de0aa60	0.109699965
139	0x3e03f80f	0.12887596
140	0x3c68f249	0.0142179215
141	0xbdd7e63d	-0.10541961
142	0x3d46ecf8	0.048565835
143	0x3bd924e5	0.0066267126
144	0xbddcfdf3	-0.107906245
145	0xbdba9928	-0.091112435
146	0xbd7f5b9f	-0.062343236
147	0xbdaa0740	-0.08302164
148	0x3d9498cb	0.072557054
149	0xbe078f2e	-0.13238212
150	0x3dcaad48	0.09896332
151	0x3d963345	0.07333998
152	0xbd6fb196	-0.05851897
153	0x3ded7662	0.11594845
154	0x3da45424	0.08023861
155	0x3b9a1b33	0.0047029494
156	0xbcc75d83	-0.024336582
157	0x3d89a9c2	0.06721832
158	0x3dbea41b	0.093086444
159	0xbdac019f	-0.08398747
160	0x3d90d161	0.07071186
161	0xbe0cb563	-0.13741069
162	0x3dc424a2	0.095773
163	0x3c9c8a26	0.019108843
164	0xbde4333f	-0.11142587
165	0x3dc4ba2b	0.09605821
166	0x3daecf24	0.08535603
167	0xbd01d4d3	-0.031697106
168	0x3be8e787	0.0071076783
169	0x3e049e81	0.1295109
170	0x3d17ef77	0.037093606
171	0xbdd86b44	-0.10567334
172	0x3e03d350	0.12873578
173	0x3d2a0535	0.041508872
174	0xbdac8545	-0.08423857
175	0x3da79800	0.081832886
176	0x3e0d502c	0.13800114
177	0xbc9b8b28	-0.018987253
178	0x3c1d7596	0.009610554
179	0x3e059dc7	0.13048469
180	0x3c849d22	0.016188208
181	0xbd1555bb	-0.036458712
182	0xbcf5760a	-0.029963512
183	0xbd321f27	-0.04348674
184	0xbd8ccc3f	-0.06874894
185	0x3d46770f	0.048453387
186	0x3dd2cc0d	0.10292826
187	0x3e0c46a1	0.13698818
188	0xbdf1f9e7	-0.11815243
189	0xbda61dba	-0.08111139
190	0x3d419e8c	0.047270343
191	0xbe188713	-0.14895277
192	0x3df15b1c	0.11784956
193	0xbd5782a0	-0.052614808
194	0x3c902a94	0.017598428
195	0x3dd64638	0.10462612
196	0x3dd3be69	0.10339052
197	0xbc1449fa	-0.0090508405
198	0x3dccebb0	0.10005891
199	0x3d84b741	0.064802654
200	0x3c8962b4	0.016770698
201	0x3d858454	0.0651938
202	0x3df288db	0.11842509
203	0xbd136d5b	-0.03599296
204	0xbd535994	-0.0515991
205	0x3dea2d53	0.11434426
206	0xbd8295ac	-0.06376204
207	0xbdf17bb2	-0.11791171
208	0x3df44529	0.11927254
209	0xbe10db88	-0.14146245
210	0xbda05b30	-0.07829893
211	0x3d810d61	0.0630138
212	0xbde64f0c	-0.11245546
213	0xbda51d72	-0.08062257
214	0x3d170b11	0.036875788
215	0xbd623174	-0.055222943
216	0xbd83e2a2	-0.06439711
217	0x3d8ae30b	0.06781586
218	0x3cc78e4a	0.02435984
219	0xbd511e84	-0.051054493
220	0x3c41ac59	0.011820876
221	0xbcea52ab	-0.028603872
222	0x3d4c104e	0.049820237
223	0x3d9e595a	0.07731886
224	0x3be99edc	0.007129533
225	0xbdd272cb	-0.10275801
226	0x3d5e5454	0.05427964
227	0xbcf74173	-0.030182576
228	0x3de20c74	0.110375315
229	0x3d1eef6c	0.03880255
230	0x3dbd247d	0.09235475
231	0xbd427cca	-0.04748229
232	0xbd3dd6a7	-0.046347287
233	0x3cb79346	0.022409093
234	0xbd72baff	-0.059260365
235	0xbd020efe	-0.03175258
236	0x3e017161	0.12640907
237	0x3e166125	0.14685495
238	0xbd7c8bc1	-0.061656717
239	0xbdcc401e	-0.09973167
240	0xbd85cf44	-0.065336734
241	0xbc052e42	-0.0081287045
242	0x3dae5858	0.08512944
243	0xbdf19c2f	-0.11797368
244	0x3e216dbe	0.1576452
245	0xbe09194e	-0.13388559
246	0x3d40fcde	0.047116153
247	0xbde438b5	-0.111436285
248	0x3c602a13	0.013681906
249	0x3de2cba3	0.11073997
250	0xbce0842b	-0.027406773
251	0xbd069d2d	-0.03286474
252	0x3db71e04	0.08941272
253	0x3bb245a3	0.0054404303
254	0x3d5daa50	0.0541175
255	0xbd679bf0	-0.056545198

conv3.3.bias f4 [12]
0	0xbdfee3a5	-0.124457635
1	0x3dbd31f1	0.09238041
2	0x3df7285a	0.12068243
3	0x3c1a1df3	0.0094065545
4	0x3dfd3769	0.12364084
5	0xbddaa1dc	-0.106754035
6	0x3db0e918	0.08638209
7	0xbd00497d	-0.031320084
8	0x3bf048ea	0.007332911
9	0xbd0e72da	-0.0347775
10	0x3d7dce6d	0.06196444
11	0xbcebf77d	-0.028804535

conv3.4.weight f4 [12]
0	0x3f91b368	1.1382875
1	0x3f8aa44c	1.083139
2	0x3f87daed	1.0613686
3	0x3f8c11a3	1.0942882
4	0x3f8809b5	1.0627962
5	0x3f875236	1.0571964
6	0x3f85f42c	1.046514
7	0x3f87ed89	1.0619365
8	0x3f8dc1b5	1.107474
9	0x3f8aa868	1.0832644
10	0x3f8b9b81	1.0906831
11	0x3f8d2bc1	1.1028978

conv3.4.bias f4 [12]
0	0x3c08448d	0.008317125
1	0x3c057a85	0.008146887
2	0xbc1629ea	-0.0091652665
3	0xbc20191c	-0.009771612
4	0x3c04237c	0.008065101
5	0xbc23f2a1	-0.010006578
6	0xbc137468	-0.008999921
7	0x3b9dc6cc	0.004814958
8	0x3c0990cc	0.008396339
9	0xbc1815dc	-0.009282555
10	0x3c08b65e	0.008344261
11	0xbc1f3ab7	-0.009718589

conv3.4.running_mean f4 [12]
0	0xbe5a9672	-0.21346453
1	0x3caf82b7	0.021424634
2	0xbdb4e3b2	-0.08832492
3	0x3defd9ff	0.11711501
4	0x3eabdc4c	0.3356651
5	0xbcbb6521	-0.02287537
6	0xbd6705fa	-0.056402184
7	0xbddd8e70	-0.108181834
8	0x3d63651c	0.055516347
9	0x3d329bc4	0.04360558
10	0x3e41f9f1	0.18943001
11	0xbde48aa2	-0.111592546

conv3.4.running_var f4 [12]
0	0x3d4d83d9	0.050174568
1	0x3d8f8291	0.070073254
2	0x3db4654e	0.08808385
3	0x3d8da769	0.069166966
4	0x3d9dd88a	0.07707317
5	0x3d63e91a	0.055642225
6	0x3deb4f9d	0.114897944
7	0x3db18b3a	0.086691335
8	0x3d54a41b	0.051914316
9	0x3d6424cc	0.055699155
10	0x3d6aa320	0.057284474
11	0x3d0e37e9	0.03472129
