model/AutoY/IAAcheckpoint1.pt (torch, 34275 bytes, 51 tensors)

conv1.0.weight f4 [12, 15, 2]
000000 bf e8 aa 3d af 2a 85 3c b0 4d 15 be 44 8d d2 3d
       0.08345174 0.016255705 -0.14580417 0.102808505
000010 70 c6 87 bd e4 df 1c 3e 3a ee 4f 3d c6 2b 96 3d
       -0.06629646 0.15319782 0.0507643 0.07332568
000020 cb f3 14 3e d6 27 72 3d 22 9e 03 3e 2a 4c 61 3b
       0.14546125 0.05912002 0.12853292 0.0034377673
000030 bc 50 55 3e 06 44 f9 3d b4 74 13 be e3 30 92 3d
       0.20831579 0.121711776 -0.14399987 0.07138231
000040 a1 01 8c 3c 10 38 5a bd 4e 91 3a 3d 25 7e 30 3e
       0.01709062 -0.05327612 0.04554873 0.1723562
000050 cf b4 46 3d 04 d6 1b be 3e 82 da 3d a5 47 8f 3e
       0.048512276 -0.15218359 0.10669373 0.27984348
000060 bd 6b 64 3d 85 bc 79 3c 42 b1 08 bd 0f cf 9a bd
       0.05576681 0.0152427 -0.03337217 -0.075590245
000070 e0 8f bb 3c 54 2b 53 3d 89 f5 3e bd e8 b6 28 be
       0.022895753 0.051554993 -0.04662088 -0.16476023
000080 71 30 68 3c 8c db 16 3d 4d 19 27 3c 83 90 fe bd
       0.014171706 0.03683047 0.010198903 -0.12429907
000090 ec 8f 58 be 9e 1f a7 3d ff 58 92 3d 8d 5d f9 bd
       -0.21148652 0.081603274 0.07145881 -0.121760465
0000a0 cf c4 b3 bc 2b 3e 37 3d 88 5c 40 bd 87 48 16 be
       -0.021944432 0.044737022 -0.046963245 -0.14676104
0000b0 9c d8 37 bd 66 d8 bb 3d c8 bf 91 3c cc 37 0b bd
       -0.04488431 0.09172134 0.017791644 -0.03398876
0000c0 88 04 e8 bd bc d8 3c 3e 9a b3 ac bd ad b3 56 bd
       -0.11328989 0.18442053 -0.08432694 -0.052417446
0000d0 32 a9 d6 3d 21 45 0a be 3a 8e ef 3d bc 0a eb 3d
       0.1048149 -0.13502933 0.116970494 0.11476657
0000e0 e0 b0 ee 3c 7c f6 f5 bd 38 90 52 bd 08 03 17 3c
       0.029137075 -0.12009904 -0.05140707 0.009217031
0000f0 49 60 50 3e 63 17 27 be 8a e1 53 bb 9a c8 93 bd
       0.2034923 -0.16317515 -0.0032330477 -0.07215996
000100 ac 07 ea bd 31 3a 5d 3d 34 50 1b bd c9 50 14 3e
       -0.114272445 0.054010574 -0.037918285 0.14483942
000110 72 fb dd 3c 4b b0 04 be 80 37 98 bd d6 11 ac bd
       0.027097438 -0.12957875 -0.07432461 -0.084018394
000120 73 f1 2d be 46 da 90 bc 3b 76 8e bd da e9 0c be
       -0.16986637 -0.017682206 -0.069561444 -0.13761082
000130 07 9d b8 bd ab 14 fe bd db 6b ba bc 87 4a 48 be
       -0.090143256 -0.12406286 -0.022756508 -0.1955968
000140 2e 26 5d bd e2 cb 8d 3d 75 bd 9c 3d a2 cc 3b 3b
       -0.05399149 0.06923653 0.076533236 0.0028655906
000150 6f 76 cd bd b6 90 1c 3c 0f 5b ed 3d 92 fc 0e 3e
       -0.10032355 0.009555986 0.11589634 0.13963535
000160 8b 79 17 3d 58 62 0e 3e b3 8d 36 be f8 8c e1 3b
       0.036981147 0.13904703 -0.17827491 0.00688326
000170 a3 86 9f 3d 2b 30 e3 3d 63 80 be bd e3 91 ce 3d
       0.07789352 0.11093172 -0.093018316 0.100864194
000180 94 5a c6 3d 4c 38 8c bd 67 9f 06 3e c6 c6 98 3d
       0.09685245 -0.06846675 0.13146745 0.07459788
000190 f5 c6 12 3e 2d c7 77 bd 65 b6 12 bd fa 7c b3 bd
       0.14333709 -0.060492683 -0.035818476 -0.08764072
0001a0 b9 56 b4 3d c7 83 04 bd d8 8b 34 be 00 db 79 bd
       0.088056035 -0.032352235 -0.17631471 -0.06099987
0001b0 06 49 65 3b f7 f8 3c 3e 50 8a 25 be 9c d3 3f bc
       0.0034986152 0.18454348 -0.16166043 -0.011708166
0001c0 7a bb b4 bd fa 1b 4f 3d 8d 32 ae bd 0b f8 3c 3e
       -0.08824821 0.05056379 -0.085057355 0.18453996
0001d0 23 df cf 3c 61 de 6c bd ba 82 58 3d 3a a1 9e 3d
       0.025374955 -0.057829265 0.052859046 0.07745595
0001e0 0b 17 e0 bd 36 f3 99 3d ee ed ff 3d 2b 3a 2f bc
       -0.10941895 0.07517092 0.12496553 -0.010695021
0001f0 51 58 86 3c b9 80 bf bb 7b 7d cc bd d5 0f 8a 3d
       0.016399534 -0.0058442024 -0.09984871 0.06741301
000200 4b 86 80 bc aa 8a 2d bd 14 69 c8 3d 92 f5 1a bd
       -0.015689036 -0.04236857 0.09785667 -0.03783185
000210 cb 32 e6 bd 20 58 0d bd da 5d c2 bd 21 11 b1 3c
       -0.11240157 -0.03450787 -0.09490557 0.021614613
000220 82 ee 99 3c 23 0f 62 3d 0a 93 11 be 42 55 a8 3d
       0.018790487 0.055190217 -0.14216247 0.08219387
000230 08 3a c5 bc 03 b0 38 bd a4 04 1b 3e f2 d3 40 be
       -0.024075523 -0.045089733 0.15138489 -0.1883085
000240 bb 93 43 3d e4 af 4c 3e fe 97 20 3c c7 12 cf bd
       0.04774831 0.19988972 0.009801863 -0.10111003
000250 c2 0b ce bd f6 61 1e 3e 8b 11 2a bc 0c f1 fd bd
       -0.100608364 0.15467057 -0.010380159 -0.12399492
000260 00 a1 9b bd 43 58 59 3d 30 87 a8 3c 3a 8b 54 3e
       -0.07599068 0.05306269 0.020572275 0.20756236
000270 f1 ee e5 bd c9 11 1b 3e 1f 9f b2 bd 10 b0 14 bc
       -0.11227215 0.15143503 -0.08721756 -0.00907518
000280 f1 0a bb 3d a6 a5 39 bd 02 5d dc 3d e3 09 f5 bd
       0.09132946 -0.04532399 0.10759927 -0.11964776
000290 ca b1 52 bd 9b 4f 95 3b 7a 89 88 3d a7 50 50 3c
       -0.051439084 0.004556609 0.066668466 0.0127145415
0002a0 e9 f6 b0 3d db d7 32 be 11 7a 09 3e 0c 58 d0 3d
       0.086408444 -0.17465155 0.13425471 0.101730436
0002b0 26 d0 d3 3d 10 9d 12 be a4 16 0d 3d 8e a0 8a 3d
       0.103424355 -0.14317727 0.03444542 0.067689046
0002c0 55 14 8f bd 7c f8 68 3d 29 82 66 3d 80 d3 19 bd
       -0.069863 0.0568776 0.056276474 -0.037555218
0002d0 98 6c 9b bd c9 82 6e 3c aa 81 b7 bd 78 d0 98 3d
       -0.07589072 0.014557549 -0.08960278 0.07461637
0002e0 4d 01 ad bb 3c f2 19 be b9 30 fa 3c e0 f2 51 3d
       -0.005279696 -0.15033811 0.03054081 0.051257014
0002f0 38 d5 2b bd e0 4c 20 3d b5 29 82 bd 69 f9 e9 bd
       -0.041951388 0.039135814 -0.06355611 -0.11424524
000300 e4 e0 ff ba aa 85 b2 3d ce 1a d8 bd 66 32 d7 bc
       -0.0019521979 0.08716901 -0.105519876 -0.026269149
000310 44 73 4b 3e ac 22 00 3e 73 0d cb 3d 92 d7 5e bd
       0.19868189 0.12513226 0.099146746 -0.054404803
000320 62 86 9a bd 6c 72 b7 bd b2 99 6c bb ef 8b 4f bc
       -0.07545163 -0.08957371 -0.0036102352 -0.01266764
000330 60 42 34 be fb a9 cc 3d 77 55 f4 bd de 04 91 3d
       -0.17603445 0.09993359 -0.119303636 0.070810065
000340 24 8e 90 bd 26 86 2b bd 30 73 67 bc 33 74 07 be
       -0.07058361 -0.04187598 -0.014126584 -0.1322792
000350 0d 39 d7 bd 8a 04 ad 3d 47 ce 07 be 76 bd 1d be
       -0.105089284 0.084481314 -0.13262282 -0.15404305
000360 a7 9c c6 3d fc 89 1d 3d aa fd ca 3d 98 f8 4a 3e
       0.09697848 0.03846167 0.09911664 0.19821393
000370 86 3d ae 3d c9 40 ee 3d e2 a6 a4 bd c8 6c 09 be
       0.085078284 0.116334505 -0.08039643 -0.13420403
000380 3f 9f 67 3d 83 61 b3 3d 09 95 04 3e 9a 48 cf 3d
       0.056548353 0.08758833 0.12947477 0.101212695
000390 80 0d 33 be 10 eb f8 3d 62 cc 87 bd 47 65 d3 3c
       -0.17485619 0.121542096 -0.0663078 0.025805129
0003a0 a8 97 08 be d3 d9 d2 3d 0d c3 8d bc 49 01 2a 3d
       -0.13339102 0.10295453 -0.017304922 0.041505132
0003b0 84 52 a8 3c 3c 72 48 3e 26 6b 1a 3e a4 9c 81 bd
       0.020547159 0.19574827 0.15079936 -0.06328705
0003c0 e3 af eb 3d 5b 26 fa bc 98 fc fd bd 4d 65 7f 3c
       0.11508157 -0.030535867 -0.12401694 0.015588117
0003d0 6c 16 45 3e ff 7f 4e bd 8a b6 35 bd 31 85 bf bc
       0.19246835 -0.050415035 -0.044363536 -0.02337894
0003e0 ff 0d ad bd 7d a2 0e be 19 14 19 be e0 9a 22 3e
       -0.08449935 -0.13929172 -0.14949073 0.15879393
0003f0 20 92 88 3d 7d 20 11 3e 6d 35 15 be a7 63 ce bd
       0.06668496 0.1417255 -0.14571162 -0.10077601

conv1.0.bias f4 [12]
000000 81 ad b7 39 b5 14 98 bd cd bd e8 3d a9 18 57 bd
       0.0003503375 -0.074258246 0.113643266 -0.052513752
000010 f2 17 8f bd fb 0b 03 3e 85 b1 dc 3d ca 78 fe 3d
       -0.06986989 0.12797539 0.10776047 0.124253824
000020 98 02 08 be 4f 88 2a 3e f6 29 a1 3d 88 a5 44 3b
       -0.1328224 0.1665356 0.078693315 0.003000589

conv1.1.weight f4 [12]
000000 d9 d2 7d 3f ce 28 7f 3f 19 54 79 3f fd 3a 80 3f
       0.99149853 0.9967164 0.9739395 1.0018002
000010 02 95 6e 3f 33 69 83 3f 5e ad 83 3f 63 32 81 3f
       0.9319612 1.0266479 1.0287282 1.0093502
000020 79 d9 79 3f 6c 85 80 3f ae b9 86 3f 94 50 83 3f
       0.9759746 1.0040717 1.0525415 1.0258965

conv1.1.bias f4 [12]
000000 d5 92 37 bd 3f ef 3c bc d6 60 96 bc 52 a7 85 3c
       -0.044817764 -0.01153165 -0.018356722 0.016315136
000010 89 1e ae bd 63 1b c2 3c cd 9f a2 3b 69 0e 52 bc
       -0.08501918 0.0236947 0.0049628974 -0.012820818
000020 6f d5 2f bd ce d5 46 bd a0 fc 6d 3d b0 7f 00 3d
       -0.042928156 -0.048543744 0.05810225 0.031371772

conv1.1.running_mean f4 [12]
000000 f1 24 15 3e 11 44 fa be 7c 59 33 bd 55 e5 2b be
       0.14564873 -0.48880056 -0.04378651 -0.16786702
000010 23 c2 9b 3e e8 c9 90 3e c4 39 bc bd 7f e2 10 bf
       0.30421552 0.28279042 -0.091907054 -0.56595606
000020 dd af 41 3d 94 31 3b be ac c3 dd be 92 9a 5e bf
       0.047286857 -0.18280631 -0.43313348 -0.86954606

conv1.1.running_var f4 [12]
000000 8a d7 a4 40 bb 71 d1 40 ad 66 e7 40 82 0d bc 40
       5.151311 6.545133 7.2312837 5.876649
000010 5a 94 30 40 f2 72 84 40 51 36 17 40 a6 cf c2 40
       2.7590547 4.1390314 2.3626902 6.0878477
000020 1a d8 b7 40 18 0c 98 40 06 8c c6 40 2e f6 df 40
       5.7451296 4.7514763 6.2045927 6.998801

conv1.3.weight f4 [12, 12, 2]
000000 fd 5a b9 bd 4c 8c 94 3d 81 89 10 3e bc 72 16 3e
       -0.09050558 0.07253322 0.14114954 0.14692205
000010 a6 5d 10 3e 37 f9 d4 3d 2d fe 2a bd a3 78 66 bb
       0.14098224 0.103990965 -0.041746307 -0.003516712
000020 c8 c2 a6 3d 23 16 09 be c4 5f 1f 3e 23 d1 28 bd
       0.0814262 -0.1338735 0.15563875 -0.041215073
000030 a2 ff 28 3c b8 7c 41 3d ca 5f 07 bd 1b 83 89 3d
       0.010314854 0.04723808 -0.033050336 0.067144595
000040 6d 1d b8 bb 65 5f 04 be 87 6b d7 bd 44 8b 13 3e
       -0.005618742 -0.12927015 -0.10518556 0.14408594
000050 56 e4 74 3d ac ed af 3d 05 86 46 bd 7a 92 ce 3d
       0.05978807 0.08590254 -0.048467655 0.10086532
000060 a9 11 0e be 00 c2 1f 3e 38 ce 68 bd b8 90 18 3d
       -0.13873924 0.15601349 -0.05683729 0.03724739
000070 ce 42 b9 3d 7d 6d e2 3d a4 4e c5 3c c8 1e 0f 3e
       0.09045945 0.110560395 0.02408535 0.13976586
000080 54 21 71 bc b8 91 11 3e 33 e4 44 3e 41 9e c1 bc
       -0.014717419 0.14215744 0.19227676 -0.023635032
000090 97 a4 17 3c 96 1a 20 be 06 c0 2f 3c 33 c3 40 be
       0.00925555 -0.15635142 0.010726934 -0.18824463
0000a0 0e 61 f6 bd 36 9d 3f bd 4f 28 cd 3d cd f1 8d bc
       -0.120302305 -0.046780787 0.10017454 -0.017327214
0000b0 70 c8 fc 3d 3a 7e 92 3d 08 59 00 3e 14 7c 28 be
       0.12342918 0.07152982 0.12533963 -0.16453582
0000c0 b1 2e 40 3d ca f9 74 bc 5a d0 2d 3d 54 b6 29 3d
       0.04691953 -0.0149521325 0.042435028 0.041433647
0000d0 c3 b7 b9 bd 65 e0 23 ba d9 78 57 3c 4e c1 3c 3d
       -0.09068253 -0.0006251394 0.013151371 0.046082787
0000e0 6c 54 b0 3d 20 82 d4 bd 39 58 a3 3d bd 4d 23 be
       0.08609852 -0.10376382 0.079758115 -0.15947624
0000f0 63 04 44 be 25 44 dd 3d 3b 86 ed 3c ad 2c e7 3d
       -0.19142298 0.10804013 0.02899467 0.11287818
000100 d7 3f 01 be 41 61 8b bd 2d 51 41 be 74 ba 06 3e
       -0.12622009 -0.06805659 -0.18878622 0.13157064
000110 02 c8 34 3d 13 d3 e6 bd c4 d0 7a 3c d3 a8 d4 3d
       0.044136055 -0.11270728 0.015308563 0.10383763
000120 ce fd 6a 3d ec 66 43 3e f2 85 b4 bd 05 12 23 be
       0.057370953 0.1908223 -0.088146105 -0.15924843
000130 db 68 43 bc 45 34 03 3d 64 a6 43 3e 79 0c fe bd
       -0.011926855 0.03203227 0.19106442 -0.12404723
000140 a2 c7 e3 bc 95 21 93 3c 33 ac 76 bd bc 30 55 bb
       -0.027805153 0.01796035 -0.060222816 -0.0032530269
000150 16 07 da 3b 58 42 33 3e 13 9c 0a 3e 1d 96 0b 3d
       0.0066536767 0.17505777 0.135361 0.034078706
000160 45 83 3d be f5 ac f0 bd 8c 07 8f 3d 14 b4 fa 3d
       -0.18507107 -0.11751739 0.06983861 0.122413784
000170 f2 60 38 be 3d 7f a3 3d 51 20 33 be d0 88 23 3d
       -0.18005732 0.07983253 -0.17492796 0.039925396
000180 b4 5e 18 3e 5e d5 10 be 46 07 33 3e 41 61 e4 3c
       0.14879876 -0.14143893 0.17483243 0.027878406
000190 3c 61 1b be 10 58 34 be 0a 8b b9 bd 0e 64 b9 3d
       -0.1517381 -0.17611718 -0.09059723 0.09052287
0001a0 fc 35 04 3e bc 3d 98 3d 49 90 81 3b 44 f7 84 3c
       0.12911218 0.0743365 0.0039539677 0.016231187
0001b0 9e 5e 43 3e d7 3a 29 be 67 6e b3 bd f3 d6 8d 3c
       0.19079062 -0.16526352 -0.08761292 0.01731441
0001c0 87 73 88 bd cd cc 94 3d c5 9c 38 be c2 41 20 3d
       -0.0666266 0.07265625 -0.18028553 0.03912521
0001d0 59 d6 2b 3e e9 b2 3f 3e 76 3d 96 3d ed 2e 11 3e
       0.16780986 0.18720593 0.073359415 0.14178057
0001e0 11 12 ed 3d 37 45 da bd cb 50 03 3e 6e 17 0e be
       0.115757115 -0.10657733 0.12823789 -0.13876125
0001f0 e6 aa 22 be d8 ca 0b bd e1 32 03 3e f4 07 a1 bb
       -0.15885505 -0.034128994 0.12812378 -0.004914278
000200 08 d7 8c bd 5a fe e3 3c a5 5a 1e 3e 3c ef a9 bc
       -0.068769515 0.027831245 0.15464266 -0.020743959
000210 5d af 24 3e 86 73 94 bd 6d f7 30 3c eb ce 89 3d
       0.16082521 -0.07248597 0.010801178 0.067289196
000220 9a 47 0b 3e dc dc da bd 67 a2 9a bd 93 f0 d1 bd
       0.13601533 -0.10686657 -0.07550507 -0.10250964
000230 cd da c5 3d 66 e1 2d be fb 53 c6 3d c6 7d ad bd
       0.096608736 -0.16980514 0.09683987 -0.08471255
000240 ed eb 4b 3e fe ed 3d 3b 40 6a 0a be fd 28 24 be
       0.19914217 0.0028980966 -0.13517094 -0.16031261
000250 41 72 52 3d 76 97 81 3d 8a b0 04 bd 52 ea 24 be
       0.051378492 0.06327717 -0.032394923 -0.16105011
000260 5c 67 81 3d a3 af 2f 3e 7a c5 ec bc 16 18 54 bd
       0.06318542 0.17156844 -0.028902758 -0.051780783
000270 85 99 0f 3e ca b1 0a 3e 81 b1 34 be 0f 79 b6 3d
       0.14023407 0.13544384 -0.17645837 0.08909809
000280 4a db 3e 3e 15 d8 0c be e4 fe c0 bd 44 87 14 be
       0.1863834 -0.13754304 -0.094236165 -0.14504725
000290 e2 49 7f bc c8 31 65 3d bb 66 37 3d f8 b2 64 be
       -0.01558158 0.05595568 0.044775706 -0.22333896
0002a0 46 9c 9f 3d 17 95 be bd 0b 4c 0f 3c 0f b2 8b 3d
       0.07793479 -0.093057804 0.008746157 0.06821071
0002b0 05 60 4a be 9d 50 18 3e d2 dd 29 bd bd ff 0f 3e
       -0.19763191 0.14874502 -0.04147131 0.140624
0002c0 e2 b5 d3 3d c5 da d7 bd 68 f5 36 be 31 99 2f 3d
       0.10337426 -0.10539774 -0.17867053 0.042870704
0002d0 b8 f4 99 3d 5d 45 a7 3d ee 3a 37 be 59 83 5d 3e
       0.075173795 0.08167527 -0.17893574 0.21632136
0002e0 60 51 d1 3d db 52 84 3d fd db 6d bd a2 5c c7 bd
       0.10220599 0.06461116 -0.058071125 -0.09734465
0002f0 b1 9a 26 be 2c 8a 3c 3d 03 c4 db 3d 84 f0 30 bd
       -0.16269948 0.04603021 0.10730746 -0.043198124
000300 ed 17 31 3d e3 a7 30 3b 1a e4 ac bd 6f 53 c4 bb
       0.043235708 0.0026955537 -0.084419444 -0.0059913914
000310 be f1 30 3e d0 a4 91 3d 80 50 35 3d 62 fc 2f be
       0.17279717 0.071115136 0.044266224 -0.1718612
000320 4f 5f b7 3c 68 e0 68 bc c2 cf 58 3e 8d 94 ff bd
       0.022384314 -0.014213659 0.21173003 -0.12479506
000330 79 aa 96 bd 8f 78 26 be db 59 a0 3b e5 cc 92 3d
       -0.07356734 -0.16256927 0.004893524 0.07167987
000340 2b a9 9f 3d ed d9 98 3d 4f 11 05 3e 28 d4 de bd
       0.07795938 0.07463441 0.12994884 -0.10880309
000350 78 a8 0f be a6 24 0d 3e f3 2a d1 3d 6c 10 67 bd
       -0.1402911 0.13783512 0.1021327 -0.056412145
000360 5f 87 1a 3e 20 e6 b9 3d 11 9f 11 3e 74 4a 2b be
       0.15090702 0.09077096 0.14220835 -0.1672762
000370 8d 8e 1c 3e e8 49 2c be f0 0f 64 3b af e7 e3 3b
       0.15288754 -0.16825068 0.0034799539 0.006955109
000380 08 84 0d be 26 ad a1 3d 8f e1 0d 3d 1f 22 23 be
       -0.13819897 0.078943536 0.034638938 -0.15930985
000390 12 21 a1 bd 56 59 23 3e e9 84 27 be 5f f9 22 3d
       -0.07867636 0.15952048 -0.16359295 0.0397886
0003a0 35 2f f5 bd 38 d4 91 bd 61 5f a0 bd 11 e9 e2 bd
       -0.11971895 -0.07120556 -0.07830692 -0.1107961
0003b0 54 ee 20 3d f4 fa b7 bd 57 8a b2 bd a1 df d8 3d
       0.039289787 -0.089834124 -0.087177925 0.10589529
0003c0 8d e3 c1 bb d4 fe b6 bd 38 42 1f bc a6 23 c9 bd
       -0.0059170187 -0.08935323 -0.009720378 -0.098212525
0003d0 9a 1a 03 3e 5c c9 84 bc 54 75 81 bd c4 81 9f bd
       0.12803116 -0.016209297 -0.06321207 -0.07788423
0003e0 02 8a 3f bc b8 b4 4a 3d 0d 28 3f 3e 30 2f 87 bd
       -0.0116906185 0.049488753 0.18667622 -0.06600797
0003f0 17 f3 3c bd 92 02 ce bd fc cd be bd 21 87 6d 3e
       -0.046130266 -0.10059084 -0.09316632 0.23196079

conv1.3.bias f4 [12]
000000 10 e8 e0 bd c6 f0 b6 3d dc 91 4c 3e dc 2a e7 3b
       -0.109817624 0.08932643 0.19977516 0.00705467
000010 8c 32 ae bd 2f ae e1 bb 0a 4d 7b 3c 06 f4 b2 bd
       -0.08505735 -0.0068872194 0.015338192 -0.0873795
000020 94 af 37 3e a0 ea 32 be ec e5 c2 3d 6d e5 e8 bd
       0.17938071 -0.17472315 0.0951651 -0.113718845

conv1.4.weight f4 [12]
000000 eb af 80 3f 73 a4 81 3f 7e 2f 80 3f 91 6a 82 3f
       1.0053686 1.0128311 1.0014493 1.0188771
000010 07 92 81 3f d7 7a 7f 3f 3d 17 80 3f 00 52 80 3f
       1.0122689 0.99796814 1.0007092 1.0025024
000020 2c 43 81 3f 0b 9a 81 3f 87 d0 81 3f fa f3 82 3f
       1.0098624 1.0125135 1.0141762 1.0230706

conv1.4.bias f4 [12]
000000 c8 3f 0d 3c 81 ac 0e 3c aa c7 1f bc b2 f4 09 3c
       0.008621164 0.00870812 -0.0097521935 0.008420156
000010 94 ed 19 bc 16 df 19 bc 76 fe 18 bc 04 33 1a bc
       -0.009395022 -0.009391567 -0.009338012 -0.009411577
000020 c8 35 39 bc 89 db 0a 3c 64 1c 08 3c 44 6e 0f 3c
       -0.011304326 0.008475193 0.00830755 0.008754317

conv1.4.running_mean f4 [12]
000000 7f 42 1c 3e af 5a 38 3e 9e dc 2d 3e 97 3c a4 bc
       0.15259741 0.18003343 0.1697869 -0.020048423
000010 d9 22 07 3e 2f 38 13 3c 22 30 18 bd da 10 3e bd
       0.13196887 0.008985563 -0.037155278 -0.04640279
000020 c1 6e 89 3e 83 c9 a1 be ac 38 bb 3d df bd 1d be
       0.2684231 -0.31599054 0.09141669 -0.15404461

conv1.4.running_var f4 [12]
000000 aa 9f a6 3d 67 1a d1 3d 04 07 5b 3d 0c aa 92 3d
       0.08135922 0.10210114 0.053473487 0.0716134
000010 97 b5 b5 3d 3d b7 cf 3d e8 0f e2 3d 8d 79 d2 3d
       0.08872526 0.10142372 0.1103819 0.1027709
000020 1e 9f 56 3d bf 0c 90 3d df cc 5f 3d 97 07 32 3d
       0.05239784 0.07033681 0.05463874 0.04346427

conv2.0.weight f4 [12, 15, 3]
000000 1d 7a fe bb f9 c2 5a bd 82 06 00 3d b9 49 bc 3d
       -0.007766022 -0.053408597 0.031256206 0.09193749
000010 a4 71 a6 bb b5 61 06 3e 99 2d ed bd 4e e7 1a bd
       -0.005079465 0.1312321 -0.11580963 -0.037818246
000020 04 c0 62 3d 75 6f ca bd e7 59 36 3d 72 e2 99 3d
       0.0553589 -0.0988454 0.04451933 0.07513894
000030 9c 2e 16 3e a0 ef 4c bd d6 10 c3 3c ad 9e 2d 3d
       0.14666218 -0.05003321 0.023811739 0.042387653
000040 bd 6e 89 bd d1 6b c9 bb 30 7b 29 be 87 8b af bc
       -0.06710575 -0.006146886 -0.16550899 -0.021428837
000050 35 26 09 be 1f 65 0c 3e 89 7d 00 bd a8 ba 71 3d
       -0.13393481 0.1371045 -0.03136972 0.0590159
000060 17 6b b3 bd 98 01 99 3d 98 3e 28 3e 1d 46 b0 bd
       -0.0876066 0.07471007 0.16430128 -0.08607123
000070 f9 a9 48 3e 69 cb 0e 3e 58 08 d9 3d 44 80 08 be
       0.1959609 0.13944782 0.105972946 -0.1333018
000080 0d d6 47 3d 76 1a 77 3d 46 da 2b 3d 3c fd 20 3e
       0.04878812 0.06032797 0.04195621 0.15721601
000090 eb 36 6d 3e 0d a9 9b bd 73 e4 4e bd 01 e9 36 bc
       0.23165481 -0.07600603 -0.050510835 -0.011163951
0000a0 e0 f4 93 bd 47 3f f2 bd c2 cb 3c bd 59 e0 1a bd
       -0.072244406 -0.118284754 -0.046092756 -0.03781161
0000b0 bc a5 57 3c 80 b7 f9 bc 9b 8c 54 3d 3b c0 59 3c
       0.013162073 -0.030483007 0.051891904 0.01329046
0000c0 9a 2f 53 bd e0 52 03 3c 23 5e c7 3d cb 25 fc bc
       -0.05155907 0.008015364 0.09734752 -0.03077974
0000d0 1a e9 1c 3e 8d 54 84 bd f8 65 05 be 6e df 01 3e
       0.15323296 -0.06461439 -0.13027179 0.12682888
0000e0 1a 6e 1b bd 39 3b 14 3d 0b 9e 38 bc bc 18 1e 3e
       -0.037946798 0.03618929 -0.011268149 0.15439123
0000f0 07 76 79 3c 3a 9f 7f bd f9 45 d4 3d 63 83 1b 3a
       0.015225894 -0.06240771 0.10364909 0.0005932359
000100 63 62 a8 3c e4 14 d7 bd 9a d6 7a 3d f4 8d ee bb
       0.020554727 -0.105020314 0.061239816 -0.0072801057
000110 2e f6 5b 3d a7 e8 44 bd 7e 12 22 3d c2 ea bc 3c
       0.053701572 -0.048073437 0.039568417 0.02306116
000120 ac 5d 03 3e 43 ea af bd 70 2b 02 be 5a 6d 6c 3d
       0.12828702 -0.08589604 -0.12711883 0.057721473
000130 d4 34 50 be 30 18 be 3d 22 7e 12 bc de f9 99 3d
       -0.20332652 0.09281957 -0.008941205 0.075183615
000140 29 3f 05 be c7 54 63 bd ce 84 43 3d a3 58 ec bd
       -0.13012375 -0.05550077 0.047734074 -0.115403436
000150 6f 50 22 3e 03 00 fa bd cd c3 82 bd 2e e4 f2 3b
       0.15850995 -0.122070335 -0.06385002 0.007412455
000160 61 15 21 bd c8 05 b2 bd aa a5 ff bd 75 42 cb bb
       -0.03932703 -0.08692509 -0.1248277 -0.0062029907
000170 79 0f 64 bd 84 b5 dc 3c 0c 2e 81 3c 0f 07 b7 3d
       -0.05567882 0.026942022 0.015769027 0.08936893
000180 b2 27 04 be 1c a4 30 bd 63 d8 a2 3d e2 33 3e 3e
       -0.12905768 -0.043125257 0.07951429 0.18574479
000190 0f 8d 25 be e4 cd db 3d ea 37 2a bd e6 c3 6f 3c
       -0.16167091 0.1073263 -0.04155723 0.014634108
0001a0 55 c8 ec 3d 79 29 20 bd 9d df d0 3d 24 d3 c3 bd
       0.11561648 -0.03910205 0.10198901 -0.09561756
0001b0 01 e7 38 3d 63 f1 b0 bd 56 aa d4 bd ce 09 ae bc
       0.045142177 -0.08639791 -0.103840515 -0.02124491
0001c0 20 2f 37 3d 61 6b f3 bd f7 04 b2 3d e2 ca 51 bd
       0.044722676 -0.11885715 0.08692353 -0.051218875
0001d0 36 2c f2 bd 61 0f 6b 3e 5a 08 ce bd 38 38 80 3d
       -0.11824839 0.22955085 -0.10060187 0.06260723
0001e0 b8 e5 0a 3e bf 6c 04 bd b7 dc 93 3d 46 06 09 bd
       0.13564193 -0.03233027 0.072198324 -0.03345325
0001f0 2d 8d 95 3d 26 3e d0 bd e3 c1 02 3e 9a 41 bc 3d
       0.07302318 -0.10168104 0.12769274 0.091922
000200 fc ae c2 3c 5f b1 0c bb d6 d7 f6 bd 73 8a 3e 3c
       0.02376508 -0.0021468026 -0.12052886 0.011629689
000210 12 48 f3 3d b0 63 dc 3c 85 6d 1a 3e aa b6 83 3d
       0.11878981 0.026903003 0.15080841 0.06431325
000220 ee 51 5e 3c 48 d2 55 3c 89 76 cd bd 11 a6 cf 3d
       0.013569338 0.013050623 -0.100323744 0.101390965
000230 57 2c f3 bd 05 4a fe 3d d4 c3 25 bd 06 4b ae 3d
       -0.118736915 0.12416462 -0.04046996 0.08510403
000240 7a 51 13 3e 14 2a e3 3d 13 57 a2 3d 3f 81 87 3c
       0.1438655 0.1109201 0.07926764 0.016541122
000250 d0 56 ff 3d c2 ac 3d 3c 36 01 d7 3d ca 6d b5 3d
       0.1246773 0.011576833 0.10498278 0.08858831
000260 81 7b 0d 3e fc a9 ab 3c 9c ae b8 bd 29 b5 75 3d
       0.13816644 0.020955078 -0.09017679 0.05998722
000270 cf 2a 96 bd 8e 78 98 bd be d4 83 3d 35 d1 9a 3d
       -0.07332384 -0.07444869 0.06437062 0.07559434
000280 05 30 31 3d 19 ec bf bc 31 12 a8 bc b0 e2 49 be
       0.043258686 -0.02342801 -0.020516487 -0.1971538
000290 dd 8c 19 3c d5 56 b3 3c 8f 98 50 bd a1 8f de 3b
       0.009371963 0.02189199 -0.05092674 0.0067920242
0002a0 e8 63 28 3d 70 50 fe 3d 2f 4d 01 3e fd 76 91 bb
       0.041110903 0.12417686 0.126271 -0.0044392333
0002b0 0f f0 84 3d 73 07 2b be bc 92 16 be 6f 14 04 3e
       0.064911 -0.1670206 -0.14704412 0.1289842
0002c0 8c bc 9f 3d 88 c0 26 3e c7 a9 f8 bd 26 1d 81 3d
       0.07799634 0.16284382 -0.121417575 0.06304388
0002d0 d4 7d b6 bd 36 b2 ce bb 5a 9e 86 bd 90 c5 d2 bd
       -0.089107186 -0.0063078655 -0.06573172 -0.10291588
0002e0 a1 5a 76 bd d0 1d ba bd 12 22 b6 bb f3 cd de 3d
       -0.060145024 -0.090877175 -0.0055582607 0.108791254
0002f0 86 be f4 bd 08 fc 24 3e 07 9e 8f 3d 41 74 02 be
       -0.11950402 0.16111767 0.07012563 -0.1273966
000300 16 d4 74 bd 61 b9 8b bd 17 31 fd 3c c9 43 fa 3d
       -0.059772573 -0.068224676 0.030907197 0.1221996
000310 05 19 b7 3d ee 64 2d 3e 15 8f 84 3c ef e2 b4 bd
       0.08940319 0.16933033 0.016181508 -0.08832347
000320 fc 21 21 3d fb f3 a1 3d 53 6b ed 3c 28 c3 77 bd
       0.03933905 0.07907864 0.02898184 -0.06048885
000330 05 66 22 bc c4 de 2e be 42 2a ad bc 62 4f 19 3d
       -0.009912019 -0.17077166 -0.021138314 0.03742922
000340 2a 78 38 3e 9c ba 19 3e 08 90 67 3d b5 38 1b bb
       0.18014589 0.15012592 0.056533843 -0.0023684923
000350 2c 1e a7 bd 19 f0 9c 3c aa e1 d1 bc aa 29 c2 3c
       -0.08160052 0.019157456 -0.0256203 0.023701508
000360 4d 9e c5 bd fb 5a 4e bd 1b 6e ce bd 8e e3 75 bd
       -0.09649334 -0.050379734 -0.10079595 -0.060031466
000370 7a 7d e0 3b 15 17 6f bd 2e ea 9d bd 53 bd 03 be
       0.0068508955 -0.058371622 -0.07710682 -0.1286519
000380 a2 ed 9d bc 94 7f 19 3e 61 0c e1 bd 2f e1 13 bd
       -0.019278351 0.14990073 -0.10988689 -0.036103424
000390 10 a9 32 3c c9 72 79 3d 94 24 23 bc 71 dc a2 3d
       0.010904565 0.060900483 -0.009957451 0.07952202
0003a0 7d 2d 2c 3c 40 08 00 be 0c 70 c6 bd e8 eb b9 bd
       0.010508892 -0.12503147 -0.0968934 -0.09078199
0003b0 d1 c1 02 3e 67 5b f8 bd 54 b1 16 3e 7b 2d 71 bc
       0.12769248 -0.121268086 0.14716083 -0.014720316
0003c0 83 1a b5 3d 5b 77 c3 3d 99 e8 9f bd c2 a0 f3 bc
       0.08842947 0.095442496 -0.07808036 -0.029739741
0003d0 62 9d bd 3d 99 0a e7 bc f3 d9 23 3d 9c 06 a8 bd
       0.09258534 -0.028203296 0.040002774 -0.08204386
0003e0 84 e4 eb bb 36 9c 02 bc 91 e9 4b bd 49 1e ab bc
       -0.007198872 -0.007971814 -0.049783293 -0.020888465
0003f0 c7 bd ee bd 92 7c 6d bd 65 98 2a be e1 52 48 bd
       -0.11657291 -0.057980128 -0.16659696 -0.048907164

conv2.0.bias f4 [12]
000000 de f3 8c 3d 33 f8 c6 3d 9b f5 43 bd f3 c6 6d 3d
       0.068824515 0.09715309 -0.04784165 0.05805106
000010 3d 0e ae 3b e4 43 9d bb 31 45 23 bd cd 80 15 bd
       0.005311756 -0.004799353 -0.039860908 -0.036499787
000020 f2 4b 9f 3d b5 ce 8f bd 5f 90 5e bb b5 c5 66 3d
       0.07778157 -0.07021848 -0.0033960564 0.056340892

conv2.1.weight f4 [12]
000000 eb ee 86 3f 56 2d 7c 3f 2b 14 76 3f 76 76 7f 3f
       1.0541662 0.9850668 0.96124524 0.9979013
000010 bd 93 80 3f 1a cf 79 3f 18 e0 84 3f 21 c6 7f 3f
       1.0045086 0.97581637 1.0380888 0.99911696
000020 f2 b0 80 3f 9c 18 7b 3f f6 80 7d 3f 05 c6 81 3f
       1.0054 0.98084426 0.99024904 1.0138556

conv2.1.bias f4 [12]
000000 b2 a5 2f 3c a7 10 ee 3c 63 6f 5f bc e4 19 1c bd
       0.010720657 0.029060675 -0.0136373965 -0.03811063
000010 f4 f0 75 bb 1f 81 9e bc 0e 71 3e bd 92 c6 8f bc
       -0.0037527652 -0.01934868 -0.046494536 -0.01755074
000020 c0 5b ae 3c ab a7 09 be b4 fa 88 3c 62 8a 89 bd
       0.021283984 -0.13442867 0.016721107 -0.067158476

conv2.1.running_mean f4 [12]
000000 da aa c2 3e f7 a0 0f 3e b0 d2 30 be 08 6c 1d 3e
       0.38020974 0.14026247 -0.17267871 0.15373242
000010 ca 75 76 bf 73 2f d8 3d d1 e0 b5 3e 46 c3 76 bf
       -0.9627348 0.10555925 0.35523084 -0.96391714
000020 ca 63 d7 be 34 13 a1 be 48 2b 17 bf 90 8d 3d 3d
       -0.4206832 -0.31459963 -0.59050417 0.046277583

conv2.1.running_var f4 [12]
000000 0c ab 59 40 b3 40 81 40 07 21 b8 40 39 68 a3 40
       3.4010649 4.039148 5.7540317 5.1064725
000010 d8 ed cf 40 60 f2 ab 40 0e 16 c6 40 7d e2 d3 40
       6.4977837 5.373337 6.190192 6.6213975
000020 2d 18 c3 40 a5 e6 01 41 e0 21 cd 40 8f 80 7a 40
       6.096701 8.11881 6.410385 3.9140966

conv2.3.weight f4 [12, 12, 3]
000000 9e 76 04 bd 09 e2 f9 3d 66 ad 25 bd 79 aa dc bb
       -0.032339685 0.12201316 -0.04044857 -0.006734189
000010 ba e2 16 bd 2a c0 1a be 86 cc ce 3d 24 26 76 3c
       -0.036837317 -0.15112367 0.100976035 0.015023742
000020 26 68 9c bd 4e 11 26 3d e2 7e fa bc 43 cd 42 be
       -0.07637052 0.040543847 -0.03057808 -0.19023614
000030 63 ed 6f bd 8c 9d d6 3d a3 d9 8f bd 05 3e d0 bd
       -0.058576 0.104792684 -0.07023933 -0.10168079
000040 ae f5 a1 bb 76 54 d6 bd 61 2d b9 bc ed f1 bb 3d
       -0.0049426174 -0.104653284 -0.022604646 0.09177003
000050 32 1e 96 3d 4c 53 15 be 9a 56 ee 3d 6b f6 b7 bd
       0.07329978 -0.14582556 0.11637612 -0.089825474
000060 c9 6a 8a bd 4d b4 8a 3d d4 03 0e 3e 30 fc ea bd
       -0.06758649 0.06772671 0.13868648 -0.11473882
000070 ed 95 b0 bd b0 13 98 bd 28 cb 10 3e 20 9e f1 3d
       -0.08622346 -0.0742563 0.14139998 0.11797738
000080 a8 ba 4f 3e 23 6b 16 3d a6 e1 dd 3c b9 44 08 bd
       0.20286047 0.036723267 0.027085137 -0.033268664
000090 b2 1a d0 3d bb 84 87 3d 25 c0 96 bb d6 c2 22 bd
       0.10161342 0.06617113 -0.004600542 -0.03973659
0000a0 5e 66 10 be 2a e3 8e 3b e2 24 c8 3d ca 4f 92 bd
       -0.1410155 0.004360576 0.0977266 -0.07144125
0000b0 ab 0c 5e bd d2 6e c2 bd 62 fa 1f be 4a 15 0a 3e
       -0.0542113 -0.094937935 -0.15622857 0.13484684
0000c0 02 cf 68 bc 8d e6 19 be a1 80 b5 3d dd 1d 92 bd
       -0.014209511 -0.15029354 0.08862425 -0.07134602
0000d0 06 57 b9 bc 6e 1c a2 3c 32 1e 0d 3d ab 04 0e bd
       -0.022624504 0.019788947 0.034452625 -0.03467242
0000e0 ce be cf 3d 1c f9 75 3d 06 2c c4 3d be a6 af 3c
       0.10143815 0.060052022 0.09578709 0.021441814
0000f0 55 cf fe 3d 3c 07 93 3d 46 70 7e bd 62 59 ab bd
       0.12441889 0.07179114 -0.06211879 -0.08366658
000100 86 1a b3 bd b3 2f 1b 3d ed c9 92 3b 1f 09 e0 bc
       -0.08745293 0.037887286 0.004479638 -0.0273481
000110 da c6 b5 3d 59 28 f7 3d e0 a9 3c 3e 7e a7 69 bc
       0.088758186 0.120682426 0.18424177 -0.014261125
000120 3a 0a 90 3d 11 e6 0e bd da b7 3f 3e e3 f8 5b 3d
       0.070332006 -0.034887377 0.18722478 0.053704154
000130 90 97 d5 3c d8 19 e7 bd 1a 6f a2 3c d1 9b e7 bd
       0.026073247 -0.11284226 0.019828368 -0.113090165
000140 80 a3 0a be dd 26 15 3e 34 27 1f 3d 8d 5a 69 bc
       -0.13538933 0.14565606 0.038855746 -0.01424278
000150 45 4b d7 bc 6e a8 81 bd a8 0a b4 bc 8b b0 94 bd
       -0.026281008 -0.063309535 -0.021977738 -0.072602354
000160 6b c3 0c be bc 65 cb 3c 86 f6 35 bc 88 78 2f bd
       -0.13746421 0.024828784 -0.011106139 -0.042839557
000170 55 55 08 be 10 f1 c4 bc 53 c4 3e 3d c9 0e 53 be
       -0.13313802 -0.024040729 0.046573948 -0.20611109
000180 b3 81 e4 3d 43 2f 13 bd e7 07 b3 3d d4 9c 12 bd
       0.11157551 -0.035933744 0.087417416 -0.035794094
000190 a3 92 17 3e 3b 73 d9 3d 69 30 ac 3d 71 02 92 3d
       0.14802031 0.106176816 0.08407671 0.07129372
0001a0 dd dc b1 bd 11 81 5d 3c 76 36 b3 bd d0 96 2f bd
       -0.086847045 0.013519541 -0.08750622 -0.042868435
0001b0 d2 12 7d bd b4 e5 f3 bd da 6c 86 bd 4e 80 1c 3e
       -0.061785527 -0.11909047 -0.065637305 0.1528332
0001c0 f5 0d 7e 3d 68 2a 84 bd d9 41 3a 3e ce 0e d2 3d
       0.06202503 -0.06453401 0.18189181 0.1025673
0001d0 be 44 26 3e 69 25 5d bc 90 12 90 bd 67 53 9e bd
       0.1623716 -0.013497689 -0.070347905 -0.077307515
0001e0 e3 25 9b bd e1 d7 d3 3c 00 42 25 bd b3 d9 12 bd
       -0.07575586 0.025859775 -0.040346146 -0.035852145
0001f0 11 fb cf 3d 7d e2 ab bd 8b a7 a3 3d 7a 0c 99 3c
       0.10155309 -0.083928086 0.07990941 0.018682707
000200 12 43 0a be 68 a4 90 bd 7b fe 03 bd 82 97 e8 bd
       -0.13502148 -0.07062608 -0.032225113 -0.11357023
000210 4c 60 29 3e 20 0d b6 bb 3b dd 9d bd 7c e1 dd 3d
       0.1654064 -0.005555764 -0.07708212 0.10834023
000220 b1 45 ba bd 2a 5b f0 bc 23 b6 de bd a3 46 ad bd
       -0.09095324 -0.029340345 -0.108745836 -0.084607385
000230 c9 c9 08 3e 55 c2 ae bd f5 ba c8 bd 07 8c 90 3c
       0.13358225 -0.0853316 -0.09801284 0.017644895
000240 5e 61 dc 3d 74 07 06 be 73 85 35 bd 13 4e a5 3d
       0.10760759 -0.1308878 -0.04431672 0.08071532
000250 27 d9 15 be dc 64 e7 bd 72 da 1e 3e d0 c3 fd 3d
       -0.14633618 -0.11298534 0.15513018 0.12390864
000260 3e 8a ef 3c 01 5d 58 bd b3 78 fb bd c4 f2 cc 3d
       0.029240724 -0.05282307 -0.12278881 0.10007241
000270 16 e1 fe 3d 01 fc 1e 3d 99 14 e7 bb dd e3 1b be
       0.124452755 0.03881455 -0.007052016 -0.15223642
000280 96 ac d3 3d f6 cf a0 bd 2f e0 34 3c 6e 7e 1b be
       0.103356525 -0.078521654 0.011039778 -0.15184948
000290 c9 f0 10 be bb 2b e1 ba 19 1a e7 3d 89 dc c1 3d
       -0.14154352 -0.001717917 0.112842746 0.09465892
0002a0 0c 61 13 3d 6d 32 92 3d d2 ec 5f bd ed 1e c4 bd
       0.035981223 0.07138524 -0.05466921 -0.09576211
0002b0 ea 8e d6 3d b8 c9 98 bc a2 e0 b7 3d ef a6 12 3e
       0.104764774 -0.018650874 0.08978392 0.14321493
0002c0 20 72 be bd 8c ab bd 3d 83 f7 3e 3d f3 27 ba bd
       -0.09299111 0.092612356 0.046622764 -0.09089651
0002d0 7f b1 31 bd 62 0c 02 3d 6b 1e 17 be c5 25 bc bd
       -0.043382164 0.03175009 -0.14757697 -0.091868915
0002e0 2c 73 2f 3e c3 99 13 be ab a3 86 3d d4 95 04 3e
       0.17133778 -0.14414124 0.06574186 0.1294778
0002f0 ac a4 08 3e c7 85 92 3d 9e da 99 3d db 74 e4 bd
       0.13344067 0.07154422 0.07512401 -0.11155101
000300 f1 1c c9 bd 6f 37 43 be c7 c7 2b be 2b c3 e3 bd
       -0.09819973 -0.19064115 -0.16775428 -0.1112121
000310 e4 74 56 bd f2 11 27 3b 56 13 fb bd 2c 9b ca 3c
       -0.05235757 0.0025492874 -0.122595474 0.024732195
000320 16 51 c9 3d d5 7e 10 be 62 8b c0 3d f1 24 8d bd
       0.09829919 -0.14110883 0.09401585 -0.06891812
000330 0b b0 86 3c a8 66 09 3e f6 db 79 3d c5 d0 81 bd
       0.016441366 0.13418067 0.061000787 -0.06338648
000340 88 6b 61 bd ea 6f ab 3b ed 84 db 3c bd 14 1e be
       -0.05503419 0.005231847 0.026796782 -0.15437599
000350 b3 97 08 3e 74 8f b4 bd 7f 03 3b 3c 0f d5 15 be
       0.13339119 -0.08816424 0.011414408 -0.14632057
000360 16 a5 cd bd 13 c0 b4 3d 3b 13 04 3e 7e c8 e0 3c
       -0.10041253 0.08825698 0.12897961 0.027439352
000370 87 d7 37 3d 28 85 b8 bd ed c3 0f 3e 2c d8 ef bd
       0.044883277 -0.090097725 0.14039584 -0.117111534
000380 61 e0 70 bd 1f d0 91 bd bf 4e 33 3d 95 eb 2b be
       -0.058807734 -0.07119774 0.04377627 -0.16789086
000390 85 54 e5 bc 0c f2 56 bd 2f 7f 94 bd 4f 4c c9 bd
       -0.027994404 -0.052476928 -0.07250821 -0.09829008
0003a0 2a 8a 14 be d4 78 bf 3c 6a 82 17 be db d3 d0 3b
       -0.1450583 0.023373045 -0.14795843 0.0063729114
0003b0 6b 05 41 3e 0a ef b9 3d 05 f8 32 be 6c f1 d6 3d
       0.18849723 0.09078796 -0.17477424 0.10495266
0003c0 87 42 b2 3d 49 93 14 be 2c 6c 3b be e2 2b c9 3d
       0.08704095 -0.1450931 -0.18302983 0.09822823
0003d0 f7 61 0e be c8 4d cb 3c 50 65 a8 bd 17 a6 14 3d
       -0.13904558 0.024817362 -0.08222449 0.036291208
0003e0 9c 3b 5d 3d c3 cb 95 3c 3b 46 86 3d 9f 7a 1a 3d
       0.054011926 0.018285638 0.06556364 0.037714597
0003f0 54 b9 19 bd b1 7d 50 3d 4d 92 cb 3c db 3f ab 3b
       -0.03753026 0.05090112 0.024850035 0.005226118

conv2.3.bias f4 [12]
000000 5e 59 02 bd 5f c0 0f 3e 66 98 9d 3d 81 07 b0 bb
       -0.03182351 0.14038227 0.07695083 -0.0053719883
000010 9a 2f 0e 3e 0e 94 d4 3d 9d 93 81 3d ff ee da bd
       0.13885346 0.10379802 0.06326983 -0.10690116
000020 a0 7b 01 3e 1d 38 ff 3d 39 56 76 3d 9b 22 f9 bd
       0.12644815 0.12461875 0.060140822 -0.121648036

conv2.4.weight f4 [12]
000000 a9 5f 81 3f b8 9a 81 3f 8a 92 85 3f f2 ba 84 3f
       1.0107318 1.0125341 1.0435345 1.0369551
000010 4b 60 81 3f 5b 89 7d 3f df a2 82 3f d1 50 82 3f
       1.0107511 0.9903771 1.0205954 1.0180913
000020 05 59 83 3f 09 c4 80 3f 81 40 86 3f 29 40 82 3f
       1.0261542 1.0059825 1.0488435 1.017583

conv2.4.bias f4 [12]
000000 58 2e d6 3b 09 28 1b bc d1 cd 1c bc cc 27 00 3c
       0.0065362863 -0.009469994 -0.009570555 0.007821988
000010 3a 42 f1 3b bf 0c 27 bc 4d be 21 bc a6 c3 0e 3c
       0.007362631 -0.01019591 -0.009872031 0.008713638
000020 39 60 0c 3c 2a b2 25 bc ea 38 10 3c 76 a7 05 3c
       0.008567863 -0.010113278 0.008802632 0.008157602

conv2.4.running_mean f4 [12]
000000 4e 43 28 bc 36 12 8a 3e 31 ad 96 3c 96 7f 03 be
       -0.010269953 0.2696702 0.018393131 -0.12841639
000010 b8 55 60 3e 37 c4 0d be 08 f8 0c be 71 d9 36 3e
       0.21907699 -0.13844381 -0.13766491 0.17856385
000020 42 b9 08 3e 04 90 61 3e 38 49 0e 3d 97 76 05 be
       0.1335192 0.22027594 0.034737796 -0.1303352

conv2.4.running_var f4 [12]
000000 06 7d be 3d 23 7d 66 3d 90 ac 01 3d b4 03 58 3d
       0.0930119 0.056271683 0.03165871 0.052737907
000010 30 41 28 3e 28 3a ff 3d dc b7 e3 3d 2c fb d8 3d
       0.16431117 0.12462264 0.11119053 0.10594782
000020 53 32 9f 3d 1f 38 b7 3d 70 d5 22 3d 9f 6b a2 3d
       0.077732705 0.08946251 0.03975433 0.07930683

conv3.0.weight f4 [12, 15, 4]
000000 de bb c0 bd ec 1d 64 bc 53 35 b1 bd 5e d7 05 be
       -0.09410833 -0.01392315 -0.08652749 -0.13070437
000010 e1 a9 1c 3c db 55 05 3e 72 f0 c3 ba f1 ae cc 3b
       0.009561987 0.13021033 -0.0014948978 0.0062464406
000020 48 5a b1 bb cd 65 a8 bb 2c 67 01 be e0 43 46 bd
       -0.0054123737 -0.0051390887 -0.12637013 -0.048404574
000030 a4 5c 27 3e ee 23 6b bc d5 81 dd bc b4 ae 4a bc
       0.16343933 -0.014351828 -0.027039448 -0.012370754
000040 f9 89 00 be ac 56 6b 3d b4 6c 9c 3d 8a e8 fd bc
       -0.12552632 0.057455704 0.07637921 -0.030994672
000050 bb a5 8c 3d 15 a8 c4 bc 43 68 93 bd 27 fe 06 3e
       0.06867548 -0.024005929 -0.07197621 0.13182889
000060 be 03 de 3c 9f 34 41 3d 94 97 5f 3c 19 6d a8 3b
       0.027101394 0.047169324 0.013646979 0.0051399586
000070 bb 5c f7 bd 88 8c de bd 29 51 62 3d c4 f0 97 3d
       -0.12078234 -0.10866648 0.05525318 0.07418969
000080 c0 19 a1 3d 2c de 07 bd 49 91 c3 bc d9 15 2c 3c
       0.078662395 -0.033170864 -0.023872988 0.010503256
000090 06 21 3b bd 8e d2 35 3d 6b 9c 8a 3d c4 94 21 3d
       -0.04568579 0.044390254 0.067681156 0.039448515
0000a0 68 da c5 3d c2 e1 c1 bd b6 da df 3a 5d b1 0d be
       0.09660798 -0.09466888 0.0017078731 -0.1383719
0000b0 e2 61 e4 3d f1 ff fa bc c1 9f c6 bc 17 1e 1b bc
       0.11151482 -0.03063962 -0.024246098 -0.009467623
0000c0 35 98 11 bd 19 93 19 bd 52 d4 d9 3d 93 00 36 be
       -0.035545547 -0.0374938 0.106362 -0.17773657
0000d0 bc 97 ba 3d e4 29 22 bc 60 fe d2 3d c7 11 a8 bd
       0.09110972 -0.009897683 0.103024244 -0.08206516
0000e0 9c 08 12 bd 95 29 c5 3c 68 c8 a9 3d 2a 63 20 be
       -0.03565274 0.02406768 0.082901776 -0.15662828
0000f0 4c 37 2f 3c 31 43 b1 bd 66 dc e5 bd 9c db a5 bd
       0.010694336 -0.08655394 -0.11223678 -0.08098528
000100 f2 ac 1f 3d f3 2d 05 be b8 f7 90 3c 89 3c 39 3d
       0.038983293 -0.1300581 0.017696247 0.045223746
000110 e3 be 95 bd aa 0f 26 bd 9b 7c 24 3e bc d5 1a 3e
       -0.073117994 -0.040542282 0.16063158 0.15120596
000120 9a fa a0 3d 6f fc c5 3c 7f 03 65 3d 8f 76 15 3c
       0.078602985 0.024168221 0.055911537 0.009122505
000130 5e b3 13 bd 57 00 78 bd d3 97 ab 3d 0b 3a 93 3d
       -0.03605973 -0.0605472 0.083785675 0.07188805
000140 bf 63 9c 3d ff 11 c7 3d b6 e8 9b bc 7a 13 d6 bd
       0.076362126 0.09720229 -0.019031864 -0.104529336
000150 9f c1 f8 3c f7 1b ea 3d b0 60 ec bd 63 30 77 bd
       0.030365763 0.11431115 -0.11541879 -0.06034888
000160 af 3a 88 3d 34 ba 09 bd f0 98 e2 bd 74 a9 16 be
       0.06651818 -0.033624843 -0.11064327 -0.14713079
000170 67 f5 18 bd 7e cf 97 bd 90 05 a9 3d 96 5c bd bd
       -0.03734341 -0.07412623 0.08253014 -0.09246175
000180 60 74 22 be e7 a3 49 bc 24 69 28 bd eb 49 4b bd
       -0.15864706 -0.012307144 -0.041115895 -0.04963104
000190 9b c6 64 3d 53 ef a5 bd 7b 30 01 bd 61 18 db 3d
       0.055853467 -0.08102288 -0.031540375 0.10698009
0001a0 9a a0 ea 3d 51 d9 47 3b e5 ea 4a 3d 43 66 ab 3d
       0.114564136 0.003049452 0.04954042 0.08369114
0001b0 f8 d2 c6 bd 98 69 54 3d 00 9b 90 3c 43 a3 51 3d
       -0.09708208 0.051858515 0.017652035 0.05118109
0001c0 22 d4 7c 3c 4e d3 57 3c 90 29 88 bd 41 61 1d be
       0.015431436 0.013172938 -0.066485524 -0.1536913
0001d0 73 71 fd bd 22 dc 91 bd 0a 7b d1 3c 5a a8 46 3b
       -0.12375154 -0.07122065 0.025571365 0.0030312748
0001e0 32 72 a1 3d 60 e1 38 3d ed 3f aa bd 42 88 c5 3d
       0.07883109 0.04513681 -0.08312974 0.0964513
0001f0 03 b9 34 bd 7b 44 04 bd 0e 84 1c 3d ca 7b e5 bd
       -0.044121753 -0.03229187 0.038211875 -0.112052515
000200 a8 dd fb bd c3 7d 58 bd dc 46 3a bd ce 75 3c 3e
       -0.12298137 -0.05285431 -0.045477733 0.18404314
000210 cb 13 a9 3d 47 18 e1 bb f1 ea a6 ba b2 cd 1e bd
       0.08255728 -0.006869349 -0.0012734813 -0.038770385
000220 f0 a0 88 3d c9 35 c6 bd a4 c4 db bb 1c c6 8f bd
       0.066713214 -0.096782275 -0.006706791 -0.07020208
000230 91 70 c3 bd f9 8e cf bb 1a 68 8c 3c b2 78 32 3d
       -0.09542955 -0.0063341823 0.017139483 0.043572135
000240 95 33 68 bc 97 29 14 bd 85 3f 06 be 0f 3b df 3d
       -0.014172454 -0.036172476 -0.13110168 0.108999364
000250 55 6f 60 bd 7e 70 9f bd 0d 7f 2d be bd f0 8a 3d
       -0.054793674 -0.07785128 -0.16942997 0.067841984
000260 4b b1 c5 b8 f7 41 51 3b 91 8e 90 3d dc fa 10 3d
       -9.4267154e-05 0.0031930187 0.070584424 0.03539549
000270 14 44 5e bd 19 6f 90 3d 00 6d 19 bd 88 d5 87 bc
       -0.054264143 0.0705244 -0.037457466 -0.016581312
000280 99 e3 be bd 27 e4 6e 3c 5a 74 9d 3d c3 7b ee 3d
       -0.093207546 0.014580763 0.07688208 0.116446994
000290 bd 59 c0 3c 8c 24 14 be cc 6d fe bd f0 e5 fc bd
       0.02348029 -0.14467067 -0.12423286 -0.123485446
0002a0 41 db d6 3b 59 35 cb 3c f1 41 c4 3d 01 52 8c 3d
       0.006556899 0.024805712 0.0958289 0.068515785
0002b0 b1 87 15 3d 60 05 c1 3d a5 e1 91 bd 95 cb c4 3d
       0.03650636 0.09424853 -0.071231164 0.09609143
0002c0 8a 7f c7 3d e7 4e 8e 3d 6e 06 cf 3d 84 ce d6 bd
       0.09741123 0.06948643 0.10108648 -0.104886085
0002d0 ab e3 d9 bc 87 08 c3 3d 96 07 df 3d f1 a7 2e 3d
       -0.026597818 0.09523111 0.10890119 0.04264063
0002e0 9f 8c 80 bd 62 ef 40 bd 37 04 d7 bc c1 f4 a6 3d
       -0.06276821 -0.047103293 -0.026247127 0.08152152
0002f0 ec d5 63 3d fc d4 e1 3c 7f 95 26 bc 38 33 b4 bc
       0.055623934 0.02756738 -0.010167479 -0.02199708
000300 dc 5b 7c 3d ab 9f 8b 3d bc 45 9a 3d 8c 29 8e bd
       0.06161104 0.068175636 0.07532832 -0.06941518
000310 8e 54 ad 3d d2 4f 12 3b 4c 80 bf 3d b8 e4 b6 3d
       0.08463393 0.0022325409 0.093506426 0.089303434
000320 1a f3 3e 3d 50 5d 57 3d 0d af 80 3d 69 2c 43 bc
       0.04661856 0.052579224 0.06283388 -0.011912444
000330 99 1f 18 be b0 ba f5 bc 0c 3c a0 bd af 37 f7 bd
       -0.14855804 -0.029996246 -0.07823953 -0.12071168
000340 12 9d 68 3d 1e 98 84 bd c9 90 dd bd 5e 9f e6 bd
       0.05679042 -0.064743266 -0.10818631 -0.11260866
000350 0d 3c 08 be 5f a7 be bd cc 8a f0 bd f7 57 c7 bd
       -0.13304158 -0.09309267 -0.117452234 -0.09733575
000360 1b 22 1e 3e 34 d4 ad 3c 8f a7 8f bc 8a 14 a0 3c
       0.15442698 0.02121935 -0.017535953 0.019541044
000370 32 7c 67 3c bd f1 a2 ba 22 b4 09 3e 9e 70 67 3d
       0.014128732 -0.0012431663 0.13447621 0.056503884
000380 5a 60 c9 3d 41 6f 48 3e 5b c8 68 bd ad 03 09 3e
       0.09832831 0.1957369 -0.0568317 0.13380308
000390 21 50 5e 3d 39 c9 4d 3d f0 f8 0d 3d 50 a0 d1 3d
       0.054275636 0.05024073 0.034661233 0.10235655
0003a0 df 90 09 3d 4f e5 a5 3d e0 a1 a9 3d 17 d5 c2 bd
       0.033585425 0.08100378 0.08282828 -0.095133
0003b0 dc bf 7f 3d 67 2e 3d be 0c cc 5f 3b 50 61 93 bd
       0.06243883 -0.18474732 0.003414872 -0.07196295
0003c0 1f 45 be 3d 43 ee 66 bd d8 7e 21 bd 6d 59 3d bd
       0.092905276 -0.056379568 -0.03942761 -0.04622786
0003d0 39 91 91 3c 60 56 6e bc b0 9b b2 bc cf 5c 04 3d
       0.017769443 -0.014546961 -0.021802753 0.03231507
0003e0 b6 81 6d 3d eb 8c cf 3d 3e d0 90 ba 0b 0a d6 bd
       0.05798503 0.101343 -0.0011048389 -0.10451134
0003f0 61 b7 d8 bd 0b 66 98 3d ef c1 9b bc 85 7c bf 3c
       -0.10581852 0.07441338 -0.019013373 0.023374805

conv3.0.bias f4 [12]
000000 34 f8 13 3d de 5d 60 bd 27 30 2d 3d 7e 5f d8 bd
       0.036125377 -0.05477702 0.04228225 -0.10565089
000010 e8 39 f8 3d 20 12 94 bd 54 ef 86 bd 29 cf cc bd
       0.1212042 -0.072300196 -0.06588617 -0.1000045
000020 12 c8 93 bd dc f0 2d 3d 86 d1 d3 3c 16 8c b9 3c
       -0.07215895 0.04246603 0.025856744 0.022649806

conv3.1.weight f4 [12]
000000 de 63 7e 3f ed b4 80 3f 51 14 84 3f ee 63 80 3f
       0.99371135 1.0055214 1.03187 1.0030496
000010 07 9d 81 3f 62 d8 81 3f 63 4c 78 3f 6e 7b 85 3f
       1.0126046 1.014416 0.96991557 1.0428293
000020 62 c3 77 3f ff de 72 3f 2e 88 7b 3f 01 5f 79 3f
       0.96782506 0.94871515 0.9825467 0.9741059

conv3.1.bias f4 [12]
000000 6b 44 ba bb c8 f3 05 bd d6 96 4c 3c c4 47 c2 bc
       -0.0056844256 -0.03270319 0.012487134 -0.023715861
000010 e1 a7 10 3d 9c a1 ae bd 68 e4 df 3b 7c 93 ac 3d
       0.03531635 -0.08526918 0.006832648 0.08426568
000020 57 1e 2a bd b1 a5 66 bd 8a 03 5b bc 63 6e e0 bb
       -0.04153284 -0.05631036 -0.013367543 -0.0068490966

conv3.1.running_mean f4 [12]
000000 cc 31 fb be 94 d3 af be d1 68 86 3b 09 73 5d 3e
       -0.4906143 -0.3434111 0.0041018506 0.21625914
000010 df 8d 21 3d ad cd 93 bd 5b 91 c2 be c0 fb df be
       0.03944194 -0.07216964 -0.38001522 -0.43746758
000020 f2 39 11 bd 76 e7 19 bf 51 6a 1a 3e dd f0 4c be
       -0.03545565 -0.60118806 0.15079619 -0.20013757

conv3.1.running_var f4 [12]
000000 6a 20 c9 40 74 57 da 40 cc 07 92 40 50 ac 87 40
       6.285207 6.8231754 4.563452 4.2397842
000010 66 3f 42 40 37 25 35 40 31 c3 af 40 39 80 31 40
       3.0351195 2.8303964 5.492577 2.773451
000020 cf 1f 92 40 41 4d a4 40 25 61 a5 40 9c 9a 8c 40
       4.566383 5.1344304 5.1681085 4.393873
