model/AutoY/MScheckpoint4.pt (torch, 34213 bytes, 51 tensors)

conv1.0.weight f4 [12, 15, 2]
0	0x3d8f2623	0.06989696
1	0xbd313eca	-0.04327277
2	0xbde9eb30	-0.114218116
3	0x3e0ce3f1	0.13758828
4	0xbd58e639	-0.052953932
5	0x3e16b35c	0.14716858
6	0xbe065106	-0.13116845
7	0x3ded92f8	0.11600298
8	0xbdb14046	-0.08654837
9	0xbd658a49	-0.056040082
10	0xbe2987fa	-0.16555777
11	0x3d46152e	0.048360042
12	0xbe4c1001	-0.1992798
13	0x3d454468	0.04816094
14	0x3e1de5c9	0.15419687
15	0x3df117b8	0.11772102
16	0xbe67fa7a	-0.22654143
17	0x3e22d3a3	0.15901046
18	0xbd6113e5	-0.054950614
19	0x3da2fd9b	0.07958528
20	0xbdc13051	-0.09433044
21	0xbe5e6490	-0.21718049
22	0x3de59401	0.1120987
23	0x3e4b820b	0.19873826
24	0x3b4c2cfd	0.0031154745
25	0x3e6c0342	0.23048118
26	0xbcd99340	-0.026559472
27	0x3db9c414	0.09070602
28	0xbe0f35ac	-0.13985318
29	0x3d56581a	0.052330114
30	0xbdeba8a3	-0.11506774
31	0x3dff07ad	0.12452636
32	0xbcbdcaf2	-0.02316806
33	0xbcb9944f	-0.022653727
34	0xbdb285d9	-0.08716936
35	0xbe229b6f	-0.15879606
36	0xbd39e509	-0.04538444
37	0xbe2da2ce	-0.16956636
38	0xbdb028e5	-0.0860155
39	0xbdf11933	-0.117723845
40	0x3dd892aa	0.10574849
41	0xbe173432	-0.14766005
42	0x3cd50e30	0.026007742
43	0xbe271c0e	-0.16319296
44	0x3d889e30	0.06670797
45	0xbded714e	-0.11593877
46	0xbe0c8498	-0.13722456
47	0xbcd0eb1b	-0.025502732
48	0xbdf0aa46	-0.11751227
49	0xbc8493b6	-0.016183715
50	0x3dceb944	0.1009393
51	0xbd3b043d	-0.04565834
52	0xbd8fd333	-0.07022705
53	0xbdea3922	-0.114366785
54	0xbcc1f006	-0.023674022
55	0xbd8cf1b1	-0.068820365
56	0x3d49d83d	0.049278487
57	0x3dc4c132	0.096071616
58	0x3def2df8	0.1167869
59	0xbd655b28	-0.055995136
60	0xbdc59eba	-0.09649415
61	0x3de7cf84	0.11318877
62	0x3da130d8	0.07870644
63	0xbdb2131c	-0.08695051
64	0x3d236498	0.039890856
65	0xbda92315	-0.082586445
66	0x3d951912	0.072801724
67	0xbd4589af	-0.04822701
68	0x3cba5311	0.022744687
69	0xbdc388ea	-0.09547599
70	0x3d64bfed	0.055847097
71	0xbda115d9	-0.07865495
72	0x3da94c53	0.08266511
73	0xbe04d8c5	-0.12973316
74	0xbe131f05	-0.14367302
75	0x3d8a2f67	0.067473225
76	0x3d80a8c8	0.062821925
77	0xbe0a9a5d	-0.13535447
78	0xbde999a6	-0.11406259
79	0x3e66740b	0.22505204
80	0x3db92533	0.09040298
81	0x3d0b2f63	0.03398074
82	0x3d896d81	0.06710339
83	0xbda88366	-0.08228187
84	0xbc8bfea5	-0.017089197
85	0x3d300313	0.04297168
86	0xbd94d851	-0.072678216
87	0xbdc90314	-0.0981504
88	0x3da3e10c	0.08001909
89	0xbdf78532	-0.12085952
90	0xbe08fd3c	-0.13377851
91	0xbdd5cebe	-0.104398236
92	0x3e07123e	0.13190553
93	0x3d804620	0.06263375
94	0x3d6fee20	0.058576703
95	0x3e0f9036	0.14019856
96	0x3aa95a54	0.0012920597
97	0x3dadbbe5	0.08483104
98	0x3d1556f2	0.03645987
99	0xbe2b7dd4	-0.16747218
100	0x3d9a7ed4	0.07543722
101	0x3d858a93	0.065205716
102	0x3e0bb35e	0.13642642
103	0xbe042b5e	-0.12907168
104	0x3d761d1f	0.060086366
105	0xbe4dcf0a	-0.2009851
106	0x3e4952a6	0.19660434
107	0xbd75eb15	-0.060038645
108	0x3df91786	0.1216269
109	0xbc81d1d3	-0.015847122
110	0x3e1a9f4e	0.15099832
111	0x3df5e6e5	0.1200693
112	0xbe54d43b	-0.20784084
113	0x3debf48d	0.11521254
114	0xbd2bb18f	-0.04191738
115	0x3d3f3cfe	0.046689026
116	0xbd418663	-0.0472473
117	0x3dd95ce7	0.10613423
118	0x3da62836	0.081131384
119	0xbe011199	-0.12604369
120	0xbdc251f5	-0.09488288
121	0x3b5dbe8a	0.0033835494
122	0xbdbc3969	-0.091906376
123	0x3db075e4	0.08616236
124	0xbd0fca5e	-0.0351051
125	0x3d9c2597	0.07624357
126	0x3de1fecd	0.110349275
127	0x3e60966b	0.2193238
128	0x3dcd173c	0.10014197
129	0xbc354a1d	-0.011065033
130	0x3e4bf071	0.1991594
131	0xbd1987bf	-0.037482973
132	0x3d1b18c9	0.037865434
133	0x3da1301f	0.078705065
134	0xbd24e87f	-0.040260788
135	0xbe2a8926	-0.1665388
136	0xbdb2a684	-0.087231666
137	0x3dbf54db	0.09342357
138	0xbcbd6303	-0.023118502
139	0xbd70df76	-0.05880686
140	0xbd63c6b7	-0.05560943
141	0x3cd01486	0.025400411
142	0x3d95fa8f	0.07323181
143	0x3d0d035d	0.034427036
144	0x3c801b94	0.01563815
145	0x3dfab5de	0.1224172
146	0xbd075804	-0.033042923
147	0xbe2be572	-0.16786745
148	0x3dbfb96c	0.09361538
149	0x3d0434f8	0.032277077
150	0x3dd2ef95	0.10299603
151	0xbd69ce9a	-0.057081796
152	0x3d7dd123	0.061967026
153	0xbdf8f82e	-0.121567115
154	0xbdba9cf2	-0.09111966
155	0xbd92930d	-0.07156954
156	0x3ba31663	0.004977034
157	0x3e1b2668	0.1515137
158	0x3e0d10f0	0.13775992
159	0xbe2c539d	-0.16828771
160	0xbdf7e0c3	-0.12103417
161	0xbd1561ae	-0.036470108
162	0x3d076715	0.03305729
163	0x3d2ba339	0.041903708
164	0xbe38517b	-0.17999832
165	0xbdec1689	-0.11527736
166	0x3e31c4f8	0.17360294
167	0x3d9cccc5	0.07656244
168	0xbd35ab7e	-0.044353
169	0xbe2f40d2	-0.1711457
170	0xbc8bc715	-0.017062703
171	0x3dfa11d6	0.12210433
172	0xbde32a59	-0.110920615
173	0x3dd45d3c	0.103693455
174	0x3d4a7c5f	0.049435016
175	0x3c04393b	0.008070285
176	0x3dddb5de	0.10825704
177	0x3dfe800e	0.12426768
178	0x3da17fb0	0.078856826
179	0xbd84ea3f	-0.064899914
180	0xbdd36d39	-0.10323567
181	0xbdf48a29	-0.119404145
182	0x3d83e073	0.06439295
183	0x3d916856	0.070999786
184	0xbc22a4fd	-0.009927032
185	0x3e211005	0.15728767
186	0xbdc78764	-0.097426206
187	0x3dfadec8	0.122495234
188	0xbd1d2007	-0.03836062
189	0x3c59b599	0.013287925
190	0x3daf11c8	0.085483134
191	0xbe0d608c	-0.13806361
192	0xbdd62191	-0.10455621
193	0x3e1184e0	0.14210844
194	0x3cc05085	0.023475895
195	0x3d227501	0.039662365
196	0x3c71dff1	0.014762864
197	0xbd21e1ac	-0.039521858
198	0x3e0fce7a	0.14043608
199	0x3e1f04e5	0.15529211
200	0xbdc3a3a4	-0.09552696
201	0xb8003931	-3.057084e-05
202	0x3d83b296	0.06430547
203	0xbd52967e	-0.05141305
204	0xbe077aca	-0.13230434
205	0x3d9b3d29	0.07580025
206	0x3dcdac60	0.100426435
207	0x3e21279d	0.15737768
208	0xbe2d9bc9	-0.16953959
209	0x3da631d6	0.08114974
210	0xbcdeccc8	-0.027197257
211	0xbdb33b2c	-0.087515205
212	0xbdc3cd37	-0.09560626
213	0xbe0293a1	-0.12751628
214	0x3e0cfcbe	0.13768288
215	0xbe01747e	-0.12642094
216	0xbd87ac32	-0.066246405
217	0xbd5f3371	-0.054492418
218	0x39fe38a4	0.00048488856
219	0xbcf5c3c0	-0.030000567
220	0xbdd0508f	-0.10171615
221	0x3df8e3bd	0.12152813
222	0xbd1570fa	-0.036484696
223	0x3e94b26c	0.29042375
224	0xbddc721a	-0.10763951
225	0xbd19f87a	-0.03759048
226	0xbd7c7613	-0.06163604
227	0x3d730a9b	0.059336286
228	0x3cb2dc2c	0.021833502
229	0x3dfe1040	0.12405443
230	0xbe01dfa7	-0.12682973
231	0x3e09e5ab	0.13466518
232	0xbe6610cd	-0.22467346
233	0x3d1f57cb	0.038902085
234	0xbd9a8fe4	-0.07546976
235	0x3dd85a94	0.105641514
236	0x3e09b4d1	0.13447882
237	0x3d3dfa5b	0.046381336
238	0x3e2f5e18	0.17125738
239	0x3c925f1a	0.017867614
240	0xbdf52aab	-0.11971029
241	0xbd9a358a	-0.07529743
242	0x3e3b8656	0.18312964
243	0xbc63c39f	-0.01390162
244	0x3cdb3114	0.0267568
245	0x3be6196e	0.0070220744
246	0xbc99f8bb	-0.018795362
247	0xbd445605	-0.047933597
248	0x3d8042f2	0.06262769
249	0xbb33ce11	-0.0027436058
250	0xbdeed585	-0.11661819
251	0xbda75c6e	-0.081719264
252	0x3df637ea	0.120223835
253	0xbcca685c	-0.024707966
254	0xbe14fe11	-0.14550044
255	0x3dfcb786	0.12339692

conv1.0.bias f4 [12]
0	0xbd9aed3e	-0.075647816
1	0xbe30b569	-0.17256702
2	0x3db377cf	0.08763086
3	0xbd832955	-0.06404368
4	0x3df4692c	0.119341224
5	0x3d9bef5f	0.07614016
6	0x3e1f95d7	0.15584503
7	0xbe1388bb	-0.14407627
8	0xbe3d01aa	-0.18457666
9	0xbdee5052	-0.11636414
10	0x3d1918f0	0.037377298
11	0x3d5ed19d	0.05439912

conv1.1.weight f4 [12]
0	0x3f81d4b6	1.0143039
1	0x3f78703a	0.97046244
2	0x3f7db537	0.99104637
3	0x3f880c70	1.0628796
4	0x3f81723f	1.011299
5	0x3f802284	1.0010533
6	0x3f81a475	1.0128313
7	0x3f813a34	1.0095887
8	0x3f8124d4	1.0089364
9	0x3f7a30bb	0.97730607
10	0x3f7c8cb9	0.98652226
11	0x3f7a2157	0.9770712

conv1.1.bias f4 [12]
0	0x3c2e8318	0.010651372
1	0xbc89d81f	-0.016826687
2	0xbca612c7	-0.020272626
3	0x3d7ab58b	0.06120829
4	0xbba1361b	-0.00491978
5	0x3d07f77e	0.03319501
6	0xbd1495d3	-0.036275696
7	0xbc53be03	-0.01292372
8	0xbd2e3d8a	-0.042539157
9	0x3b9b555d	0.0047404007
10	0xbceffa2a	-0.029294092
11	0xbd7c372c	-0.061576054

conv1.1.running_mean f4 [12]
0	0x3e29adcb	0.16570203
1	0xbf057cf9	-0.5214382
2	0x3e5bea64	0.21476132
3	0x3e280321	0.16407444
4	0x3e5d38f2	0.21603754
5	0x3e49da30	0.19712138
6	0xbd5755e4	-0.052572146
7	0xbf7a2ec0	-0.97727585
8	0xbe6f7d75	-0.23387702
9	0xbe5de17c	-0.21668047
10	0x3f0c2177	0.54738563
11	0x3d6a2d03	0.057171833

conv1.1.running_var f4 [12]
0	0x40a88d5b	5.2672553
1	0x4088494c	4.2589474
2	0x401a4735	2.4105961
3	0x40c32195	6.0978494
4	0x40ae99ea	5.4562883
5	0x4071b156	3.7764487
6	0x40be70c2	5.9512644
7	0x40af9563	5.4869857
8	0x40ad03ed	5.406729
9	0x40939794	4.612253
10	0x40819a8b	4.050115
11	0x404d08d5	3.203664

conv1.3.weight f4 [12, 12, 2]
0	0xbe0ae21e	-0.1356282
1	0xbe35535c	-0.1770758
2	0xbd64260a	-0.05570034
3	0x3c040ea3	0.00806013
4	0xbd856d2f	-0.06514966
5	0x3dc443f9	0.09583277
6	0x3e4951f4	0.19660169
7	0xbe12c93a	-0.14334574
8	0x3d51ed9e	0.051252
9	0x3e076c51	0.13224913
10	0xbd732d3e	-0.05936932
11	0x3e54ff46	0.20800504
12	0x3d4c83f6	0.049930535
13	0x3d3b2f80	0.045699596
14	0xbdce2219	-0.10065097
15	0xbe6ee593	-0.23329763
16	0x3d2ae920	0.04172623
17	0xbd0983f5	-0.03357311
18	0xbd3eed23	-0.04661287
19	0x3e363a23	0.17795615
20	0xbe0e076c	-0.13870019
21	0x3dc66038	0.09686321
22	0xbe0dd946	-0.13852414
23	0xbe12ffdd	-0.14355417
24	0x3d23b17b	0.03996418
25	0xbe0f47bd	-0.1399221
26	0x3e1f30fb	0.15546028
27	0x3d04af89	0.032393966
28	0xbdb2eac0	-0.08736181
29	0x3e50ddb4	0.20397073
30	0x3d56783d	0.052360762
31	0xbe63d65b	-0.22249739
32	0x3dd62617	0.10456484
33	0xbdda683c	-0.106644124
34	0x3d72af94	0.059249476
35	0xbe3eb872	-0.18625048
36	0xbdcbcf7f	-0.09951686
37	0x3de347de	0.11097692
38	0xbe1c240a	-0.15248123
39	0x3e068a7b	0.13138764
40	0x392b517b	0.00016338185
41	0x3ded3cb3	0.11583843
42	0xbd1b18d0	-0.03786546
43	0x3d5a737c	0.05333279
44	0xbd7f1c12	-0.06228263
45	0x3e02b1a0	0.12763071
46	0x3e7f774d	0.24947853
47	0xbe41c899	-0.18924178
48	0x3d48e161	0.049043063
49	0xbc15e7fc	-0.009149548
50	0xbe3fecdb	-0.18742697
51	0xbe32085e	-0.17386004
52	0xbda4ee17	-0.080532245
53	0xbde7b516	-0.11313836
54	0xbd635163	-0.05549754
55	0x3e41ffee	0.18945286
56	0x3d7a2f32	0.061080165
57	0x3e316025	0.17321832
58	0x3d4175f0	0.047231615
59	0x3d81f616	0.06345765
60	0xbddead67	-0.108729176
61	0x3e1dc261	0.15406181
62	0xbd83da88	-0.06438166
63	0x3d064435	0.03277989
64	0x3da7d8eb	0.08195671
65	0x3dc905d5	0.098155655
66	0xbc96e075	-0.018417576
67	0x3e09b13e	0.13446519
68	0x3e2063ef	0.15663122
69	0xbe820c9a	-0.2540024
70	0x3df31e76	0.11871044
71	0xbd9d7fdb	-0.07690402
72	0xbd7008e2	-0.05860222
73	0x3dde0db6	0.10842459
74	0x3d98b3ef	0.074561946
75	0x3de883d2	0.11353268
76	0x3df7eea0	0.12106061
77	0x3d9f354e	0.07773839
78	0x3d7c30ae	0.061569862
79	0x3d61092b	0.054940384
80	0x3e2b56b8	0.167323
81	0xbe0471e9	-0.12934078
82	0x3e839ceb	0.25705656
83	0xbdd11468	-0.1020897
84	0xbda2e5ae	-0.07953964
85	0xbd49680e	-0.0491715
86	0x3e668d06	0.22514734
87	0xba409179	-0.0007345896
88	0x3e228bbf	0.15873621
89	0x3d26674f	0.040625867
90	0xbdc0b718	-0.09409922
91	0xbce89c04	-0.028394707
92	0x394741d0	0.00019002636
93	0xbd347acd	-0.044062424
94	0x3c321276	0.010868659
95	0xbe81cad5	-0.2535006
96	0xbe6806b5	-0.22658809
97	0xbe137047	-0.14398299
98	0xbbf5e2fe	-0.007503866
99	0x3da947e5	0.08265666
100	0xbe2cbb44	-0.16868311
101	0xbda86d9b	-0.082240306
102	0xbd09fdc9	-0.033689294
103	0x3de48b6f	0.11159407
104	0x3e417fa7	0.18896352
105	0xbdc230f8	-0.09481996
106	0xbd3a726a	-0.04551927
107	0xbdaa62ab	-0.08319601
108	0x3e26e8b3	0.16299705
109	0x3dca5981	0.09880353
110	0xbe1a9eb6	-0.15099606
111	0x3dc48247	0.09595161
112	0x3c43407f	0.011917233
113	0xbe1dfc0a	-0.15428177
114	0x3d715196	0.058915697
115	0xbdb354b8	-0.08756393
116	0x3bfc0911	0.0076915105
117	0xbe367251	-0.17817046
118	0xbdd94f5b	-0.10610839
119	0x3d01e814	0.031715468
120	0xbd8f4dcb	-0.0699726
121	0x3cdd7184	0.027031668
122	0x3e0848c9	0.13309015
123	0xbd52d889	-0.051476035
124	0xbe31632d	-0.17322989
125	0x3e0f1239	0.13971795
126	0xbe0bb16e	-0.13641903
127	0xbc093d1b	-0.008376385
128	0xbdd280d7	-0.102784805
129	0xbe2bcefd	-0.16778179
130	0xbdc57b85	-0.096427
131	0xbe44d2da	-0.19221058
132	0xbd91a96f	-0.07112395
133	0xbd7bbb53	-0.061457943
134	0x3d621f1b	0.055205446
135	0x3e2aafe9	0.16668667
136	0xbe1e7665	-0.15474851
137	0x3d57cffd	0.052688587
138	0xbe45eb5e	-0.19328067
139	0xbceb704b	-0.028740069
140	0x3d72c34b	0.059268277
141	0x3e3ae73b	0.1825227
142	0xbcdc6e2a	-0.026907999
143	0xbbe694a2	-0.0070367614
144	0xbdff0a41	-0.12453128
145	0x3dc6b3e5	0.09702281
146	0x3e043b8f	0.12913345
147	0x3dc90228	0.098148644
148	0x3e3e45ec	0.1858136
149	0x3d86ee0b	0.06588372
150	0x3dc1303b	0.09433027
151	0xbbe7ab0a	-0.00706995
152	0x3e0a63e0	0.13514662
153	0x3dae5526	0.085123345
154	0x3e7e9614	0.24861938
155	0x3d7bc216	0.06146439
156	0xbe02d69e	-0.12777182
157	0xbe58dccd	-0.21177979
158	0x3d9c8c1a	0.0764391
159	0x3db91a4f	0.09038221
160	0xbb7ad565	-0.0038274166
161	0x3e710d63	0.23540263
162	0xbe17ea23	-0.1483541
163	0xbd7af26a	-0.06126634
164	0xbda776bd	-0.081769444
165	0x3e04a032	0.12951735
166	0xbe01335e	-0.12617251
167	0xbe85a16d	-0.2609972
168	0x3e407999	0.18796386
169	0x3db6211c	0.08893034
170	0x3d69a193	0.057038855
171	0x3d607678	0.05480048
172	0x3e08e44f	0.13368343
173	0xbceb6193	-0.02873305
174	0xbdd2a234	-0.10284844
175	0xbdd986aa	-0.10621388
176	0x3de9c6b0	0.1141485
177	0x3ddaa8a0	0.10676694
178	0xbe25fe70	-0.16210341
179	0xbe046ebc	-0.12932867
180	0x3de34bbf	0.11098432
181	0x3d877252	0.06613602
182	0xbd63470b	-0.055487674
183	0xbbfba664	-0.0076797474
184	0x3c063c30	0.008193061
185	0xbc979aff	-0.018506525
186	0x39fd171c	0.00048273138
187	0x3e3ca140	0.18420887
188	0x3e049fb6	0.1295155
189	0xbc47cb56	-0.012194475
190	0x3cda425f	0.026642976
191	0xbdd49133	-0.10379257
192	0xbde1b2dc	-0.11020443
193	0xbccd77b4	-0.025081493
194	0x3e107a08	0.14109051
195	0xbdd4d077	-0.10391324
196	0xbdb6c656	-0.08924548
197	0x3e5e444b	0.21705739
198	0x3e2a3cad	0.16624708
199	0x3c3e42e9	0.011612632
200	0xbe06d7bd	-0.13168235
201	0x3ba6f65c	0.0050952863
202	0xbd73bed9	-0.05950818
203	0xbd73f593	-0.05956037
204	0xbe4d5e5d	-0.20055528
205	0xbda0ac14	-0.07845321
206	0xbe46c420	-0.19410753
207	0xbd7dd4bc	-0.061970457
208	0x3cf4dd52	0.02989069
209	0xbd5c54ad	-0.05379169
210	0x3d175be2	0.03695286
211	0x3e444f36	0.19170842
212	0x3e341647	0.17586623
213	0xbda42bd9	-0.08016176
214	0x3ddbb8be	0.10728596
215	0xbe15d782	-0.14632991
216	0xbcba02de	-0.022706445
217	0xbdc5b4ba	-0.096536115
218	0xbb3f55be	-0.0029195393
219	0xbe334d5b	-0.17509978
220	0x3dd4a69f	0.10383343
221	0x3ce7300e	0.028221156
222	0x3dea55d9	0.114421554
223	0x3d971459	0.07376928
224	0x3dbaa503	0.09113505
225	0x3d6f7464	0.058460608
226	0xbbdc9c1a	-0.006732476
227	0xbdd18068	-0.1022957
228	0xbd3467e5	-0.044044394
229	0x3e2c2688	0.16811574
230	0x3e425482	0.1897755
231	0x3db474a9	0.08811314
232	0xbe0a257e	-0.13490865
233	0x3d3627d8	0.04447159
234	0xbcdc6134	-0.026901819
235	0x3db805f5	0.08985511
236	0xbdb20833	-0.0869297
237	0x3d694db8	0.056958884
238	0xbd175de8	-0.03695479
239	0xbd82466c	-0.06361088
240	0x3e65b916	0.22433886
241	0x3df057bc	0.11735484
242	0x3e02171f	0.12704132
243	0xbd749165	-0.05970897
244	0x3d2c04fb	0.041996937
245	0x3d9230d3	0.07138219
246	0xbcaa4e36	-0.020789247
247	0xbe246007	-0.16052257
248	0x3e26e989	0.16300024
249	0x3e19686d	0.14981242
250	0xbd609305	-0.05482771
251	0xbd967ffa	-0.07348628
252	0xbde02083	-0.10943701
253	0x3e54832d	0.20753165
254	0xbdb0abd7	-0.08626526
255	0xbcb2a407	-0.02180673

conv1.3.bias f4 [12]
0	0xbe2aa3b4	-0.1666401
1	0x3e06628b	0.13123529
2	0xbe1c7b1f	-0.15281342
3	0xbd8a1638	-0.06742519
4	0xbbdb9fe4	-0.00670241
5	0xbe292d14	-0.16521102
6	0x3d858c22	0.06520869
7	0x3e3c8ac3	0.18412308
8	0xbe1b7bc3	-0.1518393
9	0xbd3cc8ac	-0.046089813
10	0x3e27bca0	0.16380548
11	0x3e2146f1	0.15749718

conv1.4.weight f4 [12]
0	0x3f8416f2	1.0319502
1	0x3f82e5f2	1.0226424
2	0x3f802a58	1.0012922
3	0x3f824045	1.0175864
4	0x3f80a3fc	1.0050044
5	0x3f80bf8b	1.0058454
6	0x3f80eb00	1.0071716
7	0x3f82cd3d	1.0218884
8	0x3f8242c1	1.0176622
9	0x3f8529aa	1.040334
10	0x3f80bfdc	1.0058551
11	0x3f823a5f	1.0174063

conv1.4.bias f4 [12]
0	0x3c0c3b90	0.008559123
1	0xbc301a03	-0.010748389
2	0xbc5cf4ac	-0.013486069
3	0x3bdc9f56	0.0067328615
4	0xbc25d6f5	-0.0101220505
5	0xbc264928	-0.010149278
6	0xbc13bf78	-0.009017818
7	0xbc26699a	-0.010157013
8	0xbc2445e1	-0.010026426
9	0x3c18974f	0.0093134185
10	0xbc262c26	-0.010142362
11	0x3c0beeae	0.008540792

conv1.4.running_mean f4 [12]
0	0xbea491e2	-0.3214255
1	0x3e3ba82f	0.18325876
2	0xbe00a4fb	-0.12562935
3	0x3e435c18	0.190781
4	0xbe71e4bf	-0.23622416
5	0xbebd99b6	-0.37031335
6	0x3e8b219f	0.27174088
7	0x3eb2dd29	0.34934357
8	0xbe7c82d6	-0.24659285
9	0x3d46f389	0.048572097
10	0x3ee64ed7	0.44982025
11	0x3e758236	0.23975453

conv1.4.running_var f4 [12]
0	0x3dc67958	0.09691113
1	0x3d7036a2	0.058645852
2	0x3e0b8c14	0.13627654
3	0x3e0d720d	0.13813038
4	0x3e324178	0.17407787
5	0x3dfb5687	0.12272363
6	0x3e0b1197	0.13580929
7	0x3d812f18	0.063078105
8	0x3d2e544b	0.042560857
9	0x3d6aac3b	0.057293158
10	0x3e073a3f	0.13205813
11	0x3d8bbd9e	0.06823276

conv2.0.weight f4 [12, 15, 3]
0	0xbe18e3d7	-0.14930664
1	0xb9dc0335	-0.0004196406
2	0xbe021ac8	-0.12705529
3	0x3d9754aa	0.07389195
4	0x3d70fcc0	0.05883479
5	0xbd5df0ec	-0.05418484
6	0xbd253743	-0.040335905
7	0x3e3092bc	0.17243475
8	0x3cdf07b8	0.02722536
9	0xbd9559b1	-0.07292498
10	0x3b89dc91	0.004207202
11	0xbde45ec4	-0.111508876
12	0x3be49a19	0.0069763777
13	0x3d277204	0.04088022
14	0xbc2e6a90	-0.010645524
15	0xba809052	-0.0009808636
16	0x3e250e33	0.16118698
17	0x3d10136a	0.035174765
18	0x3ce944f2	0.028475258
19	0x3e0032ee	0.12519428
20	0xbd028f0d	-0.031874705
21	0xbd9f7c8e	-0.07787429
22	0x3df11349	0.117712565
23	0xbdc28014	-0.09497085
24	0xbdbc07a3	-0.09181144
25	0x3de686f8	0.11256212
26	0x3e001ac8	0.12510216
27	0xbe1eeabf	-0.15519236
28	0x3d6fc517	0.05853757
29	0x3d8ae140	0.06781244
30	0xbdf811ab	-0.12112745
31	0xbda433f0	-0.08017719
32	0x3db6d64c	0.08927593
33	0xbde56e02	-0.11202623
34	0x3de3a360	0.11115146
35	0x3dae68a4	0.08516052
36	0x3d1d1a0c	0.03835492
37	0x3d8f63ce	0.07001458
38	0xbdc376c4	-0.09544137
39	0x3df71dff	0.12066268
40	0x3d6a4e4b	0.057203572
41	0xbd8a7a1c	-0.06761572
42	0x3e1ab0eb	0.15106551
43	0x3e135970	0.14389586
44	0xbdd2a48d	-0.10285292
45	0x3ca870cc	0.020561598
46	0xbdb16f45	-0.08663801
47	0x3e10dae3	0.14145999
48	0x3a41fd25	0.0007400087
49	0x3cb35484	0.021890886
50	0x3dd8d0bf	0.1058669
51	0xbca494b0	-0.020090431
52	0x3e1ef646	0.15523633
53	0xbd46b589	-0.04851297
54	0xbd591fac	-0.05300872
55	0xbe0f8399	-0.14015044
56	0x3c8f1559	0.017466234
57	0xbe2be4cb	-0.16786496
58	0x3e264de9	0.16240658
59	0xbd7bfe28	-0.06152168
60	0x3e0fa3b9	0.14027299
61	0xbdfe71fd	-0.12424085
62	0xbd61cc3d	-0.055126417
63	0x3dbf33d1	0.09336055
64	0x3d2c1291	0.042009894
65	0x3dc9d7ec	0.09855637
66	0x3dde1ef2	0.10845746
67	0xb98b0f9c	-0.00026523776
68	0xbdbac4ab	-0.09119543
69	0xbd9cb782	-0.07652189
70	0x3e03f753	0.12887315
71	0x3cebe55b	0.028795889
72	0xbce0e7a8	-0.027454212
73	0xbd9298d1	-0.07158054
74	0xbc10a577	-0.008828512
75	0x3c2be9e1	0.010492773
76	0xbd0f16d3	-0.034933876
77	0xbdb12e90	-0.08651459
78	0xbe0004fd	-0.12501903
79	0x3d4fa7e8	0.050697237
80	0x3e31c5b6	0.17360577
81	0xbd6199e7	-0.055078413
82	0xbdef8f60	-0.116972685
83	0x3d432780	0.047645092
84	0xbd0ab92d	-0.033868004
85	0xbaf99610	-0.0019041914
86	0xbc3e5d6e	-0.011618955
87	0x3d35cdc4	0.044385687
88	0x3d0de441	0.034641508
89	0x3d77470d	0.060370494
90	0x3dcbaf94	0.09945598
91	0xbcbb600d	-0.022872949
92	0x3e2013de	0.15632579
93	0xbcd55ada	-0.026044298
94	0xbda2c794	-0.07948223
95	0x3d8abd67	0.06774407
96	0x3da81d8b	0.0820876
97	0x3dba9d9e	0.09112094
98	0xbdc90abe	-0.09816502
99	0x3dd0dd85	0.101985015
100	0x3dc64080	0.09680271
101	0x3bec0d95	0.0072037675
102	0x3e201787	0.15633975
103	0x3e085314	0.13312942
104	0xbb39a1fe	-0.0028325315
105	0x3df6e063	0.12054517
106	0x3cca8f9d	0.024726683
107	0x3dce6cab	0.100793205
108	0xbc4d8d5c	-0.01254591
109	0xbd6315e2	-0.05544079
110	0x3d5525b0	0.052037895
111	0xbe0a0469	-0.13478245
112	0xbd9252a8	-0.07144672
113	0x3dd48e99	0.10378761
114	0xbd4b5343	-0.04963995
115	0xbdffa8c7	-0.124833636
116	0x3d8f5d9a	0.07000275
117	0x3daa25eb	0.083080135
118	0xbe23ad35	-0.15984042
119	0xbdce11df	-0.100620024
120	0x3cd02b61	0.02541131
121	0x3e045288	0.12922108
122	0xbd2c2442	-0.042026766
123	0x3d8ab855	0.0677344
124	0xbdb62a0e	-0.0889474
125	0xbdae5cdd	-0.08513806
126	0x3b6fed35	0.0036609892
127	0xbc9e745b	-0.019342592
128	0x3d2d8d5d	0.042371143
129	0x3c925e15	0.017867127
130	0xbdaec094	-0.08532825
131	0xbc0575d1	-0.008145765
132	0xbe00e405	-0.12586983
133	0xbb8dc5e7	-0.0043265703
134	0xbe08e98e	-0.13370344
135	0x3d100985	0.03516533
136	0x3d935bda	0.07195254
137	0x3d2e01ed	0.042482305
138	0xbdf91bb8	-0.1216349
139	0x3e147f37	0.14501654
140	0xbe07d074	-0.13263112
141	0x3de2eb79	0.11080069
142	0x3d950ad7	0.07277458
143	0x3dbe1ddf	0.09283041
144	0xbd16d958	-0.03682837
145	0x3d2cbbd0	0.0421713
146	0x3dc90298	0.09814948
147	0xbdb60463	-0.088875555
148	0xbc433b52	-0.0119159985
149	0x3d3c8bd3	0.046031784
150	0xbde55b5d	-0.11199067
151	0xbdc75e47	-0.09734779
152	0xbe2f2140	-0.17102528
153	0x3e0cfe02	0.13768771
154	0xbda482ba	-0.080327466
155	0x3c8380b9	0.01605259
156	0x3db39ec1	0.08770514
157	0x3e35134c	0.17683142
158	0xbe0b9c2c	-0.13633794
159	0xbd3fbe54	-0.04681237
160	0xbe0bf6ff	-0.1366844
161	0x3db8ef7c	0.09030053
162	0x3e357a49	0.1772243
163	0x3d907dfe	0.07055281
164	0x3d2eafe9	0.04264823
165	0xbc9c699c	-0.019093327
166	0x3dd0de5e	0.10198663
167	0x3e325680	0.1741581
168	0x3d8f2eae	0.06991325
169	0xbd17152e	-0.036885433
170	0xbcf5d7e0	-0.030010164
171	0x3d80d628	0.06290847
172	0x3d0d7c4a	0.03454236
173	0xbd9f1df8	-0.07769388
174	0xbd81b1bd	-0.06332729
175	0xbde841a1	-0.11340643
176	0x3d177b76	0.036982976
177	0x3e0843d9	0.13307132
178	0x3e0b69b7	0.13614546
179	0x3c435219	0.011921429
180	0x3d6e81ab	0.05822913
181	0x3e0a5b4c	0.1351139
182	0x3dcbea04	0.09956744
183	0xba7731fe	-0.00094297517
184	0xbd90099d	-0.070330836
185	0xbd80bb99	-0.062857814
186	0xbddbd56e	-0.10734068
187	0xbe3324a1	-0.17494442
188	0x3e060a21	0.13089801
189	0xbdb36155	-0.08758799
190	0x3de89f65	0.11358527
191	0xbd899dca	-0.06719549
192	0x3d91bf04	0.071165115
193	0x3d896f6b	0.067107044
194	0xbde0022b	-0.109379135
195	0xbdf4d7ad	-0.119551994
196	0x3d98ca84	0.07460502
197	0xbc005c2b	-0.007834475
198	0xbdd9404a	-0.10607965
199	0x3b9fe16f	0.0048791687
200	0xbe1ce6d6	-0.15322432
201	0x3b0f6740	0.002188161
202	0x3d09f7d3	0.03368361
203	0xbc8b653f	-0.017016051
204	0x3e066137	0.13123022
205	0x3e2d1b97	0.16905056
206	0x3cdf35dc	0.027247362
207	0xbd6abdd4	-0.05730994
208	0x3ccdbad8	0.025113508
209	0xbcb07cfe	-0.021543976
210	0xbd05c7d2	-0.032661267
211	0xbda1ed73	-0.07906618
212	0xbe2c4c3b	-0.16825955
213	0x3d8da789	0.069167204
214	0xbd107374	-0.035266355
215	0x3e6fbacc	0.23411101
216	0x3d28499c	0.041085824
217	0xbd580306	-0.05273726
218	0xbe1c40e8	-0.15259135
219	0x3df646d4	0.12025228
220	0x3df1eb73	0.118124865
221	0xbd1ab848	-0.0377734
222	0x3c1fc366	0.009751176
223	0xbc9d6b80	-0.019216299
224	0xbe0c2daa	-0.13689294
225	0x3d003c3b	0.03130744
226	0x3ce4d0ae	0.027931537
227	0x3e201fc1	0.15637113
228	0xbc5d5f4d	-0.013511491
229	0xbc876b5b	-0.016530683
230	0xbdec2942	-0.11531307
231	0x3d04fb31	0.032466117
232	0x3d94385b	0.072373115
233	0x3d72fb95	0.05932196
234	0x3d2c0a27	0.04200187
235	0xbd2e13ee	-0.042499475
236	0xbd317682	-0.04332591
237	0x3d535d1d	0.05160247
238	0x3d3ba00c	0.04580693
239	0xbd4ffa94	-0.05077608
240	0xbc2536de	-0.010083882
241	0x3d6126fc	0.05496882
242	0xbde32f06	-0.110929534
243	0x3d70c94a	0.058785714
244	0xbaa91384	-0.0012899493
245	0xbd149b1a	-0.03628073
246	0x3e0e583e	0.13900849
247	0x3d6d40df	0.057923194
248	0x3def183f	0.116745465
249	0x3e0dc9f6	0.13846573
250	0xbc376801	-0.01119423
251	0x3c9a0635	0.018801788
252	0xbc11e1c2	-0.0089039225
253	0x3ce20c6b	0.027593812
254	0x3e2fd637	0.1717156
255	0x3d35b301	0.044360165

conv2.0.bias f4 [12]
0	0xbdb2e990	-0.08735955
1	0x3d500e9d	0.050795186
2	0x3dc36c98	0.09542197
3	0x3d458c94	0.04822977
4	0xbdae7464	-0.085182935
5	0xbddf2e57	-0.108975105
6	0x3da70789	0.08155734
7	0xbde8e4cf	-0.11371767
8	0x3c9e744f	0.01934257
9	0xbad67ec4	-0.0016364683
10	0x3d4f7e66	0.050657652
11	0xbdcc09b3	-0.099627875

conv2.1.weight f4 [12]
0	0x3f8179d8	1.0115309
1	0x3f70e31b	0.94096535
2	0x3f761d1a	0.96138155
3	0x3f7d1383	0.988579
4	0x3f81b3f1	1.0133039
5	0x3f843bf4	1.0330796
6	0x3f85d884	1.04567
7	0x3f63fbd5	0.8905614
8	0x3f79af55	0.9753316
9	0x3f8292ef	1.020109
10	0x3f81d207	1.014222
11	0x3f8ba37b	1.0909265

conv2.1.bias f4 [12]
0	0x3c5fa08b	0.013649116
1	0xbdfbafc9	-0.12289388
2	0xbce83974	-0.028347708
3	0xbd3c240f	-0.045932826
4	0xbbb50f18	-0.005525481
5	0x3c2b7551	0.010464982
6	0xbd254179	-0.040345643
7	0xbe3fe07a	-0.18737975
8	0xbcdf9992	-0.027294908
9	0xbc9e1823	-0.019298619
10	0xbd9c85a6	-0.07642679
11	0xbd228d81	-0.03968573

conv2.1.running_mean f4 [12]
0	0xbec42f94	-0.3831755
1	0x3eef5a77	0.46748707
2	0x3f1d215f	0.61379045
3	0x3ec1bcc2	0.37839323
4	0x3e00e49f	0.12587212
5	0x3e38504e	0.17999384
6	0x3f13e943	0.57777804
7	0x3eb821be	0.35963243
8	0x3e6c2ec8	0.2306472
9	0x3eb5dc14	0.3551947
10	0x3efbf3b9	0.49209383
11	0x3eeb6444	0.45974934

conv2.1.running_var f4 [12]
0	0x40bde3eb	5.934072
1	0x40eb62c1	7.355805
2	0x41015d99	8.085351
3	0x40ba64f4	5.8248234
4	0x40d029a2	6.505082
5	0x4081bd8e	4.054389
6	0x40bffcb6	5.9995985
7	0x40e2bf14	7.085825
8	0x40cc22ee	6.379264
9	0x40a1b2e4	5.053087
10	0x40b643be	5.6957693
11	0x40afa841	5.489289

conv2.3.weight f4 [12, 12, 3]
0	0x3d502611	0.050817553
1	0x3d0ede1c	0.03487979
2	0x3e438c6e	0.19096538
3	0x3d7863b4	0.06064196
4	0xbe2ba931	-0.1676376
5	0xbdf44785	-0.11927704
6	0xbe13ddbe	-0.14440057
7	0xbd889090	-0.06668198
8	0xbc785fb7	-0.015159539
9	0xbc8cf81c	-0.017208152
10	0x3daa779d	0.08323596
11	0x3ba01141	0.0048848693
12	0xbddc3360	-0.107519865
13	0xbcb5187f	-0.022106407
14	0xbdd234ce	-0.10263978
15	0x3d736036	0.059417926
16	0x3e5aec62	0.21379235
17	0xbcf7dab4	-0.030255653
18	0xbdba6f4e	-0.09103261
19	0xbc7fed23	-0.015620503
20	0x3d1b1a80	0.03786707
21	0xbdd88a0c	-0.10573205
22	0x3b94116e	0.0045186793
23	0xbbfe15b0	-0.00775405
24	0xbb4b3fab	-0.003101329
25	0xbdde9670	-0.108685374
26	0x3e1dfc36	0.15428242
27	0x3e044cfb	0.1291999
28	0x3d0d7790	0.03453785
29	0x3c5d41be	0.013504444
30	0x3e0a6ef1	0.13518883
31	0xbd8051d3	-0.06265607
32	0xbd19bb38	-0.03753206
33	0xbd3cc8be	-0.04608988
34	0x3de23576	0.11045353
35	0xbdb4de55	-0.08831469
36	0xbe23422a	-0.15943208
37	0xbe1b6c20	-0.15177965
38	0x3e254ffe	0.16143796
39	0xbda8f0ce	-0.08249055
40	0xbdcd593e	-0.10026787
41	0x3d9ce57b	0.076609574
42	0x3dba8eb1	0.091092475
43	0x3dfc19e3	0.12309625
44	0xbba44965	-0.005013632
45	0x3d6cfb4d	0.057856847
46	0xbd012361	-0.03152788
47	0xbe22c50a	-0.15895477
48	0xbdadeaa7	-0.08492022
49	0x3d384dcb	0.044996064
50	0x3dd3122e	0.10306202
51	0x3e29f88d	0.16598721
52	0xbd8212f1	-0.06351269
53	0x3ca3fa54	0.020016827
54	0x3decd2f4	0.115636736
55	0xbd6809b3	-0.056649875
56	0x3d447e94	0.047972277
57	0xbcf52b0f	-0.029927758
58	0x3e0183f2	0.1264799
59	0x3d3b6a7d	0.045755852
60	0x3cbac49c	0.022798829
61	0xbd7efed1	-0.06225473
62	0xbde4dbd3	-0.11174741
63	0xbd9bad67	-0.07601433
64	0x3d85d733	0.065351866
65	0x3d44cbfd	0.0480461
66	0x3d876e23	0.06612804
67	0x3db8bedf	0.09020781
68	0x3e25ce39	0.16191949
69	0xbe598189	-0.2124082
70	0xbb11c61d	-0.002224333
71	0xbdde718f	-0.10861503
72	0x3e58c8a9	0.21170296
73	0xbd20aa23	-0.039224755
74	0xbd26c0d3	-0.040711235
75	0x3c8782ed	0.016541922
76	0x3d87eeeb	0.06637367
77	0x3de35d72	0.11101808
78	0x3da5a35e	0.080878004
79	0x3d19d4c3	0.03755642
80	0x3e1af4a3	0.15132384
81	0x3e11b302	0.14228442
82	0xbdfb2c46	-0.12264304
83	0x3de1221d	0.10992835
84	0x3dd7af90	0.10531533
85	0x3dba4372	0.090948954
86	0xbd7de7f3	-0.061988782
87	0xbe3c820e	-0.18408987
88	0xbd1b3c05	-0.037899036
89	0xbdfe9623	-0.1243098
90	0xbcec9e44	-0.02888406
91	0xbe1b40d4	-0.15161449
92	0x3d285fbc	0.041106924
93	0x3dc4e7e0	0.09614539
94	0xbda29bb7	-0.079398565
95	0xbe1bdb8f	-0.15220474
96	0x3cce0f31	0.025153728
97	0x3dd922fb	0.10602375
98	0x3da32544	0.07966092
99	0xbe201470	-0.15632796
100	0xbd0e7ba3	-0.034785878
101	0xbe2041b3	-0.15650062
102	0xbe08f29c	-0.13373798
103	0xbdc3226a	-0.09528048
104	0x3e08f52f	0.1337478
105	0xbe10dbdb	-0.14146368
106	0x3d11da0c	0.035608336
107	0x3e22ebd2	0.15910271
108	0x3cf58530	0.029970735
109	0xbc2df65a	-0.010617817
110	0x3e013147	0.12616454
111	0xbdfc4c5f	-0.12319254
112	0xbda68750	-0.081312776
113	0xbe1bd80f	-0.15219139
114	0xbaf052aa	-0.0018335183
115	0xbb8d3675	-0.0043094703
116	0x3da04cd2	0.07827152
117	0x3e002c96	0.12517008
118	0x3cd687c0	0.026187778
119	0x3c749763	0.0149286715
120	0x3dbc8eff	0.09206962
121	0x3da7c288	0.08191401
122	0xbe0fe072	-0.14050463
123	0xbe58f875	-0.21188529
124	0x3d2783eb	0.04089729
125	0x3d6882a2	0.056765206
126	0xbdd63ca1	-0.10460783
127	0x3e388b8f	0.18021987
128	0x3ce67693	0.028132712
129	0x3e55bbad	0.20872374
130	0xbe151c8a	-0.14561668
131	0x3e0602ca	0.13087001
132	0xbdffeb14	-0.124960095
133	0x3d1926f6	0.03739067
134	0xbcc4a514	-0.024004497
135	0xbe0d5217	-0.13800846
136	0x3db2b66f	0.08726203
137	0x391f36eb	0.0001518388
138	0xbdf746f2	-0.120740786
139	0xbd729fd3	-0.05923445
140	0x3d969e11	0.073543675
141	0x3dcad99f	0.09904789
142	0xbd58044b	-0.05273847
143	0x3cc20eea	0.023688752
144	0xbdaa4a0b	-0.08314904
145	0xbcf72a3e	-0.03017151
146	0x3db04832	0.0860752
147	0x3def77a3	0.11692741
148	0x3cc64c81	0.024206402
149	0xbd74baa5	-0.05974831
150	0xbd723168	-0.05912915
151	0x3de129f0	0.10994327
152	0xbdc715fe	-0.097209916
153	0xbdcabad6	-0.098989174
154	0xbc989857	-0.018627329
155	0x3cec3022	0.028831545
156	0xbe3f5f6e	-0.18688747
157	0xbe283e5f	-0.16430043
158	0x3db04761	0.086073644
159	0xbcd98236	-0.026551347
160	0xbc8be8d4	-0.017078795
161	0x3b60c05d	0.0034294345
162	0x3e59dac2	0.21274856
163	0x3e27a9a6	0.1637331
164	0xbd31112c	-0.043229267
165	0xbda5c8d0	-0.080949426
166	0x3dfac6bf	0.12244939
167	0xbd29bcaf	-0.04143971
168	0x3dea0657	0.114269905
169	0xbdd960d6	-0.10614173
170	0x3d241e72	0.040068097
171	0x3c5f5bf8	0.013632767
172	0xbdd0d12a	-0.10196145
173	0xbd9d443c	-0.0767903
174	0xbdda1a2b	-0.106495224
175	0x3c3405b0	0.010987684
176	0x3e23504d	0.15948601
177	0x3d46737a	0.04844997
178	0x3d521fd9	0.051299904
179	0x3d5433c9	0.0518072
180	0xbd3a4630	-0.045477092
181	0xbe6096ad	-0.21932478
182	0xbd04a37a	-0.032382466
183	0x3d79b641	0.060964826
184	0xbdcc6943	-0.099810146
185	0xbc035d01	-0.008017779
186	0xbdcc35d9	-0.09971208
187	0x3d358396	0.044314943
188	0xbd9fbacd	-0.07799301
189	0x3d734825	0.059394974
190	0xbd9bcd75	-0.07607547
191	0xbe1d3364	-0.15351635
192	0x3deb691f	0.1149466
193	0xbd921f44	-0.0713487
194	0x3dd4ef00	0.10397148
195	0x3c50f80d	0.012754452
196	0xbdaf2f50	-0.08553946
197	0x3e36d23e	0.17853639
198	0x3e319a05	0.1734391
199	0xbcd52cd5	-0.026022354
200	0x3d4420b9	0.04788277
201	0xbb70ce66	-0.0036744117
202	0x3d366bc0	0.044536352
203	0xbd9a5e08	-0.07537466
204	0x3e1927ec	0.14956635
205	0x3b8e0f63	0.0043353303
206	0xbde807d4	-0.11329618
207	0x3dfcd1a8	0.12344676
208	0xbd9938b5	-0.07481519
209	0x3c27a408	0.010231979
210	0x3d17df7a	0.03707836
211	0x3ce8d425	0.02842147
212	0xbd089962	-0.033349402
213	0xbdc4a1b0	-0.09601152
214	0x3e10b0c7	0.14129935
215	0xbdfbe448	-0.122994006
216	0x3da4c374	0.08045092
217	0x3dd60e40	0.10451937
218	0xbc981c9f	-0.018568335
219	0xbd9706b4	-0.073743254
220	0xbd8f2c90	-0.069909215
221	0xbe0e3e9a	-0.13891068
222	0x3ce91bc0	0.028455615
223	0x3dbaa1b5	0.091128744
224	0xbb9b20f2	-0.004734152
225	0x3de2188b	0.110398374
226	0xbd9e1a5d	-0.07719872
227	0xbdaba8fc	-0.083818406
228	0xbcaa2b1f	-0.020772515
229	0xbddc9dae	-0.107722625
230	0x3c9f8250	0.019471318
231	0x3e26a803	0.16275029
232	0xbd7ea9bc	-0.06217359
233	0xbdcf8a34	-0.10133782
234	0x3d895877	0.067063265
235	0xbe0fb946	-0.1403552
236	0xbe2904d4	-0.16505748
237	0xbd6bdd36	-0.05758401
238	0xbd715269	-0.058916483
239	0xbde1210b	-0.109926306
240	0x3e20caeb	0.15702407
241	0xbd7e0846	-0.06201961
242	0x3dbd7cef	0.09252345
243	0xbbc142a9	-0.005897839
244	0x3ddcaa9b	0.10774728
245	0x3d6e2a6c	0.058145925
246	0xbdbe9239	-0.093052335
247	0x3e4174d7	0.18892227
248	0xbd0b5b98	-0.034022897
249	0x3e01c959	0.12674464
250	0xbd702b99	-0.058635328
251	0x3e09e04d	0.1346447
252	0xbdfb41c1	-0.12268401
253	0xbd94e9ac	-0.07271132
254	0x3e3f7c0c	0.18699664
255	0xbb826cef	-0.003980271

conv2.3.bias f4 [12]
0	0x3e024235	0.12720568
1	0xbd26898c	-0.04065852
2	0xbc1e94cf	-0.009679033
3	0xbddfe71e	-0.10932754
4	0xbbbb1bc2	-0.005710096
5	0x3e0c68a3	0.1371179
6	0xbd84b1f4	-0.06479254
7	0x3dd8d39d	0.10587237
8	0xbde2f86c	-0.11082539
9	0x3e1ea040	0.15490818
10	0x3e1aafbd	0.15106101
11	0xbdd854ad	-0.105630256

conv2.4.weight f4 [12]
0	0x3f83a856	1.0285747
1	0x3f856d37	1.0423955
2	0x3f850d3f	1.0394667
3	0x3f87121d	1.0552403
4	0x3f8593b9	1.0435706
5	0x3f85a230	1.0440121
6	0x3f867dc2	1.0507128
7	0x3f820af7	1.0159596
8	0x3f85b39c	1.0445437
9	0x3f7f7e50	0.9980211
10	0x3f7f9e00	0.99850464
11	0x3f893479	1.0719138

conv2.4.bias f4 [12]
0	0xbc2a6b11	-0.010401503
1	0x3c1b0981	0.009462715
2	0xbc2a9454	-0.010411341
3	0x3c17845c	0.0092478655
4	0x3c1dd451	0.00963314
5	0x3c1726db	0.009225572
6	0x3bc1cf5a	0.005914611
7	0xbc2d6c02	-0.010584833
8	0x3c195753	0.009359199
9	0xbc7367af	-0.014856263
10	0xbc72a069	-0.014808753
11	0x3c1174c3	0.008877936

conv2.4.running_mean f4 [12]
0	0x3e0afa66	0.13572082
1	0xbcdfb699	-0.027308749
2	0xbc2a7432	-0.01040368
3	0xbde8473f	-0.11341714
4	0x3ca22b43	0.01979602
5	0x3deff82c	0.11717257
6	0xbc9362df	-0.017991481
7	0xbbf35e5b	-0.0074270195
8	0xbe08200d	-0.13293476
9	0xbdac5388	-0.0841437
10	0x3d29d524	0.041463032
11	0xbdb4084d	-0.08790646

conv2.4.running_var f4 [12]
0	0x3d91b603	0.07114794
1	0x3ddaa237	0.10675471
2	0x3d86c8ea	0.0658129
3	0x3d961000	0.073272705
4	0x3d9cb2b5	0.07651273
5	0x3dba38da	0.09092875
6	0x3daea3ff	0.085273735
7	0x3dc6ba0d	0.09703455
8	0x3d9f3a4c	0.07774791
9	0x3e8a0c47	0.26962492
10	0x3d9f639c	0.07782671
11	0x3d72a567	0.05923977

conv3.0.weight f4 [12, 15, 4]
0	0xbb033c11	-0.0020024816
1	0xbd017ae5	-0.031611342
2	0xbd58e84f	-0.05295592
3	0x3d1a6271	0.037691537
4	0xbe1a31cc	-0.15058059
5	0x3dcb4c49	0.099266596
6	0xbdaeaa56	-0.08528583
7	0x3ba48d4e	0.0050217276
8	0x3ca3a55d	0.019976312
9	0x3ce707a5	0.028201887
10	0x3d723a8d	0.05913787
11	0xbd3dc893	-0.04633386
12	0xbda94645	-0.08265356
13	0xbddd5e04	-0.10808948
14	0xbd4b9bfc	-0.049709305
15	0xbcebad00	-0.028769016
16	0xbd58135a	-0.05275283
17	0x3d8c060a	0.06837089
18	0xbb62e858	-0.003462335
19	0xbc5dddae	-0.013541622
20	0x3d3476e7	0.044058707
21	0xbdaa3e58	-0.083126724
22	0xbdb6205e	-0.08892892
23	0xbd3dbc0c	-0.046321914
24	0x3df81f3f	0.12115335
25	0x3d8a0488	0.067391455
26	0x3da7c6d7	0.081922226
27	0xbc3f026d	-0.011658293
28	0xbc51ae09	-0.012797841
29	0xbdd5f670	-0.10447395
30	0x3d9932d4	0.07480398
31	0xbdd33e53	-0.10314622
32	0x3d589373	0.052874994
33	0xbdad009d	-0.084473826
34	0x3cc37801	0.023860933
35	0xbcb9b010	-0.022666961
36	0x3dba000c	0.0908204
37	0x3d055b0a	0.032557525
38	0xbd3fbb85	-0.046809692
39	0xbd1bec8b	-0.03806738
40	0x3d653bcb	0.055965226
41	0xbdb9291c	-0.09041044
42	0x3e0b4951	0.13602187
43	0xbc01945c	-0.007908907
44	0xbda1792f	-0.07884442
45	0x3d655112	0.055985518
46	0xbd4472f9	-0.04796121
47	0x3e455ca3	0.1927362
48	0xbe157bbf	-0.14597987
49	0xbd6ee1d2	-0.058320828
50	0x3db1a7b8	0.08674568
51	0xbdbbb09e	-0.091645464
52	0xbd78a79c	-0.06070672
53	0x3d8dd30e	0.06925021
54	0xbd02ee37	-0.03196546
55	0x3e666a72	0.22501543
56	0x3d542741	0.051795248
57	0x3d900a37	0.07033198
58	0xbcdb80cc	-0.026794814
59	0x3e051277	0.12995325
60	0x3ce811f6	0.028328877
61	0x3d39838e	0.045291476
62	0xbd8014a0	-0.06253934
63	0x3dec211f	0.11529755
64	0x3d9380a9	0.07202274
65	0x3dcb38d7	0.09922951
66	0xbcd7753b	-0.026301017
67	0x3db73af3	0.089467905
68	0x3e060d9a	0.13091126
69	0xbcab48c4	-0.02090872
70	0xbdcd0444	-0.10010579
71	0x3e0a2419	0.13490333
72	0xbdde1d01	-0.10845376
73	0xbb5a0586	-0.0033267452
74	0x3d7c7bf2	0.06164164
75	0xbd9dfc68	-0.07714158
76	0x3db8fb10	0.09032261
77	0x3d21c551	0.039494816
78	0xbca92b2a	-0.020650465
79	0x3deddbe9	0.1161421
80	0x3c69cd4d	0.014270139
81	0xbc34f12d	-0.011043829
82	0xbcd3fb93	-0.025876796
83	0xbd885402	-0.06656648
84	0xbcbb50df	-0.02286571
85	0xbd07d27b	-0.033159714
86	0xbdff2b1d	-0.12459395
87	0xbdde4f6c	-0.10854992
88	0x3dfd4b6e	0.12367903
89	0xbcc6426a	-0.02420159
90	0xbca2f703	-0.019893175
91	0x3db2c32c	0.08728632
92	0x3d128c23	0.035778176
93	0xbd147d0d	-0.03625207
94	0xbda770da	-0.081758216
95	0x3d43a9a3	0.0477692
96	0x3d868af2	0.065694705
97	0xbe60a166	-0.21936569
98	0x3dcb3873	0.09922876
99	0xbe177a24	-0.14792687
100	0xbd8c7bf0	-0.06859577
101	0xbce68395	-0.028138915
102	0x3ca109ad	0.019657934
103	0x3e381b0d	0.17979069
104	0xbd84a862	-0.06477429
105	0x3df4faf1	0.11961926
106	0xbd975dbd	-0.07390926
107	0x3e01111f	0.12604187
108	0xbdd8d537	-0.105875425
109	0x3c29a4b8	0.010354213
110	0xbc50cd45	-0.012744253
111	0x3c4ed3b4	0.012623716
112	0x3e721cdc	0.23643821
113	0x3df7bdce	0.12096749
114	0xbd3f9ef9	-0.046782468
115	0xbdf8a3ee	-0.12140642
116	0xbdbd03d1	-0.092292435
117	0xbe029fca	-0.12756267
118	0xbda9691e	-0.08272003
119	0x3dcb7503	0.099344276
120	0xbdf46366	-0.11933021
121	0x3dcc0680	0.09962177
122	0xbd270602	-0.040777214
123	0xbd0f5126	-0.0349895
124	0xbd679880	-0.05654192
125	0x3d70887f	0.058723923
126	0xbd0d5df9	-0.034513447
127	0xbcc03e5d	-0.023467237
128	0xbdcd11e1	-0.10013176
129	0xbd805e04	-0.06267932
130	0x3cb09064	0.021553226
131	0xbdc5af4b	-0.09652575
132	0x3d0b9695	0.034079153
133	0x3da253eb	0.07926162
134	0x3cf1289e	0.029438313
135	0x3dcdb3f2	0.100440875
136	0x3cc0aaea	0.023518998
137	0xbd99fcbe	-0.0751891
138	0x3d915865	0.07096938
139	0x3d7174f0	0.05894941
140	0x3daedb25	0.08537892
141	0xbde508fe	-0.11183356
142	0x3cb4bc84	0.022062548
143	0xbdd015a1	-0.101603754
144	0xbd875a75	-0.0660905
145	0xbd061462	-0.032734282
146	0xbd0be367	-0.034152415
147	0x3d754588	0.059880763
148	0x3bfbdcc7	0.007686231
149	0xbbb3fdac	-0.0054928865
150	0xbda40abf	-0.08009862
151	0x3db19b5b	0.0867221
152	0x3d57f636	0.05272504
153	0xbdb07f4d	-0.08618031
154	0x3d81bc04	0.06334689
155	0x3d4ab271	0.04948658
156	0x3dc32b37	0.09529727
157	0x3d810c19	0.063011356
158	0xbe078ab1	-0.132365
159	0xbe009856	-0.12558112
160	0xbe12cb77	-0.14335428
161	0x3d84246b	0.06452259
162	0x3dee3ee0	0.11633086
163	0x3ca8b43e	0.020593759
164	0xbd6b1aea	-0.057398714
165	0x3d9a2c85	0.07528023
166	0x3cdd5567	0.027018262
167	0x3c5da9f1	0.013529287
168	0xbe0c1e2e	-0.13683388
169	0x3c9045d7	0.017611427
170	0x3d801a5e	0.06255029
171	0x3d84cd71	0.06484497
172	0xbe03e613	-0.12880735
173	0x3c7d1dc0	0.0154489875
174	0x3b693447	0.0035584138
175	0xbd16dfcb	-0.03683452
176	0x3d59456b	0.053044718
177	0xbd887c34	-0.06664315
178	0x3c3c2e06	0.011485582
179	0xbde7eb98	-0.11324233
180	0xbd909899	-0.07060356
181	0xbc050f90	-0.008121386
182	0xbcf35b12	-0.029706512
183	0x3d0b37f9	0.033988927
184	0x3d09d98d	0.03365474
185	0xbd7ec6c4	-0.062201276
186	0x3d44a947	0.048012998
187	0x3cac022e	0.020997133
188	0xbd2debb2	-0.042461105
189	0x3ccc18d4	0.024914183
190	0xbbdbdecc	-0.006709909
191	0xbda6722e	-0.08127247
192	0x3dd99d21	0.10625673
193	0x3d8ef0c4	0.06979516
194	0xbcd5e3ed	-0.02610966
195	0x3cadc4d3	0.021212017
196	0xbd16872d	-0.036750007
197	0xbd28f1e2	-0.041246302
198	0xbe02aad7	-0.12760483
199	0x3e2f07e6	0.17092857
200	0x3dea1d63	0.11431386
201	0xbcc982d0	-0.02459851
202	0x3d958eed	0.073026516
203	0x3db7e824	0.08979824
204	0xbdbe7f19	-0.09301586
205	0xbd745ffe	-0.059661858
206	0xbdca6c17	-0.09883898
207	0x3e067f1b	0.13134424
208	0xbda78197	-0.08179014
209	0x3dab5824	0.08366421
210	0x3d954f54	0.07290521
211	0x3e2f2d41	0.17107107
212	0x3df0159c	0.11722872
213	0x3e005524	0.12532479
214	0xbcd2052d	-0.025637234
215	0x3d6d5a1f	0.057947274
216	0xbdacc7d5	-0.084365524
217	0xbe0162cc	-0.12635344
218	0x3c150824	0.009096179
219	0xbdf65604	-0.12028125
220	0xbdd17921	-0.10228182
221	0x3dd5b7e2	0.104354635
222	0x3d963ee8	0.07336217
223	0x3b1ac3d0	0.0023615249
224	0xbdec2476	-0.11530392
225	0xbdcf6629	-0.101269074
226	0xbde6ccc5	-0.112695254
227	0x3ce3afe4	0.027793832
228	0xbc2f9417	-0.01071646
229	0x3e4cab50	0.19987226
230	0xbd8718e1	-0.06596542
231	0x3de0b10b	0.10971268
232	0x3d659a62	0.056055434
233	0xbdb6998b	-0.08916005
234	0x3c9c335a	0.019067455
235	0x3d85ea7c	0.06538865
236	0xbd9bd497	-0.07608908
237	0xbb55cf19	-0.003262466
238	0x3d9644d5	0.073373474
239	0xbdb656df	-0.08903288
240	0x3df2816e	0.11841093
241	0x3dabd29c	0.0838978
242	0x3cdb5cc5	0.026777634
243	0x3e00b0d9	0.12567462
244	0xbd55340b	-0.052051585
245	0xbde46b90	-0.111533284
246	0x3d02e609	0.03195766
247	0x3d8230e8	0.063569844
248	0xbcba0110	-0.022705585
249	0xbd7882e0	-0.060671687
250	0x3d2ab47b	0.041676026
251	0x3cfd277b	0.030902615
252	0x3d32d797	0.043662634
253	0xbce6390f	-0.02810338
254	0x3e082889	0.13296713
255	0xbdbade13	-0.091243885

conv3.0.bias f4 [12]
0	0x3d8400fe	0.06445502
1	0x3dc2ff00	0.09521294
2	0xbcccdaa2	-0.025006596
3	0x3c315ca3	0.010825309
4	0xbd33049b	-0.043705564
5	0x3d2f4775	0.042792756
6	0xbd7ddb33	-0.061976623
7	0x3c52d4ed	0.012868148
8	0xbdcb105b	-0.09915229
9	0x3df2805a	0.11840887
10	0x3cd989ad	0.026554907
11	0x3a11379b	0.0005539597

conv3.1.weight f4 [12]
0	0x3f7910d2	0.9729129
1	0x3f7fddb5	0.99947673
2	0x3f7a0a6f	0.9767217
3	0x3f8606a5	1.0470778
4	0x3f7d9873	0.99060744
5	0x3f89b711	1.0758992
6	0x3f83591f	1.0261573
7	0x3f83f75d	1.0309864
8	0x3f823194	1.017138
9	0x3f76a624	0.9634726
10	0x3f82faca	1.0232785
11	0x3f6c118a	0.9221426

conv3.1.bias f4 [12]
0	0xbd8ceb92	-0.06880869
1	0xbdc99959	-0.09843702
2	0xbd2c6e27	-0.042097237
3	0xbd6a2c6d	-0.057171274
4	0xbce827ae	-0.028339233
5	0xbd1bab79	-0.038005326
6	0xbcb466b8	-0.022021636
7	0xbcff3331	-0.03115234
8	0xbc172598	-0.009225272
9	0xbd2859a3	-0.04110111
10	0xbd06a230	-0.032869518
11	0xbd880c50	-0.066429734

conv3.1.running_mean f4 [12]
0	0xbef637d5	-0.4808947
1	0x3f34c29b	0.70609444
2	0xbe96823b	-0.29396233
3	0x3e953710	0.29143572
4	0x3e6dc6df	0.23220395
5	0xbf368ab7	-0.7130541
6	0xbf22e1c9	-0.6362577
7	0xbf24b0d7	-0.64332336
8	0x3e31b0d2	0.17352608
9	0xbea271d6	-0.31727475
10	0xbe8a5b11	-0.27022603
11	0x3d7a7722	0.06114877

conv3.1.running_var f4 [12]
0	0x4091e94a	4.5597277
1	0x40d3ed62	6.6227274
2	0x40a13984	5.038271
3	0x4081828a	4.047185
4	0x41015bd7	8.084922
5	0x40914bcb	4.540502
6	0x40b1efa9	5.5605054
7	0x40c86be4	6.2631702
8	0x40df1caa	6.972249
9	0x40d13fde	6.5390463
10	0x408036ae	4.006675
11	0x4066b8f0	3.6050377

conv3.3.weight f4 [12, 12, 4]
0	0x3df075e4	0.11741236
1	0xbcbdabb4	-0.023153163
2	0x3e3244cd	0.17409058
3	0xbdbbc3b6	-0.09168188
4	0xbd3f9dc9	-0.046781335
5	0xbcb63304	-0.022241123
6	0xbd611462	-0.05495108
7	0x3e1b9db0	0.15196872
8	0xbde334ab	-0.1109403
9	0xbdbb1905	-0.091356315
10	0x3d38c81e	0.04511272
11	0xbda30ff9	-0.07962031
12	0xbbf16c98	-0.0073676817
13	0xbb040e41	-0.0020150098
14	0xbd707230	-0.058702648
15	0x3cd97d06	0.026548874
16	0x3cacd386	0.021096956
17	0xbdd0124b	-0.10159739
18	0xbbf654ae	-0.007517419
19	0x3dfea5bc	0.12433955
20	0x3d535185	0.051591415
21	0xbc97f61b	-0.01854997
22	0xbe7397b5	-0.2378834
23	0x3d5ed03e	0.054397814
24	0x3d11e528	0.03561893
25	0x3dc65c68	0.09685594
26	0xbe2a3cc4	-0.16624743
27	0x3c42548d	0.011860979
28	0x3ca25e28	0.019820288
29	0x3d7e009c	0.0620123
30	0xbd6727a0	-0.056434274
31	0xbc1d79b2	-0.009611534
32	0x3c83ab73	0.016072964
33	0x3d024a26	0.031808995
34	0xbd32744b	-0.043567937
35	0x3d00577b	0.031333428
36	0x3dd210cb	0.10257109
37	0xbe025664	-0.12728268
38	0x3c890208	0.016724601
39	0xbd575672	-0.052572675
40	0xbd2ec570	-0.04266876
41	0xbdc1ccbe	-0.094628796
42	0x3e3b1ece	0.1827347
43	0xbcfe88f9	-0.031071173
44	0x3dd6ff1c	0.10497877
45	0x3dea5aab	0.11443075
46	0x3d8c56d2	0.06852497
47	0xbd337030	-0.043808162
48	0xbd8466d2	-0.06464924
49	0x3e1af39f	0.15131997
50	0x3c5a725d	0.01333293
51	0x3db2a127	0.087221436
52	0x3d351f43	0.044219267
53	0xbbe8d7b5	-0.0071057924
54	0x3e0c28b8	0.13687408
55	0x3d985267	0.07437592
56	0xbd5c6ec6	-0.05381658
57	0x3e01b98b	0.12668435
58	0xbd2b46df	-0.041815635
59	0x3de33a17	0.11095064
60	0xbc3dc0b4	-0.011581589
61	0x3db552e4	0.08853701
62	0x3d8a5300	0.06754112
63	0xbe13d253	-0.14435701
64	0x3c384caf	0.011248752
65	0xbe10dc62	-0.1414657
66	0xbd3c277a	-0.045936085
67	0x3d88a434	0.06671944
68	0xbd4593da	-0.048236705
69	0x3d860979	0.065447755
70	0x3e11f5ef	0.14253972
71	0x3a5801af	0.0008239997
72	0x3deeda90	0.11662781
73	0x3d02bf34	0.031920627
74	0x3d0fe5fd	0.035131443
75	0xbb2397b6	-0.0024962253
76	0xbd2f761a	-0.04283724
77	0xbe1e69e8	-0.15470088
78	0x3e121f56	0.14269766
79	0xbca40f4f	-0.020026831
80	0x3dab821a	0.08374424
81	0xbe0cd659	-0.13753642
82	0xbca5e7c7	-0.020252122
83	0xbd999046	-0.07498221
84	0xbc864dd7	-0.016394539
85	0x3cf5d42d	0.0300084
86	0xbdf4a7c6	-0.11946063
87	0x3da36075	0.07977382
88	0x3e2afb76	0.16697487
89	0x3d14b986	0.03630974
90	0xbd25bdd3	-0.040464234
91	0x3d3380ec	0.04382412
92	0x3d766a16	0.060159765
93	0xbdbb1970	-0.09135711
94	0x3c082eb2	0.008311914
95	0xbdf2cbbe	-0.11855267
96	0xbd361bee	-0.04446023
97	0x3ce30826	0.027713846
98	0x3d538caa	0.05164782
99	0x3d91836a	0.07105143
100	0xbe074ced	-0.13212939
101	0xbd07308e	-0.03300529
102	0xbc794565	-0.015214299
103	0x3d66e1b1	0.05636758
104	0x3b9b5a88	0.004741017
105	0x3e4deb1b	0.20109217
106	0x3db7f553	0.08982339
107	0xbd9a5bd4	-0.07537046
108	0xb9ee8aa0	-0.0004549818
109	0x3c8d9396	0.017282289
110	0xbcaac4df	-0.020845829
111	0x3de05e85	0.10955528
112	0xbd228bbe	-0.03968405
113	0xbe04524f	-0.12922023
114	0x3da67b9b	0.081290446
115	0xbdfb9361	-0.1228397
116	0x3e0a4707	0.13503657
117	0xbd900d99	-0.070338435
118	0xbd0d2c78	-0.034466237
119	0xbdbd32f9	-0.09238238
120	0xbdf56214	-0.119815975
121	0xbe14dfa8	-0.14538443
122	0x3d9932ab	0.07480367
123	0x3d8c06d9	0.068372436
124	0xbd1250ab	-0.035721462
125	0xbd380ce9	-0.044934187
126	0xbe233ba1	-0.15940715
127	0x3d1bb06a	0.03801004
128	0xbdb7724b	-0.089573465
129	0xbd08be8a	-0.033384837
130	0xbc556c3f	-0.013026296
131	0x3d4b4bbf	0.049632784
132	0x3e0b3ef2	0.1359823
133	0x3e03167e	0.12801549
134	0xbd46644b	-0.04843549
135	0xbc65bd29	-0.01402215
136	0x3c2b782a	0.010465661
137	0xbda0af01	-0.07845879
138	0xbc8571df	-0.01628965
139	0xbbaf9bae	-0.0053591346
140	0xbdb5f8d5	-0.088853516
141	0x3cacb613	0.021082914
142	0x3cdbaec1	0.026816728
143	0x3dfbcc45	0.12294821
144	0x3d97d0a9	0.07412846
145	0x3d8c1dc3	0.06841614
146	0xbdb20351	-0.08692039
147	0x3dd7df2a	0.10540612
148	0xbdf8e439	-0.12152905
149	0x3d997644	0.074932605
150	0x3db451b6	0.088046476
151	0x3d3f302a	0.046676792
152	0x3cf53f8d	0.02993753
153	0xbd0e0682	-0.034674175
154	0x3b1ec0ce	0.0024223807
155	0xbe119b08	-0.14219296
156	0xbdad9af6	-0.08476822
157	0x3d9523f9	0.07282252
158	0x3e7a640b	0.24452226
159	0x3d66f9eb	0.056390684
160	0x3df4a6a9	0.119458504
161	0xbdb28988	-0.08717638
162	0xbdf12b13	-0.11775794
163	0xbd095ce3	-0.03353585
164	0xbdcda959	-0.10042066
165	0xbc0e2af2	-0.008677231
166	0xbdc2eb4c	-0.095175356
167	0xbe28d1b7	-0.1648625
168	0x3e1eb091	0.15497042
169	0xbdbeac18	-0.09310168
170	0x3de9b01f	0.114105456
171	0xbd7307a1	-0.059333447
172	0xbd0e60df	-0.034760352
173	0xbba50c16	-0.005036841
174	0x3d8cdf00	0.068784714
175	0x3cb98a61	0.022648992
176	0xbd2cbf72	-0.042174764
177	0x3ddca347	0.1077333
178	0x3da3a512	0.07990469
179	0x3dd96309	0.106145926
180	0xbdcdd17c	-0.100497216
181	0xbc6aad5e	-0.0143235605
182	0xbd06d4bc	-0.032917723
183	0xbe1f5827	-0.15560971
184	0xbd751178	-0.059831113
185	0x3dc01726	0.09379415
186	0x3d3bc925	0.045846123
187	0xbdcf5674	-0.101239115
188	0xbdc8c563	-0.098032735
189	0xbd24d95e	-0.04024636
190	0xbdd65c13	-0.104667805
191	0xbd3ed40b	-0.04658894
192	0x3d2b7834	0.04186268
193	0xbd7c1e81	-0.06155253
194	0x3e0a5acb	0.13511197
195	0x3dd68d22	0.10476138
196	0x3dcf6e5f	0.101284735
197	0xba99d907	-0.0011737653
198	0xbc6bd57a	-0.0143941585
199	0x3d451920	0.048119664
200	0xbdc312bc	-0.09525058
201	0xbdaa5f08	-0.08318907
202	0x3ce86012	0.028366122
203	0xbd8ddbac	-0.06926665
204	0xbd9c75ed	-0.0763968
205	0xbc16927e	-0.0091902
206	0x3d2f5134	0.04280205
207	0x3bfc9054	0.007707635
208	0x3dee66b0	0.1164068
209	0x3d5a920c	0.053361937
210	0xbd24ce56	-0.04023584
211	0xbc22d877	-0.009939305
212	0xbbe69bdc	-0.007037623
213	0x3c9e51fc	0.019326203
214	0x3e43cd12	0.19121197
215	0xbd26ddf7	-0.040739026
216	0xbdbefdc5	-0.093257464
217	0x3da1dee5	0.07903842
218	0x3ccd2f58	0.02504699
219	0xbd2c9d3b	-0.042142134
220	0x3e163ac5	0.14670856
221	0x3d5bcf91	0.053664748
222	0x3df30bf5	0.11867515
223	0xbdca5895	-0.09880177
224	0xbd8b29b8	-0.067950666
225	0x3dd50771	0.1040181
226	0xbdc88b8f	-0.09792244
227	0x3ca167a8	0.019702747
228	0xbe046300	-0.1292839
229	0x3d38b665	0.04509582
230	0x3d7f0c48	0.06226757
231	0xbda50a8f	-0.080586545
232	0xbdf6b15e	-0.12045549
233	0xbe0ed1e0	-0.13947248
234	0xbc1cb948	-0.009565659
235	0x3dda3d33	0.10656204
236	0x3d71dd44	0.059048906
237	0xbe094641	-0.13405706
238	0xbdb36754	-0.08759943
239	0x3cd0293e	0.02541029
240	0xbca76dec	-0.020438157
241	0xbd99fc4b	-0.07518824
242	0xbd369fb2	-0.04458589
243	0x3d916ce6	0.07100849
244	0xbdfee63b	-0.12446257
245	0xbdee2137	-0.11627429
246	0x3d808aa0	0.062764406
247	0x3e02e723	0.12783484
248	0x3cd72dc5	0.026266942
249	0xbd599470	-0.053120077
250	0x3d9197e8	0.07109052
251	0x3ded37fe	0.11582945
252	0xb9e0f037	-0.00042903583
253	0xbd27b3b9	-0.04094288
254	0x3da2795c	0.07933304
255	0x3c8aee68	0.016959384

conv3.3.bias f4 [12]
0	0xbdda13c0	-0.10648298
1	0x3d7ed3bd	0.062213648
2	0xbc5e103f	-0.013553678
3	0xbdbba880	-0.09162998
4	0xbc99b682	-0.018763784
5	0xbdd6bf9c	-0.10485765
6	0xbd5018f2	-0.05080504
7	0x3db7490c	0.089494795
8	0xbd780824	-0.06055464
9	0xbd4fe6ec	-0.050757334
10	0x3d5770e3	0.05259789
11	0x3cedbe80	0.029021502

conv3.4.weight f4 [12]
0	0x3f8a10f4	1.0786424
1	0x3f876f2d	1.0580803
2	0x3f81c541	1.0138322
3	0x3f846e25	1.0346113
4	0x3f87b603	1.060242
5	0x3f88f395	1.0699335
6	0x3f851545	1.0397116
7	0x3f8bc6f7	1.0920094
8	0x3f83dc26	1.0301559
9	0x3f87b3c3	1.0601734
10	0x3f895f76	1.0732257
11	0x3f8a0851	1.0783788

conv3.4.bias f4 [12]
0	0x3c06393b	0.008192356
1	0x3c182bd0	0.009287789
2	0xbc399b95	-0.011328598
3	0xbc252a47	-0.0100808805
4	0xbc274c0c	-0.010211002
5	0xbc27b551	-0.0102361
6	0xbc25b753	-0.010114509
7	0x3c198898	0.009370945
8	0xbc335cef	-0.01094745
9	0x3c0eb309	0.0087096775
10	0x3c1a664a	0.009423802
11	0x3c15834b	0.009125541

conv3.4.running_mean f4 [12]
0	0xbdff750d	-0.124734975
1	0x3e967ba1	0.29391196
2	0xbe1eeb5a	-0.15519467
3	0xbe65acbf	-0.22429179
4	0x3d4cc0d1	0.04998857
5	0xbe4d0afd	-0.20023723
6	0x3b89195f	0.0041839327
7	0x3e0a37ed	0.13497896
8	0xbc97e3ac	-0.01854118
9	0xbce77ba1	-0.028257193
10	0x3da1c82c	0.07899508
11	0x3e359a8d	0.17734738

conv3.4.running_var f4 [12]
0	0x3d995d33	0.074884795
1	0x3dc7772a	0.097395256
2	0x3dd7c331	0.10535277
3	0x3d9ba32e	0.075994834
4	0x3db08fe6	0.086211964
5	0x3d415ea7	0.047209408
6	0x3d95fd0e	0.07323657
7	0x3d767d13	0.060177874
8	0x3da2b17b	0.07944008
9	0x3dcc6f72	0.09982194
10	0x3d8d526d	0.06900487
11	0x3db4c7d1	0.088271745
