model/AutoY/MScheckpoint2.pt (torch, 34213 bytes, 51 tensors)

conv1.0.weight f4 [12, 15, 2]
0	0x3b13bb2c	0.0022541983
1	0xbbac9ffd	-0.0052680955
2	0x3e35d0a2	0.17755368
3	0x3dc13ced	0.09435449
4	0xbe0197f7	-0.12655626
5	0xbd67c802	-0.056587227
6	0x3c8c6711	0.01713899
7	0xbdb11fd9	-0.086486526
8	0x3dad1273	0.084507845
9	0x3e23c518	0.15993154
10	0x3d2f7ac5	0.04284169
11	0xbe05fa6d	-0.13083811
12	0x3e1fcd87	0.15605746
13	0xbe0b8656	-0.13625464
14	0x3e00bdf6	0.12572464
15	0x3e09624c	0.13416404
16	0x3de1bc14	0.11022201
17	0x3dafdb92	0.085868016
18	0xbcff7cfa	-0.031187523
19	0xbdb5d49a	-0.08878441
20	0x3c929e12	0.01789764
21	0x3da9dbe4	0.08293894
22	0x3df2c94a	0.11854799
23	0x3da9f3a0	0.08298421
24	0xbceec028	-0.029144362
25	0x3d3888ff	0.045052525
26	0xbe21c40a	-0.15797439
27	0xbe171aca	-0.14756313
28	0x3d52bcb1	0.05144948
29	0x3de6f4ed	0.11277185
30	0xbdad56f9	-0.08463854
31	0xbbf8fdec	-0.007598629
32	0x3d101dcf	0.035184678
33	0x3c9327df	0.017963348
34	0x3e359605	0.17733009
35	0xbe3ed366	-0.1863533
36	0x3d7a93a1	0.061175946
37	0x3e26efd7	0.16302429
38	0x3e0ee933	0.13956146
39	0xbc145822	-0.009054216
40	0x3b12a06c	0.002237345
41	0x3e20da2d	0.15708227
42	0x3d4358bd	0.04769205
43	0x3da47778	0.08030599
44	0xbe11aa15	-0.14225037
45	0xbda87798	-0.08225936
46	0xbd543231	-0.05180568
47	0xbdf83a72	-0.121205226
48	0x3d9d4e4d	0.0768095
49	0x3b44dfb2	0.003004056
50	0x3d554582	0.05206824
51	0xbd35dbb2	-0.04439897
52	0x3dcd97d4	0.100387245
53	0xbe2f2a2c	-0.17105931
54	0x3cafbcd1	0.02145234
55	0xbd92bd80	-0.071650505
56	0x3d3db9da	0.04631982
57	0xbd3b4fc5	-0.04573037
58	0x3dc78f78	0.09744161
59	0x3cf23015	0.029563943
60	0xbe0cd6e1	-0.13753845
61	0x3dac4f80	0.08413601
62	0xb98c1f60	-0.00026726257
63	0x3df71c6d	0.12065969
64	0xbda22435	-0.07917062
65	0x3debf0d0	0.11520541
66	0x3d9e0442	0.07715656
67	0x3d95b3ad	0.07309661
68	0x3db0f7c7	0.0864101
69	0xbdb41534	-0.08793107
70	0x3e2a2940	0.16617298
71	0xbd2a7d84	-0.041623607
72	0x3e12e507	0.1434518
73	0xbcbe5cf1	-0.023237677
74	0xbe692903	-0.22769551
75	0xbe36941e	-0.1782994
76	0xbdc14c99	-0.09438438
77	0xbe4862f0	-0.19568992
78	0x3e27b006	0.16375741
79	0x3d993fba	0.07482858
80	0xbdcfa4a0	-0.101388216
81	0xbe3cb4c1	-0.18428327
82	0xbdbc9182	-0.09207441
83	0x3e2129fe	0.15738675
84	0x3d3fed93	0.046857428
85	0x3e04bd6c	0.12962884
86	0xbe02d0e1	-0.12774993
87	0xbe706479	-0.23475827
88	0x3e27586d	0.16342326
89	0xbdd8ec7d	-0.105919816
90	0x3d0edae0	0.034876704
91	0xbdc18a41	-0.09450198
92	0xbdbcffeb	-0.092285
93	0x3ce17e92	0.027526174
94	0x3dd852db	0.105626784
95	0xbdff0987	-0.12452989
96	0x3e009d4b	0.12560003
97	0x3b938de4	0.0045029987
98	0x3dd0dc06	0.10198216
99	0x3d8ece3d	0.069729306
100	0xbe0b968c	-0.13631648
101	0x3e4b1f7e	0.19836232
102	0x3e1500e9	0.14551128
103	0x3db17d43	0.0866647
104	0x3e0a8c49	0.13530077
105	0xbdd94243	-0.106083415
106	0xbdc740ae	-0.097291335
107	0xbc0529b0	-0.008127615
108	0x3dca6faa	0.098845795
109	0x3c99e3d2	0.018785391
110	0xbd9e5897	-0.07731741
111	0xbe3b39d2	-0.18283775
112	0xbe29db97	-0.16587673
113	0x3e034331	0.128186
114	0x3e30f99d	0.1728272
115	0x3dbb5f84	0.091490775
116	0x3ddcac8e	0.107751
117	0xbe1b3e96	-0.15160593
118	0x3ca2c416	0.019868892
119	0xbdd57038	-0.10421795
120	0x3cccd97d	0.02500605
121	0x3ac42846	0.0014965616
122	0x3d9b81eb	0.07593139
123	0xbe037184	-0.12836272
124	0x3d3a6eb7	0.045515742
125	0xbd80d88b	-0.06291302
126	0xbd9c5876	-0.0763406
127	0x3e25d218	0.16193426
128	0x3e0c7d6b	0.13719718
129	0x3cd9ea49	0.026600974
130	0xbe067a50	-0.13132596
131	0x3e899ac5	0.26875892
132	0xbd4249ed	-0.047433782
133	0x3dd07073	0.10177698
134	0xbe1fe2c5	-0.1561385
135	0x3e1c0e7e	0.15239903
136	0x3debc98f	0.115130536
137	0xbe12e093	-0.14343481
138	0x3c14fd76	0.009093633
139	0xbdef3dd8	-0.11681718
140	0x3e0882c6	0.13331136
141	0xbceb6e45	-0.028739104
142	0xbe2907bb	-0.16506855
143	0x3b9a0d9c	0.0047013294
144	0xbd11e653	-0.035620045
145	0xbcb4239d	-0.021989638
146	0xbd893a0b	-0.06700524
147	0xbda8237c	-0.08209893
148	0x3df59538	0.11991352
149	0xbd778e31	-0.06043834
150	0xbc309706	-0.010778194
151	0xbe09cef8	-0.13457859
152	0xbdd4f503	-0.10398295
153	0x3c9233ba	0.01784693
154	0x3e0bf02e	0.1366584
155	0xbd8f3f13	-0.06994452
156	0xbca747a2	-0.0204199
157	0x3e431930	0.19052577
158	0xbe148247	-0.14502822
159	0x3d86470e	0.06556521
160	0xbd8035b1	-0.06260241
161	0xbda1dfab	-0.079039894
162	0xbdeedf98	-0.11663741
163	0xbcefc9a3	-0.029270953
164	0x3d75638a	0.05990938
165	0x3de71950	0.11284125
166	0xbdd92cda	-0.10604258
167	0x3e6bc7c2	0.2302542
168	0x3dcd2a9a	0.10017891
169	0xbdab84d1	-0.08374942
170	0xbdfe6484	-0.124215156
171	0xbe47038d	-0.19434948
172	0x3d897e8d	0.06713591
173	0xbd92fbef	-0.07176959
174	0xbe10a3fe	-0.14125058
175	0x3d8d9804	0.0691376
176	0xbdf0a4d5	-0.11750189
177	0x3d68d5c8	0.056844503
178	0xbe08e87a	-0.13369933
179	0x3d68c925	0.05683245
180	0x3c92810f	0.017883806
181	0x3d78c49c	0.060734376
182	0x3dd92a7a	0.10603805
183	0x3e1ca889	0.15298666
184	0xbdbe0fc2	-0.09280349
185	0x3c29b485	0.010357981
186	0x3d38d1ca	0.045121945
187	0x3d14ad1b	0.0362979
188	0xbdd1817b	-0.102297746
189	0x3e28c294	0.16480476
190	0xbc31fea9	-0.010863938
191	0xbcaa5302	-0.020791534
192	0xbdd5500f	-0.104156606
193	0x3e6b89f6	0.23001847
194	0x3de35d4c	0.11101779
195	0x3df49663	0.119427465
196	0xbd2f3893	-0.042778563
197	0x3d91edfa	0.071254686
198	0xbd3176c0	-0.04332614
199	0xbdc57c2d	-0.09642825
200	0x3d8f45b9	0.069957204
201	0x3de37f16	0.11108224
202	0xbd57c182	-0.052674778
203	0x3ca2ed77	0.019888623
204	0x3e5b40a5	0.21411379
205	0x3dd810f6	0.1055011
206	0xbd0dd743	-0.034629118
207	0x3ce3bee3	0.027800983
208	0xbe0421d2	-0.12903526
209	0x3ddc5bfd	0.10759733
210	0xbc0c19b6	-0.008551052
211	0xbd813c31	-0.06310309
212	0xbd9efcc5	-0.07763056
213	0xbcc0a0bb	-0.023514142
214	0x3c1f65bf	0.009728848
215	0xbe05fe1d	-0.13085218
216	0x3cd27310	0.025689632
217	0x3de85aaf	0.113454215
218	0xbba6f9b1	-0.0050956835
219	0xbda41a89	-0.08012874
220	0xbdec6d95	-0.115443386
221	0x3d09e6a1	0.03366721
222	0x3e271fe1	0.16320755
223	0xbd053664	-0.032522574
224	0x3dbff886	0.09373574
225	0x3b80fd11	0.003936418
226	0xbd9a046e	-0.07520376
227	0xbb7c1956	-0.003846725
228	0xbc601fcc	-0.013679456
229	0xbbbddd37	-0.005794193
230	0xbd7cdfa1	-0.061736707
231	0xbe1af5b7	-0.15132795
232	0xbd973a7d	-0.07384203
233	0x3dbcfda0	0.09228063
234	0x3db7921f	0.08963417
235	0xbdd0147f	-0.10160159
236	0xbe17158b	-0.14754312
237	0xbd86e409	-0.06586463
238	0xbdd2876d	-0.10279737
239	0xbd0b90b4	-0.034073547
240	0x3d61aae1	0.055094603
241	0x3d720a1f	0.059091683
242	0xbc8a4ed4	-0.016883291
243	0xbe05b96e	-0.13059017
244	0x3dfae9d3	0.1225163
245	0xbe037c82	-0.12840465
246	0xbd035f42	-0.032073267
247	0x3e103c84	0.14085585
248	0x3c09df22	0.008415015
249	0xbdae62d7	-0.08514946
250	0x3e49e647	0.1971675
251	0x3daf1251	0.085484155
252	0xbe312cc0	-0.17302227
253	0xbdeda9ab	-0.11604627
254	0x3ddf5078	0.1090402
255	0x3de1b247	0.11020332

conv1.0.bias f4 [12]
0	0xbd1e3e1b	-0.038633447
1	0x3dec2e64	0.11532286
2	0xbde91d52	-0.113825455
3	0xbde7f25b	-0.113255225
4	0xbdb84e29	-0.08999283
5	0xbcf5a206	-0.029984485
6	0xbda5957c	-0.080851525
7	0xbdac0d18	-0.08400935
8	0xbd6f2ee9	-0.058394346
9	0xbcf753ab	-0.030191263
10	0xbd3a0da2	-0.045423158
11	0xbe065483	-0.13118176

conv1.1.weight f4 [12]
0	0x3f82a8ee	1.0207803
1	0x3f7d2868	0.9888978
2	0x3f81b441	1.0133134
3	0x3f80d9b8	1.0066442
4	0x3f774f9e	0.9660586
5	0x3f7fa8ac	0.9986675
6	0x3f80689a	1.0031922
7	0x3f84490e	1.0334795
8	0x3f7c1d1c	0.9848192
9	0x3f7dd9d0	0.9916048
10	0x3f7cf93d	0.9881781
11	0x3f7d75a5	0.99007636

conv1.1.bias f4 [12]
0	0xbc41f0aa	-0.011837164
1	0xb9fad72f	-0.0004784404
2	0xbcb38c2b	-0.021917423
3	0x3c8ef834	0.017452337
4	0x3c0540ba	0.008133108
5	0x3d6c15e9	0.057638083
6	0xbd5ecf8a	-0.054397143
7	0x3c384027	0.011245764
8	0x3b469733	0.0030302524
9	0xbd33270c	-0.04373841
10	0x3ce9f5a5	0.028559515
11	0xbd1e2817	-0.03861245

conv1.1.running_mean f4 [12]
0	0x3ecc67da	0.39922982
1	0xbe6db5e3	-0.23213916
2	0x3cdea37e	0.027177569
3	0xbee8b3ee	-0.45449775
4	0xbe9abc9a	-0.30222017
5	0xbeb5e1e7	-0.35523912
6	0x3f25f9d3	0.64834327
7	0xbef3c8d4	-0.47614157
8	0x3e1b3984	0.15158659
9	0x3df61b29	0.12016899
10	0xbd8f7481	-0.07004643
11	0xbe6570c3	-0.22406296

conv1.1.running_var f4 [12]
0	0x406a54be	3.6614223
1	0x405ae36b	3.4201305
2	0x40e679d5	7.202372
3	0x407d0713	3.9535568
4	0x406fb20c	3.745242
5	0x40786484	3.881135
6	0x40841ba5	4.1283746
7	0x405634b9	3.346968
8	0x40d40989	6.626164
9	0x407ab4b3	3.917279
10	0x400b0196	2.1719718
11	0x40d796f5	6.7371774

conv1.3.weight f4 [12, 12, 2]
0	0xbc906714	-0.017627276
1	0x3d57a94c	0.05265169
2	0x3d81e262	0.06342007
3	0xbd594f39	-0.05305407
4	0x3e349679	0.17635526
5	0x3d7130b4	0.058884338
6	0x3e2ab450	0.16670346
7	0xbe54bc21	-0.2077489
8	0x3e3e24be	0.18568704
9	0xbc40a480	-0.01175797
10	0xbe1a8e44	-0.15093333
11	0x3e28a0e6	0.16467628
12	0xbe09a6d4	-0.13442546
13	0xbd595756	-0.053061806
14	0xbe26bfca	-0.16284099
15	0xbdd507de	-0.10401891
16	0xbe2c357c	-0.16817278
17	0xbde548ef	-0.111955516
18	0xbdf80735	-0.1211075
19	0xbae03263	-0.001710486
20	0x3e0dd32c	0.13850087
21	0x3d12e393	0.035861563
22	0xbc289ccb	-0.010291289
23	0x3cbf53a9	0.023355322
24	0x3d0bcc18	0.034130186
25	0x3c21a9bc	0.009867128
26	0x3e2f7fa8	0.1713854
27	0xbdd73f72	-0.10510148
28	0x3e013aef	0.12620138
29	0xbdca0349	-0.09863908
30	0x3e2bb3a8	0.16767752
31	0x3e414311	0.1887324
32	0x3e345fab	0.1761462
33	0xbd733400	-0.059375763
34	0x3df28815	0.11842362
35	0x3e08f343	0.13374047
36	0xbdbda0cd	-0.09259186
37	0x3de5ac78	0.112145364
38	0xbd2c92e3	-0.04213227
39	0x3d99d817	0.07511919
40	0x3d01dcc1	0.031704668
41	0x3e1cef00	0.15325546
42	0x3e04dcd8	0.1297487
43	0x3e3d8e1c	0.18511242
44	0x3d67c45a	0.05658374
45	0x3d5c2be6	0.053752802
46	0xbdfe6df5	-0.124233164
47	0xbe140354	-0.14454395
48	0xbe0e58aa	-0.1390101
49	0xbdd62a54	-0.10457292
50	0x3cd131e7	0.02553649
51	0xbd02673c	-0.031836733
52	0x3dec7605	0.11545948
53	0x3e382eb8	0.17986572
54	0xbc6eabec	-0.014567357
55	0xbe16de99	-0.14733352
56	0xbe6a1c14	-0.22862273
57	0x3e2fa4e2	0.17152742
58	0xbcf560bd	-0.029953355
59	0x3db99a8d	0.09062681
60	0xbdc3eada	-0.09566279
61	0xbe38f964	-0.18063885
62	0xbd5dc244	-0.054140344
63	0x3dc23577	0.09482854
64	0xbdb97159	-0.090548225
65	0x3e0a7c8f	0.13524078
66	0xbdadc9c9	-0.08485753
67	0x3e6440b8	0.22290313
68	0xbe0b0c94	-0.13579017
69	0x3e5d9387	0.21638308
70	0xbd52ac5a	-0.0514339
71	0x3e490572	0.19630983
72	0x3e41794f	0.18893932
73	0xbdd9249c	-0.10602686
74	0xbe2e08e7	-0.16995583
75	0x3c91dd71	0.017805787
76	0xbd79b940	-0.060967684
77	0xbda55f90	-0.08074868
78	0x3d012dd9	0.031537864
79	0xbdcc4fe7	-0.09976178
80	0x3dbe89b7	0.09303611
81	0x3ddf85c3	0.10914185
82	0x3d141a2e	0.03615778
83	0xbe38287d	-0.17984195
84	0xbcc79065	-0.024360845
85	0x3dc60b39	0.09670109
86	0xbddaa83d	-0.1067662
87	0xbe3a170a	-0.18172851
88	0x3dacc157	0.08435314
89	0x3d7621f6	0.06009098
90	0xbd10248d	-0.035191108
91	0x3e57849c	0.2104668
92	0x3beb88e9	0.007187952
93	0xbe1e9b0d	-0.15488835
94	0x3e7677fb	0.24069206
95	0x3e472f27	0.19451581
96	0xbdec4bd4	-0.115379006
97	0xbe5750d4	-0.21026927
98	0x3dc3326f	0.09531104
99	0x3ce973c2	0.02849758
100	0xbe01f59b	-0.12691347
101	0x3cd8bb93	0.02645663
102	0xbbd9ab0c	-0.006642705
103	0xbdfbd797	-0.1229698
104	0xbdd11794	-0.10209575
105	0x3e04fbd3	0.12986688
106	0x3d8738d4	0.06602636
107	0xbcc8dd8c	-0.024519704
108	0x3e0652c8	0.13117516
109	0x3e310f29	0.1729094
110	0x3db0c891	0.08632005
111	0x3cab7ab5	0.020932535
112	0x3d754c32	0.05988712
113	0xbdbbce98	-0.09170264
114	0x3e4b40e3	0.19848971
115	0xbd5909e4	-0.052987948
116	0x3de4469b	0.111462794
117	0x3d3ff876	0.04686781
118	0xbdc54a8b	-0.096333586
119	0x3e1c3c65	0.15257414
120	0xbccfb417	-0.025354428
121	0x3d336b30	0.043803394
122	0xbd6aa01e	-0.057281606
123	0x3ddd6c09	0.10811622
124	0x3d9590d2	0.07303013
125	0xbb86864a	-0.004105364
126	0x3d933934	0.07188645
127	0x3e000224	0.12500817
128	0x3d084bee	0.033275537
129	0x3e0798a4	0.13241822
130	0x3dc12d82	0.09432508
131	0xbd62bd9b	-0.055356603
132	0xbdcc70b4	-0.09982434
133	0x3bc15edc	0.0059012007
134	0xbccd17a8	-0.025035694
135	0xbc132f89	-0.008983501
136	0xbd75edfa	-0.060041405
137	0x3d910f48	0.07082993
138	0xbd91f6b5	-0.07127134
139	0xbe512da9	-0.20427574
140	0x3d792430	0.060825527
141	0x3d0132d7	0.031542625
142	0xbb7c0e4c	-0.003846067
143	0x3e478b12	0.19486645
144	0xbd2e5172	-0.04255814
145	0x3c5fd5c4	0.013661806
146	0x3b72fbb6	0.00370763
147	0x3dc58f91	0.09646524
148	0x3db402b9	0.08789582
149	0x3e033aa9	0.12815346
150	0x3e555be3	0.20835833
151	0x3bd76613	0.0065734475
152	0x3de084bc	0.10962817
153	0xbddc3ec9	-0.10754163
154	0x3d98f7ca	0.07469137
155	0xbdfad818	-0.12248248
156	0xbe05ef23	-0.13079505
157	0xbe3a8e86	-0.18218431
158	0x3e0a9417	0.13533054
159	0xbd91bd65	-0.07116202
160	0x3b663f16	0.0035132817
161	0xbe30a4d6	-0.1725038
162	0x3e0210da	0.12701741
163	0xbd5e6a05	-0.054300327
164	0xbdead5ee	-0.11466585
165	0x3e27f1d0	0.16400838
166	0xbd24ef9e	-0.04026758
167	0x3d36a4b8	0.04459068
168	0x3e40430f	0.18775581
169	0xbe81d59a	-0.25358278
170	0x3de19783	0.11015227
171	0xbe2ad737	-0.1668366
172	0xbb6cbe74	-0.003612426
173	0x3a99cb8e	0.0011733638
174	0x3e0d21f9	0.13782491
175	0x3e474236	0.19458851
176	0xbe2ce61d	-0.16884656
177	0xbd437cc7	-0.04772642
178	0x3d5bcfb7	0.05366489
179	0xbccb2541	-0.024798037
180	0x3dde7bc6	0.10863452
181	0x3cb4b4ff	0.022058962
182	0xbd9308fa	-0.071794465
183	0xbe5898bc	-0.21152014
184	0xbd925daf	-0.07146775
185	0x3dc45a77	0.09587567
186	0x3e501021	0.20318653
187	0x3db2c1b7	0.087283544
188	0xbdff119f	-0.12454533
189	0x3d890bf6	0.066917345
190	0xbe1bba4e	-0.15207788
191	0x3ce80ded	0.028326953
192	0x3e127112	0.14300945
193	0xbe665f49	-0.22497286
194	0xbe04ba3f	-0.12961672
195	0xbdd6a344	-0.10480359
196	0xbe1acb3d	-0.15116592
197	0xbddad174	-0.10684481
198	0x3e19fa7e	0.15036961
199	0x3cb71fa7	0.02235396
200	0x3dfda6b9	0.123853154
201	0xbc286656	-0.010278305
202	0x3db02b07	0.08601957
203	0x3d5b6575	0.053563554
204	0xbe171729	-0.14754929
205	0xbcb227a2	-0.021747414
206	0x3e04820b	0.12940232
207	0x3e4ae68f	0.19814514
208	0xbbfe36f2	-0.007758015
209	0x3e16b885	0.14718826
210	0x3e0a17a8	0.13485587
211	0x3dee2bcb	0.116294466
212	0x3d5ca0d2	0.053864308
213	0xbc352c40	-0.011057913
214	0x3dabd8e6	0.083909795
215	0x3e0de0b1	0.13855244
216	0x3e381c96	0.17979655
217	0xbd21d440	-0.039509058
218	0x3de98a5e	0.114033446
219	0x3d4f81bf	0.050660845
220	0x3da9f49e	0.0829861
221	0xbe1ddb93	-0.15415792
222	0xbd80bfbd	-0.06286571
223	0xbe19f3e3	-0.15034442
224	0xbdecbeee	-0.115598544
225	0xbe1831af	-0.14862703
226	0xbe3de15d	-0.18543
227	0x3e1b8789	0.15188421
228	0xbe2d772f	-0.16939996
229	0x3d9638eb	0.07335075
230	0x3df3668e	0.11884795
231	0xbe2d6a98	-0.16935194
232	0xbd943cf2	-0.07238187
233	0x3cc07773	0.023494458
234	0x3e370f75	0.1787699
235	0x3d078172	0.033082433
236	0xbe324c56	-0.17411932
237	0x3e2ed78d	0.17074414
238	0xbe0bd973	-0.13657169
239	0xbdbc37d1	-0.09190334
240	0x3deab79b	0.11460801
241	0xbdf9d3c4	-0.12198594
242	0xbdf6eb01	-0.12056542
243	0xbe2a5b54	-0.16636401
244	0xbd06d6f2	-0.03291983
245	0x3e51e575	0.20497687
246	0x3dc6a017	0.096985035
247	0x3e291869	0.16513218
248	0x3d74b80b	0.05974583
249	0xbdf4389c	-0.1192486
250	0x3cbeee91	0.023307117
251	0xbd8ec696	-0.06971471
252	0x3e176477	0.14784418
253	0xbda55724	-0.080732614
254	0xbd210f5e	-0.039321296
255	0xbdfc17b4	-0.123092085

conv1.3.bias f4 [12]
0	0xbe0b9eb8	-0.13634765
1	0xbb310029	-0.0027008152
2	0xbd8f4fa8	-0.06997615
3	0xbe0e6e34	-0.13909227
4	0x3e53995b	0.20663969
5	0x3d422f1f	0.04740822
6	0x3bea8938	0.007157471
7	0xbe2400a8	-0.16015875
8	0x3e0fd45a	0.1404585
9	0x3dfa66e5	0.12226657
10	0xbe04f9af	-0.12985872
11	0xbd5eb71b	-0.05437384

conv1.4.weight f4 [12]
0	0x3f81d0d1	1.0141851
1	0x3f81b8cf	1.0134524
2	0x3f7f963d	0.9983862
3	0x3f8206b8	1.01583
4	0x3f8386df	1.0275534
5	0x3f7e6e97	0.99387497
6	0x3f817860	1.011486
7	0x3f814a4c	1.0100799
8	0x3f817c07	1.0115975
9	0x3f802259	1.0010482
10	0x3f831e33	1.0243591
11	0x3f807a24	1.0037274

conv1.4.bias f4 [12]
0	0xbc10469b	-0.008805896
1	0x3beecc42	0.007287533
2	0xbc399775	-0.011327614
3	0x3bb557a9	0.0055341315
4	0x3bed001b	0.0072326786
5	0xbc32d030	-0.010913894
6	0x3bf0683f	0.007336646
7	0xbc1cfba5	-0.009581481
8	0x3bea146d	0.007143548
9	0xbc0a0fe2	-0.008426638
10	0x3bf008fd	0.0073252902
11	0xbc07e978	-0.008295409

conv1.4.running_mean f4 [12]
0	0xbe861e80	-0.26195145
1	0x3eed49e5	0.4634544
2	0xbddeca43	-0.10878422
3	0xbdfedc54	-0.12444368
4	0x3eaa5272	0.33266026
5	0x3e47ddfb	0.19518273
6	0x3d23ea97	0.040018644
7	0xbe18ed54	-0.14934283
8	0x3ecdd8a3	0.40204343
9	0xbd081b31	-0.033229057
10	0xbe0b301e	-0.13592574
11	0x3e160e90	0.14653993

conv1.4.running_var f4 [12]
0	0x3dea1f29	0.114317246
1	0x3e4cd606	0.20003518
2	0x3daa4ff5	0.08316032
3	0x3de1cea7	0.11025744
4	0x3d69317e	0.056931965
5	0x3d8fec8c	0.070275396
6	0x3db9e188	0.0907622
7	0x3da76d93	0.081751965
8	0x3e454066	0.19262847
9	0x3de2ea8e	0.11079894
10	0x3d925b1d	0.07146285
11	0x3dfeb373	0.12436571

conv2.0.weight f4 [12, 15, 3]
0	0x3dfb39ee	0.122669086
1	0x3e0b5903	0.13608174
2	0x3de63d66	0.112421796
3	0xbce68891	-0.028141292
4	0x3d9229ee	0.07136904
5	0xbdddf394	-0.108374745
6	0x3d253613	0.040334772
7	0xbc143df1	-0.009047971
8	0xbd8df7ca	-0.06932028
9	0xbda47d71	-0.080317385
10	0x3e19d775	0.15023597
11	0xbd12f2a5	-0.035875935
12	0xbd6f25e2	-0.058385737
13	0xbe239aac	-0.15976971
14	0x3c364b0b	0.01112629
15	0xbdf0f97a	-0.11766334
16	0xbd03ad3b	-0.032147627
17	0x3d9bcbfe	0.07607268
18	0xbe0848c1	-0.13309003
19	0x3d8691fd	0.06570814
20	0x3e5d2a2d	0.2159812
21	0x3e2095d8	0.15682161
22	0xbbc42695	-0.0059860446
23	0x3e34bcf5	0.17650206
24	0x3da9c7a9	0.08290035
25	0x3dbbfa5d	0.091786124
26	0xbd584c8d	-0.05280738
27	0x3ce70c38	0.028204069
28	0x3db9e5c3	0.09077027
29	0xbd327609	-0.0435696
30	0x3d643cf2	0.055722184
31	0x3dc9514f	0.098299615
32	0xbda44bb9	-0.080222555
33	0x3baf94c2	0.0053583095
34	0x3e23b741	0.15987875
35	0x3d23ed19	0.040021036
36	0x3c5d0af4	0.013491381
37	0xbdaebb66	-0.08531837
38	0xbd67f3cd	-0.05662899
39	0xbdcc9e80	-0.09991169
40	0x3dcf71df	0.10129141
41	0xbdce94eb	-0.100869976
42	0xbcf2b352	-0.029626522
43	0x3e3b9129	0.18317093
44	0xbc838d31	-0.016058536
45	0x3db93ec9	0.090451784
46	0xbceab180	-0.028649092
47	0xbdb23afd	-0.08702657
48	0xbc964913	-0.018345391
49	0xbc53d748	-0.012929745
50	0x3d8500a1	0.064942606
51	0xbc161974	-0.009161342
52	0xbc5938e3	-0.013258192
53	0x3dd2c857	0.10292118
54	0x3e36bd1a	0.17845574
55	0xbdd3b9e0	-0.10338187
56	0x3dbbcd7f	0.09170055
57	0xbde7f96e	-0.11326872
58	0x3df123d2	0.1177441
59	0xbde8c22a	-0.11365159
60	0x3d363bff	0.04449081
61	0xbdcef7d3	-0.101058625
62	0x3e003dab	0.12523524
63	0x3c2e38d8	0.01063367
64	0x3d4aabac	0.049480125
65	0x3dc8e41e	0.09809135
66	0x3cfb8b8e	0.030706193
67	0x3c78909c	0.015171196
68	0xbdff35f3	-0.12461462
69	0xbd869596	-0.065715
70	0x3ce40c01	0.027837755
71	0xbe1a6dbf	-0.15080927
72	0xbd14d186	-0.03633263
73	0xbcc3c9c9	-0.02389993
74	0x3e0fba93	0.14036016
75	0x3da10f30	0.07864225
76	0xbc18ba5b	-0.009321774
77	0x3d9e0cbb	0.07717272
78	0xbd9574de	-0.07297681
79	0xbb8ffc1b	-0.004394067
80	0xbd395b32	-0.045252986
81	0x3d76b9f3	0.06023593
82	0x3e4eb023	0.20184378
83	0xbd1448a6	-0.036202095
84	0xbd59cae4	-0.053172007
85	0xbd27fef6	-0.041014634
86	0xbd822f89	-0.06356723
87	0x3cad0ae7	0.021123363
88	0x3da8dbcf	0.0824505
89	0x3ddb3790	0.10703957
90	0x3d7f373f	0.062308546
91	0x3e0180df	0.12646817
92	0x3e12d659	0.1433958
93	0x3e140a94	0.1445716
94	0x3ddcfe97	0.10790747
95	0x3d8876c1	0.066632755
96	0x3d2282b1	0.03967542
97	0xbca8cf17	-0.02060656
98	0x3ce5d9fb	0.028058043
99	0xbd03ab5a	-0.032145835
100	0x3b862201	0.004093409
101	0xbde6f7d3	-0.112777375
102	0xbcfd40c5	-0.030914674
103	0xbcf28060	-0.02960223
104	0x3de85640	0.11344576
105	0x3d4bebe0	0.049785495
106	0x3ccb951d	0.024851376
107	0xbd85dcda	-0.06536265
108	0xbd770659	-0.060308788
109	0x3d9baa8d	0.07600889
110	0xbdbf6096	-0.09344594
111	0xbc8b3744	-0.016994126
112	0x3da4d579	0.08048529
113	0x3da4cada	0.08046503
114	0x3cc0cccd	0.023535157
115	0x3c877b19	0.01653819
116	0x3d00741b	0.031360727
117	0xbde25b63	-0.11052587
118	0x3d19c6a1	0.037542943
119	0xbd2fcdde	-0.04292094
120	0xbc6201d5	-0.013794382
121	0x3e11a1ed	0.14221926
122	0x3db0505d	0.08609078
123	0x3c5ab88c	0.0133496635
124	0x3de2dd96	0.110774204
125	0x3e757f9b	0.23974459
126	0xbd23f2e5	-0.040026564
127	0x3dcdbf7e	0.1004629
128	0xbba8aa6e	-0.00514727
129	0x3ae2e322	0.0017310122
130	0xbdfd3507	-0.1236363
131	0xbcdee823	-0.0272103
132	0xbc5f9f6a	-0.013648847
133	0xbdd4f2c8	-0.10397869
134	0x3cd50a22	0.026005808
135	0x3d6575b3	0.05602045
136	0xbd9e0946	-0.077166125
137	0xbd34902e	-0.044082813
138	0xbd24b694	-0.040213183
139	0x3d8682a2	0.06567885
140	0xbd83944a	-0.06424768
141	0x3da49126	0.08035497
142	0x3db01394	0.08597484
143	0xbdcd9375	-0.10037891
144	0xbe0c4578	-0.13698375
145	0x3d924a94	0.07143131
146	0xbd14065d	-0.03613888
147	0xbd85b6bb	-0.06528994
148	0xbc064322	-0.008194717
149	0x3aa59d65	0.0012635408
150	0xbd83846f	-0.06421744
151	0x3e256c98	0.16154706
152	0xbd607dce	-0.054807477
153	0x3c136b36	0.008997729
154	0x3d066cee	0.032818727
155	0xbded3a49	-0.11583383
156	0x3dd67dc0	0.10473204
157	0x3e3bf870	0.1835649
158	0x3d766c74	0.060162023
159	0xbd65366e	-0.05596011
160	0x3c9f0272	0.019410346
161	0xbaf703b2	-0.0018845706
162	0x3d8e87a2	0.06959464
163	0x3dd70318	0.10498637
164	0xbcd98e0b	-0.02655699
165	0xbdac7658	-0.0842101
166	0xbd89a2ff	-0.06720542
167	0xbe4d37b3	-0.20040779
168	0xbdb64c8f	-0.08901321
169	0x3e1cd831	0.15316845
170	0x3e2597ca	0.16171184
171	0x3dd05365	0.10172156
172	0xbb2ca59d	-0.002634383
173	0x3c7e1388	0.015507586
174	0x3d9f3260	0.0777328
175	0x3dbe9a2c	0.0930675
176	0xbde18357	-0.11011379
177	0x3de05725	0.109541215
178	0xbdcf4048	-0.101196826
179	0xbba71108	-0.005098466
180	0x3d840df9	0.064479776
181	0xbd69f99b	-0.057122808
182	0x3debfabd	0.11522434
183	0x3db4472d	0.08802638
184	0x3d66db60	0.056361556
185	0xbd57f4be	-0.05272364
186	0x3c464990	0.0121025
187	0x3d5e35b7	0.054250445
188	0xbca56e04	-0.020194061
189	0x3d5a3d3c	0.053281054
190	0xbd52a7a9	-0.051429424
191	0xbd4b4fac	-0.049636528
192	0x3d235d4c	0.039883897
193	0xbd6f845d	-0.05847584
194	0x3ce88cee	0.028387513
195	0xbd07b602	-0.03313256
196	0xbe11d2ad	-0.14240523
197	0xbe0dd9f0	-0.13852668
198	0xbd806d58	-0.06270856
199	0xbe38741a	-0.18013039
200	0xbd450324	-0.0480987
201	0x3d93911d	0.072054125
202	0x3b59d1b8	0.0033236574
203	0xbd9b8f3a	-0.07595678
204	0x3ae4ce6f	0.0017456542
205	0x3daccb88	0.08437258
206	0xbd896a56	-0.06709735
207	0x3e3b363a	0.18282405
208	0xbd2f2b86	-0.042766117
209	0x3ce22ee5	0.027610252
210	0x3d7499af	0.059716877
211	0xbdaa831b	-0.08325788
212	0xbc728740	-0.014802754
213	0xbe03d560	-0.12874365
214	0xbd51adaa	-0.05119101
215	0x3e4ca332	0.19984129
216	0xbde334dc	-0.110940665
217	0xbe18f321	-0.14936496
218	0x3e02288b	0.12710778
219	0x3e2234ce	0.15840456
220	0x3e60c1a6	0.21948871
221	0x3e03fe94	0.12890083
222	0x3c03ff77	0.008056513
223	0xbdb79f0d	-0.089658834
224	0xbc8a5960	-0.01688832
225	0x3d028744	0.03186728
226	0x3e06cfe2	0.13165238
227	0x3d9d84c0	0.07691336
228	0x3d92e582	0.071726814
229	0xbc537d80	-0.0129083395
230	0x3dbe6127	0.09295874
231	0xbdd6f402	-0.104957595
232	0xbd7b0836	-0.061287127
233	0x3b85cd23	0.004083292
234	0x3dc50f3a	0.09622045
235	0x3dc3211e	0.09527801
236	0x3dbc1f73	0.09185686
237	0x3d8adc9e	0.06780361
238	0xbe0f6419	-0.14003028
239	0xbd20f842	-0.039299257
240	0x3c8d3f03	0.01724196
241	0xbd29c5a0	-0.041448236
242	0xbd944925	-0.07240514
243	0xbd8998c2	-0.06718589
244	0x3cfae0e3	0.030624812
245	0xbda82a6d	-0.08211217
246	0xbd931817	-0.07182329
247	0x3d04691e	0.03232681
248	0x3d2354f1	0.03987593
249	0xbd5f4832	-0.05451221
250	0xbd15b39b	-0.03654824
251	0x3de8d5d0	0.113689065
252	0xbc326b5d	-0.010889855
253	0x3dae3af3	0.085073374
254	0x3e2726d9	0.16323413
255	0x3d2b7661	0.04186094

conv2.0.bias f4 [12]
0	0xbd848cd0	-0.0647217
1	0xbc624f93	-0.013812917
2	0x3d9e8169	0.07739527
3	0x3e0a53c1	0.13508512
4	0x3d9589b1	0.07301653
5	0xbda8601c	-0.082214564
6	0xbe00c4f2	-0.12575129
7	0x3d023b8d	0.031795073
8	0x3cb4a29f	0.0220502
9	0x3c1e3bea	0.009657839
10	0x3df953bb	0.121741734
11	0xbd316a70	-0.043314397

conv2.1.weight f4 [12]
0	0x3f82a17d	1.0205532
1	0x3f805812	1.0026877
2	0x3f82fdc7	1.0233697
3	0x3f6dfe61	0.92966276
4	0x3f81a15f	1.0127372
5	0x3f81dd5d	1.014568
6	0x3f7ded7c	0.991905
7	0x3f780eff	0.9689788
8	0x3f7b5a85	0.98184997
9	0x3f790cf6	0.972854
10	0x3f81116b	1.008344
11	0x3f831422	1.0240519

conv2.1.bias f4 [12]
0	0xbd23eb90	-0.04001957
1	0xbc8149ef	-0.015782325
2	0x3c92ef61	0.01793641
3	0xbcf401a4	-0.029785939
4	0xbb9f11fc	-0.004854439
5	0xbcd2850a	-0.025698204
6	0x3c0d4211	0.0086217085
7	0x3d21db5e	0.039515845
8	0x3d3e4de3	0.046460997
9	0xbd29bf25	-0.041442055
10	0xbc24e5bd	-0.0100645395
11	0xbc80a8d3	-0.015705502

conv2.1.running_mean f4 [12]
0	0x3f083839	0.5321079
1	0x3df19092	0.11795153
2	0x3fb9b049	1.4506923
3	0xbc49d265	-0.012318228
4	0x3f004e27	0.5011925
5	0x3f21fa0d	0.6327217
6	0x3dc87ee9	0.09789831
7	0x3da28e91	0.07937349
8	0xbba1b14a	-0.0049344646
9	0x3e940471	0.2890964
10	0x3e72f388	0.23725712
11	0xbf8e7b2e	-1.1131341

conv2.1.running_var f4 [12]
0	0x411f9000	9.972656
1	0x408298cb	4.0811515
2	0x410905bd	8.563901
3	0x40a6ac2e	5.208518
4	0x4084361d	4.1316056
5	0x40aabf9d	5.3358903
6	0x40cb2dd5	6.3493447
7	0x4103de91	8.2418375
8	0x4094cf87	4.650333
9	0x3ffc31d1	1.9702703
10	0x4062103f	3.5322416
11	0x41363c62	11.389742

conv2.3.weight f4 [12, 12, 3]
0	0x3e071a9c	0.13193744
1	0x3d11c230	0.035585582
2	0xbdfa5e91	-0.12225068
3	0x3d51d409	0.051227603
4	0xbc9f0675	-0.019412259
5	0xbe03d3f4	-0.12873822
6	0x3da7b86b	0.08189472
7	0xbd402e0d	-0.046918917
8	0x3e29e1fd	0.16590114
9	0x3da4c8b3	0.08046093
10	0x3e164c16	0.14677462
11	0xbcd86932	-0.026417349
12	0xbd88c704	-0.06678584
13	0xbdd0184a	-0.10160883
14	0xbda2253a	-0.07917257
15	0xbdbfbf14	-0.09362617
16	0xbd9950da	-0.07486124
17	0x3c98e07a	0.018661726
18	0x3cb4eab9	0.02208458
19	0xbe097b21	-0.13425876
20	0xbd57f8ca	-0.052727498
21	0x3bbc9d62	0.005756066
22	0xbd6cee65	-0.05784454
23	0xbd9978b3	-0.07493725
24	0x3d901b7a	0.07036491
25	0x3d807f97	0.06274336
26	0xbe0af1b3	-0.13568763
27	0xbdc7feb7	-0.0976538
28	0xbe09f5ce	-0.13472673
29	0x3db52d08	0.0884648
30	0x3d4555af	0.048177417
31	0x3e2343d6	0.15943846
32	0x3de94eaa	0.11391957
33	0xbdbc20af	-0.091859214
34	0x3d7f714b	0.062363904
35	0xbb959992	-0.004565426
36	0x3d5efe79	0.054441903
37	0xbe0bb864	-0.13644558
38	0x3d97777f	0.07395839
39	0x3d84ec8c	0.0649043
40	0xbdfe8399	-0.12427444
41	0x3d85b8bc	0.06529376
42	0x3d36f454	0.044666603
43	0x3e037fc6	0.1284171
44	0x3c9d72c9	0.019219773
45	0xbe24414c	-0.16040534
46	0xbd26ae0c	-0.040693328
47	0xbd34dc05	-0.04415514
48	0x3dc5b7a3	0.096541665
49	0x3d1f5f90	0.038909495
50	0xbe6606ff	-0.22463606
51	0xbe370302	-0.17872241
52	0x3e365c76	0.17808709
53	0x3de50af1	0.111837275
54	0x3bcfc4cf	0.0063406
55	0x3cd70d07	0.02625133
56	0x3cd50da3	0.026007479
57	0x3d91ef57	0.071257286
58	0xbd5b6ca6	-0.053570412
59	0x3da16436	0.07880442
60	0xbcceb5ca	-0.025233168
61	0x3df8dec6	0.12151866
62	0x3e145790	0.14486527
63	0x3d904849	0.07045037
64	0xbd9ac66d	-0.07557378
65	0x3e277189	0.16351904
66	0xbbc05198	-0.0058691017
67	0x3c74a002	0.014930727
68	0xbe0e72fe	-0.13911054
69	0xbd492ad9	-0.04911313
70	0x3dabf505	0.08396343
71	0xbd5f2212	-0.05447585
72	0x3c7b3a8e	0.015333785
73	0x3e2a0a95	0.16605599
74	0x3e476e65	0.19475706
75	0xbd9d3a08	-0.07677084
76	0x3c61a8d5	0.013773163
77	0x3dba5509	0.090982504
78	0x3d11846f	0.03552669
79	0xbd454d64	-0.04816951
80	0xbdaa0796	-0.08302228
81	0x3e279429	0.16365112
82	0xbdf60830	-0.120132804
83	0xbe287659	-0.16451396
84	0x3d9c3dc8	0.07628971
85	0xbdc733bd	-0.09726665
86	0xbd6dffec	-0.058105394
87	0xbdf84f0c	-0.12124452
88	0xbdfc4575	-0.123179354
89	0x3ce126b1	0.02748427
90	0x3dd88e26	0.10573988
91	0xbd9bd230	-0.076084495
92	0xbcc74ef1	-0.024329634
93	0x3d9af68e	0.07566558
94	0x3d1e4573	0.03864045
95	0x3e3c129a	0.18366471
96	0xbe133196	-0.14374384
97	0xbd917ad6	-0.07103507
98	0x3d903114	0.07040611
99	0x3d6810e1	0.056656722
100	0x3dd8ebb5	0.105918325
101	0x3da0ff79	0.078612275
102	0xbc3a8d5a	-0.01138624
103	0xbd312d5e	-0.043256156
104	0x3d985c3d	0.07439468
105	0x3d511c8e	0.051052622
106	0xbd9f7857	-0.07786625
107	0x3b62151d	0.0034497448
108	0x3db3482d	0.08754001
109	0xbdaff8b4	-0.08592358
110	0x3e107ce9	0.1411015
111	0xbe1f2963	-0.15543132
112	0x3da5905d	0.08084176
113	0xbdc3ca45	-0.09560064
114	0x3dd301e8	0.10303098
115	0x3ccceb96	0.02501468
116	0xbce4bbe8	-0.027921632
117	0x3d56f749	0.052481923
118	0x3dbf3dc7	0.09337955
119	0x3d354d93	0.044263434
120	0xbd6107e0	-0.05493915
121	0x3d39378a	0.04521898
122	0xbbeac8b2	-0.007165038
123	0xbc1612fb	-0.009159799
124	0xbca978c9	-0.020687478
125	0xbda7b7b4	-0.081893355
126	0xbc1264bb	-0.008935149
127	0x3de20810	0.11036694
128	0xbd8e2aff	-0.069417946
129	0x3d6b078d	0.057380248
130	0x3b72e003	0.003705979
131	0xbd37f01b	-0.044906717
132	0xbe204fdf	-0.15655468
133	0xbe0c1b1d	-0.13682218
134	0x3d5bf828	0.053703457
135	0xbdc520bc	-0.09625384
136	0x3bfa4493	0.007637569
137	0x3c6310db	0.013858999
138	0xbc5fc0d7	-0.013656816
139	0x3cf5143a	0.029916871
140	0xbe444e1c	-0.19170421
141	0x3d1ad09e	0.03779661
142	0x3e4bed93	0.19914846
143	0xbd26e61e	-0.0407468
144	0xbc9653c6	-0.018350493
145	0xbb9583f5	-0.0045628496
146	0x3d09fce7	0.033688452
147	0xbe25510b	-0.16144197
148	0x3e0cd0d5	0.13751538
149	0xbbe930b6	-0.0071164025
150	0xbe23fff6	-0.1601561
151	0x3e118a01	0.142128
152	0x3e14bebb	0.14525883
153	0x3e3982db	0.18116324
154	0x3dbe5774	0.09294024
155	0x3db9bfb9	0.09069771
156	0xbcb8e454	-0.022569813
157	0x3d068294	0.032839373
158	0xbd9acab7	-0.07558196
159	0xbb227b23	-0.0024792633
160	0xbde62cf9	-0.112390466
161	0x3d24983d	0.04018425
162	0x3c66331a	0.0140502695
163	0x3cbaa08e	0.022781637
164	0xbcc04ae5	-0.023473212
165	0x3bc72d20	0.0060783774
166	0xbc0ed544	-0.008717839
167	0xbe14b3ca	-0.14521709
168	0x3d0b8b18	0.034068197
169	0x3de11970	0.1099118
170	0xbce1216d	-0.027481759
171	0x3e273bac	0.16331357
172	0x3da74f8c	0.08169469
173	0xbd89a161	-0.06720234
174	0xbe1eaf04	-0.1549645
175	0xbd9ca09a	-0.0764782
176	0x3e00af46	0.12566862
177	0x3d8dfecb	0.069333635
178	0xbe2751eb	-0.16339843
179	0xbda21b1c	-0.07915327
180	0xbe2a5b43	-0.16636376
181	0xbc86a303	-0.016435152
182	0x3c36204b	0.011116098
183	0x3c065739	0.008199506
184	0xbdc4b443	-0.09604695
185	0xbd15ca9a	-0.03657017
186	0x3e08f0ce	0.1337311
187	0xbde18c29	-0.110130616
188	0xbd4c71de	-0.04991328
189	0x3def0b46	0.11672072
190	0x3d129a37	0.035791602
191	0x3e342a1a	0.17594185
192	0xbc9b1177	-0.018929226
193	0xbe07f4ed	-0.13277026
194	0x3e1249df	0.14285992
195	0x3da10fd2	0.078643456
196	0x3ddb2b47	0.10701614
197	0xbd320bed	-0.043468405
198	0x3ddb94dc	0.10721752
199	0x3c26ce41	0.010181011
200	0xbdd62490	-0.104561925
201	0x3d7352e2	0.059405215
202	0xbd5573b3	-0.052112292
203	0x3e1e3503	0.1544991
204	0xbd06d122	-0.03291429
205	0xbde8f074	-0.11373988
206	0x3d136111	0.03598124
207	0xbd8b4b62	-0.068014875
208	0x3d3658cb	0.044518273
209	0x3e24d868	0.16098177
210	0x3cf34ccf	0.029699711
211	0xbdab1e09	-0.08355338
212	0xbdc34183	-0.0953398
213	0xbd9c73cf	-0.07639276
214	0xbe0754cd	-0.13215943
215	0xbd8c3342	-0.06845714
216	0x3e19f074	0.15033132
217	0xbd8a8acc	-0.06764755
218	0xbd23da16	-0.040002905
219	0x3d8de028	0.0692752
220	0xbbbb0f6b	-0.005708625
221	0xbded8c1f	-0.115989916
222	0x3d0269f4	0.031839326
223	0x3d75919d	0.05995332
224	0xbd974aac	-0.073872894
225	0x3e37d3b0	0.17951846
226	0xbd09d847	-0.033653524
227	0x3dda2e1b	0.10653325
228	0x3dc8c96a	0.09804042
229	0x3d333859	0.04375491
230	0xbdd235ca	-0.10264166
231	0x3d98d291	0.07462037
232	0x3dbc1492	0.09183611
233	0x3d4e4639	0.05035994
234	0xbe0e50d8	-0.13898027
235	0x3aa02f28	0.0012221085
236	0xbd9e1a49	-0.07719857
237	0xbe1bd6d6	-0.15218672
238	0xbddfaf60	-0.10922122
239	0xbd9dc1f3	-0.077030085
240	0x3d58d6e8	0.052939326
241	0xbdfd04eb	-0.12354454
242	0xbd7011e1	-0.0586108
243	0x3ca681cc	0.020325564
244	0xbd871f75	-0.06597797
245	0xbde21fb8	-0.11041206
246	0x3dc88390	0.097907186
247	0x3dda5286	0.10660271
248	0x3d9d745d	0.0768821
249	0xbe0c0e8c	-0.13677424
250	0x3d238058	0.03991732
251	0xbd9c26ed	-0.07624612
252	0xbd7e3ebd	-0.06207155
253	0x3e23700d	0.15960713
254	0xbe0d54d6	-0.13801894
255	0x3da68e94	0.08132663

conv2.3.bias f4 [12]
0	0xbd52dbf2	-0.051479287
1	0xbd8b1774	-0.06791583
2	0xbce7d0e4	-0.028297849
3	0x3d629c8c	0.055325076
4	0x3d58c31e	0.052920453
5	0xbc880e77	-0.01660846
6	0x3db83358	0.08994168
7	0xbda90009	-0.0825196
8	0xbe10a85b	-0.14126723
9	0x3e277f5a	0.16357175
10	0xbc6a1b5b	-0.014288749
11	0x3e0fadef	0.14031194

conv2.4.weight f4 [12]
0	0x3f817dab	1.0116476
1	0x3f7f83fe	0.9981078
2	0x3f83e71b	1.0304903
3	0x3f821c24	1.0164838
4	0x3f83157e	1.0240934
5	0x3f8034b9	1.001609
6	0x3f860148	1.0469141
7	0x3f8583c0	1.0430832
8	0x3f7e1fd2	0.99267304
9	0x3f817c6d	1.0116097
10	0x3f82ab7e	1.0208585
11	0x3f7fbbb1	0.9989577

conv2.4.bias f4 [12]
0	0xbc13b545	-0.009015386
1	0xbc012f05	-0.0078847455
2	0x3bd0d13e	0.0063726
3	0x3bdbaba1	0.0067038094
4	0x3bf17aa5	0.0073693567
5	0xbc0ec535	-0.00871401
6	0xbc088209	-0.008331784
7	0x3bf51e80	0.0074804425
8	0xbc04d202	-0.00810671
9	0xbc2ee8a5	-0.010675584
10	0x3bec86d9	0.0072182235
11	0xbc0061f0	-0.00783585

conv2.4.running_mean f4 [12]
0	0xbe00e1a7	-0.1258608
1	0x3dbe41b6	0.09289877
2	0x3d6355a9	0.055501614
3	0x3d1d2abf	0.038370844
4	0x3dc2f12c	0.09518656
5	0xbd9eb072	-0.07748498
6	0x3bc0bc6d	0.005881837
7	0xbd81e032	-0.0634159
8	0xbf275bec	-0.65374637
9	0x3eb7d063	0.35901174
10	0x3e127ef8	0.14306247
11	0x3e872e2f	0.26402423

conv2.4.running_var f4 [12]
0	0x3dc57882	0.09642126
1	0x3e122e15	0.14275391
2	0x3dab768f	0.08372223
3	0x3da29a0a	0.07939537
4	0x3dbc226a	0.091862515
5	0x3d871185	0.065951385
6	0x3d8686f6	0.065687105
7	0x3db27730	0.087141395
8	0x3e90be2e	0.28270096
9	0x3da8509a	0.082184985
10	0x3dd74da2	0.10512854
11	0x3def0c30	0.116722465

conv3.0.weight f4 [12, 15, 4]
0	0xbce93e57	-0.028472109
1	0x3e159572	0.1460779
2	0xbd8a3b5d	-0.06749604
3	0xbda3bc83	-0.0799494
4	0xbd30c97e	-0.043160908
5	0xbdab69cf	-0.08369791
6	0xbd7b7f4e	-0.061400704
7	0xbcc5fa18	-0.024167106
8	0xbdbd7eb4	-0.09252682
9	0xbd437d48	-0.0477269
10	0x3d066b1f	0.032817002
11	0x3dce87e5	0.100845136
12	0xbd5ebaad	-0.054377247
13	0xbcf0c954	-0.029392876
14	0xbd58c7dc	-0.052924976
15	0xbd47de58	-0.048796028
16	0xbd2f561e	-0.042806737
17	0xbcb1fdb0	-0.021727413
18	0xbdd5d4d3	-0.104409836
19	0x3cb8406f	0.022491662
20	0xbdca1a0a	-0.09868248
21	0xbdb92401	-0.0904007
22	0xbd0238de	-0.031792514
23	0x3d18e8c3	0.037331354
24	0xbcda2438	-0.026628599
25	0xbdf918d1	-0.121629365
26	0x3dabd626	0.08390455
27	0x3d6a21f8	0.0571613
28	0x3ccc8955	0.024967829
29	0x3d8a4701	0.06751824
30	0x3db5131f	0.08841538
31	0xba75ffc4	-0.00093841203
32	0xbdd33d69	-0.103144474
33	0xbdb31c4a	-0.0874563
34	0xbc3fc76d	-0.011705262
35	0x3dd17b18	0.102285564
36	0xbd22b3cc	-0.03972225
37	0xbe1a8809	-0.15090956
38	0xbd434e60	-0.047682166
39	0xbdf14eb4	-0.117825896
40	0x3d7e40cc	0.062073514
41	0x3d6e6fa2	0.05821193
42	0xbe36cd21	-0.17851688
43	0x3e044fb0	0.12921023
44	0xbe4443ed	-0.19166537
45	0x3e04906f	0.12945722
46	0xbd9340f5	-0.07190124
47	0xbdbef6e0	-0.093244314
48	0x3e0167ea	0.12637296
49	0x3ce5a89e	0.028034505
50	0xbd25cf11	-0.040480677
51	0xbe0d17c6	-0.137786
52	0x3cb6f197	0.022331996
53	0x3d3fe267	0.046846773
54	0x3e49d431	0.19709851
55	0x3d68b8e4	0.05681695
56	0x3defea7f	0.117146485
57	0xbbf2e780	-0.007412851
58	0xbc4013d2	-0.0117234755
59	0x3dc65f8a	0.096861914
60	0xbdbfd8cd	-0.09367523
61	0x3c643ee7	0.013931013
62	0xbd5820e9	-0.05276576
63	0x3e1017bb	0.14071552
64	0x3bf8a0c6	0.007587525
65	0xbdb7ca08	-0.08974081
66	0xbd410035	-0.047119338
67	0xbd32da00	-0.043664932
68	0xbdb2a4bb	-0.08722826
69	0xbd011c82	-0.031521328
70	0xbc824871	-0.015903683
71	0x3d107ab6	0.035273276
72	0x3a90e807	0.0011055478
73	0xbdfc2f0c	-0.12313661
74	0x3acde391	0.0015708079
75	0xbc5d8d01	-0.0135223875
76	0xbda217b6	-0.07914679
77	0xbd8b78a4	-0.0681012
78	0x3dd66b51	0.10469688
79	0xbdaa9385	-0.08328918
80	0xbb2e5f8b	-0.002660724
81	0xbd539360	-0.05165422
82	0x3a46230f	0.0007558325
83	0x3d9282a8	0.07153827
84	0xbd9e9c14	-0.07744613
85	0x3d37f82d	0.044914413
86	0x3d0a5b9b	0.033778768
87	0xbcfddc94	-0.030988969
88	0x3c2877bc	0.010282453
89	0x3dd1a925	0.1023734
90	0xbe117007	-0.14202891
91	0xbdb57575	-0.08860294
92	0xbd71c18e	-0.05902248
93	0xbce21c33	-0.027601337
94	0xbdbc2f65	-0.09188727
95	0xbe0cb10d	-0.13739415
96	0xbd2ea3b9	-0.042636607
97	0xbe307e24	-0.17235619
98	0xbd298fd0	-0.041396916
99	0x3c45e219	0.012077832
100	0x3db708e9	0.08937246
101	0x3e32c7e7	0.17459069
102	0x3e34175c	0.17587036
103	0x3c010811	0.007875458
104	0xbdbe9ed6	-0.09307639
105	0xbb9022c5	-0.004398676
106	0x3dad95ef	0.08475863
107	0x3d8f8f07	0.07009702
108	0xbdd9f0df	-0.10641646
109	0x3ded7f86	0.11596589
110	0xbd86a569	-0.06574518
111	0xbdd869c5	-0.10567049
112	0xbddccc67	-0.10781174
113	0x3decccf9	0.11562533
114	0xbcff3ce5	-0.031156966
115	0xbdf504c2	-0.11963798
116	0xbcbd4ff6	-0.023109417
117	0x3dc994ce	0.09842835
118	0x3dbf32b3	0.09335842
119	0x3d1ab97c	0.037774548
120	0xbc3ff2e8	-0.011715628
121	0xbe00a0fa	-0.12561408
122	0x3dc94bcf	0.098289125
123	0xbb4ef14d	-0.0031576932
124	0xbd08ac1b	-0.033367258
125	0x3d9ba0e1	0.075990446
126	0x3d2cada0	0.04215777
127	0xbdc015b4	-0.093791395
128	0xbe07a35b	-0.13245909
129	0xbd373dc6	-0.044736646
130	0xbd6fd892	-0.058556147
131	0xbe01e189	-0.12683691
132	0x3da7527d	0.0817003
133	0x3b8aea65	0.004239368
134	0xbc0b87fe	-0.00851631
135	0xbd7cac07	-0.061687496
136	0xbd884933	-0.06654587
137	0x3c53d021	0.01292804
138	0x3db25977	0.0870847
139	0x3cc68567	0.024233533
140	0x3d426c79	0.04746673
141	0x3df1d7e3	0.11808755
142	0xbd568f4e	-0.05238276
143	0xbcbca8db	-0.023029735
144	0x3e0122ff	0.12611006
145	0x3d2e3652	0.042532273
146	0x3d5f4038	0.054504603
147	0xbda49c97	-0.0803768
148	0x3df232c0	0.11826086
149	0x3dfdb3cd	0.1238781
150	0x3d9a6bbc	0.0754008
151	0xbce96a51	-0.028493078
152	0x3dfd6c04	0.12374118
153	0x3e07b2ad	0.13251753
154	0x3ced0b19	0.028935956
155	0xbde4b36a	-0.11167033
156	0x3e2df233	0.16986923
157	0x3c4cf362	0.012509199
158	0x3d5851a7	0.052812245
159	0xbd93e8ec	-0.07222161
160	0x3c9d0df0	0.019171685
161	0x3d55b753	0.052176785
162	0xbe0078d9	-0.125461
163	0x3d573b46	0.052546762
164	0x3cc53590	0.024073392
165	0xbc7f43bb	-0.015580113
166	0x3daa5e14	0.08318725
167	0x3dba8b57	0.09108608
168	0xbdd15add	-0.10222409
169	0xbd748b92	-0.059703417
170	0xbd6c2206	-0.057649635
171	0x3de4ff65	0.11181525
172	0xbc8ce3ba	-0.017198432
173	0x3dad3002	0.084564224
174	0x3d880cee	0.06643091
175	0x3e03bcd9	0.12865008
176	0xbda117cb	-0.07865866
177	0x3e02ba05	0.12766273
178	0xbcf84df8	-0.030310616
179	0x3d0a5a7d	0.033777703
180	0xbd2ae20e	-0.04171949
181	0x3c8a782b	0.016903004
182	0xbdeb0cae	-0.11477028
183	0x3db27b9c	0.08714983
184	0xbd2172d1	-0.039416138
185	0xbdc7bb88	-0.097525656
186	0xbc966798	-0.018359944
187	0x3c89019d	0.016724402
188	0xbd3e28b9	-0.046425555
189	0x3d3cb469	0.04607049
190	0x3da6b201	0.0813942
191	0x3d8b4135	0.06799547
192	0xbd3eab9f	-0.04655039
193	0xba80bd7a	-0.0009822093
194	0xbdc4bcc8	-0.0960632
195	0x3dac9bc6	0.08428149
196	0xbd9fcbfe	-0.0780258
197	0x3db49b30	0.08818662
198	0xbcb2e4b7	-0.021837575
199	0x3d14661f	0.036230203
200	0x3c7356be	0.014852224
201	0x3c7ad40e	0.015309347
202	0x3cd282ea	0.02569719
203	0xbd1f5c67	-0.03890648
204	0x3dae38cf	0.08506929
205	0x3d71d2cc	0.059038922
206	0xbd805372	-0.06265916
207	0x3ce4fc01	0.027952196
208	0x3d8eae45	0.06966833
209	0xbd1fa4a2	-0.038975365
210	0xbe0c24c8	-0.13685906
211	0xbc22995b	-0.009924258
212	0x3bb53ecf	0.005531169
213	0x3d59a520	0.05313599
214	0xbd260d5e	-0.04054009
215	0xbd5ffaee	-0.054682665
216	0x3d345da9	0.044034634
217	0x3d3fc32c	0.04681699
218	0xbd380713	-0.04492862
219	0xbd0944a5	-0.03351273
220	0xbde6688d	-0.1125041
221	0x3ceffff8	0.02929686
222	0x3bcc045a	0.0062261047
223	0xbd5159b0	-0.051110923
224	0x3e75ccef	0.24003957
225	0xbda8d9e1	-0.08244682
226	0x3cb33136	0.021874052
227	0x3d8a706c	0.06759724
228	0xbc7e9da1	-0.015540511
229	0xbde7f0b0	-0.11325204
230	0x3cae1c07	0.021253599
231	0xbce7d1b7	-0.028298242
232	0x3da8eb3a	0.08247991
233	0xbe01a224	-0.12659508
234	0x3cd59d23	0.026075905
235	0xbcdfb9aa	-0.027310211
236	0x3c6c0115	0.014404555
237	0x3e007521	0.12544681
238	0xbcb53e13	-0.022124326
239	0x3dfb10cb	0.122590624
240	0x3ce6b66d	0.02816316
241	0x3ad61c58	0.0016335351
242	0xbd282781	-0.0410533
243	0xbd7ab625	-0.061208863
244	0xbd691a08	-0.05690959
245	0xbdf7bff5	-0.1209716
246	0x3d815fb8	0.06317085
247	0xbdc1f901	-0.09471322
248	0x3ceab05c	0.028648548
249	0x3d4b05fc	0.049566254
250	0xbc109a71	-0.008825884
251	0x3d80039d	0.06250689
252	0xbdddb96e	-0.108263835
253	0xbd811021	-0.063019045
254	0x3db25d32	0.08709182
255	0x3e37f53d	0.17964645

conv3.0.bias f4 [12]
0	0xbd1b9f87	-0.037993934
1	0x3dc2584a	0.09489496
2	0xbc13908a	-0.009006629
3	0xbdf3a022	-0.11895777
4	0x3dc5baac	0.096547455
5	0x3d56d76b	0.052451532
6	0xbd9fe12a	-0.078066185
7	0xbcea32a8	-0.028588608
8	0xbd2fd17d	-0.042924393
9	0x3dce32a5	0.100682534
10	0x3d28efa9	0.041244183
11	0x3b7c11d5	0.0038462777

conv3.1.weight f4 [12]
0	0x3f7b635c	0.98198485
1	0x3f7b47bf	0.9815635
2	0x3f7f28cc	0.99671626
3	0x3f837a54	1.0271707
4	0x3f7e5f06	0.99363744
5	0x3f854270	1.04109
6	0x3f7f7af3	0.9979698
7	0x3f820ecb	1.0160764
8	0x3f877ef3	1.0585617
9	0x3f7358ef	0.95057577
10	0x3f7e6a5e	0.99381053
11	0x3f7bb095	0.9831632

conv3.1.bias f4 [12]
0	0xbd402dfb	-0.04691885
1	0x3d36e8d8	0.04465565
2	0xbd058012	-0.03259284
3	0xbdefd787	-0.117110305
4	0xbc2e1cac	-0.010626953
5	0x3d39d962	0.045373328
6	0x3c543723	0.012952599
7	0xbba077ae	-0.0048970794
8	0xbc8cda35	-0.017193893
9	0xbd891b9f	-0.066947214
10	0xbdb879d0	-0.09007609
11	0x3bfe26fe	0.007756113

conv3.1.running_mean f4 [12]
0	0xbee006cb	-0.43755183
1	0xbe7e0660	-0.2480712
2	0xbee4d8c3	-0.44696626
3	0xbf153032	-0.58276665
4	0xbeacb331	-0.33730462
5	0xbec0b316	-0.37636632
6	0xbea68aec	-0.32527864
7	0xbf42932b	-0.7600581
8	0xbf8ac167	-1.0840272
9	0xbeedc956	-0.4644267
10	0x3e76bb0f	0.24094795
11	0xbf19dc34	-0.6010163

conv3.1.running_var f4 [12]
0	0x40a9eebc	5.3103924
1	0x40bfe516	5.9967146
2	0x40db23a7	6.848102
3	0x40a29010	5.0800858
4	0x4090d647	4.526157
5	0x40a30d38	5.0953636
6	0x40a19250	5.0491104
7	0x40a5ab27	5.1771426
8	0x4110c731	9.048631
9	0x40deeee2	6.9666605
10	0x40a96038	5.2929955
11	0x40882ddb	4.2555976

conv3.3.weight f4 [12, 12, 4]
0	0x3d9c0256	0.07617633
1	0xba0cb59c	-0.0005367638
2	0x3c30d78b	0.010793577
3	0xbdf40699	-0.11915321
4	0xbcbdebfc	-0.023183815
5	0xbd714229	-0.058900986
6	0x3df7e47a	0.12104125
7	0x3e4f6701	0.20254137
8	0x3d072486	0.032993816
9	0xbcab60b4	-0.020920135
10	0x3c80c990	0.015721112
11	0xbda36f28	-0.07980186
12	0x3e267db3	0.16258888
13	0xbe0447a7	-0.12917958
14	0xbdb6c9ae	-0.08925186
15	0xbd003e52	-0.031309433
16	0x3d0c7428	0.034290463
17	0x3d5b56ab	0.05354945
18	0x3d3030ac	0.043015167
19	0xbd38931d	-0.045062173
20	0xbc8da5f3	-0.017291045
21	0x3d20da0b	0.039270442
22	0xbd0a1f9e	-0.03372156
23	0xbd282a10	-0.04105574
24	0x3d93b6af	0.072125785
25	0xbd1b6533	-0.037938308
26	0xbda705c8	-0.081553996
27	0xbd9cc0ad	-0.076539375
28	0x3c50385c	0.01270875
29	0xbdb0bcf0	-0.08629787
30	0xbd92924d	-0.07156811
31	0xbccda11a	-0.025101233
32	0x3d314dca	0.043287076
33	0xbd44306a	-0.047897734
34	0xbda39854	-0.07988039
35	0xbde37322	-0.11105944
36	0xbda0b1ae	-0.0784639
37	0x3dc2d357	0.09512966
38	0x3d5d15d1	0.053975884
39	0x3d6a5d9d	0.057218183
40	0xbdbd2c3f	-0.09236955
41	0x3ddddb40	0.10832834
42	0xbc290d8c	-0.010318171
43	0x3e0777b8	0.13229263
44	0xbd0b8904	-0.034066215
45	0x3e05618c	0.13025492
46	0xbd89a69c	-0.06721231
47	0x3e0d0d16	0.13774523
48	0xbcac0f91	-0.021003516
49	0xbdcdfdb2	-0.10058154
50	0x3dc818bc	0.09770343
51	0xbd4fda12	-0.050745077
52	0xbdb7797e	-0.0895872
53	0x3d0a6b65	0.033793826
54	0xbd48cf08	-0.049025565
55	0xbddfac75	-0.109215654
56	0x3d7a6875	0.061134774
57	0x3ce3b2e7	0.027795268
58	0xbd9b007b	-0.07568451
59	0x3ba052c7	0.0048926803
60	0x3e1c8e24	0.15288597
61	0x3de8c382	0.11365415
62	0x3dd1ad9a	0.1023819
63	0xbd92be9a	-0.071652606
64	0x3d776c92	0.060406275
65	0xbd1ddaec	-0.03853886
66	0xbe23b561	-0.1598716
67	0xbca0faae	-0.019650783
68	0xbe387c6b	-0.18016212
69	0x3d9689c3	0.07350495
70	0x3ccc0eb6	0.024909358
71	0x3cf1bf02	0.029510025
72	0xb8d7f360	-0.00010297331
73	0xbdd6576e	-0.10465895
74	0xbdf8abde	-0.12142156
75	0xbda1219b	-0.07867738
76	0x3d40b971	0.04705185
77	0xbd0004a0	-0.03125441
78	0xbd21e15a	-0.039521553
79	0xbde7a8b8	-0.113114774
80	0x3c51c664	0.012803648
81	0x3e099279	0.13434781
82	0xbcac7fd9	-0.021057056
83	0x3e36726e	0.17817089
84	0x3dc6da8e	0.09709655
85	0x3d9d0b69	0.07668192
86	0x3e2a0c2c	0.16606206
87	0x3d192e93	0.037397932
88	0x3d77f2ac	0.060534164
89	0xbd947df7	-0.072505884
90	0xbd8be195	-0.06830136
91	0x3d21588f	0.039391097
92	0xbd75cb7a	-0.060008503
93	0x3bd2df87	0.006435338
94	0xbbdc7d31	-0.006728791
95	0x3d9c15cd	0.07621346
96	0xbd273f56	-0.040831886
97	0x3d474535	0.048649985
98	0x3c7046a3	0.014665279
99	0xbd437fbd	-0.047729243
100	0x3d724879	0.059151147
101	0xbdb56251	-0.08856643
102	0xbd214772	-0.039374776
103	0x3d1142c8	0.03546408
104	0xbdf65f95	-0.120299496
105	0x3d29480a	0.041328467
106	0x3d9c8d79	0.07644171
107	0xbd3b0dda	-0.045667507
108	0x3dd0b8bb	0.101914845
109	0xbd648eac	-0.055800125
110	0x3dfb255c	0.12262985
111	0xbe197196	-0.14984736
112	0xbd83d06a	-0.06436236
113	0xbcf2b745	-0.029628405
114	0x3e06306c	0.13104409
115	0x3c361af2	0.011114823
116	0xbd744af2	-0.059641786
117	0x3c927e2c	0.017882429
118	0x3da93908	0.08262831
119	0x3d959461	0.07303692
120	0x3da8f92d	0.082506515
121	0xbd729185	-0.05922081
122	0x3da8dc6e	0.082451686
123	0x3e12257a	0.14272109
124	0xbd6fad8b	-0.058515113
125	0xbda56b1f	-0.08077072
126	0x3d812ea7	0.06307726
127	0xbb3dc564	-0.0028956765
128	0x3e2f6f9b	0.17132418
129	0xbe19b9e8	-0.15012324
130	0xbbd0e91a	-0.006375444
131	0x3d41c12a	0.047303356
132	0x3e071e57	0.13195167
133	0xbdd6db7b	-0.10491081
134	0x3cddb11f	0.027061997
135	0x3cbe3b62	0.023221675
136	0xbd1a9bfb	-0.03774641
137	0xbbebdca8	-0.007197935
138	0xbdde1362	-0.10843541
139	0xbdf1d9ac	-0.11809096
140	0xbd95a0d0	-0.07306063
141	0x3dbda1d2	0.092593804
142	0xbd87a935	-0.066240706
143	0xbd868f0c	-0.06570253
144	0xbd86b787	-0.06577974
145	0x3d83dc15	0.06438462
146	0x3b04be32	0.0020254967
147	0x3d0c6821	0.034278993
148	0x3d1a4c3c	0.03767036
149	0xbdd73111	-0.105074055
150	0xbd20419c	-0.03912507
151	0xbd8ae0fb	-0.06781193
152	0xbd924ab8	-0.07143158
153	0x3dd2c036	0.102905676
154	0x3d6101c8	0.05493334
155	0x3cb4cdf6	0.022070866
156	0x3da3d037	0.07998698
157	0x3dd0f48f	0.10202896
158	0xbd622cd3	-0.05521853
159	0x3dfdedc9	0.123988695
160	0x3e18cae6	0.1492115
161	0xbe097c89	-0.13426413
162	0xbde36bc1	-0.11104537
163	0xbc0b26fd	-0.008493182
164	0x3e119023	0.1421514
165	0xbdbbbaa9	-0.09166462
166	0x3cd0e2c0	0.025498748
167	0xbcb9f73d	-0.0227009
168	0x3d3ab366	0.045581244
169	0xbca77e3b	-0.020445934
170	0xbca9e95c	-0.020741157
171	0xbdb7ff7f	-0.08984279
172	0x3d0374d4	0.032093838
173	0x3d26e3a0	0.040744424
174	0x3e1dc08c	0.15405482
175	0xbd437b97	-0.047725286
176	0xbe4eafb9	-0.2018422
177	0x3d03a399	0.03213844
178	0x3cbf19d1	0.02332774
179	0x3cf0a52e	0.029375639
180	0xbdbafd7a	-0.09130378
181	0xbd4025b4	-0.046910957
182	0xbc564417	-0.013077757
183	0xbd3f16af	-0.046652492
184	0xbdc53a3f	-0.0963025
185	0xbd62db24	-0.05538477
186	0x3d9d40c1	0.076783665
187	0xbb4075c9	-0.002936708
188	0xbc443f63	-0.011978003
189	0xbe0b0aac	-0.1357829
190	0x3dfd6a10	0.123737454
191	0xbc107ed5	-0.008819302
192	0x3e465aa4	0.19370514
193	0x3d9930e0	0.07480025
194	0xbdc97c7b	-0.09838196
195	0x3d009609	0.031393085
196	0xbd5ba732	-0.053626247
197	0xbda629bd	-0.0811343
198	0xbc3d9c76	-0.011572948
199	0x3ca6ebdc	0.020376138
200	0x3da165fb	0.07880779
201	0x3de6beb1	0.1126684
202	0xbdec3606	-0.11533742
203	0xbe12e6da	-0.14345875
204	0x3d96b129	0.07358009
205	0xbdab9630	-0.08378255
206	0x3db1e23f	0.08685731
207	0x3de4cc53	0.11171784
208	0x3d1a9484	0.03773929
209	0xbcce0646	-0.025149476
210	0xbdd36fb0	-0.10324037
211	0xbddc715f	-0.10763811
212	0xbd3fc872	-0.04682202
213	0xbbec0ea9	-0.007203896
214	0xbdcf18ca	-0.1011215
215	0x3ca89a1e	0.020581301
216	0xbe0515ac	-0.12996548
217	0x3d114aa8	0.03547159
218	0x3db14d1f	0.08657288
219	0xbce8da37	-0.028424365
220	0x3d9a5874	0.07536402
221	0xbe2e3364	-0.17011791
222	0xbd38e5c8	-0.04514101
223	0xbd35407b	-0.044250946
224	0x3ddb5842	0.10710193
225	0xbda6908d	-0.081330396
226	0xbda3a45f	-0.07990336
227	0x3da830cb	0.082124315
228	0x3ce09017	0.027412457
229	0xbdea62ac	-0.114446014
230	0xbd09f518	-0.033681005
231	0xbbd4a215	-0.0064890482
232	0x3d63bc38	0.05559942
233	0x3cfd0bfe	0.030889507
234	0xbdc6aaa6	-0.09700517
235	0x3ce8a8ba	0.028400768
236	0xbd86607a	-0.0656137
237	0x3ddd3ba9	0.10802395
238	0x3cfb0614	0.030642547
239	0x3cccbea2	0.024993245
240	0x3c75db02	0.015005829
241	0xbdf5a4df	-0.11994337
242	0x3d877ea9	0.066159554
243	0x3de7b3c3	0.11313584
244	0x3dacde69	0.08440859
245	0xbe4c72ca	-0.19965664
246	0x3cbff6b2	0.023433063
247	0x3de1ee03	0.11031725
248	0xbd856af8	-0.06514543
249	0x3d70fcf6	0.058834992
250	0x3dbe8d8b	0.09304341
251	0x3d93f102	0.07223703
252	0x3cb918ba	0.022594798
253	0x3c37d902	0.011221172
254	0x3dd2e4ac	0.10297522
255	0xbe2b99b9	-0.1675786

conv3.3.bias f4 [12]
0	0xbcf9f633	-0.030512905
1	0x3dca05aa	0.098643616
2	0xbde690cb	-0.11258086
3	0x3e0d7ca5	0.1381708
4	0x3e08a6be	0.13344857
5	0x3d100f1d	0.035170663
6	0x3dc87ac0	0.09789038
7	0x3b86aa29	0.00410964
8	0xbd810639	-0.06300015
9	0xbcd50759	-0.02600448
10	0x3dcfcffc	0.10147092
11	0x3e0ad3a3	0.13557296

conv3.4.weight f4 [12]
0	0x3f86163b	1.0475534
1	0x3f81e219	1.0147125
2	0x3f8377ba	1.0270913
3	0x3f868fd0	1.0512638
4	0x3f83052c	1.0235953
5	0x3f8556e0	1.0417137
6	0x3f81ccd1	1.014063
7	0x3f83b4ac	1.0289512
8	0x3f821946	1.0163963
9	0x3f86c027	1.052739
10	0x3f82d2e1	1.0220605
11	0x3f8178a0	1.0114937

conv3.4.bias f4 [12]
0	0x3bf0e8f7	0.0073519903
1	0xbc0e823f	-0.008698045
2	0x3b8c7788	0.00428671
3	0xbc0ae464	-0.008477304
4	0x3beb1107	0.0071736607
5	0x3bf42a11	0.007451304
6	0xbc03ff8a	-0.008056531
7	0xbc036ed1	-0.008022026
8	0x3bc1639a	0.005901766
9	0xbc08e265	-0.008354758
10	0xbc0e5cbf	-0.008689105
11	0xbc66e17c	-0.014091846

conv3.4.running_mean f4 [12]
0	0xbc313160	-0.010814995
1	0x3dc883ca	0.09790762
2	0xbdee1f70	-0.1162709
3	0x3d8c974a	0.068647936
4	0xbbe515a4	-0.006991105
5	0x3e9896ef	0.29802653
6	0xbcdee0b4	-0.027206756
7	0x3e168eab	0.14702861
8	0x3d4d5315	0.05012806
9	0x3ab4cf2c	0.0013794652
10	0x3d31288f	0.04325157
11	0xbe4d7b19	-0.2006649

conv3.4.running_var f4 [12]
0	0x3d53bfd8	0.05169663
1	0x3d85176e	0.064986095
2	0x3d889248	0.06668526
3	0x3d4316ba	0.047629096
4	0x3dab4d3f	0.08364343
5	0x3d7f2239	0.062288497
6	0x3de8f6dc	0.1137521
7	0x3d8d81e4	0.0690954
8	0x3dd35006	0.10317998
9	0x3d379917	0.044823732
10	0x3d8cd5f4	0.06876746
11	0x3e04fb9d	0.12986608
