model/AutoY/MScheckpoint0.pt (torch, 34213 bytes, 51 tensors)

conv1.0.weight f4 [12, 15, 2]
000000 90 a6 71 3c 16 7e 99 bd da ab 11 3e dd e4 6a bd
       0.014749184 -0.07494752 0.14225712 -0.057347167
000010 a7 5a 8b 3c e0 f5 66 3d c5 d8 ee 3a a2 6e 11 be
       0.017011 0.05638683 0.0018222561 -0.1420236
000020 49 85 9e 3d 41 45 69 bd a3 02 f5 bc 85 5e ef bd
       0.07740266 -0.05695081 -0.029908484 -0.1168795
000030 6d b6 17 be 25 9b 04 be 57 64 a2 3d 8d ed 1a be
       -0.14815684 -0.12949808 0.079292946 -0.15129681
000040 7c 31 9f 3d 45 4f a7 3d 54 6b 0c be 47 9b 85 3d
       0.0777311 0.08169416 -0.13712817 0.065237574
000050 c3 84 cc bd d9 41 62 3d 76 e0 28 be bd 0b 5a 3d
       -0.0998626 0.05523858 -0.16491875 0.05323385
000060 fd d7 0b bc f8 c2 fd 3d 57 ba 20 be 86 f4 66 3c
       -0.008535382 0.12390703 -0.15696083 0.014096385
000070 34 a4 e2 bd 29 2d 30 3e e5 34 a0 3d 44 dd 7a bc
       -0.110664755 0.17204727 0.07822589 -0.015311543
000080 7e 59 98 3c 7d d0 7c 3c 3a 14 9f 3d 52 66 ac 3c
       0.01859736 0.015430567 0.0776753 0.021044884
000090 17 66 49 bd e0 b0 2d 3e b2 5b 96 bc c1 f0 ee 3d
       -0.049169626 0.16962004 -0.01835427 0.11667014
0000a0 4f 91 95 3c d3 b8 9e bd b8 52 ac bc 39 01 24 3e
       0.018257765 -0.07750096 -0.021035537 0.16016091
0000b0 bd 63 39 3e 0f 7c 10 be 5e c9 0a 3e e0 b6 1c be
       0.18104453 -0.14109825 0.13553378 -0.15304136
0000c0 04 a8 26 3d 8b 89 36 3d a3 d1 35 3e da 5f 31 be
       0.040687576 0.044564765 0.17755751 -0.1732172
0000d0 13 47 d3 3d 3f bc a7 bd 2d 21 26 3e 54 46 2e 3d
       0.10316291 -0.08190202 0.16223593 0.04254754
0000e0 23 55 37 3e 86 fb 3f bd bd 44 87 bd 03 17 3b be
       0.17903571 -0.04687073 -0.06604908 -0.18270497
0000f0 10 35 05 3e c6 ae ad bd 39 4b 16 bc ed 34 1c 3e
       0.13008523 -0.08480601 -0.009173208 0.15254565
000100 94 b5 41 3c 87 f8 46 be 91 2c 36 be 4d ff 08 bc
       0.011823077 -0.19430743 -0.17790438 -0.00836165
000110 f6 26 5a bd 22 05 bd 3d b5 e9 12 be 6e dc 44 3e
       -0.053259812 0.09229495 -0.14346965 0.19224712
000120 28 eb 89 bd f6 d6 f0 bc c9 46 bc bc 0c fc 8d 3b
       -0.067343056 -0.029399376 -0.022982972 0.004333025
000130 af d8 ea bb 9a 5b e6 3d b9 0e f4 bd 04 73 29 bd
       -0.007166944 0.1124794 -0.119168706 -0.041369453
000140 ac 62 09 bc 8f 32 43 bd 26 a8 de 3d 13 9b 5b 3c
       -0.008385342 -0.04765564 0.108719155 0.013403672
000150 bb 09 91 3d 94 60 d3 bc 88 be 52 be 3e 20 e1 3d
       0.07081934 -0.025802888 -0.20580494 0.10992478
000160 d9 8e 71 3e 50 b3 f1 bd 68 07 8d bd cc 4e e7 3d
       0.23589648 -0.11801779 -0.06886178 0.11294326
000170 b2 c1 e9 bd 6e 92 cf bd 02 51 ae bd 09 c7 02 be
       -0.114138976 -0.10135351 -0.08511545 -0.12771238
000180 f6 88 ea bc 44 83 0f 3d c9 17 db 3d 6f ce f4 3d
       -0.028629761 0.035037294 0.10697896 0.119534366
000190 8b 37 4d 3e 4d 67 f5 3d 22 86 76 3e 27 59 3b be
       0.20040719 0.11982594 0.24074605 -0.18295728
0001a0 7b 67 a4 3d a5 49 f1 bd a8 2a 0a 3e f8 ff 81 bd
       0.0802755 -0.11781625 0.13492835 -0.0634765
0001b0 44 10 bc 3b ce 8c b8 3d 12 ed 2e be e9 7f 23 be
       0.0057392437 0.09011231 -0.17082623 -0.15966763
0001c0 76 6d d5 3d 91 1c 9e 3c 1a dc bc 3b 76 5f be bd
       0.10421269 0.01930073 0.005763543 -0.092955515
0001d0 69 0e 06 bc 1a de 22 3e 41 bf a9 3d 01 ca 5e be
       -0.008182147 0.15905038 0.08288432 -0.21756746
0001e0 af 2c 34 bd a1 8e 31 3d 01 b9 00 3e 8a 3d 42 3e
       -0.043987926 0.043348912 0.12570573 0.18968788
0001f0 b7 72 ec 3c c7 bd fb 3d 03 1a df bd 23 d6 18 bd
       0.028863294 0.122920565 -0.10893633 -0.03731359
000200 65 ec ff 3d de ed 19 3e de ae 05 bd d8 f6 3d 3e
       0.124962606 0.15032145 -0.03263747 0.18551195
000210 78 f3 78 bd 4e 5b 09 be 02 27 a2 bd 07 0f ea bc
       -0.060779065 -0.13413736 -0.079175964 -0.028571619
000220 bc 25 af bd bb a8 15 be 0b 17 09 be 82 1f 1d bd
       -0.08552119 -0.14615147 -0.13387696 -0.038360126
000230 8b 6a 37 3e 25 d9 cb 3d d6 81 7a be 07 44 0e 3d
       0.17911737 0.099535264 -0.24463591 0.034732845
000240 ba 3f d7 3d 1e 4f e0 bd 09 0c fc bd 9d f2 b8 bd
       0.10510202 -0.109525904 -0.12306983 -0.0903065
000250 65 07 cc bd 56 e0 06 bd bf 20 18 bc 53 0d 3d bd
       -0.09962348 -0.032928787 -0.009285151 -0.046155285
000260 06 a6 10 3d 69 98 59 bd ca c5 a1 bd a6 b9 2b 3d
       0.035314582 -0.053123865 -0.078990534 0.041925095
000270 35 20 ed 3d 81 b9 a4 bd ed 29 27 be fc b8 0a be
       0.11578409 -0.080431946 -0.16324587 -0.13547128
000280 b3 10 02 3e ee 28 87 3a 3d f6 d5 3d de 5b 06 3e
       0.12701683 0.0010311881 0.10447357 0.13120982
000290 a6 93 15 bd 36 0b e1 3b 71 78 69 3d 72 41 51 3d
       -0.03651776 0.0068677915 0.056999628 0.051087804
0002a0 39 ec 07 be a8 00 88 3c 13 f0 84 bd 57 66 6d be
       -0.13273706 0.016601875 -0.06491103 -0.23183571
0002b0 8b 6d 15 3e 37 30 ed 3d ed d7 26 3e a3 c7 a3 3d
       0.14592569 0.11581462 0.16293307 0.07997062
0002c0 1c 7d 47 bc 69 5a 97 bd a3 af 95 bc 97 d4 cf bc
       -0.0121758245 -0.07390291 -0.018272227 -0.025369925
0002d0 df 80 d7 3c a7 15 48 bd c2 c7 5a 3d 1c b4 1f 3e
       0.026306568 -0.048848774 0.05341316 0.1559605
0002e0 dc da 4d bd 60 c5 8e 3d 65 8c 86 3d bc f3 99 bc
       -0.05025755 0.0697124 0.06569747 -0.01879298
0002f0 bc c6 18 3e cc 58 bb bd aa 2f 32 bd cb 75 9b 3d
       0.14919561 -0.09147796 -0.043502487 0.075908266
000300 2e 95 d4 3d 48 f1 cf bd 40 51 98 bd 6f 72 29 3e
       0.10380016 -0.101534426 -0.07437372 0.16547559
000310 8c f9 ba 3d f7 cc 43 bd a1 6b 7a 3d 13 c0 59 3d
       0.091296285 -0.04780289 0.0611378 0.053161692
000320 12 e9 8c bd cc 16 37 bd e2 85 87 3c 64 75 5f be
       -0.06880392 -0.044699475 0.016543332 -0.21822125
000330 9f ed 93 3d 72 b1 87 bb b2 91 ac bd 14 48 e5 bc
       0.07223057 -0.004141026 -0.08426227 -0.027988471
000340 3e 14 7e 3d d8 e4 e4 3d 5a d0 91 3d a9 f3 19 bd
       0.062031023 0.11176461 0.07119818 -0.037585888
000350 a4 07 39 3e ce 4f 41 3d 4c 28 e6 3c 38 a5 97 bc
       0.18069321 0.04719525 0.028095387 -0.0185114
000360 a0 87 a9 bd 4e de a6 3d 08 54 26 3b e8 9b 87 bd
       -0.082778215 0.0814787 0.0025379676 -0.06621534
000370 e1 b7 34 3e c4 b9 01 3e 3e 13 41 be 3c b9 c0 3d
       0.17648269 0.1266852 -0.18854997 0.09410331
000380 5e 62 da 3d ea 9b f0 3c a9 22 57 bd 3a f7 20 3d
       0.10663293 0.02937122 -0.05252329 0.039298274
000390 a0 99 60 bd e1 aa de 3d 44 c4 85 3d 9d 2d 3f bd
       -0.05483401 0.10872436 0.06531575 -0.04667436
0003a0 b7 b9 43 be f5 f8 89 3b 93 2c 21 3e ba f0 cf 3d
       -0.19113813 0.004210586 0.1573966 0.10153337
0003b0 72 26 ac b9 76 37 97 bd d2 e0 f4 3d 06 a6 7d 3d
       -0.0003283504 -0.07383625 0.119569436 0.06192591
0003c0 36 bd 92 bb b4 ed 03 3e d9 cf 0d be 49 47 91 3c
       -0.004478122 0.12883645 -0.13848819 0.017734187
0003d0 1e 2d bd bd f7 cb 3e 3d d6 18 da bd 55 1d 3d 3d
       -0.09237121 0.046581235 -0.10649268 0.04617055
0003e0 f7 87 56 3c f8 39 ea 3b 05 c7 0e 3e f3 7f 15 3e
       0.01309394 0.0071480237 0.13943107 0.1459959
0003f0 38 3f a7 bd 7d 58 86 3d 75 34 9c 3d 30 88 0f be
       -0.08166355 0.065598466 0.07627193 -0.14016795

conv1.0.bias f4 [12]
000000 0f ff e3 3d 1d 0a 90 bc e6 d5 00 be e8 5a 19 3e
       0.11132633 -0.017582947 -0.12581596 0.14976084
000010 77 71 a0 bd e8 aa e9 bd e8 21 1b 3e f3 34 1d 3d
       -0.07834142 -0.11409551 0.15149653 0.038380574
000020 c6 05 5e 3c c6 b7 36 be ff 7e 2c be 15 bb fc bd
       0.013551181 -0.17843542 -0.1684532 -0.123403706

conv1.1.weight f4 [12]
000000 13 3a 7d 3f e5 13 81 3f 4f 8e 80 3f 37 c5 83 3f
       0.9891674 1.0084196 1.0043429 1.029456
000010 dc 91 7d 3f 66 ce 80 3f 6f 1e 72 3f a5 bc 82 3f
       0.9905069 1.0062988 0.9457769 1.021382
000020 c9 03 7c 3f 10 56 82 3f 6e 82 78 3f 17 f5 87 3f
       0.98443276 1.0182514 0.9707402 1.062167

conv1.1.bias f4 [12]
000000 32 8f d6 bb c3 3c 27 bd 6a 11 96 bc c0 7b 83 3c
       -0.006547832 -0.04082943 -0.01831885 0.01605022
000010 b5 81 3a bd 6a e0 04 bd fe 1f 64 bc 12 d3 9b bc
       -0.045533855 -0.03244058 -0.013923643 -0.019021545
000020 60 da 7e bc 3d 60 8e bd a3 0c e0 bb 38 60 09 3d
       -0.015554994 -0.0695195 -0.006837444 0.033539027

conv1.1.running_mean f4 [12]
000000 30 59 d7 3e 16 5b 86 3e 8c 92 72 be a9 95 1c bf
       0.42060232 0.26241368 -0.23688716 -0.61165863
000010 1d 78 a4 3e 1a 83 49 3e dc 6e db 3e ee c3 dc 3e
       0.3212289 0.19678918 0.42858016 0.43118232
000020 01 59 af be 49 5e 38 be fd ef b6 be d7 f9 46 bf
       -0.34247592 -0.18004717 -0.35729972 -0.77724975

conv1.1.running_var f4 [12]
000000 44 52 45 40 a9 4b 48 40 90 85 e4 40 66 21 b7 40
       3.083146 3.129618 7.141304 5.722827
000010 55 74 78 40 f4 94 1b 40 6b 10 27 40 d9 a3 3d 40
       3.8821003 2.4309664 2.610377 2.9631255
000020 4b a1 ae 40 94 76 45 40 2c 0a ba 40 2f 33 b1 40
       5.457189 3.0853624 5.8137417 5.537498

conv1.3.weight f4 [12, 12, 2]
000000 25 be cd 3c a7 98 f2 3d d7 01 0b 3e 2a 69 85 3d
       0.025115082 0.118455224 0.1357492 0.06514199
000010 01 da 03 bd b9 51 76 3d f9 43 10 be 5e 97 10 3e
       -0.032190327 0.06013653 -0.1408843 0.14120242
000020 2c df 49 bd 6c 82 3f be 90 ca 16 be 0e aa fd 3d
       -0.0492851 -0.18702096 -0.14725709 0.12385951
000030 1d e9 64 3a 38 24 03 be eb d9 4b 3e 9d 1e 4a be
       0.00087322464 -0.12806785 0.19907348 -0.1973824
000040 70 f2 66 be ef bd 18 be ce 71 41 3e f4 4d 07 3e
       -0.2255342 -0.14916204 0.1889107 0.1321333
000050 64 d5 3e be 80 45 bd bd 9b d4 a1 bc b7 b8 00 3e
       -0.1863609 -0.09241772 -0.019754699 0.12570463
000060 b4 07 3c be f8 80 1b be 24 36 5c be 07 e1 06 3e
       -0.18362314 -0.15185916 -0.21505028 0.13171779
000070 97 44 b1 bc f6 4f 24 3e 10 8c 19 3e cf 3c c8 bd
       -0.021639151 0.16046128 0.14994836 -0.09777223
000080 b7 95 91 bd 26 b1 62 3e 73 fb 48 3e 39 a3 9a bc
       -0.07108634 0.2213789 0.1962717 -0.018876659
000090 84 50 24 3d 2a c2 4d bd 83 23 bb 3d e7 21 ff 3c
       0.04011585 -0.050233997 0.09137633 0.031144096
0000a0 da a5 04 3d 98 ed 61 bd cf 7e 73 3d 6f 58 f2 bd
       0.03238473 -0.055158228 0.059447106 -0.118332736
0000b0 32 8e 62 be f9 ba a0 bd a6 da 4e 3d 38 61 db bc
       -0.22124556 -0.07848162 0.05050149 -0.026779756
0000c0 45 51 12 3e 6b da f8 3d d8 89 2a 3e a4 13 41 3e
       0.14288814 0.12151035 0.16654146 0.18855149
0000d0 fa 28 0c be 87 1c de bd f0 88 dd 3d eb 5b 17 3d
       -0.13687506 -0.10845285 0.108171344 0.036952894
0000e0 7f 93 7c be 08 fc 29 3e 4f b6 15 be 54 5a 8c bd
       -0.2466564 0.16600049 -0.14620326 -0.06853166
0000f0 9c 82 57 3e ab d9 c0 bd 42 d5 a2 3c 64 8e 2c bd
       0.21045917 -0.09416517 0.01987708 -0.04212798
000100 85 b5 4d bd 6e e9 2c 3e 67 fd ab 3d 01 a8 2e be
       -0.05022194 0.16885921 0.08397942 -0.17056276
000110 19 2b c7 bd cf 02 81 3c 98 95 82 3d ec 63 fc bd
       -0.09725017 0.01574841 0.06376189 -0.12323746
000120 73 b0 88 bd 68 50 0d 3e d2 42 52 3e d9 d7 a6 bd
       -0.0667428 0.13800204 0.20533302 -0.081466384
000130 9b 43 5d be 6d a9 91 b9 06 45 b9 3d 19 aa 39 3e
       -0.2160782 -0.00027782787 0.09046368 0.18131293
000140 3b ea c3 3d 77 28 56 bd ca 71 53 3e b0 2d 7a bc
       0.0956616 -0.052284684 0.20648876 -0.015269682
000150 b9 e2 1e 3e 11 c6 04 be bc 5c 6a bd 09 67 ae bc
       0.15516175 -0.12966181 -0.057217345 -0.021289365
000160 ef 73 fd bd 7d 3a 50 3e 65 df bd 3d 7d ca 1c be
       -0.12375628 0.20334812 0.09271125 -0.15311618
000170 a7 42 eb bd 8d a5 d9 3d 8b 59 0c be b3 69 f3 3d
       -0.11487322 0.106272794 -0.13706033 0.11885395
000180 e2 41 76 3e 31 32 0a 3e 55 0f 09 bd 15 86 0c 39
       0.2404857 0.13495709 -0.033461887 0.0001340139
000190 6c fb dc bd f8 04 38 3e 5b c3 d4 bc 89 21 4d 3d
       -0.107901424 0.17970645 -0.025972059 0.05008081
0001a0 1d 60 d9 bd a8 54 6d 3e 91 3e 28 bd c2 9a dc 3d
       -0.10614035 0.23176825 -0.041075293 0.10771705
0001b0 18 8b 9d bd 86 0f 2a bd ac 6b 28 be 6f 18 a2 3d
       -0.07692546 -0.04151871 -0.16447324 0.079148166
0001c0 81 1d 9e 3d 39 d3 cf bc f3 5c 1b be 01 a7 ac 3d
       0.07720471 -0.025369273 -0.15172176 0.08430291
0001d0 4a 08 f1 3d fe c5 38 be f0 c3 3a be 87 10 0c 3c
       0.11769159 -0.18044278 -0.18238807 0.008548862
0001e0 4c b9 81 bd 89 2b 42 be ef b6 0b be cc ff 28 3d
       -0.06334171 -0.1896192 -0.13644002 0.041259572
0001f0 cc a8 bf 3d 60 c8 24 be 3b d8 40 3d 9c 58 18 3d
       0.09358367 -0.16092062 0.047081213 0.03719388
000200 e3 40 b1 3c 27 5b 20 be fb d0 46 3e bc 3d 21 3d
       0.021637386 -0.15659772 0.19415657 0.039365515
000210 0d 4c 4e bd a7 cd 8d bd 9a fc 27 be 2d a2 30 3d
       -0.050365496 -0.06923991 -0.16404954 0.043123413
000220 3d 14 af bc 9c a5 5b 3c ab 26 b4 bd b6 2b 33 3d
       -0.021371955 0.013406184 -0.08796438 0.043742858
000230 2a 50 86 bd 25 6b ec bc 92 d2 76 bd 82 2d f4 3b
       -0.06558259 -0.028859684 -0.06025941 0.007451714
000240 d9 58 60 be 3d 2b f5 bd 2b 66 57 3c 9d f6 a8 3d
       -0.21908893 -0.11971138 0.013146917 0.08250163
000250 97 45 cd bd b9 0e 34 3e 98 e1 2a 3e d1 8a 71 3e
       -0.10023039 0.17583741 0.1668762 0.2358811
000260 c2 bf f0 3d 04 c7 18 3d 99 95 42 bd 81 ca 70 bd
       0.11755325 0.03729917 -0.04750595 -0.058786873
000270 79 30 84 3c 1c bf a5 3d c5 24 2c 3e 67 23 8e bd
       0.016136395 0.08093092 0.16810901 -0.06940346
000280 6b a4 31 be e1 f2 5e 3d 00 56 1c be cf 74 43 3d
       -0.17347877 0.054430846 -0.15267181 0.04771882
000290 fb 73 6a 3c 10 04 05 3e 1d b0 60 3e 4a 3e 90 bc
       0.014309878 0.12989831 0.21942182 -0.017607827
0002a0 fe 1c 0e 3e 31 8f 14 be 63 b5 86 3d ea 5c 2a be
       0.13878247 -0.14507748 0.065775655 -0.16637006
0002b0 42 d7 41 3e 98 6e bd bc a2 08 fd bd 4a 1e cc 3d
       0.1892977 -0.023124024 -0.12355162 0.09966715
0002c0 fd 36 26 3d 54 d4 ab 3d 88 4d 13 be 42 7b 7f bd
       0.040579785 0.08390108 -0.14385045 -0.062373407
0002d0 d1 01 16 3e 97 a5 0d be 83 df e2 bd 1e 64 b7 bd
       0.1464913 -0.13832699 -0.11077788 -0.08954643
0002e0 95 cd a4 3d 43 a5 23 3e 10 76 76 bd 67 36 07 3e
       0.08047024 0.15981011 -0.060171187 0.13204347
0002f0 a3 b2 0d 3e ca 0b 8c 3d 3c d0 1f be 6f b9 64 be
       0.13837676 0.06838186 -0.15606779 -0.22336362
000300 82 b7 b3 3d 6d ae 16 be e0 52 31 3e d2 a7 ff bc
       0.08775236 -0.14714976 0.1731677 -0.031207953
000310 fe 17 3a 3e dd a1 43 3d 8c fa 19 bd 10 d7 3a 3d
       0.18173215 0.047761787 -0.037592456 0.045615256
000320 79 f7 a3 3d af 59 05 be 0e 42 a8 3d f2 3d 79 3e
       0.08006186 -0.13022493 0.08215724 0.24340037
000330 33 ed 8c 3d f3 43 03 be d4 f5 b2 bd be c7 92 bd
       0.0688118 -0.1281889 -0.08738294 -0.07167004
000340 3f 7c 2d be 10 10 ba 3c 6d 61 49 3d a2 17 fe bd
       -0.16941927 0.022712737 0.049165178 -0.12406851
000350 95 17 aa bd 26 e3 0d 3e 50 16 3a 3e e0 00 d3 bd
       -0.08305279 0.13856182 0.18172574 -0.10302901
000360 89 c5 ea 3b e2 99 a9 bd 40 a2 eb 3d 92 9d 27 3c
       0.0071646613 -0.08281304 0.11505556 0.010230439
000370 88 34 f5 3c a4 6c 6b 3e b6 73 1f be 12 a7 08 be
       0.029932275 0.22990662 -0.15571484 -0.13344982
000380 09 e4 aa 3d 57 3b 01 3e 3b bc 4a be 94 51 1e be
       0.083442755 0.12620293 -0.19798367 -0.15460807
000390 c7 57 1b 3d dd 5a fa bd df f1 84 bd 73 04 2b 3e
       0.037925508 -0.12224362 -0.06491446 0.16700916
0003a0 a4 9f 09 3e a5 96 5b 3e 63 28 fe bc cd d2 7a 3c
       0.13439804 0.21444185 -0.031025117 0.015309048
0003b0 ba 66 e1 3c 44 d5 33 be 14 f9 83 3d 77 3e de 3d
       0.027514804 -0.17561823 0.06443992 0.10851758
0003c0 f2 b1 39 bd dd fa 35 bc 87 a9 dd 3d 2a 9d 51 bd
       -0.045335717 -0.011107174 0.108233504 -0.051175274
0003d0 62 31 d8 3d a4 a4 23 be 15 3b 21 3e db 7d 6e 3e
       0.10556294 -0.15980774 0.15745194 0.23290198
0003e0 1f 3a c6 3d 15 d4 c6 bb 15 a9 38 3e 47 2a 3b be
       0.096790545 -0.0060677626 0.1803325 -0.18277846
0003f0 78 49 49 bd 15 a8 15 be c1 7e d0 3c 31 42 16 be
       -0.04914233 -0.146149 0.025451066 -0.14673688

conv1.3.bias f4 [12]
000000 9e b4 3f be 9b 6a 35 3e db c5 b4 bc 15 c3 3b 3e
       -0.18721244 0.17716448 -0.022067001 0.18336137
000010 ec 3f 4a bd 1b c1 30 3e bf c9 5e 3d 3f fd c6 bd
       -0.049377367 0.17261164 0.05439162 -0.097162716
000020 0c 1a df bd 02 3d 2f 3e 96 d4 c1 bd d1 af a4 3d
       -0.1089364 0.17113116 -0.09464376 0.08041347

conv1.4.weight f4 [12]
000000 a2 c0 82 3f a0 76 7f 3f 38 da 80 3f 92 9f 81 3f
       1.0215037 0.9979038 1.0066595 1.0126822
000010 78 1b 82 3f 07 54 80 3f f9 41 81 3f 26 e7 80 3f
       1.0164633 1.0025643 1.0098258 1.0070541
000020 1b 06 83 3f 15 ec 81 3f 0f c7 81 3f c9 e0 7e 3f
       1.0236238 1.0150172 1.0138873 0.99561745

conv1.4.bias f4 [12]
000000 8c f4 4c 3a 27 23 9d ba 92 4c 1f bb 64 1b 06 bb
       0.0007818423 -0.0011988626 -0.0024307114 -0.0020463103
000010 b2 12 f5 39 03 dc a4 bb 3d f3 3f bb 85 ba 00 bb
       0.0004674397 -0.0050311103 -0.0029289268 -0.0019642424
000020 14 a1 fe 39 7a c5 53 bb ac 4f fa ba 05 74 74 bb
       0.00048566668 -0.003231375 -0.001909723 -0.0037300598

conv1.4.running_mean f4 [12]
000000 e5 62 86 be 4c cb 15 3e 9c cd 68 3d 4b d3 b2 3e
       -0.26247326 0.14628333 0.05683671 0.3492683
000010 f1 64 7a bc 80 71 1e bd 3f ce 97 3e 31 18 30 be
       -0.015282855 -0.03868246 0.2964954 -0.17196728
000020 47 b5 8e 3b d3 00 84 3e 62 50 1c bd 94 e1 c8 bd
       0.004355106 0.2578188 -0.038162597 -0.098086506

conv1.4.running_var f4 [12]
000000 be 23 32 3e de 83 d8 3d d2 f9 a6 3d a8 a5 e2 3d
       0.17396447 0.10572027 0.08153118 0.11066753
000010 30 66 65 3d 64 12 ca 3d 84 5e 9d 3d 09 5d a8 3d
       0.056005657 0.09866789 0.07684043 0.0822087
000020 b7 e3 94 3d 86 64 e3 3d dc 63 17 3e b3 c5 92 3e
       0.07269996 0.11103158 0.14784187 0.28666458

conv2.0.weight f4 [12, 15, 3]
000000 4e be a9 bd 9f 14 ab 3d ec bb 03 3d 5f 6d dd bd
       -0.08288251 0.083535425 0.03216164 -0.108118765
000010 3a 15 b3 bd 8f f4 c4 3d 28 af 08 3e 45 fe 33 3d
       -0.08744283 0.09616958 0.13348067 0.043943662
000020 3e 98 28 bb ab 44 f5 3d 76 08 2c 3e fa 16 11 bd
       -0.002572551 0.11975988 0.16800103 -0.035422303
000030 72 df b7 3c 10 1f d0 bc a0 14 cd 3d eb 28 e6 bc
       0.022445414 -0.025405437 0.100136995 -0.028095683
000040 64 73 07 be f7 fd d4 3d e3 b8 25 be 5d 00 07 be
       -0.13227612 0.104000024 -0.1618381 -0.13183732
000050 78 d1 87 3d 97 60 bb 3d e9 66 8f bc 7e e9 32 3d
       0.0663175 0.091492824 -0.017505126 0.043679707
000060 e6 6c f7 b9 c9 b1 34 3e 91 69 55 3d 37 3b 6b be
       -0.00047192647 0.17645945 0.05210263 -0.22971807
000070 9d 4f 93 3d 76 d2 7f 3c 69 23 a9 bd 74 9f 53 3d
       0.071929194 0.015614143 -0.08258707 0.05166574
000080 a9 e2 b5 bd 0f e6 8e 3c 1e e0 0d be e2 22 78 bd
       -0.088811226 0.017443685 -0.13855025 -0.06058014
000090 ba 44 ff bc b3 77 3c 3d 29 b8 f9 bd 42 6e 94 3d
       -0.031160701 0.04601259 -0.12193329 0.072475925
0000a0 37 6f 05 3d 48 05 b8 bc 14 41 67 bd 77 b3 79 3c
       0.032576766 -0.022463456 -0.056458548 0.015240542
0000b0 cd 3b 08 3d 15 d3 7d bd 54 e1 02 3d e9 df 8f 3c
       0.033260155 -0.06196888 0.03195317 0.017562823
0000c0 28 3d 6a bc a1 74 3a 3a 8a 32 ec 3d f7 79 db bd
       -0.014296807 0.0007112716 0.11533077 -0.10716622
0000d0 bf 0c 45 3d 73 ba b7 bd 57 e4 64 bd 6b fc ed 3b
       0.04810786 -0.08971109 -0.055881824 0.0072627566
0000e0 4b 62 dd 3b 7b fb bb 3b 09 e9 ff 3c 4e 9b b5 bd
       0.006756102 0.005736766 0.03123905 -0.08867513
0000f0 29 a5 0b bc 96 50 9b 3d 1f f5 13 3d 92 39 18 bb
       -0.008523264 0.0758373 0.036122438 -0.0023227674
000100 47 92 2c be 1c 03 d7 3d 6e bc ec bd 8b 5c 40 3d
       -0.16852675 0.1049864 -0.115593776 0.046963256
000110 cd 48 b4 3c f3 9a b2 3d 7c 1d 00 be f2 0a bc 3d
       0.02200737 0.087209605 -0.12511247 0.09181775
000120 11 90 97 3d 1b 24 2c be 98 a5 9b bd de 52 ab bd
       0.07400525 -0.16810648 -0.07599944 -0.08365415
000130 51 ce 1c bd e6 6b 12 be c7 30 2c 3e 75 c6 f3 3d
       -0.038282696 -0.14298972 0.16815482 0.11903087
000140 b4 f7 77 3d 1b 27 62 3c a3 62 18 3e 27 3c 95 bd
       0.060538962 0.013803269 0.14881377 -0.07286864
000150 30 21 90 3d b3 15 9b bd 13 b2 c4 bd 83 ca 0a bd
       0.0703758 -0.07572498 -0.096042775 -0.033884536
000160 fa c4 c8 bd 53 0b b8 bd 8a 56 42 3d 60 64 77 bc
       -0.09803195 -0.08986535 0.04744581 -0.015099615
000170 c5 5a b1 3d 44 8b c8 3d cf 7f d6 3d 88 91 ca 3d
       0.08659891 0.09792188 0.10473596 0.09891039
000180 6c 34 8a 3d 8e 9a 77 3d 39 38 7f 3d f5 7d 74 bd
       0.0674828 0.06045013 0.062309477 -0.059690434
000190 65 90 01 3e 18 98 69 bd 9a 4e 26 bd df 45 b8 3c
       0.12652738 -0.057029814 -0.040602304 0.022494255
0001a0 4d 3c b5 bc f8 78 e1 3d 4d f6 af 3d d5 52 d0 3d
       -0.02212348 0.11009401 0.085919 0.10172049
0001b0 28 5e 73 3d 0c 2b e0 bd e2 a1 f8 3d 63 80 2d bc
       0.059415966 -0.109457105 0.12140252 -0.010589692
0001c0 f6 63 01 be b6 02 a7 3c 5d c8 10 3e c1 78 7a 3d
       -0.12635788 0.020387035 0.14138933 0.061150316
0001d0 7f a0 8e 3d 85 98 10 be 4b 6c 9f bd cb b3 00 be
       0.06964206 -0.14120682 -0.07784327 -0.12568586
0001e0 9c 67 81 3d 0d ac 30 3e 3e bc 83 bd 40 cc 41 3e
       0.0631859 0.17253132 -0.06432389 0.18925571
0001f0 f2 10 8e 3d ec 98 3b 3e 37 39 6e 3e d7 ed 39 3d
       0.06936826 0.18320054 0.23264013 0.045392837
000200 06 09 bb 3d dc be ae bc c2 da 91 3a 84 00 c5 3d
       0.091325805 -0.021331243 0.0011127817 0.09619239
000210 01 08 bd bd 95 35 5d 3e 83 5c 85 bd ee 6b 5f 3c
       -0.09230042 0.21602471 -0.06511786 0.013636572
000220 71 55 d6 bd 1a 89 c6 bc db 7f 04 3e 51 d1 2b 3d
       -0.104655154 -0.024235297 0.12939398 0.041947667
000230 42 82 2b bb e7 13 12 3d c7 3e c6 3d 77 f4 88 bc
       -0.002617017 0.03566351 0.096799426 -0.016718132
000240 eb f3 c3 3d 3e cb a4 bc d7 79 c3 bc 7a bf 08 3e
       0.09568008 -0.020116445 -0.023861809 0.13354293
000250 0e 48 98 3c b4 a3 8b 3d 86 94 c4 bd 98 f6 88 3d
       0.018589046 0.06818333 -0.09598641 0.06687659
000260 d0 f7 41 bd 63 5e dd 3d 3e ba c4 bd c6 85 3c bd
       -0.047355473 0.108090185 -0.096058354 -0.046026014
000270 ca 42 18 3e a1 af 27 3d de be dd bb 56 8e 25 3b
       0.14869228 0.040938977 -0.006767138 0.002526184
000280 79 49 5d bd 6a d3 45 3d 7a f0 12 3d 05 96 9c 3c
       -0.054025147 0.048297323 0.035873868 0.019114504
000290 3e 30 9b 3d 44 37 0c 3d 4e e4 2e 3e 34 e0 80 3d
       0.07577561 0.034232393 0.17079279 0.06292763
0002a0 96 64 3c 3d 04 87 bd bd 69 14 a3 3d 22 b7 67 bd
       0.045994364 -0.09254268 0.07962877 -0.056571133
0002b0 f9 cd bb 3d dc 66 cb 3d e7 d1 13 be 8c 5a b1 bc
       0.091701455 0.09931728 -0.1443554 -0.021649621
0002c0 52 eb 75 bc e0 59 a9 3d 6e 13 d4 bd 8e d1 07 be
       -0.015009718 0.082690954 -0.103552684 -0.13263533
0002d0 83 08 55 bd 80 b8 c7 bd 07 0d 53 bd 86 4a 52 3d
       -0.05201007 -0.097519875 -0.051526096 0.051340602
0002e0 df 51 66 bc f2 65 21 be da c1 30 3d 6c 2a 2b 3e
       -0.0140576055 -0.15761545 0.04315362 0.16715401
0002f0 e4 fa 4b bd a0 8a ce bd ef 74 9a bd ec 79 f6 bc
       -0.049799815 -0.10085034 -0.075418346 -0.030087434
000300 88 ec aa 3c 1e b2 dd 3d 18 0a 84 3d 9b 4a a5 3d
       0.02086474 0.10824989 0.06447238 0.080708705
000310 58 16 ce 3d 49 0b 7d bd 9c 79 de 3c 98 16 92 bd
       0.100628555 -0.06177834 0.027157597 -0.07133216
000320 99 77 5d bc ae 93 06 3c f4 32 0b be f7 ef 3c 3d
       -0.013517284 0.0082139205 -0.13593656 0.046127286
000330 18 57 ee 3d d2 96 92 bd 96 80 79 3c 9e ed d6 bd
       0.116377056 -0.07157673 0.015228411 -0.10494541
000340 d6 ee 7a 3c 4c e1 f3 3d 8b 03 40 be 12 2d a2 bd
       0.015315732 0.11908206 -0.18751352 -0.07918753
000350 65 b1 97 bd 9c 77 65 3e 94 4e b7 bb 4d 29 97 bd
       -0.07406882 0.22408909 -0.005594084 -0.073809244
000360 2b ae 8b 3d c1 c7 3f bd 81 c1 59 3d c9 8c 18 be
       0.06820329 -0.04682136 0.053163055 -0.14897455
000370 fd db f7 bd be 37 ea 3d 93 16 59 3d e4 41 0b bd
       -0.12102506 0.11436413 0.053000044 -0.033998385
000380 03 4a 1b bd c8 7a c2 bc 32 ee 2f 3d 14 4c a7 bc
       -0.03791238 -0.023740187 0.04295177 -0.020422019
000390 3c 40 ff bd 6b fb 06 be a1 46 a5 3c 93 32 3d ba
       -0.124634236 -0.13181846 0.02017528 -0.0007217314
0003a0 a7 fa e6 bd 12 52 fa bd e4 14 8d 3b db ed 95 3c
       -0.11278277 -0.12222685 0.004305469 0.018301895
0003b0 60 bb f6 3d ad e9 27 bc 38 3f 20 3e 3e 40 ae 3d
       0.12047458 -0.010248584 0.15649116 0.08508347
0003c0 72 38 37 bd b6 bd 98 3d 61 6c a2 bd 62 7e c0 3c
       -0.044731565 0.074580595 -0.07930828 0.023497764
0003d0 0f 03 ae 3d 79 7c 8c 3c 01 af ce 3c 4d b3 10 bd
       0.08496677 0.017149197 0.025229933 -0.035327245
0003e0 6f ad 19 3d 72 f8 10 be 91 63 02 be 67 44 01 be
       0.037518915 -0.14157274 -0.12733294 -0.1262375
0003f0 76 3e d8 3d 50 2e 80 bd 44 a2 1b be f5 17 d9 bd
       0.105587885 -0.062588334 -0.15198618 -0.106002726

conv2.0.bias f4 [12]
000000 fe 47 ec bd 2f 6a 0a be cb 1d 7c bd 6d 2c ce 3d
       -0.11537169 -0.13517068 -0.06155185 0.10067067
000010 d8 7e 14 be 0f ed 87 bc 80 01 ff 3d 72 a1 fa bd
       -0.14501512 -0.01659253 0.12451458 -0.122378245
000020 5b 1c 11 3d 11 b9 0f be 37 1a b6 3b 05 05 15 3d
       0.035427433 -0.14035441 0.0055573243 0.03638174

conv2.1.weight f4 [12]
000000 6f 86 7f 3f 72 f4 80 3f 69 ab 78 3f 69 ea 7b 3f
       0.99814504 1.0074599 0.9713655 0.98404557
000010 23 9a 83 3f d1 df 7e 3f e5 9e 7f 3f e2 5a 7f 3f
       1.0281414 0.99560267 0.9985183 0.9974805
000020 ac 58 83 3f e9 dd 88 3f 4d b6 7e 3f f2 12 7b 3f
       1.0261436 1.0692722 0.9949692 0.98075783

conv2.1.bias f4 [12]
000000 6d df b2 3c cd 03 2e 3d ec d0 9d bc 82 4d 1f bd
       0.021835053 0.042484093 -0.01926466 -0.038892277
000010 3b 2b 8f bb 8e 46 b7 3c dc d0 1b 3b 17 98 23 bc
       -0.004369167 0.02237251 0.0023775613 -0.0099849915
000020 cc 4b a4 bd ee 4e b7 bd 27 0c 96 bc a0 a5 8d 3c
       -0.080222696 -0.089506015 -0.018316342 0.01729089

conv2.1.running_mean f4 [12]
000000 31 56 30 3d ff e0 0b 3e 8a 17 a2 3f c2 d5 df 3e
       0.04305095 0.13660048 1.2663434 0.43717772
000010 13 70 1b bf 18 5c 5b bf 7f f4 c2 3e 5a 12 5d 3c
       -0.60717887 -0.856874 0.3807716 0.013493145
000020 5d 84 ad 3c 4c af 9a be f9 28 e1 3d 02 0c 17 bf
       0.02118128 -0.30211866 0.10994143 -0.590027

conv2.1.running_var f4 [12]
000000 da 4d aa 40 b4 13 5d 40 1e c9 e1 40 3a 10 76 40
       5.3220034 3.4543276 7.0558004 3.8447404
000010 34 46 af 40 27 c1 9d 40 45 67 8d 40 78 0e 85 40
       5.4773197 4.929828 4.418856 4.158016
000020 cf 25 8a 40 00 39 88 40 60 66 dd 40 03 7a 02 41
       4.3171153 4.256958 6.918747 8.154788

conv2.3.weight f4 [12, 12, 3]
000000 e2 0b 75 bd 9c 41 b6 bd 69 38 da 3b 5b ef f7 bd
       -0.059825785 -0.08899233 0.0066595566 -0.121062
000010 d0 67 9e 3d 72 2c f8 bd 2a ee b3 3b ab 60 9b bc
       0.077346444 -0.12117852 0.005491038 -0.018966993
000020 b1 a9 2e bd 00 3e 0f 3e 69 98 e6 bd 61 b8 0f 3e
       -0.0426423 0.13988495 -0.11259539 0.14035179
000030 19 b7 ea 3c fd 0c 43 3e 39 bd 6e bd 51 ca 10 be
       0.02865176 0.19047923 -0.058285926 -0.14139678
000040 df 1e f1 3c f9 9f d6 bd 08 f6 5a bd 8a 55 10 3e
       0.029433666 -0.10479731 -0.05345729 0.1409513
000050 dd 5d 1a 3e d6 c5 00 3d 18 4f 80 3d 18 e4 10 3c
       0.15074869 0.03143867 0.06265086 0.008843444
000060 67 af 95 bd 03 98 59 bd b1 bd 18 bc 0e 09 a4 3c
       -0.07308846 -0.053123485 -0.00932257 0.020023849
000070 0a 54 a7 3d 96 d7 75 bd d4 99 30 bd 14 eb ea bd
       0.08170326 -0.060020052 -0.043115452 -0.11470619
000080 3c 97 ba bd f3 9f d0 3d a9 eb 65 3c 2a 09 01 be
       -0.09110877 0.10186758 0.014033237 -0.12601152
000090 d0 d6 46 bc 09 9f 2c 3d 46 b3 0b be b1 df 0f 3e
       -0.012136176 0.042143855 -0.13642606 0.14050175
0000a0 e6 25 e0 bc 30 09 c3 bd aa c0 1d bd 01 fa 0e 3e
       -0.027361821 -0.09523237 -0.038513817 0.13962556
0000b0 ed e6 b8 3d be c9 a7 bc 05 58 26 3e 7e 36 13 3e
       0.090284206 -0.02048194 0.16244514 0.14376256
0000c0 c3 34 91 bd a0 71 95 bd 63 b0 fc bd 4d 30 00 3d
       -0.070901416 -0.07297063 -0.123383306 0.031296063
0000d0 67 cb bf bd 76 af 57 3d 7e 05 c3 3d 86 ea cd bd
       -0.09364968 0.052657567 0.09522532 -0.100544974
0000e0 bf f8 1f 3e f5 e6 94 3c be 13 bb bd 39 da 0e bc
       0.15622233 0.018176535 -0.09134625 -0.0087190205
0000f0 42 63 1b be 82 3e 62 3e 82 60 05 bd 40 7c 70 bd
       -0.15174583 0.22094157 -0.03256274 -0.058712244
000100 a9 f0 83 3d 20 2a ff bc 6a bf 03 3e 2b d5 e4 bd
       0.06442387 -0.031148016 0.12865987 -0.11173471
000110 bd 7c 10 be f5 d4 41 3e 06 7d 13 bd 64 5b a1 bd
       -0.14110084 0.18928893 -0.036007904 -0.078787595
000120 f3 8e ca 3d bc 76 e7 bd f6 0a e2 bc e3 3c 0d bd
       0.09890547 -0.11301944 -0.027593117 -0.034481894
000130 f9 31 0a be 2d 51 3b 3e 90 2b e1 bd 13 74 f1 bd
       -0.13495626 0.18292685 -0.10994637 -0.117897175
000140 b7 40 a3 3d 9b 9a 2c 3c 11 23 48 be bf 5a 98 3d
       0.07971328 0.010534908 -0.19544627 0.074391834
000150 89 38 b5 bd 4e 89 86 bd 95 65 dd 3d 36 93 4d 3d
       -0.08848674 -0.065691575 0.10810391 0.05018922
000160 11 3b c4 bc 77 f3 21 bc f4 9d 21 3e 11 7d d7 bd
       -0.023953946 -0.009884707 0.1578291 -0.105219014
000170 db 61 f0 bc fb 13 c1 38 52 2f 1d bd 70 55 05 3e
       -0.029343536 9.206679e-05 -0.038375206 0.13020873
000180 40 67 07 3e 88 b0 80 bd 9d 65 e8 bd 0b 99 aa 3d
       0.1322298 -0.06283671 -0.11347506 0.08329972
000190 c9 84 d8 bd 59 21 91 bd 14 c4 62 3d d8 21 91 bd
       -0.10572202 -0.07086439 0.055362776 -0.07086533
0001a0 e3 da c1 3d 8a 46 c8 3d bc d3 54 3d 55 7a 0b 3e
       0.094655775 0.09779079 0.051959738 0.13620885
0001b0 c3 3d 0e be 9d 55 ee 3c d0 68 f7 bd 05 94 28 be
       -0.13890748 0.029093558 -0.12080538 -0.16462715
0001c0 89 23 b7 3c c8 00 0d be 63 f9 23 3e 6b d2 9a 3c
       0.022355812 -0.1376983 0.16013102 0.018899163
0001d0 38 89 65 bd cb 62 6f 3d d3 86 4c 3d b6 5d 43 ba
       -0.056039065 0.058443826 0.049933266 -0.00074526237
0001e0 cd 41 a5 3d d4 ae 81 bc 02 42 e9 bc b7 07 de 3d
       0.08069191 -0.015830435 -0.028473858 0.10841315
0001f0 1e 6d b5 bc 2b 94 bd bd 01 e0 91 3d 5e 39 34 be
       -0.022146758 -0.092567764 0.071228035 -0.17600009
000200 d9 af 66 3c 6d 4d 1e 3e b1 59 1c 3e b3 fa 26 3e
       0.014080011 0.15459223 0.1526859 0.16306572
000210 36 c0 16 bd ff 0b fd bd 8f 67 32 3d a4 90 1d 3d
       -0.0368044 -0.12355804 0.043555792 0.03846802
000220 3b e3 ba bc e0 5d 05 be 8b 86 b7 bc df d0 99 3d
       -0.02281343 -0.13024092 -0.022403022 0.07510542
000230 e4 ac 1a 3c 50 26 31 3e 2f 50 1e be ca 0d 1c 3e
       0.009440634 0.17299771 -0.15460275 0.15239635
000240 86 2d 7c bd 73 3d a2 bd 93 19 9e bd 28 ab 4b bd
       -0.061566852 -0.07921877 -0.07719722 -0.049723774
000250 20 0d d6 ba b9 df 72 3c b3 64 08 be f9 56 82 3d
       -0.0016330816 0.014823847 -0.13319664 0.06364245
000260 3e 78 11 be a1 0e d3 bd 6b 75 e9 3d 02 55 0a 3e
       -0.14206025 -0.103055246 0.11399349 0.1350899
000270 0c 8e 6e bd 65 42 9c 3d 7d 0d f2 3d bc 4f ac bd
       -0.058240935 0.07629851 0.11818979 -0.084136456
000280 f2 1e 1b bd 93 94 c2 bd d7 b7 5c bd 0d 20 3c 3e
       -0.03787131 -0.095009945 -0.05388626 0.18371601
000290 13 55 55 3e f1 64 76 bd c3 b0 b5 3c 8a 01 d0 3d
       0.20833234 -0.06015486 0.022179013 0.101565436
0002a0 67 7c 72 3d f7 ef ba bc ce 8b 52 bd 3d 6e 87 bc
       0.05920067 -0.022819502 -0.05140286 -0.016532058
0002b0 b0 6a e8 3d 0c bf e2 bc b5 3a 8c bc a2 fd 8e bb
       0.11348474 -0.027678989 -0.017117837 -0.0043637315
0002c0 4a 96 0f bd 98 8b 2e bd 87 47 5f 3d ee 06 ab bd
       -0.035055436 -0.042613596 0.054511573 -0.08350931
0002d0 62 96 d1 bd ad 03 0d 3e fe 19 eb bd a5 95 0c bb
       -0.10233761 0.13770933 -0.11479567 -0.00214515
0002e0 bb ff 0e be 53 55 bf bc 94 8e 24 bd 39 85 ed bd
       -0.13964741 -0.023356115 -0.040175036 -0.11597676
0002f0 f8 20 d6 3c 79 31 8f 3d ae 1c 11 3e 7a 5f 7c bd
       0.026138768 0.06991858 0.14171097 -0.06161449
000300 35 22 4a be 81 a0 04 be 3c 76 b0 3c 90 0d 9c bd
       -0.19739611 -0.12951852 0.021540754 -0.07619774
000310 6f 9b c5 3d 07 ab a8 bd a3 08 41 3e df c6 f2 bd
       0.09648787 -0.08235746 0.18850951 -0.11854338
000320 01 20 7d bd ea 89 67 bc d5 0a 44 3d 96 8c ab bd
       -0.0617981 -0.014132002 0.047861893 -0.08376424
000330 22 1d b5 bd 2a 94 4b 3e f4 b1 d7 3c bd 0d 20 3e
       -0.08843447 0.19880739 0.026329972 0.1563024
000340 ef 01 d1 3d b0 6e 17 3e f5 f3 f7 3d 49 40 7e bc
       0.10205447 0.14788318 0.12107078 -0.015518256
000350 61 45 66 bc 20 b1 07 3d b3 9d b3 3c 26 35 e9 bd
       -0.014054627 0.033127904 0.021925783 -0.113870904
000360 9f db 0b be 8c 68 a0 3d 04 c6 aa 3b 2c 0a 6f 3c
       -0.13657998 0.07832441 0.0052115936 0.0145898275
000370 d4 cf af bd 5b 6e 31 3e 66 82 08 be a4 30 88 bd
       -0.08584562 0.17327254 -0.13330993 -0.066499025
000380 f0 15 dc bd 64 3d 49 3c bb 17 1c be e1 20 a0 3d
       -0.10746372 0.012282703 -0.15243427 0.07818771
000390 ae 4f f0 bd ce 51 e8 bb d8 fd 3e 3e 3d 16 7b 3c
       -0.11733948 -0.00708983 0.18651521 0.015325126
0003a0 e8 54 ab 3d e9 0f 2a 3e 44 0f 1f 3c b7 c4 c5 bd
       0.08365804 0.16607632 0.009708229 -0.09656661
0003b0 10 2a 18 3d 62 d5 2a 3d 2f f8 b0 bd 03 9c 00 3d
       0.03714949 0.041707404 -0.08641087 0.031398784
0003c0 8e e2 34 bc 14 b5 86 bc 91 21 84 bd 16 d7 0d 3e
       -0.011040343 -0.016443767 -0.06451715 0.1385158
0003d0 ff e3 3a bd 08 93 18 be b0 52 f0 3d 5b b2 d1 3d
       -0.04562759 -0.14899838 0.117345214 0.10239097
0003e0 f1 f0 1e bd f9 79 ae bc b3 2c a4 bd be be 98 bd
       -0.038804 -0.021298395 -0.08016338 -0.07458256
0003f0 20 6b 91 bd 70 50 6d 3d bc 31 e6 bd 27 a2 40 bd
       -0.071005106 0.05793804 -0.11239955 -0.04702964

conv2.3.bias f4 [12]
000000 7d 2e 22 be 0d 0b 1c be 63 2c d7 bd 23 3a 8d 3d
       -0.15838046 -0.1523859 -0.10506513 0.06895854
000010 2f 17 91 bc e7 cb 5c bc c2 c3 23 be 60 11 5a 3d
       -0.01771125 -0.0134763485 -0.15992644 0.053239226
000020 b4 d3 0f 3e ab e2 99 bc 41 63 00 be c3 47 c3 3d
       0.14045602 -0.018784842 -0.12537862 0.09535172

conv2.4.weight f4 [12]
000000 ac d5 84 3f 25 b0 82 3f 5e 61 83 3f a9 b1 82 3f
       1.0377707 1.0210005 1.0264089 1.0210468
000010 38 17 83 3f a0 ce 85 3f c3 05 84 3f e9 58 83 3f
       1.0241461 1.0453682 1.0314258 1.0261508
000020 b3 ea 81 3f c9 bd 83 3f 20 05 80 3f c3 a9 80 3f
       1.014975 1.0292293 1.0001564 1.0051807

conv2.4.bias f4 [12]
000000 58 a0 05 bb be 31 43 3a 83 3f 93 b9 9a 57 fc ba
       -0.0020389762 0.0007446072 -0.00028085345 -0.0019252182
000010 38 27 86 bb 50 f9 46 ba 80 da 83 b8 31 fa f9 ba
       -0.0040940307 -0.0007590251 -6.2872656e-05 -0.0019071755
000020 62 45 54 ba 7a 0e 05 bb 4b 7f c7 bb 8e 8b 4d bb
       -0.0008097497 -0.0020302818 -0.0060881726 -0.0031363699

conv2.4.running_mean f4 [12]
000000 2b ab 83 be d2 02 eb bd a4 90 83 bd a9 4c 25 3e
       -0.25716528 -0.11475147 -0.064240724 0.16142525
000010 ed de 9a bd 13 45 d9 bd 49 dc 4f be 9c 2f 5c 3e
       -0.07562051 -0.10608878 -0.20298876 0.21502537
000020 89 e1 cd 3c 8b da d1 bd 2e 23 a0 bc 33 af da 3b
       0.025131958 -0.10246762 -0.019548025 0.0066737174

conv2.4.running_var f4 [12]
000000 56 13 5c 3d a9 3e 0c 3e b6 ab fa 3d db f4 9d 3d
       0.053729378 0.13695778 0.122397825 0.07712718
000010 1e bb 9d 3d 6c 37 bb 3d 7e 49 c8 3d 6d 9b 91 3d
       0.077017054 0.0914143 0.097796425 0.07109723
000020 3e 1c dc 3d ad 07 58 3d d8 86 ec 3d 02 27 c6 3d
       0.10747574 0.052741695 0.11549157 0.09675409

conv3.0.weight f4 [12, 15, 4]
000000 57 40 4a 3d 3e c7 3b bc d8 b3 73 bd 91 79 79 3d
       0.049377766 -0.011461077 -0.059497684 0.06090695
000010 89 0e 21 3d da d5 ba 3c ee a1 4b bd 6d 23 07 3c
       0.039320502 0.02280705 -0.049714975 0.008248192
000020 c3 3d 50 3d 07 d6 c4 3d 14 10 59 3d ac 4b 89 bd
       0.05084015 0.09611135 0.05299385 -0.067038864
000030 9d 2f 8c bc e4 34 98 3d 51 d3 46 3d 94 fe 0c 3d
       -0.017112548 0.07431963 0.04854137 0.034422472
000040 22 45 68 bd d0 db ab 3c 8c 9d df 3c 6a c3 a0 3d
       -0.056706555 0.020978838 0.027296804 0.07849772
000050 7f e3 35 3d cf b4 6b bd 24 4a 0a be 7e 96 28 bd
       0.04440641 -0.05754548 -0.13504845 -0.041159146
000060 63 7a 3c 3d 5f fe c5 bd 19 6f 01 be 0c 69 3a 3d
       0.046015155 -0.09667658 -0.12640037 0.045510337
000070 91 d9 ca 3d 5f a1 12 be fd 46 75 3c 33 6e 5d 3b
       0.09904779 -0.1431937 0.014970538 0.0033787608
000080 25 7f b9 3d 92 f7 22 be 64 98 70 3d 1a 35 a3 3c
       0.09057454 -0.15914753 0.05873908 0.019922782
000090 8a 07 04 3e af 60 55 bd 5f 81 f0 3d 25 3d 32 3d
       0.12893501 -0.052094158 0.117434256 0.043515343
0000a0 91 f7 e1 bc 26 35 e9 3d 28 22 06 3e dc 42 cb bc
       -0.02758387 0.113870904 0.13098967 -0.024812154
0000b0 06 63 0b be 1c 60 88 bd f4 73 ef bd 71 f1 b7 bd
       -0.13611993 -0.066589564 -0.11692038 -0.08981598
0000c0 43 9f d3 3d 7d 2b 5f bd 5d 77 e5 3d c2 89 b3 3d
       0.10333111 -0.054484833 0.11204407 0.087665096
0000d0 f3 68 22 bd c1 79 27 3d 15 b3 71 3d db 20 96 bd
       -0.03965087 0.040887598 0.059008677 -0.073304854
0000e0 40 e4 41 3c fb d8 f5 3d 41 5b ac 3d 15 cc 5b 3d
       0.011834204 0.12004276 0.08415843 0.053661425
0000f0 2a 70 e1 3c b5 2a 7f bd 80 eb 8d bd 37 0a b6 3d
       0.027519304 -0.062296588 -0.06929684 0.08888667
000100 50 14 2b 3c 53 e5 d0 bd b0 cc 8a bd 3e 6b 23 bd
       0.010441855 -0.1019999 -0.06777322 -0.039897196
000110 c3 9f 91 bd 3b c2 6b 3d ad 24 a4 bc 1d 6f cf bd
       -0.0711055 0.05755828 -0.02003702 -0.10128615
000120 d9 a3 ae bd 2c 46 c8 bd cb 9e e2 3b 79 5f 60 bd
       -0.08527345 -0.09779009 0.0069159023 -0.05477855
000130 90 ff 10 be 92 ce ea 3c 2c 33 0f 3e 0e a0 d5 3d
       -0.1415999 0.028662954 0.13984364 0.10430919
000140 d0 4e 27 bd b3 d5 ff 3d fe 8b 1c bd 77 bf a1 3d
       -0.040846646 0.12491932 -0.038219444 0.07897847
000150 0a b5 91 3c a2 5b 94 bc f1 80 40 3d b6 c5 85 3d
       0.017786521 -0.0181101 0.046997968 0.06531851
000160 0d 96 77 3d 06 d7 de 3c ab 8a f9 3d 96 d9 74 3d
       0.060445834 0.02720214 0.12184652 0.05977782
000170 b0 ef f0 3c a9 c5 a9 bd 95 23 b7 bd 01 b6 88 bc
       0.029411167 -0.08289654 -0.089423336 -0.016688349
000180 d7 45 81 3d c3 2e bf 3c e5 06 a7 3c 95 de cc bd
       0.06312149 0.023337727 0.02038903 -0.10003392
000190 c2 f4 5e bd db e5 20 bd 32 21 61 bd f5 70 d9 bd
       -0.054432638 -0.039281707 -0.0549633 -0.10617248
0001a0 17 53 83 bd bb af 85 bd 14 f6 76 bb ae d6 ef 3d
       -0.064123325 -0.065276586 -0.0037683295 0.11710869
0001b0 8e 76 61 bd 64 bd ec 3d 0e 6c 00 3e 5b c4 60 bd
       -0.055044703 0.11559561 0.1254122 -0.05487476
0001c0 14 4b 90 bc 51 9e 0c be 69 d5 b4 bd 6a bc 0a bd
       -0.017613925 -0.13732268 -0.08829767 -0.033871092
0001d0 f3 77 6c bc c2 65 23 3d 3c eb 05 3c 03 6f 77 bd
       -0.014432895 0.039891966 0.00817376 -0.060408603
0001e0 b4 b3 8d 3d 1d 7d d4 3c 76 a2 6a bc b2 fe 10 3e
       0.06919041 0.025938565 -0.01432096 0.14159659
0001f0 9c b3 c8 3d f7 7b b5 3c 63 90 83 3c b5 45 cc 3d
       0.09799883 0.022153838 0.01606006 0.09974233
000200 5a 4a 87 3d 69 44 8d bd 48 e5 d4 3d b9 f3 8b 3d
       0.06605978 -0.06897814 0.103952944 0.06833596
000210 2a 8d 93 bd ad 4c ac 3d 0c a9 21 bd 79 a3 12 3e
       -0.07204659 0.08413062 -0.039467856 0.14320172
000220 c9 9d 9f 3d 3f d7 18 bd 7b 8e 3b bd 2d 7d a0 3d
       0.07793767 -0.03731465 -0.045790177 0.078363754
000230 9b 0d 29 bc bc 1f 88 bb 1f b0 50 3c bb 13 79 3b
       -0.010318185 -0.0041541737 0.012737303 0.0038006145
000240 b2 d2 9f 3d 78 1f 27 3e da cf d8 bd 6c e0 0e bd
       0.07803859 0.16320598 -0.105865195 -0.034881994
000250 6f 67 dc bd 53 1b c3 3d 5b 62 5a bc b9 d8 01 3e
       -0.10761916 0.09526696 -0.013329114 0.1268033
000260 f3 9a e0 3d 28 99 da 3d 67 9e b8 bd 5d ea 99 3d
       0.10967054 0.106737435 -0.09014588 0.075154044
000270 ab fb a6 3c c3 89 20 bd f1 55 a8 bd cb 37 c3 bd
       0.020383677 -0.03919388 -0.08219517 -0.09532126
000280 b4 7c a0 bd fd 36 c9 3d 0d 2a 2e bd 2a 27 a4 bd
       -0.07836285 0.09824941 -0.04252057 -0.080152825
000290 14 e5 a3 bd 77 eb a2 3d 5f 7e 00 be a4 83 a6 bd
       -0.080026776 0.079550676 -0.12548207 -0.08130577
0002a0 19 bc ad 3d 2d 65 e4 3c 1e bd 45 bd a9 25 1f bd
       0.084831424 0.027880276 -0.04827606 -0.038854275
0002b0 87 3d 2a be 41 8e a2 3b 59 d6 4f be 9f c5 81 bd
       -0.16625033 0.0049608056 -0.20296611 -0.06336521
0002c0 29 a3 e6 3d 15 4e 00 3d f5 55 bd bd ca fa b4 bd
       0.11261589 0.031324465 -0.09244911 -0.08836897
0002d0 1f 63 ae 3a fc 95 68 bd 8e 01 fa 3c ff fd 1a 3d
       0.0013304687 -0.05678366 0.03051832 0.037839886
0002e0 5f 5d b2 bd 3d 15 02 bd 94 10 eb bd 62 1b f6 3d
       -0.087092154 -0.031758536 -0.114777714 0.120169416
0002f0 72 67 25 3d 59 2b ac 3d cd f5 d7 3a 71 9c 87 bd
       0.040381856 0.084067054 0.0016476453 -0.06621636
000300 cc 85 ba 3c cf a2 51 bd 64 2b 02 3d 8b e8 a3 bd
       0.022768877 -0.051180657 0.03177966 -0.080033384
000310 7c f3 20 be 97 5c 94 bd 42 10 23 3c 6c 54 a8 bd
       -0.15717882 -0.072442226 0.009952607 -0.08219227
000320 1a a7 e4 bd 3d 1e 95 bc b6 7b 4b bd 31 07 f5 bd
       -0.111646846 -0.018202895 -0.049678527 -0.11964262
000330 7c 62 42 be c0 e5 0f be 69 d4 cd 3d 6e 20 0f bd
       -0.18982881 -0.14052486 0.1005028 -0.034943037
000340 36 84 02 be a4 48 3f bc b8 b1 b5 bd e3 ed b0 bd
       -0.12745747 -0.011675034 -0.08871788 -0.08639123
000350 d9 c1 af bc 82 52 da 3d 2a 60 07 3d 07 58 ed bd
       -0.021454738 0.10660268 0.033050694 -0.115890555
000360 f2 e8 a6 3d a4 f7 32 bc 8c 58 28 3d fd 1b ac bd
       0.081498995 -0.0109233 0.04110007 -0.08403776
000370 50 4d 43 3d c4 84 a0 3d 5f fa 59 3a 75 e7 20 3d
       0.047681153 0.07837823 0.0008315201 0.039283235
000380 7c 97 fb bd a2 c2 ef bb 8c 40 81 bd 23 04 c5 3d
       -0.12284753 -0.007316903 -0.063111395 0.0961993
000390 80 17 a0 3b c5 60 b2 bd e6 8d 2b 3d d3 97 5e be
       0.004885614 -0.087098636 0.04188337 -0.21737604
0003a0 d8 90 22 be a5 9e c2 3d 6f 4e eb 3b b5 89 95 bd
       -0.15875566 0.09502915 0.007180981 -0.07301656
0003b0 c7 e9 f6 3d fc 30 24 bd 56 65 1f bd 61 46 cf 3c
       0.12056308 -0.040085778 -0.038915 0.025302114
0003c0 7f a2 7d 3d 69 df 4a bd 14 02 92 3c 3c dd 27 3d
       0.061922546 -0.049529467 0.017823257 0.04098247
0003d0 f9 87 da bd 6f 57 2c 3c 58 ce 58 bd 9b 43 a2 3d
       -0.10670466 0.010518893 -0.05293116 0.07923051
0003e0 f4 cf f6 3a 45 91 7f bd 3a 7c 19 bd d5 9f 2c 3d
       0.0018830285 -0.0623944 -0.037471987 0.042144615
0003f0 85 d6 11 bc bb e7 c6 bd a6 e5 7f bd 12 e1 e6 bd
       -0.008901243 -0.09712168 -0.06247487 -0.112733975

conv3.0.bias f4 [12]
000000 ac e5 a5 bd 5b 9f a2 3d ca eb 10 bd c4 f2 68 bc
       -0.08100447 0.07940551 -0.035381116 -0.014218036
000010 46 02 ca 3a 33 ae ec bd 46 2f 94 bd a1 9d d2 bd
       0.0015412054 -0.11556663 -0.07235579 -0.102839716
000020 59 1a 41 3b ce a6 b6 bd 92 74 6a bc b1 d3 e2 3d
       0.0029465167 -0.08918534 -0.014310019 0.11075533

conv3.1.weight f4 [12]
000000 56 80 80 3f 64 27 87 3f d6 08 74 3f 19 73 81 3f
       1.0039165 1.0558896 0.9532598 1.011325
000010 92 40 80 3f 08 1b 80 3f 53 84 7c 3f c6 16 80 3f
       1.0019705 1.0008249 0.9863941 1.000695
000020 ef 40 76 3f 8d e1 80 3f f5 c8 7e 3f b6 e0 82 3f
       0.9619283 1.0068833 0.99525386 1.0224826

conv3.1.bias f4 [12]
000000 cc ff 3d bd a3 de 6b bd 4b 40 28 bd f5 d8 38 3c
       -0.046386525 -0.05758537 -0.04107694 0.011282195
000010 1d 7a c8 ba a8 05 46 3d e0 36 1e 3c 3f 75 46 bb
       -0.0015295182 0.048345238 0.009656638 -0.0030282286
000020 c8 46 47 bd 41 f4 b9 bc 57 9c 9e bd 58 c6 5a bc
       -0.048651487 -0.022699477 -0.07744663 -0.013352953

conv3.1.running_mean f4 [12]
000000 75 68 05 3e 4d 3a 14 bf 6f 62 72 3f 77 10 01 3d
       0.13028128 -0.5790146 0.9468145 0.031509843
000010 e1 ba 78 be a4 d3 87 be fd 9d 1f 3f 94 e7 cf 3d
       -0.24290039 -0.26528656 0.62350446 0.10151592
000020 76 9c 30 bf 14 67 8b 3e 4c 75 a4 3e 1d 37 eb 3d
       -0.6898874 0.2722708 0.3212074 0.114851214

conv3.1.running_var f4 [12]
000000 f5 79 6c 40 e7 69 e4 40 b7 55 0e 41 18 27 98 40
       3.6949437 7.1379275 8.895926 4.754772
000010 09 e7 87 40 db 63 91 40 c8 49 c7 40 56 09 d8 40
       4.2469525 4.5434394 6.2277565 6.7511396
000020 10 38 f1 40 f0 c4 9d 40 05 b9 98 40 16 f0 84 40
       7.5380936 4.93029 4.7725854 4.1543074
