model/AutoY/MScheckpoint1.pt (torch, 34213 bytes, 51 tensors)

conv1.0.weight f4 [12, 15, 2]
000000 2b 35 b6 bd 46 91 0d 3e 1f 5e 41 3e f9 1c 0e 3e
       -0.0889686 0.13824949 0.1888356 0.1387824
000010 c0 2b 1c 3e 75 e9 02 be a4 ed df 3d df 98 99 bd
       0.15251064 -0.1278437 0.10933998 -0.07499861
000020 d5 fb c3 3d 6e b3 d4 3b c1 a4 75 3d 20 d2 3e 3d
       0.095695175 0.0064911162 0.059971575 0.04658711
000030 27 87 3c 3a 1a 3b 51 be ce ee bd bd 98 df db bd
       0.000719177 -0.20432702 -0.09274064 -0.107360065
000040 9b bd 99 3d 34 9c 31 3e 09 4a d2 bc ad 64 84 be
       0.075068675 0.17344743 -0.025670068 -0.2585806
000050 c7 95 38 3e 94 5e 0b 3e db 35 cd bd d1 c0 b7 3c
       0.18025886 0.13610297 -0.10020038 0.02243081
000060 09 d2 d5 3d 6d ef 8e 3d c1 3d 89 bd a3 1b fe bd
       0.10440452 0.069792606 -0.06701232 -0.12407615
000070 30 41 8b bd cb 66 01 be df 0a 23 be bb 58 61 bc
       -0.06799543 -0.12636869 -0.15922116 -0.013754065
000080 9c d0 29 be 29 1d 79 bd bc f9 31 3b 61 9d d2 bd
       -0.16583484 -0.060818825 0.002715691 -0.10283924
000090 20 e8 d6 3d 89 bb 0b be c4 50 1c 3e 4f c6 27 be
       0.10493493 -0.13645758 0.15265185 -0.16384242
0000a0 c6 d9 ce bd c1 d1 52 3e 5f aa 38 3e f4 dc 59 bb
       -0.10100131 0.20587827 0.18033741 -0.003324327
0000b0 cb d9 00 be 76 77 01 be 2a 22 0b be 5b dc b9 bb
       -0.12583081 -0.12643227 -0.13587251 -0.0056720204
0000c0 3a ea 24 be da bc e9 bd a5 f8 25 3e e6 40 a0 3d
       -0.16104975 -0.11412974 0.16208132 0.078248784
0000d0 a4 f1 9f bd d2 a5 e0 3d 11 41 12 bd fb 0f 23 bd
       -0.07809761 0.10969128 -0.035706583 -0.039810162
0000e0 e5 4c 83 bc c9 c4 1a be 43 57 e1 3b b5 f0 88 3d
       -0.016027877 -0.1511413 0.0068768575 0.06686536
0000f0 46 15 ec bd 2a a2 0a bc 13 92 da bd 94 5d a0 3d
       -0.11527495 -0.0084615145 -0.10672393 0.078303486
000100 70 72 e1 bd 10 06 1b bd f3 6a 69 3d 84 d0 02 3e
       -0.11008155 -0.03784758 0.05698676 0.12774855
000110 47 19 65 bd c9 39 c3 3d 4e 25 c5 bc 92 ed b0 3d
       -0.05593231 0.09532506 -0.02406564 0.08639063
000120 1a 91 1a 3d 8a 91 3e bd 86 58 a0 3d 6c 0c b4 bd
       0.037736036 -0.046525516 0.078293845 -0.08791432
000130 e0 95 d5 bc 9d 44 40 3e 7b e1 f7 bb a6 ca b9 3d
       -0.026072443 0.18776174 -0.007564721 0.09071855
000140 db 6c 76 be db 94 1e be 51 41 3b 3e f4 22 1d be
       -0.24064963 -0.15486471 0.18286635 -0.15345365
000150 8c 79 b5 3d f3 cf 69 bd 7b ac 03 3d 54 5e ba 3d
       0.08861074 -0.05708308 0.032146912 0.09100023
000160 1c 8c dc bd c6 95 f8 3d e6 cb 76 3d 77 b9 65 3d
       -0.10768911 0.12137942 0.060253046 0.056085076
000170 53 b9 e4 bc 3d 88 be 3d 79 16 1b be 63 52 e9 3d
       -0.0279204 0.09303329 -0.15145291 0.11392667
000180 f7 7a 2e be aa 2c 44 be 23 5d 1c bd 49 ae d1 bd
       -0.17039095 -0.19157663 -0.03817476 -0.102383204
000190 a8 01 f6 bd b5 39 32 be 53 a4 86 bc e9 fc ff bc
       -0.12012035 -0.17404826 -0.016435778 -0.031248527
0001a0 57 2b 29 3e 78 fc f0 bd 61 62 1b 3e c4 7e fb 3d
       0.16520439 -0.117669046 0.15174247 0.12280038
0001b0 0b a2 d2 bd fc f4 2f 3d d2 cc 44 be 8c b7 28 3e
       -0.102848135 0.042958245 -0.19218758 0.16476268
0001c0 e7 b5 08 bd 3e bc 97 bd e0 11 ba bd 4c 99 5d 3e
       -0.0333766 -0.07408951 -0.09085441 0.2164051
0001d0 40 30 28 3d cb c2 2e bd 80 5d 98 bd a6 a9 b5 3d
       0.04106164 -0.042666238 -0.07439709 0.088702485
0001e0 8c 0d b2 3d 55 bb ab 3d 24 dc f4 3c f7 bd 53 bd
       0.0869399 0.0838534 0.029890127 -0.051694836
0001f0 c4 a3 f8 3d 29 10 8c bd be f3 07 3e 2a ff f1 3d
       0.12140611 -0.0683902 0.13276574 0.11816247
000200 83 2d 21 be 5f 86 59 3d 63 cf 21 3d 3d 46 f2 3d
       -0.15740018 0.053106662 0.03950442 0.11829803
000210 6e b0 14 3a 15 d5 31 bd 59 d6 1d bd 2e 68 1f bd
       0.0005672042 -0.0434161 -0.038534496 -0.038917713
000220 52 6d 35 3d 54 ae b5 3c cf 32 25 3b 01 4f c2 bd
       0.04429371 0.022177853 0.0025207286 -0.09487725
000230 d0 44 da 3d fb 01 32 3e 64 fb 06 bd aa ef d5 bd
       0.10657656 0.17383568 -0.03295459 -0.10446103
000240 34 9c 0c be c7 5f 9f bd 70 d1 1b be 85 e0 1a 3e
       -0.13731462 -0.0778194 -0.15216613 0.1512471
000250 39 a7 a1 3d 9c b3 4c be 31 78 05 3e 38 46 2f 3e
       0.07893223 -0.1999039 0.1303413 0.1711663
000260 6c 58 b7 bd d9 23 ea bd cf 19 bc 3d aa 27 87 3d
       -0.08952412 -0.11432619 0.0918461 0.06599362
000270 72 43 70 bd 0f b8 4b 3b d9 bd 9f bc 80 31 98 3d
       -0.05865807 0.003108505 -0.019499706 0.074313164
000280 4b 6e e9 bd 21 84 1e 3d 3b fe 40 bd d7 b0 86 3d
       -0.1139799 0.038700227 -0.047117453 0.06576698
000290 91 d9 99 bc 1f 07 79 bb 1e 4a bc bd 6a a3 a9 3d
       -0.018780502 -0.003799863 -0.09193824 0.08283122
0002a0 22 62 42 bd f8 80 f3 bc 0b 17 25 3d b0 06 1d 3e
       -0.047456868 -0.029724583 0.04030518 0.15334582
0002b0 b5 e7 2c be cf a7 08 3e 9e c0 0a be 9f 27 1e bd
       -0.16885264 0.13345264 -0.1355004 -0.038612004
0002c0 73 80 2d be c1 c2 0c 3e 96 ce ec 3d 55 93 0c 3e
       -0.1694353 0.13746168 0.11562841 0.13728078
0002d0 bb 76 cf 3c dc a3 00 be 23 9e 07 be 78 df 3f bd
       0.02532517 -0.12562507 -0.13243918 -0.046843976
0002e0 7e ad 7d 3d df 5b 18 be 56 66 70 3d 96 f4 1c 3e
       0.061933033 -0.14878796 0.058691345 0.15327677
0002f0 e0 e1 b1 bc 1a ca 27 be f3 08 e0 bd e2 28 af bd
       -0.02171415 -0.1638569 -0.10939207 -0.0855272
000300 c7 a8 44 bd 1b 59 26 3e d4 0b 01 3e fd 49 ad bc
       -0.04801252 0.16244929 0.12602168 -0.021153444
000310 59 b0 f8 3d 88 e6 a6 3d 40 80 45 be 8e a1 19 3e
       0.12143011 0.08149439 -0.19287205 0.15003034
000320 19 5a c5 3d 66 df 78 3c 02 5b 1b 3e 1c 9f 07 3e
       0.096363254 0.015189981 0.15171435 0.13244289
000330 4f f4 82 bd 4e 2b d2 bd e6 23 29 3e 96 29 e7 bd
       -0.063942544 -0.10262166 0.165176 -0.11287229
000340 9e 51 6b 3c 94 36 a2 3d 2a 26 5f bd 39 a0 72 3c
       0.014362721 0.07920566 -0.054479755 0.014808708
000350 4b ce 3c bc 6b 5d 13 be f5 89 ae bd b9 4c 57 3d
       -0.011523793 -0.14391105 -0.08522407 0.052563403
000360 7c 90 65 bd 74 67 d2 bc 3f 78 68 3d 4e af b8 3d
       -0.056045994 -0.025684096 0.0567553 0.09017812
000370 8e 2d 6b 3e 73 f6 b5 3d 30 6b 01 3e 33 a0 bd 3d
       0.22966596 0.08884897 0.12638545 0.09259071
000380 71 cb 89 3d 02 24 47 3d 05 fd e8 3d 3a 3b 17 be
       0.067282565 0.048618324 0.11376385 -0.14768687
000390 07 b3 3d be a3 50 44 bd 43 b2 69 3e ac bc f1 3d
       -0.18525325 -0.047928464 0.22821908 0.118035644
0003a0 fb b8 47 3e 5e fc 46 3e 78 84 81 be b5 67 b7 3d
       0.19504158 0.19432208 -0.25296378 0.089553274
0003b0 8e 6a 6e bd 42 33 d9 3d 22 07 28 bc 57 fc 46 3d
       -0.058207087 0.1060548 -0.010255607 0.048580494
0003c0 84 2d 5a 3d 62 37 9e 3c a9 8c 10 3e 36 9d b9 bc
       0.053266063 0.019313518 0.14116158 -0.022657972
0003d0 a4 03 a7 3d ba b9 50 bd a4 f9 1c be 33 02 30 3d
       0.08154991 -0.050958373 -0.15329605 0.042970847
0003e0 b4 ad cc bd 7c 01 c9 3d 22 12 22 3e cb e4 91 bd
       -0.09994069 0.09814736 0.1582723 -0.07123717
0003f0 62 8c 84 bc 57 ad e5 3d fb ea c6 3d d0 16 ec 3d
       -0.016180221 0.112147026 0.09712788 0.11527789

conv1.0.bias f4 [12]
000000 7b 4a d8 3d 08 c3 a3 3c 4b 08 38 bd ca 07 0e bd
       0.10561081 0.01999046 -0.044929784 -0.034675397
000010 a1 dd 99 bd c8 09 c7 3d 89 58 0e bc 30 8c 02 3e
       -0.075129755 0.097186625 -0.008688101 0.1274879
000020 e8 3f 0d 3c 4e b8 bb 3d cf 6f b9 bd 25 0d 89 3d
       0.0086211935 0.09166013 -0.09054529 0.0669196

conv1.1.weight f4 [12]
000000 fc 9d 81 3f df a4 7b 3f 17 89 83 3f 7e 98 82 3f
       1.0126338 0.9829845 1.0276212 1.0202787
000010 d5 cb 83 3f 0a 29 7a 3f a6 50 7c 3f 47 b6 81 3f
       1.029658 0.9771887 0.9856056 1.0133752
000020 de e3 82 3f 57 d0 6f 3f bb 2b 80 3f 00 af 7f 3f
       1.022579 0.93677276 1.0013345 0.99876404

conv1.1.bias f4 [12]
000000 4f bd b6 3b 4b 68 c8 38 00 9f ef 3c 50 10 57 bc
       0.0055767666 9.556169e-05 0.029250622 -0.013126448
000010 f3 84 af 3c b1 94 cc bc 4a c8 94 3d 1e b8 ef bb
       0.0214257 -0.024973245 0.072647646 -0.0073156497
000020 39 80 20 3d 98 f4 2e bd df ed fc ba a0 c0 c0 bc
       0.039184783 -0.04271373 -0.0019296965 -0.02352935

conv1.1.running_mean f4 [12]
000000 89 77 99 3f fb a1 22 bf 92 9c 0b bf e6 b7 c2 3e
       1.1989604 -0.6352841 -0.5453578 0.38030928
000010 f7 f7 6e 3e e8 a2 94 3e 50 10 c5 be 5e 49 48 be
       0.23336779 0.29030538 -0.38489008 -0.19559237
000020 ab c9 ee bd 3c 0c 2d 3f 24 99 15 bf c8 47 a3 3e
       -0.11659559 0.67596793 -0.584368 0.31890702

conv1.1.running_var f4 [12]
000000 43 18 ee 40 34 01 f3 40 9b 23 6f 40 67 52 7e 40
       7.4404616 7.593897 3.7365482 3.9737794
000010 5d a9 8d 40 e3 bb fb 40 55 cc b1 40 89 22 a1 40
       4.426924 7.8666854 5.556193 5.0354657
000020 bc fb 63 40 e6 c1 82 40 d4 e7 a0 40 ac fe 9f 40
       3.5622396 4.0861692 5.0282993 4.999838

conv1.3.weight f4 [12, 12, 2]
000000 ef 9d 6d bb ff 44 46 3d 83 20 00 be fc e2 bb 3d
       -0.0036257466 0.048405644 -0.12512402 0.09174153
000010 8d 13 36 3e 6d 34 2d 3e 3a ed a8 3d f2 73 31 be
       0.17780896 0.1691453 0.082483724 -0.17329386
000020 c6 48 aa bd c4 75 95 bd 9a 90 38 be 26 ed ce 3d
       -0.08314662 -0.07297853 -0.18023911 0.10103826
000030 ff 1c 35 bd a4 8e 50 3d fd 8b 2b be ed 67 e7 bd
       -0.044217106 0.050917283 -0.1675262 -0.11299119
000040 5a d3 12 be 05 42 03 be 08 f1 07 3e be 19 0d be
       -0.14338437 -0.12818153 0.1327554 -0.13779351
000050 80 f9 73 bb 58 82 c4 bd c8 e8 d6 3d d7 74 81 bd
       -0.003722757 -0.095951736 0.10493618 -0.063211136
000060 e8 39 f8 3d 41 8d 14 3e 67 1f 6f bd 72 7a 11 be
       0.1212042 0.14507009 -0.058379557 -0.14206865
000070 c7 38 4b be e9 14 93 3b 24 21 15 3d c8 16 ed bc
       -0.19845878 0.0044885767 0.03640856 -0.028941527
000080 0f e4 6f be 0b 1b ad 3c 6f 3e 19 3e 4b 74 1f 3e
       -0.23426841 0.02113106 0.14965223 0.15571706
000090 10 89 d3 3c 43 a2 dd 3b 71 42 ba bd 84 05 50 be
       0.025822192 0.006763728 -0.09094704 -0.20314604
0000a0 68 c8 a9 3d 32 9b 85 3d dd 72 1e bc 37 3c 15 3e
       0.082901776 0.06523742 -0.00967094 0.14573751
0000b0 1d 9b fd bd d1 33 0d 3e 55 dd 1b be 85 e8 d9 bd
       -0.12383101 0.13789298 -0.1522115 -0.10640053
0000c0 31 d7 12 3e 03 fd 7d bc 04 e0 fa 3d 0b a4 c7 3d
       0.14339902 -0.015502217 0.12249759 0.097480856
0000d0 83 18 2d 3e 38 fe bc 3d ad fb c9 3c a8 70 34 be
       0.16903882 0.09228176 0.024656141 -0.176211
0000e0 ea 32 29 3e 38 8f 21 3e 76 f4 06 3d 4d 1c 93 bd
       0.16523328 0.1577729 0.03294798 -0.07183132
0000f0 14 ea 27 3d 17 a1 2d 3d be c8 5d be aa f8 8a 3d
       0.04099472 0.042389955 -0.21658608 0.0678571
000100 67 0b c6 bd dc 5d b6 3d 0a 41 ab 3c 5f e8 eb bd
       -0.096701436 0.08904621 0.020905036 -0.11518931
000110 2f bc 0a be 0b d8 2a bd 56 9d 15 be b8 ae ad bc
       -0.13548349 -0.04170994 -0.146108 -0.021201476
000120 11 34 59 3d c9 ba 37 3d 6d 3d 14 3e 34 33 82 bd
       0.05302817 0.044855867 0.14476557 -0.063574225
000130 67 0a d2 3d cc ee 36 3d 38 4d 38 bd 3c 6e 0d 3e
       0.1025589 0.04466133 -0.044995517 0.13811582
000140 92 df 52 be 7b c3 43 3d 7a 30 d4 bd f3 24 55 bd
       -0.20593098 0.047793847 -0.10360809 -0.05203719
000150 ed 8b 28 3e 06 c9 0c be ce f0 75 3c fb 05 d6 3c
       0.16459627 -0.1374856 0.015011026 0.026125899
000160 53 a4 0b 3e 58 c8 c0 bc 3a bd f8 3d 02 9d 25 be
       0.13636903 -0.023533031 0.12145467 -0.16173175
000170 05 2f 1b 3d 9b 3e 43 3e bc 5f 48 3e a0 4b 4d bd
       0.03788664 0.19066851 0.1956777 -0.05012095
000180 1f 21 3e be c7 11 4c 3e aa dc 30 bd 2e 5b e3 3d
       -0.18567322 0.19928657 -0.04317919 0.111013755
000190 8a 59 5e 3d 5f 4f a5 3d 30 d7 cc 3c 66 5e 10 be
       0.05428461 0.080717795 0.025004953 -0.1409851
0001a0 bb 55 1e be a9 80 51 3e 2e 47 df bd 8d 84 3c 3d
       -0.15462391 0.20459236 -0.10902248 0.046024848
0001b0 1b cb 08 be 59 f7 0b be f4 48 44 be d1 6c 15 3e
       -0.13358729 -0.13668574 -0.19168454 0.14592291
0001c0 a9 9d 3f 3e 77 b9 08 be 73 7f ea 3d f9 4f ad 3d
       0.18712486 -0.13351999 0.1145009 0.08462519
0001d0 9f 2d e2 bd ff d1 31 3e 9d 61 b8 bd 96 bb 05 be
       -0.11043858 0.17365263 -0.09002993 -0.1305984
0001e0 94 37 a2 bd 4f 59 47 be 88 ed 0a 3e 32 11 6c bc
       -0.07920757 -0.19467662 0.13567173 -0.014408397
0001f0 c7 e2 1e 3e a4 d1 54 3e dc db cb bb c1 35 98 bd
       0.15516196 0.20783097 -0.0062212776 -0.07432128
000200 cd 02 16 3e 64 44 2c 3e 8b a4 15 be f7 a8 84 bc
       0.14649506 0.16822964 -0.1461355 -0.01619385
000210 c4 fd ef bd 80 ce 10 bd 54 fe 40 3a 93 08 99 bd
       -0.11718324 -0.035353184 0.00073621166 -0.074723385
000220 4e b8 29 be cb c0 2d 3e e1 be 4d 3e 02 bc 02 be
       -0.16574213 0.16968076 0.20092346 -0.12767032
000230 a0 e1 3d bc dc d0 07 be d4 05 52 bc a2 88 3d 3e
       -0.011589438 -0.13263267 -0.012818772 0.18509153
000240 8c b3 81 bd 44 70 29 be a7 b1 ca 38 5c 42 45 3e
       -0.06333074 -0.16546732 9.665201e-05 0.19263595
000250 93 4a f8 bd 46 f7 1d be 58 fa 3d be b0 a2 97 3c
       -0.12123599 -0.15426359 -0.1855253 0.018510193
000260 fd df 1e 3d 69 ae 46 3d 41 39 24 3e e8 2a 28 3e
       0.03878783 0.048506174 0.16037466 0.16422617
000270 9f f0 0e 3e d6 84 18 be 58 00 95 bd dc 8a d4 bd
       0.13958977 -0.14894423 -0.07275456 -0.10378048
000280 2b b2 eb 3d 62 65 13 3d fb d4 77 3d b5 32 85 3d
       0.11508592 0.035985358 0.06050585 0.06503812
000290 0c 85 28 be bf 67 b8 bd 0a 1c 66 bd 6f c2 81 3d
       -0.16457003 -0.09004163 -0.056179084 0.063359134
0002a0 33 ed ce 3d 6f 86 bc bd 37 96 64 3c bf a9 ee bd
       0.10103836 -0.09205329 0.01395183 -0.1165347
0002b0 b5 6b 17 be e9 3c 0d be c8 99 d9 3d aa 87 13 3d
       -0.1478718 -0.13792767 0.106250346 0.03601805
0002c0 cd 8e 1a 3d 45 14 ee 3d 3f 20 c2 bd 21 48 31 be
       0.03773384 0.1162496 -0.09478807 -0.17312671
0002d0 f6 cb c6 3d 27 74 36 be 4f 43 ab 3d 97 86 25 be
       0.09706871 -0.17817746 0.083624475 -0.16164623
0002e0 18 6e 0f 3e ae b5 f9 3d 13 07 3b be 85 6b 82 bd
       0.14006841 0.12192856 -0.18264417 -0.06368164
0002f0 f5 4a 03 be 17 fd b6 bd 43 00 1b be 64 a7 f7 bd
       -0.12821563 -0.08934992 -0.15136819 -0.12092474
000300 22 73 f4 bd d8 ee 12 3e 8a 3b 30 bc c2 40 9c 3d
       -0.11936022 0.14348924 -0.010756383 0.07629539
000310 85 f4 0b be a3 59 0a 3e bb a4 d2 bd b2 d3 44 bd
       -0.13667496 0.13510756 -0.10285326 -0.04805345
000320 ad e6 05 3e 1b d1 70 bd 06 34 0f be cf 52 f8 bd
       0.13076277 -0.05879317 -0.13984689 -0.121251695
000330 15 b7 31 bd d4 45 9d 3d af e8 5c bd f2 e7 54 bd
       -0.04338749 0.07679334 -0.053932842 -0.051979013
000340 25 8c 32 bd fe 2c 31 3e b8 fe 85 bd 8b c9 1c be
       -0.043590683 0.1730232 -0.06542724 -0.15311258
000350 d8 e7 c5 bd 6f 3d 2a 3d 6b 28 40 3e a0 0a 30 3e
       -0.09663361 0.041562494 0.18765418 0.17191553
000360 37 71 3a be df 30 73 3e 62 c3 8f 3d b2 56 12 3e
       -0.1820725 0.23749112 0.07019688 0.14290884
000370 6e 8d 81 3d 5d e3 b7 bd c7 80 77 bd ba e6 c9 bd
       0.06325804 -0.08978913 -0.060425546 -0.09858461
000380 b8 e0 59 b6 8d 60 78 3d 01 74 da 3d ec 03 f7 3d
       -3.2466323e-06 0.060638953 0.10666657 0.12061295
000390 12 97 5b be c1 bc 32 3e de 73 46 be bc 17 25 3c
       -0.21444348 0.17454816 -0.19380137 0.0100764595
0003a0 c9 3c 66 3e 18 0c e9 3d 97 a6 de bd d3 fa 1f be
       0.22484125 0.1137926 -0.10871618 -0.15623026
0003b0 0b 00 ae 3c dd 66 8b 3d e3 f3 bf 3c b7 bd a5 3c
       0.021240255 0.06806729 0.023431724 0.020232065
0003c0 bc f1 10 be 3c 55 20 be 87 c9 2b 3c a1 f5 7d bd
       -0.14154714 -0.15657514 0.01048506 -0.062001828
0003d0 14 f3 33 be 88 8b 31 be bc a0 5e 3e af 75 27 be
       -0.17573196 -0.17338383 0.21741003 -0.16353486
0003e0 3a 2d 20 be f7 84 25 bb 83 01 cc bd e3 f3 1c be
       -0.15642253 -0.0025256255 -0.09961226 -0.1532741
0003f0 70 33 2d be 09 82 f1 bd e8 4a 3f 3e 97 18 02 be
       -0.16914153 -0.1179238 0.18680918 -0.12704693

conv1.3.bias f4 [12]
000000 41 ee b4 bd 91 c2 20 be fd c6 86 3d 92 ad 92 3d
       -0.08834506 -0.15699221 0.06580923 0.07162012
000010 48 8a 0b 3e b7 0f a5 bd 12 39 29 3e 75 1b d0 bb
       0.13626969 -0.08059638 0.16525677 -0.0063509294
000020 1d e2 03 3e 01 a0 71 3b 44 99 2f 3e 02 e3 68 3d
       0.12879224 0.0036869051 0.1714831 0.056857117

conv1.4.weight f4 [12]
000000 22 cc 80 3f 73 9e 81 3f 51 49 81 3f 6b 3f 81 3f
       1.0062296 1.012648 1.0100499 1.0097479
000010 02 a3 81 3f 7d 0e 81 3f fc ba 80 3f 1a b6 80 3f
       1.0127871 1.0082546 1.0057063 1.0055573
000020 39 8f 81 3f 21 0b 82 3f e0 7b 81 3f 83 1b 82 3f
       1.0121833 1.0159646 1.0115929 1.0164646

conv1.4.bias f4 [12]
000000 d0 bc a3 bb 45 a2 77 3b f6 97 a9 bb ef cd 80 3b
       -0.0049968734 0.003778593 -0.005175586 0.003930799
000010 96 88 78 3b ed 40 a6 bb 45 b1 8e bb f7 34 b9 bb
       0.0037923208 -0.0050736577 -0.0043546283 -0.005652066
000020 3c df b0 bb 03 d6 41 3b a9 94 a5 bb b5 8f e0 3a
       -0.0053977054 0.0029577024 -0.005053122 0.0017132672

conv1.4.running_mean f4 [12]
000000 c0 fe 96 be 5e 7c 73 be 1c 9b 38 3e bd bb 9c 3e
       -0.29491234 -0.23777911 0.1802792 0.30611983
000010 4c d0 89 3d 21 e4 2c bc 80 26 a0 3d 88 c6 a7 be
       0.067291826 -0.010552437 0.07819843 -0.32768655
000020 49 f1 c9 3d 96 0d 14 3e 1b 4e 5c be bd ed b1 bc
       0.098604746 0.14458308 -0.2151417 -0.021719808

conv1.4.running_var f4 [12]
000000 8d 5e 2e 3e ba a7 ed 3d 36 c7 90 3d 48 0b aa 3d
       0.17028256 0.11604257 0.070692465 0.08302933
000010 77 55 5d 3e cf 2f 95 3d 59 5e a5 3d 41 88 b9 3d
       0.21614634 0.072845094 0.08074636 0.090591915
000020 d2 9b cb 3d cf f1 cf 3d 2f 7e 16 3e 75 42 e1 3d
       0.0994183 0.10153543 0.14696573 0.10999004

conv2.0.weight f4 [12, 15, 3]
000000 94 ce b8 bb 20 8b 72 3d 31 b0 87 3d e4 54 04 3d
       -0.0056398604 0.05921471 0.06625403 0.03230752
000010 b0 b4 0c 3e 4e d4 f3 bd 57 01 b3 bb a4 9c 44 be
       0.13740802 -0.11905728 -0.005462806 -0.19200379
000020 0c bf f8 3d 51 2c f9 3d 96 68 ab bd 03 a4 67 3d
       0.12145814 0.12166656 -0.083695576 0.0565529
000030 81 90 49 bc f7 5f 3a be ae 0e 95 bd 27 2c 4d 3d
       -0.012302519 -0.1820067 -0.072781906 0.050090935
000040 97 fd 90 3d 77 a8 79 3c f8 b0 1b 3d a5 e2 24 bd
       0.070796184 0.015237919 0.038010567 -0.040255208
000050 ac a6 d3 bd 8b b3 74 bd 17 97 f0 3d 07 cc a3 3d
       -0.103345245 -0.059741538 0.11747568 0.079978995
000060 ed 71 1b be 8e c7 26 3d 0e 1c cf 3c fd de a4 3c
       -0.15180178 0.040717654 0.025281932 0.02012586
000070 62 1c dc 3d 46 1f 48 3d a2 02 d8 3d cd 38 d4 3c
       0.10747601 0.04885795 0.10547377 0.025905991
000080 1c 12 9a 3d d4 04 b3 bc ab f6 0d be 88 a5 81 bd
       0.07522985 -0.021852888 -0.13863628 -0.06330401
000090 fc ab 50 3d bc ac 2c bc 93 9c 02 3e 82 ca 42 3e
       0.050945267 -0.01053923 0.12755041 0.19022563
0000a0 4b 40 02 bd ea e0 c0 3d 89 7a 11 be 88 63 74 3d
       -0.031799596 0.09417899 -0.142069 0.059665233
0000b0 14 84 bf 3c da a1 f4 3d 94 de eb bd 67 11 48 3d
       0.02337841 0.11944933 -0.11517063 0.04884472
0000c0 90 d6 90 3c a3 51 88 3d 28 cc d6 bc bf ef 12 bd
       0.017680436 0.06656196 -0.026220396 -0.03587317
0000d0 8b c6 94 bd ce af bc bd a6 0f ba 3d 17 9a d0 bc
       -0.072644316 -0.092132196 0.09085016 -0.0254641
0000e0 ec 5d ac 3c 3c 98 fb 3c 46 c9 a0 3d 0a d5 0f be
       0.02104088 0.03071224 0.0785089 -0.14046112
0000f0 e4 1b 7b 3d 6a f3 35 3d 05 cc c4 bd bb 99 ac bd
       0.061305895 0.04442159 -0.09609226 -0.08427759
000100 28 a8 e1 bd ac 78 cd 3d 67 b2 b2 3d 69 93 82 bc
       -0.110184014 0.10032782 0.08725434 -0.015939431
000110 b3 d4 5b bd 52 17 9c 3d 89 67 50 3d ff 69 d0 bc
       -0.053669643 0.076216355 0.05087999 -0.025441168
000120 ba d2 32 be a7 e2 92 bd 30 4d 95 3d 51 af bb 3d
       -0.17463198 -0.07172137 0.07290113 0.09164298
000130 5a d9 a9 bd d8 47 2f bd 90 2d 44 be 6a a4 cb 3d
       -0.0829341 -0.042793125 -0.19158006 0.09943469
000140 bf c3 b7 bd 1a 86 1d 3b 5d 12 21 be f2 88 66 bc
       -0.089728825 0.002403623 -0.15729661 -0.014070736
000150 65 c3 45 bd ef 0b 16 3e 3c f5 de 3d 52 c3 cd bd
       -0.048282046 0.1465299 0.108866185 -0.1004702
000160 3b cc 7d 3c 8d 4b 04 3e 22 08 f9 3d 4c 06 91 bd
       0.015490587 0.12919445 0.12159754 -0.07081279
000170 5f 4d a9 bd 75 e8 08 bd e9 d5 0a bd f8 79 f6 bd
       -0.082667105 -0.033424813 -0.033895407 -0.120349824
000180 f4 18 78 bd b7 68 f9 3d 71 dc 05 3e 5f bc 9f 3d
       -0.060570672 0.12178176 0.13072373 0.07799601
000190 c3 bc e3 bd a5 92 db bd ef 05 54 3e 63 15 64 3d
       -0.11119988 -0.107213296 0.20705388 0.05568446
0001a0 33 b5 31 3d b2 b0 26 3e 82 9a a0 bd 1b f1 49 3e
       0.043385696 0.16278341 -0.0784197 0.1972088
0001b0 bc 7a 6a bd ad d1 b2 b9 33 70 f8 3c 5a d2 0a 3d
       -0.057245955 -0.00034107026 0.030326938 0.033892013
0001c0 8d cd 2e 3e 4f 2d c1 3d ed 8f b0 3d 02 0d 99 3d
       0.17070599 0.0943247 0.08621202 0.07473184
0001d0 7a 56 f7 3d 9b 28 b2 bd eb 31 d9 3d 0e 64 ed 3d
       0.12077041 -0.08699151 0.10605224 0.115913495
0001e0 f0 f6 dc bd 4b 4d 8e bd 1f 7f a2 bd 3d d6 a0 bd
       -0.10789287 -0.06948336 -0.07934403 -0.07853363
0001f0 90 e9 bb 3d 96 6d 5b bd 33 52 0a be 3b 09 e1 3d
       0.09175408 -0.053571306 -0.13507919 0.10988089
000200 c2 92 1e bd a5 75 26 3b ea a6 59 bd 14 d5 b0 bc
       -0.038714178 0.0025399711 -0.053137697 -0.021585979
000210 66 b8 f3 bd 4d eb 95 3c 19 dc 1a 3d e8 74 32 bd
       -0.119004056 0.018300677 0.037807558 -0.04356852
000220 74 c1 67 3c b7 4b 16 bd 98 78 f9 bd 09 e8 35 bd
       0.014145244 -0.0366933 -0.121812046 -0.04441074
000230 79 37 d1 bd 5f 27 52 bd 68 2c b7 3d 97 df d2 bd
       -0.10215659 -0.05130708 0.08944017 -0.10296553
000240 43 de 9a 3d f5 a1 d5 bb 6b 00 c5 3d 03 27 d0 3d
       0.07561924 -0.006519551 0.0961922 0.10163691
000250 55 9b 6a bd 0b 73 51 3e 11 d9 28 3d d4 e7 00 3d
       -0.057277042 0.20454042 0.041222636 0.03147109
000260 36 f0 98 bc e6 05 3a bd a6 e0 cf bc df 8c 40 3c
       -0.018669229 -0.04541578 -0.025375675 0.011752336
000270 52 f1 b2 bb 27 40 f3 ba 6c 9a fc bc 1e ff e1 3b
       -0.0054608965 -0.0018558548 -0.030835353 0.0068968674
000280 8c 6f 9c 3d 6b 02 04 3d c4 9e 25 be bf 43 61 bd
       0.076384634 0.03222887 -0.16173846 -0.05499625
000290 15 36 21 be 25 e1 99 3d 16 6c 72 bd 13 5d cf 3d
       -0.15743287 0.07513646 -0.05918511 0.101251744
0002a0 e5 0a 1d 3d fb 22 4c bd 74 1a 83 bd 1c c9 cf 3d
       0.038340468 -0.049838047 -0.0640153 0.101457804
0002b0 ee d4 72 bc 02 ad 19 3d b7 31 a8 3d 86 64 06 bd
       -0.014821274 0.03751851 0.08212607 -0.03281071
0002c0 ae 26 4a bc 4c c9 ab 3d b2 c0 7b bc c7 4f 2b be
       -0.0123383235 0.08388004 -0.015365766 -0.16729651
0002d0 ed 27 2a 3e fe 0d 66 3c 08 a9 d8 3d c5 15 fe 3a
       0.16616793 0.014041422 0.10579115 0.001938515
0002e0 ce 92 0d be 3d dd b7 bd ff 0b 3f bd d3 c1 1d bc
       -0.13825533 -0.08977745 -0.0466423 -0.009628731
0002f0 b9 4d c5 3c 80 0b ac bd d6 b6 d2 3d dd 34 bd 3d
       0.024084913 -0.08400631 0.102887794 0.092385985
000300 c1 57 e5 bd e5 43 b8 3d 0d 44 8a 3c 55 a2 24 3d
       -0.11198378 0.08997325 0.016878152 0.040193874
000310 fe 94 be bc 87 db 02 bd 98 1e bf 3d 38 6f 27 be
       -0.023264404 -0.03194764 0.09332007 -0.1635102
000320 e0 94 50 bb 9b ec 83 3d 4f dd cc 3d b9 f3 f4 bd
       -0.0031827018 0.06441613 0.10003149 -0.11960549
000330 65 4e 5c 3d 74 25 29 bb 16 3e e6 bd cd e3 08 bc
       0.0537857 -0.0025809677 -0.11242311 -0.008355093
000340 15 2b 6c bd c2 a8 cd 3d 31 0b cf 3d 1e 8b 49 3d
       -0.057658274 0.100419536 0.101095565 0.049204938
000350 00 ed cf bd 2a 7d 44 3e 78 6f b2 3c 70 2a 2c 3d
       -0.10152626 0.19188371 0.021781668 0.04203266
000360 72 03 fd 3d 34 83 af 3d a0 54 36 3d 32 cd 38 bd
       0.12354173 0.08569947 0.0445143 -0.045117564
000370 d3 71 0e be 98 d9 75 bd fe f2 5b be 6c fa 0e 3e
       -0.13910608 -0.060021967 -0.21479413 0.13962716
000380 a4 ac db 3d 0f 96 5a bd b7 77 1f 39 6f 10 09 bd
       0.10726288 -0.053365763 0.00015208019 -0.033462938
000390 56 d9 11 bd e8 f2 d3 bd 19 d1 63 bc 80 af 93 3c
       -0.03560766 -0.10349065 -0.013904833 0.01802802
0003a0 c6 ea bb 3d 7a ce 78 ba 67 79 1b 3e 18 4b e8 bc
       0.09175639 -0.00094912166 0.1518303 -0.02835612
0003b0 8a 1e b7 3d 68 9c 2c 3b 93 7b f4 bc ac 5f 24 be
       0.08941372 0.0026338343 -0.029844081 -0.16052121
0003c0 06 a3 1d bd f5 38 38 3e 8c ca d0 bd 9e 04 84 bd
       -0.03848555 0.17990477 -0.10194883 -0.06446193
0003d0 5e 0b 0e be 51 8f c5 3d 74 c5 09 bd 26 ec 88 bd
       -0.13871524 0.09646476 -0.03363557 -0.06685667
0003e0 2f c9 4a bd 93 60 32 be 68 5a 60 3d 03 1c c2 3d
       -0.04950827 -0.17419653 0.054773718 0.09477999
0003f0 7d 42 a0 bc 79 dd af 3d 87 9b 20 3e 7f 9a 7f bd
       -0.019562954 0.085871644 0.15684329 -0.0624032

conv2.0.bias f4 [12]
000000 ab 6a 97 3d 9f b6 b9 3d 2b 47 e5 3d d2 e3 e7 3c
       0.07393392 0.09068035 0.11195215 0.028306875
000010 4a 8c b3 3d 74 77 e1 bd a9 1a 50 3d 00 a9 10 bd
       0.087669924 -0.11009112 0.050806675 -0.03531742
000020 8d 4e f4 bd 25 c1 f9 bd fc 9d 0d be 5a 2e 13 bd
       -0.11929045 -0.121950425 -0.13829798 -0.035932876

conv2.1.weight f4 [12]
000000 c2 ef 7e 3f 93 dc 7b 3f 08 9b 83 3f f9 9a 80 3f
       0.9958459 0.98383445 1.0281687 1.0047294
000010 39 c6 74 3f 1d ec 7e 3f ea 44 82 3f c7 2d 78 3f
       0.95614964 0.9957903 1.0177281 0.9694485
000020 f7 69 82 3f c8 1a 7f 3f 4e 08 82 3f 65 de 83 3f
       1.0188588 0.9965024 1.0158784 1.0302244

conv2.1.bias f4 [12]
000000 c2 b5 5e bd 60 33 4f bd db 42 57 bd 7a cb 33 bc
       -0.054372557 -0.050586104 -0.052553993 -0.010973806
000010 cf 1e ad bc f4 22 56 bd 39 19 8f bd 81 1f 54 3b
       -0.021132855 -0.052279428 -0.06987233 0.003236741
000020 f5 c3 1c bd c4 76 fc bc b0 bc c4 bc 93 0f e1 3d
       -0.038272817 -0.03081835 -0.024015754 0.10989299

conv2.1.running_mean f4 [12]
000000 28 ac cf 3e fc 4c 01 3d 59 42 4f be 11 db 81 be
       0.40561032 0.03156756 -0.20240153 -0.25362447
000010 17 70 e3 3e fb 16 97 be 64 f5 b9 3e e9 97 5e bf
       0.44421455 -0.2950972 0.3632003 -0.86950547
000020 32 30 8f 3e cb 22 48 3f 53 d1 9c 3e 2d 26 9d be
       0.27966458 0.7817809 0.30628452 -0.30693188

conv2.1.running_var f4 [12]
000000 2e 37 b5 40 7e 76 8e 40 09 2f 1b 41 aa e3 7b 40
       5.662986 4.4519644 9.698983 3.9357705
000010 fd 3b ea 40 7f 0f 8c 40 32 4c e3 40 42 63 9e 40
       7.319823 4.3768916 7.103051 4.9496164
000020 aa 9e a4 40 1c 00 4d 40 74 83 86 40 19 ef a4 40
       5.144368 3.2031317 4.2035465 5.1541867

conv2.3.weight f4 [12, 12, 3]
000000 60 8f 94 3c 0b 90 d5 bd 4a 6d 1a 3e 8c 68 bc bd
       0.018134773 -0.10427865 0.15080753 -0.09199628
000010 0a d8 0a 3e b7 b3 a4 3d 7d 25 23 3e 77 49 a7 3c
       0.13558975 0.080420904 0.1593227 0.020420773
000020 5a 71 1e 3e 38 77 d8 bd 3d 1c fb bd 2c 72 c8 3d
       0.15472928 -0.10569614 -0.122612454 0.097874016
000030 cb 30 10 be e7 c2 dc bc 99 53 2b 3e 2a f9 8d 3c
       -0.14081113 -0.026948405 0.16731109 0.017330725
000040 56 af 96 bd 3c 64 35 3b a4 e5 44 3d bb d4 06 3e
       -0.073576614 0.0027678153 0.048070565 0.13167088
000050 7e 4a 25 be 0e f4 11 bd eb 10 6f bd 6a 6b 3c 3d
       -0.16141698 -0.03563314 -0.058365744 0.046000876
000060 a2 e7 a2 b9 7d d5 af bd 8f 3f c1 bd 8b 11 b9 bd
       -0.00031071628 -0.085856415 -0.09435951 -0.09036549
000070 f6 d7 24 be c1 a6 df 3d 9e 7a 10 be 01 84 72 3d
       -0.16098008 0.10920478 -0.14109275 0.05920792
000080 7c b5 ac 3d 3b 5f 81 bd c1 2b 93 bc ed f8 11 be
       0.08433053 -0.06316992 -0.0179652 -0.14255114
000090 69 38 37 3d 71 eb e4 bd a3 9e 84 3d 6c e7 2d 3d
       0.04473153 -0.111777194 0.0647557 0.04245703
0000a0 fa d7 29 be 50 37 0f 3d 6b 2d 5f bd 7b 6b d1 3d
       -0.16586295 0.03496486 -0.054486673 0.102255784
0000b0 3e fe 0a be fa 91 40 3d c6 38 27 3d 00 c4 e6 3d
       -0.13573548 0.047014214 0.040825628 0.11267853
0000c0 d9 62 a7 bd 8f 15 34 3c 87 10 1a 3e 4d 5c 8f 3d
       -0.081731506 0.010991468 0.15045367 0.07000027
0000d0 e1 35 3a 3e ee 9c 22 bd 91 94 b1 bd 02 f4 01 be
       0.18184616 -0.03970044 -0.08670915 -0.12690738
0000e0 31 30 4d bd f8 fd de bd cf 26 2f bd 57 83 09 bd
       -0.050094787 -0.108882844 -0.04276162 -0.03357252
0000f0 92 2e 3c 3d 41 02 40 bc 21 dc 44 be 50 6b 89 3d
       0.04594285 -0.011719287 -0.19224598 0.06709921
000100 59 29 46 3d 77 3a 91 bc 26 7e b3 bd 1a ae 20 3e
       0.048379276 -0.017728074 -0.08764295 0.15691414
000110 8a 49 d2 bd ba 50 10 3e 0d 04 9b 3d 02 ee c7 bd
       -0.10267933 0.14093295 0.07569132 -0.09762193
000120 d6 62 27 be c4 77 ec bd 23 b9 a9 bd 4c 2b 83 3d
       -0.16346297 -0.11546281 -0.08287265 0.064047426
000130 a3 26 f2 bd 47 f4 b1 3d 30 c8 02 be 5b e1 a6 bd
       -0.118237756 0.0868917 -0.12771678 -0.08148452
000140 a7 ae a6 3d e1 45 51 bd 17 02 cf 3d 42 75 38 3d
       0.08138781 -0.051092032 0.101078205 0.0450337
000150 e5 7f 83 bd 01 0a 4d 3c 07 3e 3d bc 32 14 74 bc
       -0.06420878 0.012514592 -0.011550433 -0.014897393
000160 37 35 8d bd 1a 09 27 be 3c 1b c5 3d 08 2b f2 bd
       -0.068949156 -0.16312066 0.09624335 -0.11824614
000170 bd 70 2c 3e ee dd 6f be 2a d3 34 3e 94 87 3a bd
       0.16839881 -0.23424503 0.17658678 -0.045539454
000180 27 85 78 3d fc 89 4d bd 22 01 07 be ac 14 4e bd
       0.06067386 -0.05018042 -0.13184026 -0.050312683
000190 87 16 c2 bd 43 4f ee 3d ea 2f 69 3d c9 b4 2c bc
       -0.09476953 0.11636212 0.05693046 -0.010541149
0001a0 4c 25 b4 3d 9d 12 c4 3d eb 2d 07 3e 8a 14 9d bd
       0.08796176 0.09573863 0.1320111 -0.07669933
0001b0 47 9e 02 be 18 d0 8c 3d ee e3 92 bd eb 2c f0 3d
       -0.1275569 0.06875628 -0.071723804 0.117273174
0001c0 ed 7a 09 be b5 1c e0 3d b7 ab f8 bb 99 bd 1a be
       -0.13425799 0.109429754 -0.0075888294 -0.15111388
0001d0 d1 ce 08 be f1 cf 77 3c 72 15 11 3e 33 db 86 3d
       -0.13360144 0.015125261 0.14168337 0.06584778
0001e0 fd be d5 3d 7f b5 b1 bd 46 c0 ea bc 75 76 da bd
       0.10436819 -0.08677196 -0.028656136 -0.10667125
0001f0 48 0d 06 be 09 a0 b3 3d 5e c9 e8 3d ad 58 c0 bd
       -0.13091004 0.08770759 0.11366533 -0.093919136
000200 c5 c6 5f 3b 6c e4 fb 3d af 89 f0 bd f9 31 cb bd
       0.0034145575 0.122994274 -0.11745011 -0.09921641
000210 32 7d 01 3e 4f 18 b9 3d e9 5f ea bb 40 6f d0 3d
       0.12645414 0.090378396 -0.0071525467 0.10177469
000220 07 24 8b 3c c5 a4 04 3d 9f 68 8f 3d 54 d3 eb bd
       0.016984953 0.0323837 0.07002377 -0.11514917
000230 10 b0 2b be f0 3e 49 3e d2 7d ac 3b 18 c0 9b bc
       -0.16766381 0.19652915 0.0052640224 -0.019012496
000240 f9 02 9e bd c7 9b 1c be 1d 4a d9 bd 13 5c 07 3b
       -0.07715411 -0.152938 -0.10609839 0.0020654246
000250 e1 36 4d 3e 13 da d5 3d 87 89 2a 3d 5b f2 af 3d
       0.20040466 0.10441985 0.041635063 0.085911475
000260 2f b2 9f bd a5 bf 8a 3c 19 9d 05 be 7e 10 85 3d
       -0.07797658 0.016937086 -0.13048209 0.06497286
000270 64 05 f8 3d 51 14 c9 bd 8c 31 0d be d1 67 13 3e
       0.12110403 -0.09818328 -0.13788432 0.14395072
000280 4b 03 22 bd 3c 9d 7e 3d c9 6c 0b be dd b7 2d 3e
       -0.03955392 0.06216167 -0.13615717 0.1696467
000290 3c a2 6b bd ec f0 32 3d 7c 01 90 3d eb 64 80 bd
       -0.057527766 0.043686792 0.07031533 -0.062692486
0002a0 ea c1 0b 3e fb 84 5d bd 7b 2c 04 3e 42 44 ec bd
       0.13648191 -0.0540819 0.12907593 -0.11536457
0002b0 e2 11 fe 3d b2 b2 c8 3c 92 cb 31 3e d7 8b 11 be
       0.124057546 0.024499271 0.17362812 -0.14213501
0002c0 e2 8c 82 bd 97 42 b7 3d 58 26 1e 3e f0 a1 7d 3d
       -0.063745275 0.08948248 0.15444314 0.061922014
0002d0 01 16 f2 3d 1e 4f 2a 3d 54 cc 45 bd 80 f7 4e bd
       0.11820603 0.04157936 -0.048290566 -0.050529003
0002e0 1c ee 8d 3d 13 d4 78 bd 26 54 63 3d bb 29 9f bc
       0.069301814 -0.060749125 0.055500172 -0.019429078
0002f0 2a ea 9d 3d 0e 0d 91 3d 3b c9 83 3d 4d a6 14 be
       0.07710679 0.07082568 0.06434866 -0.14516564
000300 9e 22 99 bd 91 34 93 3d 45 6f 48 bd 3f 8f 48 3e
       -0.07477306 0.071877606 -0.04893424 0.19585894
000310 fd 90 1a be 84 54 0a 3e 14 ac 78 bd 39 1a bd bd
       -0.15094371 0.13508803 -0.06071098 -0.09233517
000320 05 8f 2a be b2 29 fb ba e4 c0 31 3d f4 90 40 bd
       -0.1665612 -0.0019162206 0.043396845 -0.047013238
000330 15 49 c0 bd 0f d7 dd 3d fe e7 b0 3c 4c 2c 38 3c
       -0.09388939 0.10832035 0.021594997 0.01124103
000340 8c c8 80 bc 27 3d 11 3e d9 ce 98 3b 3b 4f af bd
       -0.015720628 0.14183484 0.00466333 -0.08560034
000350 6d e3 a4 3d 5e 16 6e bd 6e 03 ac 3c 1e 17 fd 3c
       0.080511905 -0.0581268 0.02099773 0.030894812
000360 19 e1 ee bc 81 32 d2 3d 8e bd a2 3d 8d c4 cb bd
       -0.02916007 0.10263539 0.07946311 -0.099495985
000370 68 6c 69 3c 92 42 08 3e 90 53 1b bd 72 be 0f 3c
       0.0142470375 0.13306645 -0.03792149 0.008773433
000380 f7 48 08 3b 82 28 90 bd e2 73 b0 3c da 2a c6 3d
       0.0020795444 -0.07038976 0.021539632 0.09676142
000390 6c b2 c7 3d fd 75 8d bd 3e c0 f3 bd 34 03 86 bd
       0.09750828 -0.0690727 -0.11901902 -0.0654358
0003a0 19 9a 08 bd 39 00 9c bc 53 67 53 3d 2d eb 35 3e
       -0.033350084 -0.019043075 0.05161221 0.17765494
0003b0 98 ec 06 3e 69 97 0e 3e 8c 70 a1 3d b1 bf ab 3d
       0.13176191 0.13924946 0.07882795 0.083861716
0003c0 ae 99 99 3c fd 85 19 be fe 5c 9f ba 8c 11 ef bc
       0.018750038 -0.14992519 -0.0012158451 -0.029183172
0003d0 19 29 df 3d fa 92 31 bd b6 bc 04 be 6e 80 52 3e
       0.10896511 -0.04335306 -0.12962613 0.20556805
0003e0 4d a1 81 bd 5d 19 bb 3c 52 d8 c3 bc 3f 49 07 3e
       -0.06329594 0.022839243 -0.02390686 0.13211535
0003f0 21 ba 16 3e ee 99 5e 3d f4 b7 e8 bd 6a 44 e6 3d
       0.1471944 0.054346018 -0.11363211 0.11243518

conv2.3.bias f4 [12]
000000 c7 a8 9c 3d cb 87 02 3c 45 28 be 3c 5e 00 a7 bd
       0.07649379 0.007966946 0.023212561 -0.08154367
000010 0c 03 e6 bd 8f 9f 90 bc 32 06 0c 3d 10 8a 85 bd
       -0.1123105 -0.017654208 0.034185596 -0.06520474
000020 f6 4e f5 bc 1f 07 bf 3c 40 3b 9b bd 7c 04 03 be
       -0.029944878 0.023318825 -0.075796604 -0.1279468

conv2.4.weight f4 [12]
000000 bf 96 86 3f 48 bb 84 3f 87 b9 82 3f cf dc 82 3f
       1.0514754 1.0369654 1.0212868 1.0223635
000010 0c 38 81 3f 30 16 83 3f d5 ec 80 3f 27 07 82 3f
       1.0095229 1.0241146 1.0072275 1.0158433
000020 d2 82 82 3f 91 de 83 3f af bc 81 3f b1 54 83 3f
       1.0196173 1.0302297 1.0135707 1.0260221

conv2.4.bias f4 [12]
000000 48 94 a4 bb f9 a9 a4 bb a5 98 60 3b 7c d0 a7 bb
       -0.0050225593 -0.005025145 0.003427067 -0.005121289
000010 46 86 bf bb e4 e1 14 3b de 88 a4 3a 07 74 a7 bb
       -0.005844864 0.002271765 0.0012552997 -0.005110267
000020 85 12 61 3b 75 6d 5d 3b 4a 48 81 3b 8d 17 a6 bb
       0.0034343314 0.0033787165 0.003945385 -0.0050687254

conv2.4.running_mean f4 [12]
000000 fd 38 ff bc 75 40 84 bc 5b 80 f0 bd 69 b4 36 bd
       -0.031155104 -0.016144017 -0.11743232 -0.044605646
000010 57 5c bb 3d 4d b9 80 3c 08 d1 97 3e 74 d4 62 bd
       0.09148472 0.015713358 0.29651666 -0.055378392
000020 09 61 11 3e f3 c7 72 3d dc de 61 be 20 3d cd bd
       0.14197172 0.059272718 -0.2205767 -0.10021424

conv2.4.running_var f4 [12]
000000 38 90 6c 3d ed 72 88 3d 0b 04 a3 3d 5d ab a4 3d
       0.057754725 0.06662545 0.079597555 0.080404975
000010 a2 bd 03 3e f1 4d 97 3d 9b 04 bc 3d 13 29 98 3d
       0.12865308 0.07387913 0.09180566 0.07429709
000020 a0 13 9d 3d af 08 98 3d 97 e8 a3 3d 0c ac 91 3d
       0.07669759 0.07423531 0.08003347 0.071128935

conv3.0.weight f4 [12, 15, 4]
000000 93 ee 93 3b 80 a9 86 3d fe c9 b8 bb 45 f1 b0 bc
       0.0045145242 0.06575298 -0.0056393137 -0.021599421
000010 36 30 39 bd 24 14 65 bd 3f fd b3 bd 5b 0f 04 3e
       -0.045211993 -0.05592741 -0.08788537 0.12896483
000020 ed 0a 55 bd 7b 0d cd bd a2 1a 83 3c 3c 2a a8 bd
       -0.052012373 -0.10012337 0.01600391 -0.082111806
000030 a7 ec 79 bb 0b a2 07 be b5 04 14 3e 16 f6 1c 3d
       -0.003813544 -0.13245408 0.1445492 0.038320623
000040 69 89 c6 bc 1e fa d0 3d 79 d0 f2 bd b8 3f 12 3b
       -0.024235444 0.10203956 -0.11856169 0.0022315811
000050 f8 31 a3 3d cc cc d1 bd 2f 06 c9 bd 1f e0 2a bc
       0.07968515 -0.1024414 -0.098156326 -0.010429411
000060 40 5c e2 3d 45 cf 3e 3d 4d 96 80 bd 14 3b ea 3b
       0.110527515 0.046584386 -0.062786676 0.007148156
000070 eb 52 c2 bd 5c 7b 2f 3d 74 f0 da 3d ba 36 20 3d
       -0.094884716 0.042842254 0.10690394 0.03911469
000080 91 78 35 3d 11 ae 31 bd 88 e8 9c bd 81 9d d8 3d
       0.044304434 -0.043378893 -0.07661539 0.105769165
000090 d6 66 a9 bc 85 ed 24 bc 25 b3 06 be c9 f4 03 be
       -0.020678919 -0.010066395 -0.13154276 -0.12886347
0000a0 c9 39 aa bd 3e 15 62 3d 21 94 5e bc b9 08 a7 3d
       -0.08311803 0.05519604 -0.013585121 0.081559606
0000b0 48 af 7d bd c1 92 9e 39 63 54 0a bd 8c df c8 3c
       -0.06193474 0.0003024545 -0.033771884 0.024520658
0000c0 c3 f5 d9 3c df b9 94 3d ad a2 0d bd 51 1d 32 3d
       0.026606446 0.072620146 -0.034578968 0.04348499
0000d0 3e 3e 80 3d 0c 46 67 3d 10 13 1b 3c ec b0 12 3e
       0.06261872 0.056463286 0.009464994 0.14325303
0000e0 61 e7 0b 3c 50 6b 57 be 77 b0 08 be d1 e7 a9 3d
       0.008539052 -0.2103703 -0.13348566 0.082961686
0000f0 c4 70 7b bc 72 41 e5 3c 07 d5 c1 3c d6 03 74 3d
       -0.01534671 0.027985308 0.02366115 0.05957397
000100 db 0c b6 bd 14 6a 8d bd f1 07 de bc d6 4d 76 3d
       -0.08889171 -0.069049984 -0.027103396 0.060132824
000110 ac 66 12 3e 5d 89 5b 3d 35 88 65 bd 7d 37 f0 3d
       0.14296979 0.053597797 -0.0560381 0.117293335
000120 b7 dc ff bc e3 1d 76 bc 84 f9 64 3b 2d ce 99 3d
       -0.031233175 -0.015021774 0.0034938762 0.07510028
000130 77 b1 c8 3c 90 38 91 3d 9b ab e0 3c cf d9 e9 3d
       0.024498684 0.070908666 0.027425578 0.11418497
000140 3e 99 04 3d ff 71 a3 bd 28 f1 0a be c5 12 cc 3d
       0.032372706 -0.079807274 -0.13568556 0.099645175
000150 4a 89 46 3d 7a a9 ef 3c 78 28 eb bd 6f 71 8f 3b
       0.048470773 0.029255617 -0.11482328 0.004377536
000160 3e 8e eb bc 1e b6 b6 3d 36 cd 76 be fc 9d c5 3c
       -0.02875435 0.08921455 -0.2410172 0.024123184
000170 9d 50 e3 3d 70 ca b5 bd ab 6e 40 3d e6 8f b9 3d
       0.1109936 -0.088765025 0.04698054 0.090606496
000180 88 93 b4 3a d8 43 ee 3d 0c a9 0f 3d 85 38 b7 bd
       0.0013776878 0.11634034 0.035073325 -0.08946327
000190 29 e7 af bd b5 7a 93 3d 6c a2 79 3d be b3 a8 3d
       -0.08589012 0.07201139 0.060945913 0.08237408
0001a0 a7 29 17 3c 71 34 92 bc 2b 53 a7 3c 79 d6 74 3d
       0.009226239 -0.017847272 0.0204254 0.05977485
0001b0 0b bb 41 3d d6 12 85 bd af a9 f6 3c ef a3 fd bb
       0.04729752 -0.06497733 0.030110208 -0.0077404897
0001c0 7d 9c d3 3b cb 09 8f 3b a9 ed ab 3c 0d 67 ca 3c
       0.006457864 0.004365181 0.020987349 0.024707342
0001d0 96 10 09 be d5 d5 eb bd 82 f4 7a bd d6 60 21 3e
       -0.13385233 -0.115153946 -0.061268337 0.15759596
0001e0 cb a9 e5 3d b1 f5 a9 bc 52 fd b9 3d c7 eb 62 3c
       0.11214026 -0.020747038 0.0908152 0.013850159
0001f0 09 1e 1d 3d 82 0b 4e bc 2a 29 9c 3d 4e fc ba bc
       0.038358722 -0.012575986 0.07625039 -0.022825386
000200 d5 74 08 3e cb c4 ca 3d 83 46 61 bd 15 21 9b bd
       0.13325818 0.099008165 -0.054998886 -0.07574669
000210 cc 27 73 bd 7c f3 8c bd 8d 30 ac 3d 43 78 90 bc
       -0.059364125 -0.068823785 0.08407698 -0.01763547
000220 fa 3b 2d 3d 9c 25 59 bd 08 66 4b 3c 43 38 0b bd
       0.042293526 -0.053014383 0.012414463 -0.033989202
000230 9a 04 bf 3d 3b d9 19 3c 1d ad de bd b5 eb 3a 3d
       0.093270496 0.009390171 -0.108728625 0.045634944
000240 bd cf 3e bc fc f0 13 3e dc 38 87 bb 76 c3 39 3e
       -0.011646208 0.14447397 -0.004126651 0.18140969
000250 05 52 12 be ae 0d f9 3d 90 4d 8a bd ed c9 e0 3d
       -0.142891 0.12160812 -0.06753075 0.10976014
000260 5a 6f 76 bd 48 a3 f3 bd 84 58 73 bc 0f 1f ca 3d
       -0.060164787 -0.11896378 -0.014852647 0.09869205
000270 e8 e8 1b be 10 7f 5b bd 43 84 ad bc 1f 32 fa 3d
       -0.15225565 -0.053587973 -0.021181231 0.12216591
000280 03 32 c4 3d c7 ef bd 3c e8 1c f0 bc a6 f9 d3 bd
       0.095798515 0.023185624 -0.029310659 -0.10350351
000290 04 c7 9b 3d fa f2 34 3d ed 81 df bd 79 f1 7b 3d
       0.076063186 0.044177033 -0.10913453 0.061509583
0002a0 06 f1 b3 3c 85 12 d2 3b 19 47 32 3e fe 36 1a be
       0.021965515 0.006410899 0.17409934 -0.1506004
0002b0 00 53 1e bd ba f7 fd 3a 77 9e 89 3d 8b f8 9b bc
       -0.038653374 0.0019376196 0.06719678 -0.019039413
0002c0 35 e7 c3 3d 63 be 54 3d 5c e5 1a bd d0 7c 80 3d
       0.095655836 0.05193938 -0.03781639 0.06273806
0002d0 6b e1 5f 3c d3 c0 ca ba 88 e6 0f 3c e1 ff 00 3d
       0.013664584 -0.0015468843 0.00878299 0.031494025
0002e0 4c ab 9b bc 02 7f 86 bd f6 fd c9 3d 70 17 b1 3d
       -0.01900258 -0.065671936 0.09862892 0.086470485
0002f0 6d d7 87 3d 5f 54 d0 bc ec 8b ec bb a3 ad 3a 3e
       0.06632886 -0.025430856 -0.0072188284 0.182303
000300 02 7d 4a bc 09 ae 1b 3d f2 29 be 3d f1 6d 82 3c
       -0.012358906 0.03800777 0.09285344 0.015921565
000310 12 79 b4 3d 31 d9 b6 3d 71 49 1e 3d 17 a2 56 3d
       0.08812155 0.08928145 0.038644258 0.052400675
000320 86 db 9d bb c5 0e ad 3a 92 23 85 bd f8 d4 3c bc
       -0.004817429 0.0013203254 -0.06500925 -0.011525385
000330 98 4d 22 3c d1 21 ea bd a5 9a f7 bc 74 6f d4 bb
       0.009906195 -0.11432231 -0.030225107 -0.006483013
000340 7e ee 55 3d 4e b3 bd bd 41 d9 bc 3c 68 b0 1e 3e
       0.052229397 -0.09262715 0.023052813 0.15496981
000350 0a 6a b9 bc 7a 9f c0 3c 7d 6a 45 bc cc 20 92 3d
       -0.022633571 0.023513544 -0.012049315 0.07135162
000360 55 78 45 3d 65 70 d2 bd 1b 47 74 bb d2 2d 32 3e
       0.04821046 -0.10275344 -0.0037273827 0.17400292
000370 63 73 8e bd 1e 07 12 bc a2 1d 31 3d c3 e1 ac 3d
       -0.06955602 -0.00891283 0.04324115 0.08441498
000380 a2 d9 cd bd b2 2f 0e be 61 6c 0f 3e 2d 18 cf bb
       -0.10051276 -0.13885382 0.14006187 -0.0063200206
000390 62 97 f6 bd 3b cb 81 bd 1c a4 a8 bd 71 2f 1a bd
       -0.12040593 -0.06337591 -0.082344264 -0.0376429
0003a0 bc 58 9f 3d 6d 2a 24 bc 1c 0c aa 3d dc ac 20 be
       0.077805966 -0.010019881 0.08303091 -0.1569094
0003b0 e2 77 ee bd 27 e2 92 bd 54 e8 9f bd 6a a9 39 3e
       -0.116439596 -0.071720414 -0.07807985 0.18131033
0003c0 f4 60 47 bb 29 05 18 bd 62 90 04 3e 15 50 c2 bd
       -0.0030422779 -0.037114296 0.12945703 -0.09487931
0003d0 cc a9 26 be 5e ff 32 3c 85 5f 1f 3d 4f 2b db bd
       -0.1627571 0.010925142 0.038909454 -0.1070162
0003e0 d1 6e 4f 3d 97 ba 86 bb ab 2d f9 bc 92 3c 83 3d
       0.050642792 -0.0041115987 -0.030417284 0.06408037
0003f0 ff 29 7f 3d db f1 82 bd 81 84 e2 3c 80 67 97 3c
       0.06229591 -0.063937865 0.027651073 0.01848197

conv3.0.bias f4 [12]
000000 36 46 08 3c 79 72 5b 3d 1f b3 d9 3d 94 34 60 3d
       0.008317521 0.053575967 0.10629868 0.054737642
000010 98 c8 b0 3b de 7b 8d 3c 17 cf ef bd 5b ab 2c bd
       0.0053950064 0.017270979 -0.11709421 -0.042155605
000020 84 6d d9 3d 3a 8f ed 3d b6 1c 4c bd 8a c5 e2 bd
       0.106165916 0.11599584 -0.04983207 -0.11072834

conv3.1.weight f4 [12]
000000 a8 a2 7a 3f b4 a6 7c 3f 5b 90 86 3f c0 13 78 3f
       0.97904444 0.9869187 1.0512804 0.96905136
000010 db 27 80 3f 71 89 81 3f c5 f7 7f 3f 65 4b 7c 3f
       1.0012163 1.0120069 0.9998744 0.9855254
000020 92 73 7d 3f 07 c4 7d 3f dd b5 81 3f 02 63 82 3f
       0.9900447 0.9912724 1.0133625 1.0186465

conv3.1.bias f4 [12]
000000 c0 da e9 bc 92 f2 59 bd 00 a9 f7 bc f8 56 61 bd
       -0.028546691 -0.05320985 -0.030231953 -0.05501458
000010 72 e4 8b 3c 2d 4a b0 3c 3e 43 93 bd 4f 97 17 bd
       0.017076705 0.021519745 -0.0719056 -0.037009533
000020 8e 5f 8a bc 7f c6 4e bc 0b 9f 12 bd 90 cb 21 bd
       -0.016891267 -0.012620567 -0.035796206 -0.039500773

conv3.1.running_mean f4 [12]
000000 29 db 1f 3d aa 23 00 3e d7 e7 42 3f 1d 5d 47 3d
       0.039027367 0.12513605 0.7613501 0.048672784
000010 38 fa ac be aa ab c0 bd 43 9f 24 bf a0 44 a4 3e
       -0.33784652 -0.09407742 -0.64305514 0.32083607
000020 92 07 50 3e a3 84 74 bd 94 c7 13 bd ab 16 4f 3f
       0.20315388 -0.059696805 -0.036079004 0.80893964

conv3.1.running_var f4 [12]
000000 ad 64 89 40 91 fb 79 40 ca e4 c9 40 86 e2 80 40
       4.2935395 3.9059794 6.3091784 4.027652
000010 76 d5 d3 40 f2 cd 9f 40 c2 c9 63 40 8d 2e b1 40
       6.6198072 4.99389 3.5591893 5.5369325
000020 6a cb 84 40 88 81 a9 40 fc 89 bf 40 30 71 d4 40
       4.149831 5.297062 5.985594 6.638817
