model/AutoY/RAcheckpoint4.pt (torch, 34213 bytes, 51 tensors)

conv1.0.weight f4 [12, 15, 2]
-0.080731675 -0.119784 0.12704642 0.03574323 -0.049951278 0.17199735 -0.016080923 -0.10099752
0.04047373 -0.19612508 0.13087398 -0.03754753 0.06360756 0.08970408 0.10391629 -0.104973555
-0.0899811 0.009790915 -0.053931147 0.036453936 0.16277365 -0.14030883 0.124077134 0.028134301
0.1393176 -0.08365827 0.013242205 -0.11810684 0.026063535 0.18333845 -0.1601319 -0.13436413
0.10599849 0.16364393 -0.0140189305 -0.102513805 -0.08029982 -0.052149627 0.14393167 0.009307632
-0.03752843 0.002264362 0.08536865 0.11172709 -0.15310358 0.096549645 -0.02680683 -0.2084147
-0.02523998 0.056701783 0.12282724 -0.17791376 0.019258762 0.19119824 0.08348446 -0.2351309
-0.033525735 -0.12983885 0.05447956 0.020778654 0.06509248 -0.09690953 0.01012244 0.119840965
0.09235443 -0.11779843 -0.14843883 -0.04990731 0.008891814 -0.12793574 -0.020442368 0.049251985
-0.20721406 0.07843878 0.1656537 -0.17889033 0.11305373 0.06127647 -0.100953914 0.0008034053
-0.020820275 0.16113958 0.117069274 0.06934329 0.014059193 -0.07924164 0.039114766 -0.115843944
0.0019009397 0.0366669 -0.071463 -0.10651682 -0.15017962 -0.072685845 0.043148737 -0.116165
-0.029708039 -0.020758377 -0.10921646 0.1276875 -0.117295936 -0.1912421 0.0072948965 -0.084732674
0.033276647 -0.21455137 -0.10968196 0.19319281 -0.137012 0.13478011 -0.13547958 0.21177858
-0.2632299 0.065013915 0.124977864 -0.17524269 -0.17404246 0.11329997 0.048196882 -0.16595726
0.05784236 -0.12276707 -0.17958431 -0.010789577 -0.06904962 -0.035087775 -0.1082589 0.04753422
0.084426105 -0.062303163 -0.09614772 -0.078571536 -0.13809009 0.21124955 0.0014055738 -0.17003064
0.06994191 -0.010730997 0.12551579 0.0430588 0.09702805 -0.009859531 -0.048573826 0.075930744
0.008023312 0.086287454 0.2255983 0.18045457 -0.21428084 -0.044547684 -0.059021782 0.19470938
0.14808677 0.1694837 -0.057515327 0.056377444 -0.1403073 -0.00905896 0.119812205 0.14022364
-0.13985115 -0.12084164 -0.11328857 0.1525255 -0.13303576 0.02621858 0.09713744 0.07637396
-0.12408491 0.084474705 0.15102983 -0.087950595 -0.100689605 0.0077180946 0.032461356 0.099682815
0.08426239 -0.10517045 0.0062816455 0.08490796 0.08151847 0.15829591 0.05042965 0.11369753
0.12262238 0.007885394 -0.06637486 0.04427316 -0.035052285 -0.08079179 -0.19711661 0.10119909
0.12329796 0.031878456 -0.16275072 -0.01905659 -0.01648258 -0.19052896 0.18466641 0.025099069
0.08064137 -0.01622686 -0.016388906 -0.0011462094 -0.005862681 -0.19287097 0.03156398 -0.062400393
0.10405062 -0.18286839 -0.060322914 -0.04301942 -0.10838516 -0.13233583 -0.04189731 -0.0878602
0.022672156 -0.04604871 -0.14306286 0.0818414 0.098549046 0.07800286 0.007860742 -0.11640361
-0.0517054 0.09583933 0.0066514523 0.12086112 0.0703954 -0.044245034 0.0417819 -0.33506915
-0.0034872368 0.08227748 -0.03848425 -0.20507452 0.23372442 0.1208006 0.08130974 0.07006355
0.1629989 0.081295595 -0.08207779 0.110888824 -0.07681553 -0.011391052 -0.11134412 -0.005272382
-0.062323343 -0.10701529 -0.020461416 -0.15090145 -0.16718636 0.11486244 -0.055767193 0.056835346
00000000: a656 a5bd 5051 f5bd 7518 023e 7e67 123d
00000010: b699 4cbd 1320 303e 24bc 83bc cad7 cebd
00000020: c8c7 253d 03d5 48be d403 063e 70cb 19bd
00000030: ae44 823d c6b6 b73d 10d2 d43d 60fc d6bd
00000040: 0348 b8bd 136a 203c e8e6 5cbd b950 153d
00000050: 23ae 263e 1ead 0fbe 271c fe3d e879 e63c
00000060: 46a9 0e3e 0755 abbd d5f5 583c 00e2 f1bd
00000070: 3283 d53c 13bd 3b3e 9ef9 23be c096 09be
00000080: bc15 d93d 4692 273e a8af 65bc c2f2 d1bd
00000090: 3b74 a4bd d99a 55bd d362 133e 0a7f 183c
000000a0: 69b7 19bd b165 143b c2d5 ae3d 2cd1 e43d
000000b0: 2fc7 1cbe d2bb c53d ff99 dbbc aa6a 55be
000000c0: 13c4 cebc 2140 683d d98c fb3d 062f 36be
000000d0: 8dc4 9d3c 79c9 433e e7f9 aa3d 28c6 70be
000000e0: 4852 09bd 7af4 04be f625 5f3d ff37 aa3c
000000f0: 354f 853d 8178 c6bd 97d8 253c 2e6f f53d
00000100: 5224 bd3d 4e40 f1bd 5900 18be 9c6b 4cbd
00000110: f9ae 113c 9601 03be c176 a7bc 73bc 493d
00000120: ec2f 54be 83a4 a03d 20a1 293e 072f 37be
00000130: b788 e73d 09fd 7a3d edc0 cebd 9e9b 523a
00000140: 488f aabc c601 253e 04c2 ef3d db03 8e3d
00000150: 8858 663c 7149 a2bd ce36 203d 973f edbd
00000160: f428 f93a 0830 163d 315b 92bd 7e25 dabd
00000170: b0c8 19be 51dc 94bd bbbc 303d eae7 edbd
00000180: 465e f3bc 790d aabc e1ac dfbd 83c0 023e
00000190: da38 f0bd f8d4 43be 070a ef3b 5388 adbd
000001a0: 184d 083d 5bb3 5bbe efa0 e0bd 56d4 453e
000001b0: e04c 0cbe cc03 0a3e 29bb 0abe 7cdc 583e
000001c0: 12c6 86be 0426 853d 65f4 ff3d d272 33be
000001d0: 3038 32be d109 e83d 186a 453d b3f0 29be
000001e0: 1cec 6c3d 4d6d fbbd f3e4 37be c4c6 30bc
000001f0: e369 8dbd 33b8 0fbd d8b6 ddbd 3eb3 423d
00000200: 98e7 ac3d 9a31 7fbd 19e9 c4bd 1dea a0bd
00000210: 7d67 0dbe cd51 583e 3b3b b83a 831c 2ebe
00000220: b43d 8f3d 10d1 2fbc 3687 003e 6d5e 303d
00000230: a4b6 c63d df89 21bc 59f5 46bd 9481 9b3d
00000240: 3674 033c 7ab7 b03d 3e03 673e 15c9 383e
00000250: 706c 5bbe a277 36bd d3c0 71bd e561 473e
00000260: 0fa4 173e 238d 2d3e 3195 6bbd 09ec 663d
00000270: b8ac 0fbe 086c 14bc 1a60 f53d c996 0f3e
00000280: 2435 0fbe d27b f7bd d603 e8bd a52f 1c3e
00000290: 873a 08be 59c8 d63c ffef c63d f369 9c3d
000002a0: 3b20 febd 1301 ad3d 90a7 1a3e 711f b4bd
000002b0: 5a36 cebd 12e8 fc3b 33f6 043d 8126 cc3d
000002c0: c391 ac3d 9b63 d7bd 43d6 cd3b 39e4 ad3d
000002d0: 28f3 a63d 5318 223e 528f 4e3d 40da e83d
000002e0: 7121 fb3d bd31 013c 8bef 87bd c657 353d
000002f0: fc92 0fbd 2a76 a5bd f0d8 49be 7841 cf3d
00000300: a483 fc3d fc92 023d 20a8 26be 911c 9cbc
00000310: 7a06 87bc 061a 43be 3119 3d3e 909c cd3c
00000320: 4d27 a53d 31ee 84bc 0742 86bc 683c 96ba
00000330: bc1b c0bb f87f 45be 3b49 013d 8e97 7fbd
00000340: 7e18 d53d da41 3bbe 2915 77bd 2235 30bd
00000350: 0af9 ddbd 0b83 07be 849c 2bbd 0cf0 b3bd
00000360: f5ba b93c 929d 3cbd 127f 12be 779c a73d
00000370: 15d4 c93d f7bf 9f3d 57ca 003c 0465 eebd
00000380: 0bc9 53bd 6947 c43d 6df4 d93b 0986 f73d
00000390: 772b 903d 483a 35bd 7f23 2b3d 2f8e abbe
000003a0: 208a 64bb 1881 a83d a9a1 1dbd 0eff 51be
000003b0: 7455 6f3e 4e66 f73d b985 a63d 7a7d 8f3d
000003c0: 2fe9 263e 4e7e a63d 6618 a8bd ae19 e33d
000003d0: 7651 9dbd 89a1 3abc 6308 e4bd f2c3 acbb
000003e0: c346 7fbd d52a dbbd b39e a7bc e985 1abe
000003f0: e732 2bbe 003d eb3d 246c 64bd 2ecc 683d

conv1.0.bias f4 [12]
0.08587188 -0.07298138 0.078488566 0.14797336 -0.110383056 -0.1733251 0.16058557 0.049944438
0.0341951 0.07835069 -0.10246249 0.010637064
00000000: 99dd af3d 4377 95bd 9dbe a03d 5486 173e
00000010: 8310 e2bd 237c 31be 8b70 243e 8a92 4c3d
00000020: 2910 0c3d 5476 a03d dbd7 d1bd 1547 2e3c

conv1.1.weight f4 [12]
0.93832713 1.0395553 1.0101613 1.0272537 1.0065703 0.96129584 0.9762503 0.98443264
0.97458655 1.0059 1.040921 1.0151824
00000000: 3536 703f 2610 853f f74c 813f 0d7d 833f
00000010: 4cd7 803f 7c17 763f 8aeb 793f c703 7c3f
00000020: 817e 793f 55c1 803f e63c 853f 7ff1 813f

conv1.1.bias f4 [12]
-0.0012087794 0.018562514 -0.009612892 -0.025870696 -0.041295923 0.036562033 -0.06726621 0.003194309
0.0076483064 0.0034427422 -0.050627436 -0.022401422
00000000: e86f 9eba 6a10 983c 647f 1dbc c8ee d3bc
00000010: ea25 29bd 12c2 153d dec2 89bd 9d57 513b
00000020: a59e fa3b a19f 613b b75e 4fbd 3083 b7bc

conv1.1.running_mean f4 [12]
0.29521218 -0.55487376 0.15311137 -0.63476706 -0.68356997 0.56994027 0.61391675 -0.82275337
0.33645067 -0.070169784 -0.016722035 -0.24308822
00000000: 0d26 973e 350c 0ebf 3ac9 1c3e 1880 22bf
00000010: 71fe 2ebf 9be7 113f a629 1d3f f79f 52bf
00000020: 4343 ac3e 2db5 8fbd a6fc 88bc 1eec 78be

conv1.1.running_var f4 [12]
5.104768 7.6337957 5.5118656 7.524288 5.5128307 9.129195 8.892574 4.862256
6.441612 4.3362722 3.5408437 2.4779685
00000000: 425a a340 0e48 f440 3461 b040 f8c6 f040
00000010: 1c69 b040 2f11 1241 fc47 0e41 9a97 9b40
00000020: af21 ce40 bec2 8a40 2f9d 6240 0997 1e40

conv1.3.weight f4 [12, 12, 2]
0.18189773 0.11738836 -0.15386516 -0.10980364 0.08887455 0.10292621 0.032259814 -0.0969157
-0.03410609 0.05644876 0.050741855 -0.14248234 -0.029241854 0.051894706 -0.12381988 -0.07069924
-0.137081 -0.16684239 0.09866755 0.14167996 -0.046175003 0.19085541 0.12916574 -0.12314632
-0.05959177 -0.18041748 -0.09173473 -0.07873715 0.1036203 0.030997027 0.11946625 -0.037594717
0.042836502 0.035842247 0.19390695 -0.19239977 -0.16875304 -0.20754018 0.0012158446 0.12977655
0.16321118 0.11769637 0.060667504 0.07230726 -0.17062399 -0.0013840215 -0.12824601 -0.12237762
0.12174841 -0.016500374 0.11533137 0.14672743 -0.16927291 -0.020984596 0.1322401 0.10195411
-0.12647943 -0.046489324 0.18775189 -0.10539234 0.044050597 0.19287586 0.15698352 0.09827666
0.1762817 -0.17212914 0.10603174 0.24714512 0.10762428 0.060704205 0.19839498 -0.014369277
-0.01682967 0.03284364 0.18371372 0.086086765 0.070308514 0.16213232 0.15241496 0.027366519
0.015174316 0.034868687 -0.17141497 0.045106076 -0.08662722 -0.07777778 -0.173541 0.11656417
0.029623317 0.12604727 -0.0008273556 0.105483614 0.14707851 -0.11896379 0.15552199 -0.22203484
0.057206843 -0.052576836 -0.054032728 0.17588754 -0.024434099 0.08036143 -0.013963987 0.17370622
0.20489 -0.03723449 -0.1680065 0.10319597 0.10481138 0.008424006 0.16254783 -0.057994645
0.070018046 -0.017420016 0.05809046 -0.14616056 -0.19233209 -0.04461702 0.15253928 0.12355107
-0.17293817 -0.02819476 -0.13118732 -0.037027933 -0.20343359 -0.1817451 0.011826683 -0.18127726
0.13167298 -0.04174455 0.1108176 -0.110929 0.13264282 0.022675514 -0.21423906 0.17062579
0.05382077 -0.0070056734 -0.048296507 0.108485974 0.08644347 -0.02019578 0.051714964 0.06119325
-0.1481016 -0.011258213 0.060098257 0.1390014 0.058350854 0.13696857 0.043824106 0.1634975
0.043987557 0.13689528 8.7186665e-05 0.109858505 -0.051534723 0.028209515 -0.023826292 -0.11899783
0.17410378 -0.049094927 0.009920795 0.12771125 -0.00090634514 0.23820096 -0.0085549 -0.11338439
0.099081665 0.20643936 -0.023275223 0.17682618 -0.04794113 -0.04225222 -0.14561518 -0.027770698
0.07244466 -0.03809297 0.12548721 -0.07503584 -0.053661972 -0.06943398 0.068396516 0.10237206
0.123398714 -0.12259073 0.1375333 -0.14669022 0.21866742 -0.12299959 -0.026090233 0.08704561
0.19607076 0.12099453 -0.115397386 -0.0055222833 -0.122591965 -0.053314064 -0.04162324 -0.097983666
-0.08080586 -0.18584661 0.117867395 0.17052476 -0.13831897 0.079415895 0.14567173 -0.24365391
-0.04822903 -0.12991592 -0.027182836 -0.1596824 0.11216285 0.07161054 0.17414321 0.15350273
-0.0923356 0.11107845 0.0742325 -0.03190602 -0.13975497 0.09926295 0.1417285 -0.013869905
0.00914846 -0.20955081 -0.17812191 0.12397958 -0.110464014 0.13656364 -0.010925069 -0.12319582
0.1808916 0.07701307 -0.07886728 0.10824094 0.11170149 0.038486496 0.13539422 -0.21144275
-0.03733863 0.16865791 0.17981675 -0.1992169 -0.12134758 -0.1611065 -0.000579779 0.2274653
0.046254076 0.10641879 -0.023976943 0.11791766 0.17921 -0.11454677 0.054958306 0.012458431
00000000: 6643 3a3e 4f69 f03d d48e 1dbe bbe0 e0bd
00000010: dc03 b63d faca d23d de22 043d bd7b c6bd
00000020: d4b2 0bbd d136 673d b1d6 4f3d e4e6 11be
00000030: 9d8c efbc 8b8f 543d 4795 fdbd c3ca 90bd
00000040: f65e 0cbe bbd8 2abe 3612 ca3d 8d14 113e
00000050: 0022 3dbd 9a6f 433e 0644 043e 2334 fcbd
00000060: 8016 74bd 5cbf 38be 6bdf bbbd f140 a1bd
00000070: e136 d43d 7aed fd3c b9aa f43d ebfc 19bd
00000080: 5475 2f3d 52cf 123d 8b8f 463e 7204 45be
00000090: 99cd 2cbe 6a85 54be fa5c 9f3a 25e4 043e
000000a0: d520 273e cb0a f13d 7d7e 783d d415 943d
000000b0: 0eb8 2ebe 0e68 b5ba ec52 03be 1ea1 fabd
000000c0: 3b57 f93d cb2b 87bc da32 ec3d b73f 163e
000000d0: e155 2dbe e3e7 abbc f369 073e 51cd d03d
000000e0: d383 01be 976b 3ebd 0842 403e f0d7 d7bd
000000f0: 666e 343d 4081 453e 4ac0 203e 4645 c93d
00000100: 3183 343e 9f42 30be 2b27 d93d 9c13 7d3e
00000110: 1e6a dc3d f9a4 783d 0e28 4b3e 1e6d 6bbc
00000120: 60de 89bc 0d87 063d 731f 3c3e 424e b03d
00000130: e9fd 8f3d 0406 263e ab12 1c3e c02f e03c
00000140: b29d 783c 78d2 0e3d 6887 2fbe 26c1 383d
00000150: 9d69 b1bd f549 9fbd bbb4 31be 32b9 ee3d
00000160: 99ac f23c 8912 013e e5e2 58ba cb07 d83d
00000170: c09b 163e 4aa3 f3bd 2841 1f3e 1a5d 63be
00000180: b951 6a3d cf5a 57bd 6c51 5dbd dd1b 343e
00000190: 052a c8bc 8994 a43d 35c9 64bc 0be0 313e
000001a0: afce 513e 3183 18bd e509 2cbe 6958 d33d
000001b0: 59a7 d63d d804 0a3c f072 263e cb8b 6dbd
000001c0: 9f65 8f3d 6cb4 8ebc 43f0 6d3d 1dab 15be
000001d0: b4f2 44be 56c0 36bd 4233 1c3e 5808 fd3d
000001e0: b416 31be b3f8 e6bc f855 06be 9aaa 17bd
000001f0: e550 50be 631b 3abe b4c4 413c bfa0 39be
00000200: 48d5 063e 55fc 2abd 56f4 e23d be2e e3bd
00000210: 85d3 073e 00c2 b93c 7c61 5bbe 87b8 2e3e
00000220: 2b73 5c3d d98f e5bb 8fd2 45bd e52d de3d
00000230: 4609 b13d 9f71 a5bc 12d3 533d c6a5 7a3d
00000240: f2a7 17be 5e74 38bc 9729 763d 6256 0e3e
00000250: 4e01 6f3d 7d41 0c3e e880 333d e36b 273e
00000260: 4c2c 343d 472e 0c3e fcd7 b638 7ffd e03d
00000270: 1316 53bd a417 e73c 5b2f c3bc 22b5 f3bd
00000280: 4348 323e c317 49bd d58a 223c bdc6 023e
00000290: cb97 6dba f4ea 733e da29 0cbc 1336 e8bd
000002a0: 54eb ca3d d764 533e aeab bebc ec11 353e
000002b0: eb5d 44bd aa10 2dbd 251c 15be 607f e3bc
000002c0: de5d 943d 6007 1cbd b87f 003e 64ac 99bd
000002d0: a8cc 5bbd 6733 8ebd 7913 8c3d 71a8 d13d
000002e0: 77b8 fc3d d910 fbbd 88d5 0c3e f635 16be
000002f0: 5aea 5f3e 36e7 fbbd 2fbb d5bc f844 b23d
00000300: c6c6 483e fbcb f73d 7755 ecbd 45f4 b4bb
00000310: 7f11 fbbd d95f 5abd 217d 2abd a9ab c8bd
00000320: 8b7d a5bd 934e 3ebe 7664 f13d 0b9e 2e3e
00000330: 7da3 0dbe cda4 a23d f82a 153e 6980 79be
00000340: ce8b 45bd ae08 05be 8aae debc c883 23be
00000350: a3b5 e53d 8ca8 923d 9952 323e d22f 1d3e
00000360: 721a bdbd 197d e33d 3507 983d e3af 02bd
00000370: ed1b 0fbe 604a cb3d 4721 113e 993e 63bc
00000380: 6ce3 153c 7d94 56be 9765 36be 02e9 fd3d
00000390: f53a e2bd 57d7 0b3e 10ff 32bc 174e fcbd
000003a0: a63b 393e 07b9 9d3d 2b85 a1bd 6dad dd3d
000003b0: c0c3 e43d 04a4 1d3d c8a4 0a3e 7384 58be
000003c0: 64f0 18bd a9b4 2c3e e221 383e 84ff 4bbe
000003d0: 1485 f8bd 1af9 24be 4ffc 17ba aaec 683e
000003e0: ea74 3d3d 18f2 d93d 4b6b c4bc d07e f13d
000003f0: d482 373e 7f97 eabd f61b 613d 721e 4c3c

conv1.3.bias f4 [12]
-0.0500436 -0.023777187 -0.19442728 0.15892656 0.035727553 0.049376883 0.08978469 -0.05319794
-0.030603757 0.13219392 0.19602075 -0.20014255
00000000: 85fa 4cbd 60c8 c2bc f217 47be a5bd 223e
00000010: 0e57 123d 6a3f 4a3d 09e1 b73d 15e6 59bd
00000020: bbb4 fabc d85d 073e aab9 483e 2bf2 4cbe

conv1.4.weight f4 [12]
1.0146519 1.0130372 1.0061795 1.0064847 1.0136302 1.0064132 1.0093246 1.0149586
0.9954937 1.0048883 1.0174828 0.906135
00000000: 1de0 813f 34ab 813f 7dca 803f 7ed4 803f
00000010: a2be 813f 26d2 803f 8c31 813f 2aea 813f
00000020: add8 7e3f 2ea0 803f e03c 823f 77f8 673f

conv1.4.bias f4 [12]
0.0009401708 0.00086983124 0.00081220624 -0.0010470686 -0.0010723644 0.0012903177 0.00014834669 0.0011987614
-0.006001733 -0.0035294925 0.0012521612 -0.12181531
00000000: cb75 763a 6305 643a 3dea 543a cb3d 89ba
00000010: 948e 8cba e11f a93a 838d 1b39 c21f 9d3a
00000020: 2faa c4bb 0f4f 67bb 8f1f a43a 4e7a f9bd

conv1.4.running_mean f4 [12]
-0.105035804 -0.1340605 0.3279564 0.37813064 0.29219756 -0.102007136 0.40730873 0.10760923
-0.08655591 0.15655397 0.40013814 -0.6604947
00000000: 031d d7bd 2847 09be e7e9 a73e 579a c13e
00000010: eb9a 953e 1ee9 d0bd c58a d03e 3a62 dc3d
00000020: 3a44 b1bd af4f 203e e8de cc3e 2e16 29bf

conv1.4.running_var f4 [12]
0.070741564 0.09651669 0.16997133 0.13010235 0.10245027 0.12587202 0.16556697 0.076770596
0.14153036 0.09019712 0.059703063 0.23881325
00000000: f4e0 903d 8baa c53d f70c 2e3e 8d39 053e
00000010: 72d1 d13d 98e4 003e 638a 293e e739 9d3d
00000020: 56ed 103e 45b9 b83d 338b 743d 768b 743e

conv2.0.weight f4 [12, 15, 3]
0.048381317 0.006099619 -0.0761632 -0.10436451 0.021567043 0.039960407 0.047015242 -0.09386238
-0.0036756494 0.07112287 0.081695795 0.04122301 -0.015326661 -0.10996164 -0.15782689 -0.017911095
-0.14224735 -0.012518152 0.053835534 -0.13125028 -0.0093360655 0.0772619 0.18234548 -0.09783649
-0.047490705 0.071443714 0.11592895 -0.08645881 0.03812167 -0.029631607 0.018526882 0.16784868
-0.04259183 0.07771268 0.19644102 0.062543474 0.054902606 -0.021885088 -0.018991549 0.03975878
0.03137094 0.15940975 0.10999089 -0.027163774 0.20555209 -0.09508921 -0.022551728 -0.10150071
0.04018439 0.021247694 0.09578989 0.024580056 -0.13291779 -0.098306976 -0.11747493 -0.07760844
-0.029570237 -0.050856188 -0.14311266 0.14931783 0.039498657 0.043181796 0.07956475 0.06812813
-0.09114758 0.04682858 -0.09730319 -0.13908981 -0.19407603 0.12509504 0.035637904 -0.08864306
-0.11516195 -0.05466615 0.06765028 0.09135286 -0.12045113 0.123490594 0.0075757257 0.17603192
-0.10241166 -0.0709581 0.10034869 0.011823091 -0.054726373 0.1136665 -0.1832147 0.01951229
0.08736764 0.018894829 0.017841414 0.14055644 -0.10768734 0.029546274 0.06928474 0.11136457
0.021212827 -0.05047262 0.13847843 0.028809853 0.1136845 0.062366143 -0.048825532 -0.042183653
0.009869035 -0.015979042 -0.080463976 -0.15708017 -0.07747341 -0.12737116 -0.06214456 0.10850665
-0.002816967 -0.027000822 0.009857573 -0.13786727 -0.13260406 -0.09847614 0.033998895 0.07251616
0.052387763 0.11573718 -0.020199593 -0.07020956 0.11983746 -0.028910356 0.025267571 -0.07159057
0.07535448 -0.16709541 0.06562514 -0.07097464 -0.13501962 -0.099260755 -0.04723017 0.15951303
0.036136646 0.036807872 0.00020053926 0.09026235 -0.025049219 -0.03878083 -0.03251105 -0.14389934
0.091904506 -0.022450544 -0.037210677 -0.00747272 -0.1665045 0.0024442547 0.08354943 0.01880543
-0.0068182508 -0.09964617 0.088011146 0.11437734 -0.040808044 -0.0730134 0.037671454 -0.07982984
0.007724278 0.06895693 -0.057710078 0.17189044 -0.029893523 0.10478346 0.086841635 -0.08738125
-0.019479763 0.07906752 0.04632086 0.12720665 0.09373884 0.14830577 -0.03269038 0.043924455
0.09855326 -0.054646812 -0.07315597 0.086027615 -0.0388292 -0.028574368 0.09699672 0.054198988
0.16173892 0.115245804 0.13308796 0.013881413 0.16667838 -0.02875446 0.15791814 -0.049491305
0.12549357 0.098013476 0.15191467 0.07794217 0.08783451 -0.009307148 0.11176387 0.0012998586
-0.044920098 -0.09140223 -0.027421286 -0.07239512 0.0066547603 0.0014289954 0.010104695 -0.045790285
0.03802327 0.04228439 0.17189002 0.14304632 0.048910584 -0.039170075 0.13361667 -0.077340804
-0.04651999 -0.050921187 0.21853453 0.043572403 -0.081579745 -0.103914596 -0.08130359 -0.03801839
0.083606444 -0.09042032 -0.043299634 0.11745556 -0.074776314 0.084688224 0.050611135 -0.035060316
0.099748164 -0.13664702 -0.06005607 0.16636132 0.10668844 0.09685584 -0.0070108366 -0.058228534
-0.08835858 -0.12887049 -0.056164835 0.14389814 0.08946503 -0.027589506 -0.14868017 0.14284274
0.13050444 -0.01059074 0.20221691 0.037919708 0.0678039 -0.12518944 -0.16860561 0.00034201544
00000000: 7d2b 463d 50df c73b 74fb 9bbd 0fbd d5bd
00000010: 5ead b03c 86ad 233d 0e93 403d eb3a c0bd
00000020: 2ae3 70bb dea8 913d 2050 a73d 75d9 283d
00000030: ad1c 7bbc 9133 e1bd 5f9d 21be 4aba 92bc
00000040: 4aa9 11be ef18 4dbc a682 5c3d 7966 06be
00000050: 4cf6 18bc 7d3b 9e3d c6b8 3a3e 7f5e c8bd
00000060: 9d85 42bd 1551 923d 286c ed3d 5111 b1bd
00000070: 7825 1c3d fcbd f2bc b0c5 973c 86e0 2b3e
00000080: c574 2ebd d327 9f3d d627 493e cb16 803d
00000090: 8ee1 603d 5b48 b3bc 2a94 9bbc 1ada 223d
000000a0: d17e 003d 4f3c 233e e742 e13d 9086 debc
000000b0: 3f7c 523e 22be c2bd 67be b8bc 9bdf cfbd
000000c0: 6398 243d a50f ae3c 7d2d c43d 1d5c c93c
000000d0: 9a1b 08be 2b55 c9bd b296 f0bd 2cf1 9ebd
000000e0: 483d f2bc 944e 50bd 208c 12be c6e6 183e
000000f0: 58c9 213d 65df 303d d8f2 a23d c386 8b3d
00000100: 95ab babd 53cf 3f3d e546 c7bd 8f6d 0ebe
00000110: debb 46be ea18 003e 0df9 113d 7e8a b5bd
00000120: 07da ebbd 9de9 5fbd 3b8c 8a3d 3517 bb3d
00000130: 15af f6bd a3e8 fc3d cb3d f83b b641 343e
00000140: 34bd d1bd 7b52 91bd 9d83 cd3d a3b5 413c
00000150: c328 60bd fbc9 e83d a29c 3bbe 3dd8 9f3c
00000160: ceed b23d 54c9 9a3c 2828 923c 07ee 0f3e
00000170: 2e8b dcbd 070b f23c 28e5 8d3d 1c13 e43d
00000180: 86c6 ad3c 61bc 4ebd 4acd 0d3e a402 ec3c
00000190: 6bd3 e83d a473 7f3d 48fd 47bd c4c8 2cbd
000001a0: bcb1 213c 7be6 82bc 4cca a4bd a0d9 20be
000001b0: 61aa 9ebd 966d 02be 4b8b 7ebd bc38 de3d
000001c0: dd9c 38bb d430 ddbc a881 213c 142d 0dbe
000001d0: 5cc9 07be dcad c9bd 6d42 0b3d 5a83 943d
000001e0: 8d94 563d 9d07 ed3d 9e79 a5bc 08ca 8fbd
000001f0: 586d f53d 69d5 ecbc f0fd ce3c 149e 92bd
00000200: 7353 9a3d 0f1b 2bbe 7966 863d 275b 91bd
00000210: 9542 0abe 3949 cbbd 6c74 41bd 6257 233e
00000220: 0504 143d dac3 163d d947 5239 78db b83d
00000230: 0534 cdbc a6d8 1ebd 4f2a 05bd 595a 13be
00000240: 6e38 bc3d 34ea b7bc 396a 18bd b8dd f4bb
00000250: 2880 2abe ca2f 203b f71b ab3d d80d 9a3c
00000260: a26b dfbb 4b13 ccbd 303f b43d ab3e ea3d
00000270: 5626 27bd 0d88 95bd 624d 1a3d d47d a3bd
00000280: f11b fd3b 4a39 8d3d 6761 6cbd 0c04 303e
00000290: 43e3 f4bc b698 d63d 07da b13d f1f4 b2bd
000002a0: 0694 9fbc 27ee a13d f1ba 3d3d 7642 023e
000002b0: 26fa bf3d 78dd 173e 59e6 05bd 21ea 333d
000002c0: 4bd6 c93d 56d5 5fbd ccd2 95bd 3f2f b03d
000002d0: 5e0b 1fbd cb14 eabc 37a6 c63d c2ff 5d3d
000002e0: e39e 253e fe05 ec3d 3648 083e de6e 633c
000002f0: bdad 2a3e 798e ebbc 4bb5 213e 65b7 4abd
00000300: 6381 003e 4abb c83d 858f 1b3e 25a0 9f3d
00000310: 94e2 b33d 027d 18bc 75e4 e43d 0460 aa3a
00000320: 23fe 37bd 1831 bbbd 9ba2 e0bc e543 94bd
00000330: 2d10 da3b 214d bb3a 2a8e 253c 988e 3bbd
00000340: 4abe 1b3d 6632 2d3d f003 303e bc7a 123e
00000350: 7756 483d cd70 20bd cfd2 083e db64 9ebd
00000360: bf8b 3ebd bc92 50bd 84c7 5f3e fa78 323d
00000370: 4813 a7bd 2dd1 d4bd 7f82 a6bd 2cb9 1bbd
00000380: db39 ab3d 4a2e b9bd f55a 31bd 8a8c f03d
00000390: 5324 99bd 0571 ad3d 9f4d 4f3d 689b 0fbd
000003a0: c448 cc3d 32ed 0bbe 5bfd 75bd 9f5a 2a3e
000003b0: 787f da3d 5b5c c63d 29bb e5bb 0b81 6ebd
000003c0: 58f5 b4bd a0f6 03be 190d 66bd 095a 133e
000003d0: 7139 b73d 6303 e2bc 9d3f 18be 5e45 123e
000003e0: f5a2 053e c884 2dbc f311 4f3e b251 1b3d
000003f0: c5dc 8a3d a931 00be f3a6 2cbe 8950 b339

conv2.0.bias f4 [12]
0.086705916 -0.08772932 0.12852432 -0.02630908 -0.09554534 0.012746987 -0.13403618 -0.10010599
0.1237821 0.13956264 0.03794071 0.024139745
00000000: df92 b13d 6eab b3bd e19b 033e 2486 d7bc
00000010: 46ad c3bd bdd8 503c c840 09be 5f04 cdbd
00000020: 7881 fd3d 82e9 0e3e b867 1b3d b7c0 c53c

conv2.1.weight f4 [12]
1.0392798 1.0444626 0.9910452 0.9573478 1.011527 0.9721361 0.95413405 1.0008433
1.0338546 1.0100621 0.975035 1.0163445
00000000: 1f07 853f f3b0 853f 23b5 7d3f bf14 753f
00000010: b779 813f e9dd 783f 2142 743f a21b 803f
00000020: 5955 843f b749 813f e59b 793f 9417 823f

conv2.1.bias f4 [12]
0.013849173 -0.03419084 0.004358471 0.030540412 -0.023782285 -0.05309916 -0.033364244 -0.04517394
0.010787568 0.012251739 -0.15499717 -0.069990404
00000000: a4e7 623c b20b 0cbd 81d1 8e3b e32f fa3c
00000010: 11d3 c2bc 817e 59bd f2a8 08bd 4f08 39bd
00000020: 57be 303c 85bb 483c 94b7 1ebe 2157 8fbd

conv2.1.running_mean f4 [12]
0.30542332 -0.55025226 0.76824486 0.6034153 0.54900444 0.41499177 0.2515361 -0.52981645
-0.1747226 -0.2936425 0.97561496 0.14668718
00000000: 7260 9c3e 55dd 0cbf b2ab 443f 6d79 1a3f
00000010: 8e8b 0c3f cd79 d43e 57c9 803e 0da2 07bf
00000020: 7bea 32be 4f58 96be e7c1 793f 2a35 163e

conv2.1.running_var f4 [12]
4.5709796 5.7154126 6.82666 5.237268 8.131741 9.412873 7.48436 6.044508
4.8172097 6.446663 6.8855004 5.23924
00000000: 7745 9240 a9e4 b640 0074 da40 b397 a740
00000010: 9c1b 0241 219b 1641 e17f ef40 9c6c c140
00000020: 9526 9a40 104b ce40 0556 dc40 dba7 a740

conv2.3.weight f4 [12, 12, 3]
0.14362349 -0.0034485722 -0.057263713 -0.028163033 0.04036729 -0.14943373 -0.025096115 -0.1070118
0.12382548 -0.059267577 -0.034090716 -0.1177891 0.0862923 -0.041249048 0.1581495 -0.027693018
-0.06449346 -0.04727982 0.08284722 -0.1428186 0.03073414 0.007191813 -0.2245159 0.13530158
0.033023424 -0.011716099 0.096683644 0.050135385 -0.054946344 0.11678028 -0.007155056 0.12106116
0.18399122 0.107776806 -0.14472757 -0.08803253 0.041139416 -0.12689652 -0.0352728 -0.12372599
0.07711373 -0.0016097391 -0.1033328 0.031580433 0.039552584 0.05725973 -0.014275787 -0.08309058
0.01996688 0.13560677 0.09979969 0.027444324 -0.07336615 -0.11752765 -0.054992586 -0.10059726
0.07765958 0.078671865 0.12924412 0.0607537 0.04553466 -0.09929354 -0.08954614 0.050513156
0.070366934 0.01640611 0.026148098 -0.059789483 0.03774415 -0.09635644 -0.09561597 0.14683266
-0.072510995 0.12123217 -0.051042527 0.18583538 0.054070137 -0.07207571 0.04404365 -0.11755387
0.107201725 -0.025624637 -0.079741836 -0.13199186 0.0714327 0.16221054 -0.065848745 0.058155913
-0.009622072 -0.0704096 -0.07050258 -0.013285282 -0.008525519 -0.003907962 0.0329165 -0.10665888
0.12109219 0.1663513 0.03623468 0.030905364 -0.036170475 0.1952711 -0.09199866 -0.11437054
0.09188651 0.011639225 -0.07035293 -0.060605057 0.011815527 0.08573745 0.09872523 0.11163251
0.018496523 -0.119342744 0.061835874 -0.04064325 -0.10872956 -0.136679 0.086645976 -0.026880285
0.10939407 -0.12329671 0.12732072 -0.091733135 0.09803379 0.05630945 -0.11435902 0.050562173
-0.046439804 -0.07052117 0.00085949106 0.063129276 -0.049311228 0.045402158 -0.028358249 0.12799041
0.034828443 -0.120964706 -0.08311691 0.04810557 -0.15687303 -0.13729405 0.05039401 -0.00022486025
0.0024924197 -0.0029996033 0.16419768 -0.068909235 -0.12647988 -0.0802146 -0.084857695 -0.024343837
0.07275993 0.10108948 0.04622106 0.13682525 -0.1004873 -0.0024138752 0.06285148 0.04578041
0.15577114 -0.1368593 -0.14130816 -0.14595653 -0.11026445 0.13828498 0.10758503 0.029975507
-0.14810345 0.11555438 -0.20230094 0.10450111 0.1484529 -0.12489769 0.018381348 -0.0050949273
0.0929046 0.0435491 0.1558673 0.029834863 0.15274899 0.091170795 0.034774736 -0.012075487
0.08515539 -0.27001718 0.1311928 0.103996865 0.07302315 -0.080886394 -0.089500785 -0.00014717688
0.050074056 0.078232765 -0.02935338 0.078404434 0.1566745 -0.114038385 -0.16716048 0.059745938
-0.034275465 -0.007865207 -0.06142363 0.036533616 0.027408535 -0.087498076 0.087905735 -0.12088371
0.138421 0.12511115 0.09212652 -0.12140142 0.16477777 0.049519476 0.14295532 0.17398229
0.13517042 0.17363508 0.06561727 -0.06442177 0.07136838 -0.098791786 0.10915305 -0.07426976
-0.14182854 0.098926626 -0.13894098 -0.10557812 -0.06409745 0.11014368 -0.06888126 0.02244736
-0.10126702 0.09495092 -0.05679587 0.00437834 -0.031032464 0.13270892 -0.023125164 -0.10708722
-0.18863894 -0.12541261 -0.0011923285 -0.04819272 -0.07538638 -0.13788097 0.050670743 0.008840593
-0.008322182 0.045229163 -0.09877475 -0.07144865 -0.10903829 0.06138989 -0.1076943 0.10756816
00000000: 0912 133e 7101 62bb 5b8d 6abd 29b6 e6bc
00000010: 2c58 253d 2805 19be 5e96 cdbc 0129 dbbd
00000020: 3798 fd3d 8fc2 72bd b5a2 0bbd 693b f1bd
00000030: 04ba b03d c3f4 28bd f1f1 213e 78dc e2bc
00000040: 2615 84bd 7ca8 41bd ceab a93d 0a3f 12be
00000050: 2ac6 fb3c 4da9 eb3b 7fe7 65be 7f8c 0a3e
00000060: 9243 073d e2f4 3fbc 1302 c63d c35a 4d3d
00000070: 6b0f 61bd 802a ef3d f674 eabb eaee f73d
00000080: 3268 3c3e 16ba dc3d 7733 14be 664a b4bd
00000090: ce81 283d 29f1 01be 367a 10bd 0d64 fdbd
000000a0: ceed 9d3d e2fd d2ba 26a0 d3bd 7c5a 013d
000000b0: e401 223d 2e89 6a3d fee4 69bc 652b aabd
000000c0: 9591 a33c 80dc 0a3e c863 cc3d ebd2 e03c
000000d0: fe40 96bd 56b2 f0bd e83f 61bd f005 cebd
000000e0: fc0b 9f3d b71e a13d 9258 043e dfd8 783d
000000f0: 8d82 3a3d 695a cbbd f763 b7bd e2e6 4e3d
00000100: 8a1c 903d 1b66 863c 8934 d63c d1e5 74bd
00000110: 9c99 1a3d 8656 c5bd 4ed2 c3bd 4d5b 163e
00000120: a580 94bd 9248 f83d f811 51bd a14b 3e3e
00000130: a678 5d3d 6e9c 93bd 1d67 343d 15c0 f0bd
00000140: 948c db3d c2ea d1bc b04f a3bd e028 07be
00000150: 4f4b 923d 851a 263e b5db 86bd e534 6e3d
00000160: e5a5 1dbc e932 90bd a863 90bd 83aa 59bc
00000170: 9eae 0bbc 5c0e 80bb 74d3 063d f96f dabd
00000180: 2fff f73d ff57 2a3e d16a 143d 3f2d fd3c
00000190: 7e27 14bd 26f5 473e cb69 bcbd 1a3b eabd
000001a0: ff2e bc3d 73b2 3e3c 3215 90bd 023d 78bd
000001b0: ea95 413c 1e97 af3d 7430 ca3d 969f e43d
000001c0: 0586 973c f869 f4bd 9d47 7d3d 8979 26bd
000001d0: 9bad debd 94f5 0bbe 7273 b13d 0b34 dcbc
000001e0: 000a e03d fc82 fcbd 5d60 023e 95de bbbd
000001f0: f1c5 c83d bda4 663d 1035 eabd 481a 4f3d
00000200: aa37 3ebd 676d 90bd 784f 613a ec49 813d
00000210: 92fa 49bd 9df7 393d 8f4f e8bc eb0f 033e
00000220: 45a8 0e3d 58bc f7bd 3339 aabd 590a 453d
00000230: 53a3 20be d096 0cbe f369 4e3d 77c8 6bb9
00000240: dd57 233b fe94 44bb 7023 283e 4920 8dbd
00000250: f183 01be 8d47 a4bd dfc9 adbd ba6c c7bc
00000260: 2803 953d 0008 cf3d 4b52 3d3d eb1b 0c3e
00000270: 49cc cdbd 1b32 1ebb 47b8 803d 3d84 3b3d
00000280: 7882 1f3e d824 0cbe 16b3 10be a175 15be
00000290: 54d2 e1bd 949a 0d3e 8a55 dc3d 328f f53c
000002a0: 6ea8 17be c6a7 ec3d fa27 4fbe ae04 d63d
000002b0: 0904 183e 5cca ffbd 7b94 963c 59f3 a6bb
000002c0: c444 be3d 8b60 323d ad9b 1f3e 3e68 f43c
000002d0: 3b6a 1c3e c1b7 ba3d f46f 0e3d 43d8 45bc
000002e0: f365 ae3d b13f 8abe 6857 063e 4ffc d43d
000002f0: 298d 953d c4a7 a5bd 304c b7bd 7e53 1ab9
00000300: 741a 4d3d 8038 a03d 8076 f0bc 8192 a03d
00000310: 486f 203e f58c e9bd 1e2c 2bbe 28b8 743d
00000320: 6e64 0cbd 12dd 00bc 5897 7bbd 46a4 153d
00000330: dd87 e03c 3132 b3bd ec07 b43d e191 f7bd
00000340: 3cbe 0d3e 231d 003e d4ac bc3d 4fa1 f8bd
00000350: 81bb 283e efd4 4a3d e162 123e 6a28 323e
00000360: 1d6a 0a3e 65cd 313e 5962 863d 90ef 83bd
00000370: 9629 923d 5953 cabd a28b df3d be1a 98bd
00000380: 803b 11be 0b9a ca3d 8b46 0ebe 5739 d8bd
00000390: 8645 83bd 0293 e13d 9e11 8dbd 87e3 b73c
000003a0: 1565 cfbd a175 c23d c9a2 68bd 2e78 8f3b
000003b0: cb37 febc d9e4 073e fc70 bdbc 8b50 dbbd
000003c0: 912a 41be 2a6c 00be e847 9cba bb65 45bd
000003d0: 2d64 9abd ab30 0dbe 208c 4f3d 22d8 103c
000003e0: c359 08bc 3742 393d 6b4a cabd ab53 92bd
000003f0: 784f dfbd f773 7b3d d48e dcbd b24c dc3d

conv2.3.bias f4 [12]
-0.13219194 -0.0020694945 -0.08390113 -0.01432929 -0.044549573 0.05650609 -0.09923962 -0.14858651
-0.02331161 -0.014867906 -0.015127115 -0.04286297
00000000: 535d 07be 5ba0 07bb 5bd4 abbd 66c5 6abc
00000010: 9d79 36bd ee72 673d 243e cbbd 1027 18be
00000020: fdf7 bebc 8598 73bc b8d7 77bc 1591 2fbd

conv2.4.weight f4 [12]
1.047468 1.0360804 1.0108529 1.0205709 1.020676 1.0097275 1.0145152 1.0275235
1.0136546 1.0388746 1.017518 1.0080421
00000000: 6e13 863f 489e 843f a163 813f 11a2 823f
00000010: 83a5 823f c03e 813f a2db 813f e485 833f
00000020: 6fbf 813f d8f9 843f 083e 823f 8607 813f

conv2.4.bias f4 [12]
0.0013560025 0.00077140046 -0.0026539573 0.0011415255 -0.0023067207 -0.002284159 -0.002546747 -0.0018263104
0.0010653454 0.00063121936 -0.02329626 -0.005746565
00000000: e5bb b13a cf37 4a3a 04ee 2dbb 3d9f 953a
00000010: 5a2c 17bb d4b1 15bb 53e7 26bb cf60 efba
00000020: 0fa3 8b3a 6a78 253a ccd7 bebc ae4d bcbb

conv2.4.running_mean f4 [12]
-0.112237155 -0.01831226 0.02799612 -0.083243266 0.061302546 0.38715053 -0.34385118 -0.1867384
-0.42021334 -0.04461815 0.057411525 -0.35919222
00000000: 98dc e5bd 9803 96bc 1e58 e53c 727b aabd
00000010: 6118 7b3d 9838 c63e 430d b0be 5a38 3fbe
00000020: 3426 d7be 85c1 36bd 5928 6b3d 0be8 b7be

conv2.4.running_var f4 [12]
0.07135745 0.05716872 0.10661791 0.06125487 0.14102477 0.22157815 0.08419563 0.061191842
0.31940883 0.06575946 0.0960273 0.17585717
00000000: db23 923d bf29 6a3d 7e5a da3d 63e6 7a3d
00000010: cc68 103e 62e5 623e c26e ac3d 4ca4 7a3d
00000020: 8e89 a33e e5ac 863d f6a9 c43d e713 343e

conv3.0.weight f4 [12, 15, 4]
-0.03966149 0.01645969 0.15558028 0.108656086 -0.097444795 -0.13175057 0.0035861994 -0.004538445
0.082794994 -0.0028767188 0.09892975 -0.096350096 0.0071436875 0.020381026 0.044348355 -0.064311445
0.034262955 -0.058798335 -0.04561965 0.06870883 0.15446693 -0.078166485 -0.14780524 0.013188359
-0.009832032 0.119735114 0.046698548 -0.020496473 -0.017801201 0.031059518 -0.08545362 0.13265602
-0.026766865 -0.038597055 -0.1259585 0.021326518 -0.00581676 -0.06572001 -0.0129970545 0.028337277
0.07716884 -0.026821714 0.024561446 -0.03860848 -0.12405297 0.0181746 0.08069478 0.041880686
-0.09704662 -0.030943764 -0.097725 0.017143011 -0.03939822 -0.0072022122 0.048817776 0.026464153
0.057956733 -0.028283799 0.097029924 -0.03584079 0.022903515 -0.12445784 0.10221621 0.0539862
-0.07699224 -0.0641519 -0.059919156 0.04830858 0.072896525 0.045703884 -0.047548637 -0.05985658
-0.08958343 -0.09281251 0.19656117 -0.047888275 -0.03806669 -0.11033448 0.0056078406 -0.06385696
-0.04743116 -0.009094958 -0.10743156 0.10862035 -0.071961775 -0.0004050867 0.08862531 0.003285726
0.06965146 -0.13678952 -0.08018831 -0.100875504 -0.11394426 0.108860545 -0.061229803 -0.031955626
-0.0789998 -0.053009804 -0.057820544 -0.011352275 -0.0058520995 0.01698226 -0.019536065 0.008614417
0.06583703 -0.003099826 0.06393894 -0.13177495 0.124147154 -0.091796435 -0.107050486 0.011457111
0.019281521 0.105266266 0.13508727 -0.0067100716 0.08052335 -0.033898085 -0.13257036 -0.1722081
-0.0058623534 0.0178715 0.01497922 -0.048979346 -0.09703758 -0.14673373 0.03902448 0.02315624
0.07639021 -0.03801762 0.01746722 -0.09142574 -0.03215745 -0.03971757 -0.026081769 0.097974524
-0.09697443 0.102730505 -0.12204482 -0.027255422 0.03143594 -0.05086903 0.10233697 -0.09337852
0.028684542 -0.03590948 -0.053243835 0.056868397 -0.06036397 0.11086986 0.02177358 -0.046092413
0.021087969 0.057698943 0.0150510175 0.0015774744 0.12973933 -0.052953858 -0.12504087 0.082534075
0.08551001 -0.04639604 -0.06325946 -0.01292114 -0.009229121 -0.06988718 -0.17432103 0.089141406
0.006732196 -0.03465663 0.050060913 -0.0033465272 0.04310038 0.058850266 -0.04251565 0.063650176
0.16560556 0.055351213 -0.14170222 0.06338602 -0.111192785 0.07546044 0.0025488313 -0.06263758
0.03997844 -0.116523586 0.020219855 0.024889078 -0.07314226 -0.106971 -0.09181685 -0.046764903
-0.012354073 0.00549011 0.002565064 0.04660501 -0.12267203 -0.06559149 0.13422106 0.15782581
0.07886715 -0.04916722 -0.029863143 -0.04420876 -0.0258515 0.113320164 0.01695528 -0.109092064
-0.11070235 -0.0073815933 -0.0678308 -0.09380459 0.10805357 0.14161003 0.06387424 0.06466541
0.14039126 -0.017513243 0.017347356 -0.015910998 -0.038348485 -0.023722189 -0.07730925 0.18476728
-0.07508173 -0.0007324572 0.023556026 -0.05489816 -0.00292286 0.14788733 -0.1332121 -0.008625905
0.037491985 -0.080625564 -0.021445602 -0.110003255 0.021200955 -0.0065289396 0.02641474 -0.034459688
-0.025464542 -0.025617335 -0.0020413827 0.00078789133 0.074165724 0.066468105 -0.048484087 0.14214332
0.016871799 -0.022991415 0.009097999 0.08010199 0.0032090144 -0.08239324 0.005846573 -0.08753718
00000000: 1674 22bd 79d6 863c 7050 1f3e 1587 de3d
00000010: 2391 c7bd 9fe9 06be 7106 6b3b 3cb7 94bb
00000020: 6c90 a93d 5587 3cbb ae9b ca3d 3353 c5bd
00000030: 9815 ea3b 1cf6 a63c 9fa6 353d b8b5 83bd
00000040: 5057 0c3d 86d6 70bd acdb 3abd 37b7 8c3d
00000050: 942c 1e3e c015 a0bd 425a 17be fd13 583c
00000060: 8816 21bc af37 f53d fa46 3f3d 38e8 a7bc
00000070: d3d3 91bc 8870 fe3c 4f02 afbd fbd6 073e
00000080: 2f46 dbbc f217 1ebd 44fb 00be f3b4 ae3c
00000090: 859a bebb 3698 86bd 99f1 54bc 9423 e83c
000000a0: b20a 9e3d 36b9 dbbc 1635 c93c ed23 1ebd
000000b0: 7c0f febd e6e2 943c 4e43 a53d 158b 2b3d
000000c0: 61c0 c6bd c77d fdbc 0b24 c8bd 806f 8c3c
000000d0: 0760 21bd 8900 ecbb 26f5 473d 5acb d83c
000000e0: 0a64 6d3d 6db3 e7bc a0b7 c63d cbcd 12bd
000000f0: 27a0 bb3c c1e3 febd bb56 d13d a220 5d3d
00000100: 1cae 9dbd 1262 83bd ca6d 75bd 38df 453d
00000110: c64a 953d ff33 3b3d 5cc2 42bd 2c2c 75bd
00000120: 8477 b7bd 7c14 bebd 5547 493e 7f26 44bd
00000130: d1eb 1bbd 0bf7 e1bd fac1 b73b 70c7 82bd
00000140: 2d47 42bd 0503 15bc 1405 dcbd 5974 de3d
00000150: b260 93bd d161 d4b9 3081 b53d 5655 573b
00000160: 6da5 8e3d 8d12 0cbe c539 a4bd d197 cebd
00000170: 9c5b e9bd 47f2 de3d 1acc 7abd e7e3 02bd
00000180: a6ca a1bd cf20 59bd 3cd5 6cbd e4fe 39bc
00000190: f8c2 bfbb 611e 8b3c 190a a0bc 7c23 0d3c
000001a0: 91d5 863d 7326 4bbb 6bf2 823d 03f0 06be
000001b0: dd40 fe3d c5ff bbbd 493d dbbd 9bb6 3b3c
000001c0: 48f4 9d3c d795 d73d 5154 0a3e 29e0 dbbb
000001d0: 6de9 a43d b8d8 0abd 86c0 07be 5257 30be
000001e0: fc18 c0bb 4167 923c 676b 753c 919e 48bd
000001f0: a4bb c6bd 5e41 16be 22d8 1f3d 28b2 bd3c
00000200: 7872 9c3d 5db8 1bbd 6a17 8f3c 6b3d bbbd
00000210: 88b7 03bd e4ae 22bd 6fa9 d5bc dea6 c83d
00000220: 889a c6bd 5f64 d23d a2f2 f9bd c346 dfbc
00000230: f9c2 003d 0b5c 50bd 0c96 d13d 3d3d bfbd
00000240: d8fb ea3c d215 13bd 3516 5abd d6ee 683d
00000250: 3640 77bd bd0f e33d 825e b23c 66cb 3cbd
00000260: adc0 ac3c ba55 6c3d 8b98 763c 42c3 ce3a
00000270: 63da 043e 25e6 58bd b70a 00be a007 a93d
00000280: df1f af3d c609 3ebd 2d8e 81bd 30b3 53bc
00000290: bd35 17bc 0321 8fbd 3681 32be c58f b63d
000002a0: c199 dc3b 1cf4 0dbd ac0c 4d3d 6951 5bbb
000002b0: 068a 303d fa0c 713d e424 2ebd 065b 823d
000002c0: 8194 293e f4b7 623d 631a 11be 88d0 813d
000002d0: 0bb9 e3bd 018b 9a3d 4b0a 273b 2248 80bd
000002e0: 6fc0 233d eba3 eebd 1ca4 a53c 2ee4 cb3c
000002f0: 9ccb 95bd 9d13 dbbd 790a bcbd 8e8c 3fbd
00000300: bd68 4abc 61e6 b33b a21a 283b e5e4 3e3d
00000310: 793b fbbd d554 86bd 3f71 093e 179d 213e
00000320: 1a85 a13d 9163 49bd 8da3 f4bc 3f14 35bd
00000330: 86c6 d3bc 6714 e83d cde5 8a3c a96b dfbd
00000340: eab7 e2bd 4be1 f1bb e0ea 8abd 9f1c c0bd
00000350: 314b dd3d 3802 113e 7fd0 823d 4c6f 843d
00000360: bac2 0f3e ef77 8fbc 0b1c 8e3c c857 82bc
00000370: 4d13 1dbd 0955 c2bc 5054 9ebd a233 3d3e
00000380: 73c4 99bd 5f02 40ba 91f8 c03c e5dc 60bd
00000390: 748d 3fbb c76f 173e c168 08be ab53 0dbc
000003a0: 3291 193d 041f a5bd b0ae afbc 6349 e1bd
000003b0: a0ad ad3c b7f0 d5bb ba63 d83c 9a25 0dbd
000003c0: 049b d0bc 72db d1bc b8c8 05bb 7e8a 4e3a
000003d0: 33e4 973d 6e20 883d 4097 46bd 058e 113e
000003e0: ba36 8a3c 7e58 bcbc c60f 153c 830c a43d
000003f0: 544e 523b c9bd a8bd 9c94 bf3b b146 b3bd

conv3.0.bias f4 [12]
-0.00036772553 -0.09292572 -0.035192326 0.053446442 -0.08499256 -0.07658664 -0.02625754 -0.07874158
0.10681702 0.02749081 0.021456305 -0.016225554
00000000: 49cb c0b9 d74f bebd d425 10bd a8ea 5a3d
00000010: 9410 aebd 75d9 9cbd 0d1a d7bc 4443 a1bd
00000020: e2c2 da3d 6834 e13c 22c5 af3c 74eb 84bc

conv3.1.weight f4 [12]
0.9660073 0.9668381 1.0221207 0.99778956 0.99513656 1.0390344 1.0489179 0.9558714
1.0128284 1.0519927 0.97899085 1.0008734
00000000: 414c 773f b482 773f dad4 823f 236f 7f3f
00000010: 45c1 7e3f 14ff 843f f142 863f fdb3 743f
00000020: 5ca4 813f b2a7 863f 259f 7a3f 9f1c 803f

conv3.1.bias f4 [12]
-0.06869642 -0.017061114 0.04856472 0.003892134 -0.02788278 -0.059655905 0.057235055 -0.012220781
-0.08488098 0.03171134 -0.015755497 0.026612796
00000000: b5b0 8cbd c0c3 8bbc cdeb 463d 2c13 7f3b
00000010: 6e6a e4bc c059 74bd 4e6f 6a3d ac39 48bc
00000020: 14d6 adbd c0e3 013d ac11 81bc 1403 da3c

conv3.1.running_mean f4 [12]
0.093854055 -0.1446623 -0.28521413 -0.38928908 0.14167017 -0.5709898 0.053466465 -0.75274235
-0.012446633 -0.34064624 0.3727674 -0.52273625
00000000: 8e36 c03d 5b22 14be 9607 92be e650 c7be
00000010: fc11 113e 632c 12bf a7ff 5a3d b9b3 40bf
00000020: f6ec 4bbc 2f69 aebe 5edb be3e 0bd2 05bf

conv3.1.running_var f4 [12]
7.916601 6.003831 4.60555 3.6371565 4.1939635 7.2241526 6.0935426 6.738998
3.4823453 5.8562355 5.1949816 3.8433628
00000000: cc54 fd40 621f c040 aa60 9340 2cc7 6840
00000010: f334 8640 422c e740 4dfe c240 dfa5 d740
00000020: bfde 5e40 4866 bb40 4a3d a640 a8f9 7540

conv3.3.weight f4 [12, 12, 4]
-0.009510166 0.15587738 -0.05020234 -0.09358553 -0.004889434 -0.12528689 -0.05700008 0.09493174
-0.16074415 0.14933893 0.026357047 -0.031056978 0.031754456 -0.031285316 -0.043960605 -0.07133121
-0.051890157 -0.13604428 -0.048029065 0.025439482 -0.006096808 -0.061476074 0.030165745 -0.018499022
-0.03496447 -0.103997864 0.0023972748 0.0027068972 -0.06515224 -0.13239697 0.069887474 -0.13173284
0.13060927 0.064778164 0.122349985 0.072533056 -0.11130168 0.042973418 0.17058943 -0.06268184
-0.0031551379 0.075939335 0.107987136 0.0085787 -0.10827974 -0.125854 0.07777928 -0.1251634
0.09602979 -0.08186023 0.0924507 -0.074576244 -0.002982199 0.048144132 -0.09877308 0.02811516
-0.016415792 -0.017142626 -0.06308917 -0.0861193 -0.12934908 -0.08071174 -0.06277132 -0.02884433
0.015430769 0.06588932 -0.09629603 -0.03967587 -0.044177867 0.032314572 0.10834764 0.19904736
-0.10370193 0.08390539 0.0089264205 -0.053446233 0.01665814 -0.0150059275 0.018592082 -0.09026757
0.10017663 0.018185686 -0.11627082 -0.07720719 -0.16224158 0.042492066 0.06257076 0.027670462
0.0443728 -0.08666991 0.11521078 -0.015072639 0.08291808 0.016684556 -0.04053921 -0.031424716
-0.033059426 -0.042909246 -0.04370584 0.03320225 0.12359281 0.04582745 0.1046634 -0.11659422
0.03755359 0.03722492 0.055998355 0.019501964 -0.0286812 0.10243685 -0.084422745 -0.14398734
0.023512362 -0.050237466 0.030920552 0.06717286 -0.030111918 -0.088567294 0.0726326 -0.04918691
-0.13321362 0.06783054 -0.105901256 -0.17076333 -0.07322612 -0.08041546 -0.062098294 -0.03070133
0.214721 0.08415592 0.017877875 0.054875936 -0.052171674 0.048853416 0.08233986 -0.034672834
0.08990494 -0.08567246 0.11156919 0.13243596 0.11913461 0.013552176 0.07958064 -0.04578938
0.005917205 -0.14673406 -0.02497299 -0.093333304 0.10539495 0.058165755 0.020319393 0.001819983
-0.06589243 -0.14915769 0.1747372 0.028976807 0.006909934 0.1042486 0.079531424 0.15385439
0.069799684 -0.1179858 -0.048869994 -0.05065983 -0.101013415 0.076231964 0.12722035 -0.010551349
-0.074372225 0.08584369 -0.045299206 -0.07792552 -0.158282 -0.04270464 -0.06266456 -0.10202061
-0.11613386 -0.09848052 -0.00086663 0.03153765 0.098799504 0.06389443 -0.064478144 0.038475476
-0.014886584 0.05586238 -0.008884282 0.042266995 -0.11496455 -0.017164048 0.05227599 0.039815962
0.13791908 -0.1384371 0.010441895 -0.07433454 -0.049846534 0.07391759 -0.063002504 -0.055421796
0.057284314 0.091237634 0.08567896 0.17350829 0.01714906 -0.012626773 0.10341267 0.12773025
0.122866146 -0.038662095 0.06041691 0.041558154 -0.051673137 -0.053021286 -0.051312767 -0.009461889
-0.043768227 -0.076934196 -0.16125871 -0.089714125 0.139869 -0.039184727 -0.16209678 -0.010519211
0.05228231 0.026784169 -0.031232256 0.12557694 -0.14186251 0.13850611 0.03415839 0.09938357
-0.010149934 0.11637442 -0.08838314 -0.0009727483 -0.08364725 -0.14628631 -0.0012176934 0.04878406
-0.024033912 -0.07792332 -0.013118352 0.024279328 -0.093325764 -0.037671376 -0.032003425 -0.0718166
0.1738973 -0.10747492 -0.027665185 0.15363926 -0.025034808 -0.0046395017 -0.13640109 0.013475928
00000000: 87d0 1bbc 529e 1f3e f8a0 4dbd c5a9 bfbd
00000010: 8c37 a0bb 354b 00be ea78 69bd 926b c23d
00000020: 1d9a 24be 4eec 183e bcea d73c 346b febc
00000030: f610 023d 0825 00bd 0910 34bd 1916 92bd
00000040: c68a 54bd 314f 0bbe 20ba 44bd 7666 d03c
00000050: bbc7 c7bb 56ce 7bbd 271e f73c 438b 97bc
00000060: e736 0fbd d5fc d4bd 991b 1d3b 3366 313b
00000070: 8a6e 85bd 1293 07be 2a21 8f3d f9e4 06be
00000080: 70be 053e 6aaa 843d a192 fa3d 368c 943d
00000090: 23f2 e3bd e504 303d ffae 2e3e 565f 80bd
000000a0: 6ec6 4ebb 1586 9b3d 5c28 dd3d ad8d 0c3c
000000b0: c5c1 ddbd dfdf 00be be4a 9f3d d62a 00be
000000c0: 44ab c43d 56a6 a7bd cb56 bd3d 6ebb 98bd
000000d0: ff70 43bb c832 453d 8a49 cabd c451 e63c
000000e0: 697a 86bc b16e 8cbc e534 81bd 515f b0bd
000000f0: 1674 04be 324c a5bd 408e 80bd f24a ecbc
00000100: 56d1 7c3c fbf0 863d da36 c5bd 2a83 22bd
00000110: daf3 34bd 495c 043d 5ee5 dd3d 12d3 4b3e
00000120: ad61 d4bd 97d6 ab3d 1f40 123c 70ea 5abd
00000130: a776 883c 6cdb 75bc 6c4e 983c 34de b8bd
00000140: 6829 cd3d 26fa 943c 651f eebd ce1e 9ebd
00000150: a822 26be 290c 2e3d 1925 803d 2aad e23c
00000160: 41c0 353d fe7f b1bd a1f3 eb3d 3bf3 76bc
00000170: f4d0 a93d 0dae 883c 710c 26bd 34b7 00bd
00000180: 5269 07bd 9bc1 2fbd e504 33bd 15ff 073d
00000190: 3a1e fd3d 90b5 3b3d c459 d63d f3c8 eebd
000001a0: cbd1 193d 2879 183d 885e 653d 95c2 9f3c
000001b0: d6f4 eabc 69ca d13d d5e5 acbd 6b71 13be
000001c0: ff9c c03c cdc5 4dbd 194d fd3c ed91 893d
000001d0: 45ad f6bc c562 b5bd 67c0 943d 3778 49bd
000001e0: 2769 08be bdea 8a3d c2e2 d8bd 95dc 2ebe
000001f0: 93f7 95bd dcb0 a4bd c85a 7ebd 5b81 fbbc
00000200: d2df 5b3e f059 ac3d 9f74 923c 97c5 603d
00000210: f7b1 55bd 851a 483d cda1 a83d 1a05 0ebd
00000220: 1520 b83d 0b75 afbd 637e e43d 4b9d 073e
00000230: d9fc f33d f209 5e3c 2dfb a23d a58d 3bbd
00000240: 1de5 c13b 7441 16be 2894 ccbc 8825 bfbd
00000250: 4fd9 d73d 373f 6e3d db74 a63c 7f8c ee3a
00000260: 9cf2 86bd cbbc 18be 4fee 323e c560 ed3c
00000270: ba6c e23b 4a80 d53d 5fe1 a23d 018c 1d3e
00000280: 23f3 8e3d 8aa2 f1bd e72b 48bd af80 4fbd
00000290: 1fe0 cebd 811f 9c3d 0d46 023e 91df 2cbc
000002a0: 7750 98bd d1ce af3d a98b 39bd 6a97 9fbd
000002b0: ad14 22be 10eb 2ebd 4756 80bd 2ef0 d0bd
000002c0: 97d7 edbd 28b0 c9bd 8e2e 63ba 9f2d 013d
000002d0: 6557 ca3d 15db 823d 1e0d 84bd 7698 1d3d
000002e0: dce6 73bc f3cf 643d 618f 11bc 2820 2d3d
000002f0: 8972 ebbd 9e9b 8cbc 591f 563d 1016 233d
00000300: a93a 0d3e 75c2 0dbe 7b14 2b3c b53c 98bd
00000310: e12b 4cbd 1b62 973d 7507 81bd f701 63bd
00000320: f5a2 6a3d ccda ba3d 7378 af3d 28ac 313e
00000330: 2f7c 8c3c 86e0 4ebc 06ca d33d b8cb 023e
00000340: 3fa1 fb3d 255c 1ebd b977 773d e238 2a3d
00000350: 36a7 53bd d92c 59bd 562d 52bd 0a06 1bbc
00000360: 5046 33bd ad8f 9dbd 0121 25be 0abc b7bd
00000370: d239 0f3e 2a80 20bd b3fc 25be c558 2cbc
00000380: fa25 563d 796a db3c cada ffbc 3e97 003e
00000390: 6844 11be 8cd4 0d3e abe9 0b3d 9d89 cb3d
000003a0: e94b 26bc b655 ee3d 3802 b5bd 0900 7fba
000003b0: 404f abbd 14cc 15be 039b 9fba cbd1 473d
000003c0: c4e2 c4bc 4396 9fbd 5bee 56bc 71e5 c63c
000003d0: 9421 bfbd 4d4d 1abd 0616 03bd 9514 93bd
000003e0: 2212 323e d01b dcbd 19a2 e2bc 9c53 1d3e
000003f0: cc15 cdbc f606 98bb baac 0bbe 24ca 5c3c

conv3.3.bias f4 [12]
0.14362967 -0.09515548 0.0332839 0.054790005 -0.13863349 -0.081022635 0.09749457 -0.13452983
-0.096383005 -0.06131448 -0.04273495 -0.13951197
00000000: a813 133e e0e0 c2bd b354 083d 7c6b 603d
00000010: f0f5 0dbe 32ef a5bd 3cab c73d 30c2 09be
00000020: 7464 c5bd e424 7bbd d80a 2fbd 3adc 0ebe

conv3.4.weight f4 [12]
1.0381155 1.0365788 1.0344114 1.0198839 1.0419177 1.0273762 1.029988 1.0458566
1.0298357 1.0203768 1.0269265 1.0243622
00000000: f8e0 843f 9dae 843f 9867 843f 8e8b 823f
00000010: 8f5d 853f 1081 833f a6d6 833f a1de 853f
00000020: a8d1 833f b59b 823f 5472 833f 4d1e 833f

conv3.4.bias f4 [12]
-0.0023958033 -0.002445995 -0.0024804478 -0.003981222 0.001385315 -0.002464526 -0.0038349682 0.0009842006
-0.002343381 -9.420733e-05 -0.002623767 -0.0014615612
00000000: e902 1dbb fd4c 20bb 028f 22bb e974 82bb
00000010: 7593 b53a e383 21bb 1754 7bbb 4b00 813a
00000020: 6993 19bb 2d91 c5b8 81f3 2bbb db91 bfba

conv3.4.running_mean f4 [12]
-0.11407242 -0.2464116 0.10443196 -0.025511893 -0.076053455 -0.039331086 0.15118451 -0.23890117
-0.17739959 -0.15153559 -0.15348077 0.012799252
00000000: cd9e e9bd 5353 7cbe 6ce0 d53d 51fe d0bc
00000010: eac1 9bbd a219 21bd 1dd0 1a3e 82a2 74be
00000020: 3da8 35be 252c 1bbe 102a 1dbe f4b3 513c

conv3.4.running_var f4 [12]
0.06992085 0.051811893 0.0899802 0.08527073 0.05962896 0.11698691 0.08482808 0.06120398
0.06279992 0.11047552 0.092033885 0.071223944
00000000: aa32 8f3d b538 543d 8a47 b83d 6ca2 ae3d
00000010: 7f3d 743d d596 ef3d 58ba ad3d 06b1 7a3d
00000020: 3f9d 803d fd40 e23d 437c bc3d dcdd 913d
