model/AutoY/RAcheckpoint1.pt (torch, 34213 bytes, 51 tensors)

conv1.0.weight f4 [12, 15, 2]
-0.13063307 -0.21180238 -0.110562675 -0.11703289 -0.03584727 0.16044624 0.08105484 -0.040722705
0.11124494 -0.032699324 0.026795324 -0.17576356 -0.07761648 0.0745153 0.074078955 0.12542629
0.1640837 0.1387002 -0.13677026 0.16672027 -0.09755379 0.13252121 0.22342084 -0.14415938
-0.086452454 0.008844715 -0.14905027 -0.08345262 -0.14430757 -0.03571028 -0.069633685 0.0306547
-0.086592786 0.068104215 0.045874853 0.09955967 -0.015460615 -0.029805416 0.069131866 0.15996541
-0.018755643 -0.063567966 -0.08281615 -0.04109244 0.13107848 0.070012875 -0.121407375 -0.09981463
0.14442499 -0.097429216 0.073409736 0.07608856 0.08289449 -0.10622312 -0.13580021 -0.06399546
0.04320407 -0.029190741 -0.100425504 -0.15120733 -0.007725034 0.044315405 -0.14567368 -0.056805424
-0.043704357 0.15623093 -0.19373798 0.063913316 -0.051255867 0.0032013615 -0.04031232 -0.10283736
-0.09855349 -0.041108478 -0.13146251 0.1549496 0.18811256 -0.11729797 0.17057434 -0.045607124
0.13958669 0.01080396 -0.083709195 0.108893566 -0.15341136 0.114819884 0.07606184 0.0023353898
0.010383882 -0.032896522 -0.14067107 -0.09327421 0.106852256 0.09995542 -0.12343451 -0.0528321
0.16401276 0.14977589 -0.0077416566 0.109532796 -0.120067194 -0.11524775 0.088047124 -0.17867336
-0.09673915 0.117506005 0.16883115 0.06696184 -0.060119826 0.0664543 -0.13774529 0.09596103
0.072876245 0.052804016 -0.12487528 -0.12085758 -0.050106525 -0.011844758 0.17113486 0.14858252
0.07656622 0.038563155 0.13852023 0.009099003 0.092708886 -0.05711544 0.04102452 0.066815436
0.105710186 -0.17550346 -0.14732161 -0.024089487 -0.001521746 -0.15950242 -0.012934162 -0.03898915
0.16399923 -0.17963332 0.046993166 -0.06277903 0.006524435 -0.07009547 0.17304592 0.14186364
-0.022647554 0.07972895 0.17434625 0.10396564 -0.012569581 -0.106040515 -0.093826026 0.007737204
0.17191912 -0.009956581 -0.08352672 0.17885177 -0.014540309 -0.1504207 0.016371809 0.02749248
-0.16156764 -0.11007514 0.17429733 0.063277446 -0.07586731 0.17475386 -0.17472912 0.06523122
0.035493683 0.0013995167 -0.075944185 0.1520289 -0.12552734 0.18626809 0.00026236472 0.14720213
-0.101278484 -0.10558908 -0.045838233 0.17897499 0.18489645 -0.054150976 0.044715703 0.090139516
0.09803192 -0.08932527 0.115897074 0.105351046 -0.122662134 -0.012718717 0.060485885 -0.060822316
0.06341264 0.028475568 -0.15355551 0.06342857 -0.063061275 0.18832779 -0.091426656 -0.10274408
-0.064725436 -0.036466856 -0.14239758 -0.16321804 0.08355852 0.093394525 0.19025956 -0.09210081
-0.03136171 0.007832872 0.09032527 -0.057933494 -0.07800326 -0.055139046 0.042880952 -0.044263363
-0.13911349 0.1843162 0.024787642 -0.024380196 -0.12013885 0.004664396 -0.18497856 0.075842306
0.079371646 -0.10648092 -0.03809212 -0.066553764 0.0409226 0.07715952 0.14503042 0.116307676
-0.14195698 0.13039067 -0.12626368 0.1385559 -0.14563914 -0.014005087 -0.07855036 0.103273146
-0.077769995 0.149805 0.18946752 0.15231188 0.07670711 0.023848504 -0.16734865 -0.17818297
-0.11926906 -0.016256569 -0.18683346 -0.10745462 0.1866916 -0.1167352 -0.10700677 0.15497069
00000000: adc4 05be b9e2 58be af6e e2bd f1ae efbd
00000010: 96d4 12bd 054c 243e 1400 a63d dacc 26bd
00000020: 63d4 e33d baef 05bd de81 db3c 5dfb 33be
00000030: 64f5 9ebd 7a9b 983d b5b6 973d c06f 003e
00000040: 8f05 283e 6d07 0e3e 810d 0cbe b8b8 2a3e
00000050: 48ca c7bd a4b3 073e 6fc8 643e 849e 13be
00000060: fc0d b1bd 6ce9 103c a2a0 18be 35e9 aabd
00000070: 5dc5 13be f144 12bd 1b9c 8ebd 911f fb3c
00000080: 8f57 b1bd 397a 8b3d 45e7 3b3d f1e5 cb3d
00000090: 854e 7dbc 7d2a f4bc 0295 8d3d f9cd 233e
000000a0: 6fa5 99bc ec2f 82bd 839b a9bd 8c50 28bd
000000b0: 7039 063e e962 8f3d 6ea4 f8bd 9d6b ccbd
000000c0: 25e4 133e f888 c7bd d857 963d 52d4 9b3d
000000d0: 96c4 a93d 828b d9bd 360f 0bbe 0d10 83bd
000000e0: c0f6 303d 6c21 efbc e3ab cdbd 18d6 1abe
000000f0: 4822 fdbb 1284 353d 7b2b 15be ceac 68bd
00000100: 5703 33bd 00fb 1f3e 4063 46be fce4 823d
00000110: acf1 51bd efcd 513b 881e 25bd 659c d2bd
00000120: 6ad6 c9bd 5d61 28bd 1c9e 06be 1cab 1e3e
00000130: 94a0 403e eb39 f0bd 0aab 2e3e 89ce 3abd
00000140: d0ef 0e3e 1803 313c ba6f abbd 9703 df3d
00000150: de17 1dbe b026 eb3d 4fc6 9b3d 570d 193b
00000160: 2821 2a3c 81be 06bd 140c 10be 8d06 bfbd
00000170: 5bd5 da3d 6db5 cc3d 3bcb fcbd 7966 58bd
00000180: f6f2 273e da5e 193e b9ad fdbb bb52 e03d
00000190: cae5 f5bd 0307 ecbd 0d52 b43d 26f6 36be
000001a0: 2d1f c6bd fda6 f03d 13e2 2c3e 4a23 893d
000001b0: 3540 76bd 3119 883d 1a0d 0dbe 3787 c43d
000001c0: 2440 953d 0649 583d 9cbe ffbd 2e84 f7bd
000001d0: 803c 4dbd 8410 42bc fa3d 2f3e 0426 183e
000001e0: c0ce 9c3d 66f4 1d3d 3fd8 0d3e fc13 153c
000001f0: 28de bd3d e1f1 69bd 5409 283d 88d6 883d
00000200: 957e d83d 2eb7 33be 7adb 16be 5157 c5bc
00000210: 5375 c7ba 9a54 23be cfe9 53bc 16b3 1fbd
00000220: 6aef 273e ccf1 37be e87b 403d 4b92 80bd
00000230: edca d53b 378e 8fbd f332 313e b444 113e
00000240: 5d87 b9bc ef48 a33d d387 323e f0eb d43d
00000250: a5f0 4dbc c52b d9bd dc27 c0bd 5f88 fd3b
00000260: 910b 303e ed20 23bc 0f10 abbd eb24 373e
00000270: 7a3a 6ebc e207 1abe 2c1e 863c e937 e13c
00000280: fd71 25be 136f e1bd 007b 323e 9b97 813d
00000290: 5260 9bbd adf2 323e 31ec 32be f297 853d
000002a0: d361 113d fd6f b73a a088 9bbd 77ad 1b3e
000002b0: 3d8a 00be 10bd 3e3e ff8d 8939 28bc 163e
000002c0: 186b cfbd 163f d8bd dfc0 3bbd 3845 373e
000002d0: 7f55 3d3e 6acd 5dbd d027 373d 119b b83d
000002e0: f6c4 c83d 2bf0 b6bd 725b ed3d 4ac2 d73d
000002f0: 4936 fbbd 2a62 50bc 0cc0 773d d220 79bd
00000300: 7cde 813d 9845 e93c a83d 1dbe d7e6 813d
00000310: 4526 81bd 00d9 403e e63d bbbd 7d6b d2bd
00000320: c58e 84bd 455e 15bd acd0 11be a122 27be
00000330: bb20 ab3d a145 bf3d 67d3 423e 599f bcbd
00000340: 2375 00bd 7255 003c 75fc b83d ac4b 6dbd
00000350: 2cc0 9fbd 7bd9 61bd f0a3 2f3d 804d 35bd
00000360: c473 0ebe 63bd 3c3e 740f cb3c fab8 c7bc
00000370: 5b0b f6bd cad7 983b 056b 3dbe 3653 9b3d
00000380: 9a8d a23d ab12 dabd 7c06 1cbd 574d 88bd
00000390: 759e 273d cf05 9e3d db82 143e b832 ee3d
000003a0: 2c5d 11be 2285 053e 444b 01be 99e1 0d3e
000003b0: 6d22 15be 9875 65bc 03df a0bd df80 d33d
000003c0: e045 9fbd 7b66 193e c603 423e a5f7 1b3e
000003d0: 9e18 9d3d f05d c33c 725d 2bbe 9975 36be
000003e0: 5643 f4bd 7f2c 85bc 4551 3fbe 2b11 dcbd
000003f0: 152c 3f3e dd12 efbd 5e26 dbbd a3b0 1e3e

conv1.0.bias f4 [12]
-0.09368049 0.13963681 -0.049865972 -0.022298742 0.17656036 0.03340486 0.041301623 -0.13885796
0.13932984 -0.059689417 -0.022659626 0.0068278285
00000000: 8fdb bfbd f4fc 0e3e 4340 4cbd daab b6bc
00000010: 3dcc 343e 89d3 083d e42b 293d c830 0ebe
00000020: 7bac 0e3e e47c 74bd aea0 b9bc fabb df3b

conv1.1.weight f4 [12]
1.0099801 1.0161374 1.0012777 1.0100404 1.0014144 0.99006253 1.0080211 1.0249078
1.0177559 1.002659 0.9660406 0.9793078
00000000: 0747 813f ca10 823f de29 803f 0149 813f
00000010: 592e 803f bd74 7d3f d606 813f 2e30 833f
00000020: d345 823f 2157 803f 704e 773f eab3 7a3f

conv1.1.bias f4 [12]
0.030005755 -0.049063496 0.020644305 0.02365273 0.015950818 -0.0011998122 0.038888298 0.027406545
-0.022725578 -0.02357155 -0.017466113 -0.011547703
00000000: a1ce f53c cef6 48bd 3f1e a93c 5fc3 c13c
00000010: 4aab 823c 0443 9dba 5649 1f3d b183 e03c
00000020: fe2a babc 2019 c1bc 1815 8fbc 9432 3dbc

conv1.1.running_mean f4 [12]
-0.56550395 -0.046964608 -0.1720176 -0.21192764 0.8454372 0.43950465 0.694753 -0.43829915
1.0036672 0.25646266 -0.6666239 0.21930163
00000000: dec4 10bf f65d 40bd 6225 30be 8f03 59be
00000010: 936e 583f c106 e13e 55db 313f bf68 e0be
00000020: 2b78 803f 134f 833e dda7 2abf 9b90 603e

conv1.1.running_var f4 [12]
12.84039 3.509754 3.228674 5.2349486 5.5244713 6.5919347 7.55237 3.601387
9.411997 3.5463684 9.525944 4.5852003
00000000: 3d72 4d41 cf9f 6040 98a2 4e40 b384 a740
00000010: 78c8 b040 21f1 d240 04ad f140 207d 6640
00000020: 8a97 1641 b3f7 6240 446a 1841 f6b9 9240

conv1.3.weight f4 [12, 12, 2]
0.1660498 -0.018581426 -0.18383904 0.061459903 -0.027330615 0.14899659 -0.101146705 0.18802477
-0.06413265 -0.15910152 0.1325081 0.18170698 -0.18976754 0.041895404 0.15854529 0.15196855
0.024886647 0.07039572 -0.12281015 0.13732177 0.07123724 -0.043985635 0.02236799 0.044221513
0.16206111 -0.03765506 0.011208737 -0.08143104 -0.06208042 -0.063936174 0.19600564 -0.09457448
0.19579594 0.16036932 -0.06791539 -0.07722779 -0.15374398 -0.13745594 0.17386179 0.17923753
-0.009076108 -0.06460758 0.11710451 -0.051222887 -0.028425576 -0.12362323 -0.12541948 0.18580179
0.27394754 0.18904532 -0.13358727 -0.06401562 0.1282023 0.026386894 -0.060184486 0.19640397
0.120431386 -0.07363908 0.15201487 0.21214269 -0.050099343 0.13402234 -0.19839948 0.16887727
-0.11598182 -0.14887105 -0.18479116 -0.10191016 -0.1137558 -0.08295751 0.047786683 -0.13408041
-0.02500695 0.14770529 0.11737258 0.19230871 -0.08947987 -0.124052525 -0.11938474 -0.119469285
0.09918799 -0.13524142 0.09849925 0.1841218 0.09183265 0.08338676 -0.23195194 0.07108136
-0.06567561 -0.04668619 -0.1968852 0.15030688 -0.028853122 -0.06939742 -0.18533674 -0.1408219
-0.09875821 -0.19914715 0.027249373 0.046902936 -0.079906344 -0.09112104 0.26880485 -0.11765711
0.023271598 -0.018943325 -0.10147391 0.018054996 -0.16242535 -0.011849404 0.23878098 -0.011433259
-0.08250401 0.1139466 -0.00116943 0.056307666 -0.02067956 0.16440989 0.15763274 0.012273016
0.06886362 0.1534991 -0.19965364 0.17836557 0.20446521 -0.110931866 0.0654317 -0.2175327
-0.17225324 0.15526398 0.017233212 0.13255593 -0.16224335 0.048100483 0.18022121 0.05861293
-0.0017088874 -0.03383065 -0.05342124 -0.11484464 -0.19965316 -0.14130314 -0.11634948 0.08665781
-0.014406774 -0.121345535 0.057920393 0.18060313 -0.06288115 -0.098466225 0.07084691 -0.09714778
0.054018494 0.151994 -0.11321731 -0.11605599 0.09159793 0.07660804 -0.11628539 0.06608965
-0.13269652 0.059010144 -0.046066526 -0.032333042 0.11625743 -0.05456909 -0.1717749 -0.1688928
-0.16075704 0.044263512 -0.12636691 -0.19738121 -0.16351272 -0.05747129 0.1675488 0.046094436
-0.12982647 0.13410006 0.04679337 0.052350227 -0.058844857 -0.040862475 -0.10549888 -0.08130525
-0.1822667 -0.15675344 0.15046044 -0.12954034 0.04793215 -0.10788378 0.046126526 -0.1641231
0.1635779 0.2036353 0.15389888 -0.13306451 0.21134114 -0.08405546 0.0045099095 0.13191497
0.11950644 -0.020938898 -0.061535653 0.030108698 -0.09484821 0.054535877 -0.10080043 -0.11673449
0.10811207 -0.10280037 0.10167035 0.1324332 -0.010218148 -0.1302284 -0.123996735 0.1321496
0.16303185 -0.022768935 -0.011032326 0.053876016 -0.2076551 -0.009431731 -0.15052818 -0.18521261
-0.16918932 -0.17582203 -0.15427878 0.19459043 -0.063618645 0.13475686 -0.04465353 -0.11262049
0.11383728 -0.14344785 -0.026912408 -0.036155786 -0.08644901 -0.12878427 -0.18547004 -0.13985667
0.09890796 0.14568236 0.08495964 -0.20566946 -0.016375443 0.0048408406 0.10371772 0.20079435
-0.20329224 -0.20095456 -0.10742211 -0.1558145 -0.13065243 0.18584877 0.17129572 0.21845958
00000000: f508 2a3e 1338 98bc 4d40 3cbe 61bd 7b3d
00000010: 74e4 dfbc 9092 183e 0126 cfbd 9189 403e
00000020: fb57 83bd 82eb 22be 34b0 073e 6511 3a3e
00000030: 6c52 42be 849a 2b3d b259 223e a59d 1b3e
00000040: 15df cb3c a22b 903d e383 fbbd 149e 0c3e
00000050: d5e4 913d 482a 34bd 133d b73c 9e21 353d
00000060: 59f3 253e 313c 1abd daa4 373c 51c5 a6bd
00000070: 0a48 7ebd f8f0 82bd b4b5 483e 44b0 c1bd
00000080: bb7e 483e db37 243e 3917 8bbd 9b29 9ebd
00000090: 106f 1dbe 40c1 0cbe d308 323e 0b8a 373e
000000a0: f5b3 14bc fb50 84bd 7dd4 ef3d 17cf 51bd
000000b0: c1dc e8bc 2d2e fdbd f76d 00be d342 3e3e
000000c0: da42 8c3e 1995 413e 1acb 08be 9f1a 83bd
000000d0: 7747 033e 5429 d83c 0284 76bd 1f1e 493e
000000e0: bba4 f63d 16d0 96bd c9a9 1b3e ef3b 593e
000000f0: f834 4dbd 273d 093e 3c29 4bbe 2aee 2c3e
00000100: e087 edbd a771 18be e539 3dbe 46b6 d0bd
00000110: cdf8 e8bd a1e5 a9bd f8bb 433d 604c 09be
00000120: 60db ccbc 0e40 173e 0961 f03d 93ec 443e
00000130: 3941 b7bd 400f febd fd7f f4bd 50ac f4bd
00000140: 1323 cb3d ba7c 0abe fab9 c93d 6d8a 3c3e
00000150: c212 bc3d adc6 aa3d cf84 6dbe 1b93 913d
00000160: ef80 86bd 053a 3fbd 469c 49be 0cea 193e
00000170: 625d ecbc 3c20 8ebd eac8 3dbe 9e33 10be
00000180: bf41 cabd 3bed 4bbe 143a df3c 4b1d 403d
00000190: f0a5 a3bd ab9d babd caa0 893e 36f6 f0bd
000001a0: 14a4 be3c 082f 9bbc 8ed1 cfbd 12e8 933c
000001b0: d552 26be 0124 42bc 0083 743e 9052 3bbc
000001c0: ddf7 a8bd d65c e93d 8f47 99ba dea2 663d
000001d0: 2e68 a9bc 115b 283e 7a6a 213e c314 493c
000001e0: 5f08 8d3d de2e 1d3e 0172 4cbe 77a5 363e
000001f0: 545f 513e 3f30 e3bd 0e01 863d e4c0 5ebe
00000200: 2763 30be 85fd 1e3e aa2c 8d3c bebc 073e
00000210: 1f23 26be 0305 453d e98b 383e 1d14 703d
00000220: bffc dfba 0292 0abd 3bd0 5abd ab33 ebbd
00000230: e171 4cbe c5b1 10be a348 eebd a679 b13d
00000240: 640a 6cbc 0284 f8bd ef3d 6d3d 07f0 383e
00000250: d5c7 80bd a9a8 c9bd 2f18 913d 6af5 c6bd
00000260: 7f42 5d3d 51a4 1b3e 7ade e7bd c3ae edbd
00000270: b297 bb3d ade4 9c3d 0927 eebd 035a 873d
00000280: 99e1 07be 9fb4 713d 41b0 3cbd a76f 04bd
00000290: 6018 ee3d d783 5fbd c2e5 2fbe 3cf2 2cbe
000002a0: 7e9d 24be a84d 353d 5466 01be 4d1e 4abe
000002b0: e16f 27be 0467 6bbd ea91 2b3e 85cd 3c3d
000002c0: 3bf1 04be 8751 093e 68aa 3f3d 316d 563d
000002d0: 4e07 71bd 695f 27bd cc0f d8bd 5e83 a6bd
000002e0: 1fa4 3abe f983 20be 4d12 1a3e 39a6 04be
000002f0: 8154 443d 2cf2 dcbd 2bef 3c3d e30f 28be
00000300: f780 273e c685 503e ab97 1d3e 1042 08be
00000310: d069 583e 4525 acbd ddc7 933b b814 073e
00000320: cbbf f43d 0d88 abbc cf0c 7cbd 84a6 f63c
00000330: c73f c2bd 0361 5f3d 7570 cebd 7e12 efbd
00000340: dc69 dd3d 0089 d2bd 8b38 d03d 929c 073e
00000350: 056a 27bc 985a 05be 00f2 fdbd 3a52 073e
00000360: d2f1 263e eb85 babc eec0 34bc 19ad 5c3d
00000370: 8aa3 54be 8c87 1abc 0f24 1abe 60a8 3dbe
00000380: f73f 2dbe b10a 34be 42fb 1dbe b742 473e
00000390: 7e4a 82bd b4fd 093e 9fe6 36bd 92a5 e6bd
000003a0: 8523 e93d fee3 12be 6977 dcbc 1718 14bd
000003b0: 2e0c b1bd 06e0 03be dceb 3dbe 9636 0fbe
000003c0: 4290 ca3d c22d 153e 52ff ad3d 049b 52be
000003d0: cb25 86bc ea9f 9e3b f569 d43d 099d 4d3e
000003e0: d72b 50be 08c7 4dbe 2000 dcbd d68d 1fbe
000003f0: c0c9 05be 244f 3e3e 2568 2f3e deb3 5f3e

conv1.3.bias f4 [12]
0.1751311 0.17756823 0.01978227 0.17721505 -0.07031525 -0.05818392 -0.15299232 0.19515601
0.006459547 0.14968991 0.16081773 -0.12380114
00000000: 9155 333e 72d4 353e 6d0e a23c dd77 353e
00000010: 7101 90bd 4352 6ebd 05aa 1cbe fad6 473e
00000020: 9caa d33b 5048 193e 67ad 243e 748b fdbd

conv1.4.weight f4 [12]
0.99965864 1.0329938 1.0205872 1.0318421 1.0274516 0.9953787 1.0120555 1.0119549
1.0195397 0.99422103 0.98952144 1.0022087
00000000: a1e9 7f3f 2439 843f 9aa2 823f 6713 843f
00000010: 8983 833f 23d1 7e3f 098b 813f bd87 813f
00000020: 4780 823f 4585 7e3f 4751 7d3f 6048 803f

conv1.4.bias f4 [12]
-0.006274106 -0.0057038665 0.0034509872 0.0044784714 -0.008628791 -0.0058861477 -0.0078830775 0.0041241287
0.0040156418 -0.009729862 -0.008522644 -0.0052051456
00000000: 0497 cdbb 80e7 babb f529 623b 24c0 923b
00000010: c65f 0dbc 96e0 c0bb 0628 01bc b323 873b
00000020: a595 833b 006a 1fbc 8fa2 0bbc ed8f aabb

conv1.4.running_mean f4 [12]
0.39116496 0.27910918 0.09070711 0.05871382 -0.038121622 -0.11978649 -0.2641773 -0.19665639
0.19597486 -0.33603606 0.120935656 -0.009439115
00000000: c646 c83e 66e7 8e3e a6c4 b93d e77d 703d
00000010: 6b25 1cbd 9f52 f5bd 3f42 87be 4b60 49be
00000020: a2ad 483e eb0c acbe 1dad f73d 85a6 1abc

conv1.4.running_var f4 [12]
0.10703002 0.064969 0.09906942 0.085070506 0.050398756 0.12466491 0.076486744 0.16951105
0.09760315 0.16483057 0.3488639 0.16147178
00000000: 8e32 db3d 780e 853d e8e4 ca3d 7239 ae3d
00000010: ed6e 4e3d 5150 ff3d 15a5 9c3d 4e94 2d3e
00000020: 29e4 c73d 58c9 283e 4a9e b23e dc58 253e

conv2.0.weight f4 [12, 15, 3]
-0.0034764456 -0.17132513 0.0035626413 -0.122410916 -0.06832376 -0.037546184 -0.18196854 0.09100387
0.12303302 0.06769765 -0.038286477 0.15927452 -0.11002692 0.048369903 -0.08180963 -0.0760279
-0.0050005186 0.010719702 -0.00802398 -0.09117559 -0.09841674 -0.08155333 0.022210822 0.1149851
-0.19094363 0.15180458 -0.05266601 -0.13538948 0.067686245 0.066945024 0.08023332 0.09310657
0.08230046 -0.098784074 0.108085476 0.14173429 0.0243595 -0.09943448 -0.005418751 -0.0408526
0.029381674 -0.028378334 -0.123243615 0.16657422 0.10760533 0.07823303 -0.072285846 0.032641135
-0.06570634 -0.040056773 -0.018888157 0.064589724 -0.08316965 -0.0009341506 -0.16154365 0.08263717
-0.12052063 -0.030921176 -0.07078308 -0.17588705 0.096496105 -0.11733319 0.043161057 -0.075995825
-0.056139193 0.04099439 0.008572677 0.11447206 0.014282935 0.09556177 0.08783027 0.04003285
-0.119187385 0.016250633 0.0010955246 -0.06764753 0.057196345 -0.05369056 -0.034254845 0.025185736
0.037072003 0.15508638 -0.058322188 0.087216206 -0.21068536 0.05435068 -0.053906497 -0.02747171
-0.012484778 0.17498319 0.08544126 -0.02918989 -0.011129772 -0.0719904 -0.026838321 0.01961418
0.029662842 0.107189775 -0.010241222 0.06685669 -0.090770364 0.096531205 -0.047921382 0.12538396
-0.1642283 0.08053306 0.16020781 -0.101755545 0.08392525 0.1900312 0.12493492 0.13534099
-0.038858213 -0.10544505 -0.12209146 -0.06228558 0.10648633 -0.0117723 -0.085014336 -0.1114916
0.1725815 0.029950995 -0.07233162 0.01110495 -0.14079386 -0.0027565518 -0.10601905 -0.02546978
-0.12972577 0.10240781 0.17317174 -0.10110167 0.028519707 -0.005028264 0.050879035 -0.10989125
0.09262916 -0.076847576 -0.05473974 0.022922829 -0.14393307 0.02398518 0.050535064 -0.12860143
0.012172476 0.09034614 0.023061264 0.103456855 -0.11132742 0.13374889 -0.08836012 -0.0133607155
-0.14830862 0.13304427 -0.1693142 0.023330847 0.0409102 -0.08682762 0.0671115 -0.16682203
-0.10713089 0.11106197 0.06526206 -0.15349828 0.054688927 -0.16920535 0.14371881 0.011882026
-0.07179859 -0.011753745 0.18087795 -0.10052402 -0.020401213 -0.06828261 0.094094805 0.03341677
0.09436936 -0.059543733 -0.11808144 -0.015193354 -0.07995093 -0.05077596 -0.07044422 0.018033171
-0.043352656 0.049913302 0.034493145 -0.05966689 0.13651755 -0.10626281 -0.053976495 -0.110352606
-0.055493042 -0.061939318 -0.09553782 -0.022472695 -0.06982488 0.077771924 0.21262594 0.13802083
-0.018409949 0.096849464 0.0700353 0.117563985 0.035079416 0.0009954432 0.19396769 0.009561767
0.035201352 -0.10083461 0.061173372 -0.057399083 -0.099955305 0.024129052 -0.1503095 -0.07774396
-0.059221007 -0.023434902 -0.062629946 0.13473614 -0.091944486 -0.08922466 0.19081801 0.033928677
0.07925538 0.0019091137 -0.08532865 -0.06293062 0.017938066 0.013544357 0.09478756 0.09389176
-0.010717442 0.055818498 -0.02301577 -0.07942383 -0.10099923 0.08990469 -0.06616513 0.06323415
-0.067375556 0.012028695 -0.029333282 -0.16260323 -0.07831847 -0.03038283 -0.1445207 -0.08924236
-0.01977885 -0.046766587 0.1512887 -0.08298875 0.075031824 -0.1733031 -0.057522155 -0.075128585
00000000: 14d5 63bb db6f 2fbe 347b 693b 93b2 fabd
00000010: 54ed 8bbd 07ca 19bd f655 3abe 3d60 ba3d
00000020: bcf8 fb3d 11a5 8a3d 48d2 1cbd dc18 233e
00000030: cb55 e1bd 851f 463d cf8b a7bd 84b4 9bbd
00000040: 64db a3bb b0a1 2f3c 0377 03bc 45ba babd
00000050: b78e c9bd 6f05 a7bd 78f3 b53c 4f7d eb3d
00000060: ba86 43be a972 1b3e 50b8 57bd 8aa3 0abe
00000070: 169f 8a3d 791a 893d 5e51 a43d a8ae be3d
00000080: 258d a83d 4e4f cabd eb5b dd3d cb22 113e
00000090: 938d c73c 4ea4 cbbd c78f b1bb 0e55 27bd
000000a0: d6b1 f03c ae79 e8bc 2667 fcbd 6f92 2a3e
000000b0: 2f60 dc3d a438 a03d 9a0a 94bd b6b2 053d
000000c0: 0c91 86bd 9212 24bd 56bb 9abc 9e47 843d
000000d0: d954 aabd c9e1 74ba b36b 25be ad3d a93d
000000e0: 85d3 f6bd 684e fdbc b8f6 90bd bc1b 34be
000000f0: c09f c53d 624c f0bd a6c9 303d b3a3 9bbd
00000100: 36f2 65bd bce9 273d 6a74 0c3c 5470 ea3d
00000110: f902 6a3c e4b5 c33d 5be0 b33d 7cf9 233d
00000120: 8418 f4bd 0c20 853c b597 8f3a ca8a 8abd
00000130: b746 6a3d a2ea 5bbd cf4e 0cbd 5152 ce3c
00000140: d0d8 173d f7ce 1e3e 3fe3 6ebd 699e b23d
00000150: e7bd 57be d29e 5e3d 0fcd 5cbd 5a0c e1bc
00000160: f48c 4cbc cb2e 333e d4fb ae3d a31f efbc
00000170: a659 36bc b46f 93bd 0adc dbbc ebad a03c
00000180: 7dff f23c 5086 db3d ccca 27bc 29ec 883d
00000190: d0e5 b9bd 27b2 c53d 3649 44bd a764 003e
000001a0: 772b 28be 84ee a43d 840d 243e 3665 d0bd
000001b0: 00e1 ab3d 8a97 423e e1dd ff3d d496 0a3e
000001c0: ca29 1fbd 93f3 d7bd 160b fabd 2a1f 7fbd
000001d0: 8115 da3d 9be0 40bc ff1b aebd b555 e4bd
000001e0: 34b9 303e ca5b f53c 9a22 94bd 89f1 353c
000001f0: 442c 10be 44a7 34bb 8420 d9bd 00a6 d0bc
00000200: d5d6 04be 30bb d13d ef53 313e 640e cfbd
00000210: 29a2 e93c 23c4 a4bb 8966 503d aa0e e1bd
00000220: 5bb4 bd3d 4362 9dbd c736 60bd a8c8 bb3c
00000230: 3163 13be 917c c43c dbfd 4e3d 18b0 03be
00000240: 116f 473c 6607 b93d faea bc3c 30e1 d33d
00000250: a1ff e3bd 78f5 083e 27f6 b4bd e7e6 5abc
00000260: 37de 17be c23c 083e b460 2dbe 5520 bf3c
00000270: 7491 273d aed2 b1bd c171 893d 65d3 2abe
00000280: 7167 dbbd 7574 e33d 1da8 853d a72e 1dbe
00000290: 7f01 603d 2b44 2dbe 062b 133e d4ac 423c
000002a0: 240b 93bd c892 40bc 1238 393e 8adf cdbd
000002b0: 7220 a7bc c1d7 8bbd c7b4 c03d 06e0 083d
000002c0: b944 c13d 21e4 73bd afd4 f1bd 8ced 78bc
000002d0: 50bd a3bd 74fa 4fbd 0f45 90bd 4dba 933c
000002e0: 8e92 31bd e471 4c3d af48 0d3d 4565 74bd
000002f0: 42cb 0b3e 51a0 d9bd 7516 5dbd 8c00 e2bd
00000300: ac4c 63bd 15b4 7dbd 55a9 c3bd a818 b8bc
00000310: 5900 8fbd e346 9f3d 9dba 593e 5555 0d3e
00000320: 76d0 96bc 0359 c63d ab6e 8f3d 63c5 f03d
00000330: 6faf 0f3d 8879 823a 779f 463e f5a8 1c3c
00000340: 4b2f 103d 6082 cebd ee90 7a3d 4d1b 6bbd
00000350: 5eb5 ccbd 4aaa c53c bcea 19be 3a38 9fbd
00000360: ba91 72bd 8dfa bfbc 2144 80bd 45f8 093e
00000370: 644d bcbd 6bbb b6bd cc65 433e ccf8 0a3d
00000380: a550 a23d 3a3b fa3a cac0 aebd c5e1 80bd
00000390: daf2 923c 27e9 5d3c fb1f c23d 534a c03d
000003a0: 3698 2fbc f0a1 643d 918b bcbc f6a8 a2bd
000003b0: afd8 cebd f31f b83d 9581 87bd e880 813d
000003c0: 32fc 89bd 0114 453c 5a4c f0bc 7681 26be
000003d0: 6f65 a0bd 6ae5 f8bc 3cfd 13be b3c4 b6bd
000003e0: 4107 a2bc 528e 3fbd 6deb 1a3e 01f6 a9bd
000003f0: 49aa 993d 5e76 31be 5a9c 6bbd 04dd 99bd

conv2.0.bias f4 [12]
-0.09115087 0.08498825 -0.015018841 0.05354332 -0.018228842 0.027200077 -0.064388886 -0.14568897
-0.030766252 0.13863108 0.08780854 -0.11094541
00000000: 4fad babd 520e ae3d 9611 76bc 3e50 5b3d
00000010: a754 95bc b2d2 de3c 52de 83bd 7d2f 15be
00000020: 8209 fcbc 4ef5 0d3e f7d4 b33d 5937 e3bd

conv2.1.weight f4 [12]
0.94241035 1.0135463 0.9813255 0.9957348 1.0268123 1.0448065 0.9957773 1.0124632
0.9885556 0.96036243 0.9919899 1.0284418
00000000: ce41 713f e3bb 813f 2638 7b3f 7ae8 7e3f
00000010: 966e 833f 38bc 853f 43eb 7e3f 6598 813f
00000020: fb11 7d3f 50da 753f 0df3 7d3f fba3 833f

conv2.1.bias f4 [12]
0.021048719 -0.021438813 -0.052514225 0.0568421 0.059628464 0.037804328 0.04792687 -0.010027611
-0.02939075 -0.09355631 0.004627359 0.009782374
00000000: 5d6e ac3c 73a0 afbc 2819 57bd 43d3 683d
00000010: fa3c 743d b6d8 1a3d f74e 443d d94a 24bc
00000020: dfc4 f0bc 739a bfbd 1aa1 973b 4046 203c

conv2.1.running_mean f4 [12]
-0.5933314 0.2642311 -0.12368718 -0.45921698 -0.3366496 0.46058872 -0.58085877 -0.013531824
-0.2946981 0.37885177 0.41117707 -0.5616241
00000000: 91e4 17bf 4c49 873e b44f fdbd 7d1e ebbe
00000010: 565d acbe 49d2 eb3e 29b3 14bf 95b4 5dbc
00000020: abe2 96be dcf8 c13e cd85 d23e 99c6 0fbf

conv2.1.running_var f4 [12]
8.780043 4.166657 5.0323324 5.993441 3.8144062 4.778644 5.1628814 3.379211
4.954674 7.6764975 3.4418304 7.4498215
00000000: 0e7b 0c41 4155 8540 de08 a140 45ca bf40
00000010: 3b1f 7440 a7ea 9840 5336 a540 fe44 5840
00000020: b08c 9e40 dea5 f540 f346 5c40 f064 ee40

conv2.3.weight f4 [12, 12, 3]
0.11683314 -0.071348004 -0.12180462 0.025868246 -0.100093715 0.07025553 -0.11363306 -0.13321728
-0.00071416213 -0.10174835 -0.097824015 -0.086406216 -0.12857476 -0.16562535 -0.20326842 0.078473665
0.0190963 0.2104539 0.08041706 -0.012892117 -0.053292803 0.071468085 0.12577668 -0.10754386
-0.040538255 -0.09315352 0.13183425 -0.09780048 -0.06008844 -0.13268472 0.05668893 -0.07489185
0.12105872 0.026694855 -0.061603647 0.11674197 0.15160543 0.014291609 0.05415087 0.06282095
-0.05957527 0.04224129 -0.11096025 -0.024710348 0.103835344 -0.15878117 0.15678589 0.050563
-0.14548762 0.040175945 -0.1701803 0.07350657 0.0816773 -0.03552861 -0.041303787 0.14105225
-0.040105656 -0.14521791 0.013959822 -0.0061904793 -0.086943135 -0.120962024 -0.12522198 -0.12743627
0.0037227308 0.12153683 0.12650022 -0.09449887 -0.029040495 -0.17328586 -0.035797928 -0.0067798584
-0.106338285 -0.12442465 0.10912702 -0.16671897 0.092888586 -0.11397909 -0.025690991 0.11164432
0.18355107 -0.050034773 0.10155269 0.08085985 -0.0019429936 0.034627512 -0.04798419 -0.007887675
-0.074026324 -0.09158784 -0.07551948 -0.122059226 0.20656706 0.1402169 0.044696752 -0.052778386
0.094583765 0.1574815 -0.07917563 0.0021352603 -0.0810381 -0.13198687 0.10710426 -0.09227438
0.029822694 -0.13918027 0.096182056 0.14052989 0.06110373 0.07174125 -0.08810239 0.09586414
-0.09489598 0.06302651 0.025966117 -0.19681713 -0.05988221 0.08043437 0.06192573 0.03127521
-0.19034149 0.1225442 0.013357527 -0.11909194 -0.12738502 0.044770584 0.11799559 0.082358025
0.12595542 -0.01064138 0.07128149 0.08135346 0.04906734 0.0049949917 0.104713045 -0.03854194
-0.0457593 0.16846097 0.05484242 -0.01635816 -0.13377427 -0.07389468 0.11867421 0.14851993
-0.004437528 0.10481648 -0.13721554 0.034357548 -0.03472546 -0.09775616 0.007920061 -0.1298831
-0.0029776567 0.123723485 0.06886099 0.046817936 -0.17775142 -0.004349092 -0.18149643 -0.08576194
0.04675385 -0.13711734 0.106512375 -0.07733828 0.020298136 0.06708953 0.019544343 0.11113832
-0.07524683 -0.120626755 -0.109384485 0.19557068 -0.06490084 -0.106967986 0.13350765 0.025116188
0.11842828 0.1392681 -0.0523189 0.19545868 -0.05195204 -0.109030604 -0.14215352 -0.111973286
0.20463867 0.12153069 -0.1070757 0.08021824 -0.117691286 0.06416788 0.12917972 -0.16060884
0.012684716 -0.037429657 0.042830124 -0.086443074 0.028123166 -0.08270417 0.14970884 -0.11791252
0.07094726 -0.09044356 -0.12782063 0.15532136 -0.019049972 0.06107401 -0.11879046 0.13936788
0.06908295 -0.09013825 0.0737076 -0.0018053685 0.048251055 -0.041781742 0.09755524 -0.111950114
-0.010819615 0.03541893 -0.115603015 -0.10896421 -0.07023044 -0.1355436 0.06360788 -0.034878694
-0.10109412 0.16644008 -0.1593459 0.05439585 -0.17521308 -0.025602592 -0.15833855 0.039356764
-0.039951563 0.07052739 0.09396192 0.05151161 0.011336914 0.03880203 0.062516026 -0.103962645
0.05087735 0.09944411 -0.13997269 -0.12986128 0.03822561 0.12880844 -0.11878567 -0.027839143
0.13448167 0.10374802 -0.0024206685 0.05648371 -0.057755988 0.00086382165 0.11617703 -0.08971648
00000000: 3746 ef3d e71e 92bd b374 f9bd a5e9 d33c
00000010: effd ccbd 22e2 8f3d 73b8 e8bd 1c6a 08be
00000020: 9c36 3bba 7061 d0bd f557 c8bd bef5 b0bd
00000030: 1aa9 03be b199 29be 9925 50be cdb6 a03d
00000040: d86f 9c3c 3a81 573e b3b1 a43d 7539 53bc
00000050: 8e49 5abd dc5d 923d 9acb 003e f53f dcbd
00000060: 710b 26bd 46c7 bebd 8fff 063e 9e4b c8bd
00000070: 4c1f 76bd 81de 07be a732 683d e660 99bd
00000080: a2ed f73d 2baf da3c 1b54 7cbd 6a16 ef3d
00000090: 743e 1b3e 5a27 6a3c 4dcd 5d3d 45a8 803d
000000a0: 3305 74bd 3405 2d3d 213f e3bd 5b6d cabc
000000b0: a0a7 d43d 8897 22be 7b8c 203e 261b 4f3d
000000c0: b5fa 14be 888f 243d bf43 2ebe 9d8a 963d
000000d0: 6e46 a73d 7386 11bd 292e 29bd 0070 103e
000000e0: d445 24bd 01b4 14be bdb7 643c 81d9 cabb
000000f0: 3e0f b2bd f0ba f7bd 313a 00be a77e 02be
00000100: 0ff9 733b 4de8 f83d 4689 013e a088 c1bd
00000110: 55e6 edbc d971 31be d9a0 12bd 9329 debb
00000120: e3c7 d9bd 5ad2 febd fd7d df3d 61b8 2abe
00000130: 5f3c be3d de6d e9bd ea75 d2bc c7a5 e43d
00000140: d0f4 3b3e 43f1 4cbd dbfa cf3d d999 a53d
00000150: 0cac feba 94d5 0d3d 128b 44bd 4f3b 01bc
00000160: 1d9b 97bd 6892 bbbd f5a9 9abd 30fa f9bd
00000170: 5186 533e 0595 0f3e f113 373d 262e 58bd
00000180: 22b5 c13d d542 213e d526 a2bd b9ef 0b3b
00000190: 4ef7 a5bd 9127 07be 7a59 db3d 5afa bcbd
000001a0: b94e f43c 4685 0ebe 19fb c43d 11e7 0f3e
000001b0: e847 7a3d 14ed 923d 076f b4bd 6b54 c43d
000001c0: d358 c2bd 0b14 813d e5b6 d43c 6e8a 49be
000001d0: 0c47 75bd c6ba a43d d6a5 7d3d 6f1a 003d
000001e0: e1e8 42be 74f8 fa3d 87d9 5a3c 7ae6 f3bd
000001f0: 3871 02be 5c61 373d aca7 f13d 53ab a83d
00000200: 75fa 003e 2f59 2ebc 08fc 913d a59c a63d
00000210: d6fa 483d 07ad a33b cb73 d63d 27de 1dbd
00000220: 1b6e 3bbd 0881 2c3e 72a2 603d 8c01 86bc
00000230: 1ffc 08be 1856 97bd 770b f33d 9c15 183e
00000240: af68 91bb 06aa d63d 3b82 0cbe 80ba 0c3d
00000250: 493c 0ebd 6234 c8bd 25c3 013c 1300 05be
00000260: ca24 43bb bd62 fd3d fe06 8d3d 2ac4 3f3d
00000270: 7804 36be d482 8ebb 33da 39be f5a3 afbd
00000280: f780 3f3d 7d68 0cbe 2923 da3d 8863 9ebd
00000290: 4748 a63c 3c66 893d 751b a03c 7d9c e33d
000002a0: 031b 9abd 290b f7bd f904 e0bd ae43 483e
000002b0: bbea 84bd 0812 dbbd 3bb6 083e 77c0 cd3c
000002c0: 878a f23d 4c9c 0e3e 584c 56bd 5226 483e
000002d0: aacb 54bd 704b dfbd b190 11be 4052 e5bd
000002e0: cd8c 513e 15e5 f83d 814a dbbd 7649 a43d
000002f0: 2108 f1bd 736a 833d b047 043e a576 24be
00000300: 8ed3 4f3c d74f 19bd a46e 2f3d 1109 b1bd
00000310: 8e62 e63c ce60 a9bd 464d 193e 1f7c f1bd
00000320: cc4c 913d 793a b9bd 69e3 02be 900c 1f3e
00000330: b00e 9cbc be28 7a3d 6a48 f3bd 74b6 0e3e
00000340: 5d7b 8d3d 679a b8bd 03f4 963d 1da2 ecba
00000350: e6a2 453d 5523 2bbd 0bcb c73d 1a46 e5bd
00000360: c144 31bc 7113 113d 46c1 ecbd a128 dfbd
00000370: fad4 8fbd f1cb 0abe d944 823d f6dc 0ebd
00000380: 6f0a cfbd 456f 2a3e 922b 23be 2fce 5e3d
00000390: 0f6b 33be 87bc d1bc 8023 22be 8f34 213d
000003a0: 40a4 23bd aa70 903d 1b6f c03d d7fd 523d
000003b0: 77be 393c e1ee 1e3d 6708 803d 5eea d4bd
000003c0: c564 503d 5ba9 cb3d 0055 0fbe 5bfa 04be
000003d0: 7592 1c3d 5ce6 033e e745 f3bd ea0e e4bc
000003e0: 90b5 093e d879 d43d 14a4 1ebb 765b 673d
000003f0: 8b91 6cbd 1772 623a 39ee ed3d 46bd b7bd

conv2.3.bias f4 [12]
0.054755554 -0.09247479 -0.024138164 0.0053330734 0.16403861 0.13075057 -0.07470919 0.1594076
-0.080834456 0.015102075 -0.029875148 -0.010130482
00000000: 5c47 603d 6c63 bdbd 66bd c5bc 10c1 ae3b
00000010: bdf9 273e 7ae3 053e 2201 99bd bf3b 233e
00000020: 898c a5bd b26e 773c babc f4bc 52fa 25bc

conv2.4.weight f4 [12]
1.0300131 1.0152143 1.0473799 1.0084999 1.0153134 1.0196178 0.99429405 1.0287691
1.0040758 1.0142757 1.0369039 1.0174472
00000000: 78d7 833f 8bf2 813f 8b10 863f 8616 813f
00000010: caf5 813f d682 823f 0e8a 7e3f b5ae 833f
00000020: 8e85 803f c9d3 813f 44b9 843f b63b 823f

conv2.4.bias f4 [12]
0.0044443877 -0.009151152 0.0045601516 -0.005502978 -0.0055430667 0.004010225 -0.0066379155 0.004505223
-0.00577604 0.0049469997 0.0043738796 -0.005256865
00000000: 3aa2 913b b7ee 15bc 536d 953b 5352 b4bb
00000010: 9da2 b5bb 3568 833b df82 d9bb 8da0 933b
00000020: ef44 bdbb 711a a23b c352 8f3b c841 acbb

conv2.4.running_mean f4 [12]
-0.23194304 -0.24906704 0.015348494 0.2699411 0.15970089 0.061679043 -0.20304051 0.2696231
-0.41269633 0.1633329 -0.040934693 0.24054621
00000000: 7a82 6dbe 6e0b 7fbe 4078 7b3c b835 8a3e
00000010: a188 233e 2aa3 7c3d dae9 4fbe 0a0c 8a3e
00000020: ef4c d3be bd40 273e 23ab 27bd bf51 763e

conv2.4.running_var f4 [12]
0.13461564 0.14095098 0.07809162 0.08471556 0.07657452 0.10927657 0.11930226 0.091775976
0.13457948 0.10749316 0.07301138 0.11325409
00000000: afd8 093e 7455 103e 80ee 9f3d 5a7f ad3d
00000010: 1ad3 9c3d 65cc df3d be54 f43d 0bf5 bb3d
00000020: 34cf 093e 6025 dc3d fe86 953d c3f1 e73d

conv3.0.weight f4 [12, 15, 4]
-0.04470122 0.062332045 -0.07675779 -0.08435531 0.065092474 -0.034037236 0.09888338 0.017005224
0.057939135 0.12435961 0.06600794 -0.08644376 0.072192706 0.057180557 -0.027839942 -0.065872945
0.08493342 -0.14434563 0.015935853 0.1260748 -0.048225544 -0.112302035 0.02537805 0.085653186
-0.020813718 -0.0012204854 0.01746549 0.03396185 -0.12806563 0.13044949 -0.074512966 0.06430102
0.101102464 -0.013816548 -0.1695947 0.041044876 0.056336038 0.072487034 -0.0698493 -0.03771131
0.019801198 0.05546989 -0.14873417 -0.036535013 -0.077703066 -0.11647579 0.09553744 0.017618444
0.04343965 0.07531757 -0.114594705 0.15243115 0.24169496 -0.042102925 -0.030361384 0.14085475
-0.10109199 0.014615814 0.10187218 -0.032483377 0.019342946 0.004894312 -0.029169988 0.06052235
0.058577314 0.035106696 0.001518147 -0.01664202 0.008217085 -0.009073062 0.011472527 0.033116415
0.08022692 -0.040928338 0.13614145 0.0922904 0.09902262 -0.06163522 -0.060332384 0.121450275
0.10826411 -0.11013936 0.14909089 0.040423274 -0.11315416 -0.032097593 0.081059754 -0.044728972
0.1116887 -0.020845883 0.120044045 0.05933301 -0.06958951 0.05066271 0.08830149 -0.049897976
0.0013096341 0.07316109 -0.009048868 -0.043447807 0.075829454 -0.09441303 -0.22252898 0.14862947
-0.0016925979 0.0065635447 0.0031449278 -0.05545102 -0.026188016 -0.045053184 -0.015292335 0.02029237
-0.11979619 0.16211434 -0.05021086 0.0895701 -0.035798375 -0.12720789 -0.038715787 0.098446615
0.050238807 0.040142428 -0.07807993 0.08403823 -0.014238104 0.005521471 0.06329638 0.008986562
0.04817623 0.105816424 0.11959807 -0.087947235 0.04181876 -0.0676786 0.01688684 0.1360836
0.13274123 0.034146916 -0.025159858 -0.0014798833 0.13365662 0.0017836108 -0.014097712 0.1413698
0.060746815 0.09452942 0.091723345 -0.056734692 -0.066768825 -0.113121524 0.061757013 -0.00691498
0.029531674 -0.03460059 0.07913129 0.052196246 -0.036418356 0.11283988 -0.07933722 -0.03311335
0.1198114 0.060467444 -0.003844682 -0.1458018 0.2358591 0.06334334 0.068017766 -0.13315512
0.05315911 -0.044262663 0.048667945 0.08632822 -0.15657713 -0.10900299 -0.08489822 0.012608769
-0.04339262 -0.01030064 -0.055844225 0.14062898 0.057863742 -0.036802564 0.047510073 -0.08514922
-0.07783576 -0.07558036 -0.06613527 -0.035240877 -0.12861279 -0.05414563 -0.011056 -0.026649002
0.034082267 -0.022732737 0.14313886 -0.059378747 0.042325158 -0.101560585 0.017465947 0.0771692
0.1400582 -0.0928476 -0.056297682 0.12748633 -0.07643875 -0.005294809 -0.07724993 -0.03976871
-0.051513206 -0.15458202 0.012976277 0.11153405 -0.041682277 0.018748337 0.07697949 -0.028818265
0.028545571 0.1090367 -0.0012649863 0.04355879 -0.06758324 0.08563656 0.08676368 0.07040678
0.1656101 -0.09594879 0.03714998 -0.048658628 0.07964179 -2.2564842e-05 0.11234109 0.1972547
0.069479845 -0.020406533 0.065226264 -0.0807242 0.090858094 -0.057833426 -0.043317717 0.0040927785
-0.08148273 -0.009922873 0.15474828 -0.033319354 0.020898612 -0.038359787 0.0018118105 -0.11771819
-0.09337002 -0.02266673 -0.050010145 0.13949947 0.1155675 -0.07790914 -0.060636222 0.12492481
00000000: a018 37bd e34f 7f3d 3033 9dbd 7ac2 acbd
00000010: 344f 853d a16a 0bbd 5f83 ca3d 8a4e 8b3c
00000020: 9651 6d3d 40b0 fe3d 2c2f 873d 6d09 b1bd
00000030: c5d9 933d 2936 6a3d 9710 e4bc 65e8 86bd
00000040: 93f1 ad3d 57cf 13be e88b 823c c119 013e
00000050: 2688 45bd 9cfe e5bd a1e5 cf3c f06a af3d
00000060: 8881 aabc b2f8 9fba ca13 8f3c 951b 0b3d
00000070: a323 03be 8d94 053e 419a 98bd 41b0 833d
00000080: cf0e cf3d cd5e 62bc 3caa 2dbe ac1e 283d
00000090: 9ec0 663d 1574 943d 260d 8fbd 2d77 1abd
000000a0: 1f36 a23c 6534 633d c54d 18be bda5 15bd
000000b0: c922 9fbd dc8a eebd 22a9 c33d 8e54 903c
000000c0: c6ed 313d 1940 9a3d a1b0 eabd e916 1c3e
000000d0: e27e 773e 1e74 2cbd 70b8 f8bc 3a3c 103e
000000e0: 5109 cfbd 2b77 6f3c 5da2 d03d 4a0d 05bd
000000f0: 1975 9e3c 7760 a03b e6f5 eebc 49e6 773d
00000100: c4ee 6f3d 0acc 0f3d 8ffc c63a d854 88bc
00000110: f4a0 063c 2ea7 14bc 44f7 3b3c 14a5 073d
00000120: 034e a43d 79a4 27bd aa68 0b3e c002 bd3d
00000130: 5fcc ca3d 3675 7cbd 171f 77bd ecba f83d
00000140: 93b9 dd3d bf90 e1bd 48ab 183e e092 253d
00000150: 5ebd e7bd c478 03bd a802 a63d ba35 37bd
00000160: 0cbd e43d fcc4 aabc a7d9 f53d 2c07 733d
00000170: f284 8ebd b483 4f3d 69d7 b43d d261 4cbd
00000180: 07a8 ab3a 7bd5 953d b441 14bc 54f6 31bd
00000190: 794c 9b3d 9e5b c1bd a3de 63be 5332 183e
000001a0: 29da ddba 0113 d73b 221b 4e3b 9c20 63bd
000001b0: 4088 d6bc b089 38bd b48c 7abc 2f3c a63c
000001c0: b457 f5bd 4d01 263e e7a9 4dbd 8770 b73d
000001d0: 51a1 12bd c942 02be 7294 1ebd 619e c93d
000001e0: 35c7 4d3d 636c 243d 5fe8 9fbd 3c1c ac3d
000001f0: f046 69bc 75ed b43b 88a1 813d 5f3c 133c
00000200: 7054 453d 48b6 d83d d5ef f43d ae1d b4bd
00000210: 264a 2b3d 149b 8abd 4556 8a3c 8059 0b3e
00000220: 51ed 073e a3dd 0b3d 0c1c cebc a5f8 c1ba
00000230: 48dd 083e 0cc8 e93a 17fa 66bc 3fc3 103e
00000240: a7d1 783d a498 c13d 73d9 bb3d a362 68bd
00000250: 18be 88bd 42ac e7bd ecf4 7c3d 0e97 e2bb
00000260: 69ec f13c 59b9 0dbd 960f a23d bbcb 553d
00000270: 6a2b 15bd 9818 e73d 8d7b a2bd dda1 07bd
00000280: ae5f f53d b6ac 773d 0ff7 7bbb 114d 15be
00000290: 0c85 713e 27ba 813d e64c 8b3d d159 08be
000002a0: 5ebd 593d c44c 35bd 0a58 473d dacc b03d
000002b0: c155 20be f63c dfbd 1edf adbd 0395 4e3c
000002c0: 76bc 31bd 04c4 28bc eabc 64bd 0b01 103e
000002d0: 8802 6d3d 49be 16bd ec99 423d b762 aebd
000002e0: 5b68 9fbd e0c9 9abd ee71 87bd bd58 10bd
000002f0: 12b3 03be cfc7 5dbd 3a24 35bc 024f dabc
00000300: d999 0b3d 013a babc fe92 123e 2137 73bd
00000310: 255d 2d3d fffe cfbd bf14 8f3c e30a 9e3d
00000320: 6b6b 0f3e e226 bebd 6698 66bd c78b 023e
00000330: eb8b 9cbd 1480 adbb 3635 9ebd 84e4 22bd
00000340: 83ff 52bd c04a 1ebe 739a 543c f76b e43d
00000350: 09bb 2abd 1d96 993c 6ca7 9d3d 4814 ecbc
00000360: 67d8 e93c a24e df3d e6cd a5ba b46a 323d
00000370: 1569 8abd 3962 af3d 28b1 b13d 6e31 903d
00000380: b295 293e cd80 c4bd 942a 183d 454e 47bd
00000390: 3c1b a33d a149 bdb7 1613 e63d 23fd 493e
000003a0: 734b 8e3d 9a2b a7bc 5995 853d bb52 a5bd
000003b0: cf13 ba3d bee2 6cbd eb6d 31bd b71c 863b
000003c0: 6be0 a6bd 8c93 22bc 5576 1e3e e079 08bd
000003d0: 9133 ab3c 271f 1dbd 467a ed3a 3c16 f1bd
000003e0: c838 bfbd 94af b9bc 70d7 4cbd f3d8 0e3e
000003f0: a7ae ec3d d48e 9fbd b05d 78bd 94d8 ff3d

conv3.0.bias f4 [12]
0.00015381993 0.05045332 0.054862544 0.078572065 -0.067901365 -0.08274291 0.033546843 -0.111113705
-0.054973952 0.109862365 -0.097984284 -0.10103867
00000000: b94a 2139 24a8 4e3d 8cb7 603d 64ea a03d
00000010: df0f 8bbd 1d75 a9bd 6a68 093d 958f e3bd
00000020: 5e2c 61bd 85ff e03d fcab c8bd 5ded cebd

conv3.1.weight f4 [12]
1.0536331 1.1091553 1.0512643 0.9649447 0.9763233 0.9887172 0.9960828 0.9569176
1.0176898 0.9462119 0.99768966 0.99779797
00000000: 73dd 863f cdf8 8d3f d48f 863f 9e06 773f
00000010: 53f0 793f 921c 7d3f 48ff 7e3f 8df8 743f
00000020: a943 823f f13a 723f 9768 7f3f b06f 7f3f

conv3.1.bias f4 [12]
-0.056446023 -0.018454174 -0.009137707 -0.0031791683 -0.023259005 0.010567479 0.02286255 0.025603706
-0.030476436 0.006427124 0.01482318 -0.0124234725
00000000: f233 67bd 352d 97bc 52b6 15bc 9859 50bb
00000010: ab89 bebc 3823 2d3c 3e4a bb3c ddbe d13c
00000020: b8a9 f9bc a09a d23b ecdc 723c d28b 4bbc

conv3.1.running_mean f4 [12]
0.2567953 0.21882208 0.6032798 -0.28202438 0.06103264 0.18922962 -0.7364265 -0.28773674
-0.3059787 0.59292454 -0.43902847 -0.09705747
00000000: ac7a 833e e512 603e 8c70 1a3f 8065 90be
00000010: 5dfd 793d 69c5 413e 7286 3cbf 3b52 93be
00000020: 3da9 9cbe e7c9 173f 57c8 e0be 11c6 c6bd

conv3.1.running_var f4 [12]
4.4786396 3.4749851 6.5836687 6.459047 7.599822 4.9878626 6.855444 5.6550474
5.431083 4.04472 4.514745 5.405575
00000000: 0451 8f40 2866 5e40 6aad d240 83b0 ce40
00000010: be31 f340 929c 9f40 cc5f db40 26f6 b440
00000020: 6fcb ad40 596e 8140 cb78 9040 78fa ac40

conv3.3.weight f4 [12, 12, 4]
-0.10898719 -0.18222956 0.077760555 -0.0782394 0.09531855 0.06539992 -0.1597128 -0.15617992
-0.047300827 0.16822556 -0.04374835 0.025120754 0.12194335 -0.15541269 -0.018286403 -0.12706243
0.08262184 0.060657237 0.10121668 -0.15358461 0.016173758 -0.06607126 -0.019914161 0.0875762
0.03214943 0.0734825 0.067482606 -0.097132035 0.056277048 0.021730175 0.123837836 0.029832864
0.0927597 -0.016129743 -0.108356476 -0.011686121 0.07032603 -0.08347121 0.040294137 -0.026910102
0.10093132 0.04472568 0.12672977 -0.09410864 0.11884182 0.1152734 0.06279838 -0.062046137
0.07389568 0.12718114 0.048783377 -0.050315373 0.037606426 -0.0027250259 -0.014269506 0.04219757
-0.069869295 0.1062822 -0.07448888 0.119271055 0.086194254 -0.07522713 0.018636981 -0.15579066
-0.03468574 0.070351906 -0.07799072 0.014515044 -0.086390145 0.024229372 -0.09400403 0.013856542
-0.03134703 0.0069136973 0.09997433 -0.041864634 -0.1312071 0.074003756 -0.044334613 -0.054738317
-0.0036213945 -0.10923405 0.01776798 0.0051855235 -0.14261 0.111769855 -0.05200836 0.013079903
-0.047627702 -0.0048363823 -0.15718053 -0.085270144 0.098637804 0.03294212 -0.018593058 -0.016632618
-0.056693375 0.08969432 -0.08981324 -0.047251355 -0.06977582 0.025593918 0.10520554 0.16280082
0.094478734 -0.014492266 -0.07423137 0.03606655 -0.05751212 -0.072922125 0.14713368 -0.10521389
-0.10229801 -0.08278919 0.022331294 -7.63466e-05 0.05226188 0.049689557 0.17723651 -0.01578685
-0.10701458 -0.10432276 0.0047395714 -0.005224863 -0.03740872 -0.011938077 -0.17227484 -0.04186524
-0.04338065 0.047355134 0.10965956 -0.040919997 0.06731788 0.00037708055 -0.071418986 -0.15644825
-0.054575074 0.03664838 0.071787156 0.007238629 -0.00081138214 0.044258356 0.156223 -0.08112316
-0.1409599 -0.119569786 -0.07053528 0.12878317 0.048752405 0.18580796 0.0031466247 -0.01613467
-0.051604237 -0.07230624 0.11336476 0.05309983 -0.09433022 0.024384748 0.094227165 0.0002582163
0.13125095 -0.042493295 -0.03028097 0.05040762 0.022981122 0.056333408 0.10537785 -0.13197614
0.055298045 0.1326496 -0.06554118 -0.029523851 0.13663767 0.018670658 -0.06739251 -0.0966467
-0.046619978 -0.15818436 0.09075864 -0.11646326 0.029136084 -0.12310489 0.11746439 0.0053148195
0.13964136 0.04520355 0.0071652518 -0.028760538 0.04153382 0.0996723 0.0534018 -0.09294521
-0.0024668383 -0.0662039 0.013202551 -0.05965776 0.0017395614 -0.0061368058 -0.13406387 -0.11536292
0.08541443 0.064878605 -0.080457 -0.008040608 0.015747434 0.051497 0.005506683 -0.12644307
0.034451563 0.123839304 0.0124663105 0.16209622 0.06728102 0.1083358 0.05344404 0.1497382
0.13423535 0.030668775 0.1023219 -0.03895214 -0.08459684 -0.10957646 -0.234098 0.032576147
-0.0006924914 -0.057146024 -0.07314464 0.011384564 0.025716016 -0.06475694 0.02868433 0.029446365
0.106280476 0.033462506 0.07220235 0.036538057 0.07183091 -0.103823684 -0.06416798 0.07227582
-0.04832419 -0.06800833 -0.13706048 0.06671453 0.027766418 0.071132995 0.05076685 0.18596049
0.035694145 0.14444396 -0.17696469 -0.0031086046 0.040929124 -0.1147535 0.08955057 -0.031887714
00000000: ad34 dfbd 639a 3abe ed40 9f3d fb3b a0bd
00000010: 5f36 c33d 65f0 853d c18b 23be a1ed 1fbe
00000020: 83be 41bd 5243 2c3e 7831 33bd 0aca cd3c
00000030: 6fbd f93d 8124 1fbe 5ecd 95bc a71c 02be
00000040: a435 a93d b973 783d b14a cf3d 4945 1dbe
00000050: d47e 843c 5e50 87bd 0623 a3bc 275b b33d
00000060: 1faf 033d fe7d 963d 5234 8a3d 29ed c6bd
00000070: c382 663d 7b03 b23c b19e fd3d 0d64 f43c
00000080: ccf8 bd3d 8622 84bc 00ea ddbd 2577 3fbc
00000090: 1807 903d f4f2 aabd 770b 253d 9372 dcbc
000000a0: 14b5 ce3d 4632 373d 73c5 013e 08bc c0bd
000000b0: 5763 f33d 7614 ec3d 709c 803d 1724 7ebd
000000c0: 9e56 973d c63b 023e 14d1 473d 7e17 4ebd
000000d0: 3209 1a3d 5996 32bb a5ca 69bc 5cd7 2c3d
000000e0: a217 8fbd 7baa d93d a08d 98bd 6244 f43d
000000f0: 9d86 b03d ae10 9abd 95ac 983c 9687 1fbe
00000100: a212 0ebd a914 903d 99b9 9fbd 82d0 6d3c
00000110: 51ed b0bd ad7c c63c 2f85 c0bd 8d06 633c
00000120: be65 00bd 4c8c e23b 57bf cc3d 407a 2bbd
00000130: 275b 06be 488f 973d 3698 35bd 4935 60bd
00000140: eb54 6dbb 1ab6 dfbd 288e 913c 53eb a93b
00000150: 5b08 12be 98e7 e43d b806 55bd 174d 563c
00000160: 4415 43bd 847a 9ebb eff3 20be 1da2 aebd
00000170: 9e02 ca3d 51ee 063d 7850 98bc 2141 88bc
00000180: 5037 68bd a8b1 b73d 01f0 b7bd a38a 41bd
00000190: a0e6 8ebd 56aa d13c 0176 d73d 42b5 263e
000001a0: 117e c13d f870 6dbc 9e06 98bd 85ba 133d
000001b0: d491 6bbd 3258 95bd 36aa 163e 617a d7bd
000001c0: 9e81 d1bd 618d a9bd 1ef0 b63c 451c a0b8
000001d0: 8e10 563d 4787 4b3d 7d7d 353e 6d53 81bc
000001e0: 762a dbbd 2ca7 d5bd 684e 9b3b 5435 abbb
000001f0: e339 19bd ed97 43bc d168 30be e37a 2bbd
00000200: e9af 31bd 75f7 413d 3195 e03d ba9b 27bd
00000210: f5dd 893d e5b2 c539 1e44 92bd f833 20be
00000220: 1d8a 5fbd 9d1c 163d 2505 933d 0532 ed3b
00000230: efb2 54ba 4048 353d ecf8 1f3e e623 a6bd
00000240: cb57 10be 01e1 f4bd cd74 90bd bcdf 033e
00000250: 9ab0 473d 7144 3e3e 9a37 4e3b db2c 84bc
00000260: f75e 53bd 4b15 94bd c92b e83d 357f 593d
00000270: 3430 c1bd 86c2 c73c 2cfa c03d 3561 8739
00000280: a666 063e 730d 2ebd cc0f f8bc 3878 4e3d
00000290: e842 bc3c dcbd 663d 58d0 d73d c124 07be
000002a0: 3480 623d 4cd5 073e 743a 86bd 01dc f1bc
000002b0: bfea 0b3e 35f3 983c 1605 8abd b4ee c5bd
000002c0: 97f4 3ebd 15fb 21be aadf b93d 4a84 eebd
000002d0: ccae ee3c 6b1e fcbd 2c91 f03d f027 ae3b
000002e0: 25fe 0e3e 5c27 393d 7dca ea3b 389b ebbc
000002f0: 5e1f 2a3d fe20 cc3d d9bb 5a3d 0f5a bebd
00000300: aeaa 21bb e995 87bd 834f 583c b25b 74bd
00000310: ff01 e43a 4217 c9bb 0a48 09be 6543 ecbd
00000320: c3ed ae3d 13df 843d a4c6 a4bd c1bc 03bc
00000330: c300 813c 85ee 523d 6871 b43b 4b7a 01be
00000340: 151d 0d3d 769f fd3d 7f3f 4c3c 8dfc 253e
00000350: a2ca 893d 29df dd3d 23e8 5a3d f854 193e
00000360: fe74 093e 153d fb3c 258e d13d 478c 1fbd
00000370: 1c41 adbd a069 e0bd 63b7 6fbe 916e 053d
00000380: 5088 35ba f311 6abd dbcc 95bd 5386 3a3c
00000390: 65aa d23c 499f 84bd 66fb ea3c 8139 f13c
000003a0: 94a9 d93d fb0f 093d d3de 933d eea8 153d
000003b0: 161c 933d 83a1 d4bd 806a 83bd 5805 943d
000003c0: 96ef 45bd f447 8bbd 9559 0cbe a1a1 883d
000003d0: 6676 e33c 2dae 913d e7f0 4f3d 6d6c 3e3e
000003e0: 0634 123d 1ee9 133e 3b36 35be bbb9 4bbb
000003f0: 4ca5 273d e203 ebbd 4a66 b73d b19c 02bd

conv3.3.bias f4 [12]
-0.054964792 -0.10767775 0.10888748 0.13950963 0.113752104 0.07857347 0.04488648 -0.09537859
0.03392888 -0.1231763 -0.04169602 -0.051892377
00000000: c322 61bd 2786 dcbd 6600 df3d 9ddb 0e3e
00000010: ddf6 e83d 21eb a03d e3da 373d da55 c3bd
00000020: 02f9 0a3d db43 fcbd 72c9 2abd 1a8d 54bd

conv3.4.weight f4 [12]
1.0325325 1.0447428 1.0547159 1.0335873 1.0283899 1.0258024 1.0347615 1.0365506
1.0403703 1.0298679 1.0275997 1.0498966
00000000: 062a 843f 22ba 853f ee00 873f 974c 843f
00000010: 48a2 833f 7e4d 833f 1173 843f b1ad 843f
00000020: db2a 853f b6d2 833f 6388 833f 0363 863f

conv3.4.bias f4 [12]
-0.0055374373 -0.005255794 -0.005219658 -0.0060194987 0.0030785769 -0.005464059 -0.0066560917 -0.005244735
0.0046062693 0.0038469355 0.004440436 0.0042085075
00000000: 6473 b5bb cc38 acbb aa09 abbb 373f c5bb
00000010: f3c1 493b d90b b3bb 581b dabb 07dc abbb
00000020: 30f0 963b de1c 7c3b 1481 913b 85e7 893b

conv3.4.running_mean f4 [12]
0.06743762 -0.26791644 0.023174506 0.27388766 0.236164 0.13673484 0.07490121 -0.015024256
0.046135712 -0.10246903 -0.023280278 -0.1629569
00000000: bc1c 8a3d 582c 89be 76d8 bd3c 013b 8c3e
00000010: fad4 713e 3804 0c3e ce65 993d 4c28 76bc
00000020: cdf8 3c3d 48db d1bd 48b6 bebc 2cde 26be

conv3.4.running_var f4 [12]
0.10319039 0.06284503 0.06248076 0.1219548 0.09110543 0.10413035 0.08835253 0.07456989
0.10764684 0.09710379 0.111859515 0.09258483
00000000: 7c55 d33d e5b4 803d d3eb 7f3d 70c3 f93d
00000010: 7c95 ba3d 4b42 d53d 2cf2 b43d 19b8 983d
00000020: f275 dc3d 5ade c63d 9a16 e53d 1e9d bd3d
