model/AutoY/RAcheckpoint2.pt (torch, 34213 bytes, 51 tensors)

conv1.0.weight f4 [12, 15, 2]
-0.08352404 -0.14709277 0.10090841 0.13036616 -0.09080144 -0.08672222 0.06728467 -0.03181065
0.0065769553 -0.11512348 0.009912343 0.016647225 -0.038065523 -0.076257326 -0.17218372 0.07359438
0.09900911 0.10330122 0.09592037 -0.0819356 0.038735088 -0.09157866 0.01866704 -0.12161893
-0.06180016 0.052538972 0.023747606 -0.027382994 0.07408984 0.14283203 0.1142269 0.13904925
-0.0035090602 -0.09055816 0.13614112 0.0021868858 0.18544774 -0.1537712 0.1499992 0.07998315
-0.17065875 -0.0409239 -0.02965271 -0.070424825 -0.055408545 -0.1367792 0.14382163 -0.09072813
-0.010734343 -0.16305359 -0.045582257 0.11979443 0.04089866 -0.110516205 0.14948352 -0.16226785
-0.16671094 -0.08180768 -0.18040617 -0.07720719 0.07630746 -0.09471714 -0.056815557 -0.14048117
-0.11330699 -0.010604785 0.08275509 0.04563834 -0.12327868 0.049329627 -0.010578185 -0.06470208
0.07358578 -0.19955215 -0.092270456 -0.11920617 -0.23735414 -0.17159198 0.017537126 -0.061061166
0.19143319 -0.19778012 0.12679619 0.11612708 -0.17831855 0.05793924 0.075268306 -0.15024613
-0.11662155 -0.015795426 0.09435581 0.028624978 -0.08606957 0.14212894 -0.10977457 0.066695794
-0.12569481 -0.112151906 0.08854234 -0.086197555 0.25707486 -0.14780764 0.018658184 -0.043841764
-0.09020533 -0.1336914 0.12787913 0.04071312 0.016975708 -0.018092863 0.05058315 0.2036823
0.12612456 0.011661126 -0.08318072 -0.050742976 -0.028183892 0.14456834 -0.19904856 -0.03896384
-0.0747343 0.1066551 -0.12696955 0.0029838115 -0.12371476 -0.17828062 -0.11891172 0.07181713
0.07142189 -0.08807191 0.058870904 -0.08382482 -0.21832432 -0.18601333 -0.052440718 -0.1539123
-0.085145734 -0.07351192 0.0154675795 -0.14055581 -0.12748079 -0.031084409 -0.2048449 0.052837446
-0.15911326 -0.14768222 0.21133998 -0.15381695 0.22319624 0.031554714 0.12187875 0.13100632
-0.043172356 0.01079398 0.09445417 0.045127276 0.16466863 0.14963089 -0.13421687 -0.0028903729
0.02946424 -0.089924134 -0.07141285 -0.1769085 -0.05280099 -0.1955516 0.06405774 0.16784349
-0.029086474 0.047558893 0.0920291 0.09494736 0.011631293 -0.014822046 0.08169804 -0.095919065
0.06495776 -0.0299305 -0.1649628 0.059096992 0.07433446 -0.027781269 0.089092374 0.024682444
-0.09206468 -0.10663714 0.14738601 0.17064755 -0.04772855 -0.031204704 -0.11438269 0.021538932
0.033723537 0.11383531 0.16700235 0.13503848 -0.052727524 -0.18292484 -0.12302057 -0.14179225
0.23991428 0.14908683 -0.039901264 -0.2194277 0.10546033 -0.11083405 0.0628185 -0.15708643
-0.14161584 -0.0004626454 -0.060881995 -0.031707153 0.1586137 -0.11391812 -0.022277262 0.16703959
0.012834668 0.1024827 0.16754086 0.07660993 -0.05702865 0.07730949 0.07649034 -0.124060474
0.021114012 0.1825647 -0.03227705 0.13485779 0.001961897 -0.06835119 0.03484335 0.07251536
-0.12171544 -0.023764763 0.052258633 0.1390596 0.10192127 -0.18722278 -0.071289115 -0.094190024
-0.048499744 0.10917706 -0.04506217 -0.13048235 -0.012721939 0.11084854 0.13046947 0.0341709
0.13832578 0.11638728 -0.21307042 -0.16538976 0.19241907 -0.11572826 0.13422878 0.07693045
00000000: a70e abbd 7d9f 16be 12a9 ce3d b57e 053e
00000010: 1bf6 b9bd 6b9b b1bd 8ccc 893d e24b 02bd
00000020: 8083 d73b dcc5 ebbd 6167 223c c35f 883c
00000030: 98ea 1bbd cd2c 9cbd ee50 30be a6b8 963d
00000040: 4ac5 ca3d 978f d33d e671 c43d dacd a7bd
00000050: afa8 1e3d 988d bbbd 9feb 983c 5813 f9bd
00000060: 2a22 7dbd 1b33 573d 578a c23c 4d52 e0bc
00000070: 6abc 973d 8f42 123e cbef e93d ed62 0e3e
00000080: 43f8 65bb 8e76 b9bd 9468 0b3e db51 0f3b
00000090: 03e6 3d3e 3376 1dbe 6499 193e 35ce a33d
000000a0: 2bc1 2ebe d29f 27bd 3dea f2bc e43a 90bd
000000b0: 12f4 62bd d90f 0cbe fa45 133e abcf b9bd
000000c0: 19df 2fbc 85f7 26be 76b4 3abd c856 f53d
000000d0: 5a85 273d 5256 e2bd 3512 193e 8b29 26be
000000e0: 46b6 2abe c98a a7bd 65bc 38be ce1e 9ebd
000000f0: 1647 9c3d 0ffb c1bd 6eb7 68bd 4cda 0fbe
00000100: 7f0d e8bd b1bf 2dbc 807b a93d 45ef 3a3d
00000110: 8879 fcbd dd0d 4a3d 2050 2dbc 8682 84bd
00000120: 24b4 963d 6657 4cbe 4bf8 bcbd 5d22 f4bd
00000130: f70c 73be cfb5 2fbe 05aa 8f3c 461b 7abd
00000140: 1007 443e df86 4abe dcd6 013e 09d4 ed3d
00000150: 2399 36be b251 6d3d 4526 9a3d 1fda 19be
00000160: 47d7 eebd 6965 81bc 9e3d c13d ee7e ea3c
00000170: 3e45 b0bd 408a 113e 7dd1 e0bd ce97 883d
00000180: 24b6 00be e6af e5bd b055 b53d 5888 b0bd
00000190: 519f 833e e35a 17be 0cd9 983c 6c93 33bd
000001a0: 92bd b8bd 66e6 08be bff2 023e cdc2 263d
000001b0: a410 8b3c 7c37 94bc 4730 4f3d 1892 503e
000001c0: cc26 013e 4f0e 3f3c a75a aabd ded7 4fbd
000001d0: e8e1 e6bc b909 143e 63d3 4bbe 8c98 1fbd
000001e0: 4c0e 99bd fd6d da3d 4e04 02be 0d8c 433b
000001f0: 2a5e fdbd 328f 36be fd87 f3bd dc14 933d
00000200: a445 923d 0c5f b4bd 9e22 713d 59ac abbd
00000210: 6990 5fbe 477a 3ebe 14cc 56bd 309b 1dbe
00000220: e360 aebd 6b8d 96bd bb6b 7d3c dded 0fbe
00000230: 538a 02be bba4 febc ddc2 51be 146c 583d
00000240: 96ee 22be 023a 17be 8269 583e 3182 1dbe
00000250: 8e8d 643e 843f 013d 919b f93d 8526 063e
00000260: 7fd5 30bd 3cd9 303c 3071 c13d 61d7 383d
00000270: e59e 283e d738 193e 2670 09be 696c 3dbb
00000280: fd5e f13c 252a b8bd e640 92bd 8027 35be
00000290: da45 58bd ae3e 48be b430 833d 2adf 2b3e
000002a0: c246 eebc 1dcd 423d c179 bc3d c373 c23d
000002b0: 2e91 3e3c 2bd8 72bc 4d51 a73d 3771 c4bd
000002c0: 9308 853d cf30 f5bc 02ec 28be b00f 723d
000002d0: aa3c 983d 8b95 e3bc 1076 b63d d632 ca3c
000002e0: 688c bcbd 9364 dabd 5cec 163e 3bbe 2e3e
000002f0: 037f 43bd 02a1 ffbc 7941 eabd 6a72 b03c
00000300: b121 0a3d 7d22 e93d aa02 2b3e 8747 0a3e
00000310: d1f8 57bd a650 3bbe 35f2 fbbd fd31 11be
00000320: 17ac 753e 38aa 183e 826f 23bd a8b1 60be
00000330: 96fb d73d f6fc e2bd fca6 803d 44db 20be
00000340: be03 11be 378f f2b9 665f 79bd 5cdf 01bd
00000350: a16b 223e e74d e9bd ce7e b6bc 6d0c 2b3e
00000360: 8048 523c 73e2 d13d d58f 2b3e abe5 9c3d
00000370: e096 69bd 7054 9e3d f8a6 9c3d 6b13 febd
00000380: 4bf7 ac3c 3ef2 3a3e f134 04bd 2918 0a3e
00000390: 2b93 003b b5fb 8bbd e7b7 0e3d ef82 943d
000003a0: f245 f9bd 52ae c2bc 260d 563d a465 0e3e
000003b0: 19bc d03d 54b7 3fbe 0700 92bd b3e6 c0bd
000003c0: aba7 46bd 3998 df3d 1c93 38bd 2a9d 05be
000003d0: ae6f 50bc 8f04 e33d ca99 053e c9f6 0b3d
000003e0: 46a5 0d3e 745c ee3d 222f 5abe ef5b 29be
000003f0: 8109 453e f002 edbd 4573 093e b68d 9d3d

conv1.0.bias f4 [12]
-0.008606279 0.12491097 -0.05197464 -0.06703022 0.039581317 -0.045729376 -0.047213934 0.119292386
-0.053310778 0.05366587 -0.1411187 -0.16259192
00000000: 5a01 0dbc 53d1 ff3d 5ce3 54bd 2447 89bd
00000010: 0520 223d ba4e 3bbd 6663 41bd 914f f43d
00000020: 675c 5abd bed0 5b3d 6c81 10be 7f7e 26be

conv1.1.weight f4 [12]
1.005237 0.9964528 1.0220022 0.9651014 1.0013688 0.9641523 0.9784655 0.9863056
1.0248028 1.0437146 1.023045 0.99726486
00000000: 9bab 803f 8817 7f3f f8d0 823f e310 773f
00000010: da2c 803f afd2 763f b77c 7a3f 867e 7c3f
00000020: bd2c 833f 7198 853f 23f3 823f c04c 7f3f

conv1.1.bias f4 [12]
0.008676217 0.032082252 -0.033581037 -0.018796105 0.0020889435 -0.05202966 -0.0049047177 -0.034905404
0.054536708 -0.006193075 -0.0090184 -0.0027043272
00000000: b126 0e3c ae68 033d 458c 09bd 4afa 99bc
00000010: a8e6 083b 0e1d 55bd c1b7 a0bb f8f8 0ebd
00000020: e261 5f3d 47ef cabb e9c1 13bc 153b 31bb

conv1.1.running_mean f4 [12]
-0.0943018 0.76700944 -0.5538041 0.1895024 -0.76069605 0.77985793 0.1739281 0.45130518
-0.0274984 0.36942026 -0.21956359 0.40538844
00000000: 4d21 c1bd bb5a 443f 1bc6 0dbf eb0c 423e
00000010: fabc 42bf c5a4 473f 351a 323e 7911 e73e
00000020: 5344 e1bc a724 bd3e 47d5 60be 138f cf3e

conv1.1.running_var f4 [12]
4.5226197 6.7340345 6.9398055 5.7468805 7.2515254 6.7039933 3.8898296 6.3368373
4.595891 4.0459647 8.137362 6.598003
00000000: 4db9 9040 367d d740 e312 de40 72e6 b740
00000010: 7f0c e840 1d87 d640 f8f2 7840 5fc7 ca40
00000020: 8a11 9340 8b78 8140 a232 0241 d722 d340

conv1.3.weight f4 [12, 12, 2]
-0.026524635 0.1264272 0.0369329 0.058268983 0.043975536 -0.098733164 0.12859021 0.114898525
0.06109798 -0.06272295 -0.16458336 0.13740748 0.12560073 -0.19744664 -0.064137496 0.04698047
0.053135343 0.098443516 -0.06459729 -0.108872384 0.22748654 -0.10513889 -0.17303494 -0.0025262635
-0.22365719 0.12098755 0.10269477 -0.096243545 -0.13151146 -0.08142795 0.11020095 0.08242796
0.086534426 0.12695259 -0.17520806 -0.110162534 -0.17371748 0.18861093 0.028535953 0.14301504
-0.057505343 0.18330188 -0.035504147 -0.059612095 0.10869227 0.1648935 -0.12294556 -0.12087089
-0.05247131 0.057787888 -0.136999 0.012025686 0.18885018 -0.17746364 -0.10427719 0.060435526
0.20490728 0.116025604 0.14771205 0.058387283 0.060049627 -0.11429902 -0.106227726 0.06417471
0.10780286 0.0904026 0.03767174 0.03119648 -0.092176445 -0.0017837834 0.06936594 -0.0064798295
0.09348843 -0.11826354 -0.18160115 -0.068992406 0.26940703 -0.021241484 -0.18093075 0.072717026
-0.07926603 0.09231719 0.11010711 0.083703496 0.0345765 -0.07859227 0.14593774 0.020393386
0.055475894 0.00055764633 0.14684886 0.15665919 0.18940589 -0.110791124 0.031915136 -0.15195812
0.0764259 -0.109876096 -0.13885313 0.015387829 0.011636512 -0.053014994 -0.030204553 0.04919504
-0.045967065 -0.09176582 -0.09428159 -0.02535443 -0.14431605 -0.15488946 -0.036628608 -0.012317974
-0.11715708 -0.060855247 -0.19964473 0.1673187 -0.08585997 0.13742203 -0.05300073 -0.14714025
0.12718013 0.20475394 -0.1883414 0.17247073 0.13132879 -0.039744228 -0.052239496 -0.04634112
0.02022226 -0.21558833 -0.02500064 0.18584637 -0.08318392 0.15822048 0.09321944 -0.040440917
0.04421045 0.14840902 -0.009014177 -0.08827749 -0.0677711 -0.16071327 -0.08892382 0.19144575
-0.07066141 -0.05981911 0.08377395 0.16486044 -0.10564552 0.014195017 0.15465292 -0.15602094
-0.18462858 -0.04967889 0.020589279 -0.0853247 -0.14809461 -0.111819305 -0.22709247 0.18583731
-0.004930091 0.07579846 -0.21544258 0.011264893 -0.11144486 0.09401177 -0.046863016 -0.2380654
-0.16520368 0.100010596 0.066483445 0.010967414 -0.112809084 0.16704576 -0.117184125 0.019131035
-0.19086474 0.007158915 0.10657386 0.048164997 -0.14084527 -0.16725405 0.014750377 0.25082588
-0.13147469 0.0030104425 -0.17941289 0.07308516 0.15220617 -0.11949953 -0.111790776 0.020189634
-0.017107278 -0.07744304 0.14986852 0.09647054 0.06258504 -0.19676356 0.148947 0.080560714
-0.17994781 0.16152917 0.1761876 0.061628483 0.2080691 -0.11832974 0.12541388 0.05820718
-0.06284058 0.09124956 -0.040956903 0.21549498 -0.035975445 -0.1231335 -0.11122899 0.03074232
-0.064768866 -0.07059583 0.12712355 -0.07758029 0.011193567 0.010416681 0.031215036 -0.08423157
-0.18337151 -0.069914356 0.06224509 0.1507255 -0.101087846 -0.066556975 -0.12448426 0.079639174
0.23618193 0.060831647 -0.158213 0.02933278 0.08836661 0.023818333 -0.12648062 0.09309019
0.14766543 -0.1223924 0.16305386 0.100094184 -0.11639791 -0.07503834 -0.13584068 0.1563598
-0.1811868 0.09338206 0.122849025 -0.12722227 -0.13086317 -0.11736016 -0.10841704 -0.27706242
00000000: 314a d9bc 2276 013e f446 173d 75ab 6e3d
00000010: b11f 343d 9d34 cabd 27ad 033e eb4f eb3d
00000020: e041 7a3d e474 80bd 8a88 28be 8cb4 0c3e
00000030: 7a9d 003e 742f 4abe 855a 83bd 986e 403d
00000040: 72a4 593d c19c c93d 954b 84bd 7cf8 debd
00000050: 3bf2 683e 0f53 d7bd 1230 31be ab8f 25bb
00000060: 6406 65be 52c8 f73d a351 d23d 561b c5bd
00000070: f1aa 06be b2c3 a6bd 09b1 e13d fecf a83d
00000080: f638 b13d dcff 013e be69 33be e59c e1bd
00000090: ffe2 31be 3923 413e 3bc4 e93c 8972 123e
000000a0: b98a 6bbd 7db3 3b3e cc6c 11bd d02b 74bd
000000b0: 0e9a de3d d7d9 283e e2ca fbbd 288b f7bd
000000c0: 28ec 56bd feb2 6c3d 7749 0cbe 6207 453c
000000d0: f161 413e 07b9 35be 488f d5bd 3e8b 773d
000000e0: 37d3 513e d59e ed3d d441 173e 8127 6f3d
000000f0: 99f6 753d 9b15 eabd ec8d d9bd 086e 833d
00000100: bfc7 dc3d 0025 b93d af4d 1a3d c38f ff3c
00000110: 01c7 bcbd d7cd e9ba bb0f 8e3d c054 d4bb
00000120: dd76 bf3d 2834 f2bd a7f5 39be e44b 8dbd
00000130: b8ef 893e 9f02 aebc e945 39be aaec 943d
00000140: 3a56 a2bd cb10 bd3d d67f e13d bd6c ab3d
00000150: 17a0 0d3d fcf4 a0bd b470 153e 0810 a73c
00000160: b13a 633d 032f 123a 8c5f 163e 446b 203e
00000170: 9ef3 413e 75e6 e2bd 72b9 023d e99a 1bbe
00000180: 2f85 9c3d b806 e1bd 842f 0ebe 3c1d 7c3c
00000190: 12a7 3e3c 4026 59bd 8a6f f7bc bd80 493d
000001a0: f647 3cbd b8ef bbbd b516 c1bd 18b4 cfbc
000001b0: 96c7 13be 589b 1ebe e107 16bd 54d1 49bc
000001c0: 0df0 efbd 5a43 79bd ab6f 4cbe 9855 2b3e
000001d0: 5ad7 afbd 5cb8 0c3e 4b17 59bd efab 16be
000001e0: 823b 023e 04ab 513e 91dc 40be 2b9c 303e
000001f0: 0e7b 063e d8ca 22bd 15f9 55bd 30d0 3dbd
00000200: 27a9 a53c 30c3 5cbe 24ce ccbc 834e 3e3e
00000210: 555c aabd 8d04 223e d5e9 be3d 60a5 25bd
00000220: 0416 353d 89f8 173e 33b0 13bc d4ca b4bd
00000230: 93cb 8abd 0592 24be b11d b6bd 5b0a 443e
00000240: eeb6 90bd e204 75bd ad91 ab3d 2dd1 283e
00000250: ae5c d8bd 3792 683c 565d 1e3e f4c3 1fbe
00000260: 460f 3dbe 177c 4bbd d9aa a83c b7be aebd
00000270: 1da6 17be 8501 e5bd ee8a 68be 234c 3e3e
00000280: 9a8c a1bb 393c 9b3d fb9c 5cbe 6390 383c
00000290: 343d e4bd 3e89 c03d 6ff3 3fbd 6bc7 73be
000002a0: 272b 29be 5bd2 cc3d 7928 883d abb0 333c
000002b0: 7308 e7bd 0b0e 2b3e 3bfe efbd b0b8 9c3c
000002c0: 0c72 43be 5595 ea3b 6543 da3d a948 453d
000002d0: be39 10be a544 2bbe 91ab 713c 406c 803e
000002e0: 4da1 06be d84a 453b 03b8 37be acad 953d
000002f0: efdb 1b3e 2bbc f4bd 90f2 e4bd bb64 a53c
00000300: 9024 8cbc 759a 9ebd 2277 193e 5992 c53d
00000310: 962c 803d 637c 49be 9085 183e 04fd a43d
00000320: 3d44 38be e767 253e 866a 343e 266e 7c3d
00000330: 1110 553e dd56 f2bd 7f6c 003e a76a 6e3d
00000340: 90b2 80bd 0de1 ba3d 6dc2 27bd b7aa 5c3e
00000350: fd5a 13bd 6b2d fcbd 06cc e3bd 51d7 fb3c
00000360: 8aa5 84bd 8c94 90bd ad2c 023e 6ae2 9ebd
00000370: 3965 373c baaa 2a3c adb6 ff3c 9a81 acbd
00000380: bec5 3bbe 422f 8fbd b5f4 7e3d c957 1a3e
00000390: 2507 cfbd 064f 88bd 9bf1 febd dd19 a33d
000003a0: add9 713e 9b2a 793d 9702 22be 4c4b f03c
000003b0: 8ef9 b43d aa1e c33c 2384 01be 12a6 be3d
000003c0: 9b35 173e dea8 fabd 97f7 263e 2efe cc3d
000003d0: 0762 eebd b4ad 99bd d219 0bbe c91c 203e
000003e0: 0889 39be 183f bf3d 4598 fb3d 8e46 02be
000003f0: ff00 06be 865a f0bd c109 debd 20db 8dbe

conv1.3.bias f4 [12]
-0.0770927 -0.13991308 0.057366777 0.17686214 -0.06416889 0.10179009 -0.08795707 -0.19461402
-0.17334998 0.066688985 -0.0023901884 0.18863352
00000000: c7e2 9dbd 6045 0fbe 6df9 6a3d 591b 353e
00000010: fb6a 83bd 5377 d03d d622 b4bd e648 47be
00000020: a882 31be 3c94 883d b5a4 1cbb 2529 413e

conv1.4.weight f4 [12]
1.0385494 1.0097779 1.0174361 1.0120084 1.0144581 0.9947221 1.003367 1.0168104
1.0043666 1.0152807 1.0196832 1.014877
00000000: 30ef 843f 6740 813f 593b 823f 7e89 813f
00000010: c3d9 813f 1ca6 7e3f 546e 803f d826 823f
00000020: 168f 803f b8f4 813f fb84 823f 7de7 813f

conv1.4.bias f4 [12]
-0.002516907 -0.0013397334 -0.003485054 -0.0016654178 0.00038911897 -0.004304416 -0.0051463135 -0.0021872483
0.0002722402 -0.0010141629 0.00027787025 0.00022471271
00000000: b1f2 24bb fe99 afba 8165 64bb 264a daba
00000010: aa02 cc39 0f0c 8dbb 68a2 a8bb f057 0fbb
00000020: 76bb 8e39 a9ed 84ba 1daf 9139 dca0 6b39

conv1.4.running_mean f4 [12]
-0.036656775 -0.15383711 0.23382168 0.35371011 -0.47357014 0.21167544 -0.44649535 -0.37268838
0.06145607 0.025432007 -0.12191893 -0.0827143
00000000: 6a25 16bd 7a87 1dbe f36e 6f3e 7e19 b53e
00000010: c977 f2be 72c1 583e 0a9b e4be 03d1 bebe
00000020: 5cb9 7b3d c956 d03c a2b0 f9bd 1d66 a9bd

conv1.4.running_var f4 [12]
0.048949476 0.0942214 0.06449887 0.10535387 0.24043164 0.1589861 0.13582909 0.10099288
0.1884755 0.06552569 0.10729979 0.15092444
00000000: 3f7f 483d 26f7 c03d fc17 843d c5c3 d73d
00000010: b633 763e 41cd 223e c816 0b3e 5bd5 ce3d
00000020: b9ff 403e 5532 863d febf db3d f08b 1a3e

conv2.0.weight f4 [12, 15, 3]
-0.0196699 -0.05307031 -0.10993872 0.07314708 -0.093351424 -0.07540581 -0.109016806 -0.14219342
0.043959968 0.13358608 0.03933993 -0.06425817 0.11942585 -0.14879239 -0.106781304 0.11669534
-0.08908484 0.07610636 -0.0053846454 0.02092697 0.0037333155 -0.10449694 0.2167388 -0.039148953
-0.07267073 -0.0002887639 -0.11154681 0.061559554 0.019793913 -0.009354335 0.028895754 0.11156431
0.066283494 -0.027400902 0.022112055 -0.08386882 0.06392402 0.16123873 0.06535725 -0.02301407
0.040840246 0.097996704 0.06666064 0.028818395 0.15517464 -0.07411155 0.054677866 -0.03458609
-0.024268722 -0.037010204 -0.011667374 0.0074878857 -0.093093775 0.12670143 0.11246941 0.10935983
0.06668159 0.10762064 0.10443956 0.053227004 -0.006856226 0.04292252 0.005613538 -0.0061389
-0.12219945 0.10637788 0.09193557 -0.060575347 0.011079478 0.06742586 -0.029601859 0.09500541
-0.10101185 -0.15520626 0.14242311 0.012001981 0.009401149 0.028225267 -0.081905454 -0.12505054
0.15400116 -0.050921008 0.1330258 -0.078652635 -0.04830027 -0.03056187 0.07095726 0.06630365
-0.04466758 0.16822979 -0.08839763 0.10957981 -0.056527305 0.0712499 0.027379664 0.086224414
-0.01578273 -0.064629994 0.125114 -0.08807726 0.026024282 -0.008069669 0.09987069 -0.0979252
-0.0028986551 -0.03745145 -0.05118124 0.005479247 -0.1304215 -0.010134991 0.0514728 -0.05070564
0.06786058 0.06747852 0.192574 -0.0019464911 0.082790665 -0.13931431 -0.04682355 -0.038103584
-0.030215958 0.1560919 0.10187708 0.069551624 -0.0094241155 0.092789404 -0.03681944 -0.1160705
-0.01518961 0.09822312 -0.12653768 0.10651176 -0.026542524 -0.03732256 -0.12797977 0.14643274
0.011209079 -0.11824014 0.010881228 -0.001140103 0.001238013 0.09337922 0.097237535 -0.09981601
-0.016483149 0.021452928 0.048156526 -0.04549565 0.039304625 -0.00643028 0.063567616 0.0065697036
-0.07870634 0.12551375 -0.063649885 0.070693016 -0.06917604 0.07044547 0.112348214 0.15219629
-0.12887006 -0.020760732 0.12619779 0.124033496 -0.028838595 -0.100370534 -0.060154695 0.06675952
-0.06584927 0.0012303846 0.00811057 0.093186945 -0.0024058584 -0.089987434 0.06286602 0.06848604
-0.049803976 0.007548548 0.0057917447 -0.040571857 -0.050648723 0.08236035 0.10016336 -0.107398525
0.105431445 0.10335257 -0.1337179 -0.08427145 -0.12125616 0.038893525 -0.15068972 0.13876425
-0.09094244 -0.037165098 0.08759245 0.061662756 -0.05316408 -0.07305983 -0.021407552 -0.11072921
0.07912454 -0.101074316 -0.041885555 0.060774554 0.06624943 0.071642995 0.15083157 0.07640911
0.05003308 0.059538215 -0.02495959 -0.011584501 -0.0104523925 0.11241517 -0.116641864 0.09717882
-0.08912292 -0.057586752 0.07592729 0.054973785 0.116212375 0.15632862 0.12200958 0.11314306
0.0047826264 -0.027440682 0.09479555 -0.06279214 -0.05355118 0.031162038 0.03417078 -0.019856531
-0.09982162 0.13448645 0.11998451 0.13481824 0.06888454 0.095522635 0.019163392 0.13665281
0.06620312 0.030135434 0.08054158 0.038938034 -0.035636045 -0.0608222 0.009539513 0.08588794
-0.059130162 -0.08088668 -0.05547697 -0.10082354 -0.039673146 0.043514747 -0.10355335 -0.1449958
00000000: c522 a1bc 4160 59bd 8d27 e1bd 23ce 953d
00000010: 082f bfbd 5c6e 9abd 3444 dfbd 279b 11be
00000020: 5e0f 343d caca 083e e822 213d ca99 83bd
00000030: 8a95 f43d 085d 18be 28b0 dabd f7fd ee3d
00000040: 1d72 b6bd a7dd 9b3d ae71 b0bb 096f ab3c
00000050: a4aa 743b 7e02 d6bd c7f0 5d3e a75a 20bd
00000060: 64d4 94bd 3c65 97b9 a772 e4bd df25 7c3d
00000070: d826 a23c ed42 19bc cab6 ec3c d47b e43d
00000080: a4bf 873d db77 e0bc 5724 b53c 6ac3 abbd
00000090: 99ea 823d c41b 253e 06da 853d 0188 bcbc
000000a0: 1a48 273d 7fb2 c83d 6085 883d 8e14 ec3c
000000b0: 1ae6 1e3e ccc7 97bd e6f5 5f3d 25aa 0dbd
000000c0: 33cf c6bc 0398 17bd 8328 3fbc f05c f53b
000000d0: f3a7 bebd 05be 013e 5d56 e63d 0cf8 df3d
000000e0: 5c90 883d 3668 dc3d 68e4 d53d 8f04 5a3d
000000f0: 31aa e0bb 86cf 2f3d c5f1 b73b d328 c9bb
00000100: b543 fabd a5dc d93d b748 bc3d db1d 78bd
00000110: b386 353c 9216 8a3d 997f f2bc 3292 c23d
00000120: 4ddf cebd 64ee 1ebe 5dd7 113e f5a3 443c
00000130: 4707 1a3c ad38 e73c 0cbe a7bd 400d 00be
00000140: 7bb2 1d3e 8c92 50bd ea37 083e a214 a1bd
00000150: 81d6 45bd e35c fabc 0a52 913d 35ca 873d
00000160: 5af5 36bd 6e44 2c3e d109 b5bd 616b e03d
00000170: 2d89 67bd 78eb 913d 514b e03c 6d96 b03d
00000180: c94a 81bc bb5c 84bd e21d 003e da61 b4bd
00000190: e030 d53c a536 04bc 0189 cc3d 028d c8bd
000001a0: 5df7 3dbb b166 19bd 6ba3 51bd 418b b33b
000001b0: 378d 05be 3c0d 26bc 25d5 523d b8b0 4fbd
000001c0: 7dfa 8a3d 2e32 8a3d 1e32 453e 6721 ffba
000001d0: 278e a93d 69a8 0ebe 0dca 3fbd 8112 1cbd
000001e0: 7587 f7bc 8ed6 1f3e eea4 d03d 1571 8e3d
000001f0: 9b67 1abc 5f08 be3d fbcf 16bd 5fb6 edbd
00000200: d8dd 78bc 3429 c93d 1893 01be d622 da3d
00000210: b56f d9bc 8adf 18bd 210d 03be 77f2 153e
00000220: 49a6 373c e327 f2bd 2e47 323c 826f 95ba
00000230: d344 a23a 9b3d bf3d 7924 c73d 566c ccbd
00000240: ab07 87bc 0dbe af3c c73f 453d a659 3abd
00000250: e3fd 203d 19b5 d2bb bd2f 823d ab46 d73b
00000260: ca30 a1bd ad86 003e df5a 82bd 80c7 903d
00000270: 2bac 8dbd b745 903d d216 e63d 58d9 1b3e
00000280: 83f6 03be 6912 aabc fe39 013e 4605 fe3d
00000290: eb3e ecbc 118f cdbd c564 76bd 37b9 883d
000002a0: fbdb 86bd db44 a13a 32e2 043c ccd8 be3d
000002b0: 9bab 1dbb 554b b8bd e6bf 803d 6942 8c3d
000002c0: 41ff 4bbd cf59 f73b adc8 bd3b ad2e 26bd
000002d0: 0975 4fbd 8bac a83d 7322 cd3d c2f3 dbbd
000002e0: 71ec d73d 83aa d33d 58ed 08be 8396 acbd
000002f0: 2655 f8bd d14e 1f3d 684e 1abe 3718 0e3e
00000300: 0840 babd 6e3a 18bd ac63 b33d 1692 7c3d
00000310: 94c2 59bd 64a0 95bd e45e afbc ffc5 e2bd
00000320: 0c0c a23d 0d00 cfbd 3090 2bbd bdee 783d
00000330: c8ad 873d 90b9 923d 9773 1a3e 617c 9c3d
00000340: 7def 4c3d 58de 733d 0e78 ccbc ebcc 3dbc
00000350: 8340 2bbc ed39 e63d eee1 eebd b005 c73d
00000360: 1486 b6bd 16e0 6bbd c47f 9b3d 312c 613d
00000370: c100 ee3d 9c14 203e 29e0 f93d 8cb7 e73d
00000380: 94b7 9c3b 48cb e0bc 2b24 c23d 2a99 80bd
00000390: 7b58 5bbd 8847 ff3c a9f6 0b3d 2aaa a2bc
000003a0: 476f ccbd d1b6 093e 70ba f53d cb0d 0a3e
000003b0: 5613 8d3d 5fa1 c33d 8cfc 9c3c b7ee 0b3e
000003c0: 8095 873d 96de f63c fcf2 a43d 7d7d 1f3d
000003d0: 1af7 11bd b320 79bd 9e4b 1c3c 04e6 af3d
000003e0: 7832 72bd eaa7 a5bd d23b 63bd 927c cebd
000003f0: 4f80 22bd 853c 323d c713 d4bd c779 14be

conv2.0.bias f4 [12]
0.06547199 0.12678646 0.1157814 0.081898265 0.008955625 0.06512249 -0.123737305 -0.14505865
0.034831237 -0.12706544 0.1587832 -0.10338357
00000000: 2e16 863d 4fd4 013e cc1e ed3d 47ba a73d
00000010: 9dba 123c f15e 853d fc69 fdbd 418a 14be
00000020: 33ab 0e3d 711d 02be 1098 223e c4ba d3bd

conv2.1.weight f4 [12]
1.0421147 1.0206779 0.9953016 0.97284436 0.9833704 1.0293546 0.97454387 0.9974572
0.990588 1.0452255 0.9842009 0.9944099
00000000: 0464 853f 93a5 823f 16cc 7e3f 540c 793f
00000010: 2abe 7b3f e4c1 833f b57b 793f 5b59 7f3f
00000020: 2d97 7d3f f3c9 853f 97f4 7b3f a691 7e3f

conv2.1.bias f4 [12]
0.047431365 -0.010951561 -0.08833874 0.00940058 -0.017207382 -0.037152406 -0.069158144 -0.06312946
0.004797785 -0.038264822 0.029866712 -0.045062356
00000000: 6447 423d 2d6e 33bc f1ea b4bd e404 1a3c
00000010: 7ff6 8cbc 1f2d 18bd c9a2 8dbd 054a 81bd
00000020: bd36 9d3b 93bb 1cbd 09ab f43c 4e93 38bd

conv2.1.running_mean f4 [12]
-0.33563516 -0.11082169 0.5414286 0.19665122 0.027811093 -0.3337717 -0.14126472 -1.2083842
0.09371338 -0.23906973 -0.10144223 -0.3873405
00000000: 5fd8 abbe 7bf6 e2bd 119b 0a3f f05e 493e
00000010: 17d4 e33c 20e4 aabe b3a7 10be 55ac 9abf
00000020: cdec bf3d b2ce 74be f2c0 cfbd 7e51 c6be

conv2.1.running_var f4 [12]
5.8482456 3.2602408 4.3056717 5.909581 6.0823736 3.2618473 5.01427 8.806864
4.9199996 4.0105968 6.6785307 5.237486
00000000: d424 bb40 c9a7 5040 10c8 8940 4a1b bd40
00000010: cea2 c240 1bc2 5040 e674 a040 eae8 0c41
00000020: a370 9d40 cf56 8040 86b6 d540 7c99 a740

conv2.3.weight f4 [12, 12, 3]
-0.08879271 -0.08358339 -0.054145213 0.03648522 -0.16675179 -0.119147725 -0.07874146 0.03527081
0.08576785 -0.109111264 -0.016452909 0.11421828 0.03505267 0.05818272 -0.02197812 -0.078994386
-0.12859929 0.013891121 -0.024276527 0.05335738 -0.061997425 0.07654453 0.14489041 -0.06928285
-0.045809016 -0.12996349 0.109134704 -0.15106857 -0.05908996 -0.07745741 -0.06739179 -0.0004806332
0.024680553 0.13290384 0.056098316 -0.10263235 -0.01909188 0.028998703 -0.06469559 0.1159158
0.03530858 0.1190977 -0.15452154 -0.03385324 -0.06920983 0.07550391 0.0885601 0.016516956
0.09218605 0.15926939 0.0847718 -0.1500183 -0.21442333 -0.10459879 0.05289488 -0.013278225
-0.1677556 0.04013489 0.089706555 -0.0315643 -0.2155066 0.09714406 -0.012464847 0.15337601
0.104811914 0.024497332 0.027917737 0.044866018 -0.0787907 -0.07882687 0.112693325 -0.12141508
-0.079079725 -0.15758902 -0.02853472 -0.06083132 0.04459408 -0.03347736 -0.0011666339 -0.13800785
0.11167736 0.122491285 -0.08692948 0.0063906466 0.08186639 0.017327076 0.12053244 0.059449065
0.17958376 0.03806599 0.009720202 -0.101833254 0.12861803 -0.108247615 0.032039024 0.15614714
-0.028478708 -0.2154547 -0.08866958 -0.020818891 -0.060549 0.08160143 0.020096954 -0.14292656
0.046274822 0.009973811 0.04224491 0.19733024 -0.10033146 -0.06664216 -0.11043434 -0.04192256
-0.11308949 0.0910098 0.048475206 0.15798733 -0.0081480285 -0.062666066 -0.03206169 -0.010835123
0.009239698 -0.14497928 -0.01560393 -0.015667513 -0.026735716 -0.01242366 -0.049729403 0.13803414
-0.048790637 0.016979363 -0.034958497 -0.06537355 0.11584378 -0.01446221 0.060509346 0.120774336
0.07292009 -0.053991217 -0.14179292 0.15564218 -0.12563558 -0.06566188 -0.026024194 0.024922706
0.10309427 0.050896864 -0.17540622 -0.07531144 0.14380266 0.058741137 -0.06692964 -0.14135939
0.034370556 0.09500273 0.038367882 -0.053403594 0.012336856 0.10729199 0.116326444 -0.10391187
0.03490154 0.08123247 -0.15804504 -0.17062573 0.019343436 -0.0625993 -0.09888556 0.12022653
0.071620196 0.048026603 -0.0014727031 0.068880185 0.060757514 -0.082722224 0.09317634 -0.15469116
-0.04672293 -3.813811e-05 0.061973006 0.042556975 0.10820693 -0.17323002 0.052123614 0.03194666
-0.07319562 0.10330214 -0.11077182 -0.04493939 0.013404092 -0.12577201 0.19343364 0.10494422
-0.10780085 -0.11940348 -0.006710796 0.020206636 0.023932502 -0.09764319 -0.12832277 -0.015403258
0.04689156 0.03322468 0.0596678 0.15750208 0.011763184 -0.12916327 -0.053539824 0.050337806
0.13750836 -0.04032221 -0.07520679 -0.011906163 -0.04757006 0.08971163 -0.046645094 0.061355073
0.025058703 -0.07655013 -0.0765909 0.06843829 0.1547009 0.10241355 -0.029854773 -0.017312508
0.044393722 -0.014603012 -0.055719063 -0.060398534 -0.04336279 -0.03991964 -0.13027361 -0.16534154
0.043610897 -0.08527377 0.05319012 -0.020847058 -0.03838992 -0.19092819 0.106978156 0.00806843
0.07283206 -0.09087725 -0.02604565 0.13120893 0.10840791 -0.13922344 0.1261872 -0.08364372
0.01453199 -0.05352417 -0.013874422 -0.08624454 0.17384456 -0.010064578 0.11222175 0.039100353
00000000: f4d8 b5bd c52d abbd 5fc7 5dbd 8771 153d
00000010: fbc0 2abe b903 f4bd 3443 a1bd 2078 103d
00000020: 0ea7 af3d ba75 dfbd 40c8 86bc 46eb e93d
00000030: 6393 0f3d 0151 6e3d 750b b4bc cfc7 a1bd
00000040: 88af 03be 9697 633c 91df c6bc 458d 5a3d
00000050: 03f1 7dbd 61c3 9c3d 275e 143e 2be4 8dbd
00000060: 3ca2 3bbd 2615 05be 0482 df3d b8b1 1abe
00000070: 5008 72bd fea1 9ebd b504 8abd 7ffd fbb9
00000080: df2e ca3c f217 083e 59c7 653d e930 d2bd
00000090: 9366 9cbc b08e ed3c 1f7f 84bd 4365 ed3d
000000a0: bb9f 103d 7fe9 f33d e53a 1ebe b2a9 0abd
000000b0: e2bd 8dbd cba1 9a3d ff5e b53d 914e 873c
000000c0: 0acc bc3d 8417 233e d69c ad3d 669e 19be
000000d0: ca91 5bbe e437 d6bd 4da8 583d ea8c 59bc
000000e0: 20c8 2bbe 7b64 243d 12b8 b73d 9149 01bd
000000f0: c3ad 5cbe 77f3 c63d 5c39 4cbc 9a0e 1d3e
00000100: a1a7 d63d a1ae c83c bdb3 e43c 6ec5 373d
00000110: 055d a1bd fb6f a1bd c2cb e63d 78a8 f8bd
00000120: 8df4 a1bd 045f 21be a5c1 e9bc 432a 79bd
00000130: 48a8 363d 8e1f 09bd bde9 98ba ee51 0dbe
00000140: 1ab7 e43d b6dc fa3d 1508 b2bd a168 d13b
00000150: 91a9 a73d 83f1 8d3c b6d9 f63d dd80 733d
00000160: cee4 373e 15eb 1b3d 7b41 1f3c f48d d0bd
00000170: 72b4 033e edb0 ddbd 5a3b 033d 09e5 1f3e
00000180: 2e4c e9bc 28a0 5cbe 6698 b5bd 618c aabc
00000190: 3a02 78bd a71e a73d 5ea2 a43c 575b 12be
000001a0: ab8a 3d3d 3269 233c 0009 2d3d f010 4a3e
000001b0: 957a cdbd af7b 88bd 662b e2bd feb6 2bbd
000001c0: 769b e7bd 5963 ba3d f08d 463d 6ec7 213e
000001d0: 4f7f 05bc 1157 80bd 1e53 03bd cd85 31bc
000001e0: 1a62 173c 7375 14be a0a7 7fbc 2859 80bc
000001f0: dc04 dbbc 9b8c 4bbc 0fb1 4bbd d258 0d3e
00000200: b1d8 47bd 4e18 8b3c a430 0fbd 91e2 85bd
00000210: 813f ed3d e8f2 6cbc a6d8 773d 8958 f73d
00000220: 2157 953d e525 5dbd 2a32 11be aa60 1f3e
00000230: 9da6 00be bc79 86bd b130 d5bc b42a cc3c
00000240: 1723 d33d 3b79 503d b09d 33be e23c 9abd
00000250: 0141 133e 8c9a 703d 6812 89bd 84c0 10be
00000260: 24c8 0c3d cb90 c23d a427 1d3d babd 5abd
00000270: 8620 4a3c e7bb db3d 8f3c ee3d bfcf d4bd
00000280: ebf4 0e3d 365d a63d 8fd6 21be 83b8 2ebe
00000290: 2076 9e3c 1034 80bd 8384 cabd 5439 f63d
000002a0: 9cad 923d 8bb7 443d b707 c1ba 0e11 8d3d
000002b0: dfdc 783d 456a a9bd 3dd3 be3d 5c67 1ebe
000002c0: 8b60 3fbd 7cf6 1fb8 68d7 7d3d 3950 2e3d
000002d0: 989b dd3d 3663 31be 927f 553d 80da 023d
000002e0: 96e7 95bd 1390 d33d 56dc e2bd 5e12 38bd
000002f0: d69c 5b3c 61ca 00be 7813 463e ffec d63d
00000300: b1c6 dcbd d089 f4bd 3de6 dbbb 6388 a53c
00000310: 180e c43c 27f9 c7bd 0b67 03be f25d 7cbc
00000320: 5d11 403d 9a16 083d 3966 743d 3a48 213e
00000330: 5fba 403c 6043 04be 934c 5bbd 042f 4e3d
00000340: fece 0c3e e728 25bd 0406 9abd 1112 43bc
00000350: d3d8 42bd bbba b73d ed0e 3fbd 754f 7b3d
00000360: e947 cd3c 51c6 9cbd b1db 9cbd 6029 8c3d
00000370: ea69 1e3e 32be d13d ff91 f4bc f6d2 8dbc
00000380: 31d6 353d 7941 6fbc ac39 64bd 7464 77bd
00000390: 2e9d 31bd c782 23bd 7266 05be 4b4f 29be
000003a0: 57a1 323d 04a4 aebd e2dd 593d 73c7 aabc
000003b0: c03e 1dbd ae82 43be 5d17 db3d 7331 043c
000003c0: fa28 953d da1d babd b05d d5bc a25b 063e
000003d0: f704 de3d 9790 0ebe 3837 013e 664d abbd
000003e0: 9517 6e3c 293c 5bbd 8b51 63bc faa0 b0bd
000003f0: 4f04 323e e6e5 24bc 84d4 e53d b127 203d

conv2.3.bias f4 [12]
-0.013998311 -0.10772896 -0.15020944 -0.065648474 -0.03635752 0.14588971 -0.12929922 -0.1544477
0.15208651 -0.13925192 -0.058605533 -0.16508812
00000000: 2c59 65bc 00a1 dcbd 81d0 19be b572 86bd
00000010: 9feb 14bd 1d64 153e 0467 04be 8a27 1ebe
00000020: 91bc 1b3e 0e98 0ebe 5b0c 70bd dc0c 29be

conv2.4.weight f4 [12]
1.000435 1.0466099 1.0198469 1.0435119 1.0504864 1.030312 1.0329372 1.0505428
1.0333011 1.0190604 1.0166525 1.0434432
00000000: 410e 803f 50f7 853f 588a 823f cc91 853f
00000010: 5776 863f 43e1 833f 4937 843f 3078 863f
00000020: 3643 843f 9270 823f ab21 823f 8c8f 853f

conv2.4.bias f4 [12]
-0.0012223033 -0.0013469373 -0.0013679381 -0.00058817945 -0.001198619 0.00019605183 -0.0016789021 -0.0040296824
0.00022975873 -0.0035134256 -0.0013477313 -0.0012695425
00000000: b135 a0ba b78b b0ba 634c b3ba 0e30 1aba
00000010: fb1a 9dba 4393 4d39 9b0e dcba 6d0b 84bb
00000020: 64eb 7039 8041 66bb 5ca6 b0ba c766 a6ba

conv2.4.running_mean f4 [12]
-0.27593023 -0.11427728 -0.12534167 -0.20647416 -0.03175479 0.12450787 -0.2797398 0.08223334
0.14911851 -0.16949047 0.12222803 -0.25576583
00000000: ba46 8dbe 350a eabd 9159 00be f66d 53be
00000010: 5011 02bd fbfd fe3d 0e3a 8fbe f469 a83d
00000020: 86b2 183e e98e 2dbe b052 fa3d bdf3 82be

conv2.4.running_var f4 [12]
0.08343328 0.06755392 0.04958569 0.058346473 0.035057064 0.09703549 0.05400276 0.09009846
0.08145646 0.06844522 0.07769989 0.05857411
00000000: 11df aa3d b659 8a3d 5d1a 4b3d b6fc 6e3d
00000010: ff97 0f3d 8bba c63d 0032 5d3d 8b85 b83d
00000020: a5d2 a63d 022d 8c3d 1f21 9f3d 68eb 6f3d

conv3.0.weight f4 [12, 15, 4]
0.04207408 0.02054836 -0.050283413 -0.09153432 0.03199077 0.12922774 -0.105056345 0.001736918
0.034412157 0.078689314 0.030912831 0.04402257 0.1124955 -0.0678726 0.0037112653 0.0070627765
-0.023319805 -0.023275873 0.115759924 -0.00036478363 -0.055860195 0.10219678 -0.09624819 -0.05579501
0.13803153 0.09177443 -0.08387888 -0.10954374 0.078586765 -0.024854928 0.030919295 -0.010747014
0.20653696 -0.047307443 0.029216513 -0.076427534 0.06111574 0.0899099 0.07840658 -0.1700129
0.07101296 -0.017214851 -0.067718506 -0.020482358 0.061800756 0.083093025 0.002693033 0.06304346
-0.040621627 -0.05990869 0.116944216 0.040256053 0.109277196 0.10739202 -0.0940524 -0.036387857
0.03141867 -0.07623761 0.0046151103 -0.06253002 0.10885339 0.047187403 0.013061505 -0.016373167
-0.039624356 0.0559853 -0.089005575 -0.041087437 -0.09260013 0.056466006 0.09746844 -0.06359139
0.033438325 0.13859779 0.00015542824 0.014460573 0.0699752 -0.08435636 0.09889989 0.020497171
0.011864735 -0.03678467 0.108077705 0.1437969 -0.09252744 0.027133614 0.04894988 0.116778135
-0.015727138 0.10726361 0.048594013 0.025476847 -0.074576125 0.03908665 0.026658963 0.021344412
-0.014138552 0.16405983 0.07155609 0.18899533 -0.13215287 0.12284712 0.026504414 -0.013796727
-0.041316833 0.123060256 -0.07719515 -0.052026562 0.04106172 0.12059744 -0.0930763 0.0670351
0.16984704 0.063854344 -0.120897435 0.101997495 -0.06443411 -0.11563169 -0.029578771 0.11849808
-0.035083845 0.078339756 -0.014551974 0.062713735 0.10709917 0.066186614 0.031634443 -0.118859
0.04885993 0.098416954 -0.11280465 0.11306121 0.0006935899 -0.048893277 -0.12105182 0.09806554
-0.027752426 0.029286714 -0.14427565 -0.09047974 -0.036666244 -0.048500948 0.07532 -0.0854613
0.1568581 0.036788195 0.0046236375 0.05802414 -0.109648876 0.051767193 -0.04963311 0.1090922
-0.06725673 -0.048055585 -0.0062714694 -0.06408263 -0.032282118 -0.02460149 0.11981032 0.0021666565
-0.10386294 -0.05911163 0.05279171 -0.050873 -0.050796367 0.10661891 0.09514107 -0.054987725
0.078251846 -0.016315548 0.08028286 -0.112352155 -0.03964627 0.13068385 0.0039364295 -0.12923703
-0.025363758 -0.16521776 0.07030887 -0.11873414 0.023356903 -0.07744731 -0.026266882 0.00067556114
-0.09740548 -0.056548283 0.14673275 -0.07622137 -0.030338168 -0.10659913 0.052147795 0.024326047
-0.081752114 0.039937217 -0.09471387 -0.05754463 -0.0019232999 0.14714839 0.0056695803 0.10659967
0.06281417 -0.14584832 0.009621146 -0.025002334 -0.08764287 0.04447595 0.10324051 -0.11440064
-0.079063736 -0.011631128 4.8452857e-06 0.0592715 -0.06384005 0.0117201 0.021543572 0.064803325
0.15608305 0.04423153 0.04905173 0.20758787 -0.03841507 -0.04798383 0.117331475 0.023638293
-0.09061197 0.009558569 -0.14623094 0.10936532 -0.1917578 0.067062095 -0.11853932 0.0042393706
0.026148302 0.07151767 -0.11617338 0.006365368 0.036555827 -0.005681232 0.06475981 0.051817693
0.03392947 -0.11589793 0.09422012 0.04639336 -0.09997189 -0.08177929 0.05361777 -0.012081635
0.015979346 -0.09386854 -0.012765273 0.07128846 0.030533224 0.06312199 0.031205358 -0.020000221
00000000: df55 2c3d 0955 a83c fbf5 4dbd 5876 bbbd
00000010: c108 033d 4754 043e c827 d7bd 4ca9 e33a
00000020: c3f3 0c3d dd27 a13d e83c fd3c 0351 343d
00000030: 0a64 e63d ca00 8bbd b338 733b dd6e e73b
00000040: 2d09 bfbc 0bad bebc 8a13 ed3d 6e40 bfb9
00000050: a9cd 64bd 8c4c d13d c51d c5bd 4f89 64bd
00000060: 2358 0d3e 3bf4 bb3d b1c8 abbd 7858 e0bd
00000070: 19f2 a03d 909c cbbc 764a fd3c 3e14 30bc
00000080: 6d7e 533e 73c5 41bd 7857 ef3c 0a86 9cbd
00000090: 8054 7a3d af22 b83d a193 a03d dd17 2ebe
000000a0: 3e6f 913d 2906 8dbc 00b0 8abd 9eca a7bc
000000b0: ca22 7d3d ad2c aa3d 997d 303b ee1c 813d
000000c0: dd62 26bd d162 75bd 7380 ef3d 88e3 243d
000000d0: b9cc df3d 59f0 db3d 8b9e c0bd 6f0b 15bd
000000e0: ddb0 003d 7722 9cbd 5a3a 973b bd0f 80bd
000000f0: 87ee de3d 9447 413d ecff 553c 0521 86bc
00000100: 264d 22bd d850 653d 8e48 b6bd 4d4b 28bd
00000110: 23a5 bdbd e648 673d 899d c73d 343c 82bd
00000120: a0f6 083d 94ec 0d3e 73fa 2239 0aec 6c3c
00000130: 284f 8f3d 07c3 acbd 078c ca3d afe9 a73c
00000140: 4e64 423c 86ab 16bd d857 dd3d 7f3f 133e
00000150: 077f bdbd 5047 de3c ab7f 483d 6029 ef3d
00000160: 33d6 80bc 06ad db3d 840a 473d d2b4 d03c
00000170: 5ebb 98bd 5319 203d e663 da3c 7ada ae3c
00000180: 63a5 67bc 4dff 273e 008c 923d fe87 413e
00000190: 1553 07be 4597 fb3d c91f d93c ab0b 62bc
000001a0: d73b 29bd 0407 fc3d 7e18 9ebd ce19 55bd
000001b0: 5630 283d cafb f63d ca9e bebd b349 893d
000001c0: 62ec 2d3e 11c6 823d 1399 f7bd 10e4 d03d
000001d0: 08f6 83bd 4fd0 ecbd 2e4f f2bc 1faf f23d
000001e0: 14b4 0fbd 9870 a03d 676b 6ebc 0f70 803d
000001f0: cf56 db3d d98c 873d 1e93 013d 596c f3bd
00000200: 5a21 483d d48e c93d 2006 e7bd a38c e73d
00000210: 08d2 353a 5144 48bd 04ea f7bd 96d6 c83d
00000220: 0e59 e3bc b1ea ef3c ffbc 13be 714d b9bd
00000230: 582f 16bd eea8 46bd 5f41 9a3d 5606 afbd
00000240: 699f 203e 38af 163d e281 973b b8aa 6d3d
00000250: 978f e0bd d609 543d 174c 4bbd bb6b df3d
00000260: e5bd 89bd efd5 44bd e680 cdbb c13d 83bd
00000270: 413a 04bd 1089 c9bc 1d5f f53d 77fe 0d3b
00000280: 18b6 d4bd 091f 72bd 1f3c 583d 3560 50bd
00000290: da0f 50bd 045b da3d 52d9 c23d cf3a 61bd
000002a0: 8142 a03d 2fa8 85bc 576b a43d e318 e6bd
000002b0: 2164 22bd fdd1 053e 2afd 803b b656 04be
000002c0: a8c7 cfbc d82e 29be 19fe 8f3d e32a f3bd
000002d0: fa56 bf3c b29c 9ebd a52d d7bc 2418 313a
000002e0: 867c c7bd 2c9f 67bd 1c41 163e f319 9cbd
000002f0: c087 f8bc a550 dabd ed98 553d 6b47 c73c
00000300: a76d a7bd 3595 233d 58f9 c1bd ebb3 6bbd
00000310: 3c17 fcba 11ae 163e e3c7 b93b ee50 da3d
00000320: b7a4 803d 4359 15be 03a2 1d3c b2d1 ccbc
00000330: 1b7e b3bd 6a2c 363d c36f d33d e24a eabd
00000340: 2bec a1bd 7d90 3ebc b094 a236 acc6 723d
00000350: 92be 82bd aa05 403c 257c b03c 9bb7 843d
00000360: 3cd4 1f3e 1f2c 353d 78ea 483d ea91 543e
00000370: 1f59 1dbd b18a 44bd 7c4b f03d 18a5 c13c
00000380: c592 b9bd 8b9b 1c3c 90bd 15be edfa df3d
00000390: 285c 44be da57 893d bec4 f2bd 6bea 8a3b
000003a0: f734 d63c db77 923d 4fec edbd 9494 d03b
000003b0: 90bb 153d a129 babb cba0 843d ca3e 543d
000003c0: a1f9 0a3d e55b edbd 7af6 c03d f706 3e3d
000003d0: 10be ccbd e77b a7bd 4f9e 5b3d 0df2 45bc
000003e0: 1ee7 823c 263e c0bd 7025 51bc afff 913d
000003f0: d020 fa3c 1a46 813d 61a2 ff3c 81d7 a3bc

conv3.0.bias f4 [12]
-0.12584002 -0.041167587 0.004993823 -0.112745516 0.07942405 -0.0072025396 0.0652126 0.034877706
0.035595063 0.013705248 -0.05936123 -0.057591468
00000000: 35dc 00be 589f 28bd 39a3 a33b 1fe7 e6bd
00000010: 14a9 a23d 4803 ecbb 2f8e 853d eddb 0e3d
00000020: 21cc 113d fa8b 603c c324 73bd 08e5 6bbd

conv3.1.weight f4 [12]
1.0401881 0.9847591 0.9596174 1.0352945 1.0001252 0.9647704 1.056809 1.0031532
0.9916503 0.99466854 1.0052845 1.0035319
00000000: e224 853f 2c19 7c3f 7ca9 753f 8884 843f
00000010: 1a04 803f 31fb 763f 8445 873f 5367 803f
00000020: cbdc 7d3f 99a2 7e3f 2aad 803f bc73 803f

conv3.1.bias f4 [12]
-0.01743924 0.03175684 -0.056744263 -0.080739565 -3.7588222e-06 -0.019944057 -0.02871635 -0.08643281
-0.048678156 -0.055096757 0.04286248 -0.00027240926
00000000: bddc 8ebc 7613 023d ac6c 68bd c95a a5bd
00000010: 1340 7cb6 b861 a3bc 8d3e ebbc af03 b1bd
00000020: bf62 47bd 23ad 61bd 9190 2f3d 27d2 8eb9

conv3.1.running_mean f4 [12]
0.24200274 -0.21906944 0.7200053 -1.1383699 -0.07638054 0.30563194 -0.366613 -0.05206807
0.33138335 -0.14689408 -0.14232555 -0.049291775
00000000: 91cf 773e bd53 60be 4452 383f 1bb6 91bf
00000010: 676d 9cbd ca7b 9c3e b3b4 bbbe 5445 55bd
00000020: 14ab a93e 676b 16be cabd 11be 2ce6 49bd

conv3.1.running_var f4 [12]
5.116375 5.652538 6.7097235 6.4550815 6.4190784 7.239538 5.068297 6.510282
7.4117513 4.806996 5.222938 5.4090447
00000000: 58b9 a340 97e1 b440 0eb6 d640 0790 ce40
00000010: 1769 cd40 4caa e740 7d2f a240 3b54 d040
00000020: 112d ed40 e9d2 9940 4f22 a740 e516 ad40

conv3.3.weight f4 [12, 12, 4]
0.0999963 0.12089922 0.12663685 -0.036415122 -0.08093338 0.053439602 0.1209999 0.110409446
-0.106281094 -0.117820956 0.028128989 0.031540222 -0.05313796 -0.08105426 -0.018255504 -0.172535
0.13395357 0.031891197 0.020426156 -0.07554318 0.08148003 0.018654888 -0.08691376 -0.16409227
-0.105538465 -0.059104964 -0.034268774 -0.10032581 0.028526537 -0.07848741 -0.09156525 0.09582104
-0.13384545 0.10142434 -0.03963994 0.10912357 -0.0041710585 0.024662785 0.017276296 -0.007447667
-0.032898508 0.075055845 0.05901691 0.08844147 0.069331765 -0.07329034 -0.049003545 0.12552999
0.12179861 -0.10070632 -0.16877429 0.0331823 0.102607004 -0.1120359 0.0751015 -0.044760562
0.11926978 -0.11143626 0.08534132 0.085781425 0.09777914 0.121594 -0.062740795 0.05564553
-0.05642558 0.12439397 0.039283745 -0.07685613 -0.1005142 -0.0748224 0.011250347 -0.042758707
0.03247185 -0.0375326 0.115352556 -0.04354415 -0.04601562 0.06695222 0.09939837 -0.057158057
0.16769545 0.0744634 -0.022352891 -0.06946951 -0.0296691 0.0900957 0.007999398 0.06364639
0.07506438 0.01559815 -0.042916875 -0.036323342 -0.04712612 -0.13918431 -0.077368066 0.13184905
-0.08785714 -0.036040492 -0.045798574 0.16158529 -0.13329007 -0.0475646 0.12452764 -0.026365127
-0.10562836 0.049226847 -0.059201453 0.07526069 0.050770734 0.042691328 0.09662348 0.011455403
-0.078875 -0.07233386 -0.08424744 0.096491344 0.06455031 -0.14127807 -0.1028923 -0.0024635212
-0.14190274 0.15120381 -0.098427996 0.025848826 0.002206255 0.12944694 0.04783569 -0.018444698
0.0954139 -0.0812849 0.14356501 0.0994972 0.095388494 0.013071095 0.05152076 -0.060575284
0.0969471 -0.09934262 -0.008694748 -0.013470742 -0.04927286 0.081632994 -0.14630035 -0.036068358
-0.049054425 -0.034617167 0.07087979 -0.04229203 0.09423915 -0.097728446 -0.06349363 0.14620796
0.023123274 0.042145114 0.058937777 0.028663639 -0.121645525 -0.06783464 -0.05551544 0.11892419
0.08291531 0.17672393 0.042147942 0.086488254 -0.10715691 -0.104504265 -0.15106359 -0.069285415
0.085855 -0.08128895 0.10551657 -0.06687294 0.025681747 -0.022068791 0.03321319 -0.08477247
0.08331226 0.0492403 0.09741087 0.13717473 -0.0009291006 -0.05858377 -0.08959136 0.04673786
-0.034522932 -0.010442978 -0.07091327 0.01631948 -0.1093802 -0.0843866 0.15235968 -0.05428816
-0.032320216 0.11659569 -0.002485925 0.054695062 -0.03801453 -0.04264474 -0.034369584 0.08287141
-0.07451939 -0.03651831 -0.07189606 -0.11051388 -0.080795705 0.00059839746 0.0871052 -0.072009735
0.15673047 0.09938095 0.05231651 0.140386 -0.026489867 -0.0533959 0.11458316 -0.014898544
0.14376502 -0.13419275 -0.09732806 0.071087 0.083621934 0.07873469 -0.09967521 -0.10234434
0.05313093 0.080142386 0.046139244 -0.028562129 -0.053483795 0.09829442 -0.024489084 0.06370988
0.02718981 0.077010565 -0.005657491 -0.14574653 0.100328825 -0.025707688 0.012128285 -0.13385992
-0.06003361 -0.010281814 -0.106459774 0.08518295 -0.06070804 -0.106951706 0.045693792 0.07622999
0.14232033 0.021356685 -0.13484718 -0.16287495 -0.032595366 -0.11376036 -0.09858905 0.04151585
00000000: dcca cc3d 039a f73d 17ad 013e 0628 15bd
00000010: 66c0 a5bd 7ce3 5a3d ccce f73d 591e e23d
00000020: e7a9 d9bd 1d4c f1bd c46e e63c 5230 013d
00000030: 31a7 59bd c7ff a5bd 918c 95bc 04ad 30be
00000040: 202b 093e 58a0 023d c154 a73c 62b6 9abd
00000050: 01df a63d 23d2 983c d7ff b1bd ce07 28be
00000060: 8d24 d8bd 0c18 72bd 6a5d 0cbd 9e77 cdbd
00000070: 7cb0 e93c 02be a0bd 9086 bbbd d23d c43d
00000080: c80e 09be 90b7 cf3d 7d5d 22bd 2e7c df3d
00000090: 60ad 88bb 9c09 ca3c 0587 8d3c 8f0b f4bb
000000a0: 96c0 06bd e1b6 993d b7bb 713d cd20 b53d
000000b0: d0fd 8d3d 3f19 96bd f1b7 48bd ef8a 003e
000000c0: 8d71 f93d 1d3f cebd 2bd3 2cbe 2aea 073d
000000d0: 9f23 d23d 1473 e5bd d1ce 993d da56 37bd
000000e0: b743 f43d b238 e4bd 6ec7 ae3d 2cae af3d
000000f0: 6e40 c83d 4606 f93d 3f7e 80bd 91ec 633d
00000100: 821e 67bd 44c2 fe3d fee7 203d bf66 9dbd
00000110: 64da cdbd 7d3c 99bd 6053 383c c123 2fbd
00000120: 3401 053d c9bb 19bd f63d ec3d 5a5b 32bd
00000130: e07a 3cbd 3f1e 893d 5f91 cb3d 911e 6abd
00000140: 5bb8 2b3e 4480 983d 691d b7bc 0846 8ebd
00000150: 9d0c f3bc 1884 b83d e80f 033c 0a59 823d
00000160: 5bbb 993d 628f 7f3c 9bc9 2fbd c9c7 14bd
00000170: 5207 41bd 5586 0ebe 2673 9ebd 7003 073e
00000180: 72ee b3bd 329f 13bd 4997 3bbd 9d76 253e
00000190: 317d 08be 19d3 42bd 5908 ff3d aefb d7bc
000001a0: ae53 d8bd 17a2 493d 397d 72bd 4722 9a3d
000001b0: f9f4 4f3d 1add 2e3d 88e2 c53d 71af 3b3c
000001c0: 3789 a1bd c623 94bd ec89 acbd 419d c53d
000001d0: f432 843d 33ab 10be 33b9 d2bd 0773 21bb
000001e0: f44e 11be 2cd5 1a3e 9e94 c9bd ebc0 d33c
000001f0: d196 103b bd8d 043e 5bef 433d 5619 97bc
00000200: 5d68 c33d b378 a6bd b502 133e 30c5 cb3d
00000210: 0b5b c33d 2528 563c 6f07 533d ca1d 78bd
00000220: 338c c63d 2574 cbbd 6b74 0ebc 63b4 5cbc
00000230: 57d2 49bd 332f a73d c2cf 15be 6abc 13bd
00000240: 4bed 48bd bbca 0dbd 6c29 913d 683a 2dbd
00000250: 7500 c13d da25 c8bd f308 82bd 8ab7 153e
00000260: 056d bd3c 5ba0 2c3d bd68 713d 02d0 ea3c
00000270: 4a21 f9bd e3ec 8abd 2864 63bd 878e f33d
00000280: 81cf a93d 1ef7 343e 52a3 2c3d c120 b13d
00000290: 1575 dbbd 5506 d6bd 6ab0 1abe 83e5 8dbd
000002a0: bfd4 af3d d27a a6bd 1219 d83d aef4 88bd
000002b0: 8762 d23c 9cc9 b4bc 8e0a 083d 309d adbd
000002c0: 9e9f aa3d 32b0 493d 5a7f c73d 8877 0c3e
000002d0: e38e 73ba 89f5 6fbd ad7b b7bd 3370 3f3d
000002e0: eb67 0dbd 0619 2bbc fa3a 91bd 6eb0 853c
000002f0: ba02 e0bd e2d2 acbd 2d04 1c3e 435d 5ebd
00000300: 3462 04bd b9c9 ee3d e7ea 22bb ee07 603d
00000310: 20b5 1bbd 40ac 2ebd 1fc7 0cbd 7cb8 a93d
00000320: 9f9d 98bd 3994 15bd 3e3e 93bd 1a55 e2bd
00000330: 3878 a5bd c6dd 1c3a 3664 b23d d779 93bd
00000340: f47d 203e 3d88 cb3d d649 563d 59c1 0f3e
00000350: 4701 d9bc a9b5 5abd 93aa ea3d 0619 74bc
00000360: 2337 133e d369 09be ef53 c7bd 1096 913d
00000370: fa41 ab3d a73f a13d 8422 ccbd e999 d1bd
00000380: d19f 593d b121 a43d 81fc 3c3d 20fb e9bc
00000390: d311 5bbd 964e c93d 559d c8bc 537a 823d
000003a0: 2abd de3c b7b7 9d3d 7962 b9bb 943e 15be
000003b0: 3379 cd3d ee98 d2bc b7b5 463c 9312 09be
000003c0: cde5 75bd 0e75 28bc 9507 dabd 6674 ae3d
000003d0: fea8 78bd 7f09 dbbd 6a29 3b3d 781e 9c3d
000003e0: 6cbc 113e 37f4 ae3c 6115 0abe b1c8 26be
000003f0: b882 05bd 31fb e8bd 0ee9 c9bd 860c 2a3d

conv3.3.bias f4 [12]
-0.05306567 0.14086421 -0.059069827 -0.06748136 0.042931866 0.115674354 0.006132739 -0.07845247
0.024418686 0.059700992 -0.105191715 0.016340172
00000000: 635b 59bd b53e 103e 34f3 71bd ab33 8abd
00000010: 53d9 2f3d ade6 ec3d 25f5 c83b b0ab a0bd
00000020: b209 c83c 0789 743d c16e d7bd d3db 853c

conv3.4.weight f4 [12]
1.0285043 1.0348728 1.0612471 1.0490036 1.028456 1.0326382 1.0823119 1.0354989
1.0435386 1.0105315 1.0324736 1.0772178
00000000: 07a6 833f b676 843f f2d6 873f c045 863f
00000010: 72a4 833f 7d2d 843f 3289 8a3f 3a8b 843f
00000020: ac92 853f 1959 813f 1828 843f 46e2 893f

conv3.4.bias f4 [12]
-0.0007175804 5.8434212e-05 -0.0015750658 -0.0011314411 -0.0012066741 -0.004957648 0.0002478918 -6.320166e-05
-0.001340239 -0.0025435672 -0.0023485608 1.0719e-05
00000000: 011c 3cba 4217 7538 7072 ceba dd4c 94ba
00000010: 4429 9eba c473 a2bb 79f7 8139 228b 84b8
00000020: f5aa afba fab1 26bb 50ea 19bb c1d5 3337

conv3.4.running_mean f4 [12]
-0.06001262 0.2808393 -0.09075516 -0.061958995 0.18106073 0.07778944 0.035040155 -0.022072857
0.13476533 -0.044535607 0.0041473247 -0.01745691
00000000: cbcf 75bd 2bca 8f3e d7dd b9bd b7c8 7dbd
00000010: fc67 393e 1250 9f3d 4486 0f3d 23d2 b4bc
00000020: ecff 093e f86a 36bd 48e6 873b cb01 8fbc

conv3.4.running_var f4 [12]
0.12816411 0.092416845 0.08180915 0.055624895 0.08506197 0.13015871 0.051750444 0.09509105
0.07291404 0.13555858 0.07011257 0.061969258
00000000: 743d 033e 0b45 bd3d 8e8b a73d eed6 633d
00000010: f834 ae3d 5348 053e 46f8 533d 19bf c23d
00000020: f553 953d decf 0a3e 2e97 8f3d 7ad3 7d3d
