model/AutoY/RAcheckpoint3.pt (torch, 34213 bytes, 51 tensors)

conv1.0.weight f4 [12, 15, 2]
0	0x3dcb7654	0.09934679
1	0x3dbf8599	0.093516536
2	0xbbdc48b0	-0.006722532
3	0xbcb9997f	-0.0226562
4	0x3e295193	0.16535024
5	0xbe083355	-0.13300832
6	0xbd1bc322	-0.03802789
7	0x3dc50ec4	0.09621957
8	0x3de3a7df	0.11116003
9	0xbd686896	-0.056740366
10	0x3dc788e1	0.097429045
11	0xbc68bb88	-0.014204867
12	0xbe22cebb	-0.15899174
13	0xbcba5365	-0.022744844
14	0xbdeac6c8	-0.11463696
15	0x3d75bc6f	0.059994157
16	0xbd71ce83	-0.059034836
17	0x3e3c55ac	0.18392056
18	0xbe2d0abf	-0.1689863
19	0xbe097830	-0.13424754
20	0xbd9a43d5	-0.07532469
21	0xbd1c7006	-0.03819277
22	0x3d8aee61	0.067837484
23	0xbcbff972	-0.023434374
24	0xbdde4450	-0.10852873
25	0xbd56143e	-0.0522654
26	0xbded8a35	-0.115986265
27	0xbe0e7f5d	-0.13915773
28	0x3e3f28dc	0.1866793
29	0xbd43eeef	-0.047835287
30	0x3e005462	0.1253219
31	0xbdf08fb5	-0.1174616
32	0xbdd1da67	-0.10246735
33	0xbc90b47e	-0.01766419
34	0x3e02c074	0.12768728
35	0x3d155d1b	0.036465745
36	0xbe315d38	-0.17320716
37	0x3e1004dd	0.14064355
38	0x3db66cd8	0.08907479
39	0x3e52d248	0.20588028
40	0x3e12ca67	0.14335023
41	0x3ce856ef	0.028361766
42	0x3d04caf9	0.032420132
43	0xbd97eb20	-0.074178934
44	0xbe0e6b54	-0.1390813
45	0xbe770f79	-0.24126996
46	0xbe488d7f	-0.19585226
47	0xbdd27f93	-0.10278239
48	0x3d9b37a1	0.0757897
49	0xbdbd3ca6	-0.092400834
50	0xbd075feb	-0.03305046
51	0x3c92d200	0.017922401
52	0x3e018dbb	0.12651722
53	0xbe0e80c8	-0.13916314
54	0xbdaa7608	-0.08323294
55	0x3e4118ba	0.18857089
56	0x3d8ae76f	0.06782424
57	0xbd3b6632	-0.045751758
58	0xbd33aeb1	-0.04386777
59	0x3e009720	0.1255765
60	0xbe572663	-0.21010737
61	0x3d25203a	0.040313937
62	0xbdbaa0a2	-0.091126695
63	0xbe259f55	-0.16174062
64	0x3db4c2ed	0.08826242
65	0x3d1bb7fa	0.03801725
66	0x3dce91f9	0.10086436
67	0x3da49726	0.08036642
68	0xbe3bc2fc	-0.183361
69	0x3dfe646d	0.124214984
70	0xbde5c1fa	-0.11218639
71	0xbdc2691c	-0.09492704
72	0xbcf0213a	-0.029312719
73	0x3dbf52a7	0.093419366
74	0x3e00bcad	0.12571974
75	0xbd013c9f	-0.031551953
76	0x3d8714b6	0.06595747
77	0x3d6eee54	0.058332756
78	0xbe01dd44	-0.12682062
79	0xbdd9a6d2	-0.106275216
80	0xbe47788e	-0.19479582
81	0xbc3859ef	-0.011251911
82	0xbd035191	-0.03206021
83	0xbde24c75	-0.11049739
84	0x3d6e319b	0.058152776
85	0x3c67f23e	0.014156876
86	0xbd5c37df	-0.05376422
87	0xbd016070	-0.03158611
88	0xbd0f36d7	-0.03496441
89	0x3d44bfb6	0.048034392
90	0xbd57f44d	-0.052723218
91	0x3da323ad	0.07965789
92	0xbdab125e	-0.08353113
93	0xbdbae5db	-0.09125873
94	0xbd0130d7	-0.031540718
95	0xba71b681	-0.00092206156
96	0xbd979638	-0.07401699
97	0x3e052950	0.1300404
98	0xbe42986c	-0.19003457
99	0xbe419e4e	-0.18908045
100	0x3d61d8c5	0.05513837
101	0x3e2bcbeb	0.16777007
102	0xbe00dc1c	-0.12583965
103	0xbd475432	-0.04866428
104	0x3d06df82	0.032927997
105	0x3df15203	0.117832206
106	0x3df5964a	0.11991556
107	0xbd2ce4d6	-0.042210422
108	0x3dcfd949	0.10148866
109	0xbdc32a7d	-0.09529588
110	0x3e00551d	0.12532468
111	0xbdb39549	-0.08768708
112	0xbdca3b2e	-0.09874569
113	0xbdf64c61	-0.12026287
114	0xbc2d0428	-0.010560073
115	0x3d7a59e3	0.06112088
116	0x3db1fc3d	0.08690689
117	0x3e087ac1	0.13328077
118	0x3db1ab6e	0.08675276
119	0x3d1cc40c	0.038272902
120	0x3d054db8	0.03254482
121	0x3bfa3a08	0.0076363124
122	0x3e0aadb4	0.13542825
123	0x3dadb650	0.08482039
124	0xbd8de10b	-0.06927689
125	0x3de5adb0	0.11214769
126	0x3d09f7f2	0.033683725
127	0xbd1e081e	-0.03858196
128	0xbd9b77d9	-0.075912185
129	0x3e14b29a	0.14521256
130	0xbc5fc0ef	-0.013656839
131	0x3e2672de	0.16254756
132	0x3e2c152e	0.16804954
133	0x3d4d3fac	0.05010955
134	0x3d8a5e68	0.06756288
135	0x3e150c5e	0.14555499
136	0x3e06e3b3	0.13172798
137	0xbdf377ca	-0.11888082
138	0x3daf36b3	0.08555355
139	0x3d98024f	0.07422315
140	0xbd9dfedf	-0.077146284
141	0x3d974c73	0.073876284
142	0x3de3b98f	0.11119377
143	0x3e12cf4a	0.14336887
144	0xbe01299c	-0.12613529
145	0xbd5cd730	-0.053916156
146	0xbe2be4aa	-0.16786447
147	0x3bd79724	0.0065792967
148	0x3dd587ff	0.1042633
149	0x3dd0bce2	0.101922765
150	0x3dced244	0.10098699
151	0xbb78ea7d	-0.0037981563
152	0x3e284516	0.16432604
153	0xbcea7fb5	-0.028625349
154	0xbdfaf583	-0.12253859
155	0xbe378fcc	-0.17925948
156	0xbbd77f9d	-0.006576492
157	0xbde11160	-0.10989642
158	0xbc97f0f5	-0.018547514
159	0x3cb3dfb1	0.02195725
160	0x3e054894	0.13015968
161	0x3d378ead	0.0448138
162	0xbb9655a9	-0.004587848
163	0xbd6fe367	-0.058566477
164	0x3b98defc	0.0046652537
165	0xbd029c4c	-0.031887338
166	0x3d8e4bea	0.06948073
167	0xbdfc9738	-0.1233353
168	0x3d280745	0.041022558
169	0x3e0d5d31	0.13805081
170	0xbe2df4e4	-0.1698795
171	0xbd7676c8	-0.060171872
172	0x3d563bf5	0.052303273
173	0x3e06544c	0.13118094
174	0xbdc53c68	-0.09630662
175	0xbdc9080a	-0.098159865
176	0x3e5b3cd5	0.21409924
177	0xbd63d7b9	-0.05562565
178	0x3e05dcbc	0.13072485
179	0xbd6114f7	-0.054951634
180	0x3d9e1af6	0.07719986
181	0x3d0cd53c	0.034383044
182	0xbe27eab0	-0.1639812
183	0xbc3ed4ea	-0.011647442
184	0x3da7a718	0.081861675
185	0xbd22c378	-0.039737195
186	0xbdad4228	-0.08459884
187	0xbd35ab01	-0.044352535
188	0x3de4238d	0.11139593
189	0x3e12f45a	0.14351025
190	0x3d8d574d	0.06901417
191	0x3d9bfadd	0.07616208
192	0xbd7e7310	-0.06212145
193	0xbe2d5c8c	-0.16929835
194	0x3d67814e	0.0565198
195	0xbd86a19c	-0.06573793
196	0xbe2d70c3	-0.16937546
197	0xbda1deda	-0.07903834
198	0x3e434a73	0.19071369
199	0x3c4d3696	0.012525221
200	0xbc97c0bf	-0.018524526
201	0x3c1d481d	0.009599713
202	0xbc1f0587	-0.009705908
203	0x3e0181f6	0.12647232
204	0x3db0a82d	0.08625827
205	0x3d2a6619	0.041601274
206	0x3da3c101	0.07995797
207	0x3ccdd18b	0.025124332
208	0x3a114b5c	0.00055425405
209	0xbbd428b3	-0.0064745783
210	0x3d92e649	0.0717283
211	0x3d68eec7	0.05686834
212	0x3b515dea	0.0031946846
213	0x3d6f8ca4	0.058483735
214	0x3e10429f	0.14087914
215	0xbe314377	-0.17310892
216	0x3e1aeaff	0.15128706
217	0x3dbdef1a	0.09274121
218	0xbe490d6a	-0.19634023
219	0x3d265f08	0.040617973
220	0xbe1ee777	-0.15517984
221	0xbdc7bba7	-0.09752589
222	0xbdf5ce84	-0.1200228
223	0x3d08ee34	0.033430293
224	0x3c5e82c0	0.013580978
225	0x3cd53243	0.026024943
226	0xbe006230	-0.12537456
227	0xbd4c4742	-0.049872644
228	0x3dfd9ae3	0.12383058
229	0xbd1197f3	-0.0355453
230	0x3bf7fa58	0.007567685
231	0x3e5727c0	0.21011257
232	0x3e4603e9	0.19337429
233	0xbc424730	-0.011857793
234	0xbd4ae583	-0.049535286
235	0xbc085e40	-0.008323252
236	0xbc75da50	-0.015005663
237	0xbe62770b	-0.22115724
238	0x3d8fcf1e	0.07021926
239	0xbd8adfcb	-0.06780966
240	0xbd5e9315	-0.054339487
241	0x3e216fc4	0.15765291
242	0xbe1bebb8	-0.15226638
243	0x3dfbc76c	0.12293896
244	0xbd439b93	-0.04775579
245	0xbe587889	-0.2113973
246	0x3cc7f34a	0.024408001
247	0x3e0b189e	0.1358361
248	0xbe1ab048	-0.15106308
249	0x3cf4b389	0.029870765
250	0x3db17daa	0.08666547
251	0x3dccd0d5	0.10000769
252	0x3deff3d0	0.117164254
253	0xbd267176	-0.04063555
254	0x3de852c8	0.11343914
255	0x3df0dc58	0.11760777

conv1.0.bias f4 [12]
0	0x3c501a2a	0.0127015505
1	0x3d72f282	0.059313305
2	0xbd462619	-0.048376177
3	0xbd954e29	-0.072902985
4	0xbe34a137	-0.17639624
5	0xbe07c27b	-0.13257782
6	0xbb444718	-0.0029949602
7	0x3e2ab54d	0.16670723
8	0x3e0f3a73	0.1398714
9	0x3c092aac	0.00837199
10	0xbc8470a7	-0.016166998
11	0xbe1718a2	-0.1475549

conv1.1.weight f4 [12]
0	0x3f81f1ae	1.015188
1	0x3f7e3ae0	0.99308586
2	0x3f81a01e	1.0126989
3	0x3f81bec9	1.0136348
4	0x3f7818ed	0.96913034
5	0x3f7dc82c	0.99133563
6	0x3f84cb26	1.0374496
7	0x3f7f573c	0.99742484
8	0x3f7cc14e	0.9873246
9	0x3f7b2809	0.98107964
10	0x3f82cf5e	1.0219533
11	0x3f7a0b8a	0.9767386

conv1.1.bias f4 [12]
0	0x3d008cd3	0.0313843
1	0xbce215ce	-0.027598288
2	0xbbffea28	-0.007809896
3	0x3d19feb0	0.037596405
4	0xbd22f3ae	-0.039783172
5	0x39e4a3ca	0.0004360958
6	0xbcbefc9d	-0.023313815
7	0x3c771f2b	0.015083115
8	0xbcb5b96f	-0.022183148
9	0xbd168656	-0.036749206
10	0x3c80ee15	0.015738526
11	0x3cbb407a	0.022857893

conv1.1.running_mean f4 [12]
0	0x3eb602ca	0.35549003
1	0xbebc88fd	-0.36823264
2	0xbe9cc886	-0.30621737
3	0xbe67fcc5	-0.22655018
4	0x3d048b64	0.032359496
5	0xbede0a8e	-0.43367428
6	0xbeb847f1	-0.35992387
7	0x3f0a0d7d	0.5392683
8	0x3c7c3f9e	0.015396027
9	0xbe051597	-0.12996517
10	0x3edd7fec	0.4326166
11	0xbf1d23a6	-0.6138252

conv1.1.running_var f4 [12]
0	0x40d1e5c7	6.559299
1	0x40a13c40	5.0386047
2	0x40caeb3b	6.3412147
3	0x407edb7d	3.9821465
4	0x4068ba8d	3.6363862
5	0x40c9c060	6.3047333
6	0x4085229c	4.160475
7	0x40a7868b	5.2351737
8	0x40e7dcb7	7.2456927
9	0x40a15cd0	5.0425797
10	0x409fc6c4	4.9930134
11	0x40d97d20	6.796524

conv1.3.weight f4 [12, 12, 2]
0	0xbccbd500	-0.02488184
1	0xbda4e074	-0.080506235
2	0xbda45639	-0.08024258
3	0x3def3c98	0.11681479
4	0xbe40feab	-0.18847148
5	0xbe36e009	-0.178589
6	0x3e426c5a	0.18986645
7	0xbe1c817f	-0.15283774
8	0xbe14d38b	-0.14533822
9	0xbd9f951b	-0.077921115
10	0x3d323c0a	0.04351429
11	0xbdd2a530	-0.10285413
12	0x3ba004a4	0.0048833657
13	0xbd632296	-0.055452906
14	0x3e0b2341	0.13587667
15	0xbca85a4b	-0.020550868
16	0xbdae9cad	-0.08525977
17	0x3ab5abe6	0.0013860434
18	0xbd1fbb8a	-0.03899721
19	0xbdc626d9	-0.09675378
20	0xbd4487e1	-0.047981147
21	0xbce0a1ab	-0.02742084
22	0x3c3d5b05	0.011557345
23	0x3ca1f360	0.01976937
24	0x3e10a125	0.14123972
25	0xbe2faa51	-0.17154814
26	0xbe0737fe	-0.13204953
27	0x3cd2bc4b	0.02572455
28	0xbd6a7708	-0.057242423
29	0x3e06b763	0.13155894
30	0x3d420041	0.047363523
31	0xbe34fc2a	-0.17674318
32	0xbcc2c02a	-0.023773272
33	0xbd6b37dd	-0.057426322
34	0x3e220a56	0.15824255
35	0xbe2d5232	-0.16925886
36	0xbe2bdb45	-0.16782863
37	0x3dbe2a27	0.09285384
38	0x3d6a8c4b	0.0572627
39	0xbd0f6b0b	-0.035014194
40	0x3d27c9ea	0.040964045
41	0xbdc0fbbc	-0.094230145
42	0x3e145b04	0.14487845
43	0x3da27d8e	0.07934104
44	0x3ccbf81b	0.02489858
45	0xbdfaea0f	-0.122516744
46	0xbda0ff22	-0.07861163
47	0xbded01ca	-0.11572607
48	0xbdabcce9	-0.08388693
49	0x3d9d82e0	0.07690978
50	0x3da83a29	0.08214218
51	0xbd90c4a6	-0.07068758
52	0xbc8c5865	-0.017131994
53	0x3e170339	0.14747323
54	0x3d434431	0.047672454
55	0x3d8f37a8	0.069930375
56	0xbdf7b946	-0.12095885
57	0x3e55a7c3	0.20864777
58	0xbdbb0cb8	-0.09133285
59	0x3e1fe2ff	0.15613936
60	0xbde0d450	-0.109779954
61	0xbd0169ae	-0.031594925
62	0x3e680d03	0.22661214
63	0xbe128cab	-0.14311473
64	0xbd2b3b54	-0.041804627
65	0x3b4bcdb0	0.003109794
66	0x3c922f44	0.017844804
67	0xbd8ccb24	-0.068746835
68	0xbd0f037e	-0.03491544
69	0x3e18b0b3	0.14911155
70	0x3db9d3f4	0.0907363
71	0xbc582ddf	-0.01319453
72	0x3db7c9d7	0.08974045
73	0x3dc1e5d2	0.09467663
74	0xbd95912b	-0.07303079
75	0x3decaa70	0.11555946
76	0xbe052884	-0.13003737
77	0x3e6097c5	0.21932895
78	0xbe677116	-0.22601733
79	0x3e42e7b4	0.190337
80	0x3e025c8e	0.1273062
81	0xbe31cb31	-0.17362668
82	0x3d703f52	0.058654137
83	0xbe41b7fd	-0.18917842
84	0x3e0284c2	0.12745956
85	0xb9643837	-0.00021764716
86	0x3cd453d6	0.025918882
87	0xbd797bee	-0.060909204
88	0xbda3b67e	-0.07993792
89	0x3e3b34e2	0.18281892
90	0xbe05b90a	-0.13058868
91	0x3ddc46d7	0.10755699
92	0x3d1ceb9a	0.038310625
93	0xbb9b3f91	-0.0047378023
94	0x3d37737e	0.044787876
95	0xbe6a9fe4	-0.22912556
96	0x3dcdcd2b	0.10048898
97	0xbe06ef8c	-0.13177317
98	0xbcef8516	-0.029238265
99	0x3e0a7847	0.13522445
100	0xbc76ce3f	-0.015063821
101	0xbe33cf71	-0.17559601
102	0xbe344cd8	-0.17607439
103	0x3e011868	0.12606966
104	0xbde78ce2	-0.11306168
105	0x3e4bfc38	0.19920433
106	0xbe37bc83	-0.17943005
107	0xbdee33e5	-0.11630992
108	0xbe2dedee	-0.16985294
109	0xbc88f2e3	-0.01671738
110	0xbe27f978	-0.16403759
111	0xbe16de3d	-0.14733215
112	0xbe0e6288	-0.13904774
113	0xbd347890	-0.04406029
114	0xbdb250e1	-0.08706833
115	0x3dd40331	0.10352171
116	0xbd4a9dd7	-0.049466934
117	0xbddd530a	-0.10806854
118	0x3e0da425	0.13832147
119	0xbe3a4e73	-0.18193989
120	0xbdba6f7e	-0.09103297
121	0x3d91e465	0.07123641
122	0xbd60fac4	-0.05492665
123	0x3e428126	0.18994579
124	0xbe124669	-0.14284672
125	0x3df3dced	0.119073726
126	0xbe0ad7e1	-0.13558914
127	0x3c811936	0.015759092
128	0x3cb1c473	0.02170012
129	0x3e409d64	0.1881004
130	0x3d6ba1a1	0.05752719
131	0xbc2aae78	-0.010417573
132	0x3da09d62	0.078425184
133	0xbe157d9f	-0.14598702
134	0x3ce6e9de	0.028187688
135	0x3e44a3ea	0.19203153
136	0x3d944d14	0.07241264
137	0xbc6e9adf	-0.014563291
138	0x3e29e82d	0.16592474
139	0xbe5c432e	-0.21510002
140	0x3c49d773	0.0123194335
141	0xbe1f1cfe	-0.15538403
142	0xbe456048	-0.1927501
143	0xbe0b67e6	-0.13613853
144	0x3e2bfdd2	0.16796044
145	0xbc285d48	-0.010276146
146	0xbd983d80	-0.07433605
147	0xbc923bb3	-0.017850732
148	0x3d83321a	0.064060405
149	0x3ce14220	0.027497351
150	0x3d03dad9	0.03219113
151	0x3cd8a723	0.026446884
152	0x3de8e4ed	0.11371789
153	0xbd1347b1	-0.035957042
154	0x3e2ec11e	0.17065856
155	0xbd9ee95b	-0.07759353
156	0xbcb440df	-0.02200359
157	0xbd974b82	-0.07387449
158	0xbe373c8f	-0.17894195
159	0xbe0de681	-0.13857462
160	0xbe1b2ef8	-0.15154636
161	0xbe20b649	-0.15694536
162	0xbd6e4c83	-0.058178436
163	0x3e120ad8	0.14261949
164	0xbe2cc004	-0.16870123
165	0x3e1ed404	0.15510565
166	0xbe625ae2	-0.22104982
167	0xbde55eb2	-0.11199702
168	0x3e53bf34	0.20678407
169	0xbe369f0c	-0.17834109
170	0xbdf325ec	-0.118724674
171	0x3c3c6de0	0.011500806
172	0xbd34a3c4	-0.04410149
173	0x3cf77d15	0.030211011
174	0xbd8e208f	-0.06939804
175	0x3de0326f	0.109471194
176	0x3db62fcf	0.088958375
177	0xbd4816d8	-0.04884991
178	0x3dad63d0	0.08466303
179	0x3e15242b	0.14564578
180	0x3e5e0de6	0.2168499
181	0xbe1abeac	-0.15111798
182	0xbdd5845a	-0.10425635
183	0x3e5caa27	0.21549283
184	0x3d7e73ff	0.06212234
185	0x3e4cd4cc	0.2000305
186	0x3e0a6edd	0.13518853
187	0x3e0c0a6c	0.1367585
188	0xbdb1036a	-0.08643229
189	0x3db324eb	0.08747276
190	0xbd92b41a	-0.07163258
191	0x3e114e79	0.14190091
192	0x3d2de1cc	0.042451665
193	0x3e438fea	0.19097868
194	0xbd89efaa	-0.067351654
195	0x3de83992	0.11339106
196	0x3d4ba77d	0.049720276
197	0xbdc5d923	-0.09660556
198	0xbe568a6c	-0.20951241
199	0xbe032222	-0.1280599
200	0xbce43542	-0.027857427
201	0x3d25ffe1	0.04052723
202	0xbe454989	-0.19266333
203	0xbde210ca	-0.110383585
204	0xbc80e280	-0.015733004
205	0xbe23e79d	-0.16006322
206	0x3e285e33	0.16442184
207	0x3e215e0e	0.15758535
208	0x3d883116	0.066499874
209	0x3bd377c0	0.0064534843
210	0xbe286091	-0.16443087
211	0xbd8fe29e	-0.07025646
212	0x397eb393	0.00024290224
213	0xbd1ad72e	-0.037802868
214	0xbd6d1e09	-0.057889972
215	0xbe161249	-0.14655413
216	0xbda01940	-0.07817316
217	0xbcc3b103	-0.023888117
218	0x3d03a805	0.032142658
219	0x3dc47373	0.09592333
220	0xbe42fa41	-0.19040777
221	0x3c791122	0.015201839
222	0xbde8acbc	-0.113610715
223	0xbd16082e	-0.036628895
224	0x3ce0d94d	0.027447367
225	0xbdd04b9c	-0.10170671
226	0xbe14b696	-0.14522776
227	0x3db9dc5a	0.09075232
228	0x3e653391	0.22382952
229	0x3e536a2b	0.20645969
230	0x3ad779d9	0.0016439512
231	0xbe07b89a	-0.13254014
232	0x3e460df3	0.19341259
233	0x3e4f6ede	0.20257136
234	0xbde51e2d	-0.11187396
235	0xbd8204d4	-0.06348577
236	0xbcd1394f	-0.025540022
237	0x3a9bfe43	0.0011901337
238	0x3dab0f36	0.08352511
239	0xbe07149e	-0.13191459
240	0x3e035da3	0.12828688
241	0xbdc856c9	-0.09782178
242	0x3deac447	0.11463218
243	0xbe370cb2	-0.17875937
244	0xbc7cec7a	-0.01543724
245	0x3e58166f	0.21102308
246	0xbd4485a0	-0.047978997
247	0xbbba4843	-0.005684884
248	0x3d51cca4	0.05122055
249	0xbe0a80b3	-0.13525657
250	0x3d421990	0.04738766
251	0xbd5730cc	-0.05253677
252	0xbe25f201	-0.16205598
253	0xbb0dfc1c	-0.0021665161
254	0x3db12a47	0.08650642
255	0x3d935298	0.07193488

conv1.3.bias f4 [12]
0	0x3da9acf3	0.082849406
1	0xbde522bd	-0.111882664
2	0xba5bac45	-0.0008379857
3	0xbbe18876	-0.0068827225
4	0x3cbc0acd	0.022954369
5	0x3cd930ce	0.02651253
6	0xbe172bd2	-0.1476281
7	0xbda68784	-0.08131316
8	0xbdbbab8a	-0.09163578
9	0x3e2ddc37	0.16978537
10	0x3dc7be65	0.09753112
11	0x3ca2f58f	0.019892482

conv1.4.weight f4 [12]
0	0x3f80266a	1.0011723
1	0x3f81bc8e	1.0135667
2	0x3f80b322	1.0054667
3	0x3f7eb4f3	0.99494857
4	0x3f803672	1.0016615
5	0x3f80dfec	1.0068336
6	0x3f8360d3	1.0263923
7	0x3f800361	1.0001031
8	0x3f8106a1	1.0080148
9	0x3f833365	1.0250059
10	0x3f80af7f	1.0053557
11	0x3f7dc055	0.991216

conv1.4.bias f4 [12]
0	0xbbc51f8f	-0.006015725
1	0x3b539d8c	0.003228995
2	0x3b0f5560	0.0021870956
3	0xbbac2569	-0.005253483
4	0xbb80a276	-0.003925617
5	0xbb800d84	-0.003907861
6	0x3b52aa0b	0.003214481
7	0xbc9960ae	-0.018722858
8	0xbb8d4500	-0.004311204
9	0xbb8947f0	-0.004189484
10	0xbb91f97c	-0.0044547897
11	0xbc376ebc	-0.011195835

conv1.4.running_mean f4 [12]
0	0xbe4f3beb	-0.202377
1	0xbe9835ba	-0.2972849
2	0x3e2236c8	0.1584121
3	0x3d20a083	0.039215576
4	0xbede1d0b	-0.43381533
5	0xbc479112	-0.012180584
6	0xbeb8cd93	-0.3609434
7	0x3e8046a2	0.2505389
8	0xbea16e1b	-0.31529316
9	0x3e36d28f	0.17853759
10	0xbd3b70a4	-0.04576172
11	0xbeac7a13	-0.33686885

conv1.4.running_var f4 [12]
0	0x3d92021a	0.07129307
1	0x3da8c534	0.082407385
2	0x3d95cd22	0.073145166
3	0x3e6e348d	0.23262234
4	0x3e349d6a	0.17638174
5	0x3ddd1613	0.10795226
6	0x3db99fdf	0.09063696
7	0x3e3f56ed	0.18685503
8	0x3dd09b41	0.10185862
9	0x3da74124	0.081667215
10	0x3db2c37d	0.08728693
11	0x3e4cab18	0.19987142

conv2.0.weight f4 [12, 15, 3]
0	0xbcd0384e	-0.025417473
1	0xbb4a8a1e	-0.0030905078
2	0xbd323d92	-0.04351575
3	0xbdb9be80	-0.09069538
4	0x3d4fca51	0.050730053
5	0x3e13f0c2	0.1444731
6	0xbd8ea6da	-0.06965418
7	0xbcb3d200	-0.021950722
8	0x3e0869b2	0.1332157
9	0x3e0a8e78	0.1353091
10	0x3e117c47	0.14207564
11	0x3e089cb9	0.13341035
12	0xbd871ac1	-0.065969
13	0xbcd8fccc	-0.02648773
14	0xbdef6f09	-0.116911
15	0xbd145ee4	-0.036223307
16	0x3d4ab029	0.049484406
17	0x3dc6c484	0.09705451
18	0xbcd9adc5	-0.026572118
19	0xbd2546ae	-0.04035061
20	0xbc05338d	-0.008129966
21	0x3cbc87a9	0.023013907
22	0xbc029f4c	-0.00797255
23	0x3dfda591	0.12385095
24	0xbda39ff4	-0.07989493
25	0x3bfc2a7c	0.007695494
26	0xbd8419d4	-0.06450239
27	0x3c1614c0	0.009160221
28	0xbd8647de	-0.06556676
29	0x3d760795	0.060065825
30	0xbd953811	-0.072860844
31	0xbe17fb70	-0.1484201
32	0x3c48c861	0.012254805
33	0x3e29534c	0.16535681
34	0xbe00b52f	-0.12569116
35	0x3c496f82	0.012294652
36	0x3df7a3be	0.12091778
37	0xbe1bd4f3	-0.15217952
38	0x3dcb2c47	0.099205546
39	0xbb791392	-0.003800605
40	0xbd675acb	-0.05648307
41	0x3d9a960c	0.075481504
42	0xbe0e0aaa	-0.13871256
43	0x3e1ca044	0.15295511
44	0xbd80b1c7	-0.06283908
45	0x3dc37e9a	0.09545632
46	0x3d3e656c	0.046483442
47	0x3e040908	0.1289407
48	0x3ba6266c	0.005070498
49	0x3c1857cd	0.009298277
50	0x3deba972	0.115069285
51	0xbb497b68	-0.0030743722
52	0xbc08849e	-0.0083324
53	0x3db0900f	0.08621227
54	0x3e09ab87	0.13444339
55	0xbd6b7f71	-0.057494584
56	0xbd11103f	-0.035415884
57	0xbdd80797	-0.10548323
58	0xb99c0b68	-0.00029763137
59	0xbd71b832	-0.059013553
60	0x3b0cab67	0.0021464468
61	0xbe0e282c	-0.13882512
62	0x3c601147	0.013675994
63	0xbd7fe371	-0.062472764
64	0xbde9154c	-0.11381015
65	0xbda7ef93	-0.08199992
66	0xbd601e70	-0.054716527
67	0xbd6f8fe6	-0.05848684
68	0x3c38833d	0.011261758
69	0xbd3f00b1	-0.04663152
70	0x3c78ec55	0.015193065
71	0x3d89e6cb	0.067334734
72	0xbdbd495f	-0.0924251
73	0x3d818cfc	0.06325719
74	0x3c0dd896	0.008657595
75	0xbd81daf1	-0.06340588
76	0x3d52eb30	0.051493824
77	0x3c6fc9b6	0.014635494
78	0xbd7292ea	-0.05922214
79	0xbd6d6770	-0.057959974
80	0xbdc5cce5	-0.09658221
81	0x3c71b1a1	0.014751823
82	0x39e85276	0.00044311926
83	0xbba9d32b	-0.005182644
84	0x3d95346a	0.07285388
85	0xbc909431	-0.017648788
86	0x3e26a65a	0.16274396
87	0xbdce2ea4	-0.1006749
88	0xbdecfa84	-0.115712196
89	0xbe539a78	-0.20664394
90	0x3dd8bc81	0.10582829
91	0x3d4eae36	0.05045911
92	0xbda05e3d	-0.078304745
93	0xbd9981e0	-0.07495475
94	0xbd420db8	-0.047376364
95	0x3d87be5c	0.06628105
96	0x3d58bd41	0.05291486
97	0xbca309ca	-0.019902129
98	0xbd7e4845	-0.06208064
99	0xbe44ea02	-0.19229892
100	0x3db9cc27	0.09072142
101	0xbcdcf66f	-0.026972977
102	0xbb6f885c	-0.0036549782
103	0x3d98596d	0.074389316
104	0x3e12c445	0.14332683
105	0x3d8f6680	0.07001972
106	0x3df8799c	0.1213257
107	0x3de1313d	0.109957196
108	0x3e0d2570	0.13783813
109	0x3dcf578e	0.101241216
110	0x3d041b15	0.03225239
111	0x3d6e54e7	0.058186438
112	0xbc5f1ffc	-0.0136184655
113	0x3da2d187	0.079501204
114	0xbe3c5841	-0.18393041
115	0x3db186fb	0.086683236
116	0xbcaf07a9	-0.021365957
117	0xbd144ff0	-0.036209047
118	0x3dd7daf7	0.10539811
119	0x3e2bbfab	0.16772334
120	0x3d44e1b9	0.04806683
121	0x3e1dc9c3	0.15408997
122	0xbdedd0d0	-0.116120934
123	0xbdb4d651	-0.0882994
124	0x3d4ebb93	0.050471853
125	0x3e59e10e	0.21277258
126	0xbc7ebb9b	-0.015547658
127	0x3e04118c	0.12897319
128	0x3dcd31e1	0.10019279
129	0x3df2eb67	0.11861306
130	0x3dea1e61	0.114315756
131	0x3d9874c8	0.07444149
132	0x3d71be91	0.05901963
133	0xbc5c2791	-0.013437168
134	0xbca24dd7	-0.019812508
135	0xbdd9f91c	-0.10643217
136	0x3dd629b4	0.10457173
137	0xbd243d4a	-0.040097512
138	0x3dead2e0	0.114660025
139	0xbb558035	-0.0032577638
140	0xbd5a2943	-0.053262006
141	0x3d931325	0.07181386
142	0x3d2c0fea	0.042007364
143	0xbc965843	-0.018352633
144	0xbd8fd729	-0.070234604
145	0xbe037846	-0.1283885
146	0xbddf6ec8	-0.10909802
147	0x3d5be64d	0.05368643
148	0x3b62678e	0.0034546587
149	0x3df38e19	0.11892337
150	0xbcb47f65	-0.022033403
151	0x3caba714	0.020953692
152	0xbdedbf93	-0.116088055
153	0x3d5ad251	0.05342323
154	0xbdbc5003	-0.091949485
155	0xbd120207	-0.035646465
156	0xbccc7d69	-0.024962144
157	0xbc1bd025	-0.009510075
158	0x3df412e0	0.119176626
159	0x3d14a97d	0.03629445
160	0xbc8a620c	-0.016892456
161	0x3db11c3f	0.08647966
162	0xbde1ce7d	-0.11025713
163	0xbd342231	-0.04397792
164	0xbe2512e6	-0.1612049
165	0xbe01e95c	-0.12686676
166	0x3d0c836d	0.034305025
167	0x3dcd5518	0.10025996
168	0xbd46a76a	-0.048499502
169	0xbd7a0e6e	-0.061048917
170	0x3dc8fc2d	0.09813724
171	0x3e01c864	0.12674099
172	0xbd14255e	-0.03616845
173	0xbc87523e	-0.016518708
174	0x3e139b73	0.14414768
175	0xbdc5fb9d	-0.09667132
176	0xbc6566c3	-0.014001551
177	0x3cf49a9f	0.029858885
178	0x3e143420	0.14473009
179	0x3dcc72eb	0.09982856
180	0x3bd8d1fe	0.00661683
181	0xbd870d20	-0.065943
182	0x3db899ae	0.09013687
183	0xbda858dc	-0.082200736
184	0x3c7f7b16	0.015593311
185	0x3d6243a8	0.055240303
186	0x3c6e7d83	0.0145562915
187	0xbd856aab	-0.06514486
188	0xbe08bf05	-0.13354118
189	0x3cc08cd0	0.023504645
190	0x3cf6883d	0.03009426
191	0xbd405e90	-0.04696518
192	0xbde255a9	-0.11051495
193	0x3dc920dd	0.09820721
194	0xbb75f5d8	-0.0037530567
195	0x3db2049d	0.08692286
196	0x3dd1ece4	0.102502614
197	0xbd11d6de	-0.035605304
198	0x3d837e4b	0.06420573
199	0xbe0d1ea9	-0.13781227
200	0x3de42a73	0.11140909
201	0x3d1986d7	0.03748211
202	0x3a13cb07	0.00056378584
203	0x3dbbd43b	0.09171339
204	0x3d9f838e	0.07788764
205	0xbd760072	-0.06005902
206	0x3deffd86	0.11718278
207	0xbcdd469b	-0.027011206
208	0xbd6544cb	-0.05597381
209	0xbd03f930	-0.032220066
210	0x3d9629fd	0.073322274
211	0x3de8c662	0.113659635
212	0x3db4b2b4	0.088231474
213	0x3de50a8b	0.111836515
214	0x3ddd5527	0.10807257
215	0x3d10cd57	0.035352077
216	0x3d92926a	0.071568325
217	0xbe1fec42	-0.15617469
218	0xbe21979f	-0.15780495
219	0xbe230c6a	-0.15922704
220	0x3c4620dd	0.012092796
221	0x3e036fbf	0.12835597
222	0xbe131a8a	-0.14365593
223	0x3d33852f	0.043828186
224	0x3cdb4a5f	0.026768861
225	0x3b2131eb	0.0024596404
226	0x3cba4490	0.022737771
227	0xbd8b8648	-0.068127215
228	0xbe0f84b6	-0.14015469
229	0x3da67cbd	0.08129261
230	0x3cc7ad38	0.02437459
231	0xbcf9e63b	-0.03050529
232	0xbd4bce77	-0.049757447
233	0x3df5a349	0.11994035
234	0x3b80bce7	0.003928769
235	0x3da565a1	0.08076025
236	0xbe0255e2	-0.12728074
237	0x3d745c59	0.059658382
238	0xbdb26d65	-0.087122716
239	0xbdd8e45b	-0.1059043
240	0xbe08e1ba	-0.13367358
241	0xbda30db9	-0.07961602
242	0x3db69814	0.08915725
243	0xbe116a2c	-0.14200658
244	0x3d85348b	0.065041624
245	0x3d5cd3bd	0.053912867
246	0x3dc1237c	0.09430596
247	0x3d7dbaa6	0.06194558
248	0x3b6955d5	0.0035604138
249	0x3c4185bf	0.011811673
250	0xbdee081b	-0.1162264
251	0x3dbf7a8c	0.09349546
252	0x3de02183	0.10943892
253	0xbcabea92	-0.020985875
254	0xbd1bec03	-0.038066875
255	0xbae486a2	-0.0017435143

conv2.0.bias f4 [12]
0	0x3da2dc00	0.07952118
1	0x3d62a856	0.05533632
2	0xbcef3e45	-0.029204497
3	0xbcd18418	-0.025575683
4	0x3e212c29	0.15739502
5	0xbd827cca	-0.06371458
6	0xbe008b86	-0.12553224
7	0x3d0698de	0.03286063
8	0xbc4758a2	-0.012167128
9	0xbda936a5	-0.08262376
10	0x3d0278a4	0.031853333
11	0xbdb63822	-0.08897425

conv2.1.weight f4 [12]
0	0x3f7b69b6	0.9820818
1	0x3f760255	0.9609731
2	0x3f81c7ed	1.0139138
3	0x3f81fcc6	1.0155265
4	0x3f7f9653	0.9983875
5	0x3f8072ae	1.0034997
6	0x3f8193ac	1.0123191
7	0x3f7a464c	0.97763515
8	0x3f7bf451	0.9841967
9	0x3f7a15b4	0.97689366
10	0x3f813dfe	1.0097044
11	0x3f833c89	1.0252849

conv2.1.bias f4 [12]
0	0xbd95590c	-0.07292375
1	0xbd614338	-0.054995745
2	0x3b33e119	0.00274474
3	0x3cc1e75c	0.023669891
4	0xbcf7d731	-0.030253978
5	0x3d2faab5	0.04288741
6	0x3c711d5f	0.014716475
7	0x3d112165	0.035432238
8	0xbcbf38e4	-0.023342557
9	0xbd75d693	-0.060019087
10	0xbb87f21f	-0.004148736
11	0xbc41f09a	-0.011837149

conv2.1.running_mean f4 [12]
0	0x3e7a5b27	0.24448834
1	0x3f7ae298	0.98002005
2	0xbee65324	-0.44985306
3	0x3e5f4275	0.21802695
4	0x3c880327	0.016603066
5	0x3df78c20	0.120872736
6	0x3e96a36b	0.29421553
7	0xbd878f45	-0.06619123
8	0xbed539c1	-0.41645625
9	0xbf07cd2b	-0.53047436
10	0xbe215941	-0.15756704
11	0x3e2f8560	0.17140722

conv2.1.running_var f4 [12]
0	0x4085d234	4.1819096
1	0x40bc1e98	5.8787346
2	0x409a806c	4.8281765
3	0x40685031	3.6298945
4	0x405fc992	3.4966779
5	0x408d8bc4	4.423311
6	0x409a01e6	4.8127317
7	0x409be19b	4.8712897
8	0x411c75bf	9.778747
9	0x40f34e0b	7.6032767
10	0x4099a0b8	4.800869
11	0x4098d9af	4.7765727

conv2.3.weight f4 [12, 12, 3]
0	0xbe50d3a7	-0.20393239
1	0x3d614aca	0.055002965
2	0xbdfdbf05	-0.1238995
3	0xbd6ffc16	-0.058590017
4	0xbe007e6a	-0.12548223
5	0x3e187b7f	0.1489086
6	0x3d439605	0.04775049
7	0xbe38a888	-0.1803304
8	0x3d71b05c	0.05900608
9	0x3dd336fa	0.1031322
10	0x3d720546	0.05908706
11	0x3e042eeb	0.12908523
12	0xbcab97e5	-0.020946452
13	0xbdd0a411	-0.10187543
14	0x3db88a6c	0.09010777
15	0x3d8397a2	0.06425406
16	0xbca91300	-0.020638943
17	0x3e0099c6	0.1255866
18	0x3de958b5	0.11393873
19	0x3d5b8b62	0.053599723
20	0x3d576478	0.05258605
21	0xbca8693e	-0.020557996
22	0xbc790be3	-0.015200588
23	0xbe1ab016	-0.15106234
24	0xbdf718f9	-0.1206531
25	0xba05e08e	-0.00051070086
26	0xbd687efc	-0.056761727
27	0x3d9e8129	0.07739479
28	0xbe073d79	-0.13207044
29	0xbbd44489	-0.0064778966
30	0xbd9b9019	-0.07595844
31	0xbe40c46d	-0.1882493
32	0x3d9633bb	0.073340856
33	0x3e23131a	0.15925255
34	0xbd95b781	-0.07310391
35	0xbde625df	-0.11237692
36	0xbde1cd6d	-0.1102551
37	0xbe386cd8	-0.1801027
38	0xbd42670a	-0.047461547
39	0x3e183e24	0.14867455
40	0xbdaa8172	-0.08325471
41	0x3dec0f6a	0.115263775
42	0x3db08542	0.08619167
43	0xbdec8a45	-0.1154981
44	0xbcaa24b6	-0.020769458
45	0xbdb38cf2	-0.087671176
46	0x3da65732	0.081221
47	0xbd84fae5	-0.06493167
48	0xbd6d0369	-0.05786458
49	0xbe005a53	-0.12534456
50	0xbda2d5a4	-0.07950905
51	0xbcd8ed1e	-0.026480254
52	0x3d3e92d4	0.046526745
53	0x3d23e5fc	0.040014252
54	0xbe0e526c	-0.13898629
55	0x3e070724	0.13186318
56	0xbe095b6b	-0.1341378
57	0x3dc274b5	0.09494916
58	0x3df204db	0.11817332
59	0x3d1dc1ac	0.038514778
60	0xbded9f86	-0.11602692
61	0x3d0db28e	0.03459411
62	0x3e50801b	0.20361368
63	0xbca2a3a8	-0.019853428
64	0x3de8fea5	0.113766946
65	0x3e40052f	0.18751977
66	0x3da14294	0.07874027
67	0xbd974043	-0.07385304
68	0xbb759ff6	-0.0037479377
69	0x3caa6e80	0.020804644
70	0xbbe10d6a	-0.006868054
71	0x3d9fb094	0.077973515
72	0xbc0df166	-0.008663511
73	0xbdbc3e48	-0.09191567
74	0xbdbdb285	-0.092625655
75	0x3e0685e1	0.13137008
76	0x3e0881bf	0.13330744
77	0x3aee0c0b	0.0018161548
78	0x3de7119e	0.11282657
79	0xbdd2786f	-0.10276877
80	0x3e32b28d	0.17450924
81	0x3ca486fd	0.020083899
82	0x3cfca861	0.030842008
83	0xbdfb41c7	-0.122684054
84	0xbe02cc63	-0.1277328
85	0x3e1e059d	0.15431829
86	0x3e24e936	0.16104588
87	0x3d235a30	0.03988093
88	0xbdf85664	-0.12125853
89	0x3b972eb9	0.004613724
90	0xbd77840e	-0.06042867
91	0xbd96d2a4	-0.07364395
92	0xbdb57e20	-0.08861947
93	0xbe3cdc52	-0.1844342
94	0xbd4fc904	-0.050728813
95	0x3cd705eb	0.02624794
96	0xbd25def8	-0.040495843
97	0x3e208e3d	0.1567926
98	0x3c74f6a1	0.014951379
99	0xbd6a3321	-0.057177667
100	0x3adb4fc4	0.0016732146
101	0xbe129249	-0.14313616
102	0xbd4f81ba	-0.050660826
103	0xbdd555c9	-0.10416753
104	0xbe038334	-0.12843019
105	0x3c15bfab	0.0091399355
106	0x3ba25e51	0.004955091
107	0x3cc3ca6a	0.02390023
108	0x3d777029	0.0604097
109	0xbcfe07aa	-0.031009514
110	0xbd97f734	-0.07420197
111	0x3d58abcc	0.052898213
112	0x3ae49db2	0.0017442016
113	0xbe021f6e	-0.12707302
114	0xbd9579e5	-0.0729864
115	0x3d92c5c3	0.07166626
116	0xbd767f77	-0.060180154
117	0xbcd0df44	-0.025497086
118	0x3b2ca6b9	0.0026344492
119	0x3d733acc	0.059382245
120	0x3dd58120	0.10425019
121	0x3bc7ffc2	0.0061034868
122	0xbdf91995	-0.121630825
123	0x3d4aa9b9	0.049478266
124	0x3c888796	0.016666215
125	0x3c476cf8	0.012171976
126	0xbda54540	-0.08069849
127	0x3e24c51f	0.1609082
128	0x3e249b28	0.16074812
129	0xbe22c112	-0.15893963
130	0xbd9c99f4	-0.07646552
131	0xbcc3fc66	-0.023924064
132	0x3d53effe	0.051742546
133	0x3d24f45b	0.040272098
134	0xbd931c50	-0.071831346
135	0xbbf7c613	-0.007561454
136	0x3d614946	0.05500152
137	0x3e052380	0.13001823
138	0xbe12d465	-0.14338835
139	0x3dfa4353	0.12219872
140	0x3cfc59df	0.030804573
141	0x3bea0206	0.0071413545
142	0xbd01c344	-0.03168036
143	0x3d06afd8	0.03288254
144	0x3cf86c11	0.030324968
145	0xbdb90a92	-0.09035219
146	0x3daf547a	0.085610345
147	0x3e0a74ec	0.13521165
148	0x3c11f6f3	0.008908975
149	0x3de5cd6b	0.11220821
150	0x3d888191	0.06665338
151	0x3cc42e6b	0.023947915
152	0x3d251631	0.040304366
153	0xbbf17dce	-0.0073697334
154	0x3e0ed18d	0.13947125
155	0x3dd82cfc	0.10555455
156	0x3e040987	0.1289426
157	0xbe2bdebc	-0.16784185
158	0x3d9214a4	0.07132843
159	0x3df400d8	0.119142234
160	0x3cc21c09	0.023695009
161	0xbc6bac72	-0.014384376
162	0xbe53f40f	-0.2069857
163	0xbe39c03d	-0.1813974
164	0x3e1755b4	0.14778787
165	0x3dfb9cd4	0.12285772
166	0xbe113ff6	-0.14184555
167	0xbd630a93	-0.055430006
168	0xbdb68611	-0.0891229
169	0x3cd0378b	0.02541711
170	0xbda5be6d	-0.080929615
171	0x3d4791ac	0.048722908
172	0xbdf9d51c	-0.121988505
173	0xbd69344d	-0.056934644
174	0x3dd9d909	0.10637099
175	0xbce0b2c6	-0.027428996
176	0x3d89e1d2	0.06732525
177	0xbe0ab584	-0.13545805
178	0x3dbf0c6b	0.093285404
179	0x3d28b8cd	0.041191865
180	0x3e0096db	0.12557547
181	0xbd44ac19	-0.048015688
182	0xbdffb87b	-0.12486359
183	0x3db47dff	0.08813094
184	0xbda7473b	-0.08167883
185	0xbdc8c624	-0.09803417
186	0x3d790e8e	0.060804896
187	0x3c9f4322	0.019441191
188	0x3cf27a44	0.029599316
189	0xbc733378	-0.014843814
190	0x3ce9babf	0.02853143
191	0x37976346	1.804683e-05
192	0x3e1665de	0.14687297
193	0xbdb0d224	-0.08633831
194	0x3e15c071	0.14624192
195	0xbe07d8f9	-0.13266362
196	0xbdec6f06	-0.115446135
197	0x3e277b45	0.16355617
198	0xbe08087b	-0.13284485
199	0x3ba51603	0.0050380244
200	0xbc757726	-0.0149820205
201	0xbe1652c1	-0.14680006
202	0xbe0f3037	-0.13983236
203	0x3daade2b	0.083431564
204	0xbc9a178b	-0.018810054
205	0x3e4dced8	0.20098436
206	0x3db17b33	0.086660765
207	0xbcce444f	-0.025179056
208	0x3dae16e5	0.085004605
209	0xbe09158b	-0.13387124
210	0xbd71d8df	-0.059044715
211	0x3c1b3616	0.009473344
212	0xbd1cc475	-0.038273294
213	0x3d22e3cc	0.039768025
214	0x3e4c71c5	0.19965275
215	0x3e22c6a8	0.15896094
216	0xbdfffdbf	-0.1249957
217	0x3da7d5dc	0.08195087
218	0x3d45736f	0.04820579
219	0x3d2ec87d	0.04267167
220	0xbe2abc57	-0.16673408
221	0x3dc334b7	0.09531539
222	0x3d231886	0.03981831
223	0xbd69a70a	-0.057044066
224	0x3cd7d5df	0.026347099
225	0x3d98ca37	0.074604444
226	0x3d62d6b0	0.055380523
227	0xbe264899	-0.16238631
228	0x3d1cdb75	0.038295228
229	0xbe25e7fa	-0.16201773
230	0xbc25f46a	-0.010129074
231	0x3dc6f74b	0.09715136
232	0x3e02da5b	0.12778609
233	0x3d80b198	0.06283873
234	0xbc12610e	-0.008934272
235	0xbe36c946	-0.17850217
236	0xbddc9d73	-0.107722186
237	0xbcffb567	-0.031214429
238	0xbdb873d2	-0.09006466
239	0x3c5f3f9a	0.013626004
240	0x3d8b2472	0.06794061
241	0xbe283af8	-0.16428745
242	0x3cc44e09	0.023962991
243	0xbda9ef09	-0.082975455
244	0xbddc45cf	-0.107555024
245	0xbd114553	-0.035466503
246	0xbe2d0bbb	-0.16899006
247	0x3d745288	0.05964902
248	0x3e01ccd5	0.12675793
249	0x3d875f56	0.06609981
250	0x3e56566b	0.20931403
251	0xbd058464	-0.03259696
252	0xbe1901fd	-0.14942165
253	0x3ddda424	0.10822323
254	0xbe0f45bb	-0.13991444
255	0xbb8dc8fa	-0.004326937

conv2.3.bias f4 [12]
0	0xbdb81ad4	-0.08989492
1	0x3db69e5c	0.089169234
2	0x3e2977b4	0.1654957
3	0xbe172d59	-0.14763393
4	0x3dcdfa3c	0.10057494
5	0x3dfed760	0.12443423
6	0x3dab676f	0.08369338
7	0xbd1a48f3	-0.037667226
8	0xbdbcc0e7	-0.09216481
9	0x3d8c5fa1	0.06854177
10	0xbe21468b	-0.15749566
11	0xbdb540db	-0.08850261

conv2.4.weight f4 [12]
0	0x3f86805d	1.0507923
1	0x3f830942	1.02372
2	0x3f827040	1.0190506
3	0x3f8203e3	1.0157436
4	0x3f8141bb	1.0098184
5	0x3f83fea1	1.0312082
6	0x3f80c475	1.0059954
7	0x3f8615f6	1.0475452
8	0x3f831227	1.0239915
9	0x3f801422	1.0006144
10	0x3f85f7ae	1.0466211
11	0x3f849b66	1.0359924

conv2.4.bias f4 [12]
0	0xbb81b515	-0.0039583542
1	0xbb9095fb	-0.0044124103
2	0x3b4bccbc	0.0031097373
3	0xbb8ae48d	-0.004238671
4	0x39f80054	0.0004730249
5	0x3b27af5e	0.0025586705
6	0x398ee870	0.0002725753
7	0x3b56ffb8	0.003280623
8	0x3abf360c	0.0014588251
9	0xbba3ee10	-0.0050027445
10	0x3b53ea92	0.003233586
11	0xbb808946	-0.0039226143

conv2.4.running_mean f4 [12]
0	0xbe46b50c	-0.19405001
1	0x3e00ce61	0.12578727
2	0x3d1dd430	0.038532436
3	0xbdf6d1a0	-0.120517015
4	0x3e81f362	0.25381
5	0x3e6b0de7	0.22954522
6	0x37bcf233	2.252413e-05
7	0xbd3e44f9	-0.046452496
8	0xbdbfe5cc	-0.09370002
9	0xbe324e57	-0.17412697
10	0xbe36ecd2	-0.17863777
11	0xbd778b63	-0.060435664

conv2.4.running_var f4 [12]
0	0x3d87c1c1	0.066287525
1	0x3d8ca991	0.0686828
2	0x3de5bf76	0.11218159
3	0x3da996cc	0.08280715
4	0x3e062ffa	0.13104239
5	0x3dad87e6	0.08473186
6	0x3dda3fdf	0.10656714
7	0x3d6a7934	0.057244495
8	0x3db1041c	0.08643362
9	0x3e032439	0.12806787
10	0x3d4df9af	0.050286945
11	0x3ddbdf7b	0.10735985

conv3.0.weight f4 [12, 15, 4]
0	0x3c9e035f	0.019288717
1	0xbdc4f904	-0.096178085
2	0x3ca1a0e3	0.019730037
3	0x3ccb614a	0.024826664
4	0xbd89b1c8	-0.06723362
5	0x3cd0fe2e	0.025511827
6	0xbcdde7a2	-0.02708799
7	0xbd9a60c5	-0.075379886
8	0xbda6a8b7	-0.081376486
9	0xbca7e684	-0.02049566
10	0xbda29e7c	-0.07940385
11	0x3df2efc9	0.11862142
12	0x3da03a45	0.07823614
13	0xbd0e2dca	-0.034711637
14	0x3db20418	0.08692187
15	0x3dc9f4d0	0.098611474
16	0x3dac393f	0.08409356
17	0x3be34d93	0.006936738
18	0xbd67d2d2	-0.05659754
19	0x3dc43c89	0.09581859
20	0xbdc5b298	-0.09653205
21	0x3dcb760a	0.099346235
22	0x3c598050	0.013275221
23	0xbba7c476	-0.0051198555
24	0xbdb3e19d	-0.08783267
25	0x3d39bdf9	0.045347188
26	0x3d891a0b	0.066944204
27	0xbd91b170	-0.07113922
28	0x3ccd8361	0.02508706
29	0x3d080540	0.03320813
30	0xbd809f45	-0.06280378
31	0x3db92052	0.09039368
32	0xbca69aba	-0.020337451
33	0xbad9131d	-0.0016561482
34	0x3d454cae	0.04816883
35	0xbdcd75c6	-0.10032229
36	0x3d69b213	0.05705459
37	0xbd142f0b	-0.036177676
38	0xbdb74803	-0.08949282
39	0x3cb75713	0.022380387
40	0x3d861779	0.06547446
41	0x3c6acb59	0.014330708
42	0xbda32c81	-0.07967473
43	0xbd46574d	-0.0484231
44	0xbd3f23c7	-0.04666498
45	0xbe204cd3	-0.15654306
46	0x3e195afa	0.14976111
47	0xbd3fe347	-0.046847608
48	0xbdf698cc	-0.120408624
49	0x3e19a409	0.1500398
50	0xbe0324aa	-0.12806955
51	0xbe248a9f	-0.16068505
52	0x3dff8190	0.12475884
53	0xbcf4f04d	-0.02989974
54	0xbdc51d7e	-0.09624766
55	0xbda56f93	-0.08077922
56	0xbcd2c78a	-0.025729913
57	0x3d232095	0.039825995
58	0xbcbdd56f	-0.023173062
59	0xbdd4ab87	-0.10384279
60	0x3daa46fe	0.08314322
61	0xbcd745ad	-0.026278341
62	0xbd859557	-0.06522625
63	0x3d658ba6	0.056041382
64	0xbc83dfda	-0.016097952
65	0xbdb01f2d	-0.08599696
66	0x3c82460f	0.015902547
67	0x3d8c22d9	0.06842584
68	0xbd33d351	-0.0439027
69	0x3d8416f8	0.064496934
70	0xbc1f5ee5	-0.009727214
71	0x3d637c52	0.055538483
72	0xbd17b8ae	-0.03704136
73	0xbda1e88f	-0.07905685
74	0x3dc3a4ca	0.095529154
75	0xbd2831b2	-0.04106302
76	0x3cf977ff	0.030452726
77	0xbd5d72a6	-0.054064415
78	0xbcde435a	-0.027131725
79	0x3c212a8f	0.009836807
80	0x3e153801	0.14572145
81	0x3e01a8c6	0.12662038
82	0xbb84e6cd	-0.004055834
83	0x3e16d2e3	0.14728884
84	0x3da15a57	0.07878559
85	0x3d2220e9	0.039582167
86	0xbda8ab2c	-0.082357734
87	0x3d65a354	0.056063965
88	0xbda3f5d6	-0.08005874
89	0xbd9378af	-0.07200753
90	0xbe03f74a	-0.12887302
91	0xbd916dc8	-0.07101017
92	0xbd338dab	-0.043836277
93	0x3c1853c9	0.00929732
94	0xbdbef7d2	-0.09324612
95	0x3c45163c	0.012029227
96	0xbb88b73f	-0.0041722353
97	0xbdbcf9db	-0.09227344
98	0x3da0e65c	0.078564376
99	0x3d50eeaf	0.051008876
100	0x3d50049a	0.05078564
101	0xbdb041c0	-0.08606291
102	0xbd5dc3b8	-0.05414173
103	0xbd568a6f	-0.052378114
104	0x3dd46de7	0.10372525
105	0x3d936906	0.07197766
106	0x3d7189e8	0.05896941
107	0x3d47c547	0.048772123
108	0x3cf18778	0.029483542
109	0xbdd93e34	-0.106075674
110	0x3decacba	0.115563825
111	0xbe230d67	-0.15923081
112	0x3d978445	0.07398275
113	0x3d973b03	0.073843025
114	0x3a9a7c25	0.0011786266
115	0xbd9b4ef3	-0.07583418
116	0xbd8604d3	-0.06543889
117	0xbda1c9eb	-0.07899841
118	0xbd9b3979	-0.075793214
119	0xbd93b942	-0.072130695
120	0xbd5ade10	-0.05343443
121	0x3d953fe3	0.07287576
122	0xbd53e661	-0.05173338
123	0xbdf16c9c	-0.11788294
124	0xbdbc4c90	-0.09194291
125	0x3ca66bd7	0.020315094
126	0x3d095869	0.03353158
127	0x3d147498	0.036244005
128	0x3cc75429	0.024332123
129	0xbdb52ac4	-0.088460475
130	0x3d9cfe63	0.07665708
131	0x3c8dc4d3	0.017305767
132	0x3cc7969e	0.024363812
133	0x3c5dea8d	0.013544691
134	0x3dd7ef04	0.105436355
135	0xbd8aa90f	-0.067705266
136	0xbd68f44d	-0.05687361
137	0x3db5dcc2	0.08879997
138	0x3dbf6037	0.093445234
139	0x3b8beb5a	0.0042699995
140	0x3e0ed3d5	0.13947995
141	0x3d1d033e	0.03833317
142	0x3e09b5c9	0.13448252
143	0xbdfc2754	-0.12312189
144	0x3de43298	0.111424625
145	0xbcab2efe	-0.020896431
146	0x3d760f81	0.06007338
147	0xbc9a3da7	-0.018828226
148	0xbd905136	-0.0704674
149	0x3d03d34e	0.032183938
150	0xbdd143c0	-0.102180004
151	0xbd99c790	-0.07508767
152	0xbca8b3c9	-0.02059354
153	0xbce00953	-0.027348196
154	0xbda826e2	-0.08210541
155	0x3d30b1f2	0.043138452
156	0x3b8543c6	0.004066917
157	0x3e131ee7	0.14367257
158	0x3e05c782	0.13064387
159	0x3d565b69	0.05233327
160	0x3dd39f13	0.103330754
161	0x3d115dac	0.035489723
162	0x3da2a3e2	0.079414144
163	0xbd5b7fcb	-0.05358867
164	0xbd47e8de	-0.048806064
165	0xbe28a7ca	-0.16470256
166	0x3d8ac6cb	0.06776198
167	0xbd448642	-0.0479796
168	0x3d8e4fb7	0.06948798
169	0x3d54aa6b	0.051920336
170	0xbb8e5aef	-0.004344336
171	0x3d5a1059	0.053238247
172	0xbd9a95e9	-0.07548124
173	0xbd3e6518	-0.04648313
174	0x3d68764a	0.056753434
175	0x3cff36d8	0.031154081
176	0x3d86fe68	0.06591493
177	0x3e168cf6	0.1470221
178	0xbda6c88a	-0.081437185
179	0xbc577b1c	-0.01315191
180	0x3c46bf4e	0.0121305715
181	0xbd0757ab	-0.03304259
182	0x3cae97f2	0.021312688
183	0xbe0c989a	-0.13730088
184	0xbe03e084	-0.12878615
185	0x3dfe29f5	0.124103464
186	0xbd05a37f	-0.032626625
187	0x3cc1c68a	0.023654241
188	0x3cc7bbd2	0.024381552
189	0xbda08dd7	-0.07839554
190	0x3d0594f3	0.032612752
191	0x3d5658c6	0.052330755
192	0xbdc94fda	-0.098296836
193	0x3dd10a96	0.10207097
194	0x3d57eaf4	0.052714303
195	0xb8b420f6	-8.589208e-05
196	0x3e1c28bd	0.15249915
197	0xbe0d41b7	-0.137946
198	0x3d1018c8	0.035179883
199	0xbd9442cc	-0.07239303
200	0x3de8eebe	0.113736615
201	0xbd8314a4	-0.06400421
202	0xbddaba90	-0.10680115
203	0xbd8d34f1	-0.068948634
204	0x3d523dc9	0.051328454
205	0x3d1503ef	0.036380704
206	0x3ca390e5	0.019966552
207	0x3db9f497	0.09079855
208	0x3b4ab0da	0.0030928166
209	0x3d1d79f5	0.038446385
210	0xbde8d232	-0.113682166
211	0xbda2b7eb	-0.07945236
212	0xbd9c20d5	-0.0762345
213	0xbe17074e	-0.1474888
214	0x3d152122	0.03640855
215	0x3d6e2e76	0.058149777
216	0x3d883675	0.06651012
217	0x3d8304e2	0.06397416
218	0xbd9269d5	-0.07149092
219	0x3d2cc501	0.042180065
220	0x3de466db	0.111524306
221	0xbd1366cd	-0.03598671
222	0xbe10d98d	-0.14145489
223	0xbdcae2de	-0.09906553
224	0x3d8dbfec	0.06921372
225	0x3d52401f	0.051330682
226	0xbd248bc6	-0.04017236
227	0x3e229693	0.15877752
228	0x3dbc2dd6	0.0918843
229	0x3ac437a3	0.0014970194
230	0xbd93a4a9	-0.07209141
231	0xbc1ccdce	-0.009570552
232	0x3d125be1	0.035732154
233	0x3c1c1d7e	0.009528516
234	0x3da7b3ed	0.08188615
235	0xbdd94ea9	-0.10610706
236	0xbd2b3240	-0.04179597
237	0xbd255f0e	-0.040373854
238	0x3e1d1813	0.15341215
239	0x3b90418f	0.0044023464
240	0x3d589332	0.05287475
241	0xbd336401	-0.043796543
242	0xbd78fcef	-0.06078809
243	0x3d324c1f	0.043529626
244	0xbd886c87	-0.06661325
245	0x3c0b9ba1	0.008520992
246	0x3df11920	0.1177237
247	0xbd87bc72	-0.0662774
248	0xbd939b14	-0.07207313
249	0xbd8a8356	-0.067633316
250	0xbda5e28d	-0.08099852
251	0xbb4c3abd	-0.003116294
252	0x3d6f0ee4	0.05836381
253	0x3dad375b	0.08457824
254	0x3d203433	0.03911228
255	0x3cab5887	0.020916237

conv3.0.bias f4 [12]
0	0xbd39e6f0	-0.045386255
1	0x3d0c82ea	0.034304537
2	0xbc8d7bb7	-0.017270906
3	0x3d31383a	0.043266512
4	0xbe094757	-0.1340612
5	0x3dd25357	0.10269802
6	0x3c6d2461	0.014474005
7	0xbddd014c	-0.10791263
8	0xbdac9fa4	-0.084288865
9	0x3b727474	0.003699568
10	0xbdfeffee	-0.124511585
11	0xbdf69199	-0.12039489

conv3.1.weight f4 [12]
0	0x3f7ea14c	0.9946487
1	0x3f80bd27	1.0057725
2	0x3f81c487	1.01381
3	0x3f796692	0.97422135
4	0x3f7add37	0.979938
5	0x3f8125aa	1.0089619
6	0x3f82b9b7	1.0212926
7	0x3f7fe29a	0.9995514
8	0x3f7ffb82	0.99993145
9	0x3f85fd3d	1.0467907
10	0x3f717d6b	0.94332
11	0x3f7ecf9e	0.9953555

conv3.1.bias f4 [12]
0	0xbcb8276d	-0.022479737
1	0xbd9d3aad	-0.07677207
2	0xba0c0f03	-0.0005342813
3	0xbc4cf1f6	-0.01250886
4	0x3ca9c6b0	0.020724624
5	0xbd621bbd	-0.055202235
6	0xbbfbc420	-0.007683292
7	0xbcaf3566	-0.021387767
8	0xbced4199	-0.028961943
9	0x3cda8883	0.026676422
10	0xbd8c284e	-0.06843625
11	0xbcaea3dd	-0.02131837

conv3.1.running_mean f4 [12]
0	0xbf0fd4b5	-0.5618394
1	0xbdce03f2	-0.10059346
2	0xbf12d67d	-0.57358533
3	0xbe8dc9b6	-0.27692956
4	0xbf1272f3	-0.5720665
5	0xbef8e88d	-0.48614922
6	0xbdb51880	-0.08842564
7	0x3d15c4d8	0.036564678
8	0x3e1f6601	0.15566255
9	0xbf4e11d5	-0.8049596
10	0x3e53df35	0.20690615
11	0x3ee76fac	0.45202386

conv3.1.running_var f4 [12]
0	0x408651a8	4.197468
1	0x407455d2	3.817738
2	0x40876e15	4.2321877
3	0x40dc4e07	6.884525
4	0x403c4386	2.9416213
5	0x40d22388	6.5668373
6	0x40a02e53	5.005655
7	0x408307ed	4.0947175
8	0x40a4272e	5.1297827
9	0x409b12ed	4.8460603
10	0x40f01113	7.5020843
11	0x40f52613	7.6608977

conv3.3.weight f4 [12, 12, 4]
0	0x3e0597dc	0.13046211
1	0xbd3cdeed	-0.046111036
2	0x3d35103b	0.04420493
3	0xbd7c8ea7	-0.06165948
4	0x3dfcf4e2	0.12351395
5	0xbd05ee1e	-0.03269779
6	0xbcacab2b	-0.021077713
7	0xbd2d7542	-0.042348154
8	0xbd854264	-0.06506804
9	0xbd00ba56	-0.031427704
10	0xbd878146	-0.06616454
11	0xbdf8e0d6	-0.12152259
12	0xbd022c8b	-0.03178076
13	0x3d922547	0.07136016
14	0xbd01aa97	-0.031656828
15	0xbb9d28ad	-0.0047961087
16	0xbe233bb9	-0.15940751
17	0xbc0fbd34	-0.008773137
18	0x3d861324	0.065466195
19	0x3dd0fa49	0.10203988
20	0x3d476f19	0.048689935
21	0xbd7fd2e5	-0.062456984
22	0x3d50aa99	0.050943945
23	0xbdb30c94	-0.087426335
24	0xbcce6484	-0.025194414
25	0x3c9be66a	0.019030768
26	0x3db2a8b8	0.08723587
27	0x3d80500e	0.06265269
28	0xbdf65696	-0.12028234
29	0x3c0177c9	0.007902094
30	0xba7f7b26	-0.00097458286
31	0xbe12e37c	-0.14344591
32	0x3d785c58	0.06063494
33	0x3d9aa8fc	0.075517625
34	0xbd28b271	-0.0411858
35	0x3e1f30fe	0.15546033
36	0xbd619c9f	-0.055081006
37	0x3d61e90e	0.0551539
38	0xbd45c858	-0.048286766
39	0x3e48ef59	0.19622554
40	0xbd85ca57	-0.06532734
41	0xbbb1cbdf	-0.0054259147
42	0x3d988be8	0.0744856
43	0x3c880263	0.0166027
44	0xbc018a8b	-0.007906566
45	0xbd8541f3	-0.065067194
46	0x3e12c9b8	0.14334762
47	0xbc829b2e	-0.015943136
48	0x3dae72aa	0.08517964
49	0x3db72e47	0.089443736
50	0x3d4e1670	0.050314367
51	0x3dd9d32e	0.106359825
52	0xbdf3719d	-0.118869044
53	0x3df390aa	0.11892827
54	0xbd33410e	-0.043763213
55	0x3d9be437	0.07611888
56	0xbcb741ec	-0.022370301
57	0xbde7233d	-0.11286018
58	0x3dc3a55d	0.09553025
59	0x3d988442	0.07447101
60	0x3e1ff554	0.15620929
61	0xbcec8855	-0.028873602
62	0x3ccfa821	0.025348725
63	0xbdf195a9	-0.117961235
64	0x3cd33994	0.025784291
65	0x3d8f96be	0.07011174
66	0xbcc208ef	-0.0236859
67	0x3d260263	0.04052962
68	0xbdef495f	-0.11683916
69	0xbd04da78	-0.03243491
70	0x3c15a3e0	0.009133309
71	0x3ddaa3a9	0.10675747
72	0x3c302295	0.0107504325
73	0xbe08bc5f	-0.13353108
74	0xbd340dc4	-0.04395844
75	0xbe045a7f	-0.12925147
76	0x3ccf8075	0.025329808
77	0xbdc164d1	-0.09443057
78	0xbb4b78c7	-0.003104733
79	0xbe119dfd	-0.14220424
80	0x3cc6cebb	0.024268499
81	0x3dc9a71a	0.09846325
82	0xbddf4292	-0.10901369
83	0xbd4ba731	-0.049719993
84	0xbdf40855	-0.11915652
85	0x3ddbd2d5	0.107335724
86	0x3cff97db	0.03120034
87	0xbdb3c1c4	-0.08777192
88	0xbd460bd8	-0.04835114
89	0xbd067ddb	-0.03283487
90	0xbdf5fc23	-0.12010982
91	0x3d6ced99	0.05784378
92	0xbd5133c3	-0.051074754
93	0xbcb6e7ac	-0.022327267
94	0x3df3e040	0.11908007
95	0xbd43764b	-0.047720235
96	0x3ce11d15	0.027479688
97	0x3cb14ab1	0.021642061
98	0x3cd192c8	0.025582686
99	0xbc3d182b	-0.011541407
100	0xbe2ebe50	-0.17064786
101	0xbdf3d056	-0.11904971
102	0x3d8d09d6	0.06886642
103	0xbd594059	-0.053039882
104	0x3a6794b7	0.0008834111
105	0x3d542249	0.05179051
106	0xbdbbaebf	-0.091641895
107	0x3d18d144	0.037308946
108	0x3d83b4c3	0.06430962
109	0x3d360dc9	0.04444674
110	0xbc16a28a	-0.009194026
111	0xbcbef0d4	-0.023308195
112	0x3d0f8af0	0.03504461
113	0x3d17c938	0.03705713
114	0xbe2078d3	-0.15671091
115	0x3db76e88	0.08956629
116	0x3e02ee97	0.12786327
117	0xbe0e3020	-0.13885546
118	0x3daa8251	0.08325637
119	0xbd3b3a39	-0.045709822
120	0x3e1381b0	0.1440494
121	0xbdd19be4	-0.10234812
122	0xbddcecc2	-0.107873455
123	0xbbaa4133	-0.0051957606
124	0x3b8468f1	0.0040408303
125	0x3d8eef18	0.06979197
126	0x3d2b2dd4	0.041791752
127	0x3c9ccb07	0.01913978
128	0x3dcf883e	0.10133408
129	0xbd6939d7	-0.056939926
130	0x3dde51fc	0.10855481
131	0x3d348c94	0.04407938
132	0x3d4d635d	0.05014359
133	0xbba81c15	-0.0051303008
134	0xbe07114b	-0.1319019
135	0x3e1828b0	0.14859271
136	0x3dfa3fe5	0.12219218
137	0xba909c00	-0.001103282
138	0x3d465629	0.048422012
139	0xbc95177c	-0.018199675
140	0x3deb76f6	0.114972994
141	0xbcd121bc	-0.025528781
142	0xbd1bca2c	-0.038034603
143	0xbdf93ecc	-0.12170181
144	0xbd8b227f	-0.06793689
145	0xbd5e4e4e	-0.054273896
146	0xbe153526	-0.14571056
147	0xbd81c499	-0.06336326
148	0x3cee30a5	0.02907593
149	0x3de630ac	0.11239752
150	0x3d93be25	0.072140016
151	0x3d263f8d	0.04058795
152	0xbdcb6284	-0.099309
153	0xbe3c572e	-0.18392631
154	0x3ce0a009	0.02742006
155	0x3d9223f7	0.07135766
156	0x3d6596fc	0.056052193
157	0x3de709bc	0.112811536
158	0x3e0fa4a3	0.14027648
159	0xbda4af9e	-0.08041309
160	0x3e0fd8a1	0.14047481
161	0x3dfb7560	0.12278247
162	0x3de9d340	0.11417246
163	0xbe155210	-0.14582086
164	0xbbecdda4	-0.00722857
165	0x3cfd05cf	0.030886559
166	0x3da2e750	0.079542756
167	0x3ca4d55b	0.020121267
168	0x3d36a530	0.04459113
169	0xbcdb07dc	-0.026737146
170	0xbd24b436	-0.040210925
171	0xbddfc925	-0.10927037
172	0xbccb8520	-0.024843752
173	0xbd290b6b	-0.041270655
174	0xbcb46593	-0.02202109
175	0x3db234e2	0.08701493
176	0xbcddfb88	-0.027097479
177	0xbe395e18	-0.181023
178	0x3e0c2d2f	0.13689111
179	0x3d93dec3	0.07220223
180	0xbdbb97ef	-0.091598384
181	0x3c540644	0.012940947
182	0x3c88330f	0.01662591
183	0x3d7b721e	0.061388128
184	0xbda0af3a	-0.07845922
185	0x3dc8de51	0.098080285
186	0x3e0d5931	0.13803555
187	0xbe05d793	-0.13070516
188	0x3d2ccc2b	0.042186897
189	0xbe1f5456	-0.15559515
190	0xbb5ac515	-0.003338163
191	0x3d384045	0.044983167
192	0x3d71e74a	0.059058465
193	0x3dcfda44	0.10149053
194	0xbd4d35ec	-0.050100252
195	0xbddd14db	-0.107949935
196	0x3cf1cd85	0.029516945
197	0xb861ee78	-5.386627e-05
198	0x3e14c2ee	0.14527485
199	0x3dbe9b24	0.093069345
200	0x3e152f41	0.14568807
201	0xbe24ee2a	-0.16106477
202	0x3b8d8572	0.0043188864
203	0x3e0b9185	0.1362973
204	0xbd003e00	-0.031309128
205	0x3df89ef4	0.12139693
206	0x3d3ddfbb	0.046355944
207	0xbd81ced1	-0.06338275
208	0x3d5233ea	0.05131904
209	0xbc83ffed	-0.016113246
210	0xbd27c3b0	-0.040958107
211	0xbe0ab758	-0.13546503
212	0x3d69303b	0.05693076
213	0x3e066cb8	0.1312741
214	0x3d341310	0.043963492
215	0xbe280808	-0.16409314
216	0xbb678f40	-0.0035333186
217	0x3d9b00a6	0.07568483
218	0xbd8a732c	-0.067602485
219	0x3dab58d2	0.083665505
220	0x3c10706a	0.008815864
221	0xbd725dbb	-0.05917142
222	0xbdebf077	-0.115204744
223	0xbdb392cc	-0.08768234
224	0x3d95828d	0.07300291
225	0xbd88892e	-0.0666679
226	0xbbd9fd9d	-0.0066525475
227	0xbdb6ae29	-0.08919937
228	0x3e084f72	0.13311556
229	0xbdd7c6f7	-0.105359964
230	0xbd24d797	-0.040244665
231	0xbd8d1259	-0.06888265
232	0x3d2e11bb	0.042497378
233	0xbdd81542	-0.105509296
234	0xbdb212c3	-0.08694985
235	0x3ce4bba1	0.0279215
236	0x3dcc69a4	0.09981087
237	0xbd8848f2	-0.06654538
238	0xbcb073ce	-0.021539595
239	0x3cf39c7f	0.02973771
240	0x3e0d173e	0.13778397
241	0x3dfbf654	0.12302843
242	0x3de6bb25	0.11266164
243	0x3d83ee7f	0.06441974
244	0xbd29ee13	-0.04148681
245	0xbda7a2c6	-0.081853434
246	0x3e0825b8	0.13295639
247	0xbdb7b2f6	-0.08969681
248	0x3d7e0da4	0.062024727
249	0xbb361446	-0.002778308
250	0xbd93ec5a	-0.07222815
251	0xbdd5e98a	-0.10444935
252	0x3dc73b0c	0.09728059
253	0x3d8cbd61	0.06872059
254	0xbdd484c5	-0.10376886
255	0xbd61af51	-0.055098835

conv3.3.bias f4 [12]
0	0xbd12a392	-0.035800524
1	0xbd79eca5	-0.061016697
2	0x3cde9f0c	0.027175449
3	0x3d562425	0.052280564
4	0xbda78ad2	-0.08180775
5	0xbe077ab7	-0.13230406
6	0x3dd1ab8b	0.10237797
7	0x3dafa59a	0.08576508
8	0xbdfc8a67	-0.12331086
9	0x3dca2c2b	0.098717056
10	0xbde6948c	-0.11258802
11	0x3d55fe77	0.05224463

conv3.4.weight f4 [12]
0	0x3f863e18	1.04877
1	0x3f81d78f	1.0143908
2	0x3f839c45	1.0282065
3	0x3f8421ed	1.0322853
4	0x3f8659b4	1.0496125
5	0x3f836904	1.0266423
6	0x3f81cc77	1.0140523
7	0x3f8427d9	1.032466
8	0x3f86cc73	1.0531143
9	0x3f84416c	1.0332465
10	0x3f851360	1.0396538
11	0x3f850910	1.0393391

conv3.4.bias f4 [12]
0	0x3b6099bc	0.003427132
1	0x3b4133f4	0.002948043
2	0x3b4eafec	0.0031537963
3	0xbb83dae1	-0.004023895
4	0xbb7feeab	-0.003905217
5	0x3b4e57e2	0.0031485488
6	0xbb7f6172	-0.0038967994
7	0xbb83430c	-0.0040057953
8	0x3b283ab2	0.002566975
9	0x3b5bfd9f	0.0033567918
10	0xbb8191d7	-0.003954153
11	0x3b520e4f	0.0032051986

conv3.4.running_mean f4 [12]
0	0x3c4a8dbd	0.012362895
1	0xbe29a655	-0.16567357
2	0x3e25541b	0.16145365
3	0x3d9ce488	0.076607764
4	0xbdaaf5e0	-0.08347678
5	0xbd96bfcc	-0.07360801
6	0xbd3df5fa	-0.04637716
7	0x3e03b1c2	0.12860778
8	0xbe2e6bc8	-0.17033303
9	0x3e91454f	0.2837319
10	0xbec092f5	-0.3761212
11	0x3e20cbd9	0.15702762

conv3.4.running_var f4 [12]
0	0x3d5a4aae	0.053293876
1	0x3e037f3f	0.1284151
2	0x3dc37333	0.09543457
3	0x3dce9636	0.10087244
4	0x3db18b95	0.08669201
5	0x3d9a5444	0.07535604
6	0x3da699fe	0.081348404
7	0x3dcebc1c	0.10094473
8	0x3d87ec36	0.066368505
9	0x3da3473e	0.07972573
10	0x3d93013f	0.07177972
11	0x3de7ef57	0.11324947
