model/AutoY/T1Dcheckpoint2.pt (torch, 34275 bytes, 51 tensors)

conv1.0.weight f4 [12, 15, 2]
0	0xbdd4873a	-0.10377355
1	0xbda6fe52	-0.081539765
2	0x3de16f05	0.110075034
3	0x3e254584	0.161398
4	0xbcca0e5a	-0.024665046
5	0xbe0688ec	-0.13138169
6	0x3c724a4f	0.014788224
7	0x3d9784a1	0.07398344
8	0xbe2adc94	-0.16685706
9	0xbca94851	-0.020664366
10	0xba55b0ce	-0.0008151651
11	0x3e24707b	0.16058533
12	0x3e193cd9	0.14964618
13	0x3e01610a	0.12634674
14	0xbe08e3ef	-0.133682
15	0xbe068997	-0.13138424
16	0xba1ab9c8	-0.00059023174
17	0x3c1b290c	0.009470236
18	0x3bdb4846	0.0066919653
19	0xbb7cd1bf	-0.0038577167
20	0xbe0fc314	-0.1403926
21	0xbd62e322	-0.055392392
22	0x3d1ac394	0.037784174
23	0x3e449222	0.1919637
24	0x3d0b4447	0.03400066
25	0x3e2f4812	0.17117336
26	0xbe021ecf	-0.12707065
27	0xbdad5273	-0.084629916
28	0x3de760fc	0.11297795
29	0xbd1edb8e	-0.038783602
30	0xbc89e8db	-0.016834667
31	0xbe210f81	-0.1572857
32	0xbe0b8cb2	-0.1362789
33	0xbbe69205	-0.00703645
34	0x3ca6653b	0.020311942
35	0x3b9680e1	0.0045930003
36	0x3d9bbe51	0.07604659
37	0x3d8bba17	0.06822603
38	0xbde7bd97	-0.11315458
39	0xbe3fae9a	-0.18718949
40	0xbd114847	-0.03546932
41	0xbdaf67fc	-0.08564755
42	0xbce9391a	-0.028469611
43	0x3d9a6585	0.075388946
44	0x3d8286c2	0.06373359
45	0xbcda656f	-0.026659695
46	0xbdd75f5c	-0.10516235
47	0xbdeb3a52	-0.11485733
48	0x3d25efb1	0.04051179
49	0xbd88228c	-0.06647214
50	0x3e06ff35	0.13183291
51	0x3dc061d6	0.09393661
52	0xbdfa1a4b	-0.12212046
53	0xbdc9ca2b	-0.098530136
54	0x3bf23ff2	0.007392877
55	0xbe258aaf	-0.16166185
56	0xbdee57c4	-0.11637834
57	0xbdb8369e	-0.089947924
58	0xbc13d3c8	-0.009022661
59	0x3dccc306	0.09998135
60	0x3d23fa80	0.040033817
61	0xbe09d94c	-0.13461798
62	0xbe2b675f	-0.16738652
63	0x39e5406b	0.0004372628
64	0xbe455a66	-0.19272766
65	0xbdbae620	-0.09125924
66	0xbd339432	-0.043842502
67	0xbdfed593	-0.1244308
68	0xbe606210	-0.21912408
69	0xbdf25fe5	-0.11834697
70	0xbe02772a	-0.1274077
71	0x3d82a0f4	0.063783556
72	0xbcad9db6	-0.021193366
73	0x3c6a87d0	0.014314607
74	0xbe55e2ab	-0.20887248
75	0xbd6c81f5	-0.057741124
76	0x3d4262a0	0.047457337
77	0xbcf79aeb	-0.030225238
78	0xbe39b983	-0.18137173
79	0xbd4ee044	-0.050506845
80	0xbd293375	-0.04130884
81	0xbdaa4a72	-0.083149806
82	0x3d85b43e	0.06528519
83	0xbd64cb3e	-0.05585789
84	0xbdf289f4	-0.11842719
85	0x3dd46e01	0.10372544
86	0x3c4d5b93	0.01253404
87	0xbdcf72be	-0.10129307
88	0x3bd4a2e6	0.0064891456
89	0x3e1b03c8	0.15138161
90	0xbdc4b452	-0.09604706
91	0xbe12086b	-0.14261024
92	0xbe1a9534	-0.15095979
93	0x3dda06c8	0.10645825
94	0xbda9637d	-0.08270929
95	0xbd105a9e	-0.03524267
96	0xbd906c4f	-0.07051908
97	0x3e0e23f8	0.13880908
98	0x3e3ef391	0.186476
99	0xbdf0b805	-0.11753849
100	0x3e0d3318	0.13789022
101	0xbddd1a54	-0.10796037
102	0xbd79f07c	-0.06102036
103	0xbe28c181	-0.16480066
104	0xbde53768	-0.111922085
105	0xbe38fecd	-0.18065949
106	0x3d5f856b	0.054570597
107	0xbcc54346	-0.02407993
108	0xbe1cd4f9	-0.15315618
109	0xbcfcd6da	-0.030864168
110	0xbe01809c	-0.12646717
111	0x3c0c2132	0.008552836
112	0xbe4dee1b	-0.20110361
113	0xbd98b772	-0.074568644
114	0xbb9e959d	-0.0048396126
115	0x3bd022e9	0.006351818
116	0x3e54b980	0.20773888
117	0xbe3224bb	-0.17396824
118	0xbde033b0	-0.109473586
119	0x3d94e587	0.07270341
120	0x3d733b3c	0.059382662
121	0xbe09616c	-0.1341607
122	0x3dfa1a62	0.12212063
123	0xbdf45f99	-0.11932296
124	0x3e4c517d	0.1995296
125	0xbd09d743	-0.033652555
126	0xbdc2f58a	-0.09519489
127	0xbdc7465d	-0.097302176
128	0xbe3cf473	-0.18452625
129	0x3de55b64	0.11199072
130	0xbe0363ac	-0.1283099
131	0x3df837e7	0.121200375
132	0xbce4b021	-0.027916016
133	0xbe0ee673	-0.13955097
134	0x3d8d3d9a	0.06896515
135	0xbdb833ed	-0.08994279
136	0xbe242595	-0.16029961
137	0x3b2ba8b6	0.002619309
138	0xbe397c2f	-0.18113779
139	0xbc6f8168	-0.014618255
140	0xbdbba1e8	-0.091617405
141	0x3e0dcdfb	0.13848107
142	0x3d7b2332	0.06131286
143	0x3cbd5f38	0.023116693
144	0x3e507c64	0.20359951
145	0x3e314849	0.17312731
146	0x3db26286	0.08710198
147	0xbb028555	-0.0019915898
148	0xbd906a8f	-0.070515744
149	0x3e2a7730	0.16647029
150	0x3dfe7a7b	0.12425705
151	0xbb9e6705	-0.004834058
152	0xbd241b7b	-0.04006527
153	0x3e02fd4e	0.1279194
154	0x3e2345a3	0.15944533
155	0x3e0f6318	0.14002645
156	0x3d0ef938	0.034905642
157	0xbdc151c9	-0.094394274
158	0x3dd450b4	0.103669554
159	0xbd2acc12	-0.041698523
160	0xbd7b3929	-0.06133381
161	0x3df1f5a2	0.11814429
162	0x3c057712	0.008146064
163	0xbe392cc9	-0.1808349
164	0xbe2db8da	-0.16965047
165	0xbd6fe4ef	-0.058567937
166	0xbe1912a1	-0.14948513
167	0x3c63089e	0.013857035
168	0x3de33a8b	0.110951506
169	0x3d9b4105	0.07580761
170	0xbbedd834	-0.0072584394
171	0x3de29fca	0.110656336
172	0x3c398ac4	0.011324588
173	0x3db1c2ea	0.08679755
174	0x3de833e8	0.11338025
175	0xbcb7a94d	-0.022419596
176	0x3ae02003	0.0017099384
177	0xbdaf0a6f	-0.08546912
178	0x3d4fa77f	0.050696846
179	0x3da6f4d5	0.08152167
180	0xbe10cd72	-0.14140871
181	0xbdd8798b	-0.105700575
182	0xbd821a15	-0.06352631
183	0x3da47aab	0.080312096
184	0x3d9deeac	0.07711539
185	0x3e053a36	0.13010487
186	0x3dd67e37	0.10473292
187	0x3d1e3a15	0.03862961
188	0xbcc303e6	-0.02380557
189	0x3d8b8fa4	0.06814507
190	0xbde2d01f	-0.11074852
191	0x3e090639	0.1338128
192	0xbd02ddfd	-0.031949986
193	0xbb4478db	-0.0029979262
194	0x3e0cfb3b	0.13767712
195	0xbca0ba2c	-0.019620024
196	0x3e45b199	0.1930603
197	0xbe145860	-0.14486837
198	0xbe32238a	-0.1739637
199	0xbe410a58	-0.18851602
200	0x3ddaa003	0.10675051
201	0xbc9e305e	-0.019310173
202	0xbdf2f0dd	-0.11862347
203	0x3e35286d	0.17691202
204	0xbd54951b	-0.05190001
205	0xbded63ba	-0.11591287
206	0x3cc5c141	0.024140002
207	0xbda63a49	-0.08116586
208	0xbdff7bdd	-0.12474797
209	0xbb276d2a	-0.0025547245
210	0xbd9ea559	-0.07746381
211	0x3d9fe021	0.07806421
212	0xbdd5a987	-0.104327254
213	0x3d2cbda1	0.04217303
214	0x3d08e755	0.03342374
215	0xbd9c98d7	-0.076463394
216	0xbe2e2ff0	-0.17010474
217	0xbdb7eda2	-0.08980872
218	0x3d8cfdfe	0.06884383
219	0x3d251d29	0.040311012
220	0xbdc51b5e	-0.096243605
221	0xbe0f9ca2	-0.14024594
222	0x3de20cbd	0.11037586
223	0xbe2bf513	-0.16792707
224	0x3d034e3a	0.032057025
225	0xbe25a49a	-0.16176072
226	0xbdc05930	-0.09392011
227	0xbde01ddb	-0.109431945
228	0x3e2500cc	0.16113585
229	0xbdbac2cd	-0.091191866
230	0xbdb89806	-0.09013371
231	0xbdc1c9e8	-0.09462339
232	0x3e0e2d30	0.13884425
233	0xbe2ad15c	-0.16681427
234	0xbd98acf5	-0.07454864
235	0x3b924660	0.0044639558
236	0x3df65f52	0.120299
237	0xbd76d613	-0.06026275
238	0x3daa7d64	0.083246976
239	0x3d28a312	0.04117114
240	0xbe31130c	-0.17292422
241	0xbe103809	-0.14083876
242	0xbdd080bd	-0.10180805
243	0x3df3a954	0.11897531
244	0x3e1f5bbb	0.15562336
245	0x3dc915f9	0.09818644
246	0x3e02b0ab	0.12762706
247	0x3e0d16d3	0.13778238
248	0x3e2a5790	0.16634965
249	0x3dd21304	0.10257533
250	0xbd6b41fc	-0.057435974
251	0xbd77f274	-0.060533956
252	0x3d6491c5	0.05580308
253	0xba54e8d5	-0.0008121853
254	0x3e497dd5	0.19676907
255	0x3e1297a9	0.14315666

conv1.0.bias f4 [12]
0	0x3c951720	0.018199503
1	0xbdfe4793	-0.124159954
2	0x3e255d80	0.16148949
3	0x3e239b08	0.15977108
4	0xbe26de5e	-0.16295764
5	0xbdf827a1	-0.121169336
6	0xbe301704	-0.1719628
7	0xbe1ed050	-0.15509152
8	0x3e34becc	0.17650908
9	0x3ddb123e	0.10696839
10	0xbdfff137	-0.1249718
11	0x3cf991bb	0.030464998

conv1.1.weight f4 [12]
0	0x3f7adacd	0.97990113
1	0x3f83c6a1	1.0294992
2	0x3f7a647c	0.97809577
3	0x3f8170a9	1.0112506
4	0x3f81a09a	1.0127137
5	0x3f7b6dbf	0.98214334
6	0x3f8221f8	1.0166616
7	0x3f7da5d1	0.9908114
8	0x3f783113	0.9694988
9	0x3f81cc92	1.0140555
10	0x3f7e3803	0.9930422
11	0x3f803874	1.0017228

conv1.1.bias f4 [12]
0	0xbc5530d9	-0.0130121345
1	0xbbe44f30	-0.0069674477
2	0x3d132744	0.03592612
3	0x3cd187ed	0.02557751
4	0xbaeab605	-0.0017907029
5	0xbc8a1f1c	-0.016860537
6	0xbcec8d44	-0.028875954
7	0xbcceb9f5	-0.025235156
8	0xbb7e87a1	-0.0038838165
9	0x3c67611c	0.014122274
10	0xbc1b9cfa	-0.009497875
11	0xbcf8f70e	-0.030391242

conv1.1.running_mean f4 [12]
0	0x3d71a22e	0.058992557
1	0xbf0835a1	-0.5320683
2	0xbef11fab	-0.47094473
3	0xbee34d69	-0.44394997
4	0xbd26db06	-0.04073622
5	0x3ec4f459	0.38467672
6	0xbe66da76	-0.22544274
7	0xbf203118	-0.6257491
8	0x3e0e5a86	0.1390172
9	0x3f61a07a	0.8813549
10	0xbda06535	-0.07831804
11	0x3ed65667	0.41862795

conv1.1.running_var f4 [12]
0	0x40891c6d	4.28472
1	0x4091b498	4.553295
2	0x40d767a2	6.7314005
3	0x40ec0162	7.375169
4	0x4107e516	8.493429
5	0x409ec400	4.961426
6	0x409a0dcb	4.8141837
7	0x40860737	4.1883807
8	0x410d6c4a	8.838938
9	0x41053fa6	8.328039
10	0x4099568a	4.791814
11	0x40fe895b	7.954267

conv1.3.weight f4 [12, 12, 2]
0	0x3c62bcd0	0.013838962
1	0x3e09ddc3	0.13463502
2	0x3c24dfe4	0.010063145
3	0xbe249b65	-0.16074903
4	0xbd35fe52	-0.044431992
5	0x3d8fcd34	0.07021561
6	0x3e0bdbc2	0.1365805
7	0x3ddb9921	0.107225664
8	0xbdb4bcec	-0.088250965
9	0x3e2d7ef5	0.16942962
10	0x3e5327af	0.20620607
11	0xbe219412	-0.1577914
12	0xbcab3028	-0.020896986
13	0xbe2331fd	-0.15937038
14	0xbd822a68	-0.063557446
15	0xbd517f37	-0.051146712
16	0xbd7e03fd	-0.062015522
17	0x3c38f491	0.011288778
18	0xbc990737	-0.018680198
19	0xbdb720d9	-0.08941812
20	0x3e505560	0.20345068
21	0xbdaf884f	-0.08570921
22	0xbc432689	-0.011911043
23	0xbbd1e86a	-0.0064058797
24	0xbe09437c	-0.1340465
25	0xbe09a716	-0.13442644
26	0xbe22cc48	-0.1589824
27	0xbcd1a661	-0.025592031
28	0x3abca731	0.0014393089
29	0xbde34f6b	-0.11099132
30	0xbd64aa11	-0.05582625
31	0x3dde8a32	0.108662024
32	0xbe37b20e	-0.17939016
33	0x3d3a07ab	0.04541747
34	0x3dd4a0fc	0.10382268
35	0x3d044953	0.03229649
36	0xbe104e7f	-0.14092444
37	0xbcb40522	-0.021975104
38	0xbdaea51e	-0.08527587
39	0xbd290e48	-0.041273385
40	0x3d892bf1	0.06697834
41	0xbe627792	-0.22115925
42	0xbc6e7294	-0.014553685
43	0x3d19f35d	0.037585605
44	0xbdaa80e8	-0.08325368
45	0x3dcd0cad	0.10012183
46	0xbdbec214	-0.09314361
47	0xbc0b01ea	-0.008484343
48	0xbd9c2a61	-0.07625271
49	0xbe5010ab	-0.20318858
50	0xbdb15551	-0.08658851
51	0x3d12f601	0.03587914
52	0x3d809f00	0.06280327
53	0x3dbc99ed	0.092090465
54	0xbe5bef20	-0.21477938
55	0xbcc79284	-0.024361856
56	0xbd9f50bf	-0.07779073
57	0xbcb72be0	-0.022359788
58	0xbe4bd301	-0.1990471
59	0xbdf9848f	-0.12183487
60	0xbc9f12bb	-0.019418111
61	0x3b754f57	0.0037431323
62	0x3cf2b9ea	0.029629666
63	0xbe14c030	-0.14526439
64	0x3cee6187	0.029099239
65	0x3c1acd59	0.009448373
66	0xbe0f73f6	-0.1400908
67	0xbd36d7ce	-0.0446394
68	0xbdd88ec5	-0.10574106
69	0x3e0c1f6e	0.13683864
70	0xbc83625c	-0.016038112
71	0xbde1c5e7	-0.11024075
72	0x3ca5a7cd	0.020221615
73	0xbdcb1f75	-0.09918109
74	0x3d94895f	0.07252764
75	0xbe02155a	-0.12703457
76	0xbe4c8175	-0.19971259
77	0x3bf60be2	0.0075087408
78	0x3c20087a	0.009767646
79	0x3cd859e6	0.026410054
80	0xbd83c491	-0.064339764
81	0x3e130807	0.14358531
82	0xbd4931c8	-0.04911974
83	0xbe5d902d	-0.2163703
84	0xbd6de610	-0.058080733
85	0x3c3f6582	0.011681916
86	0x3d79ac36	0.06095525
87	0x3e01477f	0.1262493
88	0x3e1fa439	0.1558999
89	0xbe2a2585	-0.16615875
90	0xbe04939b	-0.12946932
91	0x3e064c52	0.13115051
92	0x3d8ec422	0.06971003
93	0x3dd5a644	0.10432103
94	0xbdae2c85	-0.08504585
95	0xbe556eb3	-0.2084301
96	0xbe1c114b	-0.15240972
97	0x3db9b2a4	0.09067276
98	0x3e36bbf9	0.17845143
99	0xbe1c6e85	-0.15276535
100	0x3d532767	0.05155125
101	0x3b52ce13	0.0032166287
102	0x3d4aa01f	0.04946911
103	0x3deb0f43	0.1147752
104	0x3e353744	0.17696863
105	0x3cf3af2b	0.029746613
106	0x3d3d8437	0.046268668
107	0xbe0e53b8	-0.13899124
108	0xbda74979	-0.08168311
109	0x3e155b12	0.14585522
110	0x3e0b226a	0.13587347
111	0x3b6f5d6f	0.0036524197
112	0x3e14b538	0.14522254
113	0xbe27a175	-0.16370185
114	0xbd7022d4	-0.058626965
115	0x3e095558	0.13411462
116	0x3dd001cb	0.10156592
117	0xbdf108b6	-0.117692396
118	0xbe22926b	-0.15876167
119	0x3c9dce84	0.019263513
120	0xbdb598bb	-0.08867022
121	0x3d4fbdd7	0.050718155
122	0xbd533037	-0.051559653
123	0xbdad5a82	-0.084645286
124	0x3e18a9ab	0.14908473
125	0xbbb0287c	-0.00537592
126	0xbd6bb7db	-0.057548385
127	0x3d230020	0.03979504
128	0x3cbf5848	0.023357525
129	0x3d9f56d7	0.07780235
130	0xbd278cf9	-0.040905926
131	0xbd10190a	-0.03518013
132	0x3e1beace	0.1522629
133	0xbe3b52e6	-0.18293342
134	0x3cc5fa2b	0.024167141
135	0xbde3820f	-0.11108791
136	0xbda6c0d0	-0.08142245
137	0x3e21ee87	0.15813647
138	0xbc8ba411	-0.017046006
139	0x3dafe366	0.08588295
140	0xbd90ef4e	-0.07076894
141	0xbcf0151c	-0.02930694
142	0x3c7bf0b1	0.0153772095
143	0x3e388f3d	0.18023391
144	0xbe1a9204	-0.15094763
145	0x3d9131d9	0.07089586
146	0x3ddee008	0.10882574
147	0xbe3108f9	-0.17288579
148	0xbe12cc3f	-0.14335726
149	0xbd866156	-0.06561534
150	0xbdf9a642	-0.12189914
151	0xbd934408	-0.0719071
152	0xbda02579	-0.07819647
153	0x3e1fd5ca	0.15608898
154	0x3dc975b6	0.09836905
155	0x3dc29118	0.09500331
156	0x3d399e2a	0.045316853
157	0x3e1d0ff5	0.15338118
158	0xbe15391d	-0.14572568
159	0xbd855e58	-0.06512135
160	0xbc8122a0	-0.01576358
161	0xbdcd88f7	-0.100358896
162	0x3e3b4f38	0.18291938
163	0xbdf4e3e0	-0.11957526
164	0xbdc8d82f	-0.09806859
165	0xbde98dcb	-0.11403998
166	0xbe1270aa	-0.1430079
167	0xbe1c7f18	-0.15282857
168	0xbdc164dd	-0.09443066
169	0xbaaead02	-0.0013326707
170	0xbdea8f47	-0.11453109
171	0xbe0b8109	-0.13623442
172	0x3db88c24	0.09011105
173	0xbe060ce2	-0.13090852
174	0x3e61ac3c	0.22038358
175	0x3e160679	0.14650907
176	0x3dc9b848	0.09849602
177	0x3e26470d	0.16238041
178	0x3e2e0886	0.16995439
179	0xbe18acbf	-0.14909647
180	0x3dbf1645	0.093304195
181	0x3ce62285	0.028092632
182	0x3d951d44	0.072809726
183	0x3dc0fcaa	0.09423192
184	0xbd26f96f	-0.040765222
185	0xbe2ecb35	-0.17069705
186	0x3d2c79bc	0.042108282
187	0x3d89a5c2	0.06721069
188	0xbdc79276	-0.09744732
189	0x3e2a795e	0.1664786
190	0xbe518359	-0.20460261
191	0x3d3fc50d	0.04681878
192	0xbe3a5fdb	-0.18200628
193	0xbe3641d7	-0.17798553
194	0xbe142d79	-0.14470471
195	0x3e33f618	0.17574346
196	0x3df5c62d	0.1200069
197	0xbd67a664	-0.056555167
198	0xbe015518	-0.12630117
199	0xbdfa4b6c	-0.12221417
200	0x3cd002e8	0.02539201
201	0xbe446c3a	-0.1918191
202	0xbcd13450	-0.02553764
203	0x3d716cf1	0.058941785
204	0x3e4fe615	0.20302613
205	0x3df14b67	0.1178196
206	0x3d84aaa0	0.06477857
207	0x3d380906	0.04493048
208	0x3d3cbe30	0.046079814
209	0x3d9d27da	0.07673617
210	0xbdb61e5d	-0.0889251
211	0x3e077191	0.13226916
212	0xbd73cd9a	-0.05952225
213	0x3dd36d8f	0.10323631
214	0x3c868c35	0.016424278
215	0xbe1cd1d6	-0.15314421
216	0xbe2b7566	-0.16744003
217	0x3e080f8a	0.13287178
218	0x3e263f4e	0.16235086
219	0x3e5dcd6d	0.21660395
220	0x3d619ec1	0.05508304
221	0xbdf07f05	-0.11742977
222	0xbe2c974c	-0.1685459
223	0x3e31f255	0.17377599
224	0x3e1a7fdd	0.15087838
225	0x3e03a66b	0.12856452
226	0x3da2f32f	0.0795654
227	0x3e4f6306	0.20252618
228	0xbbf4e436	-0.007473494
229	0x3ba1fc92	0.004943439
230	0xbde3429d	-0.1109669
231	0xbd4a1532	-0.04933662
232	0xbe264342	-0.16236594
233	0xbd870a05	-0.06593708
234	0x3a89119f	0.0010457522
235	0x3d593d7a	0.053037144
236	0xbe1b3713	-0.15157728
237	0xbdc8fc70	-0.09813774
238	0xbe163f21	-0.1467252
239	0xbe0b07ab	-0.13577144
240	0x3d5231c1	0.05131698
241	0x3ce75d9b	0.028242877
242	0xbdfdc256	-0.12390582
243	0x3e05cad3	0.13065653
244	0xbe3c1689	-0.18367971
245	0xbd14ebda	-0.036357738
246	0x3d579d60	0.05264032
247	0x3e004162	0.12524942
248	0xbba1b4ae	-0.004934869
249	0x3d54d913	0.05196483
250	0xbdb4c4b6	-0.08826582
251	0xbdca7548	-0.09885651
252	0x3e33d47a	0.17561522
253	0x3e38d751	0.18050887
254	0xbd1efc2e	-0.038814716
255	0xbde7b26d	-0.11313329

conv1.3.bias f4 [12]
0	0xbdae9805	-0.08525089
1	0xbd1eff5a	-0.03881774
2	0xbddda745	-0.1082292
3	0xbd88bd6f	-0.066767566
4	0x3ceaf694	0.02868203
5	0xbccf3c4a	-0.025297303
6	0xbe3cff98	-0.18456876
7	0x3d6a72d8	0.05723843
8	0x3cf4c0e3	0.029877132
9	0x3be07712	0.006850132
10	0xbd43555d	-0.04768883
11	0xbda45322	-0.08023669

conv1.4.weight f4 [12]
0	0x3f80c200	1.0059204
1	0x3f81bd0d	1.0135819
2	0x3f8381e9	1.027402
3	0x3f81d441	1.01429
4	0x3f81f9c6	1.015435
5	0x3f80c021	1.0058633
6	0x3f80d16b	1.0063909
7	0x3f7ed3e1	0.9954205
8	0x3f7e7f51	0.9941302
9	0x3f81e215	1.014712
10	0x3f80b66c	1.0055671
11	0x3f8020d6	1.0010021

conv1.4.bias f4 [12]
0	0xbb7b2afa	-0.0038325177
1	0x3ce748f9	0.028233038
2	0x3ce8c0f6	0.028412323
3	0x3ce889a7	0.02838595
4	0xba0bb228	-0.00053289765
5	0xbb4ac3ca	-0.0030939453
6	0xbce7042f	-0.028200237
7	0x3a46d446	0.0007584732
8	0xbce5cfe6	-0.028053235
9	0xbcd19636	-0.025584321
10	0xbab58f62	-0.0013851936
11	0x3a65b52e	0.00087626546

conv1.4.running_mean f4 [12]
0	0xbd8f9dc5	-0.07012514
1	0xbeb5de9f	-0.3552141
2	0xbf05af9c	-0.52221084
3	0xbe6d7b85	-0.2319165
4	0x3e341e14	0.17589599
5	0xbb0463e9	-0.0020201153
6	0xbeeff81a	-0.46868974
7	0x3e41cd15	0.18925889
8	0xbca099bf	-0.019604562
9	0x3cc92d65	0.024557779
10	0xbd3cf961	-0.046136264
11	0xbde84574	-0.11341372

conv1.4.running_var f4 [12]
0	0x3dac08ff	0.08400153
1	0x3e2bca1a	0.16776314
2	0x3e28627b	0.16443817
3	0x3e074a33	0.13211899
4	0x3d5e53eb	0.05427925
5	0x3cf1c952	0.029514942
6	0x3db73414	0.0894548
7	0x3da5af36	0.080900595
8	0x3dd03645	0.10166601
9	0x3dd98020	0.10620141
10	0x3daa7e77	0.083249025
11	0x3de24bd3	0.110496186

conv2.0.weight f4 [12, 15, 3]
0	0xbda0aba4	-0.07845238
1	0xbc1f8cc3	-0.00973815
2	0x3de9abfa	0.11409755
3	0xbcd9b8fb	-0.026577463
4	0x3d4d616c	0.050141737
5	0xbe079cfb	-0.13243477
6	0x3c517f86	0.012786752
7	0x3dbe9542	0.093058124
8	0xbde6d8e2	-0.11271836
9	0x3ce4937c	0.027902357
10	0xbd9a7adb	-0.07542964
11	0x3d93e728	0.07221824
12	0x3d0a6895	0.033791143
13	0xbe2f41f5	-0.17115004
14	0x3db06eba	0.086148694
15	0x3ca62787	0.02028252
16	0xbbe5b2bf	-0.0070098336
17	0x3e175b71	0.14780976
18	0x3e02c585	0.1277066
19	0xbbbbc8c0	-0.0057307184
20	0x3e0d1b8e	0.13780043
21	0xbe0eda3a	-0.13950434
22	0xbdc07d86	-0.09398942
23	0xbc8d7b2f	-0.017270653
24	0x3d9a0d83	0.075221084
25	0x3c8615fd	0.016367907
26	0x3dd9abf7	0.10628503
27	0x3d9ea217	0.0774576
28	0x3e014664	0.12624508
29	0x3e137afc	0.14402384
30	0xbdc7b079	-0.09750456
31	0x3d323bad	0.043513943
32	0xbdd6df45	-0.10491804
33	0xba8570e8	-0.0010180743
34	0xbc1df802	-0.009641649
35	0x3e67e54c	0.22646064
36	0xbd894d5c	-0.06704208
37	0x3b5002ad	0.0031739876
38	0x3da1d99a	0.07902832
39	0xbd7993da	-0.060932018
40	0x3dc8103f	0.09768724
41	0xbd1b641f	-0.03793728
42	0xbdbf7a15	-0.09349457
43	0x3d4586ab	0.048224133
44	0xbd09d0fc	-0.03364657
45	0x3daa868d	0.08326445
46	0x3d8d4b2b	0.06899103
47	0x3c9d078e	0.019168641
48	0x3d2cab82	0.04215575
49	0xbddb073b	-0.106947385
50	0xbdb357df	-0.087569945
51	0x3e048c68	0.12944186
52	0x3da32883	0.07966711
53	0xbcc2fb86	-0.023801576
54	0xbdf3a6fa	-0.118970826
55	0x3d50c560	0.05096948
56	0x3d8327f3	0.06404104
57	0x3d01784c	0.031608865
58	0x3e042aaf	0.12906907
59	0xbc38e05b	-0.011283959
60	0xbce77346	-0.028253209
61	0xbde57d10	-0.112054944
62	0xbda0ba11	-0.07847989
63	0xbd6bc66b	-0.057562273
64	0x3daa8e78	0.08327955
65	0xbdc9b5c3	-0.098491214
66	0xbd1c0740	-0.03809285
67	0xbd8aad18	-0.06771296
68	0x3c9b663f	0.018969653
69	0x3dbaeb5d	0.09126923
70	0xbd22dae3	-0.039759528
71	0x3c718731	0.014741705
72	0xbd55b4e1	-0.052174453
73	0x3e3cd5c8	0.18440926
74	0x3e0ad5e7	0.1355816
75	0x3d85e37c	0.0653753
76	0xbe20238e	-0.15638563
77	0x3d8c4955	0.068499245
78	0x3d18541b	0.037189584
79	0x3dea54d2	0.114419594
80	0xbe238ccf	-0.15971683
81	0x3e25ca38	0.16190422
82	0x3d692057	0.056915607
83	0xbd63222e	-0.05545252
84	0x3ab6b1a0	0.0013938434
85	0xbb3d0b25	-0.0028845754
86	0x3d6169f5	0.05503269
87	0x3def5c4d	0.11687527
88	0x3d2d5eb4	0.042326644
89	0x3d9d6485	0.07685188
90	0x3dc1458f	0.094370954
91	0xbd5e7957	-0.054314937
92	0xbd8a8a4a	-0.06764658
93	0xbd317091	-0.043320242
94	0xbde706a7	-0.11280566
95	0x3c876ad8	0.01653044
96	0x3de6f55b	0.112772666
97	0xbdc1d33e	-0.094641194
98	0x3d781361	0.060565356
99	0xbd0b3aa5	-0.033991475
100	0x3dda97d5	0.10673491
101	0xbd9ac3fe	-0.07556914
102	0x3d9d575e	0.076826796
103	0xbd0dbab3	-0.03460188
104	0x3dfba34c	0.12287006
105	0xbc8e0708	-0.017337337
106	0x3c851749	0.016246455
107	0x3d2f191e	0.042748563
108	0xbd89b621	-0.067241915
109	0x3ddd9697	0.10819738
110	0x3d73fac6	0.059565328
111	0x3d82f97d	0.06395242
112	0xbd9929ae	-0.07478653
113	0xbdcfc856	-0.10145633
114	0xbd3f297f	-0.046670433
115	0x3d24003d	0.04003929
116	0xbe06d7aa	-0.13168207
117	0x3d38e247	0.04513767
118	0x3e157640	0.1459589
119	0x3d631be5	0.055446524
120	0x3e114593	0.14186697
121	0xbbce0cc3	-0.0062881424
122	0xbd16ad96	-0.03678664
123	0xbdfb180c	-0.12260446
124	0x3b84a4b5	0.004047955
125	0xbdf88219	-0.12134189
126	0xbddc542c	-0.10758242
127	0xbd63f0fa	-0.055649735
128	0x3d5d8fdb	0.05409227
129	0xbd3bc95e	-0.045846336
130	0x3df1fbd3	0.1181561
131	0x3d461e1f	0.04836857
132	0x3e293cf0	0.16527152
133	0x3df60ba7	0.12013941
134	0x3e06dae0	0.13169432
135	0xbde82025	-0.11334256
136	0xbdc67aec	-0.09691414
137	0x3dcd6138	0.10028309
138	0x3e224a2f	0.15848611
139	0x3ddc0aad	0.10744224
140	0xbcca48bc	-0.024692886
141	0xbe1b2af6	-0.15153107
142	0x3d2e1311	0.042498652
143	0xbc3fe3c5	-0.011712019
144	0xbd9cd330	-0.07657468
145	0x3e0fb091	0.14032198
146	0x3c0bc214	0.008530159
147	0xbda2831b	-0.07935163
148	0x3e190656	0.14943823
149	0x3d21c8e2	0.039498217
150	0x3da50dec	0.08059296
151	0xbc83e56c	-0.016100608
152	0x3ddf9987	0.10917955
153	0x3cebe64b	0.028796336
154	0x3ceeefb0	0.029167026
155	0xbe28a15e	-0.16467807
156	0x3ccb57ea	0.024822194
157	0xbbf3ac88	-0.007436339
158	0xbdd8cf0e	-0.105863675
159	0x3d9632d2	0.07333912
160	0xbb0c4549	-0.0021403602
161	0x3dca8e6a	0.098904446
162	0x3c6ea94a	0.014566729
163	0x3dbc44c5	0.09192804
164	0x3e103e9c	0.14086384
165	0x3dd7bd82	0.105341926
166	0xbd11c63c	-0.03558944
167	0x3dc58967	0.09645348
168	0xbd918cdd	-0.07106946
169	0x3dd5c93a	0.104387715
170	0xbcf1e521	-0.029528202
171	0xbcacad85	-0.021078834
172	0x3e479f5b	0.19494383
173	0xbd6fd92e	-0.058556728
174	0x3da12bd2	0.07869686
175	0xbe013c56	-0.12620673
176	0x3d8de83a	0.06929059
177	0xbb85938b	-0.0040764264
178	0x3c1b30d1	0.009472088
179	0xbe11864f	-0.14211391
180	0xbbdbebd9	-0.006711465
181	0xbcf6282a	-0.030048449
182	0x3d25997a	0.04042957
183	0xbe2e8313	-0.17042188
184	0x3c3e47c1	0.011613787
185	0x3db13eb2	0.08654536
186	0xbbf2ec2a	-0.007413407
187	0x3dce3dd8	0.100703895
188	0xbe2ad361	-0.16682197
189	0x3c35395f	0.011061042
190	0xbdba47ce	-0.09095727
191	0x3d5968b1	0.053078357
192	0x3e220365	0.15821607
193	0xbd0d828c	-0.034548327
194	0x3e008726	0.12551555
195	0xbd97fb0c	-0.0742093
196	0xbde1d5c1	-0.110270984
197	0x3df33285	0.1187487
198	0xbd0cdb92	-0.034389086
199	0xbc59a7e5	-0.013284658
200	0x3d436ce9	0.047711287
201	0x3da44bf9	0.08022303
202	0xbdd3dd6e	-0.10344969
203	0xbd884916	-0.06654565
204	0x3da9b0dc	0.082856864
205	0xbdc19fdc	-0.09454319
206	0x3d489bfd	0.048976887
207	0xbdb0c3d5	-0.08631102
208	0x3cc033a8	0.023462132
209	0xbd228406	-0.03967669
210	0xbd74e425	-0.059787888
211	0xbb0f089a	-0.0021825195
212	0x3d30e881	0.043190483
213	0x3e251094	0.16119605
214	0x3d81d06a	0.0633858
215	0xbdde5e74	-0.10857859
216	0x3c71eb18	0.014765523
217	0x3d66ed7a	0.05637882
218	0x3da538bc	0.08067462
219	0x3d84611f	0.06463837
220	0x3d99c6c0	0.07508612
221	0x3ca36e4f	0.01995006
222	0x3d3d0f15	0.04615696
223	0xbbe7b10a	-0.0070706652
224	0x3e202338	0.15638435
225	0xbbb88d9f	-0.005632117
226	0xbc0911f1	-0.008366094
227	0x3cf6b25d	0.030114347
228	0xbdfc8656	-0.1233031
229	0xbb047c04	-0.002021552
230	0xbd08c069	-0.03338662
231	0x3e3ae92d	0.18253012
232	0xbdb10e7e	-0.08645342
233	0x3da9831c	0.0827696
234	0x3dd64bbe	0.104636654
235	0xbda6bad4	-0.081411034
236	0x3dd951a9	0.106112786
237	0xbdae7851	-0.08519042
238	0xbe3e11c3	-0.18561463
239	0xbe140121	-0.14453556
240	0xbe169da7	-0.14708577
241	0xbdb4ae4b	-0.08822306
242	0x3d584b91	0.05280644
243	0xbdc37923	-0.09544589
244	0x3ca75821	0.020427765
245	0xbc67691f	-0.014124184
246	0x3dcc2b83	0.09969237
247	0x3d13da3f	0.036096808
248	0xbd70cfd0	-0.058791935
249	0xbc6d9c9b	-0.01450267
250	0x3e1830bc	0.1486234
251	0x3dd56bce	0.10420953
252	0xbe0fabe6	-0.14030418
253	0xbd83e8c1	-0.06440879
254	0xbd0e536d	-0.03474753
255	0x3d8dad1f	0.06917786

conv2.0.bias f4 [12]
0	0x3cf74555	0.030184427
1	0x3e02318b	0.12714212
2	0x3e15c0c7	0.1462432
3	0x3ca527dd	0.02016061
4	0x3cd0b6d0	0.025477797
5	0x3dd56c69	0.10421068
6	0x3d53aab9	0.051676486
7	0xbddeb5ec	-0.108745426
8	0xbcd4358d	-0.025904441
9	0x3d8026a8	0.06257373
10	0xbdd5ccb7	-0.10439437
11	0x3e0c9ffc	0.13732904

conv2.1.weight f4 [12]
0	0x3f852ff5	1.040526
1	0x3f7bbefd	0.983383
2	0x3f786871	0.97034365
3	0x3f7e5e98	0.9936309
4	0x3f803e67	1.0019044
5	0x3f7a7086	0.9782795
6	0x3f816f63	1.0112118
7	0x3f7dbec7	0.9911923
8	0x3f831da9	1.0243427
9	0x3f81cc67	1.0140504
10	0x3f80206f	1.0009898
11	0x3f7a6efc	0.978256

conv2.1.bias f4 [12]
0	0x3d59d47e	0.053181164
1	0xbd2f0cbe	-0.04273676
2	0xbdae1fde	-0.08502172
3	0xbccbf488	-0.024896875
4	0x3c690ca1	0.014224202
5	0x3b33e5e1	0.002745025
6	0x3c197029	0.00936512
7	0x3d30a1ca	0.043123044
8	0x3d03102b	0.03199784
9	0xbc5469e6	-0.012964701
10	0xbcb5a12b	-0.022171577
11	0x3d0ba305	0.034091014

conv2.1.running_mean f4 [12]
0	0xbd58284c	-0.052772805
1	0x3e9fa4da	0.3118046
2	0xbf2b9ac6	-0.6703304
3	0x3d5f069e	0.05444967
4	0xbe4bc8d8	-0.19900835
5	0x3f14da7c	0.5814588
6	0xbe9d0336	-0.30666512
7	0xbdc5f9f8	-0.096668184
8	0xbe267015	-0.16253693
9	0x3d27e964	0.040994063
10	0x3c00a946	0.007852858
11	0xbe6e2c99	-0.232592

conv2.1.running_var f4 [12]
0	0x4094cdfd	4.650145
1	0x409d4193	4.9142547
2	0x4097fe78	4.749813
3	0x40eaf66d	7.3425813
4	0x406376f7	3.554136
5	0x409f2382	4.9730844
6	0x40a840ba	5.257901
7	0x40b2a034	5.582056
8	0x405662a8	3.3497715
9	0x40ec73d2	7.389138
10	0x4117f19a	9.496485
11	0x409c443a	4.8833284

conv2.3.weight f4 [12, 12, 3]
0	0x3d45aaff	0.048258778
1	0xbc336680	-0.010949731
2	0xbdb8142c	-0.089882225
3	0x3d7b2266	0.0613121
4	0xbbfb6af7	-0.0076726633
5	0x3d4d2128	0.05008045
6	0x3d9fec61	0.078087576
7	0x3dec0a1f	0.11525368
8	0xbd1e0e5b	-0.03858791
9	0xbd8a0baa	-0.06740506
10	0xbdc5f0ef	-0.09665095
11	0x3cf1203c	0.029434316
12	0xbddaaca7	-0.10677462
13	0xbda460d0	-0.08026278
14	0xbc6dddb3	-0.014518189
15	0x3d86d695	0.06583897
16	0xbe33ff72	-0.17577913
17	0x3d0f9ad6	0.035059772
18	0x3d9a65f1	0.07538975
19	0x3e16c0ba	0.14721957
20	0x3e170405	0.14747627
21	0x3ce185ed	0.027529681
22	0x3d90d12e	0.07071148
23	0xbd101d2a	-0.035184063
24	0x3dfd516a	0.12369044
25	0xbe083e7b	-0.13305084
26	0xbd8605be	-0.06544064
27	0x3db6f77f	0.08933925
28	0x3e3cb726	0.1842924
29	0x3e00a3dc	0.12562507
30	0xbdbdb0c3	-0.0926223
31	0xbdcd3a3c	-0.10020873
32	0x3d14cbfa	0.03632734
33	0x3d2170d8	0.039414257
34	0x3d8e9490	0.0696193
35	0xbd825e1f	-0.063656084
36	0x3df22b27	0.11824637
37	0x3dd7a333	0.10529175
38	0x3deb9397	0.1150276
39	0x3dc2f244	0.09518865
40	0xbd2a56e8	-0.041586787
41	0xbd5b7263	-0.053575885
42	0xbdec364d	-0.115337946
43	0xbbf93848	-0.007605586
44	0xbd5e8e4e	-0.05433493
45	0x3daf9f94	0.08575359
46	0x3e0747ae	0.13210937
47	0xbd8755d5	-0.06608168
48	0xbdbea151	-0.093081124
49	0x3d2d7704	0.04234983
50	0xbdc13c7e	-0.09435366
51	0x3d6f5940	0.058434725
52	0x3dd9a0f8	0.106264055
53	0xbd3a0cfd	-0.045422543
54	0xbdcfd76d	-0.10148511
55	0xbcddd0de	-0.027077135
56	0x3c0d5674	0.008626569
57	0x3deeb35e	0.11655305
58	0x3dfef02c	0.12448153
59	0x3e22ab79	0.15885724
60	0x3bbe87aa	0.0058145123
61	0x3d9e4836	0.07728617
62	0xbe431c78	-0.19053829
63	0xbd6c2f96	-0.05766257
64	0x3db530e9	0.088472195
65	0x3d7d03ba	0.061771132
66	0x3cf96102	0.030441765
67	0x3e2a2939	0.16617288
68	0xbe1ed8b3	-0.15512352
69	0x3a5cfbdc	0.0008429864
70	0x3c9c389f	0.019069968
71	0xbd7ee073	-0.06222577
72	0xbd9b0be6	-0.07570629
73	0xbd835ae1	-0.06413818
74	0x3dd0a888	0.10188395
75	0xbe1f5ac7	-0.15561973
76	0x3ddc5242	0.10757877
77	0x3dce1f28	0.10064536
78	0xbd5a0f89	-0.05323747
79	0xbe280f1d	-0.16412015
80	0x3df035b4	0.11728993
81	0xbe07eab8	-0.13273132
82	0x3d837e23	0.06420543
83	0x3e0220e4	0.1270786
84	0x3e149951	0.1451161
85	0x3e0a8c15	0.1353
86	0x3de63995	0.11241452
87	0xbaa0de7c	-0.0012273337
88	0xbe031b63	-0.12803416
89	0xbe11061b	-0.14162485
90	0x3cdc64bb	0.0269035
91	0xbd066071	-0.032806817
92	0x3e0e2fba	0.13885394
93	0x3d969d1e	0.073541865
94	0xbad061cf	-0.001589829
95	0xbc6e9ea9	-0.014564195
96	0xbe0d0039	-0.13769616
97	0xbd92b197	-0.07162779
98	0x3df86db7	0.121303014
99	0xbe05807a	-0.13037291
100	0xbe0fb791	-0.14034869
101	0xbc46ed7e	-0.0121415835
102	0x3d03960a	0.03212551
103	0xbde54e4e	-0.11196576
104	0xbba7f1f8	-0.0051252805
105	0xbc3d4e89	-0.011554369
106	0xbc43c372	-0.011948453
107	0x3d12b839	0.03582022
108	0x3d173232	0.036913104
109	0x3dc834ca	0.09775694
110	0xbb99a698	-0.004689049
111	0x3dc80625	0.09766797
112	0xbe072f7d	-0.13201709
113	0x3e17a461	0.148088
114	0x3d958131	0.07300032
115	0xbcd74327	-0.026277138
116	0xbd323705	-0.043509502
117	0xbdbd814c	-0.09253177
118	0xbd5c23af	-0.053744968
119	0x3d74f523	0.059804093
120	0xbdddca24	-0.10829571
121	0x3d876eb7	0.06612914
122	0xbdfc6ecc	-0.1232582
123	0x3d47be6e	0.048765592
124	0xbd4b6f87	-0.049666908
125	0xbc9548ad	-0.018223131
126	0x3dc25d18	0.094904125
127	0xbe3dc0ab	-0.18530528
128	0xbe0a04e9	-0.13478436
129	0x3bd88738	0.006607916
130	0x3ccad3c5	0.024759183
131	0xbe148138	-0.14502418
132	0xbd81624a	-0.06317575
133	0xbe0fef83	-0.1405621
134	0x3cae7fdf	0.021301208
135	0xbe49aa1d	-0.196938
136	0xbde4bdf4	-0.11169043
137	0xbd4fb567	-0.050710108
138	0xbc50d839	-0.012746864
139	0xbc34b539	-0.011029535
140	0xbd7ec549	-0.062199865
141	0xbdbbe854	-0.091751724
142	0x3d3d6875	0.046242196
143	0xbd872def	-0.06600558
144	0xbdfbdd72	-0.12298097
145	0x3d823859	0.06358404
146	0xbdfa5330	-0.12222898
147	0xbe29d278	-0.16584194
148	0x3e090009	0.1337892
149	0x3c96ca30	0.018406957
150	0xbe3fac87	-0.18718158
151	0xbde15cc7	-0.11004024
152	0x3cf16f3c	0.029471986
153	0xbe092691	-0.13393618
154	0x3b34d164	0.0027590627
155	0x3dbe804e	0.09301816
156	0x3bb0f369	0.0054001105
157	0xbd952c51	-0.07283843
158	0xbde9c121	-0.114137895
159	0x3dcb79cc	0.0993534
160	0x3e5d8661	0.21633293
161	0xbdd0e0d7	-0.10199135
162	0x3e080a44	0.13285166
163	0xbe19f237	-0.15033804
164	0xbd8f32be	-0.069921
165	0x3d4d9078	0.050186604
166	0x3c87ef16	0.016593497
167	0x3d09b829	0.033622894
168	0x3c8acdc9	0.01694383
169	0x3e0f27f0	0.13980079
170	0xbd046fe7	-0.03233328
171	0xbd8e8273	-0.06958475
172	0x3d6b72be	0.057482474
173	0x3ddfb362	0.109228864
174	0xbdc575b6	-0.09641592
175	0x3e0ce3ef	0.13758825
176	0x3dc38e18	0.095485866
177	0xbdee2d88	-0.11629778
178	0x3cd851fe	0.026406284
179	0xbdedc139	-0.1160912
180	0xbd2d2aa9	-0.042277012
181	0x3d9dd5f3	0.07706823
182	0x3e1722e7	0.14759408
183	0xbe1ff066	-0.15619048
184	0x3d87bcb4	0.06627789
185	0x3cb490e5	0.022041747
186	0xbc977001	-0.018486025
187	0x3dc5f1bb	0.09665247
188	0x3e30255a	0.17201748
189	0x3dba986c	0.091111034
190	0x3dee6b43	0.11641552
191	0xbcc5c5ae	-0.024142113
192	0x3e1713ec	0.14753693
193	0xbd774515	-0.060368616
194	0xbde2c8ae	-0.11073433
195	0x3da2eb44	0.079550296
196	0xbc8742e5	-0.01651139
197	0x3d53ace5	0.051678557
198	0xbd896957	-0.06709545
199	0xbdbbe664	-0.09174803
200	0x3decce19	0.115627475
201	0xbd31f941	-0.043450598
202	0x3d8f5186	0.06997971
203	0xbbddef34	-0.0067729
204	0xbe2054b4	-0.15657312
205	0xbc29a353	-0.010353881
206	0xbb9e0c9a	-0.0048232796
207	0xbde8ae4f	-0.11361372
208	0x3db5e073	0.08880701
209	0xbcfb7dd6	-0.030699652
210	0x3d921465	0.07132796
211	0xbd4af900	-0.04955387
212	0x3da8de21	0.08245493
213	0xbca99a30	-0.020703405
214	0x3d913a79	0.07091231
215	0xbdb16208	-0.08661276
216	0x3e1418e9	0.14462627
217	0x3e1357f5	0.14389022
218	0x3d632481	0.055454735
219	0x3e153f1b	0.14574854
220	0x3cb883f7	0.022523863
221	0x3c503524	0.012707982
222	0x3d50f868	0.05101815
223	0x3d46b71a	0.048514463
224	0xbdec0b5c	-0.11525604
225	0x3e08548c	0.13313502
226	0xbe0b3370	-0.1359384
227	0xbe08e788	-0.13369572
228	0xbd5d542e	-0.054035358
229	0xbbaf4e39	-0.005349901
230	0xbe1bbd02	-0.1520882
231	0x3e090482	0.13380626
232	0x3da4c374	0.08045092
233	0x3db2317a	0.08700843
234	0xbe421326	-0.18952617
235	0xbd844618	-0.06458682
236	0xbe4f23a1	-0.20228435
237	0x3c9ca5bf	0.019122003
238	0x3e00c7f4	0.12576276
239	0x3e0b979c	0.13632053
240	0xbc9fe32a	-0.0195175
241	0xbdd5ba6c	-0.10435948
242	0xbda4a6a8	-0.080396
243	0x3e061aa1	0.13096096
244	0xbd67e9ad	-0.056619335
245	0xbe2bde5d	-0.16784044
246	0x3de83df4	0.113399416
247	0x3c267255	0.010159095
248	0x3dfa38f5	0.12217895
249	0xbd44d3fd	-0.04805373
250	0x3d89db3d	0.067312695
251	0xbe350070	-0.17675948
252	0xbe2037d8	-0.15646303
253	0x3e2aaace	0.1666672
254	0x3bc8ac21	0.006124035
255	0xbd8b5d5f	-0.068049185

conv2.3.bias f4 [12]
0	0xbd1f0e94	-0.038832262
1	0x3db1bdd8	0.08678788
2	0xbdcb01f8	-0.09912485
3	0x3dfd61e9	0.123721905
4	0xbcd74bb6	-0.026281219
5	0x3dbfe933	0.09370651
6	0xbc718ff6	-0.014743796
7	0xbd92f598	-0.071757495
8	0xbe22f477	-0.15913568
9	0xbd8b75de	-0.06809591
10	0x3de235df	0.11045431
11	0x3df13de1	0.117793806

conv2.4.weight f4 [12]
0	0x3f80bf35	1.0058352
1	0x3f824b5f	1.0179251
2	0x3f81d733	1.0143799
3	0x3f8315a2	1.0240977
4	0x3f80db31	1.0066892
5	0x3f80c4dd	1.0060078
6	0x3f81e2a8	1.0147295
7	0x3f81c51b	1.0138277
8	0x3f8202cf	1.0157107
9	0x3f8132fb	1.0093683
10	0x3f80886c	1.0041633
11	0x3f81ceb7	1.0141209

conv2.4.bias f4 [12]
0	0xbab6de97	-0.0013951835
1	0xba9d650b	-0.0012008263
2	0x3c858745	0.016299853
3	0x3ce7b693	0.0282853
4	0x39e35e3d	0.00043367027
5	0xba9c33d4	-0.0011917301
6	0xbaa9efe3	-0.0012965169
7	0xb9be1848	-0.00036257715
8	0x39f27d0f	0.00046251013
9	0xba330000	-0.0006828308
10	0xba9f6aea	-0.00121626
11	0xb8fd0dd2	-0.00012066554

conv2.4.running_mean f4 [12]
0	0x3e1400a7	0.14453374
1	0x3e8b5a34	0.27217257
2	0xbe34c4d5	-0.1765321
3	0xbe80b765	-0.2513992
4	0xbe0c1911	-0.13681437
5	0x3e5fa6fe	0.21841046
6	0x3c119911	0.0088865915
7	0xbcf862d1	-0.030320557
8	0x3cd633d6	0.026147764
9	0x3eaaaf52	0.33336884
10	0x3e1b6d7f	0.15178488
11	0x3ebb554d	0.36588517

conv2.4.running_var f4 [12]
0	0x3de53101	0.111909874
1	0x3e0de82c	0.13858098
2	0x3dc24661	0.0948608
3	0x3e24fc3d	0.16111846
4	0x3e04e7a7	0.12978993
5	0x3d99170a	0.074750975
6	0x3e0a4657	0.13503395
7	0x3d75812a	0.059937634
8	0x3db42734	0.0879654
9	0x3e38e593	0.18056326
10	0x3dcd321c	0.10019323
11	0x3e09d693	0.1346076

conv3.0.weight f4 [12, 15, 4]
0	0x3da6b341	0.08139659
1	0x3d251be7	0.040309813
2	0xbc0403a1	-0.008057506
3	0xbce8ae79	-0.028403508
4	0x3d259e95	0.04043444
5	0xbd409cea	-0.047024645
6	0xbc47bfe1	-0.012191744
7	0x3d8a35ba	0.06748529
8	0x3d87c452	0.06629242
9	0xbd99a0f8	-0.075014055
10	0x3d0754be	0.0330398
11	0xbdb36fb9	-0.08761544
12	0xbd604205	-0.05475046
13	0xbcff9a08	-0.031201378
14	0x3dabcc93	0.08388629
15	0x3d42dddd	0.047574867
16	0x3dd11c1e	0.10210441
17	0xbd686396	-0.056735598
18	0x3c902d10	0.017599612
19	0x3d97510d	0.07388506
20	0x3db0e743	0.0863786
21	0xbe1167b2	-0.14199713
22	0xbe1ba3b7	-0.15199171
23	0x3c8c3dbb	0.01711928
24	0xbd064699	-0.03278217
25	0xbe1eed09	-0.15520109
26	0xbe17bc22	-0.1481786
27	0xbd4000ed	-0.046875883
28	0x3de41c13	0.11138167
29	0x3c8fc8b5	0.01755176
30	0xbd932104	-0.071840316
31	0x3dec7175	0.11545078
32	0x3d1f74da	0.038929798
33	0x3db293f2	0.087196246
34	0xbd68ac0b	-0.056804698
35	0xbd22b6c8	-0.039725095
36	0x3e066afd	0.1312675
37	0x3e0d8555	0.13820393
38	0xbc43bf13	-0.011947411
39	0xbdbf577b	-0.093428575
40	0x3e041613	0.12899046
41	0x3e00278d	0.12515087
42	0x3d3d8068	0.046265036
43	0x3da95048	0.082672656
44	0xbdaf8fb8	-0.08572334
45	0xbcccc333	-0.024995422
46	0x3d08b884	0.033379093
47	0xbd996d36	-0.074915335
48	0x3db92da6	0.0904191
49	0xbe16c4b0	-0.14723468
50	0x3c515470	0.012776479
51	0x3da7f3fa	0.08200832
52	0xbd9be8ee	-0.07612787
53	0xbda4e550	-0.080515504
54	0x3d84a4a8	0.06476718
55	0x3df2c8e6	0.118547246
56	0x3d094917	0.03351697
57	0xbd894550	-0.067026734
58	0xbbdc8ac8	-0.006730411
59	0x3ddc0c14	0.10744491
60	0x3bcb162e	0.0061977124
61	0x3d1e3aa1	0.03863013
62	0xbcf7e910	-0.0302625
63	0xbd54a875	-0.051918466
64	0xbd8d97e8	-0.069137394
65	0xbd78564e	-0.06062918
66	0x3aaea9a7	0.0013325707
67	0x3e2cc89e	0.16873404
68	0xbdf157ba	-0.11784311
69	0xbd4cd28d	-0.050005484
70	0xbd2fbc1b	-0.042904
71	0xbd8657f4	-0.065597445
72	0x3cee9cd6	0.02912752
73	0x3dfc0138	0.1230492
74	0x3d422de2	0.04740704
75	0x3d5422ad	0.051790882
76	0xbdb317c7	-0.087447695
77	0xbdb278f2	-0.08714475
78	0x3e1aa26a	0.15101019
79	0xbda4a2a5	-0.080388345
80	0x3d475ad7	0.048670616
81	0xbd7d9210	-0.061906874
82	0xbd44e5e0	-0.04807079
83	0xbddd0927	-0.10792761
84	0xbc2a134d	-0.010380578
85	0x3d92a882	0.071610466
86	0x3d4368c7	0.047707345
87	0x3d8779ca	0.06615026
88	0x3e10c97f	0.14139365
89	0xbddc0746	-0.10743575
90	0xbdc20ba7	-0.09474879
91	0x3ce3a436	0.027788263
92	0xba493938	-0.0007676068
93	0x3ddb03fb	0.106941186
94	0xbd50aaf1	-0.050944272
95	0x3dacf114	0.084444195
96	0xbd5f868e	-0.05457168
97	0xbdd5b64b	-0.1043516
98	0xbc918125	-0.017761776
99	0x3d59c9f9	0.05317113
100	0x3d79daff	0.060999867
101	0x3d951204	0.07278827
102	0xbcf4b4f2	-0.029871438
103	0x3dc79ce6	0.09746723
104	0x3d9f6d44	0.07784513
105	0xbe073f3e	-0.13207719
106	0x3ce431d1	0.027855786
107	0xbc4a2993	-0.012339014
108	0x3ca03833	0.019558048
109	0x3cd9c031	0.026580902
110	0x3df1a2f7	0.11798661
111	0xbe133a60	-0.14377737
112	0x3b8fc372	0.0043873126
113	0x3ce9cd9e	0.028540429
114	0xbd55fe20	-0.052244306
115	0xbd87962e	-0.066204414
116	0xbde650df	-0.11245894
117	0x3d93eeff	0.07223319
118	0xbd82fea5	-0.06396226
119	0x3c745ef1	0.014915214
120	0xbcbbb57b	-0.022913685
121	0x3bfa5cd9	0.007640463
122	0xbc24a876	-0.01004993
123	0x3c95e640	0.018298268
124	0x3dabb151	0.0838343
125	0xbda530b9	-0.08065934
126	0xbe1a70d8	-0.15082109
127	0x3def8472	0.11695184
128	0xbde8ab1f	-0.11360764
129	0x3da97206	0.08273701
130	0xbc9aab7b	-0.018880596
131	0xbda10d70	-0.07863891
132	0xbbf7e00f	-0.0075645517
133	0xbd0427b7	-0.032264438
134	0xbde76baf	-0.11299836
135	0x3da50264	0.080570966
136	0x3d3f099b	0.04664002
137	0xbdcf0619	-0.10108585
138	0x3dea2e5e	0.11434625
139	0x3daf293a	0.08552785
140	0x3cb8e975	0.022572258
141	0x3d99314e	0.07480107
142	0x3b49355c	0.003070197
143	0xbd6c86c5	-0.057745714
144	0xbd21593a	-0.039391734
145	0x3b4dc7a1	0.0031399506
146	0x3c582b5a	0.01319393
147	0x3d9eb86b	0.07750019
148	0xbe434bbb	-0.19071858
149	0xbd48bc5d	-0.049007762
150	0x3d0e847f	0.034794327
151	0xbe0c212d	-0.1368453
152	0xbe086095	-0.13318093
153	0xbb6566fc	-0.003500401
154	0x3da75a03	0.08171465
155	0xbde4e2be	-0.1117606
156	0xbcec220e	-0.028824832
157	0xbbfaea89	-0.0076573533
158	0xbb951261	-0.00454931
159	0xbdf5e85c	-0.1200721
160	0x3de213f8	0.11038965
161	0xbc978ed5	-0.018500725
162	0x3d1dab56	0.038493477
163	0x3cb1e3b3	0.02171502
164	0xbd2db5e0	-0.042409778
165	0xbd7dc35b	-0.061953884
166	0xbdc548d4	-0.096330315
167	0x3d27a81c	0.040931806
168	0xbd3f5d75	-0.046719987
169	0x3d069e3f	0.03286576
170	0xbd627450	-0.055286705
171	0x3de51662	0.1118591
172	0x3d5af502	0.053456314
173	0x3d65d3c4	0.05611016
174	0x3d326cbc	0.04356073
175	0x3db22bb9	0.08699746
176	0x3cf9eef6	0.030509453
177	0x3dd272b8	0.10275787
178	0x3dd73bd0	0.10509455
179	0x3d0b21ed	0.0339679
180	0xbca74a6f	-0.020421235
181	0x3cd25596	0.025675576
182	0xbcd22769	-0.025653558
183	0x3d9f59cb	0.077807985
184	0xbd5de2b7	-0.05417129
185	0x3bc60239	0.0060427454
186	0xbdcf673a	-0.10127111
187	0x3c1ffe17	0.00976517
188	0xbe208705	-0.15676506
189	0xbd56f4a5	-0.052479405
190	0xbe055189	-0.13019384
191	0xbdebfd3d	-0.11522911
192	0x3cd0fac8	0.025510207
193	0x3d8aa9d7	0.06770676
194	0x3dcacf0b	0.099027716
195	0xbcf9edc7	-0.030508889
196	0x3c736a96	0.014856955
197	0xbdc1f77c	-0.09471032
198	0x3d45ac1f	0.04825985
199	0x3e0fc6f1	0.14040734
200	0xbd630604	-0.05542566
201	0xb9e44c60	-0.00043544453
202	0x3cb1a5f1	0.021685572
203	0xbdb52400	-0.08844757
204	0xbc9a5450	-0.018839031
205	0x3d7468e0	0.05967033
206	0x3d196c43	0.037456762
207	0x3d705a05	0.0586796
208	0x3d4e325c	0.050340995
209	0x3d9aa535	0.07551042
210	0x3dafe344	0.08588269
211	0x3e0ca469	0.13734592
212	0x3d5e8fcb	0.05433635
213	0xbd015451	-0.03157455
214	0xbd52c351	-0.0514558
215	0xbdf00263	-0.11719205
216	0xbddf0c1a	-0.1089098
217	0x3dcf553e	0.101236805
218	0xbd0dbe29	-0.03460518
219	0xbd8a8d4d	-0.06765232
220	0xbc683c19	-0.014174485
221	0x3db2263f	0.08698701
222	0xbbfe130b	-0.007753735
223	0xbd6c97c4	-0.057761922
224	0x3b21b863	0.0024676553
225	0xbdefbb3b	-0.11705633
226	0x3dd725ec	0.1050528
227	0xbd711865	-0.058861155
228	0xbc40454c	-0.011735272
229	0xbe0eb7e7	-0.1393734
230	0xbbc96f1f	-0.00614728
231	0x3da09299	0.07840461
232	0xbd9b0e46	-0.07571082
233	0x3d63d1a7	0.055619862
234	0xbd253c3e	-0.040340655
235	0x3d2f7206	0.04283335
236	0xbe07a66a	-0.13247076
237	0xbdc2bc80	-0.0950861
238	0x3e0f343e	0.13984773
239	0xbd134884	-0.03595783
240	0x3d32b6d7	0.0436314
241	0xbd80b77a	-0.062849954
242	0xbd06b137	-0.03288385
243	0x3a8e8f67	0.0010876477
244	0xbcc991e9	-0.024605708
245	0xbdad6f97	-0.0846855
246	0x3df4481f	0.119278185
247	0xbd0edb21	-0.034876946
248	0xbd4c78bb	-0.049919825
249	0xbda68258	-0.0813033
250	0x3dfbd50f	0.12296497
251	0xbda5149d	-0.08060572
252	0x3d415871	0.047203485
253	0x3ca38ae8	0.019963697
254	0x3cbc4def	0.02298638
255	0x3c9eb597	0.019373698

conv3.0.bias f4 [12]
0	0xbd70c9c6	-0.058786176
1	0x3d60a902	0.05484868
2	0x3c1a09de	0.009401767
3	0xbae8d246	-0.0017762862
4	0x3c61173a	0.013738448
5	0xbd5366aa	-0.05161158
6	0x3c686f21	0.014186651
7	0x3d29657b	0.041356545
8	0xbd8ca00f	-0.06866466
9	0xbd2a9034	-0.04164143
10	0xbbf96dbd	-0.007611959
11	0x3ded31e1	0.11581779

conv3.1.weight f4 [12]
0	0x3f8470ee	1.0346963
1	0x3f7ae2e3	0.9800245
2	0x3f84e964	1.0383725
3	0x3f80734e	1.0035188
4	0x3f7a35d7	0.97738403
5	0x3f807950	1.0037022
6	0x3f82629f	1.0186347
7	0x3f813c79	1.009658
8	0x3f800098	1.0000181
9	0x3f74c386	0.95610845
10	0x3f7dd562	0.9915372
11	0x3f793be2	0.97357

conv3.1.bias f4 [12]
0	0x3b7a0f95	0.003815626
1	0xbc312594	-0.010812182
2	0x3d0c5afb	0.034266453
3	0x3c04acc7	0.008097834
4	0xbc9bdb70	-0.019025534
5	0xbb3c1256	-0.0028697453
6	0xbc4c0fc4	-0.012454931
7	0xbc91cfab	-0.01779922
8	0x3bcc083c	0.0062265676
9	0xbd9667ec	-0.0734404
10	0xbb6d3849	-0.0036196879
11	0xbbe4de4f	-0.006984509

conv3.1.running_mean f4 [12]
0	0x3e16dadd	0.14731927
1	0x3d0eb91b	0.0348445
2	0xbeb59a13	-0.35469112
3	0xbf08ff5c	-0.5351465
4	0x3da107cf	0.078628175
5	0xbeb5d66a	-0.35515147
6	0x3d09caf1	0.033640806
7	0xbe991ed3	-0.2990633
8	0x3e027ad3	0.12742166
9	0xbea5e80a	-0.32403594
10	0x3e8213c0	0.25405693
11	0x3eea3b50	0.45748377

conv3.1.running_var f4 [12]
0	0x403c36d4	2.9408464
1	0x40a89a52	5.268838
2	0x40c473f2	6.1391535
3	0x40a43a04	5.132082
4	0x40a0a3ed	5.0200105
5	0x40c10a65	6.032519
6	0x40bda626	5.926532
7	0x406a9772	3.6654935
8	0x40641988	3.5640583
9	0x40b5775c	5.67082
10	0x40c0f982	6.0304575
11	0x40e91d0b	7.2847953

conv3.3.weight f4 [12, 12, 4]
0	0xbd66e6e3	-0.056372534
1	0xbd89cb57	-0.06728237
2	0xbd9d1ae4	-0.076711446
3	0xbd955047	-0.07290702
4	0x3e16409f	0.14673088
5	0xbdc183df	-0.094489805
6	0x3bdc0ced	0.006715408
7	0xbdee2390	-0.11627877
8	0xbe11029b	-0.1416115
9	0xbd5b223a	-0.053499438
10	0x3d727da1	0.05920184
11	0xbdc6f515	-0.097147144
12	0x3ca79e1a	0.02046113
13	0xbd9d3c2d	-0.07677493
14	0xbd14d017	-0.036331262
15	0xbd66cc78	-0.05634734
16	0x3d0e6bcf	0.034770783
17	0x3d9513fc	0.07279202
18	0xbc7b0f82	-0.015323522
19	0x3dd95d62	0.106135145
20	0x3dc8da32	0.098072425
21	0xbda212dc	-0.079137534
22	0x3e0c5dd9	0.13707675
23	0xbc8fa00e	-0.017532375
24	0xbcfd8357	-0.030946417
25	0x3e0ed5d1	0.13948752
26	0x3d764111	0.060120646
27	0xbd920477	-0.07129758
28	0xbdcad829	-0.099045105
29	0xbb9c9129	-0.0047780466
30	0xbbe19c69	-0.0068851006
31	0xbcb88022	-0.022522036
32	0x3dac1d13	0.08403983
33	0x3e3aab98	0.1822952
34	0x3dfac626	0.12244825
35	0xbbbd3ea6	-0.0057752905
36	0xbd2f8f9e	-0.042861573
37	0x3da56b90	0.080771565
38	0xbd1be915	-0.03806408
39	0x3d9d1ada	0.07671137
40	0xbdbf2647	-0.09333473
41	0xbd6cbdbb	-0.05779813
42	0x3db5d8db	0.088792525
43	0x3d42d0b1	0.047562305
44	0xbc59b578	-0.013287894
45	0xbd6e34c1	-0.05815578
46	0xbd9dad2e	-0.07699047
47	0x3ddb0784	0.10694793
48	0xbdc08815	-0.094009556
49	0xbd7bf2fd	-0.06151103
50	0xbdfd56f5	-0.12370101
51	0x3c16fa45	0.009214942
52	0xbd274bbb	-0.040843707
53	0xbd96f044	-0.07370046
54	0xbdf2c2fc	-0.118535966
55	0x3df22c71	0.11824883
56	0x3dfa2845	0.12214712
57	0xbba85bab	-0.005137881
58	0xbdb2cdd0	-0.08730662
59	0xbdb898f7	-0.09013551
60	0xbe16c50a	-0.14723602
61	0x3dd6327f	0.1045885
62	0x3cc53586	0.024073374
63	0x3d887406	0.06662755
64	0xbd024709	-0.031806026
65	0xbe04d105	-0.1297036
66	0xbcdeb713	-0.027186906
67	0x3e0b641c	0.13612407
68	0x3de11088	0.10989481
69	0xbe094f64	-0.13409191
70	0xbe28aa8d	-0.1647131
71	0xbde39a49	-0.11113412
72	0x3cdba5b5	0.026812414
73	0xba40e62c	-0.0007358517
74	0xbe01fc4c	-0.126939
75	0x3daa8bd7	0.083274536
76	0x3d65491a	0.05597792
77	0xbd83307a	-0.064057305
78	0x3dfa55b2	0.12223376
79	0xbdf98220	-0.121830225
80	0x3dc96b32	0.09834899
81	0xbdf756da	-0.120771125
82	0xbd6b9d37	-0.05752298
83	0xbd996ca2	-0.07491423
84	0x3c87fb2d	0.016599262
85	0x3b436a35	0.0029817943
86	0x3d9205c5	0.07130007
87	0x3de565cc	0.11201057
88	0x3db070b9	0.0861525
89	0xbdb1d902	-0.08683969
90	0xbe0258a1	-0.12729122
91	0x3ddf3e00	0.109004974
92	0x3da3027d	0.07959459
93	0xbdca9537	-0.09891742
94	0xbca3d0bf	-0.019996999
95	0xbd0bd69b	-0.03414021
96	0xbb821af9	-0.0039705005
97	0xbd6ef5df	-0.05833995
98	0x3e1ca103	0.15295796
99	0x3d83bcd2	0.06432499
100	0x3dcfefc9	0.10153157
101	0xbdf03e60	-0.11730647
102	0xbde0e909	-0.10981948
103	0xb9f76d0d	-0.0004719276
104	0xbdd50382	-0.1040106
105	0x3db391ef	0.08768069
106	0xbd26afe6	-0.040695094
107	0x3e01961d	0.1265492
108	0xbc357b1f	-0.011076718
109	0x3cf8a549	0.030352252
110	0xbdf23595	-0.11826626
111	0xbccfc036	-0.025360208
112	0xbcf6c68f	-0.030123977
113	0xbd1ab898	-0.0377737
114	0x3dbc263e	0.091869816
115	0x3d935b2b	0.07195123
116	0x3d3dbf93	0.046325278
117	0x3d085f5f	0.033294078
118	0x3db64cbc	0.08901355
119	0x3da9bdac	0.0828813
120	0xbda6b697	-0.08140295
121	0x3d27590a	0.0408564
122	0x3dd0a055	0.10186831
123	0x3e1964fd	0.1497993
124	0x3e1a2052	0.15051392
125	0x3da4f427	0.08054381
126	0x3d891242	0.066929355
127	0xbdfc80d2	-0.12329258
128	0xbe0d083c	-0.13772672
129	0xbc628f83	-0.013828161
130	0xbd900541	-0.07032252
131	0xbba33c25	-0.004981535
132	0x3d72b184	0.059251323
133	0xbc7b6abb	-0.015345271
134	0xbd8eea6d	-0.06978307
135	0xbd18b619	-0.037283037
136	0xbc290bbe	-0.010317741
137	0x3e2afd8d	0.16698284
138	0xbdb73534	-0.089456946
139	0xbd5735b2	-0.052541442
140	0xbde17713	-0.1100904
141	0xbc54c273	-0.012985813
142	0xbd13053b	-0.03589366
143	0xbe1d8b0e	-0.15385076
144	0x3e181316	0.1485103
145	0x3d7be6d2	0.061499424
146	0x3d2ef803	0.04271699
147	0xbc22f36a	-0.00994573
148	0xbdcf5e1c	-0.10125372
149	0x3db6a823	0.08918788
150	0xbb0987ef	-0.0020985564
151	0xbcd2c338	-0.025727853
152	0x3d8f7dec	0.070064396
153	0x3e1059a8	0.14096701
154	0xbca8ca0c	-0.020604156
155	0x3cfda4d3	0.030962383
156	0x3deb7d5c	0.1149852
157	0xbdc7be0e	-0.09753047
158	0x3e0af622	0.13570455
159	0xbda0ce26	-0.0785182
160	0xbc1fa6e3	-0.009744379
161	0x3d26db80	0.040736675
162	0x3dd6146d	0.10453115
163	0x3c15cf23	0.0091436235
164	0x3dc66753	0.09687676
165	0x3d8c8d99	0.06862945
166	0x3dd8d3a4	0.10587242
167	0x3d82b2c1	0.06381751
168	0xbe1d84b7	-0.15382658
169	0xbc459ca8	-0.012061276
170	0x3c2b1883	0.010442856
171	0x3e0380ef	0.12842153
172	0xbdac14a3	-0.08402374
173	0x3dabe84b	0.08393916
174	0x3d30c1e4	0.04315366
175	0xbc554ee7	-0.0130193
176	0xbd4d2aae	-0.05008953
177	0xbd8cef6e	-0.06881605
178	0xbcd08b48	-0.02545704
179	0xbdce2e5e	-0.100674376
180	0xbd98fc11	-0.07469953
181	0xbd506b01	-0.050883297
182	0xbe02ba51	-0.12766387
183	0xbcd9aff3	-0.026573157
184	0x3cc2093e	0.023686048
185	0xbc639a97	-0.013891838
186	0xbd4dd1b9	-0.050248835
187	0xbe06fdc8	-0.13182747
188	0x3d817dc6	0.063228175
189	0xbe0815da	-0.13289586
190	0x3de73546	0.11289458
191	0xbdb295d8	-0.08719987
192	0x3daf330a	0.08554657
193	0xbdbdba6d	-0.092640735
194	0xbdb6ec16	-0.089317486
195	0x3dc34bff	0.095359795
196	0xbe08502e	-0.13311836
197	0xbdefe009	-0.11712653
198	0x3daa45d0	0.08314097
199	0x3dacfb83	0.084464096
200	0xbe0507d0	-0.12991261
201	0xbd8006d0	-0.062512994
202	0xbe4f23a6	-0.20228443
203	0x3b5f80da	0.00341039
204	0xbcb8d7f3	-0.02256391
205	0xbdcd0236	-0.10010187
206	0xbd8a511a	-0.0675375
207	0x3dadc570	0.08484924
208	0x3cb9a4dd	0.02266162
209	0x3e078b8a	0.13236824
210	0xbdfb579f	-0.12272572
211	0x3decdc6c	0.1156548
212	0x3dcec4f1	0.10096157
213	0x3d1a22bd	0.037630785
214	0x3e408e2b	0.18804233
215	0xbe0eba5e	-0.13938281
216	0xbdcd4e0c	-0.10024652
217	0x3d092ad6	0.033488117
218	0xbcd2207a	-0.025650252
219	0x3d1fb1ce	0.038987927
220	0xbc849b04	-0.016187198
221	0x3decd880	0.115647316
222	0xbc7f9fd2	-0.015602069
223	0xbde5c03a	-0.11218305
224	0x3c812e25	0.015769074
225	0x3dd6af46	0.104826495
226	0xbd542538	-0.051793307
227	0x3d1049f7	0.03522679
228	0x3d9f490a	0.07777603
229	0xbdc8c351	-0.09802879
230	0xbd9aafb5	-0.07553045
231	0xbd2705b2	-0.040776916
232	0x3cfb1dce	0.03065386
233	0xbd1d2c8d	-0.038372565
234	0xbd538077	-0.051636185
235	0x3e0962bc	0.1341657
236	0x3dc8e9a0	0.098101854
237	0x3cfcfe66	0.030883025
238	0xbd5125d8	-0.05106148
239	0xbd081a94	-0.033228472
240	0x3d4d6d24	0.050152913
241	0xbd9a5547	-0.075357966
242	0x3df40c64	0.11916426
243	0x3d83af2a	0.06429894
244	0x3dcaee2f	0.09908711
245	0x3e02dab1	0.12778737
246	0x3cb2e19b	0.021836093
247	0xbde855f1	-0.11344517
248	0xbc86020a	-0.016358394
249	0xbd0a9af9	-0.0338392
250	0xb9e1dd56	-0.00043080252
251	0xbd18d08e	-0.03730827
252	0xbe07b438	-0.13252342
253	0xbcf2ac09	-0.029623048
254	0xbdef6bc0	-0.116904736
255	0xbd4aa723	-0.0494758

conv3.3.bias f4 [12]
0	0xbd745a16	-0.059656225
1	0x3db208e6	0.086931035
2	0x3d0af0b3	0.033920955
3	0xbdf0b739	-0.11753697
4	0x3b89beaa	0.004203637
5	0xbdd84483	-0.105599426
6	0xbde424c2	-0.111398235
7	0xbcee6a00	-0.02910328
8	0xbd29da04	-0.04146768
9	0x3ddc4574	0.10755435
10	0xbd59d789	-0.053184066
11	0xbccc70eb	-0.024956187

conv3.4.weight f4 [12]
0	0x3f811e19	1.008731
1	0x3f84bd94	1.0370355
2	0x3f826457	1.0186871
3	0x3f835fc1	1.0263597
4	0x3f82271d	1.0168186
5	0x3f813d98	1.0096922
6	0x3f820baa	1.015981
7	0x3f81da2b	1.0144705
8	0x3f82205a	1.0166123
9	0x3f81497d	1.0100552
10	0x3f7fd078	0.99927473
11	0x3f82baf3	1.0213302

conv3.4.bias f4 [12]
0	0xbc367764	-0.011136863
1	0x3cec6dc5	0.028860936
2	0xbcb961ba	-0.022629607
3	0x3a4b3508	0.0007751738
4	0xbcbc427a	-0.022980917
5	0xbc8ad1cf	-0.016945748
6	0xbcc7b993	-0.02438048
7	0x3a35e33d	0.0006938463
8	0x3a201a74	0.00061074574
9	0x3ce45e70	0.027877063
10	0xbcdefd9c	-0.02722054
11	0x3cec816e	0.02887031

conv3.4.running_mean f4 [12]
0	0xbdbeb34d	-0.09311543
1	0xbe4630c2	-0.19354537
2	0x3d8eeec6	0.06979136
3	0x3c67e1ec	0.014152985
4	0xbdb0ea6c	-0.086384624
5	0xbe634e00	-0.22197723
6	0xbe173f1d	-0.1477017
7	0x3e319b03	0.17344289
8	0x3e1c73f3	0.15278606
9	0xbd3ea0dd	-0.04654013
10	0xbd928090	-0.071534276
11	0xbe674da6	-0.22588214

conv3.4.running_var f4 [12]
0	0x3df7fec0	0.121091366
1	0x3e027e6e	0.12743542
2	0x3dc2726d	0.09494481
3	0x3d9db1c9	0.076999255
4	0x3dcda748	0.10041672
5	0x3da66bc5	0.08126024
6	0x3dbb78f3	0.091539286
7	0x3e019818	0.12655675
8	0x3e13c6b7	0.14431272
9	0x3dbe165b	0.09281608
10	0x3e06a4de	0.1314883
11	0x3db290bd	0.08719013
