model/AutoY/T1Dcheckpoint0.pt (torch, 34275 bytes, 51 tensors)

conv1.0.weight f4 [12, 15, 2]
0	0xbdea5c45	-0.1144338
1	0xbc14c11b	-0.009079243
2	0xbdfee8f1	-0.12446774
3	0x3d377f86	0.04479935
4	0x3e2da30d	0.1695673
5	0x3dec1392	0.1152717
6	0xba0dc4e5	-0.0005408063
7	0xbe1dc7dc	-0.15408272
8	0xbe182432	-0.14857557
9	0xbd0e742f	-0.03477877
10	0x3d3b7df3	0.04577441
11	0xbd3cce2d	-0.046095062
12	0x3984e33b	0.00025346302
13	0xbdd0f660	-0.10203242
14	0x3cdc6ccf	0.026907353
15	0x3db35b7d	0.087576844
16	0x3d930422	0.07178523
17	0xbdcf610e	-0.101259336
18	0x3d495c7d	0.04916047
19	0xbd02e84c	-0.031959817
20	0xbe3ff7a0	-0.18746805
21	0xbc961540	-0.01832068
22	0xbd5544dd	-0.052067626
23	0xbd1308a5	-0.035896916
24	0x3e3355d8	0.17513216
25	0xbe2bdadc	-0.16782707
26	0xbd8c6b73	-0.06856432
27	0x3e1c412f	0.1525924
28	0xbde94d1a	-0.11391659
29	0x3dd6a0ef	0.104799144
30	0xbd3716f5	-0.044699628
31	0xbcb2d914	-0.021832027
32	0x3db510ca	0.08841093
33	0xbdd06f31	-0.10177458
34	0xbdea07f8	-0.11427301
35	0x3d67fe68	0.056639105
36	0xbda88631	-0.0822872
37	0xbd696eaf	-0.05699032
38	0x3df11900	0.117723465
39	0xbe156c0b	-0.14591996
40	0x3d9cd5b7	0.0765795
41	0xbe32b4ed	-0.1745183
42	0xbe34c4ce	-0.176532
43	0xbd9044b4	-0.07044354
44	0x3e1e9e72	0.1549013
45	0x3d0463c9	0.032321725
46	0x3e05c3f5	0.13063033
47	0x3d2650f9	0.040604565
48	0xbd040117	-0.0322276
49	0xbdbbf244	-0.09177068
50	0xbe211f9f	-0.15734719
51	0xbdb35c11	-0.08757795
52	0xbe4890ef	-0.19586538
53	0x3d9eedc1	0.07760192
54	0x3c8c39de	0.017117437
55	0x3e0cdb6c	0.13755578
56	0xbd4b3e68	-0.049620062
57	0x3e3b2b78	0.18278301
58	0x3d2da6e7	0.0423955
59	0xbd81f61f	-0.06345772
60	0x3d5de633	0.054174613
61	0xbe07d0be	-0.13263223
62	0x3d5f7451	0.054554287
63	0x3e020cf3	0.12700252
64	0x3cb5b313	0.022180116
65	0xbdeafd21	-0.11474062
66	0x3e159ba9	0.14610161
67	0x3e0b1b32	0.13584593
68	0xbd230d75	-0.039807756
69	0x3e113c16	0.14183077
70	0xbd5aa253	-0.05337746
71	0x3dc66f80	0.09689236
72	0xbe126c21	-0.1429906
73	0x3c5554d5	0.013020714
74	0x3d8db6ef	0.069196574
75	0x3e201974	0.1563471
76	0x3dde1dc1	0.10845519
77	0x3db6881e	0.08912681
78	0xbdbebea5	-0.09313706
79	0xbe146d78	-0.14494884
80	0x3de5649f	0.112008326
81	0x3e2768cc	0.1634857
82	0x3e023d40	0.12718678
83	0x3d7d3551	0.061818425
84	0x3c00983d	0.007848796
85	0xbcf0c36d	-0.029390061
86	0x3d93e42b	0.07221254
87	0x3e24d200	0.16095734
88	0xbe0c3587	-0.13692294
89	0x3d28568e	0.04109817
90	0xbd1acd14	-0.037793234
91	0x3d2d093e	0.042245142
92	0xbdd4e599	-0.10395355
93	0xbd8094cf	-0.06278383
94	0x3d094aa4	0.03351845
95	0xbe1cf993	-0.1532958
96	0x3e217811	0.15768458
97	0xbdc84d46	-0.09780364
98	0x3d241a6d	0.040064264
99	0x3d9115c3	0.07084229
100	0xbd3f7af5	-0.04674812
101	0x3e4d4b7b	0.20048325
102	0x3e0ded07	0.1385995
103	0xbd590371	-0.052981798
104	0x3cad5140	0.021156907
105	0x3d75c963	0.06000651
106	0xbd913803	-0.070907615
107	0x3e15bef0	0.14623618
108	0xbc97fef6	-0.018554192
109	0xbe11a85b	-0.14224379
110	0x3dc0620e	0.093937024
111	0xbc9b586a	-0.018963058
112	0xbd226a19	-0.039651964
113	0xbd5a0c8f	-0.053234633
114	0x3e072421	0.13197376
115	0xbdaf6e53	-0.085659645
116	0xbdd0fdc6	-0.102046534
117	0x3d657932	0.056023784
118	0xbd796cd7	-0.060894813
119	0x3da7b34c	0.08188495
120	0xbdb1433b	-0.08655401
121	0xbdd9840b	-0.10620888
122	0xbe180f15	-0.14849503
123	0x3e094618	0.13405645
124	0xbc4684e2	-0.012116643
125	0x3dd10070	0.102051616
126	0xbdd4bc52	-0.10387482
127	0x3de6c4dd	0.112680174
128	0x3d79838e	0.060916476
129	0xbe1456f8	-0.14486301
130	0xbd1308c8	-0.035897046
131	0x3e18d561	0.14925148
132	0x3a1be3c9	0.00059467234
133	0xbdf946ef	-0.12171733
134	0x3de307c5	0.11085466
135	0xbae65cc0	-0.0017575249
136	0xbdce6424	-0.10077694
137	0xbdf2d323	-0.118566774
138	0xbd5d3a15	-0.05401047
139	0x3d37f0e1	0.044907454
140	0x3da0a97b	0.07844826
141	0x3d83e3b3	0.064399146
142	0xbda9bcf5	-0.08287994
143	0x3d850c8a	0.06496532
144	0x3d5b85b3	0.053594302
145	0xbda21b15	-0.07915322
146	0xbc1c6708	-0.009546049
147	0x3d83cedb	0.06435939
148	0x3e321e4c	0.1739437
149	0x3c5372fe	0.012905834
150	0x3de3689e	0.111039385
151	0xbddfb793	-0.10923686
152	0x3cdb11e8	0.026741937
153	0x3d06a497	0.03287181
154	0x3e31b043	0.17352395
155	0x3daca84b	0.08430537
156	0xbd87967c	-0.066204995
157	0x3c4c6065	0.012474154
158	0x3dfcf37b	0.12351128
159	0xbdf8e876	-0.121537134
160	0x3cbcd94f	0.02305284
161	0xbd8c4b39	-0.06850285
162	0xbd883cb8	-0.06652206
163	0xbcf5697e	-0.02995753
164	0xbdbe7f29	-0.093015976
165	0x3e26e2fa	0.16297522
166	0xbe21edcb	-0.15813367
167	0xbe569407	-0.20954905
168	0x3d881052	0.06643738
169	0x3da47588	0.0803023
170	0x3e0bbd89	0.1364652
171	0xbdaeb338	-0.08530277
172	0xbe1f0846	-0.155305
173	0x3dce3b9f	0.100699656
174	0x3dfe2037	0.12408488
175	0xbd598e7f	-0.05311441
176	0x3dc430e3	0.09579637
177	0xbe1f0946	-0.15530881
178	0xbe151fb2	-0.14562872
179	0xbdae4b10	-0.08510411
180	0x3ddb1e1b	0.106991015
181	0x3de132b9	0.10996003
182	0xbc6ea6d9	-0.014566147
183	0xbe033170	-0.12811828
184	0x3c539725	0.012914454
185	0xbe1b3c2e	-0.15159675
186	0xbe25a891	-0.16177584
187	0xbe5416a7	-0.20711766
188	0xbcb81f96	-0.022475999
189	0xbd9238c4	-0.071397334
190	0xbe38a175	-0.18030341
191	0x3ce0daac	0.02744802
192	0x3d00786b	0.03136484
193	0x3d8232c3	0.06357338
194	0x3d6bd68c	0.057577655
195	0x3d838fe9	0.06423933
196	0x3e533859	0.20626964
197	0xbcfe20de	-0.031021532
198	0xbe16e4fa	-0.14735785
199	0xbc0f049f	-0.008729129
200	0x3d60520c	0.054765746
201	0xbe2014cf	-0.15632938
202	0xbdf7ebc6	-0.12105517
203	0x3bdae1ff	0.006679773
204	0x3e2e131a	0.16999474
205	0x3e2f77cd	0.17135544
206	0x3d90c87c	0.07069489
207	0xbd674f74	-0.056472257
208	0x3c9640b2	0.018341396
209	0xbb9555c3	-0.0045573427
210	0xbd55a212	-0.052156515
211	0xbdd6235d	-0.10455964
212	0xbddf50a4	-0.10904053
213	0xbd9eeec4	-0.07760385
214	0x3da93a02	0.08263017
215	0x3d1bd387	0.038043525
216	0x3de8b275	0.11362163
217	0xbe1bda43	-0.15219979
218	0xbe32cb04	-0.17460257
219	0x3e17c34b	0.14820592
220	0x3c8778e9	0.016537147
221	0xbca3d48a	-0.019998807
222	0x3e094952	0.13406876
223	0xbdfd77b9	-0.12376351
224	0xbd0d0d87	-0.03443673
225	0x3e042ee5	0.12908514
226	0xbddd9028	-0.10818511
227	0xbcabf8ab	-0.020992598
228	0xbe04ed11	-0.12981059
229	0x3db9150c	0.090372175
230	0x3d6ba3a2	0.0575291
231	0x3cfbc7f5	0.030734995
232	0x3e02a183	0.12756924
233	0xbe29ef03	-0.16595082
234	0xbe1031b4	-0.1408146
235	0xbcf16513	-0.029467141
236	0x3e5534b6	0.20820889
237	0xbe1708c5	-0.14749439
238	0x3da1338f	0.07871162
239	0xbdfa47cf	-0.12220728
240	0xbca20dbc	-0.01978194
241	0xbdf8a3b2	-0.121405974
242	0x3e1704ee	0.14747974
243	0x3df23fd8	0.118285835
244	0xbe1d4b9f	-0.15360878
245	0xbe04fd43	-0.12987237
246	0xbcc628df	-0.02418941
247	0x3cf88f58	0.03034179
248	0x3d973d12	0.07384695
249	0x39fc39f6	0.0004810837
250	0x3d8c5a08	0.068531096
251	0x3d8ad1e3	0.06778314
252	0x3e354f38	0.17706001
253	0x3e26d5a0	0.16292429
254	0xbdaf9e80	-0.08575153
255	0xbcddda53	-0.027081644

conv1.0.bias f4 [12]
0	0x3cd66858	0.026172802
1	0x3d98dded	0.07464204
2	0xbda8521d	-0.08218787
3	0xbd450ad5	-0.048106033
4	0x3d821d9b	0.06353303
5	0x3da101b2	0.078616515
6	0x3e2eaaa5	0.17057283
7	0xbe384d63	-0.1799827
8	0x3e144510	0.1447947
9	0xbe047946	-0.12936887
10	0xbd02efaa	-0.031966843
11	0xbcbd5f4a	-0.023116726

conv1.1.weight f4 [12]
0	0x3f80f2e1	1.0074121
1	0x3f7f351a	0.996904
2	0x3f84ee4c	1.0385222
3	0x3f8236d2	1.017298
4	0x3f886514	1.0655847
5	0x3f783590	0.9695673
6	0x3f82b203	1.0210575
7	0x3f8064bb	1.003074
8	0x3f7c8ece	0.986554
9	0x3f739fa8	0.9516549
10	0x3f8147ed	1.0100075
11	0x3f7f3ab6	0.9969896

conv1.1.bias f4 [12]
0	0xbbcc5d16	-0.0062366826
1	0x3ba13a9d	0.0049203173
2	0xbd0798bb	-0.03310464
3	0xbcb8d567	-0.022562696
4	0x3d111bbc	0.03542684
5	0xbde2fcdc	-0.11083385
6	0x3cb74a21	0.022374215
7	0xbc8b69d9	-0.017018246
8	0x3d0b8c7a	0.034069516
9	0xbd8237ae	-0.06358276
10	0x3d7ec603	0.062200557
11	0xbd245735	-0.04012223

conv1.1.running_mean f4 [12]
0	0x3cb41681	0.021983387
1	0x3e24d885	0.1609822
2	0x3e21a918	0.1578716
3	0xbe9da7ba	-0.30792028
4	0xbeb67ad4	-0.35640585
5	0x3eac39bc	0.33637798
6	0x3eb6379f	0.3558931
7	0xbf2de3d9	-0.6792579
8	0xbe13e0d2	-0.14441231
9	0x3e576298	0.21033704
10	0x3e9fc155	0.31202188
11	0x3e99e5df	0.3005819

conv1.1.running_var f4 [12]
0	0x40571fc2	3.3613133
1	0x403691ba	2.8526444
2	0x407c2ccc	3.9402342
3	0x40860af2	4.188836
4	0x40a512d3	5.158548
5	0x4082acf6	4.0836134
6	0x40ebfaf6	7.374385
7	0x40b05881	5.5108037
8	0x40aca290	5.394844
9	0x40d244ac	6.570883
10	0x408b0ad8	4.3450737
11	0x40b0741e	5.5141745

conv1.3.weight f4 [12, 12, 2]
0	0x3dd0b067	0.10189896
1	0xbdda3398	-0.10654372
2	0xbdf24cbc	-0.11831042
3	0x3d85642f	0.06513249
4	0xbbe643b6	-0.0070271147
5	0x3ddf24ba	0.10895677
6	0xbe358e95	-0.17730172
7	0xbdaa60f6	-0.08319275
8	0xbd4e1252	-0.05031044
9	0xbdae05be	-0.08497189
10	0x3e42ac84	0.19011122
11	0xbd661c2f	-0.05617922
12	0x3cb883b0	0.022523731
13	0xbdcec13e	-0.10095452
14	0x3e4af493	0.1981986
15	0xbd1d7468	-0.03844109
16	0x3d20741d	0.039173234
17	0x3e5c193b	0.21494
18	0xbdabd917	-0.08391016
19	0xbdc9d59e	-0.09855197
20	0x3cb189e8	0.021672204
21	0x3e24b458	0.1608442
22	0xbe0f75c6	-0.14009771
23	0xbe4b177d	-0.19833179
24	0xbdc4be03	-0.09606554
25	0xbdde585e	-0.108566985
26	0xbda87781	-0.082259186
27	0x3db09acf	0.086232774
28	0xbd72cfdb	-0.059280258
29	0xbdd6cac5	-0.10487894
30	0x3b43f32b	0.0029899578
31	0xbe205024	-0.15655571
32	0x3cda965b	0.026683023
33	0x3d8fac20	0.07015252
34	0xbdaf8cb0	-0.08571756
35	0xbe087ba4	-0.13328415
36	0xbe376b7e	-0.17912099
37	0xbdc5d089	-0.096589155
38	0xbd557cb1	-0.052120868
39	0x3e23b60e	0.15987417
40	0xbe2edbf4	-0.17076093
41	0xbd186567	-0.03720608
42	0x3dd1f556	0.10251872
43	0x3d9cf5e4	0.076640874
44	0x3df901a6	0.121585175
45	0xbdd8dd3f	-0.10589074
46	0xbd4fe1a4	-0.050752297
47	0xbdcee896	-0.10102956
48	0x3c885af4	0.016644932
49	0x3dacf40f	0.08444988
50	0xbcb8228e	-0.022477414
51	0xbe375045	-0.17901714
52	0x3dec61ed	0.11542115
53	0xbe1d4e99	-0.15362014
54	0xbdf2962f	-0.118450515
55	0x3de3a7d2	0.111159936
56	0xbd0a7441	-0.033802275
57	0xbdc86879	-0.097855516
58	0x3b5efa8d	0.0034023852
59	0x3cc2295d	0.023701364
60	0x3d6a901a	0.057266332
61	0x3db55a3e	0.08855103
62	0x3e14645d	0.1449141
63	0x3d9cf392	0.07663645
64	0x3dd14f58	0.10220212
65	0x3e1f18fa	0.15536872
66	0x3e5d3645	0.21602733
67	0xbdcb791e	-0.09935211
68	0x3e44abf7	0.19206224
69	0x3df76318	0.120794475
70	0xbde4badb	-0.11168452
71	0x3dc88b09	0.09792144
72	0x3e3caec5	0.18426044
73	0x3d04f2fb	0.032458287
74	0xbd57a642	-0.05264879
75	0x3ca80af1	0.02051303
76	0xbdd863f9	-0.10565943
77	0xbe248d20	-0.1606946
78	0xbe32c09d	-0.17456289
79	0xbcbfa386	-0.023393404
80	0xbdbc46ec	-0.09193215
81	0xbe265615	-0.16243775
82	0x3debe2ef	0.115178935
83	0xbd137b59	-0.036006305
84	0xbe0230e4	-0.12713963
85	0x3e3595e2	0.17732957
86	0xbe04b830	-0.12960887
87	0xbe542035	-0.20715411
88	0x3d84e1cc	0.0648838
89	0x3c94d880	0.018169641
90	0xbd19e45a	-0.03757129
91	0x3d92a79b	0.071608745
92	0x3d2da460	0.04239309
93	0xbe547398	-0.2074722
94	0xbc6b8e94	-0.014377255
95	0xbd98b875	-0.074570574
96	0x3e0f2d14	0.1398204
97	0xbe391d0b	-0.18077485
98	0xbdecc4db	-0.11560985
99	0xbd62988a	-0.055321254
100	0x3e1cba51	0.15305449
101	0x3c99710d	0.018730665
102	0x3d4f2808	0.050575286
103	0x3e03c9cc	0.12869948
104	0xbd2bc0ac	-0.041931793
105	0xbb165bc1	-0.0022942873
106	0x3e47968b	0.19491021
107	0x3d4bbad2	0.049738713
108	0x3cb14113	0.021637475
109	0xbe2210bb	-0.15826695
110	0xbe1007bb	-0.14065449
111	0xbd93d463	-0.07218244
112	0x3d0c07fb	0.0341873
113	0xbce84028	-0.028350905
114	0x3dcc5d1d	0.099786974
115	0x3d99159f	0.07474827
116	0xbe486c1c	-0.1957249
117	0xbce9cf41	-0.02854121
118	0x3dd317d4	0.10307279
119	0x3de1d8e5	0.110276975
120	0xbdb3dd90	-0.08782494
121	0xbe080466	-0.13282928
122	0x3e0262ca	0.12732998
123	0xbd8163e4	-0.06317881
124	0x3e21cfea	0.15801969
125	0x3d30b98e	0.04314571
126	0x3e2f2550	0.17104077
127	0xbd885848	-0.06657463
128	0xbe76637f	-0.24061392
129	0xbe171d0d	-0.14757176
130	0x3e193b79	0.14964093
131	0xbe062f89	-0.1310407
132	0xbe0fb343	-0.14033227
133	0x3d5d4cb1	0.054028217
134	0x3e57d99f	0.2107911
135	0x3dbfef37	0.093717985
136	0x3df16c0b	0.11788186
137	0xbd399371	-0.045306627
138	0xbd462701	-0.04837704
139	0x3c6f9d93	0.014624971
140	0xbddeb91e	-0.10875152
141	0x3e5d872b	0.21633594
142	0xbb7c7147	-0.0038519667
143	0x3d496b3d	0.049174536
144	0xbe2a815e	-0.16650912
145	0x3d569971	0.052392427
146	0xbda68b96	-0.08132093
147	0xbd3405c7	-0.043950822
148	0x3e177936	0.14792332
149	0xbd43492b	-0.0476772
150	0xbe05a77e	-0.13052174
151	0xbe522172	-0.20520571
152	0x3e2352c5	0.15949543
153	0xbcaebb9e	-0.021329697
154	0xbdb81d73	-0.08989992
155	0xbc75a8bd	-0.014993844
156	0xbd05e203	-0.032686245
157	0x3de3903c	0.11111495
158	0xbe1f8747	-0.15578948
159	0xbdec1a88	-0.11528498
160	0xbd9d86d7	-0.07691734
161	0x3d1d0c9b	0.0383421
162	0xbd9ba950	-0.07600653
163	0x3da8c80d	0.08241282
164	0xbd216a07	-0.039407756
165	0x3da43f22	0.08019854
166	0x3da43388	0.08017641
167	0xbdd232c6	-0.102635905
168	0x3c198055	0.009368976
169	0xbe1f1f59	-0.15539302
170	0xbd83edc2	-0.06441833
171	0xbe4eba3f	-0.20188235
172	0x3e4f002f	0.20214914
173	0xbcfd8171	-0.030945512
174	0x3d9eb14f	0.07748663
175	0xbd39c1d1	-0.045350853
176	0xbde337c9	-0.110946245
177	0xbca6d628	-0.02036579
178	0x3e16f284	0.1474095
179	0xbd7eb90d	-0.062188197
180	0x3d4c3b01	0.049860958
181	0xbe2551d2	-0.16144493
182	0xbd043ed8	-0.032286495
183	0x3dfe5981	0.12419415
184	0xbdce3ad6	-0.10069816
185	0xbe3b41b8	-0.18286788
186	0x3e400bb7	0.18754469
187	0x3e56399a	0.20920411
188	0x3dfd50e8	0.12368947
189	0x3ccc4825	0.024936745
190	0x3b05e1b6	0.0020428724
191	0xbe1ab079	-0.15106381
192	0xbe28781d	-0.1645207
193	0x3dafc412	0.08582319
194	0xbd078da7	-0.033094075
195	0xbe0bcc2d	-0.13652106
196	0xbdb9fc01	-0.09081269
197	0x3cb2cec5	0.021827111
198	0xbe28bfb1	-0.16479374
199	0xbd31b9dd	-0.043390144
200	0xbd94ed70	-0.0727185
201	0x3d42c0b2	0.04754705
202	0x3ce1a568	0.027544692
203	0x3e4992d4	0.19684917
204	0xbe32080c	-0.17385882
205	0xbd150281	-0.03637934
206	0xbd52eafe	-0.051493637
207	0x3e280b10	0.1641047
208	0x3c823e4b	0.015898844
209	0x3e059e36	0.13048634
210	0x3e0e48aa	0.13894907
211	0xbd59f348	-0.053210527
212	0xbd71aff2	-0.059005685
213	0x3e46a5e5	0.19399221
214	0x3d877aeb	0.066152416
215	0xbe2c959d	-0.16853948
216	0xbe14a71d	-0.14516874
217	0xbdf83a32	-0.12120475
218	0x3e0823a2	0.13294843
219	0x3dab953d	0.08378074
220	0x3badf36d	0.0053085596
221	0x3d949012	0.07254042
222	0xbd0d5a17	-0.034509744
223	0xbd81ab87	-0.06331544
224	0x3e182511	0.1485789
225	0xbd9fbaf2	-0.07799329
226	0x3debb1fe	0.11508559
227	0x3df70fb9	0.12063546
228	0xbc6c4da7	-0.014422811
229	0xbd26b8e5	-0.040703673
230	0x3d679b7b	0.056544762
231	0xbca78581	-0.020449402
232	0x3dba8878	0.091080606
233	0xbd6c5a2e	-0.05770319
234	0x3e54f63f	0.2079706
235	0x3d64a298	0.055819124
236	0xbe63e49d	-0.22255178
237	0x3de66c78	0.112511575
238	0xbdcf973a	-0.10136266
239	0x3e4e5696	0.20150217
240	0xbddeb512	-0.1087438
241	0x3e2a6a4a	0.16642109
242	0xbe0f042a	-0.13966432
243	0xbe484532	-0.19557646
244	0xbe0d3ea3	-0.13793425
245	0xbd58bf2f	-0.052916702
246	0x3dc55a3c	0.096363515
247	0xbc7da2be	-0.015480695
248	0x3d18cd64	0.03730525
249	0x3e1ed11a	0.15509453
250	0xbe37eada	-0.17960683
251	0x3dffbcdd	0.12487195
252	0xbe48bc61	-0.19603111
253	0xbd938f0b	-0.07205018
254	0xbe3d3ebe	-0.18480965
255	0x3c689f1c	0.014198091

conv1.3.bias f4 [12]
0	0x3e2d8202	0.16944125
1	0xbe33c9d3	-0.17557459
2	0x3e25a4b2	0.16176108
3	0xbe1d6259	-0.15369548
4	0xbc9d684f	-0.019214777
5	0x3dde3d50	0.10851538
6	0x3db253ad	0.08707366
7	0xbd167375	-0.036731202
8	0x3e0229db	0.12711279
9	0x3d87d209	0.06631858
10	0x3de2ad21	0.11068178
11	0xbdd9afaa	-0.106292084

conv1.4.weight f4 [12]
0	0x3f820d0f	1.0160235
1	0x3f800e87	1.0004433
2	0x3f7bf33c	0.9841802
3	0x3f813b55	1.0096232
4	0x3f85a119	1.0439788
5	0x3f85f355	1.0464884
6	0x3f813afb	1.0096124
7	0x3f8442be	1.0332868
8	0x3f81ba91	1.013506
9	0x3f843467	1.0328492
10	0x3f80c5be	1.0060346
11	0x3f7e1484	0.99250054

conv1.4.bias f4 [12]
0	0x3b04021e	0.0020142864
1	0x3acc784e	0.0015599818
2	0xbc81d090	-0.01584652
3	0x3af64ff3	0.0018792137
4	0x3c24cefe	0.010059116
5	0x3c1d8969	0.009615281
6	0x3af1fb0d	0.001846166
7	0x3c256e4b	0.010097097
8	0x38d09270	9.945489e-05
9	0x3c24f1ea	0.010067442
10	0x3aed016c	0.0018082089
11	0x3593f5cf	1.1023893e-06

conv1.4.running_mean f4 [12]
0	0x3db95b38	0.09050602
1	0xbef74a52	-0.4829889
2	0x3edc94b4	0.430822
3	0xbef82d9d	-0.484723
4	0x3bfbc44b	0.007683312
5	0x3e1f6589	0.15566076
6	0xbde0d2ad	-0.10977683
7	0xbdadda95	-0.08488957
8	0x3da9a539	0.08283467
9	0x3e6d8b4d	0.2319767
10	0x3db9ac5f	0.0906608
11	0xbe5fa3b3	-0.2183979

conv1.4.running_var f4 [12]
0	0x3da46477	0.08026975
1	0x3dd0617e	0.10174845
2	0x3df650f1	0.12027157
3	0x3dd0556f	0.10172545
4	0x3d811376	0.0630254
5	0x3d94c76b	0.072645985
6	0x3d7b6ed6	0.061385
7	0x3db1b464	0.08676985
8	0x3dac9980	0.08427715
9	0x3dc3bd99	0.09557647
10	0x3db77091	0.08957017
11	0x3e020b2b	0.12699573

conv2.0.weight f4 [12, 15, 3]
0	0xbe382d6a	-0.17986074
1	0xbe24f467	-0.16108857
2	0x3dc260af	0.09491097
3	0xbdab5cde	-0.083673224
4	0x3cfc9cc6	0.030836474
5	0x3c1a754c	0.00942738
6	0xbc01141d	-0.007878331
7	0xbd921693	-0.07133212
8	0x3dc21ea3	0.094785
9	0x3c9dedfe	0.019278523
10	0xbd41a899	-0.047279928
11	0xbdd7f239	-0.10544247
12	0x3c254ab9	0.010088616
13	0x3dd7529e	0.10513805
14	0x3db3b55a	0.087748244
15	0x3cb8dc97	0.022566123
16	0x3c7fb71d	0.015607622
17	0x3d9f62bb	0.07782503
18	0x3c1448b1	0.009050534
19	0x3d911490	0.07084
20	0x3d065c1a	0.03280268
21	0x3d0307ff	0.031990048
22	0xbdae7565	-0.08518485
23	0xbc92689b	-0.017872145
24	0xbd4d5546	-0.05013015
25	0xbd868735	-0.065687574
26	0x3d5f4bd0	0.05451566
27	0xbe04f731	-0.12984921
28	0xbd126e83	-0.035749923
29	0x3dd124f5	0.10212127
30	0x3dc9b893	0.09849658
31	0x3ca20114	0.019775905
32	0x3df0c8e0	0.11757064
33	0xbd95297b	-0.072833024
34	0xbb20730a	-0.002448263
35	0x3ca5d5dc	0.020243578
36	0xbc3f12e1	-0.011662216
37	0x3ddb6527	0.10712653
38	0x3d90319d	0.07040713
39	0xbcd9a07d	-0.026565785
40	0x3d57e26a	0.05270616
41	0xbd2b830e	-0.04187303
42	0xbdaba747	-0.08381515
43	0xbd124a55	-0.03571542
44	0x3dbd07ba	0.09229989
45	0xbdc4fcf2	-0.09618558
46	0x3c2d9691	0.01059498
47	0x3d929671	0.07157601
48	0x3cba9f3a	0.022781003
49	0x3d58c515	0.052922327
50	0x3df675b1	0.120341666
51	0xbd1c7b89	-0.03820375
52	0xbd8e3de3	-0.06945398
53	0x3d805931	0.06267012
54	0x3cab68ea	0.02092405
55	0xbcb3176e	-0.021861758
56	0xbbacaaa1	-0.005269364
57	0x3dcdaa23	0.10042217
58	0x3d0a32fd	0.033740032
59	0xbd6f55ca	-0.058431424
60	0x3d676c8b	0.0565
61	0xbe0013df	-0.1250758
62	0xbd994d51	-0.0748545
63	0x3c723731	0.0147836665
64	0x3cf98017	0.030456586
65	0xbdc70f60	-0.097197294
66	0x3e12d1c8	0.14337838
67	0x3e15432f	0.1457641
68	0x3ca1cc0f	0.019750623
69	0xbd669345	-0.05629279
70	0x3e2d4693	0.16921453
71	0xbd85ae00	-0.065273285
72	0xbe1a2b9d	-0.150557
73	0xbd1eb30d	-0.038744975
74	0x3d26f074	0.040756658
75	0x3d5d806f	0.054077562
76	0xbd3763ba	-0.04477284
77	0xbd51963d	-0.05116867
78	0xbe127593	-0.14302664
79	0xbdc6e8bc	-0.09712359
80	0x3d95c96f	0.07313811
81	0x3e3c8e1d	0.18413587
82	0xbe811c02	-0.2521668
83	0xbdede0ed	-0.11615167
84	0xbe048893	-0.12942724
85	0xbd8ca6c1	-0.06867743
86	0xbe2497ae	-0.16073486
87	0xbd71d9c9	-0.059045587
88	0xbe280cce	-0.16411135
89	0x3e0d108b	0.13775842
90	0x3df341c5	0.11877779
91	0xbdbdba05	-0.09263996
92	0xbd1dde1e	-0.038541906
93	0xbd4fafa6	-0.05070462
94	0x3db603db	0.08887454
95	0xbc10583e	-0.008810101
96	0x3bd12f74	0.0063838307
97	0xbca2500c	-0.01981356
98	0xbd9cca36	-0.07655756
99	0x3df89a7b	0.1213884
100	0x3d6e1e20	0.0581342
101	0xbdd99c66	-0.10625534
102	0xbd8e872e	-0.06959377
103	0x3e02c5f2	0.12770823
104	0xbd98956c	-0.07450375
105	0xbd01dd28	-0.03170505
106	0xbcbf576a	-0.023357112
107	0x3dfb198f	0.12260734
108	0x3d7d47bf	0.061836
109	0x3d2ca593	0.04215009
110	0xbce328b2	-0.027729366
111	0xbc859d66	-0.016310405
112	0xbe363fc3	-0.1779776
113	0xbcd0284b	-0.025409838
114	0xbdae3790	-0.085066915
115	0xbd8cbc94	-0.06871906
116	0xbd4e2b2d	-0.050334144
117	0xbd9e9e68	-0.07745057
118	0x3c8ba30d	0.017045522
119	0x3e129ea4	0.14318329
120	0x3d34fb40	0.044184923
121	0x3d432f28	0.047652394
122	0x3e0864ee	0.13319752
123	0x3c4bc168	0.012436248
124	0x3cda7fd1	0.026672276
125	0xbd309ff5	-0.043121297
126	0x3dcee73e	0.101027
127	0xbe0022a3	-0.12513213
128	0x3d0bae3c	0.03410171
129	0xbdcebf19	-0.10095043
130	0x3ca5638e	0.020189073
131	0x3cfc3f30	0.030791849
132	0x3d0cbc9c	0.03435956
133	0xbd3fe3a7	-0.046847966
134	0x3e392a73	0.180826
135	0xbdba0268	-0.0908249
136	0xbdf30752	-0.118666306
137	0xbd0b8ead	-0.034071613
138	0xbd9e310c	-0.07724199
139	0x3bcd96d9	0.006274086
140	0x3d12aa56	0.035806976
141	0x3d165df1	0.036710683
142	0xbd205bf1	-0.039150182
143	0x3d1faf40	0.03898549
144	0xbda753cf	-0.08170282
145	0x3e16fdd7	0.1474527
146	0xbe0bc450	-0.13649106
147	0x3d1ccee9	0.038283262
148	0xbe4f54ee	-0.20247242
149	0xbdb3de30	-0.08782613
150	0x3d80e468	0.06293565
151	0x3d0be191	0.034150664
152	0x3c2ee3fa	0.010674471
153	0x3cbe5a65	0.023236463
154	0xbdeb3e84	-0.11486533
155	0xbd24595e	-0.04012429
156	0xbce0f2d3	-0.027459538
157	0x3daa0519	0.083017536
158	0x3ddc7ad1	0.10765613
159	0x3aa8269d	0.001282889
160	0xbdae9316	-0.08524148
161	0xbc5a9258	-0.013340555
162	0x3d2d9e0f	0.042387065
163	0x3c7ef67c	0.015561696
164	0x3decee06	0.11568837
165	0x3c367568	0.01113639
166	0x3dd38b7c	0.10329339
167	0xbe4ecf44	-0.20196253
168	0x3c1cb648	0.009564944
169	0xbdd0ca9c	-0.10194895
170	0xbd8ab62a	-0.06773026
171	0x3d854674	0.065075785
172	0xbe0d36bf	-0.13790415
173	0xbd3cfa57	-0.04613718
174	0xbe04df05	-0.129757
175	0xbdf9ba99	-0.12193794
176	0xbdb11541	-0.08646632
177	0x3d0cf4e5	0.034413237
178	0x3d25f15d	0.040513385
179	0x3e165a6a	0.14682928
180	0x3d1cce2f	0.03828257
181	0xbd1502e6	-0.036379717
182	0xbdba100f	-0.09085094
183	0xbc484993	-0.012224573
184	0xbd4beed5	-0.049788315
185	0x3bb0ccd7	0.0053955126
186	0x3c951657	0.018199129
187	0x3d370e8a	0.0446916
188	0xbc85deee	-0.016341653
189	0xbb6d2810	-0.003618721
190	0xbb55a8e8	-0.0032601897
191	0xbb38f969	-0.0028224832
192	0xbd862642	-0.06550266
193	0xbdfd5cd8	-0.12371224
194	0x3db02f9d	0.086028315
195	0x3e0acc8c	0.13554591
196	0x3e19f31b	0.15034144
197	0x3d93dd35	0.07219926
198	0xbdad2126	-0.08453588
199	0x3ce3e950	0.027821213
200	0xbdf8ddd6	-0.12151687
201	0xbdc57143	-0.096407436
202	0x3e2b545b	0.16731398
203	0x3de404e4	0.11133745
204	0x3daa4184	0.08313277
205	0x3dd2e286	0.10297112
206	0x3c1ba8c2	0.009500684
207	0xbde4ae69	-0.111660786
208	0xbdcd901a	-0.10037251
209	0xbca61f92	-0.020278726
210	0xbd5a22a1	-0.05325568
211	0xbd892ae6	-0.06697635
212	0xbe0a36f8	-0.13497531
213	0xbd8e2714	-0.06941047
214	0xbe64b2b7	-0.223338
215	0xbd15e4ab	-0.036595028
216	0x3cfb55a9	0.030680494
217	0x3d4f3bc6	0.050594114
218	0xbdaf528f	-0.08560669
219	0xbe1e4580	-0.154562
220	0x3dfa6c19	0.12227649
221	0xbd11b883	-0.035576355
222	0xbe1e9fef	-0.15490697
223	0xbdbe6a46	-0.09297614
224	0xbdd64526	-0.10462408
225	0x3b99c6e6	0.0046929
226	0x3d18ec48	0.03733471
227	0xbe247a91	-0.1606238
228	0x3df008a8	0.11720401
229	0xbd30a2aa	-0.04312388
230	0xbe1549cc	-0.14578933
231	0xbb0e4835	-0.002171052
232	0x3d5d8102	0.05407811
233	0xbda929fd	-0.08259962
234	0x3df9baf6	0.12193863
235	0xbdcea2d6	-0.10089652
236	0xbde23f43	-0.110472225
237	0x3daea329	0.08527214
238	0x3e044726	0.12917766
239	0xbd78dc1f	-0.0607568
240	0x3dbf516b	0.09341701
241	0xbd537ba8	-0.0516316
242	0xbe17a72b	-0.14809863
243	0x3e02fc45	0.12791546
244	0x3cf97f9b	0.030456355
245	0xbdefa5bf	-0.117015354
246	0x3c9686e8	0.018374875
247	0x3dac03a8	0.08399135
248	0xbd9c6e77	-0.07638257
249	0xbdb6ea39	-0.08931393
250	0x3d4b5649	0.049642835
251	0xbc2ccd20	-0.0105469525
252	0x3cdad0b9	0.026710855
253	0xbd20e09f	-0.039276715
254	0x3be8a315	0.007099519
255	0x3d96a20d	0.073551275

conv2.0.bias f4 [12]
0	0x3d6692be	0.056292288
1	0xbda3379e	-0.079695925
2	0x3d97f2d1	0.074193604
3	0x3cb07ee0	0.021544874
4	0x3dd1d787	0.10246187
5	0xbdc9fa3e	-0.09862183
6	0xbc19bb02	-0.009382965
7	0x3da26b7e	0.07930659
8	0x3d2520db	0.040314537
9	0x3c47a6fd	0.012185809
10	0xbe0e7a91	-0.13913943
11	0xbd9de0bd	-0.07708881

conv2.1.weight f4 [12]
0	0x3f8320f7	1.0244435
1	0x3f822c7a	1.0169823
2	0x3f76badb	0.9637887
3	0x3f89a2d8	1.0752821
4	0x3f79d1bd	0.9758566
5	0x3f80cd67	1.0062684
6	0x3f82f0e6	1.0229766
7	0x3f81a622	1.0128825
8	0x3f7f6ec0	0.99778366
9	0x3f78033c	0.96879935
10	0x3f83f2c9	1.0308467
11	0x3f71a17d	0.94387037

conv2.1.bias f4 [12]
0	0x3cc040b5	0.023468355
1	0xbb83589c	-0.004008366
2	0xbcf9196d	-0.030407632
3	0xbb37d6ba	-0.002805157
4	0xbdb6d281	-0.08926869
5	0xbd073c0a	-0.033016242
6	0xbd5f322b	-0.054491203
7	0xbcc9aae2	-0.024617616
8	0xbd079cd0	-0.033108532
9	0xbd5e7624	-0.054311886
10	0xbc16c0f9	-0.009201282
11	0xbd631c95	-0.05544718

conv2.1.running_mean f4 [12]
0	0xbf0c272b	-0.54747266
1	0x3e874d9e	0.26426405
2	0xbe31430a	-0.1731073
3	0xbef77267	-0.4832947
4	0x3d5fea8b	0.054667037
5	0xbed0d738	-0.407892
6	0x3eccba8b	0.3998607
7	0x3ddea52d	0.108713485
8	0x3ec82fa9	0.39098862
9	0x3f6fd280	0.9368057
10	0xbf678883	-0.90442675
11	0x3ebb3774	0.36565745

conv2.1.running_var f4 [12]
0	0x4110a220	9.039581
1	0x409071e0	4.5139008
2	0x40837896	4.10847
3	0x40a0ea8c	5.028631
4	0x405d39d7	3.4566553
5	0x40cbab2d	6.3646455
6	0x40711043	3.7666175
7	0x40f282dc	7.578474
8	0x40cf0140	6.4689026
9	0x40d1cec3	6.5564895
10	0x409853da	4.760236
11	0x40e276f1	7.077019

conv2.3.weight f4 [12, 12, 3]
0	0x3cde7221	0.02715403
1	0xbde6c541	-0.11268092
2	0x3e05f5ef	0.13082097
3	0xbc881b36	-0.016614538
4	0x3c31e09a	0.010856772
5	0x3e4d4731	0.20046689
6	0xbd1005d8	-0.035161823
7	0x3d4b5d2d	0.049649406
8	0x3dfc9a61	0.12334133
9	0x3e112a70	0.14176345
10	0x3e3e84c5	0.18605335
11	0x3d827559	0.063700385
12	0xbd76b4d7	-0.060231056
13	0x3d667e8c	0.05627303
14	0x3d78a315	0.060702402
15	0x3e211844	0.15731913
16	0xbe350c33	-0.17680435
17	0x3e0c29fb	0.1368789
18	0xbdfe68f8	-0.12422365
19	0x3d942b2f	0.07234799
20	0x3d8bf10a	0.06833084
21	0x3df7621c	0.1207926
22	0x3dfb36d1	0.12266315
23	0x3d4e917c	0.050431713
24	0x3d8b6c53	0.068077706
25	0x3df11618	0.11771792
26	0xbd649c1b	-0.055812936
27	0xbe18ff97	-0.1494125
28	0xbd6541be	-0.0559709
29	0x3d0da168	0.034577757
30	0xbdb14e8e	-0.08657561
31	0xbd9695d2	-0.07352795
32	0xbe1ac516	-0.15114245
33	0xbdd3abb7	-0.103354864
34	0xbd6ac573	-0.05731721
35	0x3c85f6e7	0.016353084
36	0xba9e010c	-0.0012054755
37	0xbdba903e	-0.09109543
38	0x3d5f503d	0.05451988
39	0x3babd8e6	0.005244362
40	0x3dc0eee7	0.09420567
41	0xbd3337a8	-0.04375425
42	0xbb15162a	-0.0022748807
43	0xbde67d87	-0.11254411
44	0x3dec52de	0.11539243
45	0x3cd5310d	0.026024366
46	0xbdaefa06	-0.08543782
47	0x3e30b3bf	0.17256068
48	0x3dabefdf	0.08395361
49	0x3d47476f	0.04865211
50	0x3e434db9	0.19072618
51	0x3cfda01f	0.03096014
52	0xbe56730e	-0.20942327
53	0xbe6d6609	-0.23183455
54	0x3e77ecd4	0.24211437
55	0xbd81231c	-0.06305525
56	0x3d576ef2	0.05259604
57	0xbd983395	-0.074317135
58	0x3c9b3316	0.018945258
59	0x3d4adb26	0.049525402
60	0xbd63ba3b	-0.055597525
61	0xbcca7468	-0.02471371
62	0xbd527b3a	-0.05138705
63	0x3bd8b8cd	0.006613827
64	0x3d553933	0.052056503
65	0xbcd5b14f	-0.026085524
66	0xbdd629f5	-0.104572214
67	0xbda61cdf	-0.081109755
68	0xbe0d468b	-0.13796441
69	0x3d5a9393	0.053363394
70	0xbe3e97ed	-0.18612643
71	0x3dbdd13a	0.092684224
72	0xbe08a0a9	-0.13342537
73	0x3ddac48e	0.10682021
74	0xbdbee7b7	-0.0932154
75	0xbddfdda3	-0.10930946
76	0x3e351b5a	0.17686215
77	0x3d9ee47f	0.07758426
78	0x3d4ab0f6	0.04948517
79	0xbe08c745	-0.13357265
80	0x3dac9b06	0.08428006
81	0xbd60008c	-0.05468802
82	0x3aebe296	0.0017996605
83	0x3dcfe89a	0.10151787
84	0x3c1e9d6e	0.009681089
85	0xbe3b3d7b	-0.18285172
86	0x3bfa7e1a	0.007644427
87	0x3ce5e75d	0.028064424
88	0x3de25880	0.11052036
89	0xbbad33d2	-0.0052857185
90	0x3b751168	0.0037394408
91	0xbc9bd1ca	-0.019020934
92	0x39a9d8d4	0.0003239574
93	0xbd7a9064	-0.061172858
94	0x3d6a6839	0.0572283
95	0xbe2888d4	-0.16458446
96	0xbe0d9a14	-0.13828307
97	0x3dd2fba7	0.10301905
98	0xbd6a3779	-0.05718181
99	0xbe295db4	-0.16539651
100	0x3dea563f	0.114422314
101	0xbd94ade5	-0.0725973
102	0xbe2aa74b	-0.1666538
103	0xbbb381fe	-0.0054781428
104	0x3d9d1ec7	0.07671886
105	0x3df1cf2f	0.11807095
106	0x3cc7e7fd	0.024402613
107	0xbdd99ffa	-0.10626216
108	0x3dc4f3ca	0.096168116
109	0xba0d746d	-0.0005396072
110	0xbdf8454e	-0.12122594
111	0x3dbf1b26	0.0933135
112	0xbaadb072	-0.0013251437
113	0x3d8cbf6c	0.06872448
114	0xbe06403a	-0.13110438
115	0xbdb45cd2	-0.088067666
116	0xbcf3d56f	-0.029764859
117	0x3b73d249	0.0037204197
118	0x3bd31a6f	0.00644236
119	0xbc1d0e50	-0.009585932
120	0x3d80ffd0	0.06298792
121	0x3c9dd3c2	0.019266013
122	0xbddb3b7c	-0.10704705
123	0xbe267e68	-0.16259158
124	0xbbf639e0	-0.0075142235
125	0x3d5513f1	0.05202097
126	0xbe2301e1	-0.15918685
127	0x3d081735	0.033225257
128	0xbe44fdd6	-0.19237456
129	0x3d7d0875	0.061775643
130	0xbddbe2af	-0.10736596
131	0xbc98a850	-0.018634945
132	0x3df2a239	0.11847348
133	0x3dce4c94	0.100732
134	0x3dbdaa16	0.09260957
135	0x3e08d7b0	0.13363528
136	0xbdf6bdc7	-0.12047916
137	0x3b03253d	0.002001121
138	0xbd831a8b	-0.06401547
139	0x3df48e9e	0.119412646
140	0x3e634abc	0.22196478
141	0x3d9fb600	0.077983856
142	0xbd5289f1	-0.051401082
143	0xbe5f734d	-0.21821328
144	0xbd87d975	-0.066332735
145	0x3d4bf78d	0.04979663
146	0xbd5f015f	-0.054444667
147	0x3e2a8573	0.1665247
148	0xbd91d158	-0.07120007
149	0xbe1a4657	-0.15065895
150	0x3cae08cc	0.021244429
151	0x3dec97f1	0.11552418
152	0xbe3da462	-0.18519738
153	0xbdcd207f	-0.10015964
154	0xbe41cd98	-0.18926084
155	0x3e1b9f6b	0.15197532
156	0x3c746eb5	0.014918973
157	0x3e05814a	0.13037601
158	0xbe1f098b	-0.15530984
159	0xbd05c19c	-0.032655343
160	0xbdd1174a	-0.1020952
161	0xbdfc3097	-0.12313955
162	0xbdb1c9bc	-0.08681056
163	0x3e1512fa	0.1455802
164	0x3dae5fa2	0.08514334
165	0xbdd7f482	-0.10544683
166	0x3e277ff0	0.16357398
167	0xbd8f7111	-0.070039876
168	0x3d0d3771	0.0344767
169	0x3df90f53	0.12161126
170	0x3babd531	0.0052439203
171	0xb9b8f0c3	-0.00035274596
172	0xbdfe72f5	-0.1242427
173	0xb88557a0	-6.3582556e-05
174	0x3e0c2e69	0.13689579
175	0xbc42cff5	-0.011890401
176	0x3a42ab3d	0.0007426029
177	0xbdd5027d	-0.10400865
178	0x3e16503e	0.14679047
179	0xbd8f76d6	-0.07005088
180	0xbc9bfe5d	-0.019042188
181	0x3dbb7c9d	0.091546275
182	0xbde98ed1	-0.11404193
183	0x3d2f2631	0.04276103
184	0xbbc661a4	-0.00605412
185	0x3d266d9e	0.040631883
186	0xbce9ddfb	-0.028548231
187	0xbd8d0814	-0.068863064
188	0x3e161c91	0.14659335
189	0xbdea7b52	-0.11449303
190	0x3d74c909	0.059762035
191	0x3e4e3e12	0.20140865
192	0xbdfb6318	-0.1227476
193	0xbd54ee96	-0.051985346
194	0x3cc61a5d	0.024182493
195	0xbc32dd8e	-0.010917081
196	0x3d3f6c99	0.046734426
197	0xbd983771	-0.074324496
198	0x3cc9cb49	0.024633067
199	0x3cd4330c	0.025903247
200	0x3c55e179	0.013054245
201	0x3db6221d	0.08893225
202	0xbd9d79ed	-0.07689271
203	0x3c2240c9	0.009903141
204	0x3e5ecbc6	0.21757421
205	0xbd991a7d	-0.07475755
206	0xbd33588e	-0.043785624
207	0x3d0903af	0.03345078
208	0xbdb1650e	-0.08661853
209	0x3dfc1029	0.1230777
210	0x3e112ee7	0.14178048
211	0xbdbc55da	-0.091960624
212	0xbdf03b3a	-0.117300466
213	0x3dcdfbb4	0.10057774
214	0xbd88ac46	-0.066734836
215	0xbde2d95c	-0.11076614
216	0x3d9a7d50	0.07543433
217	0x3df0e6a3	0.117627405
218	0x3d91ac6d	0.07112966
219	0x3e02a747	0.12759124
220	0x3e0fcce3	0.14043002
221	0xbe2db292	-0.1696265
222	0xbe226940	-0.15860462
223	0x3dcebe83	0.10094931
224	0xbe25448e	-0.16139433
225	0x3df8cff8	0.12149042
226	0x3d0f03de	0.034915797
227	0xbd6403c3	-0.05566765
228	0xbe22dbe3	-0.15904193
229	0x3e021118	0.12701833
230	0x3e3d0b74	0.184614
231	0xbc55a2be	-0.013039289
232	0x3daa4ca4	0.08315399
233	0x3c896a3a	0.016774286
234	0xbc5302d6	-0.012879094
235	0x3de0b48b	0.10971936
236	0xbda650ed	-0.08120904
237	0x3b524771	0.003208604
238	0x3cc59a8b	0.024121543
239	0xbe5a837c	-0.2133922
240	0xbc33f0ca	-0.010982702
241	0x3d9c1b9c	0.076224536
242	0xbdcfdf9e	-0.101500735
243	0x3dea6031	0.11444128
244	0xbd5842e2	-0.05279816
245	0xbe2614c8	-0.16218865
246	0xbd6568cb	-0.05600814
247	0x3d87c257	0.06628864
248	0xbb00c6fb	-0.0019649852
249	0xbe0f94fe	-0.1402168
250	0x3cc22c11	0.023702653
251	0x3e453387	0.19257937
252	0x3e18ae03	0.1491013
253	0x3e0296f3	0.12752895
254	0xbd1c32c8	-0.038134366
255	0xbda71954	-0.08159128

conv2.3.bias f4 [12]
0	0x3db74d97	0.08950346
1	0x3d391e63	0.045194995
2	0x3bd72608	0.006565813
3	0x3cb72a7d	0.022359127
4	0x3de9b1f8	0.11410898
5	0x3ba515d1	0.005038001
6	0x3e0fcfd5	0.14044125
7	0xbcafa385	-0.021440277
8	0x3de65165	0.112459935
9	0xbdf9a935	-0.12190477
10	0x3e109693	0.1411994
11	0x3d6f79f9	0.05846593

conv2.4.weight f4 [12]
0	0x3f7eb308	0.9949193
1	0x3f84644d	1.0343109
2	0x3f8142bb	1.009849
3	0x3f80a94c	1.0051665
4	0x3f832ff6	1.0249012
5	0x3f8abc0f	1.0838641
6	0x3f7e5b9b	0.9935853
7	0x3f880c09	1.0628673
8	0x3f884b06	1.0647895
9	0x3f894cba	1.072654
10	0x3f816edf	1.011196
11	0x3f81c0dc	1.0136981

conv2.4.bias f4 [12]
0	0xbc45f619	-0.0120826
1	0x3c204428	0.009781875
2	0x3aa3c4f1	0.0012494606
3	0xb88f4aec	-6.832727e-05
4	0x3b006d61	0.0019596445
5	0x3c1b7ae5	0.00948975
6	0xbc43643a	-0.011925751
7	0x3c247237	0.010036997
8	0x3c207214	0.009792823
9	0x3c2ffc0d	0.010741246
10	0x3af11bfc	0.0018395181
11	0x3c14d928	0.009084977

conv2.4.running_mean f4 [12]
0	0x3eaaeab9	0.33382204
1	0xbc817831	-0.015804382
2	0xbe02149c	-0.12703174
3	0x3c74aa4f	0.014933183
4	0x3c70ec21	0.014704735
5	0x3dd08462	0.101815
6	0x3e870aaa	0.26375324
7	0x3d8dce68	0.069241345
8	0x3e216775	0.15762122
9	0xbe0d9aa4	-0.13828522
10	0x3e417e1c	0.18895763
11	0x3e8895d8	0.26676822

conv2.4.running_var f4 [12]
0	0x3e3051d4	0.17218715
1	0x3dc88c74	0.09792414
2	0x3dbc0aec	0.09181771
3	0x3e091149	0.133855
4	0x3dad0e9c	0.08450052
5	0x3d709cb5	0.058743197
6	0x3e07db42	0.13267234
7	0x3d26a882	0.040688045
8	0x3d83c684	0.06434348
9	0x3d50170b	0.050803225
10	0x3e07c027	0.13256894
11	0x3dcbc096	0.09948842

conv3.0.weight f4 [12, 15, 4]
0	0x3d80f626	0.06296949
1	0x3d02c21f	0.03192341
2	0x3d259df7	0.04043385
3	0x3d43b671	0.04778141
4	0x3d39abdf	0.045329925
5	0xbd705f36	-0.05868455
6	0xbdd54693	-0.104138516
7	0xbd9d2277	-0.07672589
8	0xbc954c16	-0.018224757
9	0xbe27d137	-0.16388403
10	0xbcff2590	-0.03114584
11	0x3dc10c98	0.0942623
12	0xbe1f92aa	-0.15583292
13	0xbd31101d	-0.043228257
14	0x3c3cd5f2	0.011525618
15	0xbcba8ae9	-0.022771316
16	0x3d901d32	0.070368186
17	0x3dfcb925	0.12340001
18	0x3da865f4	0.08222571
19	0xbd8c297a	-0.068438485
20	0xbc19c788	-0.009385951
21	0xbcdd03e2	-0.02697939
22	0xbc6473dc	-0.013943639
23	0x3d1a002b	0.037597816
24	0x3db9125f	0.09036707
25	0x3d8b5c84	0.06804755
26	0xbd772d7a	-0.060346104
27	0xbdb8aea3	-0.09017684
28	0xbd12d2c6	-0.03584554
29	0xbda67861	-0.08128429
30	0x3b56dc93	0.003278528
31	0x3da11ccb	0.0786682
32	0x3d98887c	0.07447907
33	0x3df3c1d1	0.11902202
34	0x3cf9c717	0.030490441
35	0x3d3193f4	0.04335399
36	0xbdc48d76	-0.09597294
37	0x3dfcd7fc	0.12345883
38	0x3db277c0	0.08714247
39	0x3c6c0663	0.01440582
40	0xbc880aa5	-0.016606638
41	0xbd83dbf3	-0.06438436
42	0xbd3e7892	-0.046501704
43	0x3d4f0dc8	0.050550252
44	0x3d040ba7	0.032237675
45	0xbcecb77a	-0.028896082
46	0x3d5cab51	0.053874318
47	0xbe0d46d1	-0.13796546
48	0x3dbf1d0b	0.093317114
49	0x3e1b111f	0.1514325
50	0x3d33217b	0.0437331
51	0xbd1102b1	-0.035402957
52	0xbca17ace	-0.019711878
53	0xbe363a42	-0.17795661
54	0x3db41c2b	0.08794435
55	0xbdbef1d8	-0.09323472
56	0xbaef7462	-0.0018268938
57	0xbda8c726	-0.082411095
58	0x3d50f698	0.05101642
59	0x3e0528b7	0.13003813
60	0xbd73c195	-0.059510786
61	0x3e1a2d32	0.15056303
62	0xbdb986ba	-0.090589
63	0x3cc3c294	0.023896493
64	0x3c0838e2	0.008314343
65	0x3e0b6b43	0.13615136
66	0xbd56b700	-0.052420616
67	0xbc569853	-0.01309784
68	0xbe1d3ec1	-0.1535597
69	0x3b930665	0.0044868463
70	0xbdd3ebeb	-0.10347732
71	0xbd23a10b	-0.039948504
72	0x3d3ea3fc	0.046543106
73	0x3cc2b6c7	0.023768796
74	0x3e24a8fa	0.16080084
75	0xbe2bb149	-0.16766848
76	0x3d05700e	0.032577567
77	0x3d9aafdd	0.075530745
78	0xbd8f64c8	-0.070016444
79	0xbd83306e	-0.064057216
80	0xbd195db4	-0.037442878
81	0x3d0a6848	0.033790857
82	0x3dcc56b0	0.09977472
83	0x3dd4cb32	0.10390319
84	0x3d5c92ef	0.053851064
85	0x3d05dbf5	0.03268047
86	0xbc8707a1	-0.01648313
87	0x3d5f20e0	0.05447471
88	0x3d749b12	0.0597182
89	0xbd4b75ef	-0.049673017
90	0xbda6d4ef	-0.081460826
91	0xbe38ebbb	-0.18058674
92	0xbd82dba1	-0.06389547
93	0xbb6007fc	-0.0034184447
94	0xbdecf10c	-0.115694135
95	0x3d49683b	0.049171668
96	0x3c847e77	0.016173584
97	0x3d570b02	0.052500732
98	0xbced84a2	-0.028993908
99	0x3d935360	0.07193637
100	0xbdb0d85d	-0.08635018
101	0x3c66edc2	0.014094772
102	0xbc8be1c7	-0.017075432
103	0x3aaf8902	0.0013392272
104	0x3c444bff	0.0119810095
105	0xbdc2d2cd	-0.09512863
106	0xbb6dd411	-0.0036289732
107	0x3e2084c2	0.15675643
108	0xbdefbe1f	-0.117061846
109	0xbbdf09d6	-0.0068065925
110	0x3dad0171	0.084475406
111	0x3d79719d	0.060899366
112	0x3ce895a4	0.028391667
113	0xbd84976b	-0.06474193
114	0xbdaba107	-0.08380323
115	0x3d1aad45	0.0377629
116	0xbd08f3c1	-0.033435587
117	0x3da83216	0.08212678
118	0xbddaf08c	-0.10690412
119	0x3d2f4cff	0.04279804
120	0x3d66051e	0.056157224
121	0x3d21f59a	0.039540865
122	0x3dfb529a	0.122716144
123	0xbd864022	-0.06555201
124	0x3d999ba7	0.075003915
125	0xbd8f2486	-0.06989388
126	0x3d0adfdb	0.03390489
127	0x3d392369	0.045199785
128	0x3e019dc6	0.12657842
129	0xbd8531c6	-0.06503634
130	0xbd051497	-0.03249034
131	0xbd3618be	-0.04445719
132	0xbd4110bb	-0.047135096
133	0x3da1214e	0.078676805
134	0x3d443b8c	0.04790835
135	0x3d3a715d	0.045518268
136	0xbc3601eb	-0.011108856
137	0xbd0eefd7	-0.034896698
138	0x3d917b21	0.07103563
139	0x3db9a615	0.09064881
140	0x3d93383f	0.071884625
141	0x3d1c61d7	0.038179245
142	0x3d833bc5	0.064078845
143	0x3de1c7b7	0.11024421
144	0x3d4074c0	0.04698634
145	0xbd249c34	-0.04018803
146	0xbc8f281a	-0.017475177
147	0x3e2cb449	0.16865648
148	0x3da9db2e	0.08293758
149	0x3c9ea08e	0.019363668
150	0xbda59dd3	-0.08086743
151	0x3c9e68d0	0.019337088
152	0x3d37f47f	0.044910904
153	0xbd4f3583	-0.050588142
154	0x3dd3d10c	0.10342607
155	0x3e0fd93f	0.14047717
156	0x3bdc03da	0.0067143263
157	0x3d9f1c0d	0.07769022
158	0x3da4affa	0.08041377
159	0x3c97d2fc	0.018533222
160	0x3d30f5cd	0.043203164
161	0x3c7e4365	0.015518998
162	0x3ddb9a59	0.10722799
163	0xbdad8058	-0.08471745
164	0xbd4c133e	-0.04982304
165	0x3c74628e	0.014916075
166	0x3dc3e523	0.09565189
167	0x3e110a0d	0.1416399
168	0xbe05df2a	-0.13073412
169	0x3dda2913	0.106523655
170	0xbd93e337	-0.07221072
171	0xbb7fec5c	-0.0039050793
172	0xbd57245c	-0.05252491
173	0xbd60de63	-0.054899585
174	0xbd8fc8dd	-0.070207335
175	0xbbc03a07	-0.0058662924
176	0xbdc0a0e9	-0.09405691
177	0x3ddd573c	0.10807654
178	0x3c136f53	0.00899871
179	0x3d5709f6	0.052499734
180	0xbd54a480	-0.051914692
181	0x3da6639f	0.0812447
182	0xbc5df432	-0.01354699
183	0xbc9e26e5	-0.019305656
184	0xbd419b67	-0.047267344
185	0xbe0e7eaa	-0.13915506
186	0x3e018f9d	0.1265244
187	0xbd255cb6	-0.04037162
188	0x3d69478c	0.056952998
189	0xbd6f1b66	-0.05837574
190	0x3dc01f65	0.09380988
191	0xbc6bb9d1	-0.014387564
192	0x3dd03361	0.1016605
193	0x3d658c73	0.056042146
194	0xbd13526a	-0.035967268
195	0xbd08b25f	-0.033373233
196	0x3d648684	0.055792347
197	0x3dea180b	0.11430367
198	0x3cf03b78	0.029325232
199	0xbc42c850	-0.0118885785
200	0xbd8570f9	-0.065156884
201	0xbe1e9cce	-0.15489504
202	0xbdb96f7f	-0.09054469
203	0xbd945b5e	-0.072439894
204	0x3d63e978	0.055642575
205	0x3d09d52f	0.033650573
206	0xbd42d2e0	-0.047564387
207	0xbddcaea4	-0.107754976
208	0xbd23434c	-0.0398591
209	0xbe3f871f	-0.18703888
210	0x3d8c780d	0.06858835
211	0x3c484686	0.012223845
212	0xbc8d7899	-0.01726942
213	0xbdc5d540	-0.09659815
214	0xbd9dd461	-0.07706524
215	0xbd45bffe	-0.0482788
216	0xbd7acec7	-0.061232354
217	0x3d41498b	0.047189277
218	0xbc15c1fe	-0.00914049
219	0x3c2fe663	0.010736081
220	0x3c46abeb	0.012125949
221	0xbcda3a1e	-0.02663904
222	0xbe191871	-0.1495073
223	0x3bde3cf9	0.006782171
224	0xbdbd2e26	-0.09237318
225	0xbdc5e8eb	-0.09663566
226	0xbe0681e7	-0.13135491
227	0xbd7ed5f4	-0.06221576
228	0xbe181465	-0.1485153
229	0xbc68f069	-0.0142174745
230	0xbdd8dae4	-0.10588625
231	0x3dd06d99	0.10177154
232	0x3d3c2a63	0.04593886
233	0xbda20ceb	-0.0791262
234	0xbda1be4d	-0.07897625
235	0x3e36bddd	0.17845865
236	0xbd09c8db	-0.033638816
237	0xbe0b0752	-0.13577011
238	0x3ccb04b0	0.024782509
239	0x3e053526	0.13008556
240	0xbd29d52c	-0.041463062
241	0xbd89aa43	-0.06721928
242	0x3caaaf87	0.020835651
243	0xbd0cb374	-0.034350827
244	0x3dea6e7b	0.11446854
245	0x3d4c57b6	0.049888335
246	0x3dc0421c	0.09387609
247	0xbd890e59	-0.0669219
248	0xbddce16b	-0.107851826
249	0x3d2cc5cd	0.042180825
250	0xbd8916ab	-0.06693777
251	0x3d7961ca	0.060884275
252	0x3ca8a5b6	0.02058683
253	0x3df8279d	0.12116931
254	0xbd013d7d	-0.03155278
255	0xbcf302a8	-0.029664353

conv3.0.bias f4 [12]
0	0x3dca23f0	0.09870136
1	0xbdd9e9bd	-0.10640285
2	0xbdf1636d	-0.11786542
3	0x3c6116d8	0.0137383565
4	0xbcc85096	-0.024452489
5	0x3df688ae	0.12037788
6	0x3dfdb913	0.12388816
7	0xb9fa3c0a	-0.00047728448
8	0xbd735076	-0.059402905
9	0x3d1360c5	0.03598096
10	0x3ced4b56	0.028966587
11	0xbdbef357	-0.09323757

conv3.1.weight f4 [12]
0	0x3f7fcc9c	0.99921584
1	0x3f7c5446	0.9856609
2	0x3f755fce	0.9584931
3	0x3f76d2b5	0.96415263
4	0x3f86ea2c	1.0540214
5	0x3f81f723	1.0153545
6	0x3f876ba2	1.0579722
7	0x3f7ee6c9	0.995709
8	0x3f8487eb	1.0353979
9	0x3f73a1b7	0.9516863
10	0x3f8213cf	1.0162295
11	0x3f7c743c	0.9861486

conv3.1.bias f4 [12]
0	0xbc8fa741	-0.017535808
1	0xbd364662	-0.044500716
2	0xbb4d1999	-0.0031295775
3	0xbc648b75	-0.013949265
4	0xbb361333	-0.002778244
5	0x3d1b527d	0.037920464
6	0x39b5921c	0.0003463187
7	0xbdd155b1	-0.102214225
8	0xbd941b02	-0.07231714
9	0xbc2df172	-0.010616647
10	0xbcceb2cd	-0.025231743
11	0xb9f0cfee	-0.00045931287

conv3.1.running_mean f4 [12]
0	0xbdcf5ac4	-0.10124734
1	0xbeae0052	-0.3398462
2	0x3ce229c1	0.0276078
3	0xbeae54bf	-0.3404903
4	0xbe18dc7b	-0.14927857
5	0xbea404f6	-0.32035035
6	0xbe70348e	-0.23457548
7	0x3d5fd6fc	0.054648384
8	0xbe3c7a7a	-0.18406096
9	0xbea0ee88	-0.31431985
10	0xbef84f1f	-0.48497865
11	0xbf9d4cc5	-1.2289053

conv3.1.running_var f4 [12]
0	0x4087e5ed	4.246817
1	0x40c32f30	6.09951
2	0x40a97397	5.29536
3	0x40a97781	5.295838
4	0x408047f3	4.008783
5	0x40a30ad0	5.09507
6	0x40c3bffc	6.1171856
7	0x4096da39	4.7141385
8	0x40880466	4.250537
9	0x40bdde7a	5.933408
10	0x40ac3487	5.381412
11	0x40de78a6	6.9522276

conv3.3.weight f4 [12, 12, 4]
0	0xbd861829	-0.06547577
1	0x3dbe6b9f	0.09297871
2	0x3c949eb0	0.018142074
3	0x3e4d0f3f	0.20025347
4	0xbc244d6b	-0.0100282235
5	0x3cf0a258	0.029374287
6	0xbd741cb9	-0.059597705
7	0x3c0d3490	0.008618489
8	0x3dcb3958	0.09923047
9	0xbe084530	-0.13307643
10	0xbd8220be	-0.06353901
11	0x3d642023	0.05569471
12	0xbd630d7b	-0.055432778
13	0x3c82ad1f	0.015951691
14	0x3da6173d	0.08109901
15	0x3d3b20c4	0.045685545
16	0x3d094950	0.033517182
17	0x3d2807cd	0.041023064
18	0x3cd1a30e	0.025590446
19	0xbc8606ce	-0.016360667
20	0xbdb2724a	-0.08713205
21	0xbd04f8e2	-0.032463916
22	0x3c8bbdf5	0.017058352
23	0x3ddc7e36	0.1076626
24	0x3daac06b	0.08337482
25	0xbc2300f4	-0.009948958
26	0xbdd08fa8	-0.1018365
27	0xbdf93727	-0.121687226
28	0x3d958f9d	0.07302783
29	0x39fb8788	0.0004797543
30	0x3d16f7c9	0.0368574
31	0xbc7164bb	-0.014733489
32	0xbce03bee	-0.027372327
33	0x3d4d1371	0.05006737
34	0xbdf0efa0	-0.11764455
35	0xbdba992f	-0.09111249
36	0xbd4b113c	-0.049576983
37	0x3dd3bfe9	0.10339338
38	0xbc8d8d96	-0.017279427
39	0x3c9ddc52	0.019270096
40	0x3df6c66d	0.120495655
41	0x3d8d9f84	0.06915191
42	0xbcc909cd	-0.024540806
43	0xbd93de0a	-0.07220085
44	0x3c1821e3	0.009285423
45	0x3e29b9f7	0.16574846
46	0x3d001b93	0.031276297
47	0xbd781445	-0.060566206
48	0xbdf967ee	-0.12178026
49	0xbd9d0b5f	-0.076681845
50	0xbe00a04d	-0.1256115
51	0xbd8e444a	-0.06946619
52	0xbe58ffbc	-0.21191305
53	0xbdbe41d8	-0.092899024
54	0x3da45fb0	0.080260634
55	0xbdedc026	-0.11608915
56	0xbd48da0d	-0.049036074
57	0xbddf38e4	-0.10899523
58	0x3df77e97	0.12084692
59	0x3c39ff83	0.011352423
60	0xbd4d6cb8	-0.05015251
61	0xbd8880f7	-0.06665223
62	0xbd3ec435	-0.046573836
63	0xbd61fc9c	-0.055172548
64	0xbb82dcab	-0.003993591
65	0xbd1f3938	-0.038872927
66	0xbe3100a7	-0.17285405
67	0x3cb13a09	0.021634119
68	0x3e2706b5	0.16311152
69	0xbd992b1b	-0.07478925
70	0xbba6600a	-0.0050773667
71	0x3d4b8318	0.049685568
72	0xbd8f028f	-0.0698291
73	0x3e3c10a3	0.18365721
74	0xbe65c91c	-0.22439998
75	0xbddaf664	-0.106915265
76	0xbd07d197	-0.033158865
77	0xbc289b33	-0.010290909
78	0x3d9273e5	0.071510114
79	0x3db51fa1	0.08843923
80	0x3d278fad	0.040908504
81	0x3cdc964e	0.02692714
82	0x3d84b258	0.06479329
83	0xbd2e6650	-0.04257804
84	0xbd70cb44	-0.0587876
85	0xbd0bd511	-0.034138743
86	0xbe1674c0	-0.14692974
87	0x3d58117c	0.05275105
88	0x3c62df04	0.013847116
89	0xbd0b42df	-0.03399932
90	0x3dbd95ad	0.09257064
91	0x3e08fe58	0.13378274
92	0x3d2f2b72	0.042766042
93	0xbdf2cdfd	-0.118556954
94	0xbd817d51	-0.0632273
95	0x3dcf82b0	0.101323485
96	0xbdfa1f8c	-0.12213048
97	0x3df4e24a	0.11957224
98	0x3d644ce6	0.0557374
99	0xbd08dde7	-0.033414748
100	0x3d7f6af9	0.062357876
101	0x3dc5c156	0.096560165
102	0xbd27cc4e	-0.040966325
103	0xbd9c7ed7	-0.0764138
104	0x3d197872	0.03746838
105	0xbd8a167c	-0.0674257
106	0x3dbdf57d	0.09275339
107	0xbd96d0b9	-0.073640294
108	0xbe3f7d18	-0.18700063
109	0x3d684054	0.056701973
110	0x3c9b9689	0.01899268
111	0xbd72e3a7	-0.059299137
112	0xbdee97e3	-0.11650064
113	0x3df3ec14	0.11910263
114	0xbc8d8ebe	-0.017279979
115	0x3bd1f681	0.0064075594
116	0x3d0b3043	0.033981573
117	0x3de7d33d	0.113195874
118	0xbd17c54c	-0.03705339
119	0x3d602588	0.054723293
120	0xbe08c782	-0.13357356
121	0xbba7cdc1	-0.0051209633
122	0x3d35098d	0.04419856
123	0xbe12c134	-0.14331514
124	0x3e25376d	0.16134425
125	0xbdabfc54	-0.08397737
126	0x3c76e515	0.015069266
127	0xbdf785de	-0.1208608
128	0xbda85979	-0.082201906
129	0xbdc38bd1	-0.09548152
130	0x3e12de2b	0.14342563
131	0x3e0c5d0d	0.13707371
132	0x3dc33ee5	0.095334806
133	0x3c7932aa	0.015209833
134	0x3dc2f404	0.095191985
135	0x3d544df4	0.051832154
136	0x3daf9cc7	0.08574825
137	0x3dce9147	0.10086303
138	0xbd440df9	-0.047864888
139	0x3d9b7bdd	0.075919844
140	0x3dbfabbd	0.09358928
141	0xbd516a98	-0.051127046
142	0x3d815342	0.06314708
143	0xbe157bb1	-0.14597966
144	0xbd615735	-0.055014808
145	0xbdbb44fd	-0.09144018
146	0x3d93beb1	0.07214106
147	0xbdc58214	-0.09643951
148	0x3c85823a	0.016297448
149	0xbd26820d	-0.04065137
150	0xbdd57b0b	-0.10423859
151	0x3cdd4f0c	0.027015232
152	0x3dc4a45c	0.096016616
153	0xbe0545ee	-0.13014957
154	0x3db3ca96	0.087788746
155	0xbdfa8006	-0.1223145
156	0xbe10d135	-0.14142306
157	0x3d99e9e4	0.07515314
158	0xbdda111a	-0.10647793
159	0x3c9f2256	0.019425552
160	0x3d06d13b	0.03291438
161	0x3d084798	0.033271402
162	0x3de92d1a	0.113855556
163	0xbe0b8630	-0.13625407
164	0xbdda87ce	-0.10670434
165	0xbc9fe7b0	-0.019519657
166	0xbd748a4a	-0.059702195
167	0x3e26aa61	0.16275932
168	0xbe1557df	-0.14584301
169	0x3e3418b1	0.17587544
170	0xbb8d1cbd	-0.0043064044
171	0xbe2db15c	-0.16962188
172	0x3cd76df6	0.02629755
173	0x3e09011a	0.13379326
174	0x3dee72f2	0.11643018
175	0x3d93df25	0.07220296
176	0xbdf5383e	-0.11973618
177	0xbdc4a973	-0.096026324
178	0x3cdae487	0.026720298
179	0x3c736222	0.01485494
180	0x3ccec457	0.025240107
181	0xbd7c3841	-0.061577085
182	0x3d997516	0.074930355
183	0x3d7b0391	0.061282698
184	0x3cc70ef3	0.02429912
185	0x3ce373fd	0.027765268
186	0x3e000a93	0.12504034
187	0x3d7d7eeb	0.061888617
188	0x3d78247d	0.060581673
189	0x3c976a05	0.018483171
190	0xbda41cfd	-0.080133416
191	0xbe405369	-0.18781818
192	0x3e05485a	0.13015881
193	0x3da3b94e	0.079943284
194	0xbd4e02a5	-0.05029549
195	0x3dcac369	0.09900553
196	0x3dc0b12e	0.09408794
197	0x3dcc16f0	0.099653125
198	0xbce2cb39	-0.027684795
199	0xbd540314	-0.051760748
200	0x3d545917	0.051842775
201	0xbdca8619	-0.09888858
202	0xbcf2794b	-0.029598853
203	0x3d892fd7	0.06698578
204	0x3c6446ac	0.013932865
205	0x3dbde7d1	0.09272731
206	0x3dda4932	0.10658492
207	0xbd43bb96	-0.047786318
208	0xbd68b666	-0.056814574
209	0xbe0ed5bb	-0.13948719
210	0x3db998d0	0.0906235
211	0x3e05858d	0.13039227
212	0xbb9183f5	-0.0044407793
213	0x3cb15ca0	0.021650612
214	0xbca111b9	-0.019661771
215	0xbd6d28db	-0.05790029
216	0xbd1670bd	-0.03672861
217	0xbd71368e	-0.058889918
218	0xbdf7cf99	-0.12100143
219	0x390e43af	0.0001356739
220	0xbdb456c0	-0.08805609
221	0x3e156be3	0.14591937
222	0xbd942be6	-0.072349355
223	0xbd6b9c2d	-0.057521988
224	0xbe28aa4a	-0.1647121
225	0x3d9b0932	0.07570113
226	0xbdb7798c	-0.0895873
227	0xbdf5500e	-0.1197816
228	0x3dfb1721	0.12260271
229	0x3e420ee3	0.18950991
230	0x3cb9a264	0.022660442
231	0x3db915a5	0.090373315
232	0xbd92e394	-0.07172313
233	0x3b8efe61	0.0043638204
234	0x3da12c6f	0.07869803
235	0x3db4528f	0.08804809
236	0x3d88a6e8	0.0667246
237	0x3d9a6bfe	0.07540129
238	0x3e0d4e51	0.13799407
239	0x3c8581c0	0.016297221
240	0xbd00a50f	-0.031407412
241	0x3d9fbb09	0.07799346
242	0xbde234b5	-0.11045209
243	0xbe142215	-0.14466126
244	0xbd8c996f	-0.06865203
245	0xbd134258	-0.035951942
246	0x3e01d12c	0.12677449
247	0xbd83feea	-0.064451054
248	0x3ce0728d	0.027398372
249	0x3db7c0a7	0.089722924
250	0xbdac4732	-0.08412017
251	0x3dbd290c	0.09236345
252	0x3e22ddd5	0.15904935
253	0x3d5d2e3c	0.05399917
254	0x3d7c5cab	0.061611813
255	0xbcfa2ad8	-0.030538008

conv3.3.bias f4 [12]
0	0x3c8f4446	0.01748861
1	0xbdef04eb	-0.1167086
2	0x3dae4b96	0.085105106
3	0x3e052c76	0.13005242
4	0xbc8ca797	-0.017169757
5	0x3d1a22df	0.037630912
6	0xbd314ac9	-0.04328421
7	0x3e0a12a4	0.13483673
8	0x3def561d	0.11686347
9	0x3daf21c9	0.08551366
10	0x3decad86	0.115565345
11	0x3de284ef	0.11060511

conv3.4.weight f4 [12]
0	0x3f8b453a	1.0880501
1	0x3f805043	1.0024494
2	0x3f863475	1.0484759
3	0x3f8505cf	1.0392398
4	0x3f82417e	1.0176237
5	0x3f88c291	1.0684377
6	0x3f83507b	1.0258936
7	0x3f83fdcb	1.0311826
8	0x3f8b1935	1.0867068
9	0x3f892b82	1.0716403
10	0x3f83c1b4	1.0293489
11	0x3f8dbcbd	1.1073223

conv3.4.bias f4 [12]
0	0x3c18465f	0.0092941215
1	0xbaf6ce71	-0.0018829835
2	0xbc2ba216	-0.010475656
3	0x3b17d283	0.0023166246
4	0xbc2d32e9	-0.01057122
5	0x3b20d193	0.0024538978
6	0x3b13c058	0.0022545066
7	0x3b1ce70a	0.002394142
8	0xbae8d995	-0.001776504
9	0xbb78a516	-0.0037940196
10	0x3b103bd7	0.0022008324
11	0x3c25a096	0.010109087

conv3.4.running_mean f4 [12]
0	0x3e330554	0.17482501
1	0xbefeb3d6	-0.4974658
2	0x3e40a7a3	0.18813948
3	0xbcf8fabe	-0.030393
4	0x3e751142	0.23932365
5	0x3cd04cda	0.02542727
6	0xbe452148	-0.19250977
7	0xbd9a4bf4	-0.07534018
8	0x3c32e29f	0.0109182885
9	0x3e6da464	0.23207241
10	0xbe866888	-0.26251626
11	0x3e2e37f9	0.1701354

conv3.4.running_var f4 [12]
0	0x3d4d2ae8	0.050089747
1	0x3dfc9add	0.12334225
2	0x3d8baa7c	0.06819627
3	0x3db9832f	0.090582244
4	0x3da40617	0.08008974
5	0x3d851e75	0.0649995
6	0x3dd2833a	0.10278936
7	0x3ddc9d80	0.10772228
8	0x3dc0926e	0.09402929
9	0x3d609b7d	0.054835785
10	0x3db4f752	0.08836235
11	0x3d53aaf0	0.05167669
