model/AutoY/T1Dcheckpoint1.pt (torch, 34275 bytes, 51 tensors)

conv1.0.weight f4 [12, 15, 2]
-0.12613818 -0.028002217 -0.09327616 -0.034366194 -0.027737213 -0.18777321 -0.14095443 -0.06947009
-0.020929804 0.06640524 -0.15499544 -0.11639337 0.033853 0.11134841 0.10369472 -0.0827924
-0.031082883 -0.0007464511 0.17350967 -0.21656688 0.0030328208 -0.016996093 0.047809668 0.015076883
-0.0077002924 -0.09128894 -0.06545183 -0.12189193 0.14081776 0.05376976 0.0025356975 0.1141408
0.040043216 0.07156113 0.03554863 0.064748935 0.13151984 -0.06829761 -0.03849143 0.053577885
0.095790766 -0.097782806 -0.023941334 -0.19423693 -0.15413962 -0.053164918 -0.026142305 0.04823366
-0.25015354 -0.09627316 -0.08022279 0.06664749 0.08193757 0.021487033 -0.050597943 0.13624859
-0.04892141 -0.07659764 -0.0938647 -0.15245162 -0.017188927 0.19002213 -0.09004614 -0.12061632
0.04923179 -0.09703007 0.12497372 0.050574325 0.10951652 -0.07867535 0.013392444 -0.1222189
-0.14032045 -0.13963325 0.091209434 0.03210882 -0.1962717 0.14839336 0.075223126 0.17594634
-0.23970988 -0.019194055 -0.07160038 -0.005305965 0.045696776 -0.115599744 -0.073925465 -0.059803404
-0.14496242 0.14133377 0.018940108 0.13660765 0.13013762 -0.19872469 0.11808501 0.081243634
0.032562226 -0.09124614 -0.022617819 0.024359396 0.07309224 0.10783691 0.004361513 0.016927177
-0.1866163 -0.08904017 0.06882995 0.051432326 -0.087755814 0.19929782 0.022046287 -0.023544636
-0.19692257 -0.11004599 -0.017598704 0.0014578344 -0.08727193 -0.2206378 -0.05391222 -0.08446874
0.05048815 -0.068135716 -0.14406869 -0.056914393 0.22336985 -0.07362876 0.13741535 0.06495973
0.021698605 0.16971904 0.14509468 0.121859044 -0.0911185 -0.0091922395 -0.080110624 -0.09903645
-0.14105512 -0.071551755 0.018846806 0.156751 0.0379967 0.15932833 -0.0659155 0.0738794
0.07517721 -0.10354633 0.16998336 -0.01823774 -0.010566434 -0.017968869 -0.02409923 0.15204728
-0.044143118 -0.03604352 0.1508913 0.029662037 -0.04963845 0.05973258 -0.08182998 0.1176756
-0.0055107274 -0.14231619 -0.10370266 0.08505184 0.00479677 0.20691514 -0.0164469 -0.03345285
-0.09369975 -0.049385298 -0.010790489 0.15908802 -0.14254992 0.059999812 0.25677973 -0.1400672
-0.16584228 -0.062395997 0.014862559 0.050646853 -0.051840324 0.13238765 0.18735287 0.044151165
0.028869625 0.07183197 -0.048396815 -0.020436468 0.06446326 0.10671774 -0.030088365 0.012251663
0.15000981 -0.045141272 -0.021078669 -0.02486061 0.075366884 -0.009215302 0.017065287 -0.09888635
-0.19960625 -0.036446657 -0.016214442 -0.026362559 0.17982645 -0.16270415 -0.019098103 -0.16746809
-0.12554032 -0.07577964 0.08889836 -0.18602046 -0.1574476 0.122744255 0.18900944 -0.14810014
0.0059495536 0.06618974 0.039460123 -0.017045902 0.033357177 -0.01044555 -0.02450829 0.08950596
0.065232165 0.2306089 0.118103795 -0.1498689 -0.033225015 0.11829284 -0.09017005 0.0432126
-0.21335934 0.042301245 0.0659182 -0.12527496 0.05317798 0.0024151015 -0.10462641 0.17945449
-0.15574144 -0.15311198 0.16090609 -0.00045751198 -0.16330484 -0.038105085 -0.09963757 0.09055547
-0.04482214 -0.11748192 -0.056689892 -0.15557659 0.028059434 -0.020465009 0.113829054 -0.17500067
00000000: 5e2a 01be e864 e5bc 9207 bfbd 91c3 0cbd
00000010: 2739 e3bc 9f47 40be 5c56 10be 5646 8ebd
00000020: fb74 abbc 78ff 873d 20b7 1ebe a65f eebd
00000030: 71a9 0a3d a30a e43d e65d d43d 108f a9bd
00000040: 88a1 febc 7cad 43ba 85ac 313e b5c3 5dbe
00000050: 4ac2 463b 643b 8bbc 12d4 433d 0805 773c
00000060: bc52 fcbb b2f5 babd 9c0b 86bd 7aa2 f9bd
00000070: 8832 103e ae3d 5c3d f22d 263b a7c2 e93d
00000080: 5b04 243d a48e 923d 719b 113d 179b 843d
00000090: 23ad 063e 9edf 8bbd 31a9 1dbd 7c74 5b3d
000000a0: f32d c43d 5a42 c8bd 9e20 c4bc 0ce6 46be
000000b0: c7d6 1dbe 75c3 59bd 6328 d6bc a990 453d
000000c0: 2014 80be dd2a c5bd d94b a4bd 7b7e 883d
000000d0: e2ce a73d 9305 b03c ca3f 4fbd c084 0b3e
000000e0: d161 48bd 39df 9cbd 233c c0bd 471c 1cbe
000000f0: cbcf 8cbc 2995 423e 1c6a b8bd b005 f7bd
00000100: 46a7 493d b4b7 c6bd 39f2 ff3d 0627 4f3d
00000110: 324a e03d 8b20 a1bd fb6b 5b3c e74d fabd
00000120: 2ab0 0fbe 05fc 0ebe 03cc ba3d 8a84 033d
00000130: 73fb 48be 6ef4 173e 950e 9a3d 472b 343e
00000140: 8276 75be da3c 9dbc 38a3 92bd a9dd adbb
00000150: 8b2c 3b3d 8fbf ecbd 3c66 97bd 6af4 74bd
00000160: 0771 14be cdb9 103e 4928 9b3c e0e2 0b3e
00000170: cc42 053e 7c7e 4bbe 8ed6 f13d 1063 a63d
00000180: f85f 053d 42df babd 0149 b9bc 5b8d c73c
00000190: 62b1 953d 99d9 dc3d 06eb 8e3b ddaa 8a3c
000001a0: 5818 3fbe b15a b6bd b8f6 8c3d b4aa 523d
000001b0: 52b9 b3bd ba14 4c3e 6a9a b43c aee0 c0bc
000001c0: 12a6 49be cb5f e1bd 282b 90bc ce14 bf3a
000001d0: a0bb b2bd e0ee 61be 0fd3 5cbd f2fd acbd
000001e0: aacc 4e3d bd8a 8bbd be86 13be 111f 69bd
000001f0: 11bb 643e adca 96bd 9cb6 0c3e 9b09 853d
00000200: 46c1 b13c d4ca 2d3e b393 143e 3c91 f93d
00000210: 569c babd 0c9b 16bc 0a11 a4bd 9fd3 cabd
00000220: c170 10be ba89 92bd 9e64 9a3c 5683 203e
00000230: 6da2 1b3d f726 233e b5fe 86bd 154e 973d
00000240: 82f6 993d 1910 d4bd 1e10 2e3e 5067 95bc
00000250: d61e 2dbc 7333 93bc c06b c5bc 48b2 1b3e
00000260: 6acf 34bd 5fa2 13bd 4083 1a3e cdfd f23c
00000270: b051 4bbd 26aa 743d 7a96 a7bd e8ff f03d
00000280: 5593 b4bb 56bb 11be 0f62 d4bd a92f ae3d
00000290: 392e 9d3b 90e1 533e a6bb 86bc db05 09bd
000002a0: a8e5 bfbd 3d48 4abd 97ca 30bc f8e7 223e
000002b0: 9bf8 11be 5dc2 753d a278 833e c76d 0fbe
000002c0: 8fd2 29be f292 7fbd 1782 733c 1373 4f3d
000002d0: 8556 54bd a190 073e 6ed9 3f3e dad7 343d
000002e0: fe7f ec3c a41c 933d bd3b 46bd 616a a7bc
000002f0: 5005 843d d58e da3d e07b f6bc 33bb 483c
00000300: 2c9c 193e 0ee6 38bd 2cad acbc 7aa8 cbbc
00000310: f459 9a3d c7fb 16bc 80cc 8b3c ed84 cabd
00000320: 9565 4cbe 1749 15bd 26d4 84bc 4bf6 d7bc
00000330: 6d24 383e eb9b 26be a073 9cbc c17c 2bbe
00000340: a48d 00be 5b32 9bbd 5810 b63d 267c 3ebe
00000350: f239 21be 5761 fb3d b18b 413e 90a7 17be
00000360: 79f4 c23b 7d8e 873d f0a0 213d d9a3 8bbc
00000370: 89a1 083d d023 2bbc 9cc5 c8bc e74e b73d
00000380: 7198 853d bd24 6c3e 67e0 f13d 3c77 19be
00000390: f416 08bd 8443 f23d 13ab b8bd b2ff 303d
000003a0: df7a 5abe 1244 2d3d 1f00 873d 1448 00be
000003b0: 27d1 593d ae46 1e3b 5f46 d6bd ebc2 373e
000003c0: af7a 1fbe 63c9 1cbe 91c4 243e 38de efb9
000003d0: 6239 27be 1414 1cbd c80e ccbd 2575 b93d
000003e0: 6c97 37bd 5c9a f0bd a933 68bd 784f 1fbe
000003f0: e6dc e53c 3ca6 a7bc 351f e93d 6033 33be

conv1.0.bias f4 [12]
-0.018195793 -0.048378315 0.05548761 0.08767878 0.0557115 -0.15489806 -0.11184347 -0.13801129
-0.20313506 0.0035973797 0.009565785 -0.08694431
00000000: 580f 95bc 5728 46bd fa46 633d ef90 b33d
00000010: be31 643d 999d 1ebe 300e e5bd d552 0dbe
00000020: a302 50be 04c2 6b3b cfb9 1c3c dc0f b2bd

conv1.1.weight f4 [12]
1.0588979 1.031058 0.9678656 1.0731069 0.99166715 0.9776012 1.0102704 1.0288011
1.022139 0.9724696 0.94758356 0.9903154
00000000: f789 873f b5f9 833f 0ac6 773f 915b 893f
00000010: e6dd 7d3f 1244 7a3f 8a50 813f c1af 833f
00000020: 73d5 823f c5f3 783f d694 723f 4f85 7d3f

conv1.1.bias f4 [12]
0.040251914 0.013732076 -0.001438579 -0.014066422 -0.012722419 -0.0060592047 0.0041842423 -0.008044356
0.0006796793 -0.054460526 -0.0065312004 0.06469418
00000000: 31df 243d 80fc 603c b48e bcba da76 66bc
00000010: b171 50bc 4b8c c6bb f81b 893b 79cc 03bc
00000020: 812c 323a 0012 5fbd ae03 d6bb 627e 843d

conv1.1.running_mean f4 [12]
-0.7899973 0.75808907 -0.04038269 0.4187309 -0.4242817 0.29494855 0.45644924 -0.5492006
-0.4160262 -0.38574564 -0.16806845 -0.57741535
00000000: 433d 4abf 2012 423f 5268 25bd e663 d63e
00000010: 733b d9be 7f03 973e b7b3 e93e 6998 0cbf
00000020: 6301 d5be 7480 c5be 231a 2cbe 7ed1 13bf

conv1.1.running_var f4 [12]
6.2862353 3.2427363 5.295033 6.6831245 4.197972 4.24723 4.9278193 8.498068
7.623867 3.8246784 5.6591024 4.8446174
00000000: d728 c940 fe88 4f40 e970 a940 28dc d540
00000010: c955 8640 4fe9 8740 b2b0 9d40 16f8 0741
00000020: b8f6 f340 88c7 7440 5e17 b540 1b07 9b40

conv1.3.weight f4 [12, 12, 2]
0.14949024 -0.14060535 -0.029633397 -0.0060544554 -0.17238013 0.13685915 -0.17040531 0.13336642
-0.16866 0.11821028 0.12736614 0.10123388 0.0045585427 0.10461893 -0.02678087 -0.097031824
-0.065290354 -0.18332554 0.10183898 -0.100927345 0.17973779 0.19005167 0.1499074 0.11122546
-0.12115749 0.03688735 0.05555217 0.1577362 0.043316767 0.1689893 0.034175824 -0.091272414
0.12792592 -0.15194088 0.053115077 0.014625058 -0.103553765 -0.11721785 0.12060372 0.07972787
0.13762037 -0.11825896 -0.15537792 -0.05859034 -0.10239197 -0.07783302 -0.063038655 0.20228396
0.043852035 -0.0003835833 -0.02957082 0.006065493 -0.18202013 0.16651042 0.02827335 -0.09422827
0.0024947796 0.060950372 -0.13249163 0.067948155 -0.096444644 -0.055807237 -0.20051508 -0.11850301
-0.21668783 -0.05194648 -0.10108441 -0.1647303 -0.17515363 -0.18488275 0.0832693 -0.07024944
0.20078416 0.20819718 -0.19617224 -0.19089635 -0.052836165 0.16461284 -0.012173594 -0.035385557
-0.08462694 0.12497464 0.08946206 -0.17277244 -0.0889447 0.08655342 -0.2078395 -0.17139676
0.21743983 0.030755118 0.011819701 -0.04804677 0.13565114 0.10341126 -0.027572906 -0.04932277
0.04695774 -0.08938437 -0.17076023 0.030837022 0.051273994 0.079331964 0.10100264 -0.16596666
0.0628754 0.09922682 -0.18493895 -0.17804116 -0.0712913 -0.15155703 0.15067011 -0.21795145
-0.17881937 0.21190567 0.082896434 -0.09772447 0.1707869 0.03305355 -0.090388164 0.090888746
-0.08952559 -0.1654314 -0.17145185 -0.15184292 0.05895863 0.09005898 0.0028541442 0.14050688
-0.09976513 0.20256181 -0.021611672 0.105464146 0.13401632 -0.034040425 0.031087749 0.07677479
-0.07505246 0.13914965 -0.10112209 0.20363586 0.04976632 -0.057298366 0.13436994 -0.15581584
0.17890428 -0.13753243 0.21093456 -0.109775275 -0.18277304 -0.103537254 0.016501788 -0.16724871
0.15925674 0.029756727 -0.034465063 -0.008115479 0.12191991 0.018597206 -0.08992721 0.09937481
-0.10826601 0.100428924 0.18913867 0.12360679 -0.0096894 0.15591139 0.17719933 0.03611308
0.014691663 -0.04941485 -0.06623038 0.10321487 0.12970628 0.108560584 0.11282041 -0.18111397
0.057453677 0.100742444 0.022935832 0.014797821 -0.11940322 -0.022855928 -0.10709878 0.019622702
0.02175719 0.0050837607 -0.024178257 0.19733824 -0.07991665 -0.10679953 0.20262991 0.16842408
-0.048201326 0.044532623 0.12561814 -0.19371462 0.09411004 -0.13630435 0.14732043 -0.020534694
-0.10389674 0.09256557 0.21088265 -0.119570464 0.11134588 0.073198676 -0.11227055 -0.11619612
0.13524288 0.06539372 0.09681035 0.025345981 -0.11940797 -0.13246112 0.033460587 0.12596112
0.07260191 -0.18779117 -0.15893145 0.058269996 -0.08429663 0.006300113 -0.014922861 -0.0884112
0.11890312 0.06616902 0.16413277 0.15255934 0.027267125 -0.13821988 0.09016656 -0.018319177
0.12339945 0.072286695 0.11651063 -0.08369021 -0.06075152 -0.040649615 -0.003100786 0.18490502
0.07911227 0.1836076 0.11778985 0.12617864 -0.10723459 -0.12039895 -0.0027667661 0.10535684
-0.14835428 0.11218578 0.0029064359 -0.17987758 0.16185996 -0.12216939 0.0978287 0.060208466
00000000: f813 193e d9fa 0fbe bdc1 f2bc 7464 c6bb
00000010: 6b84 30be ce24 0c3e bb7e 2ebe 3591 083e
00000020: 35b5 2cbe 3b18 f23d 456c 023e b553 cf3d
00000030: d45f 953b 7342 d63d 8e63 dbbc 9fb8 c6bd
00000040: f3b6 85bd b1b9 3bbe f590 d03d ffb2 cebd
00000050: 2f0d 383e e89c 423e 5381 193e 2dca e33d
00000060: 6b21 f8bd 3117 173d ac8a 633d 9985 213e
00000070: ec6c 313d 880b 2d3e f3fb 0b3d 08ed babd
00000080: 03ff 023e 6496 1bbe 328f 593d f09d 6f3c
00000090: ff13 d4bd ea0f f0bd 15ff f63d 5e48 a33d
000000a0: 5bec 0c3e c131 f2bd 641b 1fbe 6dfc 6fbd
000000b0: e2b2 d1bd eb66 9fbd 691a 81bd 8723 4f3e
000000c0: 319e 333d ae1b c9b9 813e f2bc 0bc1 c63b
000000d0: 7c63 3abe b581 2a3e 839d e73c c0fa c0bd
000000e0: 757f 233b 19a7 793d e3ab 07be 6728 8b3d
000000f0: c584 c5bd 2196 64bd d353 4dbe b5b1 f2bd
00000100: 6ae3 5dbe d5c5 54bd 5805 cfbd 0faf 28be
00000110: 795b 33be e751 3dbe 1889 aa3d f0de 8fbd
00000120: 5d9a 4d3e a431 553e 60e1 48be 557a 43be
00000130: bc6a 58bd 4590 283e c173 47bc 72f0 10bd
00000140: e450 adbd b4f2 ff3d e237 b73d 42eb 30be
00000150: a428 b6bd eb42 b13d e1d3 54be a282 2fbe
00000160: 8ca8 5e3e 28f2 fb3c 6ba7 413c b1cc 44bd
00000170: 22e8 0a3e 48c9 d33d 93e0 e1bc ac06 4abd
00000180: c256 403d 270f b7bd c5db 2ebe ec9d fc3c
00000190: ae04 523d cc78 a23d 79da ce3d 2af3 29be
000001a0: d1c4 803d 6e37 cb3d a360 3dbe 6c50 36be
000001b0: 2c01 92bd c431 1bbe 4449 1a3e aa2e 5fbe
000001c0: 6d1c 37be cdfd 583e 9bc5 a93d c423 c8bd
000001d0: c3e2 2e3e 2963 073d 6e1d b9bd e123 ba3d
000001e0: 3159 b7bd d966 29be 1391 2fbe b67c 1bbe
000001f0: 9b7e 713d d870 b83d 980c 3b3b 09e1 0f3e
00000200: a951 ccbd 5d6c 4f3e f60a b1bc 96fd d73d
00000210: 933b 093e f96d 0bbd bcab fe3c 1a3c 9d3d
00000220: 1bb5 99bd 3f7d 0e3e 1919 cfbd eb85 503e
00000230: c5d7 4b3d b1b1 6abd 4698 093e 308e 1fbe
00000240: af32 373e 4dd5 0cbe 3bff 573e dcd1 e0bd
00000250: db28 3bbe 570b d4bd c22e 873c 3f43 2bbe
00000260: 3314 233e 61c4 f33c 3d2b 0dbd c9f6 04bc
00000270: 25b1 f93d 2b59 983c c22b b8bd 0585 cb3d
00000280: 92ba ddbd aead cd3d 91ad 413e 8f25 fd3d
00000290: 4ac0 1ebc 3ca7 1f3e be73 353e 4feb 133d
000002a0: 4db5 703c 3a67 4abd cba3 87bd 5162 d33d
000002b0: b9d1 043e 0355 de3d 630e e73d f175 39be
000002c0: 8c54 6b3d 0e52 ce3d ede3 bb3c 8f72 723c
000002d0: ad89 f4bd 5b3c bbbc 9b56 dbbd cabf a03c
000002e0: 223c b23c ad95 a63b 7b11 c6bc 0913 4a3e
000002f0: 57ab a3bd b6b9 dabd 377e 4f3e 5d77 2c3e
00000300: c16e 45bd d767 363d 0ba2 003e 205d 46be
00000310: c4bc c03d 5e93 0bbe 2bdb 163e 6038 a8bc
00000320: d0c7 d4bd 0493 bd3d 9ff1 573e 5ce1 f4bd
00000330: 4f09 e43d 30e9 953d 1aee e5bd 3bf8 edbd
00000340: 1c7d 0a3e 25ed 853d 8144 c63d 60a2 cf3c
00000350: 2a8c f4bd e3a3 07be f80d 093d f4fb 003e
00000360: 4fb0 943d 544c 40be edbe 22be 85ac 6e3d
00000370: b6a3 acbd 2e71 ce3b 047f 74bc ee10 b5bd
00000380: 7b83 f33d a083 873d 6c12 283e 8438 1c3e
00000390: 4e5f df3c 8389 0dbe 3fa9 b83d 1912 96bc
000003a0: dab8 fc3d 0c0b 943d 209d ee3d c665 abbd
000003b0: 96d6 78bd 3680 26bd 8e36 4bbb be57 3d3e
000003c0: 9d05 a23d a103 3c3e ce3b f13d f934 013e
000003d0: cf9d dbbd ba93 f6bd a252 35bb 54c5 d73d
000003e0: 2fea 17be a9c1 e53d e779 3e3b d431 38be
000003f0: 9ebe 253e f233 fabd 6a5a c83d 279d 763d

conv1.3.bias f4 [12]
0.09310072 -0.06874542 -0.19142976 0.11978799 -0.1635922 0.05069077 0.16381828 0.13261092
0.17426954 0.044097785 0.16838612 0.034768593
00000000: 97ab be3d 66ca 8cbd 2a06 44be 6853 f53d
00000010: b784 27be 20a1 4f3d fbbf 273e 28cb 073e
00000020: b773 323e e19f 343d 696d 2c3e 8369 0e3d

conv1.4.weight f4 [12]
1.019874 1.0199679 1.0250974 1.0205972 1.0229529 0.9961294 1.0015801 0.999291
1.0183954 1.0146616 1.0089189 0.9927283
00000000: 3b8b 823f 4f8e 823f 6436 833f eea2 823f
00000010: 1ff0 823f 5602 7f3f c733 803f 89d1 7f3f
00000020: c85a 823f 6ee0 813f 4124 813f 7123 7e3f

conv1.4.bias f4 [12]
0.012632964 -0.014362226 0.044360623 0.043250546 0.04323696 -0.014793949 -0.015243188 0.012746311
0.012707024 -0.014400642 -0.014154467 -0.00033446104
00000000: 7efa 4e3c 8b4f 6bbc 7cb3 353d 7c27 313d
00000010: 3d19 313d 5262 72bc 90be 79bc e7d5 503c
00000020: 1f31 503c acf0 6bbc 23e8 67bc 9a5a afb9

conv1.4.running_mean f4 [12]
0.24394158 -0.021006716 -0.66304654 0.1309214 -0.33933616 0.0805284 0.40992466 0.30917472
0.29397285 0.16893941 0.37439626 0.18645668
00000000: d2cb 793e 4716 acbc 6bbd 29bf 4210 063e
00000010: 78bd adbe 13ec a43d a5e1 d13e 264c 9e3e
00000020: 9c83 963e 74fe 2c3e deb0 bf3e 80ee 3e3e

conv1.4.running_var f4 [12]
0.1949803 0.055830665 0.18889408 0.2439933 0.1670285 0.10666863 0.15792699 0.121089295
0.14668548 0.03738537 0.083275884 0.08723533
00000000: eaa8 473e b2ae 643d 736d 413e 61d9 793e
00000010: 8509 2b3e 1575 da3d 9db7 213e aafd f73d
00000020: b834 163e 6721 193d 8c8c aa3d 70a8 b23d

conv2.0.weight f4 [12, 15, 3]
0.021191992 0.09796641 0.120638534 0.12384773 -0.066620834 0.1162374 0.073760554 0.11065509
0.1294121 0.05611838 -0.13568726 -0.0006236194 0.123552345 -0.11435784 0.014200306 0.14711872
-0.0692315 -0.1083361 0.021477956 0.11295483 -0.0005261934 0.033388022 0.081372395 0.07789336
0.12369633 -0.10571926 0.086170465 0.020637298 0.23370875 0.05673899 0.070331454 -0.054747112
0.12663473 -0.019307071 0.12735407 -0.017761981 0.0091637755 0.0015284437 0.037609067 0.18445559
-0.021338373 0.06600969 -0.078944944 0.105963565 0.19563468 -0.053308148 -0.11383151 -0.07133674
0.1635252 -0.1356683 -0.06303702 -0.089384064 -0.12520747 0.09367956 -0.14139576 -0.10215642
-0.11701181 0.024119673 -0.0019902824 -0.16171856 -0.059973408 0.0574743 -0.06798885 -0.0796213
0.062362038 0.06475128 0.15930197 0.023473805 -0.19701256 0.007927743 -0.041731566 -0.008084938
0.057236258 -0.00036491593 -0.022294398 -0.04218198 -0.16466236 -0.1958554 0.13318868 0.04340124
-0.09352984 -0.094732426 0.2097564 0.0982724 -0.051579 -0.15117428 0.041384738 -0.011944286
0.017686512 -0.0138870245 -0.05663149 0.01903475 -0.047072854 -0.0009530359 -0.029629571 -0.012085566
0.038106974 0.14769895 -0.11714596 0.106621735 -0.042195003 -0.09030718 0.044307545 0.065027736
0.16108207 0.09438594 0.020099707 -0.0129547715 -0.034186434 0.118447475 -0.17007092 0.15363881
-0.10430822 -0.12727635 0.042323105 0.059853837 -0.030978654 0.007962417 0.16095473 0.1796921
0.07305352 0.028361807 0.13714784 -0.08503253 0.049824953 0.059234396 -0.16098674 -0.09165971
-0.079065174 -0.09749498 0.19501671 -0.07478658 -0.012740832 -0.0697229 -0.020907478 -0.022367973
0.08565083 -0.029178934 -0.018426737 -0.04210159 0.11156553 0.12773526 0.061377853 0.1054173
-0.09026105 -0.05273809 -0.073986396 0.093504645 -0.05917528 0.081480905 -0.073131554 -0.034882456
-0.09274934 -0.11109242 0.021369407 -0.14484347 -0.07354727 0.107934065 0.03410067 -0.11919916
-0.027946265 -0.010755952 0.0832471 -0.05624753 0.00399575 -0.20500441 -0.046270154 0.11434734
0.06435901 0.16580312 -0.1617557 -0.06511156 -0.08137129 -0.12226724 0.17578287 0.0386829
-0.012755359 0.088585645 -0.1051333 -0.15103728 -0.07322338 -0.02948675 0.06465446 -0.12450507
-0.053401697 -0.008164875 0.013263099 -0.18841399 -0.047232307 -0.06698412 -0.035087455 0.0057540108
-0.048611667 0.12656727 0.06175809 0.16227694 0.078970455 0.093416035 0.07016567 -0.081325054
-0.14373824 -0.09582212 -0.14323048 -0.07562039 0.07325266 0.026738891 -0.02233537 0.04307558
-0.10258544 -0.09438367 0.116288036 0.071923405 0.17105564 -0.2551004 0.12647681 -0.08899004
-0.09702101 -0.039793793 -0.108443074 -0.10930055 0.08603189 0.16775331 -0.044318866 0.021658089
0.11443856 0.10385662 0.013292088 -0.016808454 0.027224245 -0.031680696 -0.06749378 -0.087137826
0.13420756 -0.10841796 0.083695516 -0.026037833 -0.122252375 0.11132035 0.1352522 -0.014770117
0.08500535 0.044589125 -0.15596634 -0.0027672695 -0.19405118 -0.09458264 -0.10228446 -0.062707864
0.103287496 -0.012155776 -0.116752595 -0.012339125 0.019728849 0.04244767 0.12504981 -0.027163673
00000000: d49a ad3c 9da2 c83d 5611 f73d e1a3 fd3d
00000010: 8170 88bd e00d ee3d c60f 973d 239f e23d
00000020: 9b84 043e 63dc 653d 9af1 0abe 647a 23ba
00000030: 0309 fd3d 7134 eabd 66a8 683c 4aa6 163e
00000040: 3fc9 8dbd 51df ddbd 8af2 af3c dd54 e73d
00000050: 3ef0 09ba e1c1 083d 92a6 a63d 8e86 9f3d
00000060: 8054 fd3d 5783 d8bd 247a b03d 8d0f a93c
00000070: 5951 6f3e 2567 683d f009 903d 823e 60bd
00000080: 89ac 013e dd29 9ebc 1b69 023e 9381 91bc
00000090: a923 163c 0f56 c83a f70b 1a3d ede1 3c3e
000000a0: d0cd aebc 1730 873d e3ad a1bd 6d03 d93d
000000b0: 7554 483e a559 5abd 7f20 e9bd ff18 92bd
000000c0: 2673 273e a1ec 0abe 8e19 81bd fe0e b7bd
000000d0: 6336 00be 12db bf3d 0dca 10be 6337 d1bd
000000e0: e3a3 efbd 9f96 c53c 666f 02bb 8d99 25be
000000f0: ada6 75bd 2c6a 6b3d bd3d 8bbd 7e10 a3bd
00000100: 566f 7f3d 529c 843d 0e20 233e 234c c03c
00000110: a9bd 49be 5de3 013c b8ee 2abd b076 04bc
00000120: 9170 6a3d 3052 bfb9 bea2 b6bc 03c7 2cbd
00000130: 409d 28be 518e 48be 9d62 083e 80c5 313d
00000140: 938c bfbd 1303 c2bd 62ca 563e 0a43 c93d
00000150: 8044 53bd 6ecd 1abe 0b83 293d f7b1 43bc
00000160: 4ee3 903c 6786 63bc 6cf6 67bd c4ee 9b3c
00000170: 77cf 40bd 28d5 79ba b7b9 f2bc 8a02 46bc
00000180: 0f16 1c3d 653e 173e 39ea efbd 7f5c da3d
00000190: abd4 2cbd f9f2 b8bd d47b 353d 432d 853d
000001a0: b3f2 243e 6a4d c13d 24a8 a43c 4040 54bc
000001b0: 1307 0cbd 9794 f23d 1227 2ebe 7e53 1d3e
000001c0: 8c9f d5bd bb54 02be fe5a 2d3d 4c29 753d
000001d0: f2c6 fdbc cc74 023c 51d1 243e 3501 383e
000001e0: 159d 953d 0557 e83c 7c70 0c3e 8925 aebd
000001f0: 4015 4c3d c49f 723d b5d9 24be 16b8 bbbd
00000200: ecec a1bd 73ab c7bd 76b2 473e b529 99bd
00000210: ecbe 50bc e1ca 8ebd 2946 abbc 0a3d b7bc
00000220: b469 af3d a908 efbc abf3 96bc b872 2cbd
00000230: 787c e43d 08cd 023e 5867 7b3d 06e5 d73d
00000240: c9da b8bd e503 58bd 2e86 97bd 5d7f bf3d
00000250: c761 72bd 76df a63d ffc5 95bd e8e0 0ebd
00000260: 5ef3 bdbd 6c84 e3bd e50e af3c d951 14be
00000270: f39f 96bd 890c dd3d 25ad 0b3d b01e f4bd
00000280: 91ef e4bc bc39 30bc 757d aa3d cf63 66bd
00000290: c8ee 823b adec 51be c685 3dbd f02e ea3d
000002a0: a8ce 833d 4bc8 293e 49a3 25be 3659 85bd
000002b0: fea5 a6bd 3f67 fabd 6d00 343e f671 1e3d
000002c0: dafb 50bc 646c b53d 2150 d7bd 84a9 1abe
000002d0: 24f6 95bd 328e f1bc 8f69 843d 84fc febd
000002e0: bdbb 5abd f8c5 05bc 784d 593c 99ef 40be
000002f0: aa76 41bd f82e 89bd ddb7 0fbd 248c bc3b
00000300: 071d 47bd da9a 013e 0df6 7c3d ed2b 263e
00000310: 43bb a13d e850 bf3d 05b3 8f3d c08d a6bd
00000320: 1e30 13be 633e c4bd 03ab 12be ddde 9abd
00000330: 7e05 963d 850b db3c aaf8 b6bc 0570 303d
00000340: 5118 d2bd 3a4c c1bd 6c28 ee3d 944c 933d
00000350: 3629 2f3e 859c 82be 2383 013e 6940 b6bd
00000360: f4b2 c6bd d1fe 22bd 6717 debd f7d8 dfbd
00000370: 7d31 b03d 86c7 2b3e b387 35bd 4e6c b13c
00000380: c45e ea3d c8b2 d43d 0fc7 593c e2b1 89bc
00000390: 6105 df3c 9ec3 01bd 2e3a 8abd 5175 b2bd
000003a0: b56d 093e 3c0a debd 8e68 ab3d 4b4d d5bc
000003b0: 745f fabd ecfb e33d 8d7f 0a3e 5cfe 71bc
000003c0: 4917 ae3d 16a3 363d a4b5 1fbe 145b 35bb
000003d0: 5ab5 46be 8bb4 c1bd 847a d1bd fb6c 80bd
000003e0: 6588 d33d 0529 47bc fc1b efbd 0b2a 4abc
000003f0: 659e a13c 9cdd 2d3d 0f0d 003e 5a86 debc

conv2.0.bias f4 [12]
-0.15019941 0.009139699 -0.0126013495 0.07250326 0.010762295 -0.053722914 0.05306889 -0.121456824
0.056734227 0.013232691 -0.091558896 0.03242636
00000000: e0cd 19be adbe 153c e475 4ebc 977c 943d
00000010: 5654 303c 8f0c 5cbd c45e 593d 5bbe f8bd
00000020: 2662 683d eecd 583c 3b83 bbbd 81d1 043d

conv2.1.weight f4 [12]
0.98698336 0.9823269 1.0071495 0.98182 1.0132685 0.9780528 1.0282615 0.97340906
1.0664563 0.9628516 1.060698 0.97126204
00000000: f1aa 7c3f c779 7b3f 46ea 803f 8e58 7b3f
00000010: c8b2 813f ab61 7a3f 139e 833f 5631 793f
00000020: a481 883f 717d 763f f4c4 873f a1a4 783f

conv2.1.bias f4 [12]
-0.0426162 -0.05462663 0.010762229 -0.041343216 0.006580694 -0.030058438 0.017865373 0.049440295
0.049261 -0.013208958 -0.08046475 -0.048914902
00000000: 538e 2ebd 2cc0 5fbd 0f54 303c 8157 29bd
00000010: dda2 d73b 1d3d f6bc 675a 923c e881 4a3d
00000020: e7c5 493d 636a 58bc b4ca a4bd fe5a 48bd

conv2.1.running_mean f4 [12]
0.85119444 -0.53851163 -0.44665834 0.19265813 -0.9389515 -0.22283494 -0.29918325 -0.58990437
-0.6235867 0.35302696 -0.86108595 0.15119469
00000000: e1e7 593f e6db 09bf 67b0 e4be 2c48 453e
00000010: 205f 70bf d82e 64be 8c2e 99be f903 17bf
00000020: 61a3 1fbf f3bf b43e 2170 5cbf c8d2 1a3e

conv2.1.running_var f4 [12]
10.957216 10.148348 4.5098696 3.6441286 5.5579433 5.446893 2.457886 4.9740686
7.1577134 10.105118 4.635982 3.4820583
00000000: c250 2f41 a25f 2241 da50 9040 6739 6940
00000010: acda b140 f34c ae40 014e 1d40 922b 9f40
00000020: fd0b e540 90ae 2141 f759 9440 0bda 5e40

conv2.3.weight f4 [12, 12, 3]
0.081142575 -0.123548985 -0.09214842 -0.12325501 0.18354487 -0.0955368 -0.11381358 0.12888859
-0.13453756 -0.03418731 0.17704436 -0.13889869 -0.07346484 0.100347936 0.037500456 0.048635226
-0.066975206 -0.064387746 0.1411941 -0.14804664 -0.11413594 0.022618614 -0.01998723 0.028811077
-0.13712321 -0.14214414 0.030147644 0.17483518 0.13738817 0.021053106 -0.09245474 0.14529064
-0.0023547204 -0.031474624 -0.10472915 0.0038405736 0.0059750318 0.037245803 0.07021961 -0.118618675
0.026143879 -0.17699733 -0.007524582 0.24997015 -0.17958295 0.063895606 -0.11772239 -0.01671303
0.13388571 0.010534571 0.15334587 0.03655078 0.014568812 0.17095593 -0.12329307 -0.120148785
-0.034767196 0.11371711 -0.116838075 0.14733201 0.11625005 0.042848695 0.014235207 0.051354293
0.122290775 0.048154075 -0.12426264 -0.042013664 -0.08779875 0.049969573 -0.11364214 0.15600362
-0.086977415 -0.021960748 -0.07123074 -0.13045834 -0.018613914 -0.04397356 -0.19907427 -0.025750035
-0.08928266 0.039670836 -0.054689325 0.012375492 -0.16282012 0.048203215 0.009411496 0.1544553
0.12666494 -0.15403599 -0.079865105 0.075927466 -0.14697893 0.1611848 0.1578912 -0.037894983
0.06075009 -0.019163538 0.12947324 -0.06056716 -0.030394003 0.15558536 0.029400194 -0.21406898
-0.07664993 0.19707187 -0.033196345 -0.003110449 0.07722389 -0.16521199 0.03556517 0.13825299
0.071987025 0.1723488 0.12144296 -0.017304568 0.103350416 0.031817563 -0.114693545 0.12828818
0.09472782 -0.16633433 -0.052981343 0.038638096 0.058816426 -0.14204635 0.17081785 0.08379441
-0.13429752 -0.06555528 -0.16686845 -0.09758741 0.10812712 -0.0865364 -0.18523204 0.08811817
-0.04531086 -0.014086161 0.036394518 -0.084851354 -0.12117311 -0.048788596 -0.16482067 0.16323347
0.10182039 -0.00790783 -0.06520105 -0.14911975 0.104242936 0.03973812 0.083090305 0.10574134
0.12480528 -0.025388144 -0.14031963 -0.13806815 0.028572513 0.08195871 0.1227837 0.1596324
0.121170536 -0.1717695 0.17117137 0.14538409 0.059894215 0.03784468 0.1924869 0.12829046
0.0070489333 -0.15947372 0.14777328 0.0044047604 0.039598696 -0.025874954 -0.15792641 -0.10730935
0.028840365 -0.14446096 0.07806815 0.07215753 -0.041221414 0.00020535124 -0.0032399166 0.030975739
0.099182524 -0.035243075 0.044265904 -0.021439377 0.07399782 0.15167549 -0.027372586 -0.09004557
0.07624096 0.064265706 -0.09726762 -0.06660631 0.12291956 0.10088219 -0.08317831 0.09218525
0.058294773 0.038687732 -0.03497821 -0.07350767 0.110217735 -0.15280096 0.115202166 0.042483415
-0.009370855 -0.051868305 -0.09037086 -0.107887186 0.09621842 -0.093357 -0.12712808 0.084115
-0.04186982 -0.08311579 0.07253099 -0.008204055 -0.0061745215 0.022305477 0.18828885 0.07194983
-0.07920121 -0.021357644 -0.0773637 0.044639066 -0.059799604 0.11029563 -0.103214465 -0.11376213
-0.100268565 0.1653425 0.023893595 0.06072234 0.10208185 0.022110868 0.1631562 -0.08206448
0.098153114 -0.0749895 0.0038190293 0.16441143 -0.023586677 -0.0371503 -0.1890112 -0.020934721
0.09325933 -0.13282712 0.03395869 0.07786091 0.051296376 -0.08054891 0.14841688 -0.14901824
00000000: 142e a63d 4007 fdbd 50b8 bcbd 1f6d fcbd
00000010: 30f3 3b3e cca8 c3bd 1817 e9bd 5ffb 033e
00000020: 37c4 09be fe07 0cbd 1e4b 353e 753b 0ebe
00000030: bc74 96bd 3883 cd3d 149a 193d bb35 473d
00000040: 4c2a 89bd b9dd 83bd 3095 103e 8a99 17be
00000050: 1bc0 e9bd ac4a b93c 42bc a3bc 3505 ec3c
00000060: 076a 0cbe 3c8e 11be 31f8 f63c fe07 333e
00000070: 7caf 0c3e 9077 ac3c e958 bdbd 12c7 143e
00000080: a751 1abb 89eb 00bd 3d7c d6bd 22b2 7b3b
00000090: 33ca c33b 0e8f 183d 4dcf 8f3d 59ee f2bd
000000a0: b02b d63c ca3e 35be c590 f6bb 2df8 7f3e
000000b0: 98e4 37be b3db 823d 7018 f1bd c4e9 88bc
000000c0: 5619 093e 3199 2c3c b306 1d3e 45b6 153d
000000d0: 07b2 6e3c 120f 2f3e 1481 fcbd 9110 f6bd
000000e0: 0c68 0ebd 84e4 e83d cd48 efbd 34de 163e
000000f0: 8214 ee3d 1d82 2f3d c93a 693c e158 523d
00000100: 9673 fa3d 353d 453d 697d febd 8516 2cbd
00000110: d5cf b3bd e5ac 4c3d 36bd e8bd 6abf 1f3e
00000120: 3721 b2bd 07e7 b3bc 6ce1 91bd df96 05be
00000130: 357c 98bc 9f1d 34bd 20da 4bbe bdf1 d2bc
00000140: d4d9 b6bd e37d 223d ea01 60bd 93c2 4a3c
00000150: 51ba 26be bc70 453d ad32 1a3c 8829 1e3e
00000160: 74b4 013e 9cbb 1dbe 5190 a3bd dc7f 9b3d
00000170: a581 16be a10d 253e 3bae 213e c537 1bbd
00000180: 16d5 783d dafc 9cbc a294 043e 4515 78bd
00000190: d8fc f8bc c551 1f3e add8 f03c e634 5bbe
000001a0: a3fa 9cbd 35cd 493e e4f8 07bd add8 4bbb
000001b0: 8f27 9e3d 552d 29be c9ac 113d 3192 0d3e
000001c0: ef6d 933d 347c 303e 16b7 f83d 4fc2 8dbc
000001d0: 62a9 d33d 2253 023d 73e4 eabd fa5d 033e
000001e0: a900 c23d 8c53 2abe f702 59bd fb42 1e3d
000001f0: 7ee9 703d 9974 11be e0ea 2e3e 679c ab3d
00000200: 4a85 09be d941 86bd 90df 2abe e8db c7bd
00000210: c071 dd3d ff39 b1bd 78ad 3dbe 4d77 b43d
00000220: e197 39bd a4c9 66bc 6b12 153d 8cc6 adbd
00000230: 9c29 f8bd 8dd6 47bd c0c6 28be ad26 273e
00000240: 3587 d03d d88f 01bc 2188 85bd d9b2 18be
00000250: 527d d53d 70c4 223d 402b aa3d ea8e d83d
00000260: e999 ff3d ccfa cfbc f3af 0fbe bd61 0dbe
00000270: e710 ea3c f8d9 a73d 0576 fb3d ad76 233e
00000280: 4228 f83d 58e4 2fbe 8c47 2f3e 91df 143e
00000290: a353 753d 0603 1b3d 491b 453e 935e 033e
000002a0: bdfa e63b 144d 23be e151 173e cf55 903b
000002b0: 3e32 223d b6f7 d3bc 76b7 21be 01c5 dbbd
000002c0: a142 ec3c 93ed 13be 32e2 9f3d 54c7 933d
000002d0: c9d7 28bd 8e53 5739 c854 54bb d5c0 fd3c
000002e0: 3520 cb3d 0b5b 10bd 2a50 353d a2a1 afbc
000002f0: 2b8c 973d d250 1b3e 793c e0bc d069 b8bd
00000300: 3824 9c3d bd9d 833d 3f34 c7bd e468 88bd
00000310: 40bd fb3d 529b ce3d 6459 aabd 9fcb bc3d
00000320: 80c6 6e3d 0777 1e3d 5045 0fbd 308b 96bd
00000330: d6b9 e13d db77 1cbe 1def eb3d 1703 2e3d
00000340: 3788 19bc dc73 54bd 5c14 b9bd f5f3 dcbd
00000350: 2a0e c53d f431 bfbd dd2d 02be 7c44 ac3d
00000360: b07f 2bbd 9c38 aabd 218b 943d 4d6a 06bc
00000370: a453 cabb fab9 b63c cbce 403e 6f5a 933d
00000380: 3e34 a2bd 3af6 aebc dc70 9ebd 74d7 363d
00000390: 6ef0 74bd ade2 e13d 1b62 d3bd 1ffc e8bd
000003a0: 9b59 cdbd 8b4f 293e 80bc c33c fdb7 783d
000003b0: 4a10 d13d da21 b53c 6b12 273e 6c11 a8bd
000003c0: 8004 c93d 1894 99bd ae48 7a3b 785b 283e
000003d0: d938 c1bc ea2a 18bd 278c 41be 4b7f abbc
000003e0: bffe be3d d503 08be 4418 0b3d 8a75 9f3d
000003f0: 261c 523d d4f6 a4bd 98fa 173e 3d98 18be

conv2.3.bias f4 [12]
0.037284195 0.14937173 -0.04317897 -0.037794244 0.04335115 -0.15151808 0.005752028 -0.05646929
-0.02646747 0.04642385 0.13317408 0.01806414
00000000: 50b7 183d e7f4 183e 6fdc 30bd 23ce 1abd
00000010: fa90 313d 8e27 1bbe 827b bc3b 584c 67bd
00000020: 4fd2 d8bc ef26 3e3d c95e 083e 3ffb 933c

conv2.4.weight f4 [12]
0.99920017 1.0202777 1.0076845 1.0410633 0.99806124 0.9990406 1.0309064 1.0170001
1.0519396 0.9948826 1.0279567 1.0445827
00000000: 95cb 7f3f 7698 823f cefb 803f 9041 853f
00000010: f180 7f3f 20c1 7f3f bef4 833f 0f2d 823f
00000020: f5a5 863f a0b0 7e3f 1694 833f e3b4 853f

conv2.4.bias f4 [12]
-0.037475996 -0.015169779 -0.044422235 0.012987506 -0.014136185 -0.036290105 -0.014442106 0.01215988
0.012878529 -0.045161765 0.012877164 0.044377577
00000000: 6e80 19bd aa8a 78bc 17f4 35bd 8cc9 543c
00000010: 759b 67bc efa4 14bd 959e 6cbc 3c3a 473c
00000020: 7700 533c 8bfb 38bd befa 523c 43c5 353d

conv2.4.running_mean f4 [12]
-0.05786735 0.29695103 -0.17187543 -0.09615834 0.4046735 -0.09062738 0.09502891 0.16047156
0.11887373 -0.16760689 0.3365401 -0.24733475
00000000: 5006 6dbd f709 983e 1d00 30be aaee c4bd
00000010: 5d31 cf3e d99a b9bd 849e c23d a852 243e
00000020: 1274 f33d 24a1 2bbe fc4e ac3e 5245 7dbe

conv2.4.running_var f4 [12]
0.072360985 0.07378811 0.08219199 0.0800172 0.08428001 0.044383407 0.04345034 0.08820801
0.048790574 0.053427473 0.08240723 0.078545816
00000000: ff31 943d 381e 973d 4654 a83d 0fe0 a33d
00000010: ff9a ac3d 60cb 353d fcf8 313d 67a6 b43d
00000020: a0d8 473d c4d6 5a3d 1fc5 a83d a1dc a03d

conv3.0.weight f4 [12, 15, 4]
0.07562124 -0.018983075 0.042715784 0.055391435 0.03695071 -0.1258338 0.064314656 -0.070570745
-0.0685527 0.11192514 -0.0060880743 -0.019151576 -0.008544105 0.08356432 -0.0692141 0.07341726
0.01202473 -0.08618471 0.05863226 0.06946309 0.084655054 -0.017487198 0.11252757 0.008998038
0.14912169 0.028130397 0.010882239 0.05092185 0.07246947 0.026885843 0.06957961 -0.023876758
0.09593152 0.04432569 0.004317039 0.16151138 0.0015076494 -0.1620713 0.0018184518 0.031834226
-0.031486508 -0.17360096 -0.0970111 0.11089216 -0.066432334 -0.016576855 0.1141019 -0.051229764
-0.007248595 0.08077049 -0.08036757 0.086694196 0.024815567 -0.1598177 -0.020707339 0.1924544
0.063013785 -0.17465967 -0.012683677 -0.14330876 -0.11592233 0.0037163873 0.064415656 -0.018078439
-0.07381715 0.10460477 -0.10344678 -0.06027947 0.124400206 -0.10429965 0.0046777152 -0.040356763
0.06447773 -0.08664098 0.103141114 -0.100359336 0.06531433 0.02323406 -0.07512324 -0.13646835
-0.043688063 0.082722954 0.057441603 -0.15474911 0.05203126 -0.053352606 0.0045206915 0.053525552
-0.051743157 -0.053734574 -0.018397946 -0.05101315 0.022114674 0.021993184 0.020612014 -0.020319786
-0.020269759 -0.02958035 -0.010307702 0.051863927 0.007516014 -0.0038759513 -0.15045384 -0.033534348
-0.009440467 -0.10800225 -0.040262565 0.06812608 -0.13643914 0.062268686 0.15294476 -0.036962476
0.09745411 -0.14029068 -0.064827785 0.034184337 0.12692375 0.07992807 -0.09238066 -0.07538781
-0.053767942 0.000600743 0.038293354 0.044795483 -0.016410468 0.11218614 -0.0031412318 -0.024378657
-0.055771593 0.07221071 -0.047025293 0.033802383 0.04799922 -0.038255554 0.0846625 0.12702554
-0.029411254 0.03379735 0.100444935 0.0064250957 0.1340613 0.06279399 0.060418446 0.13610296
0.12854649 0.012140902 -0.042498063 0.051856928 -0.018955478 -0.085428886 -0.1876196 0.052514337
0.015528193 0.07665271 0.012971846 0.06997286 0.008582793 0.02818947 0.17331775 0.005750477
-0.09393628 0.14937513 -0.08757208 0.12534425 -0.16191483 0.117915556 0.016518576 -0.013140763
-0.06684631 0.028290516 0.010309253 -0.014676891 0.014476805 0.023948273 -0.072403684 -0.012576804
-0.18318088 -0.098362125 0.092322305 -0.014632039 -0.13352945 0.07466557 0.020280384 -0.016587444
-0.033100758 -0.0077353 0.01615 0.066694856 -0.05622599 0.0005478088 0.10465753 -0.09099095
-4.7713194e-05 -0.0694106 0.0147483945 -0.023407804 -0.05195157 -0.12112061 0.047480553 -0.107958056
0.0995474 0.042116243 0.06005707 0.026937077 0.01699463 0.09917342 -0.178169 0.09810441
0.008001202 0.07932399 0.10946601 0.13508748 0.07900819 -0.010427314 -0.117689244 0.023654811
0.08669322 0.0542944 0.06256149 0.09436403 0.009035167 0.13266014 0.18651244 -0.019378206
0.023039022 -0.18108219 -0.0726952 0.08378935 0.03457791 0.19985051 0.034284472 -0.042511553
0.12389719 0.057733677 -0.016077992 0.12450365 -0.10836382 0.05089861 0.033253174 0.09333409
0.012101106 -0.023056563 0.021229431 0.055656884 -0.003652178 0.0028057422 -0.047155473 -0.013662991
-0.071036786 -0.0022355488 0.07033077 -0.021516442 -0.012181257 -0.02071111 -0.04595953 -0.05417636
00000000: 4fdf 9a3d 6582 9bbc bff6 2e3d 21e2 623d
00000010: a159 173d 93da 00be 67b7 833d 6587 90bd
00000020: 5c65 8cbd 0239 e53d 787e c7bb c4e3 9cbc
00000030: 93fc 0bbc c523 ab3d 1fc0 8dbd ca5b 963d
00000040: 6003 453c 9c81 b0bd 6128 703d aa42 8e3d
00000050: a15f ad3d 5041 8fbc db74 e63d 826c 133c
00000060: 5bb3 183e b871 e63c 6b4b 323c 6e93 503d
00000070: e06a 943d b33f dc3c c17f 8e3d 3199 c3bc
00000080: bf77 c43d db8e 353d f375 8d3b 3d63 253e
00000090: 529c c53a 05f6 25be 1e59 ee3a 9b64 023d
000000a0: fff7 00bd 73c4 31be c1ad c6bd 6e1b e33d
000000b0: ad0d 88bd 2fcc 87bc 42ae e93d 4dd6 51bd
000000c0: 9f85 edbb 006b a53d c197 a4bd ba8c b13d
000000d0: 044a cb3c 40a7 23be 70a2 a9bc c412 453e
000000e0: 5f0d 813d fcd9 32be 32cf 4fbc 88bf 12be
000000f0: b068 edbd a28e 733b 5bec 833d 3c19 94bc
00000100: 722d 97bd 073b d63d e8db d3bd 9be7 76bd
00000110: 89c5 fe3d 0e9b d5bd 8547 993b 224d 25bd
00000120: e60c 843d d370 b1bd a63b d33d 3289 cdbd
00000130: 85c3 853d 5b55 be3c 37da 99bd 5cbe 0bbe
00000140: 41f2 32bd a76a a93d e347 6b3d 8d76 1ebe
00000150: bb1e 553d 4388 5abd 4f22 943b 9c3d 5b3d
00000160: a2f0 53bd c918 5cbd 4ab7 96bc 2af3 50bd
00000170: d529 b53c 0d2b b43c 87da a83c ae75 a6bc
00000180: c40c a6bc 7d52 f2bc a3e1 28bc 456f 543d
00000190: e548 f63b ac03 7ebb 9210 1abe 505b 09bd
000001a0: 30ac 1abc 4930 ddbd 5cea 24bd b085 8b3d
000001b0: b4b6 0bbe 730d 7f3d 8d9d 1c3e f765 17bd
000001c0: 0596 c73d 5ca8 0fbe 6ec4 84bd e004 0c3d
000001d0: 4df8 013e 54b1 a33d 1232 bdbd ed64 9abd
000001e0: c63b 5cbd 2e7b 1d3a 7ed9 1c3d 787b 373d
000001f0: 3f6f 86bc d9c1 e53d 20dd 4dbb c0b5 c7bc
00000200: c170 64bd 35e3 933d 989d 40bd 5e74 0a3d
00000210: d59a 443d dbb1 1cbd 8863 ad3d fc12 023e
00000220: dfef f0bc 176f 0a3d 13b6 cd3d 9c89 d23b
00000230: 5e47 093e 239a 803d 5579 773d 935e 0b3e
00000240: b1a1 033e a2ea 463c 7312 2ebd ee67 543d
00000250: 8548 9bbc 57f5 aebd 5a1f 40be 4619 573d
00000260: f669 7e3c 19fc 9c3d de87 543c ee4d 8f3d
00000270: d89e 0c3c 9aed e63c 357a 313e 7f6e bc3b
00000280: aa61 c0bd cbf5 183e fe58 b3bd 3e5a 003e
00000290: 00cd 25be b67d f13d f751 873c 5b4c 57bc
000002a0: b8e6 88bd 83c1 e73c 24e8 283c 5877 70bc
000002b0: 1f30 6d3c 2b2f c43c 6248 94bd f00e 4ebc
000002c0: c593 3bbe 1572 c9bd 7a13 bd3d 38bb 6fbc
000002d0: f2bb 08be 43ea 983d 0c23 a63c 64e2 87bc
000002e0: a994 07bd 6678 fdbb 014d 843c 5097 883d
000002f0: 394d 66bd d49a 0f3a b056 d63d 7759 babd
00000300: a71f 48b8 2527 8ebd 40a3 713c b9c1 bfbc
00000310: 2bcb 54bd 150e f8bd f87a 423d 1d19 ddbd
00000320: 82df cb3d 1582 2c3d 67fe 753d 25ab dc3c
00000330: 5338 8b3c 6f1b cb3d ef71 36be f7ea c83d
00000340: 7917 033c 9e74 a23d b72f e03d 5f54 0a3e
00000350: 0ccf a13d 53d7 2abc 0f07 f1bd bcc7 c13c
00000360: 378c b13d ce63 5e3d 3d20 803d ee41 c13d
00000370: 3d08 143c 0fd8 073e 1efd 3e3e 0bbf 9ebc
00000380: 55bc bc3c 9c6d 39be 39e1 94bd c099 ab3d
00000390: 91a1 0d3d 9da5 4c3e e06d 0c3d 9820 2ebd
000003a0: cfbd fd3d 267a 6c3d feb5 83bc c5fb fe3d
000003b0: daed ddbd 107b 503d 7b34 083d f225 bf3d
000003c0: b843 463c 1ee1 bcbc 58e9 ad3c 79f8 633d
000003d0: 6159 6fbb 8be0 373b 1926 41bd bdda 5fbc
000003e0: bc7b 91bd 4982 12bb 9409 903d 4043 b0bc
000003f0: e593 47bc 59aa a9bc 0f40 3cbd 08e8 5dbd

conv3.0.bias f4 [12]
-0.0026662054 -0.009720368 -0.05555892 0.09063801 0.095689245 -0.04547369 -0.11395177 0.06761911
0.10367242 -0.035917934 -0.03789595 -0.018480627
00000000: 81bb 2ebb 2e42 1fbc c091 63bd 6ca0 b93d
00000010: b9f8 c33d 9f42 3abd 8c5f e9bd e37b 8a3d
00000020: 3552 d43d af1e 13bd c938 1bbd af64 97bc

conv3.1.weight f4 [12]
1.0149575 1.0145012 0.98001933 0.98234224 1.0159786 0.99322724 0.97739565 1.0410476
1.0126141 0.9965416 0.96719027 0.98410803
00000000: 21ea 813f 2ddb 813f 8ce2 7a3f c87a 7b3f
00000010: 960b 823f 2444 7e3f 9a36 7a3f 0c41 853f
00000020: 579d 813f 5a1d 7f3f c899 773f 81ee 7b3f

conv3.1.bias f4 [12]
-0.02885263 0.0040867664 -0.035967357 -0.06713808 -0.057863552 0.03562339 -0.08758392 -0.039092194
-0.044297345 -0.08253759 0.017207608 -0.052457135
00000000: 5a5c ecbc 48ea 853b 8252 13bd b17f 89bd
00000010: 5502 6dbd d5e9 113d 335f b3bd 231f 20bd
00000020: 2271 35bd 7809 a9bd f8f6 8c3c 4bdd 56bd

conv3.1.running_mean f4 [12]
0.30343375 -0.093306735 -0.18132147 0.12943803 -0.073068246 -0.94120294 0.19810678 0.024986083
0.11653152 -0.29147828 0.276523 0.35399452
00000000: ab5b 9b3e 9a17 bfbd 56ac 39be 678b 043e
00000010: cea4 95bd adf2 70bf 81dc 4a3e 9daf cc3c
00000020: 14a8 ee3d a43c 95be 6c94 8d3e c53e b53e

conv3.1.running_var f4 [12]
4.216525 4.805661 4.9334435 5.49854 2.296745 7.6508517 7.325637 6.301557
7.1551623 5.3114614 3.4591143 7.4860883
00000000: c6ed 8640 fac7 9940 c5de 9d40 0af4 af40
00000010: dffd 1240 c7d3 f440 9e6b ea40 5ba6 c940
00000020: 17f7 e440 7ef7 a940 2162 5d40 098e ef40

conv3.3.weight f4 [12, 12, 4]
-0.033401184 -0.068351455 -0.0069336668 0.05725254 0.03467274 -0.1512988 0.0051054624 0.0071894
0.04881675 -0.022565065 -0.07804255 0.115348615 0.10309714 -0.08241805 -0.08403736 0.1064613
0.06923134 0.06563013 0.07432861 -0.16421217 -0.051573668 -0.07199193 -0.032212116 0.13382047
0.107470796 0.07058721 0.08122106 0.14409114 0.12724242 -0.16091985 -0.18027247 0.1041471
-0.107504904 -0.027583674 -0.017072326 0.09954757 -0.032775793 0.03740365 0.0028886034 0.12735018
0.0515381 0.03945483 -0.16420694 -0.0073725665 -0.026576053 -0.08035991 0.04761843 0.09440678
0.07521663 -0.072181106 0.14483608 0.124471255 -0.095738925 -0.0020927372 0.014371773 0.20783882
0.12668644 -0.07967693 -0.03321481 -0.103460476 -0.014762289 -0.06855029 -0.0974071 -0.059710123
0.03772891 0.059624344 -0.1470736 0.19031957 0.014611171 -0.05364642 -0.059534673 -0.011536033
0.00778247 -0.059781052 0.09890393 0.05253687 0.115138516 -0.1391103 0.032230377 -0.0089378655
0.0707157 -0.09906325 -0.06449449 0.106906824 -0.15159623 -0.06770054 0.021821953 0.022959784
-0.042213656 -0.14161138 -0.037739787 0.017183743 0.16398212 -0.106655724 -0.043521624 -0.111060575
-0.19340315 -0.13919607 0.05372627 0.0043063574 0.10452487 0.08070007 0.08467982 -0.074202634
0.15994214 -0.09666121 0.07771448 0.12021158 -0.074489415 0.022343641 0.09973528 -0.062227387
-0.042535562 0.105186954 0.013379191 0.083964564 0.011712514 -0.0776831 0.002687699 -0.14002286
0.067871355 -0.09272388 0.07088167 -0.13774209 0.04244216 -0.037484046 0.102235444 0.09020389
0.073541254 0.14022148 0.07980428 -0.050750077 -0.0459976 0.12715855 -0.055345025 0.090251364
-0.05554464 -0.11292962 -0.06133813 -0.05053924 -0.04148565 -0.016673004 -0.013956382 -0.061432056
0.007637478 -0.032947794 0.21386407 0.040261324 0.07071098 0.06200272 0.026644927 -0.01643522
0.060131602 0.10144966 -0.0023753738 0.1102566 -0.058331832 -0.1329664 0.072340116 -0.02715827
-0.015861848 0.10153492 0.12490825 -0.08718787 0.1660118 -0.05906673 0.06467859 -0.09115551
0.04489715 -0.075241 -0.046485458 0.10438452 -0.14359413 0.06685741 0.057835314 -0.08651407
-0.082955234 -0.07278713 -0.057935216 -0.050228067 0.05925473 0.016355557 -0.034457725 0.06550585
0.02618839 -0.06137127 0.04428493 0.078048326 -0.0126343565 0.04290717 -0.115806475 -0.023832386
-0.066447005 -0.08620501 0.097875394 0.10032903 0.08022079 0.120584056 0.068788394 0.109731615
0.006293127 0.041038223 0.03366045 0.011005886 -0.0738096 0.025994945 0.00042612373 -0.060626954
-0.12466307 -0.15086074 0.16597117 -0.08988104 0.059690703 0.05954716 0.09157577 -0.06717627
-0.005534033 -0.07155129 -0.11797462 0.06978517 -0.1776744 0.1260877 0.10228323 -0.025163425
-0.14562014 0.0168572 -0.08854651 0.0012127061 0.15618512 0.08599491 0.11807957 0.052747812
0.024927082 -0.046087008 0.026298277 0.048578523 0.077164866 -0.026735352 0.019441172 0.08109564
-0.09607517 0.043697517 0.037087522 -0.12606584 0.020365799 -0.07394852 -0.13385387 -0.11282956
0.05612717 -0.12200143 -0.07459963 0.15538326 -0.05421605 0.015023018 0.1227864 0.029849412
00000000: aecf 08bd d9fb 8bbd d033 e3bb a481 6a3d
00000010: 0105 0e3d 13ee 1abe b94b a73b 0f95 eb3b
00000020: 13f4 473d 5fda b8bc c6d4 9fbd e53b ec3d
00000030: 9824 d33d cbca a8bd c81b acbd 6208 da3d
00000040: 29c9 8d3d 1769 863d 9939 983d 3c27 28be
00000050: e93e 53bd 8170 93bd daf0 03bd 3c08 093e
00000060: a619 dc3d 0790 903d 3a57 a63d a18c 133e
00000070: d64b 023e 2cc8 24be 5999 38be 134b d53d
00000080: 882b dcbd 28f7 e1bc 43db 8bbc 99df cb3d
00000090: e93f 06bd 9234 193d b94e 3d3b 1668 023e
000000a0: 9d19 533d 639b 213d dd25 28be 9295 f1bb
000000b0: 06b6 d9bc bd93 a4bd 8b0b 433d 5858 c13d
000000c0: 2d0b 9a3d b0d3 93bd e94f 143e c9ea fe3d
000000d0: c512 c4bd 4e26 09bb 9677 6b3c b3d3 543e
000000e0: 17ba 013e a92d a3bd 410c 08bd 16e3 d3bd
000000f0: 87dd 71bc 1864 8cbd 607d c7bd 9a92 74bd
00000100: a189 1a3d a838 743d 769a 16be 22e3 423e
00000110: b163 6f3c 59bc 5bbd a1da 73bd a101 3dbc
00000120: 1704 ff3b fadc 74bd 258e ca3d e730 573d
00000130: becd eb3d ee72 0ebe 0004 043d 2070 12bc
00000140: 65d3 903d ace1 cabd b015 84bd f7f1 da3d
00000150: 0b3c 1bbe 95a6 8abd f4c3 b23c 2816 bc3c
00000160: 3ae8 2cbd 9302 11be 0995 1abd ecc4 8c3c
00000170: eeea 273e 516e dabd bb43 32bd ba73 e3bd
00000180: 7a0b 46be 6a89 0ebe 1410 5c3d 581c 8d3b
00000190: 2311 d63d 1446 a53d 9d6c ad3d 8df7 97bd
000001a0: dfc7 233e 50f6 c5bd c528 9f3d 7d31 f63d
000001b0: e88d 98bd 030a b73c 0342 cc3d 25e2 7ebd
000001c0: c539 2ebd 426c d73d 6534 5b3c 9df5 ab3d
000001d0: d8e5 3f3c 5118 9fbd 1b24 303b 2762 0fbe
000001e0: 2300 8b3d 05e6 bdbd 692a 913d 430c 0dbe
000001f0: d5d7 2d3d df88 19bd d160 d13d d1bc b83d
00000200: cc9c 963d 3896 0f3e 6d70 a33d 50df 4fbd
00000210: fb67 3cbd da35 023e 77b1 62bd b5d5 b83d
00000220: c782 63bd a547 e7bd b13d 7bbd 3c02 4fbd
00000230: dbec 29bd d395 88bc 4fa9 64bc 2ea0 7bbd
00000240: cf43 fa3b 44f4 06bd 2fff 5a3e 0fe9 243d
00000250: ebd0 903d 90f6 7d3d 7646 da3c 28a3 86bc
00000260: 8e4c 763d d7c4 cf3d 29ac 1bbb 36ce e13d
00000270: 5ced 6ebd 5828 08be 0e27 943d 057b debc
00000280: b5f0 81bc 8af1 cf3d e6cf ff3d 8e8f b2bd
00000290: fffe 293e f5ef 71bd 3576 843d bdaf babd
000002a0: 13e6 373d f417 9abd 8967 3ebd 8dc7 d53d
000002b0: 570a 13be 8aec 883d b9e4 6c3d 4a2e b1bd
000002c0: 6fe4 a9bd 6b11 95bd 7a4d 6dbd f2bb 4dbd
000002d0: 16b5 723d 17fc 853c 8b23 0dbd ee27 863d
000002e0: 0989 d63c 7160 7bbd 1d64 353d cdd7 9f3d
000002f0: 5500 4fbc 6ebf 2f3d f22b edbd 233c c3bc
00000300: 5e15 88bd 418c b0bd e572 c83d 4e79 cd3d
00000310: cc4a a43d c6f4 f63d eee0 8c3d f8ba e03d
00000320: 9336 ce3b b217 283d 8adf 093d 0852 343c
00000330: 7d29 97bd 5af3 d43c 5c69 df39 f853 78bd
00000340: 5a4f ffbd 3d7b 1abe 59f4 293e 8d13 b8bd
00000350: 3d7e 743d b9e7 733d 148c bb3d b693 89bd
00000360: d556 b5bb 7c89 92bd ad9c f1bd 87eb 8e3d
00000370: 47f0 35be 221d 013e df79 d13d 8723 cebc
00000380: 721d 15be 1c18 8a3c df57 b5bd aaf3 9e3a
00000390: feee 1f3e 191e b03d b4d3 f13d 170e 583d
000003a0: e133 cc3c bbc5 3cbd 7c6f d73c 46fa 463d
000003b0: 9d08 9e3d 1904 dbbc 1843 9f3c 7915 a63d
000003c0: 0fc3 c4bd 2bfc 323d 16e9 173d 6717 01be
000003d0: 2dd6 a63c 5272 97bd fd10 09be 2f13 e7bd
000003e0: 9ae5 653d e3db f9bd b1c7 98bd ca1c 1f3e
000003f0: a611 5ebd 1b23 763c 7077 fb3d c186 f43c

conv3.3.bias f4 [12]
0.08460081 -0.14153776 -0.051108677 -0.032295108 -0.023952734 -0.10063165 0.0019574815 0.09384612
-0.073581904 0.13229293 0.09037645 0.0017513786
00000000: 3143 ad3d 46ef 10be 5557 51bd e047 04bd
00000010: 8638 c4bc f717 cebd 1749 003b 6532 c03d
00000020: 1cb2 96bd cc77 073e 4a17 b93d 848e e53a

conv3.4.weight f4 [12]
1.0405031 1.0342841 1.0242374 1.0254906 1.031841 1.0254048 1.0330492 1.0182861
1.0308254 0.94680184 1.0369986 1.0185361
00000000: 352f 853f 6c63 843f 361a 833f 4743 833f
00000010: 5e13 843f 7740 833f f53a 843f 3357 823f
00000020: 16f2 833f 9b61 723f 5fbc 843f 645f 823f

conv3.4.bias f4 [12]
-0.0142380735 0.01945001 -0.027617477 0.007812928 0.012190862 -0.014916173 -0.031953886 -0.021236194
-0.022134637 -0.05973617 0.012947451 -0.017929401
00000000: cf46 69bc a155 9f3c 0c3e e2bc cc01 003c
00000010: 2ebc 473c f762 74bc 14e2 02bd 87f7 adbc
00000020: b353 b5bc eaad 74bd 8c21 543c aee0 92bc

conv3.4.running_mean f4 [12]
0.13735244 -0.20990418 -0.04267206 0.09949918 0.1590179 -0.16477622 0.0030819427 0.12805887
-0.13383518 -0.25570273 0.28532824 -0.02515777
00000000: 1ea6 0c3e 1ff1 56be e6c8 2ebd 3ac6 cb3d
00000010: 97d5 223e 19bb 28be 6bfa 493b dd21 033e
00000020: 170c 09be 78eb 82be 8b16 923e ab17 cebc

conv3.4.running_var f4 [12]
0.079852544 0.1665303 0.081214644 0.07941192 0.10147046 0.07264227 0.05718534 0.076763414
0.07652105 0.19274001 0.063874155 0.08244776
00000000: bb89 a33d eb86 2a3e dd53 a63d b7a2 a23d
00000010: bfcf cf3d 78c5 943d 2d3b 6a3d 2336 9d3d
00000020: 11b7 9c3d a35d 453e 74d0 823d 5fda a83d
