model/AutoY/T1Dcheckpoint4.pt (torch, 34275 bytes, 51 tensors)

conv1.0.weight f4 [12, 15, 2]
0.11194524 0.17024037 0.029860614 0.17013532 0.009483358 0.16658893 0.02146291 -0.11916299
0.15528053 0.04099179 0.027608484 -0.07393973 0.15785514 -0.07130091 -0.18455738 0.021472618
0.0678773 -0.12641637 -0.061619747 -0.12861255 0.13017625 0.05314879 -0.15561357 -0.0582379
-0.18568367 -0.10412983 0.0572128 0.039381914 -0.04905763 -0.044599712 -0.124858506 0.04528278
-0.02067391 0.061385505 -0.19856262 -0.09578633 -0.06311152 0.14178891 -0.14403807 -0.021259833
0.0063312254 -0.05891331 0.12352374 0.15143964 -0.15333356 -0.040909655 0.06482526 0.17841439
0.13962038 0.00056143024 -0.09607175 0.18917365 -0.2384222 -0.17498215 -0.12890495 -0.10822186
0.10792305 -0.14552638 0.080161214 0.18840744 -0.02727828 0.14596829 0.13595518 0.03192089
0.2170635 -0.027925238 0.06577778 0.028381838 0.07491167 -0.09387365 0.013815835 0.053518284
0.05929437 0.12537675 0.007875265 -0.19312505 0.032721568 -0.09224184 0.13022617 0.04474488
-0.08757932 0.12931219 -0.105830155 0.24919803 -0.19442655 -0.16299246 0.1382281 -0.13088092
-0.06738426 -0.052076563 0.1560376 0.14678827 0.002026796 -0.10638378 -0.13670349 -0.17994526
0.043271106 0.14407657 -0.006634275 0.013518563 -0.05107807 -0.048239533 -0.23011425 0.19010215
-0.13826297 0.052699473 0.07466143 -0.15223634 0.026241355 0.08701958 0.07371822 0.20356242
-0.041610338 -0.124052055 -0.1565707 0.15443684 -0.14389272 0.030639455 0.17701797 0.025749251
0.09869384 -0.049657315 -0.010741659 -0.13668106 0.005254082 -0.17745142 -0.19428274 0.03273459
0.02846547 0.10614344 0.11471343 -0.0646717 0.14204672 0.05204927 -0.12445455 -0.007670862
0.12183859 -0.029257411 -0.09372844 0.024465527 0.11545712 0.12251198 0.11699204 0.061464272
0.10091219 0.05671436 -0.027987 0.010358204 -0.04194278 0.069551125 0.08468652 0.075495474
0.14237325 0.034794834 -0.1376804 -0.14032891 -0.018064385 0.0847845 0.060345773 0.06972391
0.08593251 0.07830244 -0.054522578 -0.022697324 0.22606002 -0.011544954 0.14845778 -0.14517635
0.040063202 -0.07512827 0.16339867 0.10610482 -0.1049851 0.09934458 -0.07675339 -0.10082813
-0.06828796 -0.19843079 0.12982304 -0.016662436 0.017190438 -0.10835171 0.089551784 0.1643739
0.13299334 0.030432692 0.09521613 -0.19237404 -0.047111344 0.015091294 -0.11440633 0.099821806
-0.13056222 0.0728517 -0.102447055 -0.09252221 -0.09535397 -0.073419444 0.12764283 -0.04173876
-0.20793836 -0.11852568 0.083360754 0.08636198 0.025317648 0.11870352 0.04666537 -0.1876966
-0.0158333 -0.2032504 -0.13118728 -0.18142654 0.1412171 0.019578366 -0.10638233 -0.1504284
-0.050208114 0.14099976 -0.052742846 -0.013021265 -0.024291128 -0.13106258 -0.010082581 0.11026645
0.08271403 0.07961641 -0.17757726 -0.1058668 0.07921726 -0.042695705 -0.09717133 -0.054035444
-0.096982196 0.062430494 0.079100125 -0.009090719 -0.10563366 -0.07745477 0.08306143 -0.11754506
0.10670905 -0.15144326 0.07906356 0.00021422762 -0.1403671 0.085301176 0.102895185 0.1376982
-0.05418463 0.07285786 -0.06747586 -0.12922168 -0.034649156 0.17453106 0.059699003 -0.10322385
00000000: 8c43 e53d 7e53 2e3e 3f9e f43c f437 2e3e
00000010: 1660 1b3c 4a96 2a3e fcd2 af3c ba0b f4bd
00000020: dc01 1f3e 02e7 273d 302b e23c b76d 97bd
00000030: c7a4 213e 3606 92bd 9cfc 3cbe 58e7 af3c
00000040: 4103 8b3d 4b73 01be fd64 7cbd 02b3 03be
00000050: ec4c 053e 8cb2 593d 2a59 1fbe dd8a 6ebd
00000060: dc23 3ebe 0542 d5bd f857 6a3d ee4e 213d
00000070: a7f0 48bd 30ae 36bd d1b5 ffbd 707a 393d
00000080: 555c a9bc 5e6f 7b3d 0054 4bbe a02b c4bd
00000090: 9d40 81bd 1d31 113e b77e 13be 1a29 aebc
000000a0: 2b76 cf3b 154f 71bd 04fa fc3d fe12 1b3e
000000b0: 7903 1dbe e290 27bd 1bc3 843d 43b2 363e
000000c0: a5f8 0e3e f22c 133a 44c1 c4bd bdb6 413e
000000d0: f324 74be 852e 33be a9ff 03be 6ca3 ddbd
000000e0: c306 dd3d de04 15be 902b a43d e1ed 403e
000000f0: b376 dfbc b678 153e d637 0b3e 7bbf 023d
00000100: e545 5e3e 78c3 e4bc 80b6 863d 0781 e83c
00000110: 4a6b 993d d440 c0bd d05b 623c fd35 5b3d
00000120: a7de 723d c362 003e 4107 013c 93c2 45be
00000130: 0d07 063d 4ae9 bcbd 025a 053e 6846 373d
00000140: c95c b3bd 6a6a 043e 7bbd d8bd c52d 7f3e
00000150: c117 47be 7fe7 26be ab8b 0d3e a605 06be
00000160: c200 8abd 3c4e 55bd 52c8 1f3e aa4f 163e
00000170: ffd3 043b bddf d9bd 00fc 0bbe 9243 38be
00000180: 0b3d 313d cf88 133e 5564 d9bb f67c 5d3c
00000190: 3d37 51bd d196 45bd 12a3 6bbe 23aa 423e
000001a0: cf94 0dbe 67db 573d 18e8 983d d8e3 1bbe
000001b0: 1cf8 d63c 5237 b23d 94f9 963d ab72 503e
000001c0: 9a6f 2abd 010f febd 1254 20be b124 1e3e
000001d0: 9d58 13be 98ff fa3c 3344 353e 18f0 d23c
000001e0: ff1f ca3d 7865 4bbd c9fd 2fbc 1ff6 0bbe
000001f0: 6f2a ac3b d3b5 35be 0ef2 46be b514 063d
00000200: 6b30 e93c bb61 d93d e0ee ea3d 9972 84bd
00000210: b274 113e 9e31 553d 07e2 febd db5b fbbb
00000220: 8386 f93d 3dad efbc b2f4 bfbd ee6b c83c
00000230: c874 ec3d 90e7 fa3d 8699 ef3d f6c1 7b3d
00000240: 0dab ce3d 514d 683d fe44 e5bc 75b5 293c
00000250: 31cc 2bbd d270 8e3d 2070 ad3d 5f9d 9a3d
00000260: 4bca 113e 0785 0e3d 17fc 0cbe 62b2 0fbe
00000270: c3fb 93bc 7fa3 ad3d 212d 773d 69cb 8e3d
00000280: 62fd af3d 085d a03d 1153 5fbd bdef b9bc
00000290: 477c 673e 0c27 3dbc 5105 183e 1ca9 14be
000002a0: 5019 243d dadc 99bd fb51 273e 7c4d d93d
000002b0: 6e02 d7bd 2c75 cb3d e230 9dbd fb7e cebd
000002c0: 8fda 8bbd 7131 4bbe 55f0 043e a97f 88bc
000002d0: f6d2 8c3c 80e7 ddbd ed66 b73d a251 283e
000002e0: 682f 083e fb4d f93c ad00 c33d b3fd 44be
000002f0: d3f7 40bd 7a41 773c de4d eabd 606f cc3d
00000300: 1ab2 05be 4633 953d c3cf d1bd 497c bdbd
00000310: f148 c3bd ef5c 96bd cdb4 023e 43f6 2abd
00000320: cbed 54be 97bd f2bd 0bb9 aa3d 8dde b03d
00000330: f566 cf3c d51a f33d 3024 3f3d 8a33 40be
00000340: d6b4 81bc df20 50be f555 06be e1c7 39be
00000350: 379b 103e cf62 a03c fbde d9bd e709 1abe
00000360: 06a7 4dbd 3e62 103e e208 58bd 2557 55bc
00000370: 30fe c6bc 4535 06be 6931 25bc 60d3 e13d
00000380: f965 a93d ee0d a33d d0d6 35be b1d0 d8bd
00000390: a93c a23d b1e1 2ebd c301 c7bd 4554 5dbd
000003a0: 9a9e c6bd 1eb7 7f3d 3fff a13d 3df1 14bc
000003b0: 7656 d8bd 9ba0 9ebd 1c1c aa3d 77bb f0bd
000003c0: 468a da3d f113 1bbe 13ec a13d 4aa2 6039
000003d0: 65bc 0fbe 62b2 ae3d b6ba d23d c200 0d3e
000003e0: b4f0 5dbd 8036 953d c930 8abd b052 04be
000003f0: 46ec 0dbd 45b8 323e f186 743d 0767 d3bd

conv1.0.bias f4 [12]
0.16247587 -0.1015738 -0.1660615 0.16274516 -0.12777424 0.17330366 -0.15108053 -0.1373113
-0.13628517 -0.0438586 0.019785065 0.034628797
00000000: 1360 263e ed05 d0bd 070c 2abe aba6 263e
00000010: 40d7 02be 8476 313e dbb4 1abe 559b 0cbe
00000020: 578e 0bbe 13a5 33bd 4a14 a23c edd6 0d3d

conv1.1.weight f4 [12]
0.9813754 0.994096 1.0186868 1.0368929 1.0099984 1.0209422 1.0085752 0.9753097
0.9464708 1.0360438 0.96399194 0.99313897
00000000: 6b3b 7b3f 137d 7e3f 5464 823f e8b8 843f
00000010: a147 813f 3cae 823f fe18 813f e6ad 793f
00000020: e94b 723f 159d 843f 2dc8 763f 5b3e 7e3f

conv1.1.bias f4 [12]
0.015653582 -0.09029161 -0.030450867 0.013205244 -0.0010487196 -0.04979968 -0.042547323 -0.016363554
0.017982505 0.0052258787 -0.09224273 -0.02204539
00000000: f13b 803c cfea b8bd 1974 f9bc cf5a 583c
00000010: 3175 89ba c0fa 4bbd 1a46 2ebd dc0c 86bc
00000020: 0c50 933c d93d ab3b c2e9 bcbd 8998 b4bc

conv1.1.running_mean f4 [12]
0.88116366 -0.62705004 0.20827715 0.106119625 -0.4171146 0.2708726 0.20403458 -0.66270906
-0.23574573 -0.7288645 -0.018494723 -0.4162413
00000000: f193 613f 5a86 20bf 9b46 553e 3f55 d93d
00000010: 0b90 d5be d0af 8a3e 71ee 503e 4da7 29bf
00000020: 5467 71be dd96 3abf 3f82 97bc 941d d5be

conv1.1.running_var f4 [12]
9.790528 4.416803 7.0220366 6.348304 3.9067895 4.2160482 4.6144004 9.779187
6.7429113 5.9928555 7.6816883 4.4423995
00000000: 01a6 1c41 7356 8d40 86b4 e040 4e25 cb40
00000010: d708 7a40 dee9 8640 2ba9 9340 8d77 1c41
00000020: eec5 d740 79c5 bf40 64d0 f540 2328 8e40

conv1.3.weight f4 [12, 12, 2]
0.08111317 0.08193819 0.0028275591 -0.083336495 0.01635099 0.013134606 -0.014235397 0.07468085
-0.124719925 -0.04004878 0.23049583 0.030003153 0.109855406 0.18717013 0.17126633 -0.1693535
-0.15723002 -0.014642812 0.2635396 -0.09736891 0.14212969 0.036636095 0.0036550865 -0.05967718
0.19537517 -0.038629014 0.18482654 0.0391939 -0.05779105 -0.12037776 0.08885103 -0.0073164813
0.032568093 -0.05317509 0.011160121 0.08295283 0.14624465 -0.08987305 -0.010510317 -0.11524708
-0.08028185 -0.006548392 -0.06937119 -0.07927612 -0.10036213 0.14340283 0.04339912 0.043066826
0.13370718 0.046185024 0.11572906 0.14048052 -0.12930913 -0.14666836 0.18602437 0.071264036
-0.21675347 0.11936435 -0.11834818 -0.0028716165 -0.09219164 0.07210635 -0.06904152 -0.0020855092
0.18513347 0.07640788 0.14302649 0.13361253 0.028189093 0.08494821 -0.22777264 0.18097503
-0.12687306 -0.006119906 -0.051653013 0.07034986 0.111141585 0.029658992 -0.119304046 0.15979706
-0.019950138 0.089467 -0.0955114 0.006359084 0.09872202 0.10982895 -0.09123243 0.14418435
0.099276006 -0.2173511 0.048780844 -0.14314526 -0.088175245 0.06484893 0.13060397 0.06009762
0.03202975 -0.16740334 0.1376127 0.08286144 -0.015304968 -0.06263075 -0.23040873 0.07499407
-0.028529966 -0.0060159764 -0.18455954 -0.17943636 -0.10450517 -0.054764755 0.19157273 -0.076158725
0.021296645 0.0019105237 -0.04820605 -0.04814468 0.090182334 -0.17779694 -0.16391245 -0.17441286
0.068237804 -0.012334526 -0.20394109 0.14926986 -0.1329959 -0.1287872 0.039023217 -0.00045377854
0.006662028 0.025896667 0.19262594 -0.08162757 0.16432486 0.18545473 -0.15583582 -0.084998265
-0.00092176767 0.0056504067 0.005491349 0.015467658 -0.20807406 0.22033295 0.06511478 0.15311466
-0.14788224 -0.006167909 -0.13190109 -0.22817816 0.0889359 0.016688082 0.20326917 0.019865738
0.010958758 0.038772177 0.15713829 0.099488825 0.085266605 0.20276995 -0.112020664 0.065993845
-0.012269301 0.13638285 0.17984188 -0.09365611 0.040898457 0.14828004 -0.081738204 0.02053596
0.14696537 0.17290777 0.13675542 0.000227009 -0.13124096 -0.21662058 -0.118114285 0.121839955
-0.18773752 0.17695759 0.122229755 -0.21067786 -0.04911081 -0.123039514 0.0970295 0.024580412
0.101907775 0.047566283 -0.06062748 -0.051751133 -0.047994513 0.108331986 -0.13811502 0.0917866
0.0024123867 0.07335134 0.07890552 0.04119344 0.066544265 -0.048270203 0.20185715 -0.11469545
0.10449421 -0.0897748 0.17969613 -0.1690247 0.00415521 -0.09117447 0.070015885 0.07303333
0.14229599 -0.101484045 0.07186392 0.13249582 0.20522815 -0.12674801 0.1518898 -0.052044198
0.13973467 -0.085220635 0.0032919166 -0.055671927 -0.07665631 -0.016130826 0.008157509 0.1338586
-0.09800038 -0.08467576 0.24207148 -0.06531852 0.08189905 -0.17202629 0.029052278 -0.0010508079
-0.076789156 0.08008283 0.24271227 0.101885065 -0.0374024 0.041782886 0.12141494 -0.15030192
-0.08518246 -0.09118517 0.09594658 -0.055927735 -0.017933918 0.052422617 0.07996455 -0.18533374
0.16746998 0.06457728 0.18508253 0.11627115 0.16082253 -0.14655288 0.17895678 0.10115729
00000000: a91e a63d 36cf a73d 924e 393b 53ac aabd
00000010: 83f2 853c 8832 573c 953b 69bc 46f2 983d
00000020: 296d ffbd 310a 24bd 1907 6c3e 2cc9 f53c
00000030: dffb e03d 87a9 3f3e 7160 2f3e 016b 2dbe
00000040: e800 21be 68e8 6fbc aaee 863e 5a69 c7bd
00000050: 728a 113e bb0f 163d 2d8a 6f3b 0f70 74bd
00000060: 6e10 483e 7539 1ebd 2b43 3d3e c889 203d
00000070: 4fb6 6cbd 9d88 f6bd 87f7 b53d 18bf efbb
00000080: 1f66 053d 20ce 59bd f1d8 363c 2ce3 a93d
00000090: 28c1 153e 5d0f b8bd 7733 2cbc a906 ecbd
000000a0: d06a a4bd e593 d6bb 7c12 8ebd 855b a2bd
000000b0: a98a cdbd 31d8 123e 47c3 313d d766 303d
000000c0: 89ea 083e 822c 3d3d 5b03 ed3d 20da 0f3e
000000d0: 9d69 04be 3b30 16be 2c7d 3e3e e1f2 913d
000000e0: 9ff4 5dbe 4c75 f43d 8860 f2bd bb31 3cbb
000000f0: f8ce bcbd 7eac 933d a465 8dbd 0aad 08bb
00000100: a193 3d3e bc7b 9c3d 8975 123e b9d1 083e
00000110: d0ec e63c 54f9 ad3d 3b3d 69be 8551 393e
00000120: 03eb 01be 7e89 c8bb 1c92 53bd 9613 903d
00000130: 339e e33d 6af7 f23c ae55 f4bd d7a1 233e
00000140: 796e a3bc 793a b73d 7b9b c3bd dd5f d03b
00000150: c52e ca3d 00ee e03d 11d8 babd 10a5 133e
00000160: 3851 cb3d 4991 5ebe 6cce 473d ac94 12be
00000170: 3995 b4bd 84cf 843d 0cbd 053e ec28 763d
00000180: a131 033d c86b 2bbe 58ea 0c3e 42b3 a93d
00000190: b0c1 7abc 8d44 80bd 44f0 6bbe 7e96 993d
000001a0: adb7 e9bc ab21 c5bb 2dfd 3cbe 2abe 37be
000001b0: ce06 d6bd 0251 60bd a42b 443e 1bf9 9bbd
000001c0: 4d76 ae3c 8a6a fa3a b573 45bd 5b33 45bd
000001d0: 84b1 b83d 6710 36be aad8 27be 4999 32be
000001e0: 43c0 8b3d c016 4abc efd5 50be 33da 183e
000001f0: 1430 08be cbe0 03be cfd6 1f3d 20e9 edb9
00000200: 244d da3b 3f25 d43c bc3f 453e 5b2c a7bd
00000210: c744 283e d8e7 3d3e 6d93 1fbe 9213 aebd
00000220: c8a2 71ba 0c27 b93b c6f0 b33b 0f6c 7d3c
00000230: 5e11 55be f69e 613e e65a 853d 17ca 1c3e
00000240: 716e 17be 2c1c cabb 1411 07be 89a7 69be
00000250: 0624 b63d 72b5 883c cb25 503e 79bd a23c
00000260: 5d8c 333c 93cf 1e3d dce8 203e ccc0 cb3d
00000270: 42a0 ae3d eda2 4f3e 176b e5bd c827 873d
00000280: 2e05 49bc f2a7 0b3e 7828 383e c6ce bfbd
00000290: 2485 273d b9d6 173e 5c66 a7bd 083b a83c
000002a0: 177e 163e bc0e 313e 9d09 0c3e 4409 6e39
000002b0: 0864 06be c9d1 5dbe e7e5 f1bd 3a87 f93d
000002c0: 443e 40be 5f34 353e 9853 fa3d f0bb 57be
000002d0: 6b28 49bd 24fc fbbd 67b7 c63d dc5c c93c
000002e0: 06b5 d03d ddd4 423d 8554 78bd fff8 53bd
000002f0: e595 44bd 29dd dd3d 066e 0dbe 9dfa bb3d
00000300: 2219 1e3b 3a39 963d 3899 a13d 74ba 283d
00000310: 5c48 883d fab6 45bd a4b3 4e3e 73e5 eabd
00000320: 0f01 d63d dadb b7bd 4302 383e d014 2dbe
00000330: 6e28 883b aeb9 babd 7d64 8f3d 8092 953d
00000340: 0ab6 113e ded6 cfbd 642d 933d fcac 073e
00000350: 5427 523e 3bca 01be 0089 1b3e 4c2c 55bd
00000360: 9b16 0f3e 2888 aebd 32bd 573b 3f08 64bd
00000370: fcfd 9cbd cb24 84bc 13a7 053c 3b12 093e
00000380: 6cb4 c8bd 7c6a adbd 96e1 773e b7c5 85bd
00000390: b0ba a73d a927 30be 0bff ed3c 43bb 89ba
000003a0: a243 9dbd 7702 a43d 9189 783e 1ea9 d03d
000003b0: 4233 19bd 8824 2b3d 65a8 f83d bfe8 19be
000003c0: 2474 aebd 4abf babd a47f c43d 7b14 65bd
000003d0: 27ea 92bc 19b9 563d 74c4 a33d 21c8 3dbe
000003e0: 407d 2b3e 1841 843d 4686 3d3e 921f ee3d
000003f0: a9ae 243e f511 16be 7240 373e 8e2b cf3d

conv1.3.bias f4 [12]
0.16140193 -0.101689726 -0.13677 0.08158076 0.10480937 0.07901054 -0.09732543 -0.1276832
0.10311832 -0.121166945 -0.0021498052 0.18427674
00000000: 8c46 253e b442 d0bd 6f0d 0cbe d013 a73d
00000010: 4ca6 d63d 47d0 a13d 8e52 c7bd 63bf 02be
00000020: b32f d33d 6026 f8bd bfe3 0cbb 0bb3 3c3e

conv1.4.weight f4 [12]
0.99500924 1.0148624 0.99493647 1.0238513 1.027627 0.9916583 0.99871135 1.0095003
1.0219016 1.005144 1.0187091 0.9855963
00000000: edb8 7e3f 03e7 813f 28b4 7e3f 8f0d 833f
00000010: 4889 833f 51dd 7d3f 8cab 7f3f 4e37 813f
00000020: accd 823f 8fa8 803f 0f65 823f 0a50 7c3f

conv1.4.bias f4 [12]
-0.018823763 0.017941466 -0.01819812 0.002486966 0.069594495 -0.02077126 -0.018352792 -0.044067126
0.017957134 -0.019629296 0.017948631 -0.061917286
00000000: 4b34 9abc fbf9 923c 3914 95bc 5efc 223b
00000010: 8f87 8e3d 7d28 aabc 9858 96bc bb7f 34bd
00000020: d71a 933c 9ecd a0bc 0209 933c fb9c 7dbd

conv1.4.running_mean f4 [12]
0.3971816 -0.053861197 0.11002407 0.17098685 -0.28097937 0.17739713 0.14782597 -0.13453063
0.3859033 0.009810838 0.21658868 0.016838333
00000000: 635b cb3e 8f9d 5cbd 4d54 e13d 2d17 2f3e
00000010: 87dc 8fbe 98a7 353e b15f 173e 66c2 09be
00000020: 1e95 c53e a3bd 203c 6cc9 5d3e 8bf0 893c

conv1.4.running_var f4 [12]
0.1551325 0.05032246 0.11268602 0.07261587 0.22248535 0.10581137 0.20882593 0.06502438
0.18091367 0.10678824 0.12369664 0.108482145
00000000: 0edb 1e3e ec1e 4e3d eec7 e63d a1b7 943d
00000010: 33d3 633e a2b3 d83d 77d6 553e 812b 853d
00000020: 6f41 393e cbb3 da3d aa54 fd3d e32b de3d

conv2.0.weight f4 [12, 15, 3]
-0.070571 0.059716698 -0.10352527 -0.049733125 -0.05718664 -0.04141553 0.014399183 0.08608
0.054065906 0.026308913 -0.06660815 -0.16542713 -0.06496587 -0.06816084 -0.10535854 -0.08050975
-0.033523094 -0.047292676 -0.14925526 0.18921399 0.12807593 0.14772612 0.07913616 0.025107982
-0.08056741 -0.061709788 0.08758773 -0.05975419 -0.08075103 0.041533038 -0.1752544 -0.036229834
-0.10667192 -0.021253165 0.08488417 -0.15976775 -0.13033742 0.062868915 -0.09269442 0.0049704644
-0.08465048 0.044073787 0.12925164 0.058839396 0.17878276 0.09582792 0.14013594 0.06244165
0.1361516 0.018321032 -0.057267237 0.0668427 -0.020350268 0.08125189 0.02695596 -0.007948617
-0.19219054 -0.054241527 -0.043191567 0.14800441 -0.005735665 0.07746207 -0.035684574 0.054166757
-0.06740999 -0.07721352 -0.10134763 -0.005058083 0.008275757 -0.07175784 -0.16994987 0.061857406
0.1384759 -0.0034572044 -0.07782152 0.06800877 -0.040727526 0.18411598 -0.008903078 -0.026450597
0.0064764046 -0.18804249 -0.059487965 0.008286774 -0.10760923 0.06834008 -0.18073237 -0.084602624
0.12633134 -0.16718973 0.15110254 -0.01469098 0.14631791 -0.0052693067 -0.09630287 -0.0552182
0.023605326 -0.111621775 -0.010281104 -0.1321514 0.047475256 0.15302616 -0.095720924 0.12761272
-0.07309843 0.10648158 0.03941368 0.09318312 -0.117366 -0.08668371 0.12922002 0.013826835
-0.04014064 -0.082202226 0.03548918 -0.050574962 0.104253754 -0.09359348 -0.09036249 0.051237702
-0.027596647 0.13969898 -0.08540286 -0.09200017 0.07420059 0.09719077 0.056215152 -0.04243358
0.09360139 -0.07284757 0.033336047 -0.13839841 0.25799993 0.10295135 -0.0066443454 0.0058201607
-0.12328825 -0.04831906 0.123274535 0.010498314 -0.043313578 0.04802674 0.11791345 0.18581313
-0.043654773 0.017257597 -0.10823793 -0.09276351 -0.011288946 0.00036430138 0.02619043 -0.05727105
0.039262306 0.17556407 0.047028244 0.06919925 -0.080388606 0.012684689 -0.086528614 0.05606416
-0.112396084 0.030530766 0.17312355 0.019432709 0.090635166 0.07340304 0.1414158 -0.16388157
-0.13030145 -0.18769886 -0.095411226 -0.16225018 -0.09798025 -0.049238272 -0.11394875 -0.13856217
-0.10023731 0.076391675 0.07543485 0.000501839 -0.028976038 0.09255692 0.004547094 0.044463355
0.1072455 0.04402262 0.02182045 -0.08446116 -0.122180544 -0.10541963 -0.07014697 0.09159514
-0.015948215 -0.15227374 -0.06554459 0.011489876 0.021077504 0.032431938 0.07339087 0.08493363
0.0483382 0.10251674 0.08045647 0.0055554598 -0.015861351 0.17813592 0.057703648 0.15996864
-0.1127953 0.16128841 0.12958284 -0.068475686 0.10322012 0.055307273 -0.09367378 -0.023634909
0.0003400289 0.0707506 0.0049521327 -0.15786038 -0.05910038 -0.084262505 -0.013767196 0.04692185
-0.03239553 0.04235402 -0.09016827 0.11374148 0.08541511 0.11544546 0.05558803 -0.024198089
0.07686964 0.07948552 -0.09798594 0.12051688 -0.049947727 0.008685212 -0.0835319 -0.085211106
-0.07195688 -0.13467348 0.10528212 -0.113123134 0.0051610256 -0.16407664 -0.07225852 -0.16463944
-0.009018236 -0.0016206827 0.06270355 0.12034231 -0.05844708 0.014191855 -0.051396843 -0.0045339135
00000000: 8787 90bd 7f99 743d 0f05 d4bd f6b4 4bbd
00000010: 8a3c 6abd 55a3 29bd 8dea 6b3c b64a b03d
00000020: 3674 5d3d ca85 d73c db69 88bd bb65 29be
00000030: d30c 85bd e997 8bbd 38c6 d7bd 4ce2 a4bd
00000040: 834f 09bd f7b5 41bd 5fd6 18be 50c1 413e
00000050: 5626 033e 8445 173e 2412 a23d 41af cd3c
00000060: 8700 a5bd 67c3 7cbd 3261 b33d cfc0 74bd
00000070: cc60 a5bd 8c1e 2a3d e475 33be bc65 14bd
00000080: cf76 dabd 1e1b aebc c0d7 ad3d 289a 23be
00000090: 2c77 05be 6bc1 803d 92d6 bdbd 47df a23b
000000a0: 3b5d adbd b786 343d 8b5a 043e 9401 713d
000000b0: d412 373e 6e41 c43d cc7f 0f3e d1c2 7f3d
000000c0: 536b 0b3e fd15 963c 0d91 6abd d3e4 883d
000000d0: 9bb5 a6bc 6467 a63d bfd2 dc3c eb3a 02bc
000000e0: 99cd 44be 5d2c 5ebd a4e9 30bd 788e 173e
000000f0: 3ff2 bbbb 6fa4 9e3d fd29 12bd f6dd 5d3d
00000100: 400e 8abd 1f22 9ebd 598f cfbd 47be a5bb
00000110: 0a97 073c c6f5 92bd 5707 2ebe 315e 7d3d
00000120: a0cc 0d3e 4492 62bb e460 9fbd 2f48 8b3d
00000130: e8d1 26bd e688 3c3e 37de 11bc ecae d8bc
00000140: 0538 d43b 368e 40be a7a9 73bd 40c5 073c
00000150: 3a62 dcbd e2f5 8b3d e811 39be 2444 adbd
00000160: 015d 013e c933 2bbe a0ba 1a3e 70b2 70bc
00000170: 5dd4 153e 26aa acbb 703a c5bd 7b2c 62bd
00000180: f55f c13c f599 e4bd 1372 28bc b252 07be
00000190: 6a75 423d e4b2 1c3e 5509 c4bd e9ac 023e
000001a0: a1b4 95bd 0413 da3d 3d70 213d cbd6 be3d
000001b0: 965d f0bd 3b87 b1bd 4152 043e f389 623c
000001c0: 836a 24bd a459 a8bd 1a5d 113d b127 4fbd
000001d0: fe82 d53d f0ad bfbd f80f b9bd a0de 513d
000001e0: 5d12 e2bc 400d 0f3e b2e7 aebd 966a bcbd
000001f0: 7bf6 973d f40b c73d dc41 663d d5ce 2dbd
00000200: 16b2 bf3d 1b31 95bd 618b 083d 50b8 0dbe
00000210: 9118 843e 28d8 d23d cfb8 d9bb 0cb7 be3b
00000220: 8d7e fcbd 35ea 45bd 5c77 fc3d 1f01 2c3c
00000230: 9469 31bd b0b7 443d 9b7c f13d cc45 3e3e
00000240: 59cf 32bd ce5f 8d3c d9ab ddbd ccfa bdbd
00000250: 45f5 38bc b4ff be39 508d d63c 0c95 6abd
00000260: 83d1 203d 11c7 333e b0a0 403d 56b8 8d3d
00000270: c8a2 a4bd 71d3 4f3c ea35 b1bd 88a3 653d
00000280: eb2f e6bd a81b fa3c 4d47 313e 5831 9f3c
00000290: ee9e b93d 5554 963d 4ecf 103e 92d0 27be
000002a0: be6d 05be 2134 40be f666 c3bd e924 26be
000002b0: dfa9 c8bd 12ae 49bd f65d e9bd 3ee3 0dbe
000002c0: 3849 cdbd 3d73 9c3d 967d 9a3d d88d 033a
000002d0: 285f edbc 7c8e bd3d caff 943b 351f 363d
000002e0: 87a3 db3d 1051 343d cdc0 b23c f9f9 acbd
000002f0: cb39 fabd 3fe6 d7bd 37a9 8fbd 3c96 bb3d
00000300: d5a5 82bc a6ed 1bbe 3e3c 86bd 0840 3c3c
00000310: bbaa ac3c 5ad7 043d f44d 963d aff1 ad3d
00000320: 47fe 453d 4cf4 d13d 5dc6 a43d 930a b63b
00000330: aaef 81bc 4369 363e a95a 6c3d d2ce 233e
00000340: 3901 e7bd ca28 253e 5db1 043e fb3c 8cbd
00000350: 1265 d33d e189 623d 0ad8 bfbd ff9d c1bc
00000360: e845 b239 b1e5 903d 8045 a23b 27a6 21be
00000370: 3d13 72bd d291 acbd ce8f 61bc 2031 403d
00000380: 2db1 04bd 697b 2d3d 24aa b8bd 4bf1 e83d
00000390: 1eee ae3d ab6e ec3d 46b0 633d 123b c6bc
000003a0: d46d 9d3d 4ec9 a23d daac c8bd 8ed1 f63d
000003b0: fd95 4cbd 6b4c 0e3c c612 abbd 2983 aebd
000003c0: 215e 93bd d8e7 09be 279e d73d 1aad e7bd
000003d0: d21d a93b b503 28be 46fc 93bd 3e97 28be
000003e0: 39c1 13bc 166d d4ba b86a 803d 0776 f63d
000003f0: 3566 6fbd f484 683c 7f85 52bd 3991 94bb

conv2.0.bias f4 [12]
-0.049790405 0.026613291 0.030994732 0.07125363 -0.05389329 -0.08017112 -0.1555461 -0.041015126
0.012387096 -0.060911167 0.07480886 0.0722757
00000000: 06f1 4bbd 1e04 da3c aae8 fd3c 6ced 913d
00000010: 36bf 5cbd c230 a4bd 7a47 1fbe 7aff 27bd
00000020: 3ff3 4a3c fd7d 79bd 6335 993d 4805 943d

conv2.1.weight f4 [12]
1.0321163 0.962269 1.0462478 1.0013351 0.9718835 0.99701124 1.0184357 0.9995939
0.97879785 1.0122602 0.9484391 1.0276129
00000000: 631c 843f 4357 763f 73eb 853f c02b 803f
00000010: 5bcd 783f 213c 7f3f 1a5c 823f 63e5 7f3f
00000020: 7f92 7a3f be91 813f e8cc 723f d288 833f

conv2.1.bias f4 [12]
0.0044625453 -0.04530949 0.031990517 -0.029199623 -0.05342491 -0.09045663 -0.024738422 -0.011169144
-0.014465907 -0.0051506236 -0.09581018 -0.04379783
00000000: 8b3a 923b 7296 39bd 7d08 033d 0c34 efbc
00000010: 14d4 5abd 5341 b9bd 3ba8 cabc c9fe 36bc
00000020: 6902 6dbc 90c6 a8bb 2138 c4bd 5a65 33bd

conv2.1.running_mean f4 [12]
-0.38972718 0.55308 0.120598115 -0.15705054 0.4132068 0.6816648 -0.5389024 0.5160299
0.080696076 -0.59308386 0.22769788 0.12198362
00000000: 528a c7be a796 0d3f 25fc f63d dbd1 20be
00000010: d78f d33e 9681 2e3f 82f5 09bf 891a 043f
00000020: fc43 a53d 58d4 17bf a229 693e 8cd2 f93d

conv2.1.running_var f4 [12]
2.9411027 8.795888 7.676608 5.762455 4.031138 5.5172257 4.3795195 5.2945085
5.8312945 4.8642397 5.5372353 4.0921454
00000000: 073b 3c40 f5bb 0c41 c6a6 f540 0866 b840
00000010: 15ff 8040 1d8d b040 0625 8c40 9d6c a940
00000020: f799 ba40 daa7 9b40 0831 b140 dbf2 8240

conv2.3.weight f4 [12, 12, 3]
0.114686996 -0.022860363 -0.062388565 -0.009328794 -0.10323681 -0.13628079 -0.17487833 0.122628696
0.1920262 0.09599204 -0.06435094 0.0556294 -0.067168675 0.025155015 0.15744385 -0.10880474
0.02844953 0.0025223747 -0.008041323 -0.123870954 -0.07484162 -0.097049884 -0.048564322 0.046706513
-0.031057041 -0.14434215 0.13353886 -0.13556974 0.12285229 -0.08957156 -0.08935601 -0.1465209
0.083233334 -0.006577758 0.11267742 -0.10826523 -0.13741711 0.088945426 0.08465506 0.098547876
-0.1199009 -0.14714932 -0.10576422 -0.14460301 -0.0021141502 -0.09988473 -0.1760608 -0.10415677
-0.14666674 -0.13087697 -0.1550034 -0.15496133 -0.098668195 -0.09874967 -0.1546256 -0.07919195
0.102776736 0.046955604 0.15164909 -0.023006182 -0.09715826 -0.16384509 -0.09979572 0.09883778
0.05775293 -0.13135535 -0.062164087 -0.040441558 0.12170648 -0.109010935 -0.16164777 0.088003986
0.0013616886 -0.10752627 0.012951378 0.16823037 -0.19861127 0.07969049 0.13620287 0.03379341
0.034811426 0.09793353 -0.048061736 -0.075270504 0.08236969 -0.14398427 0.12794466 0.12078324
-0.013184222 -0.13425057 -0.08421975 0.19411577 -0.04156163 0.035751946 0.06895288 0.040543817
-0.019406818 0.05398669 -0.16065058 -0.054871447 -0.095796034 -0.16329415 -0.026027678 -0.040932443
0.023125978 -0.05525187 -0.15854917 0.0081236195 0.23952006 -0.029381096 0.12977657 -0.025385948
-0.1280782 0.12397104 -0.1495843 -0.115147114 0.10931043 -0.14210099 -0.057493243 -0.021640217
-0.13524194 0.07225039 -0.15417115 -0.15263754 0.14441563 -0.015597845 0.016873298 -0.027092442
0.103008054 -0.17497154 0.09237986 0.1407663 -0.097856484 0.03869451 -0.12066526 -0.11980285
0.17028284 -0.0392827 0.03557538 0.13377853 -0.08317852 -0.019414661 -0.11425667 0.12355909
0.09182556 -0.12631632 -0.06388127 0.11488032 0.11467809 0.17661375 -0.031840116 -0.14792465
-0.012615115 0.055454534 -0.0818329 -0.023570891 0.08093768 0.08795234 -0.00827498 -0.18064621
0.04738973 -0.13179742 -0.10875066 0.02691201 -0.11289643 -0.25455707 0.035932694 0.033436783
0.13966271 -0.016195973 0.024089722 0.017778449 0.08687661 -0.09131513 0.013517189 0.1260435
-0.015083338 0.16218534 0.17619039 -0.06085549 -0.060709313 0.07632846 0.03454466 0.08011228
0.09576883 0.20155181 -0.1811202 -0.009695264 -0.031606186 -0.10911334 0.16310194 -0.17331767
-0.21760426 0.1388865 -0.019943772 0.05260804 -0.06252236 -0.077597 0.059136923 -0.038209107
0.13480066 -0.14249347 0.15968905 -0.056226667 0.08088642 0.12246059 0.10459374 0.13233417
-0.14108223 -0.14673431 -0.028679565 0.095680706 0.055038042 0.06930577 0.102414 -0.08862757
-0.063496694 0.16544622 0.16703098 -0.028839031 0.03874312 -0.010517703 0.093222834 0.12331195
0.1356722 -0.081338316 -0.07530835 -0.14288059 0.008606326 0.027393518 -0.060076624 0.16126809
-0.12028898 0.09690122 0.00039510813 -0.015637783 -0.123829566 0.12774798 -0.025302552 -0.16977943
-0.048360713 -0.092038915 0.10663541 0.10853641 0.183632 -0.07276983 -0.07661058 0.16064222
-0.10361127 -0.17408216 -0.069417045 -0.02220847 0.09578684 0.14669806 0.055782426 0.028935686
00000000: 04e1 ea3d a845 bbbc 278b 7fbd ccd7 18bc
00000010: d26d d3bd 318d 0bbe 4e13 33be c124 fb3d
00000020: 84a2 443e 7a97 c43d 6dca 83bd a7db 633d
00000030: bb8f 89bd e411 ce3c f638 213e 05d5 debd
00000040: fd0e e93c 6d4e 253b c1bf 03bc 0eb0 fdbd
00000050: 9046 99bd 17c2 c6bd 62eb 46bd 544f 3f3d
00000060: 566b febc 6ece 13be 69be 083e cbd2 0abe
00000070: fb99 fb3d 4b71 b7bd 4900 b7bd 9309 16be
00000080: 3d76 aa3d 3c8a d7bb 6bc3 e63d 29ba ddbd
00000090: 12b7 0cbe 0529 b63d a25f ad3d 78d3 c93d
000000a0: 9a8e f5bd 50ae 16be e99a d8bd d012 14be
000000b0: 8e8d 0abb 5e90 ccbd 4849 34be 2550 d5bd
000000c0: ce2f 16be 9d04 06be 36b9 1ebe 2fae 1ebe
000000d0: 8d12 cabd 443d cabd 2c56 1ebe 642f a2bd
000000e0: 9c7c d23d 8554 403d e649 1b3e 7677 bcbc
000000f0: e9fa c6bd 02c7 27be b361 ccbd 766b ca3d
00000100: 568e 6c3d 0482 06be c59f 7ebd 0ca6 25bd
00000110: 3f41 f93d 2041 dfbd fe86 25be 6f3b b43d
00000120: b07a b23a bc36 dcbd 0432 543c 9544 2c3e
00000130: c160 4bbe c534 a33d c478 0b3e f56a 0a3d
00000140: 6d96 0e3d 6091 c83d 62dc 44bd 6c27 9abd
00000150: 71b1 a83d 9d70 13be ed03 033e 345d f73d
00000160: a302 58bc fb78 09be 677b acbd 49c6 463e
00000170: 873c 2abd a270 123d 2b37 8d3d 4611 263d
00000180: 0cfb 9ebc 2621 5d3d 9681 24be e2c0 60bd
00000190: b630 c4bd 9536 27be ff37 d5bc c7a8 27bd
000001a0: b172 bd3c c94f 62bd b75a 22be ee18 053c
000001b0: bf44 753e a0b0 f0bc 26e4 043e 31f6 cfbc
000001c0: ef26 03be 87e4 fd3d a02c 19be 40d2 ebbd
000001d0: 26de df3d ec82 11be 097e 6bbd d346 b1bc
000001e0: dd7c 0abe 03f8 933d 0bdf 1dbe 044d 1cbe
000001f0: b1e1 133e 1b8e 7fbc df39 8a3c f8f0 ddbc
00000200: e3f5 d23d bd2b 33be a731 bd3d 0a25 103e
00000210: fb68 c8bd 227e 1e3d 591f f7bd 325b f5bd
00000220: a05e 2e3e e5e6 20bd 7db7 113d 3dfd 083e
00000230: 8059 aabd 7f0b 9fbc 67ff e9bd 8c0c fd3d
00000240: 0a0f bc3d 1159 01be 2fd4 82bd 6046 eb3d
00000250: 59dc ea3d 3cda 343e c86a 02bd 8f79 17be
00000260: a1af 4ebc 4b24 633d 0298 a7bd be17 c1bc
00000270: a8c2 a53d 5b20 b43d c893 07bc 52fb 38be
00000280: bc1b 423d e7f5 06be abb8 debd 9376 dc3c
00000290: 3e36 e7bd 4e55 82be 292e 133d 02f5 083d
000002a0: be03 0f3e 6bad 84bc cf57 c53c 1ca4 913c
000002b0: 5dec b13d 6d03 bbbd 3377 5d3c 8c11 013e
000002c0: 1b20 77bc ea13 263e 416b 343e 9b43 79bd
000002d0: 54aa 78bd 1852 9c3d b47e 0d3d e811 a43d
000002e0: 7322 c43d 9963 4e3e 9377 39be e2d8 1ebc
000002f0: 7d75 01bd d176 dfbd 3204 273e 307a 31be
00000300: a7d3 5ebe 4338 0e3e 1f61 a3bc 877b 573d
00000310: b90b 80bd 2deb 9ebd 8f39 723d 2781 1cbd
00000320: 2f09 0a3e cfe9 11be 8785 233e ef4d 66bd
00000330: c8a7 a53d 9ecc fa3d 3e35 d63d 9c82 073e
00000340: dc77 10be 8541 16be 68f1 eabc 3ff4 c33d
00000350: 926f 613d 2ff0 8d3d 6ebe d13d 5f82 b5bd
00000360: 8e0a 82bd bc6a 293e 2b0a 2b3e d53f ecbc
00000370: 1bb1 1e3d 7252 2cbc 9deb be3d fa8a fc3d
00000380: a7ed 0a3e b494 a6bd 443b 9abd 4a4f 12be
00000390: 8c01 0d3c 5f68 e03c e812 76bd 7623 253e
000003a0: 125a f6bd 2674 c63d 8426 cf39 cf1a 80bc
000003b0: 5b9a fdbd 5ed0 023e 4c47 cfbc a9da 2dbe
000003c0: e215 46bd e67e bcbd aa63 da3d 5648 de3d
000003d0: 070a 3c3e 5908 95bd 02e6 9cbd 657f 243e
000003e0: 2532 d4bd 9842 32be 862a 8ebd 8aee b5bc
000003f0: e42b c43d 0438 163e 1d7c 643d 880a ed3c

conv2.3.bias f4 [12]
-0.09889143 -0.029300822 0.10458054 -0.044605512 0.05032914 0.020667477 0.11632352 -0.054137982
-0.022976024 -0.11830137 0.024332667 0.064179294
00000000: 9787 cabd 4708 f0bc 522e d63d 45b4 36bd
00000010: ee25 4e3d d74e a93c 073b ee3d cabf 5dbd
00000020: 3738 bcbc fd47 f2bd 4d55 c73c 6f70 833d

conv2.4.weight f4 [12]
1.0757785 1.0024163 1.0262614 1.0608051 1.0290781 1.0149635 1.0327766 1.0174245
1.0684448 0.9990833 1.0579239 1.006185
00000000: 1cb3 893f 2d4f 803f 895c 833f 76c8 873f
00000010: d5b8 833f 53ea 813f 0632 843f f73a 823f
00000020: cdc2 883f ecc3 7f3f 0d6a 873f acca 803f

conv2.4.bias f4 [12]
0.07572094 0.0024073995 -0.028108526 0.076707736 0.01802041 -0.01874935 0.018523095 -0.019080797
0.01862609 0.0015873984 0.018650781 -0.02697271
00000000: 9513 9b3d 76c5 1d3b da43 e6bc f218 9d3d
00000010: 8a9f 933c 3d98 99bc bfbd 973c 554f 9cbc
00000020: be95 983c 4010 d03a 86c9 983c dff5 dcbc

conv2.4.running_mean f4 [12]
-0.31019175 -0.7124102 0.018074581 -0.12750931 0.066452175 0.12950549 0.21844079 0.0052270778
0.033839002 -0.5803115 0.21785672 0.055167973
00000000: 74d1 9ebe 8460 36bf 2511 943c cd91 02be
00000010: 1418 883d 169d 043e f1ae 5f3e e847 ab3b
00000020: c49a 0a3d 4b8f 14bf d515 5f3e d0f7 613d

conv2.4.running_var f4 [12]
0.1189148 0.36988616 0.07887621 0.10055101 0.09110232 0.08926238 0.079923704 0.08174278
0.052551232 0.3206206 0.07098965 0.15333398
00000000: 9a89 f33d b861 bd3e da89 a13d b0ed cd3d
00000010: da93 ba3d 32cf b63d 0aaf a33d c268 a73d
00000020: f63f 573d 6228 a43e 0663 913d 9503 1d3e

conv3.0.weight f4 [12, 15, 4]
0.028883109 0.07404075 -0.037378743 0.011607555 0.023582652 -0.10709705 -0.084552996 0.1002495
-0.041245803 -0.036971655 -0.09242178 -0.010227735 0.039744996 -0.035322197 -0.09250414 -0.06252244
-0.05955494 0.11035544 0.14312015 -0.11286534 -0.024855785 0.12228467 -0.08875255 0.02063252
-0.07719284 0.042352486 0.15138853 0.04132485 0.05730609 -0.0067539886 -0.008346759 0.013742356
-0.04692511 0.03823535 -0.032439433 -0.050193682 0.11436712 0.09711643 0.08961846 -0.09050681
-0.09251939 0.06737996 0.0134979375 0.115260325 -0.087610565 0.19005929 0.10702722 0.11459396
-0.061429605 0.066965915 -0.0052862694 0.09485038 0.13133983 -0.113516666 0.08135611 0.009271232
-0.109459996 -0.075478755 -0.12230945 0.065164536 -0.038969785 -0.0026932517 -0.010232631 0.08993393
-0.08544205 0.06915894 0.086751424 0.093814604 -0.16243488 -0.12692645 0.042730693 0.10281102
0.058884274 -0.08452744 0.057493117 0.09854754 -0.05625212 -0.1184849 0.16403602 0.012358522
-0.07971423 -0.07038974 0.08992154 -0.03903786 0.099094905 -0.1399781 0.032008592 0.09455753
-0.036134526 0.088700436 0.015788415 0.108969994 0.07627819 0.065402865 0.061225224 0.051127937
0.036698185 0.13649867 0.1107308 -0.16431116 0.10150254 0.017485254 -0.025738103 -0.124729715
-0.12663879 -0.05287509 -0.06490041 -0.15485302 -0.006587531 0.0477531 -0.0051634805 0.006847948
0.033519834 0.05348172 -0.09839848 -0.15785214 0.016311022 -0.12956 -0.12311273 -0.06213559
-0.051959373 -0.08420833 0.0777922 0.029854529 -0.04658744 -0.076844364 0.088493854 -0.023123765
-0.1068571 -0.1413472 0.091286786 -0.074317135 -0.098645516 -0.05696527 -0.040240966 -0.022422355
-0.07451057 -0.06823878 0.08458741 -0.13203613 0.1132246 -0.047192704 -0.12520382 0.07942533
0.03763804 0.017626517 -0.06698487 0.10344314 -0.07504515 0.09567604 0.0017799698 0.016964229
-0.046560384 0.12723306 -0.1361799 -0.07938482 0.13698734 0.12688138 -0.099113815 -0.13547775
-0.06859523 -0.03296895 -0.012204644 -0.112143 -0.1700555 0.070065886 0.011106623 0.07557489
0.07669223 0.10589762 0.13024904 0.08159126 0.09225101 -0.13210043 0.12838615 0.15539464
0.031598546 0.017157849 -0.048738685 0.015472208 -0.04454314 -0.022346208 -0.1150058 0.016426222
0.03425237 -0.039608482 0.08493672 0.0431064 -0.06311229 0.048044313 0.035472825 -0.015375037
-0.068520896 -0.104143225 -0.016995888 -0.06501088 -0.090605475 -0.008518577 0.03651622 -0.01307815
0.00786265 0.08012699 -0.025753599 -0.03627582 0.10408509 -0.029016346 0.008211366 -0.063116126
-0.047685392 -0.036989063 -0.008010068 0.08383425 0.05225272 -0.07517516 -0.086089246 -0.031756885
-0.021010121 0.06505691 -0.08521551 0.059632488 -0.027647804 -0.106129155 -0.002539964 0.105767414
-0.06655501 -0.0063994746 -0.011361024 -0.050522737 0.06554237 -0.15777548 -0.0015459475 -0.019671533
0.11347326 0.0014295467 0.03237704 0.11066052 0.062326 0.07558424 -0.0059980527 -0.13423179
0.083267905 0.008768446 0.038129035 0.06505095 -0.012741777 -0.02424811 -0.08408939 -0.0095711
0.102958255 -0.015367643 -0.10595751 0.052612793 0.086622395 -0.010968142 -0.11510767 0.060510702
00000000: 459c ec3c ada2 973d 741a 19bd 9d2d 3e3c
00000010: 6830 c13c b355 dbbd 1f2a adbd 9c4f cd3d
00000020: 5cf1 28bd 976f 17bd a147 bdbd 3b92 27bc
00000030: a6cb 223d 02ae 10bd d072 bdbd c40b 80bd
00000040: e1ef 73bd 0802 e23d 178e 123e f225 e7bd
00000050: 5c9e cbbc 6370 fa3d e6c3 b5bd 8805 a93c
00000060: 4817 9ebd cd79 2d3d 9805 1b3e 3f44 293d
00000070: cab9 6a3d 9050 ddbb d8c0 08bc 9e27 613c
00000080: 8b34 40bd ac9c 1c3d 36df 04bd e497 4dbd
00000090: 4f39 ea3d fbe4 c63d e289 b73d a25b b9bd
000000a0: ce7a bdbd 81fe 893d 7426 5d3c 9b0d ec3d
000000b0: 2b6d b3bd e79e 423e 1631 db3d 3db0 ea3d
000000c0: 9c9d 7bbd 6d25 893d 7138 adbb eb40 c23d
000000d0: f37d 063e 6d7b e8bd 089e a63d 5ee6 173c
000000e0: 902c e0bd 9b94 9abd 607d fabd fc74 853d
000000f0: c89e 1fbd 4481 30bb c4a6 27bc 482f b83d
00000100: 3efc aebd 34a3 8d3d bbaa b13d df21 c03d
00000110: 5455 26be 02f9 01be 6106 2f3d 968e d23d
00000120: a330 713d b91c adbd e77d 6b3d 4bd3 c93d
00000130: 9f68 66bd 36a8 f2bd 0ff9 273e 667b 4a3c
00000140: 3741 a3bd 7f28 90bd c928 b83d 2ae6 1fbd
00000150: 45f2 ca3d 6b56 0fbe 711b 033d 61a7 c13d
00000160: cc01 14bd 93a8 b53d b556 813c a92b df3d
00000170: bd37 9c3d f0f1 853d 4dc7 7a3d 876b 513d
00000180: d650 163d 4fc6 0b3e d4c6 e23d 2f41 28be
00000190: 90e0 cf3d 3c3d 8f3c b7d8 d2bc 4b72 ffbd
000001a0: 99ad 01be 8d93 58bd 82ea 84bd ca91 1ebe
000001b0: 37dc d7bb c198 433d 6a32 a9bb c064 e03b
000001c0: 184c 093d a60f 5b3d 2485 c9bd fea3 21be
000001d0: b19e 853c 60ab 04be 8722 fcbd e381 7ebd
000001e0: 5ad3 54bd 6b75 acbd 8451 9f3d 7c91 f43c
000001f0: 79d2 3ebd 9460 9dbd 443c b53d 0d6e bdbc
00000200: e5d7 dabd 52bd 10be 91f4 ba3d 9533 98bd
00000210: a906 cabd 6a54 69bd b6d3 24bd 16af b7bc
00000220: ff98 98bd c6c0 8bbd 2a3c ad3d 7b34 07be
00000230: 4de2 e73d 234d 41bd 6e35 00be bfa9 a23d
00000240: 582a 1a3d 7c65 903c 5d2f 89bd ffd9 d33d
00000250: 46b1 99bd cdf1 c33d e04d e93a 91f8 8a3c
00000260: 1ab6 3ebd 6249 023e be72 0bbe 8294 a2bd
00000270: 6946 0c3e 31ed 013e 2ffc cabd aeba 0abe
00000280: a87b 8cbd 730a 07bd fdf5 47bc 3bab e5bd
00000290: 0723 2ebe b47e 8f3d 8ef8 353c 02c7 9a3d
000002a0: d110 9d3d dae0 d83d 0160 053e 5219 a73d
000002b0: 19ee bc3d 5645 07be a977 033e c61f 1f3e
000002c0: 7a6d 013d 9e8e 8c3c 37a2 47bd 257f 7d3c
000002d0: de72 36bd 650f b7bc 2988 ebbd 4990 863c
000002e0: 374c 0c3d 813c 22bd 4ef3 ad3d 5690 303d
000002f0: 0441 81bd 1dca 443d f44b 113d 94e7 7bbc
00000300: af54 8cbd 0b49 d5bd f63a 8bbc 6d24 85bd
00000310: 5d8f b9bd 8091 0bbc 0892 153d bd45 56bc
00000320: 58d2 003c 9f19 a43d 36f9 d2bc f495 14bd
00000330: 902a d53d b0b3 edbc f788 063c 0743 81bd
00000340: c251 43bd d881 17bd a93c 03bc 4bb1 ab3d
00000350: f306 563d 6ff5 99bd 8f4f b0bd 8213 02bd
00000360: 6b1d acbc 8f3c 853d 7885 aebd 3241 743d
00000370: a67d e2bc 3e5a d9bd 8675 26bb 969c d83d
00000380: fe4d 88bd afb2 d1bb 9723 3abc eef0 4ebd
00000390: 143b 863d e58f 21be 64a1 caba 3226 a1bc
000003a0: ab64 e83d a15f bb3a c99d 043d fca1 e23d
000003b0: 8c49 7f3d e9cb 9a3d 508b c4bb 0f74 09be
000003c0: 5d88 aa3d 87a9 0f3c 312d 1c3d 6f39 853d
000003d0: e3c2 50bc f9a3 c6bc 0f37 acbd 1ad0 1cbc
000003e0: c7db d23d 91c8 7bbc 4000 d9bd 8380 573d
000003f0: 1567 b13d b9b3 33bc 92bd ebbd 12da 773d

conv3.0.bias f4 [12]
-0.12745427 -0.041152176 -0.058704626 0.016300803 -0.019088663 0.05594078 -0.0662442 -0.08465442
-0.11363168 0.05128765 -0.016771475 0.103423454
00000000: 5f83 02be 2f8f 28bd 4374 70bd 4389 853c
00000010: d45f 9cbc 2922 653d 0aab 87bd 4c5f adbd
00000020: bab7 e8bd 0013 523d 5564 89bc adcf d33d

conv3.1.weight f4 [12]
1.0266209 0.97863954 0.9684523 1.0260583 0.9788852 1.0037996 0.96719307 1.0428631
1.0089121 1.0313653 0.9910338 0.99106824
00000000: 5068 833f 1f88 7a3f 7dec 773f e155 833f
00000010: 3898 7a3f 817c 803f f799 773f 8a7c 853f
00000020: 0824 813f c703 843f 64b4 7d3f a6b6 7d3f

conv3.1.bias f4 [12]
-0.020659404 0.0064343363 0.0541696 0.064362764 -0.11012888 -0.0013387802 0.0109402165 -0.051361375
0.0019471847 -0.025094852 -0.012214032 0.030682988
00000000: e93d a9bc 20d7 d23b f1e0 5d3d a0d0 833d
00000010: 408b e1bd 027a afba 983e 333c 4e60 52bd
00000020: ad38 ff3a b893 cdbc 5d1d 48bc e45a fb3c

conv3.1.running_mean f4 [12]
-0.3695041 0.014962414 -0.29140338 -0.35785416 0.3033877 -0.46812057 -0.33948606 0.78243715
-0.23090568 -0.26172438 -0.039210375 -0.2284935
00000000: a42f bdbe ea24 753c d332 95be a938 b7be
00000010: a255 9b3e 80ad efbe 1ed1 adbe cd4d 483f
00000020: 8a72 6cbe bd00 86be 0f9b 20bd 33fa 69be

conv3.1.running_var f4 [12]
5.525892 6.81381 7.0586977 2.9836318 4.0301156 3.8561761 5.7094116 6.140489
4.657457 3.9128554 4.457307 6.3423376
00000000: 1bd4 b040 bb0a da40 dae0 e140 d3f3 3e40
00000010: b5f6 8040 97cb 7640 80b3 b640 e37e c440
00000020: e309 9540 396c 7a40 42a2 8e40 6ef4 ca40

conv3.3.weight f4 [12, 12, 4]
-0.019624807 0.00081221847 0.091795444 0.11187818 -0.056223996 0.053310603 0.05249655 -0.13343225
-0.13609374 -0.025839051 0.078270644 0.018870853 -0.010299031 0.13167877 -0.037575033 0.09064092
-0.12478221 -0.046760187 0.07324129 -0.08590684 0.0834043 -0.017167198 0.035688575 -0.035795614
-0.051080674 -0.11499807 0.008736825 -0.03604982 0.12837191 0.013413846 0.15091299 -0.14529146
-0.04108566 0.015886186 -0.024961751 0.04533819 -0.07501123 -0.072927356 -0.009081787 -0.09522966
0.016875777 -0.15304847 0.12959377 0.11052334 0.0982602 -0.047739152 -0.14350285 0.029383674
0.05859496 0.060410585 0.0026592507 -0.10100886 -0.0017060571 -0.07759369 -0.1712442 0.023870757
-0.04295596 0.07223338 -0.0094778165 -0.014789622 -0.002688944 0.048555385 -0.042556867 0.052536514
0.10399498 -0.0065756296 -0.041626755 -0.10546334 0.091687396 -0.17257197 -0.10464842 -0.059606377
0.08759441 0.11558002 -0.054875173 0.057988524 0.07177951 -0.076781526 -0.0043488876 0.008788088
-0.009095635 0.024724914 -0.0851662 0.010127551 -0.12884349 -0.09383148 0.05430111 -0.062155876
0.1032543 0.04437829 0.04639564 0.042711247 0.08888615 0.08471079 0.15167117 -0.004616991
-0.09093826 0.052038 0.15779413 -0.0066419058 -0.0027313833 -0.12260949 0.12919831 -0.14166225
0.12898625 -0.12643798 0.029716974 0.0108389715 -0.1565428 0.061505616 0.13803688 -0.14512455
0.084723026 0.15399761 -0.16939747 0.03921099 0.010011713 -0.07165275 -0.16901284 0.011387843
-0.019347202 0.06106352 0.10322475 0.13049538 -0.11581314 -0.07362796 -0.013006318 -0.14779247
-0.007891903 0.017737748 -0.10043809 0.1299492 0.03446237 0.0022224863 -0.040530145 -0.07856016
0.008631159 -0.003928439 0.07761967 0.064168535 0.10838916 0.12240489 0.02979862 0.07236118
-0.062177904 -0.04491555 -0.094353676 0.05688223 0.0025320794 0.055616714 -0.11291604 0.11619744
-0.07688315 0.04606003 -0.037447885 0.0042888876 0.1424453 0.17612071 -0.021618946 0.00585686
-0.025295548 0.122217506 0.18235236 -0.049046118 -0.10528492 0.098821074 -0.13548188 0.10631911
0.09824388 0.108704954 0.1025334 -0.059754092 -0.115226835 -0.018842991 0.12721756 0.14148997
-0.054863367 -0.11626958 -0.006563854 -0.07055507 -0.08684798 -0.07015001 -0.053441342 0.08687098
-0.09199638 -0.042656846 -0.14468345 0.13418083 -0.09474625 0.14908667 0.097129405 0.1034873
-0.012153438 0.05701576 -0.13643754 0.057321634 -0.115977876 0.0195265 -0.068346724 0.02376069
-0.07998209 -0.096314035 0.071228065 -0.030188153 0.025135107 0.07713714 -0.0128188515 -0.14668135
-0.04338131 -0.086676545 0.13720182 0.016125992 0.052490897 0.1507064 -0.0053212857 -0.032208875
-0.07042986 -0.07980219 0.14051902 0.019534286 -0.11007265 -0.10010235 0.15511611 0.09134668
-0.023566948 0.034460116 0.1845937 0.1922168 0.017294131 0.035515394 -0.08211572 0.11177015
-0.11520397 -0.06899609 0.017947046 0.01558387 0.064721525 0.22317599 -0.08134594 -0.10770795
0.003566896 0.11767172 -0.118658066 0.0759603 0.17362638 -0.11924221 0.08626183 -0.051662203
-0.07596575 -0.022462469 0.06883549 0.054179084 0.045426678 -0.07798056 -0.120615244 0.16785064
00000000: 34c4 a0bc 0feb 543a 40ff bb3d 6320 e53d
00000010: 224b 66bd 385c 5a3d 9f06 573d 77a2 08be
00000020: 285c 0bbe 6bac d3bc 5c4c a03d 0c97 9a3c
00000030: 44bd 28bc cdd6 063e 47e8 19bd f2a1 b93d
00000040: d18d ffbd 9c87 3fbd 88ff 953d edef afbd
00000050: e0cf aa3d 39a2 8cbc 2f2e 123d 6c9e 12bd
00000060: f839 51bd 1c84 ebbd e624 0f3c faa8 13bd
00000070: ed73 033e bfc5 5b3c ef88 1a3e 49c7 14be
00000080: 7049 28bd bf23 823c 967c ccbc 8ab4 393d
00000090: 7d9f 99bd f05a 95bd c7cb 14bc c507 c3bd
000000a0: 123f 8a3c bdb8 1cbe 3bb4 043e 105a e23d
000000b0: a53c c93d 218a 43bd 69f2 12be 08b6 f03c
000000c0: 4501 703d 1771 773d d346 2e3b bcdd cebd
000000d0: c79d dfba 71e9 9ebd a45a 2fbe 9b8c c33c
000000e0: 97f2 2fbd 18ef 933d d848 1bbc 2c50 72bc
000000f0: ff38 30bb 03e2 463d 1c50 2ebd 8730 573d
00000100: 52fb d43d 6178 d7bb d180 2abd 2afd d7bd
00000110: 9ac6 bb3d b5b6 30be e951 d6bd d125 74bd
00000120: b364 b33d 38b5 ec3d cac4 60bd 6085 6d3d
00000130: 2301 933d a23f 9dbd 1d81 8ebb eafb 0f3c
00000140: dc05 15bc e78b ca3c 9e6b aebd 07ee 253c
00000150: 8cef 03be b82a c0bd d76a 5e3d 2997 7ebd
00000160: fe76 d33d 03c6 353d 5b09 3e3d fdf1 2e3d
00000170: f109 b63d da7c ad3d b04f 1b3e 214a 97bb
00000180: d73d babd cc25 553d c994 213e 58a4 d9bb
00000190: 0201 33bb af1a fbbd 904c 043e e90f 11be
000001a0: f914 043e f578 01be 0371 f33c f195 313c
000001b0: c14c 20be 50ed 7b3d 8a59 0d3e 889b 14be
000001c0: 4483 ad3d 8db1 1d3e 8876 2dbe b49b 203d
000001d0: 2b08 243c adbe 92bd b411 2dbe 1394 3a3c
000001e0: 067e 9ebc be1d 7a3d 7f67 d33d 95a0 053e
000001f0: 712f edbd 42ca 96bd 7418 55bc e956 17be
00000200: 0a4d 01bc c14e 913c 7cb2 cdbd 6711 053e
00000210: 6a28 0d3d 22a7 113b f002 26bd 26e4 a0bd
00000220: b469 0d3c 23ba 80bb 10f7 9e3d cb6a 833d
00000230: 23fb dd3d 6aaf fa3d 3c1c f43c 1932 943d
00000240: 42ae 7ebd 5ef9 37bd 803c c1bd 57fd 683d
00000250: 3ef1 253b 5ace 633d 8640 e7bd ecf8 ed3d
00000260: ea74 9dbd 71a9 3c3d f462 19bd cc89 8c3b
00000270: 2edd 113e fd58 343e 371a b1bc e7ea bf3b
00000280: 9c38 cfbc 2c4d fa3d 94ba 3a3e 95e4 48bd
00000290: 9f9f d7bd b462 ca3d c3bb 0abe d5bd d93d
000002a0: 1634 c93d b4a0 de3d 08fd d13d b5c0 74bd
000002b0: 0cfc ebbd 9e5c 9abc 5245 023e bfe2 103e
000002c0: 69b8 60bd bf1e eebd 9915 d7bb 2d7f 90bd
000002d0: 5bdd b1bd cfaa 8fbd 4fe5 5abd 6ae9 b13d
000002e0: 9968 bcbd f2b8 2ebd e627 14be b366 093e
000002f0: 520a c2bd 2daa 183e c8eb c63d 26f1 d33d
00000300: 371f 47bc 5c89 693d 48b6 0bbe 17ca 6a3d
00000310: cf85 edbd 0af6 9f3c 5ef9 8bbd c7a5 c23c
00000320: a6cd a3bd 4b40 c5bd 05e0 913d 254d f7bc
00000330: 24e8 cd3c 14fa 9d3d 2906 52bc a333 16be
00000340: 9ab0 31bd 7983 b1bd a27e 0c3e a81a 843c
00000350: b200 573d c752 1a3e 2e5e aebb 74ed 03bd
00000360: 883d 90bd 556f a3bd 38e4 0f3e 5e06 a03c
00000370: c56d e1bd 7602 cdbd c2d6 1e3e f813 bb3d
00000380: 790f c1bc 0d26 0d3d 2206 3d3e 7bd4 443e
00000390: 6cac 8d3c 9778 113d 492c a8bd c0e7 e43d
000003a0: 0ff0 ebbd d24d 8dbd af05 933c 7d53 7f3c
000003b0: b88c 843d 3f88 643e b398 a6bd fc95 dcbd
000003c0: 96c2 693b dffd f03d 0003 f3bd 1391 9b3d
000003d0: 1dcb 313e 4335 f4bd 0baa b03d bf9b 53bd
000003e0: ee93 9bbd 3603 b8bc 9ff9 8c3d e3ea 5d3d
000003f0: 5311 3a3d 46b4 9fbd 2005 f7bd 0ae1 2b3e

conv3.3.bias f4 [12]
-0.05194924 -0.1443172 -0.13763812 0.11537354 0.0136939725 -0.07798789 -0.03338433 0.076287836
-0.11557976 -0.006637653 0.062566385 -0.0649735
00000000: bac8 54bd e3c7 13be 02f1 0cbe f648 ec3d
00000010: af5c 603c 1db8 9fbd 02be 08bd cc3c 9c3d
00000020: 15b5 ecbd ab80 d9bb ce22 803d d410 85bd

conv3.4.weight f4 [12]
1.067894 1.059041 1.0118718 1.0086367 1.0157546 0.9914384 1.0566646 1.0468415
1.0103732 1.0377038 1.0133852 1.0020826
00000000: c0b0 883f a88e 873f 0485 813f 021b 813f
00000010: 3f04 823f e8ce 7d3f c940 873f e7fe 853f
00000020: e953 813f 7ad3 843f 9bb6 813f 3e44 803f

conv3.4.bias f4 [12]
0.031832196 0.018216338 -0.01855145 -0.04346746 -0.04472782 -0.042237002 0.03302354 0.029442452
-0.018364247 0.01832254 -0.03742784 -0.018466925
00000000: 7a62 023d 6e3a 953c 36f9 97bc ef0a 32bd
00000010: 8534 37bd b500 2dbd b143 073d 4c31 f13c
00000020: 9e70 96bc 2719 963c ef4d 19bd f347 97bc

conv3.4.running_mean f4 [12]
-0.091295786 -0.12084749 -0.08175075 0.23742831 0.066924624 0.028942432 -0.16241728 0.034744184
-0.17874701 0.13012724 0.19558841 0.13014488
00000000: 49f9 babd e47e f7bd f06c a7bd 6820 733e
00000010: c70f 893d ae18 ed3c b750 26be eb4f 0e3d
00000020: 7509 37be 1340 053e 5448 483e b344 053e

conv3.4.running_var f4 [12]
0.08932277 0.054963715 0.10771442 0.10641528 0.107559495 0.14463782 0.091044925 0.08123304
0.11801818 0.12593237 0.06045534 0.12454683
00000000: dbee b63d a221 613d 6199 dc3d 41f0 d93d
00000010: 2748 dc3d f01b 143e c375 ba3d 825d a63d
00000020: 84b3 f13d 6af4 003e 05a0 773d 6912 ff3d
