model/LSTMY/IAAcheckpoint3.pt (torch, 229215 bytes, 31 tensors)

lstm.weight_ih_l0 f4 [120, 15]
000000 39 e1 16 be b6 88 69 be d2 fd a0 3d 6e 6e 1b bd
       -0.14734353 -0.22806057 0.078609124 -0.03794711
000010 56 83 e1 bd 3b d3 09 3e e3 3d 3b 3d af cd 12 be
       -0.110113785 0.13459484 0.045713317 -0.14336275
000020 43 81 10 3e e2 ae fe bc 7b 4b 4b 3c 63 d2 44 bd
       0.1411181 -0.03108925 0.012408133 -0.048052203
000030 41 99 2d be a6 6e 69 be c0 bc 49 3d 8f 03 46 bd
       -0.16952993 -0.22796115 0.04925227 -0.048343237
000040 e5 a1 2f 3d 03 c5 cd 3b 85 26 b4 bd c9 14 64 3e
       0.042879004 0.006279589 -0.087964095 0.22273554
000050 e3 6f 96 3d 5c 2e 41 be 53 bb 67 bd e7 64 10 3e
       0.073455594 -0.18865341 -0.05657513 0.14100991
000060 2d 68 16 be db c1 0c be 61 c2 34 be a7 8b f5 bc
       -0.14688177 -0.13745825 -0.17652275 -0.029973818
000070 cc 48 f9 3b 3a 22 54 bd 5f ad 87 3b c7 61 13 3e
       0.007607555 -0.051790453 0.0041405405 0.14392768
000080 97 36 15 3e a5 b2 04 be 56 5c 12 3c 42 93 95 bd
       0.14571606 -0.12958772 0.008933147 -0.07303478
000090 75 d4 95 bc 68 96 30 3e 07 eb fe bd 09 50 85 3e
       -0.018289784 0.17244875 -0.12447172 0.26037624
0000a0 85 54 ac bc e3 94 b7 bd f0 6a 28 be e8 d2 ab 3d
       -0.021036396 -0.08963945 -0.16447043 0.083898365
0000b0 6a a2 04 be 91 51 75 be 86 25 6b 3d 59 95 49 3e
       -0.12952581 -0.23956896 0.057408832 0.19685878
0000c0 16 71 e7 bc 4d 52 02 3d 64 e8 49 3d 36 7c 2b 3c
       -0.028252166 0.03181677 0.04929389 0.010466626
0000d0 b8 fe 6b 3c a8 45 be ba c5 52 a2 bd 75 0d a0 3c
       0.014403991 -0.0014516609 -0.07925943 0.019537667
0000e0 64 8e 01 3d fa 7c 06 3e 84 f4 c3 3c 6c 90 ec bd
       0.031629935 0.13133612 0.023920305 -0.11550984
0000f0 52 5d 30 bd 0c 97 1e be b0 6d b0 3d 0a fa 0f be
       -0.043057747 -0.15487307 0.08614671 -0.14060226
000100 1b e0 12 3e da 87 1e be 81 b5 45 be 55 1f b4 3d
       0.14343302 -0.15481511 -0.1930752 0.087950386
000110 9b 4d 68 3e 64 f3 ee bd 39 a3 5b 3e 8a e5 00 3e
       0.22685854 -0.11667517 0.21448983 0.12587562
000120 96 ca d5 bd d3 5f 8b bd 82 1b 04 3d 58 e9 10 bd
       -0.10439031 -0.068053864 0.032252796 -0.035378784
000130 df 3c 60 3d e4 55 24 3e 7a b5 d4 3d d3 4e a3 bd
       0.05474555 0.1604839 0.103861764 -0.07974019
000140 b2 3a 3f 3d d0 de b3 bd 43 f6 97 3d 66 6e 5e bd
       0.046686836 -0.087827325 0.074200176 -0.054304503
000150 5b 49 ff bd d9 04 a3 3d 08 db 1b be a9 84 4d be
       -0.12465163 0.07959909 -0.15220273 -0.20070137
000160 67 3e 3a be 6b 30 1c 3e b1 e6 38 be 43 0c c6 3d
       -0.18187867 0.15252845 -0.18056752 0.096703075
000170 24 2c 18 be dc 44 bd bd 2c 08 31 3d 56 2c d6 bd
       -0.14860588 -0.092416495 0.043220684 -0.10457675
000180 c2 81 21 3e af ab 29 3b 80 e1 27 bd 6d 35 e4 bc
       0.15772155 0.0025889685 -0.040986538 -0.027857507
000190 f0 ed b4 3d e1 52 b0 3d 17 00 0d be 2a a0 54 3d
       0.088344455 0.08609558 -0.13769566 0.051910557
0001a0 fe 38 00 bd df 72 21 3d 0a af e1 3d e4 06 a0 bc
       -0.031304352 0.03941619 0.11019714 -0.019534536
0001b0 4c ce ce bd 68 b3 c9 3b bc ef bf 3a b2 02 17 be
       -0.10097942 0.00615542 0.001464359 -0.14747122
0001c0 80 5d 80 be bc 1f bb bd 7c e2 41 be d4 31 c8 3d
       -0.25071335 -0.09136912 -0.18934053 0.09775129
0001d0 e1 ba 93 3d a8 76 d0 bc ca 50 65 bd 7e 25 b3 3d
       0.07213379 -0.025447205 -0.05598525 0.087473854
0001e0 c2 8f 7d 3a 40 a0 a1 3d 04 5a 71 3d fb 5b 06 3e
       0.00096726057 0.078918934 0.058923736 0.13121025
0001f0 e5 a6 0e 3d e1 ad 93 3c 5c e2 82 be 52 d6 c9 bd
       0.03482713 0.018027248 -0.25563323 -0.098553315
000200 4a fc 12 3e a0 c2 1a 3d 72 06 7b 3d 8f dd 4b be
       0.14354053 0.037783265 0.061285444 -0.19908737
000210 a6 dc f0 3d a6 c4 35 bd 13 76 a6 3d a8 13 7e bd
       0.11760835 -0.04437699 0.081279896 -0.062030464
000220 2b f8 12 3e c2 6c 57 bd a6 b2 0b be e8 7c eb 3d
       0.14352481 -0.052593954 -0.13642368 0.11498433
000230 18 0a 2d be 7b 32 07 3d d5 70 b2 3b b2 9f 45 be
       -0.16898382 0.033007126 0.0054455795 -0.192992
000240 5b 48 27 3d 53 60 48 3e 9b 0e 42 3e 7d ac 8c 3c
       0.040840488 0.19567995 0.18950884 0.017172093
000250 29 af 4e bd 83 0e ca 3c 42 a9 b3 bd 1f 42 c2 3c
       -0.050460014 0.024665123 -0.08772518 0.02371317
000260 a4 42 1e bd af 33 24 be 72 1e d3 bd c4 19 b3 bd
       -0.038637772 -0.1603534 -0.10308541 -0.08745149
000270 21 61 5d be 28 17 1d be b6 68 c1 bd 4b 53 80 bd
       -0.21619083 -0.15340865 -0.094438 -0.06265887
000280 6c b1 c2 3d 57 3a f8 3d 5b 71 d0 3d f9 44 d0 bd
       0.09506497 0.121205024 0.10177871 -0.101694055
000290 08 0b e4 bd 89 3a 08 3e 40 b6 21 3e 4c fe ca bd
       -0.111349165 0.1330358 0.15792179 -0.099117845
0002a0 6e c3 0b 3e e4 ef 9c 3d 13 4f 8d 3d 3e f2 36 be
       0.1364877 0.07662943 0.06899848 -0.17865846
0002b0 a1 75 b5 3d 64 f4 0f 3e b6 bf d6 3c de 8d aa bd
       0.088603266 0.14058071 0.026214462 -0.0832784
0002c0 9c 1e 2f 3e 7c 88 e5 3d a2 cb c2 3c 9e 71 19 3e
       0.1710152 0.11207673 0.02377874 0.14984748
0002d0 65 57 73 be 69 76 85 3d 17 6b be 3c 63 42 66 3d
       -0.23763807 0.065167256 0.023244424 0.056215655
0002e0 a2 4a 1f 3d 82 3b 00 be 5d 8f 2d 3e b1 a0 4c bd
       0.038889535 -0.125227 0.1694922 -0.049957935
0002f0 31 77 e9 3d 93 db 51 bc 88 47 20 bd 71 08 4d 3d
       0.11399687 -0.012808698 -0.039130718 0.05005688
000300 2d 4f 16 bd ea e0 d3 bc 13 d8 4b 3e ba 93 d7 bd
       -0.0366966 -0.025864083 0.19906645 -0.105262235
000310 16 0c 63 bd 6b 02 e1 bd df 2d 09 3d 76 b4 db 3d
       -0.055431448 -0.10986789 0.03349101 0.107277796
000320 5b 0c 43 3d e0 a7 23 bd 67 1e 39 3c 5c b2 15 bc
       0.047619205 -0.03995502 0.011298752 -0.0091367625
000330 8b 75 bc 3d 54 47 3e 3d ce 23 71 be 44 d3 e6 3a
       0.09202107 0.046454743 -0.23548815 0.001761057
000340 97 78 26 bd f6 5e 60 ba 6d a1 3a 3e d0 bf 9c bd
       -0.040642347 -0.0008559072 0.18225642 -0.07653773
000350 59 24 2a 3d 06 a5 0d bd e6 97 06 be 4d be 40 be
       0.04153857 -0.034581207 -0.13143882 -0.18822594
000360 da 98 ef bd e1 ee f3 3c a3 6a da b9 01 61 74 3e
       -0.11699076 0.029776992 -0.0004165965 0.23865129
000370 ed 0e 01 be 28 a3 55 3e 0a bb 4d bd ea bc 2a bd
       -0.1260335 0.2086302 -0.050227202 -0.04168407
000380 74 8d dc bd fa f0 0f be 4a a7 00 be 2b 63 03 be
       -0.107691675 -0.14056769 -0.12563816 -0.12830798
000390 ec 5b ef bd 76 4c 1f be f7 9d d2 3d 16 7c 53 bd
       -0.116874546 -0.15556511 0.10284036 -0.05163201
0003a0 fa 7a b4 3d 18 cf 44 3d 70 c4 0e be 58 34 52 3e
       0.088125184 0.048049062 -0.13942122 0.2052778
0003b0 b9 d8 8b bc 1e ed 83 bc d2 92 bd 3d 7e eb fd 3d
       -0.017071115 -0.016104277 0.092565194 0.12398432
0003c0 bb 85 0d 3e 33 ab 25 bd 75 18 a1 bc 0b 57 af bc
       0.13820545 -0.04044647 -0.019664982 -0.02140381
0003d0 b0 3d 54 3e ab 65 d8 3d 3e b8 11 be 71 2d 20 3e
       0.20726657 0.105662666 -0.14230439 0.15642335
0003e0 77 a3 14 be e7 92 8a bd 71 4f 72 3e 09 40 77 be
       -0.14515482 -0.06766301 0.23663117 -0.24145521
0003f0 76 be 96 3c 74 76 60 bd b9 82 14 3d 0a e6 eb 3d
       0.018401366 -0.054800466 0.03625748 0.11518486

lstm.weight_hh_l0 f4 [120, 30]
000000 20 1c 1c 3c 0b b8 08 3e a8 f6 5a bd 35 65 69 be
       0.00952819 0.13351457 -0.053457886 -0.22792514
000010 4f 5c 36 be 5d 3b 30 3e f9 bd 75 3d 23 29 22 be
       -0.1780865 0.17210145 0.059995625 -0.15836005
000020 dd 60 0e 3e a4 04 15 3d 06 6b 62 bc e4 3f 30 3e
       0.13904138 0.03638138 -0.013819462 0.17211872
000030 af 13 29 3e 9f 3e 3d bd 63 a4 30 be 7a 6a aa 3d
       0.16511415 -0.0462023 -0.17250209 0.0832109
000040 74 24 b3 bd f7 15 12 bd f6 f8 d2 bc 6b 04 dd 3b
       -0.08747187 -0.03566548 -0.02575348 0.0067449114
000050 5e 84 34 3e eb 13 fe bc 74 07 4a 3d 34 0e 16 bd
       0.17628619 -0.031015357 0.049323514 -0.03663464
000060 ca bc 13 be 75 c3 97 be 18 29 d4 3d 29 0a 86 bd
       -0.14427486 -0.2964131 0.103594005 -0.06544907
000070 af ce 96 3d 36 d8 63 bd 56 cf c7 bc 7a ed 88 3d
       0.073636405 -0.055626117 -0.024390858 0.0668592
000080 87 21 93 be b1 b1 3f 3e 21 4d 4a 3d 0b a6 18 3e
       -0.28736517 0.18720128 0.049389962 0.1490709
000090 98 ca 66 bd 26 7c f0 3d ec e7 e8 bd ec a2 30 3e
       -0.056345552 0.117424294 -0.113723606 0.1724965
0000a0 09 68 cb 3d 98 93 2f 3d 11 5a 50 be 86 45 28 3e
       0.099319525 0.042865366 -0.20346858 0.16432771
0000b0 3d fc 50 3c d3 11 15 bd 80 71 c0 bd 9b 03 22 bd
       0.012755451 -0.03639395 -0.093966484 -0.03955422
0000c0 46 04 d0 3d 11 2c ae 3d 8e 03 f7 bd 9c 16 9e bd
       0.10157065 0.08504499 -0.12061225 -0.07719156
0000d0 ec 83 ca bd fa 12 98 bc c4 c6 13 3e e8 93 6f be
       -0.09888443 -0.018563736 0.14431292 -0.23396266
0000e0 57 b7 e5 bc 3c 20 0b 3e 39 b7 59 be 50 4d ae bd
       -0.028041525 0.13586515 -0.212613 -0.0851084
0000f0 42 5e 85 3c be 91 ba bd 66 72 8c 3d d0 62 64 bd
       0.016280297 -0.09109829 0.06857757 -0.055758297
000100 1e f1 a9 3c 14 93 8d 3d 48 08 34 3d 77 99 e4 bd
       0.020744856 0.069128186 0.04395321 -0.111620836
000110 cb dd ff bb 09 0b b3 3d fa 9c df bb 00 82 49 3d
       -0.007808422 0.08742339 -0.006824133 0.049196243
000120 ec 79 c7 3d 3a 13 94 3d 09 06 ae bd ce 9b 8b be
       0.097400516 0.0723023 -0.08497245 -0.27267307
000130 f0 6f e6 3c ee 12 5a 3e e2 07 26 be 63 28 c4 bd
       0.028129548 0.21296284 -0.16213945 -0.09578016
000140 4a 29 06 3e 87 94 77 bd d0 93 27 3e 56 f6 3a 3d
       0.13101688 -0.06044438 0.1636498 0.04564508
000150 57 73 49 bd 54 43 5c 3e 9e 4d fb 3d b2 c7 f9 bd
       -0.049182262 0.21510059 0.12270664 -0.12196292
000160 31 50 28 3e d5 c3 56 bd a1 f5 01 bd 76 12 32 3b
       0.1643684 -0.052432854 -0.03172839 0.0027171648
000170 49 35 35 3e 18 31 e8 bc 34 e3 84 bc 66 44 c7 3c
       0.17696108 -0.028343722 -0.01622162 0.024324607
000180 76 9e 37 3e dd db 90 bd 84 9f 22 3e d6 cc 96 3c
       0.17931542 -0.070731856 0.15881163 0.01840822
000190 7c 13 da 3a 98 f3 15 bd 7f fb 51 bd e6 8b 96 bc
       0.0016637887 -0.036609262 -0.051265236 -0.018377256
0001a0 e7 d7 0a 3e f3 6b 71 bd 17 6a f3 3c 4e 03 e1 bd
       0.13558923 -0.05894084 0.029713674 -0.109869584
0001b0 8d 20 b2 3d 2e 5b 9d 3c f9 94 2c be 19 ef 4f bd
       0.08697615 0.019208517 -0.16853704 -0.05076513
0001c0 eb 08 12 be 72 00 f5 bd 28 94 2a bc 95 4b a2 3d
       -0.14261214 -0.119629756 -0.0104113 0.079245724
0001d0 90 6e 86 bd 59 63 ad bd 2a 2a 5d 3d 0e ee dd 3d
       -0.06564057 -0.08466215 0.05399529 0.10836421
0001e0 00 3d 8e 3c 85 29 b1 bd 6e 78 3e 3e 27 72 8d 3d
       0.017363071 -0.08650497 0.18600628 0.069065385
0001f0 3d 8f f3 bc 09 0e ea 3c 59 7d d7 3d 75 cd bf bd
       -0.029731387 0.028571146 0.10521955 -0.0936536
000200 5e e5 e0 3c 4f a1 6d bd bb 6c 26 be 24 74 29 3e
       0.02745312 -0.058015164 -0.16252415 0.1654821
000210 6c 54 5f 3e ee 31 8a bc 6a 8e aa bd 96 47 8c 3d
       0.21809548 -0.016869511 -0.083279446 0.068495914
000220 35 d3 9d bc e7 a4 34 be fe dc e2 bd 4d ab f8 3d
       -0.01926575 -0.1764103 -0.11077307 0.12142048
000230 dc 1e 56 3e bb a2 69 be 0c 8d 62 bd 8d 14 e9 3d
       0.2091021 -0.22815983 -0.055310294 0.11380873
000240 db 43 91 3d 23 d0 f3 bd 67 52 7a bd 29 f6 47 3c
       0.070930205 -0.11904933 -0.06111374 0.012204685
000250 31 cb 97 bb 2a cb 91 bc d5 d5 e0 3c 1d 4a ec 3d
       -0.0046323766 -0.017797071 0.027445713 0.115375735
000260 a7 c9 2c 3e 28 6b db bd e3 aa 01 3e e5 f1 e2 3d
       0.168738 -0.10713798 0.12662844 0.11081294
000270 cf 33 a6 3d 75 80 4d 3d bf 46 22 3e 71 23 62 3d
       0.081153505 0.050171334 0.158473 0.05520958
000280 e7 1a 7f 3d 2c d0 3c bd 8d 99 bc bc d1 c8 fa bc
       0.062281515 -0.046096966 -0.023022437 -0.030613335
000290 51 21 3f 3d b8 bd ec bd 93 92 6a bd 47 8f 2c be
       0.046662632 -0.115596235 -0.05726869 -0.16851531
0002a0 bd f4 6b 3d bb c2 03 be d3 e9 0c 3c 44 36 f1 3c
       0.057606447 -0.12867253 0.00860067 0.029444821
0002b0 d4 d6 46 bd 26 76 00 bd 5b 77 2a be ad 53 11 3e
       -0.04854472 -0.031362675 -0.16647093 0.14192076
0002c0 b3 3c a3 bd c9 b7 3b 3b 62 fb 3c 3e a3 93 03 bd
       -0.07970562 0.002864348 0.1845527 -0.03212322
0002d0 3a 52 b4 bb 12 ce 26 3e 01 cd 2c 3e 98 08 02 be
       -0.005502966 0.16289547 0.16875078 -0.12698591
0002e0 f5 f9 d3 3d 08 3a 9f bc c5 5b 3a 3d 29 e9 1a be
       0.1035041 -0.019436851 0.045497674 -0.15128006
0002f0 17 68 54 be f0 46 12 3e 07 f9 2c be e3 45 f7 3d
       -0.20742832 0.14284873 -0.16891871 0.12073877
000300 22 4b 83 bd 8b 09 83 be ba 40 e7 3c 90 ff 3b 3d
       -0.06410815 -0.25593218 0.028229106 0.04589802
000310 7f ae 5d be 09 08 ef bc f8 a5 86 bd 15 87 40 be
       -0.21648596 -0.029178636 -0.06574625 -0.1880153
000320 46 41 cc 3d c2 4a 3d be 58 3e 47 be b8 af 43 bd
       0.099733874 -0.18485549 -0.19457376 -0.047775
000330 e4 8a f2 bc a4 01 f6 3d 5b 53 23 3e 04 51 3d 3d
       -0.029607244 0.12012032 0.15949766 0.04621984
000340 df e1 af 3e fb 60 40 3d d3 9c 1f b9 f3 5a 18 be
       0.34352013 0.046967488 -0.00015221843 -0.14878444
000350 7b 1e 1a be d3 ed fd bd 11 32 40 bd d2 60 f0 3d
       -0.1505069 -0.12398877 -0.046922747 0.11737217
000360 50 4a f8 3d 18 87 12 be 82 65 eb 3d 03 44 01 be
       0.12123549 -0.14309347 0.114939705 -0.126236
000370 47 d9 67 be 0d 9c 02 bd ad 15 4d 3e 25 cb 83 3d
       -0.22641478 -0.031887103 0.200278 0.06435231
000380 cc 26 e9 bd a7 70 4c bd af af 9d 3d 89 9e 44 3d
       -0.11384353 -0.04991212 0.076995246 0.048002753
000390 3c 9a 83 bd 7b cc 54 3e af 03 4f 3e b3 15 a8 bb
       -0.06425902 0.20781128 0.20216249 -0.00512954
0003a0 28 55 c0 bc 05 e8 3d bd d1 5f cc bd 14 a3 1b be
       -0.023478106 -0.04636385 -0.09979213 -0.15198928
0003b0 86 2a 92 3d ec 38 68 bd f3 2e a0 bd 85 13 3a bd
       0.07137017 -0.05669491 -0.07821455 -0.04542877
0003c0 30 f4 ce bc 66 4b ea 3d 40 d9 ec bd 6d 0b 6a be
       -0.025262922 0.11440162 -0.11564875 -0.22855921
0003d0 64 89 86 bd d0 23 29 3e e1 73 55 bd 13 c1 1c be
       -0.06569174 0.16517568 -0.052112464 -0.15308027
0003e0 e3 c3 20 3e 8b e2 9e 3d dc d0 0d bd 72 06 99 bd
       0.15699725 0.077580534 -0.034623012 -0.074719325
0003f0 58 bc d3 3c ee 02 81 be dd 5d a2 3c 98 b5 0e 3e
       0.025846645 -0.25197548 0.019820148 0.1393646

lstm.bias_ih_l0 f4 [120]
000000 4b bb 45 be 18 a3 0e be c5 e4 4b 3d c7 45 ca bd
       -0.19309728 -0.13929403 0.04977872 -0.0987659
000010 3d 0e 7f bd 27 79 d0 3d 89 03 5e 3e 93 af 94 3d
       -0.062269438 0.10179358 0.21681036 0.072600506
000020 f9 2c 8e 3d cc 9c 25 bd ff b1 28 be 9d 6b df bc
       0.069421716 -0.040432736 -0.1647415 -0.027272994
000030 65 d9 6e bc b9 9f c3 3c eb a6 4e 3e 63 69 87 3d
       -0.014578198 0.023879873 0.20180862 0.06611898
000040 0c 44 8c bd e5 21 40 be 87 0b 1e bd d2 47 50 bd
       -0.068489164 -0.1876293 -0.038585212 -0.050849743
000050 7b 54 88 3e e4 74 d6 bd e5 b8 c1 bd b1 0e 5a 3d
       0.26626953 -0.10471514 -0.09459094 0.053236667
000060 79 01 65 bc b5 ce c8 3d 70 d4 8a bd 9b 67 58 be
       -0.013977402 0.09805051 -0.067788005 -0.21133272
000070 75 92 1e 3e eb ba af bd 17 35 1c 3e f0 70 a6 3d
       0.15485556 -0.08580574 0.15254627 0.0812701
000080 06 52 d8 bd da 93 c4 3c f5 cb 78 3d db f6 1a be
       -0.1056252 0.023996282 0.060741384 -0.1513323
000090 d9 9c 84 3e 4c 81 57 3e 52 61 d3 3d 4c 53 93 3e
       0.25900915 0.21045417 0.10321297 0.28774488
0000a0 19 4b 4d 3d ef 8c 40 3e 22 bb b1 3b a4 f7 d9 3d
       0.050120447 0.18803762 0.0054239193 0.10642937
0000b0 48 39 a4 3c 6e 5c f2 3c 06 a0 37 bd 52 e2 de 3d
       0.020046845 0.02958509 -0.044830345 0.10883011
0000c0 d3 8c bd 3d e4 fc a7 3d c6 7a 88 3d 93 8a 17 bd
       0.09255376 0.08202532 0.06664042 -0.03699739
0000d0 21 21 fd 3c 3a 2b 72 3d ae 78 be bc 6a 07 75 3e
       0.030899586 0.059123255 -0.023250904 0.2392861
0000e0 f6 c2 f3 3a db 99 02 be 75 14 91 3d 39 15 2d bd
       0.0018597532 -0.12754004 0.0708398 -0.042256568
0000f0 15 5b 81 bd 65 ce 20 be 9e 18 1a be 60 f8 aa bd
       -0.06316201 -0.15703733 -0.15048453 -0.08348155
000100 a9 68 05 be 87 3b 05 3d 42 bc e9 bc 60 b8 30 3d
       -0.13028206 0.032527473 -0.028532151 0.043144584
000110 6b df 0a 3e d5 c2 ea 3d d5 df 9f 3c 9b 01 3e bc
       0.1356179 0.114629425 0.019515911 -0.011597062
000120 74 f9 18 be 30 0e 01 be 9f 77 b7 bc da 57 f4 bd
       -0.14938909 -0.12603068 -0.022395907 -0.11930819
000130 48 96 05 be aa c5 b6 bd 9f 59 1b 3e 1b 60 f5 bc
       -0.13045609 -0.0892442 0.15170906 -0.029953053
000140 ea 8a 93 3d 65 dc e3 bd f1 5c 15 be ea 9a 98 bd
       0.0720423 -0.11126021 -0.14586236 -0.074514225
000150 5a f0 d5 bd eb cb 47 bd f3 22 fc 3d 10 ff 4d 3d
       -0.10446234 -0.048778456 0.123113535 0.050292075
000160 e8 f6 ce 3d c5 51 17 3d 5c 99 4d 3d 8b 3f 1b 3c
       0.101056874 0.036943216 0.050195083 0.009475599
000170 b7 1a e5 3b f9 8e 12 3d 75 72 26 be 0a 95 3a 3e
       0.00699171 0.03578088 -0.162546 0.18220916
000180 69 a4 38 bc 33 19 f8 3d 7e 2c 25 3d aa 64 5d 3e
       -0.011269667 0.12114181 0.040325634 0.21620432
000190 eb f1 18 bc 0f 2e 21 3e 61 83 14 bd 96 d4 a8 3d
       -0.0093350215 0.15740226 -0.036258105 0.082436725
0001a0 b3 01 2d bd 2d 48 82 3d 56 e6 d7 bc ca 9b c0 bd
       -0.04223795 0.06361423 -0.02635495 -0.094047144
0001b0 4a 95 2e bd 86 90 e8 3d 1a 23 83 3d 78 99 8b 3b
       -0.042622842 0.11355691 0.064031795 0.0042602383
0001c0 cd ef 01 bc 12 79 df 39 70 89 89 3e 0e 6c 80 3a
       -0.007930708 0.0004262408 0.2686267 0.0009797828
0001d0 1c 4e a3 bd dc 68 8e bd ee 40 47 3e 35 6e 32 3e
       -0.079738826 -0.06953594 0.19458362 0.17424853

lstm.bias_hh_l0 f4 [120]
000000 80 79 21 3d 72 9f 91 bd 1f 40 98 3d ac 66 09 3c
       0.039422512 -0.0711049 0.07434105 0.008386295
000010 c4 87 11 3d 07 ec 76 3d fe 38 f3 bd 4b e0 00 3e
       0.035529867 0.060283687 -0.11876105 0.12585561
000020 fa c4 29 bd 8b 24 8c 3d 0b 6a 1d be 48 71 38 3e
       -0.041447617 0.068429075 -0.15372483 0.18011963
000030 2f 33 a6 3c be 70 81 bc 58 97 b2 bd d1 69 06 3e
       0.020288078 -0.01580083 -0.08720273 0.13126303
000040 67 09 9a 3c cf cc ed bd 4c 14 cc 3c ac 4c 04 3d
       0.018803312 -0.1161133 0.024912022 0.032299682
000050 f2 78 8c 3e 96 51 d8 bd c7 7e cd bc 1a 6f 6c 3d
       0.27436024 -0.10562436 -0.025084866 0.057723142
000060 8f a6 44 3e bb e4 09 be b6 d6 96 3d ea 52 46 be
       0.19204162 -0.1346616 0.073651716 -0.19367567
000070 5a ec ea bc 6c 84 af ba 49 11 f5 bd 6c 4b 1c 3e
       -0.028677154 -0.0013390905 -0.119661875 0.15263146
000080 e0 4c 55 3c 2d 12 e2 3c 0e 75 de bd 1e 4b 47 3e
       0.013018817 0.027596558 -0.1086217 0.19462249
000090 66 dc 84 3e 3d ac d9 bd d0 9a d6 bd a5 b4 a2 3e
       0.259494 -0.10628555 -0.10478747 0.31778446
0000a0 43 33 9c bd bd 0c 3d 3e 9d 77 39 3e f8 78 57 bd
       -0.07626965 0.1846189 0.18112035 -0.0526056
0000b0 f5 3f bc bd 28 ba f5 3d a5 f8 f5 3b 9e 74 88 3e
       -0.09191886 0.11998397 0.0075064474 0.26651472
0000c0 2e 27 4d 3e ca 30 73 3e 29 d6 71 3e 6b fd 5a be
       0.20034477 0.2374908 0.23616852 -0.21385734
0000d0 1b 0d 6d 3d 92 b8 b0 3e 6c fc ed 3d d3 46 a0 3d
       0.057873826 0.34515816 0.11620411 0.07826009
0000e0 77 e8 3b bb 57 e5 08 3d 7b 16 20 3e 77 1b bd 3d
       -0.0028672495 0.03342184 0.15633576 0.09233754
0000f0 9a f5 d0 bd 77 55 37 be 93 d9 96 3d 69 e0 9c 3d
       -0.10203095 -0.17903696 0.07365718 0.0765999
000100 5c c1 eb 3d d0 a4 3f 3d d2 7d fc bc 10 74 4f bd
       0.1151149 0.046788037 -0.030821715 -0.050647795
000110 c5 fb 03 be e6 35 a4 3d ae 65 6a 3d 0a 18 1f bc
       -0.12889011 0.08018093 0.057225876 -0.009710321
000120 dc 12 ba 3c dd 76 9e 3d dd c0 99 3d 04 81 25 3d
       0.022714071 0.07737515 0.07507489 0.040406242
000130 2f bb d2 bd cd ba d9 bd 77 27 97 bd 8b 84 8a bd
       -0.10289609 -0.106313325 -0.07380574 -0.06763562
000140 4a 01 18 3e 3c 33 f7 bd f5 1c 3a 3e 42 3a e0 bc
       0.14844242 -0.12070319 0.18175109 -0.02737153
000150 cb 0d ee bc f8 f7 8b bb 7c 80 d4 3d 14 85 b8 bd
       -0.029059311 -0.0042715035 0.10376069 -0.09009758
000160 ab f7 08 3e bb 5e 67 3d 0f e0 9e bd 65 a3 32 3e
       0.13375728 0.056486826 -0.077575795 0.17445143
000170 d9 9c 56 3d bb e2 b7 bd 31 5f d1 bd 11 23 04 be
       0.052395675 -0.08978792 -0.102232344 -0.12904002
000180 ee 85 16 3e 83 e2 68 3d f1 23 f8 3b 39 38 b4 3d
       0.14699528 0.056856643 0.007572644 0.08799786
000190 58 e0 69 3e f8 9e e1 bd d9 a2 96 bc aa 8d f9 bd
       0.22839487 -0.11016649 -0.018388199 -0.121852234
0001a0 1c 3c 91 bd 3f 86 8f 3d 45 4f c2 bd f6 43 d7 3d
       -0.07091543 0.07008027 -0.09487776 0.105110094
0001b0 df 8f 59 3e 95 eb 9c 3d 6d c1 85 bc a4 f5 f8 bd
       0.21246289 0.07662121 -0.016327584 -0.12156227
0001c0 34 98 84 3e da b6 ad 3d 54 e9 37 3e d9 ab 24 3e
       0.25897372 0.08482142 0.17960101 0.1608118
0001d0 77 ae 3c bc c1 2b 1e 3e 6d ee c6 3d b2 1d 41 bd
       -0.011516205 0.15446378 0.09713445 -0.04714746

lstm.weight_ih_l0_reverse f4 [120, 15]
000000 c5 71 ca 3d ef ae f9 3a de 97 fb 3b c2 bc ab bd
       0.09884981 0.0019049327 0.007678016 -0.08385612
000010 9f ae 4a 3e 82 5f 19 be aa cd dd bd e7 e9 f4 bd
       0.19793175 -0.1497784 -0.10830243 -0.11958676
000020 2c fd da 3d 4f 75 51 3e bf 2f 06 3e ab b1 26 be
       0.1069282 0.20454906 0.13104151 -0.16278712
000030 3e d4 ba bd 9a b4 a0 bc 42 87 63 bd 47 91 ed bd
       -0.09122513 -0.019617368 -0.055548914 -0.11599975
000040 c0 a3 c9 3b 1f e1 c6 bd 70 6a ad 3d 22 3b 6f bc
       0.0061535537 -0.09710907 0.08467567 -0.014601501
000050 02 3f 1f be a7 74 bd 3d 46 e8 1d 3e 92 90 9c ba
       -0.1555138 0.09250765 0.15420637 -0.0011944941
000060 05 0f d6 3c 0f 2c 12 bd 1e 8c 24 be 63 b0 31 3c
       0.026130209 -0.03568655 -0.16069075 0.0108452765
000070 7c 6a 15 be 71 5c 2e 3c 22 59 a8 3d 03 32 97 3d
       -0.14591402 0.010642157 0.08220126 0.07382586
000080 a9 65 d6 bc 82 8c 12 bd b1 c8 bf 3d df bd a8 bd
       -0.026171522 -0.03577853 0.09364451 -0.0823934
000090 e4 af 4c be 35 20 f4 3b 43 ac 19 3e e0 dc ac bd
       -0.19988972 0.0074501284 0.15007119 -0.08440566
0000a0 60 99 53 bd 22 4e b5 3d 04 94 4d 3e ec 74 14 3e
       -0.05165994 0.08852793 0.20075995 0.14497727
0000b0 5b 2b 05 3e 73 b9 01 bd 6f 70 27 3e e8 31 0f 3e
       0.1300482 -0.031671 0.16351484 0.13983881
0000c0 9c af 23 3d 7a 4f 50 be 3c ba a5 3d 30 a4 6f bd
       0.039962396 -0.20342818 0.08092162 -0.05850619
0000d0 6e ff 2b be d8 bf 7c 3d b1 f4 a8 3d de 69 87 3d
       -0.16796657 0.061706394 0.08249796 0.066119894
0000e0 f7 0f 56 be f6 0f 03 be f1 63 a7 bd 32 e1 38 3d
       -0.20904528 -0.12799057 -0.08173359 0.045136638
0000f0 69 a7 a1 39 b6 b9 70 3d d8 bc 03 be 93 21 f6 3d
       0.00030833043 0.058770858 -0.12865007 0.120181225
000100 a1 dc 18 3e 1f 12 6a 3d 51 8b 30 3e 3b fa 42 3e
       0.14927913 0.057146188 0.17240645 0.19040768
000110 71 c0 6f 3e f0 61 80 bd 48 f3 0d 3e 83 71 11 3d
       0.23413254 -0.0626868 0.13862336 0.035508644
000120 c1 af 44 3d 74 ec 18 be ba 33 14 be 88 ff 62 be
       0.048019174 -0.1493395 -0.14472857 -0.2216779
000130 70 52 1f 3d 96 c6 b0 3d 50 e9 dd 3d d2 09 10 3e
       0.038896978 0.08631627 0.108355165 0.14066246
000140 50 39 eb 3c 42 be c0 bd 85 9e 51 3c d3 fa 1b 3e
       0.028713852 -0.09411289 0.012794142 0.152324
000150 36 e7 d3 3c 1e 61 4f bd 50 7c 30 3e 3a 57 c4 bd
       0.025867086 -0.050629728 0.17234921 -0.0958695
000160 d5 8d 8c 3e b0 af a0 bc 0d 80 2d 3e d4 95 c5 bd
       0.2745196 -0.019615024 0.16943379 -0.09647718
000170 2c 41 21 be 3b 12 50 bd 9b 2c 32 be 0a 55 e6 3d
       -0.15747517 -0.050798636 -0.17399828 0.11246689
000180 7d d9 0b 3d 03 6f 5e 3d 91 10 cc 3c 9a ac bb 3d
       0.03414296 0.054305088 0.024910243 0.091637805
000190 e4 1d 14 3e 9b 99 81 3d aa 9f 04 be 56 6d 0f 3d
       0.14464527 0.06328126 -0.12951532 0.03501638
0001a0 d1 1a 00 3c 17 70 36 be 74 c8 ec bd ea a6 28 be
       0.0078188935 -0.17816196 -0.11561671 -0.16469923
0001b0 d9 e7 18 3e 55 a8 bd 3d 9e 24 79 3d fe e5 f0 bd
       0.14932193 0.092606224 0.060825936 -0.117626175
0001c0 c4 52 24 be be 85 6b bd aa 0a 3b 3e d5 8f f9 3c
       -0.16047198 -0.057500593 0.18265787 0.030464092
0001d0 5c 7a 6e 3d f6 7e e0 3d bb 5c a7 3d d4 ae 75 3e
       0.05822216 0.10961716 0.08171984 0.23992473
0001e0 43 30 0d bb 14 e2 24 be 11 fb a4 bd 5f 23 1a 3e
       -0.0021543659 -0.16101867 -0.080556996 0.15052556
0001f0 e0 fc a3 3d 3d d9 3f 3d e2 e3 95 bd 8f 75 18 bd
       0.080072165 0.046838034 -0.07318856 -0.037221488
000200 47 15 fd 3c 65 61 b1 3d a5 26 7d bd 28 f8 30 3d
       0.030893935 0.08661155 -0.061804432 0.04320541
000210 f4 a3 79 be 24 7d 9f bd d5 a9 38 3d 3b a9 43 3e
       -0.2437895 -0.077875406 0.04508384 0.19107525
000220 38 e5 64 3d 23 70 88 3d 6c a1 21 be 43 a6 4b 3c
       0.055882663 0.066620134 -0.15784234 0.012429777
000230 bb 64 52 3d 7b 00 65 3e 5f d7 87 3e e1 17 36 be
       0.051365595 0.22363465 0.26531503 -0.17782547
000240 33 e0 00 be 71 bc 2e be 33 fd e6 bd cb 04 5b bd
       -0.12585525 -0.17064072 -0.11278763 -0.053471368
000250 94 3b 50 bc 7a 15 1f 3e 41 78 db bb b4 d8 b1 bc
       -0.012709517 0.15535536 -0.006697685 -0.021709777
000260 3d d6 11 be 68 14 dc 3d 6d 22 e3 bd ae 1c 9a 3d
       -0.14241882 0.1074608 -0.110905506 0.075250015
000270 07 47 6e be 12 ce b5 bd fe 58 e7 bd 7d fd af ba
       -0.23269282 -0.088771954 -0.11296271 -0.0013426986
000280 78 7e d1 bd a5 5c 1f be ae dd ab bd fb 6f 1f bd
       -0.102292 -0.15562685 -0.083918914 -0.038925152
000290 38 25 ff bd 36 3d 40 3d 87 4e 80 3c 11 76 b0 bd
       -0.12458271 0.046933375 0.015662445 -0.086162694
0002a0 b7 f7 86 3c e1 0f a6 3d 9d c7 e6 bd e7 51 a5 3c
       0.016475542 0.081084974 -0.11268542 0.020180656
0002b0 75 8c 34 bd b4 ff ca 3c e5 1e 03 be 3b 0f c7 bd
       -0.044079263 0.024780132 -0.12804754 -0.09719702
0002c0 23 06 40 3b b2 11 a0 3d 82 86 e4 bc 9a 4d 22 be
       0.0029300533 0.07815875 -0.02789617 -0.15849915
0002d0 f3 b2 57 3e 02 c0 d0 3d 6d 04 06 3e 22 6b 01 3e
       0.21064357 0.101928726 0.13087626 0.12638524
0002e0 47 5e 24 3b ed c5 93 3d 48 6b 36 be bb aa 74 3e
       0.0025080608 0.07215486 -0.17814362 0.23893254
0002f0 b3 19 ec bd 27 3f 41 bd 66 0b d2 3d bc 9e a6 3d
       -0.11528339 -0.047179367 0.1025608 0.08135745
000300 84 89 49 be 3c 22 92 3d 78 56 18 3e 75 77 08 3d
       -0.19681364 0.07135436 0.14876735 0.033317048
000310 7a 61 69 bd bc ab 85 bd 6d 14 f2 bd 22 5a 39 bd
       -0.056977727 -0.06526896 -0.11820302 -0.045251973
000320 47 51 b5 3b 08 1d dd bd b1 45 8d 3e 77 39 e5 bd
       0.0055333707 -0.10796553 0.27592233 -0.11192601
000330 f6 60 cc bd 83 be 19 3d 40 d4 a7 bd 6b b0 7a 3e
       -0.09979431 0.0375352 -0.0819478 0.2448136
000340 d1 09 65 3e 93 42 20 bb bf 78 28 be 84 04 85 3e
       0.22367026 -0.0024453744 -0.16452311 0.25980008
000350 7d df 7f 3d 01 19 6d be 97 ef 11 be ce 19 c0 bd
       0.062468994 -0.2315407 -0.14251553 -0.09379922
000360 39 3f b8 bd cb 2f b3 bd 71 ac 7d 3c f0 fa 40 bd
       -0.08996434 -0.0874935 0.015483008 -0.047114313
000370 f4 07 2c bd 97 81 19 3d 6b da 32 bd d1 40 dc bd
       -0.041999772 0.037477102 -0.04366533 -0.1075455
000380 78 f5 cb bd 51 62 37 be 1a b5 df 3d 86 92 81 3b
       -0.09958929 -0.17908598 0.10923214 0.0039542345
000390 76 6b 5a 3e 89 67 04 3e c4 97 2f 3e 76 5c 0d 3d
       0.21330056 0.1293012 0.17147738 0.034512006
0003a0 03 1c a5 bc 32 03 8f 3d ae 14 16 bd 3e a2 cd 3d
       -0.020154959 0.06983031 -0.036640815 0.10040711
0003b0 70 35 1d 3d 17 f3 9a bd 86 16 a7 39 71 8e a9 bc
       0.03838104 -0.07565897 0.00031869503 -0.020697804
0003c0 44 1c 20 3e f5 b7 91 3d c3 48 a6 3d 42 43 bd 3c
       0.15635782 0.07115165 0.08119347 0.02310336
0003d0 2c 68 6d 3e 35 fe 0a 3e e2 b2 c1 3d 92 6e b1 3c
       0.2318427 0.13573535 0.09457947 0.02165917
0003e0 f1 cc 37 3d b1 b5 12 be 85 ca d3 3d 14 68 0a be
       0.04487318 -0.14327122 0.10341362 -0.13516265
0003f0 7f 89 5e bd 3f b7 2b be 09 8a bd bd ab bb 29 be
       -0.054330345 -0.16769122 -0.09254844 -0.16575496

lstm.weight_hh_l0_reverse f4 [120, 30]
000000 db 20 40 be 85 44 ac 3d 07 11 a4 3d eb 7a be bd
       -0.18762533 0.084115066 0.0801106 -0.093007885
000010 16 00 f5 bd 20 be 2e 3e 60 f5 cd bd b5 07 5c 3d
       -0.11962907 0.17064714 -0.10056567 0.053718287
000020 53 8c 97 3d 81 be 18 be 85 25 3d 3e e2 a0 c3 3c
       0.073998116 -0.14916421 0.18471344 0.023880426
000030 6a 72 68 3d 12 05 52 3d ed 07 89 3d 68 27 cd bc
       0.05674974 0.051274367 0.06690965 -0.025043204
000040 c3 0e 17 be 45 09 f7 bd 49 f4 f1 bc b4 8a 3c 3e
       -0.14751725 -0.12062315 -0.02953543 0.18412286
000050 79 bb aa bd 4d 15 e6 3d 65 cf 2c be 00 27 a7 3d
       -0.08336539 0.112345316 -0.1687599 0.081617355
000060 c8 c4 66 3d b5 89 99 bd bf d7 34 be f7 fc aa 3d
       0.05634001 -0.07496969 -0.17660426 0.083490305
000070 d9 33 f5 bd 83 63 74 bc 98 21 24 bd 2a 50 13 be
       -0.1197278 -0.014916304 -0.0400711 -0.14386049
000080 7d 9e b1 3c b6 37 a5 bd 74 91 13 3e 40 5d 6a bc
       0.021682018 -0.08067267 0.14410955 -0.014304459
000090 ee 79 f8 3c 0c 3f 18 be c0 ca 96 bd e3 af a3 3c
       0.030331578 -0.148678 -0.0736289 0.01998133
0000a0 15 8c d1 bd 51 e2 26 3e 73 35 cd bd 8f 00 00 bd
       -0.10231797 0.1629727 -0.1001996 -0.031250533
0000b0 82 1d c6 bd a1 b9 10 be 9c ce 39 bd d5 ab 1b be
       -0.09673597 -0.14133312 -0.045363054 -0.15202267
0000c0 6a 03 4a be a6 e2 ed bd 8c f9 15 3e d0 94 04 3e
       -0.19727865 -0.116154954 0.14645976 0.12947392
0000d0 81 0b 02 be 66 77 0b be e4 dc 20 be dc 18 3b bc
       -0.12699701 -0.13619766 -0.15709263 -0.011419501
0000e0 aa 3f 87 bc 74 b5 46 3e 5f dc 3a be 6a f4 4a 3c
       -0.01650985 0.19405156 -0.18248127 0.012387374
0000f0 d7 fa 35 be 36 8b 59 bd 96 ce 01 3e d3 1d 51 bd
       -0.17771469 -0.053111278 0.12676463 -0.051053833
000100 5b 4e a6 3d 3b 30 2f be 46 ca 60 be bf 7f a7 3d
       0.08120414 -0.17108242 -0.21952161 0.081786625
000110 e5 f5 30 3e e2 aa a5 3d f3 c9 83 bd 40 75 8d 3d
       0.17281301 0.08089234 -0.06435003 0.06907129
000120 14 da 0f bc b3 b4 97 3e 0a 41 6a bd bc 1f a3 3d
       -0.008780021 0.2963005 -0.057190932 0.07965037
000130 b5 32 0d be 33 41 74 be 88 7c 13 be ba bd 63 be
       -0.13788874 -0.23852997 -0.14402974 -0.22240344
000140 39 72 ae 3d 7e 96 92 3d 18 11 04 3e eb eb 2e be
       0.0851788 0.0715761 0.12897146 -0.17082183
000150 af fc b3 3d 0b 48 d1 3d c0 98 dd 3d 0d f1 22 bd
       0.0878843 0.10218819 0.108201504 -0.039780665
000160 13 2a 7a 3e 9e b9 2a be ef 98 a9 3d 52 7c 8c 3d
       0.24430113 -0.1667237 0.08281123 0.0685965
000170 3d ff 82 bd 5b eb 5b 3d ca c3 7a bd 74 6b 4a 3e
       -0.06396339 0.05369125 -0.061221875 0.19767553
000180 8e 62 1c be 88 01 2b 3d 95 fb 8d bd 5d bd 3b bd
       -0.1527197 0.041749507 -0.06932751 -0.045834888
000190 8a 03 84 3e bb cd 47 3e 0d e5 69 3e c1 ad 24 be
       0.2578395 0.19512074 0.22841282 -0.16081907
0001a0 2b 1e 16 3e b6 ad 28 3d f0 79 da 3d 8c 6b 05 be
       0.14659946 0.04118129 0.10667789 -0.13029307
0001b0 85 b6 3d 3e d6 46 3a 3e 37 75 07 3d 34 a4 d3 3d
       0.18526657 0.18191084 0.03307077 0.10334054
0001c0 00 0b af 3d 12 af bb bd a4 c9 9e bd 15 c0 85 bd
       0.0854702 -0.091642514 -0.07753304 -0.06530777
0001d0 b5 20 40 be 94 bf e5 bd df 9f 56 3d 04 d2 06 3d
       -0.18762477 -0.11218181 0.05239856 0.03291513
0001e0 d8 1c 01 3d de 67 2c 3e f4 02 63 3d 5a 2b 51 3e
       0.03152165 0.16836497 0.05542274 0.20426694
0001f0 6e 26 03 be dd 45 38 be f7 00 59 bd 69 6f ff 3d
       -0.12807629 -0.179954 -0.052979436 0.12472422
000200 41 eb a1 bd 29 dc d9 3d 04 1d 72 3d 8f 4f c8 bd
       -0.07906199 0.10637695 0.059109703 -0.097807996
000210 cd 63 cb 3d 30 53 f7 bd 2b 83 01 3d c0 ad 09 3d
       0.09931145 -0.12076414 0.031619232 0.033612967
000220 3e d7 3b bd 17 da cd bd e0 6c 49 3c 70 37 cd 3d
       -0.045859568 -0.10051363 0.012294024 0.100203395
000230 a4 ee 18 bb 7f 99 22 bc ff 4a 3c 3c 4c 3c 93 3c
       -0.00233356 -0.009924292 0.01149249 0.017973088
000240 58 39 fc bd 1d d6 2d 3e 36 72 c3 bc 51 df 42 bd
       -0.12315625 0.16976209 -0.023858171 -0.047576252
000250 a6 44 eb 3b 02 7a 5c 3d 0f 82 1a 3e cb 2b bf 3d
       0.0071798144 0.053827293 0.15088676 0.09334525
000260 e0 9a 6a bd 16 0d 9b 3d ac e3 98 3d 93 53 74 bd
       -0.057276607 0.07570855 0.074653 -0.059650015
000270 01 b4 70 bd cd 69 bd bc 94 e6 67 3b de 15 23 3e
       -0.058765415 -0.023121739 0.0035385238 0.1592631
000280 c0 8a 8f 3d ff 7b b3 3d 49 27 6e 3d 30 66 1d be
       0.07008886 0.08763885 0.058142934 -0.15371013
000290 f3 3c 19 3e db f7 29 be 8f 46 b8 bd 31 a6 c6 3d
       0.14964657 -0.16598456 -0.08997833 0.09699667
0002a0 d1 d8 06 3e 74 af cb 3d bf e7 3d be 3e d6 1c 3d
       0.13168646 0.099455744 -0.18545435 0.038290255
0002b0 7e 68 c9 bd b0 49 12 3e 9f 4b 3f 3e 46 e5 59 3e
       -0.098343834 0.14285922 0.18681191 0.21278867
0002c0 54 14 2a 3d 30 ed 3d bd d9 75 c1 bd e2 a9 82 bd
       0.041523293 -0.046368778 -0.09446306 -0.06380059
0002d0 58 91 09 bb 91 6a 3a 3e 3c ce 47 be bd b3 4f bc
       -0.0020991173 0.18204714 -0.19512266 -0.01267713
0002e0 1a 54 69 be cf 10 ec bd 7b bb 5b be 8a 26 8a be
       -0.22785988 -0.115266435 -0.21458237 -0.26982528
0002f0 22 cc b6 bc 6e b3 40 be 85 0e b2 3d 7c 53 ae bd
       -0.022314135 -0.18818447 0.08694176 -0.08512017
000300 58 42 ff bd 91 af 1b be c8 6f 16 3e 23 71 f4 bc
       -0.12463826 -0.15203692 0.14691079 -0.029839104
000310 06 43 1e 3c 43 47 b1 3d 80 7d 0e 3e aa b4 55 3e
       0.009659534 0.0865617 0.13915062 0.20869699
000320 c0 73 62 3e ce 84 8c 3c 5b a2 aa 3d 46 34 e0 3b
       0.22114468 0.01715317 0.08331748 0.006842169
000330 7b 36 60 3d 2d 0e 47 be ad b8 63 3d 33 47 72 3e
       0.054739457 -0.19439001 0.055596042 0.23659973
000340 28 78 f5 bd c5 03 22 3c 90 ce 7a 3d fc 26 8b 3d
       -0.119858086 0.009888594 0.06123215 0.06794545
000350 64 58 1a bd 89 7f 1d 3e 33 85 b1 3b ad 16 76 3c
       -0.037681952 0.15380682 0.00541749 0.015020055
000360 b6 87 6c bd 99 3f a2 bc 48 17 9c bd dd 4f 8f 3d
       -0.05774661 -0.019805716 -0.07621628 0.069976546
000370 f0 00 48 be 1b e4 a7 3d f6 9a 19 be 5a 0a d0 3d
       -0.19531608 0.081978045 -0.15000519 0.101582244
000380 bc a8 90 3d 59 93 18 be 07 87 4b 3d d1 ec 84 bc
       0.070634335 -0.14899959 0.04968932 -0.016226204
000390 e1 96 fe bb fe 08 82 be ed 73 92 be 11 01 18 bd
       -0.007769451 -0.25397485 -0.2860407 -0.037110392
0003a0 aa e8 d9 bd 2f 1b 06 bd a9 9b a3 bb a4 ba 90 3d
       -0.1064008 -0.032740768 -0.0049929214 0.07066849
0003b0 c3 1b 89 3d 6e 0a cb 3d 2d 09 fe bd 58 1d 1b 3e
       0.06694748 0.09914099 -0.12404094 0.15147913
0003c0 bd 13 28 be 7d 78 d1 3d 88 bb 17 be 5c 38 31 3e
       -0.1641378 0.102280594 -0.14817631 0.17306656
0003d0 73 20 c2 bd a7 e3 a2 3e c6 fe 64 bd f5 9a c9 3c
       -0.094788454 0.3181431 -0.055907033 0.024610022
0003e0 62 09 8c bd 6b 51 37 be 9e 71 8b 3e 96 14 37 bd
       -0.06837727 -0.17902152 0.2723512 -0.044697367
0003f0 dc 75 2d be 96 3d 9e bc 61 d6 02 3e e3 1e 20 be
       -0.16939491 -0.019316476 0.12777092 -0.15636782

lstm.bias_ih_l0_reverse f4 [120]
000000 9b d4 a9 bd 37 15 fb bd 69 4d 0a 3e d7 ad 01 3e
       -0.082925044 -0.12259906 0.13506092 0.12663971
000010 f5 71 01 3d 34 d2 0f 3e fa e2 22 be c4 1b 22 be
       0.03160282 0.1404503 -0.15906897 -0.15830904
000020 a9 2c da 3d c0 69 e4 3d 0b 0c 1e be 54 f0 ee bb
       0.106530495 0.11152983 -0.15434282 -0.007291833
000030 a4 8f e2 bc 0b ed 11 be 95 4b f4 bc 11 24 5f 3e
       -0.027656384 -0.14250581 -0.029821197 0.21791102
000040 74 f1 eb bd 17 ce bc bd ff a0 63 3d 68 93 20 3e
       -0.11520663 -0.09218996 0.05557346 0.15681231
000050 9d e4 de 3d 81 7a 6c bd 39 0b 17 3e 49 f1 ce 3d
       0.10883448 -0.057734016 0.14750375 0.10104615
000060 a2 6e a9 3d 2d 8f bf 3d 21 83 2c 3e 65 b1 d4 3d
       0.08273055 0.093534805 0.16846897 0.10385398
000070 ba fc ab 3d be f0 2c 3e 97 cf 1f 3e 00 09 e1 bb
       0.08397813 0.16888711 0.15606533 -0.006867528
000080 29 f1 31 bd 93 87 e2 3d 63 6f e2 bc 17 b4 04 3e
       -0.04344288 0.11061015 -0.027641004 0.12959324
000090 a8 c1 14 be 1d ab 5e bd c4 42 0e 3e 67 ef 44 3d
       -0.14526999 -0.054362405 0.13892657 0.048079874
0000a0 8a a4 bb 3d 9c 13 31 3e 3a af 98 3e 26 5d 1b bd
       0.09162243 0.17292637 0.29821187 -0.03793063
0000b0 12 d9 6f 3e 89 32 38 3e 3b df 4f 3c dd c0 01 be
       0.2342265 0.17988028 0.0126875 -0.12671228
0000c0 b9 7a 74 3a 65 18 2e 3e 46 f5 7a 3e ed 7a ff bd
       0.00093261484 0.17001493 0.24507627 -0.12474618
0000d0 66 ca 1a 3e 62 55 1e bc 34 85 a9 bc b5 0e 39 be
       0.15116271 -0.009663912 -0.020693399 -0.18072017
0000e0 80 ed d9 3d 50 29 0b 3e ec e9 0d 3d 27 c4 17 bd
       0.10641003 0.13589978 0.034646913 -0.0370523
0000f0 46 1c e9 bd 7b a9 e6 bd 61 98 80 3d 9a 11 9d 3d
       -0.11382346 -0.112627946 0.06279064 0.07669373
000100 ae c6 a8 3d a5 b5 1b 3d ef 24 5c be c7 35 c1 3d
       0.0824102 0.038015027 -0.21498464 0.09434085
000110 03 02 6b bd 76 20 fb bc ec 21 e1 3d e7 a8 b8 bb
       -0.057374965 -0.030655127 0.10992798 -0.005635369
000120 ac 24 5d 3e 1d f4 c9 bd 69 a1 1b 3c 54 bc 1e 3e
       0.2159602 -0.09861014 0.009498932 0.15501529
000130 37 66 15 be 82 d9 34 3d 17 ba b1 3c 19 68 56 3d
       -0.14589773 0.044152744 0.02169518 0.05234537
000140 6a 78 de 3d 28 64 fd bd f6 f6 64 3d 21 82 0d be
       0.10862811 -0.12372619 0.055899583 -0.13819171
000150 e2 8f a3 3d 11 f7 de bb b1 44 2e be a0 13 ef 3d
       0.07986428 -0.006804355 -0.17018391 0.11673665
000160 b8 e6 24 3e 2e 2c 7c 3c 0e 17 78 bd d6 52 c8 bd
       0.16103637 0.015391393 -0.06056886 -0.09781425
000170 91 53 03 be c1 fe 55 3d 08 5e d4 3d 2e 80 95 bd
       -0.12824847 0.052244905 0.103694975 -0.07299839
000180 02 9a 2c bd 7e e3 cd 3d 2b c5 18 3e 83 00 8b bd
       -0.04213906 0.10053156 0.14918964 -0.06787207
000190 14 7c 2e be 0f 60 fe 3d 79 40 c1 3d b8 db 19 be
       -0.1703952 0.124206655 0.09436125 -0.15025222
0001a0 89 86 8b 3d 08 0e 39 3d 03 0d 27 be 38 d4 11 3d
       0.0681277 0.045179397 -0.16313557 0.03560278
0001b0 38 66 89 bd 74 54 83 3d fc d4 4d bd 06 db db 3d
       -0.0670895 0.064125925 -0.050251946 0.10735135
0001c0 76 8f 7d 3e 0a 6b 59 3e 31 42 13 3e 66 f8 11 bd
       0.24761757 0.21232238 0.14380719 -0.03563728
0001d0 ef f0 5e bd 50 d8 dd bc cf ff 07 3e 19 be e1 3c
       -0.05442899 -0.027080685 0.13281177 0.027556466

lstm.bias_hh_l0_reverse f4 [120]
000000 db 05 15 bd 50 51 83 bd 1f a3 66 3d 8f b7 c4 3d
       -0.036382537 -0.064119935 0.05630791 0.096053235
000010 95 e5 b8 3d e5 44 19 3c fc e7 fd 3d 9c c9 42 be
       0.09028164 0.009354805 0.12397763 -0.1902222
000020 ad 3a 85 3d d9 d0 bc bd fe 11 de 3b 99 d7 23 3e
       0.06505332 -0.09219522 0.006777047 0.16000213
000030 ec 29 d3 bb a6 d7 82 bc 8c ed c9 bd 42 ed d8 3d
       -0.0064442065 -0.01597197 -0.098597616 0.10592128
000040 65 b3 0e be 60 db 28 be 16 99 62 3d 52 a7 cd 3d
       -0.13935621 -0.16489935 0.055321775 0.100416794
000050 2b fc fa bb 79 db 25 3e c0 5a bd 3b b6 90 e2 bc
       -0.0076594553 0.16197003 0.0057786405 -0.027656894
000060 83 66 3a bd 7d 51 1e be 1e db 86 3d 1c 8f 67 3e
       -0.04550792 -0.15460773 0.06584762 0.22613186
000070 a7 f7 a2 3d 2b 94 9f bd c7 2f 29 3e 2a 9c 18 be
       0.07957392 -0.07791933 0.16522132 -0.14903322
000080 2d 0c 13 3e e3 8d 33 bd f4 d7 8f bd 75 f8 4a 3c
       0.14360113 -0.043836486 -0.07023612 0.012388338
000090 b4 d1 20 3e 44 92 14 3e e3 e0 80 bd a5 f2 45 3e
       0.15704995 0.14508921 -0.06292894 0.19330843
0000a0 c6 c7 e0 3c c7 da 86 bd 89 24 f8 3d f3 ab 65 bd
       0.02743901 -0.06584697 0.121163435 -0.056072187
0000b0 96 38 0e bd 7f 87 91 bd ee 79 2c 3e fa 57 3b 3e
       -0.034721933 -0.07105922 0.16843387 0.18295279
0000c0 3e 42 da bd 30 75 09 3e 54 16 9e 3e 06 46 d3 bd
       -0.10657166 0.1342361 0.3087641 -0.1031609
0000d0 71 89 c4 ba 4b 30 f6 3d 69 4b c3 bd 77 f1 30 bd
       -0.0014994574 0.1202093 -0.09535868 -0.04319903
0000e0 52 2a 8a 3d c7 7c 3b bd 99 d8 7b 3b 78 c4 79 3c
       0.06746353 -0.045773294 0.0038428663 0.015244596
0000f0 12 3b 44 3e 1a 7a 80 3b 09 0a 9e bd e1 72 fe 3d
       0.19163159 0.0039208056 -0.07716758 0.12424255
000100 fb 5d e9 bd 8e 2c 99 bd e9 26 cb bd 5f cf 13 be
       -0.113948785 -0.07479201 -0.09919531 -0.14434575
000110 ce 9d 4e bc b5 1d d5 bd 63 b0 e9 3d 7c 41 04 3e
       -0.012610866 -0.10406057 0.11410596 0.12915605
000120 05 5e 10 3e fd 17 c2 bd df f0 e8 bd 46 14 09 bd
       0.14098366 -0.09477232 -0.113740675 -0.0334666
000130 a2 de 00 be e3 bf e1 3d 6a 1e 06 3e 39 f0 e1 bd
       -0.12584928 0.110229276 0.1309754 -0.11032147
000140 ac 1f e8 3d 32 bf f5 bd 53 07 dd 3d 1a 2d 57 3d
       0.11334166 -0.11999358 0.107924126 0.052533247
000150 5c 72 b6 3d 94 62 04 3e bd c7 2a 3e 5a f8 03 3e
       0.08908531 0.1292823 0.16677757 0.12887707
000160 d6 66 d2 3d 0e 96 35 be 11 12 0c 3e 30 44 6a 36
       0.10273521 -0.17733023 0.13678767 3.4908408e-06
000170 e3 ab e3 bc 66 67 83 bc f4 d6 ea bd 88 ef 3a 3e
       -0.027791923 -0.016040515 -0.1146678 0.18255436
000180 fd 4e 35 be 9c bd e7 bd 2f 45 f2 bd e1 2e 1c 3e
       -0.17705913 -0.11315462 -0.11829602 0.15252258
000190 0f eb 04 3e 1b c9 38 3e a3 b7 b7 bc fe 1d 7e 3d
       0.12980293 0.18045466 -0.022426432 0.06204032
0001a0 9f 86 42 bd e8 18 52 bc 4e 82 14 3e d1 95 ef 3d
       -0.047491666 -0.012823321 0.14502832 0.11698497
0001b0 39 8c 40 3e 04 e4 0b 3e 94 63 87 bd 07 e7 f0 bd
       0.1880349 0.136612 -0.0661079 -0.11762815
0001c0 bd 04 a7 3d 2e b7 50 3e ef 5a fb bd a3 78 14 3e
       0.08155201 0.20382378 -0.122732036 0.14499144
0001d0 20 f3 2a 3e 27 47 c0 3d 97 bc cd bd 18 b4 a2 bd
       0.16694307 0.09388571 -0.10045736 -0.079445064

lstm.weight_ih_l1 f4 [120, 60]
000000 ba f2 7d 3d a3 5b 37 be 7d f9 83 3c 54 20 99 be
       0.06199906 -0.1790605 0.016110176 -0.29907477
000010 30 39 fd 3d 9a 37 2c 3d a2 3c d9 3d 9e 85 7b be
       0.12364423 0.042045213 0.10607268 -0.2456269
000020 fc 57 31 3e 1b 9c f0 3a ac 81 47 be d5 ae 1e bd
       0.1731872 0.001835707 -0.1948306 -0.03874095
000030 18 e7 c2 3d be 6f 8d bd 73 8a 16 bd a0 67 d7 3d
       0.09516734 -0.06906079 -0.03675313 0.10517812
000040 5a f0 3e 3d ae a2 15 3d 27 ee 17 be 9d 72 04 3e
       0.046615936 0.036532097 -0.14836942 0.12934346
000050 ea 71 53 bd cd c2 ff 3c d9 9a 24 3e ef 73 0e be
       -0.05162231 0.031220818 0.16074695 -0.13911413
000060 7f 1f 3c 3d 6a 1d b3 bd 7b 15 e4 3d 90 72 fb 3d
       0.045928475 -0.08745845 0.111369096 0.122777104
000070 36 92 27 bd ff ab e1 3d d0 c6 06 3e 74 47 36 bd
       -0.040910922 0.11019134 0.13161778 -0.044501737
000080 3e df fa bd 82 8f 1c be 8a 9b 52 3d 63 76 1a 3c
       -0.12249611 -0.15289119 0.051417865 0.00942764
000090 d5 05 97 bd 58 7f 95 bd 7b 02 06 be 89 8f b7 bd
       -0.07374159 -0.072996795 -0.13086884 -0.08962924
0000a0 b5 a8 01 bd 2d 43 44 3d 64 8d 19 3e a0 e0 35 bd
       -0.031655032 0.047915626 0.14995342 -0.044403672
0000b0 93 01 f8 bd 86 9f 81 3d f6 b3 b0 bd 92 d5 2c be
       -0.12109675 0.06329255 -0.08628075 -0.16878346
0000c0 89 c9 8e 3d 35 89 33 bd 57 92 ec 3c 9e c3 13 be
       0.069720335 -0.043832023 0.028878374 -0.14430091
0000d0 fa d3 64 3e c8 27 b9 bd ba 84 ff bd 5d 1e 7d bd
       0.22346488 -0.09040791 -0.124764875 -0.061796535
0000e0 2f da ca 3d f3 30 d6 3d 78 39 d0 3c 10 22 88 bd
       0.099048965 0.10458555 0.025418028 -0.06647122
0000f0 b5 dc 35 3e 04 33 1e 3e b7 a7 00 3e 80 c0 c7 bd
       0.17759974 0.15449148 0.12563978 -0.09753513
000100 14 8f 70 3d e2 6a 4a 3d fe ab 2a be 27 7f 43 3e
       0.0587302 0.049418338 -0.16667172 0.19091474
000110 00 57 de bd 82 c0 9a 3d 80 c5 f1 3d 4b 6a 21 be
       -0.10856438 0.07556249 0.11805248 -0.15763204
000120 52 a8 9a bd 5d 80 8b 3d 14 79 17 3e 85 2d 42 be
       -0.07551636 0.06811593 0.14792281 -0.18962677
000130 cc 29 fa bd dc 84 e3 3d 29 fb 60 bd 1a 80 af 3d
       -0.12215003 0.11109325 -0.054927025 0.08569355
000140 6b c2 26 be 29 ff 0c 3e a1 17 af 3d a9 cd b6 bd
       -0.16285102 0.13769211 0.08549429 -0.08925945
000150 00 53 05 3e f0 12 30 3e 71 84 34 be a0 5a 0a be
       0.13019943 0.17194724 -0.17628647 -0.13511133
000160 04 66 b3 3c 29 36 bc bd 32 00 04 be 85 c9 38 3d
       0.02189923 -0.09190018 -0.128907 0.04511406
000170 a3 2d 8b bd d3 cb 7c 3d f6 92 45 be a5 52 7c bd
       -0.06795814 0.06171782 -0.19294342 -0.061602253
000180 ed 7f b1 3d 9a 5a dc 3d 16 65 1e bd ed 54 af bd
       0.08666978 0.107594684 -0.03867062 -0.0856112
000190 ff 07 ef 3d 2d fe 23 3e 1f d9 a5 bd f8 00 a4 3c
       0.11671447 0.16014929 -0.08098053 0.020019993
0001a0 ce 22 85 3c 32 78 ca bb fa d4 33 3e f7 0b 82 bd
       0.016251948 -0.006178879 0.17561713 -0.06349938
0001b0 13 f5 03 3e 59 98 1e be 54 aa ba bd 7b b4 0f 3e
       0.12886457 -0.15487804 -0.09114519 0.14033692
0001c0 2b f2 01 3e 1b d2 c1 bd 2e ea 2c 3e f3 ad 31 be
       0.12690036 -0.094639026 0.16886207 -0.17351513
0001d0 7a 65 af 3d c3 6b e8 bd 13 bb 1c 3e 71 e1 b6 3d
       0.08564277 -0.11348679 0.15305738 0.08929718
0001e0 56 ff 07 be 2b c6 dd 3d c2 39 06 be c3 02 3b be
       -0.13280997 0.10828813 -0.1310797 -0.18262772
0001f0 c4 a1 fb 3d d8 80 fd 3d 92 29 8d bd 4d 9e 70 bd
       0.12286714 0.123780906 -0.068926945 -0.058744717
000200 08 9f 9b bc 7e 25 b0 3a 8c ce 5b 3e 22 1a f1 bc
       -0.01899673 0.0013438908 0.2146551 -0.029431406
000210 ff 14 6c 3c b4 c6 6c bc aa 9f 2a 3e ea d1 3c bd
       0.014409303 -0.014451671 0.1666247 -0.046098627
000220 13 df fe 3c 21 9b ff bd af a5 38 be be 9f a4 3d
       0.03111223 -0.1248076 -0.18031953 0.08038281
000230 8d 62 71 3d 32 34 d3 3d b1 24 4b be bb 06 b4 bd
       0.058931876 0.1031269 -0.19838215 -0.08790346
000240 8d 83 6e 3c 04 9a 3b be a1 02 b7 3d 83 4b ce bc
       0.014557731 -0.18320471 0.08936048 -0.025182491
000250 18 d3 1c 3d 3b 60 8b 3d ac 92 3a be 85 9f 15 3e
       0.038287252 0.06805464 -0.18220013 0.14611633
000260 35 35 99 3d 45 71 33 be 70 c8 02 bd 35 bd d5 bd
       0.074808516 -0.17523678 -0.031929433 -0.10436479
000270 da d0 5b 3d 24 f7 02 be 94 32 9c 3c 64 91 10 3c
       0.053665973 -0.12789589 0.019067086 0.008823726
000280 2f 67 9c bd 14 bc a7 3d 46 77 33 be 68 40 c5 3d
       -0.07636868 0.0819017 -0.17525968 0.09631425
000290 09 da 04 3c f7 9c 48 3e 1b e1 6a 3d 57 49 30 bd
       0.008108624 0.19591127 0.057343584 -0.043038692
0002a0 e6 a3 22 3e 45 da 86 3e 62 f0 35 3d 2d f0 2e be
       0.15882835 0.263384 0.0444187 -0.17083807
0002b0 82 d3 94 3d bf 8e 14 be a3 2b 9f 3c 29 79 3d bc
       0.072669044 -0.14507578 0.019429987 -0.011564531
0002c0 0e 8e c5 bd 98 95 a4 bd d8 c4 f6 bd 3e 35 2a 3e
       -0.096462354 -0.08036345 -0.12049264 0.16621873
0002d0 d2 c0 fa bd 29 44 9f bd c7 23 31 3c b3 44 7f bd
       -0.12243809 -0.077766724 0.010811753 -0.062321376
0002e0 85 ad 1f 3e 8c 17 0a be 39 a3 ef 3b 81 1c 01 be
       0.15593536 -0.13485545 0.007313159 -0.1260853
0002f0 5b ce 4e 3d 7c dc 00 be 89 c4 71 3d 5f 90 3f 3d
       0.050489765 -0.12584108 0.05902532 0.046768542
000300 ee d2 94 3c 7d 48 6b 3d 5e c4 61 bd 3e a9 f8 3d
       0.018166985 0.057442177 -0.05511891 0.121416554
000310 93 b5 4e bd 9a ad f2 3d f5 5f 19 bd 5b 78 1a be
       -0.05046613 0.11849518 -0.037445027 -0.15084974
000320 2d 29 65 bc 04 fd be bd 1d 19 00 be 17 ae e8 3b
       -0.013986868 -0.09325603 -0.1250958 0.0071008313
000330 57 a5 9d 3d 20 f4 91 3d 38 34 82 3d 44 7b d7 bd
       0.07697552 0.07126641 0.06357616 -0.10521558
000340 fd 73 f5 3d 25 84 90 bd 35 ed 0e be 81 e4 08 3c
       0.11985014 -0.070564546 -0.13957675 0.008355261
000350 bc eb bf 3d da b5 47 3d 4c 99 8d bd 30 2d d1 3d
       0.09371135 0.04875741 -0.06914005 0.10213697
000360 91 a4 0f 3e d8 3e 68 3d 73 1c 01 be a2 8d 29 be
       0.14027621 0.056700557 -0.12608509 -0.16557935
000370 39 38 c8 bd f6 7b 23 3e b4 aa ed bd 08 36 09 be
       -0.097763486 0.15965256 -0.11604825 -0.13399518
000380 34 b7 10 3e 89 b1 ca 3d 28 66 8f bd 1e fc 26 3d
       0.14132386 0.098971434 -0.07001907 0.04076778
000390 36 60 fa bd 20 0e e1 bd 04 e2 15 be 1a e2 83 3b
       -0.12225382 -0.10989022 -0.14637 0.004024756
0003a0 e8 51 0e 3e 70 af d3 bd ab 39 e9 3a 0e e6 b8 bd
       0.13898432 -0.103361964 0.0017793676 -0.090282544
0003b0 34 a3 32 3e ea cf 28 ba cb 10 1c 3e 38 2a ff bd
       0.1744507 -0.0006439673 0.15240781 -0.124592245
0003c0 af 49 0a be b6 bc e4 bc 1e d8 37 be 84 6b eb bd
       -0.1350467 -0.027922016 -0.17953536 -0.11495116
0003d0 d9 2d 6d bc 0a ca 62 bd 39 89 f1 bd d7 ee 6f 3c
       -0.014476263 -0.05536846 -0.11793751 0.014644346
0003e0 ce 5e 81 bc 39 71 ac bd 58 5f ce 3d 28 60 e6 3b
       -0.015792277 -0.08420033 0.10076779 0.0070305057
0003f0 e3 1e 09 3e ca 1a 65 bd 20 85 2d 3e 1e aa ea 3d
       0.13390689 -0.05593375 0.16945314 0.114582285
