model/LSTMY/IAAcheckpoint2.pt (torch, 229215 bytes, 31 tensors)

lstm.weight_ih_l0 f4 [120, 15]
000000 b4 7a e3 3d 68 b5 00 3e 85 7f 27 be 6f af 51 be
       0.11107388 0.12569201 -0.16357239 -0.20477079
000010 1e c4 51 b9 7a 71 0d be a1 f4 a4 bd bf 60 9d bd
       -0.00020004853 -0.13812819 -0.08054472 -0.076844685
000020 3a 98 03 3e a1 da dd bd 9e de 3e 3c d9 3c c8 bd
       0.12851039 -0.10832716 0.011649756 -0.09777231
000030 42 35 d7 bc ca b0 13 3c 9b 77 2b bd 4c 6a a0 3d
       -0.026270512 0.009014318 -0.04186211 0.078327745
000040 fd eb 00 3e 1a fa e3 bd 56 09 4d 3d f3 53 1c 3e
       0.12590022 -0.111316875 0.05005773 0.15266399
000050 65 10 23 be 11 d5 c7 3b 39 8f 97 3e fe 72 25 bd
       -0.15924223 0.0060983975 0.29601458 -0.04039287
000060 1d 68 89 3d d1 ae 22 3e fc 9a 09 be e2 1c bc bc
       0.06709311 0.15887 -0.13438028 -0.022962991
000070 04 fb c3 bd 28 dc 05 be d7 8b 42 be 71 94 19 bd
       -0.09569362 -0.13072264 -0.18998657 -0.03749508
000080 86 57 09 be 18 f6 cc bd e1 c7 c8 bd d7 c0 54 bd
       -0.13412294 -0.10007876 -0.09803749 -0.05194172
000090 c0 74 bc bb 61 c7 35 bc 1c 99 16 be 05 44 6e be
       -0.0057512224 -0.011094899 -0.14706844 -0.23268135
0000a0 74 3d 9e 3d 9d 99 ee bd 30 cc 12 3e ba 50 8b be
       0.07726565 -0.11650393 0.14335704 -0.27210027
0000b0 2c d2 ea bd 4e c6 cd bd c0 9e 2b bd a9 3a 1f 3d
       -0.11465868 -0.10047589 -0.041899443 0.038874302
0000c0 95 01 4b 3e 62 f9 27 3e 05 ab 2b 3c b7 19 c5 bd
       0.19824822 0.16403726 0.010477786 -0.09624045
0000d0 50 43 23 be 5a ef a4 3d fb e4 90 bd 9f 1b c3 3d
       -0.15943646 0.08053465 -0.070749246 0.09526753
0000e0 95 87 8d bd 3d 4b 33 3d 27 d7 85 bc c3 f8 a9 bd
       -0.06910626 0.043772925 -0.016337944 -0.08299401
0000f0 63 6b 72 bc d4 4e 1c 3e 5b bf 0e 3e a0 3a 18 be
       -0.014796111 0.15264446 0.13940184 -0.14866114
000100 78 e0 cb 3d b5 25 2d be 08 77 bd 3d b2 9b dc 3d
       0.099549234 -0.16908915 0.09251219 0.10771884
000110 74 13 20 3e db 7e dc bc 73 f6 ad bd e6 b4 10 3e
       0.15632421 -0.026915958 -0.08494272 0.14131507
000120 69 b5 34 3e 6d 61 9a 3d c2 ad 8b 3d 9c ea d5 3d
       0.17647327 0.07538114 0.06820251 0.10445139
000130 d3 c4 78 be cc 76 57 be b2 08 45 3d 60 47 c5 3c
       -0.24293832 -0.21041411 0.048103996 0.024081886
000140 34 f1 51 3e d8 01 ab bd d2 1b 8e bb 4c d1 e3 3c
       0.20502168 -0.08349961 -0.0043368125 0.027809761
000150 7f 65 ac 3c f5 72 5e bd 53 67 20 3e f4 19 6d 3e
       0.02104449 -0.05430885 0.15664415 0.23154432
000160 8f a8 4f 3e af 46 94 bd 87 93 62 bd 5c 7d 94 3d
       0.20279144 -0.07240044 -0.055316474 0.07250473
000170 5c 0e d0 bb f9 fd 93 bd 54 1b 7d 3e 35 98 37 3e
       -0.006349368 -0.07226176 0.24717456 0.17929156
000180 d8 7a 60 bd 43 49 a2 3c 4d 3e 73 be 03 83 cb bd
       -0.054804653 0.019810325 -0.23754235 -0.09937098
000190 7b 07 11 bd 54 f4 82 3d c9 70 3d be 73 d7 8e bd
       -0.035407525 0.06394258 -0.18500055 -0.069746874
0001a0 43 d0 27 3d 05 97 42 3d cd 9c e8 bd 62 a2 02 3c
       0.0409701 0.047507305 -0.113580324 0.007973285
0001b0 30 de fc 3d 8d 9a 3f 3e ed 6d 12 3e c8 6f b4 3d
       0.123470664 0.187113 0.14299746 0.08810383
0001c0 a0 19 2f bd da 27 0d 3d 91 35 33 be c7 15 87 3d
       -0.042749047 0.034461834 -0.17500903 0.065959506
0001d0 bd 72 24 3e 71 e3 cb bd 4f 7d d7 bd 11 9f 28 3e
       0.16059394 -0.099554904 -0.105219476 0.16466929
0001e0 1a 90 27 3c 6d ab 98 bd ff b7 36 be f4 fd 67 3d
       0.010227228 -0.07454572 -0.17843626 0.056638673
0001f0 ea 56 b2 bd 22 bd 38 3d d6 b7 10 be a0 14 89 bd
       -0.08707984 0.045102246 -0.14132628 -0.06693387
000200 65 be 08 3c 1b 1b 8d bc e0 ee 1f be 85 3b 20 be
       0.008346175 -0.017224839 -0.15618467 -0.15647705
000210 9d 9f 44 bd 47 d0 f7 3d e8 04 ab 3d dc 66 27 bd
       -0.04800378 0.121002726 0.08350545 -0.04086958
000220 1f 8e c4 bd 9a cb 63 3d 25 e2 28 bd e0 05 10 be
       -0.0959742 0.05561409 -0.041231293 -0.14064741
000230 4a 67 0b 3e dd c5 30 bb 41 1b 23 3e f7 5c 90 3e
       0.1361362 -0.0026973404 0.15928365 0.28195927
000240 09 40 04 3e 12 59 4d be fb 72 45 3d cd 20 17 3e
       0.12915052 -0.20053509 0.048205357 0.14758606
000250 df 66 4c 3c 35 60 95 bc 6c 44 a0 3d 28 9a 2d be
       0.012475698 -0.018234352 0.078255504 -0.16953337
000260 58 f4 cd bd 2f ad 1a be 34 31 0a be 48 f4 f1 bb
       -0.100563705 -0.15105127 -0.13495332 -0.007383857
000270 93 d1 9c 3d 1d eb 0b be d4 c4 2a 3d 80 33 61 3c
       0.076571606 -0.13663907 0.041691616 0.013745189
000280 a9 80 dc 3d c0 75 88 be 52 15 17 be 58 36 17 bd
       0.107667275 -0.26652336 -0.14754227 -0.03691706
000290 14 8b 50 3c ae 66 1c 3e 9a 5d 1c 3d 40 6c 67 3e
       0.012728471 0.15273544 0.038175203 0.22599888
0002a0 03 fa 79 3d 9d b6 2e be 0a cf ba 3d 38 59 1f 3e
       0.061029445 -0.17061849 0.09121521 0.15561378
0002b0 cc 23 22 be 86 ff 3a 3d e3 b0 11 3a 67 69 0a 3e
       -0.15833968 0.045653842 0.0005557669 0.1351677
0002c0 26 0e 16 be 98 bb 59 be ac f0 0f 3c dc d8 da 3d
       -0.14653835 -0.21262968 0.008785408 0.10685894
0002d0 54 59 87 bd 75 e2 04 be 6e a6 f1 bd e0 a7 a8 3d
       -0.06608835 -0.12977012 -0.11799322 0.082351446
0002e0 18 a1 90 3e 4d 70 2a 3e bc 99 00 3e be 61 b9 3d
       0.28247905 0.16644402 0.12558645 0.09051846
0002f0 2a 13 00 3e 31 f5 61 3d 05 d2 af 3b 51 53 14 bb
       0.1250731 0.055165473 0.0053656125 -0.0022632668
000300 70 b3 47 be 1f a7 93 bd 0b 5d a3 3b 68 cb 4c 3d
       -0.19502044 -0.0720961 0.004985457 0.04999867
000310 cc e7 02 be 85 67 b8 3d 5c bf e9 3d 6e d6 65 3d
       -0.12783736 0.0900412 0.11413452 0.0561127
000320 1a 20 00 be 83 3d 25 3e 6a 0c c5 bd 7d 1b ef bd
       -0.12512246 0.16136746 -0.096215084 -0.11675165
000330 88 00 e2 bd 0f 7c d2 bd 29 6e 93 3d ca 69 94 bd
       -0.110352576 -0.102775685 0.07198746 -0.0724674
000340 66 8f 0d bc 77 ae 23 bd 16 62 76 be 6b 22 80 3c
       -0.008640146 -0.039961305 -0.24060854 0.015641412
000350 13 8f 8d bd d7 d8 13 bb 68 21 6f 3c 79 49 76 3d
       -0.06912055 -0.0022559667 0.014595367 0.060128663
000360 22 26 fd 3d 2a 26 80 3e 0b 55 aa 3d 26 90 79 3d
       0.12360789 0.25029117 0.08317002 0.060928486
000370 65 ae 46 be 10 3b 61 bd 5e d0 e4 3d 1c 62 13 be
       -0.19402464 -0.054987967 0.111725554 -0.14392895
000380 03 61 9b 3d a2 82 9c bd cf aa fe bd 78 1a 0f 3d
       0.07586863 -0.07642104 -0.12434923 0.034937352
000390 f3 09 45 bc 93 13 aa 3d d4 f5 c8 bd 6f 73 34 be
       -0.012026298 0.08304515 -0.09812513 -0.1762216
0003a0 f9 10 ca 3d 5f 94 a7 3d 48 24 fb 3d a9 cc 0e be
       0.098665185 0.081825964 0.122627795 -0.13945259
0003b0 70 a4 b4 bd cd f0 f2 3d ce b6 71 be c1 37 0b be
       -0.088204265 0.11862335 -0.2360489 -0.13595487
0003c0 b4 85 c9 3c 0e 95 87 3d db b5 de 3d 42 81 81 3e
       0.024599887 0.06620227 0.1087453 0.25293928
0003d0 a2 fa 8c bd a6 40 25 3e 09 dd 70 3c c8 35 1c 3e
       -0.06883742 0.16137943 0.014701136 0.15254891
0003e0 25 d5 21 3d f1 39 43 3e f1 db 11 be 90 9e 9f 3d
       0.03950991 0.19065072 -0.14244057 0.07793915
0003f0 b1 d1 15 bd 51 1b 05 3e 53 a0 70 3d 7b e3 62 3e
       -0.03657693 0.12998702 0.058746647 0.2215709

lstm.weight_hh_l0 f4 [120, 30]
000000 c5 5f 56 bd 62 dd 03 be c2 94 00 3e d1 76 00 3e
       -0.052337427 -0.1287742 0.12556747 0.12545325
000010 92 ba 0e 3d 2d a7 c1 bd a9 66 7f 3d 52 f0 80 3d
       0.034845896 -0.094557144 0.062353764 0.062958375
000020 35 9a fd 3d 72 a3 32 3d 21 5f fd bd 28 f7 2c 3e
       0.12382928 0.043612905 -0.1237166 0.16891158
000030 d5 d4 73 3a d3 cd c9 3c 44 ac 53 be e7 5d 23 be
       0.0009301429 0.024634277 -0.20671183 -0.1595379
000040 bc 1c 35 bd 74 56 d0 3d 62 ad ce ba 4c eb 83 bd
       -0.044216856 0.101727396 -0.0015768225 -0.06441364
000050 57 c2 6e bd 18 62 58 3e 74 da be 3d 30 47 de 3d
       -0.058290806 0.2113117 0.093190104 0.10853422
000060 49 32 08 be 18 30 26 3e 67 6f 9a bc 57 a8 3c 3d
       -0.13300432 0.16229284 -0.018851949 0.04605898
000070 b3 04 21 be 0c ee c8 3d 39 54 34 3e db 8b 54 3d
       -0.15724449 0.09811029 0.17610253 0.05189119
000080 f3 e0 50 3e 9f 0a ac 3d 57 33 1c 3e ba 69 22 bd
       0.20398311 0.08400463 0.1525396 -0.03965161
000090 5e a5 94 3d e0 b2 f0 3c 5a 5f e7 bd 24 80 0d bd
       0.07258104 0.02938217 -0.11297484 -0.034546033
0000a0 7c 4e ae bd 91 b5 1d bd b3 75 8c bd b2 ac 98 bd
       -0.085110635 -0.038503233 -0.06858387 -0.07454814
0000b0 ce ac 1d 3e 6a b9 4d 3e 14 2f 0b 3e ee 4f 11 3e
       0.15397951 0.20090261 0.13592178 0.14190647
0000c0 29 f4 46 be 78 c3 05 bd 5a f3 03 3e ff 8d 00 3e
       -0.19429077 -0.032657117 0.128858 0.12554167
0000d0 72 ea 2d 3e e0 39 da 3d 8b 55 19 3e b5 b4 01 3d
       0.16983965 0.1065557 0.14974038 0.031666476
0000e0 2a cd 64 bc 0f d5 99 3d 69 76 7a 3d f6 0d 46 bd
       -0.013964931 0.07511341 0.06114808 -0.048353158
0000f0 f0 46 22 bd 87 d4 c5 3d 7f 9d bb 3d 9e 3e c5 3c
       -0.039618433 0.09659677 0.09160899 0.02407771
000100 6d 08 b9 bc 90 d2 4a be d7 e7 d6 3d 3a 23 53 3e
       -0.022587026 -0.19806886 0.10493439 0.20618907
000110 88 9e 2f 3e d4 2f 05 bd e1 ed ff bd 12 8b d6 3d
       0.17150319 -0.032516316 -0.12496544 0.10475744
000120 50 47 87 bd aa c4 5d 3e 91 36 43 3c 60 7d 67 3d
       -0.06605399 0.21657053 0.011914865 0.05651605
000130 1f 84 e7 bb 64 83 81 3b 89 bc c7 3d f4 5e ad 3c
       -0.0070653106 0.0039524306 0.09752757 0.021163441
000140 d6 44 be bd 88 08 e8 3d 48 45 04 3e 1d 09 c1 3d
       -0.09290473 0.11329752 0.12917054 0.09425566
000150 c9 01 6b 3c 76 90 6c 3d e8 8b 15 bd b7 34 16 3d
       0.014343687 0.057754956 -0.036510378 0.036671367
000160 07 11 33 be 49 d1 07 3e 78 39 ac bd f5 13 21 3e
       -0.17486964 0.1326343 -0.08409399 0.15730269
000170 24 b1 6a bd 23 32 35 be e2 e0 42 3d 03 78 b0 3d
       -0.05729784 -0.17694907 0.047577746 0.086166404
000180 9d 47 72 3d 29 b3 a7 bc a9 95 af bc e5 cd f8 3d
       0.059150327 -0.020471172 -0.021433668 0.12148646
000190 d3 f8 dc 3d ab 2a 0d be b9 da 28 be a0 46 42 be
       0.10789647 -0.13785808 -0.16489686 -0.18972254
0001a0 75 7a 2f be 11 b4 18 3e 92 8f 06 3e d0 b6 38 be
       -0.17136557 0.1491244 0.13140705 -0.18038487
0001b0 e2 98 8e 3d 37 66 37 3e 1a 6c 91 3c 34 c6 35 be
       0.06962754 0.17910086 0.017751742 -0.1775139
0001c0 1c 7f 03 3e b6 5c 97 bc 2c 08 8d bd c7 30 4e 3d
       0.12841457 -0.018476825 -0.06886324 0.050339486
0001d0 8e 9c c6 3d 5f 66 bf bb d8 b2 44 bd 73 50 b0 3d
       0.09697829 -0.005841061 -0.04802212 0.086090945
0001e0 16 f1 88 3d 6a 3a 4f 3e 2b 49 bd bd e6 ee 21 be
       0.066866085 0.20237127 -0.09242471 -0.15813789
0001f0 aa a3 17 3e 9b c3 b5 bd 08 e5 d1 3c b9 3a 4b be
       0.14808527 -0.088751994 0.025621906 -0.1984662
000200 44 67 56 3d d8 6d b9 3d a5 cc 7a 3d b8 17 2c 3d
       0.052344576 0.09054154 0.06123032 0.042014807
000210 fe 6e 18 bd 7f 17 17 3b c7 b6 ba 3c c1 8b 0d 3e
       -0.037215225 0.0023054776 0.022792233 0.13822843
000220 f4 df 4f be df 20 d6 bd 32 99 9a 3d 0a 63 0e 3e
       -0.20300275 -0.104554884 0.07548751 0.13904968
000230 3e b9 00 bd 16 8c d6 3d 8e 17 10 bb 66 bf 14 3e
       -0.03142666 0.10475938 -0.0021986696 0.14526138
000240 89 3d 9c 3d 2f 51 48 3e ea 8a 10 3d a5 97 2f be
       0.076289244 0.19562219 0.03528873 -0.17147692
000250 ac da f6 bd 91 35 57 bd 11 1a 0f bd 92 6d 47 3b
       -0.12053427 -0.05254132 -0.03493697 0.00304303
000260 58 76 7c 3e 0c d0 a1 bd b4 50 04 3e 11 b4 9c bd
       0.2465452 -0.0790101 0.12921411 -0.076515324
000270 90 82 08 3d 34 68 50 bd 50 51 31 3d 34 1b 03 3e
       0.03332764 -0.050880626 0.043290436 0.12803346
000280 54 a8 35 3c c0 6e 08 3d ab ef 62 be 23 e4 01 3c
       0.011087496 0.033308744 -0.22161739 0.007927927
000290 e6 95 e7 3a 35 1a 6f bd 1c 7c 37 3e 1d 46 ea 3c
       0.0017668575 -0.058374602 0.17918438 0.028597886
0002a0 f5 f8 92 3c 85 a7 3f 3e f9 05 48 3e d7 57 11 be
       0.017940978 0.18716247 0.19533528 -0.14193664
0002b0 12 ce c1 3d 92 e5 53 3e b6 94 d3 3d 5a 93 f6 3d
       0.09463133 0.20693043 0.10331099 0.12039824
0002c0 e3 b9 ac 3b 31 be 54 bd e1 2c 40 3e dd 9c bd 3d
       0.005271183 -0.051939193 0.1876712 0.09258435
0002d0 8e 83 9e 3d c9 36 99 bd af ab 52 bd 3b 00 8b 3d
       0.07739936 -0.074811526 -0.05143326 0.06787153
0002e0 f3 99 33 3d 98 db 38 3a d8 9e 08 be ab 40 29 be
       0.04384799 0.0007051765 -0.13341844 -0.16528575
0002f0 65 c7 ac bb 76 0f e9 3c 76 cf 18 3e 69 b8 3a 3e
       -0.005272793 0.028449755 0.1492289 0.1823441
000300 2f 74 1a be 1d 0f 90 3b 6c 35 02 3c 87 b3 28 3e
       -0.15083383 0.004396333 0.007947307 0.16474734
000310 80 d1 74 be fb ec 52 3d b9 32 78 be 6d 5d 96 3c
       -0.23908043 0.051495533 -0.24238099 0.018355096
000320 74 9b b9 bd f9 d8 b4 bd e1 0d 97 bd ee be 6e 3c
       -0.090628535 -0.08830447 -0.07375694 0.014571888
000330 4c a5 cc 3d ed bd 22 3e 79 57 72 3e 25 6f 17 be
       0.099924654 0.15892763 0.2366618 -0.14788492
000340 6d 91 2b 3b c4 2d 56 3e 5b cd 83 3c c0 a4 a7 bd
       0.002617921 0.20915896 0.016089132 -0.081857204
000350 43 3d 2f 3d d9 dd 0f 3e 77 19 05 3e 38 3e c8 3b
       0.042783033 0.14049472 0.12997995 0.0061109327
000360 7d ed 1a 3d 5b fa 47 3e bc 3f ed 3c 83 0d 88 bc
       0.037824143 0.19529097 0.028961055 -0.016608005
000370 ee 8b 78 be 9f be e6 bc 8b 53 dd bd 3c 0a bc 3c
       -0.24272129 -0.028167067 -0.1080695 0.022954099
000380 16 ff 3b be db 89 ef 3d 22 e6 9b bd 8d 43 2f 3e
       -0.18359026 0.11696216 -0.07612254 0.17115612
000390 c6 fe b2 3d 22 0a 33 be 44 a3 ce 3c 75 4d c6 3c
       0.087400004 -0.17484334 0.025224335 0.024206856
0003a0 30 a6 18 be 54 fd 20 be 75 8d cd 3d b4 5e b7 bd
       -0.14907146 -0.15721637 0.100367464 -0.0895361
0003b0 eb 29 f2 bd 26 d4 4c 3d d7 3d c0 3d e5 82 29 bd
       -0.118244015 0.050007008 0.09386795 -0.041384596
0003c0 d3 30 e1 bd d3 6d f9 bc d4 31 9d bd 30 9a dd bc
       -0.109956406 -0.030447876 -0.076755196 -0.027051061
0003d0 65 28 75 3d 1c 00 57 3e 72 fb c0 bd 19 73 11 be
       0.059852976 0.20996135 -0.094229594 -0.14204063
0003e0 c5 5e 8c be cc 90 75 bc a9 60 8b 3b 6a 7d c4 3d
       -0.27416053 -0.014988136 0.004253466 0.09594233
0003f0 08 fc 12 be 9c b5 f4 bd df 2c cc 3d 06 89 9f bd
       -0.14353955 -0.11948702 0.09969496 -0.07789807

lstm.bias_ih_l0 f4 [120]
000000 32 0d d3 3d af e4 47 3c e9 cf 51 3d d0 14 73 bd
       0.10305251 0.0122005185 0.05122367 -0.05934602
000010 7f ee 3b be 6c a6 f6 3c bc 8c a9 bb e3 c8 7e 3d
       -0.18352698 0.030108653 -0.0051742475 0.0622033
000020 23 f6 ff 3b d1 ad 70 3d ad 5f 4b bd 0f 2f bb bd
       0.007811324 0.058759514 -0.04965179 -0.09139835
000030 26 c0 56 3d 76 0d 83 3b 05 6d d3 bc c1 9c 85 bd
       0.05242934 0.0039994074 -0.02580882 -0.06524039
000040 69 ae 98 3d ac 16 1f be cc 5c 72 bc 1b 44 68 3e
       0.07455141 -0.15535992 -0.014792632 0.2268223
000050 e6 16 0d 3e 94 b2 ce bd 07 ea 8a bd 46 2a 4c 3c
       0.13778266 -0.10092655 -0.067829184 0.012461251
000060 2f bc 66 bd 28 0b ed 3d a4 3c 4c be bf 43 82 3d
       -0.05633181 0.115743935 -0.19945008 0.06360578
000070 46 b5 f1 3d 94 98 cc bd 10 fe ac bd ab ce 32 be
       0.11802153 -0.099900395 -0.08446896 -0.1746165
000080 aa 82 2a 3e f1 38 28 3e ff 19 1a 3e eb bc 7a 3e
       0.16651407 0.16427971 0.15048979 0.24486129
000090 b8 5a c9 3c ad 75 e2 3c f0 35 48 3e f3 41 99 bd
       0.02457939 0.027644003 0.19551826 -0.07483282
0000a0 3a fa 15 3e 0b b2 a3 bd 94 b8 b1 3d c5 47 6f 3e
       0.14646235 -0.079929434 0.086777836 0.23367222
0000b0 42 f4 0e 3e 8a b7 ba bd c5 6d 3b 3e 50 b3 9e 3d
       0.13960364 -0.091170385 0.18303593 0.07749045
0000c0 e5 01 81 3e 94 b3 19 3e 42 e6 8f 3e 28 8c 0b 3e
       0.25196758 0.1500991 0.2810536 0.13627684
0000d0 39 84 35 3c 86 d2 c0 3b 98 af 4a 3e 48 66 21 3e
       0.011078888 0.0058844713 0.19793546 0.15761673
0000e0 f3 8f 0a 3e 49 0b 0a 3e 8e 93 bd 3d 99 a2 6e bd
       0.13531475 0.13480867 0.092566594 -0.058260534
0000f0 e3 31 b6 bc 8a dd 15 bd 65 f4 d4 bd 40 09 41 3e
       -0.022240585 -0.03658823 -0.10398177 0.18851185
000100 80 84 08 be 81 ea e1 3d 16 67 d1 bd e8 f9 08 3e
       -0.13331795 0.11031056 -0.1022474 0.13376582
000110 fd 42 3c be 3f d9 af 3b d8 79 05 be ce c0 f5 3d
       -0.18384929 0.005366474 -0.13034761 0.11999665
000120 c8 21 c7 bd 92 36 30 bd 5d 38 7a 3e ae c5 ee 3c
       -0.0972324 -0.043020792 0.24435563 0.029146995
000130 a1 6d 8d 3d e8 c1 01 3e 7b 2b 8e bd a7 e2 db 3c
       0.06905676 0.12671626 -0.06941887 0.026841475
000140 fd f4 21 3e 8c 41 9d 3d 0f ea fd 3d d6 e0 65 3e
       0.15816112 0.07678518 0.12398159 0.2244905
000150 a0 39 2c 3b c9 a3 9f 3c d3 eb 1a ba 5d e2 ce bc
       0.0026279464 0.019487279 -0.00059097743 -0.025254423
000160 81 f5 46 be 66 ee 67 be a6 87 8e 3d 87 c8 b4 3d
       -0.1942959 -0.22649536 0.06959467 0.0882731
000170 59 58 be 3c 76 40 a6 bd f1 6b 12 3e dd 6f 6c 3e
       0.023235487 -0.08117764 0.14298989 0.23089547
000180 e1 2f 7d 3e de 86 6a 3e c9 c5 0a bd 1c cf 40 3e
       0.24725296 0.2290301 -0.03388003 0.18829006
000190 b2 a6 9e bd 86 a6 21 3e b8 ac 7b 3d 2b 50 ff 3d
       -0.07746638 0.1578618 0.061444014 0.12466463
0001a0 ca 7d 26 bd a7 f6 78 bd 7b 50 a6 3c 22 67 29 3e
       -0.040647306 -0.0607821 0.020302048 0.16543248
0001b0 2c ea 32 bd 1b 67 66 3e c1 1a 37 3e ce ea 95 bd
       -0.043680355 0.22500269 0.178813 -0.07320176
0001c0 33 b6 db bd 89 0b 42 3e 23 70 01 3d 8b fe 10 3e
       -0.10728111 0.18949713 0.031601083 0.141596
0001d0 73 26 28 3e f0 e0 2a bd b1 d7 9a bd 44 8c b6 bd
       0.16420917 -0.041718423 -0.07560671 -0.08913472

lstm.bias_hh_l0 f4 [120]
000000 d3 e9 8a bd d0 9f 6d 3d 70 42 97 bd e7 49 1b bd
       -0.0678288 0.058013737 -0.07385719 -0.037912276
000010 31 d8 24 be 2a fc 9f 3d 1a 1b ae 3c b9 74 08 3e
       -0.16098095 0.07811768 0.021253157 0.13325776
000020 c8 10 4a 3d ef 74 9c bc 47 02 20 3c 79 03 b0 bd
       0.04933241 -0.019098727 0.009766168 -0.08594412
000030 af d2 c9 3c 60 93 f3 bc a7 85 09 be b2 e8 8d bc
       0.024636595 -0.02973336 -0.1342989 -0.017322872
000040 ab ca e4 3c fe 33 aa bd 18 3f 15 3d 52 ba 48 3c
       0.02792867 -0.08310698 0.036437124 0.0122514535
000050 68 c3 04 3e bc 99 3b bd e8 60 97 3c 65 56 db 3d
       0.12965167 -0.04580091 0.018478826 0.10709838
000060 f7 45 11 3e 47 fe 88 3d bc 49 85 3c 51 a4 29 3e
       0.14186846 0.066891246 0.01627051 0.16566588
000070 41 34 21 3e 58 7a b6 3c f0 9d 61 bb d7 17 e8 3d
       0.1574259 0.022275135 -0.0034426413 0.11332672
000080 6b 53 2b 3e 5a a9 9c bc 58 cc 0a 3d 1f 6f ef 3b
       0.1673104 -0.019123722 0.033886284 0.007306948
000090 76 20 3c 3e 34 ca 21 3e 42 6d 9c 3e f6 73 bf bd
       0.18371758 0.1579979 0.30552107 -0.0934829
0000a0 79 14 5f 3e 24 44 01 3d bf b9 5f bc 8f 3a 80 3e
       0.21785153 0.031559125 -0.013655125 0.25044677
0000b0 c7 91 15 3e db 40 ac bd 27 7c fb 3d ed 5a 0e 3e
       0.14606391 -0.08410808 0.122795396 0.13901873
0000c0 05 ff 91 3d dc 1e 5b 3e 6b 8d 55 3e 9f 3f aa 3e
       0.07128719 0.2139849 0.20854728 0.33251664
0000d0 63 a7 11 3e b4 b7 13 3e df 9d 87 bd 9c c6 91 3e
       0.14224009 0.14425546 -0.066219084 0.2847184
0000e0 b1 95 25 be 80 40 53 bd 89 c9 ea 3c 05 5a e1 3d
       -0.16170384 -0.051575184 0.028660553 0.11003498
0000f0 04 4d 05 be fa e5 39 be 2b b1 71 3d 08 ce e3 3c
       -0.1301766 -0.18154135 0.05900685 0.027808204
000100 0c 67 ba 3c 19 02 04 bd 7f 3a aa 3d 0b c7 11 be
       0.022754215 -0.032228563 0.083119385 -0.14236085
000110 7d 16 9a bd 6d 2a 2e 3e 49 56 95 3a 01 e9 08 be
       -0.075238205 0.17008372 0.0011393513 -0.13370134
000120 84 9d d0 3d d3 30 2a 3e aa e7 dc 3d e0 d1 e0 bd
       0.10186294 0.16620187 0.10786374 -0.109775305
000130 ce 88 c2 bd a2 40 23 be a1 87 d6 3d 6e 26 86 bb
       -0.0949875 -0.15942624 0.10475088 -0.0040939366
000140 09 7c 0b 3e ea 13 b1 bd 51 4b 17 3c 4b 09 61 bb
       0.13621534 -0.086463764 0.009234265 -0.0034337814
000150 19 b3 8a bc c1 19 1f bd d6 f4 2b 3e 53 93 1d 3e
       -0.016931104 -0.03884292 0.16792616 0.15388231
000160 89 25 bf 3d de 96 46 be d3 11 27 be 85 f4 6a bd
       0.09333331 -0.19393489 -0.16315393 -0.0573621
000170 1d b5 1e 3e 1c f4 26 3e 78 86 c6 bd 30 22 1e bd
       0.15498777 0.16304058 -0.09693617 -0.038606822
000180 cb 8d a9 ba 6d b8 90 3d f6 5d 04 3e e7 a7 ad bd
       -0.0012935934 0.070664264 0.12926468 -0.084792905
000190 0d 9d 4f bc 7a c4 4f 3e ac e0 25 3e 19 e2 15 bd
       -0.012671721 0.20289794 0.16198987 -0.036592577
0001a0 bc 15 17 3e 8f a8 54 3e bb d3 aa bb 6b 8e 35 3d
       0.14754385 0.20767425 -0.0052132285 0.044325273
0001b0 9f 2e 06 3d 33 70 12 3d af e4 04 3e 71 ea 64 bd
       0.032759305 0.035751533 0.12977861 -0.055887643
0001c0 3b a1 e4 3d 35 65 fa 3d 39 85 01 3d 73 1e 25 3e
       0.11163565 0.12226335 0.03162119 0.16124897
0001d0 42 a2 32 3e 19 41 ea 3d 39 ff da 3d 48 8b 1f 3e
       0.17444709 0.11438198 0.10693211 0.15580475

lstm.weight_ih_l0_reverse f4 [120, 15]
000000 e1 72 12 3e 0a 4b 4a 3d 1d ed b7 3c 73 69 8a bd
       0.14301635 0.04938797 0.022451932 -0.06758394
000010 03 67 11 3c 82 fb 3e 3d 08 8d 8f bd 0c 85 81 bd
       0.008874658 0.046626575 -0.070093215 -0.06324205
000020 eb aa 51 be 73 ea 06 be b1 58 c3 bd c9 e6 b9 3d
       -0.20475356 -0.13175373 -0.09538401 0.09077222
000030 16 8c 19 3e 29 81 eb bd fa d9 17 be 3b 44 ee bd
       0.14994845 -0.11499245 -0.14829245 -0.11634108
000040 b3 bc 94 3d b5 7d ca bd ee 1e b5 bd dd 8f c5 3b
       0.07262554 -0.09887258 -0.0884379 0.0060291127
000050 a3 2b 6d bd 9c 8b 3e 3d 4a 3f fc 3d 17 c3 e8 bd
       -0.057902943 0.04651986 0.12316759 -0.113653354
000060 25 b6 d1 bb 14 f0 87 3a dd b2 39 3e b0 5e 29 be
       -0.006399887 0.0010371231 0.18134637 -0.16540027
000070 ec 11 32 3a 85 52 06 be fa c8 3e 3d 94 fa 45 be
       0.00067928317 -0.13117416 0.046578385 -0.19333869
000080 2f 9f 42 bd 21 34 88 3d 92 c9 9c 3e 0c e9 df bc
       -0.04751509 0.06650568 0.30622536 -0.027332805
000090 96 8a 3f 3d 8d f7 c1 3d 7b 6b 3b bc 36 80 bf 3d
       0.046763025 0.09471045 -0.0114392 0.09350626
0000a0 02 78 20 3b 94 76 04 3e 47 5a 43 3e 9a 3d 1d 3e
       0.0024485593 0.12935859 0.19077407 0.1535553
0000b0 56 8d d0 3d c0 14 1a 3e 78 5c 4e bd 37 0e 32 3e
       0.10183208 0.15046978 -0.050381154 0.17388235
0000c0 31 9c f7 bd c3 25 88 3d 54 b2 3c 3d fc af eb bd
       -0.12090338 0.066478275 0.046068504 -0.11508176
0000d0 a0 15 08 3e f0 d8 2f be 02 2d 55 3e 34 91 c2 3d
       0.132895 -0.17172599 0.2081795 0.095003515
0000e0 d3 ff dc 3d 44 c9 30 3e 77 5f a8 3e 12 bf f7 3b
       0.10790982 0.17264277 0.32885334 0.007560619
0000f0 e4 b2 ca 3d b1 9c 7b 3c b8 f5 b1 bd 1f 18 0b be
       0.09897402 0.015357182 -0.08689445 -0.1358342
000100 05 fe a7 3c 0c 5f 6e be 03 80 0a bd 88 2a fd bd
       0.020506868 -0.23278445 -0.033813488 -0.12361628
000110 9d 16 43 3e 8c 5b 92 3d b2 d7 32 3e a0 ac 11 be
       0.19051595 0.071463674 0.17465094 -0.14226007
000120 17 7d 45 3e a8 ed a3 3d 77 f6 76 3e 72 f1 7c 3c
       0.19285999 0.08004314 0.24117456 0.015438424
000130 7e 07 1a bd b5 4d 29 3e 5b 04 36 3e 9c e4 a5 bd
       -0.0376048 0.16533549 0.17775099 -0.081002444
000140 0a a6 e7 3d 54 8d 2e 3d fc cc 27 be 48 b2 11 3e
       0.11310966 0.04261525 -0.16386789 0.14228165
000150 13 de 65 be 23 fc 07 3e 7d 13 15 be 24 da 0a be
       -0.22447996 0.13279776 -0.14558215 -0.13559777
000160 d4 b1 e8 bc 0c a3 2a 3e 4a 47 21 bc 5c 84 08 3d
       -0.028405108 0.1666376 -0.009843657 0.033329353
000170 a7 5c 1c be 74 c3 37 3e 82 54 81 3c 25 47 b0 3c
       -0.15269719 0.17945653 0.015787367 0.0215183
000180 46 ef 3a 3c e9 43 c6 3d 87 91 1e bc ef 0f aa 3d
       0.011409586 0.096809216 -0.009678251 0.0830382
000190 4b 33 32 3e cc 9e 11 be c9 b1 d8 3d b5 18 06 be
       0.17402379 -0.14220732 0.10580785 -0.13095362
0001a0 1f 2c f2 bc 48 be 2a 3e 0e 9b c2 3c a1 ee 0e 3d
       -0.029562054 0.16674149 0.023755576 0.034895543
0001b0 b1 1b f1 3d 2e 3b 2e 3e 2c d2 60 be 9a ee e7 bd
       0.1177286 0.17014763 -0.21955174 -0.113248065
0001c0 5f 3d 84 bd bc d8 d9 bd 19 75 b4 3c c1 b0 e3 bd
       -0.06457018 -0.10637042 0.022028493 -0.111176975
0001d0 40 38 19 3d fd c3 7f bc e0 33 1a 3e 76 32 94 3b
       0.03740716 -0.015610692 0.15058851 0.004522617
0001e0 42 ca 5a 3e 00 d3 53 3d 71 10 0e 3e d8 93 98 bd
       0.21366218 0.051714897 0.1387346 -0.07450074
0001f0 46 31 3e 3c 63 25 70 bd 9d d1 ad 3d 4a 3f 2b 3d
       0.011608427 -0.058629405 0.08487246 0.041808404
000200 b8 84 bc 3d 01 98 2a 3d 6f b1 36 3e be 37 88 bd
       0.092050016 0.04164887 0.17841123 -0.06651257
000210 94 0f 1b 3d f0 18 b3 3d 0d 6c a4 bc 54 ec 73 3c
       0.037856653 0.08744991 -0.020071054 0.014887888
000220 50 01 f1 bd f8 18 b5 3d 9a b2 2e bc fe 47 e3 3d
       -0.117678285 0.08842653 -0.010662699 0.11097716
000230 5e f1 55 be 83 c3 ef 3c af 01 42 be bf 69 21 bd
       -0.20892856 0.029268032 -0.18945955 -0.039407488
000240 6f ed 7c bc 77 21 b2 bd 5f bd 81 be af f5 39 3d
       -0.015437468 -0.08697789 -0.2533979 0.045400318
000250 25 bb f6 bc 59 65 4e be a1 2b 02 be 08 5a 7c bd
       -0.030118534 -0.20155849 -0.12711956 -0.061609298
000260 c9 69 07 3e ee f2 df 3b 63 ad cd bd 07 20 06 be
       0.13223948 0.0068343794 -0.100428365 -0.13098155
000270 88 8b 3d 3e 38 b1 17 3d e9 fe 7d bd 1b 99 13 be
       0.18510258 0.037034243 -0.06201068 -0.14413874
000280 2f a2 8b bd 9b 2c 6f be 18 19 51 3c 4f 54 cc bd
       -0.068180434 -0.2335686 0.0127623305 -0.09977018
000290 0a 79 a8 bc 9b 33 4f 3d 0d c6 41 bd 78 1a 59 be
       -0.020565528 0.050586324 -0.047308017 -0.21201503
0002a0 b8 7e 0d 3e 68 16 86 bd 30 70 ba 3b 1a 8c 68 3c
       0.1381787 -0.065472424 0.0056896433 0.014193559
0002b0 7a f8 2f 3e 65 c8 fd 3c 6d 16 3d bd c3 1b 72 bd
       0.1718463 0.030979345 -0.046163965 -0.059108507
0002c0 73 a5 b8 bd 14 ec 9d bd 2e 7e dc 3d c1 24 49 3e
       -0.09015932 -0.07711044 0.10766254 0.19642927
0002d0 70 23 82 bd 44 34 d4 bd f4 81 46 3e f3 a4 c6 3d
       -0.063544154 -0.103615314 0.1938551 0.0969943
0002e0 e1 0c 9b b9 56 16 ab 3c 63 6c 48 3e 93 cf 02 be
       -0.000295735 0.020884674 0.19572596 -0.12774496
0002f0 0e 83 b9 bd ee e2 00 be 0b e8 87 be 3b 2a 99 bd
       -0.090582 -0.12586567 -0.26544222 -0.07478758
000300 8a 87 9e 3c b0 ea 6f 3e dd 3f 2a be 55 e7 24 bd
       0.01935174 0.2342937 -0.16625924 -0.040259678
000310 64 57 76 3d 85 a4 e2 bd 79 98 7d 3c 7f af 73 bd
       0.060141936 -0.11066536 0.015478247 -0.059493538
000320 a1 2b 98 3d db 25 aa bd dd 34 9e 3c c0 95 58 be
       0.074301966 -0.083080016 0.019312317 -0.21150875
000330 31 10 1f be 57 17 47 3e 5e 17 04 bd 8c a9 e0 bd
       -0.1553352 0.19442497 -0.032248847 -0.109698385
000340 33 0d 79 3e 44 55 39 3d 88 72 b1 bd 50 9d b6 bd
       0.24321441 0.04524733 -0.08664423 -0.08916724
000350 0e 51 39 bd d1 9e 46 bb e9 85 b9 3d 2f c3 60 3d
       -0.045243315 -0.0030307064 0.090587445 0.05487364
000360 97 39 ea bd 4a a8 05 be 89 c1 b2 3d e3 89 dc bd
       -0.11436766 -0.13052478 0.0872832 -0.10768487
000370 5f 31 05 3d 59 13 4e 3e 1f 7e 30 3d 0b 3c 69 be
       0.032517787 0.20124568 0.04308903 -0.22776811
000380 46 90 7f bc 0d 9f 1c 3d 64 6a 57 be 40 29 8a bc
       -0.015598362 0.03823762 -0.21036679 -0.016865373
000390 47 07 e4 bd cc 22 e3 bd 20 79 43 3d f7 bc 87 bd
       -0.111342005 -0.11090621 0.047722936 -0.06627839
0003a0 85 ca 4b 3e e6 97 53 bc d1 81 d8 3d 47 39 82 3d
       0.19901474 -0.012914633 0.105716355 0.06358581
0003b0 0d eb b3 3d 35 c6 91 bd 5a 4d 28 3d 42 3d 06 be
       0.08785067 -0.07117883 0.041089393 -0.13109306
0003c0 1d 9e 33 3e 9d b5 43 3e ba 09 fe bd 42 88 18 be
       0.17540784 0.19112249 -0.12404199 -0.14895728
0003d0 30 2e 27 3d 1b f9 1f 3e 79 79 9e bd cb 37 05 3d
       0.040815532 0.1562237 -0.07738013 0.03252391
0003e0 c3 83 0c 3c 80 5a b1 bc 21 11 ad 3c 34 c1 e3 bc
       0.008576336 -0.0216496 0.021126332 -0.027802087
0003f0 14 02 61 3d 84 f6 6c bd 4d ae cd 3d e7 b3 4a 3e
       0.054933622 -0.057852283 0.10043011 0.1979519

lstm.weight_hh_l0_reverse f4 [120, 30]
000000 b0 20 1f bb 71 06 c9 bd aa dd 84 bd e3 03 07 be
       -0.0024280958 -0.09815682 -0.064875916 -0.13185076
000010 29 ad fe 3d 99 3c 25 bd c0 f6 2f 3d c7 1c 93 3c
       0.124353714 -0.040340994 0.04295993 0.017958058
000020 34 68 11 3d 2d 3d 87 3d aa 1b c1 39 17 a4 01 bd
       0.035499766 0.06603465 0.0003683244 -0.03165063
000030 f5 5f d6 bd 01 ad fb 3d c7 6f 30 3e 4a a1 e0 3d
       -0.10467521 0.12288857 0.1723014 0.109682634
000040 9f 4f 3b 3d dd 74 b2 3c ab 9d e6 3d 57 a7 28 3e
       0.04573023 0.02178424 0.112605415 0.16470085
000050 eb fb ef 3d 6d 0c 76 bd 5e 16 a1 3d 5f 0e 0d be
       0.117179714 -0.060070444 0.07865594 -0.13775013
000060 e1 7a de bd 0c 91 c2 3d 03 e4 b6 3d 2d 8b 6d bd
       -0.10863281 0.09500322 0.089302085 -0.057994056
000070 83 ab 4b 3e 57 53 54 3e 0a d7 f2 3d 0a ec 87 bc
       0.19889645 0.20734917 0.11857422 -0.016592044
000080 5c c9 4e be ca a5 23 bc e3 ce 72 3e 84 b3 31 3e
       -0.20194 -0.009988258 0.23711734 0.17353636
000090 eb 90 b6 bc 0a 1a 42 be 13 73 a7 bd 13 b7 3f 3e
       -0.0222859 -0.18955246 -0.081762455 0.18722181
0000a0 ee 50 f4 3d 55 8d 0a be 71 06 0a bd 2a 37 0b 3d
       0.119294986 -0.13530476 -0.03369755 0.033988155
0000b0 f1 36 15 3d 15 ad 4e 3e 7f 09 49 3d 2c 89 09 be
       0.03642935 0.20183213 0.04908132 -0.13431233
0000c0 27 39 c7 3d 2f af f0 bd d3 5d 00 3d 76 4f 3e be
       0.09727698 -0.117521636 0.031339478 -0.18585
0000d0 1d c6 77 3e 05 17 2a be b6 cd 27 3e 7f 29 d5 3d
       0.24196668 -0.16610344 0.16387066 0.104083054
0000e0 7b b7 5a 3e 74 c6 90 3d 12 3a 5a 3d 64 88 b0 bd
       0.21359055 0.07069102 0.053278036 -0.086197644
0000f0 1f f0 a6 3d a5 c5 da 3c 07 6f 4f 3d 0f ba 8f 3d
       0.08151268 0.026705572 0.050642993 0.0701791
000100 bf b6 1a 3d 91 71 ef 3d 5a d0 3f bd 76 a6 aa bc
       0.037771937 0.11691583 -0.04682956 -0.020831328
000110 05 ed 56 bc 6a fe a3 bd 1f 3e 51 3e 0e e0 32 3d
       -0.013118033 -0.0800751 0.20433854 0.043670706
000120 2a c4 81 be 25 42 50 bd 32 33 df 3b 54 b4 22 3c
       -0.25344974 -0.05084433 0.006811523 0.009930689
000130 6d 58 1a be f5 fd 53 bd a4 79 e5 bd 74 87 a7 3c
       -0.15072794 -0.051755864 -0.11204842 0.020450331
000140 81 46 f3 bd da d6 a8 bc b1 5b 42 3e 5e b7 f1 3c
       -0.11878682 -0.020610262 0.1898029 0.029506382
000150 57 b7 c8 bd 0b 54 5e 3e 81 be 91 3d b0 60 1b 3d
       -0.09800594 0.21711747 0.07116414 0.037934005
000160 16 b3 5f 3c 79 95 ec 3d fd 4a 23 ba d9 99 eb bd
       0.013653537 0.11551947 -0.00062291307 -0.115039535
000170 99 97 ed bd ab cd 2a 3d 6c ab 32 be 97 e8 87 3d
       -0.116011806 0.041700047 -0.17448205 0.0663616
000180 60 dc 6d 3e 66 a5 db 3d aa 99 01 bc 17 ff 6f bc
       0.23228598 0.107249066 -0.0079101715 -0.0146482205
000190 40 59 19 be 23 0a 0a 39 cc 11 08 be fc 46 3f be
       -0.14975452 0.00013164482 -0.13288039 -0.18679422
0001a0 97 0e 04 be be f4 ae 3d 8a 66 40 3c 22 55 4d 3d
       -0.1289619 0.085427746 0.011743197 0.050130017
0001b0 6f 3f 89 bd ee 0d 1e 3e 9b ac ff bc e7 a8 97 3d
       -0.06701552 0.15435001 -0.031210234 0.074052624
0001c0 17 e4 3f bd 38 80 f1 3d e7 1d 25 3d d8 a2 68 3d
       -0.046848383 0.11792034 0.04031172 0.056795925
0001d0 3a 57 a8 3d 74 45 c9 3d 6d 2d 3c 3d 06 2c fb bd
       0.08219762 0.098277 0.04594176 -0.12264256
0001e0 c7 a1 f8 bd aa 5e c3 3d 5d 41 e3 ba 39 1f 52 bc
       -0.121402316 0.0953954 -0.0017338205 -0.012824827
0001f0 c3 18 a7 3d 03 4b a2 3c 2a 28 0e be 4b 6e 8a bd
       0.0815902 0.019811159 -0.13882509 -0.06759318
000200 24 8a a8 bd b2 9a e4 3d 5b 62 46 3d 5e 91 0c 3d
       -0.08229473 0.11162318 0.048433643 0.03431832
000210 cf 89 b2 bd 6b 35 1d be 18 da c3 bd 17 3e 43 bd
       -0.08717691 -0.15352409 -0.095630825 -0.047666635
000220 c6 2c a0 3e 7a 04 b8 3d 9a c1 ce bd d1 9f 04 be
       0.3128416 0.08985229 -0.1009552 -0.1295159
000230 28 ec 10 3e 7c 77 1c be b9 d2 08 3e 41 d0 b5 bd
       0.14152586 -0.15279955 0.13361634 -0.08877612
000240 55 e6 5a bd bb 89 88 be a1 bb 7c bd d9 96 8c bd
       -0.053442318 -0.2666758 -0.061702374 -0.068647094
000250 00 3b e5 3d eb 5e 99 3d ac e0 02 3e 35 3c 0d 3d
       0.11192894 0.07488807 0.12781018 0.034481246
000260 65 79 20 3c 0e f6 19 3e 3f af bb 3d 4e 9d 01 3e
       0.009794568 0.15035269 0.09164285 0.12657663
000270 8e a8 82 3e 42 c9 d0 bd 10 ce f6 bd f8 b9 28 be
       0.25519222 -0.10194637 -0.12051022 -0.16477191
000280 5a 87 63 3d ea c2 01 3e 58 b6 8f be 17 48 02 be
       0.055549003 0.1267201 -0.28068805 -0.12722813
000290 a2 2e c1 bd 3e 15 86 3d 1d 94 f6 3d 51 90 0f be
       -0.09432723 0.065470204 0.12039969 -0.14019896
0002a0 81 5c 94 3d 1c f7 53 be 33 f6 b8 bd 00 f6 52 3d
       0.07244206 -0.20699733 -0.09031334 0.051504135
0002b0 16 79 46 3e 55 8d 3e be be f3 5a bc c1 d1 09 3d
       0.19382128 -0.18608601 -0.013363777 0.033647303
0002c0 c3 bf ef 3d b1 7a b2 3d aa 42 95 bd 35 36 46 bb
       0.117064975 0.08714808 -0.07288106 -0.0030244712
0002d0 c7 ed 93 3d 9f fb 2b be 29 8e 3a be 18 88 15 be
       0.07223087 -0.16795205 -0.18218292 -0.14602697
0002e0 30 d5 75 3c c1 41 92 3d 33 bc a7 bc 33 a9 1f be
       0.015004441 0.07141448 -0.020475483 -0.15591888
0002f0 05 22 13 3e 0a f4 ac 3c c2 66 0c 3e 57 de 7b 3d
       0.14368446 0.02111246 0.13711074 0.061491337
000300 e1 db a6 bd bf a7 f7 3d 0a e7 54 3e be a2 d2 3d
       -0.08147407 0.12092542 0.2079126 0.10284947
000310 a9 8d 31 3e 91 3d 0a 3e 53 62 02 3e fa 90 a7 3d
       0.17339195 0.13500048 0.1273282 0.08181949
000320 ca 30 eb bd 79 d1 26 3c 20 6d d9 bd 58 61 bc 3d
       -0.11483915 0.010181778 -0.10616517 0.09198254
000330 4a 27 89 3d 33 fa 67 3d e7 0d 1b bd 27 d0 0d 3e
       0.06696947 0.056635093 -0.037855055 0.13848935
000340 5a 01 77 be 62 80 ed bc eb b1 1d bd 9e 04 16 be
       -0.2412161 -0.028991882 -0.038499754 -0.14650199
000350 1d a5 bd bc 7e ed 1f be 6a f5 1f be 3f 4f 12 be
       -0.023150021 -0.1561794 -0.15620962 -0.14288042
000360 56 f4 22 3d b9 89 36 3e e9 9d e5 bd ee 9c 57 bd
       0.0397838 0.17825975 -0.112117596 -0.052639894
000370 8c f4 bd 3d f1 64 f0 3d 6a 14 8a bd 7e f1 e1 3d
       0.09275159 0.11738003 -0.06742175 0.11032389
000380 c8 7c fc bc 4f a0 91 3c 21 59 dd 3b 43 17 74 3e
       -0.03082122 0.017776636 0.0067550098 0.23836999
000390 f7 06 b0 3d 07 7e f2 3d cb 1d 36 bd 95 6f bd bd
       0.085950784 0.11840444 -0.044462007 -0.09249798
0003a0 6a 17 63 3e ab 18 87 bd 34 26 cc 3d d4 f5 77 3d
       0.221769 -0.06596502 0.09968224 0.060537174
0003b0 94 75 43 be f9 dc c1 3d 47 52 47 3d 4d 3b af 3d
       -0.19087821 0.09465975 0.04866245 0.085562326
0003c0 77 c3 4a 3e aa 29 87 3e 88 3b d2 bc 37 bd 86 3c
       0.19801126 0.26398975 -0.025663152 0.016447647
0003d0 ad 0e 50 be 7a 43 a0 bd 25 b2 f9 bd 70 5a 64 3d
       -0.20318098 -0.0782537 -0.121921815 0.05575031
0003e0 b5 73 c8 3d 12 1c 4b bc c8 3a 8a be 03 8c 6f bb
       0.09787694 -0.012396829 -0.26997972 -0.003655196
0003f0 26 f0 31 bd 33 be f9 3d e8 82 4b bd 39 fb 32 38
       -0.043441914 0.12194481 -0.04968539 4.2672476e-05

lstm.bias_ih_l0_reverse f4 [120]
000000 8f e8 4d 3e 67 0e 04 3e 79 a9 f4 3d 6a f2 c3 bd
       0.20108245 0.12896119 0.11946387 -0.09567721
000010 cc 21 ed 3c fb 14 e8 bc 9a 0a 58 bd 1f e8 2b be
       0.02894678 -0.028330317 -0.052744485 -0.16787766
000020 98 d5 4c 3d a5 0a 59 bd 46 88 56 3e ea 3c a1 3d
       0.050008386 -0.052988667 0.20950422 0.078729466
000030 98 0a 2e be e7 60 25 3d a2 aa ef bd 8e 9e e9 3d
       -0.16996229 0.040375616 -0.117024675 0.11407195
000040 2b 72 ee 3c f4 9b 6e bb dd ed 1f 3e dd 06 2b be
       0.029107174 -0.0036408873 0.15618081 -0.16701837
000050 fa 4e 74 3d d0 1f d5 3d ca 51 b5 3d a3 7b 41 bd
       0.05964563 0.104064584 0.08853491 -0.04723705
000060 3b ae 3b 3e 67 dd 69 3c c9 19 e8 3d d8 4a c3 3d
       0.18328182 0.014273978 0.11333043 0.0953576
000070 c3 70 4a 3e 9f 8f 29 bd bb 8a da 3d a7 4c 4d 3e
       0.19769578 -0.041396733 0.10670992 0.20048772
000080 6b 26 06 3e 52 0a 4e 3e 5f 03 81 3e 36 d1 87 3e
       0.13100593 0.20121124 0.25197884 0.26526803
000090 47 9a 00 be 3a 5b 5f 3e 7e 9a 5f 3d b7 ab 10 3e
       -0.12558852 0.21812144 0.054590695 0.14128004
0000a0 32 5f 04 3e da f1 55 3d 15 3e 9b 3e fa b3 a0 bc
       0.12926939 0.0522326 0.30320802 -0.01961707
0000b0 c7 fa 9a bd 0d e3 33 3e 36 15 b1 3d 68 a0 b6 bc
       -0.07567363 0.17567082 0.08646624 -0.022293285
0000c0 c9 c6 23 be da d3 47 3e f9 37 e0 bd 89 10 7a 3d
       -0.159938 0.19514409 -0.10948176 0.061050925
0000d0 6f 9f 2b 3d 96 61 a3 3d 17 46 31 bd 6d ea 23 be
       0.041900095 0.079775974 -0.043279734 -0.16007395
0000e0 ce 1a 60 3e 10 e8 8a bd 10 ad 8b 3e ec 5e 42 3a
       0.21885225 -0.06782544 0.27280474 0.0007414657
0000f0 5a bf d2 3c 5a f9 4c bd c0 b6 52 3b ea c5 06 be
       0.02572601 -0.050042488 0.0032152385 -0.13161436
000100 94 00 2c 3e 52 b2 d5 bb 8e ac e8 bd ec a8 0d bd
       0.16797096 -0.0065215016 -0.11361037 -0.034584925
000110 db 97 60 3d 85 e8 20 bd 60 1d 39 3e 7d 25 18 be
       0.05483232 -0.039284248 0.18077612 -0.1485805
000120 9f 53 44 3d 30 9b 02 3d af e6 46 3b ab 91 22 3d
       0.04793131 0.03188628 0.00303499 0.0396897
000130 09 b3 bb 3d f6 0a 07 be 7f 00 30 be bb 52 5a 3d
       0.091650076 -0.13187775 -0.17187689 0.053301554
000140 a0 ca 97 bc 31 45 c4 bd b7 bd fc 3d cd d6 aa 3d
       -0.018529236 -0.0958351 0.12340873 0.08341751
000150 11 48 93 3d 92 18 ec 3b 6a da 32 bd 94 a1 dc 3d
       0.0719148 0.0072050774 -0.043665327 0.10773006
000160 4f 36 ff bd 93 c9 fc 3d 67 34 29 be 88 f8 b9 bd
       -0.124615304 0.12343135 -0.16523896 -0.09080607
000170 83 17 f8 3d a8 0f 37 3e e8 38 fc 3d ca 00 27 be
       0.121138595 0.17877066 0.123155415 -0.16308895
000180 48 3f c0 bd 2c d5 29 3e ee 96 df 3d 7a 99 59 3c
       -0.0938707 0.16585225 0.109174594 0.013281221
000190 07 91 4d 3e 58 2e c1 bd 19 5c 3b bd 69 33 68 3d
       0.20074855 -0.094326675 -0.045742128 0.056689654
0001a0 df b6 b8 bd 70 a7 b9 3d 2e a8 c9 bd 08 a7 f0 3c
       -0.09019255 0.09065139 -0.09846531 0.029376522
0001b0 06 b8 86 bd e4 46 21 bc 26 14 03 3e 69 48 10 bd
       -0.065780684 -0.009843562 0.12800655 -0.035225306
0001c0 10 3c a4 3d 60 cc 1a 3e 59 01 b9 bd 1f d1 81 3d
       0.080192685 0.15117025 -0.0903346 0.06338715
0001d0 03 85 f3 3d ba 61 96 bd aa cc 46 3e 49 ce fb bd
       0.11890604 -0.073428586 0.1941401 -0.12295205

lstm.bias_hh_l0_reverse f4 [120]
000000 ec 34 a0 3c 91 87 7c 3d 50 88 41 bb 43 ca b3 bb
       0.019556485 0.061652724 -0.0029530711 -0.005486758
000010 8f 97 2b 3c 96 42 4e bd 13 7c 2c 3e 93 b6 06 3e
       0.010473146 -0.05035647 0.16844206 0.13155584
000020 5e 64 3a 3e 59 ca e6 3b bf 60 3a 3c 49 bf 02 3e
       0.1820235 0.0070431647 0.011375605 0.12768282
000030 ea 49 c2 bd e4 5e 29 3e 98 25 f0 bd b9 da 07 3e
       -0.09486754 0.16540104 -0.117259204 0.1326703
000040 c2 94 84 3d 4f f6 bc 3d b2 81 ec 3d 53 c1 2c 3e
       0.06473686 0.09226667 0.11548175 0.16870622
000050 51 13 8b bd 5a fa 24 3d 35 c5 09 3c a9 47 d3 bd
       -0.06790794 0.040277816 0.008408834 -0.103164025
000060 53 14 84 bd d0 f4 d7 3d b5 6c 71 bd 0e d1 5c 3c
       -0.06449189 0.10544741 -0.05894156 0.013477577
000070 99 d8 ef bc 0f a0 16 bd 56 f2 bc bc 2b 14 8f 3d
       -0.029278086 -0.036773738 -0.023064774 0.069862686
000080 fb c6 58 bd 36 2b 11 3e c0 19 91 3e af 64 39 3e
       -0.052924138 0.1417664 0.28339958 0.18104814
000090 c0 d1 a0 bd 9a 65 7c 3e 86 35 d9 bc c2 b3 0f 3e
       -0.07852507 0.24648133 -0.02651478 0.14033416
0000a0 52 ee 36 bd 72 d1 0e be 82 33 88 3e bb 44 4e 3d
       -0.044660874 -0.13947085 0.26601797 0.050358515
0000b0 66 57 f0 bc 07 ad 81 3e 91 09 e4 3d 35 3b bc 3d
       -0.02933855 0.25327322 0.11134637 0.0919098
0000c0 ba b6 c0 bd fc d1 f1 bd 28 3e d5 3d 3f 83 a6 3d
       -0.09409852 -0.118076295 0.10412246 0.08130502
0000d0 0b 65 37 3e d6 22 57 bc 74 fa e4 3c 26 a0 30 be
       0.17909639 -0.013130864 0.027951457 -0.17248592
0000e0 1e ee 3a bd 1e b1 84 3e 05 f8 80 3e 44 3a 15 3e
       -0.045637242 0.2591638 0.25189224 0.14573008
0000f0 e4 42 e8 bd cc dc 97 bc bf b8 ba bd 0f 3c fb bd
       -0.113408834 -0.018537901 -0.09117269 -0.12267315
000100 90 01 f1 bc d1 a8 09 bb 63 fc bf 3d 26 39 68 bd
       -0.02941969 -0.0021005163 0.09374311 -0.056695126
000110 72 2c bf bd 88 6c 9d bd c5 e7 0a 3e 64 c9 d0 bd
       -0.09334649 -0.07686716 0.13564976 -0.10194662
000120 64 47 84 3b 43 3c ea 3c 3d e4 6e bd ed d4 fe bd
       0.0040368307 0.028593188 -0.058323134 -0.12442956
000130 68 35 56 3c b2 0a e6 bd 46 f1 26 be 87 99 6f bd
       0.0130742565 -0.11232509 -0.16302976 -0.058496024
000140 1c 07 37 3e 55 c1 a3 3b 09 32 00 bd 8d b9 43 bb
       0.17873806 0.004997412 -0.031297717 -0.0029865236
000150 43 39 b8 ba 53 41 31 3e a5 da 51 3d 8c 7b d0 bd
       -0.0014055151 0.17310075 0.051233906 -0.10179815
000160 92 1b 42 3d e4 c4 ad bd 98 0a ef 3d fb 16 bf bc
       0.047389574 -0.084848195 0.116719425 -0.023326388
000170 8f e1 a2 bd 90 26 5b 3e 34 fc ab 3b 8c 98 d4 3d
       -0.07953178 0.21401429 0.005248571 0.103806585
000180 a9 4c d5 bc 2e cc db 3d 1e 6f f4 3c 59 ea 06 3e
       -0.026037531 0.107323036 0.029838141 0.13175334
000190 f9 74 a3 3c 54 b9 93 bd 2e 3b 17 bd f8 a9 cc bc
       0.019953238 -0.07213083 -0.036921673 -0.024983391
0001a0 1d c1 f9 bd c4 e6 e3 bd 53 67 e3 3d 4a ed 52 3e
       -0.121950366 -0.111279994 0.11103692 0.20598331
0001b0 bc 6c 41 3e 4a b4 19 bd 02 d8 03 be 54 fc 4d bc
       0.18889135 -0.037525453 -0.12875369 -0.012572367
0001c0 94 c3 bc 3d ce f3 cf 3d b7 bc 5d 3e d7 db 07 be
       0.09216991 0.10153924 0.2165402 -0.13267456
0001d0 a8 e3 3e 3d 83 69 c2 bc bd 6a 2b 3d 94 44 d7 3b
       0.04660383 -0.023731953 0.04184984 0.0065694544

lstm.weight_ih_l1 f4 [120, 60]
000000 31 28 c4 3d 1d 93 26 3d fb cb ec 3d 7e dd 96 bd
       0.095779784 0.040667642 0.11562344 -0.07366465
000010 05 83 19 3d 45 40 6a bd 87 07 32 3d a0 c5 3c bd
       0.037478466 -0.0571902 0.04346421 -0.046086907
000020 07 e8 c6 3d 73 c9 9f bc 2f 51 7b bd 18 95 3e be
       0.097122245 -0.019505238 -0.06135672 -0.18611562
000030 3b 8b f9 bd 58 a5 1d 3d 65 86 d7 3d fa 49 1b 3e
       -0.12184759 0.038487762 0.105236806 0.15164939
000040 27 40 eb bd 73 04 1e 3e a7 97 0d be ec 50 30 3e
       -0.114868455 0.15431385 -0.13827382 0.17218369
000050 32 27 4d 3e 58 6e c3 bb db 30 44 3d 36 91 b3 3c
       0.20034483 -0.0059640817 0.047898155 0.021919828
000060 08 7d c7 3d c3 a9 b6 bd 86 1b 13 bd 87 80 13 be
       0.09740645 -0.08919098 -0.03591492 -0.14404498
000070 2a 2f 0e 3e 4f 6d 87 bd b1 31 f4 bd 4b 7e 3d 3e
       0.13885179 -0.06612646 -0.119235404 0.18505208
000080 05 c0 04 3b 4b ce de 3c 00 67 92 bd a8 d1 e1 bd
       0.0020256054 0.027197978 -0.07148552 -0.11026317
000090 26 9e 9f 3d c3 ee 14 be 1f d4 1a be 0f 7d 26 be
       0.07793836 -0.14544205 -0.1511998 -0.16258644
0000a0 a4 15 1d 3e 3f 93 78 bd b0 2d 93 3d 5c 72 26 3e
       0.15340286 -0.0606873 0.071864486 0.16254562
0000b0 b3 ff 67 bc 1b 42 1a bd 8c f5 77 3d ae 38 61 3d
       -0.014160085 -0.0376607 0.060536906 0.054985695
0000c0 a0 06 7d 3d 83 2c 14 bd 7e 4e fe bd 1b 8f 66 3d
       0.061773896 -0.036175262 -0.12417315 0.05628882
0000d0 ae e7 d7 3c bd b3 ce 3d ff cc dc bd 58 c8 0e ba
       0.02635559 0.10092876 -0.107812874 -0.00054467237
0000e0 33 21 49 3e b1 64 48 bd b9 45 b2 bc fc b6 34 be
       0.19641571 -0.04892415 -0.021761762 -0.17647928
0000f0 a1 7b 0a be 8c 53 90 3d 66 75 34 be 11 ef 79 3d
       -0.13523723 0.07047185 -0.17622909 0.061019007
000100 65 9f 10 be ef ed cc bd ff 3c fb 3d 43 19 92 3d
       -0.14123304 -0.1000632 0.122674935 0.071337245
000110 39 7b 0e bc 7a eb 1e bd 35 89 21 3e ac de 9b 3c
       -0.008696371 -0.038798787 0.15774997 0.019027077
000120 89 92 81 3d f6 e9 3a be 1f e9 3f be ba 18 0f 3e
       0.063267775 -0.18253312 -0.18741272 0.13974276
000130 a0 bf a8 bd 74 62 2d 3e 10 b0 73 bd d9 7a 7b 3d
       -0.082396746 0.16932088 -0.05949408 0.061396454
000140 03 36 ca bd bb 90 86 bd 57 e5 20 bc 99 b6 26 bc
       -0.09873583 -0.06570574 -0.009820304 -0.010175371
000150 d6 02 e6 bd 79 7c 15 3e 86 58 ac bd 42 c4 1f 3e
       -0.1123101 0.14598264 -0.08415322 0.1560221
000160 44 94 d2 bd 2e be 2f 3e 90 db 03 3e 55 f0 3b 3d
       -0.10282186 0.17162392 0.12876725 0.045883495
000170 f4 33 a0 3d 5a 8a 3b 3c 7c a0 1f be 1d a1 a9 bd
       0.07822409 0.01144656 -0.15588564 -0.08282683
000180 f2 2f 83 bd e1 b1 2d bd f2 af da bd 1c 44 a5 3d
       -0.06405629 -0.042405967 -0.1067809 0.080696315
000190 70 0c bd 3c 02 dd c0 bb 5a 18 3c 3d 55 bf fe 3d
       0.02307722 -0.005885721 0.04592166 0.124388374
0001a0 ad cc 13 3e cd 16 8c 3c 44 90 e5 3d 25 88 b7 3d
       0.14433546 0.017100716 0.11209157 0.089615144
0001b0 22 62 2d 3e 50 64 15 3e 3e f7 02 be 87 a1 87 3d
       0.16931966 0.14589047 -0.12789628 0.06622606
0001c0 68 a0 36 3e 9d 33 88 3d 6c ee 23 be 99 a8 e9 3d
       0.17834628 0.066504695 -0.1600892 0.114091106
0001d0 63 40 ab 3d 6c a5 05 3d ba c2 fa bd e5 4a a7 3d
       0.0836189 0.03262846 -0.122441724 0.08168582
0001e0 c0 c6 ab 3d 49 c2 ba bd 75 fa d3 3d ce 5b 33 bd
       0.08387518 -0.09119088 0.10350505 -0.043788724
0001f0 b6 c1 d3 bb ba ee d4 bc fd c1 6f bd ad f8 0e be
       -0.006462301 -0.02599274 -0.05853461 -0.1396205
000200 26 6e 6d 3d 7d b1 33 be 70 c8 18 be dd 30 09 3e
       0.057966374 -0.17548175 -0.14920211 0.13397546
000210 88 37 2f bc 72 94 04 be d0 5e 8f bd 17 a8 c1 3d
       -0.010694392 -0.12947252 -0.07000506 0.09455889
000220 4a 5e b1 bd 8c 9d df bd 44 7a fb bd 27 71 eb bd
       -0.08660562 -0.109187216 -0.1227918 -0.114961915
000230 03 84 05 be fd 4a fd 3d 31 31 0d be ee b4 a2 bd
       -0.1303864 0.123678185 -0.13788296 -0.07944666
000240 9e 31 19 3e 84 2a e4 bd e4 f1 93 bd 78 38 d5 3c
       0.14960334 -0.11140922 -0.07223871 0.026027903
000250 99 3f c0 bc 83 c9 ef bd 77 e8 b7 3d 3c 66 09 3e
       -0.023467826 -0.11708357 0.08979886 0.13417906
000260 2d 25 59 bd c9 e3 18 be 85 64 9c 3a d4 f4 0b 3d
       -0.05301397 -0.14930643 0.0011931813 0.034169033
000270 6d f3 64 bd b9 b8 11 be 0f e3 a7 3d a5 17 ed 3d
       -0.05589621 -0.14230622 0.08197605 0.115767755
000280 10 ff 14 be c4 23 6d 3d e2 4d 96 bd a1 9e d2 3d
       -0.14550424 0.057895437 -0.07339074 0.10284162
000290 0b 8d 72 bd 88 a2 28 be af 23 22 3d eb fe 14 3e
       -0.05921654 -0.16468251 0.03958481 0.14550368
0002a0 9e fc b3 bc fe 1e 07 3e 20 f2 11 be 5c ec 3a bd
       -0.021971043 0.13195416 -0.1425252 -0.045635566
0002b0 33 84 75 bc 47 93 f2 3d 3a e2 33 be f0 b7 94 3d
       -0.014985132 0.11844497 -0.17566767 0.07261646
0002c0 17 74 31 3e f4 e6 ab 3c 3e f6 8d 3d 32 bf 09 be
       0.17329441 0.02098415 0.069317326 -0.13451841
0002d0 1d a6 f6 3d 7d 85 22 be 22 5a 26 bc 68 ff ad bd
       0.12043402 -0.15871234 -0.010153325 -0.084959805
0002e0 5d d6 a4 ba fc a3 70 bd 87 52 a4 3d 62 94 c2 bd
       -0.0012576092 -0.058750138 0.08023553 -0.09500958
0002f0 db a6 0d 3e 1b 30 3e bc 20 94 a0 bd 40 71 bb 3d
       0.13833182 -0.011608149 -0.078407526 0.0915246
000300 71 b7 0a be a4 48 21 be b2 e4 95 bc 72 d2 d9 bd
       -0.1354654 -0.15750366 -0.018297527 -0.106358424
000310 21 e3 6b bd 14 e5 0b be eb e4 eb bb 61 02 4a be
       -0.057589654 -0.13661605 -0.00719892 -0.1972747
000320 82 b7 bf bd c8 99 cd 3d ec ba 0d be 33 7c 14 3e
       -0.09361173 0.10039097 -0.13840836 0.14500503
000330 b8 12 04 3e b3 32 b5 3d ac 7c 81 bc 1e dc c5 bd
       0.12897766 0.08847561 -0.015806518 -0.09661125
000340 b2 04 49 be 92 e3 2c be de 7d 79 bd f5 56 44 bc
       -0.19630697 -0.16883686 -0.060911052 -0.011983623
000350 f2 17 43 be 43 fe c0 bd 93 cf 35 3e d1 95 1d 3c
       -0.19052103 -0.094234966 0.17754965 0.009618239
000360 93 a1 c1 3c e7 c3 95 3d 98 a9 5d bd 59 3b 75 3d
       0.023636615 0.07312756 -0.054116815 0.05987105
000370 57 12 ce 3d a3 9b 01 bd 9a 17 43 be df 06 59 3c
       0.10062092 -0.031642567 -0.19051972 0.013246267
000380 ef 5b c9 3d c2 e8 11 bd 95 cd 29 be f6 c6 67 3c
       0.09831988 -0.035622366 -0.1658233 0.014146557
000390 88 33 35 3c b7 a0 f7 bc 57 9c 0a be 54 e6 b3 bd
       0.011059649 -0.030228002 -0.13536201 -0.08784166
0003a0 44 21 47 bc 34 1f cb 3d 7c 7e 37 be 52 3f fe bd
       -0.012153927 0.09918061 -0.17919344 -0.12414421
0003b0 22 c5 29 be 5d 94 90 bd 11 c7 b2 bd 22 07 7d 3d
       -0.16579106 -0.07059548 -0.08729375 0.06177438
0003c0 b2 67 0a 3e 9b 71 22 3e 51 4e 28 3e a8 6b 11 3e
       0.13516119 0.1586365 0.16436125 0.14201224
0003d0 0b ba 12 3e 45 de 00 bd d6 69 19 3e c5 f4 2b 3e
       0.14328782 -0.031461973 0.1498178 0.16792591
0003e0 40 bb 06 be 10 b7 22 3e 6b a8 41 be 6f 59 fa bd
       -0.13157368 0.15890145 -0.18911903 -0.12224089
0003f0 81 85 5b bd 87 f0 f4 3d 16 2a 2d bd 8c 21 2e 3d
       -0.053594116 0.119599395 -0.042276464 0.04251246
