model/LSTMY/IAAcheckpoint1.pt (torch, 229215 bytes, 31 tensors)

lstm.weight_ih_l0 f4 [120, 15]
000000 09 32 e8 bd 2d 3c 39 bd 10 fc 1a 3e 5a 57 b1 bb
       -0.113376684 -0.045223404 0.15135217 -0.0054120244
000010 24 e5 25 3e 7c dc 41 3d 94 e3 64 3d 54 f7 c2 bc
       0.16200691 0.04732941 0.055881098 -0.023799576
000020 74 c0 8b 3c 57 9d 5b bd af ce 2e bd bc b9 5f 3d
       0.017059542 -0.053616848 -0.042677578 0.05462049
000030 cf c2 35 3b 07 ab 6f be e7 48 c0 bc 2b f9 b3 3d
       0.0027734523 -0.23405086 -0.023472263 0.087877594
000040 95 d8 c9 bc 54 73 db bd 00 6f fe bd 54 bb e2 bd
       -0.024639407 -0.107153565 -0.12423515 -0.11070886
000050 f4 77 4b bc 60 1f c4 3d ab 93 59 3e ba 1b a5 bd
       -0.012418736 0.09576297 0.21247737 -0.08061929
000060 ca 21 15 be 91 cb 0d bd ad 6c 8a bc 10 5d 17 3e
       -0.14563671 -0.034617964 -0.016897524 0.14781594
000070 12 d1 c9 bd 2c 12 47 be 74 32 e7 bd 07 01 5e be
       -0.0985433 -0.19440526 -0.1128892 -0.2168008
000080 6d 65 92 3d f7 6a 27 be 8e 57 2b be b3 c2 3b 3d
       0.07148252 -0.16349398 -0.16732618 0.045839977
000090 b2 d0 46 be a4 09 6c bd 93 c2 db 3d 0e 19 38 bd
       -0.19415548 -0.05762638 0.107304715 -0.04494577
0000a0 8a a3 e4 3d f9 c4 b6 bc 80 c8 c1 bd cc 01 a6 bd
       0.11164005 -0.02231072 -0.094620705 -0.081058115
0000b0 38 c7 40 3d 1b 07 21 3e 30 9e 41 be 86 52 d3 bb
       0.04706499 0.15725367 -0.18908 -0.0064490465
0000c0 87 55 56 3e f5 0c fa 3c d3 8e 6b be 19 e6 64 be
       0.20931064 0.030523757 -0.23003702 -0.223534
0000d0 f5 1e 8e 3e 09 ef 3b bd 74 10 ab bc aa 9b 91 3d
       0.27757993 -0.04588226 -0.020881869 0.07109769
0000e0 2d b1 07 3e c1 ec 7c bc 4f b6 94 3d a9 5e bf bd
       0.13251181 -0.015437306 0.07261335 -0.09344227
0000f0 97 d0 9f 3d e7 1e 0b be df 71 ff 3d 75 b5 a1 3b
       0.07803457 -0.13586007 0.12472891 0.0049349614
000100 d1 49 7a be d6 0e 00 3e 79 b6 34 be 51 4f 83 3d
       -0.24442221 0.1250566 -0.17647733 0.06411613
000110 59 e6 49 be a3 95 a6 bd 74 75 93 3d 89 35 43 bc
       -0.19716777 -0.0813401 0.07200137 -0.011914619
000120 57 d1 15 3c f5 34 1a 3d 65 57 6d bd 87 8c bd 3c
       0.009144149 0.03764816 -0.057944674 0.023138298
000130 e6 a0 7a bd 38 9d 56 be 58 88 d9 3d 12 97 65 bc
       -0.0611886 -0.20958412 0.10621709 -0.014013069
000140 ba 93 27 bd 0c 75 31 be 2a 5e 10 3d 9a 79 7e 3d
       -0.040912367 -0.17329806 0.03524605 0.062127687
000150 16 57 3d 3e 58 26 9b 3d 57 be 0f 3d f9 bb d4 bd
       0.18490252 0.07575673 0.03509363 -0.103874154
000160 b6 18 b2 bc 3b 2d eb 3d ba 7f 0f be 49 c5 9c 3d
       -0.021740299 0.114832364 -0.14013568 0.07654817
000170 15 3f c1 3b 8c c8 e6 3d a2 2f 43 3e c3 f6 17 bd
       0.0058974125 0.1126872 0.19061139 -0.037100565
000180 08 31 c7 3d 2e 6c 4a 3e 73 5c 2e be 91 6e 15 be
       0.09726149 0.1976783 -0.17027454 -0.14592959
000190 c2 78 f9 3d ae 29 07 be 3d 27 ce 3d 46 67 c0 bd
       0.12181236 -0.13199493 0.10066078 -0.09394698
0001a0 f2 18 dd bd 01 db 82 3d 94 7e 11 3e 70 7e 12 3e
       -0.107957736 0.06389428 0.14208442 0.14306045
0001b0 05 14 8e bd 0b fa b9 bd 3b 80 fa 3d b6 89 f0 bd
       -0.06937412 -0.09080895 0.12231489 -0.11745016
0001c0 fd 08 80 bd f1 a3 fb bb f8 3e 49 3c c1 53 4b be
       -0.062517144 -0.0076794554 0.012283079 -0.19856168
0001d0 e8 de 28 3e a1 f3 22 be 31 7d dc 3d be 6f c6 3d
       0.16491282 -0.1591325 0.10766066 0.09689282
0001e0 83 39 84 3d 88 25 9e 3d 9c 14 19 3c 1b a0 57 3e
       0.06456282 0.07722002 0.009343293 0.21057169
0001f0 af 6b 2e 3c a2 df be 3d 5a 4b 3a be c5 1c e7 bd
       0.010645791 0.09319998 -0.18192807 -0.11284784
000200 51 6f 31 3e ba d3 c9 3d 3b e8 8c bd fc a5 26 3e
       0.1732762 0.09854837 -0.06880232 0.16274256
000210 3f 66 2f be c8 e4 a7 3d 41 88 14 3e da e9 0c be
       -0.17128848 0.081979334 0.14505102 -0.13761082
000220 3b 02 56 be e9 d8 11 3d 62 bc e8 bd 5d b3 5c be
       -0.20899288 0.035607252 -0.11364056 -0.21552797
000230 ff c8 c1 bd 61 44 08 bd 10 ce 15 3e c6 76 35 be
       -0.09462165 -0.033268336 0.14629388 -0.1772109
000240 74 7d be bb f5 e2 33 bd 2d 9e 82 be c0 4e 58 bd
       -0.005813295 -0.043917615 -0.25511304 -0.052809477
000250 bc 81 48 3c 72 37 84 bd 5e 47 8f 3d b7 f2 41 3e
       0.012237962 -0.06455888 0.06996034 0.18940245
000260 a1 85 11 3c 14 35 04 be 7f d3 21 3b 77 73 0b 3e
       0.008881957 -0.12910873 0.0024692712 0.13618265
000270 f4 c5 cd 3b 82 67 26 be 42 a3 ac 3d ff 71 59 3c
       0.0062797014 -0.16250423 0.084295765 0.013271808
000280 d7 60 60 be c5 df b2 bd 3a 41 dc 3d a6 0f cb bd
       -0.21911941 -0.08734087 0.107546285 -0.09915094
000290 6d f3 fc bd 14 b1 cc 3d b9 64 1a be a0 17 46 3e
       -0.12351117 0.099947125 -0.15077485 0.1934495
0002a0 81 c5 8a bd ff 6b 08 3e 4f b3 f5 bd 9f 6b 74 bd
       -0.06775952 0.13322447 -0.11997091 -0.059672948
0002b0 a8 11 f2 bd c0 71 3d 3e 62 86 00 3e 64 15 3a 3e
       -0.11819774 0.18500423 0.12551263 0.18172222
0002c0 e7 b0 bf 3d 6a 87 c1 3d 1f b4 d8 3c 9e 7b 2b 3b
       0.09359913 0.09449656 0.026453076 0.002616621
0002d0 84 e8 80 bd 17 58 90 bc 42 80 d5 bc 2f c7 5e 3d
       -0.06294349 -0.01762013 -0.026062135 0.054389175
0002e0 25 99 e0 bd 96 b1 19 be d0 29 d9 bc ea ac 9a 3d
       -0.1096671 -0.1500915 -0.026509196 0.07552512
0002f0 94 62 84 3e 56 d0 ff bd da ff a4 3d 59 0c 38 3d
       0.2585646 -0.12490909 0.08056612 0.04493365
000300 52 15 e7 bd c9 9c 8b 3c 23 d1 29 3e 17 1f 06 be
       -0.112833634 0.017042534 0.16583686 -0.13097797
000310 c4 38 90 3d 02 26 1a 3d 94 55 3d be 99 4d 58 be
       0.07042077 0.037633903 -0.18489677 -0.21123351
000320 c7 93 09 3e 4f 0b 7a be dc af 14 bd ea a9 22 3e
       0.13435279 -0.24418376 -0.036300525 0.1588513
000330 f5 72 40 3d b0 d0 42 bd 75 a8 87 be f0 e3 12 3d
       0.04698463 -0.0475623 -0.2649571 0.03586191
000340 ac 89 d8 bc 34 43 e6 3d 4a 49 12 3d e2 8f de bd
       -0.026432835 0.11243287 0.035714425 -0.10867287
000350 a9 9e 5f 3e c3 61 44 bd d7 2c 32 3e bb dc 1b 3d
       0.21837868 -0.047944795 0.17399918 0.0380523
000360 63 c1 cb bd e0 db 18 be 9a bc 09 be ff 91 bb 3c
       -0.09948995 -0.14927626 -0.13450852 0.022896765
000370 0a 31 4b be a1 6b 1b bd ef 4d 3d 3d 83 cd 16 bc
       -0.19842926 -0.03794444 0.0462169 -0.009204271
000380 6c 7f 9d 3d aa d8 20 3e 46 4c 64 3d 07 67 25 bd
       0.076903194 0.15707651 0.055736803 -0.040381458
000390 4d b4 ea bd 27 d5 09 be 10 e0 2e 3d 05 be f7 3c
       -0.11460171 -0.13460217 0.04269415 0.030241976
0003a0 1f 50 f2 bd 6f 4e 1a 3d 1d 26 67 bd 56 2f 01 bc
       -0.11831688 0.037672456 -0.056432832 -0.007884821
0003b0 2b bf 80 be a3 13 4b bc 19 90 2e 3e 28 c8 dc bd
       -0.2514585 -0.0123948185 0.17047156 -0.10780364
0003c0 e5 55 28 3c 03 e4 ab bd b4 f4 7c bd c2 43 a7 3d
       0.010274385 -0.08393099 -0.061756805 0.08167221
0003d0 0c 23 3f bd 66 26 85 3d 83 ff 36 be 01 80 73 3d
       -0.046664283 0.065014645 -0.17870907 0.059448246
0003e0 b1 ef 05 bc 02 a5 25 bc bb 09 3b be 9b 9a 19 3e
       -0.008174823 -0.010110142 -0.1826543 0.15000384
0003f0 87 bb 0f bd c2 13 d9 bd 19 9b 4d 3d 95 28 64 be
       -0.03509095 -0.10599472 0.05019674 -0.22281106

lstm.weight_hh_l0 f4 [120, 30]
000000 1d 14 f0 bd 9b 63 14 3e 66 a2 3c 3d b2 4d c6 bc
       -0.11722586 0.14491121 0.046053313 -0.02420697
000010 4f 6b 1b bd 32 bc 3f be 90 05 8b bd 66 e3 81 be
       -0.037944134 -0.18724135 -0.0678817 -0.25368804
000020 66 46 d1 bd fd a7 c7 3c 21 41 85 be 86 8b 6f be
       -0.102185056 0.024372095 -0.26026252 -0.23393068
000030 a5 6b 79 3e bf 6d 84 3e 47 ac 7c 3d f1 bf c8 bc
       0.2435747 0.2586498 0.061687734 -0.024505587
000040 b3 b0 d5 bd b2 eb 98 be 5d 9b 7a 3d f1 48 ef 3c
       -0.10434093 -0.2986732 0.061183322 0.029209586
000050 af 06 6f bd 2c 68 aa 3b 26 f1 8a 3d b0 4d 02 be
       -0.058355983 0.0052004065 0.06784277 -0.12724948
000060 5b 66 9c 3d 30 6b 80 3c 12 f2 67 3e 2c ce 63 3d
       0.0763671 0.015676111 0.22650936 0.055616543
000070 ae 8d 88 bd cf 7d 7c bd a9 c9 4b 3d 8d 92 a5 bd
       -0.06667648 -0.061643418 0.049752865 -0.08084593
000080 d6 eb 7b bd 9b 4e 0b bd de 8f ca bd c7 19 40 bc
       -0.061504208 -0.03401051 -0.09890722 -0.011724896
000090 12 81 5d bd ac cf 34 3c a5 e9 b7 bd 79 a7 4c 3e
       -0.05407817 0.011035841 -0.08980111 0.19985761
0000a0 16 5f 7f 3e 11 9d bc 3d 39 9d 42 be 2e fe 47 3d
       0.24938616 0.092096455 -0.19005288 0.04882639
0000b0 82 08 08 3e b4 20 30 be c4 08 61 bd 32 34 78 be
       0.13284495 -0.17199975 -0.05494 -0.24238661
0000c0 67 c2 a7 bd e4 5b 3e be f1 e0 71 be ef 38 2f 3e
       -0.08191376 -0.18589741 -0.23620965 0.17111562
0000d0 89 25 11 3e c2 fc 27 3d 0d a8 3e 3e 1a ec 0a be
       0.14174475 0.041012533 0.18618794 -0.13566628
0000e0 39 e2 2f be e9 02 65 3e 08 0c 21 3d 41 73 07 3e
       -0.17176141 0.22364391 0.039318115 0.1322756
0000f0 41 20 69 bd fd ac ae 3c 06 26 84 bd d4 84 08 3e
       -0.056915525 0.021322722 -0.06452565 0.1333192
000100 0d ce f6 bc 1e 5e 7f be 36 23 8e 3a 40 0d 42 3e
       -0.03012755 -0.24938247 0.0010844234 0.18950367
000110 91 c3 db bd 89 25 e2 bd 97 12 89 3e dc 9d 1f be
       -0.10730661 -0.110423155 0.26771995 -0.15587562
000120 64 89 03 3e 50 a8 3e 3e 10 60 be bc 94 b7 2f be
       0.12845379 0.18618894 -0.023239166 -0.17159873
000130 ac 49 52 3e e3 53 5e be 42 53 fb bb 32 dc 4d be
       0.20535916 -0.21711688 -0.007669837 -0.20103529
000140 f3 4d 31 3c 06 b4 67 be d7 26 bc 3c 65 3a f9 bd
       0.010821807 -0.22627267 0.022967739 -0.12169341
000150 9f b6 4c be 97 19 a4 3d 53 c7 76 3d 72 7c 65 be
       -0.1999154 0.080126934 0.060248684 -0.22410753
000160 3a c5 27 3e e0 2c ed bc bf 9b fb bd 6c 8f 33 3e
       0.1638383 -0.028952062 -0.122855656 0.1753518
000170 4c 77 0b 3e 3d 21 d7 3c 53 74 48 3c 52 92 8f bc
       0.13619727 0.026260966 0.012234765 -0.017525826
000180 8b a9 31 be 9c 91 73 3d e6 9b b9 bd b9 7d 34 3d
       -0.17349832 0.059465036 -0.090629384 0.04406521
000190 1a ce fa 3d ce 39 41 3e 1f 8f c6 3d 7d fa 95 3e
       0.12246342 0.18869707 0.09695267 0.2929267
0001a0 8c 0a aa bd e3 54 f9 bd 87 b3 0a 3e a1 66 b1 bc
       -0.08302793 -0.12174394 0.13545047 -0.021655383
0001b0 ae a1 16 3d 23 fb 44 3e a1 1c 18 3c dd c7 6f be
       0.036775284 0.19236426 0.009284169 -0.23416086
0001c0 f9 d2 28 3e b0 3c 48 3d d3 e1 fc bc 33 37 75 bd
       0.1648673 0.048886 -0.0308694 -0.059867095
0001d0 33 c3 ab bd 68 f0 65 be e5 90 1c 3d d6 fa 16 3e
       -0.08386841 -0.22454989 0.03822412 0.14744124
0001e0 47 10 04 be 3a d8 18 be 9b c8 ab bb 5a 19 ec 3d
       -0.12896834 -0.14926234 -0.00524242 0.11528273
0001f0 e9 a2 0d 3c 10 94 3c be 68 8f 68 be 9d 8a 02 3e
       0.008644798 -0.18415856 -0.22710955 0.1274819
000200 9e 76 d6 3d 14 e2 fb bd d2 6d 49 be 40 e2 8e bd
       0.10471843 -0.1229898 -0.196708 -0.069767475
000210 48 cb 6a 3d 55 5f 19 be 63 3c 57 be ab e0 0b bd
       0.05732277 -0.14977773 -0.2101913 -0.034149807
000220 18 56 13 3e b1 6e 65 bd b6 7a ad be 64 25 12 3d
       0.14388311 -0.056013767 -0.33882684 0.03568019
000230 8c 25 d7 bd e6 91 39 be cb fb 9f 3d fb 99 0f 3b
       -0.105052084 -0.18122062 0.078116976 0.0021911848
000240 3f d0 2f 3d 17 ab 1a 3e 65 34 a5 3e 0a b8 20 3e
       0.04292321 0.15104328 0.32266536 0.15695205
000250 f4 1b 9a 3d 53 65 84 be 02 2b c5 3d 55 a6 4e 3d
       0.07524863 -0.25858554 0.09627344 0.050451595
000260 2d 10 83 3d ff 03 22 3d 06 dc 5f bd df a8 ae bd
       0.0639957 0.039554592 -0.05465319 -0.08528303
000270 1d e0 49 3d 90 df 89 bd 2d e7 ca be c9 1a d2 3c
       0.049285997 -0.06732094 -0.39629498 0.025647538
000280 ff 61 c1 3c b1 4f 0b be ad 89 ef 3d 6d 4f 97 3e
       0.023606298 -0.13604619 0.116961814 0.29552785
000290 65 a4 3a bd 23 db 58 be 70 fc 8f 3d 56 3f 48 3e
       -0.045566935 -0.21177344 0.070305705 0.1955541
0002a0 30 1f 2d be 58 52 11 3e ec 32 6e 3e ab fc 78 bc
       -0.16906428 0.14191568 0.23261613 -0.0151969595
0002b0 69 ec 20 bd 46 3c 26 3e 59 57 4c 3d 18 14 22 be
       -0.03928796 0.1623393 0.04988799 -0.15827978
0002c0 81 3b 03 3e 74 f4 3e 3e 04 49 90 3e 3c 11 42 be
       0.12815668 0.18647939 0.28180707 -0.18951887
0002d0 7c aa ac bd 63 be ce bd f2 67 4b be 51 75 29 3e
       -0.08430955 -0.10094907 -0.1986387 0.16548659
0002e0 0f 90 bd bd ac 56 b1 3d 33 11 0d bd b7 ce 57 bc
       -0.092559926 0.086591095 -0.03444023 -0.013171843
0002f0 77 fc 3c 3d dd 5f 11 bc c3 2c b5 3c 01 69 fd 3d
       0.046139207 -0.008872953 0.02211607 0.123735435
000300 5e e1 7b be 74 7d 85 be 0e 5c a9 bd d0 ed 47 3e
       -0.2459769 -0.26072276 -0.08269511 0.19524312
000310 b1 7d 5b bd 12 72 3a 3e 20 63 d4 bd 0f 03 c1 3d
       -0.053586666 0.18207577 -0.10370469 0.094244115
000320 1e 5c 4f be e1 a1 69 3d 05 7c a0 be d6 b0 37 3d
       -0.20249984 0.057039145 -0.3134462 0.04484638
000330 04 28 03 3e b8 06 d7 bc cc f9 60 be 9a 96 81 3e
       0.12808233 -0.026248321 -0.2197029 0.25310212
000340 a7 fb 63 bd f4 81 11 be 6c 91 06 3e 58 66 90 bc
       -0.055659916 -0.1420973 0.13141412 -0.017626926
000350 51 de 70 be 08 af b0 3d 58 4f 4c bd fb d9 7b be
       -0.23522307 0.086271346 -0.049880356 -0.24594872
000360 b7 5d 00 be 2b 54 f7 bd e9 39 e2 3d a7 b3 82 3c
       -0.1253575 -0.12076601 0.11046202 0.015954806
000370 03 5e 76 be 2b 6c 66 be 39 95 9e 3e 36 0f f8 bd
       -0.240593 -0.225022 0.30973223 -0.12112276
000380 4e 85 c7 bc 6b 89 0d bd c2 91 d9 3d dd c7 16 be
       -0.024355557 -0.03455488 0.10623504 -0.1472468
000390 36 31 ea bd 6e 4e 59 3c 5f 34 e3 3d b2 99 44 3c
       -0.114351675 0.013263328 0.11093973 0.011999534
0003a0 6d 7a 42 3b ce b6 50 3e bc fe 23 3e b6 35 b1 bd
       0.0029675022 0.20382234 0.16015142 -0.08652823
0003b0 97 d9 cc bd 4b c7 80 3d 91 c0 1f be 64 1d 53 be
       -0.100024395 0.06288012 -0.15600802 -0.2061668
0003c0 0e 10 65 bc 39 d0 f5 3d ec 91 4e be d6 5e 03 3e
       -0.0139808785 0.12002606 -0.20172852 0.12829146
0003d0 ad de 8e 3e 7a 18 50 3d a5 b8 37 bd 01 2c a8 3d
       0.27904263 0.050804593 -0.044853825 0.08211518
0003e0 88 87 4b be 9b b8 48 be 52 7f fe bd 98 98 87 be
       -0.1987592 -0.19601671 -0.12426628 -0.26483607
0003f0 d0 5a c0 3d e0 b8 0c bc cf 4a f7 3d 72 de 01 3e
       0.09392321 -0.0085889995 0.120748155 0.12682512

lstm.bias_ih_l0 f4 [120]
000000 77 16 32 be 52 ab 8a bd 45 e8 e6 bc 3f de 07 bd
       -0.17391382 -0.06770958 -0.028186927 -0.033170935
000010 8f 6b f3 bd 31 8f 8c bd e8 22 d3 bd d5 5d 48 3e
       -0.118857495 -0.06863249 -0.10309392 0.19567044
000020 53 7a 80 3c 5c cd b6 3d d7 23 65 3e c7 14 0e 3e
       0.015683329 0.08925888 0.22376953 0.13875113
000030 f0 27 56 3e cd 4a a4 3d 63 3b a9 bc 5c 40 7c 3e
       0.20913672 0.080220796 -0.0206582 0.24633926
000040 98 3d 1f 3d 9f b5 13 bd 8b 9f d0 3b 2c 3b eb 3d
       0.0388771 -0.03606188 0.0063666753 0.114858955
000050 79 82 7a 3e d9 1d 49 be dd 83 ec 3d d3 69 6d 3d
       0.24463834 -0.19640292 0.115485884 0.05796225
000060 9a d2 6b 3d 79 fe 85 3e 75 0a 89 3e b6 d0 69 3e
       0.057573892 0.2617071 0.2676579 0.22833523
000070 40 72 9b bd be 81 1c 3d a3 b3 9a 3e 31 8b 18 3e
       -0.07590151 0.03820967 0.30215177 0.14896847
000080 02 87 74 3e 82 c8 ae 3e e1 8e 85 3e 93 b7 65 bd
       0.23879626 0.3413735 0.2608557 -0.056083273
000090 ec a5 1d 3e b0 30 8e 3d f9 90 ad 3d 5d 0e fe 3d
       0.15395325 0.0694288 0.08474917 0.12405083
0000a0 58 e3 96 3e 7d 11 3d 3e bf 13 e2 3c 71 72 4e 3e
       0.29470325 0.18463702 0.027597306 0.20160843
0000b0 f9 29 51 3e 83 f1 97 3e 4e f8 cc bc 1c a8 40 bd
       0.20426168 0.29676446 -0.025020745 -0.04703532
0000c0 70 9b ba 3e c0 65 80 3e 80 77 c8 3d ce d9 1f 3d
       0.36446714 0.2507763 0.09788418 0.039026074
0000d0 ec d7 21 bd 7f b1 c2 3d a9 bb 43 3d 27 a4 2d 3e
       -0.03951256 0.09506511 0.04778639 0.1695715
0000e0 d6 77 80 3e 70 e2 49 3e 72 d9 4d 3e 50 fb e8 ba
       0.25091428 0.19715285 0.2010248 -0.0017775092
0000f0 62 52 38 3e 17 8e 4c bd 29 32 12 3e 81 ab 84 3d
       0.18000177 -0.049940195 0.14276947 0.06478024
000100 50 91 47 be 61 c7 38 3e 03 ef 8d bc 01 c5 51 3e
       -0.19489026 0.18044807 -0.017325884 0.20485307
000110 1c d5 29 be e9 1e bd bd eb 58 ac 3d e0 c4 df bd
       -0.16585201 -0.09234411 0.08415397 -0.10926223
000120 53 31 58 3d fc 32 ae 3d 49 64 84 bd 2d 96 ba 3d
       0.052781414 0.08505818 -0.064644404 0.09110675
000130 4c 18 90 3d 2f e7 04 3d a9 e0 0b 3e af a2 c8 bd
       0.07035884 0.032447036 0.1365992 -0.097966544
000140 13 7b bb 3d a5 61 9c bd c1 90 dd 3d 57 4d bf 3c
       0.09154334 -0.07635812 0.10818625 0.023352308
000150 e7 18 9c 3d 47 c2 e6 bb dd 1f 99 3d a5 6d 95 bc
       0.07621937 -0.0070422026 0.074767806 -0.01824076
000160 d5 85 72 3d f6 28 e7 bd c9 41 54 3d a5 3f c9 3c
       0.059209663 -0.112871096 0.05182055 0.02456648
000170 bd 97 22 3e af 2b 43 3e 81 08 60 3e 13 9a 62 bd
       0.15878196 0.19059633 0.21878244 -0.055322718
000180 a5 3e c4 3d 50 64 fa 3d bc cf cf 3d 0e e5 72 3c
       0.09582261 0.12226164 0.10147044 0.014825119
000190 8b 3b dc 3d f7 dc 83 bd 90 20 f5 3d 59 b2 90 bc
       0.107535444 -0.0643863 0.119691014 -0.017663168
0001a0 1e 33 05 3e 00 b6 fd 3d ff 81 6b 3e 16 8c cc bd
       0.13007781 0.12388229 0.22998808 -0.09987657
0001b0 cd 97 ba 3d f2 10 c3 3d 08 9e 34 3d b9 d3 56 3e
       0.09110985 0.095247164 0.044096023 0.20979203
0001c0 9d 64 e5 bc 83 3d 2d be a5 95 8c bd 5a f6 e1 3d
       -0.028002078 -0.16917996 -0.0686448 0.11033316
0001d0 ef 73 d5 bd eb 63 41 3e ac 2d 55 3d cd d9 28 3e
       -0.10422503 0.18885772 0.05204551 0.16489334

lstm.bias_hh_l0 f4 [120]
000000 22 72 2c 3e 6a 7f f7 bb dc 11 45 3e 15 9e 34 bb
       0.16840413 -0.0075530307 0.19245094 -0.0027560045
000010 e2 04 f8 bc fd 1b b2 3c 93 23 26 be ad f1 af bd
       -0.030275766 0.021741861 -0.16224508 -0.08591018
000020 04 d2 af 3d d3 3b ef 3c 3c 34 d0 3d 1c 86 26 bd
       0.08584979 0.029203331 0.10166213 -0.04065524
000030 15 af 4e bc 9b 5d 84 bd cd cd ec 3d 1f 17 cc bc
       -0.012614985 -0.06463166 0.11562691 -0.024913369
000040 90 5f 00 3e 5b 0b 50 be 51 d4 d4 bd bf 39 2e 3e
       0.12536454 -0.20316832 -0.10392059 0.17014216
000050 a0 fa 9b 3d 53 b7 c8 bd fb 82 a2 3d a5 de f4 bd
       0.07616162 -0.09800591 0.07935139 -0.119565286
000060 f8 00 17 be c8 98 a0 3d c6 90 37 bb df c9 7b 3e
       -0.14746463 0.07841641 -0.0028009876 0.24588726
000070 8d e5 80 3e 56 5e ca 3d 1d 87 1a 3d 7f f3 63 3e
       0.25175133 0.098812744 0.03772651 0.22260855
000080 a3 2c 6c 3e 0c 52 55 3d 48 ea 3a 3c e6 7d 84 3e
       0.23063903 0.0520802 0.011408396 0.25877303
000090 9b aa c7 3d c1 ba 8e 3e 6f f1 3f bc 64 fd e3 3d
       0.09749337 0.27876857 -0.011715277 0.11132315
0000a0 5c fd 64 3e f9 2a cf bc fa ef b4 ba 2e 9b 8f 3d
       0.22362274 -0.025289046 -0.0013804429 0.0701202
0000b0 de 8c 4f bc 3a 1d 9b 3e c7 87 a9 3d 9e 52 83 3e
       -0.012667863 0.30295736 0.082778506 0.2564897
0000c0 b7 88 9c 3e 03 97 b3 bd 5c c8 0b 3e f3 ef 8e bd
       0.30573055 -0.087690376 0.1365065 -0.069793604
0000d0 30 9c e5 bd e4 98 9d bd 03 b9 39 3e a0 54 bb 3c
       -0.11211431 -0.07695177 0.18136983 0.0228675
0000e0 31 23 18 3e 8d c1 93 bd 3a d1 74 3e 42 4e 64 bd
       0.14857174 -0.07214651 0.23907939 -0.055738695
0000f0 44 99 32 3e 90 0e 52 bd e4 53 61 3d b5 17 54 bd
       0.17441279 -0.05128342 0.055011645 -0.05178042
000100 73 5f 97 bc 25 a9 34 3e 45 f1 bf bc a4 1d 54 3e
       -0.01847813 0.17642649 -0.023430476 0.20714432
000110 57 29 73 3c 21 fb d0 bd 05 ec be 3d 83 d2 bd bd
       0.014841399 -0.10204149 0.09322361 -0.092686675
000120 4b 36 18 3e 6a 87 08 bd a5 68 ce 3c 05 66 7d 3d
       0.14864461 -0.033332266 0.025196383 0.06186487
000130 50 41 00 3e 85 aa ec 3d 54 1b 50 3e 25 78 8a bd
       0.12524915 0.115559615 0.20322925 -0.06761197
000140 c3 fb 8f bd 99 95 b6 3d 58 96 36 be 6e 57 ee bd
       -0.070304416 0.08915252 -0.17830789 -0.1163777
000150 06 18 ee bd 0d 22 b5 3d c9 9c 19 3d 8f 48 1f bb
       -0.11625676 0.08844385 0.037503038 -0.0024304723
000160 3f b8 23 be 8c 15 a7 bc f2 93 d0 3b 49 09 1a 3c
       -0.15988253 -0.020396017 0.0063652927 0.009401628
000170 59 e4 31 bb 85 fb 0c 3e 8d b3 9a 3d 0b 72 ea 3d
       -0.0027144162 0.13767822 0.07553778 0.11447533
000180 43 5b 06 3e 37 6b 1e 3c 85 c6 2b 3b bc f6 14 3c
       0.13120751 0.009669117 0.0026210856 0.009092029
000190 48 28 0c 3e 7d a4 b8 3d b8 4c cb 3d 31 a9 5e 3e
       0.13687241 0.09015749 0.09926742 0.21744229
0001a0 97 8f d1 3d ad 87 f1 3d 45 9b 90 3b 03 58 c2 3d
       0.10232466 0.11793456 0.004413041 0.09489443
0001b0 fe 35 2d bd 2e 7d 3b 3e dc c5 a0 bd 06 e6 44 3c
       -0.04228782 0.18309471 -0.07850239 0.0120177325
0001c0 1d a9 42 3e c8 77 29 3e f8 3e 05 bd e1 d4 0d 3e
       0.19009824 0.16549599 -0.032530755 0.13850738
0001d0 0a 10 e7 bc f6 60 0d 3e 58 56 1e bd 9b df a9 3d
       -0.02820589 0.13806519 -0.038656563 0.082946025

lstm.weight_ih_l0_reverse f4 [120, 15]
000000 44 4e d1 bd f8 f6 2b bd 94 cb a7 3d 34 17 79 3c
       -0.10220006 -0.041983575 0.08193126 0.015203286
000010 cc 66 1a 3e e7 02 8a 3e 41 52 01 be 09 fc 47 3e
       0.15078276 0.2695534 -0.12629034 0.19529738
000020 64 fd af bd 35 49 fa bd 0f 48 1e 3e 2d f2 a5 bd
       -0.08593252 -0.122209944 0.15457176 -0.08102832
000030 33 ef 1c bd 50 81 24 be 71 36 85 bd 25 89 b5 bd
       -0.038314056 -0.16064954 -0.065045245 -0.08864049
000040 0a 67 64 bd 24 a4 3a be ea 60 44 3e f5 2d 87 3d
       -0.05576233 -0.18226677 0.19177595 0.066005625
000050 8a bc 41 be 26 6b 5d 3d 79 60 15 be bc 17 61 be
       -0.18919578 0.054057263 -0.14587583 -0.2198171
000060 24 3e 16 be 44 3a e7 3d 58 00 f7 bc a2 8d 06 3d
       -0.14672142 0.1129041 -0.030151531 0.032849915
000070 1f a6 f7 3c 4b 10 2b be a8 df d9 bd 13 92 80 3c
       0.03023058 -0.16705434 -0.10638362 0.015694654
000080 52 b8 a5 3d e7 11 d2 bd 63 08 ba bc d9 3a 30 3e
       0.08091797 -0.10257321 -0.022709077 0.17209949
000090 4f 86 dc 3d a3 92 d9 3d 1b 3e 0d 3e be 01 37 be
       0.10767805 0.10623672 0.13793223 -0.17871758
0000a0 01 f4 6a be fb be ca bc b9 1e b5 bd f9 61 1d be
       -0.22944643 -0.02474927 -0.088437505 -0.15369405
0000b0 71 35 71 bd a7 1b fe 3d 42 d3 37 3e 08 ba 1c 3e
       -0.058888856 0.12407618 0.17951682 0.1530534
0000c0 5f 94 e7 3d cc 69 09 3d 17 1a 2d bd 2d 93 0a bd
       0.113075964 0.03354816 -0.04226121 -0.033831764
0000d0 27 e6 31 be f5 bf 26 3e d4 e1 91 3a 45 16 be bd
       -0.17372952 0.16284163 0.0011129924 -0.09281591
0000e0 4d 20 0a 3e 1d 7f 42 be 29 c3 9d 3c f6 45 f4 3d
       0.13488884 -0.18993802 0.019258099 0.119274065
0000f0 d8 70 5e bd 9b 25 14 be 2e c0 01 be 56 e4 c4 3d
       -0.054306835 -0.1446747 -0.12670967 0.09613864
000100 4c d6 2d be 35 3a 09 3e a3 b6 4c bd bd f2 33 3e
       -0.16976279 0.1340111 -0.049978863 0.17573066
000110 da ee c3 bc 5f 35 e6 3d 8a 06 54 be c3 3a cf bd
       -0.023917604 0.112406485 -0.2070562 -0.1011863
000120 3e 5d 91 3e 12 a7 ca bd e9 fd aa 3d 82 6d d5 bc
       0.2839145 -0.098951474 0.08349211 -0.026053194
000130 61 ad 3f be 60 c3 26 be 79 4d 39 bc 42 ab cf 3d
       -0.18718483 -0.16285467 -0.011309975 0.10140087
000140 1b d9 f5 bd 88 c0 42 be 1a 10 d6 bb 5f cb c0 3d
       -0.120043 -0.19018757 -0.006532681 0.0941379
000150 db 57 4b 3c ff f6 21 3d 09 6c bb 3c e3 1f 62 3d
       0.012411083 0.039542194 0.022878664 0.05520619
000160 af 33 5b bd 44 75 b0 3c d4 c9 8e 3d 51 81 fc 3d
       -0.053516086 0.021540292 0.069720894 0.12329353
000170 a8 79 55 be 7e 8b f7 bd b2 aa c4 bb b5 83 9f 3c
       -0.2084719 -0.12087153 -0.006001794 0.019471982
000180 10 87 82 3c 89 29 14 3e be bb 53 3e 5b 09 29 bd
       0.015933543 0.1446897 0.20677087 -0.041268688
000190 1f f8 c3 bd fb 33 10 3e 68 32 1b 3e aa 7c 01 3e
       -0.0956881 0.14082329 0.15155947 0.12645212
0001a0 bc 62 25 be 3a 98 86 bd fd 0a 87 3d fe ff 1e 3e
       -0.16150945 -0.06572004 0.06593893 0.15527341
0001b0 2a 31 0b 3c e9 fc 03 3e 2d 10 5b be d0 1f e5 bc
       0.008495608 0.12889446 -0.2139289 -0.027969271
0001c0 cb eb a8 3d ac c0 26 be da 92 25 be 0a ad c4 3d
       0.08248099 -0.16284436 -0.161693 0.09603317
0001d0 85 b5 80 bd ca 43 bb 3d 16 6b 6f bd 66 fb 9f bd
       -0.06284622 0.09143789 -0.058451734 -0.07811622
0001e0 1f 5c ce 3d 3c 50 fa bd d1 e7 33 3c 90 27 d6 bd
       0.100761645 -0.12222335 0.010980562 -0.10456765
0001f0 65 2f 36 3e 93 59 01 bd 19 bd a4 3b d1 15 1a 3e
       0.17791517 -0.031579565 0.005027425 0.15047385
000200 dd 29 d2 3d 25 73 83 bd 39 e0 24 3e 3b cf 35 3b
       0.10261891 -0.064184465 0.16101159 0.0027741927
000210 f4 20 31 3d ee d8 0d be 81 8d 98 bc a2 52 37 be
       0.043244317 -0.13852283 -0.018622162 -0.17902616
000220 27 6d 21 be bc ed d5 3d d1 c9 0a bd ef 5a 96 bd
       -0.15764295 0.10445735 -0.033883873 -0.07341563
000230 15 0e 66 bd 20 89 7a 3c e5 9f 5f 3e 65 42 42 bd
       -0.056165773 0.015291482 0.21838339 -0.0474266
000240 d7 4a 39 3e 13 cf 32 3e 4f cc 73 bc 9e cb 90 3d
       0.18094955 0.17461805 -0.014880254 0.07070087
000250 a0 e2 67 bb 04 5f 1f be 26 da e8 bd 60 95 13 be
       -0.0035382882 -0.1556359 -0.113697335 -0.14412451
000260 b7 8b f8 3c 70 40 d6 3c 25 ac 1c 3e 29 2a 32 3e
       0.030340059 0.026153773 0.15300043 0.17398895
000270 03 62 ae bd 9b d1 30 be e6 e7 c5 3b 13 45 e8 bc
       -0.08514788 -0.17267458 0.0060396073 -0.02835325
000280 47 dc b0 bd 34 00 a1 be da 3f 01 be f9 b6 22 be
       -0.086357646 -0.31445467 -0.12622014 -0.15890111
000290 92 60 35 3e 4d 47 c4 3d 70 c6 f0 bc bb 2a 75 be
       0.1771262 0.09583912 -0.029391497 -0.23942082
0002a0 57 ba cb 3c 4a 26 46 bc 49 c0 32 3e 17 4e da 3c
       0.024869127 -0.01209409 0.17456163 0.026648564
0002b0 2f b3 94 3d 9d 66 01 3e 5d 5d 09 be cf de 7a bc
       0.07260739 0.126368 -0.13414522 -0.015311911
0002c0 9e 11 90 3d 56 ca ca 3c 4c 4d 5e 3e ec 61 0e 3e
       0.0703461 0.024754684 0.21709174 0.13904542
0002d0 cf 73 b3 bd a2 ff 89 3d fb bc 1e bd 5d 5f e1 3d
       -0.08762323 0.06738211 -0.038754445 0.11004517
0002e0 d6 40 6f 3d 81 cb 3d be 11 e9 ad bd c3 7f 41 bc
       0.05841144 -0.18534662 -0.084917195 -0.011810246
0002f0 db 93 5f 3d 03 90 e0 3d 4d 97 4f be d0 57 a4 bc
       0.054584365 0.10964968 -0.2027256 -0.020061404
000300 70 0e 2c be 84 a5 df 3c 85 c2 12 3e ae 86 07 3d
       -0.16802382 0.027300604 0.14332016 0.033087425
000310 9e 54 37 be f8 f4 21 bc 9a ef 8c 3c f8 d2 2b be
       -0.17903373 -0.009885065 0.017204095 -0.16779697
000320 1b 18 5c 3d 18 65 12 3e 6e fe 15 bd af cf 24 be
       0.053733926 0.14296377 -0.036619596 -0.1609485
000330 a2 df e6 bd 92 71 12 3e d3 88 0f 3e be 5b f1 3d
       -0.11273123 0.14301136 0.14017038 0.117850766
000340 31 0b 23 be 75 38 1b be dc 5b 24 3d 2d d7 55 be
       -0.15922238 -0.15158255 0.040126666 -0.20882864
000350 cc 47 23 be 01 f0 cc 3a e3 89 b0 bc 0c ae 38 3d
       -0.15945357 0.0015635492 -0.021550125 0.04508786
000360 68 14 21 3e 30 05 9d bd fd d1 18 bd 8c 62 0c be
       0.1573044 -0.07667005 -0.037309635 -0.13709468
000370 f2 fd 14 3e 8a ab 9d 3d 55 d5 f9 bd c6 dc 50 bd
       0.14549997 0.07698734 -0.12198893 -0.050991796
000380 1d ed 3a be d0 e3 72 3d d7 24 44 bc f3 a8 7d bb
       -0.18254514 0.05929929 -0.011971674 -0.0038705438
000390 40 fe d7 3d f6 4e c4 bd 74 93 41 3d d5 d3 ef 3d
       0.10546541 -0.09585373 0.047259763 0.11710326
0003a0 9c d1 25 be 55 63 35 3e 8e ff c0 3d 8b d3 19 be
       -0.16193241 0.17713673 0.09423743 -0.15022103
0003b0 d1 da 3d be ad e9 a2 bd 7b 71 24 be a5 f2 40 be
       -0.18540503 -0.07954726 -0.16058914 -0.18842562
0003c0 e7 99 a6 bb 79 6c df bd ee 21 f6 3d b3 e8 c1 bc
       -0.0050842646 -0.109093614 0.1201819 -0.02367053
0003d0 76 9d 3e bd 98 87 52 be 36 97 a2 3e d3 e7 51 be
       -0.046536885 -0.20559537 0.3175599 -0.2049859
0003e0 a0 3d e4 3d 7f f8 b1 bd 6a a4 6f bd 2d 27 69 bd
       0.111445665 -0.08689975 -0.058506407 -0.056922127
0003f0 54 24 53 3d 16 52 af bd 47 e7 56 be 9a 88 e5 bd
       0.051548317 -0.085605785 -0.20986663 -0.11207695

lstm.weight_hh_l0_reverse f4 [120, 30]
000000 b2 7b 5b 3e f7 1f af 3d 1f 8e 70 bc d5 ce 61 3d
       0.21433905 0.08551019 -0.014682322 0.05512889
000010 da 67 2f 3e 58 f8 27 bd e9 4b 4f be ec 24 a7 3e
       0.1712946 -0.041008323 -0.20243801 0.32645357
000020 3f d4 ee bd 1f d3 26 be 2e 5b e8 3c ba 79 8c 3d
       -0.116615765 -0.16291474 0.02836379 0.06859155
000030 d5 a6 52 3e b3 83 0b 3c 88 67 fc 3d ab 07 1e be
       0.20571454 0.008515286 0.123244345 -0.15432613
000040 f3 07 7a 3e 66 cd b2 bd a7 f0 6a bd fe dd a0 3d
       0.24417095 -0.08730583 -0.05735841 0.07854842
000050 88 69 8f be b7 a6 c8 3d 99 07 6c be b9 59 13 bc
       -0.280102 0.09797423 -0.23049773 -0.0089935595
000060 48 8e f0 bd e5 28 f7 bd c0 e3 ff 3d 55 ad 15 3e
       -0.11745888 -0.12068347 0.12494612 0.14616902
000070 63 7e ae 3d 4e f8 e6 3d 95 47 14 3e b5 99 46 3d
       0.085202 0.11277829 0.14480431 0.04848643
000080 cf ed 0a be f6 80 84 bd 36 c1 75 bc 45 08 bc bd
       -0.1356728 -0.0646991 -0.014999678 -0.09181265
000090 5d f8 ce bd 6a d7 3c bd 6d cb 17 3d 9e 75 ac 3d
       -0.10105965 -0.046103872 0.037059236 0.08420871
0000a0 4c 0b 25 3e 55 e4 9d 3d 10 72 4f 3e ff 29 14 3d
       0.1611759 0.077095665 0.20258355 0.036172863
0000b0 0e 9a 71 3e 61 47 2e 3e cc 74 3d be 62 11 20 3c
       0.23593923 0.17019416 -0.18501586 0.009769769
0000c0 e8 8b a0 3e 15 15 c7 be 08 c3 79 bd b2 e7 a8 3b
       0.3135674 -0.38883272 -0.060977012 0.0051545734
0000d0 f5 21 60 3c 25 ee 31 bd 5f ae d3 3d bf 51 a0 bd
       0.013679971 -0.043440003 0.10335993 -0.07828092
0000e0 70 12 b4 3c ad 80 e3 bd bd f7 da bd 34 06 b0 3b
       0.021981448 -0.11108527 -0.106917836 0.005371833
0000f0 6d 1e 9d bc 7e 01 2b 3d 16 f8 8a bc 6d 31 01 bc
       -0.019179547 0.04174947 -0.016964 -0.007885319
000100 98 4e bb bc 8d c4 20 bd 90 a7 7e be f0 5a 92 3d
       -0.022864625 -0.039249945 -0.24868608 0.07146251
000110 9f a7 f8 3d de ce 16 3e 35 90 64 bd da c7 e9 3d
       0.12141346 0.14727351 -0.05580159 0.11415072
000120 53 62 6a 3c 58 9e de bd eb 6e 18 3e cc bd 29 be
       0.014305669 -0.108700454 0.14886062 -0.16576308
000130 a2 fe df 3c bb 5b 19 be 91 6c de bd 82 22 38 be
       0.027343098 -0.14976399 -0.10860551 -0.17981914
000140 19 2f 0f 3e 42 9d f5 bd 58 55 db bc 63 c6 15 be
       0.1398281 -0.11992885 -0.026774094 -0.1462646
000150 bd 1b b2 bd ce 4c 29 3e 1a 85 11 3d b3 cf 25 be
       -0.08696697 0.16533205 0.035527326 -0.16192512
000160 9d 95 03 be 2c 22 35 3d 6a b0 df bd ec 95 9a bd
       -0.12850042 0.044222042 -0.1092232 -0.075481266
000170 17 d3 b5 bc 65 59 a4 bb a4 71 da 3d 8b 21 16 bd
       -0.022195382 -0.0050155395 0.106662065 -0.036653083
000180 2b 46 bf bc 9e d3 54 be 1d 54 83 3d 5e 1a 43 3e
       -0.023348888 -0.2078385 0.06412528 0.19053027
000190 e5 10 84 3d 59 a8 9a 3d a5 fe d8 3d 7e 29 80 be
       0.06448535 0.07551641 0.105954446 -0.25031656
0001a0 e8 b8 17 be 96 eb 39 3e 71 64 87 bd 60 14 d4 bd
       -0.1481663 0.18156275 -0.066109546 -0.10355449
0001b0 bf 4d 3e 3e 9c ef 8d 3d ad fa 13 3e 48 75 2b 3d
       0.18584345 0.069304675 0.14451094 0.041859895
0001c0 ba 2f 9b 3c 20 30 ff 3d c0 77 dd 3d 25 25 c7 bd
       0.018943656 0.12460351 0.10813856 -0.09723882
0001d0 9e 08 01 3e de 8a 83 3e b1 08 f0 bd de 0e 32 be
       0.12600943 0.25691885 -0.11720408 -0.17388484
0001e0 be ef 38 bd 48 75 1e be 2e 2a 3a bc f8 b4 d2 bd
       -0.04515051 -0.15474427 -0.0113625955 -0.10288423
0001f0 05 f1 f8 bd f9 37 c0 bd bf 51 47 be 8d 59 e1 3c
       -0.12155346 -0.09385676 -0.19464777 0.027508521
000200 d1 4e 13 3e d8 8c 37 be ce b4 0a 3e ee 1b 26 3c
       0.14385535 -0.17924821 0.13545534 0.010138495
000210 d9 2b e2 bc 6b 32 66 3e 9f cc 56 bd 51 11 5c 3e
       -0.027608799 0.2248017 -0.052441236 0.2149098
000220 9d 7e c4 bd 4b d1 05 be 9e a3 e2 bd 71 88 cc 3d
       -0.09594462 -0.1306812 -0.11066364 0.09986962
000230 8b 8c 68 3c fa 45 99 3d 6f 32 fa bd d1 85 a1 be
       0.014193664 0.0748405 -0.12216651 -0.31547406
000240 e8 62 0e be d4 3f a5 3d 67 7e 2c be 02 01 92 bd
       -0.13904917 0.08068815 -0.16845094 -0.071290985
000250 d0 ae d2 3d 3a 3c 70 3e 5f c1 64 bd f4 fa 0f 3e
       0.10287249 0.23460475 -0.055848476 0.14060575
000260 ac 60 10 3e 22 27 09 bd c2 f3 82 3e 57 e2 96 bd
       0.14099377 -0.033484586 0.25576597 -0.0736739
000270 55 db 27 bd 10 54 39 bd 00 bc 74 3e 52 64 f1 bd
       -0.040980656 -0.045246184 0.23899841 -0.11786713
000280 87 a4 70 3e e3 33 68 3e c3 3b 08 3d 2b 60 0c 3d
       0.23500262 0.22676043 0.03326012 0.0342714
000290 32 1f f0 3d 17 82 34 be 47 a0 43 3e b9 81 d4 ba
       0.117247 -0.1762775 0.1910411 -0.0016212977
0002a0 07 97 5d be 60 bb 54 be 5f b0 10 bd dc 18 16 3e
       -0.21639644 -0.20774603 -0.03532445 0.1465792
0002b0 0d 7d f3 3d a2 47 c2 3d 7c 19 0e be a5 51 d9 bd
       0.11889086 0.09486319 -0.13876909 -0.106112756
0002c0 4d 6f 89 3c 46 dc 13 3e a2 f9 aa 3d 73 05 9c bd
       0.016776705 0.14439496 0.08348395 -0.07618227
0002d0 6c f6 5e be 60 8b bf 3b 85 1f b0 3d 18 3e 90 bd
       -0.2177369 0.005845472 0.08599762 -0.070430934
0002e0 a4 6e b7 3c 8e 80 0b 3d 0d d3 a5 3d 41 2b 01 3e
       0.022391625 0.034058146 0.08096895 0.12614156
0002f0 e8 7f 6c bc e5 98 06 be 50 49 2c 3e 41 aa f1 bd
       -0.014434792 -0.13144262 0.16824841 -0.118000515
000300 75 cf 9a bd f2 e3 9f bd 03 91 28 3e 91 a1 88 3d
       -0.075591005 -0.07807149 0.16461568 0.06671441
000310 c0 d2 25 be ce 99 3e be d3 a7 9e 3d b6 ec e7 bc
       -0.16193676 -0.1861336 0.07746854 -0.028311115
000320 60 0f c8 3d 8a 88 a1 3c 6f 4a 81 3c 26 ef 2d be
       0.097685575 0.019718427 0.015782563 -0.16985759
000330 1f 54 68 3e 0e f6 47 be a5 b5 d8 3d d7 9d a5 bd
       0.2268834 -0.19527456 0.10581521 -0.08086746
000340 78 47 75 3d 7f a8 4a 3c 94 8a 29 3b 64 7a 9d 3d
       0.05988261 0.012369274 0.0025869953 0.0768936
000350 aa 68 ac 3d 8d 31 a2 bd ff 08 0e 3b ba 16 15 be
       0.084184006 -0.07919607 0.0021672843 -0.14559451
000360 e7 e4 32 be 5b 1e 0c 3c 2d 35 55 bd b5 21 33 be
       -0.17470132 0.008552159 -0.052052666 -0.17493327
000370 19 d6 22 be 04 f8 b8 39 e7 9d 6e be d7 8e 32 3d
       -0.15901984 0.0003528 -0.23302422 0.043593254
000380 a7 c4 5b bd 83 b7 c7 bd f3 35 5f bd 77 57 11 be
       -0.05365434 -0.09751799 -0.05449481 -0.14193521
000390 f9 5c 22 3e 4b bc 42 bc 55 5a 47 3e 1a e8 46 bd
       0.15855779 -0.011885713 0.19468053 -0.048561193
0003a0 2e 35 05 3c 62 ff 3f 3e 08 60 8a 3e a7 9d 51 3e
       0.008130355 0.18749765 0.2702639 0.20470296
0003b0 f1 35 3d 3e 8b d0 74 be 57 92 0b bd 49 9e 6f 3e
       0.18477608 -0.23907678 -0.034075107 0.23400225
0003c0 30 15 42 3d f2 44 c1 3d 43 85 b6 3e 1a f8 cd bd
       0.047383487 0.094369784 0.35648546 -0.10057087
0003d0 5f a9 16 bd 3c 37 d1 bc a1 05 2a ba 76 a8 77 be
       -0.03678262 -0.025539033 -0.0006485824 -0.24185356
0003e0 de 04 0c 3e a1 ea ef 3d 1a a1 f9 bc ba b8 34 3e
       0.13673732 0.11714674 -0.030472327 0.17648593
0003f0 3b a3 4a bd 8a 9b 02 be ba a5 80 be 1d ea 81 3e
       -0.049472075 -0.12754646 -0.2512644 0.25373927

lstm.bias_ih_l0_reverse f4 [120]
000000 4b f6 2d 3d eb 5d a2 3d 80 6f 43 bd b0 07 a5 3d
       0.04247121 0.0792807 -0.047713757 0.08058107
000010 cd 4d 86 3d 94 b2 aa bd b8 3d 3b 3e 0b 93 a1 bd
       0.06557808 -0.08334842 0.18285263 -0.07889374
000020 1c 0f fa bd 96 df d0 bc 75 ac 95 3d 83 11 52 be
       -0.12209913 -0.02549724 0.07308284 -0.20514493
000030 02 e7 2c 3d ec 31 17 3e a7 82 13 3c 81 34 21 3e
       0.042212494 0.14765137 0.009003318 0.15742685
000040 2f 89 8a 3d fa e5 f1 bc 87 34 a6 3d d9 9c eb 3d
       0.06764447 -0.029528607 0.081154875 0.11504526
000050 4c 54 e7 3c 00 2e 84 3e 6c 0c dd bd 19 44 c8 3d
       0.028238438 0.25816345 -0.10793385 0.097786136
000060 7c 0b 1f 3e 08 54 51 3d fa 5e 08 be 35 31 26 be
       0.15531725 0.05110553 -0.1331748 -0.16229708
000070 ff 12 cb bc 25 81 41 3d 20 65 c6 3d e1 1c d4 bd
       -0.024789331 0.047242302 0.09687257 -0.10357071
000080 b2 e7 87 3e cf b7 a7 bc 77 4e a5 3d a5 ec a6 3d
       0.26543957 -0.020473389 0.080716066 0.08150605
000090 c9 56 c7 3d e4 47 4d 3e 98 30 b2 bd af b6 6e 3c
       0.0973335 0.20046955 -0.08700675 0.014569922
0000a0 d8 32 2e 3e 8f 96 d7 bc e2 91 be bd ee 5b b6 3d
       0.17011583 -0.02631691 -0.09305169 0.08904253
0000b0 87 53 34 3d f8 cf 13 3e c3 cf 44 bc d1 13 34 3e
       0.04402497 0.14434803 -0.012012425 0.17585684
0000c0 ed 56 05 bc 69 51 d8 3c 88 1c 4b bd b9 3c 83 bc
       -0.0081384005 0.026406007 -0.049587756 -0.016020166
0000d0 a9 c4 a1 3d f5 a7 ae 3c 04 36 97 bc 08 e3 53 3d
       0.07898838 0.021320323 -0.018458374 0.051730186
0000e0 80 90 f4 3d 74 eb 4b bb 89 9f d8 bd 86 37 9b bb
       0.11941624 -0.0031115683 -0.10577304 -0.0047368435
0000f0 32 5d ed bc 8e 26 b3 3d 98 12 b8 bd 10 38 14 bd
       -0.028975103 0.08747588 -0.089879215 -0.036186278
000100 f1 5b 94 bd 25 ac 4e bc b0 7b 9d bd 09 ca e8 3c
       -0.07244099 -0.012614285 -0.07689607 0.02841665
000110 ca 7b 3d 3e 4c e6 04 3e 9d cd 78 3d 25 94 e5 bd
       0.18504253 0.12978476 0.060742963 -0.11209897
000120 af a8 ef 3d b9 9d 96 3a c5 5f 51 be ff 85 fe 3d
       0.11702096 0.0011491097 -0.2044669 0.124279015
000130 fe da 2b be f1 47 24 be 76 89 7e 3c 57 5c ff 3d
       -0.16782758 -0.16043068 0.015535703 0.12468784
000140 4c 1f 8b 3b b1 69 8a 3b a0 85 ff 3d f0 cc d2 bd
       0.0042456742 0.004224025 0.12476659 -0.10292995
000150 91 cc 98 bc 6c e4 42 bd 90 bc b2 3c 4e af f7 3d
       -0.018652232 -0.04758112 0.02181843 0.120939836
000160 04 cf bd 3d 7d 20 8f bd b3 b3 b5 3d a5 f3 d1 3d
       0.09268001 -0.069886185 0.088721655 0.1025155
000170 16 2f cc bd 7f 61 40 be 08 b9 0a 3e 74 ef f1 3d
       -0.099699184 -0.18787192 0.13547146 0.1181325
000180 4d 3e 1d be d3 70 86 bc 19 2b e9 3d 3d a7 30 3c
       -0.15355797 -0.01641122 0.11385173 0.01078206
000190 a2 61 df bd 1f 77 d8 bc af 4d 33 3e f7 78 4f 3e
       -0.10907294 -0.026423989 0.17510103 0.20260988
0001a0 b0 7a b6 bd b3 4a 7f 3d d1 09 6f bc 5a 7a 27 3d
       -0.089101195 0.062327098 -0.014589743 0.040888168
0001b0 3d 41 c8 bd 36 c5 49 3e 00 36 6d 3b cb 6e 8e 3d
       -0.09778068 0.19704136 0.0036195517 0.06954726
0001c0 85 b2 3b bd 2c b0 88 3d bf 84 47 3e cd 32 f7 3d
       -0.045824546 0.06674227 0.19484232 0.12070236
0001d0 5f 11 bb 3d 8f d0 7c 3c 83 1f e5 3d 5f e6 38 3e
       0.09134173 0.015430584 0.11187651 0.1805663

lstm.bias_hh_l0_reverse f4 [120]
000000 42 3c d3 3d d1 a7 02 3d ef f5 c7 3d 35 45 03 3b
       0.10314228 0.031898323 0.09763705 0.0020030264
000010 71 1f 24 3d 07 10 5d bd 83 3c 6f 3d a8 cd 2b 3e
       0.040069047 -0.053970363 0.058407318 0.1677767
000020 d4 f1 10 be 99 76 ea bc c4 b5 a3 3d be 37 23 3d
       -0.1415475 -0.028621005 0.079936534 0.03984808
000030 7c a8 9f bd f2 18 0f be 53 7c 06 3e 03 11 06 be
       -0.07795808 -0.1397436 0.13133363 -0.13092427
000040 cf ce 89 3c 3d 0d 19 3e 35 c1 5b bd dc 23 80 3e
       0.016822247 0.14946456 -0.053651053 0.2502736
000050 e3 ad 08 3e 35 b9 9a 3c c5 2b e0 bc 6d 42 38 3e
       0.13347583 0.018887142 -0.027364621 0.1799409
000060 bc 7e cb 3d de 9f a0 bd 38 e3 18 be 5f e3 26 3e
       0.09936282 -0.07842992 -0.14930427 0.16297673
000070 c3 00 12 3e 32 05 28 be 1d 00 39 bd f4 f7 bc bd
       0.14258103 -0.16408232 -0.045166124 -0.09226981
000080 54 e0 a2 3c 06 48 33 3e 73 5b f4 3d 9d bb 0f be
       0.019882359 0.17507944 0.11931505 -0.14036413
000090 ee 29 87 3e 3c 99 70 bd 21 59 53 3d e0 b8 a2 3b
       0.26399177 -0.058739886 0.05159867 0.0049658865
0000a0 6c 39 54 3e 17 c1 b2 3c 34 23 26 3e 35 03 49 3d
       0.2072503 0.021820588 0.16224366 0.049075324
0000b0 6e 38 48 3e be ba 9a 3d f0 c8 6b 3e 45 13 7b 3c
       0.19552776 0.075551495 0.2302587 0.015324418
0000c0 0b 1e 59 3e 34 88 df 3d 1e b5 50 3e dd ab d3 3d
       0.21202867 0.109146506 0.2038159 0.10335515
0000d0 bc 0d 92 3e f8 16 ce bd 88 37 ba bd 89 94 3e 3e
       0.28526103 -0.10062975 -0.09092623 0.18611349
0000e0 c2 75 27 3d 95 00 14 3e a3 70 54 3c 26 24 81 3e
       0.040883787 0.14453347 0.012966308 0.25222892
0000f0 e8 a9 27 be b2 3e 02 be e8 fa ec 3d f1 63 22 3e
       -0.16373408 -0.12719229 0.11571294 0.15858437
000100 43 8c 1a 3e 1f 5a 41 3e 70 c3 e7 bc a7 d4 09 be
       0.15092568 0.18882035 -0.028291434 -0.13460027
000110 48 c3 8f 3d af e2 94 3d 0e 99 31 bd 64 9d bf 3d
       0.07019669 0.07269799 -0.043358855 0.09356192
000120 7e 85 59 3d b8 31 56 bd b7 aa c3 bc 66 32 0d be
       0.053105824 -0.05229351 -0.023885114 -0.13788757
000130 f9 53 3e be 42 13 e0 3d b1 60 31 3d 93 8e d8 bd
       -0.1858672 0.10941173 0.043305103 -0.10574069
000140 0d af 6e bc b9 e7 3a 3e 6c cd 78 3d 0c a2 c7 3d
       -0.014568103 0.18252458 0.06074278 0.09747705
000150 cc 8b 07 be 43 02 9f 3c 4e 43 90 3d a2 09 e5 bd
       -0.13236922 0.019410258 0.07044087 -0.11183478
000160 5b 71 a1 ba 77 3e 8d 3c 41 d3 15 3e 8b 93 e0 3c
       -0.0012317108 0.0172417 0.14631368 0.027414104
000170 80 a6 79 3e f3 c8 fa bd 8e 9f 43 bc 5d 8c 26 3e
       0.24379921 -0.12245359 -0.011939896 0.16264482
000180 73 cd 95 bd d0 b9 43 3c 8f 75 03 be fd 90 81 3e
       -0.07314577 0.011946157 -0.12837814 0.2530593
000190 92 2e 5b bd 2c 30 02 3e 19 62 f7 bc bc 7e 26 3e
       -0.05351121 0.12713689 -0.030198144 0.16259283
0001a0 a2 13 e4 bd 5d 9b 4b bd 3c a5 ce bd 5e 8e ce 3d
       -0.11136557 -0.049708713 -0.1009011 0.10085748
0001b0 ed ab 15 be 04 93 5e bb ec f9 21 bd 64 e3 0e bd
       -0.14616366 -0.003396214 -0.039544985 -0.034884825
0001c0 89 2f d8 3d 6e f2 71 3d b4 75 e4 3c bd d2 e9 bd
       0.105559416 0.05906909 0.027888156 -0.11417148
0001d0 72 82 12 be 0f fb c1 3d 6e 62 0f 3e b3 f4 bd bd
       -0.14307573 0.09471714 0.14002392 -0.09275188

lstm.weight_ih_l1 f4 [120, 60]
000000 29 d8 b7 3c 52 a1 d4 3d 2b f9 b1 bd a2 5a 7f bd
       0.02244194 0.10382332 -0.08690103 -0.062342294
000010 05 cc c2 3c 3a 41 3b 3e 9c c3 39 bd 23 74 39 3e
       0.023778925 0.182866 -0.045352563 0.18110709
000020 99 96 88 3a 22 8a 36 be 3c 4b ef bd 5a 64 d7 bd
       0.0010420858 -0.17826131 -0.11684272 -0.105171874
000030 cd 0e 89 3a 78 b2 bb bd c2 3a 00 be c7 38 c3 3d
       0.0010456681 -0.091648996 -0.12522414 0.09532314
000040 83 2b 3f be 75 09 83 3c 56 78 1c be e0 b4 98 3c
       -0.18668942 0.01599572 -0.1528028 0.018640935
000050 0f 96 37 bd 44 21 81 3d 9c e9 f5 3c 30 67 25 be
       -0.04482084 0.06305173 0.03001862 -0.16152644
000060 81 0d 87 3d 5f 98 94 3c a9 61 89 3d 3d 92 b5 bd
       0.065943725 0.018139062 0.0670808 -0.08865783
000070 97 4b f3 3d 9b a9 b5 bd 84 c2 6b bd 06 1f ab 3d
       0.11879652 -0.0887024 -0.05755855 0.083555266
000080 3f cc 35 3e 3d 1c 5e 3b 03 39 1b 3e ff b7 70 3c
       0.17753695 0.0033891343 0.15158467 0.014692306
000090 62 1c cd 3c 07 52 27 3e 47 6b f7 bd e5 85 d3 3d
       0.025037948 0.16339885 -0.120810084 0.10328273
0000a0 c4 13 12 bd 82 e9 30 3e 0a 62 c3 3d f1 17 fc 3d
       -0.03566338 0.17276576 0.09540184 0.12309254
0000b0 da c8 0a 3e 89 e3 cc bd 81 fc b3 bd eb cc d6 3c
       0.13553181 -0.100043364 -0.08788396 0.02622076
0000c0 76 4c 2e be ed 08 db 3d 4c b8 6d bd 5f e7 48 3e
       -0.17021355 0.10695062 -0.058037087 0.19619511
0000d0 c2 5d 89 bd d1 59 7d bd b9 08 ab bd ec 62 1d be
       -0.06707336 -0.061853234 -0.08351273 -0.15369767
0000e0 e5 ae 5f bd 44 09 69 3d d3 ea 15 3e e6 2e a1 bd
       -0.05461015 0.056893602 0.1464036 -0.07870273
0000f0 bd 17 63 bd 90 89 05 3e d9 ef 3b 3d e3 e6 8c bd
       -0.05544256 0.13040757 0.045883033 -0.06879976
000100 7e ee 33 3d 68 f2 f6 3c bb 89 c3 bc b3 b2 da 3d
       0.043928616 0.030144885 -0.023869386 0.106786154
000110 55 9a 23 3e 27 0b d5 bc 34 19 d9 3d 70 b2 1c bd
       0.15976842 -0.026006294 0.1060051 -0.03825611
000120 d9 23 8c 3d f7 1b 08 3e bd 16 a6 3d 11 30 10 3e
       0.06842775 0.13291918 0.08109806 0.14080836
000130 ce 7f 18 3e 0c 1e 0d 3e c6 1d 33 3e 7c e7 27 bd
       0.14892504 0.13780993 0.17491826 -0.040992245
000140 5c ae 35 3d 79 d1 8d bd 01 ee fb bc 1c 60 25 3d
       0.044355735 -0.06924719 -0.030753138 0.04037486
000150 ea 3d 30 be 93 1c 1c bc 8f 39 c8 3d 37 ef cf 3c
       -0.17211118 -0.009528297 0.097766034 0.025382621
000160 e9 b5 9e 3c be ab 99 3d d8 da 01 bd b5 9a 30 bc
       0.01937385 0.0750346 -0.031702846 -0.0107790725
000170 f8 e3 f5 3d 4a a5 f2 3b 6a 9f 49 be ac 0b 1a 3e
       0.12006372 0.007404958 -0.19689718 0.15043515
000180 30 93 8d 3d 64 26 14 3e c9 59 a2 3d 70 d0 07 3e
       0.069128394 0.1446777 0.079272814 0.13263106
000190 01 28 58 bd 7a cb 4d bd 60 07 35 3c 6a f9 17 be
       -0.052772526 -0.05024288 0.011049122 -0.14841238
0001a0 c3 30 a9 3d e9 42 f3 bc 57 74 95 3d b7 ae 68 3c
       0.08261254 -0.029694991 0.07297581 0.0142018115
0001b0 00 ea 0c be b2 f0 a0 3d 7f 37 d6 bd 4b 03 a5 3d
       -0.13761139 0.07858409 -0.10459804 0.08057269
0001c0 ff 78 8d 3d 8c ee 92 3d 98 61 13 be b6 5d 04 3d
       0.06907844 0.071744055 -0.14392698 0.032315932
0001d0 ab 2c 00 be 89 5b 80 3d bb 66 be bd 78 b7 2f 3d
       -0.1251704 0.06267459 -0.09296938 0.04289958
0001e0 3f 27 64 3d cf 60 20 be a5 18 32 be 70 3a a5 bd
       0.05570149 -0.1566193 -0.17392214 -0.08067787
0001f0 b8 fe 47 b9 d8 5d 74 3d d0 25 c7 bc 37 2b c0 3d
       -0.00019073009 0.05965981 -0.024310023 0.093832426
000200 d6 20 14 bd a1 db 5f be 4e 3d 26 3e e8 a2 55 bd
       -0.036164127 -0.21861126 0.16234323 -0.052157313
000210 00 c8 11 be cb 6d e4 bc 3e 47 c4 3c bd b3 d6 bd
       -0.1423645 -0.027884385 0.023959752 -0.10483501
000220 c5 e9 62 3e df 8b 06 be 28 f7 95 bd d4 cc 02 be
       0.22159488 -0.13139294 -0.07322532 -0.12773448
000230 20 21 09 3e 41 11 e3 bd d1 bc 9e bd 6f c4 4a 3e
       0.13391542 -0.11087275 -0.077508576 0.19801496
000240 2b 56 25 bd a4 5b d5 3d 6a 8f 47 3e 62 68 b7 bd
       -0.04036538 0.1041787 0.19488302 -0.08955456
000250 77 e6 f4 3b a2 60 1c 3e 55 83 0d be a2 43 8a 3d
       0.0074737626 0.15271237 -0.1381963 0.06751181
000260 82 1f c7 3d c0 8e ab bc 95 e4 9e 3d 5f 86 0d 3e
       0.097228065 -0.020942092 0.07758442 0.1382079
000270 0a 01 2e be a8 da 1d 3e a7 c2 2f 3e 26 5b 0c 3d
       -0.16992584 0.15415442 0.17164098 0.034266613
000280 d7 75 e2 bd b9 14 61 bc 63 41 0f 3c 57 b7 43 be
       -0.110576324 -0.013737851 0.008743617 -0.19112907
000290 d6 6a 3d bd ff 44 f7 3d b6 de ab 3d 9a 52 cc bd
       -0.046244465 0.12073707 0.08392088 -0.099766925
0002a0 59 94 51 be f8 1a 53 bd eb a2 25 3d 86 34 62 be
       -0.20466746 -0.05153939 0.040438574 -0.22090349
0002b0 b3 0a 51 3e b3 9f da bd 27 45 e1 bd e7 9d 0a be
       0.20414238 -0.106749915 -0.10999518 -0.13536797
0002c0 75 9c 15 be 00 7c d5 3d ed 30 da bd 38 d9 24 3a
       -0.14610465 0.10424042 -0.10653863 0.00062884716
0002d0 50 55 67 3d 45 a5 a2 bc 70 d6 2d be 49 2e be bd
       0.056477845 -0.019854197 -0.16976333 -0.09286172
0002e0 6e 93 e1 3d 5c a9 21 bc 56 50 09 3d 82 8b 54 be
       0.11014448 -0.009867039 0.03352388 -0.20756343
0002f0 f5 ce 9a 3d 32 e4 1a 3e b8 cc 22 bd fe ad a7 3d
       0.07559005 0.15126112 -0.039746016 0.08187483
000300 e7 2c a8 bd 68 77 17 3e 34 2c e3 3d 1a 37 5b 3d
       -0.082116894 0.14791644 0.110924155 0.053519346
000310 bf 86 a4 3d 45 6a ed bc 1d c7 01 3e 46 9f 3b 3d
       0.08033513 -0.028981337 0.12673612 0.04580619
000320 61 de 0f be 15 5f 93 3d ab 2c 34 be 92 41 f8 bd
       -0.14049675 0.0719587 -0.17595164 -0.121218815
000330 59 7b 22 be 3e 4b ed 3c 4d a0 4f 3d c1 62 16 be
       -0.15867366 0.028966542 0.050689984 -0.14686109
000340 11 9a e8 bd 98 c5 d8 bc 6c 25 09 be 61 2b 84 3d
       -0.11357511 -0.026461408 -0.13393182 0.06453586
000350 84 27 06 bd 9e 9e 0e 3e d8 1b 77 bd d6 ba cb bd
       -0.03275253 0.13927695 -0.06032929 -0.099477455
000360 cd b6 f8 bd eb 87 4b 3d d0 51 94 bd 45 c7 0a bd
       -0.121442415 0.04969017 -0.07242167 -0.033881444
000370 8e 6d 25 be d7 40 22 3d 62 0e 38 3e 38 bb 39 be
       -0.16155073 0.039612617 0.17974237 -0.18137825
000380 6d 8f ae 3c 10 cd dc 3d 9c db 48 3e 1a 55 24 bd
       0.021308625 0.107813 0.19615024 -0.04012022
000390 43 a3 e3 bc bc ed f5 3d dd fe 6b bd ae 54 ce 3d
       -0.02778781 0.12008235 -0.057616103 0.10074745
0003a0 8a 6d 3a bd 57 6b 1a 3e fa f1 10 bb b9 c0 c8 bd
       -0.04551462 0.1508001 -0.0022116886 -0.09802384
0003b0 fa 36 32 be fe 25 cf bc ff 1a 2f be 24 b4 4e 3b
       -0.17403784 -0.02528667 -0.17100142 0.0031540478
0003c0 ae 9e e4 bd b4 6b d1 3d 27 6b 2d be a7 ed a7 bd
       -0.11163078 0.10225621 -0.16935407 -0.081996255
0003d0 7c ec 93 bd 3d 3d c0 3d d9 6f 05 3e d2 87 b6 bc
       -0.0722284 0.0938668 0.13030948 -0.022281561
0003e0 09 d9 45 3e 08 ae 54 3d f2 ab 07 3e 69 99 c6 3b
       0.19321074 0.05192378 0.13249186 0.0060607684
0003f0 db e4 02 be 40 ec f2 3b 8f ce ef 3d 56 10 1c 3e
       -0.12782614 0.007413417 0.1170932 0.15240607
