model/LSTMY/MScheckpoint0.pt (torch, 229202 bytes, 31 tensors)

lstm.weight_ih_l0 f4 [120, 15]
0.1625387 0.09036601 0.07884195 0.07053331 -0.085349575 0.17360514 0.17676301 0.0727676
0.058777668 -0.04793567 0.010346987 -0.10205283 0.029789135 0.013992803 -0.17843734 0.015045513
-0.14859037 0.05422419 -0.17937861 0.10923786 0.035867166 -0.16798046 -0.0994466 -0.014496178
0.071825676 -0.089945674 -0.12676908 -0.0768013 0.16595747 -0.07097063 -0.17852096 -0.020184997
-0.12069851 0.14932829 0.051072694 -0.13358058 -0.10512229 -0.034378115 0.089110956 0.06536252
0.029427368 -0.04599947 0.10711766 0.14868101 -0.141505 -0.12020273 0.16335648 -0.16156144
-0.17825574 -0.07729426 0.16164069 -0.09725387 0.10622858 -0.102699116 -0.09953612 0.114968605
-0.08956195 0.14812806 0.116735354 -0.107765526 -0.07659063 -0.049464945 -0.13969326 -0.036142625
0.032303322 0.10924298 -0.10457606 0.06504686 0.062559776 -0.12276995 0.1443145 0.15817057
-0.16187397 -0.04000913 0.03771918 0.18286212 0.16908343 0.026526367 -0.1123448 -0.074305125
0.10422054 -0.16701825 0.15468556 0.011613333 0.061968032 -0.05220627 0.16895013 -0.123916864
0.1561225 -0.09100539 -0.084366165 0.10880661 0.04873363 0.15095212 0.05994242 0.099874504
-0.13942151 0.11857473 -0.11176794 0.013286392 0.15046266 -0.06372391 -0.023231193 -0.119408146
-0.009693473 -0.0320782 0.15539911 0.14320482 0.089162916 0.019379824 0.011124613 -0.16943243
0.079269454 -0.04439612 0.13121189 -0.08665683 -0.16625889 0.016657393 -0.062737204 -0.12834713
0.17450373 -0.14070746 -0.01575144 0.0922741 0.10010063 0.04376269 -0.009947404 -0.02704685
0.16064647 -0.12566787 -0.07886346 -0.028146712 -0.08800371 -0.100053266 -0.1628862 -0.15112197
-0.07957782 0.14502715 0.044609763 -0.039116446 0.15443306 -0.02886514 -0.16544737 0.1009489
-0.04717632 -0.086906105 0.008827673 -0.050616734 0.045676466 -0.1781975 0.1681048 -0.0703471
-0.11563514 0.14820093 0.04749838 0.030344928 -0.05128511 -0.101880446 0.13762707 -0.062405728
-0.109836206 0.16599815 -0.10420217 0.019565243 -0.1153305 0.15999432 0.16490671 0.04645643
0.14067903 -0.07892462 -0.12807602 0.11378281 -0.104346395 0.16612686 0.13456503 0.18115532
0.17849788 -0.05198819 0.015444829 0.13091488 0.12262575 -0.10933023 -0.062287353 0.033061482
-0.007801214 0.0290794 -0.0053758495 -0.050263654 -0.11090424 0.07626875 -0.0584488 0.16543084
-0.17034417 0.16010524 0.172586 -0.02615592 0.014462691 0.041435543 0.13822745 -0.1659155
0.028420677 0.17780139 -0.1759701 -0.016085269 -0.16190153 -0.03606324 -0.0075984187 -0.046910163
-0.17946835 -0.1229013 0.023568662 -0.14833395 0.09019305 0.16785753 -0.0497229 -0.02840292
0.17542237 0.033109013 -0.059851985 -0.1555497 -0.055636846 0.14797354 0.045258876 -0.033608943
-0.11293193 0.034581576 -0.16364962 0.17601113 0.17100663 0.14644012 0.16449094 -0.0011858835
0.12299982 0.07901973 -0.13589118 -0.17092583 0.024477534 -0.17590155 0.051047377 0.016356604
-0.051952165 -0.13700858 0.17821619 0.11760956 0.04840085 -0.07003136 0.1187659 -0.010543746
-0.017754106 0.1323349 -0.119673766 -0.12209304 -0.12907548 -0.08200011 -0.00664509 -0.10891542
00000000: 8c70 263e d111 b93d e377 a13d c573 903d
00000010: c2cb aebd 8cc5 313e 5d01 353e 2e07 953d
00000020: dac0 703d 3158 44bd 6986 293c 1301 d1bd
00000030: 5808 f43c 1242 653c 47b8 36be 7581 763c
00000040: 1328 18be 2f1a 5e3d 07af 37be 19b8 df3d
00000050: 73e9 123d 1203 2cbe a9aa cbbd 6181 6dbc
00000060: 5719 933d 7035 b8bd c1cf 01be 004a 9dbd
00000070: c1f0 293e 0d59 91bd 33ce 36be 025b a5bc
00000080: c830 f7bd 84e9 183e 9a31 513d 59c9 08be
00000090: 5b4a d7bd 11d0 0cbd ce7f b63d c9dc 853d
000000a0: aa11 f13c f169 3cbd 8160 db3d d63f 183e
000000b0: b0e6 10be d92c f6bd ec46 273e 5d70 25be
000000c0: ac88 36be 744c 9ebd 2385 253e 092d c7bd
000000d0: 5f8e d93d ea53 d2bd 98d9 cbbd a974 eb3d
000000e0: 416c b7bd e2ae 173e f212 ef3d 2cb4 dcbd
000000f0: 8cdb 9cbd c19b 4abd c00b 0fbe 4a0a 14bd
00000100: 7d50 043d c9ba df3d f92b d6bd 4a37 853d
00000110: 571f 803d d06e fbbd 2ec7 133e 77f7 213e
00000120: 4ac2 25be 9de0 23bd 6d7f 1a3d 3540 3b3e
00000130: 3524 2d3e d34d d93c 0815 e6bd 492d 98bd
00000140: 9471 d53d d506 2bbe e465 1e3e d945 3e3c
00000150: 31d2 7d3d 3ed6 55bd 4301 2d3e 20c8 fdbd
00000160: 94de 1f3e 0961 babd 2bc8 acbd 00d6 de3d
00000170: ea9c 473d 3193 1a3e 2f86 753d 018b cc3d
00000180: 83c4 0ebe 4fd7 f23d 97e6 e4bd 2baf 593c
00000190: e212 1a3e ae81 82bd 584f bebc 428c f4bd
000001a0: 5fd1 1ebc 6e64 03bd f220 1f3e 49a4 123e
000001b0: 0c9b b63d 70c2 9e3c 0244 363c b27f 2dbe
000001c0: 0658 a23d b5d8 35bd 695c 063e 2379 b1bd
000001d0: c53f 2abe 1675 883c 5d7c 80bd 6e6d 03be
000001e0: 1bb1 323e 9e15 10be 2a09 81bc 34fa bc3d
000001f0: 8f01 cd3d 8240 333d 70fa 22bc 5b91 ddbc
00000200: 8280 243e 14af 00be 2a83 a1bd ef93 e6bc
00000210: 4a3b b4bd bae8 ccbd a4cb 26be b8bf 1abe
00000220: b2f9 a2bd ff81 143e bab8 363d 9138 20bd
00000230: b323 1e3e 9676 ecbc 096b 29be 4cbe ce3d
00000240: f53b 41bd d4fb b1bd f2a1 103c 7e53 4fbd
00000250: 3f17 3b3d 6879 36be aa23 2c3e 2412 90bd
00000260: 1ed2 ecbd fcc1 173e a98d 423d ed95 f83c
00000270: 5610 52bd b2a6 d0bd 1cee 0c3e 269d 7fbd
00000280: cef1 e0bd 6bfb 293e f367 d5bd 4a47 a03c
00000290: 6632 ecbd 8dd5 233e 4edd 283e 1949 3e3d
000002a0: 2a0e 103e 3ba3 a1bd 5c26 03be f606 e93d
000002b0: 90b3 d5bd 291d 2a3e 6acb 093e c880 393e
000002c0: 26c8 363e 91f1 54bd 4f0c 7d3c 8d0e 063e
000002d0: 3623 fb3d 87e8 dfbd 0621 7fbd 7a6b 073d
000002e0: 53a1 ffbb ec37 ee3c e527 b0bb 43e1 4dbd
000002f0: c321 e3bd ca32 9c3d 0268 6fbd b466 293e
00000300: b46e 2ebe a1f2 233e 62ba 303e f144 d6bc
00000310: ecf4 6c3c 51b8 293d 7f8b 0d3e c1e5 29be
00000320: 7bd2 e83c 9111 363e 8231 34be 41c5 83bc
00000330: 84c9 25be 0cb7 13bd 28fc f8bb df24 40bd
00000340: 8dc6 37be adb3 fbbd 1113 c13c dbe4 17be
00000350: 22b7 b83d d8e2 2b3e 3daa 4bbd 3ead e8bc
00000360: eca1 333e 519d 073d 5b27 75bd 6c48 1fbe
00000370: 76e3 63bd 6086 173e 5f61 393d 88a9 09bd
00000380: db48 e7bd 69a5 0d3d c493 27be 433c 343e
00000390: 5d1c 2f3e 66f4 153e 5070 283e a66f 9bba
000003a0: 54e7 fb3d 19d5 a13d 0f27 0bbe 2e07 2fbe
000003b0: 1c85 c83c 891f 34be 0e17 513d 49fe 853c
000003c0: cbcb 54bd fa4b 0cbe 4e7e 363e 48dd f03d
000003d0: f83f 463d 9a6c 8fbd 893b f33d adbf 2cbc
000003e0: 0f71 91bc cd82 073e 8517 f5bd ea0b fabd
000003f0: 5d2c 04be acef a7bd 0ebf d9bb 0c0f dfbd

lstm.weight_hh_l0 f4 [120, 30]
0.005617853 0.033772875 0.011624898 -0.053526875 0.11375754 -0.13007927 -0.023767214 0.12915236
0.0020381275 -0.08716786 0.027058274 -0.09534123 0.1433403 -0.0371936 -0.10067967 -0.18189724
0.08092066 0.009931257 0.08557594 -0.07739626 0.17401445 -0.17934865 0.16422838 -0.019394536
0.15275396 -0.054844275 0.18187025 -0.032930925 0.018146941 0.05739427 0.04770074 0.042984523
-0.048466634 0.020456051 -0.13159426 -0.043839116 -0.04822945 -0.15034612 0.046310432 -0.17298786
-0.12742932 0.007144609 -0.13997766 -0.06399988 -0.034382094 -0.0941993 -0.12823175 -0.17711532
0.010352598 0.052912742 0.026912734 -0.031616136 -0.15118095 -0.03905847 0.119828425 -0.07316867
-0.016519686 -0.11901053 0.004586342 0.024565287 0.06681118 0.08568074 0.021576364 -0.17888308
-0.13949557 0.041338123 0.13498548 0.08759081 -0.16304268 0.08344604 -0.03965258 -0.16105878
-0.096228465 -0.13539375 0.054640967 -0.16875891 -0.075233705 -0.010792534 0.12882078 -0.10894208
0.012771086 -0.03288215 0.08276324 0.071172275 0.042906936 0.11271149 -0.039882563 -0.15904313
0.05934221 -0.01681535 -0.045307904 0.13219652 0.12883134 -0.07212366 0.12706381 -0.03469681
-0.10959365 -0.09683511 0.16037127 -0.14693019 0.047672167 0.028839212 0.01103669 0.110257916
0.004531238 -0.11108777 -0.14998569 0.14702496 0.0052972375 0.11919122 -0.18075214 -0.07901981
-0.12765469 0.17573771 0.15567984 0.033843406 0.16486503 0.15244538 -0.0973654 -0.13297044
0.0932624 -0.005556494 -0.14695244 0.001936812 -0.08313183 -0.13515098 0.16497773 0.17191574
0.00433845 0.097730726 0.114133425 0.092155464 -0.03761551 0.15941913 0.076328695 -0.017753629
0.06695627 0.12293633 0.035515767 -0.10037829 0.114053205 0.08460199 0.08802346 -0.0014641337
-0.16216885 -0.06889579 0.061038703 -0.17586756 0.102110155 -0.10919906 -0.14382711 0.057743542
-0.045812987 -0.14157458 -0.11851339 0.17404452 -0.056821723 0.1437391 -0.0853559 -0.027635133
0.14427078 -0.052032575 -0.026841257 0.1367498 -0.11150098 0.09651567 0.12800035 0.050727483
-0.17654908 0.078573 -0.047041398 -0.17180096 -0.13529763 -0.098273955 -0.16917773 0.040639415
-0.05111435 -0.17253934 0.07685694 0.08433604 -0.09447472 -0.09044175 0.14099786 -0.059741486
-0.04723069 -0.13317053 -0.107676834 -0.026557256 0.05511897 -0.025960285 -0.00897129 -0.11397925
0.10249562 0.17009217 -0.13543059 -0.04409651 0.010397738 0.06809413 -0.09076036 -0.047818415
0.07715617 0.16116436 -0.123196416 -0.16133574 0.038442936 -0.03512184 -0.08220086 -0.145433
0.07223845 -0.18120944 0.07670266 -0.05772238 -0.002686694 -0.14146121 -0.10498141 -0.07656861
0.10298693 -0.041746646 0.17906193 0.17604853 0.058132652 -0.0695736 -0.1515899 0.026490046
-0.16761795 -0.05379654 -0.16052234 0.12658988 0.17024995 -0.033349924 -0.018403027 0.17008764
0.1423528 -0.14997466 0.034861114 0.07232728 -0.005334926 0.12257794 0.092424095 -0.051203534
0.16535759 -0.045240562 0.025465965 0.155331 0.08587905 0.07558948 -0.036187503 -0.06847444
0.019648882 0.09816718 0.050634097 0.06954937 -0.12617001 0.03764188 0.06285332 -0.047290538
00000000: f715 b83b 6d55 0a3d 5b76 3e3c ff3e 5bbd
00000010: b7f9 e83d 8033 05be 76b3 c2bc 8440 043e
00000020: 1b92 053b 1085 b2bd 50a9 dd3c 4342 c3bd
00000030: cdc7 123e 5158 18bd 2531 cebd 4543 3abe
00000040: bbb9 a53d b6b6 223c 7042 af3d ee81 9ebd
00000050: d830 323e 2ca7 37be 7c2b 283e 4ae1 9ebc
00000060: 896b 1c3e 64a4 60bd 323c 3a3e 94e2 06bd
00000070: e5a8 943c 4116 6b3d da61 433d 8a10 303d
00000080: f384 46bd 7393 a73c a5c0 06be a590 33bd
00000090: 3e8c 45bd 55f4 19be 02b0 3d3d bb23 31be
000000a0: d57c 02be 531d ea3b 4e56 0fbe 5e12 83bd
000000b0: 3dd4 0cbd 90eb c0bd 2f4f 03be b85d 35be
000000c0: f19d 293c 08bb 583d 1878 dc3c ec7f 01bd
000000d0: 2ecf 1abe c6fb 1fbd 9b68 f53d 75d9 95bd
000000e0: 4b54 87bc cbbb f3bd 0649 963b 243d c93c
000000f0: 4dd4 883d 6279 af3d eac0 b03c 202d 37be
00000100: edd7 0ebe 2a52 293d a239 0a3e d062 b33d
00000110: a9f4 26be c2e5 aa3d be6a 22bd 98ec 24be
00000120: 6e13 c5bd a9a4 0abe 35cf 5f3d 23cf 2cbe
00000130: 2114 9abd 2bd3 30bc 98e9 033e 061d dfbd
00000140: d13d 513c 6faf 06bd c67f a93d c5c2 913d
00000150: 2fbf 2f3d 48d5 e63d e65b 23bd 34dc 22be
00000160: d110 733d 58c0 89bc c894 39bd 865e 073e
00000170: 5dec 033e 92b5 93bd 041d 023e 3e1e 0ebd
00000180: a372 e0bd 7c51 c6bd 5e38 243e de74 16be
00000190: e443 433d 3640 ec3c 3cd3 343c e7ce e13d
000001a0: c87a 943b fc81 e3bd d995 19be b68d 163e
000001b0: 7394 ad3b 871a f43d 1717 39be 23d5 a1bd
000001c0: e9b7 02be 96f4 333e 896a 1f3e 629f 0a3d
000001d0: 61d2 283e a41a 1c3e 8367 c7bd 6729 08be
000001e0: 5b00 bf3d 4013 b6bb b37a 16be a0dc fd3a
000001f0: 0541 aabd 0565 0abe ecef 283e ae0a 303e
00000200: 8e29 8e3b 0c27 c83d c9be e93d 01bc bc3d
00000210: b912 1abd c53e 233e 3852 9c3d 0f70 91bc
00000220: 5e20 893d 0bc6 fb3d fb78 113d 2293 cdbd
00000230: ba94 e93d cf43 ad3d a545 b43d 2de8 bfba
00000240: 970f 26be 3c19 8dbd b803 7a3d a016 34be
00000250: 211f d13d c2a3 dfbd 6a47 13be 7e84 6c3d
00000260: 66a6 3bbd edf8 10be 26b7 f2bd ba38 323e
00000270: e5bd 68bd 5830 133e 13cf aebd 1363 e2bc
00000280: b8bb 133e 1c20 55bd 32e2 dbbc 2408 0c3e
00000290: a05a e4bd 02aa c53d 8612 033e 9fc7 4f3d
000002a0: 48c9 34be e2ea a03d 7bae 40bd 97ec 2fbe
000002b0: 768b 0abe db43 c9bd ed3c 2dbe 8475 263d
000002c0: 485d 51bd 27ae 30be 2c67 9d3d 60b8 ac3d
000002d0: f67b c1bd 8639 b9bd be61 103e 7db3 74bd
000002e0: f874 41bd db5d 08be ac85 dcbd 9a8e d9bc
000002f0: 6ec4 613d aaaa d4bc 51fc 12bc f46d e9bd
00000300: 39e9 d13d a42c 2e3e 51ae 0abe 8b9e 34bd
00000310: 465b 2a3c ef74 8b3d 91e0 b9bd 3edd 43bd
00000320: 0e04 9e3d 4508 253e 674e fcbd 3235 25be
00000330: 5776 1d3d ebdb 0fbd ed58 a8bd 63ec 14be
00000340: c1f1 933d f88e 39be 4916 9d3d 4d6e 6cbd
00000350: 3f13 30bb 35db 10be 7e00 d7bd 01d0 9cbd
00000360: d0ea d23d 88fe 2abd 035c 373e 1146 343e
00000370: 811c 6e3d 9b7c 8ebd 623a 1bbe a701 d93c
00000380: 0aa4 2bbe c359 5cbd f85f 24be c7a0 013e
00000390: 0156 2e3e ee99 08bd f2c1 96bc 742b 2e3e
000003a0: efc4 113e f592 19be 87ca 0e3d 5320 943d
000003b0: 9ad0 aebb 250a fb3d d848 bd3d ccba 51bd
000003c0: 8053 293e 2b4e 39bd 009e d03c 170f 1f3e
000003d0: 5be1 af3d a8ce 9a3d 5939 14bd 543c 8cbd
000003e0: b1f6 a03c e00b c93d b365 4f3d e66f 8e3d
000003f0: b632 01be 5f2e 1a3d 3eb9 803d b9b3 41bd

lstm.bias_ih_l0 f4 [120]
-0.17977971 -0.12963478 -0.10368938 0.08488525 -0.14076802 0.10526332 0.04915519 0.12040198
-0.09565999 0.02484585 0.08321003 -0.0028205724 -0.015426849 -0.042511605 0.070849635 -0.06441322
-0.11613684 0.030798774 -0.08719883 0.09669605 -0.15042818 -0.15812513 -0.106634736 -0.15617795
0.06969593 0.062481485 -0.024830738 -0.00034859794 0.12314341 -0.112368934 -0.15488347 -0.14286654
-0.04386188 0.13951592 -0.048718795 -0.021765774 0.16217121 -0.10360593 -0.116646506 0.111537404
-0.022540584 -0.04081069 -0.06543689 0.049221043 -0.056344092 0.1429951 -0.085914694 0.01257207
0.10327565 -0.095223494 0.03818779 -0.034186866 0.16384366 0.09420495 -0.13240525 -0.17526142
0.10768548 0.10225377 0.07290411 -0.13894302 -0.11666846 0.13999192 0.09358702 0.07172104
-0.049405698 0.04106607 -0.09386967 0.0061333757 0.011370588 0.13220975 -0.06001319 0.097937144
0.0013620716 -0.15290889 -0.043152094 -0.12924124 -0.13458489 0.109543934 0.0734695 0.081604674
-0.14211988 -0.11037585 -0.08831152 -0.12809455 -0.0022890496 -0.14915179 0.034480814 -0.028461816
-0.012116199 -0.068963856 -0.06604078 -0.056676343 -0.12612928 -0.06055173 0.13404638 0.17259614
0.16535182 -0.118027814 0.041938566 -0.11276005 -0.0945142 -0.02194986 -0.14948852 -0.07467054
-0.12589607 -0.08066539 0.021493753 0.13489598 0.16723429 0.14105393 -0.14771108 0.09438818
-0.13366713 -0.10167993 -0.10063357 0.13475062 -0.009784738 -0.0973911 -0.007883755 0.074529655
00000000: 2c18 38be fbbe 04be 195b d4bd 51d8 ad3d
00000010: 7e25 10be 4c94 d73d f456 493d 5095 f63d
00000020: 63e9 c3bd 8689 cb3c 056a aa3d 5ad9 38bb
00000030: e5c0 7cbc a620 2ebd 9d19 913d 14eb 83bd
00000040: 27d9 edbd b64d fc3c 4d95 b2bd 9408 c63d
00000050: d809 1abe 8eeb 21be 5063 dabd 1ded 1fbe
00000060: bdbc 8e3d 96ec 7f3d d569 cbbc 06c4 b6b9
00000070: 9d32 fc3d af21 e6bd c699 1ebe 9b4b 12be
00000080: 84a8 33bd 43dd 0e3e 5c8d 47bd 234e b2bc
00000090: 3610 263e 592f d4bd 5de4 eebd b96d e43d
000000a0: 08a7 b8bc 1c29 27bd c703 86bd 019c 493d
000000b0: 10c9 66bd 4f6d 123e 0bf4 afbd 15fb 4d3c
000000c0: 2f82 d33d 8904 c3bd cd6a 1c3d 8707 0cbd
000000d0: a2c6 273e 86ee c03d 3e95 07be bb77 33be
000000e0: 348a dc3d 6d6a d13d c04e 953d 1447 0ebe
000000f0: e0ef eebd 0b5a 0f3e 8daa bf3d 7be2 923d
00000100: a15d 4abd e534 283d be3e c0bd 7cfa c83b
00000110: b44b 3a3c fe61 073e 64d0 75bd 4593 c83d
00000120: 8a87 b23a 2694 1cbe 40c0 30bd d157 04be
00000130: 9fd0 09be 9258 e03d 2d77 963d 5a20 a73d
00000140: e087 11be bc0c e2bd acdc b4bd 382b 03be
00000150: e103 16bb 3fbb 18be c13b 0d3d c128 e9bc
00000160: 0683 46bc ec3c 8dbd 6340 87bd 7425 68bd
00000170: 0928 01be 1705 78bd 7443 093e 0bbd 303e
00000180: fd51 293e 91b8 f1bd c6c7 2b3d beee e6bd
00000190: a990 c1bd 31d0 b3bc 8513 19be deec 98bd
000001a0: e6ea 00be e533 a5bd ab13 b03c 2c22 0a3e
000001b0: 773f 2b3e 7170 103e 9341 17be 974e c13d
000001c0: 09e0 08be 913d d0bd f918 cebd 11fc 093e
000001d0: 2a50 20bc fc74 c7bd dd2a 01bc 01a3 983d

lstm.bias_hh_l0 f4 [120]
-0.00954177 0.056809414 -0.059811763 -0.040892262 0.040843442 0.11602991 0.16170582 -0.021624234
0.065960035 0.18024349 -0.09736817 -0.06903691 0.17697006 0.098225854 0.10541109 -0.13325661
-0.16653705 -0.001646603 -0.14319839 0.08640188 -0.004151271 -0.12828663 0.14199388 0.0341971
0.079897925 -0.016280139 -0.08319361 0.071026005 -0.04837647 0.12310579 -0.14088893 0.06155999
-0.17679778 0.064080656 -0.16380642 -0.0044570253 0.12806731 0.16166908 0.04267426 0.13894236
-0.08338951 0.17605636 -0.091229744 -0.063753515 -0.05863616 0.16352598 0.14727625 0.0746478
-0.052875113 0.042373464 -0.12853795 0.15575677 -0.086821854 -0.048346967 -0.13707557 -0.09732887
-0.1797305 0.049326878 0.0027644227 0.10084703 0.11700102 0.037516076 -0.013239991 -0.17836174
0.048974674 0.1688201 0.047075484 -0.14924596 0.15985174 -0.14656775 0.035792086 -0.13535273
0.01059768 -0.09974484 0.04411036 -0.0064585046 -0.15916887 -0.1544409 0.16885723 -0.1348474
0.0068499567 -0.068546474 0.11275418 -0.15140387 -0.12652086 0.16586727 0.17046648 0.056058828
-0.12050031 0.11605505 -0.10301768 -0.10252624 -0.13539681 0.12216714 0.02067646 -0.07496298
0.1446139 0.093685 0.024518747 0.15184659 0.1549405 -0.16518064 0.004932896 -0.09819574
-0.050866973 -0.13645574 0.0059903944 -0.0328469 0.086592786 0.07945354 0.17329675 -0.06388983
0.178192 0.0757866 -0.14225173 0.085595325 0.11351144 -0.14564048 0.10913372 0.17384768
00000000: 1655 1cbc fdb0 683d 2efd 74bd a57e 27bd
00000010: 744b 273d 17a1 ed3d 3696 253e 4e25 b1bc
00000020: 0e16 873d c091 383e f768 c7bd 3963 8dbd
00000030: a437 353e a32a c93d c5e1 d73d 6c74 08be
00000040: b088 2abe d4d2 d7ba 99a2 12be 78f3 b03d
00000050: 6307 88bb 925d 03be d866 113e 4212 0c3d
00000060: 86a1 a33d ed5d 85bc 6961 aabd 1576 913d
00000070: 6826 46bd e31e fc3d 3045 10be 5426 7c3d
00000080: 7a0a 35be b83c 833d dfbc 27be 3d0c 92bb
00000090: 1424 033e 948c 253e 34cb 2e3d e846 0e3e
000000a0: 1fc8 aabd 1e48 343e a9d6 babd 3491 82bd
000000b0: 782c 70bd 5b73 273e 96cf 163e f2e0 983d
000000c0: 9393 58bd cc8f 2d3d 749f 03be b47e 1f3e
000000d0: a8cf b1bd 7807 46bd 8a5d 0cbe 5c54 c7bd
000000e0: 460b 38be fb0a 4a3d 512b 353b e388 ce3d
000000f0: 3b9e ef3d 75aa 193d 8cec 58bc 76a4 36be
00000100: ab99 483d 2ddf 2c3e 39d2 403d efd3 18be
00000110: 2db0 233e db15 16be b99a 123d e899 0abe
00000120: e4a1 2d3c 0647 ccbd 11ad 343d dda1 d3bb
00000130: 2afd 22be c125 1ebe e9e8 2c3e 7015 0abe
00000140: 9a75 e03b 1862 8cbd aaeb e63d 9e09 1bbe
00000150: af8e 01be 1cd9 293e c48e 2e3e f19d 653d
00000160: dec8 f6bd 45ae ed3d effa d2bd 47f9 d1bd
00000170: 76a5 0abe c432 fa3d ae61 a93c 3186 99bd
00000180: ab15 143e ecdd bf3d 8adb c83c ac7d 1b3e
00000190: b9a8 1e3e 1d25 29be 21a4 a13b d91a c9bd
000001a0: e359 50bd 0ebb 0bbe 124b c43b 798a 06bd
000001b0: 8f57 b13d 8ab8 a23d b474 313e acd8 82bd
000001c0: f777 363e 0136 9b3d 70aa 11be 9a4c af3d
000001d0: b078 e83d c722 15be 8081 df3d 2005 323e

lstm.weight_ih_l0_reverse f4 [120, 15]
-0.15643886 0.03639344 -0.17631067 0.043472584 0.07463458 0.10995841 0.071183056 0.14884995
0.024446124 -0.16061643 0.06222281 0.028609326 0.09411627 0.0039102035 -0.094335124 0.029422306
-0.17991826 -0.090710305 -0.12571058 0.060054313 0.14260498 -0.07025861 0.04956457 0.1205738
-0.07948074 -0.082568936 -0.1280555 -0.1610092 0.016194347 0.055118278 -0.03359847 -0.14769529
-0.12415424 0.09410062 0.1713923 0.10601646 -0.02604299 -0.132144 0.051270045 0.17074709
0.0920744 -0.15712482 0.09498317 0.07214591 0.024547454 0.07836929 -0.12541233 -0.090950064
0.10884837 -0.085104614 -0.08651824 -0.10258331 0.067323014 0.05050777 -0.03815342 -0.06307502
-0.046371907 0.0005086318 -0.03151006 -0.13334998 -0.08403783 -0.053592518 -0.15527603 -0.03440552
-0.14939575 -0.1679959 -0.066654295 -0.11619877 0.14188462 0.031024365 0.040641777 0.042895094
-0.07083229 0.035482187 -0.13373938 0.1595867 -0.012247251 -0.015569786 -0.07246183 0.11496698
0.028181054 -0.13826014 -0.14307876 0.027620174 0.081112966 -0.16699632 0.15876669 0.09415273
-0.029431932 -0.18223837 0.006104973 -0.060656823 0.023741432 0.13398165 -0.052032802 -0.091946475
0.15084025 0.007854915 -0.13045783 0.09112747 -0.0056432765 -0.004143501 0.024858454 -0.15747255
-0.03613097 0.082769565 0.10316272 0.14946257 0.0033097449 0.18085507 -0.14941734 0.1645184
0.14728355 -0.1578682 0.116597876 0.021240493 0.05512621 -0.11229652 -0.07149691 0.08849923
-0.16792944 -0.14696671 -0.07615662 0.14854714 0.09499635 0.094746485 0.03261179 0.010716599
0.15429246 -0.17282405 0.11505643 0.056809094 0.104963735 -0.11686607 0.13881366 -0.13509892
-0.06199403 -0.048565995 -0.13268688 0.0199496 -0.13347833 0.17589684 0.05190605 0.09642578
0.021386769 0.09686575 -0.04781855 0.11973679 -0.07000268 0.11583224 0.061149623 -0.08148766
0.12979326 -0.06644043 -0.05039599 -0.025745416 -0.026726648 -0.11074622 0.14712192 0.0808828
0.038174517 0.08678061 0.06863415 0.04271078 0.13519767 -0.082493894 0.07512986 0.06274045
-0.069189854 0.12486856 0.09500615 -0.048035875 0.081133015 0.030725706 0.033085357 0.15577918
0.18126433 -0.17836316 -0.16214642 0.025633175 0.025000328 0.041880697 -0.13404596 -0.04563527
0.1573967 0.020959027 -0.07843473 0.16242307 -0.09963092 0.038621087 -0.07347647 -0.016542293
-0.07832263 -0.10621558 0.16758339 -0.04505944 0.07333526 0.03949474 -0.0006239624 0.06409898
-0.09495525 0.093892016 0.15471537 -0.13083632 0.06333177 -0.03186242 0.028694209 -0.124956995
-0.08335891 -0.1823741 0.104920425 0.07145421 0.15871908 -0.07709453 -0.09580631 0.18059658
-0.048923433 -0.052179374 -0.15202746 -0.04426132 -0.06462966 0.16792062 0.012470903 0.085846566
-0.1157149 -0.11463822 0.053455718 0.056319583 -0.08574891 0.101583265 0.120168984 -0.050027452
-0.11510918 0.0710791 0.12233375 0.09751609 0.11851133 -0.17964494 0.09927978 -0.12909774
0.078394465 -0.007885398 0.055352177 0.061366376 0.17831205 -0.15565051 0.1646088 0.032360237
0.1195018 0.10097109 -0.08984739 0.096725024 0.15245722 0.025350364 0.03719968 0.022149904
00000000: 8231 20be 4a11 153d c98a 34be 4f10 323d
00000010: 04da 983d e031 e13d 6cc8 913d 1f6c 183e
00000020: 3d43 c83c a278 24be 58dd 7e3d 1b5e ea3c
00000030: 08c0 c03d 2a21 803b c632 c1bd 0c07 f13c
00000040: 7e3c 38be 53c6 b9bd 46ba 00be 83fb 753d
00000050: 0a07 123e bfe3 8fbd 3804 4b3d 65ef f63d
00000060: ccc6 a2bd e719 a9bd fb20 03be 99df 24be
00000070: 02aa 843c b4c3 613d 8d9e 09bd 6f3d 17be
00000080: 9444 febd d3b7 c03d 7781 2f3e 281f d93d
00000090: 1c58 d5bc c250 07be 8a00 523d 53d8 2e3e
000000a0: 8191 bc3d 54e5 20be 8986 c23d 3cc1 933d
000000b0: be17 c93c 1480 a03d 176c 00be 0744 babd
000000c0: e5eb de3d 544b aebd 7a30 b1bd 3317 d2bd
000000d0: a6e0 893d 3ce1 4e3d c346 1cbd 7a2d 81bd
000000e0: 78f0 3dbd b455 053a b110 01bd e68c 08be
000000f0: 071c acbd d483 5bbd ae00 1fbe cdec 0cbd
00000100: 33fb 18be 1e07 2cbe 0c82 88bd 9ff9 edbd
00000110: 344a 113e cf26 fe3c fe77 263d c4b2 2f3d
00000120: 8510 91bd c555 113d faf2 08be b26a 233e
00000130: b2a8 48bc 6a18 7fbc de66 94bd cf73 eb3d
00000140: f4db e63c 1194 0dbe 3d83 12be b443 e23c
00000150: 8e1e a63d 1501 2bbe bc93 223e 26d3 c03d
00000160: 3c1b f1bc b29c 3abe 3a0c c83b 4a73 78bd
00000170: 647d c23c 7c32 093e 5920 55bd 6f4e bcbd
00000180: de75 1a3e e7b1 003c bd96 05be 0aa1 ba3d
00000190: 3ceb b8bb 35c6 87bb f5a3 cb3c 7c40 21be
000001a0: 11fe 13bd 1783 a93d fa46 d33d b70c 193e
000001b0: 4ee8 583b 1232 393e dc00 19be 8377 283e
000001c0: 80d1 163e 34a8 21be deca ee3d 8b00 ae3c
000001d0: 05cc 613d b8fb e5bd f96c 92bd 163f b53d
000001e0: b2f5 2bbe 717e 16be 01f8 9bbd be1c 183e
000001f0: 728d c23d 720a c23d f193 053d ad94 2f3c
00000200: d8fe 1d3e caf8 30be b5a2 eb3d a7b0 683d
00000210: 3af7 d63d 7a57 efbd 2b25 0e3e 5f57 0abe
00000220: 74ed 7dbd 23ed 46bd 12df 07be 586d a33c
00000230: 8bae 08be 4d1e 343e 709b 543d e17a c53d
00000240: 4e33 af3c 8d61 c63d 62dd 43bd 9038 f53d
00000250: 915d 8fbd 7439 ed3d 0778 7a3d 01e3 a6bd
00000260: 86e8 043e ec11 88bd 076c 4ebd 0de8 d2bc
00000270: d8f1 dabc eace e2bd 21a7 163e e2a5 a53d
00000280: e25c 1c3d 08ba b13d 1090 8c3d 80f1 2e3d
00000290: 4271 0a3e 8ff2 a8bd afdd 993d 117e 803d
000002a0: 69b3 8dbd 16bb ff3d 9692 c23d 44c1 44bd
000002b0: 1129 a63d 7ab4 fb3c 8384 073d 9484 1f3e
000002c0: 5b9d 393e d5a4 36be b609 26be aafc d13c
000002d0: 7dcd cc3c 188b 2b3d 5843 09be 0dec 3abd
000002e0: 9a2c 213e 44b2 ab3c 63a2 a0bd 3c52 263e
000002f0: 4c0b ccbd 2531 1e3d d57a 96bd b483 87bc
00000300: 9d67 a0bd 8e87 d9bd fb9a 2b3e 3f90 38bd
00000310: cc30 963d 3dc5 213d 6891 23ba 5346 833d
00000320: e677 c2bd 754a c03d b56d 1e3e f5f9 05be
00000330: 16b4 813d 2b82 02bd 1e10 eb3c 74e9 ffbd
00000340: 14b8 aabd 47c0 3abe 85e0 d63d 9656 923d
00000350: 4187 223e bde3 9dbd 1936 c4bd 4fee 383e
00000360: f063 48bd 0aba 55bd 16ad 1bbe 5c4b 35bd
00000370: 8e5c 84bd 62f3 2b3e c252 4c3c 53d0 af3d
00000380: effb ecbd 71c7 eabd 62f4 5a3d 5daf 663d
00000390: 209d afbd e30a d03d 281b f63d 96e9 4cbd
000003a0: 5dbe ebbd eb91 913d 1e8a fa3d 84b6 c73d
000003b0: 11b6 f23d d8f4 37be 3353 cb3d 3332 04be
000003c0: 478d a03d c231 01bc f7b8 623d 4f5b 7b3d
000003d0: 6f97 363e d962 1fbe 368f 283e 2b8c 043d
000003e0: 5cbd f43d eec9 ce3d e901 b8bd c517 c63d
000003f0: bf1d 1c3e 91ab cf3c b15e 183d b773 b53c

lstm.weight_hh_l0_reverse f4 [120, 30]
-0.024728345 -0.15876168 0.09573094 -0.16620374 -0.09774747 -0.18090759 -0.042101994 -0.07149895
-0.13801773 0.008118897 -0.17218573 0.16072595 -0.11587333 -0.13160546 0.17433786 -0.03792982
0.088041075 0.13187988 0.17020974 -0.11731187 0.1445284 -0.14908032 0.015403472 0.03349861
-0.11988517 -0.13472746 -0.16007377 0.10824491 -0.046157647 0.058223136 0.04730382 -0.08161038
0.00039932912 0.07129865 -0.1201382 -0.06908914 0.05701564 -0.09901552 -0.169628 -0.0960728
0.11737666 -0.08559973 0.053832915 -0.17433429 0.07466661 -0.080471076 -0.09461091 0.11413257
0.025702784 0.015296493 0.023245623 -0.16316432 -0.16174337 0.024382997 -0.13122347 -0.08682874
0.046284582 0.14200284 0.17917232 -0.04490619 0.029257271 -0.017101165 0.07037721 0.12984554
-0.15280412 -0.06870039 0.15482445 -0.14299108 -0.109188296 -0.016323775 0.108952515 -0.042929173
0.12873587 -0.07470025 0.14256774 0.17567924 0.17701016 0.12542519 0.09839788 0.12136786
-0.06495678 -0.095504016 0.04201929 -0.006049566 0.1478549 0.025507092 -0.13288487 -0.06538574
-0.1388874 -0.16574429 -0.11623748 0.004770733 0.06352307 0.09154706 -0.17952298 0.03191042
-0.11159101 0.053706214 0.09634307 -0.057772916 0.12974085 -0.009242491 0.08673373 0.07451719
0.17511149 0.12730677 -0.14185141 -0.011923658 -0.062861584 0.101987295 0.1390578 0.17408429
0.00716831 -0.016157849 0.03373233 0.017461207 0.01717998 0.17312463 -0.11148676 -0.16253005
-0.14282598 -0.06910063 0.15577221 -0.09373214 -0.00738403 0.1507775 0.10661788 -0.08806418
0.11089293 0.05129594 -0.17450795 -0.06764746 0.065527 -0.034344554 -0.081701316 -0.17084391
0.009819212 0.061759397 -0.04340039 0.030419005 -0.051411524 0.038486965 -0.038101606 0.1407931
0.083012156 -0.0064858096 -0.17358729 -0.10554631 -0.051497724 -0.082948945 -0.14735311 -0.11048609
0.0638607 0.089526206 0.17971379 -0.122688696 0.08644924 -0.13043562 0.097568035 -0.13283986
0.12865365 0.155211 -0.06447725 0.019622527 0.09948608 0.15241899 -0.06559525 -0.08805745
0.042308547 -0.07882629 -0.101837315 -0.075042725 0.17711271 -0.15916045 0.0717472 0.08873002
-0.08636477 0.023727082 0.15705699 -0.009261413 -0.15747215 -0.04324133 0.07322049 -0.11103705
-0.17725292 -0.012063753 -0.10775576 -0.02496656 -0.0013843796 0.10591673 0.1624409 -0.15037988
0.17689607 0.03325379 0.017544657 -0.096232496 0.03698275 -0.020020848 -0.1138717 -0.16088583
-0.1737301 -0.04186637 0.07629503 0.13514164 0.12124665 -0.14779676 0.045920473 0.029598707
-0.0688971 -0.17405125 -0.1422996 0.08787121 0.052667186 -0.1516037 -0.092584506 -0.0497365
0.08279283 -0.052468665 0.17979781 -0.17326552 0.119614445 0.1715282 0.07928335 -0.03361246
0.17781197 0.009538906 -0.17199753 -0.13148034 -0.13422729 0.17681487 -0.02626096 0.14082424
-0.09850343 0.12304826 0.0025456278 0.14082044 -0.06512074 -0.16451962 -0.010097296 0.014066925
0.17903817 0.06775127 -0.05927834 -0.03596482 0.090908445 -0.09829201 0.15181431 -0.07212279
-0.105331086 0.07543541 -0.04021011 -0.044352133 -0.0238064 0.019645173 0.037392672 0.10163617
00000000: 1993 cabc 6c92 22be 950e c43d 5031 2abe
00000010: d32f c8bd d73f 39be 2473 2cbd 0b6e 92bd
00000020: 8554 0dbe 1f05 053c 7551 30be 5895 243e
00000030: ff4e edbd 95c3 06be a085 323e 4d5c 1bbd
00000040: e14e b43d 850b 073e 764b 2e3e 3541 f0bd
00000050: 41ff 133e 83a8 18be d85e 7c3c d735 093d
00000060: 5b86 f5bd fff5 09be 61ea 23be 82af dd3d
00000070: cd0f 3dbd 627b 6e3d a6c1 413d 5823 a7bd
00000080: 0c5d d139 0705 923d 040b f6bd 9b7e 8dbd
00000090: 3b89 693d a6c8 cabd f6b2 2dbe d1c1 c4bd
000000a0: 2d63 f03d e94e afbd e77f 5c3d b084 32be
000000b0: cfea 983d 05ce a4bd 5dc3 c1bd 56be e93d
000000c0: a58e d23c 249e 7a3c 9b6d be3c 8c14 27be
000000d0: 0ea0 25be dabe c73c 725f 06be 44d3 b1bd
000000e0: e794 3d3d 3169 113e f378 373e 8eef 37bd
000000f0: f2ac ef3c be17 8cbc ed21 903d 3bf6 043e
00000100: af78 1cbe cab2 8cbd 4d8a 1e3e 416c 12be
00000110: 1d9e dfbd 70b9 85bc 7f22 df3d 80d6 2fbd
00000120: 56d3 033e 72fc 98bd 47fd 113e 42e5 333e
00000130: 2742 353e 766f 003e d484 c93d b68f f83d
00000140: 0f08 85bd 9c97 c3bd 6b1c 2c3d 703b c6bb
00000150: 4667 173e 40f4 d03c f912 08be f5e8 85bd
00000160: 8038 0ebe dfb8 29be ea0d eebd cf53 9c3b
00000170: 6218 823d 067d bb3d dfd4 37be 80b4 023d
00000180: d489 e4bd 0cfb 5b3d 844f c53d 4ba3 6cbd
00000190: c9da 043e d16d 17bc 74a1 b13d 789c 983d
000001a0: 6d50 333e b55c 023e 7f41 11be 725b 43bc
000001b0: 93bd 80bd b7de d03d 2b65 0e3e 2743 323e
000001c0: 25e4 ea3b 775d 84bc e92a 0a3d ce0a 8f3c
000001d0: 08bd 8c3c 9547 313e 2c53 e4bd 476e 26be
000001e0: f940 12be a284 8dbd c082 1f3e a3f6 bfbd
000001f0: bcf5 f1bb 6b65 1a3e 7a5a da3d fe5a b4bd
00000200: d51b e33d b11b 523d 36b2 32be c08a 8abd
00000210: 0533 863d e0ac 0cbd 0553 a7bd b5f1 2ebe
00000220: c3e0 203c 6cf7 7c3d 9bc4 31bd 4731 f93c
00000230: e494 52bd 82a4 1d3d 6e10 1cbd 112c 103e
00000240: 4702 aa3d ea86 d4bb dec0 31be aa28 d8bd
00000250: 47ef 52bd 23e1 a9bd bce3 16be 8846 e2bd
00000260: 66c9 823d 8459 b73d e406 383e 3644 fbbd
00000270: 4d0c b13d ea90 05be c0d1 c73d 2c07 08be
00000280: c8bd 033e a2ef 1e3e a60c 84bd 6cbf a03c
00000290: 5cbf cb3d b913 1c3e cd56 86bd 7757 b4bd
000002a0: ba4b 2d3d ae6f a1bd 1590 d0bd 00b0 99bd
000002b0: 095d 353e f5fa 22be 32f0 923d 16b8 b53d
000002c0: 03e0 b0bd 4c5f c23c 8cd3 203e 2ebd 17bc
000002d0: 6140 21be d21d 31bd a0f4 953d 6567 e3bd
000002e0: ca81 35be 0ca7 45bc 0daf dcbd ac86 ccbc
000002f0: 1274 b5ba dfea d83d e856 263e 2ffd 19be
00000300: 3e24 353e 2035 083d d0b9 8f3c 8b15 c5bd
00000310: 397b 173d c302 a4bc 9135 e9bd 41bf 24be
00000320: 4ee6 31be 127c 2bbd 9240 9c3d 9262 0a3e
00000330: 2a50 f83d 0958 17be 1b17 3c3d fd78 f23c
00000340: ec19 8dbd 7e3a 32be fdb6 11be d2f5 b33d
00000350: 8cb9 573d 003e 1bbe f29c bdbd 80b8 4bbd
00000360: 4a8f a93d 62e9 56bd eb1c 383e 846c 31be
00000370: 6bf8 f43d 17a5 2f3e 4f5f a23d 38ad 09bd
00000380: 5714 363e 1249 1c3c 1f20 30be c8a2 06be
00000390: e172 09be f50e 353e 3a21 d7bc 3b34 103e
000003a0: 2bbc c9bd ba00 fc3d 8cd4 263b 3c33 103e
000003b0: 065e 85bd d577 28be 216f 25bc f678 663c
000003c0: c855 373e 2ec1 8a3d d8cd 72bd d94f 13bd
000003d0: 352e ba3d 524d c9bd 3675 1b3e 1db5 93bd
000003e0: d3b7 d7bd e17d 9a3d 5bb3 24bd 95aa 35bd
000003f0: a405 c3bc eaee a03c 0f29 193d a026 d03d

lstm.bias_ih_l0_reverse f4 [120]
-0.06721203 -0.056803938 -0.070623666 -0.06615327 -0.018202217 -0.04282433 0.040757466 -0.054770593
-0.017213123 -0.16106762 0.025237244 0.12846847 0.017320976 -0.058472957 -0.03120473 0.16622947
0.016003013 -0.053421 -0.13630357 0.15613858 0.14525995 0.10522493 0.10372367 0.067258924
-0.06400653 -0.019233923 0.14245732 -0.11676611 0.17827499 0.016435353 0.042781066 0.076369256
0.09316181 -0.12486641 0.17895502 0.043414883 -0.14964007 -0.08825194 -0.11070114 0.18077347
0.07795885 0.17445885 0.031502888 -0.04312423 -0.11757413 -0.15047215 0.08160027 0.078385375
-0.09030518 0.013094619 0.085803285 0.12132734 -0.08369985 -0.07152459 -0.07418843 -0.17895326
-0.13702755 -0.16525137 0.14673743 0.13580585 0.065997936 -0.010757335 -0.039666254 0.047531743
0.04116415 -0.10207148 -0.08711403 -0.016942957 -0.120640464 0.032903325 0.09728934 -0.012405012
-0.038933188 0.15762025 0.1803331 0.004624565 -0.098833345 0.17108716 -0.08514347 0.04168652
-0.00787158 -0.06382603 0.120360374 -0.05215368 0.02641818 0.09417268 0.07474253 -0.09202982
0.1762465 0.12450225 -0.18023248 -0.11761053 0.117978476 -0.03124782 0.07976123 -0.02030373
0.13307934 0.025412895 0.07625189 -0.032697693 0.1394029 -0.049312696 -0.15182543 -0.02031544
-0.009553626 -0.17271061 0.07596749 0.061271347 -0.025784256 -0.1250848 0.002119032 -0.060460467
0.1461862 -0.014202231 -0.123790964 -0.15689762 0.042701013 -0.15237032 0.044185124 -0.17987445
00000000: 76a6 89bd 3fab 68bd 24a3 90bd 5e7b 87bd
00000010: d11c 95bc 9168 2fbd 4df1 263d 2157 60bd
00000020: 8902 8dbc e9ee 24be 56be ce3c 3d8d 033e
00000030: b8e4 8d3c 5781 6fbd 10a1 ffbc 0f38 2a3e
00000040: c018 833c facf 5abd 2a93 0bbe cbe2 1f3e
00000050: 06bf 143e 2b80 d73d 136d d43d 0cbf 893d
00000060: db15 83bd 7690 9dbc 55e0 113e 1223 efbd
00000070: b88d 363e 6fa3 863c 333b 2f3d 7c67 9c3d
00000080: 9ecb be3d f6b9 ffbd fc3f 373e ced3 313d
00000090: 3f3b 19be 6fbd b4bd 47b7 e2bd ae1c 393e
000000a0: e4a8 9f3d 57a5 323e 2c09 013d 08a3 30bd
000000b0: b5ca f0bd 5f15 1abe 0b1e a73d 8388 a03d
000000c0: ecf1 b8bd d08a 563c a2b9 af3d 787a f83d
000000d0: d46a abbd 7c7b 92bd 1bf0 97bd 863f 37be
000000e0: f350 0cbe a837 29be 5642 163e b010 0b3e
000000f0: ed29 873d 893f 30bc 1579 22bd a5b0 423d
00000100: bd9b 283d da0a d1bd d768 b2bd f5cb 8abc
00000110: 5912 f7bd a3c5 063d a23f c73d 643e 4bbc
00000120: 6878 1fbd 3467 213e 3da9 383e aa89 973b
00000130: 2369 cabd 7931 2f3e b35f aebd 7cbf 2a3d
00000140: cdf7 00bc 39b7 82bd 807f f63d 199f 55bd
00000150: f06a d83c 9bdd c03d 9d12 993d 217a bcbd
00000160: f679 343e 09fb fe3d dd8e 38be cadd f0bd
00000170: b39e f13d 6efb ffbc db59 a33d 0254 a6bc
00000180: f345 083e b42e d03c f329 9c3d 04ee 05bd
00000190: a2bf 0e3e 1cfc 49bd 2078 1bbe 916c a6bc
000001a0: d086 1cbc 0ddb 30be d894 9b3d aaf7 7a3d
000001b0: 8139 d3bc 3b16 00be 75df 0a3b 65a5 77bd
000001c0: d6b1 153e 79b0 68bc 1e86 fdbd c5a9 20be
000001d0: 42e7 2e3d f706 1cbe 76fb 343d 0231 38be

lstm.bias_hh_l0_reverse f4 [120]
-0.046901558 0.036981545 0.1306457 0.0755266 -0.07567636 0.14574608 -0.065508924 0.012121387
-0.13983805 -0.06751238 -0.004014426 -0.0064345463 -0.16752738 0.09294422 0.03467037 0.12702109
0.053890284 0.05977182 -0.011514394 0.10496539 -0.092207596 -0.031701144 0.114479944 0.16196288
-0.15232907 0.0727179 -0.07815074 -0.11502623 0.10872907 -0.08540089 0.12178992 0.1329679
0.12370923 0.16850153 0.06375665 -0.037115954 0.0035335624 -0.08611279 -0.0058556315 -0.035930585
-0.057718564 -0.03781616 0.057458907 0.14929725 -0.1374346 -0.021097766 0.10771649 -0.11144871
0.13150732 0.04225396 -0.024367768 0.015157577 -0.04194796 0.17144509 0.16690801 0.14544837
-0.13515976 0.0051092487 0.06421959 -0.055171132 -0.05470212 -0.12494664 -0.0420301 -0.17887537
-0.07602719 0.017311674 0.09967886 0.0073675746 -0.08373531 -0.0003911513 0.11737509 -0.075312056
0.1653206 -0.168587 -0.041420165 -0.17766832 -0.09751544 0.07814598 -0.12985224 0.16523126
-0.02860609 0.18034858 -0.1197054 0.15564954 0.106635824 0.053698044 0.12923837 0.06348722
0.10394859 -0.03572389 -0.04725196 -0.0009919889 0.15721475 0.12480279 -0.12825277 -0.06777262
-0.070050694 -0.12892151 0.053389378 -0.020192916 -0.15586326 -0.05256717 0.13418813 0.15325736
-0.18236375 0.0034558922 -0.1626309 0.081613794 -0.059165422 -0.15388486 -0.10091459 0.11175575
-0.05789478 -0.026209578 0.13588223 -0.1676389 0.09745837 -0.15372188 0.16512106 0.017482372
00000000: d91b 40bd f679 173d fdc7 053e b1ad 9a3d
00000010: 35fc 9abd 763e 153e 8b29 86bd c898 463c
00000020: b531 0fbe ee43 8abd 728b 83bb e3d8 d2bb
00000030: 4c8c 2bbe 8a59 be3d 8502 0e3d d111 023e
00000040: 0fbc 5c3d 4cd3 743d dea6 3cbc 18f8 d63d
00000050: 56d7 bcbd 0fd9 01bd 7674 ea3d 99d9 253e
00000060: 27fc 1bbe 1fed 943d 7f0d a0bd df92 ebbd
00000070: 59ad de3d a9e6 aebd fe6c f93d bd28 083e
00000080: 445b fd3d aa8b 2c3e d992 823d e606 18bd
00000090: 5793 673b e75b b0bd 99e0 bfbb f32b 13bd
000000a0: 4d6a 6cbd 1ee5 1abd 085a 6b3d 61e1 183e
000000b0: a8bb 0cbe 39d5 acbc 779a dc3d 393f e4bd
000000c0: dba9 063e 7d12 2d3d ea9e c7bc 7c57 783c
000000d0: a0d1 2bbd 4d8f 2f3e efe9 2a3e 6bf0 143e
000000e0: 5267 0abe 7c6b a73b 8f85 833d 20fb 61bd
000000f0: 550f 60bd 06e4 ffbd c127 2cbd 1b2b 37be
00000100: 25b4 9bbd 36d1 8d3c 6e24 cc3d b26b f13b
00000110: 6b7d abbd 7013 cdb9 5a62 f03d 353d 9abd
00000120: ce49 293e 12a2 2cbe 31a8 29bd afee 35be
00000130: 2db6 c7bd 000b a03d fcf7 04be 6232 293e
00000140: 5257 eabc 4cad 383e 1b28 f5bd 9862 1f3e
00000150: e263 da3d 7bf2 5b3d 1057 043e 9605 823d
00000160: 00e3 d43d 3753 12bd 458b 41bd a005 82ba
00000170: e7fc 203e 9b98 ff3d b254 03be 5fcc 8abd
00000180: bd76 8fbd 0004 04be d2ae 5a3d 9d6b a5bc
00000190: 9e9a 1fbe ac50 57bd 9d68 093e 7fef 1c3e
000001a0: 90bd 3abe 407c 623b b788 26be 2225 a73d
000001b0: 7157 72bd fe93 1dbe 4fac cebd 33e0 e43d
000001c0: 1423 6dbd 78b5 d6bc b624 0b3e 88a9 2bbe
000001d0: 4198 c73d 4569 1dbe 7f15 293e 3137 8f3c

lstm.weight_ih_l1 f4 [120, 60]
0.09623999 -0.028808193 -0.019950107 -0.1176453 -0.020526696 -0.07935591 -0.17272303 -0.09202584
0.0051561156 -0.120785944 -0.052695666 -0.0068109776 0.13179518 -0.11915982 0.033268634 0.061856247
0.024673855 0.026857546 -0.1777497 -0.13141415 0.11044976 0.092386074 -0.09212073 -0.16054769
-0.12582637 -0.118727125 0.01857579 -0.16125494 0.08784364 -0.06718143 -0.032119013 -0.048438936
-0.07289742 -0.122855835 -0.052922525 -0.16959354 0.056184128 -0.019098464 -0.0075576245 0.052068725
-0.099563755 -0.17008168 0.121080145 -0.03360858 -0.011198259 -0.067927845 0.14659755 0.0033594833
-0.033184506 -0.016530387 0.055567294 0.034587458 -0.1562784 0.17426884 -0.046267726 -0.17082857
-0.06882429 -0.0034347996 -0.15357505 0.0081061 0.10759921 0.17439228 0.034145173 0.16428164
0.17980516 -0.10869841 -0.0702993 0.12860017 0.124952294 -0.07036866 0.1424206 0.026221603
-0.08260431 -0.13480614 0.1592457 -0.1360738 -0.13581581 -0.13419202 -0.09883158 0.083698355
0.067487046 -0.09235068 -0.09457834 0.10507716 0.15540113 -0.101911046 0.11173449 0.14999902
-0.13433711 -0.1717886 -0.10960478 -0.007030377 -0.05913166 0.06975084 -0.14251208 0.16416459
0.1071595 0.053228714 0.06492856 -0.036575723 -0.038247906 -0.17645802 -0.11042343 0.0139326425
0.16805226 -0.02477503 0.077261865 0.049223725 0.15632834 0.07398477 0.17651933 0.07974481
0.07668919 -0.065989986 -0.12638737 -0.075623155 -0.05902012 0.1355726 -0.076391384 0.02875744
-0.025750987 0.09452814 -0.1352167 -0.09378069 0.05000279 0.11647373 -0.045810275 -0.12645201
0.11667705 0.1364255 0.10774016 -0.12857822 0.057380226 0.17058267 -0.03719189 0.1301173
-0.035952907 0.16379999 0.08084888 0.074966915 0.051249932 0.10856407 -0.081896886 0.1346241
0.09686445 0.057952106 0.016849322 -0.0056945975 -0.016590597 -0.07975603 -0.103087746 -0.003858724
0.11216907 0.089390635 0.021676408 0.056484904 0.10749511 -0.12940119 -0.17688438 -0.046722528
0.17863555 0.0020760302 0.05911801 0.06493392 0.096844226 -0.16871303 -0.11927223 0.1358926
-0.1767288 -0.069960214 -0.008468392 0.07856363 -0.042914048 -0.1150751 0.07424018 -0.0602547
-0.010446774 0.04894545 -0.16062483 -0.004444805 -0.040598612 -0.011728629 0.12989649 0.075908475
-0.048976 0.10461567 0.023002783 0.024424564 -0.14061669 -0.08193284 0.002908131 -0.06990338
0.17008305 0.08252531 -0.07685486 -0.07749031 -0.042468987 -0.10637953 -0.14274016 0.15514688
-0.020891346 0.15029669 0.12724511 -0.08869176 0.11250472 -0.17156284 -0.17308566 -0.12817714
0.05028715 -0.1670223 0.14607506 0.16543119 0.121089034 -0.00200868 -0.13126855 -0.10374709
0.11075607 0.17173196 0.12875909 -0.0027498372 0.13902245 -0.009346884 0.07354906 0.0126579795
0.13462272 0.09738062 -0.05265483 0.0898746 0.07757396 0.13430755 0.061883878 -0.106859125
0.070551366 0.17320295 0.09494244 -0.1596051 -0.13989298 0.16049546 -0.096179046 -0.10016877
-0.15475516 0.02293425 0.13208851 -0.17734973 0.08022591 -0.09556035 -0.16589858 0.042748794
0.064586036 -0.020753821 -0.1661607 -0.18253526 -0.052388497 0.16755049 0.16529305 0.120651305
00000000: 7919 c53d 29ff ebbc 686e a3bc 05f0 f0bd
00000010: 9a27 a8bc 5a85 a2bd 4ede 30be 0b78 bcbd
00000020: a2f4 a83b 9f5e f7bd 69d7 57bd 9f2e dfbb
00000030: 51f5 063e 100a f4bd b144 083d fa5c 7d3d
00000040: d320 ca3c 5b04 dc3c 0404 36be 6e91 06be
00000050: 7c33 e23d e934 bd3d cba9 bcbd 9d66 24be
00000060: a1d8 00be 3527 f3bd 412c 983c 0420 25be
00000070: 5ee7 b33d 6b96 89bd 3a8f 03bd e867 46bd
00000080: 3e4b 95bd d79b fbbd 4ac5 58bd eea9 2dbe
00000090: 5421 663d 6274 9cbc f3a5 f7bb 0446 553d
000000a0: 15e8 cbbd e429 2ebe def8 f73d 26a9 09bd
000000b0: e778 37bc c11d 8bbd ab1d 163e c72a 5c3b
000000c0: 7aec 07bd bc6a 87bc 889a 633d 94ab 0d3d
000000d0: 7207 20be 8873 323e 3a83 3dbd afed 2ebe
000000e0: c0f3 8cbd 601a 61bb c742 1dbe 73cf 043c
000000f0: fa5c dc3d e493 323e cfdb 0b3d 7239 283e
00000100: d81e 383e 469d debd 14f9 8fbd c3af 033e
00000110: fde6 ff3d 721d 90bd b5d6 113e b0ce d63c
00000120: 732c a9bd 9f0a 0abe 4e11 233e ee56 0bbe
00000130: 4d13 0bbe a269 09be 3668 cabd 0b6a ab3d
00000140: a636 8a3d 5a22 bdbd 4ab2 c1bd b232 d73d
00000150: 7921 1f3e bdb6 d0bd 0dd5 e43d 5899 193e
00000160: ab8f 09be 5ae9 2fbe 7978 e0bd 145f e6bb
00000170: 0a34 72bd 87d9 8e3d b0ee 11be c31a 283e
00000180: 7176 db3d 5a06 5a3d 44f9 843d 6dd0 15bd
00000190: d6a9 1cbd 69b1 34be ae25 e2bd bd45 643c
000001a0: e415 2c3e 01f5 cabc 783b 9e3d d19e 493d
000001b0: 8914 203e 5485 973d 7cc1 343e 3f51 a33d
000001c0: 390f 9d3d c225 87bd b16b 01be 50e0 9abd
000001d0: 15bf 71bd 8bd3 0a3e 1673 9cbd b994 eb3c
000001e0: bcf3 d2bc f897 c13d 3f76 0abe 1710 c0bd
000001f0: bacf 4c3d c789 ee3d 8ea3 3bbd a37c 01be
00000200: 61f4 ee3d 20b3 0b3e dfa6 dc3d 02aa 03be
00000210: 8707 6b3d 39ad 2e3e 8656 18bd 783d 053e
00000220: 5b43 13bd 2fbb 273e 1994 a53d 4188 993d
00000230: 73eb 513d d756 de3d 8eb9 a7bd e6da 093e
00000240: de60 c63d 305f 6d3d 9707 8a3c bf99 babb
00000250: 01e9 87bc 2157 a3bd ab1f d3bd a5e2 7cbb
00000260: e6b8 e53d 7012 b73d b992 b13c b75c 673d
00000270: 6526 dc3d bf81 04be 2e21 35be 1f60 3fbd
00000280: 3dec 363e 020e 083b ba25 723d 13fc 843d
00000290: 4456 c63d 1cc3 2cbe 0045 f4bd 6e27 0b3e
000002a0: 65f8 34be 4d47 8fbd 03bf 0abc f8e5 a03d
000002b0: a4c6 2fbd 7eac ebbd 3c0b 983d a2cd 76bd
000002c0: f228 2bbc 067b 483d d67a 24be baa5 91bb
000002d0: bb4a 26bd 6f29 40bc 9603 053e e775 9b3d
000002e0: 0f9b 48bd be40 d63d 5570 bc3c 0616 c83c
000002f0: d2fd 0fbe 68cc a7bd 5896 3e3b 8129 8fbd
00000300: 402a 2e3e 0803 a93d 1566 9dbd 3db3 9ebd
00000310: f6f3 2dbd 83dd d9bd 7a2a 12be d3de 1e3e
00000320: 5424 abbc 60e7 193e 8b4c 023e 07a4 b5bd
00000330: e068 e63d 2bae 2fbe 5e3d 31be de40 03be
00000340: e6f9 4d3d e507 2bbe b394 153e cb66 293e
00000350: 87fd f73d 0fa4 03bb 436b 06be 5b79 d4bd
00000360: 14d4 e23d 81da 2f3e 6cd9 033e 9d36 34bb
00000370: e75b 0e3e ac23 19bc e4a0 963d 6a63 4f3c
00000380: 8ada 093e 7e6f c73d 97ac 57bd 2d10 b83d
00000390: 19df 9e3d eb87 093e f379 7d3d f5d8 dabd
000003a0: 3c7d 903d 1d5c 313e 2f71 c23d 856f 23be
000003b0: 1b40 0fbe ec58 243e 85f9 c4bd 4925 cdbd
000003c0: 2378 1ebe 9ce0 bb3c 3642 073e 2b9b 35be
000003d0: 7b4d a43d 25b5 c3bd 51e1 29be 5c19 2f3d
000003e0: af45 843d eb03 aabc 0826 2abe 86ea 3abe
000003f0: 5295 56bd 5b92 2b3e 9542 293e 0818 f73d

lstm.weight_hh_l1 f4 [120, 30]
0.15448895 -0.04715853 -0.10831265 0.10316415 0.10443363 0.0077797864 -0.14173111 -0.110805936
-0.025985751 0.08953949 -0.1092007 -0.12444066 -0.074293174 -0.059587106 -0.031192115 0.06871856
-0.05825738 -0.17955916 -0.1522245 -0.0054099197 0.123150274 -0.11539587 0.14311935 0.043945346
-0.12994677 -0.03992232 0.00753152 0.12733327 0.17698574 0.00395144 0.030506711 -0.02498684
0.08115249 0.124831066 -0.10552216 0.08719903 0.12350914 -0.105599724 -0.18261226 -0.109894946
-0.13808154 0.032524254 0.15252341 -0.03316584 -0.08038372 0.15886915 -0.016470013 -0.056051467
-0.04948718 0.03324811 -0.13077252 0.030957554 -0.05449134 -0.096471556 -0.022446848 -0.043179803
0.014105377 0.01408665 0.11344392 -0.1777592 -0.12788393 0.00538755 -0.11610038 -0.1591468
-0.09093983 -0.13917528 -0.09753854 0.0059726518 0.13509296 0.12403538 0.124992736 0.00766915
-0.060909756 -0.1294792 0.102173425 0.13867027 -0.062241744 -0.14553505 -0.1330205 -0.17530598
0.15097864 -0.08816025 -0.17581308 0.15156591 -0.0057463753 -0.17234902 -0.0050578197 -0.15242979
0.13779056 -0.16280025 -0.076522894 -0.16523564 0.013064568 -0.020098701 -0.027048161 -0.0045740544
0.13558239 0.17006925 -0.10321468 -0.13902578 -0.1010586 0.16812904 0.04308163 0.18178402
-0.06567599 -0.09160805 -0.12436444 -0.17979077 0.09637412 -0.0029378203 -0.009094836 -0.10354391
0.029721653 0.062069904 -0.16727488 -0.10656384 -0.1783235 -0.1418807 -0.014476602 0.09256071
0.15226719 -0.12743649 -0.104232065 -0.14682904 -0.05200395 -0.021771083 -0.00046193376 0.07180791
-0.10765006 0.017746165 0.17724353 -0.111981325 0.1546569 0.1104448 -0.12024437 0.016159192
-0.018533897 0.13084318 -0.033180173 -0.09471599 -0.04560131 -0.04859748 0.056118462 -0.043775223
-0.13981709 0.035380363 -0.018284116 0.07781801 -0.10845708 0.008262762 0.10121959 0.13399301
-0.08164838 -0.069088355 -0.08993325 -0.122873254 -0.024061574 -0.015619559 -0.027837785 -0.047892485
-0.0096982885 0.042934954 -0.033407513 -0.14494132 -0.04792716 0.041724276 0.060228284 -0.012055042
-0.045519184 -0.16279139 -0.11884667 0.013313159 0.04360982 -0.037853148 0.13947941 0.1444187
0.10284717 0.03703078 0.049380142 0.16858238 -0.045439836 0.101682186 -0.033470698 0.14199652
0.14001462 -0.052331023 0.16738823 0.18417488 0.17317168 0.06858691 -0.1713703 -0.113218166
0.108935215 0.123258665 0.13289876 -0.043012142 0.019723553 0.06008475 -0.044094477 0.030376066
0.003320829 0.100607626 0.026727758 0.056808915 0.06634285 0.1341812 0.16910318 0.082528256
-0.06051227 0.13477096 -0.17351854 0.12949422 0.012681421 0.121877596 0.11706315 0.052413106
-0.00015375367 -0.1765603 -0.051754203 -0.09969849 -0.10384754 0.18137875 0.13719653 -0.02723976
0.007995892 -0.042088773 0.0740223 0.084753975 -0.025002412 0.14856532 -0.15309861 -0.06210633
0.049731452 0.11754416 0.089320086 0.10020086 -0.08805973 -0.041056316 -0.17092228 0.08554152
-0.10821143 0.026886081 0.051676624 0.17181908 0.16834189 0.039177883 -0.04317195 -0.096185744
0.026041707 0.17842717 -0.1570888 0.040870972 -0.02421121 -0.0026452255 -0.09915921 -0.17157975
00000000: 5a32 1e3e 4e29 41bd 06d3 ddbd ba47 d33d
00000010: 4de1 d53d 94ed fe3b f621 11be 39ee e2bd
00000020: 12e0 d4bc 7b60 b73d 9ea4 dfbd bfda febd
00000030: 0527 98bd 9c11 74bd 9b86 ffbc 51bc 8c3d
00000040: 4a9f 6ebd 5bde 37be bde0 1bbe b245 b1bb
00000050: 3636 fc3d ab54 ecbd e18d 123e 0900 343d
00000060: c410 05be 9685 23bd f8ca f63b a763 023e
00000070: c03b 353e 157b 813b 36e9 f93c 34b1 ccbc
00000080: 4733 a63d 6ea7 ff3d 011c d8bd 6895 b23d
00000090: 5cf2 fc3d ab44 d8bd b5fe 3abe 9a10 e1bd
000000a0: 3f65 0dbe 2738 053d 192f 1c3e e7d8 07bd
000000b0: 38a0 a4bd 98ae 223e 1fec 86bc 3996 65bd
000000c0: 12b3 4abd 2c2f 083d 3be9 05be b29a fd3c
000000d0: 5032 5fbd e192 c5bd 74e2 b7bc 4edd 30bd
000000e0: 3d1a 673c b1cb 663c 4955 e83d 8206 36be
000000f0: 01f4 02be 0c8a b03b 09c6 edbd 61f7 22be
00000100: a93e babd f783 0ebe 49c2 c7bd 3cb6 c33b
00000110: cf55 0a3e 4306 fe3d 31fc ff3d 7e4d fb3b
00000120: 827c 79bd 3296 04be 4d40 d13d 94ff 0d3e
00000130: 33f1 7ebd 2407 15be 8736 08be 6983 33be
00000140: 259a 1a3e 5c8d b4bd 5808 34be 1834 1b3e
00000150: 174c bcbb 437c 30be 11bc a5bb 8e16 1cbe
00000160: f818 0d3e 1cb5 26be 09b8 9cbd 8833 29be
00000170: c50c 563c 08a6 a4bc 1b94 ddbc f3e1 95bb
00000180: 1cd6 0a3e a226 2e3e 3862 d3bd c65c 0ebe
00000190: d0f7 cebd 052a 2c3e 5d76 303d 9725 3a3e
000001a0: 2281 86bd 009d bbbd c9b2 febd 121b 38be
000001b0: cb5f c53d 7288 40bb 8202 15bc d40e d4bd
000001c0: d37a f33c 033d 7e3d 1b4a 2bbe 243e dabd
000001d0: 709a 36be 2d49 11be 452f 6dbc 7890 bd3d
000001e0: eeeb 1b3e b67e 02be 9f77 d5bd 5a5a 16be
000001f0: 1802 55bd 4559 b2bc b32f f2b9 0710 933d
00000200: a277 dcbd 6860 913c 547f 353e 7756 e5bd
00000210: 615e 1e3e e230 e23d ae42 f6bd 4860 843c
00000220: 66d4 97bc c1fb 053e efe7 07bd 75fa c1bd
00000230: 70c8 3abd 270e 47bd 79dc 653d a64d 33bd
00000240: 362c 0fbe 00eb 103d 92c8 95bc 0c5f 9f3d
00000250: bf1e debd 8960 073c 374c cf3d 7735 093e
00000260: 4437 a7bd 327e 8dbd ec2e b8bd f9a4 fbbd
00000270: c71c c5bc 2ee9 7fbc 110c e4bc e92a 44bd
00000280: 92e5 1ebc 90dc 2f3d 51d6 08bd 7f6b 14be
00000290: 454f 44bd 13e7 2a3d efb1 763d 8382 45bc
000002a0: 5372 3abd c9b2 26be e265 f3bd 701f 5a3c
000002b0: 36a0 323d e70b 1bbd b1d3 0e3e 7fe2 133e
000002c0: 89a1 d23d 96ad 173d d542 4a3d dca0 2c3e
000002d0: 1f1f 3abd c03e d03d 9218 09bd 8967 113e
000002e0: fe5f 0f3e 0e59 56bd d267 2b3e 5798 3c3e
000002f0: eb53 313e 4b77 8c3d b27b 2fbe edde e7bd
00000300: 6d19 df3d 0a6f fc3d 9d16 083e 802d 30bd
00000310: 4a93 a13c 6d1b 763d 699c 34bd 3ad7 f83c
00000320: 44a2 593b 5f0b ce3d 2cf4 da3c 77b0 683d
00000330: c3de 873d cc66 093e 6229 2d3e 9304 a93d
00000340: b7db 77bd 6601 0a3e d8ae 31be 229a 043e
00000350: bcc5 4f3c f69a f93d cebe ef3d 20af 563d
00000360: f038 21b9 39cc 34be 37fc 53bd b92e ccbd
00000370: 05ae d4bd 5abb 393e 3f7d 0c3e eb25 dfbc
00000380: 3401 033c 4765 2cbd 0199 973d 7e93 ad3d
00000390: dcd1 ccbc 8221 183e e2c5 1cbe 3563 7ebd
000003a0: 35b3 4b3d feba f03d 73ed b63d 1c36 cd3d
000003b0: a958 b4bd ab2a 28bd 4006 2fbe 6430 af3d
000003c0: f49d ddbd 3340 dc3c deaa 533d 57f1 2f3e
000003d0: d161 2c3e fd78 203d 12d5 30bd 08fd c4bd
000003e0: 6b55 d53c 9db5 363e e3db 20be 5268 273d
000003f0: 9656 c6bc 855b 2dbb fc13 cbbd 9ab2 2fbe
