model/LSTMY/MScheckpoint3.pt (torch, 229202 bytes, 31 tensors)

lstm.weight_ih_l0 f4 [120, 15]
000000 4f 90 3e be 90 fe 7a 3d 7d a3 13 3d a5 c5 d4 bd
       -0.18609737 0.061277926 0.036044586 -0.1038926
000010 cb a7 bf bd bd e9 59 3e c2 ff f0 3d c9 1f 29 3e
       -0.09358176 0.2128057 0.11767532 0.16516031
000020 e8 d1 93 bd ad 7e d4 bd 82 88 65 3d 93 01 a8 bd
       -0.07217771 -0.10375724 0.056038387 -0.08203425
000030 89 da 6d 3d 3f 86 08 bd 5f 08 5a bc f0 5b 83 bd
       0.05806974 -0.033331152 -0.01330766 -0.0641402
000040 41 dc a4 bd 67 ef 85 bd 22 c4 3c 3d 0b 4c c1 bd
       -0.080498226 -0.06539803 0.046085484 -0.09438332
000050 74 87 a1 3d 46 c4 bf bd f2 0b 0b 3e 35 30 3d 3e
       0.07887164 -0.09363608 0.13578776 0.18475421
000060 46 f7 96 3d 57 49 0c 3d a0 c5 37 3e f3 db 34 3e
       0.073713824 0.03424963 0.17946482 0.17662029
000070 d5 0e 03 3e a0 28 87 bd 7d 5f 04 be b3 3e a4 bd
       0.12798627 -0.065995455 -0.12927051 -0.080197714
000080 68 a9 02 be 91 01 bb 3d 4e f7 c7 bd ca a0 14 bd
       -0.12759936 0.09131158 -0.097639665 -0.036286153
000090 8b 64 40 3e 16 7a 6d be 01 75 b2 bd c5 5c 01 be
       0.18788354 -0.23191103 -0.08713723 -0.12633045
0000a0 63 54 9e 3d 7e ae f6 3c 28 31 97 3d 89 c8 e4 bd
       0.07730939 0.030112501 0.07382423 -0.111710615
0000b0 4d f1 32 3d 0e f9 eb 3d ca 91 3d 3c f0 e5 b9 bb
       0.043687154 0.11522113 0.011570403 -0.0056731626
0000c0 25 eb 64 be 4a 46 cc 3b 0a bf 26 be ec a6 52 be
       -0.22355326 0.006233965 -0.16283813 -0.20571488
0000d0 41 18 3e bd d9 bf 48 3e 20 21 32 3e da 41 8b 3d
       -0.04640985 0.19604434 0.17395449 0.067996696
0000e0 a2 a6 04 be e8 c2 cd bd 94 32 1b be a1 2b 2d 3e
       -0.1295419 -0.10046941 -0.15156013 0.16911174
0000f0 fc 4f e2 bd 00 a0 b5 bd 00 d1 2b be b6 7e ca bd
       -0.11050412 -0.08868408 -0.16778946 -0.098874494
000100 aa 0e 53 be 6a 3f ea bd 43 20 90 bd bc 9a a1 bd
       -0.20611063 -0.114378765 -0.070374034 -0.07890841
000110 31 c7 8d bd 19 ee 25 3d 71 dd 12 be 57 c9 e3 bd
       -0.06922758 0.04051027 -0.14342286 -0.11122387
000120 ff b4 23 3e 2e 83 e4 3d f7 19 60 3e 3e 25 06 3e
       0.15987013 0.11157833 0.21884905 0.13100144
000130 72 49 85 3d e1 0f 20 3e 0a 7c a1 3d e7 55 f6 bd
       0.06508149 0.15631057 0.07884987 -0.12028103
000140 f9 86 9c bd bf af 36 be 78 8c 0a be 03 92 6a bd
       -0.076429315 -0.1784048 -0.13530147 -0.057268154
000150 9b 79 b1 bd 98 3d 69 3d d1 ce 94 bc 9c 85 f6 3d
       -0.086657725 0.056943506 -0.018165024 0.12037203
000160 56 ac 2f bd e2 2c 1a 3e 72 b7 f4 3c 1b e1 59 be
       -0.04288896 0.15056184 0.02987263 -0.21277277
000170 04 c9 4a 3e 64 95 f7 bd ed a3 c1 bd a6 46 bf 3d
       0.19803244 -0.12089041 -0.094550945 0.09339647
000180 40 fa bf 3d 81 78 09 be 5f e1 5b 3e 8d 9d 82 bd
       0.09373903 -0.13424875 0.21472691 -0.06377707
000190 61 ae 3f be bc bc 33 3e d8 20 5c 3e f4 de 5f 3e
       -0.18718864 0.17552465 0.21496904 0.21862394
0001a0 7c f8 a0 3d ed 0e e6 3c 45 d9 be bd 20 9e 79 bd
       0.07859895 0.028083289 -0.093187846 -0.060941815
0001b0 09 12 3e be fc 39 eb 3d dc b0 2d be 67 fb 8f bc
       -0.18561567 0.11485669 -0.16961998 -0.017575933
0001c0 a8 db 1d be e4 02 ee 3d 8c 77 4d 3d 9d a0 34 3d
       -0.15415823 0.11621645 0.050162837 0.044098485
0001d0 fe 21 5e bd 8a 21 22 3e fc 5a 84 bd 1e ac b6 3d
       -0.054231636 0.15833107 -0.064626664 0.089195475
0001e0 cb 22 7c 3d 3a f8 3e be 8c 9d 01 3d 68 c9 bd 3d
       0.06155662 -0.18649378 0.03164439 0.09266931
0001f0 8d fa 40 be a8 62 12 3e 9e 76 2c be eb cf ce bc
       -0.18845578 0.14295447 -0.16842124 -0.025245627
000200 47 e1 78 be 7e 48 07 3e 76 da 11 39 3a de 59 bc
       -0.24304686 0.13211247 0.0001390966 -0.013297612
000210 ea 19 f4 3d b2 02 af 3c 44 79 0b bc 84 0a f9 bd
       0.11919005 0.02136359 -0.008512799 -0.12160209
000220 9b 9e 24 3e cf de 48 3e 8f 53 24 3c d1 e9 d0 bc
       0.16076128 0.19616245 0.010029688 -0.025502117
000230 1f 22 ba 3d 0d 8c 6b be f9 84 82 3d f6 12 d7 3d
       0.09088539 -0.23002644 0.06373019 0.105016634
000240 10 10 ae bd 04 e2 3a bd a6 a4 0c 3e 2d c5 dc 3d
       -0.084991574 -0.0456257 0.13734683 0.10779796
000250 e6 db d5 3d 4b 6c 48 3e 04 d8 3d 3d d4 c8 0c 3e
       0.10442333 0.1957256 0.046348587 0.13748485
000260 20 76 89 bd 50 47 e3 3d 07 4d 68 3e 13 d7 51 be
       -0.06711984 0.11097586 0.22685634 -0.204922
000270 83 8b 19 3e c3 85 9d bd 71 7b 05 bd 16 45 01 3e
       0.14994626 -0.07691529 -0.032588426 0.1262401
000280 3f 29 5a 3e a7 f1 ac bd c0 85 e6 bb 09 eb 28 3e
       0.21304797 -0.08444529 -0.007034987 0.16495909
000290 5b e1 bd bc b1 2b 18 3e e2 0f 45 3d d2 1d 99 3c
       -0.023178747 0.14860417 0.04811085 0.018690977
0002a0 af 68 36 be d2 3c 66 3e 2d 16 05 be e0 f9 80 be
       -0.17813371 0.22484139 -0.1299674 -0.2519064
0002b0 e7 1b 2d 3c 8d a4 f5 3d 80 aa 1e 3e 6f de a8 3d
       0.0105657345 0.11994276 0.15494728 0.08245551
0002c0 b0 f7 09 be 77 00 87 3d 6a e3 e5 3c 04 60 bd bc
       -0.13473392 0.065918855 0.028062541 -0.023117073
0002d0 b6 d4 c0 3d a9 d4 2e 3e 31 75 42 3d 4c f0 77 3d
       0.094155714 0.17073311 0.047475044 0.0605319
0002e0 e1 1f d4 3d c1 c7 c8 3d d2 2c 6a bd e0 83 d8 bd
       0.10357643 0.09803725 -0.05717165 -0.10572028
0002f0 3a 1f 12 3d 44 16 bd 3d ee 4f fd bd 46 77 38 be
       0.03567431 0.092327625 -0.12368761 -0.18014249
000300 fa 2a 1a 3e 68 9a 3b be 1d f0 25 be 57 0e 87 bd
       0.15055457 -0.1832062 -0.16204877 -0.06594532
000310 7e ea cc 3d e5 03 ff bd 9d ef 1c 3c 2d e4 c6 bd
       0.10005663 -0.12451915 0.009578613 -0.0971149
000320 77 2d 57 be 4d a9 2f be 0d 2b 73 bd 2b 35 f8 bd
       -0.21013437 -0.17154427 -0.05936723 -0.12119516
000330 e8 ca fc bd 88 02 89 bd a7 97 55 be 13 f4 0d 3e
       -0.12343389 -0.06689936 -0.20858632 0.13862638
000340 c2 59 7e 3d da b0 c0 bd 1e e6 70 be 0c d7 3c 3b
       0.06209732 -0.09408732 -0.23525283 0.0028814701
000350 ed e1 46 3c e4 c3 08 3e a1 3e 45 3c af 87 9f 3d
       0.012138826 0.13355976 0.012038858 0.077895515
000360 ac 37 08 3d af fc 44 be a4 b2 0a 3e 6c e5 a3 3d
       0.033256218 -0.19237016 0.13544708 0.08002743
000370 42 c9 b5 3a c4 3c f0 3d ca 29 fd 3d 74 0c 40 be
       0.0013869184 0.1173034 0.12361486 -0.1875475
000380 c7 51 2a be 04 98 a2 bd 24 62 15 3e 59 88 39 3d
       -0.16632758 -0.07939151 0.14588219 0.045296047
000390 52 07 a3 37 a3 4d 1d be ed 5a cc 3c 96 a4 b7 3c
       1.9434523e-05 -0.15361647 0.0249457 0.022417348
0003a0 1c 98 0f be b5 8b 73 bd 49 3c 39 be 5b 9b 74 be
       -0.14022869 -0.059459407 -0.18089403 -0.23887388
0003b0 21 1d fa 3d ea 8d b9 bd c3 32 bc bc ad 95 4a 3d
       0.12212587 -0.09060271 -0.022973424 0.04945915
0003c0 83 c2 df bd bc 13 b2 bd d2 da ef bc 49 20 f5 bd
       -0.10925772 -0.0869517 -0.029279146 -0.119690485
0003d0 fe 53 ee bc c1 de 11 3e 7a b1 04 3e 89 a7 b2 bd
       -0.029092785 0.1424513 0.12958327 -0.08723361
0003e0 59 40 40 be 55 0e 28 be 67 ed c0 bc ce 4d 2a 3e
       -0.18774547 -0.16411717 -0.023550702 0.16631243
0003f0 19 5b 23 be 62 a1 3a be cd ed 87 3b 27 16 11 bd
       -0.1595272 -0.18225625 0.004148221 -0.035421517

lstm.weight_hh_l0 f4 [120, 30]
000000 e7 67 fb 3c 4c 84 58 bd 37 99 d8 bd 07 aa a6 3d
       0.030689193 -0.052860543 -0.105760984 0.08137899
000010 47 72 a7 3d 6d 58 d0 bd fb 50 22 be 5c 75 cc bd
       0.081760935 -0.10173116 -0.15851204 -0.09983322
000020 7e e4 f0 bd 29 b4 0f 3e 6c ae 86 bd 39 db 0d be
       -0.117623314 0.1403357 -0.06576237 -0.13853158
000030 88 90 e1 bd d5 1c 37 3d 97 e2 03 3d 99 1b 52 3d
       -0.11013895 0.04470523 0.032198515 0.05129585
000040 93 e5 35 be 13 c4 4e 3d 72 d7 55 3e 34 d5 dc bd
       -0.17763357 0.05047996 0.20882967 -0.10782853
000050 dc 49 e7 3d ee 62 ce 3d 76 48 51 bd fe 6e 4e 3b
       0.112933844 0.10077463 -0.051094495 0.0031499262
000060 72 95 12 3d ce 4c 12 3e f8 bb 1c be 54 d9 db bd
       0.035787053 0.14287111 -0.1530608 -0.107348114
000070 f9 21 a1 3c 74 1e 5c 3d b5 ef f0 bd ca 03 75 bd
       0.01966952 0.05373998 -0.117644705 -0.059818067
000080 e4 07 c6 3d de 29 46 bd aa 4a 3f 3e 81 76 26 3e
       0.09669474 -0.04837977 0.18680826 0.16256143
000090 14 8e 3c 3d f9 e4 d3 ba 6b b0 82 be de ae f4 3d
       0.046033934 -0.0016166262 -0.2552522 0.11947416
0000a0 45 12 66 3e cd 08 ad 3d 81 b9 14 be 43 e7 b2 3d
       0.22467907 0.08448944 -0.14523889 0.08735516
0000b0 61 9e 01 3e 24 17 55 3d ab 3a 6e 3e 1d a9 61 be
       0.12658073 0.05202402 0.23264568 -0.22037168
0000c0 3e a7 33 3e c5 31 bd bd 9b d4 ee bd cf 0f 1d bc
       0.17544267 -0.092380084 -0.11661645 -0.009586289
0000d0 15 1a 12 be 53 fb 60 be 76 00 9d bd c8 6e 38 3e
       -0.14267762 -0.21970873 -0.076661035 0.1801101
0000e0 01 88 11 bd af 7f 0f 3e bf 84 68 3c b2 b8 dd 3d
       -0.035530094 0.14013551 0.014191805 0.108262435
0000f0 10 57 e9 bd 65 a3 1f be 4b 88 d1 bd aa 24 b3 3b
       -0.11393559 -0.15589674 -0.10231074 0.005467017
000100 80 47 16 be b7 81 08 be 65 18 b4 bc 6f b2 3f 3e
       -0.14675713 -0.13330732 -0.021984288 0.18720411
000110 ed b6 9b bd a3 54 ed bc a3 98 90 3d d7 7c b9 bd
       -0.0760325 -0.028971022 0.07060363 -0.090570144
000120 ad 00 22 3e 1d 39 80 3c 7f 7d 82 bd 39 65 6a 3d
       0.1582057 0.015652234 -0.06371593 0.05722544
000130 44 d9 77 bd 85 ad 88 bd 76 ca 83 3e 1f f3 67 be
       -0.060509935 -0.06673721 0.25740403 -0.22651337
000140 6c f7 d3 bd 58 46 2f 3d f2 ea 3e 3e b3 ef 2a be
       -0.10349926 0.042791694 0.18644312 -0.16693
000150 18 95 11 3d 5b f8 3b bd ba db 4a 3e dc dd 83 bc
       0.035542578 -0.045891147 0.19810382 -0.016097002
000160 78 f0 b3 bc 8b 1e f3 3d fe 61 48 be 40 37 91 bc
       -0.02196525 0.1187106 -0.19568631 -0.01772654
000170 6f 8c 70 3e 47 7f 94 3d 06 65 d8 3c c1 f9 82 be
       0.23491071 0.07250839 0.02641536 -0.25581172
000180 b8 11 fa bd 37 cd 37 3e 8b 4b 10 3e 11 f1 5b 3d
       -0.12210411 0.17949377 0.14091317 0.053696696
000190 b1 ab f7 bd 14 75 30 3e 43 10 63 3e 17 84 94 be
       -0.120932944 0.17232162 0.22174172 -0.29007027
0001a0 b6 67 3a 3c 81 a2 da 3d 00 88 9c bd da 93 31 3e
       0.011377266 0.106755264 -0.076431274 0.17341557
0001b0 81 df 87 bd 05 c4 29 3e 60 69 74 3d 5c da 23 be
       -0.06634427 0.16578682 0.059670806 -0.16001266
0001c0 38 64 4b 3e cd cd 87 3e 40 4d 57 3e 31 ce ab bd
       0.19862449 0.265242 0.21025562 -0.08388937
0001d0 ba be 39 3e a2 65 45 3d 2a e2 a4 3d 82 1d c9 bd
       0.18139163 0.048192628 0.0805095 -0.09820081
0001e0 f9 41 76 3b f7 53 9b bc 11 79 39 3d ba ec 0e 3c
       0.0037575944 -0.018960936 0.045281474 0.008723432
0001f0 5a 86 75 bd 18 b8 1a bc 27 d8 88 3d ee 95 bb 3d
       -0.05994258 -0.009443305 0.06681853 0.09159456
000200 9d 30 cc bd 44 7e 38 3e 2f c3 c7 3c db 45 1c be
       -0.0997021 0.18016917 0.024385063 -0.15261023
000210 4d 28 80 bd 67 79 29 be f1 4f f7 3c 30 d2 15 bd
       -0.06257687 -0.16550218 0.030189486 -0.036577404
000220 11 09 f4 bd 6e 3e eb 3d 25 31 81 3c 63 78 a3 3d
       -0.11915792 0.11486517 0.015770504 0.07981946
000230 c4 03 4d be 7d 8a 82 3e d8 e6 8c 3e 81 ea 09 3e
       -0.20020968 0.25496283 0.2751987 0.13468362
000240 f4 e2 62 be 50 51 bc 3d 5d f5 d6 3d 5c 4a 2c 3e
       -0.22156888 0.09195197 0.10496018 0.16825241
000250 92 7f ed bd ba 76 18 bd 54 84 ff 3c c0 1a 36 bd
       -0.11596598 -0.0372226 0.031191029 -0.044459105
000260 4b ad 77 bd 6b c0 35 be 44 8f cf 3b 96 49 3d be
       -0.060468 -0.17749183 0.0063342173 -0.18485102
000270 a3 3e 66 be 90 85 6c 3c f6 e4 cd bd 41 ce 28 3e
       -0.22484832 0.014436141 -0.100534365 0.1648493
000280 bb 0f 1d 3e 27 d4 20 3e 86 57 3c 3d 6d c7 dd bc
       0.15338032 0.1570593 0.045981906 -0.027072633
000290 49 2f 10 bd 14 5a 47 bc aa f4 d8 3c 99 be 6b 3e
       -0.035201345 -0.012167472 0.026483852 0.23021926
0002a0 2b 5b 15 3d d5 e8 a7 3d 5a 6c 29 3c ee 26 45 bb
       0.036463898 0.08198706 0.010340774 -0.0030083018
0002b0 48 b4 2a 3e b6 12 4c bd 54 71 ad bb 17 06 10 3e
       0.16670334 -0.04982253 -0.005293051 0.14064823
0002c0 6e e6 93 bc 72 14 83 bd b7 dc 4b be 7b fb d3 3d
       -0.018054213 -0.06400384 -0.19908415 0.103507005
0002d0 57 b5 01 be d0 5e 73 3e 38 a8 89 3c 75 40 94 bd
       -0.12666832 0.23766637 0.016803846 -0.07238857
0002e0 0b 9a 24 be 32 c3 89 bd 02 e4 c5 bd 9e 3c 17 bd
       -0.16074388 -0.06726684 -0.0966263 -0.036923043
0002f0 05 07 f7 bd 52 c3 8b bd 1d cd ee bd bd ff 87 bb
       -0.12061886 -0.06824364 -0.11660216 -0.0041503594
000300 35 e8 d9 bd 6e 7b 31 3e 5b db df bd 52 a4 ca bc
       -0.10639993 0.17332241 -0.109305106 -0.024736557
000310 23 b3 34 be 42 b4 ff bd 32 e2 f2 3d 10 46 77 3c
       -0.1764646 -0.12485553 0.118595496 0.015092388
000320 8b 1b 6e be 02 4c c9 bd cf 6a 29 3e cc c5 b3 bd
       -0.23252694 -0.098289505 0.1654465 -0.08777961
000330 c4 56 9b bd 36 f8 a1 bc 08 b0 30 3e d6 f5 16 be
       -0.075849086 -0.019771677 0.1725465 -0.14742216
000340 67 95 7e 3c 4c 12 aa bc f2 74 42 bd d8 b2 64 bd
       0.01553855 -0.020760678 -0.04747481 -0.05583462
000350 0c fc 18 3d 2c 97 f8 bd 53 ae 65 3a ee e5 26 3e
       0.037349746 -0.12138209 0.0008761633 0.16298649
000360 65 94 b5 3c 2d 3a 4c be db 64 04 3e 7e 9d c1 3c
       0.022165487 -0.19944067 0.12929098 0.023634668
000370 73 ea ff bd 2e 6a cf 3b 1b 2a fa bd 82 52 1c be
       -0.124958895 0.0063297963 -0.12215062 -0.15265849
000380 e0 f3 58 bd 3d de fa bd 63 32 30 bd 77 33 4c be
       -0.052966952 -0.1224942 -0.043016803 -0.19941507
000390 73 2f 92 be 04 11 d3 3d 63 c9 b7 bd cb 7f 14 be
       -0.28551826 0.1030598 -0.08973958 -0.14501874
0003a0 f2 08 a6 3d 55 64 2b be e3 56 5c bd c2 ff 6c 3e
       0.08107175 -0.16737492 -0.0537938 0.23144439
0003b0 08 a3 2e bc 3a 63 94 3d dc 70 fc 3c 44 54 f6 bd
       -0.010658987 0.072454885 0.030815534 -0.12027791
0003c0 28 0a 3d bd d9 30 7d 3e d2 8d 68 be e7 71 59 3d
       -0.046152264 0.24725665 -0.2271035 0.05308714
0003d0 8c e5 7a 3d 82 c8 3e 3d 67 9a a9 be b8 f3 11 be
       0.06125407 0.046577938 -0.33125612 -0.14253128
0003e0 fb 6a 8e be 67 5e 9d bc 3f cd 0a 3e 72 8d bd bc
       -0.27815995 -0.019210054 0.13554858 -0.023138735
0003f0 70 b6 32 be 6f cf 4a 3d 83 c5 b4 bd 44 db 8e 3e
       -0.17452407 0.04951423 -0.08826735 0.2790166

lstm.bias_ih_l0 f4 [120]
000000 ee 12 44 3e 18 60 b4 bb 7c 0c 91 bd 24 e9 95 3d
       0.19147846 -0.0055046193 -0.07082459 0.07319859
000010 75 44 1f bc 7b 32 15 3d be 1d 49 be a1 33 33 3e
       -0.009720911 0.036425095 -0.19640252 0.17500164
000020 2b ef 4a 3d f2 62 3a 3d 0c cd 0e 3e 4b b0 9f bd
       0.049544495 0.045504518 0.13945407 -0.07797297
000030 73 85 d5 bb 97 12 30 3e 04 c0 e7 3c 8e b3 fd 3d
       -0.0065161525 0.17194591 0.028289802 0.12387763
000040 a0 40 95 3d de 7d 35 be b0 15 49 be e9 ca 46 3e
       0.07287717 -0.17723796 -0.1963718 0.19413342
000050 eb 17 7d be 42 ce e1 3a 48 f9 6b 3d 41 b1 03 3e
       -0.24716155 0.0017227607 0.05761078 0.12860586
000060 42 98 3f bd 7f 41 c7 3d 1d ed a9 3b a1 ca 8f bd
       -0.046776064 0.09729289 0.005185737 -0.0702107
000070 90 a6 08 3d a1 84 25 be b2 f3 2e 3d df 99 0d 3e
       0.03336197 -0.16163875 0.042712875 0.13828228
000080 bc b0 bd 3d e7 60 14 3e d7 d1 93 bd 6a 30 8c 3e
       0.09262225 0.1449009 -0.07217758 0.27380687
000090 d4 13 e3 3d c9 1f a3 3c b2 ba 9f 3d f6 22 78 3c
       0.11087766 0.019912617 0.07799281 0.015145054
0000a0 d4 c7 3f 3d 16 8b 30 bb c5 c3 19 be 1f 61 cf bd
       0.04682143 -0.002693837 -0.15016086 -0.10125946
0000b0 47 c5 bf bc 3c cd 20 3e e3 b5 f0 ba bf 1c f7 bd
       -0.023409499 0.1570329 -0.0018364753 -0.1206603
0000c0 70 7b 02 3e fa 6d e3 3d 68 c2 6a 3d 30 8a d7 bd
       0.127424 0.11104961 0.057314306 -0.10524404
0000d0 04 a5 f0 3c 91 e5 33 bd a4 c8 c3 bc ca 5d c5 bd
       0.02937556 -0.043920103 -0.023899384 -0.096370295
0000e0 74 23 1a 3e cc 4e 38 3e 82 7b 92 bd 83 7f 71 bc
       0.15052587 0.17998809 -0.071524635 -0.014739874
0000f0 55 b7 ec bd d8 08 71 3e a7 2b 92 3d a0 1b 25 3e
       -0.11558405 0.2353853 0.07137232 0.1612382
000100 8a e3 46 3e d8 ec 15 3d 00 18 65 3d 8e 1b a3 bd
       0.19422737 0.036602825 0.05593109 -0.0796424
000110 82 49 09 be 70 32 bd bc 76 85 05 be 7d 4e d9 bd
       -0.13406947 -0.02309534 -0.13039193 -0.106106736
000120 b2 23 9e 3d f4 b7 d7 bd be ad 26 3e c4 3d 18 bd
       0.07721652 -0.10533133 0.16277215 -0.03716828
000130 7c d6 86 3d bc 29 b9 3d 3d a0 1d 3e 9f 03 d5 3c
       0.065838784 0.09041163 0.15393157 0.026002703
000140 21 79 97 3d 58 61 0a 3e f2 5f a8 bc ea 22 cf bd
       0.073961504 0.13513696 -0.020553563 -0.10114081
000150 37 03 ad 3d 1f 2e d0 3c 2a 5e b5 3d bc 82 a4 bc
       0.08447879 0.025412617 0.08855851 -0.02008187
000160 b1 c8 4a 3c 9d 9e 13 3e 9d 84 3f 3e 7a 94 2a 3d
       0.01237695 0.14415975 0.18702932 0.041645505
000170 97 09 36 be 4f 13 71 3d 75 ea 2b bd b2 5c dd 3b
       -0.17777096 0.058856305 -0.041971643 0.006755435
000180 74 1d 33 bd d3 5c 6b 3e 33 50 d8 3d b1 1d 81 bd
       -0.04372926 0.22984628 0.10562172 -0.06304491
000190 38 1d 57 3e 22 83 70 bd bb 5b a9 bd 43 14 01 3e
       0.2100724 -0.058718808 -0.08269449 0.12605385
0001a0 de 68 20 3d 27 b5 1c be c7 9b d3 3d 1e 2f 22 bd
       0.03916251 -0.15303479 0.103324465 -0.039595716
0001b0 3d 67 2c 3e 2a 73 e1 bd c3 7b 06 be ee 31 97 bd
       0.16836257 -0.11008294 -0.13133149 -0.0738257
0001c0 83 1b c6 3d 37 dd 81 3c 2e 37 e8 bd 5c 9e 8c 3c
       0.09673216 0.015852554 -0.1133865 0.017165355
0001d0 90 fb 48 3d 14 fe 50 3d 16 e2 35 3e 55 b0 bb bd
       0.049068034 0.051023558 0.17762026 -0.09164492

lstm.bias_hh_l0 f4 [120]
000000 45 9a ac 3c 37 fe f1 3d 0c 26 16 3e 14 81 05 bd
       0.021069655 0.11816066 0.14662951 -0.0325938
000010 e2 27 ca 3c dd de aa bd 16 37 4f 3d 72 00 3c 3e
       0.02467722 -0.08343289 0.050589643 0.18359545
000020 67 39 15 be 01 53 c3 3d 43 82 a8 bd d7 c0 07 be
       -0.14572679 0.09537316 -0.082279705 -0.13257156
000030 36 92 a4 bd 4f 74 17 bd 80 3c 21 3e 3d 7e 3f 3b
       -0.080357 -0.036976155 0.15745735 0.002921953
000040 e1 b7 17 be e7 3e 06 3e 43 d4 1c be f4 32 73 bd
       -0.14816238 0.13109933 -0.15315346 -0.059374765
000050 0d d2 7b bc 35 c5 05 be 66 b3 50 be 24 7b 79 bd
       -0.015369904 -0.1306351 -0.20380935 -0.06090845
000060 31 3c 97 3c b3 e2 ad 3d fe e5 3c 3e 32 ce c7 3d
       0.018461319 0.08490505 0.1844711 0.097561255
000070 e0 52 7e 3d a9 ff ad ba d2 8e 4a 3e 62 46 fa 3b
       0.062090755 -0.0013275045 0.19781044 0.007637785
000080 02 f7 70 bc 15 37 36 3e c7 95 09 3e 99 a4 04 bd
       -0.014707329 0.1779445 0.13436042 -0.032383535
000090 01 c2 66 3e b2 ae 9f 3d 45 8a f1 3d cb e6 b2 bd
       0.22534944 0.07796992 0.11793951 -0.087354265
0000a0 ad 19 6b bd 9e 1e e7 bd 60 6a ac bd 3d 12 c6 3d
       -0.057397533 -0.11285137 -0.08418727 0.096714474
0000b0 54 7f 6d 3e b9 f2 fd 3c 04 db d4 3d 38 64 dd bc
       0.23193103 0.030999528 0.103933364 -0.027025327
0000c0 dd 3a a8 bd 7e 5d e2 bc 1f cc 85 3e 9e 5a 5a 3d
       -0.08214352 -0.027632471 0.26132295 0.053309076
0000d0 45 08 77 3e a6 6a 4c bd 97 7a d9 3d b2 ff 62 3e
       0.24124248 -0.049906395 0.10619085 0.22167853
0000e0 c4 7f 6b 3d 4e 31 71 bd c0 e9 15 be be 88 15 bd
       0.057494894 -0.05888491 -0.1463995 -0.03650736
0000f0 a3 9a 4d 3e a2 5b 30 3e 16 6c 1a 3e a9 4d 8f bd
       0.2007852 0.17222455 0.15080294 -0.069972344
000100 67 2d ec 3d 3b 90 fe bd 04 c6 b4 bd 11 8e 1d bd
       0.11532097 -0.124298535 -0.08826831 -0.038465563
000110 aa 40 0c 3e 24 07 62 bd c3 14 a7 3d ca 37 76 bc
       0.13696542 -0.05518259 0.08158257 -0.01502795
000120 54 92 42 be 0e ff de bc 0c b8 67 3d a1 68 08 3d
       -0.19001132 -0.027221229 0.056572005 0.033302907
000130 a1 76 e8 3d e8 a0 95 3d bc 1d e3 3d 7b 27 e4 bd
       0.11350752 0.07306081 0.11089656 -0.11140343
000140 23 a6 2c bc 9b 94 f2 bd 4f 71 4c be 40 4d d3 bc
       -0.010537657 -0.118447505 -0.19965099 -0.025793672
000150 e2 e8 89 3d b1 17 dc bd 23 00 fd 3d df dc 4c 3d
       0.06733872 -0.10746706 0.12353542 0.050015327
000160 56 59 74 bd ee 11 30 be ff 89 9e bd 46 27 82 3c
       -0.05965551 -0.1719434 -0.077411644 0.015887868
000170 db 6f 34 be 8a 50 ff 3d b8 20 67 bd 7f 0a 88 3c
       -0.17620794 0.124665335 -0.056427687 0.016606567
000180 86 aa 84 3d ff fe 74 3e 13 13 16 bd 2c 4e 26 3e
       0.06477837 0.23925398 -0.036639284 0.16240758
000190 e2 77 0b 3e 40 74 0d be 5d 75 77 3d 02 0a 8e bd
       0.1361995 -0.13813877 0.06041466 -0.069355026
0001a0 0a 5c 41 3e 04 be 22 3e ab 24 41 3c ff 7e 19 3e
       0.18882766 0.15892798 0.0117885275 0.14989851
0001b0 07 16 34 bd 60 9b 07 bd 22 99 50 3e f0 2a bd 3d
       -0.04396632 -0.03310716 0.20370916 0.09236705
0001c0 d9 7f f2 bd db 5d 46 3e 42 00 d6 bd 2f ab 37 3e
       -0.11840791 0.1937174 -0.10449268 0.17936395
0001d0 21 20 0b 3d ad eb 1d be b8 18 f6 bd 1b ff ad 3a
       0.033966187 -0.15421934 -0.120164335 0.001327488

lstm.weight_ih_l0_reverse f4 [120, 15]
000000 07 50 f7 bd fa 40 c2 3d ae c1 0a be 9f ad 8e 3d
       -0.12075811 0.094850495 -0.13550445 0.06966709
000010 92 08 2a 3d 8b 09 17 be 5c 22 30 3e 32 3f 12 3d
       0.04151208 -0.14749734 0.17200607 0.0357048
000020 08 06 89 bd 3a cd 9b bd b6 ab 53 3d 41 de 02 bd
       -0.066906035 -0.07607503 0.05167743 -0.03195024
000030 2b ae cc 3d 9d 2d e0 3d bb 0d 2d bd 29 0c f5 3d
       0.099941574 0.109462 -0.042249423 0.1196521
000040 ef 17 0e 3d e3 b7 1e be 49 d8 a5 3d 14 7e e8 3d
       0.034690794 -0.15499835 0.08097894 0.113521725
000050 59 08 15 be c2 48 91 3c 74 89 31 be ab 3c bb bd
       -0.14553966 0.017734889 -0.1733759 -0.09142431
000060 fd 5d ab 3d d9 80 69 3e 87 76 81 bd 6d db bf 3d
       0.08367536 0.22803058 -0.063214354 0.09368024
000070 84 a1 a3 bd fd 67 a0 bd da 3a 91 bc be 06 70 bc
       -0.07989791 -0.07832334 -0.017728258 -0.014650045
000080 08 ea 3e 3c ae 30 29 be 53 40 09 3d 83 1b 98 be
       0.011652477 -0.16522476 0.03350861 -0.2970849
000090 ce fc f9 bb 9e 5f 77 be 00 59 55 3e dc d2 df bd
       -0.0076290136 -0.24157569 0.20834732 -0.1092889
0000a0 d4 e9 d1 3d fe 46 82 3d 80 19 c6 bd 54 bf 6a 3c
       0.10249677 0.06361197 -0.096728325 0.014327843
0000b0 3b 3e 95 bb f8 07 d0 bd 28 f9 12 be 32 d6 10 be
       -0.0045545376 -0.1015777 -0.14352858 -0.14144209
0000c0 98 a5 ab bd 17 2c dd bc 65 35 65 3e e9 44 0c be
       -0.08381194 -0.026998563 0.2238365 -0.13698162
0000d0 f5 97 ed 3d 9e 46 4e 3d a4 b2 0a 3d 7c 5b 29 be
       0.11601249 0.050360315 0.03386177 -0.16538805
0000e0 52 e3 4b be aa 8e dd 3d 59 92 74 bd 08 72 0d bd
       -0.19910935 0.10818227 -0.05970988 -0.034532577
0000f0 0f b7 bb bd 49 76 fd bb 95 2a 68 3d 7f 8b 02 3e
       -0.09165775 -0.007735048 0.056681234 0.12748526
000100 38 a8 ff 3b de b4 da 3d 96 02 92 3c d9 75 e9 3d
       0.0078020357 0.10679029 0.017823499 0.11399431
000110 4e 28 ac 3d 69 ec 4c 3e 97 e3 27 3e 27 97 1b 3d
       0.08406125 0.20012058 0.16395412 0.037985947
000120 ed ec 72 3d e1 57 74 be 40 9a 3e be 02 55 86 3d
       0.05930798 -0.23861648 -0.18613529 0.06559183
000130 90 da 99 3d 33 16 01 3e 04 1f bb 3d 88 34 3d 3c
       0.075123906 0.12606125 0.09136775 0.011548169
000140 eb 8a 8a bc 18 4a 8c bc 89 93 1a be 88 bd 14 3e
       -0.016911944 -0.017125174 -0.15095343 0.14525425
000150 e2 9a 8c bc c8 2d 93 bd 76 bb 4c be a1 2b db 3c
       -0.017163698 -0.071864665 -0.19993386 0.026754202
000160 5b b6 49 3d 99 53 36 bd d7 62 98 bd c1 a0 1c 3e
       0.049246173 -0.04451332 -0.07440727 0.15295698
000170 f3 ef b3 bd b5 f7 ff bd 28 ac cb bd 06 f9 f0 3d
       -0.08786001 -0.12498418 -0.099449456 0.117662475
000180 73 84 00 bd d3 37 51 3e 7c a3 6d bd dd 89 2e 3e
       -0.031376313 0.20431451 -0.05801724 0.17044778
000190 8b 89 49 bd 4a fd 6a 3d 7a 90 b7 bd c9 1f 4e 3e
       -0.049203437 0.05737046 -0.089631036 0.20129313
0001a0 b7 4e 92 bd a8 5a 95 bc e3 8d fc bd a0 ba b4 bd
       -0.0714392 -0.018231705 -0.1233175 -0.088246584
0001b0 3a f4 9e 3d e4 cd 0f be 9b 8f c9 bc 55 25 35 3e
       0.07761426 -0.14043385 -0.02460461 0.17690022
0001c0 2c 18 58 be b9 73 88 3d 69 85 24 3e 17 fd b7 bd
       -0.21102971 0.06662697 0.16066517 -0.0898382
0001d0 fd f5 15 3e 14 35 7b 3d 27 d9 d4 3d f0 57 0a 3d
       0.14644618 0.061329916 0.10392981 0.03377527
0001e0 68 29 1b be 13 51 0b bd e2 ea 4c 3e 5c d7 9f 3d
       -0.15152514 -0.034012865 0.20011476 0.078047484
0001f0 92 0b 57 be 65 51 c2 bd 94 5e c1 bd 01 13 ad 3d
       -0.21000507 -0.09488181 -0.094418675 0.0845089
000200 5f 99 7a bd f7 e4 1b be 8a 18 d5 bd 0f 83 4f bd
       -0.061181422 -0.15224062 -0.10405071 -0.050662097
000210 a7 bf 44 3d 3b 73 47 3e 0c 46 73 3d 74 4c c1 bc
       0.048034336 0.1947755 0.059392974 -0.023596026
000220 3d b2 de bd 0f a1 ce 3d 3c 29 92 bd 2d b2 04 3e
       -0.1087384 0.10089313 -0.07136771 0.12958594
000230 5e b3 fc bd f7 29 0c 3e 83 4e a6 bd bd 1f 6b bc
       -0.12338899 0.13687883 -0.08120444 -0.014350829
000240 5a a2 41 3e c1 8f 09 be 02 2e 3b bd c3 50 ee bd
       0.18909588 -0.13433744 -0.045698173 -0.11636498
000250 4e a7 30 3e ec a6 73 3d af ac f5 bd 57 76 e5 bd
       0.17251322 0.05948536 -0.119958274 -0.11204212
000260 60 3f 49 bd c1 a9 af bd 96 73 6e bc ad f3 90 bd
       -0.049132705 -0.085773 -0.014553925 -0.070777275
000270 1b b5 be 3c 94 5a 26 3e 3a 66 45 bd 43 7b 29 3e
       0.023279717 0.1624549 -0.048193194 0.16550927
000280 12 84 05 be 75 18 d6 3d 33 65 8f 3d d8 d2 23 3e
       -0.13038662 0.104538836 0.07001724 0.159984
000290 66 86 ec bc 22 fc 2f bd cb 6d 8f bd 95 87 6e 3e
       -0.02887268 -0.042965062 -0.07003363 0.23293908
0002a0 a9 0a f3 bd 40 ac 55 3e 87 bc 12 3e 1c 38 31 be
       -0.11867268 0.2086649 0.1432973 -0.1730656
0002b0 29 7c 25 3d 2c 28 07 3c 32 b2 b4 3d a0 1f 07 3e
       0.04040161 0.008249324 0.088230506 0.13195658
0002c0 d9 a9 f6 bd 0f f4 49 3e cc 53 27 be 76 33 4f 3c
       -0.120441146 0.19722007 -0.1634056 0.012646547
0002d0 d5 6e 8c bd 7e d1 13 be 3e 77 72 be c8 d0 2d bc
       -0.06857077 -0.14435384 -0.236783 -0.010608859
0002e0 02 f5 9b 3d 8d 7c 19 3e d9 e3 87 3c 14 79 6a bc
       0.07615091 0.14988919 0.016588138 -0.014311094
0002f0 ca 9b 47 3d eb 6c 15 be 2b 35 80 3e 54 59 90 bd
       0.048732556 -0.1459233 0.25040564 -0.07048288
000300 1f 78 39 3e 3e 0a 79 3d 99 73 cf 3c 2e 6c 3d be
       0.18112229 0.060800783 0.025323676 -0.18498299
000310 14 43 13 3e 93 c5 fe 3d 64 6c ad 3d 8b f3 05 be
       0.14381057 0.12440028 0.084679395 -0.13081186
000320 cf 45 0e be 24 5e 34 be 62 8b a1 3d 9b ff b1 3d
       -0.13893817 -0.17614037 0.07887913 0.08691331
000330 8d 5a 97 bd ae 33 27 3e 1f aa d4 3d 4e 0b 81 bd
       -0.07390318 0.16328308 0.103840105 -0.06300984
000340 af dc 70 bd 97 08 8c bd b5 a9 03 be a7 4c 11 3c
       -0.05880421 -0.06837576 -0.12857707 0.008868373
000350 4d 99 87 3d c4 fe a4 bd 4e 16 2b be 29 53 17 3d
       0.06621037 -0.08056405 -0.16707727 0.036944542
000360 12 24 d3 bd 34 d0 60 be d3 a1 4f be 56 25 14 3d
       -0.10309614 -0.21954423 -0.20276575 0.03616842
000370 bc f4 34 3e 6f 46 02 3e 6b 13 12 3e 7f c0 1e 3e
       0.17671484 0.12722181 0.1426522 0.15503119
000380 22 b5 dc 3d 5c e5 4a bd 17 d3 57 3d 74 f1 0f be
       0.10776736 -0.04953514 0.052691545 -0.14056951
000390 85 17 82 be 4e 0c 84 bd fc 10 98 bd 67 5c 15 3b
       -0.2540857 -0.064476594 -0.074251145 0.0022790672
0003a0 97 0c 92 bd e3 e7 cc 3d e5 4e 79 bd 4b e5 8a 3d
       -0.071313076 0.100051664 -0.060866255 0.067820154
0003b0 17 23 58 be fd d9 48 bb cf 21 32 3e b5 2e f7 bd
       -0.21107136 -0.003064751 0.1739571 -0.120694555
0003c0 64 ab 8d 3d 75 fc 00 bd f9 55 e1 3d 7d 63 b2 3b
       0.06917456 -0.03149076 0.11002726 0.005443989
0003d0 3b 4d 3b be ce 85 b8 bc 85 99 12 3e e9 c6 33 bc
       -0.1829118 -0.02252474 0.14316376 -0.010972717
0003e0 c6 04 22 3e 29 73 f4 bd d9 00 10 3e 3b ad b6 3a
       0.15822133 -0.119360276 0.14062823 0.0013937125
0003f0 2e 44 5f 3d 76 8f 86 3e 12 b5 00 bd 6a 52 3b bd
       0.05450838 0.26281327 -0.031422682 -0.045732893

lstm.weight_hh_l0_reverse f4 [120, 30]
000000 28 bb 04 be 84 8f f7 3d 6e 4d 00 3e bf bc 78 bb
       -0.1296202 0.1208792 0.12529537 -0.0037954298
000010 de 55 ba 3c d0 ff 0a bd 50 55 07 bc 16 73 ba 3d
       0.022746023 -0.033935368 -0.008260086 0.09103982
000020 f5 a8 9a 3d cf 65 c2 bc 0d f4 94 bd ea ee 6c be
       0.07551757 -0.023730187 -0.072731115 -0.23138013
000030 38 64 bf bd a9 d3 ad bd 6d 06 10 be b2 ca 4e be
       -0.09345287 -0.084876366 -0.14064951 -0.2019451
000040 21 89 fa 3c 43 f0 96 bd 40 87 0c be 21 d9 41 3e
       0.030582966 -0.07370045 -0.13723469 0.18930484
000050 f1 bd 43 be 71 e8 c4 3d 6c 3e 62 3c 22 62 39 3e
       -0.19115426 0.09614647 0.013808828 0.18103841
000060 23 dd f0 3c 76 cf 5f 3e 4c e9 ba bd ef d9 2b be
       0.029402321 0.21856484 -0.09126529 -0.16782354
000070 bc e5 d2 bd 59 1a 8f 3d 28 ad 03 be 55 a0 5f 3d
       -0.102977246 0.06987447 -0.12859023 0.054596264
000080 37 db e8 3d e5 ca 57 be 02 ce ff bd 54 9d 20 be
       0.11369937 -0.21073492 -0.12490465 -0.15685016
000090 78 fe 42 3e 76 f7 8e bd 1f 8c 93 bc f4 5e 88 bd
       0.19042385 -0.06980793 -0.01801115 -0.06658736
0000a0 c2 8f b6 3d 39 02 e7 bd 66 64 8c bd 52 1e 6a bd
       0.089141384 -0.11279721 -0.06855087 -0.057157822
0000b0 06 a9 65 be ff ee e5 3c c0 9c f4 3d 11 e8 ce bc
       -0.22427759 0.028068064 0.1194396 -0.025257142
0000c0 ce 48 74 3e 66 4e 6e 3e 2d 38 cc bd 80 24 52 3b
       0.23855898 0.23272094 -0.09971652 0.0032065213
0000d0 f8 cf 6c 3e fd 25 ab bd d3 c0 56 be 25 b1 d7 bc
       0.23126209 -0.08356855 -0.20971994 -0.026329586
0000e0 fd 8c a0 3c 65 93 f7 3d 10 f8 04 be da e4 ab bd
       0.019598478 0.1208866 -0.12985253 -0.08393259
0000f0 1c 22 19 bd 3d 0a c5 bd 42 10 eb 3d bb 9f 51 bc
       -0.037386045 -0.096210934 0.1147771 -0.01279443
000100 97 3c 74 bc 2c 95 be bd a8 62 97 3e fc 5e 7a 3d
       -0.014907024 -0.09305796 0.29567456 0.06112574
000110 a2 da 44 3e a0 18 f7 bd d8 ca 0a 3d dc 37 78 3e
       0.19224027 -0.12065244 0.033884853 0.24240059
000120 c7 8b a2 3c a6 d0 ea 3d 13 cd 59 be b4 01 93 bd
       0.019842042 0.11465578 -0.21269636 -0.07178059
000130 b7 7b 77 3a 53 62 8b 3d 18 26 88 3c 6b 47 62 be
       0.0009440737 0.06805863 0.016619727 -0.22097556
000140 26 09 9f bd 31 d5 70 3d 13 3e 3f bd 45 c6 89 be
       -0.07765417 0.058797065 -0.046690058 -0.2690908
000150 07 06 78 3e 7a 8d 72 bd 1c 22 19 be 39 58 08 be
       0.24221049 -0.059216954 -0.14954418 -0.13314904
000160 56 02 f6 3b 7f 89 8c 3c bc 73 96 3d a5 e7 8e 3e
       0.0075076027 0.017155407 0.07346293 0.27911106
000170 1f ca ae 3e 98 0e 8d bd e0 0b b2 3b 14 98 1d 3e
       0.3413858 -0.06887549 0.0054335445 0.15390044
000180 92 9e 74 3e b2 f9 bc 3b cf 62 fe 3c 4b 94 8d bd
       0.23888615 0.0057670707 0.031052975 -0.0691305
000190 a0 8f 81 bb 4f 36 9f bd 96 2c 0e be 1d fd 1b be
       -0.003953889 -0.077740304 -0.13884196 -0.15233274
0001a0 7b b9 09 be b2 82 95 3d 9b 27 6e 3e 80 ef 8a 3d
       -0.13449661 0.07300319 0.23257296 0.06783962
0001b0 47 af dd bd e9 8e 25 be c9 23 36 be 1e 93 f9 bd
       -0.10824447 -0.16167797 -0.17787088 -0.121862635
0001c0 86 8f e0 bd 0c 06 3d 3c 9e f2 3a 3c 57 2e 65 3e
       -0.10964875 0.011537086 0.0114103835 0.22380958
0001d0 49 b3 1e bc bf df 8b 3d 74 57 bc bc 46 2c 1f 3d
       -0.0096863 0.068297856 -0.02299092 0.03886058
0001e0 3a d3 ec 3d 62 af f8 3d a7 0c 73 3b 2c 7c e9 bd
       0.11563726 0.121428266 0.0037086399 -0.11400637
0001f0 c6 55 d3 3c 8f e0 23 be fd 0c 4c be 09 f9 1e 3e
       0.025797736 -0.16003631 -0.1992683 0.15524687
000200 98 4f 5b 3e 50 8d e8 3d 46 b0 c6 3d d1 10 ff 3d
       0.21417081 0.11355078 0.0970159 0.12454379
000210 8a 3d 4d be 9e 69 3f 3c 0b a6 2d bd 92 08 9c 3d
       -0.20043007 0.011682896 -0.04239468 0.07618822
000220 65 d6 db bd 8c cc 3c be db 71 8a bd 95 54 a7 bb
       -0.10734252 -0.18437403 -0.067599975 -0.0051065185
000230 40 0b 1d be 15 59 5f bd 59 76 03 3e e2 d5 9a bd
       -0.15336323 -0.054528315 0.12838115 -0.07560326
000240 a9 75 e8 3d cf 9f c1 bc 6d fc d8 3d 12 f7 30 bd
       0.11350567 -0.023635773 0.105950214 -0.043204375
000250 de 09 ce bd 8a 08 9a bd fc 6a 11 3e 22 6b ad bd
       -0.10060476 -0.0752116 0.14200968 -0.084676996
000260 b0 b4 6e bd c3 a2 72 be d9 18 03 3e 73 51 40 3e
       -0.058277786 -0.23694901 0.12802447 0.1878107
000270 0b 44 0d be 45 44 05 be 68 3e 29 be 73 c5 7c 3d
       -0.13795488 -0.13014324 -0.16527712 0.06171174
000280 07 ad c4 bd 08 ca c1 3b 41 2d 52 be 64 a0 fe bd
       -0.09603315 0.0059139766 -0.20525075 -0.12432936
000290 ec a3 b2 3c 46 f5 47 bc 89 b1 51 be 3f be 1d 3e
       0.02180668 -0.012204474 -0.2047788 0.15404604
0002a0 34 62 87 3d 0b 80 bb 3d 9e 81 ee bd fd e2 11 be
       0.06610528 0.09155282 -0.11645816 -0.14246745
0002b0 30 7a 1d 3e ab 0a b8 3d 0d 7b 3a be 58 77 59 bd
       0.15378642 0.0898641 -0.18211003 -0.05309233
0002c0 ff d8 5a 3d 82 2f 29 be 46 43 c8 bd 44 af 8e 3c
       0.0534296 -0.16522029 -0.097784564 0.017417558
0002d0 24 2e 49 bd 56 0b 68 3e 31 ac 8e bd 92 f3 01 3e
       -0.04911627 0.22660574 -0.06966437 0.12690571
0002e0 04 cf 4c 3e 88 2d 62 3d 28 49 43 be 15 0c 0b bc
       0.20000845 0.055219203 -0.19070876 -0.008486767
0002f0 5f 40 69 bd 5c 48 6b 3e c0 9d 05 3e 7f 60 38 be
       -0.056946155 0.22976822 0.13048458 -0.1800556
000300 5a b6 07 be 84 7e 29 bb 06 54 b3 3d 21 ad 3a 3e
       -0.13253155 -0.0025862763 0.087562606 0.18230106
000310 80 cf 5a be 8a d6 9d 3d 94 82 11 3e 8c cb 00 be
       -0.21368217 0.07706936 0.14209968 -0.12577647
000320 c4 22 c5 3d f2 c9 50 bd 3c 89 4a 3e 49 d2 18 be
       0.09625772 -0.05097384 0.19778913 -0.14923967
000330 68 28 0e bd ef 4b 41 be dc 73 ca bc 71 05 75 3e
       -0.034706503 -0.18876623 -0.02471345 0.23927857
000340 37 c3 db bd 23 51 10 3e 00 b7 9b bd 20 8d 86 bd
       -0.10730594 0.14093451 -0.07603264 -0.06569886
000350 d5 c9 81 bd 6a a0 03 3e bb 70 02 bd 72 b9 ed 3d
       -0.063373245 0.12854162 -0.03184579 0.116076365
000360 ef 1b 1b 3e f4 ff 80 b9 f3 60 b4 3c 00 a2 35 3e
       0.15147375 -0.00024604762 0.022018885 0.1773758
000370 d1 d2 e8 3d c7 a2 5f bd 80 d3 07 bd b5 f1 09 be
       0.11368335 -0.054598596 -0.033160686 -0.1347111
000380 a7 e0 9f bc 27 16 8a 3d 24 11 32 3e 98 17 ab 3c
       -0.019516302 0.067425065 0.17389351 0.020885274
000390 bd 69 86 bd 37 2a d9 3d 77 f8 38 be 11 6c 13 3c
       -0.06563137 0.10603755 -0.18063532 0.008997933
0003a0 11 29 8e 3c 59 ec 2c be 18 b9 26 3e 82 93 67 be
       0.017353566 -0.16887034 0.16281545 -0.22614864
0003b0 5b cd 34 3e 68 fe 32 be 94 b9 ee bc 1e da 2f 3e
       0.17656462 -0.17479861 -0.029141225 0.17173049
0003c0 d4 35 ab 3c 4b 29 48 3d a9 a0 48 bd 91 f7 31 3e
       0.02089969 0.048867505 -0.048981342 0.17379595
0003d0 56 9b cc bd 60 ea b4 bd b8 e6 9d 3d 19 82 cd bd
       -0.099905655 -0.08833766 0.07710022 -0.1003458
0003e0 ae 2a fc 3d a6 e6 85 3d 13 0b 94 3e 34 53 61 3e
       0.12312828 0.06538133 0.289147 0.22004396
0003f0 67 41 c9 3d 11 09 f5 bc 77 3d 3f 3c 57 6e 73 be
       0.09826928 -0.02991155 0.011672369 -0.2377256

lstm.bias_ih_l0_reverse f4 [120]
000000 84 80 0a bd c7 c2 98 bb 94 7b 09 3e 77 47 ea bd
       -0.03381397 -0.004661891 0.13426048 -0.11439412
000010 de 08 0c 3e 58 77 24 3e de a0 e2 3d bf d1 86 bd
       0.13675258 0.16061151 0.11065839 -0.06582975
000020 35 59 75 bd c4 21 de 3d b6 18 1c 3e 42 69 ef bd
       -0.059899528 0.10846284 0.15243801 -0.11689998
000030 06 12 ae bd 5a bb 82 3d 80 6d e2 bc 74 c7 3f 3e
       -0.084995314 0.06383391 -0.027640104 0.18728429
000040 c4 3e 02 3e bb 3b b0 bd 63 21 3b 3e 0c 16 d3 ba
       0.12719256 -0.08605143 0.18274455 -0.0016104593
000050 a4 3c 8f 3d 44 07 c1 bd 84 08 15 3e 40 84 8b 3d
       0.06993988 -0.09425214 0.1455403 0.06812334
000060 df 5f ab bd 6d 4b 36 3e 5d 7b 0e bd e8 1b 79 3b
       -0.08367895 0.1780221 -0.034785617 0.0038011018
000070 c3 e4 61 3d 8b 69 fa 3d 17 65 1c be d8 46 09 be
       0.055149805 0.12227162 -0.15272938 -0.13405931
000080 8a f2 94 3d 9c ce 49 3e 12 3e ec 3b 1b 0d 03 3e
       0.07272823 0.19707721 0.007209548 0.12797968
000090 10 8a 0e 3e 74 a3 84 bd 94 a0 0f bd 1b 0a 82 3d
       0.13919854 -0.06476489 -0.03506525 0.06349584
0000a0 ec 1f 4a 3e 91 ea 39 3e c8 1d 2e 3e bd 63 70 3e
       0.1973874 0.18155886 0.17003548 0.23475547
0000b0 4b 73 fc 3d 21 7d 07 3e d9 76 db 3d 69 4a 22 bd
       0.12326678 0.13231327 0.10716028 -0.039621744
0000c0 aa 71 b5 3c be ef 8c bd ba c6 ae bd 6b fc e8 3d
       0.022148926 -0.06881665 -0.08533998 0.1137627
0000d0 d0 c3 f6 3d c4 be 14 bd df 64 43 3e 6c de 25 3d
       0.12049067 -0.03631474 0.19081448 0.04049532
0000e0 32 40 31 be 61 78 b4 bd 76 31 53 be 4f e3 91 bc
       -0.17309645 -0.08812023 -0.20624337 -0.017808584
0000f0 d6 7e 41 bd 22 cb 78 bd db 25 f7 3c 13 6a d6 3d
       -0.0472401 -0.060740598 0.030169418 0.10469451
000100 9b 9f eb bd cf ae 1f 3e 02 9d 97 bd 89 f4 d8 3c
       -0.11505052 0.15594028 -0.07402994 0.026483791
000110 e8 7d 38 3e cc c0 9c 3d 1d 14 8f 3d ec cf 04 be
       0.1801678 0.076539606 0.06986258 -0.12969941
000120 5e 60 be 3d 4a 5a 8c 3b 1c a1 c2 bd 6a 60 13 be
       0.09295724 0.004283224 -0.095033854 -0.14392248
000130 eb 59 a3 bd 39 f1 02 3e 84 2d 8f 3d 91 2f 76 bd
       -0.07976135 0.12787332 0.06991103 -0.060103957
000140 a0 b1 e3 bd ff b6 57 3d b3 58 6d bd 8e 4d 95 bd
       -0.11117864 0.052664753 -0.05794592 -0.07290183
000150 4e 65 2e 3e 5d 08 af bd 27 03 b0 3d ec bc f1 bd
       0.17030832 -0.08546517 0.08594351 -0.11803612
000160 a1 f7 ca 3d 76 13 8b bd d5 85 9c 3d bd df 49 3e
       0.09910513 -0.06790821 0.07642714 0.19714256
000170 70 13 85 bc 2b 2d de bd 16 7a 20 3e 2f a1 13 3e
       -0.01624462 -0.10848459 0.15671572 0.14416955
000180 ed d1 cd bd 19 f2 21 3e b0 80 1d 3e c7 ed 20 3e
       -0.10049806 0.15815009 0.15381122 0.15715705
000190 40 59 50 3e 6b 81 00 bc 37 6d 77 bd 10 02 f1 bc
       0.20346546 -0.007843356 -0.06040689 -0.029419929
0001a0 aa 6e 1c bd 8b d5 79 3c 3c 8b b1 3d 64 88 1d 3e
       -0.038191475 0.0152486665 0.08669135 0.1538406
0001b0 38 4a 3e 3e 66 28 26 3c 95 56 6f bd 4b ed 2d bd
       0.18583 0.010141468 -0.05843218 -0.04246263
0001c0 03 93 51 bd 0c 12 08 3e 5b d2 93 3d 27 bd c5 3c
       -0.051165592 0.13288134 0.072178565 0.024138046
0001d0 8a 38 b2 3a b7 b2 eb 3d 44 39 2a 3d 4b 22 ed 3c
       0.0013597172 0.115086965 0.04155852 0.028947016

lstm.bias_hh_l0_reverse f4 [120]
000000 ce 02 a4 bd 22 fd c6 bd be 93 4f 3d 72 5e 11 3e
       -0.080083475 -0.0971625 0.050678007 0.14196184
000010 d2 27 e3 3d 45 89 75 bd cd 78 d2 3b fd 61 12 bb
       0.110915795 -0.059945364 0.006423092 -0.0022336238
000020 77 bc f4 3d c2 68 a8 3d 86 8a 46 3e e2 0e 3a be
       0.11950009 0.08223106 0.1938878 -0.1816974
000030 69 55 f3 bd b5 c1 68 3d f9 44 16 3e b0 aa 0e be
       -0.11881525 0.05682536 0.14674748 -0.139323
000040 6d 5a 20 be b3 32 1d be f5 6e 4a 3e df ee e9 3d
       -0.15659495 -0.15351371 0.19768889 0.11422514
000050 30 cd 64 bd 00 99 d4 bd b9 b8 b6 bd 4b 31 22 be
       -0.055859745 -0.10380745 -0.08921952 -0.15839116
000060 15 37 be bc ec 15 9c bc 98 12 f5 3d 48 d1 3f bd
       -0.023219625 -0.019053422 0.11966437 -0.046830446
000070 7d 77 b6 bd fb 0c 73 3e 36 7d f6 bd ea 10 f9 bd
       -0.08909509 0.2373542 -0.12035601 -0.12161429
000080 91 c1 61 3d 27 e8 38 bd d4 a2 02 3e ab 0d 6b 3e
       0.05511624 -0.045143273 0.12757427 0.22954433
000090 43 c9 df 3d e3 a3 c6 bd ed 5a 81 3a 1c 54 08 be
       0.109270595 -0.09699228 0.0009869017 -0.13313335
0000a0 0e 6f 43 3e 2f 7b 3e 3d bd 46 f4 bc 0a 3e 94 3d
       0.19085333 0.046504196 -0.029818887 0.072383955
0000b0 e1 ff 25 3e ce 85 3c 3e b2 ad c3 bc 4e d9 36 3e
       0.16210891 0.18410417 -0.023886535 0.17856333
0000c0 fc 76 de 3d 74 b8 33 be 79 55 47 3e 79 d2 72 3e
       0.10862538 -0.17550832 0.19466199 0.23713101
0000d0 e5 d0 9b bd 56 f9 2f 3e fe 7d 4d bd 9d 01 fe 3d
       -0.07608203 0.17184958 -0.050168984 0.124026515
0000e0 79 ef 25 3e 38 47 8e bd 04 b2 9b bd f0 28 00 3e
       0.16204633 -0.06947178 -0.07602313 0.12515616
0000f0 bf 62 40 3e 95 fc 3e 3d 5d 5a c9 3d 87 1d 9b bc
       0.18787669 0.0466276 0.098316886 -0.018934978
000100 6d ca 3f be eb da 5c 3d 52 5d 89 bc 87 3d 67 3c
       -0.18729563 0.053919714 -0.016768131 0.01411379
000110 10 74 88 3d 1b 9c e9 3d e7 f6 5c bd 11 82 39 3e
       0.06662762 0.11406728 -0.053946402 0.18116023
000120 63 20 96 3d 31 37 f3 3d ec e5 8b 3d 8d 13 b4 bd
       0.07330396 0.11875761 0.068309635 -0.087927915
000130 16 2e 97 3d 72 bf 0f be c4 52 11 bd 12 9c df 3d
       0.07381837 -0.14037874 -0.035479322 0.1091844
000140 02 fd a3 3d c5 bd ba 3d 13 52 ff 3d 7c d2 14 3c
       0.08007242 0.09118227 0.12466826 0.0090833865
000150 8f 5d db 3d cb a1 62 bd e2 6d 08 bd 00 8f bf 3d
       0.10711204 -0.05533008 -0.033307917 0.09353447
000160 b8 5c d9 3d a9 8a 54 3d 07 02 dc 3d 69 22 af bd
       0.10613388 0.05189005 0.10742574 -0.08551485
000170 76 3a 58 3e c5 b2 0e 3e 51 3b 65 3d 00 b7 90 3d
       0.21116051 0.13935383 0.05596477 0.070661545
000180 99 3b 5e 3e 43 47 f2 bd 96 09 b4 bd 95 1b 05 3e
       0.21702422 -0.11829998 -0.08790891 0.12998803
000190 a1 3e 35 3e 59 c8 10 bd 46 8c 1b 3e 30 6c 29 3e
       0.17699672 -0.035347316 0.15190229 0.16545177
0001a0 05 01 0c be ea 27 3a 3e ae 04 ef bd dc 2e 51 3d
       -0.13672264 0.18179289 -0.116708145 0.05107008
0001b0 d8 67 7f 3e 9a 68 72 bd ed f4 1e 3e e6 73 ad 3c
       0.24941957 -0.059181787 0.1552312 0.021173429
0001c0 c3 fd 09 3e a3 80 21 3e 94 6f 4d 3e be fa a1 bd
       0.13475709 0.15771727 0.20062095 -0.079091534
0001d0 9a 41 8b 3d 69 ba 79 3d de 2a 2b be 13 c9 9b 3c
       0.06799622 0.06096879 -0.16715571 0.019016778

lstm.weight_ih_l1 f4 [120, 60]
000000 0c 20 b4 3d 74 6f c7 bc e0 7e d5 3d 2b 13 f2 3d
       0.08795175 -0.024345137 0.1042459 0.11820062
000010 67 70 08 bd ee 1b d9 3d c1 5f 40 bc 16 ee bf bd
       -0.03331032 0.1060103 -0.0117415795 -0.09371583
000020 b7 76 1c 3e 89 a8 f4 bd 91 0a 2b 3e ec 4f 07 3e
       0.15279661 -0.11946208 0.1670325 0.13214082
000030 69 3e ac 3c a1 65 a9 3c 79 4b c6 3d f7 28 28 bd
       0.021025853 0.020678343 0.09682364 -0.041054692
000040 da 7d 48 bd 1a 47 db 3c 88 4e 3a 3d b8 67 10 be
       -0.048948146 0.026767302 0.04548505 -0.14102066
000050 6a d7 47 be a4 ac f2 bd 6c a0 27 be e0 42 36 3e
       -0.19515768 -0.11849335 -0.1636979 0.17798948
000060 54 83 a0 3d da 29 08 be 66 80 a0 3d 96 bb 35 3e
       0.07837549 -0.13297215 0.0783699 0.1774734
000070 04 39 aa bd a2 12 e1 3d eb d7 80 bd 88 18 db bd
       -0.08311656 0.10989882 -0.06291183 -0.10698038
000080 8d e9 63 bc f6 81 c5 3d 18 20 15 3e df c4 2f 3e
       -0.013910663 0.09643929 0.14563024 0.17164944
000090 a7 a9 0f be d2 94 7c 3d 71 af 08 be 1e 6e 16 be
       -0.14029561 0.061665364 -0.13348176 -0.14690444
0000a0 37 92 01 3e f4 e0 2b be fa be 6e bc b1 5d 13 3d
       0.12653433 -0.16785032 -0.0145719 0.035978023
0000b0 46 bc 76 bd 77 a5 0e be dc dc 6e 3d 74 8c fb bd
       -0.060238145 -0.13930307 0.058316097 -0.12282649
0000c0 a1 d7 b3 3d 27 13 fd 3d 1c bc 3b be 62 32 70 b9
       0.08781362 0.12357169 -0.18333477 -0.00022906953
0000d0 13 c4 73 3d c6 50 3b be 34 b5 2b 3d 36 fe c8 3d
       0.059513163 -0.18292531 0.041920856 0.09814112
0000e0 87 f7 08 be c5 dc ef bc dd 1e 3f be 64 90 c9 bd
       -0.13375674 -0.029280076 -0.18664117 -0.098419935
0000f0 71 c7 4c 3d 70 d0 ef 3d 4b 08 28 3e 5e 11 9c 3c
       0.04999489 0.11709678 0.16409414 0.01905125
000100 64 31 9a bd 95 a9 df bd 59 c9 61 3d d9 7f 2f be
       -0.07528952 -0.10921017 0.05512366 -0.17138614
000110 b7 99 1a be f5 80 22 bc 53 ee 44 be 46 16 76 3d
       -0.150977 -0.009918441 -0.19231538 0.060079835
000120 80 9d 3d bc 40 10 85 3d 9d 75 4a be 2e 19 f8 3c
       -0.011573195 0.0649724 -0.19771428 0.030285444
000130 19 1b 81 3d ac a4 ec ba f6 27 39 be 46 b1 1e 3e
       0.063039966 -0.0018054447 -0.1808165 0.15497312
000140 11 20 da bd dc 2e 15 bd f6 e4 09 bd ee 4f 7a 3d
       -0.106506474 -0.03642164 -0.03366562 0.061111383
000150 85 15 26 3d c5 f6 bf bd 63 7c bc 3d c2 02 31 be
       0.040547866 -0.093732394 0.092034124 -0.17286208
000160 74 bd 7b 3c 57 cd 91 3a 82 5a 98 3d 3b c6 c5 bb
       0.015364993 0.0011123818 0.07439138 -0.006035594
000170 f8 35 09 be 51 2d 39 be 01 06 58 3d a2 53 18 be
       -0.13399494 -0.18083693 0.0527401 -0.14875653
000180 78 9b 8d 3d 61 9e fc 3d c5 aa 5b be 49 68 fc 3d
       0.06914419 0.12334896 -0.21451862 0.12324578
000190 1a 65 a9 bb 63 15 0e 3e d5 39 cc bc 0c c2 ab bb
       -0.005169523 0.13875346 -0.02492992 -0.005241638
0001a0 70 0f 04 be e2 fe 79 3c 85 2e bc bd 8e 7c 7d 3d
       -0.12896514 0.015258523 -0.091885604 0.061886363
0001b0 03 b3 6b bd 8d 7e 01 3d 7a ea d4 3d 82 e6 35 be
       -0.057543766 0.03161483 0.10396285 -0.17763713
0001c0 a3 50 6a 3d e6 dc ad 3d 5b 83 30 3e b1 ad d2 3c
       0.057205807 0.08489399 0.17237608 0.025717588
0001d0 bc ec a2 bd 87 8b 8a 3d 22 a4 1a 3d 72 70 26 3e
       -0.0795531 0.06764894 0.037754185 0.16253832
0001e0 1b c0 b4 3d 47 96 3b bd a9 3e 02 be 79 d6 3f 3c
       0.08825704 -0.045797613 -0.12719215 0.011708849
0001f0 e5 83 58 bd 58 9c 60 3e 42 08 a9 bd a8 93 a4 3c
       -0.05286016 0.2193464 -0.08253528 0.02008994
000200 47 bf 8d bd b5 9b 44 3e 40 4f 80 bd 94 9a 12 bd
       -0.06921249 0.19200023 -0.06265116 -0.03579195
000210 3a cf ec bd 12 74 08 be 84 96 36 3e 04 5c c1 3b
       -0.11562963 -0.13325527 0.17830855 0.0059008617
000220 b5 a1 35 3d 57 ab 91 bc c9 74 88 3c 4e 0c 25 3e
       0.04434367 -0.017781897 0.01665725 0.16117975
000230 88 24 0e 3e e4 8a 82 bd b3 5d 28 3e a1 ab 01 bb
       0.13881123 -0.063741475 0.16441993 -0.0019786137
000240 e9 1b 8a bd 2a 6b 7a bc 39 2b 00 be 95 6d 74 bd
       -0.06743605 -0.015284339 -0.12516488 -0.059674818
000250 62 a3 01 be 0b 77 35 bd dc 97 88 3d 8f d9 78 3d
       -0.12659982 -0.04430298 0.0666959 0.060754355
000260 a3 e9 95 3c ce 39 84 3d 9a db ac bc 8e a5 23 be
       0.018299883 0.06456338 -0.021100808 -0.15981123
000270 8c d5 f8 bc 83 c7 5a 3c 08 74 e5 3c 9a 50 da bd
       -0.030375265 0.013353231 0.02800943 -0.10659905
000280 55 44 53 3e 52 fd 4b bd e4 e3 5a bd 8e 4f e9 3d
       0.20631535 -0.049802132 -0.05343999 0.11392127
000290 8a 76 18 be 6e ac 8f 3d 51 eb ab bd 31 a6 95 bd
       -0.14888969 0.0701531 -0.083944924 -0.07307089
0002a0 b4 68 08 bc a6 17 0d be 04 77 92 bd 51 89 af bd
       -0.008325744 -0.13778552 -0.07151607 -0.08571113
0002b0 fb 3e ec 3c ac 37 5e 3d e4 cc 2d 3e b3 f5 0c 3e
       0.028838625 0.05425231 0.16972691 0.13765602
0002c0 47 be 0f bd 44 63 11 3d 65 30 9e bd c8 89 01 3e
       -0.035093572 0.035495058 -0.07724074 0.12650216
0002d0 3a a5 9d 3d bd 70 25 3c db 80 82 3d 28 c4 7d 3d
       0.0769753 0.01009768 0.063722335 0.061954647
0002e0 74 02 c0 3d e3 f4 9b 3c 04 14 4f bd 1f d0 03 3e
       0.09375468 0.01903767 -0.050556198 0.1287236
0002f0 d0 1e 38 3e 54 85 16 3e 1f 11 4b bd ba d9 fe 3d
       0.17980504 0.14699298 -0.049576875 0.12443872
000300 9a be ca 3d db 37 ea 3d a2 d6 b1 3d 82 23 41 3e
       0.098996356 0.11436435 0.08683516 0.18861201
000310 45 d4 81 3d 34 09 0c bd c7 3b 21 3d 6d 77 c2 bc
       0.06339315 -0.034188464 0.03936365 -0.023738587
000320 78 d2 2e bd bb 79 6c bd 6f 23 e5 3c 92 ea 16 bd
       -0.042681187 -0.05773328 0.027970998 -0.036844797
000330 1a cf bc 3d f8 f7 4b be f1 67 a4 bd 16 cb 00 3d
       0.09219189 -0.19918811 -0.08027638 0.031443678
000340 0f 60 2b be de 0c 21 3e de 2b 1a bd dc ad d7 ba
       -0.16735862 0.15727565 -0.03763949 -0.0016455012
000350 d2 2a ee bd ce 39 2a 3e 51 81 76 3c 57 f1 cf bd
       -0.11629261 0.16623613 0.01504548 -0.10153454
000360 69 4e 3b be 9b ea ec 3d cc c8 94 bc d5 0e 6b bd
       -0.1829163 0.11568185 -0.018162154 -0.05738719
000370 c0 50 ed 3d ef 8f ce bd f2 cb 25 3d 12 e3 cf bd
       0.115876675 -0.10086047 0.0404777 -0.10150732
000380 ab 59 01 3e 6f 2e 47 3d 30 fa 98 bc 8c 04 07 be
       0.12631862 0.048628267 -0.018673986 -0.13185328
000390 84 d5 85 3d 28 24 41 bd 37 31 ef bc 73 85 cd 3d
       0.065348655 -0.047153622 -0.029198272 0.10035219
0003a0 0d 4e 9e bc ea 94 04 3e 1d 61 29 3d f8 bc 3e 3e
       -0.019324327 0.12947431 0.04135238 0.18626773
0003b0 d2 e0 11 be 49 06 4f bd ff 11 86 3d 54 5b f0 bd
       -0.14245918 -0.050543103 0.06546401 -0.117361695
0003c0 c0 2e b4 bd b8 4b 24 3d f7 6c d7 bd 7b 93 3c bd
       -0.08797979 0.040111274 -0.1051883 -0.046039086
0003d0 62 10 be bd 46 fd e9 3d c0 e7 88 bd d7 57 2e 3e
       -0.092804685 0.11425261 -0.06684828 0.17025696
0003e0 3b b3 ef bd ff 1f 83 bd 75 14 a2 3d 18 39 45 3d
       -0.117041074 -0.06402587 0.07914058 0.048150152
0003f0 22 c4 54 3d 17 74 b3 bd 2c 4d 04 be 37 fb 0b be
       0.05194486 -0.08762377 -0.12920064 -0.1367005
