model/LSTMY/MScheckpoint1.pt (torch, 229202 bytes, 31 tensors)

lstm.weight_ih_l0 f4 [120, 15]
000000 b2 f5 41 3e c4 d5 e1 bc 79 18 33 bd aa 40 c2 bd
       0.18941382 -0.027567752 -0.04372451 -0.0948499
000010 8e 13 ba 3d 27 b0 cd 3d 02 06 5c 3e 33 1e 06 be
       0.09085761 0.10043364 0.21486667 -0.13097458
000020 82 a0 38 bc 60 13 7a 3d d4 c8 f7 3d 8d 05 21 3e
       -0.011268737 0.061053634 0.12098852 0.15724774
000030 39 3c 84 3d 91 da 3b 3e 67 ca 32 bd c5 16 d3 bd
       0.06456799 0.18345095 -0.043650057 -0.10307077
000040 91 8e 68 bb be 01 52 3e 11 5a 43 3d 49 57 c6 3d
       -0.0035485367 0.20508477 0.047693316 0.09684617
000050 1a c5 27 3e de b5 18 3e 19 b0 78 3d 03 61 0d bc
       0.16383782 0.14913127 0.060714815 -0.008629086
000060 af d1 f6 3d ad 8a df 3d e2 af 20 be 8f ba 26 be
       0.12051713 0.10915122 -0.15692094 -0.16282104
000070 2a 64 84 bd de 8b 37 be 5a ae 2a be a5 d5 44 bc
       -0.06464417 -0.17924449 -0.16668072 -0.012013827
000080 09 c8 83 bd a5 1c d3 bb fd 56 e2 bd 5a 48 07 3e
       -0.06434638 -0.0064426237 -0.11051748 0.13211194
000090 2e 1a bc 3d a0 bc 48 3a 12 e9 97 bd 95 37 2c 3e
       0.09184681 0.0007657502 -0.074175015 0.16818078
0000a0 ff a6 eb bd 56 85 9e 3c 42 5d 8e bd c0 c6 ab 3d
       -0.11506461 0.019350689 -0.06951381 0.08387518
0000b0 4c 5d a9 3d 62 38 55 3d a7 b1 04 3e ed 07 3e 3e
       0.08269748 0.052055724 0.12958394 0.18557711
0000c0 88 16 a6 3d 03 1d 80 3d 96 fa dd bc 2f 8e 36 be
       0.08109766 0.062555335 -0.027097028 -0.17827676
0000d0 a8 7d bd bd ef 05 f1 bd 45 8e ac bd b5 4f 0a 3e
       -0.09252483 -0.1176871 -0.08425573 0.13506968
0000e0 ff 08 70 3d 01 10 79 be 84 2c aa bc eb 23 d0 3c
       0.05860233 -0.24322511 -0.02077318 0.025407752
0000f0 9b dd c2 bd e2 92 38 3b 30 71 79 3e 40 52 44 bd
       -0.09514924 0.002816372 0.24359584 -0.047930002
000100 e7 8b 09 3d f1 fb 88 3d 15 1f 44 bd 45 2e 13 3d
       0.033580687 0.06688679 -0.047881205 0.035932798
000110 36 3c 3e 3d ad a1 d8 bd fc 86 08 be d4 59 22 3e
       0.04644414 -0.10577712 -0.13332742 0.15854579
000120 d8 4c f6 3c 83 0c 19 3e 3b 08 ef 3d d0 4a 7f 3d
       0.030065939 0.14946179 0.11671492 0.062327206
000130 4d 22 32 be 81 50 55 3e 8a 67 26 be 50 98 8d 3d
       -0.17395897 0.20831491 -0.16250435 0.06913817
000140 f1 c0 f4 bd 79 9b 8e 3b e1 b7 a8 3d 8c 19 dc 3d
       -0.11950863 0.00435203 0.08238197 0.1074706
000150 97 69 cd bd bd ba 73 bc 0d 99 18 3e a9 0f 01 be
       -0.10029905 -0.014876065 0.14902134 -0.1260363
000160 5e 0e 15 3d da 49 54 be 0e 93 0b be 86 25 eb 3d
       0.036390655 -0.20731297 -0.13630316 0.114817664
000170 ab 37 41 3e 2d b2 60 3d e2 62 51 3e 61 4a c1 3d
       0.18868892 0.05485742 0.20447877 0.09438015
000180 93 60 e2 bd 2b e0 2f 3e 83 e1 e0 3d 49 34 a7 3d
       -0.11053576 0.17175357 0.10980513 0.081642695
000190 c2 91 e1 bd 9f a3 3f be ea d3 90 3d ce 6f e3 3d
       -0.11014129 -0.1871476 0.070716694 0.111053094
0001a0 21 55 9e bd 4b 93 bd 3d 59 37 13 3d 2b f0 04 3c
       -0.07731081 0.092566095 0.035941456 0.008113901
0001b0 27 d5 d9 bc 37 47 be 3d bd 27 0a be cf 00 3c be
       -0.026590897 0.09290927 -0.13491721 -0.18359683
0001c0 52 65 73 3d 28 b6 82 3e 19 4e ab bd d6 1b e3 bd
       0.0594228 0.255296 -0.08364505 -0.11089294
0001d0 2a 94 34 be 4d b8 00 bd 10 bd 8e be af 14 fc 3d
       -0.17634645 -0.031425763 -0.27878618 0.123086326
0001e0 4a 87 3c 3d 35 c8 42 3e 0a ab cd bd a6 6c f5 3c
       0.04602746 0.19021685 -0.10042389 0.029959034
0001f0 11 89 ef bd 69 84 2d be 71 b6 21 bd e2 72 a1 3d
       -0.11696065 -0.16945042 -0.03948063 0.0788324
000200 2b 6d e0 3c be 8a 79 bd 75 6f 1f 39 aa 86 a5 3b
       0.027395805 -0.06092333 0.00015204943 0.0050514536
000210 0f 52 90 bd 62 07 0d 3e 81 96 66 be f2 73 50 bd
       -0.070469014 0.13772348 -0.2251835 -0.050891824
000220 4e 1c 23 3e 1e a6 c1 bd 12 2d d9 bd 3f 64 d6 3c
       0.15928766 -0.094555125 -0.106042996 0.026170848
000230 66 ba 64 bd ed 4f 2e 3e 3c 2b 47 3e 5c d0 88 3d
       -0.055841826 0.17022677 0.19450086 0.066803664
000240 f1 03 05 3d 96 44 3c bd 1f 88 46 3d 72 34 24 bd
       0.032474462 -0.045963846 0.04846966 -0.04008908
000250 63 06 e6 bd de 60 e3 3d 4e df 6a bc 24 08 d3 bd
       -0.11231687 0.1110246 -0.014335467 -0.10304287
000260 66 75 84 bd bb f4 6c bd ac b9 ca 3d 39 8f b8 3d
       -0.064677045 -0.05785058 0.09898695 0.090116926
000270 3c 8e a2 bd 6e 93 3c 3d 26 1f 80 3d 0f a2 b2 3d
       -0.07937285 0.046039037 0.06255941 0.087223165
000280 14 e4 37 3e 62 85 c8 ba c6 04 cf 3d 3f 38 14 3e
       0.17958099 -0.001529854 0.10108332 0.14474581
000290 ba 45 5c 3d 87 7c 33 3e bc e5 04 3d 58 2a 20 be
       0.053777434 0.17527972 0.032445654 -0.15641153
0002a0 74 ac d3 bd 29 e1 62 3d 28 37 3e be c6 db 00 bd
       -0.10335627 0.05539051 -0.18575728 -0.031459592
0002b0 48 80 5a 3e fe 43 01 be 3b 45 18 3c b3 9f 85 3d
       0.21337998 -0.12623593 0.00929385 0.06524601
0002c0 ce 12 2f be 28 1f 27 3d 63 c9 df bd 0d 7a 24 bd
       -0.17097017 0.040801197 -0.10927083 -0.04015546
0002d0 1e 78 1d 3e b6 c1 80 3b e1 02 96 3b 0d 92 09 3e
       0.15377852 0.003929342 0.00457798 0.1343462
0002e0 a9 c2 4d 3e 3d 89 1c be 8b da 8c bd c1 f1 d7 bd
       0.20093788 -0.15286727 -0.06877621 -0.10544158
0002f0 12 cc 65 3e 71 6d a5 3b 09 75 5c 3e bc 16 d9 3d
       0.22441128 0.005048447 0.2152902 0.10600039
000300 20 a5 6d 3e 2a 3b b5 bd 99 dd 27 3e 75 87 00 3e
       0.23207521 -0.08849175 0.16393127 0.12551673
000310 b7 41 ac 3d b3 88 c6 ba 44 3d cb bc 51 3a e8 3c
       0.084109716 -0.0015146941 -0.024809487 0.02834812
000320 b1 9c 32 3e 5f de 33 3e 58 54 32 3e 6d d7 30 3d
       0.17442586 0.17565297 0.17414987 0.043174196
000330 61 98 5d 3e cf b5 92 bd 0b 79 2b be c9 af 2d be
       0.21640159 -0.071635835 -0.16745393 -0.16961588
000340 d6 73 40 3d 7c e4 63 3e a9 31 33 be f5 ae 0e be
       0.04698547 0.22255129 -0.17499413 -0.13933928
000350 64 da 73 bd b0 db 5b 3e 8a b8 8f bd 51 c1 4a 3e
       -0.059534445 0.21470523 -0.0701762 0.19800307
000360 bb 18 d1 3d 03 5b a8 3d ed c1 36 3d a4 7e a3 bd
       0.10209795 0.08220484 0.044618536 -0.07983139
000370 aa 38 1c 3d 13 66 ed 3a b9 be 4c 3e ac 23 72 be
       0.038139977 0.0018112086 0.1999463 -0.2364642
000380 b4 3a 9b 3d ce 4a 0c be 40 20 4b be 89 bc 3a 3e
       0.07579556 -0.1370041 -0.19836521 0.18235983
000390 1d b4 61 3e d3 f2 e6 bb 9a 76 59 be 01 37 43 be
       0.22041364 -0.00704799 -0.21236649 -0.19063951
0003a0 ab 2a 3f bd bf fc aa 3c 57 c7 3b be ed 49 5d bd
       -0.04667155 0.020872472 -0.18337761 -0.05402558
0003b0 e0 90 0f 3e 0d 7c b6 bd 8d ed ad 3d 4b 92 04 be
       0.14020109 -0.089103796 0.08492575 -0.12946431
0003c0 06 a0 91 3c 00 46 67 3d de 78 19 3d f6 5b f4 bd
       0.0177765 0.05646324 0.037468784 -0.11931603
0003d0 78 81 23 be 37 24 ae 3d ee a8 54 3d d5 e2 24 be
       -0.15967357 0.08503001 0.051918916 -0.16102155
0003e0 d0 ef 89 3d 91 4b 3d 3b 7b 7c a4 3d a5 2b d7 3c
       0.06735194 0.0028884152 0.08031555 0.026265929
0003f0 50 85 7e be 79 03 b0 3d 09 2d 82 3c 85 db b5 bc
       -0.24855542 0.08594412 0.015890615 -0.022199402

lstm.weight_hh_l0 f4 [120, 30]
000000 2c 0b 11 3e 80 e6 74 3d 20 82 24 3e 07 28 d5 bd
       0.14164418 0.059790134 0.16065264 -0.10408025
000010 28 30 ec bd bb 5e cf 3d 35 4e 3b 3d 40 72 c7 bd
       -0.115326226 0.1012549 0.04572888 -0.09738588
000020 b3 9b 33 be f0 c2 16 be 77 2a 0c be 2b 1a c0 3c
       -0.17539863 -0.147228 -0.13688074 0.023449978
000030 59 2a e8 3d 60 39 ef 3d 6f 44 a7 bd d2 bd 37 be
       0.11336202 0.11680865 -0.081673495 -0.17943504
000040 63 38 34 bd 69 f3 ff bd f4 ce f7 3d dd f1 48 3e
       -0.043999087 -0.12497599 0.1210002 0.19623514
000050 8e ea 4a 3e c2 3e 45 3e 52 88 18 bd 44 31 50 3d
       0.19816038 0.19262221 -0.03723938 0.050828233
000060 7a d4 c8 bd 48 2a d6 3d cc 53 a4 bd 6f a5 ea bc
       -0.09806152 0.10457283 -0.080237955 -0.028643338
000070 5d 63 46 bd 35 75 d6 3d 20 3d 93 3d a7 2f cc 3d
       -0.048434604 0.10471574 0.07189393 0.099700265
000080 99 ea ca 3d 5d bb bb 3d 87 71 e3 bd a8 ce 89 bd
       0.09908027 0.09166596 -0.11105638 -0.0672887
000090 ae 0a ad bd 70 0e ff 3b 5c 80 8d 3e 72 e7 14 be
       -0.084493026 0.0077837035 0.27636993 -0.14541414
0000a0 bf 34 84 bd 80 e3 03 3d d7 7a 1a be 87 5e 95 bd
       -0.06455373 0.032199383 -0.15085922 -0.0729342
0000b0 0e 30 e5 bc 51 65 46 be 2e e5 d0 bd ba 2a 97 bb
       -0.027977016 -0.19374587 -0.101999626 -0.0046132477
0000c0 bb 5b 18 3e 56 a7 40 3e e7 00 8e bd 5e e9 a2 3e
       0.14878742 0.18813834 -0.06933766 0.3181867
0000d0 07 97 86 bb cb 9d 4d be e4 a6 9e 3d ba 59 ba 3e
       -0.0041073593 -0.20079724 0.077466756 0.3639658
0000e0 b4 69 9b bd ba 04 0e 3e 85 0d 85 3e c5 92 7d 3e
       -0.07588521 0.1386899 0.25986877 0.2476302
0000f0 86 f8 b4 bc 1f 6a 45 bb 84 e0 f9 bd bd d8 e6 bd
       -0.022091161 -0.0030123068 -0.12201026 -0.11271808
000100 ac 02 51 bc 10 c8 2c 3d 76 14 06 bd f1 1d 1e 3e
       -0.012756985 0.042182982 -0.032734357 0.15441109
000110 3a ab 37 be 72 94 85 3e 75 f4 76 be 3c 62 b9 3d
       -0.17936411 0.26089817 -0.2411669 0.0905194
000120 2d 07 dc 3d c2 2d 87 3c a3 0f d0 bb c5 26 69 be
       0.10743556 0.016501311 -0.0063495203 -0.22768696
000130 b9 13 4c 3e ac 7d e3 bd db 35 a6 bd ec b3 27 3d
       0.19929399 -0.111079544 -0.08115741 0.04094307
000140 7c 70 4c be 47 13 bf 3c be 1b 5f bc 61 9b 5b bd
       -0.19964784 0.023324622 -0.013617454 -0.053614978
000150 30 0c 18 be 14 39 3e 3d fc 67 1e 3e c3 53 52 3c
       -0.14848399 0.046441153 0.15469354 0.012837353
000160 78 8b 74 bc ac fa 21 be 1b 9f 70 3e 03 87 8b 3d
       -0.01492583 -0.1581828 0.23498194 0.06812861
000170 f4 7c a4 3d e0 cb a4 3c cf e8 b1 3d f2 f7 e4 3d
       0.080316454 0.020116746 0.08686983 0.11180104
000180 e2 3e 70 3d 38 97 57 3e 4f 4e 28 3d b0 53 b3 bd
       0.05865372 0.21053779 0.041090306 -0.087561965
000190 fa 9a 0d be 2a 18 da 3d 65 fe 0b 3e 65 34 93 bc
       -0.1382865 0.1064914 0.13671263 -0.01796932
0001a0 e7 82 a6 3e 0e 2f 28 3e 89 dc 49 be 24 ce 2c 3d
       0.32521746 0.164242 -0.19713034 0.04218878
0001b0 9d c7 74 bd e7 ef 09 3e 43 25 ce bd e1 2a 42 3d
       -0.05976068 0.13470422 -0.10065701 0.047404174
0001c0 98 ed 59 bc 59 32 2a be 44 78 c1 3c f5 7c 08 be
       -0.013301276 -0.16620769 0.023616917 -0.13328917
0001d0 0a a7 d8 bd 7c e9 ee 3c 24 6a 28 be ca 50 04 bd
       -0.10578735 0.029164068 -0.1644674 -0.03230361
0001e0 16 a0 29 3e 9c 9e b5 3a 89 66 e9 bd db 10 e7 3d
       0.16564974 0.0013856473 -0.1139651 0.11282512
0001f0 13 3c 0a 3d 64 a9 78 3e 60 25 9c 3b 59 27 82 bd
       0.033748697 0.24283367 0.0047651976 -0.06355161
000200 e5 ed 84 3e 6b 3d 4f 3e 6d 93 05 3e 21 00 4f 3e
       0.2596275 0.20238273 0.1304452 0.20214893
000210 9a 1c 39 be e5 23 2f be 5f 32 20 be c7 05 87 3b
       -0.18077317 -0.17103536 -0.15644215 0.0041205618
000220 6d 5f f2 3d 43 21 e3 3d 94 e6 76 3e 54 3d f1 bb
       0.11834607 0.110903285 0.24111396 -0.007362047
000230 c7 44 92 3d ef 97 a7 3d 01 cf 0b bd 8b 2e 55 bd
       0.071420245 0.08183276 -0.03413296 -0.05204634
000240 5c 50 d1 bd 09 4a b6 3d af 53 b3 3d c5 7f 31 be
       -0.102204055 0.0890084 0.08756196 -0.17333896
000250 cd 18 d6 3d c6 de 28 3e 3d 94 36 3e c7 0c 50 3e
       0.10453949 0.16491231 0.17829986 0.20317374
000260 7f 88 0b bd 53 ba c7 3d 43 3f 75 3d d0 1f a4 bd
       -0.03406572 0.097523354 0.059874784 -0.0801388
000270 c8 b2 bb 3d a9 9d 05 be 08 92 79 3b b8 9b 07 3e
       0.09164959 -0.13048424 0.0038081426 0.13242996
000280 97 6b 36 bc c0 72 8b bd b7 e5 58 bb 44 fe da bc
       -0.01113405 -0.06808996 -0.0033095905 -0.026732571
000290 bb 93 89 3d 2c bb 01 be 53 c7 b4 bc 7e 8d 9e 3d
       0.067176305 -0.12669057 -0.022067701 0.07741831
0002a0 2e a9 1f bd 09 66 28 3e 66 5d 2f 3d 4d fe 3d 3d
       -0.0389797 0.16445173 0.04281368 0.0463851
0002b0 d9 40 95 3d 15 8f 45 3e 5e d6 35 be 45 81 42 bd
       0.07287759 0.19292863 -0.17757556 -0.047486562
0002c0 6d 25 14 3e 76 1d f5 3d 67 02 83 3d b3 6c 14 be
       0.14467402 0.1196851 0.063969426 -0.1449459
0002d0 01 47 72 bd 93 28 56 3e 4c e0 e0 3d 27 a5 c5 bd
       -0.059149746 0.20913915 0.10980281 -0.09650641
0002e0 7b 79 9f bd 15 cc eb bd 2f f7 7a 3d 8d db 90 bd
       -0.077868424 -0.11513535 0.06127089 -0.07073126
0002f0 57 c7 ca 3d 4c 59 09 be 9b c8 2f be 6c 10 0c 3e
       0.09901302 -0.1341297 -0.17166369 0.1367814
000300 ea 9a 0f bd b3 a2 72 3c 35 a2 c0 bd 1f 6d 3c be
       -0.035059847 0.014809298 -0.094059385 -0.18401001
000310 33 4d ae bc f5 81 14 3e d9 79 96 bc bc 5b 33 3e
       -0.021277046 0.145027 -0.018368648 0.17515463
000320 06 e3 67 3e d0 79 57 3b 5a 46 f1 3d 14 6d 85 3b
       0.22645196 0.0032879002 0.117809966 0.004071841
000330 fe 44 d1 3c 0b 66 80 bd 98 ba 06 be 01 3c 02 3e
       0.025545593 -0.06269463 -0.13157117 0.12718202
000340 cf f9 30 bd a1 82 2b 3e f3 62 4d 3c 37 86 27 be
       -0.043206986 0.1674905 0.012535798 -0.16359793
000350 55 d9 81 3e 5d a7 1e 3e 55 b7 30 3e dd 9b a2 3e
       0.25361124 0.15493532 0.17257436 0.3175954
000360 49 6f 40 bd 6c 94 61 bd 34 f7 17 3d 7c 78 8f 3e
       -0.04698113 -0.055073187 0.037100986 0.2802161
000370 ec 89 48 bd 65 50 67 3e 77 3a 05 3d 45 e7 db bd
       -0.048959658 0.22589262 0.03252646 -0.107374705
000380 1d 78 09 3e 34 77 9b 3e 0e 17 66 bb 96 95 48 3e
       0.13424726 0.30364382 -0.0035108957 0.19588313
000390 de b8 a1 3d 54 d0 9b 3d ae 90 59 be 3b 9a 30 be
       0.07896589 0.07608095 -0.21246597 -0.17246334
0003a0 59 72 50 3d 6c 89 a9 3e a4 d1 3a 3e db 61 8a 3d
       0.0508903 0.33112657 0.18244034 0.06756946
0003b0 72 8b 58 3b 59 14 26 3d e8 d6 cf 3d d8 7b 2e be
       0.00330421 0.04054675 0.10148412 -0.1703943
0003c0 b8 62 ce 3d cb 23 38 3e d6 cd 11 3e de 8d 8e bd
       0.10077423 0.17982404 0.14238676 -0.06960653
0003d0 54 0a 2e 3d 90 c8 33 3e 7b a6 5b bd d3 ec 2a be
       0.04249032 0.17556977 -0.053625565 -0.16691904
0003e0 0c 1f 59 3d 19 8c 6a be 12 5e 77 bd ed a5 09 3d
       0.053008124 -0.22905006 -0.060392447 0.033605505
0003f0 6a 17 ce bd 21 78 f5 bd 91 fc 22 bd e9 a4 e8 bd
       -0.1006306 -0.119858034 -0.039791647 -0.11359579

lstm.bias_ih_l0 f4 [120]
000000 8e 7d 6d 3e 13 70 65 bd ba 0c 32 3e 47 8b a0 3c
       0.23192427 -0.056015085 0.17387667 0.019597663
000010 5b 5c 61 bd e1 f0 20 be f0 b7 31 3e 9f cd 82 bb
       -0.055019718 -0.15716888 0.17355323 -0.003991797
000020 d5 f6 09 be 09 32 df 3d 21 11 00 3e 5c d6 6a bd
       -0.13473065 0.10898215 0.12506534 -0.057333335
000030 9d a7 ca bd 1b 44 d6 bd f7 09 8e 3e a9 35 fc 3b
       -0.09895251 -0.10462209 0.27741978 0.0076968265
000040 20 dd 14 be fc 00 df 3d 58 f6 b0 bd 29 01 94 3e
       -0.14537477 0.1088886 -0.08640736 0.28907135
000050 71 a4 75 bc 5f 91 91 bd 47 97 8e bd 0a 56 cc 3d
       -0.014992819 -0.071078055 -0.069624476 0.09977348
000060 da 16 7c 3b 38 5b cd 3d 2d d6 c6 bd 68 91 f1 3d
       0.003846577 0.10027164 -0.097088195 0.11795312
000070 30 13 f3 bd 5c a0 29 3e fb 60 0a 3e 40 c8 52 3e
       -0.11868894 0.16565078 0.13513558 0.20584202
000080 44 5d 5c 3d 53 f2 bf 3d eb 1f c2 3d 1a ea c4 3d
       0.053799883 0.093723916 0.09478744 0.09614964
000090 e1 5c e3 3d f5 ea 04 3e 17 33 bc 3b 44 d2 d8 3d
       0.111016996 0.12980254 0.005743395 0.1058698
0000a0 73 eb 26 be b9 82 4a 3d f8 21 83 3d 2b bf 5c 3e
       -0.16300754 0.049441073 0.064029634 0.215573
0000b0 13 44 74 3e c9 f6 e9 3d f3 c9 10 3d 29 50 8d 3e
       0.23854093 0.11424024 0.035348844 0.2760022
0000c0 a4 78 21 3d ef ce ef 3c 3e 94 b6 3e da d0 51 3d
       0.039421692 0.029273478 0.35659975 0.051224567
0000d0 bc ad 96 3d 5c 18 83 bd 99 d0 f8 3d 91 79 af bd
       0.07357356 -0.064011306 0.12149162 -0.08568109
0000e0 29 e1 e8 3b 49 39 47 be b8 09 ba bd b8 9a b2 bc
       0.0071069193 -0.19455446 -0.09083885 -0.021802291
0000f0 46 3c 83 3d d7 82 42 3e 4f 5b 88 bc b1 82 02 3e
       0.064079806 0.18995224 -0.016645102 0.12745167
000100 68 f8 3d 3e 93 ae 20 3e 4d bd da 3b 4e e4 46 3e
       0.1855179 0.15691595 0.0066753984 0.19423029
000110 46 37 11 3d 95 c2 c6 bd 69 00 01 3e a2 65 45 3e
       0.035453103 -0.09705082 0.12597813 0.19277051
000120 3d c4 33 bc 86 8d 04 be ce cf d2 3d 55 19 3f 3e
       -0.01097208 -0.12944612 0.10293542 0.18662007
000130 8b 09 56 3e 40 c5 8e 3d ff 94 d4 3b 25 fa 8c 3c
       0.20902078 0.06971216 0.0064874883 0.017209122
000140 35 ab f6 bd 3a d8 f8 bd 8a 16 ba bc 1e aa 94 bd
       -0.12044374 -0.12150617 -0.022715826 -0.0725901
000150 6d 26 2c be 28 d8 f6 bd 39 e0 75 bd 09 cc df 3d
       -0.16811533 -0.12052947 -0.06002829 0.109275885
000160 02 f1 5d bd fe c3 b6 3b 47 95 09 3b f0 ab fc 3c
       -0.05418492 0.0055775633 0.0020993517 0.030843705
000170 6b 16 9f 3d 59 60 b9 3c 3d 95 2b be 1f f4 0d 3e
       0.07767948 0.02262895 -0.16756149 0.13862656
000180 f2 b4 9c bd 05 6e 14 3e d9 72 36 3e 34 48 14 be
       -0.076517 0.14495094 0.17817248 -0.14480668
000190 11 0a 3b bd c2 d7 fd bc e8 cf 37 be c8 80 20 be
       -0.045663897 -0.03098667 -0.17950404 -0.15674126
0001a0 f4 0a 80 3e 86 9d 9b bd 18 58 13 3e 56 a7 17 bd
       0.25008357 -0.075984046 0.14389074 -0.03702482
0001b0 83 7d 70 3e a1 da 4c 3e e9 d0 0e 3e fd d8 56 3e
       0.23485379 0.20005275 0.1394688 0.20981212
0001c0 67 90 86 3d 37 0c 3f 3e 27 73 e6 3d 81 09 f6 3d
       0.06570511 0.18657003 0.11252432 0.120135315
0001d0 fc 95 bf bd 32 0e 5a be 36 02 40 3e bc c9 af 3d
       -0.09354779 -0.21294478 0.18750843 0.085834

lstm.bias_hh_l0 f4 [120]
000000 46 bf 37 3e 2d e6 4b be 11 ab 3a 3e 66 bc fd bb
       0.17944059 -0.19912024 0.18229319 -0.007743406
000010 52 a9 10 be 83 12 cb bd 27 ed 74 b9 cc 85 30 3e
       -0.1412709 -0.0991564 -0.00023358 0.1723854
000020 b3 75 54 bd 4e 69 2f be c1 82 26 3e 1d f8 17 be
       -0.05187006 -0.17130014 0.16260816 -0.14840741
000030 8d ba 26 3d 22 6e 10 be 5c b4 69 3e b8 08 48 bd
       0.040705252 -0.14104512 0.22822708 -0.04883644
000040 15 d8 a3 bd 49 d6 0f 3e 93 5e 12 3e 10 39 b7 3d
       -0.08000199 0.14046587 0.1429389 0.08946431
000050 f0 4b 54 3d 25 a5 de 3d fb ce 10 3e 46 88 30 3e
       0.051830232 0.108713426 0.14141457 0.17239484
000060 c8 fa 84 b9 63 b2 9e 3e 61 70 a4 3d dc 3e 1f be
       -0.00025363849 0.30995473 0.08029247 -0.15551323
000070 20 28 8c 3d 06 79 95 bd 2e 1f c9 3d a2 3f f7 3d
       0.06843591 -0.07298474 0.098204 0.12072684
000080 61 71 0d 3d 9c aa 17 3e 8f 19 1e 3e 19 23 92 3c
       0.034531955 0.14811176 0.15439437 0.017839001
000090 00 13 f1 3c 35 b5 02 3e 9a 48 2c 3d cc a1 7e bd
       0.029428005 0.12764437 0.042061426 -0.06216602
0000a0 1b 96 f3 3d fe 42 80 bc f7 5f d1 3d 61 d2 5e 3e
       0.11893865 -0.015656944 0.10223382 0.2175994
0000b0 bf 71 f0 3d f5 11 43 3e a9 42 bd 3d 94 0b 18 3e
       0.11740445 0.19049819 0.0924123 0.14848167
0000c0 84 f9 0b be dc 4d fc bb 5a 60 92 3e 1a 65 c4 3c
       -0.13669401 -0.0076997112 0.28589135 0.02397399
0000d0 98 5e 7b 3e 09 9c 34 be 75 33 2a 3e 29 6f fd 3c
       0.24547803 -0.17637648 0.16621192 0.030936794
0000e0 57 9b 83 3e d4 02 0e 3c 5a 15 57 3e 79 7e 30 3e
       0.25704452 0.008667666 0.21004239 0.17235745
0000f0 4a a7 3b be 91 04 a8 3d 77 9d a5 3d 51 54 00 3d
       -0.18325534 0.08203996 0.08086675 0.03133041
000100 c7 55 e0 bb 87 fb 97 bd 95 bb 90 3c dd cf 63 3e
       -0.006846163 -0.07421022 0.017667571 0.22247262
000110 8f a4 dc 3d 94 90 8e 3d c5 6f 2c be 7e 26 ca bc
       0.107735746 0.0696117 -0.16839512 -0.024676558
000120 25 d5 3f be 4d ff 09 3e 79 2a 50 bd 51 32 a6 bd
       -0.18733652 0.13476296 -0.050821755 -0.08115066
000130 c3 8a 33 3e fa b7 e8 3b 8a 4c 1d bd 7d 42 39 be
       0.17533402 0.00710201 -0.03840307 -0.1809177
000140 ba 99 95 3d e5 20 7d bd b9 30 b9 bd 70 18 4f 3d
       0.07304712 -0.06179895 -0.09042496 0.050560415
000150 0b 83 d9 bd 37 bc f5 3d 05 6f 19 3e 97 43 11 3e
       -0.106206976 0.1199879 0.14983757 0.1418594
000160 34 95 68 3d 2b 9c 76 bd 43 02 8c 3e 03 fc db bc
       0.056782916 -0.060207527 0.27345476 -0.026853567
000170 fb 1c 91 bd 77 22 a3 3d ba 0f 31 3e c6 cf 9a bd
       -0.07085606 0.07965558 0.17291155 -0.07559161
000180 2c 6a fb 3c 08 fb 33 3d 46 b6 6d 3e 9d 59 fa 3b
       0.030690275 0.043940574 0.23214063 0.0076400773
000190 bb 11 50 be 6b 58 49 3e b2 2a 1f 3b 00 b1 27 be
       -0.20319264 0.19662635 0.0024286923 -0.16376114
0001a0 78 88 21 3e 97 fe 66 bd 48 04 44 3e 61 23 4c 3e
       0.15774715 -0.05639514 0.19142258 0.19935371
0001b0 71 4b 40 3c 32 ae 27 bd d6 2b 24 bd 6f 65 65 bc
       0.011736737 -0.04093761 -0.040080868 -0.014001234
0001c0 78 f6 79 3e 38 78 0a 3e c7 cc 7e 3e 34 b3 9c 3e
       0.24410427 0.13522422 0.24882804 0.3060547
0001d0 2c 34 06 3e 3d 8d 84 3b a5 f4 14 bd cd 88 17 3e
       0.1310584 0.004045157 -0.036366124 0.14798279

lstm.weight_ih_l0_reverse f4 [120, 15]
000000 79 2f 57 bd a0 63 49 be db 65 af bd e1 70 c1 bd
       -0.052535508 -0.1966691 -0.08564349 -0.09445358
000010 a5 ec 18 be 21 e8 00 3d 17 2e 45 be 84 49 ff bc
       -0.14934023 0.031471375 -0.19255863 -0.031162985
000020 a7 4a ec 3c 0a f3 17 be 1b ad af 3d 38 a6 92 be
       0.02884419 -0.14838806 0.08577939 -0.2864244
000030 53 52 ad 3d ca ad 22 3d f2 84 b9 bd 5a aa 98 3d
       0.08462968 0.03971652 -0.090585604 0.07454367
000040 4b 41 0a be 4d 60 f4 3b b9 ea d4 bc aa 3b 31 be
       -0.1350147 0.007457769 -0.02599083 -0.17307916
000050 60 9d 85 3c be 51 29 3e b0 42 68 3d 0e 32 37 bc
       0.016310394 0.16535088 0.056704223 -0.011181368
000060 ef 3f dc bd 1e 0c 58 3e cc 4c 0e 3e 3a 41 8a bc
       -0.10754382 0.21098372 0.13896483 -0.016876806
000070 41 f2 d2 3d ff 23 a1 3d 79 85 33 3e ad 45 9d bd
       0.103001125 0.07868194 0.17531385 -0.07679305
000080 bb 4a 89 3d df ec 58 b9 e9 74 34 3d 1d b3 13 be
       0.06703707 -0.00020687607 0.044056807 -0.14423795
000090 f8 34 0a be 84 1c ad bd bd 5e dc bc 4c 8e f5 bd
       -0.13496768 -0.084527045 -0.026900643 -0.119900316
0000a0 16 1d 4b 3d a8 51 62 be 9b 6e 82 3c fa 84 03 be
       0.049588285 -0.22101462 0.015921881 -0.12843695
0000b0 10 57 44 bc 1e 33 0c be ac 0c 81 bd c2 b0 9f bc
       -0.011983648 -0.13691375 -0.06301245 -0.019493464
0000c0 61 b2 1a bc 58 41 1d be 47 35 2d be 9c 7b c0 3b
       -0.009441943 -0.15356958 -0.16914855 0.0058741104
0000d0 5e 41 a1 bc c8 3a 17 be c9 11 0e 3e f2 f3 fe 3c
       -0.01968449 -0.14768517 0.13873972 0.031122182
0000e0 94 2a 67 bd 30 31 e8 3d 94 56 61 bd ca c9 70 bd
       -0.05643709 0.11337507 -0.055014208 -0.05878619
0000f0 66 d2 4f 3d 49 06 fe bc 72 30 87 3d 95 bc 54 be
       0.05073776 -0.031008856 0.06601037 -0.20775063
000100 ed c7 f0 3b 25 02 5d 3e 43 4a 5e bd 9d f3 77 3d
       0.0073480518 0.2158285 -0.05427004 0.060535062
000110 ea 4c 6d 3d 1a be ab bd c6 96 68 bd 9f 92 63 be
       0.05793468 -0.08385868 -0.056784414 -0.222239
000120 39 5f 31 3e a1 4a 18 be 0d ec 25 be 3d 32 26 be
       0.17321481 -0.14872219 -0.16203327 -0.16230102
000130 ac 92 42 bc 9a 90 2c 3e 7c ca 39 3e c6 a5 8e bd
       -0.01187579 0.16852036 0.18143648 -0.069652125
000140 11 29 dc 3d 50 17 63 b9 d4 7c 19 be 60 bd b7 bd
       0.1075002 -0.00021657092 -0.14989024 -0.08971667
000150 3f 24 52 3e 79 20 4d 3e 40 95 fd 3d c6 f9 fe bd
       0.2052164 0.20031919 0.12381983 -0.12449984
000160 50 ef fd 3d a2 98 d4 bd ad 26 84 3c 48 17 04 be
       0.12399161 -0.10380675 0.016131723 -0.12899506
000170 f7 89 c4 bd 37 f1 e6 3d 9f 76 66 bd 36 1e 82 3c
       -0.09596627 0.11276477 -0.05626547 0.015883546
000180 da 1c 90 bd 7a a5 05 be 1a f3 31 bc cf fd 8b 3c
       -0.07036753 -0.13051406 -0.010861183 0.017088799
000190 7d 98 42 3d 7e 12 b1 bd d6 c7 84 3d 46 24 cb 3c
       0.047508705 -0.08646105 0.06483428 0.02479757
0001a0 cd 87 02 be 59 14 1f be 55 18 fe 3d 31 e4 6e bc
       -0.12747116 -0.15535106 0.12406985 -0.014580772
0001b0 61 7a 06 3e e4 6a 11 3e 42 1c 1b 3e ac 17 39 bb
       0.13132621 0.14200932 0.15147498 -0.002824287
0001c0 73 50 bf bd b5 5d 80 3d 87 1f cc bc 8c f8 15 3e
       -0.09341516 0.06267873 -0.024917377 0.14645594
0001d0 e5 36 6f bd 6b e9 d6 bd d5 8b 4c 3d 8e 59 0b be
       -0.05840196 -0.1049374 0.04993804 -0.13608381
0001e0 d1 7d 2a bc 00 85 2e bd 25 69 90 bd 57 72 e8 3d
       -0.0104059735 -0.042607307 -0.07051305 0.113499336
0001f0 bd 13 3e be 8a 78 27 bd 76 b0 71 3b 16 2c 1c 3d
       -0.18562217 -0.04088644 0.003687886 0.03812798
000200 54 6f 1e 3e 60 5d 67 3e 1d 4c 1b 3d 2c fc 93 bd
       0.15472156 0.22594213 0.037914384 -0.07225832
000210 3b a8 79 bd 28 8e 56 be b4 f2 53 bd bd 3f 15 be
       -0.060951453 -0.20952666 -0.05174513 -0.14575095
000220 ca 5e 94 3d 69 b2 2a be 25 8d 06 3e d6 eb 9b 3d
       0.07244642 -0.1666962 0.1313978 0.076133415
000230 56 44 2a bd 85 da 55 3e 1e c1 04 bd 3e 66 59 3b
       -0.041569076 0.2088414 -0.032410733 0.0033172513
000240 0c e9 5b be 2f af 7c 3d 5b 6b 09 3e 9e d2 ac 3d
       -0.21475619 0.061690506 0.13419859 0.084386095
000250 66 cd 57 3e 5f 24 fb 3d df a9 e1 3d b1 9c 2f 3d
       0.21074447 0.122627966 0.110187285 0.042874042
000260 6b 6a 88 bd 0e 02 14 3e bf b2 d7 bc 1a b8 2e 3e
       -0.066609226 0.14453909 -0.02633035 0.17062417
000270 b8 ae 19 3e 4b 77 b4 bd 5c bd 61 3e 9c 96 a9 3d
       0.15008056 -0.08811816 0.22044891 0.082806796
000280 ed bf cc bd 70 d6 0d be 8e a1 9d 3d fc e7 cd 3d
       -0.099975444 -0.13851333 0.0769683 0.10054013
000290 98 26 1a 3e 6b 02 d6 bd dc b3 a9 bd 8c 28 fd 3d
       0.15053785 -0.1044968 -0.082862586 0.12361249
0002a0 8c 45 0d 3e 3e f4 5a 3d 35 31 b3 bc ed be a2 bd
       0.13796061 0.053455584 -0.02187405 -0.079465725
0002b0 d6 eb 41 3d d7 78 ca bd 48 d4 1c be 41 26 8a bd
       0.04734405 -0.098863296 -0.15315354 -0.067455776
0002c0 c3 c8 ee 3d de 25 00 3e c5 b5 4b 3e a2 8e 91 be
       0.11659386 0.12514445 0.19893558 -0.28429133
0002d0 ce 11 96 3d 96 03 12 3d 81 29 ac bd 0e 35 0c be
       0.07327615 0.03564795 -0.08406354 -0.13692114
0002e0 3e 95 97 bd e0 8e 28 be 48 03 65 bd 16 a9 cb bb
       -0.074015126 -0.16460752 -0.055911332 -0.006215225
0002f0 a3 55 9e bd f7 66 bf 3d 8c 4a 54 3e 94 56 df bd
       -0.07731178 0.09345811 0.20731562 -0.10905185
000300 5f fb 9f bd b4 89 da bc 2a 63 fd bd 27 ee 82 bd
       -0.07811617 -0.02667699 -0.1237243 -0.0639308
000310 af 98 2a 3d 83 c4 75 bd 16 4c 8c 3e f3 1c 89 be
       0.041649517 -0.06000186 0.274018 -0.267799
000320 3a c3 02 be 0b 09 c6 3d c0 bb 4f 3d ad 45 29 3e
       -0.12769786 0.096696936 0.05071616 0.16530485
000330 a9 6e 8a bd cb 0d 1e bb 86 73 b3 bd 5f da 35 3e
       -0.06759388 -0.0024117108 -0.08762269 0.17759083
000340 39 ee 1a 3e 68 2d 38 bd 3b d2 15 bc 92 78 c1 3d
       0.15129937 -0.044965178 -0.009144361 0.09446825
000350 f6 b2 03 3e f6 01 1b bd b0 f7 99 be 08 4c f6 3d
       0.12861237 -0.037843667 -0.30071783 0.120262206
000360 ec c3 f0 bd ab 7d 13 3e 63 fe 98 3d 3b d6 e6 bc
       -0.11756119 0.14403407 0.074703954 -0.028178325
000370 67 a5 b9 bd f0 37 c0 bd ff 2d 07 3e a3 55 82 3d
       -0.09064751 -0.09385669 0.1320114 0.0636399
000380 bf f7 4a bc ba 2d 46 be 0a db 04 be df 3e 6f bd
       -0.012388169 -0.19353381 -0.12974182 -0.058409568
000390 2d b6 81 3e e8 bc a8 bd c6 0f fa bd d9 42 18 bc
       0.25334302 -0.08239156 -0.1221004 -0.0092932815
0003a0 76 dd a0 bd 01 6d 7e 3d 5a bb 17 bd cf ea 53 3b
       -0.0785474 0.062115673 -0.037043907 0.0032336002
0003b0 36 ce 19 3e 1d 3c e2 bd c7 45 b8 3d 67 ff 09 be
       0.1502007 -0.11046622 0.08997684 -0.13476335
0003c0 72 1c f7 3d df 44 94 3d 41 c2 83 be 6d 11 fc bb
       0.120659724 0.072396986 -0.2573414 -0.007692507
0003d0 48 40 33 3e b5 16 b0 3d e7 96 48 3d cb 04 25 3e
       0.1750499 0.08598081 0.048972037 0.1611511
0003e0 28 1c 98 bd 98 e3 46 bb 0c 66 06 be 0b f5 93 bd
       -0.074272454 -0.0030348059 -0.13124865 -0.072244726
0003f0 d8 47 f9 bd 11 97 4e 3e 47 95 d2 bc 23 92 42 3e
       -0.12171906 0.20174815 -0.025705947 0.19001059

lstm.weight_hh_l0_reverse f4 [120, 30]
000000 f9 f3 d8 3c 57 6a 8b 3d eb 5f 93 bd 72 f6 ba bb
       0.026483523 0.06807392 -0.07196029 -0.005705648
000010 98 f8 04 3e d2 79 a4 3d 0c 3d 88 bd 34 f6 ae 3d
       0.12985456 0.08031048 -0.06652269 0.08543053
000020 fc 51 be bd 78 4f 22 3e 1f f2 91 3e 86 9c 04 3e
       -0.09292981 0.15850627 0.28505036 0.12950334
000030 16 98 39 3d 06 24 71 be 68 3e 40 be 84 e9 d8 bd
       0.045311056 -0.23548898 -0.18773806 -0.105914146
000040 2b ad b1 3d bf dd 89 3c d0 79 84 be 6a 19 13 3e
       0.08675607 0.01682937 -0.25874186 0.14365163
000050 51 ab 0b 3e 58 0c 45 3e 44 e9 96 3d f6 cb 4f 3e
       0.13639571 0.1924299 0.07368711 0.20292649
000060 e1 89 5b bc ac 44 a8 3d 4e f8 a3 3b d9 43 40 be
       -0.013399572 0.08216223 0.0050039655 -0.18775882
000070 9e 09 3a 3e f7 d0 72 be 67 7c 2d 3e 60 e4 9b bd
       0.18167731 -0.23712526 0.16941987 -0.076119184
000080 8b ad 99 3d 86 5f d2 bd 7e db c0 bd 6f fd 88 be
       0.07503804 -0.10272126 -0.09416865 -0.26755854
000090 86 51 26 be ac 06 e8 bd c0 7f 87 be ea 91 3a be
       -0.16242036 -0.113293976 -0.26464653 -0.18219724
0000a0 33 d3 a4 bc 4c 15 2f be 49 01 3d 3e 6e 95 ea 3d
       -0.020120239 -0.17097968 0.18457521 0.11454283
0000b0 69 39 dd 3d 4a 11 bf 3d 96 f9 1b be 62 07 bc bd
       0.10801966 0.093294695 -0.15231928 -0.09181096
0000c0 de 29 00 be 4e 47 26 be d6 61 1c 3a 14 7b 3d be
       -0.12515971 -0.16238138 0.00059655064 -0.18503982
0000d0 3b 8e 45 3a 88 9b 00 3d 44 69 a3 bd c5 da 8e ba
       0.00075361476 0.031398326 -0.07979062 -0.0010898939
0000e0 b0 6c 40 be cf 9b 08 3e 88 e8 f1 bd be 34 b4 3d
       -0.18791461 0.13340686 -0.1181193 0.08799122
0000f0 ad a7 fc bd 11 e0 17 bd 6a 61 d1 bd 0c f8 3e bc
       -0.12336669 -0.03707892 -0.102236584 -0.011655819
000100 88 ab 36 3e e8 c1 1a 3d 44 05 09 be 76 c0 66 3d
       0.17838871 0.03778258 -0.13380915 0.05633589
000110 87 97 2d bb a0 22 13 3c ba 62 37 be 31 e0 9b bc
       -0.0026488022 0.008980423 -0.17908755 -0.019027801
000120 45 62 95 bc 5c 36 22 3c 01 ca 85 be 96 3f 26 3e
       -0.018235335 0.009900656 -0.2613068 0.16235194
000130 df df e4 3d 07 63 99 bc 08 8b cd 3d 15 5f b5 bc
       0.111755125 -0.018723978 0.10036284 -0.022140065
000140 c7 5a 00 3e 8a 2e a7 bd b3 82 f8 bd 4e 53 35 3e
       0.12534629 -0.081631735 -0.12134304 0.1770756
000150 b7 c2 23 3e 84 b0 26 be d7 e5 2b be 77 fb f2 3b
       0.15992247 -0.16278273 -0.16786896 0.007415231
000160 2d d2 08 3e 32 2a 60 be bd 9a 26 3e dc 4e 1b 3e
       0.13361426 -0.21891096 0.16269965 0.15166801
000170 71 17 a0 3e 11 39 80 be 8a 38 e0 3d a7 93 d5 bd
       0.31267884 -0.25043538 0.10948284 -0.10428553
000180 64 d3 ed 3c bf a0 23 3e 36 02 79 3d 23 ed 30 bd
       0.029031463 0.15979289 0.060793124 -0.0431949
000190 ed 37 ce bb 23 51 94 3d 5f d6 86 3d 88 d8 ad 3e
       -0.006293288 0.07242038 0.06583857 0.33954263
0001a0 d3 42 93 3c 43 e5 6d ba 19 a2 28 bd 2a 89 5a 3e
       0.0179762 -0.0009074995 -0.041170213 0.21341386
0001b0 a2 0c 51 be bf c2 4e be bb 95 e2 bd b3 cc 1a be
       -0.20414975 -0.20191477 -0.11063715 -0.15117149
0001c0 04 43 18 bd ec 51 08 3e 59 7a 17 bb 1a a8 ee bd
       -0.037173286 0.133125 -0.0023113696 -0.116531566
0001d0 26 c7 be be 3e ba 90 3d 22 dd 1c bd 20 46 96 3e
       -0.37261313 0.07066773 -0.038296826 0.29350376
0001e0 9b 24 9c 3d 17 d1 a7 3d cc a9 42 be a6 d6 9b bd
       0.076241694 0.081941776 -0.19010085 -0.076093
0001f0 82 32 1b 3e 62 9b 7b 3e 10 a6 c8 bd f4 25 bc 3d
       0.15155986 0.24570993 -0.09797299 0.091869265
000200 cf b6 20 3e bb 65 e9 bc 3e 6d 32 be 02 74 9f bd
       0.15694736 -0.028490892 -0.17424485 -0.077857986
000210 9b 5c fb 3d d2 88 6b 3e ef e2 48 3e f8 04 b8 bd
       0.122735225 0.23001412 0.19617818 -0.08985323
000220 e9 58 2f be 0b 47 7a 3d f6 6d fe bd b9 9d f3 3d
       -0.1712376 0.061102908 -0.12423317 0.118953176
000230 e5 9a 08 bd 6f 0f 9b 3e fd 9d 31 3e 41 c8 04 be
       -0.033350844 0.30285212 0.17345424 -0.12967016
000240 44 b6 03 bd 76 ce 00 bd 10 87 74 bd 58 74 54 be
       -0.032156244 -0.031446896 -0.05969912 -0.20747507
000250 b6 62 84 bc 17 06 0b 3d 01 c1 e1 3c 8c dd 2a be
       -0.01616035 0.033941355 0.027557852 -0.16686076
000260 60 47 44 3e 62 5b 64 be e0 b8 09 3e 34 17 f1 bb
       0.19167852 -0.22300485 0.1344943 -0.0073575024
000270 d7 b3 76 be 29 7c 90 be ea 50 17 be 20 3e 37 3e
       -0.24092041 -0.28219727 -0.1477696 0.17894793
000280 57 48 39 3e a8 96 e6 bd 51 92 a4 bd c8 14 1c 3e
       0.18094002 -0.11259204 -0.0803572 0.15242302
000290 f3 3b cd bd 37 e0 31 be 8f 2d 19 3c 00 29 35 be
       -0.100212 -0.17370687 0.009349241 -0.17691422
0002a0 3b fb 19 be 74 9e 84 be 5a 7b c5 bd 4d 50 1e 3e
       -0.15037243 -0.2590214 -0.09642668 0.1546032
0002b0 93 82 a8 bc 7a 69 52 be f3 62 f6 3d 7a da 6d 3d
       -0.020570075 -0.20548049 0.12030592 0.058069684
0002c0 c9 4f 90 ba 71 ac 85 bc 6a 93 ef bd eb be 67 3e
       -0.0011010106 -0.016317578 -0.11698039 0.22631423
0002d0 22 00 a7 3c 21 39 8b bd 0f 2d 02 bd 5e fa 67 bd
       0.020385806 -0.06798006 -0.031781252 -0.056635253
0002e0 89 55 3d be 31 19 86 bb 57 dc df bd fa 9a a9 3d
       -0.1848966 -0.0040923585 -0.10930698 0.082815126
0002f0 da e5 b3 bd c2 1c 34 be 44 b0 08 3e d0 35 97 3d
       -0.08784075 -0.17589095 0.1334849 0.07383311
000300 ab 1d 98 bd 5c ea 36 be 73 13 8d 3d 47 fd 1b 3e
       -0.07427534 -0.17862839 0.06888475 0.15233336
000310 94 5f ee bd 6c 0f a2 3c 9c bc 37 3e d0 ef 77 bd
       -0.11639324 0.019782744 0.17943043 -0.060531437
000320 cd f6 02 be 58 e2 a6 be 2c 8b 91 bd 14 52 3f be
       -0.1278946 -0.32594562 -0.07106623 -0.18683654
000330 97 ba 98 bd dd eb f3 3d e3 5a 94 3d f3 72 b3 bd
       -0.07457464 0.11910222 0.07243898 -0.08762159
000340 25 f0 0b be 5c 1e 23 3e 26 6f 17 3e e5 d2 61 bd
       -0.13665827 0.1592955 0.14788494 -0.055132765
000350 bf c6 3d 3e 8a a7 f9 bd a4 7b 12 be ca 78 07 bd
       0.18532847 -0.12190159 -0.14304978 -0.033074178
000360 88 3d 65 bc 0e 77 46 be 49 94 55 3d c2 b9 8e be
       -0.013991721 -0.19381353 0.05214337 -0.27876097
000370 bc 93 43 3c cd 0f 5e 3d e5 fe 89 3d 5c 1a 5c be
       0.011937078 0.054214288 0.067380704 -0.2149443
000380 47 53 02 3e 44 1a b6 3d 51 d5 27 bd 8d 42 41 3d
       0.1272708 0.088917285 -0.04097492 0.04718261
000390 41 6c 98 3c 3e 85 ee 3d c2 a9 47 bc 19 2d 55 bd
       0.018606307 0.11646508 -0.0121864695 -0.05204496
0003a0 4a ed df bd a3 61 45 3d b0 4e ee bd 62 be 70 be
       -0.10933931 0.048188817 -0.11636102 -0.23510125
0003b0 d3 86 0a 3d a7 ef 78 3e 17 84 bb bd 99 40 f9 bd
       0.033819985 0.2431017 -0.091560535 -0.12170524
0003c0 fc 6f cc 3d 2a ae 34 3e 9a c9 06 3e a9 37 47 3e
       0.09982297 0.17644563 0.13162842 0.19454826
0003d0 73 ef a9 3d 92 1c 3b be fe e3 3d be fb 1a 00 be
       0.082976244 -0.18272617 -0.18544003 -0.12510292
0003e0 3d 87 7e 3e c2 c3 87 3d 2e e1 a2 bd 88 1b a3 bc
       0.24856277 0.06629135 -0.07953106 -0.019910589
0003f0 0b 2e 44 be e9 cb 19 3e c8 16 38 be ed f6 35 be
       -0.19158189 0.15019192 -0.1797744 -0.17769976

lstm.bias_ih_l0_reverse f4 [120]
000000 cf 3b 09 be 11 64 1a bc 42 c8 96 3d 02 18 47 3e
       -0.13401721 -0.009423272 0.07362415 0.19442752
000010 ca 9e 17 bc 5b 5e cd bc 99 64 e3 bb bd 07 d0 3d
       -0.009254167 -0.025069406 -0.0069394824 0.10157726
000020 53 07 0b 3e 39 fa 3f 3d 15 9c 89 3d cf 50 36 3e
       0.13577013 0.04686949 0.067192234 0.17804264
000030 78 2d ad 3d be 9f 91 3d ab cc 08 be cd df b8 bd
       0.08455938 0.071105465 -0.13359325 -0.090270616
000040 76 42 d7 3d ef 03 b2 bd 03 92 0a 3e 92 0f cd 3c
       0.10510723 -0.086921565 0.13532262 0.025031839
000050 6b ed ef 3d 8a 03 12 be 7a b8 7e 3d 55 09 05 be
       0.11715206 -0.14259163 0.06218765 -0.12991841
000060 59 02 28 be ba 28 8f 3d 46 fa db bd b8 81 1d be
       -0.16407146 0.0699019 -0.10741095 -0.15381515
000070 07 86 25 3e 14 15 ab 3d 8d 0b 07 3e 7c 13 20 3d
       0.16164409 0.0835363 0.13188 0.03908108
000080 f7 60 e0 bb 76 21 bb 3e 03 81 d2 3d 85 2a 5d 3e
       -0.0068474966 0.36548966 0.10278513 0.21598251
000090 17 f1 32 3e cb 17 5f bd c5 04 60 bd 5d 5c e7 3d
       0.17474781 -0.05446605 -0.05469205 0.11296914
0000a0 fc 84 8c bd 50 32 89 bd 17 a5 de 3d be fc 34 3e
       -0.06861302 -0.066990495 0.10871332 0.17674538
0000b0 6d 18 3f 3d 97 86 bf 3d e3 66 94 bd d4 98 f6 3d
       0.046654154 0.09351843 -0.072461866 0.120408684
0000c0 37 0e db 3d 05 4a ca bc 9d ee c2 bc 75 ca f8 3d
       0.10696071 -0.024693498 -0.02379542 0.121479906
0000d0 12 e4 d2 ba 10 23 09 3e 1c 66 99 3c 73 93 1c be
       -0.0016089699 0.13392282 0.018725447 -0.15290622
0000e0 50 4a dd 3d 4e 02 f5 3d 49 5b 1a 3d 61 f2 b0 bd
       0.108051896 0.1196333 0.037684713 -0.0863998
0000f0 f6 28 3c 3e 31 d3 ce bd c4 93 06 be 84 02 cd bd
       0.18375 -0.10098875 -0.13142306 -0.100102454
000100 4a d2 9a 3d 27 70 a6 bc 2b 06 75 bd c5 98 95 bb
       0.07559641 -0.02031715 -0.059820335 -0.0045653307
000110 66 2a b4 3d c4 c8 05 3e 76 d3 d7 bd 43 6c c8 3d
       0.08797149 0.13064867 -0.1053838 0.09786274
000120 78 8c 8d bd 89 b6 16 3c ff 32 b6 3d 06 af 84 3d
       -0.06911558 0.009198793 0.088964455 0.064786956
000130 4e ed 9f bd d7 7a bc 3d a8 55 0f 3e 76 58 87 3d
       -0.07808934 0.09203117 0.13997519 0.066086695
000140 3f 2b 3e 3d 86 5a 95 3d c5 08 0c 3e 71 d4 f3 3d
       0.04642796 0.072926566 0.1367522 0.11905754
000150 53 49 bd 3d fc 92 bf 3c c7 ea 8e bd 92 e1 1c bd
       0.09242501 0.023385517 -0.06978374 -0.038301058
000160 78 28 06 3e 50 b4 ff bd a5 74 b7 3c 8f 76 ab bd
       0.13101375 -0.12485564 0.022394488 -0.08372223
000170 2b 8b 18 be 48 be ff 3d 6b d9 00 3d 19 f1 56 bd
       -0.14896838 0.12487465 0.031457346 -0.052476022
000180 03 16 37 be 49 de ce bd 0b fa 97 bd 34 bf c4 3b
       -0.1787949 -0.10100991 -0.07420739 0.0060042385
000190 ca 2a 41 3e 6b c9 b4 3c a2 06 a5 bd 11 81 80 3d
       0.18863979 0.0220687 -0.08057906 0.062746175
0001a0 11 41 94 bc f0 aa b5 bd 7d 3a f7 bc 68 51 d0 3b
       -0.018097432 -0.08870494 -0.030179257 0.0063573606
0001b0 10 cf 1f 3e 64 1f ce 3c 7b 53 d0 3d 62 9e de 3d
       0.15606332 0.025161453 0.10172173 0.10870053
0001c0 77 ff cb bd 7f 73 4c 3d c4 17 d9 3d a9 5f 64 bc
       -0.099608354 0.049914833 0.10600236 -0.013938823
0001d0 d8 6a f9 3d 12 48 96 3d 03 54 68 bd ee cf ef bc
       0.12178582 0.07337965 -0.056720745 -0.029273953

lstm.bias_hh_l0_reverse f4 [120]
000000 e2 14 dd bd 1f a3 1b be 99 50 0a 3e 8d e4 9f 3d
       -0.10794999 -0.15198945 0.13507308 0.078072645
000010 f6 be de bc 45 ba 3d 3e 23 a3 43 be a3 58 00 bc
       -0.027190667 0.18528087 -0.191052 -0.007833633
000020 36 8e a8 bd c0 96 5f 3e b8 66 9a bd 63 22 dd bd
       -0.082302496 0.2183485 -0.07539123 -0.10797574
000030 9e b3 2b 3d c8 20 75 bc 3d e0 a7 3c b9 8f 92 3d
       0.041919343 -0.014961429 0.020492667 0.07156319
000040 58 bc 82 bd 73 82 36 be 30 af 09 3e c8 93 a5 bd
       -0.0638358 -0.178232 0.13445735 -0.08084828
000050 6e 4c 39 3e 48 e7 17 3e 14 b2 8a bd 3e 95 81 3d
       0.18095562 0.1483432 -0.06772247 0.06327294
000060 3d f6 f6 bd a0 63 f1 bd d7 6a 01 bd ff 4f e4 3d
       -0.12058685 -0.1178658 -0.03159603 0.111480705
000070 51 89 b3 3d 73 02 f1 3d c7 03 fb bc 7d 36 ac bd
       0.087664254 0.11768045 -0.03064145 -0.0840883
000080 37 3a 60 3d 4d 7c 9d 3e e7 fd 75 3d 53 ed 22 bc
       0.054743018 0.30758896 0.060056593 -0.009944278
000090 b6 2a d9 3d 49 ef 02 be f5 60 3e 3e 16 ee 9e 3d
       0.106038496 -0.12786593 0.18591674 0.07760255
0000a0 44 f5 50 3d 2c f7 3e 3d 3f 12 7b 3d a4 71 47 3e
       0.051015154 0.04662244 0.061296698 0.19476944
0000b0 2a 43 81 bc af 16 32 bd 0f 58 ce bd c6 e9 12 3d
       -0.015779097 -0.043478664 -0.100753896 0.035867475
0000c0 81 6e 1d 3e 54 a2 40 3e bc e1 f1 bd 2a bd 27 3e
       0.15374185 0.18811923 -0.118106335 0.16380754
0000d0 fc 28 85 3b 93 2c 35 3d aa 82 22 be 5d d1 a3 bd
       0.0040637236 0.044231962 -0.15870157 -0.07998917
0000e0 2f 25 1f 3e 13 dd d7 3d 5f 28 3e 3e 6a b5 1b 3e
       0.15541528 0.105402134 0.18570088 0.15205923
0000f0 c4 27 5a 3d 5d 3d 31 3d 58 98 9f 3d ed d9 e9 3c
       0.05326058 0.04327141 0.07792729 0.028546298
000100 21 8c 69 3d 45 71 88 bd 75 06 d3 bd 60 88 4d 3d
       0.057018403 -0.066622294 -0.10303966 0.050178885
000110 30 40 8c 3d d6 c7 cb 3d 71 0e 1e 3d 7f ff 31 3e
       0.0684818 0.09950225 0.03858799 0.1738262
000120 d4 b7 1f 3e 54 0e b1 bc 5f 4f 0c bd da d3 01 3d
       0.15597469 -0.021613277 -0.03425538 0.031696178
000130 93 ec ef bd 03 4f 13 bd fc 53 b8 3d 5f 57 b9 3d
       -0.11715045 -0.035964023 0.09000394 0.09049868
000140 89 6e 4f 3d d4 d6 d2 bd ef 55 c2 3d d3 6d d4 3c
       0.050642524 -0.102948815 0.09489047 0.025931275
000150 36 a3 bf bd d5 b4 86 3d 3b fc 06 be 6b 9a dd bd
       -0.09357302 0.0657746 -0.13182156 -0.108204685
000160 db 0c 5a 3e 60 b6 5d bd 39 ed cf 3d 67 77 ca 3d
       0.21293966 -0.054129004 0.101526685 0.098860554
000170 62 f9 29 3d ad 31 96 3c 29 d6 49 be ec 04 92 3d
       0.041497596 0.018334234 -0.19710602 0.07129845
000180 0e 61 0a 3e 6d c8 4e bd dc a8 30 3e 48 1f 33 3e
       0.13513586 -0.05048411 0.17251915 0.17492402
000190 33 0c f8 bd db 59 2d bd 8f 71 b5 bd 5f 95 85 bb
       -0.12111702 -0.04232202 -0.0885955 -0.0040766443
0001a0 06 43 c9 3d 0f d1 01 3e f5 88 19 be 98 44 92 bb
       0.09827237 0.12677406 -0.14993651 -0.0044637434
0001b0 e3 b4 29 3e 64 aa d0 3d 8a 33 81 bd b7 b6 75 3e
       0.16572909 0.101887494 -0.063086584 0.23995481
0001c0 06 9a fa bc f4 5e 4e 3d 35 4f c3 bc 48 49 9c bd
       -0.030591022 0.050383523 -0.02384148 -0.07631165
0001d0 32 0f 1c 3e 05 c6 4e bd 55 7d 56 3d 82 a6 ee 3c
       0.15240172 -0.050481815 0.05236562 0.029132131

lstm.weight_ih_l1 f4 [120, 60]
000000 ad d0 c4 3d f2 0a 88 bb 39 92 c1 3d 25 21 22 be
       0.09610114 -0.0041516954 0.09451718 -0.15832956
000010 5f 7e ef bd fe 9f 44 be c2 ad bc bd 45 76 92 bd
       -0.11694025 -0.19201657 -0.09212829 -0.071514644
000020 3c c2 90 bd b7 08 22 bc eb 9a ff bd da 59 c4 3d
       -0.07068297 -0.009889773 -0.1248072 0.0958745
000030 a8 27 27 bb ed fa 96 bd 9e af 34 3d 22 4c be 3b
       -0.0025505815 -0.07372079 0.044112794 0.0058074156
000040 b6 26 31 3c 2c 91 2d 3e 42 80 8f 3c 6c d5 1a be
       0.010812452 0.1694991 0.017517213 -0.15120476
000050 4a 1e 63 bd e9 49 4f 3c 57 d3 e3 bd a7 35 9d 3d
       -0.055448808 0.012651899 -0.11124294 0.07676249
000060 75 8d bf 3d 08 8e f0 bd 6c fb b7 3d 54 4b ac 3c
       0.09353153 -0.1174584 0.08983502 0.021032013
000070 8d 34 0d be df 10 c3 3c 88 bf 8c bd 45 e0 4d be
       -0.13789578 0.023811756 -0.06872469 -0.20105083
000080 78 74 3b 3d cd 22 1b bd 8d a2 21 be 84 7a 06 3e
       0.04576537 -0.037874985 -0.15784664 0.13132674
000090 8e 1d 78 3d 60 63 23 3e 13 21 d5 3b 58 de 8d bd
       0.06057506 0.15955877 0.006504187 -0.06927174
0000a0 87 ab 47 3e 6c e5 f1 bd ab 1b 86 3c fe 53 95 bd
       0.19499026 -0.11811337 0.016370615 -0.07291411
0000b0 f3 20 db bb 57 83 b1 3d 17 f8 07 3d 73 36 4a bd
       -0.0066872775 0.08667629 0.03319558 -0.049368333
0000c0 39 a0 69 bd 13 03 0b be 09 52 2c bd 5a 3d bd bd
       -0.057037566 -0.13575391 -0.042070422 -0.092402175
0000d0 74 de a3 3d 08 d2 c9 bd a8 62 10 be b3 7c b4 bd
       0.08001414 -0.098545134 -0.14100134 -0.08812847
0000e0 36 7a 68 3c ba 9e b7 3c 76 c9 25 bd 5f 98 35 be
       0.014189294 0.022414554 -0.04047533 -0.17733906
0000f0 ee bd 12 be 65 12 04 3d 49 7e 9a 3c de a6 1c 3e
       -0.14330265 0.032244105 0.018859046 0.1529803
000100 58 20 0b 3e 7d b4 3d 3d 35 51 f1 bd be cf f9 bd
       0.13586557 0.046314705 -0.11783067 -0.12197827
000110 1a 16 81 bd 31 7c 9b bd aa 26 5a 3d 09 55 1a be
       -0.06303044 -0.07592047 0.05325953 -0.15071501
000120 f8 d5 50 be 96 ac f6 3d 4f 70 39 3e a8 cf 1d 3e
       -0.20394123 0.12044637 0.18109249 0.15411246
000130 cc 7b 4f bd 33 42 ab bc fc 97 8e 3d a8 6f 3d be
       -0.05065517 -0.02090559 0.069625825 -0.18499625
000140 4f 02 35 3e ab ae 8d 3a 4b 48 d0 bd 5d a8 eb bd
       0.17676662 0.0010809501 -0.10170039 -0.11506722
000150 2e d2 08 3e 2f a9 96 3d 7a 87 79 3d d0 5f 99 bd
       0.13361427 0.07356488 0.060920216 -0.07488978
000160 a7 ab e7 3d e1 9b 2e be 96 ee 29 bd 89 6f 5a bc
       0.11312037 -0.1705165 -0.0414873 -0.013332256
000170 4c c7 01 bd c4 e6 00 be 49 70 2e 3e 61 e5 89 3d
       -0.031684205 -0.1258803 0.17035021 0.06733204
000180 ea 3b 82 bd c2 c4 06 3e 9c 74 98 3d 38 b3 b4 bd
       -0.06359084 0.13160995 0.074441165 -0.08823246
000190 d3 6a c6 bd e4 f0 24 3d bb a4 9f 3d e0 d9 8d bd
       -0.09688344 0.040268794 0.07795092 -0.06926322
0001a0 ca 35 e8 3c 80 2d 0d 3e 25 d3 a9 3d 05 e9 96 3d
       0.028345961 0.13786888 0.08292226 0.07368664
0001b0 98 6c d1 bd 68 de ff 3c 1f 2e 0c bd a8 56 15 3e
       -0.10225791 0.031233981 -0.034223672 0.14583838
0001c0 87 5e 46 bc 82 1e 95 bd e4 07 34 bd c0 f0 b2 bd
       -0.012107498 -0.072812095 -0.043952838 -0.08737326
0001d0 26 7d 25 3c 8b 5b 04 be 40 38 a1 bd 98 0d 4b 3d
       0.0101006385 -0.12925546 -0.07872057 0.04957351
0001e0 1c 2e d7 bc bc c5 41 bd 56 c1 38 be fa a5 e9 bd
       -0.026267104 -0.047307715 -0.18042502 -0.11408611
0001f0 53 96 7f 3d f8 6c b8 3c a4 41 c4 3b 17 12 18 3c
       0.06239922 0.022512898 0.0059892703 0.009281657
000200 93 b8 2e be 7d 6b e4 3d 47 43 72 3c 1a a3 8d bd
       -0.17062597 0.11153314 0.014786548 -0.06915875
000210 2d e3 12 bd 4e a2 f0 3c 6b 2b 6a 3d 71 d8 ba 3d
       -0.035861183 0.029374268 0.057170313 0.09123314
000220 f3 da e3 3c 53 cb 01 3e 80 32 18 be 6a a9 e2 bd
       0.027814364 0.12675218 -0.14863014 -0.110674694
000230 0b 87 26 bd 7e 8e 17 be e7 79 00 3e 7d 5a 5f 3c
       -0.04065613 -0.1480045 0.12546502 0.013632414
000240 a6 a2 8a 3c 8c 57 cd 3d f8 9c 14 3d 9f 71 a4 bc
       0.01692326 0.10026464 0.03628251 -0.02007371
000250 fb 06 cb 3d 11 73 7f 3c b2 b7 0b 3c d9 02 41 bd
       0.09913441 0.015591399 0.008527683 -0.047121856
000260 d2 f1 05 bc 0f 7d 18 be 1f 44 25 be 7b 91 c4 3d
       -0.00817533 -0.14891456 -0.16139267 0.09598061
000270 7f dd 0a 3d 9d 25 c4 3d af 92 1c be b8 35 4d bd
       0.03390264 0.09577487 -0.1529033 -0.05010006
000280 fe e5 25 3d 33 31 12 be 41 c8 20 be 6a b7 b3 3d
       0.04050254 -0.1427658 -0.15701391 0.08775218
000290 b0 0c 86 3d 9c 7d 92 bd 99 1b 0a be 20 74 52 bd
       0.06545389 -0.07152864 -0.1348709 -0.051380277
0002a0 d9 71 32 be cd 88 3c bc 28 69 36 3e c9 47 3b 3d
       -0.17426242 -0.011507225 0.17813551 0.045722757
0002b0 40 70 b7 bd 63 e2 e0 bb c1 95 0d 3d 56 e9 06 3e
       -0.08956957 -0.006862925 0.034566645 0.13174948
0002c0 4c c9 6d 3d ab aa 36 3e 02 98 63 bc 07 e0 fd 3d
       0.0580533 0.17838542 -0.013891222 0.123962454
0002d0 cf 51 83 3c b5 5f 2f 3e 15 79 8c bd 22 9c f8 bd
       0.01603022 0.17126353 -0.06859032 -0.12139155
0002e0 99 a9 50 bd ce 6f fc 3d 00 93 a7 bd 3e 7a 45 3d
       -0.05094299 0.123260126 -0.08182335 0.048212282
0002f0 94 33 1e bd a8 1d 2c 3d 8a 35 17 3e ee 93 16 be
       -0.038623407 0.04202047 0.14766517 -0.14704868
000300 e6 bc 1d be cf 5a ca 3d 23 33 2b be c3 71 ab bc
       -0.1540409 0.098806016 -0.16718726 -0.02092827
000310 b2 f5 0d 3e c1 d1 27 3e 17 99 80 3b ac fb 05 3e
       0.13863257 0.16388609 0.0039244997 0.13084286
000320 ee 79 98 3d f8 cc 9e 3d d6 e9 e7 bd 93 e4 44 bd
       0.07445131 0.077539384 -0.113238975 -0.048069548
000330 b9 2e 09 3e 11 f7 33 bc 4f 49 3b be 93 e2 23 be
       0.1339673 -0.010984198 -0.18289684 -0.160044
000340 17 d9 02 be ad 92 e5 3d 6d 27 2c 3e 23 5e 15 be
       -0.12778126 0.11209617 0.16811915 -0.14586692
000350 7e 5b 72 3d 06 d4 f1 bd f1 e4 06 3d 45 e9 f8 bd
       0.059169285 -0.118080184 0.03293318 -0.12153868
000360 c1 79 4e 3e f3 bc 9c 3d ec 3e 08 be e7 20 0d 3e
       0.20163633 0.07653227 -0.13305253 0.13782082
000370 97 91 b3 bc 6a f0 91 bd f2 ba b7 3d 9c 6e 4a be
       -0.021920009 -0.071259335 0.08971204 -0.19768757
000380 60 9a e9 bd 6b dc 0d 3e 11 86 58 be 42 ed 81 bd
       -0.11406398 0.13853614 -0.21144892 -0.063440815
000390 9f e5 5c 3c 04 f5 12 3e a4 36 3e 3e 7c 81 49 be
       0.01348248 0.14351279 0.18575531 -0.196783
0003a0 d1 2f 0b 3e 2a 3f c5 3d 7b 05 ca 3d 0b 41 29 bd
       0.1359246 0.09631188 0.098643266 -0.041321795
0003b0 d7 6d 3d be 45 bb 8c bd 06 f1 3b bb a3 d9 1b be
       -0.18498932 -0.06871656 -0.0028677597 -0.1521974
0003c0 48 c2 23 bc fe 1a 17 3e ab 21 1d 3e 35 9b ce 3d
       -0.009995051 0.1475639 0.15344875 0.10088197
0003d0 69 f3 c5 bd 5a 61 06 bd be 52 28 be 6b 89 d0 bd
       -0.096655674 -0.032807685 -0.16437814 -0.101824604
0003e0 ef a3 0a 3e 47 52 46 bd 17 c2 0a 3e a4 50 ab 3d
       0.13539098 -0.04841831 0.13550602 0.0836499
0003f0 e5 3f 13 be ee df 0a 3e 0e f1 70 3d f1 b1 58 3b
       -0.14379843 0.13561985 0.058823638 0.0033065046
