model/LSTMY/MScheckpoint4.pt (torch, 229202 bytes, 31 tensors)

lstm.weight_ih_l0 f4 [120, 15]
000000 f7 c2 9a bd 35 f4 64 bd 9e 3e 43 3d cd 90 8f bd
       -0.07556718 -0.055896956 0.04766714 -0.070100404
000010 4b 14 1e 3e 8b 80 2b 3d 4c 91 fe 3d 3d 41 95 3d
       0.15437429 0.041870635 0.12430057 0.07287834
000020 76 24 dd bd 2d 01 ec bd 9f 9e d9 bd ed cd a0 3c
       -0.1079797 -0.11523662 -0.10625958 0.019629443
000030 4f 2c 46 be 4e ad 12 3d 89 b7 20 3e d6 0f 6f 3e
       -0.1935284 0.035809807 0.15695013 0.23345885
000040 5e 90 6f be ec 19 91 bd 37 e4 06 be 95 94 1d 3e
       -0.23394915 -0.07085022 -0.13172995 0.15388711
000050 59 54 eb 3d f5 3b f6 3d 82 a4 36 be 88 ec 8d 3d
       0.114906974 0.12023155 -0.17836192 0.069298804
000060 0b 43 05 3e 95 c8 d2 3d 35 7d 90 3d 77 b4 28 3e
       0.13013856 0.10292164 0.07055131 0.16475092
000070 59 21 ae bd 3f b2 0b 3e a2 99 68 3e a0 1f df 3d
       -0.08502454 0.13642214 0.22714856 0.10894704
000080 a4 84 e5 3c 2a 9d 0e be ac 5b ed 3d 51 39 d2 bd
       0.02801735 -0.13927141 0.11589751 -0.102648385
000090 21 36 0d 3e 35 bc 84 be d0 e3 80 3b 74 d7 52 3e
       0.1379018 -0.2592484 0.0039334074 0.20590001
0000a0 2d e7 37 bd f8 94 fe b8 a7 81 30 bc 04 09 20 be
       -0.0448982 -0.000121394114 -0.010773099 -0.15628439
0000b0 6b 1c a6 3d 69 41 b3 bc 30 d3 19 3e 20 f4 a5 3c
       0.08110889 -0.021881776 0.15021968 0.02025801
0000c0 70 bb 4a be cf 04 09 be f5 4b 64 3d 34 ed 88 3e
       -0.19798064 -0.1338074 0.0557365 0.26743472
0000d0 3d 49 f2 3d c7 c9 69 3d 0d 42 d9 bc 6d 42 32 3d
       0.11830375 0.057077195 -0.026520753 0.04352038
0000e0 f2 4b 89 3c 5d d8 39 3c 77 fa 4b 3e 05 74 0b 3d
       0.016759846 0.011343089 0.19919764 0.03404619
0000f0 80 2e ce bd 63 5c a7 3c e5 c9 2c 3c 0e c8 0e 3e
       -0.10067463 0.020429796 0.010546182 0.13943502
000100 94 a4 22 be 31 86 b5 3d 08 20 0c be f0 07 0a be
       -0.15883094 0.088634856 -0.13684094 -0.1347959
000110 e2 c9 34 be 5d be 12 3e 4d 05 85 3e cb 91 54 3e
       -0.17655137 0.1433043 0.25980607 0.2075874
000120 a4 f6 9b 3c ab a6 9c bd 98 d2 12 3e 93 40 15 be
       0.019038506 -0.07648977 0.14338148 -0.14575414
000130 c2 80 da bd 9a 74 9e bd 2a d7 3a be fc a4 ed 3d
       -0.1066909 -0.07737084 -0.18246141 0.11603734
000140 ae 5b 4f bd a0 94 9f 3c 67 17 31 3e 59 a9 57 3d
       -0.050624542 0.01948005 0.17294084 0.052651737
000150 7e 83 0a 3e 2b b9 1a be ec 80 d8 bd 63 4e 21 be
       0.13526723 -0.15109698 -0.10571465 -0.15752558
000160 0a 67 70 be 1d ab 83 3d 34 f0 19 3d f7 86 fb 3c
       -0.23476806 0.06429122 0.03758259 0.030704005
000170 3a af fd 3d 24 c9 76 3d 36 98 40 bd 34 94 c9 bd
       0.123869374 0.060250416 -0.04702016 -0.09842721
000180 51 a0 a5 bd bd 48 04 3e ec af 03 be fe dd 57 be
       -0.080872186 0.12918372 -0.12860078 -0.21080777
000190 86 31 34 3e b2 3b 2a 3d 0c a1 80 bd 7a ab 8b 3d
       0.17597017 0.041560836 -0.06280717 0.06819816
0001a0 c4 a3 de bd d2 4b bb 3d 80 b8 ef 3d c2 7b 83 bc
       -0.108710796 0.09145321 0.117051125 -0.016050223
0001b0 9b e9 af 3d 28 89 2f 3c 47 c2 40 be 98 38 02 3d
       0.085894786 0.010713853 -0.18824111 0.031792253
0001c0 f9 ac 66 3e 04 38 98 3d 5c 73 9f 3d e4 5f 80 3e
       0.22526921 0.07432559 0.07785675 0.2507316
0001d0 a2 78 0b be e6 a1 8c 3d e0 b7 e3 3d 07 bd db bd
       -0.13620237 0.06866817 0.11119056 -0.107294135
0001e0 50 04 bc 3d bd 09 27 3e c0 79 79 bc 44 7a 58 3e
       0.0918051 0.16312309 -0.015226781 0.2114039
0001f0 27 84 3b 3d 2a 2d cb bb 0e f4 02 3e 77 90 d9 3c
       0.045780327 -0.0062004523 0.12788412 0.026558144
000200 c9 0e dd bd 13 88 60 be 29 46 10 be 74 31 e7 3b
       -0.10793836 -0.21926908 -0.14089264 0.007055456
000210 dc 08 3b 3c 6b 72 15 3d 5e df 47 3d de e9 63 bd
       0.011415686 0.03648607 0.048797004 -0.055642955
000220 c1 72 11 3e 47 39 e7 bd 3d 5f 41 be 2e 91 d7 3d
       0.14203931 -0.11290222 -0.18883987 0.10525738
000230 9c fb 69 be 5e 26 18 bd 6c 73 88 bd 40 03 09 be
       -0.22849888 -0.037145965 -0.0666264 -0.13380146
000240 8f ba 36 3e 64 0d 2f be e3 1c 26 be 87 ff f9 3d
       0.17844604 -0.17094952 -0.16221957 0.12206941
000250 f0 0f cd bb 23 79 df 3b 83 bf a3 bd 32 d8 42 3d
       -0.0062580034 0.0068198605 -0.07995512 0.04756946
000260 ff 3a 25 bc 63 4c 2a be 8c d7 3d 3e 17 b5 32 3d
       -0.010084867 -0.16630702 0.18539256 0.043629732
000270 8b 57 d0 3d 1c f0 4e 3e 86 e5 4a be 77 11 3f 3e
       0.101729475 0.20208782 -0.19814119 0.18659006
000280 7b 5b ed 3d 15 16 11 3d 26 2b 65 bb 16 41 a4 bd
       0.11589714 0.03542145 -0.0034968345 -0.08020227
000290 b1 91 b1 3d 25 2b 35 bd 72 86 46 3e 2a 30 c6 bd
       0.086703666 -0.0442306 0.19387224 -0.09677155
0002a0 16 a0 01 bc 5c 24 94 3d 3a 5b fe 3d cb 5e b9 bb
       -0.007911703 0.072334975 0.12419744 -0.005657052
0002b0 fa d2 9c 3d b1 a9 53 3d 68 86 37 be 08 e4 38 be
       0.07657428 0.051675502 -0.17922366 -0.18055737
0002c0 4d 32 a8 bb 26 d6 33 be 84 e3 5d bc e0 72 1a 3e
       -0.0051329494 -0.1756216 -0.0135430135 0.15082884
0002d0 48 0f 1e be 10 a8 52 bd b0 0f d9 3d f0 b1 51 be
       -0.15435517 -0.05142981 0.10598695 -0.20478034
0002e0 25 51 b8 3c 5c 6a f9 bd 1d ea 6e 3d 15 00 40 be
       0.02249963 -0.121784896 0.058328737 -0.18750031
0002f0 a4 87 87 3d b8 b1 51 3e 98 0b 36 bd db ab 91 3e
       0.06617668 0.2047795 -0.04444465 0.28451428
000300 7c 89 80 bd b6 9d f8 bd 79 84 af bd f9 d2 2c bd
       -0.06276223 -0.12139456 -0.08570189 -0.042193387
000310 db 05 a0 bd 93 fb f1 3d be cb b0 b9 0e 94 05 bd
       -0.07813617 0.11815562 -0.00033721136 -0.0326119
000320 dc da 2b be af f5 68 3e fc 13 be 3d 3d 68 e6 3d
       -0.16782707 0.22749971 0.092811555 0.112503506
000330 5c 96 a6 3d 76 52 2b bd 5b 2c ab bb e4 15 b7 bd
       0.081341475 -0.041826688 -0.0052237934 -0.08939722
000340 58 96 2f bc 81 0e 22 3e 00 48 ee bd 61 a5 30 bd
       -0.010716997 0.15825845 -0.11634827 -0.043126468
000350 61 51 89 3c 50 68 01 be 90 a4 b9 bd 53 2b 58 3d
       0.016762437 -0.12637448 -0.09064591 0.052775692
000360 36 aa 1c be 36 d8 92 be e8 7a d9 bc 88 03 47 3e
       -0.15299305 -0.2868058 -0.026547864 0.19434941
000370 7c 4a ac 3d 9c 98 ae 3b 2c ff 3b 3e 6a e2 05 3e
       0.08412644 0.005328251 0.18359059 0.13074651
000380 90 98 a8 bd 80 5f fa 3d ec bb d6 bd 26 1f 4e be
       -0.08232224 0.122252464 -0.10485062 -0.2012907
000390 1a 0f 0c 3e 66 dd f0 bd c0 5e 25 3e 4e 1a 3b be
       0.13677636 -0.117609784 0.16149426 -0.18271753
0003a0 54 b1 7e bd e8 d9 62 bd 9e 5c b3 bd c5 6e 2c 3d
       -0.062180832 -0.055383593 -0.087579 0.042097826
0003b0 b7 49 84 be e2 7e 03 bd 5b 57 37 3e b0 4b 68 be
       -0.2583749 -0.032103427 0.17904417 -0.22685122
0003c0 dc af cc bd ff 29 d4 bd ee c5 da bd a7 d5 2f be
       -0.0999448 -0.103595726 -0.10682283 -0.17171346
0003d0 9d 74 ac 3d 0b a6 02 bd e0 35 12 be 9a 2f 31 bc
       0.0842068 -0.031896632 -0.14278364 -0.010814572
0003e0 1d f1 b5 bc a9 38 01 be c5 6d d0 3c 6f 0a 24 3e
       -0.022209698 -0.1261927 0.025442967 0.16019605
0003f0 f3 e6 0e 3e 9e dd c1 3b 64 06 88 be 15 a8 cd 3d
       0.13955288 0.0059163114 -0.26567376 0.10041825

lstm.weight_hh_l0 f4 [120, 30]
000000 9c 43 f1 3d 8b 18 5a 3d f0 8e 5b 3e 1a 5c f4 39
       0.117804736 0.053246062 0.21441245 0.00046607928
000010 92 f3 56 be ca 26 5f 3d 99 ca 7e bd 62 2c 8b 3d
       -0.20991352 0.05448035 -0.06220493 0.06795575
000020 5c 62 cd be 5d 3e 69 3d 8c 85 c0 bc 03 8d a3 bd
       -0.40114105 0.05694424 -0.02350118 -0.0798588
000030 ab 0e 9f bd 36 d3 fc bd cd 8d ba bd 67 a7 80 bd
       -0.077664696 -0.12344973 -0.091090776 -0.062819295
000040 2d 64 aa be 2c bd 8f bd e0 e7 d5 be 6c d4 15 3c
       -0.33279553 -0.070185035 -0.4177847 0.009144884
000050 b3 01 db bd 49 b1 87 39 8a 71 12 3e 69 0e 7c be
       -0.106936835 0.00025881294 0.14301124 -0.24614872
000060 02 8f 30 be 2b c1 fb bd 7a 90 6f 3e 17 a6 a1 3e
       -0.17242053 -0.12292703 0.23394957 0.3157203
000070 7c ce 27 bd 52 17 a2 bd 7d ea b3 3c 4e 06 ae 3d
       -0.040968403 -0.07914604 0.021962399 0.08497296
000080 b3 ab 4c bd 74 11 03 be a3 dc 50 bd ac ac 47 bd
       -0.049968433 -0.12799627 -0.050991666 -0.048748657
000090 a8 ea 72 3d 19 d8 21 3e 8e 08 88 3d 8d e5 12 bd
       0.059305817 0.15805091 0.06642257 -0.035863448
0000a0 01 1b 18 be 08 5e 97 3d 79 c4 c6 bd 62 89 2c be
       -0.14854051 0.07390982 -0.09705443 -0.16849282
0000b0 35 40 44 be 67 b5 2e bc e5 96 ed bd 36 69 08 3e
       -0.19165118 -0.010663367 -0.116010465 0.13321385
0000c0 33 c8 39 be 87 b5 be 3d 1d 6b 68 be f3 93 23 be
       -0.18142776 0.09311967 -0.2269711 -0.15974407
0000d0 64 74 4c be 10 f0 b9 3d ef 9c 1b 3c db de ad bd
       -0.19966274 0.090789914 0.009497865 -0.08489772
0000e0 b4 59 31 3e 99 df d7 3d 87 27 76 bc 01 13 ce bc
       0.17319375 0.10540695 -0.0150240725 -0.025155546
0000f0 a5 c3 e3 bb 84 a6 19 3e 0e 01 0f be 16 84 92 3c
       -0.006950813 0.15004927 -0.13965246 0.01788525
000100 f0 a4 30 3c bc d8 3e be 45 92 d5 bd 49 4c 22 3d
       0.010781512 -0.18637365 -0.10428289 0.039623532
000110 8c 69 49 3b 6c d0 11 bd 55 39 80 3d eb 91 5f 3d
       0.0030733077 -0.035599157 0.06260935 0.054582518
000120 88 53 23 be 54 05 26 3e 07 46 8a bd 7b 87 42 3d
       -0.15949833 0.1621297 -0.06751638 0.047492485
000130 7f 66 7b 3e fc a7 77 3d e6 59 71 3d 56 cb b7 bd
       0.24550818 0.060462937 0.058923624 -0.0897433
000140 11 8f 80 3d 77 55 67 3d e1 3f e6 3d f9 ca bd bc
       0.06277288 0.05647799 0.11242653 -0.023168074
000150 e7 c1 07 be 57 44 10 3d 9e 4b 26 3e b2 2a 0e be
       -0.13257562 0.035221424 0.16239783 -0.13883474
000160 9b d1 eb 3d ac 2b 01 be b7 6d 34 be 3c 51 be 3d
       0.115145884 -0.12614316 -0.17619978 0.09292838
000170 b7 ef 6a be 37 ef 18 3d 9b 55 2d be 98 57 f5 bc
       -0.22943006 0.037337508 -0.16927187 -0.029948995
000180 9a 07 48 bd 15 64 cd 3c 41 64 88 3d 7e 4c 10 bc
       -0.048835374 0.025072137 0.06659747 -0.0088073
000190 f1 e4 ef bd 02 bd e8 3d 54 86 26 3e c5 bb 6f be
       -0.11713589 0.113641754 0.1626218 -0.23411472
0001a0 86 d5 92 3c 1a 82 a3 be e9 12 1a 3d dd 6f 68 3e
       0.017924082 -0.31935197 0.03761569 0.22698922
0001b0 bf d1 e4 bd 0f 51 c8 3d a2 51 38 bd 6b 26 90 3e
       -0.111728184 0.09781086 -0.044999726 0.2815431
0001c0 ff 40 4b be 46 ed 43 bd db 84 a3 3d b1 7c 13 be
       -0.19849013 -0.047833703 0.079843245 -0.14403035
0001d0 39 cc 3f 3d 72 33 14 bc ab ac 9e 3d 25 21 a4 bc
       0.04682562 -0.009045469 0.077477776 -0.020035336
0001e0 37 61 cd bc 66 a6 03 be 70 8e 66 bd 74 4b b2 3e
       -0.02507077 -0.12856445 -0.056288183 0.3482319
0001f0 c0 27 a3 3d ab 94 8d 3e 7a 8e 10 be 0f b4 2b 3d
       0.07966566 0.27652487 -0.1411685 0.041919764
000200 b5 63 89 3e fb c0 b7 be c4 56 23 3e 9c 40 03 3e
       0.26833883 -0.3588942 0.15951067 0.12817615
000210 4f 72 7b be 3d 1b 90 3d a1 c2 8d 3d 86 5b c5 bd
       -0.24555324 0.07036445 0.06921888 -0.09636597
000220 34 0a 26 3e e9 d9 e7 be 32 62 6a 3e b7 64 16 be
       0.1621483 -0.4528344 0.22889021 -0.14686857
000230 9e 0b ab 3d 48 f4 d3 bd 7b f8 8f 3d 68 97 e4 bd
       0.08351825 -0.10349327 0.07029816 -0.11161691
000240 79 7f 27 3e e4 eb 71 be f2 87 6e 3c 06 ab b5 bd
       0.1635722 -0.23625141 0.014558779 -0.08870511
000250 87 7f 45 3e 22 f6 44 be e1 66 b4 3e 10 3d 27 3e
       0.19286929 -0.19234517 0.3523474 0.16331887
000260 de b0 67 3e 0a 8f 26 3e f8 69 40 be c8 11 7b 3d
       0.22626063 0.16265503 -0.18790424 0.061296254
000270 71 f3 3a bd f2 d8 1d 3e be 53 00 3e 3c 3e d2 bc
       -0.04564232 0.1541479 0.12531945 -0.025664441
000280 0f 64 8f 3d 75 cf f2 bd 90 f5 f5 bd 55 de 10 be
       0.070015065 -0.118559755 -0.12009728 -0.14147313
000290 18 8b 56 be 2e 2b 42 bc 32 b1 f6 3d 76 b5 b1 3d
       -0.20951498 -0.011851115 0.12045516 0.08677189
0002a0 78 6b eb 3c 58 da 28 be 27 bf 49 3c 47 2e 2a bc
       0.028737769 -0.16489542 0.012313641 -0.01038701
0002b0 4c f0 d2 bd 2c e6 5f be 1a fb 95 bb de 7e 93 be
       -0.10299739 -0.21865147 -0.004577053 -0.2880773
0002c0 fe 7b 3e be c0 da f9 3d 25 8c 3d 3d 41 e7 d8 3d
       -0.18601987 0.121999264 0.04627623 0.10590983
0002d0 d7 43 10 3d 41 33 e4 3c 49 71 fd 3d a5 77 61 be
       0.035220947 0.027856471 0.12375123 -0.22018297
0002e0 af 92 69 be 72 5a 21 bd 68 f9 0a be e4 be ee 3d
       -0.22809862 -0.039392896 -0.13571703 0.11657503
0002f0 bf c7 57 be 62 28 95 bd 5e a0 46 bd 51 ef 05 3d
       -0.21072291 -0.07283093 -0.04849278 0.032698933
000300 cd 08 85 be ad fe 3f be be ff 7a be 1d 9c ee bd
       -0.25983277 -0.18749495 -0.2451162 -0.1165087
000310 ad 19 37 3d f6 2e 65 3e 75 60 b5 bd f6 8e 8c 3d
       0.04470222 0.22381195 -0.08856288 0.06863205
000320 41 21 c9 3c 96 d3 a2 bb ce 7b 76 be f8 31 a2 bc
       0.02455199 -0.0049690707 -0.24070665 -0.019799218
000330 30 c1 3b bd 32 f4 89 be ac db bf bd f2 77 fa 3c
       -0.045838535 -0.2694412 -0.09368071 0.030574773
000340 4b 46 2b 3e b3 dc 49 bd 4e d0 cf 3d 84 21 b4 3d
       0.16726033 -0.04928274 0.10147153 0.08795455
000350 5a 1d 91 3e 37 1c b2 bd a6 9c 54 be f6 f2 42 3c
       0.28342706 -0.08696788 -0.20762882 0.011898747
000360 2e 11 1a 3d e6 47 b1 bd 3e 45 b8 3d 85 43 de bc
       0.03761404 -0.08656292 0.08997582 -0.027131805
000370 c2 7b d2 3e d2 ab 6d 3e d3 e7 06 be 3f 2c 38 bd
       0.41110045 0.23210075 -0.13174371 -0.04496407
000380 00 4d fc 3d 7c d9 1e 3e 1d 66 a6 3d cd b8 65 3e
       0.12319374 0.15512651 0.08124945 0.22433777
000390 9d 93 67 bd c0 10 80 bd e9 94 53 be 7f 6b 65 bc
       -0.05653726 -0.06253195 -0.20662273 -0.01400268
0003a0 23 d1 f6 bd 15 dc 1e 3e 2e 90 1a bd 3e ac 88 be
       -0.120516084 0.15513642 -0.037735157 -0.2669391
0003b0 02 2d 79 3c 15 ac 11 3b 28 b1 de bd 66 cd 88 3e
       0.015208485 0.0022227813 -0.108736336 0.26719207
0003c0 d3 c1 b0 be e3 15 44 3d cf fc 91 3d 9b 14 9d 3c
       -0.34522876 0.047872435 0.071282975 0.019174865
0003d0 ff 60 82 3e dc a3 dd 3d 80 97 a3 3e 0a 90 d2 bc
       0.25464627 0.10822269 0.31951523 -0.025703449
0003e0 1c d9 16 bd 70 a4 92 bd 0d 66 ac be f4 34 7e 3d
       -0.036828145 -0.0716027 -0.3367161 0.06206222
0003f0 05 f3 07 3e 36 be df 3d f2 f7 6a be 4b 0b 59 be
       0.13276298 0.10924952 -0.22946146 -0.21195714

lstm.bias_ih_l0 f4 [120]
000000 77 a3 4e 3e fa ba ca 3d 5e 38 d4 3d 5d 61 a2 3e
       0.20179544 0.09898944 0.10362314 0.31714907
000010 32 23 b2 3c 42 e4 08 3e 44 d6 c3 3d a4 29 41 3d
       0.021745298 0.13368323 0.09562352 0.047158852
000020 57 f6 89 3d 4d c4 ea bd 35 7d d4 bc db fb b1 bd
       0.06736439 -0.11463223 -0.02593861 -0.08690616
000030 43 5d 74 bd 64 68 1d be f9 eb 56 3d f9 a4 b5 bd
       -0.059659254 -0.15371853 0.052471135 -0.08869357
000040 97 37 06 be b5 7a 58 3e e0 fc 80 3e 5f cc ad 3d
       -0.13107143 0.21140559 0.25192928 0.08486246
000050 84 2c 19 be 5f 01 39 bc 76 2c fa 3d 8b 25 73 bd
       -0.14958388 -0.011291831 0.122155115 -0.059361976
000060 e9 88 ea 3c e5 cb 80 be 0f c2 a0 3d 4a 4e 2a be
       0.028629737 -0.2515556 0.07849514 -0.16631427
000070 f5 f2 92 bd 73 77 b8 3d a2 e8 3e be 5e 17 8b 3c
       -0.071752466 0.09007158 -0.1864343 0.016978916
000080 4c bf 8a 3e 60 e2 53 3c 27 ed 21 3e fc 73 97 3e
       0.27099073 0.01293239 0.15813123 0.29580677
000090 04 88 03 bc 4b fa 1c 3c 0f 5b 60 3e 26 27 c4 3d
       -0.008028034 0.009581159 0.21909736 0.095777795
0000a0 a7 e8 98 3d e3 f6 86 3e 20 db 4e 3d fc 77 3f 3e
       0.0746625 0.26360235 0.050501943 0.18698114
0000b0 97 67 10 bd 12 98 0e 3e 17 06 b7 bc 91 34 60 3e
       -0.03525504 0.13925198 -0.022341771 0.21895052
0000c0 f0 1f cd 3d a9 0f ad 3d cf 39 23 3e c5 ba 8e 3e
       0.10015857 0.084502526 0.15940021 0.2787687
0000d0 bd f3 ec 3d bb 46 1f bd ad 3d a4 bd a8 46 7e 3e
       0.11569927 -0.038885813 -0.08019576 0.2483164
0000e0 a1 0d 6e 3e 75 a9 5d 3e 92 a6 8e 3e e4 18 7a 3e
       0.23247387 0.21646674 0.27861458 0.24423558
0000f0 13 40 98 bd d8 dd dd 3d 6f 1d 80 bd 42 3d 12 3e
       -0.07434096 0.10833329 -0.06255614 0.1428118
000100 86 99 ab 3d 2e 34 04 3e 6c ef af bc 90 ae ef 3d
       0.08378892 0.1291053 -0.02147647 0.11703217
000110 3a 5d 4d 3e de ba e2 bd e5 af a6 3d a1 de ef bd
       0.20055094 -0.11070798 0.08139018 -0.11712385
000120 6c 73 1a 3d 27 6d a1 3c 61 95 19 3e a8 a1 34 be
       0.03770773 0.019705368 0.1499839 -0.17639792
000130 15 ba c5 3c ec a1 23 3d 72 e8 2f 3e 5d 46 2a bb
       0.024136582 0.039949343 0.17178515 -0.0025981881
000140 bb 2b f8 3c 47 45 ce 3c 48 55 aa bd fb 1c 46 be
       0.03029429 0.025179518 -0.08317047 -0.19346993
000150 cc fd 6d 3d 80 90 f1 bd 76 33 59 3d 88 46 14 3e
       0.058103368 -0.11795139 0.053027593 0.1448003
000160 25 ef 34 3d 3d a4 8c 3d 75 5e 46 3e 5b c9 d3 bd
       0.04417338 0.068672635 0.1937197 -0.1034114
000170 1d 54 a2 3d 17 c8 82 3e ba 95 4c 3e 17 72 16 3e
       0.079261996 0.2554328 0.19978991 0.1469196
000180 3f 13 92 3c cd ab 8e bc d5 24 82 3d bb 32 a4 bd
       0.017831443 -0.017415905 0.063546814 -0.080174886
000190 8e 83 15 3e 6e 3e cc bd 6f 6b d2 3c 8e 36 22 3e
       0.14600965 -0.09972845 0.025685994 0.15841123
0001a0 37 88 39 3b 13 08 71 3d 5e ae 32 3e 45 19 64 3e
       0.002830995 0.05884559 0.17449328 0.22275265
0001b0 bc f0 84 3e 9c da 3a 3e b1 a2 46 3e 9f 8b 5c 3e
       0.25964916 0.18247455 0.19398 0.21537636
0001c0 d2 02 7f 3d 8f b1 1d 3e 1d 9d 37 3d e6 b1 30 3e
       0.06225855 0.15399764 0.04482757 0.17255363
0001d0 d7 e7 11 3e cd da 83 3e 08 88 12 bd 75 f1 ff bd
       0.14248596 0.2575287 -0.03577426 -0.12497226

lstm.bias_hh_l0 f4 [120]
000000 f9 4d 80 3e 1c b9 ba bc de 41 bc 3d 72 26 eb b9
       0.25059488 -0.022793345 0.09192251 -0.00044851337
000010 7e be 92 3c 52 97 b9 bc 49 a2 09 3e 58 c1 3d 3e
       0.0179131 -0.022655163 0.13440813 0.18530786
000020 05 0b f5 3d 27 02 24 3e d0 a4 95 bd 1e ef 98 3d
       0.119649924 0.16016446 -0.07306826 0.07467483
000030 11 d1 49 be dd cf f3 3c cc 0c 0c 3e e6 59 0f bc
       -0.19708659 0.029762203 0.13676757 -0.008749461
000040 9a 21 ef 3d 43 3f 32 3e 50 9a 57 3e c4 d9 31 3d
       0.11676331 0.17406945 0.2105496 0.043420568
000050 dd df 21 3e bb cd 82 bc 08 4b 01 3d b2 ee 2c 3e
       0.15808053 -0.01596724 0.031565696 0.1688793
000060 9f 3f 01 bd 55 8a 6e bb 1d 9a f4 3d a4 64 aa bd
       -0.031554814 -0.003639837 0.11943457 -0.08319977
000070 f3 7b ce 3d 70 a5 2a 3e 17 3c f1 3d ca 39 d9 3d
       0.10082235 0.16664672 0.11779039 0.106067255
000080 1c d6 4d 3e e3 8f db 3b 59 c0 3f 3e 1e cb bf 3d
       0.20101207 0.0067005022 0.18725719 0.093649134
000090 92 41 5d 3e 97 4f 8d 3e b0 57 3b 3e 84 72 6b 3d
       0.21607044 0.27599785 0.18295169 0.057482257
0000a0 e0 3d 77 3e a1 8b 70 3d 13 87 ce bc 15 c3 c6 3d
       0.24144697 0.05872691 -0.025210893 0.09705178
0000b0 71 5f 9f 3d 54 40 76 3c 01 a3 30 3e 26 55 48 3d
       0.07781876 0.015029985 0.17249681 0.04890933
0000c0 c4 dd 15 3e 47 9d 9e 3e c7 9e cb 3d ea ed 23 3d
       0.14635378 0.30979368 0.09942394 0.040021814
0000d0 11 1e 04 3e 3a fc 0e bc a1 0a f4 3c ce 51 5c 3e
       0.12902094 -0.008727128 0.029790225 0.21515581
0000e0 f4 a8 41 3e aa 7c 73 3e cf 8c 66 3e 9b 23 91 3e
       0.18912107 0.23778024 0.22514652 0.28347477
0000f0 98 88 04 bd fd 76 ce 3d ba 8a cf 3d 70 64 f9 bd
       -0.03235683 0.10081289 0.10133882 -0.1217736
000100 20 64 2f be 5f f0 1b be 20 5f cd 3d 61 da 89 bc
       -0.17128038 -0.15228413 0.10027909 -0.016827764
000110 e8 cc 9f 3d dc b8 4e be b6 3c 25 be c8 24 15 be
       0.07802755 -0.20187706 -0.1613644 -0.14564812
000120 dc 68 55 3d eb c7 11 3e ca 39 c9 bd d0 23 11 bd
       0.052101955 0.14236419 -0.098254755 -0.035434544
000130 01 00 fb bd 29 9b 69 be e6 9d 73 bd 69 c8 b7 3d
       -0.1225586 -0.22813095 -0.059476756 0.08973772
000140 33 f0 00 3e 49 13 1b 3d a3 58 67 bd 88 b4 0e 3d
       0.12591629 0.03786019 -0.056481015 0.034840137
000150 ac 0d 1d be 85 8d b2 3c d5 15 f1 3d 85 49 b1 bd
       -0.15337247 0.021795997 0.11771742 -0.08656601
000160 f7 bb 54 bd 99 09 93 bd 54 75 e9 3d 61 01 20 bd
       -0.05193707 -0.07179565 0.11399332 -0.039063815
000170 83 d6 e3 3d 43 f8 fd 3d e4 23 14 3e 66 3e b0 3d
       0.11124899 0.12400868 0.14466816 0.086056516
000180 40 13 52 3e ff 0e f5 3d 33 7d 7c 3e c3 9c 60 3d
       0.20515156 0.11965751 0.24657135 0.054837
000190 95 c6 fe 3d ac 53 19 3d 28 8f 04 be 70 5e 2a 3e
       0.1244022 0.03743331 -0.12945235 0.16637588
0001a0 75 2b 67 3e 66 eb a5 3e 2a 19 23 3e c1 32 9e bc
       0.22575171 0.32406157 0.15927568 -0.01931131
0001b0 de 53 37 3e 49 6a 29 3d 13 fe 1a 3d b2 6c b9 bd
       0.17903087 0.041361127 0.03783996 -0.09053935
0001c0 da 4b 27 3e d5 d2 f5 3d cc 13 61 3e c9 ed 1e 3e
       0.16337529 0.12003104 0.21980208 0.15520395
0001d0 09 40 dd 3d ec 96 ad 3d 13 e3 8d bd f7 65 e8 3d
       0.10803229 0.08476052 -0.069280766 0.11347573

lstm.weight_ih_l0_reverse f4 [120, 15]
000000 9c 83 bc 3c 24 51 2a 3e 61 87 06 be 3a 72 29 3e
       0.023011975 0.16632515 -0.1313758 0.1654748
000010 73 ea 1d 3e 05 1a 3d 3e ad 37 88 bd 3b e8 17 be
       0.15421467 0.18466957 -0.06651244 -0.14834683
000020 f8 ce 65 be 1f cc bf be 4b 8b 5f 3c 6a 3d 45 3d
       -0.22442234 -0.3746042 0.01364405 0.048154272
000030 1a 94 2b 3e cd c9 db bd 75 69 13 bd 17 1b 56 bc
       0.16755715 -0.1073185 -0.035989244 -0.013067982
000040 86 1e d0 bd 9a c9 00 3e 31 94 9c 3d cf 15 f8 3d
       -0.10162072 0.12576905 0.07645453 0.12113535
000050 ec 2d 33 3d ec 90 30 3e e4 63 8f bc b9 5c 5b be
       0.043744966 0.17242783 -0.017503686 -0.2142209
000060 4d 84 28 be 6e 21 be ba 6d c9 a7 3d 4a 83 4f be
       -0.16456719 -0.0014505812 0.08192716 -0.20264927
000070 ba 07 da bd ac ec 17 be b8 7c 27 3c 3f de 26 be
       -0.10646005 -0.14836377 0.010222606 -0.16295718
000080 72 72 16 bd 51 a2 3d 3c 1d da 14 be cb 77 00 be
       -0.036730237 0.011574344 -0.14536329 -0.12545697
000090 0f 0b 20 bd 9a ed 40 be f3 76 67 39 c5 12 6f bd
       -0.039073046 -0.18840638 0.00022074189 -0.05836751
0000a0 ff 78 6c bd dc 7b 6d be 3e f9 81 3d 95 43 ee bd
       -0.05773258 -0.2319178 0.06346367 -0.11633984
0000b0 78 e7 03 3d fc 30 e0 3d 8c 09 46 3e 09 8a 22 3d
       0.032203168 0.10946843 0.1933958 0.03968242
0000c0 ca 0b 00 bc ed 58 1c 3d da e0 9c 3d 7f 97 89 bd
       -0.007815311 0.038170744 0.076600745 -0.06718349
0000d0 71 71 23 3c 85 1e ea bc 6d cc 30 bd 49 9c 1b 3e
       0.009975777 -0.028579006 -0.043163706 0.15196337
0000e0 86 cf ea 3d cf 06 bc bd 26 09 ee bd 33 ed 58 bd
       0.11465363 -0.09180986 -0.11622839 -0.052960586
0000f0 08 3d fa 3d c2 10 20 3e 86 d3 1e be a0 86 95 be
       0.12218672 0.15631393 -0.15510377 -0.29204273
000100 dc 99 bd 3d a8 19 1f bd 7f 8c 1a 3e 4f b6 11 3e
       0.09257862 -0.038842827 0.15092658 0.14229701
000110 b5 f6 59 3d b6 3e 95 bd 5b 2e 5a be 98 b8 3b 3e
       0.053213794 -0.07287352 -0.21306746 0.18332136
000120 37 72 bf bd 26 9c da 3d 90 29 2d 3e 20 79 1b be
       -0.09347957 0.10674314 0.16910386 -0.15182924
000130 de 83 4a be 90 3d cb 3d 5f f6 c7 bd c0 16 03 3e
       -0.19776866 0.099238515 -0.097637884 0.12801647
000140 b9 2e 43 3d ef f4 b5 3d d7 bf 7e be 60 1b 6f 3d
       0.04765198 0.08884608 -0.24877869 0.058375716
000150 d0 89 04 be b5 08 7b be 52 65 f7 3d 5d f7 13 3c
       -0.12943196 -0.2451504 0.12079872 0.009031144
000160 c7 eb 23 bd cf a3 45 bd d0 b5 91 be bd 59 34 3e
       -0.040019777 -0.048251923 -0.28459024 0.17612357
000170 f6 66 e8 3d 59 6b d5 3c 1b a3 80 3e a0 a9 a5 bd
       0.11347763 0.026052164 0.2512444 -0.08088994
000180 17 02 8d 3c 2c 01 8c 3c 0a f7 82 ba fa b2 0e be
       0.01721291 0.017090403 -0.0009991836 -0.13935462
000190 09 5e f1 3d cf 08 25 3e 70 13 c3 3d 28 90 1d be
       0.11785514 0.16116641 0.09525192 -0.15387022
0001a0 0d 77 3a bc 2a 81 d3 3d 2a 37 d9 3d 8a b3 9f 3d
       -0.011380923 0.103273705 0.10606225 0.07797916
0001b0 50 a4 11 be 18 75 10 3e 2c d8 31 3e 52 48 b1 bd
       -0.14222836 0.14107168 0.1736762 -0.08656372
0001c0 02 67 f6 3d fa 35 be 3d d2 3c 09 3e 50 07 85 3d
       0.12031366 0.09287639 0.13402107 0.064955354
0001d0 af c0 7d 3d 57 36 e5 3d 48 b8 59 be fa 64 cc bb
       0.061951336 0.11192005 -0.21261704 -0.0062376233
0001e0 45 9c cc 3c 18 05 5c 3e f1 5f db bd 58 43 c0 3b
       0.024976859 0.21486318 -0.10711659 0.005867403
0001f0 7c 44 96 3d ef 2b 86 3c d1 28 6c 3e 8d c8 37 3d
       0.07337281 0.016378371 0.23062445 0.044868995
000200 67 86 83 bc d9 82 84 3d b2 01 3e 3e cb f8 9a 3d
       -0.016055299 0.0647027 0.18555334 0.07566985
000210 29 84 f6 bd 3e c3 ca bd fa 2a 8b 3d e5 09 08 3e
       -0.12036926 -0.09900521 0.067953065 0.13285024
000220 c1 d5 df bd 8c 3f 00 3e 88 dd 5a bd 05 0b 1c 3d
       -0.10929442 0.12524241 -0.053433925 0.038096447
000230 8f 11 8d bd 67 02 e8 3b fb 42 2a 3e b6 cd ad bd
       -0.06888115 0.0070803645 0.16627114 -0.08486502
000240 79 e8 86 be 9e fb 56 3e 48 84 09 3e 19 01 e9 3c
       -0.26349238 0.20994422 0.13429368 0.028442906
000250 1a 37 58 3e 79 93 aa 3b 06 ea 4d 3e e7 2c c9 bd
       0.2111477 0.0052055684 0.20108804 -0.098230176
000260 fe 39 e8 bd b7 cb e0 3c fd 67 be 3c 84 e5 4d 3e
       -0.11339186 0.027440889 0.023242945 0.20107085
000270 97 26 da 3d 3c c8 81 be 70 3a 03 be 09 66 ff 3d
       0.10651892 -0.2534808 -0.12815261 0.124706335
000280 56 00 d5 3d aa b7 38 be 7d 31 7a 3b cd 2a 43 be
       0.10400455 -0.18038812 0.003817647 -0.19059296
000290 b1 60 8f 3e ef b9 02 be e6 dd 8c 3e 31 b0 0b 3d
       0.28003457 -0.1276624 0.27513045 0.034103576
0002a0 e8 0c 19 3e fb 6e cd bb b1 f6 d0 bd 7e f1 d0 bd
       0.1494633 -0.0062693334 -0.10203303 -0.10202311
0002b0 38 e0 b9 bd 01 b4 41 be 58 a9 ce 3d 96 fc 0c bd
       -0.090759695 -0.18916322 0.100908935 -0.034420572
0002c0 84 83 93 3d f2 3b 4e bd 2e e9 8e 3c 7f 0b 51 3e
       0.07202819 -0.050350137 0.017445173 0.20414542
0002d0 e3 3d 6c bd 47 2c 31 be b2 9b 45 bd e6 c2 bc bd
       -0.057676207 -0.17302047 -0.048244186 -0.092168614
0002e0 b9 a4 8d be ca 77 1f be dd d0 e5 bd 91 f3 04 be
       -0.27664736 -0.1557304 -0.11221478 -0.12983538
0002f0 86 5c af bd 0d 8e 18 3d 6b e7 f1 bd 51 42 16 bc
       -0.08562569 0.037244845 -0.118117176 -0.0091710845
000300 cc 65 3f 3e 1f 3a d0 bd 5f 4c 0c 3e ba bd bc bd
       0.18691176 -0.10167336 0.13701008 -0.09215875
000310 0a c6 0c be cf 42 18 3e f5 09 03 3e 51 e8 e9 3d
       -0.13747421 0.14869235 0.12796767 0.11421264
000320 e6 40 14 be 2a a3 47 be 20 fb 68 bd c3 9f 06 3e
       -0.14477882 -0.19495836 -0.056880116 0.13146882
000330 e2 92 ff bd a8 8e 84 be d9 6b e7 bd 27 db 04 be
       -0.124791875 -0.25890088 -0.11299867 -0.12974225
000340 4b bd 5f 3d 35 a5 0a be bb 2b 89 3d 5b d1 67 3d
       0.054623883 -0.13539584 0.06697794 0.05659614
000350 05 7b c6 3d cd ec 1e 3e 86 69 30 3e 89 cc b3 3d
       0.09691433 0.1552002 0.17227754 0.08779246
000360 38 50 0f 3e 46 09 82 bd 7e 9b b3 bd 06 8a 6d be
       0.13995445 -0.06349425 -0.08769892 -0.23197183
000370 db 54 b7 bc 44 f2 1f be a5 97 bf 3d b6 66 a5 be
       -0.02237933 -0.15619761 0.09355096 -0.32304925
000380 77 a7 19 3e 0a 83 53 3e 86 f2 85 3e 0c 40 dc bd
       0.15005289 0.20655456 0.26161593 -0.107544035
000390 c1 61 cf bd 0f 82 2c 3e f3 e3 fa 3d 39 f7 eb bd
       -0.10126067 0.16846488 0.12250509 -0.11521763
0003a0 96 a0 1c be 2e dc dd bd 6a df 35 3e 97 ac 12 be
       -0.15295634 -0.108330116 0.17761007 -0.1432365
0003b0 bf fd 6d bd 79 31 f2 bd 9c 9f a9 3c 37 a6 ca bc
       -0.05810332 -0.118258424 0.02070599 -0.02473746
0003c0 0c c3 cc 3d ac 20 08 bd 50 34 72 bd 21 38 47 3e
       0.0999814 -0.033234283 -0.05913192 0.19455005
0003d0 bc 9d 26 3e 67 d0 25 3e 47 ee 25 3e 4e 01 4c bd
       0.16271108 0.1619278 0.16204177 -0.04980593
0003e0 d2 76 0a 3e cc c5 01 3d 7f 6f 96 be d4 24 31 be
       0.13521889 0.031682774 -0.2938194 -0.17299205
0003f0 6a cb e3 bd 5d 2d 90 3d 2c 96 08 be 35 de 20 be
       -0.111227825 0.07039902 -0.13338536 -0.15709765

lstm.weight_hh_l0_reverse f4 [120, 30]
000000 a2 9c 2a 3d 5d 0c 54 be f4 ea 0d bd e9 a4 a2 be
       0.041653283 -0.20707841 -0.034647897 -0.3176644
000010 21 ef 52 3e c7 df 1f bc cb 89 be 3d 36 0c bf be
       0.20599033 -0.0097579425 0.09303626 -0.37314004
000020 c2 f2 31 bd c1 c7 a2 3e c7 0a 4d be b8 b5 af be
       -0.043444403 0.31793025 -0.20023642 -0.34318328
000030 83 87 36 3d a4 21 4e be d9 c2 5f 3d 32 c1 7e be
       0.044562828 -0.2013002 0.05462918 -0.24878386
000040 6e c8 2f bd e9 81 d4 b9 a1 f1 3d bd a1 5f 99 3d
       -0.042915754 -0.00040532582 -0.046373013 0.07488943
000050 f6 8a 03 bd f4 df 26 be b7 9a 36 3c c2 ec 23 3e
       -0.032114945 -0.16296369 0.011145285 0.16008285
000060 b8 c8 b7 3e 36 56 53 3b be 19 cd 3d d1 d2 bf 3c
       0.35895324 0.003224743 0.100146756 0.023415955
000070 6c 94 f1 bd 4c 77 c7 bd a7 60 a8 bc 00 f7 29 3e
       -0.11795887 -0.09739551 -0.0205539 0.1659813
000080 ef 48 57 be 9a 76 b2 3d 4d 94 e9 3c bc 24 c5 3c
       -0.21023916 0.08714028 0.028513098 0.024065368
000090 98 94 be bd f3 00 a0 be 76 1c c6 bd b5 27 87 be
       -0.09305686 -0.31250724 -0.09673397 -0.26397482
0000a0 cc a7 d3 bc a5 75 6a 3d da 2c cd bd 86 3a d0 3d
       -0.025836848 0.0572411 -0.100183204 0.101674125
0000b0 5e 39 b4 3e a0 a9 7e 3b b6 bb 24 be d9 ff 91 3e
       0.35200018 0.0038858429 -0.16087231 0.2851551
0000c0 cf 22 b3 3a 27 3b a2 3d 22 f7 86 bd f7 20 12 be
       0.001366699 0.07921439 -0.065901056 -0.14270388
0000d0 a3 a4 5d be 12 dd aa bc 78 43 26 be 25 65 c0 3d
       -0.21644835 -0.020857368 -0.16236675 0.09394292
0000e0 9c 1f 8b 3e da d4 3b 3b 51 42 8e 3e e6 51 16 3e
       0.27172554 0.0028660805 0.2778497 0.1467968
0000f0 68 49 8e 3d 50 2b ac bd f4 c4 b3 3c 81 f5 dd 3c
       0.06947595 -0.08406699 0.0219445 0.027094604
000100 e1 0f c6 bd 55 35 2f be 89 1e 26 3e 30 4d 49 3e
       -0.096709974 -0.17110188 0.16222586 0.19658351
000110 1d af 87 3c 0f cc 57 3e 55 78 54 be 50 41 35 3e
       0.016562993 0.21073936 -0.20749028 0.17700696
000120 cd 01 87 3d 82 62 0d bd 2e e3 55 bd 14 8a 12 3c
       0.0659214 -0.034517772 -0.05221861 0.008944053
000130 c2 6a a3 bd 32 db 21 3e 6b 67 81 3e 5b 43 14 bb
       -0.07979347 0.15806273 0.25274214 -0.0022623155
000140 06 42 8b 3d d2 84 1f be 77 33 ec 3d 55 0f f7 bd
       0.06799702 -0.1557801 0.11533254 -0.12063471
000150 97 54 0f be e9 00 87 3e 90 4a 9f be 05 8f 16 3e
       -0.13997112 0.26367882 -0.31111574 0.14702995
000160 b5 ee ad 3d 85 c2 16 be 77 8c 7c be 7e a7 69 bb
       0.084927954 -0.14722641 -0.24662958 -0.0035652812
000170 fa dc 94 3d 4f fc 54 be bc 6f e8 bc 38 49 66 3c
       0.072687104 -0.20799373 -0.028373592 0.014055543
000180 78 ee b2 bd 46 2a a9 3b 9a 72 06 3e 89 92 97 be
       -0.087368906 0.00516251 0.13129655 -0.29603985
000190 8d fd 39 be e0 e1 c4 3d 58 a5 04 be f6 36 bd be
       -0.18163128 0.09613395 -0.12953699 -0.36955994
0001a0 8e f1 f7 3d 63 da 51 3c ce f6 a3 bd 61 73 37 be
       0.1210662 0.012808415 -0.08006059 -0.17915107
0001b0 17 44 3e be d6 63 d5 bd a2 ea 1b 3e 33 01 2e be
       -0.18580662 -0.10419433 0.15226224 -0.16992645
0001c0 45 8e 83 bd 4b c5 47 3e 2c 9f 19 be 31 67 15 be
       -0.0642362 0.19508855 -0.15002126 -0.14590146
0001d0 a0 d9 e3 3d 4a 52 c4 3e 4f 4d c3 3d a3 aa 1e 3e
       0.11125493 0.38344032 0.0953623 0.1549478
0001e0 57 1f 5a bd 6d 82 27 be ce fd 74 bd ac 62 4f bc
       -0.053252544 -0.16358347 -0.05981236 -0.012657803
0001f0 bc 02 89 3e f7 72 81 3d 16 07 bd bd 27 0b 3e 3d
       0.267599 0.06320756 -0.09229867 0.046397354
000200 14 cb 01 3e fb 43 df bd 68 55 2e 3e 46 ae 05 be
       0.12675124 -0.10901638 0.17024767 -0.13054761
000210 2d 85 57 be 0f 45 0c 3e 8f 27 2d 3e e1 33 42 3c
       -0.21046896 0.13698219 0.16909622 0.011853189
000220 ac 92 bc be 25 1c 34 bc b0 02 a8 3d c7 a9 0e be
       -0.36830652 -0.010993038 0.082036376 -0.13931952
000230 23 8b 8d be cc c9 68 be 92 23 ca 3d 1d 32 01 3e
       -0.27645215 -0.2273323 0.09870066 0.12616773
000240 1b 61 31 be 62 52 d2 3d b4 f6 2c 3e 0a 5c 30 be
       -0.17322199 0.102696195 0.16890985 -0.1722261
000250 b8 b7 95 3d 6b b7 2e be 08 41 b6 be 7e 62 87 bd
       0.07310432 -0.17062156 -0.3559649 -0.06610583
000260 31 d3 36 3d 2e 40 e7 bd f2 fd c7 be 89 07 50 3d
       0.044635 -0.11291538 -0.39060932 0.050788436
000270 76 ea 92 be 9b df 5f 3e 78 d8 93 be 70 85 63 bd
       -0.28694504 0.21862642 -0.2887609 -0.055547178
000280 62 74 b7 3d 24 45 95 be 23 b5 a7 3c 8a 1a 2a be
       0.08957745 -0.29154313 0.020472115 -0.16611686
000290 1e e7 43 be 88 e3 c2 3e dd 26 cb 3d a9 a8 45 be
       -0.19131133 0.38064218 0.09919522 -0.1930262
0002a0 29 f1 58 be b4 75 57 bd 02 59 7a ba e2 39 1a 3e
       -0.21185745 -0.052602485 -0.00095500064 0.15061143
0002b0 fe b2 ff 3d 36 3c 99 39 cd bc 44 be a3 f4 17 be
       0.12485312 0.00029227295 -0.19212647 -0.14839415
0002c0 72 f4 81 3e dc 8e e0 3c 10 12 04 3d 0b b6 8c 3e
       0.2538181 0.02741187 0.03224379 0.27482638
0002d0 03 44 26 3e e4 6f b1 3d d4 06 29 be f5 a6 33 be
       0.16236882 0.086639196 -0.16506511 -0.17544158
0002e0 96 3e 68 3e 10 18 e1 bd f9 5b 2a 3e af 47 5a bd
       0.22680125 -0.10990918 0.16636647 -0.05329102
0002f0 48 2f 85 3e 98 55 b5 bd 49 3b 59 bd 91 f3 0b 3e
       0.26012635 -0.08854216 -0.053035054 0.13667132
000300 3d 6c 13 be 4a 1c b2 bc 7d dc 9c 3c ab c9 7d 3c
       -0.14396758 -0.021742005 0.019148106 0.015489976
000310 55 6c 33 bd fa 85 04 3e f4 b3 31 3e ff 85 50 be
       -0.043804485 0.12941733 0.17353803 -0.20363615
000320 9c e0 e2 3c f4 7c 09 be 0b db 67 3d 9b 65 94 be
       0.027694993 -0.13426572 0.05660538 -0.2898377
000330 0a 27 c5 3e bc a1 5e bd 79 84 81 bd 3a 75 37 bd
       0.38506347 -0.05435346 -0.06324095 -0.04478953
000340 73 b5 41 3e 7d 13 52 bd e0 62 d7 bc c7 01 d7 bd
       0.18916874 -0.051288117 -0.026292264 -0.10498386
000350 64 ca 2d be 73 80 6a bc 8f 5a c4 3c 32 26 fa 3d
       -0.16971737 -0.014312851 0.023968963 0.122143164
000360 0b c6 b3 3d 09 41 b3 bc 02 cd 25 3e 48 c6 61 be
       0.08778008 -0.021881597 0.16191486 -0.22048295
000370 87 fe 95 3d 75 d0 2d bc a2 fa 29 be ce d6 40 be
       0.07323938 -0.010608782 -0.16599515 -0.18831941
000380 8d 92 de 3d ab 5a 85 bd 33 77 6a be c5 23 9d bd
       0.10867796 -0.06511434 -0.22897033 -0.07672838
000390 98 c7 52 3d b1 ab 0a ba 1a c2 20 3e a6 8a 1b be
       0.05145988 -0.0005289866 0.15699044 -0.15189609
0003a0 58 f3 5a 3c 44 8d f0 3d 83 53 ac 3d 4e a7 97 bd
       0.013363682 0.11745694 0.08414366 -0.07404958
0003b0 35 93 9b bd be fa e7 bd ad e2 98 bd 26 42 8e 3d
       -0.07596437 -0.11327122 -0.0746511 0.069462106
0003c0 7e 0d 12 3e af d2 6b 3d 2f da 13 3e e9 8c 2f 3e
       0.1426296 0.05757397 0.14438699 0.17143597
0003d0 26 a8 81 be 97 8e 7d bd 1d 83 5b bd f6 6f da 3d
       -0.253236 -0.061903562 -0.053591836 0.10665886
0003e0 f6 c4 6c bd 0d 4a b5 bd f2 cf 71 be ef 99 14 3e
       -0.057805024 -0.08852015 -0.23614481 0.14511846
0003f0 77 4d 83 bd 42 8e ca 3c 01 3a ab bd 05 63 0b 3e
       -0.064112596 0.024726037 -0.08360673 0.13611992

lstm.bias_ih_l0_reverse f4 [120]
000000 7b ff 98 3e 24 fe df 3d 61 49 c4 3d 7e 85 63 3e
       0.29882416 0.10937145 0.095843084 0.22218892
000010 9b 23 90 bd fb 7a d8 bd bc db 0e 3e f5 69 b7 3d
       -0.07038041 -0.10570332 0.1395101 0.089557566
000020 b8 23 13 3e 79 79 0c be 4c 96 3d 3e 7d c7 c9 bc
       0.14369094 -0.13718213 0.18514365 -0.024631256
000030 a7 cb c9 3c bf 79 4e 3d cc 4f 84 bd ff e5 f2 3c
       0.024633242 0.050409075 -0.064605325 0.029650686
000040 ff b9 22 3e a7 fa 8b 3d 51 dc 5d be 20 6c c7 3d
       0.15891264 0.068349175 -0.21666075 0.0973742
000050 e0 29 1a 3e c5 9d 4f 3e b3 90 25 3e da d4 8b 3e
       0.15055037 0.20275028 0.1616848 0.2731083
000060 d0 18 c8 3d cc e9 f0 3c a3 30 fe bd a6 9c c3 3d
       0.097703576 0.029408358 -0.124116205 0.09551363
000070 5c 6e f2 3c 07 77 04 3e 6c 76 e4 3b 5f 0f 2c 3d
       0.02959364 0.1293603 0.006972125 0.042006847
000080 30 48 b4 3d ee 2d d1 3d ab 7b a5 3d 44 11 98 3e
       0.08802831 0.102138385 0.080802284 0.29700673
000090 31 36 1d bd e4 8f db 3d 58 6b f4 bc d6 0c 0b 3d
       -0.03838176 0.10720804 -0.029836342 0.03394779
0000a0 50 f3 19 3e cb 0a 8c 3e 7d 0d 56 3e 39 f1 55 3e
       0.15034223 0.27351984 0.20903583 0.208928
0000b0 fa 08 8d 3e cf af 2d 3e 94 56 7a 3e 7d ac b4 bc
       0.2754591 0.16961597 0.2444709 -0.022054905
0000c0 a2 3b 26 bc 46 5f 8e 3e ed b5 79 bd 8b 3b 37 3e
       -0.0101460535 0.27807063 -0.060964514 0.17893808
0000d0 d7 a2 69 bd 19 03 b5 3d 24 83 9e 3c fd c6 bd 3e
       -0.05704006 0.088384815 0.019349642 0.3706588
0000e0 a1 dd 10 be dc 93 4a 3d b1 20 05 3e a4 07 9a bd
       -0.14147045 0.049457416 0.13000752 -0.075209886
0000f0 aa 55 84 3c b9 86 c4 3d 00 d3 a9 3d 0f 26 01 be
       0.016154129 0.09596009 0.08292198 -0.12612174
000100 97 5f a2 3c 65 f2 23 3d 7e 73 cf 3d 42 3a 00 be
       0.019820971 0.040026087 0.1012945 -0.12522224
000110 d8 8a 9d 3c a6 42 12 3c 2e 93 9f bd d0 df 52 3c
       0.019231245 0.008927023 -0.07791744 0.012870744
000120 f9 d9 00 be 6b 7f 2d 3e 16 55 fc 3b c1 27 0d be
       -0.1258315 0.16943137 0.0077005727 -0.13784696
000130 a9 b2 b9 bd 85 2d 14 be 7d 98 3d 3d ff 32 06 be
       -0.0906728 -0.1447049 0.046288002 -0.13105391
000140 a1 25 dd bd b7 c4 d1 bc 9b 64 f3 bd 9b ac 73 3c
       -0.10798193 -0.025606496 -0.11884423 0.014872695
000150 26 d3 17 be 3f 43 ea bb b0 e8 db 3d 72 bb 2c 3c
       -0.1482664 -0.0071491296 0.10737741 0.010542737
000160 41 b3 25 be 04 3c 17 3d c2 52 f6 3c 18 39 0f be
       -0.16181661 0.03692247 0.030068759 -0.13986623
000170 27 c0 07 3c 1f 4e 63 bb ad b8 7c 3e b0 57 07 3e
       0.008285559 -0.0034684015 0.24679823 0.13217044
000180 72 ae b9 bc 34 1d d9 3b ab 43 29 3e 89 9c 83 3e
       -0.02266619 0.0066257957 0.1652972 0.25705364
000190 37 6d bb 3d 84 8f a0 3d 3d bb 19 bd f1 31 a8 3c
       0.091516905 0.078398734 -0.03753208 0.020531626
0001a0 90 6b 1c 3e 9a d1 15 3d 49 7c 2c bc c5 23 b9 bc
       0.15275407 0.036576845 -0.010527679 -0.022600064
0001b0 e1 d4 7b 3e ca ac 28 3e 46 28 05 be 2b e7 31 be
       0.24592926 0.16472164 -0.13003644 -0.1737334
0001c0 ed 72 4f bd 36 a2 f9 3d bf b5 38 3d 36 95 06 bd
       -0.05064671 0.121891424 0.0450952 -0.032857142
0001d0 e5 2b 95 bc 04 ca 18 3e 2b d0 22 3e 60 6e 67 3d
       -0.018209407 0.14920813 0.15899722 0.056501746

lstm.bias_hh_l0_reverse f4 [120]
000000 69 ad 97 3e b1 1b 6c 3d af 77 e5 bc 8c d3 d8 3d
       0.2962449 0.057643596 -0.028011171 0.10587224
000010 d3 95 7c 3e b8 25 a0 bd 41 e5 27 3d f3 d7 33 3e
       0.24666528 -0.07819694 0.040990118 0.17562847
000020 cd ed 3c 3d ac 40 b9 3d 3b 4c d6 bd cb ff 31 3d
       0.046125222 0.09045538 -0.104637586 0.043456834
000030 e8 fe 40 3e d6 ef 74 bd 3e 1a c6 bd 10 83 8d 3d
       0.18847239 -0.059799038 -0.09672974 0.06909764
000040 a4 f9 10 bd 4d 07 3c 3e 16 fd 2c be 32 f8 d1 bd
       -0.035394326 0.1836216 -0.1689342 -0.102524176
000050 27 6a 0b 3e c1 31 b6 bb a5 01 bc 3c a9 c4 eb 3d
       0.13614713 -0.0055601303 0.022950003 0.11512119
000060 53 70 15 3d e3 4c 53 3d 1c a0 ca bd 1c a5 35 3e
       0.036484074 0.051586997 -0.0989382 0.17738765
000070 a8 0a ca 3c 1d 9b 49 3e 09 3c ce 3d cc b5 4a 3d
       0.024663284 0.19688077 0.100700445 0.04948978
000080 f7 7c 98 bd e1 44 50 3d 66 57 0d bd 6e 3f 85 bc
       -0.0744571 0.050846938 -0.034507178 -0.016265597
000090 3a 5e 89 3d 51 e2 70 3e e9 32 1f be 7e 83 88 bd
       0.067074254 0.23523833 -0.15546764 -0.06665705
0000a0 40 4a 0e bd 16 64 46 3e 7d 2d e0 bb a2 79 a7 3c
       -0.03473878 0.19374117 -0.00684136 0.020443741
0000b0 6a 11 55 3e 66 2a 5c 3e ae 2f 2e 3e 19 e7 92 3d
       0.20807424 0.21500549 0.17010376 0.07172985
0000c0 28 44 09 3e f4 d1 4b bd 49 4b 81 3d e1 eb 75 3d
       0.13404906 -0.049760774 0.06313188 0.060039405
0000d0 dc 40 f1 3d 5e 8d 0c 3e a0 ec ca 3c b8 05 7f 3e
       0.11779949 0.13725802 0.024771035 0.24904525
0000e0 9b 01 34 bd 06 49 40 3e 63 bf f0 3c 19 2f b5 bc
       -0.043946844 0.18777856 0.029388135 -0.022117184
0000f0 bd d2 a9 bd ab 85 3b be a0 67 22 be 67 67 28 be
       -0.08292148 -0.18312709 -0.15859842 -0.16445695
000100 ca e4 4d 3d dc 78 04 bd 88 00 14 be 7b 04 b7 3d
       0.05026702 -0.032341823 -0.14453328 0.089364015
000110 71 c9 42 bd 62 36 d7 3d 01 07 88 bd 64 b2 03 3d
       -0.04755539 0.105084196 -0.06641961 0.03215255
000120 67 57 0c be c3 e4 f6 bd 56 13 d5 bc 02 58 3b bd
       -0.13705216 -0.120553516 -0.026010197 -0.045738228
000130 75 40 40 3d d7 9c 50 3b 84 74 c9 3d e6 31 ac 3d
       0.04693647 0.0031831765 0.09836677 0.08407955
000140 17 48 14 bc c6 ef 0f be f7 24 ed bd 23 10 51 3e
       -0.009050391 -0.1405631 -0.11579316 0.20416312
000150 21 44 ec bc ab 5c 2a bd 17 bd 32 be 51 b9 93 bd
       -0.02884108 -0.04159228 -0.17454945 -0.07213081
000160 e2 bd da 3c 6c 84 b2 3d 2f 85 9b bd a1 fd 17 3e
       0.026701871 0.08716664 -0.07593762 0.14842845
000170 26 b1 29 bd 87 83 93 3d c2 ee 3c 3e 9e d0 7b 3d
       -0.041428708 0.07202821 0.18450454 0.06147825
000180 e6 05 0f 3e e7 cf de 3c f8 17 b1 3d f9 bf af 3d
       0.13967094 0.027198745 0.0864715 0.08581538
000190 01 46 49 3e 60 69 ae 3d 18 23 0c 3d d5 71 03 3e
       0.1965561 0.085161924 0.034213156 0.12836392
0001a0 f6 51 4a 3d 05 3d 53 3e 67 5d d1 3d 24 f7 d8 3c
       0.04939457 0.20628746 0.10222893 0.026485033
0001b0 6f e9 7b bd b3 c5 ee 3d 36 e8 a7 3d aa f5 0b 3e
       -0.061501916 0.11658802 0.081985876 0.13667932
0001c0 28 9c f3 3b ba 74 e9 bb 6b e9 e8 3d dd 34 d2 3c
       0.0074343868 -0.0071245106 0.11372646 0.025659973
0001d0 2c 18 f9 3b ba 68 59 3e 6c 70 94 3e 52 b7 1a 3e
       0.0076017585 0.21231356 0.2899202 0.15108994

lstm.weight_ih_l1 f4 [120, 60]
000000 01 01 af bd 7f 40 06 bd 73 c5 b0 3d 4a e5 d8 3d
       -0.08545113 -0.032776352 0.086314104 0.105906084
000010 ee 97 3e 3d d7 4f e6 bd d2 ed 28 bd 15 83 a9 3c
       0.04653161 -0.11245697 -0.041242428 0.020692388
000020 51 94 b5 3d 14 e6 1c 3d 4f 67 45 be ec 91 02 be
       0.0886618 0.038305357 -0.1927769 -0.12750977
000030 3b 2a 58 3d a3 1c 0f be 5d 8a d6 3d c5 84 31 3e
       0.05277465 -0.13975768 0.104756095 0.17335804
000040 ea 6c 17 3e 4a b3 3c bc e9 02 6a 3e c2 84 7d 3d
       0.14787641 -0.011517355 0.22852673 0.061894186
000050 3a 54 16 3e e4 21 c6 3c 8b 24 2f bd 26 9e 47 3e
       0.14680567 0.024186082 -0.04275946 0.19493923
000060 85 2f 26 be fa 3e e5 3d 68 9c da 3d 22 6f 48 3d
       -0.16229065 0.111936525 0.106743634 0.04893411
000070 6c 99 9e bd 74 26 44 bc 95 23 80 3d da 66 03 3e
       -0.07744107 -0.011972059 0.06256787 0.12832204
000080 ec 28 72 bd b5 f3 2b bd ac 96 b2 3d dc 7c de bd
       -0.059121057 -0.041980464 0.08720145 -0.10863659
000090 48 f1 ba 3d 9e d6 32 be d0 3a df 3d a3 34 a3 bd
       0.09128052 -0.17464682 0.108998895 -0.07969024
0000a0 44 d6 f7 bd e6 33 49 bb 7b e5 28 3e ee 53 be 3d
       -0.12101415 -0.00307011 0.1649379 0.09293352
0000b0 e3 5d 92 bc c1 68 48 bd 59 1b a8 bd 8b ed 4c be
       -0.017867034 -0.048928026 -0.08208341 -0.2001249
0000c0 d9 34 2f be 92 bb 0b 3e bd bc a8 3c 24 b3 da 3c
       -0.17110004 0.13645771 0.02059781 0.026696749
0000d0 6e 73 65 bd 67 7f 28 be b9 0c 11 be 81 8e c1 bd
       -0.056018285 -0.1645485 -0.1416501 -0.094510086
0000e0 6e a4 8a 3c 81 f6 44 be 8c 50 98 3d 74 37 76 bd
       0.01692411 -0.19234659 0.07437238 -0.060111478
0000f0 e5 6f aa 3d be 7b 00 be ec c7 b5 bd 7b 55 20 bd
       0.083221234 -0.12547204 -0.08876023 -0.03914402
000100 69 c1 8e bd 5f b6 14 be 26 7c 7d be 40 0a 46 be
       -0.06970484 -0.14522694 -0.2475439 -0.19339848
000110 c5 f3 39 3d 84 14 4a 3d 9a 58 5a 3d 3c c8 07 bd
       0.045398492 0.04933597 0.053307153 -0.033149943
000120 ae de da bc 77 a1 da bd f1 3c fd 3d 60 96 26 3e
       -0.02671751 -0.10675328 0.12365139 0.16268301
000130 f4 bc 11 3e 5c ef fd bd 1a 60 7a 3d 14 63 1f be
       0.14232236 -0.1239917 0.061126806 -0.15565139
000140 78 89 cc bd aa 78 b9 3d 54 9f 61 3b 52 91 76 3d
       -0.099871576 0.09056218 0.0034427242 0.060197182
000150 49 fc f5 3c de 4a d9 3c 2f 29 e5 bd 61 89 58 bc
       0.030027525 0.026524957 -0.11189496 -0.013216347
000160 dd 1d 05 3e e5 53 a8 bb 0f cb e7 3d 90 14 8e 3d
       0.12999673 -0.005136954 0.11318027 0.06937516
000170 41 69 16 3b 0a 15 5f be 9b 4a 35 3c f4 1c 0a 3e
       0.002295092 -0.2178537 0.011065151 0.13487607
000180 46 cc d4 bc 53 c6 50 bc 36 e4 b5 bd 47 04 1b 3e
       -0.025976311 -0.012742597 -0.088814184 0.1513835
000190 0e 30 a6 bc 49 aa a4 3c 7d d3 3d 3e 5a c4 0b be
       -0.020286586 0.02010073 0.18537708 -0.13649121
0001a0 cc fa 02 3e 1f 6c ff bd a0 2e 54 3d f6 b2 40 3e
       0.12790984 -0.12471794 0.051802278 0.18818268
0001b0 fa 9e 1e 3d b3 d0 33 3e 29 2c a7 bd bf 7b 96 bd
       0.03872583 0.17560081 -0.0816272 -0.073478214
0001c0 39 37 95 bc ef 1b b5 3d d0 72 1d bd fa a5 fd bd
       -0.018214809 0.088432185 -0.03843957 -0.12385173
0001d0 3e a3 fc bd 1f 64 21 be b8 19 22 3e 6d b4 5f be
       -0.123358235 -0.1576085 0.15830123 -0.2184617
0001e0 f6 9a ae 3d 21 60 3c be 81 fc 27 be dc 48 ec bd
       0.0852565 -0.18396045 -0.16404916 -0.11537334
0001f0 73 10 8d 3c b4 19 08 bc 78 3b 79 3b a6 f9 18 3d
       0.017219758 -0.008306909 0.003802983 0.03734746
000200 58 52 87 bc f1 9c 8a 3c 9b cd 6a bd a4 20 95 3b
       -0.016518757 0.016920539 -0.057324987 0.00455101
000210 3c d1 97 bd c3 6c 0b 3e a5 5b 9d bc a5 de 6f 3d
       -0.07412955 0.13615708 -0.019208739 0.05856194
000220 cb 51 42 3e c7 c0 14 3e 72 f3 f0 3d 69 b1 8f 3d
       0.18976514 0.14526664 0.117651835 0.0701626
000230 1e 11 84 bd 20 e0 03 be da c7 ac bd 54 2e 07 be
       -0.06448577 -0.12878466 -0.08436556 -0.13201267
000240 73 7c a4 bc 62 a4 98 bd b7 8f 6d bd b6 77 1d bd
       -0.020078873 -0.074532285 -0.057998385 -0.038444243
000250 d6 bd 82 3c 0a d9 d2 3d 8b 42 ad 3c 20 b0 bd bd
       0.015959661 0.10295303 0.021149894 -0.09262109
000260 4b e3 13 be af e5 de bd 81 1a a8 3d 97 0b 17 3d
       -0.14442174 -0.108836524 0.0820818 0.036876287
000270 e1 ec 35 3e d5 08 55 bd ce a1 d4 bd a6 f9 cf 3c
       0.17766143 -0.052010376 -0.10382424 0.025387596
000280 92 74 06 bd 78 df 16 3e 89 b3 1d be 86 b4 d6 bd
       -0.032826014 0.14733684 -0.15400518 -0.10483651
000290 28 07 13 3c 67 fd b7 bd de b6 07 be 4a 3b 91 bd
       0.008973874 -0.089838795 -0.13253352 -0.070913866
0002a0 6e 44 36 be fc cb 49 bd d5 2f 08 3e 55 98 72 bd
       -0.17799541 -0.0492668 0.13299496 -0.059227306
0002b0 ec 50 18 be 26 ca b8 bc 42 62 d7 3c 4d a6 94 3d
       -0.14874619 -0.02255733 0.02629197 0.07258282
0002c0 ab 29 25 be d1 d8 4d 3e 5d 0a 92 3d de e8 59 3d
       -0.16129176 0.2010224 0.07130883 0.053200595
0002d0 d9 69 9b 3c 6c 24 6a 3d 47 0e 82 3d 32 3e 18 3e
       0.01897137 0.05716364 0.063503794 0.14867476
0002e0 72 2c c9 3d 44 00 2f be 4b 3d 1e bd 77 ca cd 3d
       0.098229304 -0.17089945 -0.038632672 0.10048383
0002f0 60 0e 08 3e 58 2f 37 3e a6 aa 88 3d bb 75 43 bd
       0.13286734 0.17889154 0.066731736 -0.0477197
000300 14 bf e4 3d de e1 d8 bd f2 32 08 3e 86 66 1b 3e
       0.11169258 -0.10589956 0.13300684 0.15175828
000310 78 9e b4 3d d1 cc 96 bd 21 55 4c be a3 aa c4 bc
       0.08819288 -0.073632844 -0.19954349 -0.024007147
000320 df d4 0a be 61 f4 b7 3d c5 ea b0 3d 3c 48 bf bd
       -0.13557766 0.089821585 0.08638529 -0.093399495
000330 da f4 50 bd d9 68 fa 3d 98 2c 1b be f6 4b 0b be
       -0.05101476 0.12227029 -0.1515373 -0.13603196
000340 e0 bf bb bd 8b 5c 1f be e2 43 bc bd 0f 89 85 3d
       -0.091674566 -0.15562646 -0.09192635 0.065202825
000350 9c ea a9 bd 08 a3 05 be 30 e6 3e be b7 db 39 bd
       -0.08296701 -0.13050473 -0.18642497 -0.045375552
000360 e3 7d 00 3e b1 9b 18 be 0a 08 b5 bd c5 fe 13 3e
       0.12548022 -0.14903142 -0.08839424 0.14452656
000370 3e 56 67 bd 79 0e 4c bd fb 7c 3b 3e 7b 2d 3c 3e
       -0.05647873 -0.04981849 0.18309395 0.18376724
000380 9c dd 16 3c 95 c7 d2 bd 4d 16 f4 3d 92 64 bd bc
       0.009208109 -0.102919735 0.11918316 -0.023119245
000390 42 c5 3d 3e 67 ec 54 3e 11 29 b8 bc c6 e8 88 bd
       0.18532279 0.20793305 -0.02248052 -0.06685023
0003a0 c9 86 10 bd 40 98 56 bd c0 12 1c be 8f c9 c9 bd
       -0.03528479 -0.05239129 -0.15241528 -0.098528974
0003b0 9b 6b 88 bd 96 ad 37 3d cf 1c 48 be af e8 3e be
       -0.06661149 0.04484328 -0.1954224 -0.18643449
0003c0 e3 a1 1e 3e 2d f1 9e bb 7b a8 1a 3e ae 44 c8 3d
       0.15491442 -0.0048505277 0.15103333 0.097787246
0003d0 a3 f2 1c 3e 1e dd 4d 3c e7 d3 98 bd e1 93 bb bd
       0.15326934 0.0125649255 -0.07462292 -0.09159065
0003e0 a1 ec 00 3e 50 a3 50 ba 43 11 2b 3e 61 44 b2 3d
       0.12590267 -0.0007958906 0.16705804 0.087044485
0003f0 0f cb 21 be 8e de 13 3d e5 9c 05 be 74 fd 62 3d
       -0.15800117 0.036100917 -0.13048132 0.055417493
