model/LSTMY/RAcheckpoint2.pt (torch, 229202 bytes, 31 tensors)

lstm.weight_ih_l0 f4 [120, 15]
00000000: e825 12be 282f 2f3e 2ecc 31be 68c7 45be
00000010: a7b7 37be 0257 f0bd 20b1 1e3e 642a 0fbe
00000020: 731c 03bd 2439 2f3d 0d8e 2f3e da56 fb3d
00000030: 24f4 8c3c a785 d2bd bc73 643e 656d 283b
00000040: 45bb 5ebc a2b0 1abe 318d cbbd edbd 283e
00000050: f60a 733e 2e2a 133e a633 8dbd 5258 5bbd
00000060: 2ab9 3a3e bac1 a93c 1fc0 163c 2e9e cabd
00000070: ee25 ecbd 8441 1e3e fd5a 13be ad4a b4bd
00000080: df58 2ebe b9ae f7bc 153a 923d 82b9 19be
00000090: 8bc0 82bd 21cf 47be df38 143e 47a8 833d
000000a0: 911a ad3c 2538 873d 9d8b 4dbd 0c67 6e3e
000000b0: 553e 0d3e b4a0 a03d edb0 3dbc bd16 e3bd
000000c0: 408e b33d 80b9 48bd 3138 79bd f871 38bc
000000d0: df81 a33d f6d0 7f3d 2461 3dbe 985e 4c3d
000000e0: 2fdb 77be 6daa 323d c107 58bd 40ab ee3d
000000f0: 599c 783d 84ed 2abe 0b69 7e3e 8eeb ec3d
00000100: 27ab 293d 36e9 78bb 4315 a0bd abec 36be
00000110: a82b 233e 3b27 aeba 577c 95bd 1793 dcbd
00000120: 0ac3 cdbd bbb3 56be 3b94 08be 126a 47be
00000130: aa1e 3ebe aa66 a0bd ee81 153e 546d 82be
00000140: a437 1fbd aa59 a3bd 8fe8 f1bd f974 eabd
00000150: 7e07 02be dc50 da3d d4af 87bd fa34 433e
00000160: 98c0 293e 74d7 2f3e d630 9cbd 604d 42be
00000170: 34b5 05be d8ba dfb9 95df f03d 80cd 16be
00000180: e95c 413e 06c3 15be 3c5c 8c3d 8d18 c0bd
00000190: 2b72 073e c959 523d 7f94 57bd 5246 18be
000001a0: d32a 1e3e c8db 103e c136 26be f848 b3bd
000001b0: a264 f5bb b16c 16be bf29 74be 9aa7 18bd
000001c0: d443 c5bd 28b9 fabd aca3 d03c ac95 7e3e
000001d0: ded1 9ebd fceb 15be dafd da3d c85b a73c
000001e0: b7eb 2f3d 0162 cb3c 35a7 7d3e 4c76 d9bd
000001f0: c696 3abe 3e1e 45be e193 233e 71da ed38
00000200: c2f5 2dbe d869 8a3d 48d4 4dbc 9fcd ddbd
00000210: 6450 1abd eb3c 213e b9dc cfbd 5cd1 f83d
00000220: b763 203c e369 963d 8d54 cb3d dd1d 01bc
00000230: 2628 f93d 98cb 203d 9d5d 3f3b 421a 3ebe
00000240: 8c70 4b3e 0f77 493e 944b 843c e109 683c
00000250: dcdb 03be 8b38 2cbe 2607 bfbd cc32 93be
00000260: 87c4 df3d 1aff e43d 3f3b 203e 78e6 f9bd
00000270: 5b50 ffbd 0a40 683e ea14 98bd 3fee 60be
00000280: feb0 6dbe d8ae a13b cd65 0fbd 85be b5bd
00000290: 1529 58bd 8bb3 2bbd 7a68 aa3c 85b1 98bd
000002a0: 41b0 18be b0fb adbd 69f7 2dbe 6d61 67bd
000002b0: 8d22 0c3e 7c09 713d 5b7d febc d660 b83d
000002c0: 0ab9 a7bd ed2f 3dbe c0db aa3d 1ce7 073e
000002d0: cd48 843e 50cb 03bc 2805 65bd 2215 3cbe
000002e0: 69c8 523e 257a 5cbb a197 0bbe 6276 1dbc
000002f0: a8ae 053e 85bd 7c3d f483 16be a0fc 52bd
00000300: 69ae 263c 3a1c e63d f411 593e 5c64 1d3e
00000310: 8de0 523e d82f 44bc 185d 2d3d 575a 9dbc
00000320: 7a93 17bd fef0 da3d bc48 113e bcb6 963d
00000330: d1d7 353e 367c ca3d 40b1 7bbe 34ac 4c3d
00000340: 4e0a 253e 602d d83c b72d 1fbe 706c 243d
00000350: b144 dfbd 7b58 58bd e01d b43d e15e a7bd
00000360: 0b8c 023e ab48 63be 080b 90bd ef59 ef3b
00000370: a36f 4bbd 8d6d 273d 2c74 be3d b0d8 863e
00000380: 29fc bc3d 7aae 4cbd 6c68 113b 6935 1abe
00000390: dc03 803d a8be 033e 40a5 35bd c82f e43d
000003a0: 8266 033e 1b40 12be 7f71 98bd daee 91be
000003b0: 1893 9c3d 0c33 6abd 5dee 0a39 c0d1 c03a
000003c0: 047f 0bbe a7e4 89bd 2d4a f4bd 0767 3fbd
000003d0: e1f4 b2bd 3e51 073e 428e c53d 1098 48be
000003e0: ed63 123e 6603 0d3e 809b 163e 2749 90bd
000003f0: 1de1 84bc e666 123d 90bc 66bd d689 303e
-0.14272273 0.17107832 -0.17363045 -0.19314349 -0.17941152 -0.117353454 0.15497255 -0.13981014
-0.032009553 0.042779103 0.17144032 0.12272425 0.01720626 -0.102793984 0.22309774 0.002569997
-0.013594453 -0.15106443 -0.099390395 0.16478701 0.2373465 0.14371559 -0.06894617 -0.053551026
0.18234697 0.020722259 0.009201079 -0.09893452 -0.11530672 0.1545468 -0.14390178 -0.08803306
-0.17026089 -0.030234681 0.071399845 -0.15012172 -0.06384381 -0.19512607 0.1447482 0.06428581
0.021130832 0.066025056 -0.050181974 0.23281497 0.13793309 0.07843152 -0.011577827 -0.11088321
0.087673664 -0.04900503 -0.060844604 -0.011257641 0.07983755 0.06245514 -0.18494087 0.0498949
-0.24204706 0.043619562 -0.05274177 0.11653757 0.06069598 -0.16692168 0.24844758 0.11568366
0.04142299 -0.0037980801 -0.07816555 -0.17863719 0.15934622 -0.0013286838 -0.072991066 -0.10770243
-0.100469664 -0.20966999 -0.13337795 -0.19474056 -0.18566385 -0.078320816 0.14600345 -0.25474036
-0.038871422 -0.079760864 -0.11811935 -0.11448092 -0.1269817 0.10659954 -0.066253334 0.19063178
0.16577375 0.17172033 -0.07626502 -0.18974829 -0.13057405 -0.00042673084 0.11761395 -0.1472683
0.18883099 -0.14625177 0.0685353 -0.09379683 0.13227145 0.051355157 -0.05263185 -0.14870575
0.15446024 0.1414634 -0.16231824 -0.08754152 -0.007488803 -0.146899 -0.2384405 -0.037269212
-0.09632078 -0.12242347 0.02546867 0.24861783 -0.07754873 -0.14640802 0.106929496 0.020429507
0.042949405 0.024827005 0.24770816 -0.106182665 -0.18221578 -0.19249818 0.1597438 0.000113417285
-0.1698828 0.06758469 -0.012562819 -0.10830235 -0.037674323 0.15745895 -0.101495214 0.12149307
0.009789399 0.07344415 0.09928236 -0.007880655 0.12165861 0.039256662 0.0029200085 -0.18564704
0.19867152 0.19674323 0.01614932 0.014162512 -0.12876838 -0.16818444 -0.09327535 -0.28749692
0.109261565 0.11181469 0.156476 -0.122021616 -0.124664985 0.22680679 -0.07425864 -0.21965884
-0.23212048 0.004934173 -0.035009194 -0.08874229 -0.052773554 -0.041919272 0.020801771 -0.07455734
-0.14910986 -0.08495271 -0.1698891 -0.056489397 0.13685055 0.058846936 -0.031065634 0.09002845
-0.0818959 -0.18475313 0.08342695 0.13271755 0.25836793 -0.008044079 -0.05591312 -0.18367437
0.20584263 -0.003364214 -0.1363206 -0.009610744 0.13054907 0.061704177 -0.14698774 -0.051510453
0.010173419 0.112358525 0.21198255 0.15370315 0.20593472 -0.011974297 0.04232511 -0.019208116
-0.03700588 0.10690497 0.14187902 0.073590726 0.17758109 0.098869726 -0.24579334 0.049968913
0.16117212 0.026388824 -0.15544783 0.040142477 -0.10901774 -0.052818757 0.08794761 -0.081723936
0.12748735 -0.2219569 -0.07033354 0.007304422 -0.049667012 0.04087596 0.09299502 0.26337194
0.09227783 -0.04997108 0.0022187484 -0.15059437 0.06250736 0.12865698 -0.044347048 0.11141926
0.12832072 -0.14282267 -0.07443523 -0.28502542 0.076452434 -0.05717759 0.00013249503 0.0014710948
-0.13622671 -0.06733065 -0.119282104 -0.046729114 -0.08738113 0.13214585 0.09646274 -0.19589257
0.14295931 0.13770828 0.14707756 -0.07045203 -0.016220624 0.035742663 -0.05633217 0.1724008

lstm.weight_hh_l0 f4 [120, 30]
00000000: 0ba4 823e 52f8 49be 2d65 7cbe bf93 163e
00000010: d63b aabd 4b77 2fbd fb50 cabd 1b6a 6a3e
00000020: 3841 2d3d 47a1 673e 7b4b 0c3d c202 683e
00000030: dc2c 90be 1de5 613c f246 b13d 6396 61be
00000040: 6111 933d d11b dcbb bb3f 423d 061f 0dbe
00000050: 07b1 683e 175f 79be 833c 4abd cf40 10be
00000060: 3c64 dc3d c8dc 34be d262 42bd cd06 d5bc
00000070: e9fd 093e b24e b9bd e8da 5f3e 7413 483e
00000080: 092e 023d 0d57 70bd 9e0f c33d f3f4 083e
00000090: dc47 803d 3113 43be 11d0 323e fac9 243e
000000a0: 268a 603e 82e7 023c 303b a13d 33d4 c03d
000000b0: 191a 00bd 8c25 143e 8228 fe3d be19 8d3d
000000c0: 19c7 d9bc e98f 1c3e 26b5 863d bc88 38be
000000d0: fa2e c53d bbe0 443e 438f 8bbc 7e5a 5b3c
000000e0: 732c d9bc 2476 8d3d ff36 0d3d c813 99bd
000000f0: 3cdb 28be f393 42be 6785 a8bd e913 0abd
00000100: 56fa 52bd fba9 18be 6c37 163e 6f1f 753d
00000110: b375 20be 7932 a6bd 532f d6bc a980 cbbd
00000120: 2db2 f33d 24da 533c 1046 883e 2e43 4cbe
00000130: 2b49 2d3e 1ab9 303e 3358 833d 4dbf 40be
00000140: 084b 953d 0759 233e 2ab3 6cbc a231 293c
00000150: a838 c0bd 809e 0bbd 678a 24be dce3 95bd
00000160: 3016 c43c 6bee 0bbe 99f5 0f3c 08e5 523e
00000170: d6b1 e5bd 3501 48be fd83 58ba b208 b23d
00000180: 920e 18bd 4071 8fbd c621 9a3e 0633 0f3e
00000190: c31a 1a3e 4612 ee3c 5b9c e1bc 04cb 593c
000001a0: 50b1 d53b efb0 193e b086 47be 71dd 123e
000001b0: a6f9 35be 8479 a63e 7ddf 0abe 69e8 98be
000001c0: 54ce af3c 0386 e33d 0ac2 abbd 09b3 06bd
000001d0: 3c19 afbd f44e 4f3e f4df d13c 0406 62be
000001e0: 84c0 70bd ed44 293e 07c9 2abe 206f 72bc
000001f0: 2137 0f3e 7963 48bc 89c2 7abb 94e1 bc3d
00000200: d981 103e e52d a2bd b110 f8bd 6d42 3c3e
00000210: 875f 5fbe 777d 4b3e eef9 0c3d 9fd8 b5bd
00000220: f8a4 f73c fa99 bc3c 49de 21be e288 8d3e
00000230: e2ba 4c3d eaf2 3abe 1582 b13d d516 00be
00000240: 78f7 19be af0b 4abc d482 83bc 8482 11be
00000250: 19f4 273e 367c 98bd dd34 093e 9455 bebd
00000260: 2659 293c a8cc e33d a412 fdbd df60 993e
00000270: 042a b8bd 3735 6b3e 695f f8bc b854 1f3e
00000280: 7e08 8bbe 720f 24be f550 2cbb 5acd 273d
00000290: 3d43 823b ff56 14be 0126 6a3e 6d94 bc3d
000002a0: c883 1cbe 65f0 02be 6ca1 8e3d b0e6 f1bd
000002b0: 34c8 0bbd b936 6fbe e27a 17be 532f c53d
000002c0: 8508 023e dd7d 64bd e9bd 93be 9674 8cbd
000002d0: 40fd 393e 9622 23be 792a 88bd 5dc1 173e
000002e0: 6531 8f3d fc9e 6fbe 2d3e aa3b 0849 2b3e
000002f0: 838a 0abe f5f9 cf3d 0b88 bcbd 4d3d 583c
00000300: 4ea3 39be 3986 0cbd 524e 2e3e cc97 173e
00000310: 720e 973c 9dd7 be3c 3ee4 68bc 3170 4cbd
00000320: 1a2d 033d 222a 36be 0bca 063c df18 013e
00000330: 4d76 dbbc 033a c2bd 4cf9 273d bf93 d7bd
00000340: 0741 ba3e 5d71 3dbe 79c2 2b3e 5d47 a3be
00000350: 5de7 0e3e 1475 43be ac7c 263d 2ebc 4dbe
00000360: ce41 873c a967 30bd d1d7 253c e82e b63d
00000370: 3dee 553e 4166 7dbe 1380 35bc bc56 e33d
00000380: 1b81 c03d 50c9 a6be 21e4 823e 6732 123e
00000390: 70e7 7bbd 805a 4b3e 4ca4 b7bd 901b 0e3d
000003a0: e640 413e f689 b6be fcb4 c4be fdfc b63e
000003b0: 4a0b 1bbc 3f57 2dbe 8534 9c3d af14 0d3e
000003c0: 8dcb 463c 04fb c73d 8dcd e83d 7f96 923d
000003d0: 5005 4cbe 0e48 72be 5066 57be 59fa 88bc
000003e0: 0e26 32be 69bc bf3d f314 4a3e 76dc ff3d
000003f0: 7509 6bbd 0f95 223d d097 2f3e 0c98 a83d
0.2551578 -0.19723633 -0.2464797 0.14704798 -0.08312194 -0.042838376 -0.09878727 0.22892039
0.042298526 0.22620116 0.03425167 0.22657302 -0.28159225 0.013787535 0.0865611 -0.22030024
0.07181049 -0.006717183 0.04742406 -0.13781366 0.2272378 -0.2435268 -0.049374115 -0.14087223
0.10761306 -0.17662346 -0.047457524 -0.02600422 0.13475765 -0.09048213 0.2186085 0.19538671
0.031782184 -0.058676768 0.09524463 0.1337469 0.06263706 -0.1905029 0.17462184 0.16092673
0.219277 0.007989766 0.07872617 0.09415474 -0.03127489 0.14467448 0.1241007 0.068896756
-0.026584195 0.15289272 0.0657752 -0.1802091 0.09628101 0.19226353 -0.017036086 0.013388274
-0.026510453 0.06907299 0.034476276 -0.07474476 -0.16489881 -0.1900175 -0.082285695 -0.033710394
-0.05150827 -0.14908592 0.1466958 0.05984443 -0.15669899 -0.08115096 -0.026145613 -0.09936649
0.11899219 0.012930427 0.26615953 -0.19947502 0.16922443 0.1725811 0.06413307 -0.18822975
0.07289702 0.1595193 -0.014447013 0.010326775 -0.09385806 -0.034086704 -0.16068421 -0.07318851
0.023936361 -0.13665168 0.008786582 0.20595181 -0.1121556 -0.1953171 -0.0008259414 0.08693065
-0.03712327 -0.070040226 0.30103892 0.13984308 0.15049271 0.029061448 -0.027540376 0.013293032
0.0065213814 0.15008901 -0.19484973 0.14342286 -0.17771015 0.32514584 -0.13561817 -0.29864815
0.02146069 0.11109545 -0.083866194 -0.032885585 -0.08549735 0.20244962 0.025619484 -0.22072607
-0.058777347 0.165302 -0.16678248 -0.014797002 0.13985874 -0.012230747 -0.0038262925 0.09222713
0.14112033 -0.0791891 -0.12112559 0.18384714 -0.21813785 0.1987208 0.03441804 -0.08879208
0.03023003 0.02302264 -0.15807451 0.27643496 0.049982913 -0.18256727 0.08667389 -0.1250871
-0.15035808 -0.012331887 -0.016053595 -0.14209944 0.1640171 -0.07445566 0.13399072 -0.092936665
0.010336196 0.111230195 -0.12357071 0.2995672 -0.08992389 0.22969519 -0.030318933 0.15559661
-0.27154917 -0.16021517 -0.0026293371 0.040967323 0.0039753006 -0.14486311 0.2286606 0.092079975
-0.15284646 -0.12787016 0.069643825 -0.11811578 -0.034126475 -0.23360719 -0.1479297 0.09628167
0.12698562 -0.055784095 -0.28855827 -0.068581745 0.18163013 -0.15931162 -0.06648726 0.14819856
0.06991843 -0.23400491 0.0051954 0.16727078 -0.135294 0.101550974 -0.09205636 0.013198209
-0.18128702 -0.034307692 0.17022064 0.14804 0.018439505 0.023296172 -0.014214573 -0.04991168
0.032025434 -0.1778951 0.008226882 0.12607144 -0.026789809 -0.09483721 0.041009232 -0.10526227
0.36377737 -0.18500276 0.16773404 -0.31890383 0.13955446 -0.1908763 0.04064624 -0.20091316
0.01651087 -0.043067608 0.010122255 0.088956654 0.20891662 -0.24746038 -0.011077899 0.11100528
0.09399625 -0.32575464 0.25564674 0.1427704 -0.061500013 0.19858742 -0.08966884 0.034694254
0.18872413 -0.3565213 -0.3841933 0.3573989 -0.009463141 -0.16927813 0.07627205 0.13777421
0.012133491 0.09764674 0.11367331 0.07157611 -0.19923902 -0.23660299 -0.21035123 -0.016720938
-0.17397329 0.09362108 0.19734554 0.124932215 -0.057382066 0.039692935 0.17147756 0.08232126

lstm.bias_ih_l0 f4 [120]
00000000: 39ba b93d ed4a 143e de04 eebd 161e cd3d
00000010: da84 f0bc 8f09 0f3e 83d7 ac3d 4b67 0d3e
00000020: 45aa cdbd 38a6 903d 86cb 0bbe 6354 3e3e
00000030: b358 003e 700d 153e 005c a33e ada8 70be
00000040: 4784 243e 1ee1 49bd c4f1 0c3e 6612 443e
00000050: 3745 09be 3d15 923d b7be 05bd 9514 51bd
00000060: aa9a e7bd 6d69 b0bd eebc 1e3e 35e0 2e3e
00000070: 54ce af3d c709 9bbd ab98 5e3d 4662 9fbd
00000080: 8811 f43d 5a81 0ebc 622a 7dbd 727c 5c3e
00000090: 5d24 f83d fec3 353d 6fda 5ebd a6b0 7bbd
000000a0: 2ebc 1cbd 3f41 9b3e 03c4 123e f8b9 7fbc
000000b0: a1be 3c3d 064a 1dbd 5662 4d3d 3333 fc3c
000000c0: 6830 bebd d3ad b83c 8aee 963e 9a53 6039
000000d0: a8ff 0a3e 7280 9ebd cbb5 cd3d 70d3 5abd
000000e0: c028 b93d 9783 793e 330e 273e dd51 663d
000000f0: f3e6 4abd 3037 e33d 7b72 2abe 0697 cd3c
00000100: 2279 1dbe 2dc3 923d 790a af3b 321e be3c
00000110: 059b 923d 841d 55be 8625 693e 55d5 f63d
00000120: 48fc dd3c 260c 20bd 89ff d43d a01d 2ebd
00000130: 4a5b 08be 5d73 9c3c e807 373e 62dd bbbb
00000140: c248 893d 61c1 01bd 7f5b 903d 20aa 30be
00000150: 8480 d13d 2c2f 88bd ac5a fabd c6d6 6e3d
00000160: fe32 173d 8756 333e 52cd 253e fb3c 303d
00000170: 1fd9 763e cd30 be3d 1189 683e 07bf 4bbd
00000180: a241 893e 9f98 c3bd 37e1 1a3d 0150 72bb
00000190: 7546 07bd a7f4 37bd 7a80 48bd 19f3 963d
000001a0: 7d4c 9c3e f9e2 823e f155 493e de65 4f3e
000001b0: 6803 853d d078 84bd 99e7 173d b120 303e
000001c0: def4 6f3d a0e0 02be 4aee 5bbd 5c5b a3bd
000001d0: 497a 593d e402 413e 0b61 033d 45ff 2cbc
0.09068722 0.14481707 -0.11622022 0.10015504 -0.029360224 0.1396849 0.08439543 0.13808934
-0.10042242 0.07062954 -0.13651857 0.18586878 0.12533836 0.14555907 0.31906128 -0.23501845
0.16066085 -0.049286954 0.13764101 0.19147643 -0.1340531 0.07132957 -0.032652583 -0.05104502
-0.11308797 -0.08613858 0.15501758 0.17077716 0.08584276 -0.07570224 0.054344814 -0.07782416
0.11917406 -0.008697832 -0.061807998 0.21531847 0.12116311 0.044376366 -0.054407533 -0.061447762
-0.0382654 0.30323216 0.14332585 -0.015608303 0.046080235 -0.038400672 0.05014261 0.030786132
-0.092865765 0.022543823 0.29478866 0.00021393449 0.13574088 -0.07739343 0.1004444 -0.0534243
0.090409756 0.24366604 0.1631401 0.056230415 -0.049536657 0.110945106 -0.16645233 0.025096428
-0.1537824 0.07166133 0.0053418246 0.023207758 0.07158474 -0.2081204 0.2276822 0.120524086
0.027097836 -0.039074086 0.10400302 -0.04250872 -0.13316074 0.019097978 0.1787411 -0.005733178
0.067033306 -0.03167856 0.070487015 -0.17252398 0.102295905 -0.06649622 -0.122243255 0.058310293
0.036913864 0.17513476 0.16191605 0.043026906 0.24106263 0.09286652 0.22708537 -0.049742725
0.26807886 -0.095505945 0.037812438 -0.0036973956 -0.033026177 -0.044911053 -0.04895065 0.07370586
0.30527106 0.2556379 0.1966169 0.20253703 0.0649479 -0.06468356 0.037086103 0.17199971
0.058583133 -0.12781 -0.053694047 -0.0797641 0.053095136 0.18848759 0.03207497 -0.010558908

lstm.bias_hh_l0 f4 [120]
00000000: 1934 9d3c 17c3 f2bd feec d7bd 6ac7 43bd
00000010: b773 4c3e 88bf 133e 865d c13d 5d34 0e3e
00000020: 8792 3a3e ea40 51bd 47d7 3f3e 890c 663e
00000030: a062 473d 5715 ad3d 7420 103e 136b c43d
00000040: 2522 07be fd59 b23d 6eb0 a5bd 7b05 543e
00000050: d420 f0bd 9d99 4c3d bc40 cc3d 2a69 643c
00000060: 4891 8bbd 7b62 67bd 16e4 61bd 9782 f0bc
00000070: 83f7 d0bd d94f adbd f03d fd3d 9894 b1bd
00000080: 930b aebc 1424 5b3e 5f47 7cbd bc8c 123e
00000090: 2e5f ed3d dc6c 143d a78f d63d e8df cd3c
000000a0: 2b33 283e 5a45 6d3e f5e1 353e d791 253e
000000b0: 1fe1 1c3e 3911 7a3e 24f9 943d 9cbd 933e
000000c0: f579 263d 3473 843d 698a a13c 0d9e 663e
000000d0: 55e5 893e 7891 d2bb e1af 3f3e edce 683e
000000e0: f928 513d 40e8 07bc d671 38bc 2ada cf3d
000000f0: 62d4 b03d d9f4 b13d 9ad3 05bd 7bed 42be
00000100: 8348 b83a 3d02 d3bd 1c7e 4b3d b94c e03c
00000110: 5b4c 44be 1d7d 24be 6987 6fbd f957 c0bd
00000120: 3f34 87bd 137c 87bd f8bb 563e d382 233e
00000130: ffcc b5bd 151c 133b dbce 20be 67ac 653c
00000140: 3da4 81bc a1f1 2b3e 41bb 4d3d be6c a83d
00000150: 0999 56be 5566 5a3c 1336 033d 837b 0f3e
00000160: 3d1b 97bb b78e 3c3e 7fc8 063e 6491 46be
00000170: e396 acbd 0322 163e 575c 933d 8367 b1bb
00000180: 06cb b6bc d676 043e e67f 2c3e b18d 233e
00000190: 7112 c63d 7fec fe3d 7733 e3bd 53d0 383e
000001a0: 83e4 333e fc9f 803d 2b2f 76bd 2fa3 9dbd
000001b0: 227d 073e 1913 443e 63d0 403e de31 3dbd
000001c0: 0964 e63d f0f5 8ebd 2cf3 903e 7241 7c3e
000001d0: 5996 153e 8866 0cbd b25d 323d f214 2f3e
0.019189881 -0.11853617 -0.105432495 -0.047797598 0.19966017 0.14428532 0.09441666 0.13887163
0.18219958 -0.051087297 0.18734466 0.2246572 0.04867804 0.08451336 0.1407488 0.09590735
-0.13196619 0.0870857 -0.08090292 0.20705216 -0.117250115 0.049951185 0.099732846 0.013941089
-0.068148196 -0.056490403 -0.05514916 -0.029359145 -0.10203459 -0.08462495 0.12365329 -0.0867092
-0.021245753 0.21400481 -0.061591502 0.14311498 0.1159042 0.03623663 0.10476618 0.02513118
0.16425769 0.23170987 0.17761977 0.16168915 0.15320252 0.24420632 0.07274082 0.28855598
0.04064365 0.06467286 0.01971932 0.22521229 0.2693278 -0.0064260326 0.18719436 0.22735186
0.051064465 -0.008295119 -0.011257609 0.10149033 0.08634259 0.08689279 -0.032672502 -0.19035904
0.0014059696 -0.10303161 0.049680814 0.027380334 -0.19169752 -0.16063352 -0.058478747 -0.093917795
-0.06601762 -0.06615462 0.20970142 0.15967874 -0.088769905 0.0022447158 -0.15703909 0.014018155
-0.015825385 0.16791393 0.050227407 0.08223866 -0.20956816 0.013330062 0.03203399 0.1401196
-0.0046114014 0.18413816 0.1316242 -0.193914 -0.08427217 0.14661412 0.07195347 -0.005413951
-0.022313606 0.12935957 0.16845664 0.1597202 0.09671486 0.12447452 -0.110938005 0.1804822
0.17567639 0.062805146 -0.060103577 -0.076971404 0.13231328 0.1914791 0.18829493 -0.046190135
0.11249549 -0.069805026 0.28310525 0.2463434 0.14608134 -0.03427747 0.043546386 0.17097834

lstm.weight_ih_l0_reverse f4 [120, 15]
00000000: 5ff9 843c 53b0 22bd 5d80 533e 4a1e 0bbe
00000010: c30e 3cbe 7dbf f5bc e22f dd3d b7b7 3e3d
00000020: 5c4c fa3d c641 07be 7984 f3bc 2799 29be
00000030: 1651 11be b3f1 733d e654 283e 1089 f0bd
00000040: 4cc0 b7bd a950 29be 84b2 b8bc 2c5f 413e
00000050: b6e8 87bc 035c 31be ffdf 2d3e 80bb be3d
00000060: 4d1f afbd 6e6b 2b3e 83fd 453e 5696 b83d
00000070: bd74 0dbd 932c 403e 4a9f 87bc cf56 13be
00000080: b00c 9d3d ecd2 71be 992b 093e 1220 d3bc
00000090: 9846 e1bc fc7a 5c3d 4756 9e3d e1ca 043e
000000a0: 95de 32bd 7062 17be 4f64 f6bc cbd6 c13d
000000b0: 2208 853d 6d84 8b3b fdd0 4d3d 9d1b 3c3e
000000c0: f4f4 29be c6d5 56be 1e06 413e 4599 2e3e
000000d0: ff68 3fbe 0349 703d 463f d3bd abf2 05be
000000e0: 3006 783b 81d8 84bd 9d84 9639 f535 38be
000000f0: 535f 493d 188c 803d 11fc 3a3e 67e1 443e
00000100: 6d4b 4cbd 3728 ec3b fdd5 8a3d 9ba8 b4bd
00000110: 4fc3 6f3d 0575 04be 09b0 b0bd e565 af3d
00000120: ea7f 893e b8b1 243e 2448 c5bc 0056 06be
00000130: 258e d83c e7fb abbd f3b6 0c3e d19d d73d
00000140: 3443 e63c ad64 36bd 6a62 713e 9017 e5bd
00000150: ed1f cbbc 68f0 09be cdea 91bd 8038 3cbd
00000160: 3083 cbbc 7db6 a43d 772b 193d 05ad ddbc
00000170: ef2e 7dbd 64b0 063e fb77 12bd d745 873d
00000180: 4655 393e 01fa 3ebe 675e 19be a9ed 13be
00000190: eb9e e1bd 516e a53d af2d 1fbc 7be2 21bd
000001a0: 8af5 c6bd e7ab 21be db47 493e 8e48 3ebe
000001b0: 8869 363e 875a 62bd 4366 70bd 5dad fe3c
000001c0: 6b04 523d 596b e7bd 91f2 6c3c 680a 0d3d
000001d0: 72fd fe3d c0ff 6fbe 752b 18bd 00e0 e2bc
000001e0: 5a26 04be f6b8 4d3d feff 4fbd 0450 653d
000001f0: 0ea6 3a3d f34c b43d a9e4 383e 3ca0 3d3e
00000200: 1c0a b5bd 673e fabc b067 863d 9185 7a3d
00000210: a13d 023c 06c1 a53c 5e9c 273e a31f cfbc
00000220: 4e2a d8bc c1e7 f33d 2728 123c 41f7 cebd
00000230: dcc0 b5bc 2ffc 403e 9c44 3dbe 6434 363e
00000240: f773 0f3e 169c 933d 861c 7b3e bf55 27bc
00000250: 153a b3bd 54f1 333d b0f8 55be d6c3 2f3e
00000260: c434 293e 832a cbbc 9a0f 1abd 9ab2 ee3d
00000270: 4971 173e b3eb b0bd 2b99 97bd 4f5e 593e
00000280: ae70 1fbe 53a2 c53d d8a1 f3bd 0b77 d6bc
00000290: 3f4d e1bb 8f5c 403c 2cf0 b6bd e655 7f3a
000002a0: a506 2abe d993 afbb 54bd 94bd 685d f83d
000002b0: 6ea0 4e3d 8f90 8dbd 3260 bfbd d85a b2bd
000002c0: e70e 0b3e 972a 273e ace1 073e 319b 37be
000002d0: ed62 3dbe 5fd1 1e3e f356 47be f48c 4c3d
000002e0: d10a d9bd d7bc febd cbda 943d e6d9 923d
000002f0: b919 9a3d 61f1 45bd a37f 103d 25ea b03d
00000300: 65a2 69bd b4c7 35be db5c 8c3d ed6c 06be
00000310: a70d b6bd 9664 083e dc1a d3bd ecbc 37bd
00000320: 737b 68be d917 343e ead7 3f3d d211 dbbd
00000330: 21cf cd3c a40a aa3d 1148 0fbc 4b0c 113e
00000340: 99fd 7abd e2b6 1f3e 9df0 a6bd 41b0 353e
00000350: d6ba b2bd 8772 c63d 6c99 94bd 8a76 8cbe
00000360: beee ccbd 4770 8bbd 8cc4 7c3d c62b 6abe
00000370: e7a4 283e 6edc 55be 9474 a4bd 853e b7bd
00000380: a193 cfbd 4732 acbd 2cba 073e 91e5 083e
00000390: 0f1b 93be c795 733c 877a 21be 85c6 1fbd
000003a0: e385 ab3d d421 f0bd 0eb9 743d 80fa 473e
000003b0: 2eb6 693e fb26 9bbd 42b3 de3d fe4c 57bd
000003c0: 13ee a43d 5821 753e 5601 123e 6d00 4c3e
000003d0: 14a6 ba3d d803 9cbd a58a 703d be9e 6cbe
000003e0: 8c07 d23d 0883 0abe 975a be3d 8401 a2bd
000003f0: f43a b03c 1141 0c3e 7f42 483d 7a94 03be
0.01623219 -0.039718937 0.20654435 -0.13585773 -0.18365006 -0.029998535 0.108001485 0.046561923
0.12221596 -0.13208684 -0.029726254 -0.16562329 -0.14191088 0.059556674 0.16438636 -0.117448926
-0.089722246 -0.16534676 -0.02254606 0.18883961 -0.016590457 -0.17320256 0.16979979 0.093131065
-0.08550892 0.167402 0.19334988 0.09013049 -0.03453516 0.18767004 -0.016555447 -0.14388584
0.076684356 -0.23615617 0.13395537 -0.025772128 -0.027499482 0.053828225 0.077313 0.12968017
-0.043669302 -0.14783645 -0.030077128 0.09464797 0.06495692 0.0042577297 0.050248135 0.18369909
-0.16597348 -0.20979986 0.1884999 0.17050655 -0.18692397 0.05866338 -0.10314803 -0.13080852
0.0037845485 -0.06486607 0.00028709034 -0.17989333 0.049163174 0.06276721 0.18260218 0.19226609
-0.04987662 0.0072069424 0.06779096 -0.088212214 0.05853587 -0.12935264 -0.08627326 0.08564357
0.26855403 0.1608342 -0.02408225 -0.13118744 0.026434967 -0.08397656 0.13741665 0.10528148
0.028108217 -0.044529606 0.23572698 -0.11186135 -0.024795497 -0.13470614 -0.07124863 -0.04595232
-0.024842829 0.080426194 0.037394967 -0.027060041 -0.061812337 0.13153225 -0.035758954 0.06605118
0.18098935 -0.18650056 -0.14977418 -0.14446129 -0.11016639 0.08077682 -0.009715482 -0.03952263
-0.097148016 -0.15788232 0.19656317 -0.18582365 0.17813694 -0.055262115 -0.058691274 0.031088525
0.051273745 -0.11299772 0.014462129 0.034433752 0.124506846 -0.23437405 -0.03715082 -0.027694702
-0.12905255 0.05022522 -0.050781243 0.055984512 0.04556852 0.088037394 0.18055977 0.18518156
-0.08839819 -0.030547334 0.065627456 0.061162535 0.007949264 0.020233642 0.16368243 -0.02528364
-0.02638736 0.11909438 0.008920706 -0.10105754 -0.02218669 0.188462 -0.18483204 0.17793423
0.14009081 0.072075054 0.245226 -0.010213315 -0.08751313 0.04393132 -0.20895648 0.17164549
0.16524035 -0.024800545 -0.037612535 0.11655159 0.14789309 -0.08638706 -0.07402261 0.21227382
-0.15570328 0.096501015 -0.118961036 -0.026179811 -0.0068756635 0.011740818 -0.08932528 0.0009740278
-0.16604097 -0.005358201 -0.07262674 0.12127191 0.050445966 -0.06912338 -0.0934452 -0.08708733
0.13579904 0.1632484 0.1326968 -0.17930295 -0.18494768 0.15509556 -0.19466762 0.04993911
-0.10597766 -0.12438362 0.07268294 0.07170467 0.075244375 -0.0483259 0.035277974 0.086384095
-0.057039637 -0.17751962 0.06853648 -0.1312749 -0.08889323 0.1331962 -0.103078574 -0.044857904
-0.22703342 0.17587222 0.04683677 -0.10696758 0.02512318 0.08302811 -0.008745209 0.14164846
-0.061277006 0.15597108 -0.08151362 0.17743017 -0.087270424 0.09689813 -0.072558254 -0.27434188
-0.10006474 -0.068085246 0.06171088 -0.2286826 0.16469155 -0.20884869 -0.08030048 -0.089474715
-0.1013558 -0.08408027 0.13254613 0.13368823 -0.28731582 0.014867253 -0.15769397 -0.039007682
0.08375146 -0.11725202 0.059746794 0.19529152 0.22823402 -0.07575794 0.108740345 -0.05256366
0.080532216 0.23938501 0.14258322 0.19922037 0.09113708 -0.07617921 0.05872597 -0.2310743
0.10255346 -0.13526547 0.092946224 -0.07910445 0.021512486 0.13696696 0.04889154 -0.12849608

lstm.weight_hh_l0_reverse f4 [120, 30]
00000000: 4996 073b f32a b5ba f9a1 09bc 8c6e c5bd
00000010: b24d 223e bb4e 8c3d f481 ce3c 8507 e9bd
00000020: 4c4f 213d 2da2 b93c fefb 9e3d eeab 503e
00000030: 7779 1dbe 1169 b3bd 0ba5 2bbe 07a3 09bd
00000040: 5e29 a43d f789 7ebd c0ef 20be 0cd5 6bbc
00000050: 70ed 3ebe 2066 3b3e ebf5 97bd 8e2a 1f3d
00000060: afd1 943c fed1 b73d 0355 0fbe 6531 293e
00000070: 53a3 e53d 0388 0c3d 982a 55be 6ec0 b7bd
00000080: eeae 60be df24 08bd 2d2a 51be 1739 5abe
00000090: aa9e 4abe a9e3 1bbe 55b0 30be 7c9b f23c
000000a0: e09d ef39 ce37 3c3e ae81 51be da9d d73c
000000b0: 1af5 a23d da40 273e 51da fabd 314d 413e
000000c0: fb5f eb3d 2acb 8bbd 86ca dc3b bdf8 aebd
000000d0: 6af2 cebd 74c2 16be f877 c83d fc6f 933b
000000e0: 6e0b 1fbd f9b4 163e c37d aebd 27aa 7d3e
000000f0: 98b2 59ba 1983 07bd 2afc 2abe 6c7f aabd
00000100: b1cf e8bb 70ea f13c 483b 333c 4b69 8a3d
00000110: af33 7a3b cf1a 413d 1d6e a13d 6fb9 5cbd
00000120: eca8 af3d 3f1d 493e aae7 ca3d 9430 0e3e
00000130: 37e2 1b3e b04d 063e 9b7c 963d 83bd 46be
00000140: 27b1 d53d 9cad 833d 456b c93c 657a 863d
00000150: 8490 a13d a99e 02be 8090 8ebd f5c7 11bd
00000160: 1702 403c 47bd 04be aaa2 4dbe 270e 3e3c
00000170: 2363 56be c870 a1bd 3d9b 573d c375 693e
00000180: 1bed 5f3e 0fc4 09bd c2fc 1dbd bfa6 80bd
00000190: 584d 08bd 5165 243d c5e7 863e 6823 9c3d
000001a0: d74b bf3d 1602 853d ccbc a1bd 58c6 5e3d
000001b0: 34eb 07be e415 01be e31d 8fbd 4d9a e2bd
000001c0: 7cae 09be 5c6a 4a3d 11a6 523d 24aa 88bc
000001d0: 5490 e13d b29c 0cbd a735 263d e208 33be
000001e0: 3ff3 b83d 4343 06bb d58f a2bb df4d 2fbe
000001f0: f3f2 0bbe 6937 3d3e 8617 f5bd be0a 1a3e
00000200: 208e c3bd be30 34be 2018 42bd 1f9c b6bd
00000210: 27e8 89be ebbe fb3d 0b43 a9be 9a08 46be
00000220: fb10 7d3c 2817 a8bb d7d6 4dbd a677 273e
00000230: 9dd1 823d 0479 51be 6e98 afbd c5d2 6e3e
00000240: 82aa f73c 438d c4bc de82 2a3e 6502 fdbd
00000250: acba 433e 8cce e83d 98bb e43c f9fe 863d
00000260: 28ca debd b0bb adbd 5d13 cabd f394 0c3d
00000270: 4b36 71bc 4d2d a8bd 0cee 883d 229e a3bb
00000280: 9f7f a9bd fd63 24be e4ed d0bc a289 9bbd
00000290: 00c1 9e3d a196 7d3d ce69 db3d 8953 78bd
000002a0: 7512 463e d4b3 683d c681 7abd 09bf 47be
000002b0: 8ae1 66bd bedd 3d3d b5cd 333e e442 82bd
000002c0: 79e9 35b9 d7b7 413c 3e59 49be 9646 d3bd
000002d0: c0cf 873b e183 5e3e d046 f63d c000 b23d
000002e0: 2a4b 4cbe 4a9a 453e 19f0 283e 59a4 153e
000002f0: 39ee 043e b4d4 0a3e a9c2 b2bd 516e dfbc
00000300: c06a 84bc 29bd 903b 8482 263e 298a fa3a
00000310: 1833 c83d 1b3f cabd 7e06 9a3d adfa babc
00000320: 6d72 63bd 0784 03be c15b 0c3e 6539 ce3d
00000330: 079b 3c3d 8687 69bd ffb8 143e bf8e 403e
00000340: bf19 0a3d 366c adbd 3fe6 e53c 9853 4f3d
00000350: 7391 82bd 238b fdb9 2895 483e 54d8 a53c
00000360: 5a2c fbbd 42db 25be dbea 113e 8109 65be
00000370: 3ffb d53d 8060 09be 2549 d93d 1c29 d93d
00000380: 56e5 2fbd beef c13d 0ad9 c93d 9ca4 0fbd
00000390: 8471 b53d 35b7 46be c8be 4ebe c32a 1e3e
000003a0: 8fd7 02bc 5f7b 113e fa62 9e3d 4553 703e
000003b0: 56e4 c33d 8dde 633d 0e1d ca3c c983 0a3d
000003c0: 124d f6bd b55f 4a3d 453a d83c eb83 e83b
000003d0: fd31 abbd 3501 153d eb5d 30be d8f6 91bd
000003e0: 4e4c b0bd 9b8f ef3d a516 4dbe 5fcf 333e
000003f0: 8120 2fbe 3f1a 1dbe 2a8e 603e a7d0 25be
0.0020688942 -0.0013822004 -0.008400434 -0.09640226 0.15849951 0.06850954 0.02520845 -0.11378387
0.039382264 0.02266034 0.077629074 0.20378086 -0.15378366 -0.08760274 -0.16762178 -0.03360274
0.08015703 -0.062143292 -0.15716457 -0.014394056 -0.18645263 0.18300676 -0.07419952 0.038858943
0.018166391 0.089756 -0.13997273 0.16522749 0.11212792 0.0343094 -0.2081703 -0.0897225
-0.2194173 -0.033238288 -0.20426245 -0.2131084 -0.19787088 -0.15223564 -0.17254765 0.029615156
0.00045703258 0.18380663 -0.20459625 0.026320387 0.07956906 0.16333333 -0.12248672 0.18877102
0.11492916 -0.0682586 0.00673801 -0.08543537 -0.101048306 -0.14722615 0.09788507 0.0044994336
-0.03882926 0.14717473 -0.08520081 0.24771939 -0.00083045056 -0.03308401 -0.16697755 -0.08325085
-0.007104837 0.029530734 0.010939427 0.06758364 0.0038177778 0.047144707 0.078823306 -0.05388778
0.08577141 0.19640063 0.09907468 0.13885719 0.15223013 0.13115573 0.07347985 -0.1940823
0.1043418 0.06429598 0.024587283 0.06566314 0.07888892 -0.12755837 -0.06961155 -0.035591085
0.011719248 -0.12962829 -0.20081583 0.011600054 -0.20936255 -0.078828394 0.05263828 0.22798829
0.21867792 -0.03363424 -0.038571127 -0.06281804 -0.033276886 0.040135685 0.263487 0.07623941
0.09340637 0.064945385 -0.07897338 0.054388374 -0.13273317 -0.12606007 -0.06988122 -0.11064587
-0.13445467 0.04941784 0.051427905 -0.016682692 0.110138565 -0.034329124 0.04057851 -0.17483857
0.090307705 -0.0020486868 -0.004960994 -0.17119549 -0.13666897 0.18478169 -0.11967377 0.1504316
-0.095485926 -0.17596719 -0.04738629 -0.089164965 -0.2693493 0.12292274 -0.33058962 -0.19339219
0.015445943 -0.0051297136 -0.050253715 0.16354236 0.06387637 -0.2045632 -0.085739955 0.2332259
0.030232672 -0.02399314 0.16651484 -0.12353972 0.19114178 0.11367521 0.027921483 0.06591601
-0.10878402 -0.08483064 -0.098669745 0.034321737 -0.014722417 -0.082117654 0.06686029 -0.004993216
-0.08276295 -0.16053768 -0.02550406 -0.07594611 0.077516556 0.06191123 0.1071354 -0.06062654
0.19342978 0.056812122 -0.061158918 -0.19506468 -0.056367435 0.046354048 0.1755894 -0.063604146
-0.0001734848 0.011823616 -0.1966295 -0.103161976 0.004144639 0.21729995 0.12025225 0.08691549
-0.19950548 0.19297138 0.1649784 0.14613475 0.129815 0.13557702 -0.08728535 -0.027274283
-0.016164184 0.004417081 0.16260725 0.0019114661 0.0977537 -0.09875318 0.075207695 -0.02282461
-0.055529047 -0.12843333 0.13706876 0.10069541 0.046046283 -0.05701401 0.14523695 0.18804453
0.03371596 -0.08467905 0.028063891 0.05061683 -0.063753985 -0.00048359585 0.19588149 0.020244755
-0.12264319 -0.16196921 0.14249747 -0.22366907 0.10448312 -0.13415718 0.10609654 0.10603544
-0.04294332 0.09469555 0.0985585 -0.035069093 0.08859542 -0.19405825 -0.20189965 0.15446
-0.0079859635 0.14207219 0.07733722 0.23469265 0.09565036 0.055632163 0.024672057 0.033817086
-0.12026419 0.04940768 0.026394973 0.007095804 -0.08359144 0.036378104 -0.17223327 -0.0712716
-0.08608304 0.116973124 -0.2002817 0.17559575 -0.17102243 -0.15342043 0.21929231 -0.16192876

lstm.bias_ih_l0_reverse f4 [120]
00000000: 625b 623e aa8d 36bd e80c 1e3e 4535 e5bb
00000010: e223 81bd 4d52 1cbe a2c9 1c3e b12b 1bbe
00000020: 9946 ccbd 58fa fdbd 8e0b 01be 5109 283e
00000030: e7e7 f13d e2cf 1e3e b0c9 c23d c492 eb3d
00000040: 2db4 50bd 95e3 553d eb6d 03be 121c f13d
00000050: 9dce 833d 8a0f 43bd da18 413c c379 ea3d
00000060: 5229 5c3d a226 edbd f6de 953d 5ca7 463d
00000070: 63d7 05be 09d8 99bd 5cba 02be e6cb 923d
00000080: 48fb 24be 5cf1 f33d 9434 ee3c 4ab2 54bd
00000090: fe2f 113e b21d 023e 29f6 71bb 8b76 a1bd
000000a0: 2dc5 3b3d 1493 13bd 659d 97bd 7a7b 9d3c
000000b0: 3567 343e 6282 e83d f35a 223e 3cdb c2bd
000000c0: 13f3 663e 6445 323d 9876 41bd 2e10 8c3e
000000d0: 2e66 d83d e650 103d 423c c1bd a86d 2dbe
000000e0: 639d 34be 2b84 3b3e 0f61 d83d 0fc3 873c
000000f0: 15c8 54bd d9b3 a13c 60d4 0c3d e325 f7bd
00000100: 82c3 0b3e 830f ffbd d33f ab3d 975f b9bb
00000110: 739a b7bd 2b57 3d3c 2e1b 33be 523f 1a3e
00000120: d551 65bd a08d eebd 4785 e2bd 39fc 143e
00000130: 2a4b 2e3b 11a3 60bd 0daf 9c3d d263 d4bd
00000140: 6227 9dbd 9067 dc3d 5515 eabd d3e1 4cbe
00000150: b620 b4bd 37af 33bd 8848 013e 9ef3 143e
00000160: c99d 33be 3fa2 ba3d 5152 8f3d 0d8d b53d
00000170: 9771 96bd 6ca8 373e a69a 7e3c 2f30 6c3c
00000180: ee72 06be 7dc4 0cbe d64f d03c fd2f cb3d
00000190: 96bd 1f3e f879 f13d ae47 6e3d ec8c 7d3d
000001a0: a4ca 0d3e 7456 af3b 07b7 cc3d a783 f5bd
000001b0: 6fce 91bd 4e92 153e d7c2 e53d 5b83 7a3d
000001c0: 0482 883d b72d 203e b582 aa3d e389 a8bd
000001d0: 5aab 63bd 54b4 b4bd 0ac3 0ebe da10 ff3d
0.22105172 -0.044568695 0.15434611 -0.0069948756 -0.06305672 -0.1526577 0.15311292 -0.15153386
-0.09974403 -0.12401265 -0.12602064 0.16409804 0.1181181 0.15508988 0.09511125 0.11502603
-0.05095308 0.052218992 -0.12834899 0.11772932 0.06435893 -0.04762224 0.01178571 0.114490055
0.053750344 -0.11579634 0.07317917 0.04849945 -0.13070445 -0.075119086 -0.12766403 0.07167797
-0.16111481 0.1191127 0.029077806 -0.051927842 0.14178464 0.1270664 -0.0036920405 -0.078839384
0.04584234 -0.036028937 -0.074030675 0.019223917 0.17617495 0.113529935 0.15855007 -0.09514472
0.22553663 0.043523207 -0.04723224 0.27356094 0.10566364 0.0352334 -0.094353214 -0.16936362
-0.17638163 0.18312137 0.105653875 0.016572503 -0.051948626 0.019739078 0.034382224 -0.12067773
0.13648799 -0.124541305 0.08361783 -0.005657147 -0.08965006 0.011556427 -0.17490837 0.15063217
-0.055986244 -0.116481066 -0.11060577 0.1454934 0.0026595094 -0.054843012 0.07650576 -0.10370602
-0.07673527 0.107619405 -0.1142985 -0.2000802 -0.087953016 -0.04386827 0.12625325 0.14546058
-0.17540659 0.09112977 0.069981225 0.08864794 -0.07345884 0.17935342 0.015539801 0.014415785
-0.1312978 -0.1374683 0.025428694 0.099212624 0.15599665 0.11790842 0.058173828 0.06190197
0.13846833 0.005350882 0.09995847 -0.11988001 -0.07119452 0.14606592 0.112188034 0.061160427
0.066654235 0.15642439 0.08325712 -0.08229425 -0.055583335 -0.08823457 -0.13941589 0.12454386

lstm.bias_hh_l0_reverse f4 [120]
00000000: 34ff e03d 2109 07be 462e f7bd 361a abba
00000010: 04be 753d fc58 843d cdec 49bd 7ffa 1fbe
00000020: 892f 613b aa40 03bd 4af7 383d b9ba 873d
00000030: df80 65bc c4ed 293e 8141 043e 57e3 a8bd
00000040: 5e27 59bd 4576 7c3d b43f 473e bc2c 3e3e
00000050: f403 0a3e 2b1a 7bbe 7b9f 2d3e d268 2dbd
00000060: b3dd 173e 557b dbbd e874 353d 5b1e 973d
00000070: 49a1 42be 8bff 20bc 2706 d33c 1ca4 813d
00000080: a4e6 e93d 9cf1 383e c00c b9bc 9d86 c9bc
00000090: 0a86 ed3d 70db 433e b280 48bd b742 783e
000000a0: 3ca4 fc3d 799a b43d 014a 923d a340 cbbd
000000b0: 9eb0 8a3d 8537 523e 5a1b 3d3c f50a bcbd
000000c0: c6ad 7d3e 1ccb ddbd 9f33 973d 0a35 bf3d
000000d0: 90a8 8d3e 26cf 31be 574b 80bd 0f0d 43bd
000000e0: 940e d1bd ef2c 793c a158 373e 4006 273e
000000f0: cb60 a53c 9ba7 5f3d 02a9 67bd 611f 123d
00000100: 9035 043e cd13 213e 5002 933d 01a3 ef3d
00000110: b459 0fbe 9771 a63d a6c5 233e b625 0bbe
00000120: d1cc 77bc 80a3 903c 1e89 103e 0661 c33d
00000130: 95da e73d 9e08 bc3d ce4c 7038 c563 0c3e
00000140: 6bb9 1abb 248b f4bd 3549 4bbc 4d13 203d
00000150: 40ce b83d f13d 17be fa8d f63d d4b3 b3bd
00000160: 770d 07be 8394 303c 4c03 d9bd 7ef1 02be
00000170: c9c0 473e 8d22 4e3d b296 fbbd 0a36 ba3d
00000180: e462 c73a 6c15 a33c c296 dd3d 6e45 833d
00000190: 60a6 5a3e 173a 1cbe bddf c0bc a158 2abe
000001a0: aa5f 06be 49ab e1ba c8e9 e63c 2043 1cbd
000001b0: 5f15 ea3d 1450 313d 064c 193d 1c78 d23d
000001c0: 26e1 423e ae5c 99bd 80bf 3cbe d164 2f3e
000001d0: 66d0 bc3d f60e be3d f677 cdbd 6dfa 983d
0.10986176 -0.13187076 -0.12069373 -0.0013054076 0.059995666 0.06462285 -0.049298096 -0.156229
0.0034360609 -0.03204409 0.04515771 0.066274114 -0.014007776 0.16594607 0.12915613 -0.08246487
-0.05301606 0.061636228 0.19457895 0.18571752 0.1347807 -0.24521701 0.16955368 -0.042336293
0.14830665 -0.10716883 0.044300944 0.07378837 -0.19006838 -0.009826551 0.02575977 0.063301295
0.11420944 0.18060917 -0.022589087 -0.024600321 0.115978315 0.19126678 -0.04895086 0.242442
0.12336013 0.08818526 0.071430214 -0.09924438 0.06771968 0.20528992 0.011542166 -0.091817774
0.2477332 -0.10829756 0.07382893 0.09336288 0.27667665 -0.17364177 -0.0626437 -0.047619876
-0.10207859 0.015208467 0.17904903 0.16310978 0.020187756 0.0546032 -0.056557663 0.035674457
0.12911057 0.1573021 0.071781754 0.117010124 -0.13999063 0.08127134 0.15993366 -0.13588604
-0.015124516 0.017656088 0.14114806 0.0953999 0.11320988 0.09181331 5.729199e-05 0.13709934
-0.0023609053 -0.119406015 -0.012407591 0.039080907 0.09023714 -0.14769723 0.12038799 -0.08774534
-0.1318873 0.010777595 -0.10596332 -0.12787434 0.19507135 0.05032592 -0.12284602 0.090923384
0.0015211967 0.019907676 0.108197704 0.06409727 0.2135253 -0.15256535 -0.023544187 -0.16635372
-0.1312243 -0.0017217185 0.028187647 -0.038149953 0.114298575 0.04328926 0.037426017 0.10276815
0.190312 -0.0748838 -0.18432426 0.17128302 0.09219436 0.09280197 -0.10032646 0.0746964

lstm.weight_ih_l1 f4 [120, 60]
00000000: 9d66 41be 7576 b0bd 0688 77bd e88e 183d
00000010: e63d cd3d 1f61 62bd 6da0 50bd 3c80 64be
00000020: 1601 cdbd 2b7d f33d d243 f63c c58f 13be
00000030: 5c23 1bbe 1596 9f3d 33b3 27be 611a 8cbd
00000040: e7b3 a73d f7b8 2fbd 26d8 163e 8556 8abd
00000050: cdea 54be d9cb 273e 2f7f a4bd c91d 0cbe
00000060: 2d04 e63d 55c5 a1bc f7bd 903d 1f1a 193e
00000070: d762 183e ddb1 d03c a142 d6bd 1de6 d0bd
00000080: 2586 043e 4a2b ef3a 62eb 7b3d 7195 fa3d
00000090: 756a 1cbe 48f3 ea3d 9d30 16be 193f 433e
000000a0: dbaa b6bd 2fff e5bc 3261 36bc 0366 0fbd
000000b0: 2ce6 10be 83bd 9c3d 9b52 c23d b365 cbbd
000000c0: 0631 8dbc 0b13 9c3d d31d 83bc da8b ae3d
000000d0: 9514 d5bd 5298 383e 614d c3bd 3781 2c3d
000000e0: 3e5a 2abe e01a 29be 5578 80bd f11e 1bbe
000000f0: 4a8e 10be 79ee ac3d c061 35bd 7945 7c3c
00000100: a79d 70bd cc1f 2cbe a1df cebb 76f0 c43d
00000110: a054 3a3e be71 d0bd c64e 5dbd 7be3 c03d
00000120: 1ece d43d 3a0a a13c 9ffa af3d 8645 d33c
00000130: 792e 0e3d 2149 9c3c 5131 35bd 2784 e3bd
00000140: 9a1a 053e 305b d0bd 50da 693d 7bb9 d9bd
00000150: 86e9 8b3d a076 20be 25dc 2e3e 5342 133e
00000160: 94b5 65bc 8315 18bd eb15 47be 3fb2 273d
00000170: ec47 1f3e 533b b23d d6ec ca3c 5f62 89bd
00000180: 7689 9bbd bcd9 53bd 2ff7 c4bd 1bc7 fa3d
00000190: bbd3 32bb 2fcc 293e b8f3 fc3d 5602 8bbd
000001a0: ff87 b03d b79d 983d 0c77 4fbc 1f2c c3bd
000001b0: 3aa1 30bd 63a2 14be 6ec9 b2bd 32ba a2bd
000001c0: 735e 9e3d a853 7e3b 45ef 693d 244e 93bd
000001d0: c335 9d3d 62dd a83d 431b aa3d 9010 b3bd
000001e0: 158e 0ebd 41be 8e3d 9b97 ed3d 37b7 473b
000001f0: dffc adbd 44cb 0dbd 6041 3dbd 7468 fabd
00000200: 5f07 93bc d31e b63d 7f77 28bd 0969 69bd
00000210: 5e1a c7bb 9099 c53d 726b 41be c8cb 06be
00000220: 72be 2ebe 5b49 3ebd 2dbd 2f3e e08f 313e
00000230: 8a63 02be 3846 d13d b340 6f3d b0e9 8cbd
00000240: 815e 7fbc 39da 343d a029 a5bd c322 0fbe
00000250: 0b3e da3d acba c13d 2688 26bd 4636 e5bd
00000260: 8481 e8bd 8999 483e 6522 8a3d 5f21 0e3e
00000270: ae72 79bd 8269 4e3e 86ca 6e3d 41c2 acbd
00000280: c1c4 013e 97c6 243d 87dd d6bd bfeb ce3d
00000290: 0447 12bd 3897 433e d28d b5bc 515e 133e
000002a0: e756 533e f6b5 963d cc0b 293d c4f3 b83d
000002b0: c807 e1bd caf1 eb3d 3e36 16bd 62cf f33b
000002c0: 249b acbc 55a3 123e 1e64 dfbc 1849 873d
000002d0: 34e8 06be 32ee 533c 3558 e0bd 8ef0 283d
000002e0: 9802 25bd cd09 22be d078 d13d 3a0c 8cbd
000002f0: ff66 1abe f769 a2bd ccdc 24be 62ec dc3d
00000300: 5ebd 8dbd c7d5 2cbd b932 20be c459 24be
00000310: 4f3e 0c3e d9d2 30be 02eb 0d3e 87be 1b3e
00000320: 290e 7fbd 68b1 6d3d 9fe9 c73c df01 58be
00000330: 7148 a0bd e834 8a3d 9915 063e d3cc dcbd
00000340: c5e3 643d 5040 24be 496e ffbd aaa1 183d
00000350: d6bf e1bd 8dda d0bd c9d7 003e 0ce7 e83b
00000360: 346e 1d3e 23ab 3ebd 3823 3e3e fc3d 68bd
00000370: 74bf 66be 1475 41bc 040e 2fbe 9b72 babd
00000380: 36d5 15be 1aff a7bc 0c05 123e 0d57 f83d
00000390: a7f6 8e3d 3186 a33d 0bb5 113a b509 0ebe
000003a0: 6901 1cbe 5721 013d 6a24 5d3e 2c18 c03d
000003b0: ec3d 1bbe 3cfe 30be ec2b 9d3d c138 1a3e
000003c0: e976 82bd 6a4e 703d 8f4e cebc 18fd adbd
000003d0: 7ac0 f6bd 4263 913d fa30 f9bc 326d 19be
000003e0: 7419 e53d c28e b1bd a097 e9bc 4189 163e
000003f0: e307 e83d feb2 94bd 2806 cf3d 9f06 3f3c
-0.188868 -0.08616344 -0.060432456 0.03724566 0.10021572 -0.055268403 -0.050934244 -0.22314543
-0.10009973 0.11889108 0.030061636 -0.14410312 -0.15150207 0.07792298 -0.16376953 -0.06840969
0.081886105 -0.042901006 0.14730892 -0.067547835 -0.20792694 0.16386355 -0.08032071 -0.13683237
0.11231265 -0.019747416 0.07067483 0.1495137 0.14881454 0.025475437 -0.10461927 -0.102001406
0.12941797 0.0018247154 0.061503775 0.12235535 -0.15274985 0.114721835 -0.14666982 0.19067039
-0.08919307 -0.028075783 -0.011131572 -0.035009395 -0.14150304 0.07653334 0.09488412 -0.09931507
-0.01723529 0.0762082 -0.016005432 0.08522768 -0.10404316 0.18026856 -0.09536243 0.042115416
-0.16635987 -0.16514158 -0.062729515 -0.15148522 -0.14116779 0.084439225 -0.044282675 0.015397423
-0.0587441 -0.16809005 -0.0063132797 0.09616177 0.18196344 -0.101779446 -0.054030202 0.094183885
0.10390876 0.019658197 0.08592724 0.025789987 0.03471229 0.01907784 -0.044236485 -0.111091904
0.12998429 -0.10173643 0.057092965 -0.10631081 0.068316504 -0.15670252 0.17076166 0.1438077
-0.014020342 -0.03712989 -0.19441955 0.040941473 0.1555478 0.087027214 0.024771135 -0.06708216
-0.07594578 -0.05172132 -0.09617459 0.122450076 -0.0027286846 0.16581796 0.12351173 -0.06787555
0.08619689 0.07451957 -0.01266266 -0.095299 -0.043122508 -0.1451507 -0.08729826 -0.0794567
0.077328585 0.0038807187 0.05711295 -0.071926385 0.0767627 0.082453504 0.08305981 -0.087433934
-0.03480347 0.06969882 0.11601182 0.0030474195 -0.08495497 -0.034617677 -0.046204925 -0.12226954
-0.01794785 0.08892598 -0.041129585 -0.056984935 -0.0060761413 0.0964843 -0.18888643 -0.13163674
-0.17064837 -0.046456676 0.17162009 0.1734004 -0.12733284 0.10218471 0.05841131 -0.0688051
-0.015586496 0.044153426 -0.0806458 -0.13978104 0.10656365 0.09459433 -0.040657185 -0.111919925
-0.11352828 0.19589819 0.067448415 0.13879918 -0.060900383 0.20157436 0.05829861 -0.084354885
0.12672712 0.040228453 -0.10491472 0.10103559 -0.035712257 0.19100654 -0.022162352 0.14391448
0.2063862 0.07358925 0.041271016 0.090308696 -0.10987812 0.11520727 -0.036672823 0.0074404934
-0.02107007 0.14320119 -0.02726942 0.066057384 -0.13174516 0.012935208 -0.10954324 0.041245036
-0.040285677 -0.15824051 0.10228121 -0.068382695 -0.15078352 -0.079303674 -0.16099852 0.10787274
-0.069208845 -0.04219606 -0.15644349 -0.16049868 0.13695644 -0.17267932 0.1385918 0.15209399
-0.062269364 0.058030516 0.024403391 -0.21094464 -0.07826317 0.06748372 0.13094176 -0.107812546
0.05588128 -0.16040158 -0.12472207 0.03726355 -0.11022918 -0.10197935 0.12582316 0.007107621
0.1537407 -0.046549927 0.18568122 -0.056699738 -0.22533971 -0.011807699 -0.1709519 -0.091038905
-0.14632115 -0.020507384 0.14259738 0.121259786 0.06980639 0.07984579 0.00055582885 -0.1387089
-0.15234913 0.031525936 0.21595922 0.093796104 -0.1516034 -0.17284483 0.07674393 0.15060712
-0.063703366 0.05866853 -0.025183944 -0.084955394 -0.12048431 0.0709901 -0.030418862 -0.14983061
0.111864954 -0.08669807 -0.028514683 0.14700796 0.11329629 -0.072607026 0.10108596 0.011659293

lstm.weight_hh_l1 f4 [120, 30]
00000000: 5121 c0bd 2819 e53d 416d 50bd 81f1 64bd
00000010: 7b18 dabd 010e 703c 2916 bfbd 526c 36bd
00000020: 8eff 8b3d c441 1c3e ddd2 2abe 5038 c4bd
00000030: 419f 193e 45ef 603c fa44 1fbe a99e 17bd
00000040: 8a95 14bc 489c 63be 6e39 11be 24cc b63d
00000050: e4bc fcbc e8c2 d3bd 4eac 27be 2eaa b3bd
00000060: 94ce 3d3e e911 f7bd 028e 00bd c2d9 33bd
00000070: 555e 10bc 9b0c 66bd 3735 1cbe d477 88bc
00000080: 6880 293d 587c 2b3e fa64 993d c5fd f5bd
00000090: bab5 8cbc 9e54 e7bd 182f 36bd c74b c7bb
000000a0: 8ad4 0e3e 1e11 c9bc 8142 7e3d 60fe a23a
000000b0: ca73 0f3e 8b03 26bd 379a 453e 4a60 d23d
000000c0: 93a1 e53b 0512 42bd b35f eb3d e82c 463d
000000d0: 48eb cfbd 2037 653d 0ca8 de3d 15a9 4d3d
000000e0: fae3 2f3e c979 9d3d 294f 04bd e095 d4bd
000000f0: f2c3 ac3d e8d1 b9bd da73 9e3c fe4b a43d
00000100: e65e 65bd e53a 49bd 90db b2bd 71d0 96bb
00000110: e8cb 783d 5192 603e d2fe b73d 2744 97bd
00000120: 19b7 5b3d b600 b6bd 0fdf ae3d 889c 10be
00000130: 1de1 0abd dd4b 143e 7ef7 21bd 0cdc 0f3e
00000140: cc20 19be ffc3 433d 57b2 5fbc 8722 0bbe
00000150: a7ec 0a3e 1405 8bbd dd53 0ebe e767 50bc
00000160: 87de 40be ea4b 773d 8a1d f33c 76a8 1cbe
00000170: 56f8 9bbd 12d0 1abe 69e1 0abe b0c1 49be
00000180: 508f bfbb 4cc3 243e dc0d 9ebd db93 cfbc
00000190: 6f5b 653e b935 2c3d 5291 4ebe 0bc3 0cbe
000001a0: 1bef 61bd 0755 f9bd 8a1d 673d ffbf 1c3c
000001b0: 551a 95bd 36d6 1e3d 93c3 be3d 3bce 883b
000001c0: 27b0 533d 70fd 52bd 139d 043e 81bb 01bd
000001d0: 2bf8 f83d 7699 093e 5e35 26be e5c5 17be
000001e0: f145 e9bd 02c5 21be 32d9 f93d 9afa 49bc
000001f0: 1df8 6c3d c804 9ebd 01b5 3b3d 67e2 5cbd
00000200: f734 4fbe f699 0cbb 4372 26be e432 d5bd
00000210: 58b2 3e3d 7ffd 093e cbfb a53d 549b 173d
00000220: 4769 2abe 3fd4 edbd 50c2 8f3d 5a3d 97bd
00000230: fdbd 403d 2e4c 183e 123f 353d 4036 f2bd
00000240: 8ac0 b6bd 4a89 3f3e f5b5 ca3d ae3d e93b
00000250: 8f54 093e e1da 3bbe f99f 033e 33e9 d0bd
00000260: d5ae 78bd 55ea aa3d c637 09be 8d22 463e
00000270: 94dc 1c3e d2e9 1cbe a7e8 05be 0b72 c63d
00000280: c1b1 c4bd b931 ae3d 2161 253e d8f4 c03c
00000290: d982 373d 786a bc3d 6bd8 6abe 05af 0d3e
000002a0: 3b20 8fbd ab43 1ebe 1c1e 553d 9906 7d3b
000002b0: cc1b 83bd 4119 c0bd b12f 4c3d b896 993d
000002c0: 7477 b3bd da0e dbbd 749d 1fbd c44c 413e
000002d0: 9717 ac3d c35e 82bd cafb 93bc 75e2 8fbc
000002e0: 4fa6 3fbe 43fe 19be 3c17 b23d 3547 783c
000002f0: 2d13 0e3e 6699 a33d d02f 313d d159 bd3d
00000300: 28e2 0a3d 112f 973d 5f6f 3a3e c428 873b
00000310: f093 0dbe c03d ea3d e232 01be 639b 2a3d
00000320: e367 b9bd 1393 1c3e 4b82 9f3d b726 943d
00000330: 95d5 ce3d d521 373e cca3 1fbe a557 db3d
00000340: 346a d0bd 5456 c9bd c74d 2fbe 89ba 413e
00000350: a0e8 b8bd c4bd 8bbc c63c 3f3e 0e01 cbbd
00000360: a3c4 843b e5c4 913d 74fd bbbd eafc d2bd
00000370: 50b5 66be 7bf5 2c3d af4c b0bd 984e f53d
00000380: df58 88bd ebe3 f7bb b9c0 ae3d aa60 6d3c
00000390: 1156 bf3d 5e81 163e 9444 323d 82be 88bd
000003a0: 6211 22be a1d9 bf3d 8543 133e b1fe 6c3d
000003b0: 2da8 523e 97ac e53d 2bf1 c13d 24e8 bbbc
000003c0: d945 56be c102 8b3b 607f 1dbe 6f51 b63d
000003d0: 681c 453e 5d5d a43d 69f2 bbbd 7ae1 6e3e
000003e0: 83d7 bb3c fe4d 31be 5090 12be 0ac8 a4bd
000003f0: fe2f df3d 7e80 f4bd 59b1 0bbe f8d8 163e
-0.093813546 0.11186439 -0.050885443 -0.05589438 -0.106492005 0.014651776 -0.093303986 -0.044536896
0.068358526 0.15259463 -0.16682 -0.09581053 0.15002157 0.013728921 -0.15553656 -0.037016544
-0.009068856 -0.22227585 -0.14182064 0.089256555 -0.030851789 -0.1033991 -0.16374323 -0.087726936
0.18535835 -0.12063963 -0.03138543 -0.043908842 -0.008811553 -0.056164365 -0.15254675 -0.016658701
0.041382223 0.16746652 0.07489963 -0.12011293 -0.017176498 -0.11295436 -0.044478506 -0.0060820314
0.13948265 -0.024544295 0.06207514 0.0012435429 0.14009014 -0.040530723 0.1929711 0.10272272
0.0070077865 -0.047380466 0.114928626 0.04838267 -0.10152298 0.055960774 0.10871896 0.050210077
0.1717681 0.07689244 -0.032302056 -0.10380149 0.08435811 -0.090732396 0.019342352 0.08022307
-0.055998705 -0.04912843 -0.087332845 -0.004602485 0.060741335 0.21930815 0.0898415 -0.07386046
0.053641412 -0.08886854 0.08538639 -0.14122212 -0.03390609 0.14482065 -0.039542668 0.14048785
-0.14953917 0.04779434 -0.013653359 -0.1358739 0.13566838 -0.06788078 -0.13899179 -0.012720085
-0.18834887 0.06037513 0.029677171 -0.15298638 -0.07615726 -0.15118435 -0.1356255 -0.19702792
-0.0058459416 0.16090125 -0.07717487 -0.025339058 0.2239816 0.04204342 -0.20172623 -0.13746278
-0.05515967 -0.12174421 0.056424655 0.00956726 -0.07280413 0.038778506 0.093146466 0.004174975
0.051681664 -0.051511228 0.12950544 -0.03167296 0.12156709 0.13437447 -0.16231295 -0.14821585
-0.113902934 -0.15797809 0.1219963 -0.0123278145 0.057853807 -0.07715756 0.045826916 -0.05392685
-0.20235048 -0.0021454073 -0.16254525 -0.10410097 0.0465568 0.13475607 0.08104666 0.037013367
-0.16641723 -0.11612748 0.07019484 -0.07384749 0.047056187 0.1487281 0.0442496 -0.118267536
-0.08923443 0.18704715 0.09897987 0.0071179485 0.13411163 -0.18345214 0.12853993 -0.10200729
-0.060713608 0.083454765 -0.13400182 0.19349118 0.15318519 -0.1532357 -0.13077031 0.09689721
-0.09604216 0.085055776 0.16150333 0.02355425 0.04480252 0.09199995 -0.2293412 0.13836296
-0.06988569 -0.15455501 0.052030668 0.003860867 -0.06401786 -0.09379817 0.04985017 0.074994504
-0.08763018 -0.10696192 -0.03896852 0.1887694 0.08402937 -0.063657306 -0.018064398 -0.017564038
-0.18715785 -0.150384 0.08695838 0.015153696 0.13874502 0.07988243 0.04325849 0.09245647
0.033907086 0.07382024 0.18206547 0.0041247327 -0.13825965 0.11437559 -0.12617067 0.041652095
-0.09053018 0.1529048 0.07788523 0.07233947 0.10099331 0.17884 -0.15589827 0.10710076
-0.10176507 -0.09830919 -0.17119513 0.18918814 -0.09028745 -0.01705826 0.18675527 -0.099123105
0.0040517612 0.07117633 -0.09179202 -0.10302146 -0.22530103 0.042226296 -0.08608376 0.11977881
-0.06657576 -0.0075650117 0.08532853 0.014488379 0.09342588 0.14697787 0.043522432 -0.066769615
-0.15826944 0.09367681 0.14381225 0.05786008 0.20571966 0.112145595 0.09469827 -0.022937842
-0.20925082 0.0042422717 -0.15380621 0.08902251 0.19249117 0.0802562 -0.091770954 0.233282
0.022929912 -0.17314908 -0.14312863 -0.08045967 0.10897826 -0.119385704 -0.13641872 0.14731205
