model/LSTMY/RAcheckpoint4.pt (torch, 229202 bytes, 31 tensors)

lstm.weight_ih_l0 f4 [120, 15]
000000 cb 57 1f 3e 33 42 bb 3d 6e da d8 3a 81 21 1c 3c
       0.15560834 0.09143486 0.0016544589 0.009529472
000010 70 0a f4 3c 9e 3f b8 bc 9e c9 ef 3d ef 87 03 be
       0.029790133 -0.022491273 0.11708377 -0.12844823
000020 e8 15 4e 3d df 1a 80 3e ed 68 8a 3d 67 23 a2 bd
       0.05031386 0.250205 0.06758294 -0.07916909
000030 42 a2 0d be f2 fe 1d bc 16 c5 74 bd d9 08 94 3d
       -0.13831428 -0.009643303 -0.05975827 0.0722825
000040 b1 42 0d bc 0f c3 2d 3d 50 34 6f be 62 8b 6a 3d
       -0.0086218575 0.04242235 -0.233598 0.057261832
000050 65 85 20 be 80 a3 95 3d 79 d1 ba bc dc f8 0b bd
       -0.15675886 0.07306576 -0.022804962 -0.034172878
000060 cd df 1c 3e c3 f0 a2 3d 6f 80 a7 3d 8d 84 89 3d
       0.15319748 0.07956078 0.08178794 0.06714735
000070 cf b4 9d bd fe a2 50 be 9d bc 44 3e ba 40 96 bc
       -0.07700502 -0.20374677 0.19212575 -0.01834141
000080 b1 84 98 bc c1 6c 2c be 30 67 06 3e 61 6e eb bd
       -0.01861796 -0.16838361 0.131253 -0.114956625
000090 a9 28 0e be d5 9e 06 3c a6 9c 1e be 23 94 d8 3d
       -0.13882698 0.008216579 -0.15489444 0.1057513
0000a0 1b 4d ab 3d 29 3b b3 bc f1 a8 cf ba d2 51 e0 3d
       0.08364316 -0.021878796 -0.0015843195 0.10953106
0000b0 a4 b4 01 3e 8b 1b 4c 3d a4 77 61 be 17 a3 e1 bc
       0.12666565 0.049830955 -0.22018296 -0.027543588
0000c0 18 99 55 bd 32 b5 b8 3d bd 1e 4e 3e 1f c2 99 bd
       -0.052147955 0.09018935 0.20128913 -0.07507729
0000d0 7b b1 48 3e 6d 59 4e bd 18 09 49 be f2 8f 98 bd
       0.19598953 -0.05037825 -0.19632375 -0.074493304
0000e0 43 c1 c2 3d ab 98 22 3e f3 8c 41 3d 9b 84 98 3d
       0.09509518 0.1587855 0.04725356 0.074471675
0000f0 49 67 29 bd de f6 03 be 9d 50 2b be df a3 3e bd
       -0.041358266 -0.12887141 -0.1672997 -0.046543
000100 58 f8 97 3d 96 c6 23 3e 16 f8 00 3e fa da 1e 3e
       0.07420415 0.15993723 0.12594637 0.1551322
000110 0a aa e5 3d 18 76 2a 3c ba c8 12 3d 32 7f e0 3d
       0.11214073 0.010404132 0.03583596 0.109617606
000120 f4 69 5a bc c0 0a 0d 3e 65 2b 8a 3c f1 61 10 3e
       -0.013330925 0.13773632 0.016866395 0.14099862
000130 64 5b bf bd bd 4a 2e 3d 73 fd 57 3d 9c c6 dd bd
       -0.09343603 0.042551745 0.052731942 -0.10828897
000140 44 8e 08 3d 1e 24 cb bc bd f7 7a 3c 36 f4 e9 3d
       0.0333388 -0.024797495 0.0153178545 0.11423533
000150 39 17 52 3d 73 69 08 3d 00 fb ee 3c 40 93 2a 3c
       0.051291678 0.03330369 0.02917242 0.010411084
000160 0c d2 0e 3e c2 0f 28 bb e1 c6 10 3e 52 73 91 bd
       0.13947314 -0.0025644158 0.14138366 -0.07102074
000170 05 67 62 3d 13 e1 14 3e 87 4e 0e bd 7e 2d 24 be
       0.05527403 0.14538984 -0.03474286 -0.16032979
000180 11 0d ee 3b c3 c1 b9 3d 0f dc 12 be 13 4c 19 be
       0.007264741 0.0907016 -0.14341758 -0.14970426
000190 dd d8 21 be 13 9f 01 be c5 a8 0f 3d 2a 3b 8c bd
       -0.15805383 -0.12658338 0.03507306 -0.06847222
0001a0 19 e0 0a be bd 33 89 3b 0c ca 0a be ed bf 34 3e
       -0.13562049 0.004187076 -0.13553637 0.17651339
0001b0 e1 ee e8 bd 2d 5d 61 3e 52 ef 06 be fb d1 0c 3c
       -0.113736875 0.220082 -0.13177231 0.008594985
0001c0 70 0d d1 3d 12 a1 e0 3d 98 87 84 3d 00 af 46 3e
       0.10207641 0.10968222 0.06471175 0.19402695
0001d0 49 2e 6e 3c e7 69 82 3d fc 9f 39 3c af f3 91 3d
       0.014537402 0.063678555 0.011329647 0.07126557
0001e0 d7 3a 36 3e dd 88 a0 bc b2 fd 27 be 90 e5 b5 bd
       0.17795883 -0.019596511 -0.16405371 -0.08881676
0001f0 5a 48 0e 3e c5 e0 c3 b9 e1 c6 a9 3d 0e 79 98 3c
       0.13894787 -0.00037360765 0.08289886 0.01861241
000200 14 cd 6c bc ae 66 7d bd 7d ca 6a 3d ea f6 30 3e
       -0.014453191 -0.0618655 0.057322014 0.1728169
000210 0c d2 22 3c e5 d5 69 bd 6a 4e 06 3e ed 16 ff bd
       0.009937774 -0.05708875 0.1311585 -0.124555446
000220 9d d5 26 3e 6e 31 89 bd fe e5 2d 3e fa 77 cd 3d
       0.16292424 -0.06698881 0.16982266 0.10032649
000230 03 98 2e 3c e5 91 eb 3c 22 ce 03 3e c4 8a 65 3d
       0.01065636 0.028756091 0.12871602 0.05604054
000240 71 02 98 3d a9 4b 29 bd 5b 3c 78 3d f2 99 f7 bd
       0.07422341 -0.04133192 0.060604434 -0.120899096
000250 76 42 4c 3e ff a8 d0 bd ff 8f e9 bd a5 f4 b0 3d
       0.19947228 -0.101884834 -0.11404418 0.08640412
000260 bd 8b 11 3e 98 93 1d be 00 ac 12 be 10 7c 32 3e
       0.14213462 -0.15388334 -0.14323425 0.17430139
000270 13 96 f8 3d 4b 4e e1 bd f3 34 3f be d1 6e 24 be
       0.121379994 -0.11001261 -0.18672542 -0.16057898
000280 77 c9 ee bc 29 30 73 bd fa f0 e1 3d 5c 64 31 3d
       -0.0291488 -0.0593721 0.11032291 0.0433086
000290 90 2b 0a 3e fa 2c 63 bd c0 8a 10 3c 0c e7 0e bc
       0.1349318 -0.055462815 0.008822143 -0.008722078
0002a0 af 92 6c 3c c6 fe 3f 3e f3 f0 4d 3e 90 1b 40 3e
       0.014439269 0.18749532 0.20111446 0.18760514
0002b0 b7 51 3f be 3b b6 1f be 27 52 c7 3d e3 ce 07 be
       -0.18683515 -0.15596859 0.09732466 -0.13262515
0002c0 46 72 11 be c4 be 0b bd cf 98 f9 3a 91 f0 e8 bc
       -0.14203748 -0.034117475 0.0019042733 -0.028435024
0002d0 aa 5c e4 3d 33 77 7c bd 2e 1d cc bd 6a 50 a4 3d
       0.11150487 -0.061637115 -0.09966503 0.0802315
0002e0 af ce 6b bd 22 5d 62 3d 74 4d ec bd 7b a6 84 3e
       -0.057570156 0.0552646 -0.115382105 0.25908265
0002f0 6c 38 a5 bd b6 7d 35 bd 44 35 ef bc 52 d4 10 be
       -0.08067402 -0.04430934 -0.029200204 -0.14143494
000300 0d 24 12 be 6d 97 ed 3c 1a b7 da 3a a2 e7 80 bd
       -0.14271565 0.02900287 0.0016686649 -0.062941805
000310 e3 ae 4e be 0d 3e 78 3e bc 90 58 be b5 9b 05 3d
       -0.20183901 0.2424242 -0.21148962 0.032619197
000320 a8 6d b7 bc 96 4c 84 bd c9 de 82 39 05 8c 3f 3d
       -0.022391155 -0.0645992 0.0002496152 0.046764392
000330 32 ff 90 3d 33 f3 c9 3d 10 ec 3d 3e 26 c6 be 3d
       0.07079925 0.0986084 0.18547082 0.093151376
000340 1f ae 3b 3e fd b5 f3 bd 79 64 fd bd 78 70 23 bb
       0.1832814 -0.11899946 -0.12372679 -0.0024938863
000350 25 70 a4 bd e2 02 d8 3d 48 7c b1 bd 69 7c d5 bd
       -0.08029202 0.10547425 -0.08666283 -0.1042412
000360 4b ff c4 bc cb 52 88 3d 4c 9f 74 bd 8a a8 3a 3e
       -0.024047514 0.066564165 -0.05972223 0.18228355
000370 b5 b9 85 3c 9f d9 db 3d c2 3a 16 be 3a 24 3a 3e
       0.016323904 0.10734867 -0.14670852 0.18177882
000380 d5 03 de bd 47 b7 4a 3e cf 07 42 be 89 4f c2 3d
       -0.10840575 0.19796477 -0.18948291 0.094878264
000390 76 db 2a bd 7a b0 a9 3d de 91 b7 3d 82 ec 2c 3e
       -0.0417132 0.08285613 0.08963369 0.16887096
0003a0 f2 fc 00 bd 63 7e 2d 3e 2f c7 12 bd 8b 7a f4 3d
       -0.031491227 0.16942744 -0.035834488 0.11937436
0003b0 ea 5b 4d bc 7c 45 a3 bb fc 53 d9 3d 6f 48 21 3e
       -0.012534121 -0.0049826484 0.10611722 0.15750287
0003c0 de a7 32 3e 02 44 cf bd b5 89 03 3d 9f 26 41 bc
       0.17446849 -0.10120393 0.03211375 -0.011788993
0003d0 77 75 2e 3d 17 55 ca bc bd a1 72 bd 53 4e 15 be
       0.042592492 -0.024698777 -0.059236277 -0.1458066
0003e0 5e 6a 69 3d 49 41 fa 3d 0b 4a b4 bd 44 35 55 be
       0.056986205 0.122194834 -0.08803185 -0.208211
0003f0 62 f9 8e 3d 6c 35 0e bd 0e 2d 33 bb f4 5a 7b bd
       0.0698116 -0.034718916 -0.0027340087 -0.061366037

lstm.weight_hh_l0 f4 [120, 30]
000000 87 08 e7 3c 7c ad 14 3e 28 c6 e3 bd 0f 2d 23 3e
       0.028202308 0.14519304 -0.1112178 0.15935157
000010 1a 14 45 3e 73 10 69 be 25 d3 4e be 57 63 3b 3d
       0.1924595 -0.22760181 -0.20197733 0.045749035
000020 72 5c 57 3e 42 d1 2a be e4 30 91 3d ff 5a 8b bd
       0.21031359 -0.16681388 0.07089403 -0.068044655
000030 34 79 3e 3e 0e a1 6c 3e 43 2b 62 3c 0f 20 59 3d
       0.18600923 0.23108312 0.01380426 0.05300909
000040 a9 b0 02 bd fa 0b 77 3d 6c 9a 62 bd 73 10 de 3c
       -0.031906758 0.060314156 -0.05532305 0.027107453
000050 bb f5 2b bd 46 21 f1 3d b8 ee 68 3c f4 b1 ff 3d
       -0.041982394 0.117739245 0.014217071 0.12485114
000060 cc 61 26 be 45 5a 12 be 35 5b 78 3e 77 c5 43 bd
       -0.16248244 -0.14292248 0.24253543 -0.04779574
000070 d1 d5 0f be 22 a4 18 bd 62 24 14 3e f0 74 7d 3b
       -0.14046408 -0.037265904 0.14467004 0.0038674437
000080 14 23 d6 bd 95 11 53 3e 0a 67 cb bd b2 05 3a 3e
       -0.10455909 0.20612176 -0.099317625 0.18166235
000090 56 04 ee bd 9c d0 d9 3d 6a eb 3f 3e ce c0 49 be
       -0.11621921 0.10635492 0.18742147 -0.19702455
0000a0 55 8a 8c 3d 88 c9 33 3e b6 5f 77 be 69 c3 29 bb
       0.06862322 0.17557347 -0.24157605 -0.0025903827
0000b0 53 e2 98 3c 37 29 8d 3d 51 02 8e bd ff ac 8d 3e
       0.018662607 0.06892627 -0.069340356 0.27671048
0000c0 c3 55 68 3e 14 db eb 3c eb 50 a1 3d a2 ce 04 be
       0.22688965 0.028790988 0.07876762 -0.12969449
0000d0 a2 b4 14 3d fc 74 69 3c af 32 a8 3d ee 33 19 bd
       0.036305077 0.014249083 0.08212792 -0.03740304
0000e0 7d 4c b8 3d 3b 76 da bd 58 e9 6f 3d 39 85 6f bb
       0.08998964 -0.10667082 0.058572143 -0.0036547913
0000f0 b3 f9 0f 3e 9e ce 15 3d 27 c9 47 3d 8a 8d 03 3c
       0.14060096 0.036574 0.04877582 0.008029351
000100 51 fb 3e bd 4f 5a 1c be 8d dc 01 3b 38 f0 6d be
       -0.046626393 -0.15268825 0.0019815296 -0.23236167
000110 59 ce 9a bb dd f0 be bd b2 d4 06 be 89 c0 c3 3d
       -0.0047243056 -0.09323285 -0.13167074 0.095582075
000120 09 f4 e6 3c 6c b1 c9 3d 5e e4 d4 3d 31 d5 75 3e
       0.028192537 0.09848294 0.1039512 0.24007107
000130 73 54 6b be 46 6e 16 3e fe 7f be 3d a0 3f fa 3d
       -0.22981434 0.14690503 0.09301756 0.12219167
000140 29 f9 c8 3c 0b df 02 3e 91 46 3c be d7 0b c5 bd
       0.024532871 0.12780397 -0.18386294 -0.09621399
000150 2b f1 2b bc 2b d5 94 bd c6 88 86 bd 86 09 2c 3e
       -0.010494511 -0.07267221 -0.06569056 0.16800508
000160 87 95 81 bd 9e 7e 90 3d 22 76 cd 3c 63 ac 06 be
       -0.06327348 0.070554 0.025080744 -0.13151698
000170 9a 40 38 3e 0e ff 25 be ca 89 74 3e af 9e 5c 3e
       0.17993394 -0.16210577 0.23880687 0.21544908
000180 5e ce ad bd b4 d2 84 bd e6 56 93 3e da 8c bd bc
       -0.08486627 -0.06485501 0.28777236 -0.023138452
000190 0e d3 88 bc 5f 4a 91 3e d3 f9 82 bd 9a 6d 04 be
       -0.016702201 0.28377053 -0.063953064 -0.12932435
0001a0 ec 47 95 bc c8 97 ef 3d 85 cf 0d 3d 0e 2e 03 be
       -0.018222772 0.11698872 0.034621734 -0.12810537
0001b0 32 70 98 3c 30 ab a2 be 41 6b 9a 3e 9d 36 0a be
       0.018608186 -0.3177123 0.30159953 -0.13497396
0001c0 44 73 4e 3e 79 ef 9c bd 7e 41 d3 3d 27 4c 2f bc
       0.20161158 -0.07662863 0.10315226 -0.0106993085
0001d0 2a 03 ac bd 62 11 d1 bd 20 9c b7 bd 09 c2 d3 3d
       -0.08399041 -0.10208394 -0.08965325 0.10339744
0001e0 b8 6c 2a 3e 37 df 85 3d 9c be f2 3c 3f 72 f8 3b
       0.16643035 0.065367155 0.029631905 0.0075819786
0001f0 3a fa f2 3d 63 89 e1 3d f4 a6 8e ba 88 28 f5 bd
       0.11864133 0.110125326 -0.0010883496 -0.11970621
000200 34 b7 79 bd 2a bf 70 3d e0 4c 23 be a4 f0 01 be
       -0.06096573 0.05877606 -0.15947294 -0.12689453
000210 98 6b 90 3c 0d 14 16 be 06 60 9a bd 18 c1 9d 3d
       0.01762943 -0.14656086 -0.07537846 0.07702845
000220 38 51 ad 3c 0d b5 05 bd e8 9d 83 3d d3 39 0f bb
       0.021156892 -0.032643367 0.064266026 -0.0021854534
000230 89 83 22 be 20 38 83 3c 7e a4 28 3e 28 99 d5 bc
       -0.15870489 0.016017973 0.16468999 -0.026074007
000240 b6 90 07 bc c4 ee 56 bd 47 26 4c be cc b7 2b 3e
       -0.008274248 -0.0524738 -0.19936477 0.16769332
000250 30 d1 2b be df d6 46 3d 6c 2a 83 bd 66 9d b6 bd
       -0.16779017 0.04854476 -0.06404576 -0.0891674
000260 7a df 92 3c 01 49 76 be 70 01 0a 3e fc 2f 37 3d
       0.017928828 -0.24051286 0.13477111 0.044723496
000270 45 2a 26 be 19 9b d6 3c 19 86 f0 bd ca 56 b6 3d
       -0.16227062 0.026197003 -0.11744327 0.089032724
000280 66 c1 6b bd f1 d5 7c bd 70 30 b6 bc df 62 8a 3e
       -0.057557486 -0.061727468 -0.022239894 0.27028558
000290 3c ef 2a 3e 62 d7 02 be c4 14 9a bd 25 66 a1 bd
       0.16692823 -0.12777475 -0.07523492 -0.07880811
0002a0 96 b3 12 3e 84 37 c5 3d cb 9c 67 be 5e aa 40 be
       0.14326319 0.096297294 -0.22618406 -0.1881499
0002b0 98 03 20 bc 83 42 51 3e 02 0e 30 bd ea b8 17 3e
       -0.009766482 0.20435528 -0.04298211 0.14816633
0002c0 56 d9 ae bd 0f 04 16 bb b5 57 5b 3c 63 54 47 3d
       -0.08537547 -0.0022890603 0.01338761 0.04866446
0002d0 64 f3 65 ba 3e 75 3d 3e 52 68 43 bd 67 cc c6 bd
       -0.0008771925 0.18501756 -0.04770691 -0.097069554
0002e0 0d 9c 86 bb a6 95 91 be 0e 96 79 3e 33 59 51 bc
       -0.004107958 -0.28434485 0.24373648 -0.012777614
0002f0 cd b8 0d 3e 90 f7 27 3e 1a e5 46 3e 56 f0 ea bd
       0.13840027 0.16403031 0.19423333 -0.11471622
000300 f2 d6 4f 3e 7c dc 00 3e d5 70 a7 bd 1f af 8f 3d
       0.20296839 0.12584108 -0.08175818 0.070158236
000310 12 f7 1e be df 25 11 bd 8a ab 5d 3c 14 cf 87 3e
       -0.15523937 -0.035436507 0.013529668 0.26525176
000320 8f 24 65 3e da e6 87 3a 6c fc bd be 66 77 78 3d
       0.22377227 0.0010368482 -0.37106645 0.060660742
000330 75 4e c8 3d 6a d2 cb 3d db 06 74 3c c1 c8 5b 3e
       0.097805895 0.09952243 0.014894213 0.214633
000340 f3 60 ea 3d a4 ae 71 3e 89 e4 4d 3e 2a af 4f be
       0.11444273 0.23601776 0.2010671 -0.20281664
000350 90 9e 72 3d 07 b6 0a be a9 d4 0f bd 4a b2 d4 3c
       0.05923325 -0.13546 -0.035114918 0.025963921
000360 cb f9 1b 3e c0 76 46 bd 0b 7d f6 bd 14 fc 10 3e
       0.15232007 -0.048453093 -0.12035569 0.1415866
000370 9d 8f ce 3d 29 16 37 be ec 37 8a 3d 8e d2 56 3d
       0.10085986 -0.17879547 0.067489475 0.052446894
000380 04 40 b3 3d 85 ef d1 bd a8 c9 03 3d 6e df 60 bd
       0.087524444 -0.10250763 0.032174736 -0.05490058
000390 a1 c4 d4 bd e4 5a 54 3d a0 c8 1b 3c c3 51 09 3e
       -0.103890665 0.051844493 0.009508282 0.13410096
0003a0 0e 10 2c be 7e eb 8d 3d 64 15 dc 3a 66 31 d6 bc
       -0.16803 0.06929682 0.0016791043 -0.026146602
0003b0 e6 0f b0 3d 7d 56 0e 3e ed 98 98 3d d9 ea d6 bd
       0.085967824 0.1390018 0.07451043 -0.104940124
0003c0 01 98 01 be d9 9e 25 3c 95 0b d7 3d 2f 81 44 be
       -0.12655641 0.010108673 0.10500256 -0.19189905
0003d0 61 4f d5 bc 6d fe 8b be 43 f4 bd 3d 5e 08 1f 3d
       -0.026038827 -0.2734255 0.09275105 0.03882634
0003e0 cd 1a d3 3d ea b1 05 bd 0c bf d5 3d 3f d8 02 3e
       0.10307846 -0.032640375 0.1043683 0.12777804
0003f0 e6 1a 41 bc de f2 f7 bd 8b 53 b6 bd e7 4f 07 3e
       -0.011786198 -0.1210687 -0.08902653 0.13214074

lstm.bias_ih_l0 f4 [120]
000000 19 dd b9 3d 8f a2 d0 ba c2 6d 5f 3d 22 9f 90 bd
       0.09075374 -0.0015917587 0.054548033 -0.07061602
000010 ec e9 1f 3e 3f 27 13 be cc 63 c6 bc 82 85 d4 bd
       0.15616578 -0.1437044 -0.024217509 -0.10377027
000020 2c 26 01 3e 44 75 a4 bc cf e4 5d 3e 19 0b 8d 3d
       0.12612218 -0.020075448 0.21669315 0.06886882
000030 d2 66 0f 3e 11 62 36 bd 82 b1 0f 3e a6 ff 02 3e
       0.14004067 -0.044527117 0.14032558 0.12792835
000040 8d 1e 3a 3e 5c d1 74 3e 87 94 19 be 54 2f c7 3d
       0.18175717 0.2390799 -0.14998065 0.09725824
000050 91 3a e1 3d 37 29 3d bd c9 20 b8 3d 7b c3 85 3c
       0.10997499 -0.046181884 0.08990628 0.016328564
000060 b6 17 a9 3d 08 a0 c2 ba 7d ad 34 3d 89 d7 98 bc
       0.082564756 -0.0014848718 0.044110764 -0.018657463
000070 41 59 cb bd c0 e8 04 be 74 4c bf bc 6f f2 93 3d
       -0.09929133 -0.12979412 -0.023351885 0.07223975
000080 90 87 3c 3e 28 09 39 bd ec 06 37 3e 81 24 4c 3e
       0.18411088 -0.045174748 0.17873734 0.199358
000090 5f a8 7b 3e cb 94 f4 3d 36 0e cd bd 09 7b e3 3d
       0.24575947 0.119424425 -0.10012476 0.111074515
0000a0 18 e2 82 bd 3b 3b 84 bd ed f0 3f 3e 13 99 0a 3e
       -0.0639078 -0.0645661 0.1874425 0.13534956
0000b0 20 48 99 3e 2e 3d 83 3e 8f af 4a 3e a4 ee 4a 3d
       0.2993784 0.25632614 0.19793533 0.04954399
0000c0 9c 56 03 be 71 73 8f 3e 3f 74 4b 3e 3f 40 15 be
       -0.12826008 0.28017762 0.19868563 -0.14575289
0000d0 57 2c 15 be e3 a4 d4 3d 46 fc ee 3d 3f 81 6c 3e
       -0.14567696 0.10383012 0.11669211 0.23096178
0000e0 6d 99 fe bd 98 cd 20 be 33 32 8f 3e 9f 03 70 3e
       -0.124316074 -0.15703428 0.27967986 0.23438881
0000f0 06 f7 d7 bd f1 d7 ca bc 1f 02 1a bc be 14 b0 bd
       -0.10545163 -0.024761172 -0.00939992 -0.08597706
000100 a3 92 c5 3d 5d e4 a0 bd c5 e0 32 be a7 2c b3 3d
       0.09647109 -0.07856057 -0.17468555 0.08748751
000110 84 c3 22 3e 3d bc 29 3e 50 bc 00 3e e6 98 e4 bd
       0.15894896 0.16575713 0.12571836 -0.111619756
000120 04 7c 08 be 72 1e ad 3d 86 16 17 be 03 d0 15 3e
       -0.13328558 0.084530726 -0.14754686 0.14630131
000130 c5 a5 1b 3d dc 51 b2 bd df c6 32 3d 60 ec b7 3a
       0.037999887 -0.0870702 0.04364669 0.0014032237
000140 47 e6 5b 3c eb 98 04 be 11 46 31 3e 18 22 1f 3d
       0.013421602 -0.12948959 0.17311884 0.038850874
000150 67 bd 7a bd 62 db 5b 3d 90 77 a6 3d 2b 09 00 bd
       -0.061215784 0.053676017 0.081282735 -0.031258743
000160 f5 e7 eb bd 1f 2e ad bd ea da 8e bd 1a 4c 0f 3e
       -0.11518852 -0.084560625 -0.06975348 0.13993874
000170 1c 1b b2 bd d3 e9 be 3d 76 f0 c2 3d 3c 3e 94 3d
       -0.08696577 0.09321942 0.095185205 0.07238433
000180 03 a4 86 bd 56 00 4b 3e 90 05 71 bd ff 2c 8c 3d
       -0.065742515 0.19824347 -0.058843195 0.0684452
000190 2c 0e eb bd f5 f3 05 3c 7c 66 17 3d 71 85 43 3e
       -0.114773124 0.00817584 0.03696297 0.19093873
0001a0 2f 4b bb 3d 88 89 6a 3e db f3 07 3e 24 6b 9b bd
       0.091451995 0.22904027 0.13276617 -0.07588795
0001b0 9b 55 09 bc bb c0 09 3e be 16 1e be 95 de 14 be
       -0.008382226 0.13452427 -0.15438363 -0.14538033
0001c0 11 a9 71 bd 91 2d 4e bd c0 17 33 3e f3 1c b0 3d
       -0.058999125 -0.050336424 0.17489529 0.085992716
0001d0 71 aa 10 3e ca f8 9a bd e4 41 86 3d cd 0e 9f 3b
       0.14127518 -0.07566984 0.065555364 0.0048540593

lstm.bias_hh_l0 f4 [120]
000000 86 4b 35 3e d5 38 97 bd 0c f5 17 3d b1 9d 33 3e
       0.17704591 -0.07383887 0.03709893 0.17540623
000010 f2 6a b0 bd 2f 44 b8 bd 92 fe 1a be 53 a7 0c be
       -0.08614148 -0.0899738 -0.15136173 -0.13735704
000020 9f e7 99 3d e2 0a 78 bd 70 f4 ed bd 73 35 57 3e
       0.07514881 -0.060557254 -0.116188884 0.21016483
000030 55 f6 c3 bd 77 12 1b bc cc dd 86 bd b2 86 0e 3e
       -0.095684685 -0.009464852 -0.06585273 0.1391857
000040 f4 06 c1 bd 6a b1 31 3e 6a 46 9a bd 49 0b 27 3c
       -0.09425154 0.17352834 -0.07532962 0.010195562
000050 97 19 30 3c 53 11 a2 bd 94 1a f6 bc 87 73 47 3c
       0.010748289 -0.079134606 -0.03004197 0.01217354
000060 0b b4 c3 bc 8e 84 54 ba aa 0a 80 bd cf 12 3b 3e
       -0.023889562 -0.00081069104 -0.06252034 0.18268894
000070 a0 65 9c 3d 8b 6a be bc f4 c5 01 be 53 b4 40 3e
       0.07636571 -0.023244163 -0.1267317 0.18818788
000080 9b c7 09 be c7 ff 0a bd c8 4c bd 3d 67 8a e9 3c
       -0.1345505 -0.033935335 0.092431605 0.028508378
000090 6b d0 48 3e a9 3c d1 3d 87 fb 10 3e a2 09 32 3d
       0.19610755 0.10216648 0.1415845 0.043466218
0000a0 9d 16 5d 3e 62 ba 69 3e cf 97 98 3d 01 36 10 3e
       0.21590658 0.22825006 0.0745083 0.14083101
0000b0 73 38 97 3e d0 58 1e 3e d2 2f 41 3e 4e be 6a bd
       0.29535255 0.15463567 0.18865898 -0.057310395
0000c0 b2 ef 54 bd b4 41 31 bd 24 fa 1b 3e 02 b4 c1 bd
       -0.051986404 -0.04327555 0.1523214 -0.09458162
0000d0 9e f5 a3 bd ab 22 f3 bc b4 87 55 3e aa 8c 00 3e
       -0.08005832 -0.029679617 0.20852548 0.12553659
0000e0 9e 24 40 3e cb 1b 3b 3e 99 36 59 3e 5c 92 70 3e
       0.18763968 0.18272321 0.21212234 0.23493332
0000f0 6a 2f 0f be 76 c0 aa 3d 35 05 47 3b 02 a5 18 3e
       -0.13982931 0.0833749 0.0030368094 0.14906695
000100 7f 49 04 be ca 7b 58 bd ab bc c4 3c cf 52 04 3d
       -0.12918662 -0.05285243 0.024015745 0.032305535
000110 6c 7e 18 bc 4b 88 b8 bd 80 24 34 3e ff 44 03 3e
       -0.009307485 -0.09010371 0.17592049 0.12819289
000120 3d 7e c4 bd 9b 36 c0 bd 12 41 ef bd a5 fa 0a 3e
       -0.095943905 -0.09385415 -0.11682333 0.13572176
000130 3e 65 24 3d 5f 8d 6c 3d 36 78 0c 3e 8f cf 61 3d
       0.040135615 0.05775201 0.13717732 0.055129584
000140 00 3b 10 3e 1b 44 65 3d 40 80 d6 bd f5 3d 1d be
       0.14085007 0.055973154 -0.104736805 -0.15355666
000150 41 c7 af bd 02 2b b3 3d d7 67 6d bd 1e 1a 6c bd
       -0.085829265 0.087484375 -0.057960358 -0.057642095
000160 c3 ca 23 bd 9f c0 44 be 77 a9 82 bd a8 3f c5 3d
       -0.03998829 -0.19214104 -0.06379979 0.09631282
000170 d9 98 f0 bc 37 2b 4b 3e 35 56 19 be cd 97 bb 3d
       -0.029369758 0.19840704 -0.14974292 0.09159813
000180 b1 f3 b0 3d ba db c9 3b bb d5 28 3c 3c 66 ac 3d
       0.086402304 0.0061602267 0.010304864 0.08417937
000190 49 97 d5 bc 0a 2f 81 3e ff 36 0a 3e 18 f5 fd bb
       -0.026073115 0.252312 0.13497542 -0.0077501647
0001a0 8d 6e af 3d 5d 92 9c 3d 83 93 09 be 31 ff 6a 3e
       0.08566008 0.07645104 -0.13435178 0.2294891
0001b0 cf 84 51 3c be 1a 52 3e 2f 58 0f be 2b 9f 70 3d
       0.012788012 0.20518014 -0.13998483 0.058745544
0001c0 a3 ea 2a 3c 4b 47 f3 3b 98 cc 69 3d 06 3a c5 bd
       0.010431918 0.0074242703 0.05707988 -0.09630208
0001d0 8c 46 b4 3d 6d 4e 33 bd 62 82 93 3d 84 51 bf bb
       0.08802518 -0.043775965 0.07202603 -0.005838575

lstm.weight_ih_l0_reverse f4 [120, 15]
000000 2f b3 30 bd 91 68 18 bc 62 66 ae 3d f5 6a 00 bd
       -0.043139633 -0.009302274 0.08515622 -0.031352002
000010 9b 82 f6 bd 8d 8a 5b bd a0 96 a7 3d 0e a6 9a 3d
       -0.1203663 -0.05359893 0.08183026 0.07551204
000020 46 67 38 be 07 b6 d6 bd bd 0d 06 be 35 3d bd 3d
       -0.18008146 -0.10483938 -0.13091178 0.0924019
000030 ee 18 fa 3d 35 1a 91 bb fe fe 1c be 0a 0d dd 3a
       0.12211786 -0.004428173 -0.15331647 0.0016864848
000040 f7 0d ca 3c 88 a2 21 be b7 57 a6 bd 4b dc c3 bd
       0.024664862 -0.15784657 -0.08122199 -0.09563502
000050 7a d5 50 be 01 f5 04 3e fc d6 46 ba 3f 4b f3 3d
       -0.20393935 0.12984087 -0.0007585136 0.118795864
000060 5e 30 b9 bc d3 96 2e 3d 7b 3f d1 bd da b0 a4 bd
       -0.022606071 0.042624306 -0.10217186 -0.08041544
000070 92 20 80 bd ff 2d 0a 3e a9 9d 93 ba 47 75 5a 3d
       -0.06256212 0.13494109 -0.0011262196 0.0533345
000080 40 7a d0 3d f6 5b ad 3d 05 ea ad bc d3 76 ee bc
       0.10179567 0.08464806 -0.021229753 -0.029109394
000090 26 38 79 bd b9 1d bf 3d 5f 8f a8 3d 54 f1 d2 bc
       -0.060844563 0.09331841 0.08230471 -0.02574984
0000a0 dc b8 51 3d 6c 3b 81 bd ff 73 f0 3d aa 1e f2 3c
       0.051201686 -0.06310162 0.117408745 0.029555637
0000b0 d4 3a c4 bd 83 62 e0 3d 81 37 99 3d c9 32 1b 3e
       -0.09581533 0.109562896 0.0748129 0.15156092
0000c0 9e b7 af bc 40 2e 9a bd 82 4d 5f 3c e1 05 f2 3d
       -0.02144986 -0.07528353 0.013629319 0.118175276
0000d0 4d 39 b8 bd 8c 7c b5 bd 3e 4c d3 bd 2e 4c b0 bd
       -0.08995304 -0.08861646 -0.103172764 -0.0860828
0000e0 95 2f 54 be 07 bc 87 bd 69 58 33 3e cb 50 cd 3c
       -0.20721276 -0.0662766 0.17514195 0.02506294
0000f0 50 ee 8e bb a3 23 4e be be 48 9b 3d 9a c0 ba bd
       -0.004361905 -0.20130782 0.07582234 -0.09118767
000100 5d b0 de ba f5 7f ad bd 5e 7e 27 be b9 c0 fc bd
       -0.0016989816 -0.084716715 -0.16356799 -0.123414464
000110 d5 ac c3 3d 91 29 3f be bf db 3c be c6 66 3f 3e
       0.095544495 -0.186682 -0.18443201 0.18691549
000120 46 07 0c 3e 68 61 b6 3d 0c 55 27 3c 39 b9 a7 3d
       0.1367465 0.089052975 0.010213148 0.08189625
000130 36 3c 2d 3e c8 e1 59 bd ff 7e 39 3e 85 04 0e 3d
       0.169175 -0.053193837 0.18114851 0.03467228
000140 a7 79 b3 3d e2 f7 61 3e df 4b 02 3e d9 cc 1c 3c
       0.08763438 0.22067216 0.12724255 0.009570324
000150 8d 5d 03 3d 09 09 e1 bd c8 5f 28 3e 54 21 b2 3d
       0.03207164 -0.109880514 0.16442788 0.08697763
000160 f1 07 17 be 74 29 6a bd 6e f1 9b bd 03 97 2f be
       -0.14749123 -0.05716844 -0.076144084 -0.1714745
000170 f2 54 ec 3d f8 b6 a0 3c cc fd 16 be 9b 5b 27 3e
       0.115396395 0.019618496 -0.14745253 0.16343538
000180 d3 7b 30 be 4d f5 32 be 24 d7 89 3d 0d 00 9b 3c
       -0.17234735 -0.17476387 0.06730488 0.018920923
000190 82 8f be 3d a5 e7 03 be 6f ae fd bc 95 74 26 bd
       0.09304716 -0.12881334 -0.030966965 -0.040638525
0001a0 6c fb 23 3d dc c3 d1 3d 56 bc 22 be e9 7d 22 be
       0.040034696 0.10242435 -0.15892157 -0.15868343
0001b0 39 f6 c6 bc 87 bd a6 3c fe 98 03 be 90 d5 41 bd
       -0.02428733 0.020354046 -0.1285133 -0.04732281
0001c0 33 0e c1 3d c7 07 e2 bd 22 97 d3 3d d5 b1 76 bd
       0.094265364 -0.1103664 0.10331561 -0.060228188
0001d0 ea 37 0c 3e a6 ac b1 3d 38 1a f6 bd 51 dc 58 be
       0.13693205 0.08675508 -0.120167196 -0.21177794
0001e0 db 20 46 be ca 31 d6 3d af 00 ec bd 2c b1 78 3e
       -0.19348471 0.10458715 -0.11523568 0.24286336
0001f0 c9 35 4a be 8d 7f d1 3d e6 e2 d3 3d 43 da af bd
       -0.1974708 0.102294065 0.10346012 -0.08586552
000200 a0 2c e5 bd 14 5c 6b 3d 80 d0 bf 3d 95 c1 a0 bd
       -0.11190152 0.05746086 0.0936594 -0.07849423
000210 6b 13 1a 3c 48 c0 b0 bc b6 32 24 3e af 88 8a bd
       0.009404044 -0.021576062 0.1603497 -0.067643516
000220 11 10 4b 3d 2b ad 63 bb fa 91 a3 bd 77 de fc 3d
       0.04957587 -0.0034740667 -0.07986827 0.12347119
000230 b4 2f 34 3e 11 52 1c be 66 d8 2f be 41 6b 01 3e
       0.17596322 -0.15265681 -0.17172393 0.1263857
000240 1f a5 65 3e 9d ef df 3d 64 76 db bc e3 56 6b 3d
       0.2242627 0.109343745 -0.026789851 0.05745591
000250 8b 91 c2 bc f1 07 1e 3e ea ac 90 bd 98 e6 ef 3d
       -0.02375104 0.15432717 -0.07064231 0.11713904
000260 3f a1 19 bd 7d 96 4c 3d 64 e3 71 3c 6b 12 39 3e
       -0.037507292 0.049948204 0.014763687 0.18073432
000270 c3 5c c7 bd 74 da e4 bd 26 20 ae 3d 28 eb 8c bc
       -0.0973449 -0.11174479 0.085022256 -0.017201975
000280 78 d9 70 3e 99 8e 63 bd bc 34 05 3e a5 cf 2b 3d
       0.23520458 -0.055555914 0.13008398 0.041946072
000290 de f2 49 be b1 a3 3c 3d 31 12 8d bd 26 52 51 3e
       -0.19721553 0.046054546 -0.06888235 0.20441493
0002a0 e4 29 d7 bd 5c 16 29 be a7 1a 65 bd 28 03 c0 bd
       -0.10506037 -0.16512436 -0.05593362 -0.09375602
0002b0 79 64 40 be 2d da 33 bd e8 78 3c 3d da 62 a2 3d
       -0.18788327 -0.04390924 0.046013743 0.07929011
0002c0 17 25 15 be 05 1f 28 bd 9e 16 0a 3e a9 42 0e bd
       -0.1456493 -0.041045208 0.1348519 -0.03473154
0002d0 18 eb 69 3d c2 b1 8d 3d 7f 91 37 be 55 dc 95 3d
       0.05710897 0.0691867 -0.17926596 0.073174156
0002e0 c1 e2 fb bd 42 13 31 3d fd c8 59 3e 1b 3e 8a 3b
       -0.12299109 0.043231256 0.21268077 0.0042188293
0002f0 60 37 2d 3d cb f4 09 be 55 95 57 3e ff 11 0a 3e
       0.042289138 -0.13472287 0.2105306 0.13483427
000300 5d d0 12 3d a4 1f 37 bc dc 30 81 bc cf c9 3d be
       0.035843242 -0.011176977 -0.015770368 -0.18534015
000310 89 8f b9 3d c5 a3 94 bd e5 ee ba bd e1 07 67 bc
       0.0906058 -0.07257799 -0.09127597 -0.014101
000320 02 69 99 3d 9a 8a eb bd 8f 9e 82 bd 29 ea b6 bd
       0.07490732 -0.115010455 -0.06377899 -0.08931381
000330 2c 23 65 bd 3c d6 e8 3d 81 4a 0a bc b8 12 a4 bd
       -0.055941746 0.11368987 -0.008440615 -0.08011383
000340 c5 ca 11 be b3 00 64 3b dc 9d b8 bd 3f 50 40 bb
       -0.14237507 0.0034790456 -0.09014484 -0.0029344705
000350 cd 1d fb bc 81 c9 00 3e ff 41 93 bb c9 bf 4a 3d
       -0.030653859 0.12576868 -0.0044939513 0.049499307
000360 ea c8 53 3e d4 03 df 3d 6c fe 49 3d f1 1f 0e 3e
       0.20682111 0.10889402 0.0493149 0.13879372
000370 22 0f 03 3e 49 a3 49 3d e8 9b c8 bd 56 9c 52 be
       0.12798741 0.049227986 -0.09795362 -0.2056745
000380 78 ae 01 be a9 ed 10 3e a6 32 12 3e f0 8f 95 3d
       -0.12664211 0.1415316 0.14277133 0.073028445
000390 6d 6a 82 3d 42 e0 dc 3d db 4b c0 3d a4 33 f2 bd
       0.06367955 0.10784961 0.09389468 -0.11826256
0003a0 bf a1 19 3e c8 08 5c be fb b0 37 3d e0 d7 d0 bc
       0.15003107 -0.21487725 0.044846516 -0.025493562
0003b0 31 38 21 bd 5d 3d 0e 3e ac 8c 21 3d df 89 eb 3d
       -0.03936023 0.13890596 0.039440796 0.11500906
0003c0 d4 2c c2 bb eb 20 1c bb 5a 50 91 bd 21 f9 34 bd
       -0.005925754 -0.0023823332 -0.07095404 -0.0441829
0003d0 af 29 41 be f1 72 35 be be 9a 9a bd f7 86 38 be
       -0.18863557 -0.17719628 -0.07549046 -0.18020235
0003e0 0d 41 f5 3d f7 47 86 3c b3 51 9a bc 9b bc 52 be
       0.11975298 0.016391737 -0.018837785 -0.2057976
0003f0 bd 3b 27 be c0 18 d0 3d 9f 2a 13 be e5 a5 ba bd
       -0.16331382 0.10160971 -0.14371727 -0.09113673

lstm.weight_hh_l0_reverse f4 [120, 30]
000000 7b ee f0 3d 9f d7 c7 bd 31 41 48 be 72 5c 10 be
       0.117642365 -0.09757923 -0.19556119 -0.14097765
000010 46 74 5c bd 48 dd cb 3b e9 b7 d2 3c 6f 16 fb 3c
       -0.053821824 0.006221447 0.02572246 0.030650346
000020 c7 3f 35 be 9a 05 38 bd c7 86 dd 3d bc 61 3f 3d
       -0.1770011 -0.044927217 0.10816722 0.046724066
000030 ed ac 62 3c f8 12 a5 bd db 1b 39 3e af 90 89 bd
       0.013835174 -0.080602586 0.18077032 -0.06717049
000040 71 b7 c7 3d 1f 6c 79 3d a8 f3 02 be b3 33 29 be
       0.097517855 0.060894128 -0.1278826 -0.16523628
000050 c1 43 51 3e 05 30 c3 3d 6d be 1b 3e ff a8 d8 bc
       0.20436002 0.095306434 0.1520936 -0.026447771
000060 1d 6a a7 3d fd 89 d1 3d 1f c0 f4 3c 76 93 65 3d
       0.081745364 0.10231397 0.029876767 0.056048833
000070 8a 86 ac bd 35 56 3c be 35 38 f2 3d 93 80 0c 3d
       -0.08424099 -0.1839226 0.11827127 0.034302305
000080 04 a2 1f bd f3 58 3f 3d 42 cc 54 be 95 bf 2c 3d
       -0.03897287 0.046715688 -0.20781043 0.042174894
000090 cd 3f be bd 4a 6b fd 3c b6 9f b1 bd f2 12 a3 bc
       -0.09289513 0.030934948 -0.086730406 -0.019906495
0000a0 ed f7 0b 3e 00 43 e2 3d 10 9a 53 3e 46 a9 47 bc
       0.13668795 0.110479355 0.20664239 -0.012186354
0000b0 f2 71 cf bd fe 0c 29 ba 0d 48 09 3e e0 18 23 be
       -0.10129155 -0.00064487744 0.13406391 -0.15927458
0000c0 a8 61 07 be d7 33 2a 3d 22 7f 8d 3d b7 15 80 bd
       -0.13220847 0.041553345 0.06909014 -0.06254142
0000d0 c2 9b bf 3c c1 c8 b3 3d 86 02 23 bd b9 f4 40 bd
       0.0233897 0.08778525 -0.03979733 -0.047108386
0000e0 24 e1 f6 bd ba 6c ac 3c f1 63 08 3d 57 a9 3c 3e
       -0.12054661 0.021047939 0.033298437 0.18423973
0000f0 66 e1 be bd b8 d3 66 3d db 4f ef 3c 1b 05 bd bc
       -0.09320335 0.056354254 0.029212883 -0.023073724
000100 03 db 06 3e 4a 9c 0e be ba 69 39 3d 00 77 18 be
       0.13169484 -0.13926807 0.045266844 -0.14889145
000110 da 25 50 3d f2 fc 9c 3c 0e b2 9c bd c0 2b 93 3d
       0.050817348 0.019163582 -0.07651149 0.07186079
000120 a9 38 3d bd 83 0e 82 bd 35 4a f6 3d 23 9f 3a bd
       -0.046196613 -0.06350424 0.120258726 -0.04556192
000130 e3 9c bb 3a 73 a0 1a 3e 05 41 c3 bc 66 fc 58 be
       0.0014313724 0.15100269 -0.023834715 -0.21190032
000140 a5 d1 a2 3d 5c 08 68 be c6 07 d5 bd d6 79 06 be
       0.07950143 -0.22659439 -0.10401873 -0.13132414
000150 d8 50 10 3e 34 f5 59 bd 8f c9 79 3d 7c 54 4a 3d
       0.1409334 -0.05321236 0.060983237 0.049396977
000160 c7 32 4a 3e 2e d7 65 3d 51 1c 0b be 7c 41 22 be
       0.19745933 0.056113414 -0.1358502 -0.15845293
000170 e8 42 9d 3d ba e4 b7 bd c8 eb 34 be 03 22 f3 bd
       0.07678777 -0.08979173 -0.17668068 -0.118717216
000180 7c 72 75 3e db 57 0f 3d 2f 6c 03 3e 43 00 0a 3e
       0.23969454 0.034995895 0.12834238 0.13476662
000190 81 2d de 3d fa 90 52 3e d3 c7 d0 3d be 10 49 3d
       0.10848523 0.20563117 0.101943634 0.049088232
0001a0 81 31 db bd f8 06 70 bd 20 d1 7a bd c1 a6 09 be
       -0.107028015 -0.058600396 -0.061234593 -0.13442518
0001b0 c7 f5 36 3e 87 e0 a0 bd 5d e3 d0 bd d8 e4 18 3e
       0.17867194 -0.07855325 -0.10199616 0.14931047
0001c0 ef 63 cb bb c2 f6 9b 3d d9 e9 25 3e a9 14 0d bd
       -0.0062069814 0.07615425 0.16202487 -0.03444353
0001d0 b2 8f f4 bd 74 dd 2d be f0 47 34 3d 90 3a 71 3e
       -0.1194147 -0.16979009 0.044013917 0.23557496
0001e0 63 59 b5 3c f1 a0 bc bd 70 f3 a6 3c 8d 85 d6 3d
       0.02213735 -0.09210385 0.020379752 0.104746915
0001f0 63 95 95 bc 63 e3 84 3d 4d 57 ce 3d 37 f9 18 be
       -0.01825971 0.06488683 0.10075245 -0.14938818
000200 06 df 9f 3d 8a 88 29 be 21 a5 55 3c 65 2c 35 3d
       0.0780621 -0.16555992 0.013039858 0.04423179
000210 a8 e4 5d 3d 2f 0f 60 3d c0 bc 7d be 8b 1f 45 3e
       0.05417314 0.05470198 -0.24779034 0.19250314
000220 2d bf 29 3d 0a 49 2b be 9d 05 8e bd e5 04 85 3d
       0.041442085 -0.16727081 -0.069346644 0.06495074
000230 10 33 8a bd 84 f9 88 bd 1c a2 14 3d ab 86 18 be
       -0.06748021 -0.06688216 0.036287412 -0.14895122
000240 27 77 41 be 10 30 ac 3d 40 bb 18 be 62 2f 0a 3d
       -0.1889311 0.08407605 -0.1491518 0.033736594
000250 55 a2 51 bd 67 0d a2 3d 64 a9 65 3c 71 01 ac 3d
       -0.051180203 0.079127125 0.014017437 0.083987124
000260 9d 9c 4b 3c 77 94 b6 3d a8 61 20 3e 22 27 2a be
       0.012427476 0.08915036 0.15662253 -0.1661649
000270 b2 8e 06 bd 8f 3f a1 3d 5b 00 d6 bd 80 59 ca bd
       -0.03285093 0.07873451 -0.104492866 -0.09880352
000280 f3 a0 17 be 3c 12 cc 3d 11 f3 e2 bd 1c 1d 27 3d
       -0.14807491 0.099644154 -0.110815175 0.040799245
000290 cd eb b8 bc 6c 81 17 3e 7e e4 1b be 2f 0d de bd
       -0.022573376 0.14795464 -0.15223882 -0.10842358
0002a0 bb b4 0c 3d 09 63 30 bd 68 63 fd bd 9f de 70 be
       0.034352046 -0.043063197 -0.12372476 -0.23522423
0002b0 a6 6a bc 3d 30 d8 19 3e 53 0d 46 bd 65 3c a0 bd
       0.09200029 0.15023875 -0.04835255 -0.07824019
0002c0 a9 bc 70 bb 17 05 bc 3d a4 c8 cf 3c 59 8c d3 3d
       -0.0036733544 0.09180658 0.025364228 0.103295036
0002d0 72 29 54 3d 39 4d 20 be 79 8b 44 3d 18 f5 22 be
       0.051797338 -0.15654458 0.047984574 -0.15913808
0002e0 a5 18 52 3d c4 ba c1 bd ac bb d7 bd 3f a9 0c 3e
       0.051293034 -0.09459451 -0.105338424 0.13736437
0002f0 63 e1 18 3c 37 55 8a bd ea b4 5b bd 1f f5 26 be
       0.00933108 -0.06754535 -0.05363933 -0.16304444
000300 43 2f 40 be 2c 6f 9d bb c2 21 02 3e 7b 31 25 be
       -0.18768029 -0.0048045125 0.1270819 -0.16132157
000310 6b 1d 1a 3e 9c cc 93 bb 8b fa 0d 3d ae d6 a9 3d
       0.15050285 -0.0045104753 0.034662765 0.082929
000320 51 98 c2 3d 57 e2 e9 bd 5c b0 03 3e ad 7f 71 3c
       0.09501708 -0.11420124 0.12860245 0.014739913
000330 46 ea 05 3e 38 1a 38 3d 0a a8 e1 3d 89 1e e9 bd
       0.1307765 0.04494688 0.11018379 -0.11382777
000340 f3 28 25 be ce d0 a2 bd a4 6b ab bd b1 11 36 3d
       -0.16128902 -0.079499826 -0.0837014 0.044450466
000350 29 82 1f 3e ed d8 36 be 2c de 76 bd d6 1c e6 bc
       0.15576996 -0.17856188 -0.060270473 -0.028089922
000360 4b a3 11 be 08 bd 37 3e 83 91 93 3c 6a c6 87 bd
       -0.14222448 0.17943203 0.018013721 -0.06629641
000370 3e b2 19 be 1a ec 10 3c 93 93 a2 bd 9d 1d d0 3d
       -0.150094 0.0088453535 -0.07938304 0.10161898
000380 f0 8e 1c be 0b 55 9e bc cf 66 08 3e c5 1d 7f 3d
       -0.15288901 -0.019327661 0.13320468 0.06228425
000390 05 ac 9b bd 72 e3 0d be ee 79 19 3e 19 c6 b8 3d
       -0.076011695 -0.13856295 0.14987919 0.09022159
0003a0 ec 9e b7 3d 53 48 2f be 97 ad 08 bd 77 51 dc bc
       0.08965859 -0.17117433 -0.033368673 -0.026894314
0003b0 f6 5c 11 3d c5 28 1e 3e e5 ab 35 3e 7d 13 3c be
       0.035489045 0.1544524 0.17741354 -0.18366809
0003c0 74 d4 af bd 1c 80 3e 3c dc 1e fb bd 9f 1d 11 3e
       -0.08585444 0.011627223 -0.12261745 0.14171456
0003d0 2f 01 0e 3d b6 78 b2 3d d6 df 00 3d f8 ba 08 bd
       0.034669098 0.0871443 0.031463467 -0.033381432
0003e0 f4 51 37 bd 29 37 3c 3d e1 df ca bc 25 35 30 be
       -0.04475589 0.045951042 -0.024764957 -0.17207773
0003f0 f3 4b 5d 3e c7 a2 0f be a5 b1 dd bd 0f 50 ad 3d
       0.21611004 -0.14026938 -0.10824899 0.084625356

lstm.bias_ih_l0_reverse f4 [120]
000000 b3 30 0f be a0 5b 82 bc ae ab 99 3d 9f fd 82 bd
       -0.13983421 -0.01591283 0.075034484 -0.06396031
000010 00 89 ce 3d 80 93 13 be bb 81 e8 3d 2a 1e c6 bd
       0.100847244 -0.14411736 0.11352869 -0.09673722
000020 54 53 19 3e fc 1e df 3d c3 0a 77 bd f1 53 34 3e
       0.14973193 0.10894582 -0.060312998 0.17610146
000030 36 ba 72 3d 12 c7 4b 3c 1b ad ed bd ae 0e da 3d
       0.059259616 0.012437599 -0.11605283 0.10647331
000040 5a 31 58 3d 1c da cb 3a 87 d2 08 be 0a 9e 1b be
       0.05278144 0.0015552673 -0.1336156 -0.15197006
000050 8b f1 cb 3d d2 62 3b 3d 9d d3 fd 3d f6 cf 57 3d
       0.0995818 0.04574854 0.12393878 0.05268856
000060 6f 6e 41 3e c2 03 e3 bd dc f4 04 be 14 73 0d be
       0.18889783 -0.11084701 -0.12984031 -0.1381343
000070 ac 35 37 3d 33 04 91 bc d6 3c 23 be 45 c4 c6 bd
       0.04472892 -0.017702198 -0.15941176 -0.09705404
000080 6f 14 d0 bd ab a6 b5 bd 91 58 d8 bd 6c b0 1f be
       -0.101601474 -0.0886968 -0.10563768 -0.15594643
000090 40 84 2b be f0 59 f9 bd d9 56 16 be 82 55 d5 bd
       -0.16749668 -0.12175357 -0.14681567 -0.104167
0000a0 45 c1 55 bd b6 cf ff 3b cf 92 8e 3d a9 1d 83 3e
       -0.05218627 0.0078067435 0.06961595 0.25608566
0000b0 3d 11 47 3e 9a c2 0b 3e 0b e9 4c 3c 81 5a 31 bd
       0.1944017 0.13648453 0.012506734 -0.043299202
0000c0 80 0e 82 3e 32 62 bd 3d da d7 e8 3d d2 5f 10 3d
       0.25401688 0.09247245 0.113692954 0.03524763
0000d0 63 20 06 bd 40 90 e3 3c ff a8 79 3e 0b 0b 8a 3e
       -0.03274573 0.027778745 0.24380873 0.2696155
0000e0 b9 65 37 3d 33 7e 82 bd 25 69 0b bd 45 4c d9 bd
       0.044774745 -0.06371727 -0.03403582 -0.106102504
0000f0 55 9c 18 3d 9e 7b b7 3d 4f 12 7c 3c fb 9a cc bc
       0.037258465 0.08959125 0.0153852245 -0.024976244
000100 8e 08 85 3d 8f 88 03 3e 82 56 60 bd 0e 56 09 be
       0.06495772 0.12845062 -0.05477 -0.13411734
000110 f6 55 d1 3c da d3 0a 3d 72 8e 1f 3e 90 76 e4 bc
       0.025553685 0.033893444 0.15581682 -0.027888566
000120 5e 24 15 bc 74 6f 32 be 7a 47 be 3c 40 80 52 3d
       -0.009102909 -0.17425328 0.023227442 0.05139184
000130 88 8e d5 bd 05 d2 1f 3e 75 59 1a be 50 76 fb 3c
       -0.10427576 0.1560746 -0.15073188 0.030696064
000140 a4 a6 f8 3c 67 2a 3a bc f3 2a 34 b9 49 e0 41 3e
       0.030352898 -0.011362649 -0.00017182138 0.18933214
000150 82 38 46 3e d9 84 db 3d 80 a3 ed 3d 93 b7 03 3d
       0.19357494 0.10718698 0.11603451 0.032157492
000160 46 0b e3 3d 27 1c b6 3d 0d 20 8e 3d fc a3 37 3e
       0.110861346 0.088920884 0.06939707 0.17933649
000170 9e 52 c7 bc b4 cf d1 3b 6b dc 48 3e 3d 60 97 3b
       -0.024331387 0.006402934 0.19615333 0.004619627
000180 84 f2 d8 3a 61 0d 86 bd 63 41 18 3e 23 40 c6 3d
       0.0016551767 -0.065455206 0.14868693 0.09680202
000190 20 7e ef bd 1f 0a c2 bd a7 b3 47 bd d0 bd b9 bd
       -0.11693978 -0.09474587 -0.048755314 -0.09069407
0001a0 34 f0 04 be 2b 63 ac bd c1 eb 64 3e 9e 02 1a be
       -0.12982255 -0.08417352 0.22355558 -0.15040061
0001b0 7e c2 5d 3d 77 74 bb bd 69 bd 6e 3d 79 48 05 3e
       0.05414056 -0.09153073 0.058286104 0.13015927
0001c0 d2 25 2c 3e 7a 28 84 bd 2b 86 5b bd ed 1c 6e 3e
       0.16811302 -0.06453033 -0.05359475 0.23253222
0001d0 bb a4 af bd 3d bd 7c 3d 15 85 a6 3c e9 3d cd 3c
       -0.08576342 0.06170391 0.02032713 0.025053935

lstm.bias_hh_l0_reverse f4 [120]
000000 65 36 23 be 25 f2 0b be 99 bf 5a 3e 80 e8 29 3e
       -0.15938719 -0.1366659 0.21362151 0.16592598
000010 18 93 19 be 0c 16 13 3e bc 5a 18 3e 99 d9 ad bd
       -0.14997518 0.14363879 0.14878362 -0.08488769
000020 41 6d e3 3d 0f 4e 0f 3e a0 55 b3 3d e0 4a f8 bd
       0.11104823 0.1399462 0.08756566 -0.12123656
000030 15 f2 60 bd b5 13 8d 3d 31 cb 39 be 02 62 0a 3e
       -0.054918367 0.068885244 -0.18143918 0.1351395
000040 56 be 63 be 74 c7 a6 3c 91 9a ee bc 65 b1 0d 3d
       -0.22240576 0.020358779 -0.029126437 0.034593005
000050 b4 3f 27 3e d8 17 46 be d0 bd c3 3b f8 f4 c2 3d
       0.16332895 -0.19345033 0.005973555 0.0951938
000060 5e 1a 1a bc 83 b1 85 3d 62 cd 2c 3d 00 a7 4d be
       -0.0094057005 0.06527998 0.042188056 -0.20083237
000070 ac fe f0 3d aa cf f9 3d 36 bc e1 3d 35 59 d2 3d
       0.11767325 0.12197812 0.110222265 0.10270921
000080 f5 4f 1a bd a0 78 6d bd d9 49 05 be a2 3a 1c be
       -0.03767391 -0.057976365 -0.13016452 -0.15256742
000090 da 59 05 be 09 a2 b7 bd 82 4d cb bd f5 53 df bc
       -0.13022557 -0.08966453 -0.09926893 -0.027261714
0000a0 ef 5c 72 3d 6e 7d 4f 3d 3e 45 72 bc 51 5c 1e 3e
       0.05917066 0.05065673 -0.014787016 0.15464903
0000b0 9c 91 9f bd f2 1b 66 3e 53 2e 4d 3d 89 11 29 3d
       -0.07791445 0.22471598 0.050093006 0.04127649
0000c0 92 c4 71 3e 76 28 95 bd b2 66 1c 3d 07 e7 68 3e
       0.23610142 -0.07283108 0.038183875 0.2274438
0000d0 c2 64 19 3e 7e df 1b 3e 48 5f 9c 3b b8 13 67 3e
       0.14979842 0.15221974 0.0047721006 0.22566116
0000e0 c7 08 ee bd 8e 75 fc bd de c1 84 3b fe 12 32 3e
       -0.11622768 -0.12327109 0.004051431 0.17390057
0000f0 05 f1 a6 bd 3b dc 25 be 7f 8e 07 3d 1b 31 9d 3c
       -0.081514396 -0.16197293 0.03309488 0.019188454
000100 89 6e 58 bd 03 94 0c bd 2f 8f 99 bd 27 c7 00 be
       -0.05283979 -0.034320842 -0.07498013 -0.1257597
000110 2b 1c aa bd 57 c6 2d be b9 a3 ca bd b7 e5 0b be
       -0.08306154 -0.16970192 -0.09894509 -0.13661848
000120 e9 46 db bb 96 23 cd bc a5 93 db 3d aa f3 d7 3d
       -0.0066918028 -0.025041383 0.1072152 0.10544522
000130 61 03 eb bd 8b f8 a1 bd e8 76 74 bd 34 c4 28 be
       -0.11475254 -0.07908734 -0.05968371 -0.16481096
000140 eb 43 db bc cd c8 d1 3d f5 05 22 3e 26 a0 4d 3d
       -0.026765784 0.10243378 0.15822585 0.050201558
000150 cc 5d 2c 3e 87 41 8a bd d7 89 0e bd 0d cf 67 3d
       0.16832656 -0.067507796 -0.034799423 0.056593943
000160 16 85 0a 3e b5 f5 1d bd 3f 72 77 bc ae 44 8a 3d
       0.13527331 -0.038564403 -0.015102922 0.06751381
000170 4f 29 eb bd eb 9b 13 3e a0 7f 8b 3c bc 8c 2a be
       -0.11482488 0.14414947 0.01702863 -0.16655248
000180 cb dd 9c bd 7f fc 58 bd 98 6c a8 bb 32 84 f3 3d
       -0.07659491 -0.052975174 -0.0051398985 0.11890449
000190 63 31 d4 3d d2 74 74 bd 84 95 84 bc 3c 91 7d 3e
       0.10360982 -0.05968172 -0.016184576 0.24762434
0001a0 ff 58 04 be 13 35 4f 3e d0 e4 bd 3d 7b d9 0a 3e
       -0.12924574 0.2023509 0.09272158 0.13559525
0001b0 5a fe c3 3d 61 ee ab 3d 61 db 5d 3e 7f a0 56 3e
       0.09569998 0.083950765 0.21665718 0.20959662
0001c0 3b 8a 22 3e 70 50 26 be c3 55 e3 bb e3 aa 31 3e
       0.15873043 -0.16241622 -0.006937714 0.17350344
0001d0 cb 0a 0b 3e 4f 68 2c bd ed 07 45 bc 44 e9 45 3e
       0.13578336 -0.042091664 -0.012025815 0.19327265

lstm.weight_ih_l1 f4 [120, 60]
000000 3f b5 09 3d 62 40 91 bd 7c ec 0a 3e 76 fb fe 3d
       0.033620115 -0.07092358 0.13566774 0.12450306
000010 2f 27 21 3e 5e 6c c4 3d 12 60 0d 3e 84 f9 b0 bd
       0.15737604 0.09590982 0.13806179 -0.08641341
000020 54 1b 2b 3d 98 29 bd bc 80 c0 58 3e 0e 11 42 3e
       0.04177411 -0.023091123 0.21167183 0.18951818
000030 d3 73 aa bd 18 c4 ee bd 92 b1 98 3d d4 fb 2f 3e
       -0.08322873 -0.11658496 0.07455744 0.17185909
000040 b5 aa 9d 3c cf 17 bf bd 78 35 ad 3d a5 fb 60 bd
       0.019246439 -0.09330713 0.08457464 -0.054927487
000050 f4 2f 97 3d a0 c7 76 bd b0 b9 9b bd d1 67 28 be
       0.07382193 -0.06024897 -0.076037765 -0.16445853
000060 df d2 84 bd a3 03 d5 3d e8 9a 82 bc 06 73 b5 3d
       -0.06485533 0.10401084 -0.015943006 0.088598296
000070 48 7d 11 bd 38 33 0e be ba 92 0b be cf 7c 96 bd
       -0.035519868 -0.13886726 -0.1363019 -0.07348024
000080 90 c2 a7 3d d9 65 1d 3e 3d f8 40 bc 80 97 8c bd
       0.08191407 0.15370883 -0.011777935 -0.06864834
000090 5e fd ee bd 79 01 09 bd f0 e0 c3 3d c3 9c 75 bd
       -0.1166942 -0.03344867 0.09564388 -0.059963953
0000a0 c7 2d ef 3d e7 21 fd 3d d7 17 b9 bc 59 ec 1b bd
       0.11678653 0.12359982 -0.022594376 -0.038067196
0000b0 a3 20 8a bd b7 a0 0c 3e ce 86 43 bd a3 1f 91 bd
       -0.06744506 0.13733183 -0.04773598 -0.07086112
0000c0 b4 75 e8 3d 14 67 fc 3b 94 de 7d bd 89 a0 a2 3d
       0.11350575 0.0077027176 -0.061979845 0.07940776
0000d0 41 1a 52 3d ab de 11 3d 56 69 e3 3d 90 95 c2 3d
       0.05129457 0.035612743 0.111040756 0.09501183
0000e0 b3 0a 0a 3e 6e 77 b8 bb 96 d6 09 3e 62 f7 12 3e
       0.13480644 -0.0056294715 0.13460764 0.14352182
0000f0 23 95 da bd cf ee ba 3d 31 17 09 3e ad a3 95 3d
       -0.10672977 0.091275804 0.13387753 0.07306609
000100 71 66 1a be 60 8e 4b bc 94 30 97 3d f5 fe 03 3e
       -0.15078141 -0.012424082 0.073823124 0.12890227
000110 0e 14 97 3d 82 e1 ad bd 55 f7 c0 bb e8 3e a0 bd
       0.07376872 -0.08490278 -0.0058888593 -0.078244984
000120 6a 7b 57 bd b7 7e 21 bd 96 b9 cb bc bd ba db 3d
       -0.05260793 -0.039427485 -0.024868768 0.10728977
000130 1e d5 79 bd a7 68 86 3c 07 c0 70 bc a5 7b 24 3c
       -0.06099426 0.016407324 -0.01469422 0.010039245
000140 af 35 d7 3d 66 f3 bf bd 17 8b 5e 3c 07 84 29 3e
       0.10508286 -0.093725964 0.013582966 0.1655427
000150 09 28 22 be 66 bb 83 bc 3a ff 8b bd 25 b6 02 3e
       -0.15835585 -0.01608057 -0.0683579 0.12764795
000160 80 e4 2e 3e 72 83 50 bd 59 8a fc 3d 64 b2 2d 3e
       0.17079353 -0.050906606 0.12331075 0.16962582
000170 ac 1d 2b be a9 43 12 3d 58 c0 5a bd 8d 96 42 3c
       -0.16710538 0.035709057 -0.05340609 0.011876714
000180 5d e0 27 3e 7e 6e 5e bd 24 28 45 3d 1e ed 2f 3e
       0.16394182 -0.054304592 0.048133984 0.17180297
000190 be b1 2f 3d 10 cf 6a 3c c2 b9 ed bd 0d 90 3b bd
       0.042894118 0.014331594 -0.11607696 -0.045791674
0001a0 61 e5 c6 bc 7f 2c 31 3c d8 fa 2d 3e f9 db 0c be
       -0.024279298 0.010813831 0.1699022 -0.13755788
0001b0 32 8c ec bd 13 71 21 bd 96 e6 2e be 0d 80 38 bd
       -0.11550178 -0.039414477 -0.17080149 -0.045043994
0001c0 c8 4a 30 bc 47 8d 8c ba 7b 7b d5 3d 82 73 31 3e
       -0.010760017 -0.0010723256 0.10423943 0.17329219
0001d0 32 25 1f be eb 1a 6f bd fb 08 d4 3d a7 17 14 3d
       -0.15541533 -0.05837528 0.103532754 0.03615537
0001e0 b0 ce 10 be 24 aa 04 3c df b0 36 3e 40 b0 51 bd
       -0.14141345 0.008097205 0.17840908 -0.051193476
0001f0 1e c0 cd 3d 33 81 c0 3d 5e 96 1c be 2d f8 b8 3d
       0.10046409 0.09399643 -0.15291736 0.09031711
000200 6f f5 10 3e d9 48 0f 3e d6 ea f4 bd 44 f7 96 bd
       0.14156125 0.13992633 -0.11958854 -0.07371381
000210 07 67 d2 3d 0d a5 0d 3e ba 5e 06 3e f1 1e e9 bd
       0.10273557 0.13832493 0.13122073 -0.11382855
000220 a1 f9 9c bd 15 0a 08 be c4 6d 87 3d f8 4c 9f 3d
       -0.076648004 -0.13285096 0.06612733 0.077783525
000230 d3 41 87 3d f0 78 1d 3e 6e ee da bd b6 c5 a4 bb
       0.06604352 0.15378165 -0.10690008 -0.005028452
000240 d7 8a 0e 3d 77 0f 9e 3d 44 f6 fb 3d f9 1b 45 3b
       0.034800377 0.077177934 0.12302831 0.0030076487
000250 62 e2 29 3d 36 f7 86 bd 72 e0 c0 bc ee 9b 2a 3e
       0.04147566 -0.065901205 -0.023544524 0.16661045
000260 76 7a f7 3d 85 15 38 be 06 7e d1 3d f7 a6 85 bc
       0.120839044 -0.17976959 0.10229115 -0.016314967
000270 8c 2d e6 bb 74 6e fc bd 48 5a 3d 3d 61 c7 03 bd
       -0.0070244726 -0.12325755 0.046228677 -0.032172564
000280 15 e9 02 be 54 5f a9 3c ca d4 ce bc 96 85 83 3d
       -0.12784226 0.020675339 -0.02524795 0.06421964
000290 69 e3 ee bd fe d4 08 3e 6c ae de 3d f1 17 ba 3d
       -0.11664469 0.133625 0.10873112 0.09086598
0002a0 12 59 fe 3d 50 d7 19 3e 21 cd 24 be 7e b7 37 be
       0.124193326 0.15023541 -0.16093875 -0.1794109
0002b0 6e cd 11 be c0 62 ac bd ca 8b 31 be 15 a8 7a 3d
       -0.14238521 -0.084172726 -0.17338482 0.06119545
0002c0 fa 18 ab bd 05 25 b4 3d a4 35 6f 3d 3f 66 8e bd
       -0.08354373 0.087961234 0.058400765 -0.06953096
0002d0 f0 3d 4e bc 57 8c 1f 3e f6 11 99 3d 89 23 35 3e
       -0.012588009 0.15580879 0.07474129 0.17689337
0002e0 29 cd 8a bd ac 2a d4 bd 20 60 0d be be ad f1 3d
       -0.067774124 -0.103597015 -0.138062 0.11800717
0002f0 77 00 46 3e f3 56 e4 bd d8 5a 40 bc ad 9c 79 bd
       0.19336115 -0.11149397 -0.011740409 -0.060940433
000300 82 81 10 3c 5b c2 5e 3d 34 50 48 3e 69 48 98 3d
       0.00881994 0.05438457 0.19561845 0.07435686
000310 73 ca ef 3d 76 c1 49 bc 86 26 d6 3d 48 12 b1 bd
       0.11708536 -0.012314191 0.104565665 -0.08646065
000320 a1 ad 94 bd 65 28 15 be 52 14 11 be 4b 12 40 3e
       -0.072596796 -0.1456619 -0.14167908 0.18756978
000330 12 22 ff 3d a7 25 04 3e b7 67 52 bd 6e 57 97 bd
       0.1245767 0.12904988 -0.05136844 -0.07389723
000340 6c 38 b8 3c 53 9d e1 bc 5b 70 ba bd cf 47 da 3d
       0.022487842 -0.027540838 -0.09103461 0.10658228
000350 5e 5b 4b bd 9d 7a 24 be 47 ab 9c bd 50 a7 25 bd
       -0.04964768 -0.16062398 -0.07649856 -0.040442765
000360 1c 26 12 be d7 66 02 bc af 9b 95 3d 15 6e 32 be
       -0.1427235 -0.007959089 0.07305085 -0.17424805
000370 ac fe 11 3e ad c7 21 3e 1f 41 dc bd f1 18 23 be
       0.14257306 0.15798827 -0.10754608 -0.15927483
000380 35 10 3a be 1c 62 27 3e 4c 3f 36 3e b7 4f 3b be
       -0.18170245 0.1634602 0.17797583 -0.18292128
000390 6f f6 d6 bd 9f 52 8e bd 0a d6 d7 bd b7 de 2b bd
       -0.10496222 -0.069493525 -0.105388716 -0.041960444
0003a0 e7 ca 32 be 67 84 c7 bd 4c af b0 bd 14 66 84 bd
       -0.17460214 -0.097420506 -0.08627185 -0.06464782
0003b0 b7 a5 1f be 35 0d dd bd c8 6f 11 be d5 5d f2 3d
       -0.15590559 -0.10793535 -0.14202797 0.11834303
0003c0 e1 1a 89 bd 4c 69 83 3d 2e 96 2e be eb 52 52 3d
       -0.0669458 0.06416568 -0.17049477 0.051348608
0003d0 9d ae e8 bc 51 7e 14 bb 36 82 90 3d 98 c9 11 3e
       -0.028403575 -0.0022658298 0.07056086 0.14237058
0003e0 b1 9c 88 3d 64 3e f0 bd 47 90 f3 bd 3c 3b b9 bd
       0.066705115 -0.1173065 -0.11892753 -0.09044501
0003f0 fb fa 92 bd 6e 16 74 bd 43 28 d2 bd 50 6f ce 3d
       -0.07176777 -0.059591703 -0.102615856 0.10079825
