model/LSTMY/RAcheckpoint1.pt (torch, 229202 bytes, 31 tensors)

lstm.weight_ih_l0 f4 [120, 15]
0	0x3daa90b3	0.083283804
1	0xbd4aeab2	-0.04954023
2	0xbdf828bb	-0.12117144
3	0xbbbe5ce4	-0.0058094133
4	0xbe143399	-0.14472808
5	0xbd1c0a67	-0.038095858
6	0x3d38b76b	0.045096796
7	0x3cbf1569	0.023325639
8	0x3d75f884	0.060051456
9	0x3e49fcab	0.19725291
10	0x3dcebff2	0.100952044
11	0xbe88f73b	-0.26751122
12	0xbceb174e	-0.028697636
13	0x3e0d9f3f	0.13830279
14	0x3dab3dde	0.083614096
15	0x3c4d7c4b	0.012541841
16	0xbda54906	-0.08070569
17	0x3e4363e0	0.19081068
18	0x3d732bbe	0.059367888
19	0xbddd2615	-0.10798279
20	0xbd3cc4e9	-0.046086226
21	0x3db9f3ae	0.09079681
22	0x3de8e3f9	0.11371607
23	0xbe3e5b67	-0.18589555
24	0xbe161b75	-0.14658912
25	0xbe231d7a	-0.15929213
26	0x3e698538	0.22804725
27	0x3a945071	0.0011315477
28	0x3ded02c5	0.11572794
29	0x3df78e28	0.12087661
30	0xbd95e66c	-0.0731934
31	0x3e47db59	0.19517268
32	0x3de87e6f	0.1135224
33	0x3cb2b47c	0.021814577
34	0xbe0c2692	-0.13686588
35	0x3e03e23e	0.12879273
36	0xbd2add08	-0.041714698
37	0xbc8f2f43	-0.01747859
38	0xbbe37510	-0.006941445
39	0xba983ede	-0.0011615416
40	0xbe05b2f5	-0.13056548
41	0x3e10341a	0.14082375
42	0xbd628151	-0.055299107
43	0xbd9f0b55	-0.07765833
44	0x3e047c78	0.12938106
45	0xbe38f72c	-0.18063039
46	0xbc71edb5	-0.014766146
47	0x3dee51a6	0.11636667
48	0x3dc66248	0.096867144
49	0x3e0a6de4	0.13518482
50	0x3e66543b	0.22493069
51	0xbb9bb4ee	-0.004751793
52	0xbe816312	-0.25270897
53	0xbe261530	-0.1621902
54	0x3e21503a	0.1575326
55	0xbdb2542e	-0.08707462
56	0x3d86c89f	0.06581234
57	0xbd873eab	-0.0660375
58	0xbd4c97e1	-0.04994953
59	0xbe111aca	-0.14170375
60	0xbc746a37	-0.014917902
61	0x3cc830fe	0.024437424
62	0x3e1c2f61	0.15252449
63	0x3d94fb7b	0.072745286
64	0xbc936a12	-0.017994914
65	0xbc6429a0	-0.01392594
66	0xbe24d7cb	-0.16097943
67	0xbcac565b	-0.021037271
68	0x3e368761	0.1782508
69	0xbd2f2340	-0.042758226
70	0xbe72d4df	-0.23714016
71	0xbd9dfa11	-0.07713712
72	0xbcecd614	-0.028910674
73	0xbd974188	-0.07385546
74	0x3d896bf8	0.067100465
75	0xbe2a8dc1	-0.16655637
76	0xbc00937e	-0.007847665
77	0xbcee12df	-0.029061733
78	0xbe6eb866	-0.2331253
79	0xbde92fb7	-0.11386054
80	0xbbec84b7	-0.0072179693
81	0xbb53981e	-0.0032286714
82	0x3dde0f36	0.10842745
83	0x3d8d1849	0.06889398
84	0xbe08c358	-0.13355768
85	0xbd34632a	-0.044039883
86	0xbdb29be5	-0.08721141
87	0xbc9fece7	-0.019522144
88	0x3defc4c9	0.11707456
89	0xbdfa8735	-0.1223282
90	0xbe8232ee	-0.2542948
91	0x3e044917	0.12918507
92	0xbd51b37d	-0.051196564
93	0xbe1e113c	-0.15436262
94	0xbdcdc6ab	-0.100476585
95	0x3e3fe11e	0.18738219
96	0x3d43b6d1	0.04778177
97	0xbdb16857	-0.08662479
98	0xbe6b9e46	-0.23009595
99	0xbdd31846	-0.10307364
100	0xbdfec424	-0.124397546
101	0xbd828cfa	-0.063745454
102	0x3dabaad0	0.08382189
103	0x3d0db3c3	0.034595262
104	0xbe2ce727	-0.16885053
105	0x3d6c527a	0.057695843
106	0xbe472b2a	-0.1945006
107	0xbde4779a	-0.11155625
108	0xbcd7c41d	-0.026338631
109	0x3df75a2c	0.12077746
110	0xbe4372b2	-0.19086722
111	0x3dd18056	0.10229556
112	0x3c563d8e	0.013076199
113	0x3d6f66d8	0.05844769
114	0x3c867686	0.016413938
115	0x3d6c5174	0.057694867
116	0xbc60e5fd	-0.0137267085
117	0x3d042fde	0.032272212
118	0x3e028ae1	0.1274829
119	0xbe0407d8	-0.12893617
120	0x3d32a291	0.043612067
121	0xbd300c36	-0.042980395
122	0x3dbfe81b	0.093704425
123	0x3cf4baeb	0.029874286
124	0xbc42c6c0	-0.011888206
125	0x3ea79c07	0.32736227
126	0x3d33833b	0.043826323
127	0x3c62369e	0.013806967
128	0x3d60feb4	0.054930404
129	0xbd2b7ae2	-0.041865237
130	0xbdd1efaa	-0.102507904
131	0xbe503c6c	-0.20335549
132	0xbd1e2b64	-0.0386156
133	0x3e02d280	0.12775612
134	0x3c894cde	0.016760286
135	0x3d0faccf	0.035076912
136	0x3d20369d	0.039114583
137	0xbe1da652	-0.15395477
138	0xbc97b69d	-0.018519694
139	0x3ca7373f	0.020412086
140	0x3d22cbad	0.03974502
141	0x3e171990	0.14755845
142	0x3d8dac0b	0.0691758
143	0xbe2a64a2	-0.16639951
144	0xbdaf9792	-0.085738316
145	0x3dd14174	0.10217562
146	0x3e2b85d3	0.16750269
147	0x3e727226	0.23676357
148	0xbe3d75f3	-0.18502025
149	0xbdbe0ebc	-0.09280154
150	0x3dce07d4	0.10060087
151	0xbd19d1d0	-0.03755361
152	0x3c2a3f37	0.010391048
153	0x3e50f753	0.20406847
154	0xbd2bed1e	-0.04197418
155	0x3e0699e8	0.13144648
156	0x3e29a59a	0.16567078
157	0x3d8a1fca	0.067443445
158	0xbe025866	-0.12729034
159	0x3b643f01	0.0034827592
160	0xbde0515e	-0.109530196
161	0xbe0f2f68	-0.13982928
162	0xbde2b902	-0.11070444
163	0x3d9b3a4e	0.0757948
164	0xbd80afde	-0.06283544
165	0x3e499e97	0.19689403
166	0xbc02e59d	-0.007989314
167	0x3c6bcbb6	0.01439183
168	0x3d885662	0.06657101
169	0x3e508570	0.20363402
170	0x3de34dd1	0.11098827
171	0x3d13907f	0.036026474
172	0xbd5f9fda	-0.054595806
173	0x3dbc5d3d	0.09197471
174	0xbde0bc4c	-0.10973415
175	0xbe31ef79	-0.17376508
176	0xbcb72d36	-0.022360425
177	0x3e779f1c	0.24181789
178	0xbde9c477	-0.11414426
179	0x3d48e6d5	0.049048264
180	0xbc2e4c10	-0.010638252
181	0x3e4ef8f1	0.20212151
182	0xbcd5d068	-0.026100352
183	0xbd10128e	-0.035173945
184	0xbb2a17ac	-0.002595405
185	0x3e5b9930	0.21445155
186	0xbe174efb	-0.14776222
187	0xbe199fca	-0.15002361
188	0xbde4caac	-0.11171469
189	0x3e14c215	0.14527161
190	0x3cdc756b	0.026911458
191	0xbd2634e3	-0.04057778
192	0x3e1828a4	0.14859253
193	0x3d88650f	0.066599004
194	0x3ba413da	0.0050072493
195	0xbe181f97	-0.148558
196	0x3e001566	0.12508163
197	0xbe0873be	-0.13325402
198	0xbc290569	-0.010316231
199	0x3c88af58	0.016685173
200	0x3b742729	0.0037254787
201	0xbd8e30f9	-0.069429345
202	0xbdcb97eb	-0.099410854
203	0x3e29e04b	0.16589467
204	0x3e424ba8	0.18974173
205	0xbdae3504	-0.08506206
206	0x3c23bbbd	0.009993491
207	0x3e57f9bb	0.21091358
208	0x3e1883fa	0.14894095
209	0x3d83c23f	0.06433534
210	0x3e405b53	0.18784837
211	0x3a0ca711	0.0005365471
212	0xbd2385b1	-0.03992242
213	0xbe5fc09e	-0.21850821
214	0xbda2b0a5	-0.079438485
215	0x3dc1ee57	0.09469288
216	0xbcda7ab6	-0.026669841
217	0x3c6380fa	0.013885731
218	0x3e5f95f8	0.21834552
219	0x3e880eb2	0.26573712
220	0x3db432d4	0.08798757
221	0x3dcf3825	0.101181306
222	0xbd84f804	-0.06492618
223	0x3d79aa1f	0.060953256
224	0x3d4b732c	0.049670383
225	0x3dc7a5dd	0.09748433
226	0xbd0ae88f	-0.03391319
227	0xbdc8b046	-0.097992465
228	0x3e744c63	0.23857264
229	0x3dadaccc	0.08480224
230	0xbbde709b	-0.006788326
231	0x3e0812ab	0.13288371
232	0x3e01dd5f	0.12682103
233	0x3e0b66e8	0.13613474
234	0xbe107352	-0.14106491
235	0x3c4f698e	0.012659444
236	0x3b4a61bf	0.0030881015
237	0xbd47dba0	-0.048793435
238	0xbe42f6ae	-0.19039413
239	0x3d390812	0.045173712
240	0x3cea56f2	0.028605912
241	0x3de72e5c	0.11288139
242	0xbd869b4d	-0.0657259
243	0x3d6da283	0.05801631
244	0xbd1d5b90	-0.0384174
245	0x3d996ddf	0.074916594
246	0xbe0e0d9f	-0.13872384
247	0xbb338d2a	-0.0027397373
248	0xbdbef652	-0.093243256
249	0xbd2d7a66	-0.042353056
250	0xbd75a4c7	-0.059971597
251	0x3e225ec2	0.1585646
252	0xbe241cfe	-0.16026685
253	0xbe018ee0	-0.12652159
254	0xbdc6ee14	-0.097133785
255	0x3d2add09	0.0417147

lstm.weight_hh_l0 f4 [120, 30]
0	0x3df8abd7	0.12142151
1	0xba58d939	-0.0008272115
2	0x3d690476	0.05688902
3	0x3d8caf43	0.06869366
4	0x3c2c10f2	0.010502087
5	0xbe3ae854	-0.18252689
6	0xbe16f2ae	-0.14741012
7	0x3d8482c6	0.064702556
8	0xbbc1d6fc	-0.0059155207
9	0x3e61db2d	0.22056265
10	0x3dbab60d	0.09116755
11	0xbd3e37ca	-0.046439923
12	0x3e31cea2	0.1736398
13	0x3dcd1960	0.100146055
14	0x3d7b5af3	0.061366033
15	0x3cecdbc7	0.028913392
16	0x3dd85bc1	0.10564376
17	0xbe43ff90	-0.19140458
18	0xbe1539cf	-0.14572833
19	0xbddc6d35	-0.10763017
20	0x3d7b0d57	0.06129202
21	0x3e42ec83	0.19035535
22	0x3b123ea3	0.0022315166
23	0x3e6229ca	0.22086254
24	0x3e56d4c6	0.20979604
25	0xbd773cfc	-0.060360894
26	0xbdfc9451	-0.123329766
27	0x3db3c3cb	0.08777579
28	0x3de232de	0.110448584
29	0x3e1b8b04	0.15189749
30	0x3db6284f	0.08894407
31	0x3c9ee617	0.019396825
32	0xbe386ebe	-0.18010995
33	0x3d69a573	0.05704255
34	0xbcb5504e	-0.022133019
35	0xbe83c38b	-0.25735125
36	0xbe3b4865	-0.18289335
37	0x3ddeca59	0.108784385
38	0xbe1cedcd	-0.15325089
39	0xbe32d6c6	-0.17464742
40	0xbaab9bdd	-0.0013092716
41	0xbddec21c	-0.10876867
42	0x3d37431f	0.044741746
43	0x3e241365	0.16023023
44	0xbeaa597a	-0.3327139
45	0xbcc2789d	-0.023739154
46	0xbebbba31	-0.3666549
47	0xbc4f8711	-0.01266648
48	0x3daff973	0.085925005
49	0xbd896041	-0.06707812
50	0xbd04a6f2	-0.032385774
51	0xbda60f33	-0.08108368
52	0x3bc6cbbf	0.006066769
53	0x3d912003	0.07086184
54	0xbbf817a7	-0.007571179
55	0x3dca69a9	0.09883434
56	0xbd9546cd	-0.07288895
57	0xbd8dec5f	-0.0692985
58	0xbe8f5823	-0.2799693
59	0xbcfe0b2a	-0.031011183
60	0xbe036a2d	-0.12833472
61	0xbda6098f	-0.08107292
62	0xbca3ac92	-0.019979749
63	0xbe062df1	-0.13103463
64	0xbdc7b8b3	-0.097520255
65	0x3e23854b	0.15968816
66	0xbd30adac	-0.043134376
67	0xbe44a255	-0.1920255
68	0x3b64a5cc	0.0034888862
69	0x3e4710b8	0.19439971
70	0xbd18a46e	-0.037266187
71	0xbdb810a6	-0.089875504
72	0x3df75689	0.12077052
73	0x3d8c9998	0.06865233
74	0x3d4708a7	0.048592236
75	0xbde32d41	-0.11092616
76	0xbcfb3c4b	-0.030668398
77	0xbd76ada0	-0.060224175
78	0x3ca007f2	0.019535039
79	0x3e049de4	0.12950855
80	0x3c9df5c3	0.019282227
81	0xbde8e719	-0.113722034
82	0xbd352d46	-0.04423263
83	0x3d70a777	0.058753457
84	0x3e469b75	0.1939524
85	0xbdb71521	-0.08939577
86	0xbcc0a18b	-0.02351453
87	0x3e521830	0.2051704
88	0x3c23cadf	0.009997099
89	0x3e10a605	0.14125831
90	0x3d62c1d4	0.05536063
91	0xbdbde5e5	-0.092723645
92	0xbc1d145f	-0.009587376
93	0x3e847c08	0.25875878
94	0x3e2333c5	0.15937717
95	0xbe1c3f0b	-0.15258424
96	0xbd8e7b22	-0.069570795
97	0xbd1f23b7	-0.03885242
98	0xbd738e5c	-0.059461936
99	0xbc7a20a2	-0.015266569
100	0x3d8ba392	0.06818308
101	0xbe6a97aa	-0.22909418
102	0x3d846b56	0.06465785
103	0x3d3cb838	0.046074122
104	0x3cfd6429	0.03093155
105	0xbdcf43c1	-0.10120345
106	0x3d44d72a	0.04805676
107	0xbe8aedaa	-0.27134448
108	0xbd9bd04d	-0.076080896
109	0x3c43ae9d	0.0119434865
110	0xbaeb8054	-0.0017967322
111	0xbd8f8480	-0.07007694
112	0xbde902e3	-0.11377504
113	0x3d0fce1e	0.035108678
114	0xbdccc155	-0.09997813
115	0x39e5d70c	0.00043838506
116	0xbd8a5a2d	-0.06755481
117	0xbc6c5c19	-0.014426255
118	0x3d4e1ede	0.050322406
119	0xbe1202c0	-0.14258862
120	0xbe524c63	-0.20536952
121	0xbcc85bb6	-0.024457794
122	0x3e269068	0.16266024
123	0x3db1e76d	0.08686719
124	0x3d9ab9b0	0.07554948
125	0x3d9b46c1	0.075818546
126	0xbdcdd3b6	-0.10050146
127	0x3d2e0afd	0.042490948
128	0xbe6e1756	-0.2325109
129	0xbe72b6b7	-0.23702513
130	0x3dad42b6	0.0845999
131	0xbd934f31	-0.07192839
132	0x3d3b73f4	0.04576488
133	0xbdcfcff4	-0.10147086
134	0x3e34fcc6	0.1767455
135	0x3dc2f471	0.0951928
136	0xbe893973	-0.26801643
137	0xbe682229	-0.22669281
138	0xbdc55374	-0.09635058
139	0x3d9e45ec	0.0772818
140	0x3dfb9662	0.122845426
141	0xbdd45afc	-0.103689164
142	0x3c95002a	0.018188555
143	0xbc5e813d	-0.0135806175
144	0xbe714feb	-0.23565643
145	0xbda84084	-0.082154304
146	0x3c9eeb5b	0.019399336
147	0xbdb1242a	-0.08649476
148	0xbdd909ed	-0.10597596
149	0x3e291b10	0.1651423
150	0xbda8bc74	-0.082390696
151	0xbd8f25d6	-0.069896385
152	0x3d930a7b	0.07179733
153	0xbe733e2d	-0.23754187
154	0xbd0b0b17	-0.033946123
155	0xbdbcd594	-0.09220424
156	0xbdc2a945	-0.09504942
157	0xbd938468	-0.07202989
158	0xbd568908	-0.052376777
159	0xbe3a18ca	-0.18173519
160	0xbd68797b	-0.056756478
161	0xbd60fce5	-0.05492868
162	0xbd5c19b8	-0.053735465
163	0xbe0fda08	-0.14048016
164	0xbe28a82a	-0.164704
165	0x3e55ff51	0.20898177
166	0x3e018053	0.12646608
167	0xbd4fe1d8	-0.05075249
168	0x3e175de9	0.14781918
169	0xbd0901db	-0.033449035
170	0x3e308e5f	0.1724181
171	0xbcdb864f	-0.026797442
172	0x3e0f4c59	0.13993968
173	0xbe36c32a	-0.17847887
174	0xbe96215a	-0.2932232
175	0xbe2a5a6e	-0.16636059
176	0x3d943e1a	0.072384074
177	0x3e0bdb10	0.13657784
178	0xbe071eb2	-0.13195303
179	0xbe4262a8	-0.18982947
180	0x3c675668	0.014119722
181	0xbd090782	-0.033454426
182	0xbe3c1605	-0.18367775
183	0x3e35c076	0.177492
184	0xbd8c9024	-0.0686343
185	0xbe50a30a	-0.20374694
186	0xbe23562c	-0.1595084
187	0xbda2794e	-0.07933293
188	0xbcd022b5	-0.025407175
189	0xbe3bb32b	-0.18330066
190	0x3d48c436	0.049015246
191	0xbdfdb3c3	-0.123878025
192	0xbe892d3e	-0.2679233
193	0xbdc36faa	-0.095427826
194	0xbb079273	-0.0020686656
195	0xbd4e5f5b	-0.050383907
196	0x3dc7eed7	0.09762352
197	0x3d1f78ab	0.038933437
198	0x3e38405a	0.17993298
199	0xbe179d78	-0.14806163
200	0x3e5918aa	0.21200815
201	0x3df1f608	0.11814505
202	0x3e4f8459	0.2026533
203	0xbdbb26f6	-0.091382906
204	0xbd1f1a80	-0.03884363
205	0xbdfd65ea	-0.12372954
206	0xbdc02f98	-0.09384078
207	0xbceaab1c	-0.028646044
208	0x3cdd106c	0.02698537
209	0xbe656c64	-0.22404629
210	0x3d945621	0.0724299
211	0x3d54a922	0.05191911
212	0x3cf5e69e	0.030017193
213	0x3c355d25	0.011069571
214	0xbe1adf5b	-0.15124266
215	0xbe0d8981	-0.13821985
216	0xbd35fa39	-0.044428084
217	0x3d90afbe	0.0706477
218	0x3dbc65b9	0.091990896
219	0x3e85715a	0.26063043
220	0x3dfaf637	0.12253993
221	0xbd9d9af2	-0.07695569
222	0xbe57884b	-0.21048085
223	0x3d23d36b	0.039996546
224	0x3eb80a54	0.3594538
225	0xbda44db7	-0.080226354
226	0x3e6be952	0.23038223
227	0xbd5f2926	-0.0544826
228	0xbe002c79	-0.12516965
229	0x3d871c67	0.06597214
230	0x3e12cd46	0.14336118
231	0x3d8784fc	0.06617162
232	0xbe75e6ff	-0.240139
233	0xbe30b8ff	-0.1725807
234	0xbd85cb23	-0.06532886
235	0x3d9a2dfa	0.075283006
236	0xbd7e3fea	-0.062072672
237	0x3dacc49a	0.08435936
238	0x3c53bd4d	0.012923551
239	0xbc98df0f	-0.01866105
240	0xbdf71b11	-0.120657094
241	0x3d9d5ef8	0.076841295
242	0xbe949b0d	-0.29024544
243	0x3e02f35f	0.12788151
244	0xbdac9f62	-0.08428837
245	0x3e1d1676	0.153406
246	0x3d89548b	0.067055784
247	0xbb6bad29	-0.0035961366
248	0xbe71a2a7	-0.23597203
249	0xbe68ab15	-0.22721513
250	0xbd25be18	-0.04046449
251	0xbe2ff7b0	-0.17184329
252	0x3dd8bf23	0.105833314
253	0x3debfd86	0.11522965
254	0xbd08e2b4	-0.033419326
255	0x3ccfa928	0.025349215

lstm.bias_ih_l0 f4 [120]
0	0xbe38cdaa	-0.18047205
1	0x3df94df0	0.121730685
2	0xbdfd3174	-0.12362948
3	0x3e13b2e6	0.14423713
4	0xbddc10dd	-0.10745404
5	0xbdc9bdc5	-0.09850649
6	0x3d615477	0.055012193
7	0x3ded495a	0.11586256
8	0xbda3c94e	-0.0799738
9	0xbe2c6c3a	-0.1683816
10	0xbe2f5733	-0.17123108
11	0xbdcc0990	-0.099627614
12	0x3b939f43	0.0045050695
13	0xbe28b5ea	-0.16475645
14	0x3e078341	0.13233663
15	0x3d9c51e6	0.076328084
16	0x3e3087ad	0.17239256
17	0xbcdf3a67	-0.027249528
18	0x3d8f4e82	0.06997396
19	0xbda5633c	-0.08075568
20	0x3cf66978	0.030079588
21	0xbd7f59f1	-0.062341634
22	0x3e2b88ac	0.16751355
23	0xbe4d8751	-0.2007115
24	0xbd4348e0	-0.04767692
25	0xbe41c293	-0.1892188
26	0xbdfc8489	-0.123299666
27	0x3e112c93	0.1417716
28	0xbe0c73b1	-0.13716008
29	0x3dc7a603	0.09748461
30	0x3d9a2d98	0.075282276
31	0x3d87ae37	0.06625026
32	0x3e6cbc16	0.23118624
33	0x3e196929	0.14981522
34	0x3e277825	0.16354425
35	0x3d9d2687	0.07673364
36	0x3e17fb77	0.1484202
37	0x3e75757a	0.23970595
38	0xbdda27ee	-0.10652147
39	0x3d2feea7	0.042952206
40	0x3c86f4f7	0.01647423
41	0x3e9ceb39	0.3064821
42	0xbd52b71b	-0.051444154
43	0x3cd689b8	0.026188716
44	0x3e26e76d	0.1629922
45	0x3d165603	0.03670312
46	0xbd91c642	-0.07117893
47	0x3dc8b9ed	0.098010875
48	0x3e17f0d9	0.1483797
49	0x3e08bee3	0.13354068
50	0x3d1a1f12	0.037627287
51	0x3d9e79cb	0.07738074
52	0x3d800405	0.06250767
53	0x3cb49fb4	0.022048809
54	0xbd0d0169	-0.034425173
55	0x3d524bcd	0.05134182
56	0xbccc8516	-0.024965804
57	0xbc6ba15e	-0.014381735
58	0x3e77a388	0.24183476
59	0x3e2537ec	0.16134614
60	0x3d2f14d4	0.042744473
61	0x3e3515d0	0.17684102
62	0x3da0937d	0.07840631
63	0x3e365f6d	0.1780984
64	0xbaf18160	-0.0018425398
65	0x3da8502e	0.08218418
66	0xbe3c855f	-0.18410252
67	0xbdc52284	-0.09625724
68	0x3e4393cc	0.19099349
69	0xbde85811	-0.11344922
70	0x3e0d718c	0.13812846
71	0x3e5e15e2	0.21688035
72	0x3e29667a	0.16542998
73	0x3dc4de65	0.09612731
74	0xbdcf7801	-0.10130311
75	0x3d56ea89	0.052469764
76	0x3d3777e5	0.044792075
77	0xbe0624d7	-0.13099991
78	0xbe1269cd	-0.14298172
79	0x3dfcbebf	0.123410694
80	0x3cd7b4f5	0.026331404
81	0xbcfe1ed9	-0.031020569
82	0xbda7ef14	-0.081998974
83	0xbd81dbed	-0.06340776
84	0xbcb93573	-0.022608494
85	0xbcd06bde	-0.02544206
86	0x3e42d3d9	0.19026126
87	0x3d70b933	0.05877037
88	0x3d4b43d2	0.049625225
89	0xbe325330	-0.17414546
90	0x3e1f6b59	0.15568294
91	0x3db95513	0.0904943
92	0xbd7b1d62	-0.06130732
93	0x3d916c6c	0.07100758
94	0x3e3d63ba	0.18495074
95	0x3e95b25a	0.29237634
96	0x3d0562a0	0.03256476
97	0x3e8c21a1	0.27369407
98	0xbe002bb4	-0.12516671
99	0x3dffbe5c	0.1248748
100	0xbd7bae3d	-0.061445463
101	0x3da39566	0.0798748
102	0x3d81ba7d	0.06334398
103	0xbc0bc6d2	-0.008531289
104	0xbdab835b	-0.083746634
105	0xbdabea3d	-0.08394287
106	0xbe525693	-0.20540838
107	0x3dc457ca	0.09587057
108	0xbde0fdd2	-0.109859124
109	0x3e508b4b	0.20365636
110	0x3dd189df	0.10231375
111	0xbd4dd121	-0.05024827
112	0x3cf7a847	0.030231608
113	0xbcb9f6c4	-0.022700675
114	0x3c0b681f	0.008508711
115	0xbe0f2832	-0.13980177
116	0x3e5098c1	0.20370771
117	0xbda729db	-0.0816228
118	0x3e1f69d3	0.15567712
119	0x3e59e457	0.21278511

lstm.bias_hh_l0 f4 [120]
0	0x3cdb05db	0.02673619
1	0x3d109c9d	0.035305608
2	0xbe22eb26	-0.15910015
3	0xbcac5912	-0.021038566
4	0xbe05a5d3	-0.13051538
5	0x3e3ed738	0.18636787
6	0x3dfdb75b	0.12388488
7	0x3e309614	0.1724475
8	0x3df2ab25	0.118490495
9	0xbe17ebc2	-0.14836028
10	0xbc8dbf7c	-0.01730322
11	0x3dcb44e3	0.099252485
12	0x3dcbb650	0.09946883
13	0x3d9dfdac	0.077144
14	0xbe306a64	-0.17228085
15	0x3ca47bbe	0.020078536
16	0x3deb6b2c	0.11495051
17	0x3e38c686	0.1804448
18	0xbcbcf791	-0.023067268
19	0x3e11546f	0.14192365
20	0x3d9d4218	0.07678622
21	0xbd1d8d67	-0.03846493
22	0x3d23d975	0.040002305
23	0x3dbd9a92	0.092579976
24	0xbd9a63a7	-0.075385384
25	0xbde78a31	-0.11305655
26	0xbe52b6df	-0.20577572
27	0x3cc70b21	0.024297299
28	0x3cf967ae	0.030444946
29	0x3dbe11f3	0.09280767
30	0x3e63c814	0.22244292
31	0x3bcf7846	0.0063314764
32	0x3e36666d	0.1781251
33	0x3b8fa369	0.0043834937
34	0xbd953782	-0.07285978
35	0x3e265a30	0.16245341
36	0xbd81b565	-0.063334264
37	0x3e923538	0.28556228
38	0x3e18bd66	0.14916
39	0x3e0d846b	0.13820045
40	0xbdf9de39	-0.12200589
41	0x3e37b50e	0.1794016
42	0x3e34b158	0.17645776
43	0x3e6e1ff2	0.23254374
44	0x3e5af9dc	0.21384376
45	0x3db39278	0.08768171
46	0x3cfc4808	0.030796066
47	0x3e580684	0.21096236
48	0xbd95600f	-0.07293712
49	0xbc542bb4	-0.012949873
50	0x3c6949cd	0.014238787
51	0x3c9bb867	0.019008828
52	0xbd906918	-0.07051295
53	0x3dcd3f57	0.10021847
54	0xbd96d418	-0.073646724
55	0x3e6842eb	0.22681777
56	0x3e88f2f2	0.26747853
57	0x3cdc06ec	0.02685877
58	0x3d8c81da	0.06860705
59	0xbd2f57bf	-0.04280829
60	0xbd43441c	-0.047672376
61	0xbdabf29d	-0.08395884
62	0xbdcee7a9	-0.101027794
63	0x3c525038	0.012836508
64	0x3d1349b7	0.03595897
65	0x3de89d28	0.113581
66	0x3ca387e0	0.019962251
67	0x3d646ba6	0.055766724
68	0xbdca51a8	-0.09878856
69	0xbdb8ff31	-0.09033049
70	0xbdcc0c61	-0.099632986
71	0x3e02b0d7	0.12762772
72	0xbd226485	-0.039646644
73	0x3dc7ef43	0.097624324
74	0xbdd96abc	-0.10616061
75	0x3dbc9311	0.09207738
76	0xbe17f98d	-0.1484129
77	0x3ccc1580	0.024912596
78	0x3e309315	0.17243607
79	0xbb22796f	-0.0024791618
80	0x3dbf2bbc	0.093345135
81	0x3db57438	0.088600576
82	0xbe4c809f	-0.1997094
83	0xbe03040b	-0.12794511
84	0xbe511d8f	-0.20421432
85	0xbd3ba5c5	-0.045812387
86	0x3d4b7c7e	0.049679272
87	0x3d87b2e5	0.06625918
88	0xbdf2bbc9	-0.118522234
89	0xbd8e3739	-0.06944127
90	0x3e2725bb	0.16322987
91	0xbdb652fc	-0.08902547
92	0x3d8cafdf	0.06869482
93	0xbd295ae9	-0.041346464
94	0x3de05bbf	0.10954999
95	0x3e2635b2	0.1623142
96	0x3e296d87	0.16545688
97	0x3c03bd18	0.008040689
98	0x3d9e74ae	0.07737099
99	0x3e3e2e5e	0.18572375
100	0x3da0297d	0.07820413
101	0x3dc96534	0.09833756
102	0x3e20a9a6	0.15689716
103	0x3e5bdfc8	0.21472085
104	0x3e47897a	0.19486037
105	0xbdf8e6b2	-0.12153377
106	0x3d849753	0.06474175
107	0xbe0f6bbd	-0.14005943
108	0xbd0e018f	-0.034669455
109	0x3e457942	0.19284537
110	0x3e0ee0e1	0.13952972
111	0xbd82e803	-0.06391909
112	0x3debc95a	0.11513014
113	0x3b68ed0e	0.0035541686
114	0xbd098d99	-0.033582304
115	0x3e303fa1	0.17211773
116	0x3e2539b3	0.16135292
117	0xbbde7f70	-0.006790094
118	0x3cb2e4d0	0.021837622
119	0x3d0a372b	0.03374402

lstm.weight_ih_l0_reverse f4 [120, 15]
0	0x3e36a0a3	0.17834716
1	0x3df70cae	0.12062965
2	0x3dd16036	0.10223429
3	0xbd513196	-0.05107268
4	0x3cb38bc5	0.021917233
5	0xbd6783b5	-0.05652209
6	0xbe2cf5ec	-0.16890687
7	0xbe5a3e0f	-0.21312736
8	0xbd9353fe	-0.071937546
9	0xbbc03b1d	-0.005866422
10	0xbd0ac46b	-0.033878725
11	0x3dcedc21	0.1010058
12	0x3e54f1f5	0.20795424
13	0x3e1c40db	0.15259115
14	0x3d8a3ed8	0.06750268
15	0xbda3bdc7	-0.079951815
16	0xbda2b924	-0.07945469
17	0x3a930cf3	0.0011219069
18	0xbe3d0e9f	-0.18462609
19	0xbdf05047	-0.11734062
20	0x3c586288	0.013207085
21	0xbe03d46c	-0.12874001
22	0x3da6d88c	0.08146772
23	0xbdb4820a	-0.088138655
24	0x3dff2d5c	0.124598235
25	0xbe05ebb0	-0.13078189
26	0x3cc434a2	0.023950879
27	0xbd121e66	-0.03567352
28	0x3e06ebc4	0.13175875
29	0x3e70062b	0.23439853
30	0xbdf3cefb	-0.11904713
31	0xbe1c448e	-0.15260527
32	0x3c0ca7fb	0.008584972
33	0x3d9b27a8	0.07575923
34	0xbe01c320	-0.1267209
35	0x3ddd6e0f	0.10812008
36	0xbb203ea5	-0.0024451402
37	0x3d313778	0.04326579
38	0x3dc4ddd2	0.09612621
39	0xbdc57b2c	-0.09642634
40	0xbd586386	-0.052829288
41	0xbe5847cc	-0.21121138
42	0xbd0cde98	-0.03439197
43	0xbdaa909e	-0.08328365
44	0xbe259bdb	-0.16172735
45	0xbe1b5446	-0.15168867
46	0x3dfe54d6	0.12418525
47	0xbdd18083	-0.1022959
48	0xbe1e636f	-0.15467618
49	0x3e303ff1	0.17211892
50	0x3cdc09c4	0.026860125
51	0x3e4cd8fa	0.20004645
52	0xbe2a5638	-0.16634452
53	0x3c6723d2	0.014107661
54	0x3df8bcee	0.121454105
55	0xbdc6d2d3	-0.0970818
56	0xb9fbe0f9	-0.00048042068
57	0xbd043880	-0.032280445
58	0x3cc44ef8	0.023963436
59	0xbe0e175d	-0.138761
60	0x3cd9a81a	0.026569415
61	0x3e2fa482	0.17152599
62	0xbcc9b59e	-0.024622735
63	0x3e29a11f	0.16565369
64	0xbe198521	-0.14992191
65	0xbd8fd994	-0.070239216
66	0x3e81bdd4	0.2534014
67	0xbc38b52d	-0.011273664
68	0xbdd26efc	-0.10275075
69	0xbe0fc0be	-0.14038369
70	0xbe41968b	-0.18905084
71	0x3e10c169	0.1413628
72	0xbbc2fa34	-0.0059502367
73	0x3c3e908c	0.011631142
74	0xbda8dae6	-0.082448766
75	0xbe211151	-0.15729262
76	0x3c0a76de	0.008451192
77	0x3d40617b	0.046967965
78	0xbd860246	-0.065434024
79	0x3d985e5f	0.07439875
80	0x3da4af7b	0.08041283
81	0x3e47c64a	0.19509235
82	0xbda22840	-0.07917833
83	0x3d12d2bf	0.035845514
84	0xbbb0e572	-0.0053984458
85	0x3db4665c	0.08808586
86	0xbcdf24b3	-0.02723918
87	0xbc0abcce	-0.008467866
88	0xbe014b6b	-0.12626426
89	0xbd36c4ac	-0.044621155
90	0x3d24dc32	0.040249057
91	0x3c807314	0.015679874
92	0x3e06fe55	0.13182957
93	0xbcb048bc	-0.021519057
94	0xbcf79119	-0.030220555
95	0xbe070244	-0.13184458
96	0xbe50f4b1	-0.20405842
97	0x3db112a4	0.086461335
98	0x3d88bd4e	0.06676732
99	0xbc553dff	-0.013015269
100	0xbd0bcf7f	-0.03413343
101	0x3c16cb3e	0.00920373
102	0xbe2bf591	-0.16792895
103	0x3d139bdf	0.036037322
104	0xbdcc680f	-0.09980785
105	0xbe26321a	-0.1623005
106	0xbd72a3d0	-0.059238255
107	0xbe2c6dce	-0.16838762
108	0x3dcda5c6	0.100413844
109	0xbe8344b4	-0.25638354
110	0x3cc565ea	0.024096448
111	0x3dbaa1f3	0.091129206
112	0x3ab06c36	0.0013459984
113	0xbc9c0820	-0.019046843
114	0x3e36d8aa	0.17856088
115	0x3c3d9a0f	0.011572375
116	0xbe62ddd4	-0.22154933
117	0x3dfdc707	0.12391477
118	0xbde18d07	-0.11013227
119	0xbdd9174d	-0.106001474
120	0x3c94c486	0.018160116
121	0xbd9155a2	-0.07096411
122	0xbcdfc6dd	-0.027316505
123	0x3dd49848	0.10380608
124	0xbe357bc6	-0.17722997
125	0xbcecde84	-0.028914697
126	0xbdeb118c	-0.11477956
127	0xbe2abc97	-0.16673504
128	0xbe1170b0	-0.14203143
129	0x3e7a4e26	0.24443874
130	0x3e338bef	0.17533849
131	0xbbee7dcb	-0.0072781793
132	0xbdd1d510	-0.102457166
133	0xbb542be1	-0.0032374787
134	0x3d214b57	0.03937849
135	0x3e73294c	0.23746222
136	0xbdaf286a	-0.0855263
137	0x3e6044cc	0.21901244
138	0x3e60042e	0.21876594
139	0x3dff46dd	0.12464688
140	0x3c028c14	0.007967968
141	0xbdf97557	-0.12180584
142	0x3e0b0dad	0.13579436
143	0x3d0332de	0.032030933
144	0x3cddee8c	0.027091287
145	0x3ddaf288	0.106907904
146	0xbc256687	-0.010095245
147	0xbd8a19cc	-0.067432016
148	0x3d33122c	0.043718502
149	0x3d367b4d	0.044551183
150	0xbc987cd1	-0.018614205
151	0xbe3cf100	-0.18451309
152	0xbe0afcd3	-0.13573007
153	0x3e092640	0.13393497
154	0x3e276e1b	0.16350596
155	0xbc784015	-0.015151997
156	0x3e31ca72	0.17362383
157	0xbe0011bb	-0.12506764
158	0x3e06bc1e	0.13157699
159	0xbd7a1b7f	-0.06106138
160	0xbb7595ac	-0.0037473245
161	0xbe43f377	-0.19135843
162	0xbd8dcc2d	-0.06923709
163	0xbdf5e5aa	-0.120066956
164	0x3e692f3e	0.22771928
165	0xbca659e7	-0.02030654
166	0xbe06844c	-0.13136405
167	0x3df637b8	0.12022346
168	0x3e4b2bf6	0.19840989
169	0xbca71d7e	-0.020399805
170	0xbd8484e2	-0.06470658
171	0xbdf31568	-0.11869317
172	0xbe231f33	-0.1592987
173	0xbdcb9e14	-0.099422604
174	0xbe2bb185	-0.16766937
175	0xbd5d71e7	-0.054063704
176	0xbe0c57ee	-0.13705418
177	0x3d66aa2e	0.05631464
178	0xbe2765f2	-0.16347483
179	0x3e06211e	0.1309857
180	0x3d6ff166	0.058579825
181	0x3e51a1b8	0.20471847
182	0x3e4d8075	0.20068534
183	0xbc7af57c	-0.015317317
184	0xbe2e8781	-0.17043878
185	0xbde4522c	-0.111484855
186	0x3cb518bf	0.022106526
187	0xbd0a76cc	-0.0338047
188	0x3c07013c	0.00824004
189	0x3d9dc4c1	0.077035435
190	0xbdaa25f6	-0.08308022
191	0x3d2ef514	0.042714193
192	0xbe300ba2	-0.17191938
193	0x3e0bf179	0.13666333
194	0xbe0d014c	-0.13770026
195	0xbe32a70c	-0.17446536
196	0xbe537667	-0.20650636
197	0xbe2ed1e4	-0.17072254
198	0xbdc455be	-0.095866665
199	0xbdc754da	-0.09732981
200	0xbdff5b0a	-0.12468536
201	0xbd86d7a8	-0.06584102
202	0x3d087029	0.03331009
203	0xbe3be28d	-0.18348141
204	0xbd35cad8	-0.0443829
205	0x3e135637	0.14388357
206	0x3e4c54ef	0.19954275
207	0x3d8c7c9d	0.068597056
208	0xbce2a4fe	-0.027666565
209	0x3e0fcd21	0.14043094
210	0xbe2069c7	-0.15665351
211	0xbe27f853	-0.16403322
212	0x3d600df8	0.05470082
213	0xbcdb42a7	-0.02676518
214	0xbe34d04d	-0.17657585
215	0x3e450ec8	0.1924392
216	0x3cb66630	0.022265524
217	0x3b2036d1	0.0024446736
218	0xbd60e0d8	-0.054901928
219	0x3e5318a8	0.20614874
220	0xbd261687	-0.040548827
221	0x3e13ebaf	0.14445375
222	0x3d9e550f	0.077310674
223	0x3e4c62f1	0.19959618
224	0xbdae7390	-0.085181355
225	0xbe80f696	-0.2518813
226	0x3deb72dd	0.11496518
227	0x3cfc688b	0.030811569
228	0x3d126d6d	0.035748888
229	0x3deed3d7	0.11661499
230	0x3e833950	0.25629663
231	0x3e238af2	0.15970972
232	0x3d966799	0.073439784
233	0x3d6c8771	0.057746354
234	0x3ca77c8e	0.020445134
235	0xbddbc243	-0.10730412
236	0x3cb9dfc9	0.022689717
237	0x3b812d75	0.0039421865
238	0x3e043ea8	0.12914526
239	0xbdd043e9	-0.10169203
240	0x3dd187bd	0.10230968
241	0x3d9045c0	0.07044554
242	0xbbbd3332	-0.005773925
243	0xbcbc885e	-0.023014244
244	0x3d4ad36b	0.04951803
245	0x3c3583a8	0.011078753
246	0xbdbf9ef2	-0.09356488
247	0x3e857bc6	0.26070994
248	0x3cda6f52	0.02666441
249	0xbe49f71d	-0.19723172
250	0x3ca9d6c8	0.020732298
251	0x3caebbc7	0.021329774
252	0xbdce3e80	-0.10070515
253	0xbb992084	-0.0046730656
254	0x3d510ca6	0.051037453
255	0x3ca2cea7	0.01987393

lstm.weight_hh_l0_reverse f4 [120, 30]
0	0x3d898d86	0.067164466
1	0x3e504ba5	0.20341356
2	0x3def8da2	0.11696936
3	0x3e13f21f	0.1444783
4	0x3dc82789	0.09773166
5	0xbe2c14e4	-0.16804844
6	0x3e63a875	0.2223223
7	0x3e1ac055	0.15112431
8	0xbd7732a3	-0.060351025
9	0xbce2cf84	-0.027686842
10	0xbe5628a8	-0.20913947
11	0x3dafdc68	0.08586961
12	0x3e0fff2a	0.14062181
13	0x3e0a64c3	0.13515
14	0x3d0d2bf9	0.034465764
15	0xbdf0cace	-0.11757432
16	0x3e3745cc	0.17897719
17	0xbe1e77bc	-0.15475363
18	0xbe1f0210	-0.1552813
19	0x3e4c371b	0.19942896
20	0x3d4e0fd4	0.050308064
21	0x3e132236	0.14368519
22	0xbe63b333	-0.22236328
23	0x3e1250cd	0.14288636
24	0x3d8a612c	0.06756815
25	0xbdc12bf1	-0.09432209
26	0xbe95e11c	-0.29273307
27	0x3dc67be0	0.09691596
28	0xbb9da0d4	-0.004810432
29	0xbc2a5adb	-0.010397638
30	0x3e71a83a	0.2359933
31	0x3d45bdb0	0.048276603
32	0x3e1d2c47	0.15348922
33	0x3c7868ec	0.015161734
34	0xbdddc459	-0.10828466
35	0xbc7fe8a2	-0.015619429
36	0xbd412f99	-0.047164533
37	0xbc51f3ca	-0.0128144715
38	0xbe5fc2c3	-0.2185164
39	0xbc84d47d	-0.016214604
40	0x3e56dfee	0.2098386
41	0x3b0df10f	0.0021658575
42	0x3d5ecbef	0.054393705
43	0xbdd4242f	-0.10358464
44	0xbd491436	-0.04909154
45	0x3e34076d	0.17580958
46	0x3cbe3e10	0.023222953
47	0x3e88261d	0.26591578
48	0xbd2a8ab6	-0.04163619
49	0x3d22b37f	0.039721962
50	0xbd2b8ef3	-0.041884374
51	0x3e2c5691	0.16829897
52	0xbe6e5dc4	-0.23277956
53	0x3cf53b44	0.029935487
54	0x3e252605	0.16127785
55	0x3e1cbcd5	0.15306409
56	0xbd3f05a0	-0.046636224
57	0xbcb03a5f	-0.021512209
58	0xbe014258	-0.12622964
59	0xbe2f106f	-0.17096113
60	0x3e343423	0.17598014
61	0x3e44876e	0.19192287
62	0x3d140c68	0.036144644
63	0xbd767876	-0.060173474
64	0x3d289ac8	0.041163236
65	0x3d43d040	0.047806025
66	0xbcc30f29	-0.02381094
67	0x3e4a8800	0.19778442
68	0x3e36202f	0.17785715
69	0xbdbe8cae	-0.09304176
70	0xbd17bd24	-0.037045613
71	0xbce6115f	-0.028084455
72	0xbdfbcf8a	-0.12295444
73	0x3dd718fe	0.10502814
74	0x3df8b11b	0.12143155
75	0x3e3a3fd1	0.18188407
76	0x3e22c021	0.15893604
77	0x3c73e706	0.014886623
78	0xbe38d35b	-0.18049376
79	0xbe1a30d9	-0.15057696
80	0xbdcf493b	-0.101213895
81	0xbe036acc	-0.12833709
82	0xbd365a0b	-0.044519465
83	0x3b5ffdf0	0.0034178458
84	0x3bc001e2	0.0058595994
85	0xbdb643ad	-0.08899627
86	0xbd3dbad2	-0.046320744
87	0xbb13b0c4	-0.002253578
88	0xbc10ddc3	-0.008841935
89	0x3d1508a0	0.03638518
90	0x3e3330eb	0.1749913
91	0x3e200bb1	0.1562946
92	0x3e57d8ce	0.21078798
93	0x3e1baf98	0.15203702
94	0xbe524b6c	-0.20536584
95	0x3d0c3ddf	0.034238692
96	0xbd9f3651	-0.07774032
97	0x3dff25e8	0.12458402
98	0xbd0ccb74	-0.034373716
99	0xbe8ca9a5	-0.27473179
100	0xbcc926bc	-0.024554603
101	0xbea346d2	-0.3188997
102	0xbddcb83b	-0.10777327
103	0xbd96c888	-0.07362467
104	0xbd8e5b8b	-0.06951054
105	0x3baf8c1f	0.00535728
106	0xbd3cd182	-0.04609824
107	0x3d3f6e4e	0.046736054
108	0xbdeaf435	-0.1147236
109	0x3db55503	0.08854105
110	0x3c792438	0.015206389
111	0xbd692286	-0.05691769
112	0x3e2fb86c	0.17160195
113	0x3e921d77	0.28538105
114	0xbe22d3fb	-0.15901177
115	0xbe3eed6f	-0.18645261
116	0x3dde7761	0.108626135
117	0x3d8c4371	0.06848801
118	0x3e86bafb	0.2631453
119	0xbdb8d92f	-0.090257995
120	0x3e61f4cf	0.22066043
121	0x3d49ce58	0.04926905
122	0xbd41f759	-0.04735503
123	0x3e322716	0.17397723
124	0x3e31d652	0.17366913
125	0xbe5559da	-0.20835057
126	0x3d845f81	0.064635284
127	0x3d9bd86a	0.07609637
128	0xbccca926	-0.024983
129	0xbe29c353	-0.16578417
130	0x3d99ec60	0.07515788
131	0xbe2c6159	-0.1683401
132	0xbd739cd0	-0.05947572
133	0xbd89e438	-0.067329824
134	0xbe4781d8	-0.19483125
135	0xbc6d533e	-0.0144851785
136	0xbdd3ebe1	-0.10347725
137	0xbe8502ff	-0.25978848
138	0x3d3ab929	0.04558674
139	0xbd888fd3	-0.06668057
140	0xbd519274	-0.05116506
141	0xbdc4cae2	-0.09609009
142	0xbd9f5ef1	-0.077817805
143	0x3e1679ea	0.14694944
144	0x3e3d63ea	0.18495145
145	0x3e97eb59	0.29671744
146	0x3e121897	0.14267193
147	0x3b977ab5	0.004622782
148	0x3e2c220f	0.16809867
149	0x3dba6f3f	0.0910325
150	0x3d2b68b3	0.041847896
151	0xbd91b43f	-0.07114457
152	0xbdc48823	-0.095962785
153	0xbd96c1ce	-0.07361184
154	0xbe1e600d	-0.15466328
155	0xbc37b263	-0.011211964
156	0xbc965284	-0.018349893
157	0x3caee6b9	0.021350252
158	0x3da7d1b2	0.08194293
159	0xbe0f99af	-0.1402347
160	0x3ade565d	0.0016962994
161	0xbbba828c	-0.005691832
162	0xbdef70b3	-0.116914175
163	0x3c92cbfa	0.01791953
164	0x3dc94984	0.09828475
165	0x3e5b24dc	0.2140078
166	0xbc6245bf	-0.013810574
167	0xbe1bf6ed	-0.15230913
168	0xbdc02857	-0.09382694
169	0xbc824837	-0.015903575
170	0xbddac1b6	-0.10681479
171	0x3ded0de2	0.115749136
172	0xbe56a7ef	-0.20962499
173	0xbe065a89	-0.13120474
174	0xbd80323f	-0.06259584
175	0x3d315ba6	0.043300293
176	0x3dcc23bf	0.099677555
177	0x3e411744	0.18856531
178	0x3d0e4b76	0.034739934
179	0x3d0eea7e	0.034891598
180	0xbdf3bd17	-0.119013004
181	0x3de86243	0.11346867
182	0xbdd09474	-0.10184565
183	0x3cf9443d	0.030428046
184	0x3d02b16b	0.03190748
185	0xbe055de2	-0.13024095
186	0xbe4ec0c7	-0.20190726
187	0x3e078b3a	0.13236704
188	0x3df0200b	0.11724862
189	0xbd5de500	-0.05417347
190	0xbdbee2e0	-0.09320617
191	0xbdfb0e1e	-0.12258552
192	0x3dcac9e9	0.099017926
193	0xbdff2357	-0.124579124
194	0xbe46a8ff	-0.19400404
195	0xbd043f73	-0.032287072
196	0xbd72fcb7	-0.05932304
197	0xbe26074c	-0.16213721
198	0xbe23535f	-0.15949772
199	0x3dd57c9a	0.104241565
200	0x3c803cb2	0.015653942
201	0x3c30dd39	0.010794931
202	0xbe243fdc	-0.16039985
203	0xbcdf7c6f	-0.027281014
204	0xbd96c3b8	-0.07361549
205	0x3c60f4c5	0.013730233
206	0x3bb0c9d0	0.0053951517
207	0x3d95161a	0.07279606
208	0xbe34a9c2	-0.17642882
209	0xbcc6abc9	-0.024251835
210	0x3d8cd124	0.06875828
211	0x3e4e02b1	0.20118214
212	0x3d5e4027	0.0542604
213	0xbe33cd00	-0.1755867
214	0x3d6a7b64	0.05724658
215	0x3d9e484b	0.077286325
216	0x3c0afa49	0.008482524
217	0x3de83f94	0.113402516
218	0x3d102221	0.035188798
219	0x3e8fc681	0.28081134
220	0xbe7a1f14	-0.24425918
221	0x3d6a69b6	0.05722972
222	0x3e30ca7f	0.17264746
223	0xbe2c3b6f	-0.16819547
224	0xbd38e670	-0.045141637
225	0x3d5cbff8	0.053894013
226	0x3e209b19	0.15684165
227	0xbe379342	-0.17927268
228	0x3e17348e	0.14766142
229	0xbcb61f38	-0.022231683
230	0x3e0dc706	0.13845453
231	0x3e241a4b	0.16025655
232	0xbd47333c	-0.048632845
233	0xbdc2a036	-0.09503214
234	0x39c20472	0.00037005875
235	0xbe992d80	-0.29917526
236	0xbe199fc0	-0.15002346
237	0xbd335efb	-0.043791752
238	0x3dd8b94d	0.10582218
239	0xbca44a72	-0.02005503
240	0x3d83bb24	0.064321786
241	0xbddf1c03	-0.10894015
242	0xbe25dd1b	-0.16197626
243	0xbde933d5	-0.11386839
244	0xbd3a2f84	-0.04545547
245	0x3de5936d	0.1120976
246	0x3d9e3641	0.07725192
247	0xbd61f0ac	-0.055161163
248	0x3c950313	0.018189942
249	0xbe07d2bd	-0.13263984
250	0x3c3aa119	0.011390948
251	0xbd889c5d	-0.06670449
252	0x3e06ddf4	0.13170606
253	0x3e163506	0.14668664
254	0xbbd203a2	-0.0064091245
255	0xbdf85881	-0.12126256

lstm.bias_ih_l0_reverse f4 [120]
0	0x3dad986a	0.08476336
1	0xbdcf2f0a	-0.10116394
2	0x3d4d0f75	0.05006357
3	0xbe37a594	-0.17934257
4	0x3e2eb75d	0.17062135
5	0xbe008657	-0.12551247
6	0xbe00c1f9	-0.12573995
7	0xbe278686	-0.1635991
8	0x3b80f882	0.0039358744
9	0xbd275e36	-0.04086133
10	0x3e042a73	0.12906818
11	0x3d9e2b44	0.07723096
12	0xbe60686f	-0.21914838
13	0xbd840b62	-0.064474836
14	0xbdb898cf	-0.09013521
15	0xbe5c8bab	-0.21537654
16	0xbde9e494	-0.11420551
17	0x3cb3f66b	0.021968087
18	0xbe7ee8ce	-0.24893495
19	0x3e5b7805	0.21432503
20	0x3e2cff18	0.16894186
21	0xbd494231	-0.04913539
22	0x3dd18f85	0.10232452
23	0x3d944307	0.07239347
24	0x3bfa5a68	0.007640172
25	0x3dbe3ba1	0.09288717
26	0xbd921100	-0.07132149
27	0x3db1be41	0.08678866
28	0xbe254af8	-0.1614188
29	0x3db30b5c	0.08742401
30	0x3e135277	0.14386927
31	0xbc092d0d	-0.008372557
32	0x3df0bc3c	0.11754653
33	0x3e390459	0.18068065
34	0x3e2353c1	0.15949918
35	0x3d923eb5	0.07140867
36	0xbdb4a4e3	-0.08820512
37	0x3d929945	0.0715814
38	0x3d13b176	0.03605791
39	0x3e8b4f52	0.27208954
40	0x3e41b752	0.18917587
41	0x3e83aab0	0.25716162
42	0x3e1d4952	0.1536
43	0x3d036879	0.032082055
44	0xbe0f99ee	-0.14023563
45	0xbe18528a	-0.14875236
46	0xbe26a8cb	-0.16275327
47	0x3d0976cd	0.033560563
48	0x3e743f4b	0.2385227
49	0xbdcb8aee	-0.09938608
50	0x3e3425b3	0.17592506
51	0xbd35fd28	-0.04443088
52	0xbd997937	-0.07493823
53	0xbc80ebc4	-0.015737422
54	0xbdb1bc01	-0.08678437
55	0xbd67bdf5	-0.05657764
56	0x3e19b421	0.1501012
57	0x3e3d6c64	0.18498379
58	0x3d746ba4	0.059672967
59	0x3e38e2af	0.18055223
60	0x3e50c4d8	0.2038759
61	0xbdc5369d	-0.09629557
62	0xbd973137	-0.07382434
63	0xbe116723	-0.141995
64	0xbd2784cd	-0.040898133
65	0x3dcecec7	0.100980334
66	0xbc97a05f	-0.018509088
67	0x3da5cd77	0.0809583
68	0xbcba28db	-0.02272456
69	0x3e20ddb8	0.15709579
70	0xbcd393d5	-0.025827328
71	0xbe0fcf9a	-0.14044037
72	0xbe1ad2af	-0.15119432
73	0x3ddc2199	0.10748596
74	0xbdaa5a49	-0.08318002
75	0x3d4ba232	0.04971523
76	0x3d0550dd	0.03254782
77	0xbe2fb790	-0.17159867
78	0x3e053c66	0.13011321
79	0xbe184ef4	-0.14873868
80	0x3d3724e9	0.044712935
81	0x3d1a9214	0.037736967
82	0xbd8892c6	-0.0666862
83	0x3df827a3	0.12116935
84	0xbe1020f8	-0.14075077
85	0x3e36c6da	0.17849293
86	0x399d86d8	0.0003004584
87	0xbdf5821a	-0.119877055
88	0xbdabf702	-0.083967224
89	0x3d9f450e	0.07776843
90	0x3da389b5	0.0798525
91	0x3e76b4c3	0.24092393
92	0x3e728203	0.23682408
93	0xbe5b0be9	-0.21391262
94	0xbe0f8b2d	-0.14017935
95	0xbd825c39	-0.06365246
96	0xbe005661	-0.12532951
97	0x3dd7f387	0.10544496
98	0xbba44485	-0.005013051
99	0x3e3943a1	0.18092205
100	0x3e0e0bc3	0.13871674
101	0x3dece269	0.11566622
102	0x3d36c349	0.044619832
103	0x3cfa1442	0.030527238
104	0x3e0e2156	0.13879904
105	0x3d1cab4f	0.03824931
106	0x3e53727b	0.2064914
107	0x3e440bbe	0.19145104
108	0xbd307bba	-0.043086745
109	0x3dfa878c	0.12232885
110	0xbd8513ae	-0.06497894
111	0x3e058c33	0.13041763
112	0xbd78449e	-0.060612313
113	0xbd7565fb	-0.05991171
114	0xbd19c89c	-0.03754483
115	0x3d8eaa3f	0.069660656
116	0xbd6c165d	-0.057638515
117	0x3e195000	0.14971924
118	0x3d405694	0.046957567
119	0xbcaca646	-0.02107538

lstm.bias_hh_l0_reverse f4 [120]
0	0x3da23274	0.079197794
1	0x3d9a002f	0.07519566
2	0xbc05bcca	-0.008162687
3	0xbe2c800b	-0.1684572
4	0x3e36a4f3	0.1783636
5	0x3d2e8f15	0.042616922
6	0x3e1de602	0.15419772
7	0x3d745834	0.05965443
8	0xbe57a5b9	-0.21059312
9	0x3de68459	0.11255712
10	0x3e7b23ae	0.2452533
11	0x3d893986	0.06700425
12	0xbe2c29eb	-0.16812865
13	0xbdae654c	-0.085154146
14	0xbdcc649e	-0.09980129
15	0xbd7a7118	-0.06114301
16	0x3e0233b4	0.12715036
17	0x3d58818e	0.052857928
18	0xbba3ad02	-0.0049949894
19	0x3d193337	0.037402358
20	0xbe146a5e	-0.14493701
21	0xbe11b18b	-0.14227884
22	0x3d93a837	0.07209819
23	0x3dbf971d	0.093549944
24	0xbe52c92c	-0.20584553
25	0x3d944b16	0.07240884
26	0x3bb4c104	0.0055161733
27	0x3dcc23fc	0.09967801
28	0x3db822e2	0.08991028
29	0xbdf72f5d	-0.12069581
30	0x3cb82678	0.02247928
31	0x3deff327	0.117162995
32	0xbe032421	-0.12806751
33	0xbdca2899	-0.09871025
34	0xbc1b0d05	-0.009463553
35	0x3d50f734	0.051017
36	0xbd4432a1	-0.047899846
37	0xbda601b6	-0.08105795
38	0x3e5fcfed	0.21856661
39	0x3e194fbd	0.14971824
40	0x3df39c47	0.11895042
41	0xbcd6f03b	-0.026237598
42	0xbde67526	-0.11252813
43	0x3d9e857c	0.07740304
44	0x3dfc88bb	0.12330767
45	0x3e07dba2	0.13267377
46	0x3e43ecc1	0.19133283
47	0xbc96a081	-0.018387081
48	0xbd08a78d	-0.033362914
49	0xbdc8dd33	-0.098078154
50	0x3d8e3175	0.06943027
51	0x3d9b9393	0.07596507
52	0x3e2b2bc5	0.16715916
53	0x3dadd5ba	0.08488031
54	0xbdf41d6d	-0.11919675
55	0x3dac47ad	0.084121086
56	0xbd689d92	-0.056790896
57	0x3dc8f5ef	0.09812533
58	0xbd9df7b5	-0.07713262
59	0x3e098e54	0.134332
60	0x3e36af30	0.17840266
61	0xbdcde7ab	-0.10053953
62	0xbdaea31e	-0.08527206
63	0xbe151a7a	-0.14560881
64	0x3d202411	0.039096896
65	0xbd83e801	-0.064407356
66	0x3e089c2f	0.1334083
67	0x3d40d779	0.04708049
68	0x3d32ac59	0.043621395
69	0xb89b4620	-7.404038e-05
70	0x3e16d859	0.14730968
71	0x3da20099	0.0791027
72	0xbda01f89	-0.07818515
73	0xbe2e20a3	-0.17004637
74	0x3dd98e1c	0.10622808
75	0x3e6c3544	0.23067194
76	0x3d34ea84	0.044168964
77	0x3d57e81a	0.052711584
78	0xbe4ef09d	-0.20208974
79	0xbd20a8d2	-0.0392235
80	0xbd87997d	-0.066210724
81	0x3dee30c5	0.11630396
82	0xbdf6f809	-0.12059028
83	0xbe507d8c	-0.20360392
84	0xbdae1e93	-0.08501925
85	0x3c363ede	0.011123387
86	0xbdee2ee6	-0.11630039
87	0x3d9ef619	0.07761783
88	0xbe5b0193	-0.2138732
89	0xbd74767a	-0.0596833
90	0x3e2cde4b	0.16881673
91	0x3e0fbb04	0.14036185
92	0x3dac20c7	0.08404689
93	0xbde78833	-0.11305275
94	0xbdf8037e	-0.12110041
95	0x3e4af2d7	0.19819199
96	0x3d82d969	0.06389124
97	0xbe22f878	-0.15915096
98	0xbe1e6b3b	-0.15470593
99	0xbdc450ae	-0.09585701
100	0x3e0a31f2	0.13495615
101	0xbe067f2d	-0.13134451
102	0x3db9e843	0.090775035
103	0x3cba6c39	0.022756683
104	0x3e2306a7	0.15920506
105	0x3d41498a	0.047189273
106	0xbde08178	-0.10962194
107	0x3e212bf9	0.1573943
108	0x3d96db5d	0.07366059
109	0x3d6e1cef	0.058133062
110	0xbdbf7c52	-0.09349884
111	0x3d2e0bb9	0.04249165
112	0x3da0867e	0.07838152
113	0x3e07afab	0.13250606
114	0xbc1c7ea1	-0.009551675
115	0xbd33508a	-0.04377798
116	0xbe2f7c6b	-0.17137305
117	0x3e34c7ee	0.17654392
118	0xbdbd5a76	-0.0924577
119	0x3dd9e252	0.1063887

lstm.weight_ih_l1 f4 [120, 60]
0	0x3d4af201	0.0495472
1	0x3d845bee	0.06462847
2	0x3e439e18	0.19103277
3	0x3beb0174	0.007171804
4	0xbd6315be	-0.055440657
5	0xbd1bcaa4	-0.03803505
6	0x3cad35d5	0.021143833
7	0xbce9a45f	-0.028520761
8	0xbdd267b8	-0.10273689
9	0x3dacc5f5	0.08436195
10	0xbe3370cb	-0.17523496
11	0xbdd2e119	-0.1029684
12	0xbd83d935	-0.06437913
13	0x3e0b0064	0.13574368
14	0x3e3d0b55	0.18461354
15	0x3d676b96	0.056499086
16	0xbd418002	-0.04724122
17	0x3e21aeb6	0.15789303
18	0xbdcc9148	-0.09988648
19	0x3bbd198d	0.005770868
20	0xbd9eedcd	-0.07760201
21	0x3dec7aa6	0.11546831
22	0xbcc6563e	-0.024211045
23	0xbc8f0aa4	-0.017461129
24	0xbe50fa38	-0.20407951
25	0xbe024f9e	-0.12725684
26	0xbd7e7b63	-0.06212939
27	0xbe49a212	-0.19690731
28	0x3dcaa541	0.09894801
29	0x3dd8a685	0.10578636
30	0x3d357f08	0.0443106
31	0xb99154d4	-0.00027719757
32	0xbe0a84c9	-0.13527216
33	0xbe12910e	-0.14313146
34	0xbe334824	-0.17507988
35	0x3dee94d3	0.1164948
36	0x3da126b8	0.07868713
37	0x3dac18c9	0.08403165
38	0x3e0e5870	0.13900924
39	0x3e3f3fed	0.1867673
40	0x3cb77ec8	0.022399321
41	0x3d7b03c8	0.061282903
42	0x3cb7bb2e	0.022428121
43	0xbd66e648	-0.056371957
44	0xbd42de96	-0.047575556
45	0xbdae7580	-0.08518505
46	0xbd26ac7c	-0.040691838
47	0x3d3826fc	0.044959053
48	0x3da040f0	0.07824886
49	0x3db517e3	0.08842447
50	0x3dad71ee	0.08468996
51	0x3bda3ec6	0.006660315
52	0x3e3d033d	0.18458267
53	0x3df22e50	0.1182524
54	0xbe384d53	-0.17998247
55	0xbe44eb3a	-0.19230357
56	0xbdb6e5c4	-0.08930543
57	0xbd8bdd23	-0.06829288
58	0x3cdbace3	0.026815837
59	0x3e62b069	0.22137608
60	0xbdbc8c5a	-0.092064574
61	0xbe0d8b7c	-0.1382274
62	0xbe0bbed9	-0.13647021
63	0xbb7d7edf	-0.0038680357
64	0xbd152df2	-0.03642077
65	0xbd80b205	-0.062839545
66	0x3da7f317	0.082006626
67	0x3d2399ee	0.03994172
68	0xbd14ca30	-0.036325634
69	0x3d4c2cd0	0.049847424
70	0xbe3853b7	-0.18000685
71	0x3dde3a8b	0.1085101
72	0x3da389a7	0.079852395
73	0x3d86f254	0.06589189
74	0xbde89c6c	-0.1135796
75	0x3de51825	0.11186246
76	0x3e01aabf	0.1266279
77	0xbdbacb49	-0.09120805
78	0xbd3c1533	-0.045918655
79	0x3e2d1682	0.16903117
80	0x3da4489f	0.08021664
81	0x3da9ae85	0.0828524
82	0x3e187b9f	0.14890908
83	0x3e39d8e4	0.18149143
84	0xbe1f26b4	-0.15542108
85	0xbd1b228d	-0.037874747
86	0x3dadffcf	0.08496057
87	0xbdc52756	-0.09626643
88	0x3e5d1b80	0.21592522
89	0x3e34f44d	0.17671318
90	0xbd731ce6	-0.05935373
91	0x3e179885	0.14804275
92	0xbe09e5b9	-0.13466538
93	0x39fa1edc	0.00047706708
94	0xbe437e8a	-0.1909124
95	0xbd60e4f7	-0.054905858
96	0x3e20a4cd	0.15687867
97	0xbd2c72e7	-0.042101767
98	0xbe039e0f	-0.12853263
99	0x3db87631	0.09006918
100	0xbdf2d5bb	-0.11857172
101	0x3e0bce32	0.13652876
102	0x3e344c51	0.17607237
103	0x3d5ccc37	0.053905692
104	0xbde87a68	-0.11351472
105	0x3e329397	0.17439114
106	0x3e0c8068	0.13720858
107	0x3e0e0ff1	0.13873269
108	0xbd4895c1	-0.04897094
109	0xbe2116f1	-0.15731408
110	0xbe03fe49	-0.12889971
111	0xbc9c2d4f	-0.019064574
112	0xbe2e1ed0	-0.17003942
113	0x3cb03b21	0.02151257
114	0xbdfa587e	-0.1222391
115	0xbe0664f5	-0.1312445
116	0xbd05da60	-0.03267896
117	0xbe2948c7	-0.16531669
118	0x3e2a92c1	0.16657545
119	0xbdc75367	-0.097327046
120	0xbe06d339	-0.13166513
121	0xbd8918a7	-0.06694155
122	0xbdb3de14	-0.087825924
123	0xbe07cfa8	-0.13262808
124	0x3e08c5ce	0.13356707
125	0xbe2ffd0c	-0.17186373
126	0xbd334bee	-0.043773584
127	0xbe10e4c2	-0.14149764
128	0xbe43ed7e	-0.19133565
129	0x3d9c409d	0.076295115
130	0x3dd9cf42	0.106352344
131	0xbdb350bd	-0.08755634
132	0xbe15af26	-0.14617595
133	0xbdeb35e5	-0.11484889
134	0xbdb24268	-0.08704072
135	0xbd3e4eac	-0.046461746
136	0xbdc23d0f	-0.09484302
137	0xbe2f574a	-0.17123142
138	0x3de4d99e	0.1117432
139	0xbe342afb	-0.17594521
140	0xbd15ced2	-0.036574192
141	0x3d8ae2f1	0.06781567
142	0xbd83ceb9	-0.064359136
143	0x3cb873dc	0.022516184
144	0xbcb712fa	-0.022347916
145	0x3dcbc559	0.099497505
146	0xbe180a07	-0.14847575
147	0x3da8b8c0	0.08238363
148	0x3df5d837	0.1200413
149	0x3d634836	0.055488788
150	0x3d0246d9	0.031805847
151	0x3d429773	0.047507714
152	0x3e191298	0.14948499
153	0xbdcc7998	-0.0998413
154	0xbd1de1c1	-0.038545374
155	0xbe286687	-0.16445361
156	0xbd1dfdab	-0.038571995
157	0x3e1e8267	0.15479432
158	0x3e2d686a	0.16934362
159	0xbc99d66d	-0.018779004
160	0xbe1e205a	-0.15442029
161	0x3cfc73ce	0.030816939
162	0xbcea6912	-0.028614555
163	0xbde356c6	-0.11100535
164	0xbe1485e3	-0.14504199
165	0xbd8c4003	-0.06848147
166	0x3ddcd930	0.10783613
167	0x3d520c8d	0.0512815
168	0xbe48ade6	-0.19597587
169	0x3db0c49a	0.08631249
170	0xbdbd5ee4	-0.092466146
171	0xbd272ad6	-0.040812336
172	0xbd941a12	-0.07231535
173	0xbd36e3f8	-0.044651
174	0xbd5fdc0f	-0.054653224
175	0x3d8cf8ca	0.0688339
176	0x3c5d0ca6	0.013491785
177	0xbe2c235e	-0.16810367
178	0xbd9d1af2	-0.07671155
179	0x3d8928c1	0.06697226
180	0x3db3d1bd	0.08780239
181	0x3dc3fea5	0.09570054
182	0xbd3b76e0	-0.045767665
183	0xbda976f2	-0.0827464
184	0x3e11d1d6	0.14240202
185	0x3d034a0f	0.03205305
186	0x3dc19ca7	0.09453707
187	0x3bc16f88	0.005903188
188	0x3dbdfd17	0.09276789
189	0x3cbd3ed5	0.02310125
190	0x3df946f0	0.121717334
191	0x3e1bfcc3	0.1523314
192	0x3db2bac0	0.08727026
193	0x3d97b4f1	0.07407559
194	0x3c0d3ece	0.008620931
195	0x3dcd9468	0.10038072
196	0xbe1e1967	-0.15439378
197	0xbd42df0e	-0.047576003
198	0x3df1a88b	0.11799725
199	0x3e36176c	0.17782372
200	0xbd6429b1	-0.055703823
201	0x3d2183e2	0.039432414
202	0x3dbb8cc6	0.0915771
203	0x3e2b2aa5	0.16715486
204	0x3d06797a	0.032830693
205	0xbd5de761	-0.05417574
206	0xbe306371	-0.17225434
207	0x3e1cdddd	0.15319009
208	0xbe1df7bd	-0.15426536
209	0xbe1f79bf	-0.15573786
210	0xbda5cb21	-0.080953844
211	0xbd35b5be	-0.044362776
212	0xbdc39fa1	-0.09551931
213	0xbde716bf	-0.11283635
214	0x3c83760f	0.016047506
215	0xbd2fac8f	-0.042889174
216	0xbe644a3d	-0.22293945
217	0x3e2260ec	0.15857285
218	0xbdd98583	-0.106211685
219	0xbdce675e	-0.100783095
220	0x3d565135	0.05232354
221	0x3cba8fdd	0.022773677
222	0x3c98af6a	0.018638331
223	0xbdd7c579	-0.10535712
224	0xbe117bb1	-0.14207341
225	0xbc668e3e	-0.014071999
226	0x3dea136c	0.11429486
227	0xbdc700b1	-0.09716929
228	0xbd3facc3	-0.046795618
229	0x3ce3e0ae	0.027817097
230	0x3e1acfd9	0.1511835
231	0xbd4c48aa	-0.049873985
232	0x3e1b4033	0.15161209
233	0x3d497a0c	0.04918866
234	0x3d93fa44	0.07225469
235	0x3d662c72	0.05619473
236	0x3e1989e1	0.14994003
237	0x3b18c20e	0.0023309025
238	0xbce568b8	-0.028004035
239	0xbdaadbb1	-0.08342684
240	0xbe096ba7	-0.13419972
241	0x3c9aac06	0.018880855
242	0x3d01854b	0.03162126
243	0xbdc7e040	-0.09759569
244	0x3dd9779b	0.10618516
245	0x3c6cf80c	0.014463436
246	0x3da923ab	0.08258756
247	0x3e17c868	0.14822543
248	0x3d61c472	0.055118985
249	0xbccd7c19	-0.025083588
250	0xbe2d8447	-0.16944991
251	0x3e287f01	0.16454698
252	0x3d9c70dd	0.076387145
253	0x3c89b970	0.016812056
254	0x3e0d4e0d	0.13799305
255	0x3d60062c	0.054693386
