model/LSTMY/RAcheckpoint0.pt (torch, 229202 bytes, 31 tensors)

lstm.weight_ih_l0 f4 [120, 15]
00000000: 730e 05be fab7 743d 3564 2b3e 00b0 a73d
00000010: 9109 79bd 54cd b33d d855 b33c 3676 913b
00000020: bc6f 383d e369 643e 3f07 c93d e2a1 403e
00000030: acc9 0f3e 60f0 04be 1cfb 0b3e 6882 923b
00000040: f6e1 ebbd 4c1b aa3d 394d 5cbe 5d07 2bbd
00000050: 639b ac3d 5d56 703c 3d03 323e 9a87 153e
00000060: 4497 05be e215 afbd 9d9d 5bbc 8a90 f53a
00000070: 888d b33c 87b3 033e 91f3 053e 8770 cfbb
00000080: ade1 a83d e439 50bd 4e8a e9bd f1bd 193e
00000090: 263d aa3c cea9 23bd f9bb 903e 326c fa3d
000000a0: 81a3 23be 9cfa fb3d 8318 14bd 2ce5 2d3e
000000b0: 2ecf e43d 2ee3 e53c 5235 7e3d 539a 25bd
000000c0: 4cbc 113e b0bf de3c 4717 65bd 17af 45be
000000d0: c282 54bd b9e7 d93d 14d9 333e 2a6d 90bc
000000e0: 0abb b03d 43f0 a1bd 0f84 dfbd 51e1 70bd
000000f0: 5e64 8ebd 086a 54be 7b0f 7f3d fe3e 663d
00000100: 37d1 753c d5d5 6dbd 3cdf 11be 7224 7b3d
00000110: d7e8 24be 5ae6 e6bd 4943 0a3e 4ceb 313d
00000120: ae12 c6bd 52b8 563c bf37 cbbd 0553 613e
00000130: 74f6 85be 305b 8d3d 0782 e73d 4f5c 6a3e
00000140: f194 06be 0bc8 c93c 7c50 48be 0893 383e
00000150: 5b6f 96bd d10c ec3d da59 87bc 8bab cb3d
00000160: dbcc b4bc 35cb f2bd 89e0 58bd 0c2f 9c3d
00000170: 801b 0d3e 2d00 84be 6610 613e f4b5 9ebd
00000180: 2efd 623d 71ab 4ebb bbdf 003e e0d7 f2bd
00000190: 1218 15be f21d c03d 76e1 ba3c ae52 7fbb
000001a0: add4 a9bd 9289 39be b4d8 673d 64ac 0dbe
000001b0: 783d 2f3b 2cb2 d4bd 2778 453d ccb4 bf3c
000001c0: 0314 74bd 20a1 9e3c fe25 013e 840e 92bd
000001d0: 25dc 08be 1fda 68bd 9350 64bc f799 b7bd
000001e0: d9d2 fd3d fc52 ebbc 094c 173e b04c bcbd
000001f0: d3b0 a13d 551e 8cbd db55 13be 429b 09bd
00000200: a5f8 5cbe 180f af3d ca58 613d bee4 033e
00000210: a923 1c3d 4882 6fbd 3522 3d3e 355c 333d
00000220: be35 e7bd a446 f5bc 1db9 88bd 1f1c 1bbe
00000230: ed99 af3d 01d4 d53d 7f70 cf3d 546e d63d
00000240: ffb0 28bd dc9f ec3b c6f7 0abe f34a b93d
00000250: 604c 9c3d 71c0 553e 39a8 a83d 8906 e53d
00000260: 3fd7 15be 76e4 6bbd c196 1d3e 77c6 013e
00000270: 5f65 3b3d cec4 99bc 04df a5bd d321 13be
00000280: 48ab 563c 4bee 433e 1015 20be 813c 23be
00000290: 51a4 b5bc 08ea af3b ce25 2fbe 4d68 053e
000002a0: d8a9 433d 26d9 8cbd 5c02 23bd 625b 353e
000002b0: 1de5 00be 2bad 4ebe 4010 d43d 2fce f23c
000002c0: 5140 0b3e 232b ae3d b277 e83d c250 86bd
000002d0: aa2f 313e 0ea7 b9ba 32c6 143e 89bf 3a3d
000002e0: 2586 4e3d a916 d73d 0b77 2fbc 4215 c1bd
000002f0: 4c30 26be ddc5 6abd 8ebc 013d de38 3e3d
00000300: 7285 0abe e044 97bd a995 3c3d 8a9f 513e
00000310: 7bb6 053e 4f10 103d 8029 36bb 10c0 59be
00000320: 339a a23d ea97 93bd c6cd 4bbd 048c f3bd
00000330: 8a87 c83c c0bc d83d aa17 66bd 4d44 c43c
00000340: 1ef2 a83d 44eb 43be 465b 1c3e 77b4 433e
00000350: dd30 533d 9e96 b23c 844b d93c 67f7 e13d
00000360: 6f84 ad3c 5c90 123e 33b3 a7bc bcd3 163e
00000370: fb6c 6f3d 32ac c53d 55c6 f0bd c5c7 2c3e
00000380: 68df cdb9 4bd6 203e c54d 15be 278a 613d
00000390: e171 15be 0219 a0bc 50a0 2bbc 6754 e5bd
000003a0: 7e65 e5bd 7eda e7bd 6344 2bbe ca94 31bb
000003b0: 01ac ab3c 832f 2b3e 642d 28be 3e90 5c3c
000003c0: 5a92 29be 52bb cdbd e71d 2d3e baf1 2e3e
000003d0: 2204 1c3e af5a 9dbd ea79 68bd aace a83d
000003e0: 8dc6 c9bd dfc5 debd e31d 86bd bd30 74bd
000003f0: 5346 85bd 2d93 363d f455 b93d da21 09be
-0.12993793 0.059745766 0.16737445 0.08187866 -0.06080014 0.087793976 0.02189152 0.0044391407
0.045028433 0.22306018 0.09815835 0.18811753 0.14041775 -0.12982321 0.1367001 0.004471112
-0.11517708 0.08305988 -0.21513833 -0.04175507 0.08428075 0.014669028 0.17384048 0.14602509
-0.13045985 -0.08549096 -0.013404277 0.0018735093 0.021918073 0.12861453 0.13081194 -0.006330553
0.08246169 -0.05083646 -0.11403333 0.15013863 0.020781111 -0.03995686 0.28268412 0.12227668
-0.1598034 0.12303659 -0.03615619 0.16981953 0.11172329 0.02806243 0.06206257 -0.04043038
0.14231986 0.027191013 -0.055930402 -0.19305073 -0.051882513 0.10639901 0.17563277 -0.017630178
0.08629425 -0.079071544 -0.1091386 -0.05880863 -0.06952737 -0.20743573 0.062270623 0.056212418
0.015003494 -0.058065254 -0.14245313 0.061314054 -0.16104446 -0.11274405 0.1350223 0.043437287
-0.096715316 0.013105469 -0.09922742 0.22004326 -0.2616459 0.06902158 0.113040976 0.22886775
-0.13142754 0.02463152 -0.19561952 0.18024838 -0.07345458 0.11525882 -0.016522337 0.099448286
-0.022070339 -0.11855165 -0.05294851 0.07626161 0.13780022 -0.25781384 0.21978912 -0.077495486
0.055417232 -0.0031535293 0.12585346 -0.11857581 -0.14559963 0.093807116 0.022812586 -0.0038959193
-0.08292518 -0.18118885 0.05660315 -0.13835293 0.002673952 -0.10385546 0.04821029 0.02340164
-0.059589397 0.01936394 0.12612149 -0.07131675 -0.13365228 -0.05684864 -0.013935226 -0.08964913
0.123937316 -0.028726093 0.14775099 -0.091943145 0.07895055 -0.06841723 -0.1438822 -0.03359533
-0.21579225 0.08547801 0.055016316 0.12880227 0.038119946 -0.058473855 0.1847008 0.043789107
-0.112895474 -0.02994091 -0.066759326 -0.15147446 0.08574281 0.10440827 0.10128879 0.10470262
-0.04118442 0.007221205 -0.1357108 0.090474986 0.07631755 0.20874192 0.08235211 0.11182887
-0.14632891 -0.057590924 0.1538954 0.12673365 0.045750972 -0.018770602 -0.080991775 -0.14368372
0.01310236 0.1913387 -0.15633035 -0.15941049 -0.022173079 0.005368475 -0.17104265 0.13028069
0.047769397 -0.06877355 -0.039797172 0.17710641 -0.125874 -0.20183246 0.10354662 0.029639332
0.13598754 0.085043214 0.11350955 -0.06558372 0.17303339 -0.0014164166 0.1452873 0.04559282
0.0504209 0.10502369 -0.010709534 -0.09427883 -0.16229361 -0.057317603 0.03167396 0.04644095
-0.13527468 -0.07386184 0.046041165 0.20471016 0.13057892 0.035171803 -0.0027795732 -0.21264672
0.079395674 -0.0720671 -0.049756788 -0.1189194 0.024478693 0.10582876 -0.05617491 0.02395835
0.08249305 -0.19132715 0.15269193 0.1911181 0.05156027 0.021800335 0.026525266 0.110335164
0.021181313 0.14312881 -0.020471191 0.14729208 0.05845354 0.09651984 -0.11756579 0.16873081
-0.00039267098 0.15706746 -0.14580448 0.055063393 -0.14594223 -0.019543175 -0.010475233 -0.11197739
-0.11200999 -0.11320971 -0.16725306 -0.0027096742 0.020956041 0.16717343 -0.16423565 0.013462124
-0.16559735 -0.10045494 0.16905938 0.17084399 0.15235952 -0.07683312 -0.05675689 0.08242543
-0.09852324 -0.10877585 -0.06548669 -0.059616793 -0.06507554 0.04457395 0.090495974 -0.1339182

lstm.weight_hh_l0 f4 [120, 30]
00000000: d39c cdbd 948c 103e 3345 f83d ce16 babd
00000010: 97d5 11be fd1b 023e 4fd6 37be f631 05be
00000020: 2b5f 323d 4af9 883c 7b8b 773d 5f5f 89bc
00000030: dc74 703c 82d3 8e3c 4a67 83bd 2266 92bc
00000040: 4688 0b3e 01be 2f3e fe6e bb3c efe3 e13d
00000050: d05a 8abc 04c4 953c 8c42 b93d 23f0 f93c
00000060: 3aec 26be e81a 61be 2b8c 90bd ed2a 053e
00000070: 80f8 673e 1f16 0dbc 9ece a73d c963 aa3c
00000080: fafc d3bd a795 15be 5ab7 413c b0f6 763b
00000090: e730 343d 9288 c23d bebd eabd 0613 eb3d
000000a0: 5cd3 90bd 97d0 273e ec46 41be 96a3 81bd
000000b0: eaa4 12bc 9bf3 f7bc 6c7a 163e 65e9 3fbe
000000c0: 209a e93d 25cc d2bd f2fa 88be 0b35 12be
000000d0: f9e3 8a3e b727 bbbd 48b1 8c3d a5cb 75ba
000000e0: 5ff7 9abd f48b cf3d 62ba 1bbc 6601 8dbd
000000f0: 4650 ff3d cedc 6abd 600e 7dbe 2ad9 35be
00000100: d11e 44be 2597 ab3d af1b 12be b998 36be
00000110: d33d e2bd feb9 03be 1f62 35bd 961b 45be
00000120: 6722 3d3e 1c01 e33d 0cc0 cabc 3ebc 433d
00000130: 2c33 2f3d 21e0 413e 4bcb 483c b5d5 a33d
00000140: 09b1 35be 1b03 d03d 57dd 893d 9f0a 78bd
00000150: 71a0 103e 8982 3a3e ad2f b8bd de8a 393c
00000160: 88ae 163d 1b3c fd3d b5ed eebd 1d19 e6bd
00000170: fe80 f5bd ed3c 263e 0c7c 3e3e c2da 03be
00000180: f5f5 f0bc 1ae2 c43d 1ee3 dc3d caf2 2b3e
00000190: f3e4 a8bd 1243 febd 165e 1b3e 775d 4dbe
000001a0: 748e 10bd 041b d3bd 7a80 82bb 710c 62bd
000001b0: be57 9abd 5d66 f6bd b7be ea3d d425 28be
000001c0: bdbc 2b3e 1d45 06be c902 0abe 6121 39bd
000001d0: d226 21be 8bd7 b2bd 709f 5fbe 6588 ca3d
000001e0: 36b9 1fbe 3f7e 12be e971 8d3c 2901 a6bd
000001f0: 337a 873d 3e92 0b3e 1e55 b6bd c8e3 70be
00000200: 89f7 c63c 0b6e 14bc 4a2e 25bc 1bf6 36be
00000210: 2dca cbbd 73a4 133e dd5b c03d c0e5 793d
00000220: fd14 0c3e 6e8b 0cbe cafc 7f3e 829c 0bbc
00000230: b11f 99bd 7d9e 20be ff2d 8e3b 751e 183e
00000240: 8843 e33d 2f1f cfbc 2844 3bbb 86f0 36be
00000250: ac7f 42be 3ec6 d7bd 403d 2c3e b405 3cbe
00000260: a590 303a 2cbf 37bd c65b 453d 9e0d 343e
00000270: 373e 8a3e 3b29 da3d eb7b bf3d 3f61 813d
00000280: c527 4d3d 4288 41be 3c61 b9bd 1270 8b3d
00000290: 4db8 b2bd 462d af3d 7c26 733e 7020 0fbe
000002a0: 8dc6 5fbd 4a25 14be 063e ed3d 6efb 06be
000002b0: c7c2 8abd d17e 493e b7e9 30be 653f dc3d
000002c0: a756 57be 5ef5 ab3e aa2e 003e cb94 e93d
000002d0: a728 51bd 30a3 5f3d 7613 a53d 2b1b 1f3e
000002e0: 50e2 623d 3e76 2c3d 728d 9d3d 67a4 9e3d
000002f0: bb83 88be 37ab 983d fe25 29be 99d7 df3c
00000300: efd4 bd3c 4487 ae3d 30b5 a0bd 9f1c f53c
00000310: 20ec 45bd 8e97 143d 4ecb 073c 56b8 863d
00000320: 78b7 03bd e7a7 5ebe 1c6e 33be f697 dbbd
00000330: 214f 053e a4ec 083e 0bf4 4dbe 0370 7b3d
00000340: d33a a13d 109d 233e 0115 2bbe 4d6f 0d3e
00000350: 03f7 75be 85eb 7e3e 4191 463e a6d7 2a3e
00000360: 2a09 0ebe 84a1 97bd 5ba7 06be 07ea 1b3c
00000370: 01fb 003e b8d2 78be 53b9 073e 9663 033e
00000380: f421 843c 1a3f c23c babd 89bd 1654 49bc
00000390: b43a 0fbe 832b 2b3e a67b a93c fd51 88bd
000003a0: b5ae 863d cbbb 1cbd 0ce6 66be 36fd 18be
000003b0: ba52 843d 818a 3ebd c712 b43c cc77 3cbe
000003c0: 2f66 73bd d042 17be f24a 31be 038a acbd
000003d0: 374d 8bbd 9b82 8abd ac72 543e 0ff0 95be
000003e0: 257f a23d 5ddd 033e 6a9b 99bd 4aca b8bd
000003f0: 43dd 2b3b a279 ecba 5582 d73d 6e7c 813e
-0.100396775 0.14116126 0.12122574 -0.09086381 -0.14241634 0.12705989 -0.17952846 -0.1300734
0.04354779 0.016720433 0.060435753 -0.01676911 0.014676299 0.01743484 -0.06416185 -0.017870966
0.13626203 0.17162324 0.022880074 0.11029803 -0.016889006 0.018281944 0.09045896 0.030510014
-0.16301051 -0.2198292 -0.07057985 0.13004656 0.22653389 -0.008611231 0.08193706 0.020799534
-0.10350986 -0.14607869 0.0118235 0.0037683658 0.04399195 0.09498705 -0.11461972 0.11478238
-0.070715636 0.16388164 -0.18874711 -0.0633003 -0.008950451 -0.030267527 0.14695138 -0.18741377
0.1140635 -0.10292844 -0.26753956 -0.14278047 0.27127054 -0.091384344 0.06869751 -0.00093763537
-0.075667135 0.10134116 -0.009504886 -0.06885032 0.12466483 -0.057339482 -0.24712515 -0.17758623
-0.1915238 0.08378438 -0.14268373 -0.17831697 -0.11046948 -0.12863919 -0.04428303 -0.19248804
0.18470155 0.11084196 -0.024749778 0.047786944 0.04277341 0.18933155 0.0122555 0.07999746
-0.17743315 0.10156842 0.0673167 -0.060557004 0.14123704 0.18213858 -0.089934684 0.011324612
0.03678754 0.1236498 -0.11666433 -0.11235259 -0.11987494 0.16234179 0.18602008 -0.12876418
-0.029414156 0.09613438 0.10785507 0.16791835 -0.082467936 -0.124151364 0.1517261 -0.20055185
-0.035292104 -0.10307887 -0.0039826008 -0.055187646 -0.07536267 -0.12031243 0.11462157 -0.1642068
0.16771217 -0.13112302 -0.13477625 -0.04519785 -0.15737465 -0.08732518 -0.21838164 0.098892964
-0.15597996 -0.14305972 0.01726623 -0.0810569 0.066151045 0.13630006 -0.089029536 -0.23524392
0.024287956 -0.009059439 -0.010081837 -0.1786732 -0.09950671 0.14418201 0.093925215 0.061010122
0.13679881 -0.13725063 0.24998775 -0.008521201 -0.07476748 -0.15685458 0.0043389793 0.14855368
0.11096865 -0.025283424 -0.002857456 -0.1786519 -0.18994015 -0.105358586 0.1682024 -0.1836155
0.0006735421 -0.04486005 0.048183225 0.1758332 0.2700059 0.10652395 0.09349807 0.06317376
0.050086755 -0.18899634 -0.09051749 0.06808485 -0.08726559 0.08553557 0.2374515 -0.13977218
-0.054632712 -0.1446735 0.11584096 -0.1318185 -0.06775432 0.19677283 -0.17276655 0.10754279
-0.21029149 0.33585638 0.12517801 0.11405333 -0.05106416 0.054598987 0.080603525 0.15537708
0.05539161 0.042104952 0.07692994 0.07746201 -0.26663002 0.07454532 -0.16518399 0.027324485
0.023172824 0.085218936 -0.07847059 0.029920874 -0.04832089 0.036277346 0.008288218 0.06578128
-0.03215739 -0.21743737 -0.17522472 -0.107223436 0.13018467 0.13371521 -0.20112626 0.06138612
0.07872548 0.15977883 -0.16707231 0.13811989 -0.24020009 0.24894531 0.19391347 0.16683826
-0.13870683 -0.074038535 -0.13149779 0.009516246 0.1259575 -0.24299133 0.1325429 0.12830958
0.016129471 0.02371173 -0.067256406 -0.012288114 -0.13987237 0.16715817 0.020688843 -0.06656263
0.065762915 -0.03826503 -0.22548693 -0.14940342 0.06461091 -0.046518806 0.02198161 -0.18405074
-0.05942362 -0.1477158 -0.17313746 -0.08424761 -0.06801837 -0.06763192 0.20746869 -0.29284713
0.07934407 0.12877412 -0.07500346 -0.090229586 0.0026224412 -0.001804162 0.10522906 0.25290245

lstm.bias_ih_l0 f4 [120]
00000000: d0ef 62be 82e6 5e3e ebfd 87bd 14d2 1f3e
00000010: 7cdf 70bd ae70 353c 71da 95bd 0358 bfbd
00000020: 7de4 893d 737f babd ab47 a0bd bb15 3e3e
00000030: 421e f4bd 6517 9ebd 32b6 0d3d 0dd2 e23c
00000040: f37b 01be afd9 eebd 89a4 4ebd 0178 ed3c
00000050: c648 033e 9269 3ebe 94ed ed3d 4c34 80bc
00000060: fb1b 453e 6caf e33d 39f1 353e b749 74bd
00000070: 94b1 4dbd 611b 203d 73a7 cc3d ab93 513e
00000080: 04bf d03d 8310 023e 748e 123e 3424 e93c
00000090: bc12 223d 0534 983c 69bc 023e 9989 73bc
000000a0: 9dc0 753e b33e e13d 2642 f7bd 7901 8a3d
000000b0: 2314 933e d2e0 003d 48af 2d3e dfa0 4e3e
000000c0: 69df 833e 573c 8a3e b600 033e b0fe d23d
000000d0: ca79 03bd 7ab7 fe3d f02f 4d3e 3209 c83d
000000e0: 3c24 abbd 2d6c 1b3e 697b fbbd 2e86 013e
000000f0: 7cda d8bd 542d 823d 8c64 0bbe 46b5 453e
00000100: 947c a33c 6b80 603d dc88 03bd 81d4 37be
00000110: 7fc0 afbd f796 cebd 7428 dabd d30a c3bd
00000120: a936 f13c 2551 19bc ac22 2f3e d6e5 cdbc
00000130: 411d 093e fc05 debc 0bce 953d b374 323e
00000140: cc8d 9dbd 1289 66ba 1fa3 ca3d c9a8 3bbe
00000150: fa06 e83d d628 7b3d a874 ddbd d5a4 b93d
00000160: 132f 1abd af29 29be 8cf6 c73d fc4c 0d3e
00000170: 78b3 7e3d 280a 0bbe 168f 213e 9820 9abd
00000180: a018 cdbd e687 513e 08d3 a33c c09f 6a3c
00000190: eaf9 903d a7f2 c93d 5dbc 7b3c a984 433e
000001a0: 9a0c debd a5f5 38bd dfab b7bd 1783 443d
000001b0: 6727 323e 29fd b83d 369b f23d f9c3 dfbd
000001c0: 6880 953c d469 08be d45f fabd 6117 d53d
000001d0: 872d 2f3e b5d4 c03d 827d 52bd 3e83 533e
-0.22161794 0.21767619 -0.06640228 0.15607482 -0.05880688 0.011074228 -0.07317055 -0.09342959
0.06733034 -0.0910634 -0.078261696 0.18562977 -0.11919834 -0.07719306 0.034597583 0.02768805
-0.12644939 -0.116626136 -0.05044988 0.028987886 0.1282073 -0.1859496 0.1161758 -0.015649937
0.19248955 0.111174434 0.177678 -0.059640612 -0.05021818 0.03908861 0.09992876 0.20466487
0.10192683 0.12701611 0.14312154 0.028459646 0.039568648 0.018579492 0.12767185 -0.014864349
0.23999257 0.10998287 -0.12073164 0.06738562 0.287263 0.031464405 0.16961396 0.20178555
0.25756386 0.2699916 0.1279324 0.10302484 -0.03209857 0.12437339 0.20037818 0.09767379
-0.083565205 0.15177985 -0.12279398 0.12648842 -0.105885476 0.06356302 -0.13612574 0.19307432
0.019956864 0.05480997 -0.03211294 -0.17952158 -0.085816376 -0.10087388 -0.10652247 -0.09523549
0.02944501 -0.009357725 0.1710307 -0.025134008 0.13390066 -0.027102463 0.0731469 0.1742733
-0.07693061 -0.0008794229 0.09894394 -0.18326105 0.11329456 0.06131824 -0.10813266 0.09064642
-0.03764255 -0.16519807 0.09763822 0.13798898 0.062182873 -0.13578093 0.15777239 -0.07525748
-0.100144625 0.20461997 0.019998088 0.014320314 0.07078917 0.098607354 0.0153647335 0.19093575
-0.10842247 -0.04515614 -0.08968329 0.04797658 0.17397843 0.090326615 0.118460104 -0.10926051
0.018249705 -0.1332162 -0.12225309 0.1040485 0.17107211 0.09415571 -0.051389225 0.20655534

lstm.bias_hh_l0 f4 [120]
00000000: f6e6 c1bc b35c 833e 7a8e 423d f309 5e3e
00000010: 23a2 2d3d 28e1 ed3d 4d6f ca3d 2bf1 efbd
00000020: 0616 d63d 5c45 173e 3afe 193e 3013 6ebd
00000030: 3def 10bd f979 403e 4545 593e 6f6c 8cbd
00000040: b751 2a3e 0c99 013e 6e17 983d 3da0 093e
00000050: 0a70 0abe fa64 193e c41a 81bd adac 4e3e
00000060: 62a4 df3d 0d64 45bd 1f2c b23d 0d3a 37bd
00000070: 1099 513e 5955 1f3e 3731 8e3e 54f7 de3d
00000080: 5c77 613e 8f55 1dbd f5ee 473e 6d2f 1f3a
00000090: b9ce 203d b329 083e 3534 483e e0cc 12be
000000a0: 35fd e73d d650 663c 5265 02be 766f 01be
000000b0: 02e1 4d3d 1e1b 80bd c2a9 043e 29a2 1a3e
000000c0: fab5 2a3e 9162 a43d 50a5 933d acc6 3d3e
000000d0: b3a9 1fbc 0ccb 9c3d 5d19 4c3e 5e88 86bc
000000e0: de24 02be 0529 193e 6206 583e 8b3d 543e
000000f0: 1d35 6c3d fade 1c3e eb74 423e 5bfa 14be
00000100: 7092 4abd 488f 483d 9711 36be 7b39 72bd
00000110: e2d1 16be 376e 4bbd 8d9c acbd db92 7bbd
00000120: 7017 e53d 8352 7a3c 669d 8b3d 9160 ad3c
00000130: a6f2 243e eb08 a2bc d36f 41be a160 ea3c
00000140: 563e 2abe 6b44 1abe 70a5 09be 7a1a 363d
00000150: 9cbf 27bc 66d1 553d e207 fd3d 2d17 d13d
00000160: 1fd3 e2bd fc92 40be 5c47 d5bd d103 63bd
00000170: 445b 47bd 364d 833d 94e7 30be 376d 303e
00000180: 2d06 a13d 1f60 933e 9613 233e b3f3 073e
00000190: 4576 d4bd 86c6 e43b bcbf 9e3d c418 60bd
000001a0: 522b 3cbc a930 f43d 4f54 9e3d 9951 9b3d
000001b0: 8c11 f5bc df4c 113e 58bb 1d3e 15ee d43d
000001c0: 0fb7 4cbe bb07 563e dd38 8d3d 21bc 5c3d
000001d0: b7b0 78bb e3cb 9bbd f9aa cfbc 12e0 683d
-0.023669701 0.2565666 0.047499157 0.21683483 0.042390954 0.11615211 0.0988451 -0.11715921
0.104534194 0.14772552 0.15038386 -0.058123767 -0.035384405 0.18796529 0.2121783 -0.068566196
0.16632734 0.12656039 0.07426344 0.13440032 -0.13519302 0.14979926 -0.06303933 0.20183058
0.109200254 -0.04819112 0.08699822 -0.044733096 0.20468545 0.15559901 0.27771923 0.10887018
0.22018188 -0.038411673 0.19524749 0.00060724356 0.039259646 0.13297157 0.19551165 -0.14335966
0.11327592 0.014057359 -0.12733963 -0.12640175 0.050263412 -0.06255172 0.12955382 0.15100922
0.16670981 0.080266126 0.07209265 0.18532819 -0.009745049 0.076559156 0.1993155 -0.016422447
-0.12709376 0.14957054 0.21096185 0.20726602 0.05766784 0.15319434 0.18989913 -0.14548628
-0.04945606 0.04896477 -0.17780147 -0.05913685 -0.14728501 -0.049665656 -0.08428297 -0.06141935
0.11186111 0.015278461 0.06817131 0.02116421 0.16108188 -0.019779643 -0.18890314 0.02861053
-0.16625342 -0.15065162 -0.13442016 0.044458844 -0.010238554 0.05220165 0.12355019 0.102094986
-0.110754244 -0.1880607 -0.10414001 -0.05542356 -0.048671022 0.06411211 -0.1727584 0.17229162
0.07862506 0.28784272 0.1592544 0.13276558 -0.103741206 0.0069816737 0.07751414 -0.05471112
-0.011484938 0.11923344 0.07730924 0.07583923 -0.029915594 0.1418948 0.15403497 0.10396973
-0.19991706 0.20901386 0.068956114 0.05389035 -0.0037947127 -0.07607248 -0.02535008 0.056854315

lstm.weight_ih_l0_reverse f4 [120, 15]
00000000: 7f0c eebd 9e5e dfbd bf96 adbd c289 763d
00000010: 2f6c 2a3e be76 51be 117b b1bd 46f4 f43d
00000020: 50dd 583e cdcb 7cbe 634e 1dbd caf7 8e3c
00000030: 2ad0 543e db1c 9cbd f2e0 153e 9f73 45bd
00000040: 2c79 b43c 0f23 8a3e bff5 15be 83c7 39be
00000050: 4dc3 373e 0cbd fbbd 78fe 4dbd 4f6c 0dbe
00000060: 87c8 b33d 1992 2fbd ed2b e73c cb95 c5bb
00000070: a741 153e 173a 25bd f542 e9bb 175b 0cbe
00000080: 10ff 08bd 31df 973d 2c2e d7bd 01b7 ec3d
00000090: 9e18 4abe 55d8 d0bd 565f 883d 0f3b f23c
000000a0: 59ed 7d3c 4a41 86bd e687 043d aeae 13be
000000b0: 2696 c43d aa67 47be 7515 903d 5dfe 2bbe
000000c0: fea4 f23c 98b1 24be 271e 7a3b 048e 32be
000000d0: d243 54bd 0112 fdbd 7d48 0b3e 5f05 193d
000000e0: 4f8e 333e cfdc 573d 1227 803b d0d5 29bd
000000f0: 7b88 413e e95d ea3d 9a8f 02ba dd98 e1bd
00000100: 7828 fc3d be9a 093e 1de5 4cbd 93a2 e73d
00000110: 4f50 073e 5df2 c23d 4b54 a6bd 5b73 553a
00000120: 3142 2bbe c4e2 cd3c a2ec a63c f138 1a3e
00000130: d100 4fbe 900e d3bd 37e6 0b3e 5cb8 27be
00000140: 0869 403d 58a4 da3c e6f4 2a3d 10b8 63bd
00000150: 0331 c93d 7d60 bcbd 6a87 6bbd 950d 4a3d
00000160: 6205 a73d 0227 8abd 8aa7 7a3d f298 0ebd
00000170: 2d45 edbd 7ea8 73bc 8fce 8b3b 3971 c7bd
00000180: bd5d 5b3d 697a 253c fd07 89bb 2f4c b73d
00000190: 5452 b3bd ef19 45bd ab15 3c3d e393 4d3e
000001a0: 68af 073e 2555 4abd a42b 1a3d ac18 25be
000001b0: f72d 2abe d25b 94bc 2845 433e 78b4 723d
000001c0: ddd5 673c fc7e fc3d 7c00 0cbe e17d 273c
000001d0: af5d 0fbb 853e 3fbe 5a89 c9bd 2859 1c3d
000001e0: 8a2b 39be 7d9e 483e c714 0b3e 2eeb 04bd
000001f0: 4666 adbd 3bc3 1d3c 97b0 a43c 530d 96bd
00000200: 2514 98bd 79e0 46bd 5225 a8bb 2d81 413c
00000210: 06de 36be 627c 2f3e 0828 293e 4fb2 863d
00000220: 6938 0f3e e404 133e 012f 2b3e 0065 d9bc
00000230: dac7 293d d683 bc3d 81ea 313e f18c d9bd
00000240: 445d 86bd 9499 2c3d d390 083d 3def a93d
00000250: d829 133e a7b9 d1bc 1408 98bd 216e 973d
00000260: f9fd 4e3e 8497 dabd 41e6 44be ce50 313a
00000270: ffe0 19bd 056c f2bd 4fd4 083e 778d 1c3d
00000280: 3c5f 953d 36b3 173e bb94 803c 2e74 853d
00000290: 88a1 f7bc bb1b 233e 25f4 3cbc 5ccd 1f3e
000002a0: d6df b43d b614 003e c68c 38be 137d cebd
000002b0: b016 5d3c 6cfd 80bd 7255 c4bd 011b 203e
000002c0: d434 3b3e f130 10be bb3a d1bd c8bf bebd
000002d0: aea7 613e a580 13bd edbc a4bd 03a1 c73d
000002e0: 1dc2 c43d 3e79 80bd 3e7e 903d c120 f3bc
000002f0: 02d1 fd3d e6bb afbd 604f d6bc 07b5 cdbd
00000300: fad7 bd3d b0e0 963c c370 2b3e 3270 eabd
00000310: 245f 4b3d d1de d9bd 240d 833d d7cd 8d3d
00000320: e9a5 c73c 8e6f b1bd 856d 14be a6dd 21ba
00000330: 2dd9 43bb 23f4 183d dac7 283d 0291 c63d
00000340: 21db efbd a403 b33d a30b ba3d 50f9 fc3d
00000350: 2ee7 90bb fff6 2ebc e034 00be f0ba 253e
00000360: 6011 8fbd 57f9 9a3d a57a a3bd ee4e 18be
00000370: 3344 64be 4a2a 95bc 7709 f8bd e7f8 ec3d
00000380: 2005 1c3e a880 72bd 11fe 8c3d 3e4d 0fbe
00000390: 5386 963d 0918 513e 0107 b43d 6a18 953d
000003a0: 37bf fc3d 4044 393e 2fec 89bd 3071 ae3d
000003b0: 8f74 693d d136 f1bc 1735 66bd 1373 6cbd
000003c0: d8d8 013e cd12 3ebe 0337 8a3d cf1c f33d
000003d0: 6f2c 0c3e 3466 f2bd e673 15bd 7b4d 8fbc
000003e0: 6fd0 323e ef3d 383e d6ab bf3d 8302 673d
000003f0: 8545 df3c 82e6 403c 6bca 8cbe baeb ad3d
-0.11623477 -0.10906719 -0.08476018 0.06018997 0.16642831 -0.20455453 -0.08666051 0.11960654
0.21178174 -0.24687119 -0.038404834 0.01745214 0.20782533 -0.07622691 0.14636591 -0.048205968
0.022030436 0.26979873 -0.14644526 -0.18142514 0.17945595 -0.12291917 -0.05029151 -0.13810848
0.08778482 -0.04286394 0.028219188 -0.0060298196 0.14575826 -0.040338602 -0.0071185776 -0.13706623
-0.03344637 0.07415617 -0.105068535 0.11558343 -0.19735953 -0.10197512 0.06658809 0.029569177
0.015498483 -0.06555422 0.032356165 -0.14422104 0.09598951 -0.19473138 0.070353426 -0.1679625
0.02961969 -0.16083372 0.0038164945 -0.17436987 -0.05182249 -0.123569496 0.13601871 0.037358638
0.17534755 0.052700814 0.0039109075 -0.041463673 0.1889972 0.11443693 -0.0004980505 -0.110154845
0.12312406 0.13437936 -0.050023187 0.113103054 0.13214229 0.095188834 -0.08121546 0.00081424945
-0.16724469 0.025132544 0.020376507 0.15060784 -0.20215155 -0.10305512 0.13662039 -0.16378921
0.046975166 0.026689693 0.04173746 -0.055595458 0.09823801 -0.09198091 -0.057502188 0.04932936
0.081553236 -0.067457214 0.061194934 -0.03481383 -0.1158546 -0.014871715 0.004266567 -0.097383924
0.053556193 0.010099986 -0.0041818605 0.08950078 -0.08755937 -0.048120435 0.0459191 0.20075946
0.13250506 -0.049397606 0.037639275 -0.16122693 -0.16619097 -0.01811019 0.1906935 0.05925414
0.01415011 0.12328908 -0.1367206 0.010222883 -0.0021875908 -0.18676193 -0.09840651 0.038170964
-0.18083015 0.19591708 0.13582145 -0.032450847 -0.08466773 0.009629066 0.020103736 -0.0732676
-0.07425717 -0.048553918 -0.005131402 0.011810583 -0.17858133 0.17137292 0.16519177 0.065769784
0.13986363 0.14357334 0.1671715 -0.026537418 0.04145036 0.09204833 0.17374612 -0.106225856
-0.06560758 0.04213865 0.03334124 0.08297584 0.14371431 -0.025601221 -0.07423416 0.07394052
0.2021407 -0.106734306 -0.1922846 0.0006764055 -0.03756809 -0.11837009 0.1336224 0.03822085
0.07293555 0.14814457 0.01569592 0.065163 -0.030228391 0.15928547 -0.011532818 0.15605682
0.08831756 0.125079 -0.18022451 -0.1008245 0.013494179 -0.062983364 -0.0958661 0.15635301
0.18281871 -0.1408117 -0.1021628 -0.09313923 0.22036621 -0.036011357 -0.08043847 0.097475074
0.09607337 -0.06273125 0.07055329 -0.029678704 0.12393381 -0.08580761 -0.026160896 -0.10044294
0.0926971 0.018417686 0.16742234 -0.11447181 0.04965128 -0.10638202 0.06398991 0.069240265
0.024371104 -0.086638555 -0.14494903 -0.0006174691 -0.0029884086 0.037342202 0.04120622 0.09695627
-0.117117174 0.08740929 0.09084251 0.1235224 -0.00442209 -0.010679006 -0.1252017 0.16184592
-0.06985736 0.07567089 -0.07982377 -0.1487386 -0.22291641 -0.018208642 -0.1211118 0.11570912
0.1523633 -0.059204727 0.06884397 -0.1399431 0.07349839 0.20419325 0.087903984 0.07280047
0.12341159 0.18092442 -0.067345016 0.085176826 0.056995925 -0.029445084 -0.056202974 -0.05772693
0.12680376 -0.1856186 0.06748774 0.11870729 0.13688825 -0.118359 -0.036487482 -0.017493
0.17462324 0.17992376 0.09358947 0.05639888 0.02725483 0.011773707 -0.27498183 0.08492227

lstm.weight_hh_l0_reverse f4 [120, 30]
00000000: cf72 bebd 775d a1ba abbd 1c3c 0853 f23c
00000010: 4046 c03c a7d9 a13c b936 56be dd12 813e
00000020: d69a 8ebe cc58 bfbd b1f3 a93a cc0e b23c
00000030: 02fc 913d 6588 2bbe 75d4 18be ab12 1e3d
00000040: a2ae 01be 915f bd3d 3950 f3bd 0a10 df3d
00000050: 7f09 1cbd b5d8 f2b9 9b77 033e 00c9 8e3e
00000060: 6719 64be d6a6 103e 1dde 893d 4816 56bd
00000070: 0f6a 39be 9f5e debd 811f 37be 10b4 14be
00000080: 9ffd 21be c450 dd3c 5333 903c ac01 e3bd
00000090: c5ba 143e 4c8b d6bd 9f62 a0bd 7668 323d
000000a0: d560 7fbd d41a 39be f1e6 febd 2fd7 5cbd
000000b0: d019 a8bd 08b5 23be ba43 49bd 5bac 063e
000000c0: b612 f7bc 0eca 80bd b37d 2ebd ed95 d83d
000000d0: 14d5 6e3d c350 17be 20d6 8c3e f050 773d
000000e0: 7fe1 bdbd 7134 5bbe 7684 4a3e 13d1 e6bd
000000f0: 604f 08be ee99 ddbd 4389 90bd 3429 00be
00000100: 6bcd 963c 9708 063e f71d c2bd 26d0 b03d
00000110: 3df8 3c3e 57ad 65be e544 78bd 8fe1 86be
00000120: 3b6b c0bd 84c4 06bd c16e 07bd 079d b63c
00000130: 9178 febc dba6 553d 7462 bf3d 4cae 17be
00000140: 817a 4dbe bcdc f0bd a160 363e a771 253c
00000150: 9984 1e3e c2f9 b2bc 2902 35bd a145 7a3d
00000160: 4818 e3bd 4005 c73d edf1 973d b6b5 1bbe
00000170: 66e0 473d b681 37be ea90 413e 7a6d 10be
00000180: 34b4 86bc dd4f 0dbd d459 7ebe 9ecb d23c
00000190: 6f35 b7bd 51ff 713e f7ac a6bb 43f9 613d
000001a0: 94ed 963d 8a59 70bd cad3 62bd 807f 013e
000001b0: d590 2a3e 1ecd 223d 2174 14be 59ff 943c
000001c0: 2b2b 273c 5a12 2abe 47f2 b5bd 12b4 1f3d
000001d0: e040 a13d 0e19 643d c614 763c 85e5 f2bd
000001e0: 080c 1ebe df78 663e b1e2 21be a1f7 3fbc
000001f0: cced 833c 019e 11bd a684 653c abc6 e83c
00000200: 28aa 11be bdcc d13d 6b27 0d3e 10f4 1f3e
00000210: 1484 143e ac38 333e 27db 1d3e 1f32 993d
00000220: 3dae 16bd 9768 30be bb3a 603c 9eb5 043d
00000230: 5030 8f3d a7dd 073d 8d88 17be e8d5 f63d
00000240: 6fdc 173d cc86 4d3e e820 31bd 261d 333c
00000250: 3a6b 383e 890e 6abc a528 833d 0e4f 1d3e
00000260: 726c 4dbd 9a97 8ebd d8b2 32be f94a 54bc
00000270: 3c1a ffbd 73a6 0ebe 5a4c 373c 4a3c 393e
00000280: ca0f 9f3d f126 913d 4c64 c63d fe6c b1bd
00000290: f773 1a3e bbb1 d4bd 1161 1a3c cc62 5cbe
000002a0: 49fd fabd 10e9 20be 8764 c3bd c7c2 80bc
000002b0: 9a65 0bbd 40d7 303e e7b6 7d3d 76e3 413e
000002c0: 6007 39be 64cf c2bd 8379 403d cad3 70bc
000002d0: ca8c a83c a80d 11be 89a9 1abe 1feb 033e
000002e0: 93fc 50bc 5e35 cb3d 8876 3b3e 20fb c8bd
000002f0: 3995 99bd f355 e5bd ac56 513c 1d7d 3a3e
00000300: 1333 d0bd 7405 d23c 7312 bcbd a6ee 84bd
00000310: 1b00 8cbd 34e9 e9bd 25cf eabd d053 e03d
00000320: 8e4a 403e a841 1d3e 3306 1cbe bb89 273e
00000330: 6c36 a53b 491b c23a ddf7 27be 20f6 aebd
00000340: 8ffd f5bd 34d7 8c3d a006 6f3d a590 873d
00000350: 1c03 c73d 89fc d73c 009b 29be 72d0 1c3e
00000360: 7fb9 b03d 5ed1 5e3e 57d2 353e dfbe d4bd
00000370: 136d 3fbe 5a53 16be fcf2 743b 3c2d f33c
00000380: 660e 5d3d 55b5 41be 9866 04bd b671 03be
00000390: 6ebd ce3d 6e06 86bc 1fc0 033e a839 2d3a
000003a0: a19d 23bc 0201 d0b9 f989 0cbd 4025 0d3e
000003b0: 479a 15bd 973a 803d 1607 09bd 8a40 03bd
000003c0: 5fe2 08be 050f dd3d 53f4 cd3c 58bc d6ba
000003d0: e9a0 7fbd a22a 283d 89a3 c03d ce88 65bd
000003e0: cc49 f0bd 11a8 193d d293 18be 94e9 da3c
000003f0: 9110 e43d 1923 17be 1332 a3bd f671 ed3d
-0.09299242 -0.001231118 0.009566705 0.029580608 0.023470998 0.019757105 -0.20919313 0.25209704
-0.27852505 -0.093431085 0.0012966302 0.021735571 0.07128145 -0.16751249 -0.14924796 0.038592022
-0.12664273 0.092467435 -0.11880536 0.10891731 -0.038094994 -0.00046319296 0.12838595 0.27887726
-0.22275315 0.14126143 0.06731818 -0.052267343 -0.18106864 -0.10857891 -0.17883112 -0.14521813
-0.15819405 0.027016051 0.017602598 -0.11084303 0.14524372 -0.104757875 -0.078313105 0.043556653
-0.062348206 -0.1807664 -0.12446392 -0.053916153 -0.08208048 -0.15987027 -0.049136855 0.13151686
-0.03016029 -0.06288539 -0.042600345 0.10575471 0.058308676 -0.14776902 0.27507114 0.060379922
-0.092715256 -0.21406724 0.19777092 -0.112703465 -0.13311529 -0.108203754 -0.070574306 -0.12515718
0.018408498 0.13089214 -0.094783716 0.08633451 0.1845407 -0.22429405 -0.060612578 -0.26343963
-0.093954526 -0.032902256 -0.033064608 0.022291673 -0.03106335 0.05216108 0.0934495 -0.14812583
-0.20066263 -0.11760852 0.17810299 0.010097898 0.1548027 -0.02184761 -0.044191513 0.06110156
-0.11088616 0.09717798 0.074191906 -0.15206036 0.048797987 -0.17920575 0.18902937 -0.14104262
-0.01644335 -0.03449999 -0.24838954 0.025731858 -0.089457385 0.23632552 -0.005086537 0.055169355
0.07369533 -0.05867914 -0.05537776 0.12646294 0.16656812 0.039746396 -0.14497425 0.018188166
0.010203163 -0.16608563 -0.08884101 0.038990088 0.07873702 0.055687957 0.015019601 -0.118601836
-0.15434277 0.22507046 -0.15809132 -0.011716754 0.016104601 -0.035551075 0.014008677 0.028415045
-0.14225066 0.10244129 0.13784568 0.15620446 0.14503509 0.17502087 0.15415631 0.07480263
-0.03678726 -0.17227398 0.013685877 0.032399766 0.06991637 0.03317037 -0.14798184 0.12052518
0.037075456 0.20070952 -0.043244272 0.0109322425 0.18009654 -0.014285692 0.06404237 0.15362188
-0.05015225 -0.069625095 -0.17451036 -0.012957328 -0.12456176 -0.13930683 0.011187637 0.18089405
0.077666834 0.070875056 0.09687099 -0.08663367 0.150833 -0.10385462 0.0094225565 -0.21522063
-0.122553416 -0.15713906 -0.095406584 -0.015717877 -0.03403244 0.17269611 0.061942007 0.18934426
-0.1806922 -0.09512213 0.046990883 -0.014698932 0.020574946 -0.14165366 -0.15103735 0.1288266
-0.012755531 0.09922288 0.18306935 -0.09813523 -0.07499165 -0.11198034 0.012777012 0.1821179
-0.10165992 0.025637366 -0.091832064 -0.06490831 -0.068359576 -0.11421433 -0.11465291 0.10953486
0.1877844 0.15357077 -0.1523674 0.16361134 0.005041888 0.0014809157 -0.16403146 -0.08543038
-0.12011253 0.06876984 0.058355927 0.06619386 0.0971739 0.026365535 -0.16563034 0.1531389
0.086291306 0.21759555 0.1775602 -0.10387968 -0.18693952 -0.14680234 0.0037376275 0.029684655
0.05396881 -0.18916829 -0.032324404 -0.12836346 0.100947246 -0.016360488 0.12866257 0.0006608018
-0.009986312 -0.00039673602 -0.03431127 0.13783741 -0.036524083 0.06261175 -0.033454023 -0.03204397
-0.13367604 0.107938804 0.025140917 -0.0016383035 -0.062409315 0.041056283 0.09406192 -0.05603867
-0.11732826 0.037513796 -0.14900139 0.026722707 0.11135972 -0.14759482 -0.07968535 0.11594002

lstm.bias_ih_l0_reverse f4 [120]
00000000: e5a6 ddbd 7766 48be 0fdb a63c 22e5 0b3e
00000010: ef05 163e e14e 0bbe d2ab 50be 845a 073e
00000020: 6342 fabd a5f6 113c e12b f2bd 7d4e 593d
00000030: 2b5e 07be 82f0 113e 1a30 163d 5f57 4dbe
00000040: 35df 88bd b494 0abe 45de 1a3e cb60 3d3c
00000050: a131 49be 7f93 c23d eaad 233e 9c70 713d
00000060: 86a8 2cbd 3dbd 0ebe a6a0 0dbd fab3 183e
00000070: aa15 fbbc f02c 9a3a 24b2 2c3e b52f 3c3e
00000080: 23e2 353e 15c9 03be f777 11be 4e8f 463e
00000090: 99b7 c7bd 6f9d 143d c6c0 a93d 0ecd 163e
000000a0: ba81 8dbd 3409 9a3d edce 27bd f379 d2bd
000000b0: 0b18 0bbd 52b3 553e dd0f 0b3e 2d0e 853d
000000c0: be43 1b3e f556 1d3e 161a e33d 0d1d a03d
000000d0: 1304 333d 027c a23d 0fe0 083e 33a6 613e
000000e0: 26e0 9ebd 4125 253e 4be8 36bd 0866 d7bd
000000f0: c94e a6bc eee6 9cbd f711 25be 1c82 9bbd
00000100: 8eca d4bd 0c88 ac3c 0781 f73d ffb7 b7bd
00000110: 18c7 5dbd 691c b63d bed8 453e d891 02be
00000120: 4d66 99bd 7da0 193c c3d8 c83d 76e0 1abd
00000130: 10d2 83bd 87c4 eb3c 669d 773d c315 3bbd
00000140: da6b 3e3d ee36 2e3e 2259 933d 4b02 38bd
00000150: 01f7 0abe 0e45 29bc 0c7b e83d b06d dabd
00000160: 05e9 823d 7a0d 523d 4eb0 993d b87b 423e
00000170: 9f7d 06be 0f2b 19bd 8b3f fd3d 2dfb 9d3d
00000180: 69ca ffbd 0b01 52be cd9e edbd b279 13be
00000190: 070e 82bd 1b95 20bd c9d7 f73d afdf ddbd
000001a0: c4dc a53d 86cc 163c a300 aabd 467d 553e
000001b0: c4b7 2e3e f5e4 ab3d b477 95bd 8d9a fbbd
000001c0: 092c 003e d9e6 633e 5c4b 403e fd8c 89bd
000001d0: 74e4 14bc 0189 eb3c 1075 9cbc fef1 253c
-0.10822848 -0.19570337 0.020368127 0.13661626 0.14650701 -0.13604309 -0.20378044 0.13218123
-0.122196935 0.008908902 -0.118247755 0.053053368 -0.13219516 0.14251903 0.036666967 -0.2005286
-0.06683198 -0.13533288 0.15123852 0.011558722 -0.19647838 0.09500789 0.15984312 0.058945283
-0.042152904 -0.13939376 -0.034577034 0.14912406 -0.030649979 0.001176266 0.1686483 0.18377574
0.17762046 -0.12869675 -0.14205919 0.19390604 -0.09751815 0.036282953 0.08288722 0.1472666
-0.06909509 0.075212866 -0.040968824 -0.10277166 -0.033958476 0.20869187 0.1358027 0.064968444
0.1516256 0.15365203 0.1108896 0.07818041 0.043705057 0.07933809 0.13366722 0.22036056
-0.07757597 0.16127492 -0.044655126 -0.10517508 -0.02030124 -0.07661234 -0.16120134 -0.07593176
-0.10390197 0.021060966 0.12085157 -0.08970641 -0.05414495 0.088921376 0.19320962 -0.12750947
-0.074902155 0.009376642 0.09806969 -0.03781172 -0.064365506 0.028780235 0.06045284 -0.04567505
0.046489574 0.17013142 0.07194735 -0.04492406 -0.13570787 -0.010331405 0.11351594 -0.106654525
0.06392101 0.051282384 0.075043306 0.18992507 -0.13133858 -0.03739458 0.123656355 0.077139236
-0.124897785 -0.2050821 -0.116025545 -0.14401892 -0.06350332 -0.039204698 0.121017046 -0.1083368
0.08098748 0.009204036 -0.08300903 0.2084857 0.17062289 0.083932795 -0.07298222 -0.122853376
0.12516798 0.2225603 0.18778747 -0.067163445 -0.009087671 0.028751852 -0.019098788 0.010128496

lstm.bias_hh_l0_reverse f4 [120]
00000000: d3e7 9abd 98d1 bb3d 4855 f7ba 40f8 c53d
00000010: de33 d43c 3ad9 d33d 6c71 3dbe 09c8 003e
00000020: 5e23 01bc c40e 113e e517 9fbb a7e5 dbbc
00000030: 0980 76bd c524 3abd 1ad1 24be 7937 873d
00000040: c07d ccbd 64c8 eabd 65c0 abbd d03a 2a3e
00000050: 782c 513d 8a97 0c3e 54cb 4abd 3234 b0bd
00000060: 160a ebbd 3cf6 ecbd 11f6 5f3d c351 9abd
00000070: 76ab c63d 8f84 493d b635 523d f656 b83c
00000080: 4295 cf3a 25e4 1b3e e035 3b3e a9f1 f13d
00000090: cd47 2c3e cad9 96bd 9923 a03d 9187 8a3b
000000a0: b873 023b 0765 fb3d 6e17 09be 7174 80bd
000000b0: a699 55bd a097 e8bd 8f54 a63d 0e38 413e
000000c0: 76db 053d 1a0c fd3d 041e 1b3d 556a c23c
000000d0: 39e5 15be 4dd3 a5bc 7b0b 303e dd17 9cbd
000000e0: 8d2a 4d3e 5c5b 0a3e 669a 833d 9d75 033e
000000f0: 097c 433e ca7a 3dbc 4d73 a3bd 55ca d8bd
00000100: f54f 9abd f0cf 8a3d b149 ddbd 5ced a2bd
00000110: 7e3e 04bd 481b d6bd 5bb6 483a 61f5 9f3c
00000120: c769 c4bd ca7a f53d 70b5 c73c fe30 fabd
00000130: b161 383e 641f 05bd e0b0 b03d 59dd 26be
00000140: 78b5 c93d 8da9 0abe 605a ea3d e33f 87bd
00000150: 7a0e 123e 5669 553d a8bc 9dbd 054f 10be
00000160: a21d 17be ba03 93bc 2e19 693d 35a4 aa3d
00000170: 7231 35be 4c4a 953d cdc1 853d c4f1 d23b
00000180: 8f90 d7bc a140 4ebe 1661 97bd e8dc 403e
00000190: 8fac 483d 1183 303e f1d8 9e3d c20c 37be
000001a0: 2319 b03d 4c39 803d ff1f b23d a81a bcbd
000001b0: 5f83 72bd 2be2 4a3d d931 a3bb 52e1 1bbe
000001c0: 9b55 fd3d 309c 85bd 8c45 d13d 4e2b b7bd
000001d0: a6ab 83bd 394f c53d 2168 563e 7834 593d
-0.07563748 0.09170836 -0.001887002 0.096664906 0.025903638 0.10344167 -0.18500298 0.12576307
-0.007881967 0.14165789 -0.0048551434 -0.026842905 -0.060180698 -0.045445222 -0.16095391 0.066023774
-0.099849224 -0.11464003 -0.08386306 0.16623998 0.0510678 0.13729683 -0.049510315 -0.086037055
-0.11476533 -0.11570403 0.054678027 -0.07535126 0.09700672 0.049198683 0.051320754 0.022502404
0.0015837329 0.15223749 0.1828227 0.11813671 0.16824265 -0.07365759 0.0781929 0.0042275866
0.00199054 0.12275129 -0.13387844 -0.062722094 -0.052148484 -0.11357045 0.08121597 0.1886904
0.032679997 0.12355824 0.037870422 0.023732344 -0.14638223 -0.020242358 0.1719188 -0.07621739
0.20035763 0.13511413 0.064259335 0.12837835 0.19090284 -0.01156492 -0.07980976 -0.10585467
-0.07534782 0.06777942 -0.10805071 -0.07955429 -0.03228616 -0.10454422 0.00076565676 0.019526185
-0.09590488 0.11986311 0.024378508 -0.12216376 0.18006016 -0.03250064 0.08627486 -0.16295375
0.098490655 -0.13541241 0.11443019 -0.06603982 0.14263335 0.05210241 -0.07701999 -0.14092644
-0.14757398 -0.017946113 0.05690878 0.08332101 -0.17694643 0.07289562 0.06531105 0.006437512
-0.026314048 -0.20141841 -0.073915645 0.18834269 0.04899269 0.17237498 0.07756222 -0.1787596
0.085985444 0.062609285 0.08697509 -0.09184772 -0.059207316 0.049532097 -0.0049803075 -0.15222672
0.123698436 -0.06523931 0.10218343 -0.089438066 -0.06429224 0.09634251 0.2093816 0.053028554

lstm.weight_ih_l1 f4 [120, 60]
00000000: d32a 223e 7032 9cbd 5d9e cc3d 057f 08be
00000010: f7a5 85bd 8d45 29be 09d9 b8bd 3256 a0bc
00000020: f297 aebd 0623 0d3e 9366 193e f9a3 24bd
00000030: 18bf 8a3b b8f1 b63d b44f 213e c205 47bc
00000040: 02ff 2abe ffde e33d 378d 153d 7839 45bd
00000050: e2e3 8e3d 8196 bdbd 4503 f6bc 2932 2a3e
00000060: 2c38 9f3c 84c1 f73d aa11 053e 9cea 183e
00000070: 4832 293e 2f83 fbbd 481a bfbd 9b33 41be
00000080: 5866 30be 96f5 21bb 0244 0ebe 02c6 fc3d
00000090: b0a2 5bbd fc08 173d 3e18 99bd 28c1 83bc
000000a0: ffc7 003e cd7e 35be 5e78 15bd d5c5 cd3d
000000b0: 7b01 e3bd bffd a3bd d41e 18be 8913 2d3e
000000c0: 8705 8bbd c750 f13c 0cee 383e 61a8 2f3e
000000d0: 021e e13d adb5 fbbc 4438 2e3e 9897 4fbd
000000e0: 3981 3b3e a1fa cc3c 6c38 0fbe b14f b9bd
000000f0: 23eb 2a3e a531 06be 667d cabd eb90 cf3d
00000100: 4864 2e3d 74c2 b83c b417 d9bd ffde 8b3d
00000110: 926d 3dbe c331 cd3d cc28 5a3d 4c4b 183d
00000120: b8a4 e33c 4260 1dbe d01a 8bbd ea30 3d3e
00000130: 4e0a 943d 9a25 30bd 3229 80bd c7f6 39be
00000140: ac19 d4bd f7aa ffbd a7f1 bb3d 4066 903d
00000150: 0755 a9bd e2a9 783d cbeb d13b 911a 1b3e
00000160: 6939 41be 3b3b 95bd 87e8 913d 9096 f9bd
00000170: 67ab 423d 77ac 14be 30a0 0c3e d460 913d
00000180: efb6 fbbc 11c2 2cbd 74ea 153d fae4 3abc
00000190: 68c7 fd3d 6293 a8bd c60b 723e 97eb 26be
000001a0: 435f 303d 81b8 d73c 9696 1abe 984e 383d
000001b0: 3b30 133e a8bd 9b3d ffce 27bd 9af7 f03c
000001c0: dfc6 afbd 218e 90bd 3359 12be 6070 f4bd
000001d0: f9be 29be 75fc 10be 8fac 09be d86a 1e3e
000001e0: 20c6 64bd 7e7b 2d3d 1231 0cbe 0de7 3e3e
000001f0: 5088 053e 8052 1ebd babe 7bbc c2b4 19be
00000200: f560 51bd 4fb0 2a3d 6ddf 16bd 80ae ff3d
00000210: 3267 af3d dbd5 19be 37d8 e63d eef8 5a3e
00000220: 5c92 08bd 4b22 dbbd 8bbe bdbd a8cd 61be
00000230: 497b 52bd 06d3 823d 51dd e8bc cf34 1fbd
00000240: 1083 173e a9c8 ab3d 6b6c 223e b025 8a3d
00000250: 0a7a a1bc f5da 5e3d 9a09 17be 3f38 fbbd
00000260: 6e0b 833d f1d3 ea3c 8d00 763d f95f 303e
00000270: 2bcd cbbd 3fbe e5bd acc0 78bd 65b8 7c3c
00000280: 19d6 5bbe 7f26 2d3e c5be 59be 95cd c63d
00000290: bfad a6bd 0eb9 1dbe 984a 0dbd 36fc 633d
000002a0: 01ed d3bd c3fe c1bd 4e6f 353e e52e a9bd
000002b0: f19b 70bc f1ca c9bb 6ce7 c03c 05c0 773c
000002c0: 0145 023d bff1 0dbe 0456 e43d 1ca1 0b3d
000002d0: d61d 9a3c 6fed a3bd b550 f83d 5dee 2c3e
000002e0: 35a1 163e 4ee5 953d 458a 5bbc a154 803d
000002f0: b293 133e b687 8dbc 6cdd ae3d 2fd6 c53d
00000300: a70f 323e bae6 fa3c bc87 e83d dad8 0e3e
00000310: 4a70 f6bd f16f ef3d 18c3 afbd 3f47 8abc
00000320: 42ce 353e 5bd4 193e 2620 de3d 517b da3d
00000330: 240c d7bd 3f9a 9d3c 11cd f83d 7dab 6a3d
00000340: 2bbc 34be 4021 163d 3d25 31be d6ac 19be
00000350: 6589 34be 743b 20be 2b56 d33c cd2c ef39
00000360: 2f18 ffbd 83e5 30be 3150 e63a a642 833c
00000370: f18f 0b3e 55e4 5c3d 2047 1d3e 376c 853d
00000380: 0764 bcbd b4e0 f1bd bc36 f1bd d648 a6bd
00000390: 3ddb 333e 0c75 843d 6535 023e 396d d0bd
000003a0: 7dce 13be 74e1 9abd 012e 293e 8172 af3d
000003b0: cf59 edbd 030b 4bbd d26d 31be 6677 b63b
000003c0: 65ef ad3d 993f 803d 741a 9bbd cb1f fdbd
000003d0: 52fd fdbd 49d0 2dbe 600a d1bc ec53 513d
000003e0: def7 b1bd cc10 1fbe bcd8 b4bd 2ebb 74bd
000003f0: 1947 9e3c ab6b dd3d 80d8 05be f9fa 0d3e
0.15836649 -0.07626808 0.09991143 -0.13329704 -0.06525796 -0.16530438 -0.09025771 -0.019572351
-0.08525075 0.13782892 0.14980535 -0.04019544 0.004234206 0.08932823 0.1575306 -0.012147369
-0.1669884 0.111265175 0.036511626 -0.04815051 0.06977059 -0.09257222 -0.030030856 0.16620697
0.019435965 0.12097457 0.1299502 0.14933246 0.16523087 -0.12280881 -0.093311846 -0.18867342
-0.17226541 -0.002471303 -0.1389313 0.123424545 -0.053621948 0.036873803 -0.07475327 -0.016083315
0.12576292 -0.17724152 -0.036491744 0.10047499 -0.11084267 -0.080073826 -0.1485551 0.16901983
-0.06788164 0.029457463 0.18059558 0.17154075 0.10992052 -0.030726278 0.17013651 -0.05068168
0.18311013 0.025021853 -0.13986367 -0.09048403 0.1669126 -0.13104875 -0.09887199 0.10135063
0.042576104 0.02255366 -0.10600224 0.068296425 -0.18498829 0.10019257 0.053261563 0.037181184
0.027788505 -0.1536875 -0.067922235 0.1847569 0.07228528 -0.04300461 -0.062578574 -0.18160544
-0.10356459 -0.12483781 0.09176951 0.07050753 -0.08268171 0.060708888 0.0064062825 0.15146853
-0.18869556 -0.07286688 0.07124429 -0.12186921 0.047526743 -0.14518915 0.13732982 0.070985466
-0.030726878 -0.042177264 0.036600545 -0.011407131 0.12391549 -0.08231236 0.23637304 -0.16300808
0.0430596 0.026333096 -0.15096506 0.044996828 0.14373867 0.076045334 -0.04096889 0.02941494
-0.085828535 -0.07058359 -0.1429184 -0.11935496 -0.16576757 -0.14158805 -0.13444732 0.15470445
-0.05585301 0.0423541 -0.13690594 0.18642826 0.1304028 -0.038652897 -0.015365297 -0.1501036
-0.051117856 0.041672047 -0.03683417 0.12484455 0.08564605 -0.15022986 0.112717085 0.21384022
-0.033342704 -0.106999 -0.09264859 -0.22051108 -0.051387105 0.06387906 -0.028425844 -0.03886872
0.1479609 0.08387882 0.1586167 0.067454696 -0.019711513 0.054408032 -0.14749756 -0.122665875
0.063986644 0.028665515 0.06005912 0.1722411 -0.09951242 -0.11217927 -0.06073062 0.015424822
-0.2146839 0.16909216 -0.21264179 0.097071804 -0.08138608 -0.15402624 -0.034494966 0.05566045
-0.10347939 -0.0947242 0.1771824 -0.082608975 -0.014685617 -0.0061582257 0.02354785 0.015121465
0.03180409 -0.1386175 0.11149219 0.034089193 0.018813055 -0.08004271 0.12124769 0.16887803
0.14709933 0.07319127 -0.013399665 0.06266142 0.1441181 -0.017276626 0.085383266 0.09659993
0.17388783 0.030627597 0.11354014 0.1394991 -0.12033136 0.11691273 -0.08582133 -0.016879676
0.17754462 0.15022413 0.108459756 0.10668052 -0.105003625 0.01923859 0.12148488 0.05729245
-0.17649905 0.036652803 -0.17299362 -0.15007338 -0.17630537 -0.1564768 0.025797924 0.00045619012
-0.124557845 -0.17275052 0.0017571506 0.016022991 0.13629128 0.053928692 0.15359163 0.06514781
-0.09198766 -0.11810437 -0.11778018 -0.08119361 0.17564102 0.064676374 0.12715681 -0.101770826
-0.14434238 -0.07562533 0.16521455 0.08566762 -0.11589395 -0.04957105 -0.1732705 0.0055684326
0.084929265 0.0626213 -0.07573405 -0.1235958 -0.12401833 -0.16973986 -0.025517642 0.051105425
-0.08689855 -0.15533751 -0.08830401 -0.05974882 0.019321011 0.10811552 -0.1307087 0.1386527

lstm.weight_hh_l1 f4 [120, 30]
00000000: 0ed3 a0bd 0fca 1ebe 13c3 4dbe 8150 bdbd
00000010: 4bcc fabc b027 58be 1037 3e3c d5bf fdbd
00000020: b53d ac3d 875e 1cbe 7bc5 1c3e c712 023d
00000030: 421a 943d bc7c 40be e3ff 893d 40bd c8bd
00000040: 1d0f ac3c e818 14bd 9095 cb3d 11b2 a7bd
00000050: 4fd4 34bd 5fb0 cc3d f1d0 97bd 9a89 07bd
00000060: 0f73 323e 48df 053e 7e0b 983d 58b6 fa3d
00000070: 569f 263e d94c 323d dd9a 12be 502f 4b3d
00000080: bad8 713d 2955 18be 9a42 fabc 808d f13c
00000090: 2b20 013c 0648 163e 5baf 043e ce8a 1a3e
000000a0: 6577 21be 36a4 563d d371 863d 0f8c 033e
000000b0: 57fa 583d 396b 073e 3530 353e 8069 09bd
000000c0: 347f 12be 6c2a 4abe c367 773c 0c27 18be
000000d0: 5283 e23a ddaf a4bd 7ee6 743d 62c6 4e3d
000000e0: 3b4e b5bd 917c fcbd d5b5 ff3d f341 063d
000000f0: 8be9 43be 0249 0ebe 2b95 c53d af67 5abb
00000100: 0b8e eb3d a47f dfbd 60f5 23be 48bd e1bd
00000110: afd3 3a3e 29a1 863d 6746 a83c 0203 e3bd
00000120: 994f c2bc 89f8 113e c670 323e 4da3 a1bb
00000130: bd34 4cbe a214 a53d 9c36 873a e2ce ba3d
00000140: 2a88 f0bd 4337 203e 6ae9 f8bd 9327 173e
00000150: be9e eb3d b7a8 97bd d329 c8bd bd62 95bd
00000160: e00b 1abe c08f 22be afe5 e3bd f5c4 75bd
00000170: 9cb2 34be 196a 903d ff0f 34be 8d1c 26bc
00000180: 44db d63d afba a93d 4f83 3abe ddcc 82bd
00000190: f84f e7bd 9c4b f2bd 60f4 233e ee4c 05be
000001a0: 7707 7ebd 3c2b b03d 02cd 3f3e 73df 1d3e
000001b0: 6282 283e b888 bbbc 60f1 0f3c e885 24be
000001c0: cb7f 56bd bcad d4bc a7d0 dc3c 7f85 8abd
000001d0: 42ee debd d11b 0d3e b105 cc3b 7e62 66bd
000001e0: ca09 ebbd 2ec2 1b3e 5cb9 26be ef70 ddbd
000001f0: 40f3 05be 7746 253b 08f2 203e 9323 5c3d
00000200: ee25 8c3d 6389 0c3b 33ac aabb b37d 1abd
00000210: 17a9 23be 920c 2a3e 5112 49be d76c 6abd
00000220: af91 45bb c38d 3a3d ebc6 4ebd c386 50bc
00000230: d139 12be 3c96 11bd 8270 ee3d c2f1 c73c
00000240: 361c 6c3d e398 9bbd 3e35 db3d e9ca 18be
00000250: d2fa aabd a60f 0b3d 167e 0e3d a15a e4bc
00000260: 346a 9cbd 6617 0bbe 0929 dfbc 0bc4 fd3c
00000270: 9665 183d 8dca 1a3e 9e71 cc3d 326a 29bc
00000280: 099f 143e 2e7f 6bbc 9b4a a2bd 061f ffbc
00000290: b587 4b3d 49ad 06be a12c d4ba 5a06 a23d
000002a0: 7f4a f4bc 3fb1 1d3e 5776 80bd b264 4a3d
000002b0: d724 26bd 0ca4 34be ad1c 16be fd5e 17bc
000002c0: b92c f13c 86e3 b6bd cc0f 59bd b1ad 3cbe
000002d0: 08da 103d e6a7 a13d 705d c9ba f7ba 053e
000002e0: ff4b af3d 6850 713a 0ab3 67bc 3d81 eabd
000002f0: 650b f03d 6262 7e3d a039 95bd c2cd d93d
00000300: 8d12 c3bd e15e 2d3e c1e1 d03d 409c 283d
00000310: 1ff3 013d 48e9 71bd 77da 96bd 0943 36be
00000320: a4a4 ccbb c00f 17be 8b79 0abe 4aa2 563d
00000330: c364 343d dfdb a43d 8584 9a3d ab9c a13d
00000340: 1a86 043e 6586 69bc c3f1 913d cad2 6c3d
00000350: c923 dcbd 86bf 9f3b 956f 3ebe d9f1 453d
00000360: cd38 a43d da0a 973d 0cb9 f33d 9770 d83c
00000370: 706b 59bd 90b4 96bd 38b7 273e 3fb3 393d
00000380: 8e82 a23c 99e0 c93d 07d1 c2bd b311 6cbc
00000390: 44cd dc3d c344 d23d a92f d33c 7d36 0c3d
000003a0: 22de 213e f30a b43d d135 1dbd 47bc 78bd
000003b0: 67cc 113e b15e 2b3e 372f d23d 72ba babd
000003c0: 4a91 14be 305c 92bc 14c6 bd3d 4471 12be
000003d0: e83f 1bbe 6440 473d 6bef 333e d3cd 043e
000003e0: c0d9 4fbd 1f1a b03d 50a7 09be 20e5 0f3e
000003f0: 0a35 2ebe 7102 653d fc90 3b3e c3db 2f3d
-0.078527555 -0.15506767 -0.20093946 -0.092438705 -0.030614993 -0.2110889 0.011609808 -0.12390105
0.08410207 -0.15270434 0.15309708 0.03175619 0.07231571 -0.18797582 0.0673826 -0.098017216
0.0210033 -0.036156565 0.09940636 -0.0818826 -0.044147786 0.099945776 -0.07412899 -0.03309021
0.17426704 0.13073456 0.07424067 0.122418106 0.1627172 0.04353032 -0.14316888 0.049605668
0.059044577 -0.14876236 -0.030549336 0.029486418 0.007881205 0.14675912 0.12957518 0.15092012
-0.15768202 0.052402698 0.06564679 0.12846397 0.052973118 0.13224496 0.17694171 -0.03354788
-0.14306337 -0.19742745 0.015100422 -0.14858645 0.0017281568 -0.08041356 0.059790127 0.05048216
-0.08852812 -0.12328447 0.124858536 0.032777738 -0.19132058 -0.13895038 0.09647592 -0.003332596
0.11501702 -0.109130174 -0.16011572 -0.11022431 0.18244813 0.065737076 0.020541383 -0.11084558
-0.023719596 0.14254965 0.17425832 -0.004932797 -0.19941993 0.08060576 0.0010315957 0.09121491
-0.11744721 0.1564608 -0.12153895 0.1476119 0.11504887 -0.07405227 -0.09773602 -0.072942235
-0.15043592 -0.15875149 -0.11127793 -0.060002286 -0.17646259 0.070514865 -0.17584227 -0.010138643
0.1049104 0.0828756 -0.18214153 -0.06386731 -0.1129455 -0.118308276 0.1601119 -0.13017628
-0.062018838 0.08601996 0.18730548 0.1541727 0.16455987 -0.022892341 0.008785576 -0.16066706
-0.052367967 -0.02596175 0.026954962 -0.067637436 -0.10885288 0.13780142 0.0062262644 -0.056246273
-0.114764765 0.15210792 -0.16281646 -0.10812556 -0.13081074 0.0025219002 0.15717328 0.053744864
0.06843172 0.0021444194 -0.005208516 -0.037717532 -0.15982471 0.16606358 -0.19635893 -0.057232704
-0.0030146649 0.04554535 -0.05048267 -0.012727442 -0.14279868 -0.035543665 0.11642553 0.024407271
0.05764409 -0.0759752 0.107035145 -0.14921154 -0.083486214 0.03395047 0.034788214 -0.027875246
-0.07637444 -0.13583145 -0.027241247 0.03097727 0.037206255 0.1511633 0.09982608 -0.01034026
0.14513792 -0.014373584 -0.07924386 -0.031142723 0.049689967 -0.1315204 -0.0016187617 0.07911368
-0.029820679 0.15399645 -0.062725715 0.049412437 -0.040562477 -0.17640704 -0.14659376 -0.009238956
0.02944027 -0.089301154 -0.05299358 -0.18425633 0.03536418 0.07893352 -0.001536293 0.13059603
0.08559417 0.0009205402 -0.014141807 -0.114504315 0.11720923 0.062105544 -0.07286382 0.10634948
-0.09525023 0.16930725 0.10199309 0.041164637 0.031726 -0.059060365 -0.073658876 -0.1779901
-0.0062452126 -0.14752102 -0.13522927 0.052400865 0.044041406 0.080497496 0.07544807 0.0789121
0.1294178 -0.014253234 0.071261905 0.05781821 -0.10749013 0.0048751263 -0.18597253 0.048326347
0.080186464 0.07375117 0.11900529 0.026420875 -0.053080976 -0.07358658 0.16378486 0.045336958
0.019837644 0.09857292 -0.09512525 -0.014408517 0.10781339 0.102670215 0.025779562 0.03423165
0.15807393 0.08791151 -0.0383814 -0.06072643 0.1423813 0.1673534 0.10262912 -0.09117593
-0.14508548 -0.017866224 0.09266296 -0.1430102 -0.15161097 0.048645392 0.175718 0.1296914
-0.050744772 0.08598732 -0.13442731 0.14052248 -0.1701242 0.05591053 0.18317026 0.04293419
