model/LSTMY/T1Dcheckpoint4.pt (torch, 229215 bytes, 31 tensors)

lstm.weight_ih_l0 f4 [120, 15]
0	0x3e2e6f31	0.17034604
1	0x3c1e1c2c	0.009650271
2	0xbe556441	-0.20839025
3	0xbdc9d7ab	-0.098555885
4	0x3ddbe86d	0.10737691
5	0xbe96d670	-0.29460478
6	0x3dc3f609	0.09568412
7	0xbdd09be4	-0.10185984
8	0x3da0ed84	0.078578025
9	0xbc9246f8	-0.017856106
10	0x3e1fc04f	0.15600704
11	0x3da0d245	0.07852606
12	0x3e50b0b1	0.20379902
13	0x3e0ed0c6	0.13946828
14	0xbe137113	-0.14398603
15	0xbe19d086	-0.15020952
16	0x3d55a15b	0.052155834
17	0xbe0ec5e9	-0.13942684
18	0xbc79c770	-0.0152453035
19	0xbe26670d	-0.16250248
20	0xbd2ca918	-0.042153448
21	0xbda38618	-0.07984561
22	0xbe1398b0	-0.14413714
23	0x3e3b8d26	0.18315563
24	0x3be85bf7	0.007091041
25	0xbd06f23e	-0.032945864
26	0xbe30d061	-0.1726699
27	0x3da0e316	0.07855813
28	0x3e03c032	0.12866285
29	0xbe3e8e97	-0.18609081
30	0x3c11877b	0.008882399
31	0x3e2e5e6e	0.1702821
32	0xbc2b48cd	-0.010454369
33	0x3c82e4ab	0.015978178
34	0x3d958545	0.0730081
35	0xbe600192	-0.21875599
36	0xbca26322	-0.01982266
37	0xbe0e1baf	-0.13877748
38	0xbc21f6ab	-0.00988547
39	0xbe375fb3	-0.179076
40	0x3de40f1f	0.111356966
41	0x3dbfc55d	0.09363816
42	0x3dba41b9	0.09094567
43	0xbcdf3a7d	-0.02724957
44	0x3c09310d	0.008373511
45	0xbe2a55f8	-0.16634357
46	0xbcd59b98	-0.02607517
47	0x3c86b229	0.016442375
48	0xbd3cff98	-0.04614219
49	0x3d9011f9	0.07034678
50	0xbd75954f	-0.059956845
51	0x3ca5d726	0.020244192
52	0xbe1e3961	-0.15451576
53	0x3e080d8d	0.13286419
54	0x3dd367da	0.103225425
55	0x3dad6223	0.08465984
56	0x3ac30c97	0.0014881071
57	0x3d4948da	0.049141742
58	0x3e719b1c	0.23594326
59	0x3dcffd01	0.101556785
60	0xbd71fd50	-0.05907947
61	0xbe5df32c	-0.21674794
62	0x3e4037b1	0.18771245
63	0x3dd3f474	0.1034936
64	0xbd0c11af	-0.034196552
65	0x3d0012cf	0.031267937
66	0x3e04665e	0.12929675
67	0xbe3b5173	-0.18292789
68	0x3dafe645	0.08588842
69	0x3ca40a77	0.020024521
70	0xbe4c5e40	-0.19957829
71	0x3da4c616	0.080455944
72	0x3dc4ac03	0.09603121
73	0x3de92634	0.1138424
74	0x3e05d276	0.13068566
75	0xbe22a5bd	-0.15883537
76	0x3cdf0c00	0.027227402
77	0xbe0f9fbd	-0.14025779
78	0x3d37fac0	0.04491687
79	0x3db9fc60	0.0908134
80	0xbe046bea	-0.12931791
81	0x3dc6aca6	0.09700899
82	0x3dc3c9d0	0.09559977
83	0x3c573795	0.01313581
84	0xbe2da8f0	-0.16958976
85	0xbe1ba28d	-0.15198727
86	0x3cb6d6df	0.022319255
87	0x3dbcaee3	0.092130445
88	0xbde77f31	-0.11303557
89	0x3d97f575	0.07419864
90	0x3d0a0d0f	0.03370386
91	0x3dbf1ff7	0.09332269
92	0x3e0bbc2b	0.13645999
93	0x3df60207	0.120121054
94	0x3d8044b1	0.06263102
95	0xbbb7463c	-0.0055930894
96	0x3db16c4c	0.08663234
97	0xbcf2c854	-0.02963654
98	0xbc99c074	-0.018768527
99	0xbda139dc	-0.07872364
100	0x3db53d4d	0.08849583
101	0xbe2fa00d	-0.17150898
102	0xbe078a58	-0.13236368
103	0xbdd7f08d	-0.10543928
104	0x3d390c37	0.045177665
105	0xbd6cbd9b	-0.05779801
106	0xbc00cb98	-0.0078610405
107	0xbda88f35	-0.082304396
108	0xbdee687b	-0.11641022
109	0x3e279792	0.16366413
110	0x3d86d8a4	0.0658429
111	0x3dcf1af6	0.10112564
112	0x3e62e106	0.22156152
113	0xbcee4c16	-0.029089015
114	0xbd012a56	-0.031534515
115	0xbe3005fa	-0.1718978
116	0xbd9fddb9	-0.07805962
117	0x3d5a49c1	0.053292993
118	0x3e42d417	0.19026218
119	0xbd9cd24c	-0.076572984
120	0xbd44ba0c	-0.04802899
121	0x3d2be25c	0.04196392
122	0x3daabf33	0.083372496
123	0xbdc3dfc8	-0.09564167
124	0x3cbf8f5a	0.023383785
125	0xbdd0c7b9	-0.10194344
126	0xbd4512cb	-0.048113625
127	0x3e03701c	0.12835735
128	0xbda67921	-0.08128572
129	0xbc19d9e3	-0.009390327
130	0x3da23923	0.07921054
131	0xbd2c6552	-0.042088814
132	0xbe4d8b5f	-0.20072697
133	0x3e0d7c47	0.1381694
134	0x3d1d9638	0.038473338
135	0x3dff8c01	0.124778755
136	0xbc91ad14	-0.017782725
137	0x3d876238	0.066105306
138	0xbda10cfa	-0.07863803
139	0xbd635392	-0.05549962
140	0xbe231216	-0.15924868
141	0xbe1c5ac7	-0.15269004
142	0x3e27c765	0.16384657
143	0x3c191574	0.009343494
144	0x3e43b011	0.19110133
145	0xbd971087	-0.07376199
146	0xbe08dc4a	-0.13365284
147	0xbe825955	-0.2545878
148	0xbdb2a995	-0.087237515
149	0x3bd6a53d	0.0065504597
150	0xbd08268f	-0.033239897
151	0xbe2c8c15	-0.16850312
152	0xbd7d9785	-0.06191208
153	0xbdac42a1	-0.08411146
154	0x3d3a356d	0.045461107
155	0x3d868dad	0.06569991
156	0xbd42eb56	-0.047587715
157	0xbdb3c5ac	-0.08777937
158	0x3cd62fea	0.026145894
159	0xbe106b05	-0.14103325
160	0xbd1bb8d2	-0.038018055
161	0xbe33eb7d	-0.175703
162	0x3da586d7	0.08082359
163	0x3e3cc9c9	0.1843635
164	0x3da3cdc1	0.07998229
165	0xbdb568a3	-0.088578485
166	0xbd8d482b	-0.068985306
167	0x3c6c46e3	0.014421198
168	0x3e36359e	0.17793891
169	0xbe83096c	-0.25593126
170	0xbdd05131	-0.10171736
171	0xbdcdf464	-0.100563794
172	0x3cf9080f	0.03039935
173	0xbe03ff65	-0.12890394
174	0xbe3e4e90	-0.18584657
175	0xbcda52ea	-0.026650865
176	0x3df17f6a	0.117918804
177	0x3e0b7e21	0.13622333
178	0xbd13d9ae	-0.036096267
179	0x3e02d6f9	0.12777318
180	0xbd9eae91	-0.0774814
181	0x3cbc4316	0.022981208
182	0xbe284a1d	-0.16434522
183	0x3d532301	0.051547054
184	0x3da4af1a	0.080412105
185	0x3dba7381	0.09104062
186	0xbe1a3ad8	-0.1506151
187	0x3db93618	0.09043521
188	0x3c903e9b	0.017607978
189	0x3c485ed9	0.012229645
190	0xbc2ff6e6	-0.0107400175
191	0xbd39f6bb	-0.045401316
192	0x3e33c7b3	0.17556648
193	0x3e57dde4	0.21080738
194	0xbdf0f523	-0.11765506
195	0xbdf6e491	-0.12055314
196	0x3d11ccc3	0.035595667
197	0xbccd2f96	-0.025047105
198	0xbc08b6e9	-0.00834439
199	0x3d78f197	0.060777273
200	0xbc2c34ff	-0.010510682
201	0xbe1da345	-0.15394314
202	0xbc8cb1e1	-0.017174663
203	0xbd833c29	-0.06407959
204	0x3d886138	0.06659168
205	0x3e18eaf1	0.14933373
206	0xbd9c1bd2	-0.07622494
207	0x3e49dafe	0.19712445
208	0xbdef9eb6	-0.117001936
209	0xbcca2391	-0.024675163
210	0x3cdf2b88	0.027242437
211	0x3e456ce6	0.19279823
212	0x3de6bc1a	0.11266346
213	0xbe3a405e	-0.18188617
214	0xbdb91500	-0.090372086
215	0xbe37b32e	-0.17939445
216	0xbcb5d8b4	-0.022198059
217	0x3dd47768	0.103743374
218	0x3d809531	0.06278456
219	0x3e1efdee	0.15526554
220	0x3e13fb76	0.14451393
221	0x3dcc45ef	0.09974276
222	0xbdad2194	-0.0845367
223	0x3e21eca3	0.15812926
224	0x3df1b4fb	0.118020974
225	0xbe0c7dd8	-0.1371988
226	0xbe54e4b5	-0.2079037
227	0x3dfaeac8	0.12251812
228	0x3e4f6e44	0.20256907
229	0x3bdedfce	0.006801582
230	0x3cd0ca1c	0.025486998
231	0xbe0a6d3e	-0.13518235
232	0xbc241d43	-0.010016742
233	0xbe7abe52	-0.24486664
234	0xbdf5c2db	-0.12000056
235	0x3db90696	0.09034459
236	0x3d7eb9cb	0.062188905
237	0x3d8c08e5	0.06837634
238	0xbe286a96	-0.1644691
239	0xbc71b0a1	-0.014751584
240	0xbdd8f3eb	-0.10593399
241	0xbcc5fe09	-0.024168985
242	0xbddcffe1	-0.107909925
243	0x3dd0090f	0.10157978
244	0xbe0fc34d	-0.14039345
245	0x3d837f0a	0.06420715
246	0xbd6b23b3	-0.057407092
247	0xbe282e37	-0.1642388
248	0xbdc34c07	-0.095359854
249	0x3da29a65	0.07939605
250	0x3d08fdff	0.033445355
251	0x3e4778bc	0.1947965
252	0x3cfe8a4e	0.031071808
253	0xbe352453	-0.17689638
254	0xbd40dbf3	-0.04708476
255	0x3e83976a	0.25701457

lstm.weight_hh_l0 f4 [120, 30]
0	0x3e4b3303	0.19843678
1	0xbe970234	-0.29493868
2	0x3db33bfc	0.087516755
3	0x3d9127c1	0.070876606
4	0xbe629f36	-0.22131047
5	0x3d42d926	0.04757037
6	0x3dae9f3d	0.08526466
7	0x3dfe2423	0.12409236
8	0x3e947ed0	0.29003
9	0xbb44e78e	-0.0030045244
10	0x3dd2dd5e	0.10296129
11	0x3aa0dae5	0.0012272267
12	0xbe25d020	-0.16192675
13	0x3c13440b	0.008988391
14	0x3def392d	0.11680827
15	0xbd63b9cb	-0.055597108
16	0x3dd140cc	0.10217437
17	0xbcdbe901	-0.026844503
18	0x3d5390b6	0.05165168
19	0xbd0a6434	-0.033786967
20	0xbe607838	-0.2192086
21	0x3d19d416	0.037555777
22	0x3dd2d5f7	0.10294717
23	0xbe189ba1	-0.14903118
24	0xbdf64e56	-0.1202666
25	0xbc77e9db	-0.015131439
26	0xbd32efcd	-0.043685723
27	0xbcf6175b	-0.030040434
28	0xbdc1bd00	-0.09459877
29	0xb917f092	-0.00014490102
30	0x3e04e5b2	0.12978247
31	0xbe1e8e24	-0.1548391
32	0xbe6eab69	-0.23307575
33	0x3dfe12c7	0.12405925
34	0x3d19ac44	0.0375178
35	0x3c3be31e	0.011467723
36	0x3e487ba3	0.19578414
37	0x3a384de9	0.00070306525
38	0x3e2a042b	0.16603152
39	0x3e173016	0.14764437
40	0x3e8808da	0.26569253
41	0x3e54061f	0.2070546
42	0xbe4a47ee	-0.19754001
43	0x3df0034c	0.11719379
44	0xbe1eb34d	-0.15498085
45	0xbdeff5a7	-0.11716776
46	0x3d336ddf	0.043805953
47	0xbdb645f5	-0.08900062
48	0xbd276be5	-0.04087438
49	0x3e03042e	0.12794563
50	0x3e683eb0	0.22680163
51	0x3d9cc2d3	0.07654347
52	0x3cd44e96	0.025916379
53	0xbe10c1d6	-0.14136443
54	0xbdab278a	-0.08357151
55	0x3d67530f	0.056475695
56	0x3d1fcc6a	0.039013304
57	0xbdbf2896	-0.09333913
58	0x3de526b9	0.111890264
59	0xbbffbed4	-0.007804731
60	0x3e15110c	0.14557284
61	0xbb6754e8	-0.003529841
62	0x3b257af0	0.0025250278
63	0x3d4b6c7a	0.049664
64	0xbd0d7328	-0.03453365
65	0x3c298dcf	0.010348751
66	0xbd97e335	-0.07416383
67	0xbd4b536d	-0.049640108
68	0xbcf34ea6	-0.029700588
69	0x3e2a2176	0.16614327
70	0x3cd83afe	0.026395317
71	0x3d70d337	0.05879518
72	0xbda928e8	-0.082597554
73	0x3cb5274f	0.02211347
74	0x3cfb8727	0.030704094
75	0x3e656463	0.22401576
76	0x3e3a9e21	0.18224384
77	0xbe0ced9f	-0.1376252
78	0x3e02ae7e	0.12761876
79	0xbb090a42	-0.0020910655
80	0x3d21d82d	0.039512802
81	0xbddb2ea0	-0.107022524
82	0x3e3b725b	0.18305342
83	0xbc9ffb64	-0.019529052
84	0x3dece4b8	0.11567062
85	0x3d563718	0.052298635
86	0x3dbcda29	0.09221298
87	0x3dd226a4	0.10261276
88	0xbe1a0753	-0.15041856
89	0xbcd82c57	-0.02638833
90	0xbe1627cd	-0.1466362
91	0xbe391b14	-0.18076736
92	0x3d04473e	0.032294504
93	0xbd25c214	-0.04046829
94	0xbe112b55	-0.14176686
95	0xbd88260e	-0.06647883
96	0xbdbf42cf	-0.093389146
97	0x3e0f1a9f	0.13974999
98	0xbe29506b	-0.16534583
99	0x3e131e09	0.14366926
100	0xbe0fb044	-0.14032084
101	0x3ce9050b	0.028444787
102	0x3ddb75f9	0.10715861
103	0x3d75ddae	0.060025863
104	0x3de81cd7	0.11333626
105	0xbe1ed542	-0.15511039
106	0xbe3438a3	-0.1759973
107	0x3ea724b9	0.32645205
108	0xbe077017	-0.13226353
109	0x3de960bd	0.113954045
110	0x3d00beee	0.031432085
111	0xbdc8a6a5	-0.0979741
112	0x3de5686b	0.11201557
113	0x3d2d94d9	0.04237828
114	0x3de7c3ec	0.11316666
115	0xbaad9604	-0.0013243561
116	0xbdbf8eb5	-0.09353391
117	0xbdf9b60f	-0.12192928
118	0x3c325c8b	0.010886322
119	0xbd3b9a24	-0.045801297
120	0xbe009c4a	-0.1255962
121	0xbd5af2ba	-0.05345414
122	0x3e3800e6	0.17969093
123	0x3bf15d52	0.007365861
124	0xbcd387e5	-0.025821635
125	0x3e4cc982	0.19998744
126	0xbde1e2ef	-0.11029612
127	0x3e24d37b	0.16096298
128	0x3e06bef1	0.13158776
129	0xbccf9613	-0.025340116
130	0xbe5d1473	-0.21589832
131	0x3e0d187a	0.13778868
132	0x3e46bbd9	0.19407596
133	0xbd5ec2c0	-0.054384947
134	0x3e4326ad	0.19057722
135	0x3df4e75b	0.1195819
136	0x3de67d9b	0.11254426
137	0xbde1ad0f	-0.110193364
138	0xbe08a0bc	-0.13342565
139	0xbd9a9eca	-0.07549818
140	0x3e45b6c8	0.19308007
141	0x3e08f0ed	0.13373156
142	0x3daaa690	0.083325505
143	0xbd1525e5	-0.036413092
144	0x3dad512e	0.084627494
145	0x3dbef139	0.09323353
146	0xbe40fb55	-0.18845876
147	0x3c200d87	0.00976885
148	0xbd3af659	-0.04564509
149	0xbe380ebe	-0.17974374
150	0xbd6e1c0f	-0.058132228
151	0xbd6a6b79	-0.0572314
152	0x3da6813f	0.081301205
153	0xbdfcb8a0	-0.12339902
154	0xbdc6fcd5	-0.09716193
155	0x3e6ebd23	0.23314337
156	0x3c2e062a	0.010621587
157	0x3de2bb5b	0.110708915
158	0xbd3b9288	-0.04579404
159	0xbdeb308f	-0.11483871
160	0x3d2cc309	0.042178188
161	0xbdf2ca90	-0.11855042
162	0x3d9939c3	0.0748172
163	0x3e266039	0.16247644
164	0x3e486d3e	0.19572923
165	0xbd35c0fd	-0.0443735
166	0x3d334f35	0.04377671
167	0x3e5f422e	0.2180259
168	0xbddf08a1	-0.10890318
169	0xbe42974d	-0.19003029
170	0x3e455be9	0.19273342
171	0x3e8aa924	0.2708217
172	0x3db7d11c	0.08975431
173	0xbce00c7c	-0.027349703
174	0xbe6a8253	-0.22901277
175	0x3e1f185e	0.15536639
176	0x3e74b211	0.23896052
177	0xbccc2ab8	-0.024922714
178	0xbd9be6dd	-0.07612393
179	0xbdaf8d10	-0.085718274
180	0x3e040d8c	0.12895793
181	0x3d4924ac	0.04910724
182	0xbd4831bb	-0.04887555
183	0xbe1e5253	-0.15461092
184	0xbe424dad	-0.18974943
185	0xbd032549	-0.03201798
186	0x3e396fad	0.18109007
187	0x3bcd7fb7	0.0062713283
188	0x3dbe8640	0.0930295
189	0x3d8960f4	0.067079455
190	0x3e39a318	0.18128622
191	0xbc812502	-0.015764717
192	0xbe034da5	-0.12822588
193	0x3db195db	0.08671161
194	0xbd8ffa2a	-0.07030137
195	0x3e296968	0.16544116
196	0x3d22eccb	0.039776605
197	0xbe098275	-0.13428672
198	0x3dc77c4d	0.09740505
199	0x3d33fc3a	0.043941714
200	0x3dceb6c9	0.10093457
201	0x3c5a3dd7	0.013320408
202	0x3c3dd752	0.011586981
203	0xbe18513d	-0.1487474
204	0xbe0a863c	-0.13527769
205	0x3dbfd9f1	0.09367741
206	0x3df2b1b7	0.11850303
207	0x3cb67196	0.022270959
208	0x3d349971	0.044091646
209	0xbe4ff5c6	-0.20308599
210	0xbe6cbcc2	-0.2311888
211	0x3e64fcf1	0.22362114
212	0x3da6929e	0.08133434
213	0xbe271704	-0.16317374
214	0x3e0d0f86	0.13775453
215	0xbcbf6ac2	-0.023366336
216	0x3e2063a0	0.15663004
217	0xbd0148db	-0.03156362
218	0x3debe180	0.1151762
219	0x3db80ff4	0.08987418
220	0xbd1c02a9	-0.038088474
221	0x3e674dc6	0.22588262
222	0xbd926d11	-0.07149709
223	0x3d0a0a12	0.03370101
224	0xbd6b6f27	-0.05747905
225	0xbd75631a	-0.059908964
226	0xbe82f496	-0.2557723
227	0x3e2729a0	0.16324472
228	0x3b0b7d00	0.0021284223
229	0xbe6644df	-0.2248721
230	0xbdfc9ae0	-0.123342276
231	0x39a6b490	0.00031796517
232	0x3da23ed2	0.07922138
233	0x3cf93e61	0.030425252
234	0x3da2187d	0.07914827
235	0x3e000a52	0.12503937
236	0x3b64380b	0.0034823443
237	0x3e04f1e5	0.129829
238	0x3df9acbb	0.12191149
239	0xbe3618e6	-0.17782936
240	0xbdefd22f	-0.11710011
241	0x3e297255	0.1654752
242	0xbe4ed8fd	-0.20199962
243	0x3e661fd7	0.22473083
244	0xbc4e2359	-0.01258167
245	0x3dd9078a	0.10597141
246	0x3e835cd7	0.2565677
247	0x3e1cfeb9	0.15331544
248	0x3a67cb69	0.0008842261
249	0xbc099277	-0.008396736
250	0xbe1899bc	-0.14902395
251	0xbda82721	-0.08210588
252	0xbdc8d46a	-0.0980614
253	0x3c7030eb	0.0146601
254	0xbe5e30c7	-0.21698295
255	0xbccee458	-0.025255367

lstm.bias_ih_l0 f4 [120]
0	0xbe53d7de	-0.20687816
1	0x3b85ab12	0.004079231
2	0xbc31d5cf	-0.010854199
3	0xbe283ddd	-0.16429849
4	0x3dbbd854	0.09172121
5	0xbda2bce8	-0.07946187
6	0x3d6554e9	0.05598918
7	0x3d7e23b6	0.062045775
8	0x3c933329	0.017968731
9	0x3e0f2042	0.13977149
10	0x3deaee83	0.11471274
11	0x3ddcc054	0.10778871
12	0x3e1e3f4f	0.15453838
13	0x3e146d25	0.1449476
14	0x3e1adfc3	0.15124421
15	0x3e2b8852	0.16751221
16	0xbd11614d	-0.035493184
17	0x3e017c25	0.12645014
18	0xbb71f01e	-0.0036916803
19	0x3dd12725	0.10212544
20	0xbd3630b9	-0.04448006
21	0xbd92337a	-0.071387246
22	0x3da827bd	0.082107045
23	0xbe593a27	-0.2121359
24	0x3e6989ab	0.22806422
25	0xbd732e06	-0.059370063
26	0x3e009642	0.12557319
27	0xbda51f78	-0.08062643
28	0xbdb79b06	-0.08965115
29	0x3e39d8c6	0.18149099
30	0x3e91685f	0.2839994
31	0xbb7ad34d	-0.0038272918
32	0x3df4ace5	0.119470395
33	0x3dafb308	0.085790694
34	0x3e5276ed	0.20553179
35	0xbcb11373	-0.02161572
36	0x3e33ca26	0.17557582
37	0xbda8095a	-0.08204909
38	0x3e1ae9ba	0.15128222
39	0xbc9ca207	-0.01912023
40	0x3d99bdf3	0.07506933
41	0x3e154970	0.14578795
42	0x3d8b85cc	0.06812629
43	0x3c6186b8	0.01376503
44	0x3e968a8f	0.29402587
45	0x3dfb9ba0	0.122855425
46	0x3e25c2e4	0.16187626
47	0x3ddc12ce	0.10745774
48	0xbe1fe59e	-0.15614936
49	0x3e833d73	0.2563282
50	0x3dbbe127	0.09173804
51	0x3da93e2b	0.08263811
52	0x3dc8d67b	0.09806534
53	0xbd07b9a2	-0.033136018
54	0xbe1977cc	-0.14987105
55	0x3e06f9a6	0.13181171
56	0x3e193486	0.14961442
57	0x3e77ddec	0.2420575
58	0x3e5682f3	0.2094839
59	0xbadcaba5	-0.0016835822
60	0x3df788d7	0.12086647
61	0xbb8b2e0b	-0.004247432
62	0x3dff6b3d	0.12471626
63	0x3dd76255	0.10516802
64	0x3d4342a7	0.047670987
65	0xbda66be4	-0.08126047
66	0xbe04db46	-0.12974271
67	0x3e1a6eaf	0.15081285
68	0xbe17a2e3	-0.1480823
69	0x3cf760ec	0.030197583
70	0x3bdbf848	0.006712947
71	0xbc87d32e	-0.01658019
72	0x3dd20009	0.10253913
73	0x3e0fc886	0.14041337
74	0xbdfe1e9c	-0.12408182
75	0x3c25f675	0.010129561
76	0x3d01f003	0.031723034
77	0x3ca66108	0.02030994
78	0xbd26b367	-0.040698435
79	0xbceae3e5	-0.028673122
80	0x3e1abc7d	0.15110965
81	0xbda326c7	-0.079663806
82	0xbd00388d	-0.03130393
83	0x3e0cdcd9	0.13756122
84	0x3e33448a	0.17506614
85	0x3dc8b194	0.09799495
86	0xbdabcb5e	-0.083883986
87	0x3dd36b1d	0.103231646
88	0xbe09c2e4	-0.13453251
89	0x3e096544	0.13417536
90	0x3d42b9f5	0.047540624
91	0x3d1985ab	0.03748099
92	0xbd3de0d8	-0.046357006
93	0x3d49a402	0.049228676
94	0x3e2dcc11	0.16972376
95	0xbdf32922	-0.1187308
96	0x3bc0fe86	0.0058897166
97	0x3e1c05aa	0.15236536
98	0x3e26db70	0.16294646
99	0x3de11ea9	0.10992176
100	0x3e041923	0.12900214
101	0x3a759399	0.0009368002
102	0x3e4c0ad7	0.1992601
103	0x3dbe74b6	0.092996046
104	0x3e311553	0.17293291
105	0xbcbefe2a	-0.023314554
106	0xbd43e4cd	-0.047825623
107	0xbd315def	-0.043302473
108	0x3e24a6bf	0.16079234
109	0x3dbe3e62	0.09289242
110	0xbdbb66e7	-0.091504864
111	0x3de7d2ca	0.11319502
112	0xbdb6ef89	-0.089324065
113	0x3e1b4f00	0.15166855
114	0x3c86de29	0.016463356
115	0x3def4db1	0.1168474
116	0xbd9acb05	-0.07558254
117	0xbd54debb	-0.051970225
118	0x3e3d93d5	0.18513425
119	0xbdc1c1d8	-0.09460801

lstm.bias_hh_l0 f4 [120]
0	0x3db82f2f	0.089933746
1	0x3e0b208c	0.13586634
2	0x3c2a1d71	0.010382996
3	0x3c7ef066	0.015560245
4	0x3dc740b8	0.09729141
5	0x3d418cbe	0.047253363
6	0xbd9feeee	-0.07809244
7	0x3be091a6	0.0068533
8	0xbe355631	-0.1770866
9	0xbcdb8971	-0.026798936
10	0xbd9cc082	-0.076539055
11	0x3bf48ecf	0.007463313
12	0x3ce92d5c	0.028464012
13	0xbe04e6c4	-0.12978655
14	0x3d90b83c	0.0706639
15	0xbdb50455	-0.08838717
16	0xbda2e34a	-0.07953508
17	0xba8e7afa	-0.001087039
18	0x3dec1b51	0.11528648
19	0xbd1c48b0	-0.038155258
20	0x3d7ab5c4	0.0612085
21	0x3e2c3216	0.16815981
22	0xbe2abfbf	-0.16674708
23	0x3d923b8b	0.07140263
24	0x3cf24138	0.029572114
25	0xbe2588a1	-0.16165401
26	0xbe3559dd	-0.17710061
27	0xbdd0ba74	-0.10191813
28	0x3d354111	0.044251505
29	0x3d08fc65	0.033443827
30	0x3de633b7	0.112403326
31	0x3ddee09c	0.108826846
32	0xbd61a1dd	-0.055086005
33	0xbd29fc52	-0.041500397
34	0x3e005ec6	0.12536153
35	0xbe0ec6c5	-0.13943012
36	0x3ced48cf	0.028965382
37	0x3df02649	0.11726052
38	0x3e4400e4	0.19140965
39	0x3e99aa17	0.3001258
40	0x3d2ac798	0.041694254
41	0xbd74f9e7	-0.059808638
42	0x3e3f5e37	0.18688284
43	0x3def86dc	0.11695644
44	0x3e4e1366	0.20124587
45	0xbd69cef5	-0.057082135
46	0x3a382af2	0.00070254423
47	0xbc6e44c0	-0.014542758
48	0x3d7432d3	0.059618782
49	0xbcd4f089	-0.025993602
50	0x3d8a7986	0.0676146
51	0x3e35e5d6	0.17763457
52	0x3e02b051	0.12762572
53	0xbd4df469	-0.050281916
54	0x3dcb83e4	0.099372655
55	0x3e3cb088	0.18426716
56	0xbd88face	-0.06688462
57	0x3dae21e3	0.08502557
58	0xbdd2b87d	-0.102890946
59	0xbd862a58	-0.06551045
60	0x3e04ccbc	0.12968725
61	0x3e25e389	0.16200079
62	0x3d8dbaf3	0.06920423
63	0x3d938ef0	0.072049975
64	0x3dae866c	0.08521733
65	0x3dec1ace	0.1152855
66	0xbdd96e4d	-0.10616741
67	0xbe0c86ef	-0.13723348
68	0xbd164320	-0.03668511
69	0xbd7c90da	-0.06166158
70	0x3c2e06b0	0.010621712
71	0x3b98d27a	0.0046637626
72	0x3e1663e7	0.14686547
73	0x3c6cfc57	0.014464459
74	0x3e0292ca	0.12751308
75	0x3d8990aa	0.067170456
76	0x3dbf6439	0.09345288
77	0xbddba7c9	-0.10725362
78	0xbdd66c8d	-0.10469923
79	0x3ddcc8bc	0.107804745
80	0xbadbd463	-0.001677167
81	0xbd5aa1ee	-0.053377084
82	0x3e0e60d5	0.13904126
83	0xbe1ce619	-0.1532215
84	0xbd31a35c	-0.043368682
85	0x3ca4b2f2	0.020104859
86	0xbda5b46b	-0.080910526
87	0x3df45c5e	0.1193168
88	0xbdb1017b	-0.086428605
89	0x3d8d0de1	0.06887413
90	0x3e69754e	0.22798654
91	0x3e5d5873	0.21615772
92	0x3e0fd51c	0.14046139
93	0x3d7ccc42	0.061718233
94	0x3da1bb3a	0.07897039
95	0x3cdcff6b	0.026977262
96	0xbe01f560	-0.1269126
97	0x3dd3cb21	0.10341478
98	0x3dd9d5eb	0.10636505
99	0x3e57d6d0	0.21078038
100	0xbce5dd0f	-0.02805951
101	0xbd83ee7e	-0.06441973
102	0x3e3907d5	0.18069394
103	0xbd6a6c37	-0.057232108
104	0xbc6a5650	-0.014302805
105	0xbd63ac32	-0.05558414
106	0x3d541bb9	0.05178425
107	0x3d5fbb62	0.05462206
108	0x3de90fae	0.11379944
109	0x3e415b7a	0.18882552
110	0xbd876c7c	-0.066124886
111	0x3e431916	0.19052538
112	0xbbda3f7b	-0.0066603995
113	0xbc0d3f4e	-0.00862105
114	0x3dd1ca82	0.102437034
115	0xbdcbf50f	-0.099588506
116	0x3c976512	0.018480811
117	0xbcae31ef	-0.021264045
118	0x3d8d8479	0.06910033
119	0x3da45fd9	0.08026094

lstm.weight_ih_l0_reverse f4 [120, 15]
0	0xbde3b056	-0.11117618
1	0xbdb3cb2c	-0.08778986
2	0xbd630bbc	-0.055431113
3	0x3e2feff1	0.17181374
4	0xbdb40365	-0.0878971
5	0x3aa356b0	0.0012461748
6	0xbde7cc73	-0.113182925
7	0xbd7234ea	-0.059132494
8	0x3df1e807	0.11811834
9	0x3e0e189a	0.13876572
10	0x3e5e6093	0.21716528
11	0xbe2aa9ec	-0.16666383
12	0x3d6fe2c4	0.05856587
13	0xbd3cebdf	-0.04612338
14	0x3c99efc2	0.018791083
15	0xbd633f50	-0.0554803
16	0x3e15f3cb	0.14643781
17	0xbd069809	-0.032859836
18	0x3d5d4b3b	0.054026823
19	0xbe527a84	-0.20554549
20	0x3d2d047b	0.0422406
21	0xbe1c730d	-0.15278263
22	0x3d400c0b	0.046886485
23	0x3d62ddaf	0.055387195
24	0x3d24bb02	0.040217407
25	0x3e230488	0.15919697
26	0x3cf439bd	0.029812688
27	0xbe1846c8	-0.14870751
28	0x3da6d6aa	0.08146413
29	0xbdf2322a	-0.11825974
30	0xbe1e5073	-0.15460376
31	0xbdec7fd2	-0.11547817
32	0xbe1c3614	-0.15255004
33	0xbe4eaf10	-0.20183969
34	0x3c275b97	0.010214708
35	0xbca78b15	-0.020452062
36	0x3c925239	0.017861472
37	0x3dd29a73	0.10283365
38	0x3e2cebb3	0.16886787
39	0xbdbb4a00	-0.09144974
40	0xbe0cac28	-0.13737547
41	0x3dc5f5c8	0.0966602
42	0xbcd20049	-0.025634902
43	0x3bbf607a	0.0058403583
44	0xbe044a2e	-0.12918922
45	0xbcb19d07	-0.021681322
46	0xbe4363ca	-0.19081035
47	0xbe0ea7c2	-0.13931182
48	0xbd892cd4	-0.066980034
49	0xbcfca037	-0.030838115
50	0x3da9af54	0.08285394
51	0xbc2a47cf	-0.010393097
52	0x3da8b2c0	0.08237219
53	0x3e2987be	0.16555688
54	0x3e0ecc10	0.13945031
55	0x3dd389b9	0.10329003
56	0xbd138d7c	-0.036023602
57	0x3e24dc2e	0.16099617
58	0xbc30b362	-0.010784956
59	0x3e012871	0.12613083
60	0x3cb22699	0.02174692
61	0xbdf06237	-0.11737483
62	0xbe0a6197	-0.1351379
63	0xbd0dfc5d	-0.0346645
64	0xbdea5f02	-0.114439026
65	0x3db25e41	0.08709384
66	0xbe2a6a8d	-0.16642208
67	0xbd8f4567	-0.06995659
68	0x3d527e09	0.051389728
69	0xbc23d574	-0.009999622
70	0x3de49619	0.11161441
71	0x3d881704	0.06645015
72	0xbe532959	-0.20621242
73	0xbdaa5ba4	-0.0831826
74	0x3dcea5ee	0.10090242
75	0xbe496bf3	-0.19670086
76	0x3de1b5ca	0.11021002
77	0xbd6882bb	-0.0567653
78	0x3e3a2111	0.18176676
79	0xbda8a732	-0.08235015
80	0x3d88a56c	0.06672177
81	0x3d38b598	0.045095056
82	0x3dbe08cc	0.092790216
83	0xbcd28ec9	-0.02570285
84	0x3e0fb783	0.14034848
85	0xbca0cfdf	-0.01963037
86	0xbd939622	-0.0720637
87	0x3dc9b671	0.09849251
88	0x3d78a252	0.060701676
89	0xbe4a8db0	-0.19780612
90	0x3def054c	0.11670932
91	0x3db628e4	0.08894518
92	0x3d99381e	0.07481407
93	0x3d9132a6	0.070897385
94	0x3e8fe3fc	0.28103626
95	0x3d97839c	0.07398149
96	0xbcfd1fd2	-0.030898962
97	0xbd05f5fe	-0.0327053
98	0xbd6a2500	-0.057164192
99	0xbd64aa08	-0.055826217
100	0xbe2cda82	-0.16880229
101	0xbe3767ba	-0.17910662
102	0xbda1df9d	-0.07903979
103	0xbe225a18	-0.1585468
104	0x3de45c41	0.111504085
105	0x3d84234e	0.06452046
106	0x3d924468	0.07141954
107	0x3e1c0e34	0.15239793
108	0x3e030b7a	0.12797347
109	0xbe19170b	-0.14950196
110	0x3dc1b4ce	0.09458314
111	0xbe1bc110	-0.15210366
112	0xbe3394f1	-0.17537285
113	0x3dcecb7c	0.10097405
114	0x3db4f58b	0.08835896
115	0xba9de711	-0.0012047013
116	0x3e23b661	0.15987541
117	0xbc6bde99	-0.014396333
118	0x3c65bfc2	0.014022769
119	0x3d33c74c	0.043891236
120	0x3e39a3c3	0.18128876
121	0x3d39ef81	0.045394424
122	0xbd5a34a5	-0.053272862
123	0x3d6d5bcf	0.057948884
124	0xbe06210d	-0.13098545
125	0x3add1b91	0.0016869177
126	0x3daa7ad6	0.0832421
127	0xbe470a02	-0.19437411
128	0x3dd2383c	0.10264632
129	0x3d30504e	0.043045335
130	0x3d517f1b	0.051146608
131	0xbe2859af	-0.16440462
132	0x3de56a1f	0.112018816
133	0x3e1b279f	0.15151833
134	0x3dcaa96e	0.098955974
135	0x3c84069a	0.01611643
136	0xbd8b2bb2	-0.067954436
137	0x3e1d98cc	0.15390319
138	0x3e1397bf	0.14413355
139	0x3e1d7fce	0.15380785
140	0x3db695a0	0.089152575
141	0xbc22e855	-0.009943088
142	0x3e1c5e5b	0.15270369
143	0x3d61f7a8	0.055167824
144	0xbd2af462	-0.041736968
145	0xbdeef4c4	-0.11667779
146	0xbe58180b	-0.21102922
147	0x3d2fe0b9	0.04293892
148	0x3dbc7925	0.09202794
149	0x3be4b1f2	0.0069792205
150	0x3e4036c7	0.18770896
151	0x3e23988f	0.15976165
152	0x3c974052	0.018463288
153	0x3e116e0f	0.1420214
154	0x3cc93f04	0.024566181
155	0x3d196a46	0.037454866
156	0x3db65ce1	0.08904434
157	0x3c431b59	0.011908376
158	0xbe331f6e	-0.17492458
159	0x3e1d75f9	0.15377034
160	0x3e0962eb	0.1341664
161	0x3c8c7eab	0.017150244
162	0x3d04ccf6	0.03242203
163	0x3e0f9f1d	0.1402554
164	0x3de8e416	0.11371629
165	0x3ab52620	0.0013820566
166	0x3dbba210	0.0916177
167	0xbd618916	-0.055062376
168	0xbd34caef	-0.044138845
169	0x3bdcecfa	0.006742117
170	0xbe72bf58	-0.23705804
171	0x3de53f50	0.111937165
172	0x3db08105	0.086183585
173	0x3e2e5f58	0.17028558
174	0x3dd387f0	0.103286624
175	0xbe36b1a5	-0.17841204
176	0x3e404abc	0.18778509
177	0x3d4d3ede	0.050108783
178	0xbc876dec	-0.016531907
179	0x3d83e424	0.06439999
180	0x3d6ec5ba	0.058294035
181	0x3d264114	0.040589407
182	0x3e0dd245	0.13849743
183	0xbe107ce5	-0.14110143
184	0xbdb45447	-0.08805137
185	0x3ddcc9c0	0.10780668
186	0x3b866576	0.0041014506
187	0x3bc0a18e	0.005878634
188	0x3c8962a8	0.016770676
189	0x3df2d429	0.118568726
190	0x3d0e4efc	0.034743294
191	0x3b0c81d0	0.002143968
192	0x3e44c1bb	0.19214527
193	0xbd96b8af	-0.07359444
194	0x3b88117c	0.004152475
195	0x3d7a6a47	0.06113651
196	0x3dd8ced9	0.10586328
197	0x3d60e58b	0.05490641
198	0x3e090293	0.13379888
199	0x3d5de1cd	0.05417042
200	0xbdf08e8e	-0.1174594
201	0xbda39980	-0.07988262
202	0xbdc03dff	-0.09386825
203	0x3cc2cef1	0.023780318
204	0xbe040e8f	-0.12896179
205	0xbde14a05	-0.11000446
206	0x3e0b2752	0.13589218
207	0x3da533ce	0.080665216
208	0x3c857bbf	0.016294358
209	0x3e39d704	0.18148428
210	0xbd9c5dcf	-0.0763508
211	0xbe19d0e8	-0.15021098
212	0xbe5da5e5	-0.21645315
213	0xbe4e5a3e	-0.20151612
214	0xbbd5f372	-0.006529265
215	0x3e3f5780	0.18685722
216	0xbe13ae9b	-0.14422075
217	0x3e57b021	0.21063282
218	0xbe257abd	-0.16160102
219	0xbba01cfa	-0.004886267
220	0xbdbbebe6	-0.091758534
221	0x3dc999db	0.09843799
222	0xbde4ee09	-0.11178214
223	0xbe083ce0	-0.13304472
224	0xbdaaf53b	-0.08347555
225	0x3dab9f15	0.08379952
226	0xbda1e2e7	-0.07904606
227	0xbe22a4b4	-0.15883142
228	0x3e0b4d8e	0.13603804
229	0xbd151c29	-0.03640381
230	0x3de24fa8	0.110503495
231	0x3c9abd56	0.01888911
232	0xbd33dd37	-0.04391214
233	0xbddaad40	-0.10677576
234	0x3e31974d	0.17342873
235	0xbdb950ac	-0.0904859
236	0x3e04ff2e	0.12987968
237	0x3da022e3	0.07819154
238	0xbdf071d0	-0.11740458
239	0xbe0e3323	-0.13886695
240	0xbd85ed02	-0.06539346
241	0xbd9c2baf	-0.076255195
242	0xbdf65c82	-0.12029363
243	0x3d42c653	0.047552418
244	0xbd9403f9	-0.0722732
245	0x3e2f9713	0.17147474
246	0x3e12c177	0.14331613
247	0xbe0d0bff	-0.13774107
248	0xbca1ce34	-0.019751646
249	0x3d966712	0.07343878
250	0xbdbef47a	-0.09323974
251	0x3e928f77	0.2862508
252	0xbe0e82f9	-0.1391715
253	0x3c6fb202	0.014629843
254	0xbe13074a	-0.1435825
255	0xbd81c6d7	-0.06336754

lstm.weight_hh_l0_reverse f4 [120, 30]
0	0xbca88ded	-0.020575488
1	0xbe017c6b	-0.12645118
2	0x3cac7a8c	0.021054529
3	0x3dda5d55	0.10662333
4	0xbd08c900	-0.033394814
5	0xbc895f2f	-0.01676902
6	0x3d99165a	0.07474966
7	0xbc09ebf8	-0.008418076
8	0xbda294f2	-0.07938565
9	0x3ba367f5	0.004986758
10	0x3e2b112a	0.16705766
11	0x3e0062fb	0.12537758
12	0xbe4e8245	-0.20166881
13	0xbdd4f0c1	-0.10397483
14	0xbe4076a8	-0.18795264
15	0xbdd2f4dd	-0.1030061
16	0xbd6d9ef0	-0.058012903
17	0x3d84db05	0.06487087
18	0xbc58689e	-0.013208536
19	0x3e47e99a	0.19522706
20	0x3ca052cc	0.01957073
21	0x3d197dd7	0.037473526
22	0x3d358bff	0.044322964
23	0x3d31f5fb	0.043447476
24	0x3d878419	0.066169925
25	0xbbc75e9e	-0.0060842773
26	0xbddb9248	-0.1072126
27	0xbdd710bb	-0.10501238
28	0xbda06eed	-0.078336574
29	0xbe3b1079	-0.18268003
30	0x3dc73923	0.09727695
31	0xbc395fbe	-0.011314331
32	0xbdb0db4a	-0.08635576
33	0x3d1408d6	0.03614124
34	0x3dd799d2	0.10527386
35	0xbe097cd9	-0.13426532
36	0xbda67e40	-0.08129549
37	0xbd4bf9b8	-0.049798697
38	0xbe05dab7	-0.13071714
39	0x3b82df60	0.0039939135
40	0x3e0d903e	0.13824555
41	0x3d9ee674	0.07758799
42	0x3e6346c4	0.22194964
43	0x3d45bf14	0.04827793
44	0x3e40edb2	0.18840674
45	0x3c3ad8ba	0.011404211
46	0xbe08e548	-0.13368714
47	0x3c3fe073	0.011711228
48	0xbdbc5df2	-0.09197606
49	0xbe2639e2	-0.16233018
50	0xbda23b8f	-0.07921516
51	0xbe1dd3bb	-0.154128
52	0x3e226652	0.15859345
53	0xbce3638b	-0.027757427
54	0x3c96d1d0	0.018410593
55	0xbd9c4efe	-0.07632254
56	0x3d82f61c	0.06394598
57	0x3e233dc5	0.15941532
58	0x3e4359f4	0.19077283
59	0x3d4ca08c	0.049957797
60	0x3e5bbd94	0.21459037
61	0x3dc5fdc7	0.09667545
62	0xb8e909a9	-0.00011112105
63	0x3d8edef6	0.0697612
64	0x3d62089c	0.05518399
65	0xbd9bbec6	-0.076047465
66	0xbe1ac659	-0.15114726
67	0x3d428498	0.047489733
68	0x3e01d203	0.1267777
69	0xbe8ebf8b	-0.2788051
70	0x3e89f1e4	0.2694236
71	0x3dbd9f28	0.09258872
72	0xbe25022b	-0.16114108
73	0xbe0f6f2a	-0.1400725
74	0xbe472217	-0.19446598
75	0xbdbac351	-0.09119285
76	0x3d401d6b	0.046903055
77	0x3d9c6e0e	0.07638179
78	0x3d9688f5	0.07350341
79	0xbe531319	-0.20612754
80	0x3ceb70b7	0.02874027
81	0x3de8bf25	0.11364583
82	0xbe39b828	-0.18136656
83	0x3e2cdb7c	0.16880602
84	0x3e400f0a	0.18755737
85	0x3e79d191	0.2439635
86	0xbea0a8ba	-0.31378728
87	0x3e0569ec	0.13028687
88	0x3e570b5a	0.21000424
89	0x3d055fcc	0.032562062
90	0xbe353186	-0.17694673
91	0x3e693477	0.2277392
92	0x3e16593a	0.14682475
93	0xbb3703be	-0.0027925815
94	0x3d98fb17	0.074697666
95	0x3e1c8b6c	0.1528756
96	0x3c492d36	0.0122788455
97	0xbdae17b6	-0.08500616
98	0x3dae2744	0.08503583
99	0x3e58e8fd	0.21182628
100	0x3d1a5a90	0.037684023
101	0xbd39e908	-0.04538825
102	0x3d82f8c5	0.06395105
103	0x3dbe6045	0.09295706
104	0x39e1a85d	0.00043040785
105	0x3dfaea50	0.12251723
106	0x3d553fa5	0.05206265
107	0x3c9baf48	0.019004479
108	0x3d40f3e4	0.047107592
109	0xbd1d6283	-0.038424026
110	0xbd8ab30d	-0.067724325
111	0xbdbf8102	-0.09350778
112	0xbd064137	-0.032777037
113	0xbdde1524	-0.10843876
114	0x3e1626e6	0.14663276
115	0xbe106e7a	-0.14104643
116	0xbdb2b621	-0.087261446
117	0xbd973b42	-0.073843494
118	0xbe1fbfb9	-0.1560048
119	0xbe19a05d	-0.1500258
120	0xbe15993e	-0.14609239
121	0x3e06d607	0.13167582
122	0x3dc2f865	0.09520034
123	0x3d967d12	0.07348074
124	0xbdbbae11	-0.0916406
125	0xbdeb4f8f	-0.11489784
126	0xbddefc27	-0.10887938
127	0x3e2eabea	0.17057768
128	0xbce6be91	-0.028167041
129	0x3dfa4612	0.12220396
130	0xbdf39db5	-0.118953146
131	0x3d599244	0.053118005
132	0x3dbe04b3	0.0927824
133	0x3e465805	0.19369514
134	0x3de4b6fb	0.11167713
135	0x3d5444c6	0.0518234
136	0xbd9286ab	-0.07154592
137	0xbe00e3ec	-0.12586945
138	0xbcd533be	-0.02602565
139	0xbe626b1c	-0.22111171
140	0xbd92273e	-0.07136391
141	0x3e1e43d9	0.1545557
142	0xbe14b10d	-0.14520665
143	0x3e072b7b	0.1320018
144	0x3e02c8a5	0.12771852
145	0x3db9980c	0.09062204
146	0x3cc31089	0.023811596
147	0x3dab9171	0.0837735
148	0xbe5d083f	-0.21585177
149	0x3d6fa68f	0.058508452
150	0xbe059a15	-0.13047059
151	0xbd130a39	-0.03589842
152	0xbc932561	-0.01796216
153	0x3e09956c	0.13435906
154	0xbdb0c473	-0.0863122
155	0x3e4b1f7a	0.19836226
156	0x3d16733b	0.036730986
157	0xbd61d9cb	-0.055139344
158	0xbcd42804	-0.025897987
159	0x3de46c52	0.11153473
160	0xbdf9e1dd	-0.12201283
161	0x3e2df844	0.16989237
162	0xbe0065b3	-0.12538795
163	0xbde29c7c	-0.11065003
164	0xbdd2686c	-0.10273823
165	0xbe26db90	-0.16294694
166	0x3e8d593d	0.27607146
167	0x3e18c116	0.14917406
168	0x3e223f8a	0.1584455
169	0xbd88694f	-0.06660711
170	0xbe3fc664	-0.18728024
171	0xbbf941f5	-0.0076067396
172	0x3e505d19	0.20348014
173	0x3dcfd7ae	0.101485595
174	0x3e47fd7d	0.19530292
175	0xbe21f5fa	-0.15816489
176	0x3dc1e7f5	0.094680704
177	0x3d067542	0.03282667
178	0x3e20afab	0.15692012
179	0xbe6b72a2	-0.22992948
180	0xbdf6aa96	-0.120442554
181	0x3dc2e71e	0.09516738
182	0x3e384847	0.17996322
183	0x3d45ce3d	0.048292387
184	0xbe72d73a	-0.23714915
185	0x3dc649ed	0.09682069
186	0x3e65b0a7	0.22430669
187	0xbe67f927	-0.22653638
188	0x3da68307	0.0813046
189	0x3e2185b3	0.15773658
190	0xbe518043	-0.20459084
191	0x3d5a3ee3	0.05328263
192	0x3db460c8	0.08807522
193	0x3e4306dc	0.19045585
194	0xbe82d057	-0.25549576
195	0xbd97e833	-0.07417335
196	0x3dd31957	0.103075676
197	0x3c6495d5	0.013951738
198	0x3e1bd52f	0.15218042
199	0x3c852605	0.01625348
200	0xbdb56c32	-0.08858527
201	0x3cd69ed0	0.026198775
202	0xbbcec773	-0.0063103973
203	0x3d47160f	0.04860502
204	0x3e2d7379	0.1693858
205	0x3e2a2414	0.16615325
206	0xbdafc301	-0.08582116
207	0xbe06a206	-0.13147745
208	0x3d7b38a2	0.061333306
209	0x3d329464	0.043598548
210	0xbe1b9ef2	-0.15197352
211	0x3e773761	0.24142219
212	0xbe101e40	-0.1407404
213	0x3e477864	0.19479519
214	0xbe146477	-0.1449145
215	0xbde934f3	-0.113870524
216	0x3ddd8259	0.108158775
217	0xbdf5647c	-0.119820565
218	0x3dac8df2	0.084255114
219	0x3deb9ab0	0.11504114
220	0xbe16dac7	-0.14731894
221	0x3d9a25d9	0.0752675
222	0x3df4779a	0.11936875
223	0x3e16ac75	0.14714225
224	0xbd318aa6	-0.043345116
225	0xbd70b2a4	-0.058764115
226	0x3e54eaa5	0.20792635
227	0x3e4409e6	0.19144401
228	0xbdaabde5	-0.08337001
229	0xbe14beb6	-0.14525875
230	0xbd263d6b	-0.040585916
231	0xbe136ea7	-0.1439768
232	0xbd938f39	-0.07205052
233	0xbe001d88	-0.12511265
234	0xbb43367a	-0.002978711
235	0x3d505536	0.050862513
236	0xbdbcc3a4	-0.09217003
237	0x3e25fbcc	0.16209334
238	0xbe246a0c	-0.16056079
239	0xbd546d39	-0.051861975
240	0xbdca460c	-0.09876642
241	0x3cf0ee0a	0.02941038
242	0x3dce3ea4	0.100705415
243	0xbe0c211a	-0.13684502
244	0xbdf6de76	-0.1205415
245	0x3bbfbf44	0.005851658
246	0xbdcbc5a8	-0.09949809
247	0xbe391574	-0.1807459
248	0xbe5d0b73	-0.21586399
249	0x3d93e867	0.072220616
250	0x3d26eb25	0.040751595
251	0xbdd5f319	-0.10446758
252	0x3e15eb72	0.14640597
253	0xbe1d699f	-0.15372322
254	0xbe25382e	-0.16134712
255	0xbdcc285f	-0.09968638

lstm.bias_ih_l0_reverse f4 [120]
0	0x3caf760e	0.021418598
1	0x3d221bb1	0.03957719
2	0xbd07f429	-0.033191834
3	0x3e50519f	0.20343636
4	0x3d80abea	0.0628279
5	0x3d48ed74	0.049054578
6	0xbe035e20	-0.12828875
7	0xbdf32b3d	-0.118734814
8	0xbdcc9c35	-0.099907316
9	0xbdca7aca	-0.098867014
10	0x3cf656cb	0.030070683
11	0x3d6241ea	0.05523864
12	0x3de67d88	0.11254412
13	0x3e03d09d	0.12872548
14	0xbdb84cc6	-0.08999018
15	0x3d32eaf1	0.04368109
16	0x3ca79e11	0.020461114
17	0x3dd71dd3	0.105037354
18	0xbdb691c9	-0.08914525
19	0x3cb743f7	0.022371275
20	0x3e39e635	0.18154223
21	0x3db4c9a1	0.0882752
22	0x3e09cfad	0.13458128
23	0xbe346f65	-0.17620619
24	0x3d80246e	0.062569484
25	0x3e3412fe	0.1758537
26	0x3d160808	0.036628753
27	0x3ce278f1	0.02764556
28	0x3da7ff9a	0.08203049
29	0xbcb6c045	-0.022308478
30	0x3d201c56	0.039089523
31	0x3d7b826f	0.061403688
32	0x3e25a0f5	0.16174681
33	0xbde64b0a	-0.11244781
34	0x3db63401	0.08896638
35	0x3e82f857	0.25580093
36	0x3e426886	0.18985185
37	0x3cc78bc5	0.02435864
38	0xbc09d55b	-0.008412684
39	0xbcc38d12	-0.023870979
40	0x3e39baa9	0.18137611
41	0x3dc61755	0.09672419
42	0x3e276928	0.16348708
43	0xbd1415d9	-0.036153648
44	0xbdcf35e5	-0.101177014
45	0x3cda269d	0.02662974
46	0x3e6a68d9	0.22891559
47	0xbd646764	-0.055762663
48	0x3dabada6	0.0838273
49	0x3e16f9ba	0.147437
50	0xbdfb017d	-0.12256143
51	0x3be7ae99	0.007070374
52	0x3de5f022	0.11227442
53	0xbcaecd05	-0.021337995
54	0xbd32750a	-0.04356865
55	0x3e0799c2	0.13242248
56	0x3d951189	0.07278735
57	0x3e12025a	0.1425871
58	0x3c0d912c	0.008640569
59	0x3df04f24	0.11733845
60	0xbd510e29	-0.051038895
61	0xbe288b4a	-0.16459385
62	0x3e07a08a	0.13244835
63	0x3d03a7b5	0.03214236
64	0xbdb8b576	-0.09018986
65	0x3e26a775	0.16274817
66	0xbc0d0341	-0.008606733
67	0xbe356fcd	-0.1771843
68	0xbd142c44	-0.036175027
69	0xbb175fd2	-0.0023097885
70	0x3cbe8358	0.023255989
71	0x3d856114	0.06512657
72	0xbd7e2b17	-0.062052812
73	0x3b39ce31	0.002835166
74	0xbde2f9b4	-0.11082783
75	0xbcb138cc	-0.021633528
76	0x3e38ee97	0.18059765
77	0x3df5c17c	0.11999795
78	0xbd5b372f	-0.053519424
79	0x3d49e578	0.049291104
80	0x3c21a011	0.009864823
81	0xbe1a24f9	-0.15053166
82	0xbd441440	-0.047870874
83	0xbd7e9361	-0.06215227
84	0xbd6b58d9	-0.05745778
85	0xbcdaa659	-0.026690649
86	0xbd5337a6	-0.051566742
87	0x3e057ecf	0.13036655
88	0x3bd85575	0.006601984
89	0xbd41c990	-0.047311366
90	0xbd978dc3	-0.07400086
91	0x3e0006d7	0.12502609
92	0x3d867ea1	0.06567121
93	0x3d92e2e4	0.07172182
94	0xbc905fb6	-0.017623764
95	0x3bc5e414	0.006039152
96	0xbde600f0	-0.112306476
97	0x3e276250	0.16346097
98	0xbce83319	-0.028344678
99	0x3dcebc94	0.10094562
100	0x3e24438a	0.16041389
101	0xbdd033d4	-0.101661354
102	0xbcfe1137	-0.031014068
103	0xbdccc2e6	-0.099981114
104	0x3dff0c9d	0.12453578
105	0xbd84c72a	-0.064833
106	0x3e8081a3	0.25098905
107	0x3e60c0bf	0.21948527
108	0x3e2aafe9	0.16668667
109	0x3dc23f83	0.0948477
110	0x3e567283	0.2094212
111	0xbd5ca729	-0.053870354
112	0x3e545752	0.20736435
113	0xbe00e00c	-0.12585467
114	0x3e01ba7b	0.12668793
115	0xbd4f4f0c	-0.050612494
116	0xbe0909df	-0.13382672
117	0x3e250571	0.16115357
118	0xbb5d90cd	-0.0033808232
119	0xbcbb4d64	-0.022864051

lstm.bias_hh_l0_reverse f4 [120]
0	0x3cb7bdcb	0.022429368
1	0xbd3e5195	-0.04646452
2	0xbde5c73f	-0.11219644
3	0xbd950afa	-0.07277484
4	0x3e2c3d6e	0.16820309
5	0x3e3f280c	0.1866762
6	0xbca9e25f	-0.020737825
7	0x3d967f59	0.073485084
8	0x3e11ee57	0.14251076
9	0x3e160c55	0.14653142
10	0xbd00ecc4	-0.031475797
11	0x3d93c96a	0.07216151
12	0x3e0d8960	0.13821936
13	0xbd22dc09	-0.039760623
14	0xbd4bb990	-0.049737513
15	0x3e2db31a	0.16962853
16	0x3d500553	0.050786328
17	0x3e120185	0.14258392
18	0x3c7c5b39	0.015402609
19	0xbd17e2b0	-0.03708142
20	0xbc41cccd	-0.0118286135
21	0xbd6e02e5	-0.05810823
22	0x3dcb3dfe	0.099239334
23	0x3d687787	0.056754615
24	0x3d8a0b75	0.067404665
25	0x3e4cb740	0.1999178
26	0xbe300e76	-0.17193016
27	0xbe176792	-0.14785603
28	0xbc09e38b	-0.008416067
29	0xbe30bf77	-0.17260538
30	0x3d2c71de	0.04210078
31	0xbcc63a81	-0.024197819
32	0xbe05c09d	-0.13061757
33	0x3d9a3849	0.07530267
34	0x3d9ce240	0.07660341
35	0x3da9fc5c	0.08300087
36	0x3e16b540	0.14717579
37	0x3d5906af	0.05298489
38	0x3e6964ff	0.22792433
39	0xbd642641	-0.055700544
40	0x3d809e64	0.062802106
41	0x3ccce310	0.025010616
42	0xbe11f723	-0.14254431
43	0xbde8aee7	-0.11361485
44	0x3db5fbe0	0.08885932
45	0x3dc0eeea	0.09420569
46	0x3e85de7b	0.26146302
47	0x3e6b4946	0.2297717
48	0x3db74960	0.08949542
49	0x3c90fedb	0.01769965
50	0x3e759a72	0.23984697
51	0x3da0778a	0.078353
52	0x3e4be254	0.19910556
53	0x3e30def6	0.17272553
54	0x3e07bea0	0.13256311
55	0x3cbbd85a	0.022930313
56	0xbc70a32f	-0.0146873435
57	0xbe0878d6	-0.13327345
58	0x3e4385ae	0.19093964
59	0x3db4c484	0.08826545
60	0x3e06dafe	0.13169476
61	0x3e12197c	0.14267534
62	0x3b3eb551	0.0029099772
63	0xbe2823bd	-0.16419883
64	0xbd9bf64c	-0.07615337
65	0xbdbc7ed9	-0.09203882
66	0x3caf9e34	0.021437742
67	0x3c8a380c	0.016872428
68	0xbbdc239d	-0.0067181126
69	0x3d800fd0	0.06253016
70	0xb95491cc	-0.00020272209
71	0xbd2990d9	-0.041397903
72	0xbde18eac	-0.110135406
73	0xbd2fc354	-0.04291089
74	0xbe2545ed	-0.16139956
75	0x3e1f6cfb	0.15568916
76	0xbddb45c9	-0.1070667
77	0xbd9120c9	-0.070863314
78	0x3e0c75a9	0.13716759
79	0x3d65d475	0.056110818
80	0xbdc3c272	-0.09558572
81	0x3e1562b9	0.14588441
82	0x3e026667	0.12734376
83	0x3dddfbf0	0.10839069
84	0x3d5a6dbe	0.053327315
85	0x3dd15ce9	0.10222799
86	0xbd4c769d	-0.049917806
87	0xbd3821d0	-0.04495412
88	0x3dec95ea	0.11552031
89	0xbd5f2473	-0.05447812
90	0xbdc23f9b	-0.09484788
91	0x3e48e214	0.19617492
92	0x3e0de9da	0.13858739
93	0x3e247ae4	0.16062504
94	0xbe0b94ce	-0.13630983
95	0x3c15f870	0.00915347
96	0x3d8a937a	0.0676641
97	0x3d8154f8	0.06315035
98	0x3e0ab159	0.13544215
99	0xbdb50b94	-0.08840099
100	0x3e025c6f	0.12730573
101	0xbe0b8273	-0.13623981
102	0xbe0133d7	-0.12617432
103	0xbd8e5406	-0.0694962
104	0xbd9d0188	-0.07666308
105	0xbda620a4	-0.081116945
106	0x3e6ea1fa	0.23303977
107	0x3db0cb2a	0.086325005
108	0xbd6ab396	-0.057300173
109	0xbd90e3cb	-0.07074698
110	0xbdc8450d	-0.097787954
111	0x3c810f87	0.015754474
112	0x3dcef6d5	0.10105673
113	0xbdf52b28	-0.11971122
114	0x3d4961bf	0.049165484
115	0x3e462bb1	0.19352604
116	0x3e259935	0.16171725
117	0x3e2e3512	0.17012432
118	0xbd25678c	-0.040381953
119	0x3cb7f366	0.022454929

lstm.weight_ih_l1 f4 [120, 60]
0	0x3cf6c97f	0.030125378
1	0x3e10dfec	0.1414792
2	0x3daa90cf	0.08328401
3	0x3dd397e7	0.103317074
4	0x3dc3c8ed	0.09559808
5	0xbc995b4b	-0.01872029
6	0xbe2eda99	-0.17075576
7	0xbd2c7098	-0.042099565
8	0x3e2c4909	0.16824736
9	0xbddaffbd	-0.106933095
10	0x3daa0379	0.083014436
11	0x3e80361f	0.2504129
12	0xbc0e5314	-0.0086868
13	0xbd789792	-0.060691424
14	0xbcc3c3b8	-0.023897037
15	0xbdceef6d	-0.101042606
16	0x3e2d78c8	0.16940606
17	0x3db7f63b	0.089825116
18	0xbdeb7cde	-0.11498426
19	0x3e231901	0.15927507
20	0xbe262d22	-0.16228154
21	0xbd8eadc3	-0.06966736
22	0xbc84b740	-0.016200662
23	0xbdefa4bc	-0.117013425
24	0xbe3a8357	-0.18214165
25	0x3b8c1861	0.004275367
26	0xbe235b7d	-0.15952869
27	0xbd2acaa0	-0.041697145
28	0x3d055638	0.032552928
29	0x3d1d6921	0.038430337
30	0xbdbaf70a	-0.0912915
31	0xbb36b03b	-0.0027876038
32	0xbc3cea5e	-0.011530487
33	0x3cd03372	0.025415156
34	0xbdf1ed25	-0.1181281
35	0xbe647683	-0.22310834
36	0x3ddb0749	0.10694749
37	0xbd90081a	-0.07032795
38	0x3dd1bbbf	0.10240888
39	0xbc1fc5f3	-0.009751785
40	0x3dd5f87d	0.10447786
41	0xbe3874e7	-0.18013345
42	0x3e25392f	0.16135095
43	0x3dd54c13	0.10414901
44	0x3d8653e0	0.06558967
45	0x3db5f370	0.08884323
46	0x3da05e8e	0.07830535
47	0x3c531e7e	0.012885688
48	0x3d6d0732	0.05786819
49	0xbdc0f001	-0.09420777
50	0x3d81b942	0.06334163
51	0xbd1a55aa	-0.037679352
52	0xbd430ef2	-0.047621675
53	0xbdecc801	-0.11561585
54	0x3d66410b	0.056214374
55	0x3cb4e9d9	0.022084164
56	0xbb642894	-0.0034814226
57	0xbdb5d9cb	-0.08879431
58	0x3db6b611	0.08921445
59	0xbe0dd96b	-0.1385247
60	0xbdc1f762	-0.09471013
61	0x3dec101c	0.1152651
62	0xbce7fba0	-0.028318226
63	0xbd8405d3	-0.064464234
64	0x3d57be7c	0.052671894
65	0x3d8194c1	0.06327201
66	0x3c9a0cdc	0.01880496
67	0x3d1c9f49	0.038237844
68	0x3dd3e1e5	0.1034582
69	0x3e2795f3	0.16365795
70	0x3e14138f	0.14460586
71	0xbcea04cd	-0.028566742
72	0xbe2b12a4	-0.1670633
73	0x3dc959e8	0.098316014
74	0x3dfd1dd9	0.123592086
75	0x3d9676cd	0.07346878
76	0x3d480a8e	0.04883819
77	0x3d711cc9	0.058865342
78	0xbd5b051c	-0.05347167
79	0x3dc339bb	0.095324956
80	0xbe0462cc	-0.12928313
81	0xbcf09444	-0.029367574
82	0x38aa4ef7	8.12094e-05
83	0xbdbbd6af	-0.09171807
84	0xbe38743b	-0.18013088
85	0xbe27f4ef	-0.16402029
86	0x3d630b3b	0.055430632
87	0xbe1a2cd0	-0.15056157
88	0xbe1a4536	-0.15065464
89	0xbdebf64b	-0.11521586
90	0xbe0f26e2	-0.13979676
91	0x3deda1b0	0.11603105
92	0xbdbc9974	-0.09208956
93	0xbd3cc75b	-0.046088558
94	0x3dee6920	0.11641145
95	0x3dac5533	0.08414688
96	0x3d5c79bc	0.053827032
97	0x3dfd1aa8	0.123586
98	0xbdd40498	-0.10352439
99	0x3cdf0371	0.02722332
100	0x3df80fc4	0.12112382
101	0xbdfb50e5	-0.12271289
102	0xbe14fa3a	-0.14548579
103	0xbc8069fb	-0.015675535
104	0xbc1a0335	-0.009400179
105	0x3da6dcb2	0.08147563
106	0x3e28eba6	0.16496143
107	0xbe08d118	-0.13361013
108	0xbe1e8d61	-0.1548362
109	0xbabd4c7a	-0.0014442347
110	0xbd873e77	-0.06603711
111	0x3e03010c	0.12793368
112	0x3dd83a2e	0.10557972
113	0x3e07f2c0	0.13276196
114	0x3e1a39e4	0.15061146
115	0x3e22cca9	0.15898384
116	0x3d8c429b	0.068486415
117	0xbe19eea5	-0.15032442
118	0xbd3e6ec2	-0.046492346
119	0x3e270081	0.16308786
120	0xbdcb3943	-0.09923031
121	0xbdc02dbc	-0.09383723
122	0x3dfdff21	0.124021776
123	0x3d870a04	0.06593707
124	0x3d927c4a	0.071526125
125	0xbcd5a75f	-0.026080785
126	0x3baa6572	0.0052000815
127	0x3dc7f9a0	0.09764409
128	0xbe0d974b	-0.13827245
129	0xbe339bd4	-0.17539912
130	0x3dd7db43	0.10539868
131	0xbd43ce73	-0.047804307
132	0xbd671172	-0.05641312
133	0x3e353846	0.17697248
134	0xbdf6f97b	-0.120593034
135	0xbe0976a8	-0.1342417
136	0xbe2abc2f	-0.16673349
137	0xbe4f4de8	-0.20244563
138	0xbda9e8bf	-0.08296346
139	0xbc9af483	-0.01891542
140	0x3dff6d90	0.12472069
141	0x3c95322c	0.0182124
142	0xbe1ffcf2	-0.15623835
143	0x3d556170	0.052094877
144	0xbd9b0dc0	-0.07570982
145	0x3debdf65	0.115172185
146	0xbd23e4d3	-0.040013146
147	0x3dbe83af	0.093024604
148	0xbe15076b	-0.14553611
149	0xbc38541a	-0.01125052
150	0x3d0a63fd	0.033786763
151	0xbc81c092	-0.015838895
152	0xbe36a94a	-0.17838016
153	0x3ca8e62f	0.020617573
154	0x3da7fc0b	0.0820237
155	0x3d96d814	0.073654324
156	0x3d242002	0.040069588
157	0x3df2af63	0.118498586
158	0xbd53fe48	-0.051756173
159	0xbe03a1a1	-0.12854625
160	0x3cd6195c	0.02613514
161	0xbd2c961e	-0.04213535
162	0xbe31b4a2	-0.17354062
163	0x3e09b205	0.13446815
164	0xbd17e8f8	-0.03708741
165	0xbdc34850	-0.09535277
166	0xbe26f892	-0.1630576
167	0xbe04ba7a	-0.1296176
168	0xbe342d70	-0.17595458
169	0x3da309f3	0.07960882
170	0xbd779cf1	-0.060452405
171	0xbdf274f5	-0.11838714
172	0xbe0bc0ed	-0.13647814
173	0x3e06ffac	0.13183469
174	0xbc580084	-0.013183717
175	0xbdbf5206	-0.093418166
176	0x3dd0a03b	0.101868115
177	0x3dd58299	0.104253
178	0xbd8577d8	-0.06516999
179	0x3d58db68	0.052943617
180	0xbdb7a23f	-0.08966493
181	0xbd13e9b6	-0.036111556
182	0x3d7e1967	0.062035944
183	0xbcbbc39c	-0.022920422
184	0xbd24e590	-0.04025799
185	0xbd32e036	-0.043670855
186	0x3d4c9c7a	0.049953915
187	0x3d3d96ce	0.046286397
188	0x3d1358b9	0.035973284
189	0x3cf61c04	0.030042656
190	0xbc9dc7ff	-0.019260405
191	0xbd23aaa4	-0.039957657
192	0xbdc6ed55	-0.09713236
193	0x3e1bf6a4	0.15230805
194	0xbd9f2751	-0.07771171
195	0xbd92a356	-0.0716006
196	0x3c8654dc	0.016397886
197	0x3e266a2c	0.16251439
198	0xbe0c0275	-0.13672812
199	0xbd8d3b5b	-0.06896087
200	0x3d8c9569	0.06864435
201	0x3e2787e5	0.16360433
202	0xbe37b4e6	-0.17940101
203	0xbdec72ec	-0.11545357
204	0x3e404347	0.18775664
205	0x3e0a425c	0.13501877
206	0x3e02308f	0.12713836
207	0x3dee959f	0.11649632
208	0x3d2d3715	0.04228886
209	0xbe3c37a4	-0.183806
210	0xbde8458f	-0.11341392
211	0x3df3088b	0.11866864
212	0xbe08ed47	-0.13371764
213	0xbdda931a	-0.10672589
214	0x3e30d50c	0.17268771
215	0xbe1b0d9c	-0.1514191
216	0xbe195cbd	-0.14976783
217	0x3e0f3a60	0.13987112
218	0x3d14a416	0.036289297
219	0xbde2ffa5	-0.110839166
220	0x3cd81b85	0.02638031
221	0xbd25406d	-0.040344644
222	0xbdeb7c1e	-0.11498283
223	0xbd8ce275	-0.06879131
224	0x3dba7fef	0.09106433
225	0xbe25f9b8	-0.16208541
226	0x3d9f8597	0.07789152
227	0x3c22af02	0.00992942
228	0xbe29c910	-0.16580606
229	0xbdab2f80	-0.08358669
230	0x3d1b3d1d	0.03790008
231	0xbe21dab6	-0.15806088
232	0xbb87e6d2	-0.004147389
233	0xbdfb7677	-0.12278455
234	0xbcb5d569	-0.022196488
235	0xbe166dff	-0.14690398
236	0xba908592	-0.0011026135
237	0xbcc27f9d	-0.023742491
238	0x3dfa576a	0.12223704
239	0x3d7579ae	0.059930496
240	0x3e3ca7ed	0.18423434
241	0x3e28059e	0.16408393
242	0xbdb3b05e	-0.08773874
243	0xbd177452	-0.036976166
244	0x3d591e51	0.053007428
245	0x3c8e8cae	0.017401066
246	0xbc8e72e0	-0.017388761
247	0x3e185049	0.14874376
248	0xbd12cf08	-0.03584197
249	0x3d97e528	0.07416755
250	0xb9e29744	-0.0004321878
251	0x3db0446b	0.086068
252	0x3da4e1b5	0.08050863
253	0xbdc60549	-0.09668977
254	0xbd96a343	-0.073553585
255	0x3d6d06eb	0.057867926
