model/LSTMY/T1Dcheckpoint2.pt (torch, 229215 bytes, 31 tensors)

lstm.weight_ih_l0 f4 [120, 15]
0	0xbd8313eb	-0.064002834
1	0xbd526d01	-0.051373485
2	0xbc13780c	-0.009000789
3	0x3d5bb1a0	0.053636193
4	0x3e3f5fc2	0.18688872
5	0xbe13e553	-0.14442949
6	0x3e3b901f	0.18316697
7	0xbd49d31e	-0.049273603
8	0xbc4125c8	-0.011788793
9	0xbcd3adb9	-0.025839673
10	0x3de21a87	0.11040216
11	0xbd5138b8	-0.05107948
12	0x3cff44f0	0.031160802
13	0x3c1dea9f	0.009638458
14	0x3c206a3f	0.009790956
15	0xbdafdb6d	-0.08586774
16	0x3de49dcf	0.11162912
17	0xbde3c10a	-0.11120804
18	0x3e15e08b	0.14636438
19	0xbdf58f16	-0.11990182
20	0xbe17d27f	-0.14826392
21	0x3d793e12	0.06085021
22	0xbe2ae43b	-0.16688626
23	0xbcdf21ab	-0.027237734
24	0x3dc0e979	0.094195314
25	0x3c1c2999	0.009531402
26	0x3dda0141	0.106447704
27	0xbd8ea7fc	-0.06965634
28	0x3dafb1e5	0.085788526
29	0xbce97cd4	-0.028501906
30	0x3ce9aa9f	0.028523741
31	0xbd3fe285	-0.046846885
32	0x3c92e4db	0.017931392
33	0xbdc06074	-0.09393397
34	0xbde990a9	-0.11404545
35	0x3c899132	0.016792867
36	0xbd0d2a97	-0.034464445
37	0xbd66088c	-0.056160495
38	0xbd9a7d0a	-0.075433806
39	0x3e3b8120	0.18310976
40	0xbd15006a	-0.036377348
41	0x3d370fb9	0.04469273
42	0xbbec3e0b	-0.0072095445
43	0xbdf4dfed	-0.11956773
44	0x3dd1af4f	0.102385156
45	0x3d4817ee	0.048850946
46	0x3d85121c	0.06497595
47	0x3d943b2c	0.07237849
48	0xbd5165a4	-0.051122323
49	0xbe348100	-0.17627335
50	0x3e49101e	0.19635054
51	0x3dfe003e	0.1240239
52	0x3e1e0cef	0.15434621
53	0xbd00d080	-0.03144884
54	0xbd1d8ca7	-0.038464215
55	0x3e203f08	0.15649045
56	0xbe148fb7	-0.14507948
57	0x3e1e1d53	0.15440874
58	0xbdbcb2d8	-0.09213799
59	0x3d4931b2	0.04911966
60	0xbe441935	-0.1915024
61	0x399ce38e	0.0002992418
62	0x3dab5ea9	0.08367664
63	0xbe8300d5	-0.25586572
64	0xbd82466b	-0.063610874
65	0x3dab8c94	0.083764225
66	0xbe474381	-0.19459344
67	0xbde639c6	-0.11241488
68	0xbdfc9544	-0.12333158
69	0x3dc2be02	0.09508897
70	0xbca4f2d7	-0.020135326
71	0xbe39383f	-0.18087862
72	0xbc8d1f40	-0.017226815
73	0x3e0e0ccc	0.13872069
74	0xbd0bfe7d	-0.034178246
75	0x3cf0cd3a	0.029394735
76	0x3d4da0d0	0.05020219
77	0x3e72a990	0.23697495
78	0x3df3cc9a	0.11904259
79	0x3c1889a7	0.009310163
80	0xbe006d09	-0.12541594
81	0xbd27ca33	-0.040964317
82	0x3d217b45	0.0394242
83	0xbd21571c	-0.039389715
84	0x3d26a1ef	0.040681776
85	0x3e5ad40f	0.21369956
86	0x3e788f7e	0.24273488
87	0x3e2d55a1	0.16927196
88	0x3dbedf89	0.0931998
89	0xbe383d78	-0.17992198
90	0xbe1a729c	-0.15082783
91	0x3df82ab3	0.12117519
92	0xbdbe6fcc	-0.09298667
93	0xbde1a265	-0.110173024
94	0xbd8b3b62	-0.06798436
95	0x3e14a48c	0.14515895
96	0x3d38739a	0.04503212
97	0xbe001949	-0.12509646
98	0xbd304132	-0.043030925
99	0xbc01582c	-0.007894557
100	0xbe2f90b5	-0.17145045
101	0x3e1c7d1f	0.15282105
102	0x3d1cc693	0.038275313
103	0x3dd99875	0.10624782
104	0x3e1ea3f2	0.15492228
105	0xbd3f7a6b	-0.046747606
106	0x3de0cbd2	0.10976376
107	0x3c54c249	0.012985774
108	0x3d51a654	0.051184013
109	0xbd9b84fb	-0.075937234
110	0xbe469e8e	-0.19396421
111	0xbe31de1e	-0.17369887
112	0xbd702af6	-0.05863472
113	0x3e774e03	0.24150853
114	0xbdb3b8d6	-0.08775489
115	0x3dbf3510	0.09336293
116	0x3e1805ae	0.14845917
117	0xbe1c9bb4	-0.15293771
118	0x3d80fcc6	0.06298213
119	0x3e184b16	0.14872393
120	0xbc193ecd	-0.009353352
121	0xbd5fd79a	-0.054648973
122	0x3d0eed8d	0.034894515
123	0x3d7509ec	0.059823915
124	0xbe603d28	-0.2189833
125	0x3dc6bbd2	0.09703793
126	0xbd7a14fb	-0.061055165
127	0xbd25b345	-0.040454168
128	0xbe3871c3	-0.18012147
129	0x3e6a122e	0.22858498
130	0x3cd6fe3c	0.026244275
131	0x3e468323	0.19385962
132	0x3dc3c772	0.095595255
133	0xbdbe91d2	-0.09305157
134	0x3d3c02e7	0.045901205
135	0xbda2da2c	-0.07951769
136	0x3dec3927	0.115343384
137	0x3e35a772	0.17739657
138	0xbcce8b9d	-0.025213057
139	0xbd076237	-0.03305265
140	0xbd8418eb	-0.06450065
141	0xbdc28f53	-0.09499993
142	0x3e4588a6	0.19290408
143	0x3ddadf96	0.10687177
144	0x3e2c7fdf	0.16845654
145	0xbe47a337	-0.19495855
146	0x3c60e492	0.01372637
147	0x3e203a17	0.1564716
148	0xbe623d7b	-0.22093765
149	0x3cba402e	0.022735681
150	0xbd83d4eb	-0.06437095
151	0x3e1125cf	0.14174579
152	0x3b57d67d	0.0032934241
153	0x3e81dbe3	0.25363073
154	0x3de15cd0	0.11004031
155	0xbe503eb2	-0.20336416
156	0x3e5dd504	0.2166329
157	0xbd6f6557	-0.058446255
158	0xbdc4a7ed	-0.09602342
159	0xbe3c7ea5	-0.18407686
160	0x3d261c85	0.040554542
161	0xbdfbe17d	-0.12298868
162	0x3c7be935	0.015375425
163	0xbc4d4236	-0.012527993
164	0x3c1b355a	0.009473169
165	0x3e4a730c	0.1977045
166	0xbe956fb4	-0.29186785
167	0xbcdd4193	-0.027008807
168	0xbdea4166	-0.11438255
169	0x3df26f61	0.1183765
170	0xbdf9e976	-0.12202732
171	0x3e4fbead	0.20287581
172	0xbd9ea57c	-0.077464074
173	0x3e23474f	0.15945171
174	0xbea00f98	-0.31261897
175	0xbdbe5b30	-0.092947364
176	0x3dba5b9d	0.09099505
177	0xbdf9ec93	-0.12203326
178	0x3e084dc4	0.13310915
179	0xbbac1265	-0.0052512162
180	0xbdcfa983	-0.10139754
181	0xbc915371	-0.017739983
182	0x3e09c080	0.13452339
183	0xbd68d8ef	-0.05684751
184	0x3d3fcf90	0.046828806
185	0xbe1e8f48	-0.15484345
186	0xbe0acfb1	-0.1355579
187	0x3d3adea0	0.045622468
188	0x3e182d57	0.14861046
189	0x3e378814	0.17923003
190	0x3e3ef0dc	0.18646568
191	0xbd169646	-0.036764406
192	0xbd581406	-0.05275347
193	0xb97ab3c3	-0.00023908824
194	0x3de70ab0	0.11281335
195	0xbe23de8f	-0.16002868
196	0x3e01a74f	0.1266148
197	0x3da1e722	0.07905413
198	0xbd94792d	-0.07249675
199	0xbd83be99	-0.06432838
200	0xbc9adbcb	-0.018903634
201	0xbdf06792	-0.117385045
202	0x3e3c7828	0.18405211
203	0xbc83d6d9	-0.016093658
204	0x3d8983f8	0.06714624
205	0x3ddaf57d	0.106913544
206	0xbd9ac994	-0.07557979
207	0xbdacaac2	-0.08431007
208	0xbe344775	-0.17605384
209	0x3e043905	0.12912376
210	0x3db20da2	0.086940065
211	0xbd8300db	-0.063966475
212	0xbe0a6410	-0.13514733
213	0x3af86ed9	0.0018953934
214	0x3ded165d	0.11576531
215	0x3de6d191	0.1127044
216	0xbe280bea	-0.16410795
217	0x3d954e2d	0.072903015
218	0xbd8bfbd6	-0.06835143
219	0x3e483172	0.19550112
220	0x3e94f92c	0.29096353
221	0xbe14320f	-0.14472221
222	0xbd61bc7e	-0.0551114
223	0xbda394ba	-0.07987352
224	0xbdc219b5	-0.094775595
225	0xbc668eca	-0.0140721295
226	0xbdec91ca	-0.115512446
227	0xbc38efb4	-0.011287618
228	0xbe1c044a	-0.15236011
229	0x3dce949e	0.1008694
230	0x3b137934	0.0022502663
231	0xbd9ed056	-0.07754581
232	0xbe09c606	-0.13454446
233	0x3c04ae2f	0.008098169
234	0x3d98a018	0.074524105
235	0x3e0bc0c3	0.13647752
236	0x3c39ef3c	0.011348542
237	0x3d32d4eb	0.043660086
238	0x3c2f9204	0.010715965
239	0xbd60183b	-0.054710608
240	0x3dae0397	0.084967785
241	0xbdca968a	-0.09891994
242	0x3e31d206	0.17365274
243	0x3e285e2b	0.16442172
244	0x3e33bd3d	0.17552657
245	0x3df8abc1	0.121421345
246	0xbce25033	-0.027626133
247	0xbd050489	-0.03247503
248	0x3df122eb	0.11774238
249	0x3de13faa	0.10998471
250	0xbc665f3d	-0.0140607925
251	0x3def5f41	0.1168809
252	0xbda6871f	-0.08131241
253	0xbe2b3270	-0.16718459
254	0xbd76cf74	-0.060256436
255	0xbe39027b	-0.18067352

lstm.weight_hh_l0 f4 [120, 30]
0	0x3db2b28f	0.087254636
1	0x3e44a67f	0.19204138
2	0xbd26e10a	-0.040741958
3	0x3d93866f	0.072033755
4	0xbeaeb7ba	-0.34124547
5	0xbe2c760a	-0.16841903
6	0xbced8d56	-0.028998058
7	0xbd8d566b	-0.069012485
8	0x3e078117	0.13232838
9	0x3e422779	0.1896037
10	0x3c8ba6ca	0.017047305
11	0x3e92b8db	0.2865666
12	0xbdbbcdc9	-0.0917011
13	0xbca5e20f	-0.020249395
14	0x3e11b26d	0.1422822
15	0xbe6aac6c	-0.22917336
16	0x3e270ad4	0.16312724
17	0x3c6f3768	0.014600612
18	0xbe74f599	-0.23921813
19	0xbeb73997	-0.35786125
20	0xbd2ba6c9	-0.041907106
21	0xbd8f535f	-0.06998324
22	0xbe60e718	-0.21963155
23	0x3eb884df	0.36038873
24	0x3d686a25	0.056741852
25	0x3e600dcf	0.21880268
26	0x3e0b8a6d	0.13627024
27	0xbdc1b149	-0.094576426
28	0xbdd7178a	-0.105025366
29	0x3b7662e3	0.0037595562
30	0x3d53bac8	0.0516918
31	0xbd913fee	-0.07092272
32	0x3e1b0d2c	0.15141743
33	0x3e0f95e1	0.14022018
34	0xbe9a065a	-0.3008297
35	0xbd9d0007	-0.07666021
36	0x3e1171df	0.14203595
37	0x3e36bb69	0.17844929
38	0xbdbad80e	-0.091232404
39	0x3e853585	0.26017395
40	0xbdc6726c	-0.09689793
41	0x3e77d9b8	0.24204147
42	0x3eb56274	0.35426676
43	0x3dc49c52	0.09600128
44	0x3da8aba6	0.08235864
45	0x3e5e0973	0.21683292
46	0x3d79ad23	0.06095613
47	0xbcb6f953	-0.022335684
48	0x3d710aec	0.058848307
49	0xbcbe1186	-0.023201715
50	0xbd667a6f	-0.056269106
51	0xbe5da584	-0.2164517
52	0xbeaedd58	-0.34153247
53	0x3e48aa2c	0.19596165
54	0xbdc9dc22	-0.0985644
55	0x3be28607	0.00691295
56	0xbdaa7ec1	-0.08324958
57	0xbe376989	-0.17911352
58	0xbac6cabe	-0.0015166623
59	0xbe26b7d0	-0.16281056
60	0x3e5546a7	0.20827733
61	0xbe26f82c	-0.16305608
62	0x3d954054	0.0728766
63	0xbe8d6efe	-0.27623743
64	0xbe8ee2cb	-0.27907404
65	0xbe80392c	-0.2504362
66	0x3c3d1334	0.011540223
67	0x3d940c27	0.072288804
68	0x3e24f788	0.1611005
69	0x3db2f633	0.08738365
70	0xbd657cfa	-0.05602739
71	0x3c37c6e1	0.01121685
72	0x3df6118b	0.12015065
73	0x3de7151b	0.112833224
74	0xbe351d53	-0.17686968
75	0x3dcb0da2	0.0991471
76	0x3eb7728b	0.35829577
77	0xbe183ae1	-0.1486621
78	0x3cbfbb37	0.0234047
79	0x3e047bd8	0.12937868
80	0x3b931f41	0.0044898097
81	0x3de7eb4f	0.113241784
82	0xbd9cdba9	-0.07659084
83	0xbd137db2	-0.036008544
84	0xbd01dfef	-0.0317077
85	0xbed8d341	-0.42348674
86	0xbbba2348	-0.0056804754
87	0xbde4d6c1	-0.111737736
88	0xbe3de25f	-0.18543385
89	0x3d827f71	0.06371964
90	0x3d442ac8	0.047892362
91	0xbde1477f	-0.10999965
92	0xbdc8f2e9	-0.098119564
93	0xbca9932f	-0.020700065
94	0x3db31bbb	0.087455235
95	0x3da52ec4	0.080655605
96	0x3dfe61cb	0.12420996
97	0x3b598255	0.0033189256
98	0x3d9811c4	0.074252635
99	0x3d2371cd	0.03990345
100	0x3e0407d5	0.12893613
101	0x3e8c767e	0.27434152
102	0xbdb420eb	-0.08795341
103	0xbdcf5823	-0.101242326
104	0xbdf55e92	-0.119809285
105	0xbdf800c9	-0.12109525
106	0x3ca9158d	0.020640159
107	0x3e42c0e0	0.19018888
108	0x3b23aad3	0.0024973645
109	0xbb6d26c3	-0.0036186434
110	0x3dfa5ed9	0.12225122
111	0x3e09b580	0.13448143
112	0xbe8c8ea7	-0.27452585
113	0x3e027e46	0.12743482
114	0x3e69346f	0.22773908
115	0xbdba3530	-0.09092176
116	0x3dc1b651	0.09458602
117	0xbc5df97c	-0.013548251
118	0xbe596470	-0.2122972
119	0x3e450cf4	0.19243222
120	0xbe15a827	-0.14614926
121	0x3e968cdd	0.29404345
122	0xbe0501c3	-0.12988953
123	0x3e170e5a	0.14751568
124	0xbd1d1264	-0.038347617
125	0x3d9632c3	0.07333901
126	0xbc313ccd	-0.010817719
127	0xbe00598d	-0.12534161
128	0xbe5c5f53	-0.21520738
129	0xbe7899e6	-0.24277458
130	0xbdac969d	-0.08427165
131	0xbe238ac7	-0.15970908
132	0x3e5aa4e1	0.21351959
133	0xbd649978	-0.05581042
134	0x3e2d608d	0.16931362
135	0x3e5b7a42	0.21433356
136	0xbdaa8145	-0.083254375
137	0x3e0fbd60	0.14037085
138	0x3e9134e8	0.28360677
139	0x3e492cd9	0.19646014
140	0xbd410985	-0.04712822
141	0xbe1c70e3	-0.15277438
142	0xbd5b8958	-0.053597778
143	0xbc8c5897	-0.017132087
144	0xbe45017e	-0.1923885
145	0x3e284a72	0.16434649
146	0x3d38ad4d	0.045087148
147	0xbc14b3d4	-0.0090760775
148	0xbbe6d36b	-0.007044246
149	0x3dc8e883	0.09809973
150	0x3d684092	0.056702204
151	0xbe047ba8	-0.12937796
152	0xbd9cb179	-0.07651038
153	0x3e348821	0.17630054
154	0xbca1f5c1	-0.019770505
155	0xbe977f14	-0.2958914
156	0x3e1a9b42	0.15098289
157	0x3daae27d	0.083439805
158	0xbd8b860b	-0.06812676
159	0x3b4c2c11	0.0031154195
160	0xbcea2518	-0.02858214
161	0xbe7dfb1c	-0.24802822
162	0xbf05437e	-0.5205611
163	0x3e1fb65c	0.15596908
164	0xbef69792	-0.48162514
165	0xbd5d6415	-0.054050524
166	0xbda268b2	-0.07930125
167	0xbe1b560a	-0.1516954
168	0x3e1447ae	0.14480469
169	0xbd62f151	-0.05540592
170	0x3de8f5de	0.113750204
171	0xbebcdca7	-0.36887094
172	0xbe153239	-0.1456994
173	0xbdc7547d	-0.09732912
174	0xbba361bc	-0.004986016
175	0xbe0edb22	-0.1395078
176	0x3dcc879d	0.09986804
177	0xbdd98035	-0.10620157
178	0x3c678144	0.01412994
179	0x3c886619	0.016650246
180	0x3c269408	0.010167129
181	0xbc8db8a9	-0.017299967
182	0x3df54a10	0.11977017
183	0x3d17d153	0.03706486
184	0xbc7d4ee4	-0.0154607035
185	0x3e240a33	0.16019516
186	0x3e202fd4	0.15643245
187	0x3c9424ee	0.018084016
188	0xbda6541c	-0.08121511
189	0xbd5fddf1	-0.05465502
190	0xbc2480a1	-0.010040433
191	0xbe38518c	-0.17999858
192	0xbe5f3971	-0.21799256
193	0x3daa3872	0.08311547
194	0x3e39d080	0.18145943
195	0xbd18affd	-0.03727721
196	0xbe420b1d	-0.18949552
197	0x3eb2454f	0.34818503
198	0x3e89672f	0.26836535
199	0xbb369b49	-0.0027863553
200	0xbe93a550	-0.2883706
201	0x3e6b2dcb	0.22966687
202	0xbdc6f0ec	-0.09713921
203	0x3d3fedce	0.046857648
204	0x3e2d19f6	0.16904435
205	0x3d9e7eb5	0.07739011
206	0xbe151760	-0.14559698
207	0xbde4ec07	-0.11177831
208	0xbdd675f2	-0.10471715
209	0xbe762026	-0.24035701
210	0x3e19c881	0.15017892
211	0x3c11cbd2	0.008898692
212	0x3dc5a084	0.096497566
213	0xbdf7a894	-0.120927006
214	0x3d969340	0.073523045
215	0xbe28fcbe	-0.16502663
216	0x3d740207	0.059572246
217	0xbe098434	-0.13429338
218	0x3e563d7a	0.20921889
219	0x3e3bfd15	0.18358262
220	0x3c7e8c3a	0.015536362
221	0xbeb0f7c2	-0.34564024
222	0xbdc0ff65	-0.09423713
223	0x3e2bdf3e	0.16784379
224	0xbd830b4d	-0.0639864
225	0x3dfc5aed	0.1232203
226	0x3d4647c8	0.0484083
227	0xbe7c3df8	-0.24633014
228	0xbe211e02	-0.15734103
229	0x3e253176	0.16132149
230	0x3dfc1630	0.123089194
231	0x3e341cb7	0.17589079
232	0xbe36763a	-0.17818537
233	0x3daedd9e	0.08538364
234	0x3dfcef69	0.12350351
235	0xbe642dfe	-0.2228317
236	0xbd2f7818	-0.04283914
237	0xbdfd7fab	-0.12377866
238	0x3e8b7b90	0.27242708
239	0xbe9f19bc	-0.3107432
240	0x3d99bb6a	0.075064495
241	0x3c7f84cd	0.015595627
242	0x3cad5fcf	0.02116385
243	0xbde6f320	-0.11276841
244	0x3d725794	0.059165552
245	0xbe5d988e	-0.21640226
246	0x3dea5837	0.11442607
247	0x3e287114	0.16449386
248	0x3d43cd93	0.047803473
249	0xbe04ecec	-0.12981004
250	0xbd910b45	-0.070822276
251	0x3db0e106	0.0863667
252	0x3e07a02e	0.13244697
253	0xbd721a6f	-0.05910724
254	0xbc0bb0d0	-0.008526042
255	0x3e4105f9	0.18849935

lstm.bias_ih_l0 f4 [120]
0	0x3cb63625	0.022242615
1	0x3da6c3b3	0.081427954
2	0x3e25097f	0.16116904
3	0xbdcefa58	-0.10106343
4	0x3db2a87d	0.08723543
5	0xbd1a1e2c	-0.03762643
6	0x3dff0764	0.124525815
7	0x3cd84fe8	0.02640529
8	0x3e21e0d9	0.15808429
9	0x3e86701c	0.26257408
10	0xbd1594e3	-0.036518943
11	0x3d606692	0.05478532
12	0x3dcfdb2c	0.101492256
13	0x3e2f7b85	0.17136963
14	0x3d500f51	0.050795857
15	0x3d98d76b	0.07462963
16	0xbe051b27	-0.12998639
17	0x3d9ec6f2	0.077527896
18	0x3d1ed00f	0.03877264
19	0xbe139737	-0.14413153
20	0x3cfbe05c	0.030746631
21	0xbd9ac5ca	-0.075572565
22	0xbda13afb	-0.07872578
23	0xbd1bd7f0	-0.03804773
24	0xbe766681	-0.2406254
25	0x3e17b142	0.14813712
26	0xbdd954ad	-0.10611854
27	0x3d1da496	0.03848704
28	0x3d03ef43	0.0322106
29	0xbd461b67	-0.048365977
30	0x3e28684b	0.16446035
31	0x3e72ba9f	0.23704003
32	0x3e12c3d9	0.14332522
33	0xbdb97319	-0.09055156
34	0x3da6559f	0.081218
35	0x3e461e77	0.19347559
36	0xbd15e6a1	-0.036596898
37	0xbd5f5bf4	-0.054531053
38	0xbd6c47d4	-0.05768569
39	0xbde7119b	-0.11282655
40	0x3e246068	0.16052401
41	0x3e55cd5d	0.20879121
42	0x3db2129c	0.08694956
43	0xbd4a194d	-0.049340535
44	0x3e1a1d7e	0.15050313
45	0x3e81f1e5	0.25379863
46	0x3b6d687c	0.0036225608
47	0x3e673ad2	0.22581032
48	0x3e3b9f62	0.18322518
49	0x3d6299b4	0.055322364
50	0x3daacd90	0.08339989
51	0x3e2b559c	0.16731876
52	0xbe2e7f34	-0.17040712
53	0x3d348018	0.044067472
54	0x3e22e53a	0.15907755
55	0x3d9bbade	0.076040015
56	0x3dc6a61a	0.0969965
57	0x3d39f0cc	0.045395657
58	0x3dc5a7c0	0.096511364
59	0x3eaa5f1e	0.33275694
60	0x3e1d669a	0.1537117
61	0xbdc76a04	-0.09737018
62	0xbe2523ae	-0.16126892
63	0xbc4ce4b0	-0.012505695
64	0x3e15347e	0.14570805
65	0xbdb4482d	-0.08802829
66	0xbd380f98	-0.044936746
67	0x3d9c2ed5	0.0762612
68	0x3e07de52	0.13268402
69	0xbd6ffffe	-0.058593743
70	0x3dc939ac	0.09825453
71	0x3ba10ae8	0.00491463
72	0xbe13b271	-0.14423539
73	0xbc8fe62a	-0.017565805
74	0xbc20277c	-0.009775039
75	0x3e12f973	0.1435297
76	0xbda65861	-0.08122326
77	0x3e1b7bf1	0.15183999
78	0x3e1647a1	0.14675762
79	0xbd9382f7	-0.07202714
80	0x3e098df0	0.13433051
81	0xbdf33598	-0.118754566
82	0x3dc80dad	0.097682334
83	0xbdc49965	-0.0959957
84	0x3c3df7c0	0.011594713
85	0xbd810273	-0.06299295
86	0xbcb10f7e	-0.021613833
87	0xbdad0791	-0.08448709
88	0xbe1235d3	-0.14278345
89	0xbca150db	-0.019691875
90	0x3d6890d1	0.056778733
91	0x3e5c3c6c	0.21507424
92	0x3c885bab	0.016645273
93	0x3e62c3ef	0.22145055
94	0x3cb5a353	0.022172606
95	0x3d90d849	0.07072503
96	0x3d25383e	0.04033684
97	0x3e4a115b	0.19733183
98	0x3deb2189	0.11481006
99	0xbd86afd6	-0.06576507
100	0x3e69e7a6	0.22842273
101	0xbe08fc39	-0.13377465
102	0x3e890626	0.26762503
103	0xbe13d55c	-0.14436859
104	0x3d07a17a	0.03311298
105	0x3e38dac4	0.18052202
106	0x3e3ec15a	0.18628445
107	0x3cfddfc3	0.030990487
108	0xbddba0b2	-0.107240096
109	0xbdd04ee6	-0.10171299
110	0x3d07d9f6	0.033166848
111	0xbd5f211f	-0.054474946
112	0x3d04be5c	0.032408103
113	0x3c84b29d	0.01619845
114	0x3e64534b	0.22297399
115	0xbc67d378	-0.014149539
116	0xbe131e08	-0.14366925
117	0xbc3ccac9	-0.011522957
118	0x3e3a37db	0.1818537
119	0x3e337596	0.17525324

lstm.bias_hh_l0 f4 [120]
0	0x3e1d2200	0.15345001
1	0xbdfbe9bc	-0.12300441
2	0x3e0e97a9	0.13925041
3	0xbce2c0bc	-0.027679794
4	0xbdd6f38e	-0.10495673
5	0x3dd8808d	0.10571394
6	0xbc420797	-0.01184263
7	0x3d55d760	0.05220735
8	0x3d0208c3	0.031746637
9	0x3e591091	0.21197726
10	0xbcca2f45	-0.024680743
11	0xbe17af29	-0.14812912
12	0x3e4b4418	0.19850194
13	0x3dfb90f5	0.12283508
14	0x3d76fed4	0.060301617
15	0x3db696f2	0.08915509
16	0x3d7039c9	0.05864886
17	0x3da8e8e1	0.08247543
18	0xbe0fa3eb	-0.14027373
19	0x3e46ff33	0.19433288
20	0x3e7c7545	0.2465411
21	0x3e01dd89	0.12682165
22	0xbdba6ced	-0.09102807
23	0x3e46587e	0.19369695
24	0xbd43f8d6	-0.04784473
25	0xbe1ac762	-0.15115121
26	0x3d79d3a5	0.060992856
27	0x3e08b869	0.13351597
28	0xbdf627f0	-0.12019336
29	0xbe096a34	-0.1341942
30	0xba1cd92a	-0.00059832877
31	0x3e78f6fc	0.24312967
32	0x3e3cd035	0.184388
33	0xbd38d177	-0.045121636
34	0x3e8ebdf8	0.2787931
35	0x3ec67296	0.38759297
36	0xbdacd302	-0.08438684
37	0x3ddb482f	0.10707127
38	0x3e48047e	0.19532964
39	0xbdace92b	-0.08442911
40	0x3e7e8226	0.24854335
41	0x3deeba33	0.116566084
42	0x3cb0678f	0.021533756
43	0x3dc03736	0.09385531
44	0x3e830977	0.2559316
45	0xbd4c55e6	-0.049886607
46	0xbda99288	-0.08279902
47	0x3e0e8de3	0.13921313
48	0xbd4a017c	-0.04931782
49	0xbd570cb3	-0.052502345
50	0xbd838947	-0.06422668
51	0x3d9893e9	0.074500866
52	0x3df38f8e	0.11892615
53	0x3e10d690	0.14144349
54	0x3dce4bfd	0.10073087
55	0xbd745222	-0.05964864
56	0x3ddc6e4c	0.10763225
57	0x3e972d14	0.2952658
58	0x3e2af93c	0.16696638
59	0x3bb8d0aa	0.005640109
60	0xbd30ab57	-0.043132152
61	0xbd8b5313	-0.068029545
62	0x3d1ce700	0.038306236
63	0x3c98940e	0.018625285
64	0xbdb30c19	-0.08742542
65	0x3d476460	0.04867971
66	0x3e31b4b0	0.17354083
67	0xbdc33c4d	-0.09532986
68	0xbd163c05	-0.036678333
69	0x3db0f7ae	0.08640991
70	0xb6ac8fd3	-5.142743e-06
71	0x3dc90773	0.09815874
72	0xbc1f5321	-0.009724409
73	0x3da6f7e7	0.08152752
74	0x3ded4889	0.115861006
75	0x3d9c71dd	0.07638905
76	0xbd7632d3	-0.060107064
77	0xbbe35c8e	-0.0069385236
78	0x3dbc980f	0.092086904
79	0x3e3d9ae8	0.18516123
80	0x3e142d0d	0.1447031
81	0xbda57723	-0.08079364
82	0x3cb1e6b0	0.021716446
83	0xbdc4f73f	-0.09617471
84	0xbda05a83	-0.07829764
85	0xbe404fe9	-0.18780483
86	0x3de424e8	0.11139852
87	0x3dd8c4e1	0.10584427
88	0x3dc26d9b	0.09493562
89	0x3d4393e3	0.047748458
90	0x3df964f3	0.12177458
91	0x3e01049e	0.12599418
92	0xbd502993	-0.0508209
93	0x3e1ea02a	0.15490785
94	0xbdd5b7ef	-0.10435473
95	0x3e8f1a1a	0.279496
96	0xbcebb1ea	-0.02877136
97	0x3e3a0604	0.18166357
98	0xbc86b4d5	-0.01644365
99	0x3d99ab87	0.07503419
100	0x3dbec026	0.09313993
101	0xbdcf8e4c	-0.10134563
102	0x3e89393b	0.26801476
103	0x3bead5eb	0.0071666143
104	0x3d607471	0.054798547
105	0x3e63c6a5	0.22243746
106	0x3e6f4831	0.23367383
107	0x3e955baf	0.29171512
108	0x3e1abae3	0.15110354
109	0xbe1e8cfb	-0.15483467
110	0x3db83574	0.089945704
111	0x3e0c22d7	0.13685165
112	0x3e176691	0.1478522
113	0xbdcf460f	-0.101207845
114	0x3e7ca8e8	0.24673808
115	0x3e66febc	0.22558111
116	0x3dbaef31	0.091276534
117	0x3d2ce9ff	0.042215344
118	0x3e70fd62	0.23534158
119	0x3e013ecc	0.12621611

lstm.weight_ih_l0_reverse f4 [120, 15]
0	0x3dd9ca73	0.10634317
1	0x3d65ba2c	0.05608575
2	0x3ddb7d30	0.10717237
3	0x3d0ff263	0.035143267
4	0xbd7e0506	-0.06201651
5	0xbdea1a01	-0.11430741
6	0x3d9d8cc3	0.07692864
7	0x3e15648d	0.14589138
8	0xbe09d8f2	-0.13461664
9	0x3d8b7de6	0.068111226
10	0x3e0f693a	0.14004984
11	0xbd8b46d5	-0.068006195
12	0x3dc3ad94	0.09554592
13	0x3e00da91	0.12583376
14	0xbb2599c4	-0.0025268653
15	0x3e236046	0.15954694
16	0xbda09417	-0.07840746
17	0x3d424a87	0.047434356
18	0xbe06b415	-0.13154633
19	0xbe203094	-0.15643531
20	0x3d25fbbd	0.04052328
21	0xbd52f813	-0.051506113
22	0xbe1b897f	-0.1518917
23	0xbdafa93d	-0.085772015
24	0x3d6c3cfa	0.05767534
25	0x3cf4b7f0	0.029872864
26	0x3dee868e	0.11646758
27	0xbcfd7888	-0.030941263
28	0x3df85faa	0.121276215
29	0xbbd98056	-0.0066376133
30	0x3d7e002e	0.06201189
31	0x3c7091bd	0.014683184
32	0xbe0e2912	-0.13882855
33	0xbdf4f2c6	-0.11960368
34	0xbb933fa1	-0.004493669
35	0x3e673eeb	0.22582595
36	0xbdf1607d	-0.11785982
37	0x3e28dd5a	0.16490689
38	0x3c5b3c7e	0.013381122
39	0x3d9c962f	0.07645833
40	0xbe1ab509	-0.15108122
41	0x3c39c09e	0.011337427
42	0xbd2b6086	-0.0418401
43	0x3cee3e64	0.029082485
44	0x3e07a9a4	0.13248307
45	0xbdddcad9	-0.10829706
46	0x3d828dc0	0.06374693
47	0x3d3d1d73	0.046170663
48	0x3e2b22b4	0.16712457
49	0xbe05f010	-0.13079858
50	0xbdaca2c3	-0.08429482
51	0x3deace45	0.11465124
52	0x3d6e406a	0.0581669
53	0x3e0cf16f	0.13763975
54	0x3e004e7b	0.12529938
55	0x3c36034f	0.011109187
56	0xbe280d64	-0.16411358
57	0x3c90cd6a	0.017676074
58	0x3e1e757b	0.15474503
59	0xbdeb6983	-0.11494734
60	0x3d39528c	0.04524474
61	0x3e7ce788	0.24697697
62	0x3e1c90e1	0.15289642
63	0xbde85a01	-0.11345292
64	0xbd4cc731	-0.04999465
65	0x3da6b5fd	0.0814018
66	0x3de07d03	0.10961344
67	0x3d12e17b	0.035859566
68	0xbe3b9bf5	-0.18321212
69	0xbdbaa2f9	-0.09113116
70	0x3da878f5	0.08226196
71	0x3e08fced	0.13377734
72	0xbe28a8d4	-0.16470653
73	0x3e64c648	0.22341263
74	0x3d8e78c9	0.06956632
75	0x3e312911	0.17300822
76	0xbd6b9845	-0.057518262
77	0xbe66f7ae	-0.2255542
78	0x3d5bb793	0.053641867
79	0xbd2177bb	-0.039420824
80	0x3d64cd6a	0.05585996
81	0xbc2be4ca	-0.010491559
82	0x3cd3c4a1	0.025850596
83	0xbb35225c	-0.0027638888
84	0xbdd37ae1	-0.10326172
85	0xbd999d48	-0.07500702
86	0x3e05e14f	0.1307423
87	0x3d2951f2	0.041337915
88	0xbcb9c172	-0.02267525
89	0x3d2fe57d	0.042943466
90	0xbd95f1ef	-0.07321536
91	0xbe0eacbb	-0.13933079
92	0x3e3a6a35	0.18204577
93	0x3d091738	0.03346941
94	0x3df63887	0.120225005
95	0xbc8fce2f	-0.01755437
96	0xbe5ef5b1	-0.21773411
97	0x3daf72e6	0.08566837
98	0x3d4fab9c	0.05070077
99	0xbcc037a8	-0.023464039
100	0xbddcac0a	-0.10775001
101	0xbe0ca71f	-0.13735627
102	0x3ca6cf10	0.020362407
103	0xbd33bda4	-0.043882027
104	0x3e838437	0.2568681
105	0x3d114939	0.03547022
106	0xbd7a4ed1	-0.06111032
107	0xbdd76ac2	-0.10518409
108	0xbdf46c28	-0.11934692
109	0x3d0ee9eb	0.03489105
110	0xbdf18f32	-0.117948905
111	0xbe32ff50	-0.17480206
112	0x3e36c9b7	0.17850386
113	0xbdc99bb5	-0.09844152
114	0xbd0ea398	-0.034823984
115	0x3b43c8db	0.0029874358
116	0x3e552db4	0.20818216
117	0xbd91c8cb	-0.07118376
118	0x3e832fd8	0.2562244
119	0xbdd83805	-0.1055756
120	0x3d8a53bb	0.067542516
121	0x3e2d8dd3	0.16948633
122	0xbd541c36	-0.051784717
123	0xbdd865ba	-0.10566278
124	0x3de9667a	0.11396499
125	0xbe89066a	-0.26762706
126	0x3e6e843d	0.23292632
127	0x3dfdc286	0.12390618
128	0x3e28bb3c	0.16477674
129	0xbe36b78a	-0.17843452
130	0xbe04836e	-0.12940761
131	0x3d903f04	0.07043269
132	0x3e115e45	0.14196117
133	0x3d0b8f9e	0.03407251
134	0xbe32a0c4	-0.1744414
135	0xbdc61939	-0.096727796
136	0xbd381662	-0.04494322
137	0x3d88c323	0.066778444
138	0xbe26bd3d	-0.16283126
139	0x3db63238	0.08896297
140	0x3e00fdab	0.12596767
141	0xbdbb151d	-0.091348864
142	0xbe33c6ec	-0.17556351
143	0x3cda77b8	0.026668414
144	0x3e452b90	0.19254899
145	0xbe57ba48	-0.21067154
146	0xbe0a5b78	-0.13511455
147	0x3d6b1f84	0.057403103
148	0xbd2001e1	-0.039064292
149	0x3e2c20bf	0.16809367
150	0xbe21b42f	-0.15791391
151	0x3c646475	0.013939966
152	0xbc98583e	-0.018596765
153	0x3e0b16a5	0.13582857
154	0x3dfd2940	0.123613834
155	0x3d929694	0.07157627
156	0x3e3ad5e5	0.18245657
157	0xbdd1a237	-0.10236018
158	0xbd2787e8	-0.040901095
159	0xbe308cba	-0.17241183
160	0xbddd3224	-0.10800579
161	0xbe2e886c	-0.17044228
162	0xbc98f945	-0.018673548
163	0x3dd47a43	0.10374882
164	0xbc002801	-0.007822038
165	0x3d9a1694	0.07523838
166	0xbd546c5b	-0.05186115
167	0x3e1f6218	0.15564764
168	0xbd8de930	-0.069292426
169	0xbe3b1807	-0.18270884
170	0x3d8da135	0.069155134
171	0x3cad4492	0.021150861
172	0x3e734924	0.2375837
173	0xbe26ce9b	-0.16289751
174	0xbe4c505c	-0.1995253
175	0xbdcfe648	-0.101513445
176	0xbd8607e7	-0.06544476
177	0x3de5e7ab	0.11225828
178	0xbc03d02a	-0.008045236
179	0xbdc46908	-0.095903456
180	0xbd76d941	-0.060265783
181	0x3db2f790	0.08738625
182	0xbdcc303b	-0.09970137
183	0x3e512678	0.20424831
184	0x3db39fbf	0.087707035
185	0xbdbab731	-0.09116972
186	0xbe359426	-0.17732295
187	0xbd7f587b	-0.06234024
188	0x3d047383	0.032336723
189	0x3e5bc343	0.21461205
190	0x3e13fddb	0.14452307
191	0xbd82d331	-0.06387938
192	0xbcfa5c0e	-0.030561473
193	0xbde73e8f	-0.11291229
194	0x3e29fda2	0.1660066
195	0x3c9503db	0.018190315
196	0xbdb67aee	-0.08910166
197	0x3d308283	0.043093216
198	0x3d2e36b1	0.042532627
199	0x3cd8928a	0.026437063
200	0x3e3365e1	0.17519332
201	0xbca254e2	-0.019815866
202	0x3dd0af34	0.10189667
203	0x3e2eff39	0.17089547
204	0x3bb87c80	0.005630076
205	0x3e1226be	0.14272591
206	0x3d33658d	0.04379802
207	0xbdb27f20	-0.087156534
208	0xbde565fd	-0.11201093
209	0x3d89aa42	0.06721927
210	0x3cd07d32	0.025450323
211	0xbd32aa65	-0.043619532
212	0x3d96889c	0.07350275
213	0x3dffada6	0.12484293
214	0xbe5260db	-0.2054476
215	0x3cd08d75	0.025458077
216	0x3dcda34a	0.100409105
217	0xbe3eddca	-0.18639293
218	0xbe12d270	-0.14338088
219	0x3e03ec5d	0.12883134
220	0xbe3e4b37	-0.1858338
221	0xbcc31e3e	-0.023818132
222	0x3dbbf796	0.09178083
223	0xbc52ddce	-0.012870265
224	0xbe04d717	-0.12972675
225	0x3ddd9816	0.10820024
226	0x3da38302	0.07983972
227	0xbe2ea847	-0.1705638
228	0x3e4d0454	0.20021182
229	0x3e074aeb	0.13212173
230	0x3dd2b743	0.10288861
231	0x3e19697a	0.14981642
232	0xbd122a94	-0.035685137
233	0x3ddbc6a0	0.10731244
234	0x3da089a9	0.078387566
235	0xbe338f9b	-0.1753525
236	0xbd159086	-0.03651478
237	0xbd92a40c	-0.07160196
238	0x3d300ba8	0.042979866
239	0x3d38dbf4	0.04513164
240	0xbe5991de	-0.2124705
241	0xbe866814	-0.2625128
242	0xbc1b2397	-0.0094689345
243	0xbc212b7a	-0.009837026
244	0x3dc42041	0.095764644
245	0xbd995c98	-0.07488364
246	0x3d7a6be3	0.061138045
247	0x3c10cdbb	0.0088381125
248	0x3db35d41	0.08758021
249	0x3cf08579	0.02936052
250	0xbe279b1f	-0.16367768
251	0x3df9828d	0.12183104
252	0x3dc26c69	0.09493334
253	0x3e236a43	0.15958504
254	0xbd5c1c98	-0.053738207
255	0x3d2db822	0.04241193

lstm.weight_hh_l0_reverse f4 [120, 30]
0	0x3dca6097	0.09881704
1	0x3d725c73	0.059170198
2	0x3e789813	0.24276762
3	0x3e8e2138	0.2775972
4	0x3d35d4c7	0.044392373
5	0x3d8763c0	0.06610823
6	0xbe3e2afe	-0.18571088
7	0xbdbda4da	-0.092599586
8	0x3d2a7131	0.041611854
9	0xbd35966a	-0.0443329
10	0xbe266efd	-0.16253276
11	0xbe06d304	-0.13166434
12	0xbd34d53c	-0.04414867
13	0x3ea0ddf1	0.31419328
14	0xbe1d56b4	-0.15365106
15	0xbcc5f592	-0.024164949
16	0x3e9b46ab	0.30327353
17	0x3e8fb1cb	0.28065333
18	0x3dbc6cb7	0.09200423
19	0x3d8e9e60	0.069638014
20	0x3ea62d9f	0.3245668
21	0xbe02189d	-0.12704702
22	0x3cb47cd0	0.022032171
23	0xbe3f3467	-0.18672334
24	0xbd83d811	-0.06437696
25	0x3ea1b5c2	0.31583983
26	0x3e058846	0.13040265
27	0xbd225ed5	-0.03964122
28	0xbcca3451	-0.02468315
29	0xbd4823cc	-0.048862264
30	0xbe347056	-0.17620978
31	0x3cad8b46	0.021184575
32	0x3e346ced	0.17619677
33	0x3cb063d1	0.021531971
34	0x3dffce9b	0.12490579
35	0x3d98ecc8	0.074670374
36	0xbd60f524	-0.054921284
37	0x3e678281	0.22608377
38	0x3de54cbd	0.11196277
39	0xbe106126	-0.14099559
40	0x3e3e54f8	0.185871
41	0x3e032887	0.12808429
42	0x3c6826f4	0.014169443
43	0x3e3660c5	0.17810352
44	0xbe3b17ef	-0.18270849
45	0xbc86d058	-0.016456768
46	0xbdee8297	-0.11646002
47	0x3e7f3c6f	0.24925397
48	0x3dcd7bb4	0.1003336
49	0x3e635f2d	0.22204275
50	0xbc1323d8	-0.008980714
51	0xbd87bfb9	-0.06628365
52	0xbd8efa76	-0.069813654
53	0xbe606f05	-0.2191735
54	0x3cb5b04f	0.022178797
55	0x3d8cd003	0.068756126
56	0xbdb2bbd4	-0.087272316
57	0xbdb93d9b	-0.090449534
58	0x3e3f42f8	0.1867789
59	0xbe4adb7b	-0.19810288
60	0x3d978683	0.07398703
61	0xbe01ce2a	-0.12676302
62	0x3e8c966f	0.27458522
63	0x3e7df7df	0.24801587
64	0xbe31ddd9	-0.17369784
65	0xbe4fdbcd	-0.20298691
66	0x3e9805f5	0.29692045
67	0x3df04b59	0.117331214
68	0xbdce5779	-0.10075278
69	0x3e9b8649	0.3037589
70	0x3de2cc0c	0.11074075
71	0xbea3e546	-0.3201086
72	0x3e558ec0	0.20855236
73	0x3e99588c	0.29950368
74	0xbd84c833	-0.064834975
75	0xbcd50dc8	-0.026007548
76	0x3e6878e4	0.22702366
77	0xbc673501	-0.014111758
78	0xbc4c2c7c	-0.012461778
79	0x3d1001ad	0.03515785
80	0x3cde7d0f	0.027159242
81	0x3d2393b3	0.03993578
82	0xbbaae331	-0.0052150716
83	0x3e22124c	0.15827292
84	0xbbfc12e1	-0.00769268
85	0x3e5051ed	0.20343752
86	0x3dab8d82	0.083766
87	0x3d9e59a1	0.07731939
88	0xb8633195	-5.4167194e-05
89	0xbe2f12a0	-0.17096949
90	0xbe30ab43	-0.17252831
91	0x3e519c9f	0.20469902
92	0xbc087fe5	-0.008331274
93	0x3cd99106	0.02655841
94	0x3c4bf0cb	0.012447546
95	0x3caec9bd	0.02133643
96	0xbe1c437b	-0.15260117
97	0x3e0d22a1	0.13782741
98	0x3d394dfd	0.04524039
99	0xbe251b61	-0.16123725
100	0x3d9579f4	0.07298651
101	0x3b798c8f	0.0038078164
102	0x3e13ab23	0.14420752
103	0x3c31b6f6	0.010846844
104	0x3ded27fa	0.115798905
105	0xbe267861	-0.16256858
106	0xbd93acf2	-0.07210721
107	0x3e0f627c	0.14002413
108	0xbe0d9df0	-0.1382978
109	0x3d0b9479	0.03407714
110	0xbdc2455d	-0.09485886
111	0xbc915fbb	-0.017745843
112	0xbd8276d6	-0.063703224
113	0xbe1cb157	-0.15302025
114	0xbe15bfb6	-0.14623913
115	0xbe447fbb	-0.1918935
116	0xbd8f35eb	-0.06992706
117	0xbe0dbb26	-0.13840923
118	0x3d87ca3f	0.06630372
119	0xbe245327	-0.16047345
120	0x3e1cfcf7	0.15330873
121	0xbc5483ff	-0.012970923
122	0xbe1ece45	-0.15508373
123	0xbddb9416	-0.107216045
124	0xbca491b7	-0.020089014
125	0xbd874050	-0.066040635
126	0xbd40de4b	-0.047086995
127	0xbe8d84f8	-0.2764051
128	0x3daf44e4	0.08558062
129	0x3dd6587f	0.10466098
130	0x3e5d0db5	0.2158726
131	0xbe1caaa2	-0.15299466
132	0x3ca07a22	0.019589487
133	0xbdd1e927	-0.102495484
134	0x3df6ceda	0.120511726
135	0x3ddb117f	0.106966965
136	0xbe89c50c	-0.26908147
137	0x3c1c2fc2	0.009532871
138	0xbe01cdf9	-0.12676229
139	0x3e1f1e86	0.15538988
140	0x3dd3568e	0.10319243
141	0xbe371a6d	-0.17881174
142	0xbdca5def	-0.09881198
143	0xbe2c8b0f	-0.16849922
144	0xbdc5b53a	-0.09653707
145	0x3c8cbf4c	0.017181061
146	0x3da9eb50	0.082968354
147	0xbe72d462	-0.2371383
148	0x3e8a80aa	0.27051288
149	0x3d46f496	0.0485731
150	0xbe89a5b9	-0.2688425
151	0x3e2424db	0.16029684
152	0x3d01e09d	0.03170835
153	0x3e100018	0.14062536
154	0x3c6187ec	0.013765316
155	0x3bb29eee	0.005451075
156	0x3de0df05	0.109800376
157	0x3dfe73aa	0.12424405
158	0x3e02a636	0.12758717
159	0x3bcef3f8	0.0063157044
160	0x3dd808e4	0.10548571
161	0x3d1b1d05	0.037869472
162	0x3dd3649b	0.10321923
163	0x3d1d03c8	0.038333684
164	0xbdc3ccc0	-0.09560537
165	0xbe8b3b57	-0.2719371
166	0x3d985aee	0.074392185
167	0x3ba0a3f8	0.004902359
168	0xbe3fc1ab	-0.18726222
169	0xbddad0f1	-0.10684384
170	0x3db70f7e	0.08938502
171	0xbe270f68	-0.16314471
172	0x3e05a405	0.1305085
173	0xbe5abfde	-0.21362254
174	0xbde7bd0b	-0.11315354
175	0x3e145bf2	0.144882
176	0x3e1f4471	0.15553452
177	0xbcc87c89	-0.024473445
178	0xbd0625a8	-0.032750756
179	0xbdc600e6	-0.0966814
180	0x3d68677d	0.05673932
181	0x3ca03284	0.019555338
182	0x3d01f7b1	0.031730358
183	0xbcc146fc	-0.023593418
184	0xbe149b78	-0.14512432
185	0x3e54c649	0.20778765
186	0x3e1701c6	0.1474677
187	0xbe6e27b1	-0.23257329
188	0x3de08e22	0.1096461
189	0x3c2c9b0c	0.010535013
190	0x3e40cdbe	0.18828484
191	0xbdb2297a	-0.08699317
192	0x3d7006d9	0.05860028
193	0xbd77df66	-0.060515784
194	0x3bbacabe	0.0057004383
195	0x3c5918b4	0.013250519
196	0xbd7c05f1	-0.061529104
197	0xbd28f980	-0.041253567
198	0x3e4d893d	0.20071883
199	0xbdd13c92	-0.10216631
200	0x3e0243d3	0.12721185
201	0xbcc7d260	-0.024392307
202	0x3cb94049	0.022613661
203	0xbbd8933c	-0.0066093486
204	0x3e000af0	0.12504172
205	0x3e112ffe	0.14178464
206	0xbd4c374d	-0.049857426
207	0x3e0a76dd	0.13521905
208	0xbcd2fb0c	-0.025754474
209	0xbdbfe9de	-0.093707785
210	0xbe15fe01	-0.14647676
211	0x3da14f9d	0.07876513
212	0x3ddae1a7	0.10687571
213	0xbd8f63e9	-0.07001478
214	0x3e57333d	0.2101564
215	0xbd8417c2	-0.06449844
216	0xbcc00f20	-0.023444712
217	0xbd492f58	-0.049117416
218	0x3bbc4136	0.0057450784
219	0xbc89d33f	-0.016824363
220	0x3df073b8	0.117408216
221	0xbdb4f3ae	-0.08835541
222	0x3e5f2382	0.21790889
223	0xbb4cc088	-0.0031242687
224	0xbe20f499	-0.15718307
225	0x3d965719	0.07340831
226	0x3de08d66	0.109644696
227	0x3bee934e	0.0072807437
228	0xbd9f03ef	-0.07764422
229	0x3e527c40	0.2055521
230	0xbe6b0756	-0.22952017
231	0x3d897ecf	0.0671364
232	0xbd85ea54	-0.06538835
233	0x3d2f7fe0	0.04284656
234	0xbdb1fa91	-0.0869037
235	0x3d3b9da7	0.045804646
236	0x3d641175	0.05568071
237	0xbe81766d	-0.25285664
238	0xbded8497	-0.11597555
239	0xbd72325b	-0.059130054
240	0x3d3c17d6	0.04592117
241	0xbc33e66e	-0.010980232
242	0xbe0503ff	-0.12989806
243	0xbdbf700a	-0.09347542
244	0xbd14af68	-0.036300093
245	0xbe158e03	-0.14604954
246	0x3dc1b94b	0.0945917
247	0xbd9ed018	-0.077545345
248	0xbe038be5	-0.12846334
249	0x3d014295	0.03155764
250	0xbd029062	-0.031875975
251	0xbe85e91b	-0.26154408
252	0xbe09f099	-0.13470687
253	0xbb8320e4	-0.0040017236
254	0xbe00ea09	-0.12589277
255	0x3dc1591d	0.09440825

lstm.bias_ih_l0_reverse f4 [120]
0	0xbd56d4e0	-0.052449107
1	0x3e2fa7ee	0.17153904
2	0x3e1de45d	0.15419145
3	0x3d0e03ea	0.0346717
4	0xbd56f71a	-0.05248175
5	0xbd6d5a68	-0.057947546
6	0xbd0b0330	-0.033938587
7	0x3c2518d1	0.0100767175
8	0xbe1ba2d3	-0.15198831
9	0x3dc19563	0.094523214
10	0x3d56d975	0.052453477
11	0xbde55565	-0.11197928
12	0x3ce8c4a8	0.028414086
13	0x3e8687ad	0.26275387
14	0xbd15867f	-0.03650522
15	0xbd8009e7	-0.06251889
16	0x3e052a3d	0.13004394
17	0xbe168246	-0.14698133
18	0xbd1f30cd	-0.0388649
19	0x3dbf2fd5	0.09335295
20	0x3d894629	0.06702835
21	0x3dd75e3f	0.10516023
22	0xbc7f02ae	-0.015564604
23	0xbc225cd8	-0.009909831
24	0x3d3616ef	0.044455465
25	0xbd0321ff	-0.032014843
26	0xbd8b0f65	-0.06790046
27	0x3d9c2c18	0.07625598
28	0xbdb0f63d	-0.08640716
29	0xbdce2447	-0.10065513
30	0x3e0d610d	0.13806553
31	0x3d1ec9e1	0.038766745
32	0x3e12613f	0.14294909
33	0xbbca5786	-0.0061749844
34	0x3e85e931	0.26154473
35	0x3c93cd32	0.01804218
36	0x3c271efa	0.0102002565
37	0x3e114519	0.14186515
38	0x3e6912db	0.22761099
39	0xbe00014f	-0.12500499
40	0x3bad989f	0.005297735
41	0xbdf27616	-0.11838929
42	0xbd529424	-0.05141081
43	0xbc956880	-0.018238306
44	0x3e46515b	0.19366972
45	0x3e20f226	0.15717372
46	0x3d927631	0.071514495
47	0xbd2088ad	-0.039192844
48	0x3c859c68	0.016309932
49	0xbdad2339	-0.08453984
50	0xbd9a2ee5	-0.07528476
51	0x3e17e189	0.14832129
52	0x3e35b45f	0.17744587
53	0xbe05bf76	-0.13061318
54	0x3b9d1ebc	0.0047949236
55	0x3e3d47ca	0.18484417
56	0x3d080732	0.033209987
57	0x3de7370d	0.11289797
58	0xbdc20d95	-0.09475247
59	0x3c99649c	0.018724732
60	0x3e08b83a	0.13351527
61	0x3df44185	0.11926559
62	0x3c0f0e72	0.008731471
63	0xbddbe69c	-0.107373446
64	0x3e42f849	0.19040026
65	0x3c33158f	0.010930433
66	0xbd80af07	-0.06283384
67	0x3df8829d	0.121342875
68	0x3dafa875	0.085770525
69	0x3e1cc152	0.15308121
70	0x3d889b00	0.06670189
71	0xbc91ba0e	-0.017788913
72	0x3e1e4b1a	0.15458336
73	0x3bd49742	0.006487758
74	0x3e0b6c28	0.13615477
75	0x3d2638b3	0.040581416
76	0xbdc82390	-0.09772408
77	0x3db376b1	0.08762873
78	0xbda05ab9	-0.07829804
79	0x3da22f55	0.07919184
80	0x3df4a339	0.11945195
81	0xbe28ea39	-0.16495599
82	0xbd79a38e	-0.060946994
83	0xbe14177e	-0.14462087
84	0xbd34387a	-0.043999173
85	0xbe1d6e77	-0.1537417
86	0xbd9bdf82	-0.0761099
87	0xbe22434d	-0.15845986
88	0xbc9af9d0	-0.018917948
89	0xbcab7a6e	-0.020932402
90	0xbd783408	-0.060596496
91	0x3e5cea4a	0.21573749
92	0x3d3e4fea	0.04646293
93	0xbd84f769	-0.06492502
94	0x3d9632aa	0.07333882
95	0xbdace82c	-0.08442721
96	0x3e4eb28e	0.201853
97	0xbd0f1e7b	-0.034941178
98	0x3de21657	0.11039417
99	0xbe32444e	-0.17408869
100	0x3e161441	0.14656164
101	0x3e59c87c	0.21267885
102	0xbd99268f	-0.074780576
103	0x3e3c783d	0.18405242
104	0xbd60d7d9	-0.05489335
105	0x3d904907	0.07045179
106	0xbcab9dc0	-0.020949244
107	0xbe1156b8	-0.14193237
108	0xbd925e53	-0.07146897
109	0xbc8885d4	-0.016665377
110	0xbe09687d	-0.13418765
111	0x3e1d673c	0.15371412
112	0x3e4ff2a1	0.203074
113	0xbd5d9da0	-0.0541054
114	0xbc2ef566	-0.010678625
115	0xbd58e2c5	-0.05295064
116	0xbd807a87	-0.0627337
117	0x3d9c96b0	0.07645929
118	0x3dfa3972	0.12217988
119	0x3e1609e2	0.14652207

lstm.bias_hh_l0_reverse f4 [120]
0	0xbdb3972f	-0.0876907
1	0x3e138e3e	0.1440973
2	0xbe00ee6e	-0.12590954
3	0x3e66d1d5	0.22540982
4	0xbd7c0381	-0.06152678
5	0xbe04af6b	-0.12957542
6	0x3de46183	0.111514114
7	0x3e08e754	0.13369495
8	0xbe2d7977	-0.16940866
9	0xbd6c5684	-0.057699695
10	0x3dcaddd4	0.099055916
11	0x3e2660dd	0.16247888
12	0x3e299614	0.16561157
13	0x3dfc79e7	0.123279385
14	0xbe025538	-0.12727821
15	0xbdaed649	-0.085369654
16	0xbd7459b3	-0.059655856
17	0xbc94c198	-0.018158719
18	0xbde4e260	-0.1117599
19	0x3e0ecde6	0.13945732
20	0xbe10363c	-0.14083189
21	0x3b4fa98f	0.0031686758
22	0xbbeb1c02	-0.0071749697
23	0x3cff4ca6	0.031164479
24	0x3da1c0f1	0.07898129
25	0xbc00ff8e	-0.007873429
26	0xbda10610	-0.078624845
27	0xbd6c1cd2	-0.057644673
28	0x3e17f079	0.14837827
29	0x3e28525e	0.1643767
30	0x3e0babfb	0.13639824
31	0x3d3af5e7	0.045644667
32	0x3dbdda4e	0.09270154
33	0x3df3d213	0.11905303
34	0x3c471ea2	0.0121532995
35	0xbd065ba8	-0.032802254
36	0xbd4ab091	-0.049484793
37	0xbdc140ee	-0.094362125
38	0xbc241111	-0.010013835
39	0x3db9278b	0.09040745
40	0x3ced706e	0.028984275
41	0xbd90bc5b	-0.07067176
42	0x3e39674a	0.18105808
43	0xbad3434f	-0.0016118082
44	0x3c1b9211	0.009495274
45	0xbced2a2e	-0.028950777
46	0xbd3357cb	-0.043784898
47	0xbdc6725a	-0.096897796
48	0xbe02b443	-0.12764077
49	0x3d01825f	0.031618472
50	0xbbbb911b	-0.005724085
51	0x3e591add	0.21201654
52	0x3e0bb7e0	0.13644361
53	0xbbb591ef	-0.0055410783
54	0x3e99b1a5	0.30018345
55	0xbe1c6ea9	-0.15276588
56	0xbd28bb3a	-0.04119418
57	0x3d55ecb2	0.052227683
58	0x3df5f45f	0.12009501
59	0x3c435902	0.011923077
60	0x3e2111c9	0.15729441
61	0xbe0eb365	-0.13935621
62	0xbc624d3f	-0.013812362
63	0xbc21c6fe	-0.009874104
64	0xbdbe0dc5	-0.0927997
65	0x3dce9a70	0.1008805
66	0xbdd9f077	-0.10641568
67	0x3e085e2f	0.13317178
68	0x3ddb37f4	0.107040316
69	0xbd55bace	-0.052180104
70	0x3e087dda	0.13329259
71	0xbd6a196f	-0.05715316
72	0x3baa8700	0.0052040815
73	0xbdc9784a	-0.098373964
74	0x3e142f42	0.14471152
75	0xbd948fd1	-0.07253993
76	0xbe81c5c7	-0.25346205
77	0x3dffce27	0.12490492
78	0x3e040694	0.12893134
79	0x3dca8708	0.098890364
80	0x3da49e9f	0.08038067
81	0xbc00d0d9	-0.007862293
82	0xbd3e510d	-0.046464015
83	0x3e41cb46	0.18925199
84	0xba9fe346	-0.001219847
85	0xbe274b48	-0.16337311
86	0xbcf71d36	-0.030165296
87	0x3aee9ff8	0.0018205633
88	0x3e244eea	0.16045728
89	0xbe2cfec3	-0.16894059
90	0x3e47dfb5	0.19518931
91	0xbc0acd8c	-0.008471858
92	0x3d3504f9	0.044194195
93	0xbdad087d	-0.08448885
94	0x3c94ed99	0.018179702
95	0xbe37d00b	-0.17950456
96	0x3e2b35df	0.16719769
97	0x3e2c4a7f	0.16825293
98	0x3dc2f40c	0.095192045
99	0xbe07a297	-0.13245617
100	0x3a6afc67	0.00089640025
101	0xbd200485	-0.03906681
102	0xbd8c86be	-0.068616375
103	0x3e3ce667	0.18447267
104	0x3dd54116	0.10412805
105	0x3e483f3f	0.19555376
106	0xbd8101b6	-0.062991545
107	0x3cf66ba8	0.030080631
108	0x3db43cff	0.088006966
109	0x3da08a7a	0.07838912
110	0xbe1de39f	-0.15418862
111	0x3d21c1df	0.03949153
112	0x3e4daf47	0.20086394
113	0x3e0cfcbd	0.13768287
114	0xbdaa811d	-0.08325408
115	0xbc0c3eb8	-0.008559875
116	0xbdbc320b	-0.091892324
117	0x3d8d618b	0.069033705
118	0x3d3efbc7	0.046626832
119	0x3c9f244d	0.01942649

lstm.weight_ih_l1 f4 [120, 60]
0	0xbd1325c7	-0.0359247
1	0xbc6b96fe	-0.014379261
2	0xbdd9fddb	-0.10644122
3	0xbcd84477	-0.026399834
4	0x3dd350e0	0.1031816
5	0xbd15c8bc	-0.03656839
6	0x3df1f6ba	0.118146375
7	0x3d5ed16f	0.05439895
8	0xbe0fbb19	-0.14036216
9	0x3e5cf3c0	0.21577358
10	0xbdec80da	-0.11548014
11	0x3e174952	0.14774063
12	0x3d98965f	0.07450556
13	0x3da1cdcf	0.07900583
14	0xbe1fef56	-0.15618643
15	0x3d8aa348	0.06769425
16	0x3c9ad75a	0.018901516
17	0x3d9a6693	0.07539096
18	0x3e3638f1	0.17795159
19	0x3e0d255e	0.13783786
20	0xbd7840d2	-0.060608692
21	0xbe0b654f	-0.13612865
22	0x3d8dfe0c	0.06933221
23	0x3e172a87	0.14762317
24	0x3e058fee	0.13043186
25	0x3e02b1bc	0.12763113
26	0xbe04278f	-0.12905715
27	0x3e292e1c	0.16521496
28	0xbd91ce50	-0.07119429
29	0x3d8089f1	0.0627631
30	0x3e3d117d	0.18463702
31	0x3e35e3c3	0.17762665
32	0xbd46b337	-0.048510756
33	0x3dc2a8d2	0.09504856
34	0xbde08058	-0.1096198
35	0x3cac3db9	0.021025525
36	0x3e2d97f8	0.16952503
37	0x3dd2e7bc	0.10298106
38	0xbdabd221	-0.08389688
39	0x3d8dfd45	0.06933073
40	0xbda1f40d	-0.07907877
41	0xbdef4421	-0.116829164
42	0x3e2ef9c0	0.1708746
43	0x3c3dcc37	0.011584333
44	0xbcc12205	-0.023575792
45	0xbd9a1778	-0.075240076
46	0x3dd40239	0.103519864
47	0xbda12050	-0.07867491
48	0x3c026fc7	0.00796122
49	0xbd80b356	-0.062842056
50	0xbc7ff044	-0.015621249
51	0x3e3d772d	0.18502493
52	0x3dc86343	0.09784558
53	0xbe4b331a	-0.19843712
54	0xbe465069	-0.19366612
55	0x3e19476f	0.14968656
56	0xbe19b4a8	-0.15010321
57	0xbe58912e	-0.21149132
58	0x3e33bea3	0.17553191
59	0xbe2cb524	-0.16865975
60	0xbbe80c16	-0.007081519
61	0xbcf6a846	-0.030109536
62	0x3d070caf	0.03297108
63	0x3dd87745	0.10569624
64	0xbdbcaa13	-0.092121266
65	0x3d334f2b	0.043776672
66	0xbda33fb1	-0.079711325
67	0xbbc8bdf3	-0.0061261593
68	0x3ce4cdc9	0.027930157
69	0x3cac83da	0.021058965
70	0x3da8db4c	0.082449526
71	0x3c9c3fd6	0.019073408
72	0xbcc7c1d1	-0.024384411
73	0x3b73a1a9	0.0037175214
74	0xbe1bc273	-0.15210895
75	0xbd1aa228	-0.0377523
76	0x3e566cb4	0.20939904
77	0xbdabd882	-0.08390905
78	0x3e0168e8	0.12637675
79	0x3c8690dd	0.016426498
80	0xbe1c61a5	-0.15271623
81	0x3dcc7776	0.09983723
82	0x3b583596	0.0032990924
83	0xbd32e21d	-0.04367267
84	0x3cc2dbdd	0.02378648
85	0x3d95a3d1	0.07306636
86	0xbc0ec5f9	-0.008714193
87	0xbe0bdd5b	-0.13658659
88	0xbdb1bc91	-0.08678544
89	0xbe2eb840	-0.17062473
90	0xbe2737a2	-0.16329816
91	0xbdf4ae43	-0.119473
92	0x3bbb8185	0.005722227
93	0x3d638a2b	0.05555169
94	0x3da7f5be	0.082011685
95	0xbbbded5d	-0.005796118
96	0x3d203350	0.039111435
97	0xbabfb7ff	-0.0014626979
98	0x3d8e48a9	0.069474526
99	0x3dc529b5	0.096270956
100	0xbdbdf2ac	-0.092748016
101	0x3db2bc65	0.0872734
102	0xbbb9bf2a	-0.0056685405
103	0xbdd85816	-0.10563676
104	0x3d2ddf14	0.042449072
105	0xbdba4486	-0.09095101
106	0xbe05897e	-0.1304073
107	0xbd15647c	-0.036472782
108	0x3dbafe27	0.09130507
109	0xbe3741cb	-0.17896192
110	0x3cc1c1fd	0.023652071
111	0xbe12da9f	-0.1434121
112	0x3e04b2c4	0.12958819
113	0xbdde35c5	-0.108500995
114	0xbdbf77dd	-0.09349034
115	0xbd47196b	-0.048608225
116	0x3d9f210d	0.07769976
117	0xbd214e59	-0.03938136
118	0x3d6f4ca0	0.058422685
119	0xbcc24939	-0.023716556
120	0xbdce5e27	-0.10076552
121	0xbe025d1d	-0.12730832
122	0xbce5f387	-0.028070224
123	0xbe02832d	-0.12745352
124	0xbd72e2c6	-0.0592983
125	0x3e1d428e	0.1535742
126	0x3d98fb4d	0.07469807
127	0xbc394161	-0.011307091
128	0xbdaa7478	-0.08322996
129	0x3e30ede2	0.17278245
130	0xbc0edf61	-0.00872025
131	0xbdcb5c9c	-0.09929773
132	0xbdc1b752	-0.09458794
133	0xbde2da1d	-0.11076758
134	0x3e074a67	0.13211976
135	0x3d29f834	0.04149647
136	0x3e263f2f	0.1623504
137	0x3e14de76	0.14537987
138	0x3d95397e	0.072863564
139	0x3e221a52	0.15830353
140	0xbb4fd4f2	-0.0031712619
141	0xbe096f92	-0.13421467
142	0xbcfa64fb	-0.03056573
143	0x3e2e348a	0.1701223
144	0x3da3ef23	0.08004596
145	0x3d8cf778	0.068831384
146	0x3e19990a	0.14999786
147	0xbc773143	-0.0150874285
148	0x3e226c86	0.15861711
149	0xbda48672	-0.08033456
150	0x3dd3b499	0.10337181
151	0x3d4f61f3	0.05063052
152	0x3d82cf13	0.063871525
153	0xbcfda917	-0.030964417
154	0x3e0b35ac	0.13594693
155	0xbe20bd0f	-0.1569712
156	0xbc906824	-0.017627783
157	0xbcc0b03e	-0.023521539
158	0x3c4cb326	0.012493884
159	0xbe076ab3	-0.13224296
160	0xbd3f9dc0	-0.0467813
161	0x3e318eb8	0.17339599
162	0xbde332ab	-0.110936485
163	0xbb5e37c3	-0.0033907748
164	0xbddc2700	-0.10749626
165	0xbddba3d9	-0.10724611
166	0x3e50df6a	0.20397726
167	0x3dafdf2e	0.0858749
168	0x3c740e50	0.0148959905
169	0xbb800402	-0.003906728
170	0x3df7f73a	0.121077016
171	0x3cb5a874	0.022175051
172	0x3e45d194	0.19318229
173	0xbe1565a1	-0.1458955
174	0xbdc1349e	-0.09433864
175	0xbd1d79e7	-0.038446333
176	0x3e15e379	0.14637555
177	0x3dfa5208	0.122226775
178	0xbde60a5f	-0.11232447
179	0xbca3840d	-0.019960428
180	0x3cf563e6	0.029954862
181	0xbd1d706b	-0.03843729
182	0xbe1e9519	-0.15486564
183	0xbca761c1	-0.020432355
184	0xbe0b8fce	-0.13629076
185	0xbd42e718	-0.04758367
186	0xbd90e369	-0.07074625
187	0x3d51d795	0.051230986
188	0xbe0e85e4	-0.13918263
189	0xbd8723ae	-0.06598602
190	0x3bab9d0d	0.005237228
191	0xbe0f6deb	-0.14006774
192	0x3d354d5e	0.044263236
193	0x3d1021de	0.03518855
194	0xbd0f6ae5	-0.035014052
195	0xbe417705	-0.18893059
196	0xbdd8e5cd	-0.10590706
197	0x3d9839a5	0.0743287
198	0x3bfd9d03	0.0077396645
199	0x3d76b417	0.06023034
200	0x3d976504	0.07392314
201	0x3e5247ac	0.20535153
202	0x3dced418	0.100990474
203	0xbd246547	-0.040135648
204	0x3daab608	0.08335501
205	0x3c246e69	0.010036089
206	0xbe14cf85	-0.14532287
207	0x3e0750a9	0.13214363
208	0xbd96ce91	-0.07363618
209	0x3e086e50	0.13323331
210	0x3d819291	0.063267834
211	0xbe388750	-0.18020368
212	0x3e2d2202	0.16907504
213	0xbcd132ec	-0.025536977
214	0x3c9c8d62	0.019110385
215	0x3d48d9e2	0.049035914
216	0x3dacd07f	0.08438205
217	0x3d556a6d	0.05210345
218	0xbe09df92	-0.13464192
219	0x3d0e4138	0.034730166
220	0x3e2c208e	0.16809294
221	0xbe299a13	-0.16562681
222	0x3db6f71b	0.089338504
223	0xbd4aa8b8	-0.04947731
224	0x3d0f5507	0.034993198
225	0xbe0a8352	-0.13526657
226	0xbe13d873	-0.14438038
227	0xbe03995c	-0.1285147
228	0xbcb9d828	-0.02268608
229	0xbd284318	-0.04107961
230	0x3de98b32	0.114035025
231	0x3d86811f	0.06567597
232	0x3d0c3cd7	0.03423771
233	0x3ca20871	0.019779416
234	0x3e22befc	0.15893167
235	0x3df40e58	0.11916798
236	0x3d2bdaae	0.041956596
237	0xbdab725d	-0.083714224
238	0xbe327e00	-0.17430878
239	0x3e16f3d2	0.14741448
240	0x3dc91e7d	0.09820268
241	0x3def60bc	0.116883725
242	0x3d384949	0.044991765
243	0xbdf3fa0c	-0.11912927
244	0xbd6223dd	-0.055209983
245	0xbd33b460	-0.04387319
246	0xbe1d4f25	-0.15362222
247	0xbdaad793	-0.08341899
248	0xbcb91e5b	-0.022597482
249	0xbd1037d4	-0.03520949
250	0x3dd6c965	0.10487632
251	0x3da5a208	0.08087546
252	0xbc57eaad	-0.01317851
253	0xbe12f39b	-0.1435074
254	0xbc0f5723	-0.008748802
255	0xbdacc26b	-0.0843552
