model/LSTMY/T1Dcheckpoint0.pt (torch, 229215 bytes, 31 tensors)

lstm.weight_ih_l0 f4 [120, 15]
00000000: 70f2 0a3e adc4 3b3e 7663 5dbb eebe 85be
00000010: 31ab 273e 7bf6 2ebe d34f 103e dc7d 87bb
00000020: fdfa 0abd 97ed 36bc be3d c7bd 4d90 86bd
00000030: 1832 4e3d 0489 5dbe 656d 573d 23cf b0bc
00000040: bc7a 423e 9338 22be 91fb 67bd fdd2 ad3d
00000050: 2ca3 29be 098f 5ebe 327e 03be b83f 24be
00000060: 3e01 a4bd 42c2 c53c b957 1b3e 3157 ae3d
00000070: 6646 78bd 3721 383e 4342 e83c 16a8 873c
00000080: 4a3c 0fbd 825c 51be 6c36 8abd 4c1a de39
00000090: 0d22 33be 78ac c6bd e096 0abd 6872 93ba
000000a0: ccfd d1bc 0428 db3d be27 1bbd 70fb 90bb
000000b0: ce0e 0b3e 1032 3b3d ca37 1bbd b063 853e
000000c0: f324 033c 45f3 8c3d 775f 13be 72da e0bd
000000d0: 6733 113e 0b72 f6bd a3e5 a13d 5711 683d
000000e0: 3fcd f73d 4289 76bd c745 e5bd 93d9 2a3e
000000f0: 8445 0c3e a8fe 15be e944 f8bd b5dc 1ebd
00000100: a5f7 22be 0b57 1cbe 4162 4e3b 56ad b13c
00000110: a22b aeb8 4bd7 413d b8bd 883d 6634 623d
00000120: 1368 de3d abc3 8c3d 2ef7 073e 3c69 343d
00000130: 6e7f 2e3e 2684 05be 8b9c e5bd 732b db3d
00000140: 4642 2f3d 3ec2 97bd 46ac 303d 211a 493e
00000150: f19b ecbd e25f 25be 8ac4 28be eb35 ca3d
00000160: c018 d6bc 0939 84be b9b1 9e3d 99f1 0d3c
00000170: e7d5 3f3d b74f 88be af00 823e 6016 09be
00000180: 75cd 47bc 463b e3bd 5411 febc fb8e a73d
00000190: f14c 62bd b0a6 f7bd 8f10 773d e223 393e
000001a0: 3ef9 843d 4130 0abd 68b6 a5bd fdc4 ab3d
000001b0: ae76 88be a22b afbd 2256 33bd 18a3 c4bc
000001c0: e18f 823e 01ee cb3d a541 303c ee69 973e
000001d0: 6bad 28be d1eb 9a3d 9161 31be ea89 a73d
000001e0: 3ba6 f1bd e339 35bd 90a9 183e 1395 d1bd
000001f0: e739 5abd 5d95 503d 9253 903d bd3e 3abe
00000200: 51a6 4d3d beea 1e3e 1b16 4a3e b115 12bd
00000210: 8eea 52bd dccb fe3d 3846 c83c d3ae 023e
00000220: db12 603b 7616 913d 1692 42be 4de2 5e3d
00000230: b666 823e f564 1abd cc9b b63d 96fe 15be
00000240: 91ba 2dbe fdb7 f7bc 03d9 ebbd fa7e 173d
00000250: a00b 5c3d 33a2 91be 0204 513d ffac 05bd
00000260: 3d47 b83d f256 e23d 5ef1 6f3e a0e0 d43a
00000270: cff5 a7bc 8268 e23d 4eab 3ebd 70ef 933d
00000280: 0bfa c53d 6e88 e2bd 0d78 593e b388 653e
00000290: 9c51 0e3e c781 79be 6aa5 973c 5098 31be
000002a0: ed0d 2b3e cc19 7ebd deec ba3d 9c19 213e
000002b0: a27a 143e 72bc 69be 48dd 15be c103 07be
000002c0: 72c7 d53d 98fa ebbc 73bb d0bd 68f4 0d3e
000002d0: 0776 20be 5970 ecba 63a9 253d 39e3 063d
000002e0: 4b67 1bbe df56 a73d e313 23be 6e00 373e
000002f0: 2d89 a73d 32f7 463e ade5 123e dd45 68bd
00000300: 4135 02bd 4c12 59be 23a0 0b3e 14c7 84bc
00000310: 3360 893d 4efd 81bd ef42 5d3e df51 6cbd
00000320: a371 3fbd f2cd e0bd 5357 7f3d 173b 253e
00000330: 3209 a23c 6d04 a73b 1777 5c3e aa39 91bd
00000340: e049 d5bb 9d3e 83bd 68bf b0bd 7fab 3d3c
00000350: 8156 67be cd30 333e f43b 59be fa7b 3ebd
00000360: 4fd6 eb3d f84b 20be 2eab b03c 5392 33bd
00000370: 5d8b 18be a544 85bc 21a2 3c3e 25b6 6d3d
00000380: 0114 24be 8155 723d 2fda 17be c34b f83d
00000390: f7b6 bdbc d5ef 743e 3728 c5bd 89fd c23d
000003a0: 3e5e 38be 9579 f83d aaad b3bd ead9 7cbd
000003b0: 3847 2bbd 1aef 9d3d 6283 923d 0dd0 e73d
000003c0: 2a99 1cbe 151f 1abe 398c 83bd c006 8a3d
000003d0: 3b40 84bd 8edc b33d af26 703e 5c42 073b
000003e0: 8e6e 003e 1f7f 9b3c 2e25 7d3c c0bb 0f3e
000003f0: 9f81 3c3e 2c29 223d d9cb ff3d e11f 2a3d
0.13569045 0.18336745 -0.0033781207 -0.2612223 0.16373898 -0.17086212 0.1409295 -0.0041348767
-0.033930767 -0.011165044 -0.09728573 -0.06570492 0.050340742 -0.21634299 0.05259456 -0.021583145
0.18992132 -0.15841894 -0.056636397 0.084875084 -0.16566151 -0.21734251 -0.12841108 -0.16039932
-0.080080494 0.02414048 0.15170182 0.08512724 -0.060614012 0.1798142 0.028351909 0.016559642
-0.034969606 -0.20445445 -0.067486614 0.00042362732 -0.17493458 -0.097008646 -0.03383529 -0.0011249306
-0.025633715 0.10700992 -0.037879698 -0.004424505 0.13579866 0.04570204 -0.037895 0.26052618
0.008004415 0.068823375 -0.14391886 -0.10979165 0.14179765 -0.12033471 0.07905128 0.05665716
0.120996945 -0.060189493 -0.111949496 0.1668456 0.13698393 -0.14647925 -0.121225186 -0.0387847
-0.15914781 -0.1526758 0.003149167 0.021689098 -8.305094e-05 0.04732446 0.06676811 0.055225752
0.10859694 0.06873258 0.13277885 0.04404567 0.17040798 -0.13038692 -0.11211499 0.10701647
0.042787813 -0.07410096 0.043133043 0.19638874 -0.11553181 -0.16149858 -0.16481224 0.09873565
-0.026134849 -0.25824764 0.07748742 0.008663558 0.046834853 -0.26623318 0.25391147 -0.13387442
-0.012194981 -0.1109529 -0.031014122 0.08181568 -0.05524916 -0.1209234 0.060318526 0.18080094
0.06492852 -0.033737425 -0.08091432 0.08387182 -0.26653045 -0.08553244 -0.043783315 -0.02400355
0.25500396 0.09957505 0.010757838 0.29573005 -0.16472404 0.0756451 -0.17322375 0.08180602
-0.11799284 -0.04424466 0.14908433 -0.10233512 -0.053277876 0.050923694 0.0704719 -0.18187995
0.05020744 0.15519235 0.19734995 -0.035665218 -0.05149322 0.12441227 0.024447545 0.12762003
0.0034190926 0.07084362 -0.1900104 0.054415036 0.25468987 -0.037693936 0.08916435 -0.14647898
-0.169657 -0.0302391 -0.11516001 0.03698633 0.053722024 -0.2844406 0.051029213 -0.032635685
0.089979626 0.1105174 0.23431918 0.001624126 -0.020502953 0.110550895 -0.046550088 0.072234035
0.096668325 -0.11061178 0.21237202 0.22415428 0.13898319 -0.24365912 0.018511493 -0.17343259
0.16704531 -0.06203632 0.0912721 0.15732425 0.14499906 -0.22825792 -0.14635193 -0.13185026
0.10438432 -0.028806016 -0.10192003 0.13862765 -0.15670024 -0.0018038853 0.040444743 0.03293154
-0.15176122 0.08170866 -0.15925555 0.17871258 0.08180461 0.19430235 0.14345427 -0.05670725
-0.031789068 -0.21198386 0.13635306 -0.01620821 0.06707802 -0.06347142 0.21607564 -0.057695266
-0.04673923 -0.10976781 0.06233914 0.16135822 0.019779775 0.005096963 0.21529804 -0.07091077
-0.0065090507 -0.06408427 -0.08630258 0.011576532 -0.22591592 0.17499085 -0.21214277 -0.046504952
0.115154855 -0.1565398 0.021566 -0.043840718 -0.14896913 -0.016268084 0.18421222 0.058035035
-0.16023256 0.059163574 -0.14829324 0.121238254 -0.023158533 0.23919614 -0.09626811 0.09521014
-0.180047 0.12132565 -0.08773358 -0.061731257 -0.041815966 0.07711621 0.071539655 0.113189794
-0.15292802 -0.1505092 -0.0642323 0.06739569 -0.064575635 0.08782302 0.23452257 0.0020638919
0.12542173 0.018981514 0.015450759 0.14036465 0.18408822 0.039590046 0.12490053 0.04153431

lstm.weight_hh_l0 f4 [120, 30]
00000000: 5337 483e 962b 9bbc 9db6 66bd bdad 1ebe
00000010: 1e96 153e aeae 023e 1f2b c0bd b457 b13d
00000020: 7750 99bd 401d 673d d060 3cbe d7e6 09be
00000030: e836 dd3c 61fe d33c f02e 483d 685b 2e3d
00000040: d2a4 dc3c bd35 b13d 979f f53d 1dd7 123e
00000050: 5d9d debc 22f7 443e a015 cebd c770 8c3d
00000060: 405c b0bd 2b3a 053e 0d59 c43c c055 543e
00000070: 8201 46bc 6af8 203e 8fac fa3d 9764 8a3e
00000080: 8060 6b3c de42 ddbd 6f62 ffbd 4e3c 553d
00000090: 7c30 053d 2b0f 263e efcb 8ebe eccf 4ebe
000000a0: 621c 02be fe24 19be ae0c 00bb 952b 0ebe
000000b0: 50ab 7a3d 7943 953d 4b84 323e 2c2d 713e
000000c0: 33d0 0d3e 6bd5 dc3b a86c 19bd 8ee1 ce3a
000000d0: 39a4 733d 0ef1 1abe 55af cf3d 3e12 9abd
000000e0: 5d3a b8bd 301d c93d 39cd 64be 4023 21bc
000000f0: e518 2e3e 930c 34be e109 83bd 215a 36be
00000100: 39d2 d13c 308a 383e b9b4 083e 8583 0d3e
00000110: 8feb 74be bda5 1bbe a8c4 3fbc e3ba 3f3e
00000120: 433c 46bd e13c e13d 0558 3f3e 432b 27ba
00000130: dce8 8cbe eea9 b03d ab45 ae3c 86d7 c4bc
00000140: 2d77 11be e8c1 05bd 803a d4bb 7e42 2cbe
00000150: af98 b03d 45e3 2d3e 1427 8ebd afcc 0abe
00000160: b20c 63be 3bc4 debd f06c 013e 5895 4e3d
00000170: 7870 083e 1082 42bd 6c0f 28bd f52c 98bd
00000180: dd37 3d3d 2f93 48bd 54ef 42be 8e38 403e
00000190: 787a 52be 24ee 6ebd c79a fa3d 849e a13d
000001a0: 1677 0dbd d7fa 21be b98c 603e 4396 bfbd
000001b0: e119 163d 7e37 01be 7200 343e 6866 723d
000001c0: 8ca8 a63d 0d4c e5bc 466d 8abd 39c0 ccbd
000001d0: ae78 f23d c689 b2bd 8b32 f93d 4c81 38bd
000001e0: dadc 65be 163a 543d d607 a03d ffb5 1fbe
000001f0: 17fb 53be 6456 e0bc 8715 0fbd ef76 793e
00000200: bba7 093e e042 453d 901e 96be 3a5f 1f3d
00000210: 8f69 cf3d 6d70 f43d dd56 0ebe c52e 2b3e
00000220: f511 aa3d 469c 59bd 92b3 703e 937c ddbc
00000230: e949 24bc 220f c6bd e58c c33a 1ec7 d83d
00000240: f226 c9bc 30e9 79bd ec99 953c 9572 cbbc
00000250: 8509 963e 6c0d 9abe d489 dfbd 213d 88be
00000260: 1490 8f3d d435 97be a99b e4bc 3b55 79bd
00000270: 5c8c a13e e06a 52bc af45 99be 8cac 193e
00000280: debc 1d3b cedf abbd 6f1b 3bbe 33e4 583d
00000290: 50bb 863d 7373 2b3e ed18 903e ee10 f23c
000002a0: 4a38 a6bb 713e d73d 8d30 76bd e08e 5f3e
000002b0: 64d5 853d 7feb 7a3e 9e2e 1c3e 039d e33a
000002c0: c274 78be f48d 7a3e 7b7b 8a3e cf60 2ebe
000002d0: 7c4d c43d dacd a3bd 8c22 d33d efcd a73d
000002e0: ce1c f7bd e993 36be 2c09 373e 906b 373e
000002f0: c261 093e d9ef 513b 03bc 03be 5b73 4d3e
00000300: 37a8 523e c9f5 8c3e bf68 29be 4656 553d
00000310: 5c8d 03be f3be 793e 3d6a a4be 28f0 24bd
00000320: 359a 97be b4aa a33e e380 253d a27f e3bc
00000330: 5675 8d3e 8680 053e 53e6 46bd a37c b83d
00000340: de8b 87bd 3782 5ebd bc2d e33d 2611 18bb
00000350: 89d0 7bbb 404c 6cbe 5eac a8bd 0aae 803e
00000360: 75df 983e ef00 753d 0480 f6bd 3559 103e
00000370: 5e8e 9bbd 202d 68be 24d1 31bd 193b 053e
00000380: 505f 5bbe 8da9 dfbc 19b7 c93d 9101 08be
00000390: 0723 f6bd 1dc3 183e f464 48be 8c24 41be
000003a0: 95a7 eabd 5def f83d 3e3b debd ea6e 80bd
000003b0: f7a9 0d3e 36ba 833c aa71 50bd 4122 fcbd
000003c0: 2793 b23c 1079 1cbe 090b 613e 1a9c 77be
000003d0: dcbe 41be 348a 99bc 7928 35be 73b5 1a3e
000003e0: 3e99 c53c 0685 ae3e 1ffb 973c f80c a2bd
000003f0: 8fc5 aa3e 3946 4d3e e0f1 ee3b 79d6 ee3d
0.19552355 -0.018941682 -0.056326497 -0.15495963 0.14608046 0.12761948 -0.09383225 0.08659306
-0.074860506 0.05642438 -0.18396306 -0.13466965 0.02700372 0.025878133 0.048872888 0.04256764
0.026934061 0.08652828 0.1199333 0.14339872 -0.027174646 0.19234899 -0.100627184 0.06857448
-0.08611345 0.1301047 0.023968244 0.20735836 -0.01208532 0.15719762 0.12239944 0.2702987
0.014366269 -0.108037695 -0.124699466 0.052059464 0.03251694 0.16216724 -0.27889964 -0.20196503
-0.1270614 -0.14955518 -0.0019538808 -0.13883813 0.061198533 0.0728826 0.17433278 0.23552388
0.13848953 0.0067393086 -0.03745714 0.0015783773 0.059482787 -0.15131018 0.10140864 -0.07523011
-0.08995507 0.0982002 -0.22343911 -0.009835064 0.17001684 -0.17582922 -0.063983686 -0.17807819
0.025612937 0.18021464 0.1335019 0.13819702 -0.23917983 -0.15199943 -0.011704601 0.18723635
-0.048397314 0.1099794 0.1868592 -0.0006376991 -0.27521408 0.086261615 0.021273455 -0.02402855
-0.14205618 -0.032655627 -0.0064767003 -0.1682224 0.08622872 0.16981228 -0.06941047 -0.13554643
-0.22172812 -0.10877272 0.12639213 0.050435394 0.13324153 -0.04748732 -0.041030332 -0.0743045
0.046195854 -0.04896849 -0.19036609 0.18771574 -0.2055453 -0.058332577 0.12236553 0.078915626
-0.034537397 -0.15818344 0.21928681 -0.09354832 0.036645774 -0.12618825 0.17578295 0.059179693
0.081376165 -0.027990365 -0.067591235 -0.09997601 0.11839424 -0.087176844 0.121678434 -0.045045182
-0.2244753 0.051813208 0.078139946 -0.1559677 -0.20701252 -0.027384944 -0.03493264 0.24361776
0.1344289 0.04815948 -0.29320192 0.038909175 0.101275556 0.11935506 -0.13900323 0.1671706
0.08304206 -0.05312755 0.23506 -0.02703694 -0.010027387 -0.09670855 0.0014919309 0.105848536
-0.024554703 -0.0610134 0.018261872 -0.02483491 0.29304138 -0.30088365 -0.109149605 -0.26609138
0.070099026 -0.29533255 -0.027906256 -0.060872298 0.31552398 -0.012842864 -0.29935977 0.15007228
0.0024068872 -0.08392297 -0.18272184 0.052952003 0.06578696 0.16743259 0.28144017 0.029549088
-0.005072628 0.10509957 -0.060104895 0.21831846 0.06534842 0.24503897 0.15252158 0.0017365519
-0.2426329 0.24468213 0.27047333 -0.17029117 0.095850915 -0.079982474 0.10309324 0.081935756
-0.12066041 -0.17829861 0.17874593 0.17912126 0.13416198 0.003203383 -0.1286469 0.20063536
0.20571981 0.2753127 -0.16543864 0.05208423 -0.12846893 0.24389248 -0.32112303 -0.040268093
-0.29609838 0.31966174 0.04040612 -0.027770821 0.27628583 0.13037309 -0.048559498 0.090081476
-0.066184744 -0.0543234 0.110927075 -0.002320358 -0.0038423857 -0.23075962 -0.082360014 0.2513278
0.29857984 0.059815343 -0.12036136 0.1409653 -0.07595514 -0.22673464 -0.043412343 0.13010825
-0.21423078 -0.027302528 0.09849376 -0.13281848 -0.120184 0.1491818 -0.1956976 -0.18861598
-0.11457745 0.1215503 -0.10851143 -0.06271155 0.13834368 0.016080003 -0.05088965 -0.12311221
0.021798683 -0.15280557 0.21976866 -0.24180642 -0.18920463 -0.018742658 -0.1769122 0.1510828
0.024120923 0.34085864 0.018552361 -0.0791263 0.3335385 0.20046319 0.0072920173 0.11662001

lstm.bias_ih_l0 f4 [120]
00000000: 6353 7dbd 9658 a43d 86fb 323e 4fd4 c3bd
00000010: 752b 0fbe 3733 1cbe 9f9d c93c 916f 793d
00000020: 29e1 463d efd5 10be 5e46 05be 3c83 4dbe
00000030: 8c17 143e dafd 2c3e 723e cb3b 9404 77bd
00000040: f69c 07bd 3730 873d cf5f 1c3d fd16 e73d
00000050: 7de2 6e3e c159 213e 4be3 0e3e 9640 52be
00000060: 4885 d9bd 949f 653d d86a e03d 085a 013e
00000070: b415 7abd 7fa1 853b 2ce1 a23d 2876 653e
00000080: 1eb0 493d a278 e23d f6ea ba3d 2346 843e
00000090: 0d02 a8bd 0ee5 573e 9445 883d fed6 193e
000000a0: ff5f 3ebb 5d44 99bd fb04 433d 8d01 233e
000000b0: e3f0 b23d 9258 9d3e 2e19 c33d 98b9 a9bd
000000c0: eb26 843c d9db c5bb d3d3 1e3e fd3f 3d3e
000000d0: a8fc 003a 0d03 1a3e e7f0 923d 0153 f53d
000000e0: c7bb 42bd 4c08 333c da20 74bc 3fcb 4c3e
000000f0: 7638 a6bd 68eb c93d 28ac 703d 4f78 e9bd
00000100: 67a5 c83d a893 65bc 9e03 ee3d 7b5d c2bb
00000110: 98d6 05bc 5fef 913d c5af 183c 68ff 26be
00000120: 8bf4 32be f9e3 10be 2550 4e3e a303 863d
00000130: f464 6fbd 7e5f c1bd 350f 843d 5d65 6a3b
00000140: 8d70 1a3e 339d 02be cb61 16be 33d5 08bc
00000150: 89c3 1b3c 3586 5abd 7454 3b3e 4848 d5bc
00000160: 92a3 c5bd c6d4 6abd 2572 6b3e 2ab0 01bc
00000170: 03fa fe3d cdf1 bdbd bacc c13c d283 abbc
00000180: 92b2 f93c 1448 c93d 32b8 193e ea4d aa3d
00000190: 91f1 ab3d 4f03 953c 295f ccbd 0d11 43bd
000001a0: 84e5 8b3e f0a8 46bd 771a 7c3e 243c 03bd
000001b0: a87c de3d e93c 233e c0c2 8c3d 0a69 523e
000001c0: 3b15 c43d 4339 203e 7cb0 933d a6e4 4abe
000001d0: b5ed 463e c76c 31bd a8a3 f53d 43c2 e7bd
-0.061847102 0.08024709 0.17478761 -0.09561979 -0.13981421 -0.15253912 0.024611292 0.060897414
0.048554573 -0.14144109 -0.13015124 -0.20069593 0.14462107 0.16893712 0.0062025124 -0.0603071
-0.033108674 0.06600993 0.038177308 0.112836815 0.23328586 0.15756895 0.13953893 -0.2053245
-0.106211245 0.05606039 0.10957879 0.12632 -0.061055854 0.0040780897 0.079531044 0.22408354
0.049240224 0.11058165 0.091268465 0.2583476 -0.08203516 0.21083471 0.06653896 0.1502342
-0.0029048917 -0.074837424 0.04761217 0.1591856 0.08737352 0.30731636 0.09526287 -0.08287352
0.016131839 -0.006038171 0.15510492 0.18481441 0.0004920461 0.15040226 0.07174855 0.11978722
-0.04754236 0.010927271 -0.014900411 0.19999407 -0.08116238 0.09859353 0.05875793 -0.113999
0.09797173 -0.014012255 0.11621784 -0.005931554 -0.008168839 0.071257345 0.0093192505 -0.16308367
-0.17476098 -0.14149465 0.2014776 0.065436624 -0.058445886 -0.09442042 0.06448213 0.0035765984
0.15081997 -0.12755279 -0.14685743 -0.008351612 0.009507068 -0.053350646 0.18293935 -0.026035443
-0.09650339 -0.057331823 0.22992761 -0.007915536 0.1245003 -0.092746355 0.023657192 -0.02093688
0.030480657 0.09828201 0.15011671 0.08315642 0.083956845 0.018190054 -0.09979088 -0.047623683
0.27323544 -0.048500955 0.2461947 -0.032039776 0.1086362 0.15941204 0.06873083 0.20547882
0.09574362 0.15646844 0.07211396 -0.19813785 0.19426616 -0.04331663 0.119941056 -0.11316349

lstm.bias_hh_l0 f4 [120]
00000000: 00bd b63d 76a6 8e3d 476c f03d 83bb a03d
00000010: d4e3 58bd c76f c53d 15e4 073e aac0 82bd
00000020: c841 febd c0b4 bf3d 7326 2ebe c274 67be
00000030: 3843 dfbd ede7 ba3d a32d ee3d 7455 8e3d
00000040: 1151 74bd d119 413e 0be3 ccbd 6646 61bc
00000050: e7b5 0c3e 349e dc3d 8684 b83d 9e5d 98bd
00000060: 6494 e83d d00d 06be 3799 d03d 9326 21bd
00000070: 686e b2bc e306 acbd 39a5 cdbc a806 c2bd
00000080: 5773 3bbd e6c9 5cbd 7e8e 9b3d 20c5 7a3d
00000090: 1b95 7b3e 58f1 973d 3292 773e ab7d 953e
000000a0: 674c 13be f53e 1cbd 5d03 223e 114f 173e
000000b0: 07e5 a6bc f008 b33e 8ece 423e 7c88 ae3c
000000c0: 6912 763b 6e11 8abd 2848 e4bd f7b4 cabd
000000d0: a7f7 063e 4268 f13d 126a 2c3e 1e5e 8d3d
000000e0: d00c 36bd 9ab1 18ba edc8 6abd c7bc 883d
000000f0: 0678 2dbe b2b3 d3bd d74c 04be 468f 6bbe
00000100: 10f6 b6bd 283a f03d 6879 ae3b c21a 2f3d
00000110: b230 013e ea5b 28bd 3bea b53c 830a 35be
00000120: d1d0 9dbd 3f2d ab3c d05a f4bd 2cec ccbd
00000130: f3a3 b23b 9efc 15bd 777d b53d 3e7b 843d
00000140: 6909 53bc adcd 1abd 9df1 3dbe 0212 683d
00000150: 61e9 393d dc6a fbbd fa54 20be 625a 283b
00000160: 2615 993d 16eb 363b 1d14 463e 04e3 acbd
00000170: e3c3 423e 92d5 ac3d 2993 d23d f2a6 93bd
00000180: 6edc 0ebe 136f 8b3e ea56 1f3e 6927 6b3e
00000190: 48a4 173e 59ff 3abd e342 bfbd a76f 7abc
000001a0: 4c3c 44bd 5324 5a3e 8fed 403e 040e 0d3e
000001b0: 35f3 2ebd b305 253e 80c0 e5bd 8e93 ac3d
000001c0: 7664 60bd 13cf 47bc 6119 333e f49d f83d
000001d0: 2b1d 833e 9c4f b33d c3b1 96bd 2175 643e
0.08922768 0.06965344 0.11739402 0.07848265 -0.05295165 0.096404605 0.132706 -0.06384404
-0.124148905 0.09360647 -0.17006855 -0.22603133 -0.10901493 0.091262676 0.11629798 0.06949893
-0.059647623 0.18857504 -0.100042425 -0.013749694 0.13741265 0.10772362 0.09009652 -0.07439731
0.11356428 -0.13091207 0.101854734 -0.039343428 -0.021781161 -0.08399751 -0.025103198 -0.09473926
-0.045764294 -0.053903483 0.075955376 0.06122315 0.24568598 0.074190795 0.24176863 0.2919744
-0.14384614 -0.038145978 0.15821595 0.14776255 -0.02037288 0.34967756 0.19024107 0.021305315
0.0037547594 -0.06741606 -0.11146575 -0.098977976 0.1318041 0.11787464 0.16837338 0.06902717
-0.044445813 -0.00058248045 -0.057320524 0.066766314 -0.16940317 -0.103370085 -0.12919937 -0.23003873
-0.089336514 0.117298424 0.0053245313 0.042750128 0.12616232 -0.04110328 0.022206416 -0.17679791
-0.07705844 0.020895598 -0.119313836 -0.10005984 0.005451673 -0.036617868 0.08861821 0.06468819
-0.0128806615 -0.037793804 -0.185492 0.0566578 0.045388583 -0.12276241 -0.15657416 0.0025688638
0.07474737 0.0027911118 0.1934361 -0.08441737 0.19020037 0.08439173 0.10281975 -0.07209577
-0.13951275 0.2723318 0.15560499 0.22964253 0.14808762 -0.045653675 -0.093389295 -0.015285409
-0.047909066 0.21302919 0.18840621 0.13774878 -0.04271241 0.16115455 -0.11218357 0.08426581
-0.054783307 -0.012195366 0.1749015 0.12139502 0.2560819 0.08755419 -0.07358124 0.22310306

lstm.weight_ih_l0_reverse f4 [120, 15]
00000000: d3c2 34be 5495 0f3e e073 5cbc c956 48be
00000010: 186c 6bbe e82f 413e 98cb 4e3e fb40 16be
00000020: 3265 13be d755 ac3d 4df5 7f3c 1091 3dbe
00000030: e04b 033e 40f9 11bd ba90 a4bd 87ab 153e
00000040: 47cc 9fbd c00f 0ebd 0c55 de3d 580b 58bd
00000050: ef6a 193a db56 463e e131 4abe b4ac e33d
00000060: db3c 443d e28d d53d 17e5 70be f17a 943d
00000070: 7f5f 22be 7d80 163d 87ff e03c d6dc 3abd
00000080: 25fe 223e fdf4 a6bd dd55 0abe 7dfb 14be
00000090: 0148 70bd 9d99 203b 95e9 88be 5e10 083d
000000a0: 341e 8eb9 1cf6 02bd 3018 db3d f6b3 81bd
000000b0: e7ac c9bd 9c72 fa3c 22dd 103e d66c 2d3e
000000c0: bb6d efbd 6ed3 37bc 9517 bd3d 771c 4cbe
000000d0: 24ef 4d3c 0b4a 31be dabc 883c 796c f73d
000000e0: b111 d2bd b672 a73d 27d9 49be 328e 96bd
000000f0: 9259 35bd 1944 8bbe 4e61 cb3c e2a8 2fbd
00000100: 35f8 b7bd cfab 34be 1cc8 903d df11 da3c
00000110: e07d 433e b781 cabd 0846 863e 7c0f 7fbd
00000120: a126 05be 8c19 c13d c612 89bc aa01 6e3e
00000130: a5e7 923d 4403 003e 5a9a c33d ed2d 1fbe
00000140: f3d8 283e 7095 09bd a58e 333d 2e97 45be
00000150: 11a5 f3bd dc3d edbd b043 8fbd 7237 1dbe
00000160: ed26 ce3d 08e4 323e be98 d1bd 3f0a a2bd
00000170: 4198 e6bd 35e9 13be 9825 a83d 02bc 52be
00000180: 3ebb d23c 3a94 b4bd 07b5 12bd 4087 fbbd
00000190: 4da6 123d 34ba 253e 88a0 013e 4a3e 6c3d
000001a0: 13bd 3b3e 072a 70bd 71a6 293d 27d1 7cbd
000001b0: bc10 de3d 9e57 14be 22df 693e 563a 6b39
000001c0: 4c1d f3bd 9185 483d 4d3b b4bb 38fa 23be
000001d0: 8072 0bbe 1b59 13bd 6013 43be a2cd bbbd
000001e0: fe26 ef3d 03a7 0cbe ff82 7a3d 0360 763e
000001f0: 45fa 613d 5740 213e 88ea 323e ca65 29bd
00000200: 5a70 afbc 39b1 cbbd a1b6 b9bb 3e8d 133e
00000210: 7f7a 0dbe beb2 953d 7176 ccbd 0c43 07be
00000220: 502b 15bd 8852 9a3e 4795 ad3c 545e 5cbd
00000230: e38f 01be 00c7 cebd aeda 03be b3cb 273b
00000240: 9890 a6bd e9a6 443e 527f 2b3e bbb1 ad3d
00000250: e5d4 d93b 2d8d e9bc 641f ef3d 0ad1 21be
00000260: f1c2 38be 3002 593c 760e 6bbc 3112 3a3d
00000270: 19c1 ab3c 9e24 713c 0c85 0e3e 742e 8abe
00000280: e2b8 063e 6afb e53b 03fa e43c e2e1 93bd
00000290: 4bcd bd3d 68fe 93bd 4f56 943d a809 e9bd
000002a0: a4eb 11be 77ce 0cbd 500e f33c c9a7 d43d
000002b0: c89a 103e d2f5 bd3d 78dc 3b3e b7c1 683d
000002c0: d890 58bd f4fa f13d b71c 49bd ffff a2bd
000002d0: 160a a0bd e7d4 a23d a5c7 75bd 516d 9ebe
000002e0: a4c9 9b3d 0cfd 62be d922 e1bd c59d fa3d
000002f0: aa38 e83d 09a6 1bbd ae09 23be 2abc 65bc
00000300: d2e3 0dbe 21da 143d 3767 d73d 86dd a23d
00000310: 1833 143e 7d72 793e f79e 04be 06f0 be3d
00000320: 07f1 033e 2f46 83bd 19ff febd b776 5cbd
00000330: 1f29 52bd bd48 d33d 543a f1bc bb48 fabc
00000340: 3cdc fd3c b739 51be e0c5 233e 2fdd 3abe
00000350: b7c4 0abe a5f3 793d 8b67 68bd cb35 6f3e
00000360: 505e 523d a918 103d af3c 1039 faa0 963d
00000370: e80f 1dbe 9268 cb3c 60f0 cebd 0d20 203e
00000380: 87dc 153e bda7 bd3d 6565 163d a839 373e
00000390: 7d87 a9bd 4744 53be 8b5a c03d b5c0 27bd
000003a0: 4f54 d23c e094 32be 4634 96bd 2db1 77be
000003b0: d840 0bbd a93b adbd 6698 783e c165 42bb
000003c0: 96cb bfbd d73f d53d 41f7 083e ef42 45bc
000003d0: 14c4 0bbe e0eb edbc 6446 a23c 8ec0 5b3e
000003e0: b114 d2bd 1894 313e 438e 2bbe 1917 7cbe
000003f0: a67b 03be 87c7 61be 9b91 07bd d444 53ba
-0.17652445 0.14021808 -0.013455361 -0.19564356 -0.22990453 0.18865931 0.20194852 -0.14673226
-0.14394072 0.0841481 0.015622449 -0.18512368 0.12821913 -0.035638094 -0.08035417 0.14616214
-0.07802635 -0.03468299 0.10856065 -0.052745193 0.0005852421 0.1936907 -0.1974559 0.11116925
0.0479096 0.104274526 -0.23524891 0.07250012 -0.15856741 0.03674363 0.027465595 -0.04562076
0.15917261 -0.081521966 -0.13509317 -0.1454906 -0.05866242 0.0024505623 -0.2674071 0.033218734
-0.00027106854 -0.03197299 0.10697973 -0.06333153 -0.09847432 0.030572228 0.14146855 0.16936049
-0.11690851 -0.011219842 0.092330135 -0.19932733 0.012569223 -0.17313401 0.016691614 0.120812364
-0.102572806 0.08176176 -0.19711743 -0.0735134 -0.044274874 -0.27200392 0.024826672 -0.04288567
-0.089828886 -0.17643665 0.07069418 0.02661985 0.19090986 -0.098880224 0.26225305 -0.062270626
-0.13003017 0.09428701 -0.016732585 0.23242822 0.07173089 0.12501246 0.095509246 -0.15544863
0.1648901 -0.03358978 0.04383721 -0.19295952 -0.11896718 -0.11584064 -0.06995332 -0.15353182
0.10066018 0.174698 -0.102342114 -0.079121105 -0.11259509 -0.1444443 0.082102954 -0.20579532
0.02572405 -0.088173345 -0.035817172 -0.12281656 0.035803128 0.16184312 0.12658894 0.05767659
0.18333845 -0.05863383 0.041418497 -0.0617229 0.108430356 -0.14486548 0.22839025 0.00022433078
-0.11870822 0.048955504 -0.0055002333 -0.1601342 -0.13617897 -0.03597365 -0.1905036 -0.09170081
0.11677359 -0.13735585 0.061160084 0.24060063 0.055170316 0.157472 0.17472279 -0.04135684
-0.021415878 -0.09945912 -0.005667523 0.14409348 -0.1381626 0.07309483 -0.099835284 -0.1320917
-0.03641826 0.3014109 0.021189345 -0.053800896 -0.12652545 -0.1009655 -0.12876388 0.0025603592
-0.08133048 0.19204296 0.16747788 0.08481165 0.0066476935 -0.0285097 0.11675909 -0.15802398
-0.18043114 0.01324515 -0.0143467095 0.045427505 0.0209661 0.014718203 0.13917941 -0.26988566
0.13156465 0.0070184963 0.027951246 -0.07220818 0.09267672 -0.072262585 0.072430246 -0.11378795
-0.14250046 -0.034376588 0.02966991 0.10383565 0.14121544 0.09275402 0.18345821 0.056825366
-0.05287251 0.11815444 -0.04909965 -0.07958984 -0.07814424 0.07950764 -0.06000485 -0.30942777
0.07606819 -0.22166842 -0.10992975 0.122371234 0.11338933 -0.03800014 -0.15921661 -0.014021913
-0.13856438 0.036340836 0.105177335 0.079524085 0.14472616 0.2436008 -0.12951265 0.093231246
0.12884913 -0.06409871 -0.12451 -0.053824153 -0.051308747 0.10316608 -0.029446758 -0.030552259
0.030988805 -0.20432173 0.15993452 -0.18248437 -0.13551603 0.061023373 -0.05673937 0.23360364
0.051359475 0.035179768 0.00013755517 0.073549226 -0.15338099 0.024830136 -0.10104442 0.15637226
0.14634906 0.09260509 0.03671779 0.17893088 -0.082777955 -0.20631514 0.0939227 -0.040955264
0.025674967 -0.17439604 -0.07334189 -0.24188681 -0.033997387 -0.08458645 0.24276885 -0.00296627
-0.09365003 0.10412567 0.1337557 -0.012039884 -0.13649017 -0.029043138 0.019808955 0.21460173
-0.10257853 0.1734165 -0.16753487 -0.24618186 -0.12840137 -0.2204877 -0.033097845 -0.00080592674

lstm.weight_hh_l0_reverse f4 [120, 30]
00000000: d9cb e9bd 9c28 183e 51c0 8abe 69aa d43d
00000010: c283 ff3d d148 9ebc e485 913d 5e31 a53c
00000020: ccd3 2cbe b6ff b5bc d980 6d3d d8f8 f4bd
00000030: 3c6e a83d 802d 213e 22b1 983d 3f6d 15be
00000040: 54e6 cb3d ad8b 10be a74a 063e 2ca1 79be
00000050: c634 673d d25f f73d 6efe 97bd 67bf 99bd
00000060: 53dd 863c 4fa6 02be 02f5 933d d7f7 89bd
00000070: b800 bbbd a5a1 df3d 06e9 213e 4397 bebd
00000080: cf6a c2bb 5c87 83be 9764 88bd 1d9a 9e3b
00000090: 7053 d83d 581f bdbd 0d59 00be 70e8 66be
000000a0: 6411 343e 4d3e 85be ff1b 383d bd43 dc3c
000000b0: a459 213e 6eaf 133e 9c3b 20be 381e 133e
000000c0: ba7c 35bd de61 03be 7ca5 a2be ba47 e9bd
000000d0: 48eb 39be 9fda 10be 0ff3 693e c6d6 94bd
000000e0: 5a35 f0bd 511a ccbd 24b9 2f3d 818c 0abe
000000f0: 7973 633e 7107 39be c813 85bd 50ae d9bc
00000100: ecc2 55be 3f3b 5f3e 02ab d93c 2721 e03d
00000110: 20b9 833c 3c02 fa3c c582 483e 7d09 283e
00000120: e988 6a3c 23a3 be3d f650 833d 6322 ac3d
00000130: 69a8 04be 85f8 263d 09be 043e 02a6 8dbb
00000140: 06c3 0c3e 8bac c93c aa8e 1abd ad41 4bbd
00000150: fa05 10be 87b3 563e 6d4b b93d 5110 d53d
00000160: 5a09 a63c 3f7b 14bd ea7c 15bd ade8 95bc
00000170: 5c8b 8fbd 8828 16ba 87df 15be d37d 8ebd
00000180: df4d 9e3d 7114 ce3d 2269 db3d 0b54 a63d
00000190: b513 2a3e f5e2 d2bd 69ef db3d 5d44 21bc
000001a0: a248 dabd ce6e 623e 750b 5c3d 43e8 143e
000001b0: daf2 4cbc a228 7e3d 04f8 9bbd 9998 723e
000001c0: 12df 20be 89b7 8dbd 14c2 73be 3c5f 883d
000001d0: 4dac 93bc 1190 7bbe f841 5cbe ed39 e43d
000001e0: 63e1 043e b5af ca3d e9f2 4d3e eae5 5cbe
000001f0: 16e3 fdbd cac8 a03d a750 c4bd 91c6 b43c
00000200: bfa1 b93d cb92 88be 06a7 c83d a48d 3abe
00000210: b781 d23b a454 0f3e 7107 83bd 91d9 7abe
00000220: a8a4 db3d 5868 80be 77c6 64bd 64d0 53be
00000230: 3a8a 5cbc cb85 463e 06e4 393d 331b 56be
00000240: 16d5 973e 9812 15be f0a3 adbd 72a3 09be
00000250: 21d7 ec3c 7fff 9a3d 431e 25be 04dd 5a3d
00000260: 32ce 1d3e 5c10 603d c7f4 883c b3ea 69bd
00000270: 77bf c23d 81df bfbd 32de 243e e00f b0bd
00000280: 05e6 bd3d 2fa1 0dbe 36c0 11be 3525 2f3e
00000290: 6072 3e3c c9ba 4dbe 771a 963d a716 fbbd
000002a0: e72c 4fbe f933 843e d88d 27be 584a 9c3d
000002b0: 91c7 6fbd 7f5b 25be 8bc1 023e d11a 29be
000002c0: 95f6 623e 8a8f 80be aa1a 133d 57e7 a0bc
000002d0: 08cf 3e3e 5085 aa3c 4005 a13d 4cc3 093d
000002e0: c248 d73c 2629 4e3d d412 8b3e 8ea2 343e
000002f0: 6768 873e 1704 8abe 3cb0 94be ff69 293e
00000300: f856 1ebc dcdd 07be 134a 7d3d 2f28 d3bd
00000310: f91d 62bd d738 15be d6d6 953d 198f 913d
00000320: 4a6e 16bc b118 103e 99fb 6a3e 1423 2fbe
00000330: 6194 00bd 0e7c 2e3d 4184 86bd 1df1 8c3d
00000340: bb23 183e 7c28 cdbd d515 ca3c c76b 233e
00000350: 2018 46be 90b6 79bd 3153 f0bd 66a9 c5be
00000360: bbfd b7bd 8217 0abe 4a55 01be 0886 103e
00000370: b361 243e b8a1 703c dd1f 6c3d 6bed 31be
00000380: b34f b3bc d696 0bbe 5ea1 653e 05bb 31bd
00000390: c504 e8bd d125 0fbc be2b 843e c347 733e
000003a0: beb1 923d 4484 1e3e 0b6e ac3d 5ca0 3e3e
000003b0: 08c3 7cbe 62a4 91bd 1381 5d3e 15ca febd
000003c0: 3c47 92bd b84e 95be bbd6 433d ccaa 623e
000003d0: 4255 a0bd e70b b6bd 5b88 c53d 1419 c4bd
000003e0: 092f e23c fce7 efbb 3aea f2ba e3a3 5fbd
000003f0: 2cf1 4abd 7b77 d63d 0924 08be 57a8 6cbb
-0.11415834 0.14859241 -0.2709985 0.10384066 0.12476303 -0.019321831 0.07105616 0.020165142
-0.16877669 -0.022216659 0.057984207 -0.11961526 0.082241505 0.15740013 0.074556604 -0.14592455
0.09956041 -0.14115782 0.13114415 -0.24377888 0.056446813 0.12078823 -0.074215755 -0.0750721
0.016462957 -0.12758754 0.07224466 -0.06736725 -0.091309965 0.10919503 0.15811548 -0.09306195
-0.0059331427 -0.25689209 -0.06659811 0.004840149 0.105627894 -0.09234494 -0.1253397 -0.22549605
0.17584759 -0.26024094 0.044948574 0.026887769 0.15756851 0.1442239 -0.15647739 0.14366996
-0.0443084 -0.12830302 -0.3176688 -0.11390634 -0.18156159 -0.14145897 0.22846626 -0.07267527
-0.11728926 -0.09965957 0.042901173 -0.1353016 0.22212018 -0.18069245 -0.064979136 -0.026572376
-0.20875138 0.21799944 0.0265708 0.10943823 0.016079485 0.030518644 0.19581135 0.1640987
0.0143148685 0.093084596 0.064119264 0.08404996 -0.12954868 0.04076435 0.12963118 -0.004322768
0.1374627 0.024618408 -0.03773371 -0.04962318 -0.1406478 0.20966922 0.090475895 0.10403503
0.020268131 -0.03625035 -0.03649608 -0.018299425 -0.070090026 -0.00057280855 -0.1463605 -0.06957593
0.077296965 0.10062493 0.10713412 0.08121499 0.1660908 -0.10297195 0.10739023 -0.009842959
-0.10658385 0.22112581 0.053721864 0.14541726 -0.012509072 0.06205047 -0.076156646 0.23691024
-0.15710095 -0.06919772 -0.23804504 0.066587895 -0.018026495 -0.24566676 -0.2150954 0.11143861
0.12976603 0.09896795 0.20112194 -0.2157208 -0.12396829 0.078507975 -0.09585696 0.02206734
0.09064054 -0.26674494 0.09797482 -0.18218094 0.0064241546 0.13997132 -0.06397904 -0.24497057
0.10724765 -0.25079608 -0.055853333 -0.20684963 -0.01346069 0.19386975 0.045383476 -0.20908813
0.2965476 -0.14557874 -0.08478534 -0.13441256 0.028911175 0.07568263 -0.16124825 0.053433433
0.15410689 0.0547031 0.016718281 -0.057108592 0.09509175 -0.09368802 0.16100386 -0.08596778
0.09272388 -0.13831018 -0.14233479 0.17104037 0.011623949 -0.20090784 0.073292665 -0.1226018
-0.20231973 0.25820902 -0.16362703 0.076313674 -0.05853993 -0.16148184 0.12769143 -0.16514136
0.22164376 -0.25109512 0.0359141 -0.019641561 0.18633664 0.020815521 0.078623295 0.033633515
0.02627981 0.05033221 0.27162802 0.17640135 0.2644684 -0.26956245 -0.29040706 0.1654434
-0.00966429 -0.13268226 0.06183822 -0.10310399 -0.055204365 -0.14572464 0.07316367 0.07107372
-0.009181568 0.14071919 0.2294754 -0.17103225 -0.031391505 0.042598777 -0.06568194 0.06881926
0.1485738 -0.100174874 0.024668613 0.15959083 -0.1934514 -0.06096512 -0.117346175 -0.38605803
-0.08983942 -0.1348553 -0.12630191 0.14113629 0.16052894 0.014686994 0.057647575 -0.17375724
-0.02188859 -0.13631758 0.22424838 -0.043391246 -0.11329035 -0.0087370435 0.25814623 0.23757844
0.07162808 0.15480143 0.084194265 0.1861586 -0.24683774 -0.07111432 0.21631269 -0.12440888
-0.07142493 -0.2916162 0.047812205 0.22135466 -0.07828762 -0.08888989 0.09645148 -0.09575096
0.027610319 -0.007321356 -0.001853294 -0.054599654 -0.049546406 0.10472008 -0.13294996 -0.003611108

lstm.bias_ih_l0_reverse f4 [120]
00000000: 8a00 bfbc dddc 853c 4778 513e d6fc 05bd
00000010: 0019 e03d 15b8 143e b037 12be daee 363e
00000020: 4c55 e6bd 450b bebb 2c5c 9c3c 8efd ad3d
00000030: 6189 e73d 0488 0a3e ee61 513d 82cb ba3c
00000040: a3ff 53bd 89cc fb3c ffc2 b73d 61de 393e
00000050: f352 1c3d c29d bf3d 3d1d 29be fd51 71bd
00000060: 768d 973d ee55 8bbd e909 d7bd 009c 053d
00000070: c230 47bb 2913 5cbc 2ca3 f03d 9685 3a3d
00000080: 2e9d d73d 0055 af3b fd91 2fbc 773c 12bd
00000090: c545 11bd 96e9 41bd 981f babd fa74 8f3e
000000a0: 4570 6bbc f44c 7ebe bf09 47bd 0378 c7b9
000000b0: 6621 233e 017c 28bd f6f5 5a3e b4cf 603c
000000c0: ab55 263d d4ff 063e bb36 a53d 3c07 c7bd
000000d0: 57ad 943d bc75 ad3d 2c8d d03d f711 68bd
000000e0: c2b2 243c ecb1 273c 71b6 453e eecf 5f3e
000000f0: ddd2 173e 7460 3d3d 9706 b53d 8c19 b03c
00000100: d7cb 5a3d 1aed 023e 54d4 bcbd 7ed8 0b3e
00000110: a268 183e f476 95bd 09fa 6f3d e9a4 183e
00000120: 1008 9b3d ac40 a13d 30a0 0b3d ccdb 9abd
00000130: 57fa 1ebb 32e8 ec3d 8eb3 7bbb b9ef 39be
00000140: 9032 a4bd 99bb b33d 7e7f ca3c e18c c13c
00000150: d37d a83c 8724 38be a6ed 46bd 11b8 a8bd
00000160: ae4c 083d 1c4b 3e3e 0853 11bd 8004 3f3e
00000170: d4e4 b2bd ed3a 0f3d 899a 82bb ab2b 2e3d
00000180: 021d 103e a92d 0f3e 5430 16be 02ab e1bd
00000190: 0a5d 8f3e 548c 24be 8928 403e 66f9 0dbc
000001a0: b02a 353e 749a 3cbd c615 ae3d c51c 833d
000001b0: 5bab c63d 760d 0ebd 3306 073e cd09 78bb
000001c0: 1e3b 213e 9e14 9d3d ed39 1f3e aff3 123e
000001d0: 84d3 233d 13c4 763d 5831 fc3d 075b d938
-0.023315687 0.016340667 0.20456038 -0.032711826 0.10942268 0.14523347 -0.14279056 0.17864552
-0.11246738 -0.0057996833 0.01908692 0.08495627 0.113055 0.13528448 0.051118784 0.022802118
-0.051757466 0.030737178 0.089727394 0.18151237 0.038165044 0.09356262 -0.1651506 -0.05891608
0.074000284 -0.06803499 -0.10499937 0.032619476 -0.0030394052 -0.0134323025 0.117498726 0.045537554
0.105280265 0.005350709 -0.010715959 -0.035702195 -0.035466928 -0.047341906 -0.09088057 0.28018934
-0.014370029 -0.24834043 -0.04859328 -0.00038045653 0.15930709 -0.041133884 0.21382889 0.013721395
0.040609043 0.13183528 0.0806708 -0.09718177 0.072596245 0.08469722 0.101831764 -0.056657758
0.010052385 0.010235291 0.19307877 0.21856663 0.14826532 0.046234563 0.088391475 0.021496557
0.053417053 0.1278576 -0.09220186 0.13656804 0.14883664 -0.07298079 0.05858806 0.14906658
0.07569897 0.07873663 0.034088314 -0.07561454 -0.00242581 0.11567725 -0.0038406583 -0.18157853
-0.080174565 0.08776016 0.024718996 0.023626747 0.02056781 -0.17982684 -0.048566483 -0.08238233
0.033276252 0.1858334 -0.035479575 0.1865406 -0.08735052 0.034968305 -0.003985707 0.042522114
0.14073566 0.13982262 -0.14666873 -0.11018945 0.2800067 -0.16069156 0.18765463 -0.008665418
0.17692065 -0.046045735 0.08500247 0.06401972 0.09700652 -0.034680806 0.13185959 -0.0037847639
0.15745208 0.07669948 0.1554944 0.1435077 0.03999664 0.060245585 0.12314099 0.000103643215

lstm.bias_hh_l0_reverse f4 [120]
00000000: ea35 cc3d 0e7a 533d 4eaa af3d 3407 b63d
00000010: daa2 153d 1a1b 503e f1e4 03bd c2b2 bebd
00000020: 1402 223d 6455 3b3e 89e6 583e 0611 c7bd
00000030: 40a8 373e 2552 50be 00ca abbd cb20 82bd
00000040: 695d ffbd 1c0d 09be ecec 263d 8ede 83bc
00000050: a6ae 303e 395d 05bd cf0d 943d 70c3 003e
00000060: e226 57bd 3342 14be 1cd2 c03c 94ae 3e3d
00000070: 90c8 28be 01ec c83d 7da4 51bd 6e31 693e
00000080: 48a0 243e cd37 1bbe c642 1c3e 374c d5bd
00000090: 6706 e13b 7ec1 0f3e b605 213e fc58 833e
000000a0: 85f2 3e3e fb19 26bd 616b 893d b16d 99bd
000000b0: bd35 78bd 4ba0 f5bb 6e64 523c 4758 4a3e
000000c0: 7d22 6a3e b386 843e ba7e e53d a1c4 223e
000000d0: feaf a1bb 3bd9 d73c 10a5 783e f090 edbc
000000e0: 7111 2e3e 2a71 743e 7347 093e 2f1b f33d
000000f0: cc62 bdbd 9f69 61bd 42d8 c83d a789 32be
00000100: 7246 9a3d 0b19 4ebd e655 5dbd 8f3b 8c3d
00000110: 34a5 18be 84c1 73be 2ff8 ddbc af1f c7bd
00000120: f457 3cbe d83d 343d dde2 87bd 4a2c 0f3d
00000130: f284 81bd b2b2 2d3c 6779 023e 06a9 49bd
00000140: 7847 eb3c f19f 9bbd 4c22 6f3d eb8c 0dbe
00000150: 8c5e 12bd 5f5d 433d af18 d3bd b6a0 e4bd
00000160: 0dbb 00be 2c4a f53d f455 d3bc fbb5 cbbc
00000170: 0044 7e3d 9acb 153e 326a 8fbd c391 9b3d
00000180: 0eb6 2d3e df00 56be ef30 9f3d 8cec 803d
00000190: 59f2 24bc e118 f4bd f422 753e 6427 0dbe
000001a0: 5ae6 31be 306c 6d3c 0aca 5b3e dcfb 0f3e
000001b0: 9ed2 26bd a021 c63d f725 533e fb6e 3d3e
000001c0: bef3 e8bd 4b74 cbbd c80b d13d 20ea d43d
000001d0: a3d0 fb3d 5ede 623d 97a0 4a3e db44 413d
0.09971221 0.051630072 0.08577405 0.08888093 0.03653226 0.20322838 -0.032200757 -0.09311439
0.039552763 0.18294293 0.21181692 -0.09720044 0.17935276 -0.20343836 -0.08388138 -0.06353911
-0.124689884 -0.13383907 0.04075329 -0.016097333 0.17254123 -0.032559607 0.07229196 0.12574553
-0.052527316 -0.14478378 0.023537688 0.04655321 -0.16482759 0.09810639 -0.05118226 0.22772762
0.16076767 -0.15158005 0.15259847 -0.104149275 0.0068672183 0.14038655 0.15724835 0.25653827
0.18647201 -0.04055212 0.06709934 -0.07491625 -0.060598124 -0.007495915 0.012841327 0.19760238
0.22864719 0.25884017 0.11205812 0.1589532 -0.00493431 0.0263487 0.24281716 -0.028999776
0.16998841 0.23871294 0.13406162 0.11870419 -0.0924736 -0.05503237 0.09806873 -0.17435323
0.075329676 -0.05031685 -0.054036997 0.068472974 -0.1490677 -0.23804289 -0.027095882 -0.0972284
-0.18392926 0.04400429 -0.066350676 0.034954347 -0.063241854 0.010601686 0.12741624 -0.04923346
0.028720602 -0.07598866 0.058382317 -0.13823287 -0.0357347 0.047696467 -0.103074424 -0.11163466
-0.12571354 0.11977038 -0.025797822 -0.024867048 0.06207657 0.14628449 -0.07002677 0.07596161
0.1696398 -0.2089877 0.07773005 0.06295118 -0.010067546 -0.11918808 0.23939115 -0.13784558
-0.17373028 0.014491126 0.2146379 0.1406092 -0.040728204 0.09674382 0.20619951 0.18499367
-0.11374615 -0.099342905 0.10207325 0.10396218 0.12295654 0.055387847 0.19787823 0.047184806

lstm.weight_ih_l1 f4 [120, 60]
00000000: 1f1b 823c 3469 a2bd 756e 103c 3979 23be
00000010: ec11 cbbd 1d66 4dbd a51d 0abe d975 a2bb
00000020: b2dc 273e ce44 483d 4a03 273e 4b10 10bd
00000030: c384 bb3d c61c 3abe 2f55 b7bd a024 153d
00000040: 46de 10be aae7 293e 4a9d 683e 9eef 52bd
00000050: 59a4 28be 5bba 16bc c20a 9dbd 0a9a 76bd
00000060: 6645 53bd 50b1 3f3d cd6a 07be 6ac8 c03d
00000070: ebf2 09be ebb8 073e 99d7 c03d 22f8 dc3d
00000080: e1ef a23d a1a1 dbbd 3064 64bd 5af8 5fbd
00000090: f714 dfbd adb2 693b 28f4 fd3d 35c5 c2bd
000000a0: 7af6 e3bd 3a81 253e ac23 f23d d6e1 12be
000000b0: 90bc 3a3e c6bb 8dbc d493 8bbd fb90 c0bc
000000c0: d6b8 4a3e ae38 083e fb71 acbd 4376 393c
000000d0: 367a 84bd e05e a4b9 e0f9 bebc e996 063e
000000e0: 78df 8a3d c697 1dbe c16b 9d3d 80bb bf3d
000000f0: db85 ea3d 63fe db3d 6795 183e c24e e13c
00000100: 03e8 5bbe 82a9 543a 6991 dc3d 66eb 4a3e
00000110: 6437 0b3c c95d 67bd 7ffb b33d c7df b83d
00000120: 6aa9 543e fd66 96bc bcf7 183e e082 cf3c
00000130: d8d1 15be d55a 303e e67e cc3d fefd 293e
00000140: 5e41 d93c 1755 10be 41ac dd3b acf3 17bd
00000150: a6b1 01bd 19b2 d33b 660f 263e a3f2 97bd
00000160: faf0 da3b 32cb 22be a571 7bbb 1449 c03b
00000170: 196b a2bd e6c8 cb3d ecfb 733d 2bf8 17be
00000180: ae1e 47bd 4f88 a93d c142 a7bd 1bfc 32be
00000190: 62e1 37be 4e9d 4b3d aa93 113d 570a f53d
000001a0: e9cb 323d ba6d d2bd 96e3 30be 2fda 8abd
000001b0: f57b 95bd 5770 88bd 7f13 8139 9047 08be
000001c0: 8637 11be b0d2 af3c 5eae b23a 2612 50be
000001d0: fd3e 193e 5fa8 61bc 8bd0 333e c48b d23d
000001e0: b682 22bc 7c4a e8bd 3a85 663d 23a5 d6bd
000001f0: a523 febd cb30 cfbc 42e5 2b3e 8bf4 0ebe
00000200: 6e51 af3d fc8c d73d 493c 0c3d 13bf b4bd
00000210: 20a7 97bd 5721 25bd 11ce aabd 28a0 3cbd
00000220: 8720 ae3d 2752 bb3b 3e98 2c3e 2ca9 98bc
00000230: e909 cf3d 758e 213e 9128 c7bd ad19 86bd
00000240: 7905 da3d d585 793d c8f7 593e 27d2 5cbd
00000250: 599f 03be 6b6d e73d 461a 39bd b9d4 f73d
00000260: 7fad 86bd 15f2 54bc 62b2 8a3d 0d0a d53d
00000270: f399 d2bb 2872 6bbd 01bc eebd be19 fe3d
00000280: af11 80bd d977 22be f176 0fbe 133a 703d
00000290: 970f bd3c 369b 7ebd 8f44 453d 0c14 36bd
000002a0: ec55 123e 5fdf 653e f981 a53c ae90 943d
000002b0: 971a 8dbd a838 8fbe 7f32 54bd cd3f 563d
000002c0: 91bf 70bd 33f1 f0bd e678 19bd 7ebd 20bd
000002d0: bd26 f03d ca22 743d d8b4 f5bd b5c5 23be
000002e0: 7905 ac3c e1c3 283e e8a8 0abe 633b afbc
000002f0: e4d4 cf3d ecf6 7c3c 8b18 a2bd 179a 51be
00000300: 1746 f5bc 2862 07be a32c 7abc 5703 2cbe
00000310: d2be fe3d a837 003e 1268 b13c 5151 62bd
00000320: bfbd 243d 5af0 263e 2636 dfbd e244 803d
00000330: 263e 0e3d 3ba9 e23d d4da a3bd 03fe b33d
00000340: 626b b03c 47db 17be 53f4 f2bd 17e7 103e
00000350: e7f0 9e3d 86cb 893e 32a3 df3d 4c4c 6b3c
00000360: 0a62 f53d 72a5 203e e743 b23c 8119 ee3d
00000370: 2a13 aabd e55f 70bc a6e9 223e 8393 eebd
00000380: 714c 0ebe f8f7 f93d bdb7 19bd 3d1b e83c
00000390: 13da 613e 5c21 b53d 93c5 d5bd 7a12 513d
000003a0: e3be fabd 0595 bcbc f568 c1bd c6f9 f13c
000003b0: 2da9 053e 1889 1d3e 8167 3c3e be18 3a3d
000003c0: ffed 413d 937e f9bc 536f 2fbc 46e0 51be
000003d0: a491 65be 1d01 313e ee86 4b3e e224 323d
000003e0: fad7 5dbd 6770 bbbd 8e6e 1fbe 26ba df3d
000003f0: c4e8 8e3d 0ecf 0e3b 3e5f 643d d4cd 133e
0.015882073 -0.07930222 0.0088153975 -0.15964212 -0.09915528 -0.05014621 -0.13487871 -0.004957896
0.16392782 0.048893742 0.16309848 -0.03517179 0.09156182 -0.18175039 -0.08951794 0.03641188
-0.1414729 0.16592279 0.22716251 -0.051498048 -0.16468944 -0.009199704 -0.076680675 -0.060205497
-0.051579855 0.046799958 -0.13224335 0.09413226 -0.13471572 0.13254134 0.09416122 0.10789515
0.079559095 -0.10724188 -0.05575961 -0.054680206 -0.108926706 0.0035659478 0.12400085 -0.095102705
-0.11130996 0.16162577 0.1182321 -0.14343962 0.18235993 -0.017301451 -0.06815305 -0.023506632
0.19797072 0.13302872 -0.084201775 0.0113197 -0.064686224 -0.00031351205 -0.023312509 0.13143505
0.067809045 -0.15389928 0.07686568 0.09361935 0.11451312 0.1074188 0.14900742 0.027503375
-0.21475224 0.0008112417 0.10769922 0.1981636 0.008497093 -0.056485925 0.087882034 0.09027057
0.20767751 -0.018359656 0.14938253 0.02533096 -0.1463083 0.1722215 0.099851415 0.16600797
0.026520427 -0.14094959 0.006764919 -0.037097618 -0.03166356 0.00646044 0.16216812 -0.07419326
0.0066815587 -0.15897825 -0.0038367298 0.0058680866 -0.079305835 0.09950428 0.059566423 -0.14840762
-0.048613243 0.08277952 -0.08167029 -0.17478983 -0.1795707 0.049710564 0.035541214 0.11964863
0.043651495 -0.10274835 -0.17274317 -0.067798965 -0.072990336 -0.06662052 0.00024619323 -0.13308549
-0.14181337 0.021462768 0.0013632288 -0.20319423 0.14965434 -0.013773053 0.17560022 0.102805644
-0.009918859 -0.11342332 0.0562794 -0.10480716 -0.124091424 -0.025291821 0.16786674 -0.13960473
0.08560453 0.105249375 0.03423718 -0.08825507 -0.074049234 -0.040315 -0.08340085 -0.046051174
0.08502298 0.0057165804 0.16854951 -0.018635355 0.10109312 0.15777 -0.09724534 -0.06547866
0.10645575 0.060918648 0.21285927 -0.053911354 -0.12853755 0.11300167 -0.045191072 0.121011205
-0.065760605 -0.01299717 0.06772305 0.10402308 -0.0064270436 -0.057481915 -0.11656953 0.12407254
-0.06253373 -0.15866031 -0.14010216 0.058649134 0.023078723 -0.06215974 0.048161086 -0.044452712
0.14290589 0.2244849 0.020203577 0.07254158 -0.06889837 -0.27972913 -0.05180597 0.05230694
-0.058776442 -0.11764755 -0.037468813 -0.039243214 0.11726139 0.05960349 -0.11997384 -0.15993388
0.020998703 0.16480972 -0.13540995 -0.021390622 0.101480275 0.01543973 -0.079148374 -0.20468937
-0.029940648 -0.13221037 -0.015269431 -0.16798149 0.1243874 0.12521231 0.02165607 -0.05525333
0.04022002 0.16302624 -0.10899 0.06263138 0.034727238 0.110674344 -0.080007225 0.08788683
0.02153558 -0.14829741 -0.118630074 0.14150654 0.07760792 0.2691309 0.10919799 0.014361452
0.1198159 0.15688112 0.021760894 0.11625958 -0.083044365 -0.014671301 0.15909442 -0.116492294
-0.13896348 0.122054994 -0.037528742 0.0283333 0.22055845 0.088442534 -0.10438075 0.05104301
-0.1224344 -0.023020277 -0.09443847 0.029538047 0.13052817 0.15384328 0.18398859 0.045433752
0.04734611 -0.030455863 -0.010707694 -0.2049571 -0.22418839 0.17285581 0.1987569 0.043492205
-0.05416105 -0.091522984 -0.15569517 0.10924177 0.0697799 0.0021790895 0.055754893 0.14433986

lstm.weight_hh_l1 f4 [120, 30]
00000000: 0b07 febd 577e 29be 5d1a 0ebd 9f8b 853c
00000010: ffcb 3c3d fc7d 373e e645 953d acac 593e
00000020: c20a cc3d 4a2c b9bd b7f8 873e bd98 dbbd
00000030: 6683 843b d670 dabd 820b e1bd 7196 7c3d
00000040: 0594 f0bd ddb0 20be 51a4 82bd 5c88 813d
00000050: 17c3 0dbe 91ba 02be 5d45 d13d 48c2 e33d
00000060: 5ed2 70be 1a9e 553e 862f c3bd 97a6 ca3d
00000070: 467c fd3d f229 ac3d 39d0 8bbc 88b5 60bd
00000080: a5a1 ed3d d005 40bc c072 16be 4291 373d
00000090: 3b26 893d a3ae 78bd 4841 3cbc cedd 513c
000000a0: 769b 353e ea30 543e d708 fcbc 8825 ec3d
000000b0: 3156 e3bc 9189 b53d 846e 64bd bb7d c7bd
000000c0: cd23 bd3d 03d4 703d 63df 21be 3a82 0abe
000000d0: 94f9 5fbe 2420 ff3d e6be 9fbd 1d5d 723d
000000e0: 6042 09be 6e20 52bd c6dc 9cbd 56a4 023e
000000f0: 636e 963d 8b19 d63c bb49 10be 820e 243e
00000100: 8e79 213d 0afd 16be 21b2 153c 4853 013a
00000110: 391a f33d 7661 28be b285 903d 956d 803e
00000120: b6e1 b4bd 2f1d 383e 9bce 90bd 39c8 96bc
00000130: 04dc c43d c327 3cbe 8d29 87bd c7ef 0fbe
00000140: 003d 363e 2816 3abc 0bde e1bd 9241 90bd
00000150: 0ad7 103e f935 45be 7a86 15be e6e2 e2bd
00000160: 800b a23d 15b4 2e3e 8dbe 693c 0879 493e
00000170: 2a31 a03c 02f3 1fbe 839f f33d 8f41 7fbd
00000180: 92eb b2bc 8110 183e 67e4 fb3d 6a1f cc3a
00000190: c2c7 093c 0616 3a3e 1fd9 4a3e 2af6 803d
000001a0: 2d00 0abe 92d5 4f3c 7fcf 463d 6206 aa3d
000001b0: 0f0c a53d 1929 283e 1e10 b13d d7d8 313e
000001c0: 04a8 babd c7e9 653e 0792 9f3d c5e7 5f3d
000001d0: 5a2d b2ba b4f6 0ebe b4d4 79be d1e1 13bd
000001e0: 69ab 98bd 842c 073e b9a4 623e 3e9c fe3c
000001f0: 415b a93d 5d33 cb3d 3ca5 f73a 789e ea3c
00000200: aa0d 0abd dc8f 2dbc c7a8 39be 7310 28be
00000210: 8e90 1cbd 6ef5 2bbe 3e8a 6abb 223a 8c3e
00000220: 75e7 7c3d 0048 253e 48c7 8ebd a653 5f3e
00000230: b5d5 79bc b73a 13be 9d37 833d ee91 243e
00000240: 3a98 aa3c f042 463e 0d18 06be cbb0 833c
00000250: 9d4b 10be c5b2 d53d 8618 1b3d dfdd 07be
00000260: 9680 ce3d a76b d9bd 5a81 59be af72 153d
00000270: 8e1a cf3d 57d1 8fbc 1b1a d7bd 97c4 b73d
00000280: 32bc 1ebd 2f58 e2bd c5bc 343e 823b 6fbd
00000290: 39d0 06bc c9b5 57bc aa6f 563e 969b 3ebd
000002a0: cdc9 123e 1aac b6bd 8621 9fbd ef2e c23d
000002b0: 624e 2bbe a92e b73d 9865 eebc 3d65 433e
000002c0: 4aca 3dbd 6066 07be 553b af3d 90f5 2ebd
000002d0: 6655 e8bd 9a1e 143d ffd8 5bbe 3459 86be
000002e0: 3350 8ebb ae8f 57be a6ba a4bd b729 dfbc
000002f0: fe4b b63d 4159 2c3e 4085 743d 721a 2a3c
00000300: 7d78 c73c d79b b6bd b2d5 f2bd 194c 003e
00000310: e782 b43d 0470 0f3e 2ba6 af3d 556d 8ebd
00000320: 5cd2 b73c 7e51 3bbe 7ab4 93bd 1f53 813e
00000330: 5aa1 e7bd de25 053b 5148 e43c 293c 8539
00000340: 65cd a1bd 5091 943c d4fd 153e ba39 a53d
00000350: 8010 703e bfd0 713d bf45 ff3d e47c 5c3e
00000360: c3da 46be dd69 3a3e 85d1 153e b863 28be
00000370: bdf8 90bb f95a eb3d 4122 973b 43d9 bdbd
00000380: 2b8a 3e3e e586 b53d c942 133e d05a 71bb
00000390: 47be a5ba f4a0 463d 8a24 ec3d 7a6f 46be
000003a0: db8c 34bb 9426 0fbd 1671 92bd d686 c63c
000003b0: d3a9 eebd ee9a abbd d3a9 3c3e 649a a3bd
000003c0: f492 823d 8329 13be 3b9e d53d 670f b5bd
000003d0: e43d 15bd 607d fa3c af1f 2a3e d6d5 733e
000003e0: d04b 79bc 9930 1abd 306d 1e3d 9857 5fbc
000003f0: fc0e b1bc 0b72 4abe a94d 893d 47ac 39be
-0.12403687 -0.16552101 -0.03469311 0.016301928 0.046092983 0.17919153 0.07288723 0.21257275
0.099629894 -0.090416506 0.26556942 -0.10722492 0.004043984 -0.10666053 -0.10988523 0.06166691
-0.117469825 -0.15692468 -0.06378997 0.063248366 -0.13843952 -0.12766482 0.10218308 0.111210406
-0.23517749 0.20861092 -0.09530549 0.09895056 0.12377219 0.08406438 -0.017067062 -0.05486062
0.11603097 -0.011720136 -0.14692211 0.044816263 0.06696745 -0.06071342 -0.011490174 0.01280923
0.17735085 0.20721784 -0.030765934 0.11530596 -0.02775106 0.08864129 -0.05576946 -0.09740778
0.09235344 0.05879594 -0.15807872 -0.1352624 -0.2187255 0.12457302 -0.07800083 0.05917083
-0.13404226 -0.05130046 -0.07659297 0.12758002 0.07345273 0.026135227 -0.14090626 0.1602116
0.039422564 -0.14744964 0.0091367075 0.00049333693 0.11870236 -0.16443428 0.0705675 0.25083604
-0.088321134 0.17979883 -0.07070657 -0.01840602 0.09612277 -0.18374543 -0.06599722 -0.14056312
0.17796707 -0.0113578215 -0.110286795 -0.070437565 0.14144531 -0.1925887 -0.1460208 -0.11078434
0.0791235 0.17060883 0.014266622 0.19675076 0.019554693 -0.15620044 0.11895659 -0.06231838
-0.021840844 0.14850046 0.12299424 0.0015573327 0.008409442 0.18172464 0.19809388 0.06296952
-0.1347663 0.0126851965 0.048537727 0.08301999 0.080589406 0.16421928 0.08645652 0.17367874
-0.09114078 0.2245246 0.077915244 0.054664392 -0.0013593838 -0.13961297 -0.24397546 -0.036104027
-0.07454569 0.13200575 0.22133149 0.031080361 0.082693584 0.09921906 0.0018893848 0.028640017
-0.033704437 -0.010593381 -0.1813079 -0.16412525 -0.038223796 -0.16792843 -0.0035787965 0.27388102
0.061744172 0.16140747 -0.06971604 0.21809253 -0.015248706 -0.14377867 0.06407092 0.16071293
0.02082454 0.19361472 -0.13095112 0.016075512 -0.14091344 0.10434488 0.037865184 -0.13268231
0.100831196 -0.10616236 -0.2124075 0.036486324 0.10112487 -0.017555876 -0.10503026 0.089730434
-0.038753696 -0.11051976 0.17650135 -0.05840636 -0.008228355 -0.0131659 0.20941034 -0.046535097
0.14334793 -0.089195445 -0.07770066 0.09481608 -0.1672912 0.089444466 -0.029101178 0.19081588
-0.046335496 -0.13222647 0.085562386 -0.042714655 -0.113444135 0.036161996 -0.21469496 -0.26239932
-0.0043430566 -0.21050903 -0.08043413 -0.02724157 0.08901213 0.16830923 0.05969739 0.010382282
0.024349445 -0.08916443 -0.118571654 0.12529029 0.0881403 0.14007574 0.08576616 -0.06954447
0.022439174 -0.18292806 -0.072121575 0.2525873 -0.11310072 0.002031676 0.027866514 0.0002541256
-0.07900504 0.018135697 0.14647609 0.08067651 0.23443794 0.059036966 0.12464475 0.21532017
-0.19419388 0.18204446 0.14630707 -0.1644429 -0.004424183 0.11491961 0.0046122377 -0.09269955
0.18607394 0.0886362 0.14380945 -0.003682781 -0.0012645208 0.04849334 0.11530407 -0.19378462
-0.0027549777 -0.0349489 -0.07150476 0.024234217 -0.11653485 -0.0837916 0.18424158 -0.07988432
0.06375685 -0.14371304 0.10430571 -0.088408284 -0.036435977 0.030577362 0.16613649 0.2381204
-0.015215829 -0.037644003 0.038678348 -0.013631724 -0.02161359 -0.19770066 0.067042656 -0.18132125
